examples/drone/logs/drone-racing/model_5100.pt (torch, 474978 bytes, 36 tensors)

std f4 [4]
00000000: 6e1a e93d f966 1b3e 1a0f 933c 3c08 8a3d
0.11381994 0.15176 0.017951537 0.06739852

actor.0.weight f4 [128, 17]
00000000: 5f53 1f40 ceab 843f 3356 27c1 0e3e a83e
00000010: 2a4d 57bf 4be3 ac3f 6c36 0a3f 6e2c c13e
00000020: 6f09 43bb a3e6 1e3f a5a0 a8bd fafb 43bb
00000030: 6516 f13d fe08 f4bc b341 8d3c 9f5e a6bc
00000040: d419 5d3d 23ca 103f f686 01bf 2205 dd3f
00000050: 11bf cdbe c445 6bbf 3085 06bf 32c4 dc3c
00000060: d1ee 783e 44b5 9d3d 8a70 01be 3d33 513d
00000070: 1865 a2bd 3d59 2fbe b74b 833e 4f21 8d3e
00000080: 7ad8 363e 0803 b53d a601 abbf cd01 b1be
00000090: cf1d 643e ed63 073f 4293 bfbf 3cc5 0e3f
000000a0: 8fd3 31bf e159 46bf 1d80 82bf dff5 3c3f
000000b0: 294d a3be b4f0 223f 0e78 9e3e 5c09 56bb
000000c0: f457 a6ba 2751 65bd 1bde e93b f735 2cbf
000000d0: 63e1 7a3f 88e5 9c3f 129d 703e 620a d7be
000000e0: ad76 9e3e 03d1 00bf 1e00 bb3e 1325 f23d
000000f0: bbc5 c2bd 9389 2abd b2bf 0b3d a57f ddbd
00000100: 7c58 0e3e d48f ddbd 74b4 26bc fa3b 963d
00000110: 85ec 763e 7a9e 6bbe d71e 913e e157 d8be
00000120: 6f53 00be 0d1a e6bd 2bd5 413d c11a 363d
00000130: 4dd6 0d3d e2aa 5bbd 8939 1e3c 93c2 a5bc
00000140: e559 aabd ca31 023e a478 be3d 98a8 57be
00000150: fd82 67be 1d96 8d3e 4e40 3bbf a38e 0940
00000160: 9c1e a93d 5c89 a7bf 8e8c fdbe 45ae 5cbe
00000170: a456 bc3e e994 ee3d 15de 5bbe a306 793e
00000180: 8692 f93e 358a 8dbe 7352 3cbe f0f4 74bd
00000190: 4663 60bc fc85 7abd 04a5 18c0 bdd4 50be
000001a0: 976f 76c0 7370 833e 44df c0bf fd68 12bc
000001b0: 6d13 2abd 4bd3 9b3e b0ed a03e 8f0c 193f
000001c0: f86e e2bc 8b7b d83e 0433 94be f59d d5bc
000001d0: e543 933c 12df d2bd 4623 2bbe cc04 2dbd
000001e0: 51e9 b93e 14cb 7740 c97b 6bbd c853 523d
000001f0: 3e84 903e 74f9 10bf ec38 e83e 022c 80bc
00000200: 3ad2 ddbe 2b6d 843e 14f8 d23e c591 a1be
00000210: a42c afbd 821f 7cbd fc6c 823d e9c8 593d
00000220: 0c93 023e b5a0 bbbd 7171 c5be 5898 b2bc
00000230: cf03 5abd e789 97bd b175 ffbb db32 a2bb
00000240: cca0 91bd 5488 8d3c dac5 483d eb66 ce3c
00000250: 0cb2 d7bc 93de 723e ee33 78be 4b07 bfbd
00000260: 1a05 ba3e 4760 8a3f bf25 97bf ce8d f1bf
00000270: 61f0 0dbd 16e5 36bc b7a2 dc3f 3b9a 2640
00000280: 4549 3c3f 8e3c b13e fb21 543f eed8 ac3d
00000290: 5156 90be 836d 32be 026a 6cbd 6b11 bbbc
000002a0: a014 d1bd cbf6 50be 4288 4d3e 9d6b 09be
000002b0: b9b4 9e3e fd7a 00bf 7071 b2bd da38 703d
000002c0: e0d0 dab9 eafa 3fbc 8750 883d e58c 81bd
000002d0: 8132 4039 064b 65bd 6372 0cbd f2da c7bd
000002e0: 79b6 1dbd 8c8d 00be 5a0c 0dbe 0b8d 2bbd
000002f0: 0845 a53f 25e5 8abf aaa4 0e3f efb6 51bf
00000300: 379e 3c3f 5915 ab3d 15e3 093f b2b1 96be
00000310: 8128 94bf 6cdc d4be 8e57 843e 4c41 d33e
00000320: c7ed 9f3c b3ce 883d 8941 adbc 9bcb d2bd
00000330: c3d6 1e3f 20db c8bd a193 57c0 8648 953b
00000340: 067f 663e 189d f23f 47d5 3c3e 9444 623f
00000350: 0a20 cb3e 98f5 933f da4f c6be a2ee 923f
00000360: 5321 583e 0b81 2a3e 02a7 7f3d 9934 52bc
00000370: e6cf 533e 675c bd3d 68d2 b63c 6da4 b73e
00000380: e32e dbbe b8c8 9dbe 7a93 1a3f 8c6a 213c
00000390: 8029 763e 67c9 423d 5d35 f3bc 996b b7bd
000003a0: 3265 03be 25f0 3cbe e6d4 3e3d 7386 82bd
000003b0: 36f8 fa3d 3e2e 5dbd e045 0e3f 60a3 18bf
000003c0: 0544 653f 1d5b a3be d6e2 97bf cfe6 2cbf
000003d0: e6d3 ddbd 8865 a93e e2ed 053e 8783 88be
000003e0: 9754 083e 9ce1 3f3d e911 f2bd 03e5 273e
000003f0: 4ffb 303e 79b5 773e 4eec 883b 1128 7a3f
2.4894636 1.0364931 -10.458545 0.32859844 -0.8410212 1.3506864 0.5398929 0.3772921
-0.0029760262 0.62070674 -0.082337655 -0.0029904828 0.117718495 -0.029789444 0.017243242 -0.02030879
0.05397971 0.56558436 -0.5059656 1.7267191 -0.40184835 -0.9190333 -0.5254698 0.026949022
0.24309851 0.07700589 -0.12640586 0.051074255 -0.07929438 -0.17123885 0.25643703 0.27564475
0.17856017 0.08838469 -1.3359878 -0.34571686 0.22276996 0.5288685 -1.4966815 0.55769706
-0.6946344 -0.77480894 -1.0195347 0.7381267 -0.31894806 0.63648534 0.3095097 -0.0032659387
-0.0012691007 -0.055985596 0.0071370727 -0.67269844 0.9800016 1.2257547 0.23497418 -0.4200011
0.30949917 -0.50318927 0.36523527 0.118234776 -0.0951037 -0.041635107 0.03411836 -0.10815362
0.13900942 -0.10818449 -0.010174859 0.07335658 0.24113663 -0.23009673 0.2834384 -0.42254546
-0.12531827 -0.112354375 0.047322433 0.04445911 0.0346282 -0.053629763 0.009657272 -0.020234382
-0.08317927 0.12714306 0.09300354 -0.21060407 -0.22608562 0.2765359 -0.73144996 2.1493309
0.082577914 -1.3088794 -0.49521297 -0.21550854 0.36784852 0.11649496 -0.21471436 0.24318938
0.487446 -0.27644506 -0.18390827 -0.059803903 -0.013695544 -0.061162934 -2.3850718 -0.20393653
-3.850561 0.2567173 -1.5068135 -0.008936164 -0.041522432 0.3043464 0.3143134 0.5978479
-0.027640805 0.42281756 -0.28945172 -0.026076296 0.01797671 -0.102964535 -0.16712674 -0.042240903
0.3631082 3.87177 -0.057491098 0.05134943 0.28225893 -0.56630635 0.45355928 -0.015645985
-0.43324453 0.2586454 0.41204894 -0.31556526 -0.085534364 -0.061553486 0.06368443 0.05317012
0.12751406 -0.09161512 -0.3856311 -0.021801159 -0.05322629 -0.0739935 -0.0077960123 -0.00494991
-0.07110748 0.01727692 0.04901681 0.02519556 -0.026330017 0.23717718 -0.2423856 -0.09327563
0.36332017 1.0810632 -1.1808394 -1.88714 -0.03465307 -0.011163017 1.7237157 2.6031635
0.735493 0.34616512 0.8286435 0.084398136 -0.28190854 -0.17424588 -0.057718284 -0.022835454
-0.10209012 -0.20406644 0.2007151 -0.13419957 0.30997255 -0.50187665 -0.08713043 0.058647968
-0.00041735824 -0.011717537 0.06655984 -0.063257016 0.00018329361 -0.05597975 -0.034288775 -0.097585574
-0.038504098 -0.12553996 -0.13774243 -0.041882556 1.2911692 -1.0851179 0.5572001 -0.8191976
0.73678917 0.08353681 0.53862125 -0.29432446 -1.1574861 -0.4157442 0.2584805 0.41260755
0.01952256 0.0668005 -0.021149414 -0.10292741 0.6204645 -0.0980742 -3.3683856 0.0045557646
0.22509393 1.8954191 0.18440734 0.8838589 0.3967288 1.1559324 -0.38732797 1.1479075
0.21106462 0.16650788 0.06241513 -0.012829923 0.20684776 0.0924614 0.022317126 0.35867634
-0.4280921 -0.308172 0.6038128 0.009852063 0.24039268 0.047555353 -0.029688532 -0.089560695
-0.12831572 -0.18450983 0.046589755 -0.063733004 0.12254374 -0.053999178 0.5557537 -0.5962429
0.89556915 -0.3190545 -1.18661 -0.67539686 -0.10831432 0.33085275 0.13079026 -0.26662847
0.13313518 0.046846017 -0.11819822 0.16395955 0.17283367 0.2419032 0.0041785603 0.97717386

actor.0.bias f4 [128]
00000000: 1e3f d43d 1181 cebe bf12 56be 6db0 1bbf
00000010: 7f2f ff3e 1bba 813e 1bbd 7abe e3c7 e6bd
00000020: 0df5 4dbe 25be 22bd a1ad 393f 1e4d 033e
00000030: 8320 803e 3d4d e03d 7ef4 41be fe89 36bf
00000040: ff50 413d db40 173e 2263 75be 3289 b7be
00000050: 5559 c93e de22 10be d3ba 093e 1210 d0bc
00000060: e547 2bbe ef33 b4be 6d41 843e cf68 de3e
00000070: 502d 0bbe 5d76 89bd f3eb 16bc cf97 2dbe
00000080: 27ea e6be 9cf1 b93e e8d0 053e bc04 80be
00000090: 1aee 38bf 9617 223e a11f efbe d08b 72be
000000a0: 0b9a 6dbd 8c30 98be de60 ac3e 0c84 033e
000000b0: 8300 69be 9f2c 89be 0695 1cbe 31ba 42be
000000c0: fa4e 49be 80f2 503d 1816 a03e c15c b8be
000000d0: 66e5 b0bd ea69 353e 4363 84be ce7c 883e
000000e0: 0e25 803e 3db4 f9be 75a5 4dbe 491d 393b
000000f0: 6341 e93e 2a74 af3e a11a 823d b240 5ebe
00000100: f1fa 23bf d420 d23d 92ec 383f 3512 dabe
00000110: df78 263e a67a 583e 2a9f 4dbe a92d 0cbf
00000120: 4e41 863e 94a5 c53c dec7 bdbe 8736 243e
00000130: eb90 053f 6960 cdbd 9ded fcbd 4db1 09be
00000140: c5a8 33be 9e3c 3b3e 4dd9 8e3e cc02 263e
00000150: 59ed 093d a1b2 bebe 5126 863e fb94 d83d
00000160: acf2 a5be e8ca 77be d32a debe 10b6 d0bd
00000170: dc70 1e3d 4f2c 91bd 2f1a 0cbd 2838 073f
00000180: 30a0 20bc 427d e23e 4c93 96bd aa5c 2cbe
00000190: 098a 3abe ee85 b53e a661 67be 6995 28be
000001a0: 8a09 1cbe 331b 03be 6e2e 1e3e 6271 5e3c
000001b0: c6ce bdbe 4a8d e3bb faa0 c33b 0ba2 073d
000001c0: 0076 36be bf83 0ebd cca2 62be 6d1f 86bd
000001d0: a8ac fabd c0dc 93be ce33 683e 964c 9f3d
000001e0: 6e9b 7c3d 2f15 6d3e 3873 bfbe 9f02 11bf
000001f0: 6766 3c3e 8936 07be 96f8 1d3e 88b3 1bbc
0.10363601 -0.40332845 -0.20905589 -0.6081608 0.49840924 0.253373 -0.244862 -0.11268594
-0.2011301 -0.039732117 0.7253056 0.12822387 0.25024804 0.10952232 -0.18940923 -0.7130431
0.047196385 0.14770834 -0.23963597 -0.3584686 0.39325967 -0.14075801 0.13450174 -0.025398288
-0.16726644 -0.35195872 0.25831166 0.43439338 -0.13591504 -0.06712029 -0.009211528 -0.16952442
-0.4510052 0.36317146 0.13067973 -0.25003612 -0.72238314 0.1582931 -0.46703818 -0.23686147
-0.058008235 -0.29724538 0.33667654 0.1284334 -0.22754101 -0.26791856 -0.15291223 -0.19016339
-0.19659033 0.051012516 0.31266856 -0.36008266 -0.08637504 0.17716184 -0.2585698 0.26657718
0.2502827 -0.48770323 -0.20082648 0.0028246215 0.455577 0.34268314 0.06352735 -0.21704367
-0.6405478 0.10260168 0.7223598 -0.42592016 0.16257046 0.21140537 -0.20080248 -0.5475717
0.262217 0.024126805 -0.3706655 0.16036426 0.5217425 -0.100281544 -0.12350009 -0.13446541
-0.17544849 0.18284842 0.27900162 0.16212004 0.033673618 -0.37245658 0.26201108 0.10575291
-0.32411706 -0.24198496 -0.43392047 -0.10190976 0.03868185 -0.07088529 -0.034204658 0.5282006
-0.009803817 0.4423619 -0.073523134 -0.16832224 -0.18216719 0.35453743 -0.22595844 -0.16463245
-0.15238014 -0.12803344 0.15447399 0.013576837 -0.37071818 -0.006944333 0.0059701176 0.03311352
-0.17818451 -0.03479361 -0.22132415 -0.06548963 -0.12239963 -0.28879356 0.22676012 0.077782795
0.061671667 0.23152612 -0.37392592 -0.56644624 0.18398438 -0.13204397 0.1542686 -0.009503253

actor.2.weight f4 [128, 128]
00000000: 0ee2 d0bd f989 b33d c26a 913b 1b83 4e3e
00000010: 352a 133c d044 7abd 4d3d c6bd b1b2 6f3e
00000020: fdbc d53c 0600 503e a842 20bc 85b0 adbd
00000030: 6c8e f9bd 2913 c23b ebbe b63d 0ab4 f4bd
00000040: 1a9d cb3c b06e 573c af2b 2bbd 3156 09bd
00000050: 8203 593d a8d5 b4bd 3595 afbd 0157 dd3d
00000060: f2ce 0c3c e13f 103d ede9 0fbb 9614 073c
00000070: 7389 48be ef7b 1a3d 51d1 97bd 2d06 003e
00000080: d236 bdba 35c4 bb3d 649a aabd 9e79 febd
00000090: b0e7 113e b890 28be d2cf 01bc 3645 21be
000000a0: 1860 2abe a9f0 b0bd a3a9 7bbc 8858 05be
000000b0: ac6d 87bd 54ae 65be 91d6 23bd b633 0f3d
000000c0: 2b4c 5aba 1333 c7bd 3011 5c3d 3821 f13c
000000d0: a79e fe3d f838 183e c994 b3bd 3c28 463e
000000e0: a82c 77be ea72 f8bd 30fe 713d b4cf 3c3c
000000f0: 96cd b3bd 90de 22bb 3608 15be c4ca 5c3c
00000100: de88 803c fc40 193e d75d 0f3e 0f6a 153e
00000110: b6be 26be 26a0 a0bc d6e7 ac3c 8ef5 e5bb
00000120: 5e70 3c3e 52f0 8abd 55dd a9bd f132 273d
00000130: 5b4d da3d 0c74 b53d 030d 173e 7f3b 3abe
00000140: 530e 3bbe a8d0 1b3d ba98 483e cbc6 5ebe
00000150: 05b2 88bd f7f1 1e3d 6a32 393c 7729 75bd
00000160: 70db 34be aaca 483d 4f73 353d fd75 8dbc
00000170: 1af6 f73b 1efc 083d 9ca5 b63d baac f8bc
00000180: 013d d5bd 9f7d 6b3d 7aad 753c ddb9 a6bc
00000190: c4bd 2ebe 8905 c73d 9626 78be 93f2 05bd
000001a0: 3aa4 91be 6748 40bd c591 7b3d bd04 ae3d
000001b0: 1c06 653e c4c6 c43d dc94 203e f686 6e3d
000001c0: b77e e4bc d540 a13d 6f2e 77be 7a12 41be
000001d0: c631 10ba 4456 9e3d 048a 1dbe dbc2 1d3e
000001e0: 2e17 b43d 4210 6cbe 97a5 f13c 2bcc a6bd
000001f0: 5553 d2bd c5e4 1dbd 2e08 d43d 1856 70be
00000200: 3430 0a3d ba16 14be 3414 17be 25ce bf3d
00000210: 9a06 3bbc 7e21 00be 03fa 47be 52fc ff3c
00000220: f742 5d3c d252 4b3d d832 363d 8f7e 31bd
00000230: a365 9b3d ec07 8bbc f1dd 7cbe 5558 0d3e
00000240: c8ed 7dbe 0166 0fbd 21d9 8bbd 297e 32bc
00000250: a5ac 4b3e 1db2 e7bd e046 e43c b71f b5bd
00000260: 771f 90bd 026a 393d c886 03be e58d 863d
00000270: 5de5 8bbd 4b6b a73d 4e37 2c3d f807 67bd
00000280: 607d b6bd b449 8bbd 9daf 3d3e ee1d 16bd
00000290: 8b62 ac3c ca30 82bd ee02 7bbc fe23 203d
000002a0: e85b 6cbd 879b 96bd 3c6d 26be f6dd 473d
000002b0: 6f77 20be 0e2f 5b3d b85e eabd 8c5f e33b
000002c0: 81d1 0f3c 68f7 8e3c 78c9 203e bab0 c33d
000002d0: e195 52bd 0622 0c3d 8a39 d6bd 5cdd 58bd
000002e0: 7c23 07be 5cdd a6bd 3e2a a0bc 0717 e1bd
000002f0: 01ae 733d 58d4 34be 192d b0b7 611a 6bbd
00000300: b3fc 3abd 8663 c6bc 2f27 16bd bde8 adbc
00000310: 4db6 083d 98c7 cbbd b9f3 2b3e be34 9a3d
00000320: 2710 613d 1042 d13d 9612 3bbd 0806 63bc
00000330: ee3e 623c f39a 8e3d 985c ad37 e486 05be
00000340: a30e 98bb 2714 b23d 9b7f 1d3e da32 15bd
00000350: 84ef e33d a6e5 fa3d f455 80bc d872 183d
00000360: 8485 acbc 95c7 823d cc2f 8abb 4785 a63d
00000370: 8b80 373d 2718 c8bc 981b 8dbc 49d0 8f3d
00000380: a60c 27bc 8465 303d 0e87 ffbd 9a71 ecbb
00000390: 1bb8 103d 6f29 37bc 38f7 d33c 95bf 45bd
000003a0: b35e e53c 8bd8 d23d 3f3a 0c3e 6d6b 0b3c
000003b0: e6a3 193e 6811 70bd a832 ac3c 1186 2cbe
000003c0: b4c6 60bd ba6e 0cbd 1bb9 543d 856a 1f3d
000003d0: 1bca 0bbd 860b ab3c 55e8 c3bc 5b16 433d
000003e0: c40d c3bd 8e5e 81bd ae89 2fbe 1af4 c43d
000003f0: 8e91 903d 6e75 2a3d 9a69 f13d 63fa 66be
-0.101993665 0.087665506 0.0044377754 0.201672 0.008982231 -0.06110078 -0.09679661 0.23408009
0.026091093 0.20312509 -0.009781517 -0.08480934 -0.12185368 0.005922694 0.089231335 -0.11948402
0.024855185 0.013148949 -0.041789707 -0.033529464 0.05298186 -0.08829814 -0.08573381 0.1080761
0.0085942615 0.03521717 -0.00219595 0.008244654 -0.19583683 0.03771585 -0.07412971 0.12502356
-0.0014435893 0.09168283 -0.08330229 -0.124255404 0.14248538 -0.16461456 -0.007923083 -0.15749058
-0.1663822 -0.08639652 -0.015360269 -0.13022053 -0.06612715 -0.22429782 -0.03999955 0.034961425
-0.000832739 -0.097265385 0.05372733 0.029434785 0.12432604 0.14865482 -0.08768613 0.19351286
-0.24138129 -0.12131293 0.059080303 0.01152413 -0.08779447 -0.0024851896 -0.14553913 0.0134760775
0.015690263 0.14966196 0.14000641 0.1459124 -0.16283688 -0.019607615 0.021106642 -0.007017798
0.1840224 -0.06784119 -0.08294169 0.040820066 0.10659286 0.08860025 0.14751057 -0.18186758
-0.18267183 0.038040787 0.1958951 -0.21755521 -0.066745795 0.038804974 0.011303524 -0.059853997
-0.17661834 0.0490214 0.04429942 -0.017268175 0.0075671794 0.033443563 0.08918306 -0.0303558
-0.10412026 0.05749285 0.014994973 -0.020352298 -0.17064577 0.097178526 -0.2423347 -0.03270204
-0.28445607 -0.04694405 0.061418314 0.084969975 0.22365612 0.09608224 0.15681785 0.058234178
-0.027892454 0.07873694 -0.24138807 -0.18854704 -0.0005500581 0.077312976 -0.1538468 0.15406363
0.08793484 -0.23053077 0.029497905 -0.08144411 -0.102698006 -0.03854825 0.10353123 -0.23470342
0.033737376 -0.14461794 -0.147538 0.09365491 -0.011415148 -0.12512776 -0.19528966 0.031248245
0.013504735 0.04963953 0.044482082 -0.043333586 0.07587745 -0.01697155 -0.24694039 0.13803227
-0.24797738 -0.035009388 -0.068285234 -0.010894337 0.19890077 -0.11313269 0.027865827 -0.0884394
-0.070372514 0.045267113 -0.12844384 0.06570033 -0.06830857 0.081747614 0.04204493 -0.056404084
-0.08910632 -0.06801167 0.18524022 -0.036649637 0.021043083 -0.06356962 -0.015320523 0.039096825
-0.057704836 -0.07353883 -0.16252607 0.048795663 -0.1567056 0.05351167 -0.114438474 0.0069388803
0.008777977 0.017451957 0.15701854 0.09555192 -0.051412467 0.034212135 -0.104601935 -0.05294548
-0.1319713 -0.0814769 -0.019551393 -0.1099072 0.059492115 -0.17659128 -2.1001835e-05 -0.057398204
-0.04565115 -0.024217378 -0.036658462 -0.021229142 0.03337698 -0.09950179 0.16792192 0.07529591
0.054947045 0.102176785 -0.04567202 -0.013856418 0.013808949 0.06963148 2.0666324e-05 -0.13039738
-0.0046404167 0.0869525 0.15380709 -0.03642545 0.11129668 0.12250833 -0.015665986 0.0372189
-0.021059759 0.063857235 -0.0042171236 0.081308894 0.044800323 -0.02442558 -0.017225072 0.07022149
-0.010195887 0.043065563 -0.124769315 -0.007215691 0.035331827 -0.011179312 0.025874719 -0.04827841
0.027999258 0.102952085 0.13694094 0.008509499 0.15003929 -0.05861035 0.021020249 -0.16848017
-0.054876998 -0.034285285 0.051934343 0.038919944 -0.03412829 0.020879518 -0.023914495 0.04762874
-0.0952411 -0.06316863 -0.17142364 0.09616871 0.07059012 0.041615896 0.1178772 -0.22556452

actor.2.bias f4 [128]
00000000: 7d90 59bd 2110 df3b 3376 173e 2756 81be
00000010: ef8f c03d 1349 293e a11a 353e ed59 adbd
00000020: d4e2 5a3d 4ae8 cebd 4d27 47bf 34cc 05bd
00000030: b749 0bbe dab2 99bd f788 3d3e 948f 423d
00000040: 9863 523e bee0 273d 0cee edbd c138 93bd
00000050: 447d 92be 63dd ddbd 437d 9ebd 46d5 173f
00000060: 2219 0bbd f304 61bf 6ba6 493d e34d cdbc
00000070: dccd 1ebf 1903 92bb 74aa 993e e223 dfbd
00000080: d617 95bd 8ac5 223d 360c 4abd 9df3 abbe
00000090: 5d60 253c bc86 8c3d 0221 1b3d d537 49bc
000000a0: 3b63 1a3e e003 9abc e457 6cbd dd31 123f
000000b0: fadd 4ebe 7523 c6bc 9a49 3f3d dab7 e13d
000000c0: 5f22 ddbe a806 93be 7e5f 553d 8565 66bd
000000d0: 9da4 9fbd c99f 303d 67a2 9e3b b23f bcbd
000000e0: 72ef 06bd 9d15 23be 31b3 583d 62a1 24be
000000f0: a10f 0a3d 7aa5 80bd dfe2 773d 8758 fb3d
00000100: ca9a e0bd f986 8bbd c604 a1bb 2d71 763d
00000110: 010a 573d 564b 553d 5d6c 893d 4bf1 37bb
00000120: edd5 8a3e caa0 f5bc 2d14 bf3d 3ef4 eabb
00000130: c7b1 303d cbb3 8cbd 798d 37bd fcda b3bd
00000140: 0ae0 e83c 1c56 0a3e 318a 743d c5ae bbbe
00000150: ba7a c1bd 0e76 21bd ab38 85bb 7113 27bc
00000160: cab0 08bc c6ae 123f 0684 eabd ee91 a9be
00000170: d19c 313d 3afe 94bd 0fba 9b3d 6a58 463b
00000180: 9632 40bd 6eb8 673c b980 7d3f c81c c93d
00000190: afef a0bb 6552 b43e 784d c339 20f1 593d
000001a0: 49ca 9bbc 2dfa cebd 8131 1a3d ebfc 953b
000001b0: 5653 e8bd 44b0 de3e 666a f73e 9977 b93b
000001c0: 0f90 453d 2164 a73c d3d2 40be 0942 4c3d
000001d0: f8a1 7d3e b4d5 7f3d d7a2 27bd a73f 2cbe
000001e0: 6404 f3bd 8127 1bbd 37af 213e 4abf ebbc
000001f0: e636 a33e 1e56 153e 4685 833d 506f ce3c
-0.05311631 0.0068073426 0.14791183 -0.25261042 0.09402453 0.16531782 0.1768594 -0.084644176
0.053438976 -0.101028994 -0.77794343 -0.032665446 -0.13602339 -0.07504816 0.18509279 0.047500208
0.20545805 0.040985815 -0.116176695 -0.07188559 -0.28611195 -0.10833242 -0.077387355 0.59309804
-0.033959515 -0.87898177 0.049230974 -0.025061553 -0.62032866 -0.0044559357 0.30012858 -0.10895516
-0.07279937 0.03973917 -0.04932805 -0.335843 0.010093776 0.06861636 0.037873276 -0.012281378
0.15076916 -0.018800676 -0.057701007 0.57107335 -0.20201865 -0.02418683 0.04670105 0.11021395
-0.43190286 -0.28716016 0.05209302 -0.05624916 -0.07795069 0.043121133 0.004841137 -0.091918364
-0.032943197 -0.15926214 0.052905265 -0.16077188 0.03370631 -0.06281562 0.060519096 0.122727446
-0.10967024 -0.06812853 -0.004913899 0.060166527 0.052499775 0.0520738 0.06710122 -0.0028067406
0.27116337 -0.029983897 0.0933002 -0.007170229 0.04313829 -0.0687023 -0.044812653 -0.08782002
0.028427143 0.1350941 0.059702102 -0.36656776 -0.09447236 -0.039419226 -0.0040655932 -0.010197506
-0.008342931 0.57297933 -0.11450963 -0.33119148 0.043362442 -0.07275052 0.07603847 0.0030265101
-0.046923243 0.014143093 0.9902454 0.09819943 -0.004911385 0.35219112 0.00037251017 0.05320847
-0.019017356 -0.10106311 0.037644867 0.0045772693 -0.1134402 0.43493855 0.48323363 0.005660009
0.048233088 0.020433487 -0.18830423 0.049867664 0.24768817 0.062459663 -0.04092678 -0.16821156
-0.11866072 -0.03787947 0.15789495 -0.028777737 0.31877822 0.14583632 0.06421904 0.025199562

actor.4.weight f4 [4, 128]
00000000: 3e43 cf3d 5f48 ef3c e4b8 32bd 1122 2a3d
00000010: 81aa 2abb 1823 e2b7 70ac 4b3e 7a0e 563e
00000020: c93d 47be 2b84 c23d 1f0d 45be 9356 70bb
00000030: a77e 3fbe 2186 86bb a859 923d 70ca 043e
00000040: c2ea 083d f605 ccbb c017 b3bc 53cf 7d3d
00000050: 2601 99be 1824 82ba cbe7 0fbe 9997 a93e
00000060: 7a16 173e 56ca cc3d 7963 49bd dd77 bfbb
00000070: 2594 28be 9656 11bb 9c8f 463c 1338 403b
00000080: c138 9fba de97 6abc bd8e 90bb 32f0 8c3e
00000090: 9ddc 8db8 6f6f a1bc f1aa c5bb 0172 56b8
000000a0: a023 46bd c6ad 11bc bef8 dc3c a7fe a5bd
000000b0: 08a4 f83d b75c 023b ecee 263b 5f0f ab3b
000000c0: 3a6e 23be 8c37 82bd 6119 cebd 6ffb 10be
000000d0: a9f5 493d 662e 19bc d378 d839 dd12 3fbc
000000e0: 0fff 6fbc b591 0bbd b993 df3b 8518 8bbd
000000f0: 229c d8ba 84f7 a13b 432b a93d ce01 babc
00000100: a04a 29bd e614 69bc e5a1 ac3b 9c8a b6ba
00000110: 0903 2a3c 5bcf 9cbb 5ea4 333e 655a a43c
00000120: afbd e93d dea0 8d3c a799 d5bb 3dfe 9bbb
00000130: 66d0 1f3a 4c01 6d3c d792 7fbb 979e 733e
00000140: 2d76 353a 6114 b0bd 0020 eb3c c6fd 82be
00000150: 799b 823b a794 7bbb 6cb9 3f3c 7a0b 14bd
00000160: 4682 afbb 2731 4dbc a0ff 8dbb 73bf 3e3d
00000170: d8db 543b ce0c debd 337d 803b 305c d33c
00000180: 1879 6639 7e8d 34bc 8dda b03e 6a14 e83c
00000190: 1e53 72bd d6d0 4c3d a734 00bc bf5b c4ba
000001a0: bdf8 9dbc eee4 163c 162d 4dbe bd6a 413b
000001b0: 8f8e ab3c a644 0f3e 15ac 943d 2b7c 503b
000001c0: eb77 2e3b 9d63 073c 88b9 12bd 9201 7dbd
000001d0: 5ae1 7a3e 80ee 07bd 8876 bb3b a4ce 223d
000001e0: d6ac 373b e9ab 393e 1045 dcbc d11f 76bd
000001f0: 37cf 183d 3db8 9b3b 6de0 0d3c bdba 25be
00000200: fd87 3ebe 263e e3bc 98b0 84bc 4825 31bd
00000210: 3470 47ba f4a7 863c f15d 6a3d bbbf 14be
00000220: ac71 6e3d 3b9e 52bd 8046 073e fe33 8d3b
00000230: 9029 c7bd 5f57 37bb 2991 343e 6800 1d3d
00000240: 01fc b53d b41f b0bc 12ab 323d 583f 94bc
00000250: a416 c3bd bb49 4aba 73bb 9fbd f8e0 d13c
00000260: 076b 9ebe 09c7 2fbf 34e3 d2bb 00bc 44bb
00000270: b80e acbc 70a8 32bb 04c2 743d 541a 06bb
00000280: 5d0e d3bd ce00 753c 7abb e43c 871b a5bd
00000290: 973f 5ebb b540 1ebc 0b62 423d 4fcb f3ba
000002a0: ba3f 853e 89fc 23bb 37fb 6f3d d573 5bbc
000002b0: ecad 233c 7335 79bc 9025 7f3b 6e23 273c
000002c0: b023 ab3c 4318 9b3b b76d 71be 4134 d2bd
000002d0: e22f 193e d260 7ebc 9025 693b c02b 9dbd
000002e0: d622 9b3c 231e 5e3d eecb 37bb 9965 ebbd
000002f0: 99a5 48bb 4fb9 5c3b 4a6b eabc 965a d83c
00000300: 6544 08be 093c 1d3d 0583 1dbb 50b7 b43b
00000310: 2fbe 1abb b992 fdba 6707 0c3e 6c02 e43c
00000320: edd4 183e 7504 d4bd 0789 cabb a0d9 133b
00000330: a830 1b3b 2ed5 ffbb 9c0a 9f3b 3935 3dbd
00000340: 6ab4 6239 56f7 a23c 7e5a a3bd 1865 2c3e
00000350: 5555 27bc 4ddb fa3b 7f9b 2b3b 7ec6 8b39
00000360: 0af8 9bbc cc7e 193e d1b9 9ebc 5e63 8ebe
00000370: 9c57 f2bc 2ae7 1cbe 1d00 123c ef96 8fbd
00000380: ba76 4fbb 8c7b 163d 15c1 f63e a5eb c4bd
00000390: dd01 fe3d 156c 52be b977 5b3b b817 3f3c
000003a0: e8c7 4e3d a432 6b3c 7622 97be 8d31 4d39
000003b0: 99ba edbb 8292 813e 346e fb3d 1f8e 1bbc
000003c0: a4bb cb3d b02c 2fbc 4aef 76be aa29 c3bd
000003d0: 39ee 12be 5cf9 a63b 0e46 80bd 668f c73d
000003e0: f93d c0be dc18 88be fcd6 d3bc 972a c13d
000003f0: 398c 15be 5f99 5f3c 6360 dbbb c1d0 0abc
0.10120247 0.029209314 -0.043633357 0.041536395 -0.002604157 -2.6957641e-05 0.19889998 0.2090396
-0.19457163 0.09497865 -0.19243287 -0.0036672696 -0.18700658 -0.004105345 0.07146007 0.12967849
0.033427007 -0.0062262965 -0.02186191 0.061965298 -0.2988369 -0.000992897 -0.14053266 0.33123472
0.14754668 0.0999953 -0.04916713 -0.0058431462 -0.16462763 -0.0022176853 0.0121192 0.0029330298
-0.0012147651 -0.0143184345 -0.004411547 0.27527004 -6.764496e-05 -0.019706456 -0.0060323407 -5.112775e-05
-0.04837382 -0.0088915285 0.026974078 -0.08105212 0.121406615 0.0019891688 0.0025471998 0.0052203382
-0.15960017 -0.06358251 -0.100634344 -0.14158414 0.049306545 -0.009349441 0.00041288752 -0.011662212
-0.014648213 -0.034074504 0.00682303 -0.06791786 -0.0016526023 0.0049428362 0.08260205 -0.022705939
-0.041330934 -0.014226174 0.005268323 -0.0013926807 0.0103767 -0.004785461 0.1754317 0.020062635
0.114131324 0.017288622 -0.006518561 -0.004760532 0.00060964224 0.014465641 -0.0038997435 0.23790966
0.00069222116 -0.08597637 0.028701782 -0.2558424 0.003985819 -0.0038388164 0.011701923 -0.036143757
-0.005356106 -0.012523926 -0.0043334514 0.0465693 0.003247967 -0.10842286 0.003921175 0.025800794
0.0002197962 -0.0110200625 0.3454174 0.028330047 -0.059161298 0.05000385 -0.007825053 -0.0014980956
-0.019283647 0.0092098545 -0.2003673 0.0029513084 0.020942 0.13991031 0.072593845 0.003181229
0.002662177 0.008263496 -0.035821468 -0.061769076 0.24500027 -0.033186436 0.005720917 0.03974785
0.0028026602 0.18131985 -0.0268884 -0.060088936 0.03730699 0.0047521875 0.008659464 -0.16184516
-0.18606563 -0.027739596 -0.016197488 -0.043248445 -0.0007607967 0.016437508 0.057218496 -0.14526264
0.058213875 -0.05142043 0.13210487 0.0043091765 -0.09724724 -0.0027975661 0.17633499 0.038330466
0.088859566 -0.021499492 0.043620177 -0.01809661 -0.09525803 -0.0007716675 -0.07799425 0.025619969
-0.3094103 -0.6866308 -0.006435776 -0.0030019283 -0.021003112 -0.002726104 0.05975534 -0.002046247
-0.10305474 0.014953805 0.027921427 -0.08061891 -0.0033912414 -0.009658982 0.047456782 -0.0018600019
0.26025182 -0.002502235 0.058589187 -0.013394316 0.009990197 -0.015210497 0.00389323 0.010201318
0.02089104 0.004733117 -0.23577009 -0.10263873 0.14959672 -0.015526013 0.0035575368 -0.0767436
0.01893751 0.05422796 -0.0028045136 -0.114939876 -0.0030616282 0.0033679788 -0.028615613 0.026410382
-0.1330734 0.038387332 -0.0024034393 0.0055150166 -0.0023611893 -0.0019346095 0.13674699 0.027833186
0.14924975 -0.103524126 -0.0061808857 0.0022560135 0.0023680124 -0.0078073954 0.0048535597 -0.046193335
0.00021620249 0.01989333 -0.079762444 0.16835439 -0.010213216 0.007655537 0.0026185212 0.00026660034
-0.019039173 0.14989775 -0.019375714 -0.27810186 -0.029582791 -0.15322557 0.00891116 -0.0701121
-0.003165646 0.036738917 0.48194185 -0.09615258 0.12402699 -0.20549043 0.0033488108 0.01166337
0.050483614 0.014355335 -0.2951848 0.00019568783 -0.00725491 0.2530709 0.12276879 -0.0094943335
0.09947899 -0.010691807 -0.24114719 -0.09529431 -0.14348687 0.005095644 -0.06263362 0.09744148
-0.3754728 -0.26581466 -0.025859348 0.094319515 -0.14604272 0.013647406 -0.00669484 -0.008472622

actor.4.bias f4 [4]
00000000: 368e a63e e1e4 fe3e e1c9 123f c961 da3e
0.32530373 0.49783996 0.5733929 0.4265273

critic.0.weight f4 [128, 17]
00000000: bdde b73e fbce a4bf de7e 94c0 668b e2be
00000010: 0d04 2740 2885 8e3f 0880 8d3e 2a08 cc3e
00000020: 28b7 f33f a75e dfbd dd81 a03e 0af1 003e
00000030: d3c9 2d3e a510 66be a7d0 85bd 42c0 a7be
00000040: 9522 dbbe cda8 01c1 b13a a9bf c7b8 4bc0
00000050: 21f8 5abf 7640 833f db94 12c0 3194 9fbe
00000060: 6fa0 dc3f e54f 053f 6618 9b3e e818 863c
00000070: e774 633d cd94 9cbe fe4c 963b 71ff 5ebc
00000080: 25e6 babd 3755 c73d c557 9e3f d5b5 d83f
00000090: 6d4d 35c0 318d 403f 0e01 b3bf f425 c83f
000000a0: 1e41 c8bc 46d6 a8be 48b2 613d 8720 1bbd
000000b0: 4ae4 1cbf 6249 3cbe b8b4 42bd 4f29 9b3e
000000c0: f8e6 7b3e d392 bd3e 50ed 1d3f 751c b93e
000000d0: 713c b8bf d26e 14c0 339f 41bf a3d0 62c0
000000e0: 3db0 6440 b296 8cbf 7bbf 0e3f d297 5bbf
000000f0: 8cc4 a9bf ab7f 8ebc 5e6c 0c3e 95e1 89be
00000100: 4b57 453e 9c23 0c3e 54b4 b23e 1151 f73d
00000110: 1594 453f 63b2 7d3f 2799 78bf 9273 34bf
00000120: b7db 06c0 0902 0640 7599 04c0 ae99 8ebf
00000130: 5a74 2fbf bed1 ab3f dea6 a73f e90c 8040
00000140: fe2a 5c3f 46df 433e 9043 9dbe 7bdb 4a3d
00000150: 8bd0 08bd 9992 ba3f fddc f03f 8969 8840
00000160: 362e 0abf 4e23 babe 7d38 0a3f ad22 8f3f
00000170: fa03 2940 e4ad 0a40 3704 d2be 5f91 19bd
00000180: c301 5a3e 6b5d 2d3e b84d 593c efb1 6e3d
00000190: edf2 393e f347 753e 12eb 95bf bdbf 96c0
000001a0: b46d 5dc0 d881 0dbe 417a 813e d740 8940
000001b0: 20da bd3e 3728 ea3e 97e3 003f 6abf 47bd
000001c0: cef4 733c 6a93 41be 2fa8 4e3f 73fb 753e
000001d0: c809 853e 03ed 9d3e 70ec 6a3e d0a9 c33e
000001e0: 30d5 bbbf 467e 0541 6221 5dbd df2d 25bf
000001f0: 209e 3640 5dda 2940 c227 40be dc06 7ebf
00000200: 7f97 9f3d 0c7d 38bd 55ae 44bf 71a4 2a3e
00000210: 8688 e53c e3c4 ab3d ba51 10be 5305 a73d
00000220: a49a a1bf 3b18 3a40 19ba 4d3f c126 65bf
00000230: 57b0 5abf 38b4 933f d900 973e 507c 66bd
00000240: 902e 10bf 3bc2 003e b90d ca3f cadb 1440
00000250: ba9e 10c0 9dfd d1bd f3d5 83bd 0223 c6bc
00000260: 570b f5bd 49b3 36c0 242b 4d3f fa6f 1241
00000270: f46e a53d 1e5d 8cbf d3e8 0440 f278 a13f
00000280: 080a 9fbe 82ce cbbf 7f54 a53b 597f 113e
00000290: 8bb4 663d efa4 933e afe3 0e3e 50bf 223e
000002a0: ae66 7f3e fd19 ca3d be38 08bf 84fa 0040
000002b0: fa54 d33f 3e90 d13e e0f7 a73f db64 e7be
000002c0: 8045 c2bf bddf 5c3e ca26 183f 6cf7 23c0
000002d0: 6b38 ae3f a868 0740 5ce9 7540 147a f83e
000002e0: 9870 0e3e 193b b13d 50e5 bf3e b81b 0a40
000002f0: e044 bfbf c482 f23f f27c acbf c647 b63f
00000300: 35a4 903f 01af 37bf 5ac6 ad3f 25ff 893e
00000310: 7f5a cc3f adc2 783d 8d9e b63c 7a54 8dbe
00000320: ccd8 dd3c 26bd 9a3d 314f e33b 8fe0 2dbe
00000330: 0cc5 aa3f 4e0b ef3f 4986 48c0 964b 293e
00000340: fbfc e93f 74c1 46be d800 073e 3e09 c9bf
00000350: 9f8d 2540 2a4b eb3f 4c4d 27c0 ed70 c5be
00000360: cce9 ba3f af14 19bd f669 09be 877e 77bc
00000370: eb1f 663d 61d3 adbf fedd 8a3f e0e7 2941
00000380: 9c85 85bf 7683 a6bf 8c2a 973f 7ac1 e9bf
00000390: 25d6 6d3f e47c 9dbf 0dfd 093d 468e ffbd
000003a0: 526a 453e 4e20 fabe ceab 51be 94cf 13bd
000003b0: 30f4 80be 804f 46be a31a 8f3f 1c65 7e3d
000003c0: 50ed 36c0 fef8 ad3d db83 34c0 ab08 1440
000003d0: 088f 08c0 7111 a4bf 68e2 61bf 75e0 293e
000003e0: e094 5e3f 4819 273f 0f54 88bf ffeb 3f3e
000003f0: c647 223e 011e ac3e ee42 3c3e 2231 aac0
0.35912123 -1.2875665 -4.6404867 -0.44246978 2.6096222 1.1134386 0.27636743 0.3984998
1.904027 -0.109067254 0.31349078 0.12591949 0.16971521 -0.22467287 -0.06533938 -0.3276387
-0.42799821 -8.103711 -1.3221036 -3.183153 -0.85534865 1.0254047 -2.2903354 -0.3116775
1.723646 0.52075034 0.30292052 0.016369298 0.05553141 -0.30582276 0.004586815 -0.013610707
-0.09125928 0.0973305 1.2370535 1.6930491 -2.8328507 0.7521544 -1.3984697 1.5636582
-0.024445113 -0.32975978 0.055101663 -0.037872817 -0.6128584 -0.18387368 -0.047535628 0.30304953
0.24599826 0.3702608 0.61690235 0.36154523 -1.4393445 -2.319264 -0.75633544 -3.5439842
3.5732567 -1.0983489 0.55760926 -0.85778534 -1.3263106 -0.017394861 0.13713214 -0.26929918
0.19271581 0.13685459 0.34903204 0.12076009 0.7717908 0.9910032 -0.9710869 -0.70488846
-2.1071603 2.0938742 -2.0718663 -1.1140649 -0.68536913 1.3423383 1.3097799 4.001576
0.860031 0.19128141 -0.3071561 0.04952572 -0.033402007 1.4575988 1.881744 4.2628827
-0.5397676 -0.3635506 0.53992444 1.1182457 2.6408677 2.1668634 -0.4101884 -0.037492152
0.21289735 0.16930167 0.0132631585 0.05827516 0.18159075 0.23953228 -1.1712363 -4.7109056
-3.4598207 -0.13819063 0.25288585 4.289165 0.3708048 0.45733806 0.50347275 -0.04876653
0.014889909 -0.1890389 0.8072538 0.24021702 0.25984025 0.30844888 0.22941756 0.38215494
-1.4674435 8.343328 -0.053986914 -0.6452312 2.8534012 2.6539528 -0.18765166 -0.99229217
0.077925675 -0.04504113 -0.7682851 0.16664292 0.028019201 0.083871625 -0.14093676 0.081553124
-1.2625318 2.907729 0.8036209 -0.8951226 -0.85425323 1.1539373 0.29492834 -0.056270897
-0.5632105 0.12574093 1.5785438 2.3259149 -2.259688 -0.10253451 -0.06437292 -0.024186615
-0.119650535 -2.8546927 0.8014395 9.152338 0.08077803 -1.0965917 2.0767105 1.2615035
-0.3106234 -1.5922396 0.005045473 0.14208736 0.056324523 0.28836772 0.13954042 0.15893292
0.24941513 0.09868238 -0.5321158 2.0152903 1.6510308 0.4093036 1.312252 -0.45194134
-1.517746 0.21569724 0.5943419 -2.5619764 1.3610967 2.1157627 3.8423681 0.48530638
0.13910139 0.0865385 0.3747964 2.1579418 -1.4942894 1.8946157 -1.347563 1.4240654
1.1300112 -0.7175141 1.3576157 0.26952472 1.5965117 0.060732532 0.0222924 -0.27603513
0.027080916 0.075556085 0.0069369306 -0.16980194 1.3341384 1.8675325 -3.133196 0.1653274
1.8280329 -0.19409734 0.13183916 -1.5705945 2.5867689 1.8382313 -2.6140928 -0.38562718
1.4602599 -0.03737324 -0.13419327 -0.01510585 0.056182783 -1.3580133 1.0848997 10.61911
-1.0431399 -1.3008869 1.1809859 -1.8262169 0.92904884 -1.2303739 0.033688594 -0.124783084
0.19278839 -0.48852772 -0.20475695 -0.036086634 -0.251863 -0.19366264 1.1180004 0.062108144
-2.8582344 0.08494757 -2.8205478 2.313029 -2.13373 -1.2817823 -0.88236094 0.1658953
0.86945915 0.6527295 -1.0650653 0.18742369 0.15847692 0.3361664 0.18384907 -5.3184977

critic.0.bias f4 [128]
00000000: 4ec3 51bf 7262 10bf 5195 67bd ad08 92be
00000010: c67d b83d 0344 49bf 197e fcbe 19ea 8ebd
00000020: c5e6 28bf 8a60 323f 3739 0a3d efcf b4bf
00000030: c1e9 ad3e 5c82 0bbf 1717 963e 4507 303f
00000040: 5eaf 48be 7586 0fbf d80a 0f3e e074 dbbe
00000050: 45b7 adbe 893a 963c 7b2e 763e 2db2 733e
00000060: 799e e23e 2963 81bf bcd3 bfbe 3898 98be
00000070: cce4 17be a9d3 febd f852 d8be 61b6 70be
00000080: b81a 03be 88f8 db3b 0452 8dbf eabd cbbe
00000090: 8ac8 593e b7dd a93e 2c19 4c3e 407f 633d
000000a0: ce18 773e e427 bcbe 844a 313e 4419 3b3e
000000b0: cd13 e6bd 4eef 1bbe 9f93 c3be 5f5b 8ebf
000000c0: a39f 95be 8b7d 2f3f 66b7 4e3e f2c7 e1be
000000d0: b1e6 2e3e e04c 5d3d 71c3 c23d f515 f63e
000000e0: 8e0d 25bf 9310 8ebf e590 d23d 353a a9bd
000000f0: 11e1 a6bd e298 0a3f ebc7 50bf 5f11 a2be
00000100: a9d3 16be fe1a 493d 506c 643e 5830 473f
00000110: b786 c73d 9a6f 69bf 7211 90be 28c2 a93e
00000120: 263b cc3e 585b d5bd 68f8 c63e 1a6b 363f
00000130: ad87 ea3d 7c1f 97be 2b4f 2a3e 8882 063d
00000140: 072c 39be 6f24 19be 1647 febe 3be1 ccbe
00000150: 5969 86be e847 483e 70b3 013f e5d7 08be
00000160: 3cfa 1d3c 9ecf 433e 8848 a53d de2d 25bf
00000170: 7a86 c13e cdfe 47bf faa5 c2bd 1d0a 17bf
00000180: b089 0a3e 895d 583f af0c 4c3e acb5 b83e
00000190: c015 7cbb fa11 16bf a2af 3e3e d73b 183e
000001a0: c2f9 bbbe 4570 eabe 1da8 393f cea5 25bf
000001b0: 4e02 323f 8186 18bf b0c8 d8be 7679 c73e
000001c0: 053d 243f 4f75 efbd 45e9 81bd bf0d 483f
000001d0: ec85 663e c58b 5cbe 033e 8dbe 2936 103f
000001e0: 41d3 023e 2f32 bfbe 397e 88be df9b f03e
000001f0: bfa5 f2be c373 453c ce4f 203e c908 48bf
-0.81938636 -0.56400216 -0.056538884 -0.28522244 0.090083644 -0.786194 -0.49314955 -0.06978244
-0.65977126 0.69678557 0.03374597 -1.4125956 0.33967403 -0.5449579 0.2931449 0.6876109
-0.19598147 -0.5606454 0.1396898 -0.42862606 -0.33928886 0.018338459 0.24041168 0.23798437
0.4426153 -1.0108386 -0.37466228 -0.29803634 -0.14833373 -0.12442715 -0.422508 -0.23507072
-0.12803161 0.006712977 -1.1040654 -0.3979333 0.21267906 0.33176968 0.19931477 0.055541277
0.24130556 -0.36749184 0.17313582 0.18271357 -0.112342454 -0.15228006 -0.38198563 -1.1121634
-0.29223356 0.6855094 0.20187148 -0.4409786 0.1708019 0.05402839 0.09509934 0.48063627
-0.6447381 -1.1098808 0.10281543 -0.08263055 -0.08148397 0.5413953 -0.8155505 -0.31653878
-0.1472918 0.049098007 0.22306943 0.7780814 0.09742492 -0.91185915 -0.2813831 0.33155942
0.39888877 -0.10417813 0.38861394 0.71257174 0.11451659 -0.29516208 0.16631763 0.032839328
-0.18083201 -0.14955305 -0.4966361 -0.40015587 -0.2625225 0.1955868 0.50664425 -0.13363607
0.00964218 0.19122168 0.08070475 -0.6452311 0.3779791 -0.7812317 -0.09504314 -0.58999807
0.13529086 0.84517723 0.19926713 0.36076105 -0.0038465112 -0.5862118 0.18621686 0.14866577
-0.36713988 -0.4578878 0.72522146 -0.6470612 0.69534767 -0.59580237 -0.42340612 0.38959855
0.6415561 -0.11692297 -0.06343321 0.78145975 0.22512025 -0.21537693 -0.27586374 0.5633264
0.127759 -0.37342975 -0.266588 0.4699392 -0.4739208 0.0120515255 0.15655443 -0.78138405

critic.2.weight f4 [128, 128]
00000000: e395 cd3f be5f adbe 8ffb 54bf 2093 adbf
00000010: e3d7 353d 45f1 f1be 73c5 cc3e d2f3 5fbf
00000020: e983 213f 6c56 9cbf 6b89 203f 2342 04bf
00000030: 2921 1e3e 163f 22c0 6aa5 59bf d81c 993f
00000040: 562b 473f b77e 143f 6208 c63e 5975 51bf
00000050: ef66 57be e018 4f3f 2201 cabe fc24 653f
00000060: 2567 dfbe 4a67 463f 6f72 243f 9be0 36bf
00000070: d0dc e7bc 28fb a8bf 4d1a 47bf f10e 033f
00000080: f180 2fbf 2352 4a3f 29f7 203e add3 1bbe
00000090: 8070 1f3f 749e 1a3d c61d 603f ab4b fe3d
000000a0: f688 bcbe e014 d43f fcfa b13e 6f95 d53e
000000b0: 0a07 8bbf 2ad2 b53f ae24 a2be a39f e73e
000000c0: fbec 6bbf 8d00 813f beb4 b13e d93a 353f
000000d0: 1af2 823f 2696 a6bf 48ee d2be 62a8 53bf
000000e0: c5f3 16bf 1ad2 a23f f2fe 2dbe 0137 873f
000000f0: bfa4 8e3f 529c b93f 1d15 5d3d 51c9 413f
00000100: 27b7 f9bf 8580 33bf 1d35 24be 27df 4ebf
00000110: 12a9 47bf ddb8 d7be 6526 1bbf 7227 623f
00000120: 9a7b 5d3e 54e6 a03e 06b6 a2bf 9d34 e63e
00000130: ea20 e43d fe37 783f f943 073f 184d e3be
00000140: 80ca c2bf 0892 a6bd 55e3 b33f 60f6 3dbf
00000150: 112c e6bf 6f98 483e a23d 2f3f 36a9 04bf
00000160: 5c66 03bf 553e 0740 4fd0 d83f 1dca 22be
00000170: 4468 a13e a0bc 893f 0827 913e cace 553e
00000180: 471c 963f 3491 1a3f 072b 7fbe 4adc 883f
00000190: c06b 433f fd32 9d3e afdd aabf 5ec3 9f3f
000001a0: 8311 c9be 9f7d 48bf 05e2 24bf c9d6 4c3f
000001b0: 6ee1 3a3f a8a8 50bf 6a8b 5cbf 32f6 733f
000001c0: e25d 0e3f 8111 223e 7b40 9cbe 6070 adbe
000001d0: e4f9 243f ef17 5f3f 2a9a 99bd ec8f ed3c
000001e0: ed3e a7bf 1fc5 22bf 9901 0b3f 8f1c 2f3f
000001f0: 32bc 253e b1ab d73c 3d18 51bf 2de7 b53f
00000200: 0c64 653f 1bcb 683f ecc3 33be 534b 06bf
00000210: dd4b 82bf 55f5 a53f 2126 7dbe 4015 ffbe
00000220: c921 f3bd 5fd6 ddbf d97e c7bf 0009 a1bd
00000230: c072 8b3e 9e74 a9bf 3d1d 4dbf dd11 e0be
00000240: 831e 763f 3b1d f33f 3cc1 cc3f 26c1 853f
00000250: 6a16 8f3f 5041 a1bc dab5 aabe d1da 9cbb
00000260: d80a 283e 2fdc df3f 0e7e 583c 45f1 3fbe
00000270: 9471 fbbe a18b 9ebb 17f9 dabe e9d7 563e
00000280: 9d32 2a3f 87f3 ad3f b3cf 1ebf 1a70 dbbe
00000290: e0c7 93bf 34e0 943d 6b4e 653f a132 8a3e
000002a0: 88c3 45bf 7c1c 8a3f 853d 4e3e 2d67 2ebf
000002b0: 659d 99bf a750 ac3e 8e4d d7bf e74a 993f
000002c0: af3f ca3e 7f7a 86be d6ea 3d3f 2d8e f13f
000002d0: 78c2 c73e ae29 7e3f 1a18 0abf 6ad3 05bf
000002e0: 5356 d9be ecd0 1640 a67d c7bc c9fd be3f
000002f0: 5b97 4dbf 231e 153e e287 303f 6761 723d
00000300: 1d03 b0bf 7eb8 5d3c b5e7 903f a748 04bf
00000310: c88a 2abf bc41 083f 5664 ad3f 9e14 e0bf
00000320: ed43 59be acd9 24be 6e11 a8bf 14bf 093e
00000330: a44e b83f 0cdb 273f 7ad7 bfbe e3a6 83bf
00000340: 1baa 07c0 5d97 88bf 8536 3f3f e178 5a3f
00000350: bd91 083e a35a 52be 643c 13bf 8ed2 07be
00000360: 35df 3a40 c113 dd3f fc31 c4bf 85a4 b23f
00000370: 7455 a63f a5a3 0f40 6463 553f 5341 323f
00000380: 171f d23e 74ed 08bf 94fd 9bbe 7cf6 62bf
00000390: 0b1a a9be e816 c33f 8a43 8fbf 1b92 b03e
000003a0: 1ecc 0ebd 6449 93bf 9ccd fabf 93f5 c73f
000003b0: a8d3 efbe c25e f23c 3517 4c3f 856a 55bf
000003c0: 54a9 eb3e 5e32 2d3f 1622 abbf 32fc 06bf
000003d0: 44ea 9dbd 67bd f0be e6ce 583f 04b2 03bf
000003e0: 899f 3cbf bcc0 893e cba5 bc3e bbcd f13e
000003f0: a479 bbbe 00a5 d1bf 9ba6 713e 07cf 843c
1.6061367 -0.33862108 -0.8319635 -1.3560524 0.04439534 -0.47254387 0.39994392 -0.87481415
0.63091904 -1.2213874 0.62709683 -0.51663417 0.15442337 -2.5351005 -0.85018027 1.1961927
0.778005 0.5800585 0.3867827 -0.81819683 -0.2103536 0.8089733 -0.3945399 0.8950956
-0.4363338 0.77501357 0.6423711 -0.7143647 -0.028303534 -1.3201647 -0.77774507 0.51194674
-0.68556124 0.7903158 0.15719284 -0.15217467 0.62281036 0.03774877 0.8754543 0.12416776
-0.36823243 1.656887 0.34761798 0.4171557 -1.0861523 1.4204762 -0.3166861 0.4523898
-0.9215848 1.0078293 0.34708208 0.7079292 1.0230134 -1.3014572 -0.4119742 -0.82678807
-0.5896571 1.2720368 -0.16991785 1.0563661 1.1144027 1.450083 0.053975213 0.7569781
-1.9509019 -0.7011798 -0.16035886 -0.80809253 -0.77992356 -0.42133227 -0.6060546 0.8834144
0.21629182 0.31425726 -1.2711799 0.44962016 0.1113909 0.9696044 0.52838093 -0.44394755
-1.5218048 -0.08133322 1.4053751 -0.74204063 -1.7982198 0.19589399 0.6845342 -0.51820695
-0.51328063 2.1131794 1.6938571 -0.15897413 0.3152486 1.0760689 0.2835009 0.20879665
1.172738 0.6037781 -0.24918757 1.0692227 0.7633629 0.30702963 -1.3348902 1.2481496
-0.39271173 -0.7831668 -0.6440738 0.80015236 0.7300023 -0.8150735 -0.8615023 0.9529754
0.55612004 0.1582699 -0.30517945 -0.33874798 0.644438 0.87145895 -0.075001076 0.028999291
-1.3066078 -0.6358203 0.5429931 0.6840295 0.16185072 0.026326986 -0.8167761 1.4211174
0.89605784 0.90934914 -0.17555207 -0.52458686 -1.0179402 1.2965494 -0.24721576 -0.498209
-0.118716784 -1.7331046 -1.5585586 -0.07863045 0.27235985 -1.3238714 -0.8012274 -0.4376363
0.9614031 1.8993295 1.599647 1.0449569 1.1178715 -0.019684464 -0.33341867 -0.004786827
0.16410387 1.748907 0.0132136475 -0.18744381 -0.4911009 -0.0048384224 -0.42768165 0.209808
0.6648348 1.3589944 -0.62035674 -0.42858964 -1.1545372 0.07269326 0.8957278 0.26991752
-0.7725148 1.0789943 0.20140655 -0.68126184 -1.2001158 0.33655283 -1.6820543 1.1975983
0.39501712 -0.26265332 0.74186456 1.8871514 0.39015555 0.9928235 -0.53943026 -0.5227572
-0.42448673 2.3565016 -0.024351906 1.4921199 -0.80309075 0.14562277 0.6895734 0.05917492
-1.375095 0.013532756 1.1320711 -0.5167336 -0.66618013 0.532253 1.3546245 -1.7506292
-0.21217318 -0.1609866 -1.3130319 0.13451797 1.4398999 0.65568614 -0.37469083 -1.0285305
-2.1197574 -1.0671192 0.74692565 0.85340697 0.13336845 -0.20542388 -0.57514024 -0.13263914
2.9198735 1.7271653 -1.5327754 1.3956457 1.2994828 2.244363 0.83354783 0.69630927
0.41039345 -0.53487325 -0.30466902 -0.88657355 -0.33027682 1.5241365 -1.1192486 0.3448647
-0.03486263 -1.1506772 -1.9593997 1.5621818 -0.46841168 0.0295862 0.7972291 -0.8336566
0.46027625 0.6765498 -1.3369777 -0.5272857 -0.07710698 -0.47019503 0.846907 -0.51443505
-0.7368093 0.26904857 0.3684524 0.47227272 -0.36616242 -1.6378479 0.23598711 0.016212

critic.2.bias f4 [128]
00000000: 48d6 36bf ef76 76be 049e 973e 4c9e dd3e
00000010: 9829 903d a623 8b3e fa37 aebe f026 49be
00000020: 39b3 51bd 67d5 f9be 48b0 f4be f859 613e
00000030: a7f9 783d 8f11 64be ab7d 383f 006f 1bbe
00000040: 2a5c 273f f598 f3bd 0fa0 f53d 73e7 b03c
00000050: 2fe3 0fbe 9af4 093f c34f 043d 5e1c 363f
00000060: fd29 4fbe c79f 0ebf de7c cf3e 3a8f e8be
00000070: aa3e 93be 579e f5be 8ff4 54bd 67c3 fcbe
00000080: c518 843f f11e 203f c243 9dbd 5d8a 49b8
00000090: 4c07 b53c e1a2 ff3e 90bd f33e e642 8ebe
000000a0: 766e 343d da1f 90bd f8e6 863d badf 8d3d
000000b0: 6807 a3be daee 1b3e 99c8 aa3e 2864 9abe
000000c0: 36de 17be acf9 59be 448d 14bf 2e20 16be
000000d0: 096f 1e3f 7b20 a2bd c258 6abd e17a c83e
000000e0: 5281 383f 7fee 8abc b05f 8cbe 8fed d53e
000000f0: 1fad 0dbf df6e 743e bd41 64be 69d9 81be
00000100: 43aa 4f3c 9524 bebe 06f9 723e cab5 9a3e
00000110: 60c3 0fbe cb84 7abe 30df e83e 0b5d d53d
00000120: 4e38 813f c70a 1b3f 5348 a33e e657 a6be
00000130: dbb3 19be 87b3 9e3d 212c 8f3f 0c34 ae3e
00000140: 74f5 10bf 2188 483d b8d1 423f 8982 78be
00000150: 457d 923c f363 8dbd 1b4b 023f 6801 c43d
00000160: 6714 e9bd 521d 82be 35b7 15bf 70dc 683e
00000170: 40df e8be 05ba 4b3f 6ae6 0cbf f364 9b3e
00000180: fb97 fabe c779 363f b52e ad3e aee1 19bd
00000190: d4a7 85be 5af5 e9be 0e13 0bbf 1390 dfbe
000001a0: bcfc 3c3f 8f28 0b3f 48a5 183e a107 933d
000001b0: dae4 e9be 8f15 02bd dee7 c63e 4e95 a2be
000001c0: f773 643e e491 ddbe f09b 503e 081a 26bf
000001d0: 62f8 2c3f 0a96 f43d bab0 44bf 78a4 1f3f
000001e0: 5388 913f 5d1e 173f b412 4dbe 58ae 9dbe
000001f0: de2e a5be fecd f03e d353 123f fd15 a3be
-0.7142072 -0.24068807 0.29612744 0.43284833 0.070391834 0.27175635 -0.34027082 -0.1964376
-0.05119631 -0.48795626 -0.47790742 0.22006977 0.060784962 -0.22272323 0.72066754 -0.15179062
0.65375006 -0.118944086 0.119934194 0.021594739 -0.14051507 0.5388886 0.03230263 0.71137035
-0.20230861 -0.5571255 0.40524954 -0.45421773 -0.28758746 -0.47972366 -0.05199104 -0.4936783
1.0320059 0.6254721 -0.076789394 -4.8050995e-05 0.022098206 0.49928954 0.47605562 -0.27785414
0.044050656 -0.07037325 0.065870225 0.06927438 -0.31841588 0.15227833 0.3335617 -0.30154538
-0.1483086 -0.21286649 -0.58028054 -0.14660713 0.61888176 -0.079163514 -0.057213552 0.3915625
0.7207233 -0.016959427 -0.27416754 0.41782805 -0.55342287 0.23870419 -0.22290702 -0.25361183
0.012674871 -0.37137285 0.23727807 0.3021682 -0.14039373 -0.24464719 0.4548278 0.10418137
1.0095308 0.6056332 0.31891116 -0.32488936 -0.15010016 0.07749086 1.1185342 0.34024084
-0.5662453 0.048957948 0.76101255 -0.24268545 0.017881999 -0.069038294 0.5089585 0.09570581
-0.113808446 -0.25412995 -0.58482677 0.2274034 -0.45482826 0.7958072 -0.55039084 0.30350456
-0.48944077 0.7127957 0.33824697 -0.03756874 -0.26104605 -0.45695 -0.5432595 -0.43664607
0.7382314 0.5435876 0.149068 0.071791895 -0.45682412 -0.03175884 0.38848776 -0.31754535
0.22309862 -0.43275368 0.20371985 -0.6488347 0.675665 0.1194268 -0.76832163 0.62360334
1.1369728 0.59030706 -0.20026666 -0.30797076 -0.3226232 0.4703216 0.57159156 -0.31852713

critic.4.weight f4 [1, 128]
00000000: f66f d4b6 10c8 8cb9 517c a739 4785 a93a
00000010: b8ea 623b 339d b3b8 5834 00b7 aace 13bc
00000020: 19f9 8639 867f 183a 6ce2 b839 9663 af39
00000030: e410 a038 0ef1 1cba 3a9c 8fb9 e805 8c39
00000040: bafd 95b9 002a 1bb9 8c31 e939 778d 083a
00000050: a788 a839 c6c9 0abb f1ab c6ba 66a2 12bb
00000060: 32dd 69ba 3672 5039 b979 08ba 4fba 013a
00000070: 48e3 0139 295a 37ba 7cd0 233a 8a58 7cb9
00000080: c0f5 ccbb 85df 57bc 253a 95ba 5d75 0cb9
00000090: b533 95ba d5bb bc39 e737 093a 2f9a 61ba
000000a0: 51e5 483a 066a 23b9 462b 3339 2a53 3c3b
000000b0: 3462 52ba a578 97ba 33f2 d7b6 51dd e1b9
000000c0: d27c a538 0d88 2bba eb8a 433a bf2d 473a
000000d0: 6fae 00b8 eedf 7339 a62e 81ba 655e 1939
000000e0: 34ac 113a 9ab0 3d3a ab3b 96b9 74e9 dd3d
000000f0: 24fc 333a 03b1 dc39 879f 1c3a 6461 58ba
00000100: 66c3 f33c 8654 fdb7 f293 623a 7228 eab8
00000110: 7bc5 2538 3c0d 7aba 216c c1bb 9d2e 2bbb
00000120: ad04 9dbc 5da3 d539 9863 c1b9 cef5 a9b8
00000130: dbdd dbb9 6995 ff3a 7301 ce3d 3a5b 3b3a
00000140: dad4 d83a 042e 213a f5c0 65ba 45c8 0f3a
00000150: fbfb 12b9 614a 8a39 13d5 a3b9 c871 b63c
00000160: c703 6d3a c531 033a 3b80 0a39 e5f0 e139
00000170: be75 1cb8 598d 6cba bf57 0f39 b25a 34ba
00000180: cddf ec39 a35a 21bb d5ba 0f39 657e c139
00000190: 0200 09b9 fea7 7f39 1d31 a53a 2988 f036
000001a0: 25b0 1e3a 1026 5039 0dd9 10ba eb23 81b9
000001b0: cc48 11bc efcb 5bb8 2f3f a4b9 8e44 6939
000001c0: afd4 943a dac8 b8b9 ed1b 8138 5a43 bdb9
000001d0: 583c 0cba 2561 aa39 3ace 903a 1793 9b3a
000001e0: ec94 bdbb f280 e039 c286 9cba b0ae c539
000001f0: 2793 8238 6c1c 9939 56ed 1f38 ba85 cd38
-6.3311263e-06 -0.0002685194 0.00031945345 0.0012933397 0.0034624767 -8.564666e-05 -7.641582e-06 -0.0090214405
0.00025744064 0.00058173423 0.00035263912 0.00033452798 7.632541e-05 -0.00059868477 -0.00027391483 0.0002670728
-0.00028608536 -0.00014797598 0.00044478138 0.0005209068 0.0003214527 -0.0021177395 -0.0015157444 -0.002237463
-0.00089212053 0.00019878973 -0.00052061264 0.00049487216 0.00012387068 -0.0006994331 0.0006249023 -0.00024065576
-0.0062548816 -0.01317585 -0.0011385126 -0.00013395162 -0.0011383208 0.000359981 0.00052344654 -0.0008606044
0.00076635653 -0.00015584388 0.00017086891 0.0028736093 -0.00080254977 -0.0011556341 -6.435695e-06 -0.00043080238
7.891063e-05 -0.00065434055 0.000745936 0.0007598064 -3.0680032e-05 0.00023257706 -0.0009855821 0.00014626382
0.00055569713 0.00072360935 -0.00028654686 0.10835543 0.000686588 0.00042093554 0.0005974699 -0.00082542584
0.02975626 -3.019931e-05 0.00086432614 -0.00011165523 3.9522984e-05 -0.0009538715 -0.0059027825 -0.0026120313
-0.019167269 0.0004074824 -0.00036886032 -8.104333e-05 -0.0004193623 0.0019499484 0.1005887 0.00071470777
0.0016542927 0.00061485195 -0.00087644096 0.00054848596 -0.00014017515 0.00026376828 -0.00031248535 0.022271052
0.00090413954 0.00050046697 0.00013208475 0.00043094825 -3.7302954e-05 -0.0009023748 0.0001367023 -0.000687997
0.00045180172 -0.0024620674 0.00013707143 0.00036906 -0.00013065341 0.00024381277 0.0012603138 7.1684085e-06
0.0006053469 0.00019850605 -0.0005525507 -0.00024631558 -0.008867454 -5.2403597e-05 -0.00031327593 0.0002224615
0.0011354889 -0.0003524486 6.156401e-05 -0.0003609907 -0.0005349568 0.00032497305 0.0011047788 0.0011869398
-0.005785575 0.0004282068 -0.0011942016 0.0003770492 6.226292e-05 0.0002920361 3.812959e-05 9.80007e-05

exp_avg f4 [4]
00000000: 26fb 0abb ad10 43ba b5c8 413c 2ba3 01ba
-0.0021206825 -0.00074411446 0.011827637 -0.00049452734

exp_avg_sq f4 [4]
00000000: 53f3 0439 83a6 3e38 f070 923c 2dde 0d3a
0.00012679146 4.5454606e-05 0.017876118 0.000541183
