examples/drone/logs/drone-racing/model_3400.pt (torch, 474978 bytes, 36 tensors)

std f4 [4]
0.15311483 0.22624607 0.06983743 0.056284413
00000000: 22ca 1c3e 0dad 673e ed06 8f3d 7c8a 663d

actor.0.weight f4 [128, 17]
2.702915 1.043798 -10.196602 0.35887036 -0.8131284 1.3106403 0.5760698 0.4051687
0.02072724 0.6816149 0.02042959 -0.05632561 0.046192534 -0.05153108 -0.006085561 -0.023822231
0.046412107 0.48024544 -0.63076556 1.7114592 -0.42346808 -0.9657031 -0.47486538 -0.028606353
0.22894783 0.09091745 -0.11977339 0.06367925 -0.07383398 -0.13758628 0.28112918 0.24676087
0.17806247 0.08401603 -1.2896938 -0.3216312 -0.05156847 0.5548154 -1.4143401 0.57327265
-0.65636903 -0.74976665 -0.940723 0.6084225 -0.44155207 0.7589423 0.1238323 0.009499183
0.017967198 -0.03159592 0.02294438 -0.7032002 0.9875512 1.1677231 0.22151 -0.50388485
0.40659824 -0.50169253 0.34281775 0.07792469 -0.09658656 0.013377862 0.10822598 -0.13814978
0.15510443 -0.10518094 0.009989649 0.05339668 0.26986426 -0.1572473 0.40033093 -0.4123812
-0.10461271 -0.15548173 0.050472353 -0.0412474 0.031897902 -0.0121192355 -0.0072449897 -0.034441344
-0.03277214 0.19189511 0.08794019 -0.16619645 -0.22624764 0.29289308 -0.6546937 2.1816497
0.08459602 -1.4137691 -0.6419079 -0.19493982 0.37595037 0.12756456 -0.23728356 0.11845787
0.44828904 -0.16464308 -0.17747682 -0.0967553 -0.033251435 -0.06597864 -2.2915685 -0.23003553
-3.8992162 0.25061998 -1.5605127 0.17528476 -0.015121975 0.21275583 0.31936637 0.5139847
-0.08402356 0.4880743 -0.31468344 -0.005225567 0.022435365 -0.096982144 -0.15344113 -0.07794609
0.40176675 3.8737688 -0.013409385 0.035145823 0.21973333 -0.5461378 0.45186415 0.029625228
-0.48325157 0.25329748 0.4958589 -0.3015277 -0.06290349 -0.026709192 0.0793072 0.07255688
0.030078502 -0.08004407 -0.26211742 -0.015822764 -0.08549787 -0.017963799 -0.04259467 -0.006136248
-0.007759473 0.00036376718 0.010516067 0.017392864 0.022896571 0.2504232 -0.30179358 -0.09230929
0.34149006 0.9964684 -0.979353 -1.9159591 0.01228713 -0.09570758 1.7541418 2.6140192
0.7492445 0.47639814 0.84107053 0.21294187 -0.06666704 -0.0666677 -0.029865077 -0.0044619567
-0.09047842 -0.17163724 0.22454129 -0.069478475 0.3118247 -0.46166432 -0.03453814 -0.061677113
0.017912872 -0.022437578 0.08728325 -0.032634705 -0.021477023 -0.007916165 -0.0098492745 -0.080219366
-0.037105702 -0.11263899 -0.13254438 0.0033941674 1.2732675 -0.99523586 0.5935033 -0.8449612
0.8496558 0.04094341 0.59339964 -0.38627616 -1.1095628 -0.39845863 0.33693293 0.47804448
-0.004012899 0.078965664 -0.025125919 -0.11427125 0.7265096 0.017663686 -3.4337978 -0.01131586
0.14632079 1.8839189 0.28978246 0.9455279 0.30961117 1.2005622 -0.39646873 1.1281631
0.30801818 0.11284023 0.015259032 -0.04647345 0.16515931 -0.12302624 -0.020814015 0.3878708
-0.4682921 -0.30989844 0.55351335 -0.03211405 0.2187936 0.075357705 -0.026427042 -0.07500811
-0.11026905 -0.13723952 0.092797115 -0.062660344 0.12769867 -0.055759165 0.5613097 -0.70429504
0.89150125 -0.3255004 -1.2150795 -0.70411086 -0.08158518 0.3581418 0.15630522 -0.26738936
0.17211038 0.013785117 -0.096942365 0.16153234 0.0907539 0.22805516 -0.02212395 0.88746315
00000000: 8ffc 2c40 2c9b 853f 4825 23c1 dbbd b73e
00000010: 2f29 50bf 10c3 a73f 4f79 133f 4672 cf3e
00000020: 2ccc a93c 507e 2e3f f55b a73c afb5 66bd
00000030: 6234 3d3d 4112 53bd 6369 c7bb d726 c3bc
00000040: 9f1a 3e3d bbe2 f53e da79 21bf 1811 db3f
00000050: cfd0 d8be 5238 77bf 8e21 f3be df57 eabc
00000060: 4d71 6a3e ee32 ba3d c04b f5bd 446a 823d
00000070: 4536 97bd 6be3 0cbe 2af0 8f3e e2ae 7c3e
00000080: 0256 363e 9910 ac3d b014 a5bf d8ac a4be
00000090: 7639 53bd 6208 0e3f 1909 b5bf ffc1 123f
000000a0: cd07 28bf b5f0 3fbf 39d3 70bf 94c1 1b3f
000000b0: 1d13 e2be 0b4a 423f ca9b fd3d 76a2 1b3c
000000c0: f22f 933c b96a 01bd daf5 bb3c ee04 34bf
000000d0: 28d0 7c3f f377 953f 84d3 623e 99fe 00bf
000000e0: a52d d03e ec6e 00bf cf85 af3e fb96 9f3d
000000f0: 2dcf c5bd d22e 5b3c 95a5 dd3d 2377 0dbe
00000100: b2d3 1e3e 1b69 d7bd a0ab 233c 7ab6 5a3d
00000110: a62b 8a3e 7005 21be 2df8 cc3e a123 d3be
00000120: 303f d6bd 9a36 1fbe 19bc 4e3d 09f3 28bd
00000130: 60a7 023d c28f 46bc 6167 edbb 5e12 0dbd
00000140: 143c 06bd 2780 443e fd19 b43d 672f 2abe
00000150: 76ad 67be 15f6 953e 029a 27bf 26a0 0b40
00000160: ae40 ad3d 63f6 b4bf 1354 24bf 4e9e 47be
00000170: 917c c03e 49a0 023e 76fa 72be 0a9a f23d
00000180: 2486 e53e 3298 28be 7cbc 35be a527 c6bd
00000190: a832 08bd cf1f 87bd 0fa9 12c0 6f8e 6bbe
000001a0: c28c 79c0 4351 803e e1be c7bf d97d 333e
000001b0: 29c2 77bc aadc 593e fd83 a33e 8094 033f
000001c0: 8b14 acbd e0e4 f93e 301e a1be 3c3b abbb
000001d0: 5fca b73c 939e c6bd ac1f 1dbe 33a2 9fbd
000001e0: 5fb4 cd3e d4eb 7740 0ab3 5bbc 11f5 0f3d
000001f0: c601 613e b0cf 0bbf bd5a e73e 9bb0 f23c
00000200: c06c f7be 35b0 813e 38e1 fd3e d761 9abe
00000210: 8cd3 80bd 3ccd dabc d06b a23d b498 943d
00000220: 3167 f63c 25ee a3bd 4134 86be be9e 81bc
00000230: 8219 afbd d128 93bc c077 2ebd 9412 c9bb
00000240: 2d43 febb 01b8 be39 954b 2c3c 7b7b 8e3c
00000250: 9791 bb3c 7837 803e b084 9abe a70c bdbd
00000260: c9d7 ae3e 8e18 7f3f e1b6 7abf 263e f5bf
00000270: f54f 493c 5602 c4bd b887 e03f 174c 2740
00000280: 7dce 3f3f 75ea f33e 6650 573f 6f0d 5a3e
00000290: bb88 88bd 1389 88bd 9ba7 f4bc 9b35 92bb
000002a0: c04c b9bd acc1 2fbe 27ee 653e bb4a 8ebd
000002b0: 7da7 9f3e 445f ecbe dd77 0dbd 24a1 7cbd
000002c0: 04be 923c 03cf b7bc 90c1 b23d f8ab 05bd
000002d0: 95f0 afbc cdb2 01bc da5e 21bc 0d4a a4bd
000002e0: 26fc 17bd 45af e6bd b7b9 07be ae70 5e3b
000002f0: 6efa a23f c7c7 7ebf d5ef 173f 614f 58bf
00000300: 0b83 593f 47b4 273d 0ae9 173f fdc5 c5be
00000310: 2706 8ebf c502 ccbe 7982 ac3e 3fc2 f43e
00000320: a37e 83bb c0b8 a13d dfd4 cdbc 0c07 eabd
00000330: 88fc 393f 6fb3 903c 58c3 5bc0 2866 39bc
00000340: 1ed5 153e 4124 f13f 5e5e 943e 1e0e 723f
00000350: 5b85 9e3e 06ac 993f f3fd cabe a667 903f
00000360: 8fb4 9d3e c718 e73d 0501 7a3c f25a 3ebd
00000370: 861f 293e 2ef5 fbbd 2782 aabc 0097 c63e
00000380: fbc3 efbe 02ab 9ebe 0db3 0d3f 068a 03bd
00000390: 6e0b 603e 2455 9a3d 867d d8bc da9d 99bd
000003a0: bdd4 e1bd 8488 0cbe 6a0c be3d 1154 80bd
000003b0: 71c3 023e b963 64bd feb1 0f3f ae4c 34bf
000003c0: 6d39 643f fda7 a6be ba87 9bbf 9c40 34bf
000003d0: 2116 a7bd 5d5e b73e 7a0e 203e 42e7 88be
000003e0: b43d 303e f9da 613c b889 c6bd bc68 253e
000003f0: 2edd b93d 4b87 693e 493d b5bc c930 633f

actor.0.bias f4 [128]
0.100411505 -0.39945227 -0.18177891 -0.5767981 0.44995266 0.2266178 -0.23341271 -0.07348224
-0.15419905 0.022796089 0.6715209 0.14812091 0.22323085 0.09781496 -0.2107134 -0.6877477
0.042226862 0.18020773 -0.24568805 -0.33975154 0.43793696 -0.12593205 0.13188569 -0.031268302
-0.14723107 -0.310963 0.27650166 0.40589282 -0.15432213 -0.06563493 -0.03289932 -0.11742564
-0.42272636 0.36162165 0.11607721 -0.2413839 -0.66958433 0.13509214 -0.3817279 -0.24690099
-0.033642087 -0.2737172 0.29599524 0.1379062 -0.20668489 -0.24929188 -0.1643475 -0.173734
-0.14610882 0.07133808 0.26099443 -0.36569747 -0.07883367 0.23096092 -0.23348863 0.27271345
0.24304774 -0.46529478 -0.19010788 0.0055155414 0.43211383 0.2912927 0.062040653 -0.2784279
-0.5733413 0.07844774 0.7018896 -0.420321 0.15224357 0.21949887 -0.19731936 -0.5364784
0.25129217 0.027938632 -0.34172544 0.18382984 0.54871607 -0.10870046 -0.08078605 -0.13810539
-0.17553723 0.1561045 0.23748122 0.13922645 0.03600783 -0.3479333 0.23261705 0.077739
-0.31059206 -0.23166904 -0.38266662 -0.13683353 0.019973362 -0.05398939 -0.07425543 0.49705505
-0.013558419 0.42040157 -0.0652427 -0.14132926 -0.2110868 0.3372061 -0.22404595 -0.18979873
-0.13889594 -0.11504003 0.1549028 0.004395443 -0.36111146 0.0037525126 0.017158303 0.038017914
-0.17871232 -0.031526506 -0.15633667 -0.06767429 -0.1074704 -0.27269128 0.24140322 0.053605326
0.055869564 0.17138559 -0.35254917 -0.5256435 0.16824639 -0.14704986 0.19575135 -0.039945077
00000000: 8ca4 cd3d 0285 ccbe 4024 3abe 0aa9 13bf
00000010: 3260 e63e 7f0e 683e be03 6fbe db7d 96bd
00000020: 5be6 1dbe ddbe ba3c cbe8 2b3f 02ad 173e
00000030: a196 643e 3653 c83d 41c5 57be 3c10 30bf
00000040: 13f6 2c3d 6088 383e a695 7bbe eaf3 adbe
00000050: 4639 e03e 55f4 00be 0b0d 073e 3113 00bd
00000060: bec3 16be 8b36 9fbe a091 8d3e 2fd1 cf3e
00000070: 9f06 1ebe 9b6b 86bd 70c1 06bd db7c f0bd
00000080: 976f d8be 7926 b93e e3b9 ed3d 572d 77be
00000090: e169 2bbf 9855 0a3e d771 c3be 9dd3 7cbe
000000a0: 49cc 09bd a924 8cbe b08c 973e 4837 0d3e
000000b0: 34a5 53be 5f46 7fbe b64a 28be 53e7 31be
000000c0: 8d9d 15be b319 923d 10a1 853e b33c bbbe
000000d0: 8c73 a1bd 0581 6c3e a517 6fbe 19a1 8b3e
000000e0: 82e1 783e 1e3b eebe a4ab 42be b7bb b43b
000000f0: 063e dd3e 5124 953e 571e 7e3d 1a8e 8ebe
00000100: 7fc6 12bf 35a9 a03d 09af 333f 5034 d7be
00000110: bde5 1b3e 50c4 603e 160e 4abe a656 09bf
00000120: 5ea9 803e 8fdf e43c a3f6 aebe e43d 3c3e
00000130: a878 0c3f 599e debd 2873 a5bd 806b 0dbe
00000140: 08c0 33be dcd9 1f3e 472e 733e 6191 0e3e
00000150: f27c 133d 5024 b2be 2a33 6e3e a035 9f3d
00000160: ec05 9fbe a63a 6dbe e1ec c3be 171e 0cbe
00000170: 2d9f a33c fb23 5dbd 3b13 98bd 007e fe3e
00000180: 2224 5ebc e03e d73e f79d 85bd 9eb8 10be
00000190: 2327 58be 47a6 ac3e 4d6c 65be 995a 42be
000001a0: bd3a 0ebe 1b9a ebbd d79e 1e3e a607 903b
000001b0: 9ae3 b8be b7ec 753b 928f 8c3c acb8 1b3d
000001c0: 5d00 37be f021 01bd b816 20be d198 8abd
000001d0: 7119 dcbd 319e 8bbe 6832 773e 4291 5b3d
000001e0: 7cd7 643d b47f 2f3e 5381 b4be 9390 06bf
000001f0: c848 2c3e 3d94 16be 0b73 483e 739d 23bd

actor.2.weight f4 [128, 128]
-0.1676837 0.07459719 0.049308088 0.16236603 0.005456984 -0.072633736 -0.026142647 0.23106167
0.0026948228 0.14969777 -0.055432037 -0.13209958 -0.021892816 -0.026682917 0.048495308 -0.12393446
0.045079153 0.0014116362 -0.08476967 0.039552636 0.04415276 -0.046054628 -0.09417985 0.09392107
-0.04983934 0.06555701 -0.057199832 -0.033714738 -0.040479492 -6.215657e-05 0.0069495435 0.052602533
0.00073765265 0.08497645 -0.12537989 -0.10650624 0.114452556 -0.07787745 0.075560786 -0.14412917
-0.0677988 -0.09915416 -0.02342947 -0.09888737 -0.026367992 -0.26577175 0.1290407 0.060482025
-0.019946232 -0.0018345865 0.021066824 -0.024805637 0.0041559273 0.12996778 -0.058300246 0.20199662
-0.17934613 -0.06293043 0.058337506 -0.030159488 -0.114979796 0.024122046 -0.09738124 -0.02754278
0.01485154 0.0411075 0.09597647 0.17395243 -0.11096696 0.0062459228 0.0027411385 0.06094139
0.081092924 -0.1061959 -0.047232963 -0.026539417 0.1658874 0.02120804 0.13787097 -0.19885167
-0.10538684 0.007019911 0.10135629 -0.1634796 -0.036830164 0.05513159 0.028065147 -0.06603398
-0.07001512 0.03357333 0.0819964 -0.09273409 -0.0052807196 0.04061844 0.07973649 -0.054723673
-0.17525691 0.014567174 0.05157228 0.04518761 -0.103571415 0.09523011 -0.21009162 0.01809147
-0.2019557 -0.012165891 0.05286023 0.0548521 0.19478436 0.1703142 0.1170093 0.07066107
-0.008639211 0.032669265 -0.22148128 -0.10352092 0.007423678 0.08691973 -0.08856461 0.075287715
0.10879599 0.0034158055 0.00052534364 -0.011478502 -0.09983857 -0.009580535 0.041307736 -0.038518153
0.037363354 -0.10627498 -0.1319531 0.09454789 -0.023029014 -0.067537285 -0.13629358 0.030958273
-0.017309997 0.026494896 0.057030883 -0.046728913 0.026616305 -0.054160945 -0.23952049 0.095445804
-0.19826587 -0.044633016 -0.011344576 -0.011064442 0.2052556 -0.08458484 -7.4355514e-05 -0.065513186
-0.10245338 0.069115266 -0.09033392 0.053378668 -0.020990843 0.01907286 0.09539151 -0.046279367
-0.12299333 -0.060468446 0.20966926 -0.07753952 -0.003397226 0.010162338 0.060720436 0.09751194
0.013174007 -0.09218375 -0.15338792 0.047447786 -0.17183356 0.023556583 -0.018674769 -0.009276345
-0.007819374 0.06848619 0.14393494 0.037696447 -0.08412604 0.015813453 -0.04232438 -0.025595918
-0.12374931 -0.026544478 -0.033944555 -0.08191131 0.065230936 -0.13337356 0.004144119 -0.04574186
-0.080035195 -0.027046818 -0.07326239 -0.07760948 0.08164985 -0.07080898 0.15247019 0.105180204
-0.0036363304 0.06160663 -0.005431978 -0.029139383 0.063320056 0.057423458 0.01152708 -0.13074802
0.0068457755 0.04732574 0.099285424 -0.07160788 0.081186436 0.11475444 -0.007464162 0.041991312
0.029722167 0.06849974 0.0067901765 0.08615443 0.07160024 -0.059718035 -0.025812684 0.10069407
-0.039284904 0.0017242292 -0.103028774 -0.014709345 0.026228985 -0.0063166316 0.0029693427 0.0073855384
-0.014021379 0.1286865 0.16436905 -0.031120345 0.09162871 -0.017945232 0.011566401 -0.07014354
-0.060604632 -0.0362974 0.10134092 0.07945546 -0.03169285 0.015987247 -0.0068937764 -0.0068616425
-0.068970464 -0.030166022 -0.12612393 0.045264143 0.08152487 0.010517399 0.108015314 -0.17022857
00000000: 47b5 2bbe 69c6 983d 47f7 493d 4843 263e
00000010: 80d0 b23b ffc0 94bd 1b29 d6bc 6e9b 6c3e
00000020: a09b 303b 5f4a 193e b40c 63bd 1d45 07be
00000030: 9058 b3bc 2296 dabc 04a3 463d 5ad1 fdbd
00000040: eba4 383d a706 b93a b99b adbd f201 223d
00000050: 86d9 343d c7a3 3cbd 5de1 c0bd b159 c03d
00000060: 5624 4cbd c142 863d 5f4a 6abd 7718 0abd
00000070: d3cd 25bd 0e5a 82b8 ffb8 e33b c175 573d
00000080: 085f 413a 2208 ae3d 9663 00be f21f dabd
00000090: 1a66 ea3d 367e 9fbd 9dbf 9a3d 9996 13be
000000a0: 19da 8abd 5611 cbbd 29ef bfbc 7685 cabd
000000b0: b001 d8bc 3c13 88be 3f23 043e 00bc 773d
000000c0: 4866 a3bc 8276 f0ba 5594 ac3c 3135 cbbc
000000d0: 722e 883b 4616 053e 3dcc 6ebd 34d8 4e3e
000000e0: 83a6 37be abe1 80bd 4ff3 6e3d 0811 f7bc
000000f0: 877a ebbd 999b c53c d16f c7bd 65a1 e1bc
00000100: e053 733c 5760 283d 508f c43d 9620 323e
00000110: a542 e3bd 99aa cc3b aca4 333b ae9d 793d
00000120: 0c14 a63d 3c7d d9bd 5a77 41bd 3169 d9bc
00000130: 63de 293e 7cbc ad3c 0c2e 0d3e c69f 4bbe
00000140: 0ed5 d7bd 4807 e63b e393 cf3d 3267 27be
00000150: 3adb 16bd aad1 613d e1e8 e53c d33c 87bd
00000160: 1664 8fbd 3084 093d bbed a73d 5feb bdbd
00000170: e309 adbb 855f 263d e34c a33d ee25 60bd
00000180: 8c76 33be 28ab 6e3c 743d 533d a516 393d
00000190: 401d d4bd 0108 c33d 4222 57be 9034 943c
000001a0: 7acd 4ebe 7253 47bc f883 583d 98ac 603d
000001b0: 8d75 473e d866 2e3e 92a2 ef3d c0b6 903d
000001c0: 7a8b 0dbc 35d0 053d fdcb 62be c702 d4bd
000001d0: 5342 f33b f902 b23d 5d61 b5bd 7230 9a3d
000001e0: 6fd0 de3d b5db 5f3b 37b7 093a 5410 3cbc
000001f0: 2a78 ccbd adf7 1cbc 4d32 293d 36c5 1dbd
00000200: 510a 193d b2a6 d9bd b71e 07be 53a2 c13d
00000210: 58a7 bcbc fd50 8abd 8b90 0bbe 349c fd3c
00000220: b2cd 8dbc d30b d93c 3799 693d d166 3fbd
00000230: 700a da3c ded7 5dbd dc44 75be 1779 c33d
00000240: 3506 4bbe 1cd1 36bd 9ade 39bc a247 35bc
00000250: 862e 523e d13a adbd 50ef 9bb8 c72b 86bd
00000260: 14d3 d1bd 4e8c 8d3d fe00 b9bd 97a3 5a3d
00000270: fdf4 abbc b03e 9c3c a05c c33d 6f8f 3dbd
00000280: ede3 fbbd c3ad 77bd 8ab3 563e 0acd 9ebd
00000290: ffa3 5ebb ef7f 263c feb5 783d 57b4 c73d
000002a0: cad7 573c d5ca bcbd b911 1dbe 9c58 423d
000002b0: 23f5 2fbe bcf9 c03c d4fb 98bc d0fb 17bc
000002c0: d51c 00bc 7d42 8c3d ae63 133e 9767 1a3d
000002d0: 464a acbd 378b 813c 545c 2dbd 88ae d1bc
000002e0: 4770 fdbd ce73 d9bc 7209 0bbd 1ec1 a7bd
000002f0: cc97 853d 1493 08be 64cb 873b d15b 3bbd
00000300: 7ee9 a3bd 4a91 ddbc 980a 96bd b8f1 9ebd
00000310: 0938 a73d 4c04 91bd 2521 1c3e b868 d73d
00000320: 804f 6ebb 3c57 7c3d bcfe b1bb b7b5 eebc
00000330: f2ad 813d dc34 6b3d 14dc 3c3c cfe2 05be
00000340: 8752 e03b a3d8 413d 2856 cb3d 27a7 92bd
00000350: 1345 a63d 6004 eb3d ee95 f4bb 15ff 2b3d
00000360: e77b f33c 9749 8c3d 2180 de3b bc71 b03d
00000370: 26a3 923d e69a 74bd 1f75 d3bc b138 ce3d
00000380: 35e9 20bd 88ff e13a c000 d3bd 77ff 70bc
00000390: 2bde d63c bffb cebb 4e99 423b 6302 f23b
000003a0: edb9 65bc 65c6 033e 5c50 283e 18f0 febc
000003b0: d5a7 bb3d e101 93bc 0181 3d3c 6ba7 8fbd
000003c0: 903c 78bd 95ac 14bd d48b cf3d 8bb9 a23d
000003d0: 5dd0 01bd b0f7 823c 30e5 e1bb a1d7 e0bb
000003e0: 6340 8dbd bc1e f7bc a226 01be e566 393d
000003f0: 83f6 a63d 2b51 2c3c 2237 dd3d 6650 2ebe

actor.2.bias f4 [128]
-0.048888505 0.014984786 0.14251599 -0.24222094 0.099860996 0.16056943 0.16222942 -0.02411081
0.07397534 -0.089457616 -0.8163704 -0.038804602 -0.12806235 -0.06914834 0.14881639 0.045553014
0.19001286 0.036108904 -0.10744169 -0.10340993 -0.31129685 -0.098750666 -0.08490397 0.5865748
-0.050215717 -0.8356541 0.040266722 -0.02507716 -0.5648814 0.00033045743 0.273242 -0.113624536
-0.077239685 0.03860033 -0.054729488 -0.3071383 0.008626134 0.07652682 0.040541645 -0.014834603
0.11343058 -0.037813433 -0.052306794 0.5764763 -0.17174901 -0.02309463 0.05416449 0.10468006
-0.45098504 -0.29105872 0.058375623 -0.12695944 -0.08169658 0.042047348 0.014067857 -0.089501515
-0.022016514 -0.17015132 0.048136715 -0.1391925 0.027948137 -0.056822807 0.07111308 0.11371778
-0.10831162 -0.067163594 -0.008268839 0.050157968 0.04746351 0.061954536 0.058045477 -0.016117385
0.3196717 0.026770707 0.090010196 0.0020486782 0.044848688 -0.05817233 -0.047163464 -0.06882301
0.018247731 0.1153811 0.07092992 -0.37580767 -0.08779428 -0.045009997 -0.009212813 -0.014764883
-0.015922876 0.59912264 -0.11353317 -0.3492205 0.03561573 -0.08830478 0.060986686 0.018590545
-0.02311394 0.022374846 1.0042317 0.09383677 -0.025069857 0.33967602 -0.008465672 0.052186538
-0.021955095 -0.096427195 0.09546475 0.021189267 -0.1246395 0.3655771 0.4684625 0.018217053
0.060664605 0.023158906 -0.18421493 -0.008950187 0.22693862 0.057624146 -0.040309228 -0.09150141
-0.1518293 0.01944313 0.09208908 -0.06196958 0.2973137 0.13832283 0.073525205 -0.011585102
00000000: 503f 48bd bf82 753c b6ef 113e c408 78be
00000010: ec83 cc3d 506c 243e 781f 263e 0984 c5bc
00000020: 6280 973d 8e35 b7bd a7fd 50bf 93f1 1ebd
00000030: c722 03be a59d 8dbd 5363 183e cc95 3a3d
00000040: bb92 423e eee6 133d 640a dcbd 96c8 d3bd
00000050: 4d62 9fbe ca3d cabd 22e2 adbd c429 163f
00000060: ffae 4dbd 6ded 55bf b8ee 243d 9e6e cdbc
00000070: 119c 10bf 3f41 ad39 60e6 8b3e fbb3 e8bd
00000080: d72f 9ebd 611b 1e3d 072c 60bd 3b41 9dbe
00000090: a154 0d3c 18ba 9c3d ff0e 263d d60c 73bc
000000a0: 4b4e e83d 42e2 1abd a63f 56bd f393 133f
000000b0: f9de 2fbe f330 bdbc 96db 5d3d 8062 d63d
000000c0: 83e7 e6be a605 95be 471b 6f3d a801 02be
000000d0: 8950 a7bd d739 2c3d de7c 663c 924c b7bd
000000e0: fa5b b4bc 263c 2ebe 012b 453d 7b88 0ebe
000000f0: 7ef3 e43c 08bf 68bd bca3 913d dee4 e83d
00000100: 7cd2 ddbd 118d 89bd 067a 07bc 7172 4d3d
00000110: 1969 423d 0ac4 7d3d 18c1 6d3d 9b08 84bc
00000120: 02ac a33e 3e4e db3c 4457 b83d 1e43 063b
00000130: 42b3 373d 1c46 6ebd 7a2e 41bd 14f3 8cbd
00000140: 447c 953c ed4c ec3d b543 913d dd69 c0be
00000150: 7dcd b3bd 675c 38bd 57f1 16bc 68e8 71bc
00000160: b170 82bc 1a60 193f 1484 e8bd 08cd b2be
00000170: cde1 113d 23d9 b4bd 2dcd 793d 334b 983c
00000180: 7259 bdbc 744b b73c aa8a 803f 7e2d c03d
00000190: 4d5f cdbc 04ea ad3e 9ab3 0abc 8dc1 553d
000001a0: 2cdb b3bc 9f7b c5bd 0683 c33d 1d95 ad3c
000001b0: ff42 ffbd ec2c bb3e 51da ef3e ee3b 953c
000001c0: 737b 783d bfb7 bd3c d7a2 3cbe cea3 12bc
000001d0: 9962 683e 4c07 6c3d 4a1b 25bd 1765 bbbd
000001e0: 2479 1bbe 3347 9f3c 3399 bc3d d0d3 7dbd
000001f0: 8039 983e 80a4 0d3e 6294 963d 71cf 3dbc

actor.4.weight f4 [4, 128]
0.007161727 -0.0062738312 0.008399281 0.03171503 0.00017372836 0.0019591532 0.018081153 0.14383335
-0.058639698 0.0076515805 -0.21230401 0.002434907 -0.12272661 -0.0014593862 -0.0014182976 0.011733761
0.041849077 0.00010939553 -0.0024163295 0.060230866 -0.18707173 0.003926709 -0.065693475 0.3296529
0.0030131757 0.09534915 0.0029411903 -0.0014304008 -0.17658973 -0.004520061 0.075411946 0.0038408604
0.007786631 -0.00032347123 0.0019550994 0.2547743 0.002585359 0.0051303227 0.0036164909 0.0019240939
-0.047708053 0.0023075137 0.0064721303 -0.09270281 0.16944918 -0.00373376 0.0030037651 -0.009535056
-0.058850538 -0.080201395 -0.0062672365 -0.052218013 0.055918798 -0.008631052 -0.0058620134 0.005160562
-0.00071749114 0.07811451 0.0005164091 -0.0989776 0.0028482962 0.0015531239 -0.004288709 -0.000258944
-0.0018496284 0.013792349 0.0018982473 0.0042759557 -0.0017770763 -0.003980902 0.09647402 -0.0053132554
-0.0053150076 0.002222846 -0.0031898571 0.00023694821 0.0034077554 0.002092652 0.004662835 0.13200836
0.000106950305 -0.0076440983 -0.007922867 -0.20078196 0.0040505296 -0.0007641988 0.003742721 -0.0019135748
-0.0011988719 -0.079142 -0.0015517129 -0.022676008 0.0027164507 -0.06625363 0.0049074823 -0.0065435194
0.0052780746 -0.0016997954 0.29050687 0.0005874942 -0.0004372625 0.079454176 0.004145756 0.0003318504
-0.008764475 0.00058022805 -0.0669526 -0.0032423637 -0.0018992039 0.09643583 0.023469653 -0.005924255
-0.005163068 -0.0017588962 -0.0017756019 -0.0008347416 0.21082142 -0.0016396134 0.00421648 0.047651567
-0.0023393321 0.11361709 -0.050498225 -0.070266455 0.040389083 -0.00030185652 0.0042009684 -0.17061304
-0.009447168 0.009884981 -0.010235938 0.018061996 0.0061386945 0.0021685276 0.04727323 -0.0823335
0.049370173 -0.015095102 0.124755345 -0.0015471496 -0.2568224 0.01870147 -0.008136971 0.007485154
0.03900886 0.0011906207 0.0053641037 -0.026008068 -0.084008224 -0.008127091 -0.10847674 -0.04909901
-0.07174727 -0.6389818 0.005460338 0.0031935098 -0.045785684 -0.00012485264 0.00948443 -0.0024705532
-0.030062973 -0.012348804 -0.004766813 -0.014840067 0.00029530525 -0.0025371572 -0.011124215 -0.009099631
0.26514027 -0.002245338 -0.0012508067 0.007030556 0.07763308 -0.0025000956 -0.002311878 0.012954267
0.041540097 0.011657151 -0.109139115 -0.08709575 0.105112046 -0.0033319157 0.0043619047 -0.0071100327
0.0063140746 -0.06140974 -0.01771438 -0.10594165 0.005960695 0.003006378 3.09358e-05 0.004670801
0.001411762 -0.0062468243 0.0066706543 -0.0018658759 -0.0010432224 -0.009119528 0.2721412 0.0049892105
0.18742725 -0.046701256 0.008588488 -0.0009863363 -0.001877062 0.0025695658 -0.0056025954 -0.09752686
0.0027264587 0.069461405 0.0036477812 0.045852203 0.0019199577 0.0012796683 -0.015305267 -0.0034116895
0.0027662718 0.08932294 -0.000711483 -0.22887895 -0.008402191 -0.10672281 -0.006228623 0.014843644
0.007066641 0.0013782349 0.38654065 0.0012826198 -0.013237991 -0.11281822 -0.007050714 0.007916062
-0.0006884731 -0.0049557695 -0.23080054 0.0025921168 0.0018014562 0.16316722 0.085989855 0.0019831501
0.0025705525 -0.005218263 -0.027335849 -0.080139644 -0.12894236 0.006176088 -0.008670832 0.10977198
-0.24929728 -0.059403695 0.027657483 0.060262978 -0.12080233 -0.008257303 0.0005002996 0.044437524
00000000: ecac ea3b b694 cdbb 239d 093c 9fe7 013d
00000010: da2a 3639 2365 003b ed1e 943c 0d49 133e
00000020: 2e30 70bd 1cba fa3b 3966 59be f692 1f3b
00000030: 1758 fbbd e048 bfba 2ce6 b9ba f63e 403c
00000040: f069 2b3d 476b e538 485b 1ebb a4b4 763d
00000050: bb8f 3fbe 9fab 803b 4d8a 86bd 44c8 a83e
00000060: b378 453b 6a46 c33d fcc0 403b 497c bbba
00000070: f0d3 34be 051d 94bb 9471 9a3d f2b6 7b3b
00000080: ff26 ff3b 9397 a9b9 2021 003b c771 823e
00000090: 206f 293b 441c a83b a602 6d3b e131 fc3a
000000a0: 8569 43bd a839 173b 2a14 d43b f9da bdbd
000000b0: 1684 2d3e 19b2 74bb d1da 443b ec38 1cbc
000000c0: 430d 71bd a140 a4bd 645d cdbb 8ee2 55bd
000000d0: 1c0b 653d 4269 0dbc 2216 c0bb ef19 a93b
000000e0: 0416 3cba 80fa 9f3d a15f 073a c5b4 cabd
000000f0: 7baa 3a3b 3192 cb3a 4c88 8cbb e0c2 87b9
00000100: 3b6f f2ba 4ef9 613c 9cce f83a 511d 8c3b
00000110: c9ec e8ba 3a72 82bb 2c94 c53d d11a aebb
00000120: 8429 aebb 2bad 113b ec0c 51bb 4d75 7839
00000130: a654 5f3b e024 093b b2ca 983b 332d 073e
00000140: 824a e038 587b fabb eace 01bc c999 4dbe
00000150: 4eba 843b 8354 48ba 7048 753b ead0 faba
00000160: 7723 9dba 3315 a2bd d862 cbba 09c3 b9bc
00000170: 7b06 323b fcaf 87bd f2ce a03b 056b d6bb
00000180: b3f3 ac3b abcb deba 51bd 943e 1202 1a3a
00000190: 6140 e5b9 dfb8 a23d 1fd9 873b 35fc ad39
000001a0: df98 0fbc 721a 183a 721e 89bd d67d 54bb
000001b0: b5ee f8ba 2680 c53d 6e43 c03c 4120 c2bb
000001c0: f42e a9bb c38a e6ba 50bb e8ba 8fd2 5aba
000001d0: 92e1 573e 4ce8 d6ba 662a 8a3b 4a2e 433d
000001e0: 7b4f 19bb 14b0 e83d 3ad7 4ebd dce7 8fbd
000001f0: 066f 253d 7f42 9eb9 47a8 893b 2fb5 2ebe
00000200: 4bc8 1abc 9ef4 213c a3b4 27bc c0f6 933c
00000210: 1a27 c93b db1d 0e3b 93a1 413d 779e a8bd
00000220: 6138 4a3d 7251 77bc bb7f ff3d bac9 caba
00000230: 3a7e 83be d333 993c ee50 05bc 0646 f53b
00000240: c1c7 1f3d 9a0e 9c3a 5dc5 af3b df0e d5bc
00000250: 810c acbd 7e27 05bc 0e29 debd 0b1c 49bd
00000260: 3cf0 92bd 5094 23bf a3ec b23b 344a 513b
00000270: c589 3bbd e0ea 02b9 9564 1b3c 01e9 21bb
00000280: a046 f6bc a352 4abc ed32 9cbb c123 73bc
00000290: 33d3 9a39 6f46 26bb 5742 36bc 9e16 15bc
000002a0: 77c0 873e 8526 13bb 1cf2 a3ba 9460 e63b
000002b0: 18fe 9e3d a5d8 23bb e082 17bb 223e 543c
000002c0: f325 2a3d a3fd 3e3c 5484 dfbd 425f b2bd
000002d0: fc44 d73d 455c 5abb 4fee 8e3b 47fb e8bb
000002e0: 4ce6 ce3b c888 7bbd bf1d 91bc f0f7 d8bd
000002f0: ef51 c33b a706 453b 10c1 0138 850d 993b
00000300: df0a b93a 29b2 ccbb 8195 da3b 6890 f4ba
00000310: bcbc 88ba 136a 15bc 1756 8b3e 887c a33b
00000320: eeec 3f3e d149 3fbd bbb6 0c3c f447 81ba
00000330: c007 f6ba 2966 283b fa95 b7bb 2abc c7bd
00000340: 63ae 323b c841 8e3d 9d0f 6f3b 85cf 3b3d
00000350: 17a7 fb3a 8bba a73a f1c2 7abc a796 5fbb
00000360: 574a 353b f2ee b63d d182 3aba 3e5f 6abe
00000370: 58a9 09bc 7d91 dabd 7a19 ccbb c132 733c
00000380: 488f e73b e4a5 b43a a8e8 c53e 941d a83a
00000390: 29e4 58bc 3d0d e7bd ad09 e7bb 5fb2 013c
000003a0: a67a 34ba 0264 a2bb fa56 6cbe 81e0 293b
000003b0: d71e ec3a 4f15 273e 731b b03d bdf7 013b
000003c0: b776 283b f6fd aabb 6eef dfbc 4120 a4bd
000003d0: 7709 04be c860 ca3b 1b10 0ebc 22d0 e03d
000003e0: c947 7fbe 4a51 73bd f291 e23c 50d6 763d
000003f0: 3667 f7bd a449 07bc 8a26 033a 1f04 363d

actor.4.bias f4 [4]
0.29850385 0.48006675 0.5627565 0.4042977
00000000: 7fd5 983e 4fcb f53e cf10 103f 1c00 cf3e

critic.0.weight f4 [128, 17]
-0.031045126 -1.6589231 -3.7848613 -0.40127525 1.9856346 1.1373422 -0.040373717 1.0012065
2.2418518 0.09996552 0.5018439 0.13811311 -0.30773294 -0.35764468 -0.14352085 -0.36723885
-0.47530955 -6.8415728 -0.20107524 -3.2232356 -0.95648634 0.38998732 -1.250108 -0.042595915
1.4819683 0.36127934 0.3169851 0.004568853 -0.035351887 -0.031262185 0.014260302 0.10276922
-0.06708936 0.15938956 1.3291185 1.4255053 -1.9961743 0.6558357 -1.4413109 1.7106637
0.08409383 -0.18127012 -0.039138395 -0.17295219 -0.27374673 -0.043641023 -0.05240301 0.19282496
0.48915216 0.5306915 0.7178646 0.2249668 -2.1993368 -1.8134147 -0.6446581 -2.9004297
3.7158172 -1.507518 0.60985464 -0.8674512 -0.8737118 -0.024787802 -0.2697537 0.46154094
0.14677794 0.19897115 0.24975458 0.19173263 0.94772434 0.34521773 -0.9735659 -0.5813277
-1.4406825 1.883218 -2.3269336 -0.6402046 -0.90705305 1.286074 1.8720088 4.222412
1.0755968 0.27388865 -0.31759316 0.057413924 0.010216983 1.371582 1.6630565 4.957993
-0.8524112 -0.26312885 0.39093602 0.7350792 2.407652 1.8563869 -0.37608483 -0.569097
0.2748676 -0.15658864 0.22438551 0.28689882 0.24615446 0.39560762 -1.8256936 -4.529601
-3.6258023 -0.42449516 0.17876887 3.5241778 0.41629642 0.47288412 0.6660911 -0.07204155
-0.4631203 -0.33431354 0.48880094 0.1716325 0.071732506 0.17197186 0.042879336 -0.06009922
-1.9419756 5.811602 0.0662195 -0.5869268 2.640821 2.9897742 -0.6949115 -1.5041664
0.32482168 0.5064282 -0.6094836 -0.35810572 0.014645189 0.11715109 -0.011283026 0.15992565
-0.92425066 2.3384624 0.7953966 -0.6806694 -0.5295453 1.1322408 0.04369973 0.66325283
-1.1185256 0.45307156 1.977914 2.4349203 -2.4560006 0.0926344 0.10869155 0.13420433
0.07842061 -2.4119558 1.2386525 9.489707 -0.03260928 -1.1887312 1.4071068 1.629377
-0.3992638 -2.0615623 0.070197575 0.19026043 0.09390573 -0.20743205 0.31527296 0.12098282
0.3160679 0.20496452 -0.13624123 1.2055359 1.5012747 0.38799387 1.4504052 -0.9257486
-2.0418875 0.3508738 -0.12672432 -1.8492244 1.1520606 2.9285488 4.050991 0.31653762
-0.14148884 0.054015387 0.2319299 2.1242483 -1.6392944 1.694978 -0.8881603 1.5827411
0.8835995 -0.9000336 1.4035689 -1.1331621 1.5208818 0.20208745 -0.26423442 0.05365704
-0.09689987 -0.00616537 -0.09015929 -0.31515402 1.5386302 0.9665086 -2.745982 -0.048394557
1.893875 -0.17535503 -0.5697129 -1.2507815 2.4918263 1.8274579 -2.9387589 0.25302187
0.76248723 -0.24389075 -0.3106044 -0.14222237 -0.14169657 -0.6580697 0.6761267 9.658928
-0.7498698 -0.6697042 1.2310586 -2.1868246 0.6151373 -1.2994477 -0.84895086 -0.16467495
0.34510928 -0.22037363 -0.18601589 -0.062423546 -0.11421298 -0.11491874 1.0729979 -0.2665323
-2.6754897 0.16267818 -2.2310147 1.3920475 -2.337809 -1.430222 -1.3232048 -0.24000995
0.7988373 1.0438014 -0.8897067 0.13279489 0.025276754 0.17765336 0.056414 -5.381122
00000000: 5952 febc 9857 d4bf 2b3b 72c0 f373 cdbe
00000010: 4629 fe3f 6e94 913f e95e 25bd 8927 803f
00000020: 807a 0f40 b9ba cc3d d878 003f 866d 0d3e
00000030: 2c8f 9dbe 341d b7be 21f7 12be bb06 bcbe
00000040: c65b f3be 2aee dac0 abe6 4dbe 7e49 4ec0
00000050: 4adc 74bf 6bac c73e 8a03 a0bf 0e79 2ebd
00000060: 23b1 bd3f 9bf9 b83e df4b a23e 51b6 953b
00000070: 24cd 10bd c70c 00bd 0ba4 693c ab78 d23d
00000080: 2566 89bd 0437 233e 8e20 aa3f f576 b63f
00000090: a482 ffbf d9e4 273f e07c b8bf 07f7 da3f
000000a0: 6339 ac3d e09e 39be 954f 20bd 611a 31be
000000b0: 8828 8cbe eec0 32bd 8aa4 56bd e873 453e
000000c0: 2772 fa3e 66db 073f f9c5 373f b25d 663e
000000d0: efc1 0cc0 f91d e8bf 5008 25bf a4a0 39c0
000000e0: f3cf 6d40 5af6 c0bf 6f1f 1c3f 4811 5ebf
000000f0: 94ab 5fbf ca0f cbbc 281d 8abe 184f ec3e
00000100: f54c 163e 18bf 4b3e aabf 7f3e 8f55 443e
00000110: 109e 723f 61c0 b03e 9d3b 79bf e4d1 14bf
00000120: 4968 b8bf 4a0d f13f 7bec 14c0 73e4 23bf
00000130: a134 68bf 139e a43f fc9d ef3f 001e 8740
00000140: 28ad 893f 223b 8c3e 929b a2be dd2a 6b3d
00000150: 2265 273c 0090 af3f 09df d43f e1a7 9e40
00000160: 9f37 5abf d3b8 86be c428 c83e 272e 3c3f
00000170: f816 1a40 169e ed3f 318e c0be 57b0 11bf
00000180: 72bb 8c3e c658 20be 51c5 653e 67e4 923e
00000190: ea0f 7c3e 158d ca3e 54b0 e9bf 7ef2 90c0
000001a0: 250d 68c0 6e57 d9be 300f 373e 218c 6140
000001b0: ce24 d53e de1d f23e f284 2a3f 858a 93bd
000001c0: 1b1e edbe 252b abbe 1e44 fa3e 6ec0 2f3e
000001d0: 7ee8 923d 6419 303e 3ea2 2f3d 9a2a 76bd
000001e0: a892 f8bf a5f8 b940 179e 873d d640 16bf
000001f0: 3603 2940 7658 3f40 b8e5 31bf 8688 c0bf
00000200: 074f a63e 47a5 013f 1e07 1cbf a259 b7be
00000210: 60f2 6f3c e9ec ef3d 71dc 38bc 8dc3 233e
00000220: b19b 6cbf 5ea9 1540 1d9f 4b3f 5a40 2ebf
00000230: 4890 07bf 44ed 903f 7dfe 323d f0ca 293f
00000240: d92b 8fbf fff8 e73e 492c fd3f bcd5 1b40
00000250: 1d2f 1dc0 1bb7 bd3d ad99 de3d dc6c 093e
00000260: fc9a a03d 7c5d 1ac0 2a8c 9e3f d7d5 1741
00000270: 4f91 05bd 5828 98bf 131c b43f 6d8f d03f
00000280: 4e6c ccbe a3f0 03c0 bfc3 8f3d a1d3 423e
00000290: a651 c03d 1169 54be 756b a13e d7c5 f73d
000002a0: a7d3 a13e 38e2 513e d282 0bbe 004f 9a3f
000002b0: c529 c03f 22a7 c63e e1a6 b93f dcfd 6cbf
000002c0: 49ae 02c0 bba5 b33e 05c4 01be 63b3 ecbf
000002d0: b976 933f 586d 3b40 b8a1 8140 3811 a23e
000002e0: 73e2 10be 3d3f 5d3d 087f 6d3e aff3 0740
000002f0: 66d4 d1bf 0af5 d83f 795e 63bf 4397 ca3f
00000300: 9433 623f 9a68 66bf 25a8 b33f 750b 91bf
00000310: 41ac c23f 03f0 4e3e bc49 87be 7cc7 5b3d
00000320: 7073 c6bd df06 cabb 6fa5 b8bd de5b a1be
00000330: d6f1 c43f 1c6d 773f 2bbe 2fc0 5f39 46bd
00000340: 7f6a f23f 4590 33be b4d8 11bf 9c19 a0bf
00000350: 157a 1f40 24ea e93f a014 3cc0 158c 813e
00000360: 5d32 433f 7fbe 79be 8a07 9fbe bea2 11be
00000370: e818 11be 4177 28bf a416 2d3f f88a 1a41
00000380: 78f7 3fbf bc71 2bbf 5493 9d3f eff4 0bc0
00000390: a379 1d3f 4d54 a6bf d854 59bf 8da0 28be
000003a0: 2ab2 b03e a0a9 61be f37a 3ebe d5af 7fbd
000003b0: 7fe8 e9bd 845a ebbd ff57 893f ec76 88be
000003c0: 393b 2bc0 1c95 263e f2c8 0ec0 9d2e b23f
000003d0: aa9e 15c0 8411 b7bf c65e a9bf 2bc5 75be
000003e0: 9a80 4c3f 499b 853f d1c3 63bf 62fb 073e
000003f0: 3211 cf3c c3ea 353e 5e12 673d 2732 acc0

critic.0.bias f4 [128]
-0.698884 -0.6535302 -0.2174533 -0.15159945 0.070512354 -0.86159265 -0.54558384 -0.026776176
-0.4821498 0.44669992 0.0030615497 -1.074269 0.23326813 -0.25812164 0.31418258 0.6410782
-0.20456058 -0.2784476 -0.17411755 -0.35570621 -0.21829428 -0.17094415 0.0017077206 0.17141609
0.45431027 -0.9748649 -0.2986055 -0.2169839 -0.09873373 -0.19000922 -0.13728413 0.31282642
-0.043007065 -0.10767384 -0.6684832 -0.3120349 0.122953475 0.27229062 -0.026196454 0.11894049
0.34763873 -0.28569096 0.16929755 0.13517153 -0.04424909 0.17642042 -0.3938921 -0.58367383
0.044108465 0.74523276 0.064969234 -0.23172964 0.3090696 0.047843553 -0.06671727 0.33526477
-0.55744505 -0.96195376 0.12774317 -0.21274917 -0.010831442 0.1899873 -0.74071395 -0.13591136
0.22950725 0.077867 0.2192341 0.505088 0.16916785 -1.043134 -0.14696379 0.110415004
0.47042465 -0.07256846 0.41760248 0.5204356 0.10905592 -0.3527345 -0.20002235 -0.13955055
0.024917226 0.03499443 -0.41805112 -0.38903823 -0.3321082 0.08055078 0.6261594 -0.109522715
0.16664578 0.09647014 -0.013136321 -0.6498651 0.43521202 -0.48894227 0.019714037 -0.49093714
0.385261 0.1075122 0.34789574 0.23219824 -0.1714145 -0.38473308 0.18213633 0.16327913
-0.5576441 -0.55871904 0.5833492 -0.6142988 0.46020246 -0.42277938 -0.28396666 0.03936982
0.4700958 -0.2713658 -0.040906437 0.5398157 0.24996597 -0.17875461 -0.39480183 0.62171686
-0.04623976 -0.2977752 -0.17800564 0.44612655 -0.39329463 -0.080689274 0.095528774 -0.47472948
00000000: 10ea 32bf c14d 27bf 14ac 5ebe e33c 1bbe
00000010: c868 903d 5691 5cbf 62ab 0bbf b659 dbbc
00000020: 57dc f6be dab5 e43e 48a4 483b a681 89bf
00000030: d7dd 6e3e 8528 84be 8adc a03e b31d 243f
00000040: 5478 51be af90 8ebe df4b 32be 201f b6be
00000050: 8988 5fbe fc0b 2fbe 98d5 df3a b387 2f3e
00000060: 5b9b e83e bf90 79bf d2e2 98be 0731 5ebe
00000070: e934 cabd c791 42be 3694 0cbe c92a a03e
00000080: 2d28 30bd 1a84 dcbd b721 2bbf 0ac3 9fbe
00000090: 08cf fb3d ad69 8b3e f299 d6bc 1297 f33d
000000a0: b4fd b13e 1646 92be 565c 2d3e 686a 0a3e
000000b0: 893e 35bd 8ea7 343e 3aac c9be a66b 15bf
000000c0: 14ab 343d 93c7 3e3f 970e 853d 894a 6dbe
000000d0: 5f3e 9e3e 9af7 433d 10a3 88bd d3a7 ab3e
000000e0: b8b4 0ebf 9a42 76bf 1bcf 023e ebda 59be
000000f0: 5c76 31bc 088c 423e 6e9f 3dbf 592c 0bbe
00000100: f303 6b3e bc78 9f3d e77e 603e 724d 013f
00000110: 563a 2d3e 6a85 85bf ad7d 16be 4321 e23d
00000120: 80db f03e c69e 94bd fecf d53e 443b 053f
00000130: b658 df3d 9e99 b4be a9d2 4cbe 57e6 0ebe
00000140: 361f cc3c 5256 0f3d cc0a d6be 0530 c7be
00000150: 160a aabe cff7 a43d fc4b 203f 724d e0bd
00000160: 31a5 2a3e 2392 c53d b939 57bc 8f5d 26bf
00000170: 1cd4 de3e a456 fabe 557f a13c 1d5c fbbe
00000180: ee40 c53e 5b2f dc3d 641f b23e 60c5 6d3e
00000190: 4887 2fbe bcfb c4be f281 3a3e a532 273e
000001a0: c4c1 0ebf 3608 0fbf 6056 153f b042 1dbf
000001b0: a89f eb3e 8a76 d8be 1464 91be 4042 213d
000001c0: 66b0 f03e 75f0 8abe 828d 27bd 5d31 0a3f
000001d0: 14f7 7f3e 730b 37be 7723 cabe d628 1f3f
000001e0: e765 3dbd fe75 98be 1c47 36be b36a e43e
000001f0: ea5d c9be 6b40 a5bd 97a4 c33d be0f f3be

critic.2.weight f4 [128, 128]
1.6002119 -0.21631256 -0.86931837 -1.3215842 0.32240388 -0.15174298 0.12932706 -0.83489996
0.73629165 -1.3914427 0.31785622 -0.039041724 0.076921694 -2.3556328 -0.9216702 0.835393
1.1094973 0.78842086 0.26749274 -0.56772697 0.044506967 0.5691114 -0.19895293 0.94496965
-0.5939178 0.8047833 0.71236473 -0.29965883 0.18879114 -1.5363392 -0.93799835 0.6289111
-0.61729527 0.86076653 0.22457424 -0.14324415 0.69157505 0.25817135 0.66651887 0.10796705
-0.77261865 1.5657659 0.37170708 0.5261285 -0.8127389 1.5405864 -0.13634303 0.92751604
-0.8237854 1.1450033 0.518287 0.7569406 1.1360071 -1.1607136 -0.45628127 -0.86276674
-0.8577262 1.4737667 -0.079044394 0.9370384 0.87350786 1.4935741 0.25529546 0.3934437
-1.6530983 -0.78219855 -0.09911957 -0.68968624 -0.8054171 -0.10384237 -0.5992777 0.8578477
0.28531942 0.5237115 -1.2431163 0.054238066 0.09537569 0.80105346 0.83278805 -0.34403148
-1.693521 -0.28497747 1.3876958 -0.571155 -1.8445375 -0.13770245 0.44230744 -0.5862668
-0.39508438 2.2454734 1.5397274 0.23223573 0.37887117 1.091972 0.34753028 0.2873057
1.1205567 0.66814303 -0.36117005 0.9434756 0.7782519 0.45628938 -1.3672178 1.156599
-0.32681477 -0.67019004 -0.98741215 0.9602933 0.59724873 -0.57118595 -0.6571757 0.94022435
0.11898832 0.1683764 -0.661908 -0.18464103 0.67429125 0.76459 0.09575241 0.031133093
-1.2064636 -0.59428626 0.3428337 0.70818824 -0.15560842 0.07222624 -0.9769763 1.213968
0.66643405 0.9165793 0.07112051 -0.43833733 -0.6930444 1.6110675 -0.32715943 -0.451051
-0.03595254 -1.6104738 -1.3433739 -0.027466634 0.17636907 -1.5757533 -1.001804 -0.26368093
1.2187717 2.0057714 1.0752168 0.9509364 1.2209512 -0.37137327 -0.4210948 -0.12003884
0.16813165 1.3701206 -0.029374925 -0.31252733 -0.33757275 -0.1638772 -0.50960386 0.39870092
0.46537304 1.175302 -0.724615 -0.3579375 -0.89161384 0.63282186 0.78260005 0.37522265
-0.7601859 0.8503143 0.42932314 -0.28358725 -1.2405229 0.85198593 -1.3358011 1.6384537
0.23871812 -0.19047278 0.89338416 1.5310249 0.6561537 0.6213426 -0.64470977 -0.43470848
-0.7858306 2.3785884 -0.20433702 1.0467278 -0.67634994 0.24329923 0.913099 -0.116997965
-1.1174215 0.0041748057 1.1418723 -0.44752434 -0.84412926 0.31844243 1.2436519 -1.1128836
-0.041213088 -0.050499566 -1.3003807 0.15192851 1.6215178 0.83298963 0.2334533 -0.85634285
-2.563859 -0.9436188 0.8488645 0.6947853 0.08959436 -0.2797471 -0.5735669 -0.105250806
3.0181067 1.9818385 -1.6734041 1.4881731 1.0180447 2.1472807 0.88944507 0.6228731
0.6027354 -0.5440286 -0.13021427 -0.7576527 0.08003997 1.2597262 -1.2503092 0.36942956
0.040338162 -1.1511453 -1.795073 1.6409018 -0.3150621 0.31992313 0.8041225 -0.33274037
0.44854596 0.7405104 -1.5702968 -0.39703375 -0.028775578 -0.7890441 0.6488981 -0.5350076
-0.52478015 0.216625 0.011392988 0.2944433 -0.67196 -1.4132164 0.00032204363 0.0632122
00000000: bed3 cc3f 0a81 5dbe a68b 5ebf ac29 a9bf
00000010: 1f12 a53e 8362 1bbe 506e 043e 01bc 55bf
00000020: 9c7d 3c3f cb1a b2bf 0dbe a23e 37ea 1fbd
00000030: 1f89 9d3d b0c2 16c0 94f2 6bbf 51dc 553f
00000040: 0204 8e3f f3d5 493f cff4 883e 8e56 11bf
00000050: f04c 363d 49b1 113f 51ba 4bbe 88e9 713f
00000060: ff0a 18bf 4706 4e3f 895d 363f e26c 99be
00000070: 7752 413e c3a6 c4bf a920 70bf 5100 213f
00000080: 1007 1ebf 325b 5c3f caf6 653e 98ae 12be
00000090: 100b 313f 092f 843e fba0 2a3f d41d dd3d
000000a0: 56ca 45bf 046b c83f 6450 be3e 5bb0 063f
000000b0: a80f 50bf ef31 c53f 829d 0bbe b171 6d3f
000000c0: 9ae3 52bf 788f 923f 75ae 043f dcc6 413f
000000d0: ae68 913f 4392 94bf b39d e9be 48de 5cbf
000000e0: f293 5bbf 63a4 bc3f 07e2 a1bd c0e1 6f3f
000000f0: 369e 5f3f 702d bf3f 16b6 823e 7471 c93e
00000100: ba98 d3bf 2a3e 48bf 33ff cabd 478f 30bf
00000110: d12f 4ebf 4fab d4bd 436a 19bf e89b 5b3f
00000120: 6315 923e f511 063f 6f1e 9fbf bc28 5e3d
00000130: 5454 c33d d711 4d3f 9931 553f e524 b0be
00000140: 4cc5 d8bf 91e8 91be 04a0 b13f 3737 12bf
00000150: ce19 ecbf df01 0dbe 1f76 e23e 9515 16bf
00000160: 8048 cabe d6b5 0f40 ca15 c53f 34cf 6d3e
00000170: 67fb c13e bdc5 8b3f 7def b13e bc19 933e
00000180: 676e 8f3f 6c0b 2b3f 48eb b8be 9e87 713f
00000190: 843b 473f c39e e93e fe00 afbf 700b 943f
000001a0: 4454 a7be 9391 2bbf 0bc7 7cbf c8d5 753f
000001b0: 4be5 183f 3e39 12bf ab3c 28bf 8bb2 703f
000001c0: 26b0 f33d dd6a 2c3e cd72 29bf 8a12 3dbe
000001d0: 5a9e 2c3f 2cbc 433f d719 c43d d40a ff3c
000001e0: 666d 9abf 2523 18bf e687 af3e d34b 353f
000001f0: d057 1fbe 5aeb 933d 1e1b 7abf 4e63 9b3f
00000200: 6c9b 2a3f f1a4 6a3f a1a7 913d c06d e0be
00000210: 5c6b 31bf 7637 ce3f 7181 a7be 28f0 e6be
00000220: f842 13bd 0124 cebf adf3 abbf b501 e1bc
00000230: 189a 343e 49b2 c9bf 1d3b 80bf 3001 87be
00000240: b600 9c3f 8f5e 0040 b4a0 893f 9170 733f
00000250: 2148 9c3f a324 bebe bd99 d7be ecd6 f5bd
00000260: b42a 2c3e 1d60 af3f afa3 f0bc 9503 a0be
00000270: 56d6 acbe 6dcf 27be 6675 02bf 8722 cc3e
00000280: 6045 ee3e 4c70 963f 5e80 39bf 9643 b7be
00000290: ce40 64bf 9d00 223f 7a58 483f 2f1d c03e
000002a0: 8b9b 42bf 33ae 593f 3ed0 db3e 5932 91be
000002b0: 74c9 9ebf c01b 5a3f 88fb aabf dab8 d13f
000002c0: 8672 743e 4c0b 43be d3b4 643f a0f8 c33f
000002d0: b0f9 273f 4f10 1f3f b30b 25bf 1c92 debe
000002e0: 322c 49bf cb3a 1840 b93d 51be 2dfb 853f
000002f0: 4525 2dbf 6f23 793e dbc0 693f a19c efbd
00000300: ab07 8fbf cfcc 883b df28 923f e921 e5be
00000310: db18 58bf e30a a33e fc2f 9f3f f872 8ebf
00000320: 0ecf 28bd a2d8 4ebd e072 a6bf 2693 1b3e
00000330: e58d cf3f cf3e 553f 620e 6f3e 4939 5bbf
00000340: 4416 24c0 0091 71bf 2f4f 593f 73dd 313f
00000350: 3f7d b73d 033b 8fbe 48d5 12bf bc8d d7bd
00000360: a928 4140 e2ac fd3f 1b32 d6bf 757c be3f
00000370: 4a4f 823f 0c6d 0940 acb2 633f 9d74 1f3f
00000380: de4c 1a3f 7545 0bbf e456 05be 87f5 41bf
00000390: ffeb a33d b53e a13f 220a a0bf df25 bd3e
000003a0: a139 253d bb58 93bf f4c4 e5bf 1209 d23f
000003b0: d24f a1be f7cc a33e f9da 4d3f f25c aabe
000003c0: d1a7 e53e 1792 3d3f 7cff c8bf 0248 cbbe
000003d0: c3ba ebbc cbfe 49bf 301e 263f 42f6 08bf
000003e0: fe57 06bf f2d2 5d3e a8a9 3a3c 46c1 963e
000003f0: 9205 2cbf 46e4 b4bf f7d7 a839 6675 813d

critic.2.bias f4 [128]
-0.6640362 0.029390402 0.3299113 0.44244048 0.44816598 0.12316099 -0.41323823 -0.15064847
0.0035518704 -0.423464 -0.28241625 0.11782462 0.13507216 -0.3579207 0.6586164 -0.10643491
0.41929126 -0.31662765 0.09508339 0.14726369 0.02343623 0.48928046 0.10158939 0.59317815
0.010859908 -0.62611663 0.38839 -0.40282038 -0.3728006 -0.4116711 -0.13424225 -0.56465006
0.89555395 0.55608505 -0.082117654 0.14355062 0.17157127 0.3501149 0.2196894 -0.24230732
0.012971455 -0.25406808 -0.19171605 -0.08919758 -0.6002682 0.27197936 0.10522123 -0.099783085
0.025228916 -0.17894326 -0.22562069 -0.19102928 0.5465755 0.18007089 -0.041175522 0.64193225
0.44271064 0.09672052 -0.4201477 0.45019203 -0.44773594 0.02315314 -0.31916285 -0.1699717
0.0041924426 -0.2482264 0.39557308 0.37375647 -0.22698651 -0.21943834 0.39461792 0.21300207
0.8929841 0.62484926 0.29920426 -0.28561527 -0.080969244 0.026716681 1.1094267 0.37805182
-0.4005116 0.06436122 0.62061054 0.013881013 -0.105734065 -0.059709158 0.39589578 0.106477275
-0.21345872 -0.11560816 -0.62714785 0.30591476 -0.41100544 0.87816185 -0.4205622 0.07005392
-0.26110756 0.60692275 0.33268267 -0.12200175 -0.061979994 -0.4832501 -0.31944898 -0.25184533
0.7613368 0.18629365 0.22294952 0.2793432 -0.52095234 0.24989311 0.36870876 -0.74362904
0.149089 -0.21749787 -0.19115698 -0.32875344 0.6957311 0.05890201 -0.475731 0.35517764
1.0481973 0.49797833 -0.10815618 -0.3453952 -0.29687315 0.12519294 0.84702796 -0.07357721
00000000: 47fe 29bf 24c4 f03c 22ea a83e 8f87 e23e
00000010: 0376 e53e d43b fc3d f693 d3be 9843 1abe
00000020: 7fc6 683b 46d0 d8be dd98 90be 094e f13d
00000030: 5b50 0a3e 6241 b7be 169b 283f 8cfa d9bd
00000040: 58ad d63e 051d a2be 15bb c23d 4bcc 163e
00000050: 56fd bf3c f882 fa3e 190e d03d 86da 173f
00000060: c1ed 313c 2e49 20bf 0edb c63e 793e cebe
00000070: b8df bebe 8ec6 d2be cd76 09be e88c 10bf
00000080: 0643 653f 975b 0e3f 4d2d a8bd effe 123e
00000090: 61b0 2f3e 4342 b33e 42f6 603e 691f 78be
000000a0: 3a86 543c 3615 82be 3651 44be 39ad b6bd
000000b0: 2dab 19bf e140 8b3e 3a7e d73d 135b ccbd
000000c0: dfac ce3c e73c 37be 1c09 67be 2e9d 43be
000000d0: 5fec 0b3f 8164 383e aaa7 28bd ac55 243f
000000e0: f8aa e23e 6815 c63d 991d d7be 927f e63e
000000f0: a53d e5be a7ab bd3c 5069 a3be 100d 2ebe
00000100: c260 893b 102f 7ebe 8e88 ca3e 025d bf3e
00000110: 276f 68be 72b4 60be 5c0b ca3e 371d 5a3e
00000120: 9b9a 643f 1ff6 1f3f 4d31 993e 2a3c 92be
00000130: 34d3 a5bd f1dc da3c b201 8e3f 0290 c13e
00000140: db0f cdbe d1cf 833d 55e0 1e3f 306d 633c
00000150: 1a8b d8bd 9791 74bd dab2 ca3e c210 da3d
00000160: ec94 5abe f9c3 ecbd c38c 20bf dca0 9c3e
00000170: 4e6f d2be 37cf 603f ee53 d7be 6e78 8f3d
00000180: e4af 85be 4a5f 1b3f 6255 aa3e 0edc f9bd
00000190: bcde 7dbd 8f6c f7be d18e a3be dff1 80be
000001a0: f8e6 423f c3c3 3e3e e14c 643e 1206 8f3e
000001b0: 225d 05bf fbe3 7f3e 65c7 bc3e 795e 3ebf
000001c0: c9aa 183e c3b7 5ebe a8be 43be 5f52 a8be
000001d0: 6f1b 323f 3c43 713d 0393 f3be d8d9 b53e
000001e0: 542b 863f 04f7 fe3e fd80 ddbd a4d7 b0be
000001f0: c2ff 97be 9432 003e d3d6 583f a6af 96bd

critic.4.weight f4 [1, 128]
4.748677e-05 -2.6594294e-05 0.00014518677 0.00149989 0.0027562845 -0.00053885276 0.00020460869 -0.007864642
0.0005323815 0.001760993 9.878843e-05 -0.0004462739 0.00029118918 -0.00021933313 0.00019988633 0.00016642184
-0.0002483659 0.00026609623 0.00010868228 0.00013296583 0.00016390407 -0.0010368641 -0.00068490836 0.000348603
-0.0014112893 -6.0529594e-05 -0.00016284172 -0.00028371823 -0.00016609319 0.0004948642 -0.00015124638 9.153211e-05
-0.007035868 -0.017119456 -7.800599e-05 -6.520596e-06 -0.0018096092 -5.2639014e-05 -0.0005883241 -0.00018749769
0.0005230895 -2.1079719e-05 1.9701178e-05 0.001097312 -0.00026844075 -0.00025209857 0.0002727712 -0.00034893173
1.5695541e-05 0.00093845755 -0.0005758043 -0.00010876166 0.00015916377 0.00012939142 -0.00064590224 0.00068094686
-0.00024580726 0.00010120168 1.9395016e-05 0.08256368 0.0009431768 -1.0223579e-05 -0.00027148493 0.00021721779
0.024367422 0.00042737726 0.00039048048 -5.803493e-05 3.748212e-06 0.0003407533 -0.0060515827 0.0008187685
-0.011170627 0.0004288942 -6.713477e-05 -8.76291e-05 7.979771e-06 0.0010227535 0.09833137 -0.001187664
0.00085213006 0.00038193335 3.0479467e-05 -2.3889852e-05 0.00058639393 -0.00024172265 5.5263237e-05 0.024129232
-7.0412134e-05 -5.7528167e-05 -0.00030503623 -3.5748737e-05 0.00015693449 -0.00040369973 -0.00040977288 -0.0006871927
-0.00035133248 -0.0009278674 0.0001274204 0.0014005031 -0.00013943372 0.00016435848 -0.00014319943 -0.00019155718
1.554883e-05 6.433256e-05 -2.0057027e-05 -0.000482437 -0.0053266836 -0.0001706904 -4.7395104e-05 -0.00037497125
0.002381154 0.00030714922 0.0001112407 2.3028394e-06 -0.00050826196 0.00051319634 0.00033315184 -0.0007913818
-0.017188016 -9.051304e-05 0.0005177052 0.0001900214 -8.171581e-05 2.9722756e-05 0.00036473584 0.00020150606
00000000: 882c 4738 d016 dfb7 473d 1839 f597 c43a
00000010: c8a2 343b cc41 0dba 3a8c 5639 b3da 00bc
00000020: 858f 0b3a 1fd1 e63a a22c cf38 def9 e9b9
00000030: c0aa 9839 cafc 65b9 9498 5139 8681 2e39
00000040: 1b37 82b9 d582 8b39 5bec e338 be6c 0b39
00000050: aadd 2b39 63e7 87ba 6c8b 33ba b4c4 b639
00000060: 03fb b8ba 28e1 7db8 7ec0 2ab9 04c0 94b9
00000070: 4d29 2eb9 c6b9 013a e497 1eb9 edf4 bf38
00000080: 238d e6bb 1a3e 8cbc 2697 a3b8 7ecb dab6
00000090: 6930 edba b6c8 5cb8 c339 1aba 079b 44b9
000000a0: f11f 093a 5ad4 b0b7 f543 a537 aed3 8f3a
000000b0: 82bd 8cb9 192c 84b9 bb02 8f39 d3f0 b6b9
000000c0: eba9 8337 d202 763a 93f1 16ba f916 e4b8
000000d0: 33e5 2639 3fad 0739 c451 29ba 9281 323a
000000e0: b1df 80b9 3d3c d438 7bb2 a237 2617 a93d
000000f0: 863f 773a f085 2bb7 1756 8eb9 f5c4 6339
00000100: 309e c73c 9b11 e039 67b9 cc39 886a 73b8
00000110: cb89 7b36 22a7 b239 5b4c c6bb a0a2 563a
00000120: 0105 37bc 34dd e039 b5ca 8cb8 84c5 b7b8
00000130: dbe0 0537 ea0d 863a f561 c93d 64ab 9bba
00000140: 7b61 5f3a 3a3e c839 28ae ff37 1167 c8b7
00000150: 3bb8 193a ee76 7db9 73ca 6738 abaa c53c
00000160: 3aaa 93b8 664a 71b8 45ed 9fb9 eaf0 15b8
00000170: c88e 2439 a9a7 d3b9 c9d6 d6b9 b924 34ba
00000180: 0c33 b8b9 213c 73ba 279c 0539 1691 b73a
00000190: f434 12b9 a557 2c39 ce27 16b9 bddc 48b9
000001a0: dc6e 8237 48ea 8638 2340 a8b7 99ef fcb9
000001b0: 768b aebb 5bfb 32b9 1bca 46b8 ca97 c4b9
000001c0: 230d 1c3b df08 a139 e549 e938 7b8a 1a36
000001d0: e23c 05ba 0688 063a e2aa ae39 bc74 4fba
000001e0: e2cd 8cbc d1d1 bdb8 9cb6 073a 7b40 4739
000001f0: d75e abb8 2255 f937 043a bf39 5f4b 5339

exp_avg f4 [4]
0.0031830736 -0.00090850773 -0.0031108276 -0.00057810947
00000000: 1d9b 503b ec28 6eba 07df 4bbb 458c 17ba

exp_avg_sq f4 [4]
0.00032509578 0.00010654566 0.0027001624 0.0051936097
00000000: 9e71 aa39 4471 df38 35f5 303b 282f aa3b
