examples/drone/logs/drone-racing/model_4100.pt (torch, 474978 bytes, 36 tensors)

std f4 [4]
0	0x3e21f8b0	0.15817523
1	0x3e4f4b67	0.20243607
2	0x3ce80049	0.028320448
3	0x3d30d6c5	0.04317357

actor.0.weight f4 [128, 17]
0	0x402590f0	2.5869713
1	0x3f8460e8	1.0342073
2	0xc1273a96	-10.451803
3	0x3eb037ba	0.34417516
4	0xbf52dade	-0.82365215
5	0x3faae036	1.3349674
6	0x3f10b1e4	0.5652144
7	0x3ebc8044	0.3681661
8	0x3ca9c909	0.020725744
9	0x3f19eb0f	0.60124296
10	0xbcc45578	-0.023966536
11	0xbc41d202	-0.011829855
12	0x3de9d0bb	0.11416765
13	0xbd118e6a	-0.035536207
14	0x3ca84c7d	0.020544285
15	0xbcb7a20b	-0.022416135
16	0x3d3e306a	0.04643289
17	0x3ef85da4	0.48508942
18	0xbf0afd56	-0.5429281
19	0x3fda921a	1.7075837
20	0xbed3e096	-0.41382283
21	0xbf718b06	-0.9435276
22	0xbf07e794	-0.53087735
23	0xbc63810e	-0.0138857495
24	0x3e823c68	0.2543671
25	0x3db7defe	0.08978079
26	0xbdf9b9a3	-0.121936105
27	0x3d9e921d	0.07742713
28	0xbd8376f1	-0.06419171
29	0xbe0bd467	-0.13655244
30	0x3e8f2fb3	0.2796608
31	0x3e86cdeb	0.26328978
32	0x3e33ef84	0.17571837
33	0x3d903da8	0.0704301
34	0xbf9ed4d2	-1.2408698
35	0xbe92457f	-0.28568646
36	0x3d5e3471	0.05424923
37	0x3f091eb7	0.5356249
38	0xbfc80dfd	-1.5629269
39	0x3f2674a8	0.65021753
40	0xbf285d1c	-0.65767074
41	0xbf537801	-0.82604986
42	0xbf7baf05	-0.98313934
43	0x3f30fc42	0.69134915
44	0xbec08e0d	-0.37608376
45	0x3f2f8be8	0.68572855
46	0x3ea7e70f	0.3279347
47	0xbb0c85d8	-0.0021442082
48	0xbca51e98	-0.02015619
49	0xbd47e41b	-0.048801523
50	0xbacb3821	-0.0015504399
51	0xbf39f1b7	-0.7263445
52	0x3f736e7b	0.95090455
53	0x3f9e4d9f	1.2367438
54	0x3e60eb47	0.21964751
55	0xbed5fdc5	-0.41795173
56	0x3eba4426	0.36380118
57	0xbf038274	-0.5137093
58	0x3eb3bc69	0.35104683
59	0x3dc59d87	0.096491866
60	0xbdb70a7f	-0.08937549
61	0xbd188d4b	-0.037244122
62	0x3db255ee	0.08707796
63	0xbe1bbf0d	-0.15209599
64	0x3e1715d4	0.1475442
65	0xbdeb4aac	-0.11488852
66	0x3c160b8a	0.009158025
67	0x3d921f07	0.07134824
68	0x3e8cf4a3	0.27530393
69	0xbe43db77	-0.19126688
70	0x3e515081	0.20440866
71	0xbed07a0a	-0.40718108
72	0xbe2326f9	-0.15932836
73	0xbdd148ed	-0.102189876
74	0x3d39cf19	0.04536352
75	0xbc66e93f	-0.014093696
76	0x3d043d20	0.032284856
77	0xbd647fb3	-0.055785846
78	0x3bd4cb2c	0.0064939465
79	0xbbfd0578	-0.007721599
80	0xbcb05334	-0.02152405
81	0x3e2490a8	0.16070807
82	0x3de116f0	0.10990703
83	0xbe660a60	-0.22464895
84	0xbe6ab766	-0.22921523
85	0x3ea420f0	0.3205638
86	0xbf360d22	-0.7111379
87	0x400a6c41	2.1628573
88	0x3dbc3632	0.091900244
89	0xbfb2a82b	-1.3957571
90	0xbf0efc2e	-0.55853546
91	0xbe4b62b0	-0.19861865
92	0x3eb70d11	0.35752156
93	0x3de0ab28	0.109701455
94	0xbe7151ef	-0.23566411
95	0x3e505000	0.20343018
96	0x3ef9a9db	0.48762402
97	0xbe426a8c	-0.18985957
98	0xbe2b5385	-0.16731079
99	0xbda6a7fb	-0.081375085
100	0xbd0e6a8a	-0.034769572
101	0xbd9a13f9	-0.07523341
102	0xc018421d	-2.3790352
103	0xbe4ed3e2	-0.20198014
104	0xc07d9bfc	-3.9626455
105	0x3e82b30d	0.2552723
106	0xbfc39963	-1.5281185
107	0x3d25e643	0.040502798
108	0xbcaca95d	-0.021076852
109	0x3e81c916	0.2534873
110	0x3eb0c30a	0.34523803
111	0x3f0e836b	0.5566928
112	0xbcda7ad7	-0.026669903
113	0x3ef3d53e	0.47623628
114	0xbe8091cc	-0.25111234
115	0xbc493b7b	-0.012282248
116	0x3c82f404	0.015985496
117	0xbdd36cb1	-0.103234656
118	0xbe283d58	-0.16429651
119	0xbd386acc	-0.045023724
120	0x3eb6b683	0.3568612
121	0x4078112e	3.8760486
122	0xbd3975b6	-0.045278274
123	0x3d38c7d3	0.045112442
124	0x3e80461b	0.25053486
125	0xbf103f15	-0.56346256
126	0x3ee4ce22	0.44688517
127	0x3ab40dde	0.0013737043
128	0xbee4f770	-0.4472003
129	0x3e767caa	0.24070993
130	0x3ee1a433	0.44070587
131	0xbe8e8c51	-0.27841428
132	0xbdb34761	-0.08753849
133	0xbd5f8aab	-0.054575603
134	0x3d8695ad	0.06571517
135	0x3d5d41b0	0.054017723
136	0x3e21ba11	0.15793635
137	0xbd60d741	-0.054892782
138	0xbeae4aff	-0.34041592
139	0xbb8c1a91	-0.004275628
140	0xbd496c02	-0.04917527
141	0xbd594e5f	-0.053053256
142	0x3c8fec22	0.017568652
143	0x3ce8adfb	0.028403273
144	0xbd3ced1c	-0.046124563
145	0x3ccca378	0.024980292
146	0x3d61ea03	0.05515481
147	0x3ab44fa7	0.0013756648
148	0xbd0b4bf0	-0.034007967
149	0x3e6f7f12	0.23388317
150	0xbe8b726a	-0.27235729
151	0xbdb4c2af	-0.088261954
152	0x3ea8b2fe	0.3294906
153	0x3f8366a3	1.0265697
154	0xbf879c68	-1.0594606
155	0xbff33df6	-1.9003284
156	0xbd13c9c4	-0.03608109
157	0xbd22ff0e	-0.03979402
158	0x3fde5d75	1.7372271
159	0x40273000	2.6123047
160	0x3f3b31c2	0.731228
161	0x3ec096a2	0.37614924
162	0x3f58a9c8	0.84634066
163	0x3e1b771d	0.15182157
164	0xbe554698	-0.2082771
165	0xbe169ee1	-0.14709045
166	0xbda7d673	-0.081952
167	0xbce4515b	-0.027870825
168	0xbddb0688	-0.10694605
169	0xbe5622a6	-0.20911655
170	0x3e773ad1	0.2414353
171	0xbde64f5c	-0.11245605
172	0x3e7526e5	0.23940618
173	0xbef34821	-0.47515967
174	0xbdd85991	-0.105639584
175	0x3ca1cfd3	0.019752419
176	0x3a215e67	0.00061557296
177	0xbd18eadc	-0.037333354
178	0x3d76f3ca	0.06029109
179	0xbd8a2868	-0.06745988
180	0xbcae2434	-0.021257497
181	0x3c91a636	0.01777945
182	0x3b86cdfc	0.0041139107
183	0xbdb853df	-0.09000372
184	0xbc62fdbc	-0.01385444
185	0xbe183a61	-0.1486602
186	0xbe0847af	-0.13308595
187	0xbd0df4fe	-0.03465747
188	0x3fa9548b	1.3228925
189	0xbf8a0769	-1.0783511
190	0x3f0bf2bb	0.5466725
191	0xbf56a4c6	-0.83845174
192	0x3f491e49	0.78561836
193	0x3db5b116	0.08871667
194	0x3f06a159	0.52589947
195	0xbeb39876	-0.35077256
196	0xbf95c68d	-1.1701218
197	0xbebeb821	-0.37249854
198	0x3e95c3aa	0.29250842
199	0x3eda00ec	0.42578828
200	0xbc21e47e	-0.009881137
201	0x3d57f458	0.05272326
202	0xbd293937	-0.04131433
203	0xbe063188	-0.13104832
204	0x3f25fcc3	0.6483881
205	0xbd9d310e	-0.07675372
206	0xc0576dca	-3.366076
207	0x3beae115	0.007167945
208	0x3e83c039	0.25732592
209	0x3ff23352	1.8921912
210	0x3e38f25d	0.18061204
211	0x3f745f8f	0.9545831
212	0x3ebc8b0c	0.36824834
213	0x3f93f9da	1.1560624
214	0xbec93150	-0.39295435
215	0x3f964781	1.1740571
216	0x3e278928	0.16360915
217	0x3e1dba96	0.15403208
218	0x3d53ac41	0.051677946
219	0xbcbde2e7	-0.023179485
220	0x3e4dda6f	0.20102857
221	0xbc070106	-0.00823999
222	0x3cf6eb99	0.030141639
223	0x3ea3c66d	0.31987324
224	0xbee3eb41	-0.44515422
225	0xbea77003	-0.32702646
226	0x3f0e48f1	0.5558005
227	0xbc5ecda9	-0.013598838
228	0x3e59fc25	0.21287592
229	0x3da126c3	0.07868721
230	0xbd66bfb9	-0.056335185
231	0xbde34a62	-0.11098172
232	0xbda8955f	-0.08231615
233	0xbe0491d8	-0.1294626
234	0x3d912639	0.070873685
235	0xbd79d322	-0.060992368
236	0x3dfd8316	0.12378518
237	0xbd7bed25	-0.061505456
238	0x3f101808	0.5628667
239	0xbf2284a9	-0.63483673
240	0x3f694090	0.9111414
241	0xbea83c4a	-0.32858497
242	0xbf999f49	-1.2001735
243	0xbf369f8f	-0.7133722
244	0xbdcefe46	-0.101070926
245	0x3eb731c8	0.35780168
246	0x3e0caad5	0.13737042
247	0xbe78308e	-0.24237272
248	0x3e2cd032	0.16876295
249	0x3d36c9e3	0.044626128
250	0xbdddbb76	-0.10826771
251	0x3e329421	0.17439319
252	0x3e081188	0.13287938
253	0x3e6f0eb5	0.23345454
254	0xbcc7192b	-0.024303993
255	0x3f63b699	0.88950497

actor.0.bias f4 [128]
0	0x3dd34411	0.10315717
1	0xbece2b62	-0.40267473
2	0xbe500a2d	-0.20316382
3	0xbf19ee4e	-0.6012925
4	0x3ef922f5	0.48659483
5	0x3e80141c	0.25015342
6	0xbe761f71	-0.24035431
7	0xbdd2f46a	-0.103005245
8	0xbe39d237	-0.18146597
9	0xbd07d3ec	-0.03316109
10	0x3f354c17	0.7081923
11	0x3decddf7	0.11565774
12	0x3e7968ed	0.24356432
13	0x3dd998b1	0.10624827
14	0xbe4a8901	-0.19778825
15	0xbf339f03	-0.7016451
16	0x3d28d1ce	0.04121571
17	0x3e188d53	0.14897661
18	0xbe83db0a	-0.2575305
19	0xbeb45d7d	-0.35227576
20	0x3ed20e44	0.4102651
21	0xbe147a5b	-0.144998
22	0x3e0b268e	0.13588926
23	0xbce4ea19	-0.027943658
24	0xbe2f0c37	-0.17094503
25	0xbeaabe8d	-0.33348504
26	0x3e89b761	0.2689772
27	0x3ed62d34	0.41831362
28	0xbe10aa46	-0.14127454
29	0xbd96bdc4	-0.07360414
30	0xbcd9bd7e	-0.026579615
31	0xbe0cb96a	-0.13742605
32	0xbee1d2cc	-0.44106138
33	0x3eb949da	0.36189157
34	0x3de4eab9	0.11177582
35	0xbe8202a2	-0.25392634
36	0xbf3339bc	-0.7000997
37	0x3e2297fd	0.15878291
38	0xbed1a99f	-0.40949723
39	0xbe782bae	-0.24235412
40	0xbd56567d	-0.052328575
41	0xbe92a50f	-0.28641555
42	0x3eaca1b4	0.3371712
43	0x3e0a648b	0.13514917
44	0xbe64e241	-0.22351934
45	0xbe8743de	-0.26418966
46	0xbe26e387	-0.16297732
47	0xbe424376	-0.18971047
48	0xbe3b3cd8	-0.18284929
49	0x3d4f39de	0.050592296
50	0x3e8ee1b8	0.27906585
51	0xbeba1224	-0.36341965
52	0xbda2db20	-0.07951951
53	0x3e350e3f	0.17681216
54	0xbe84814e	-0.25879902
55	0x3e84218c	0.25806844
56	0x3e6f36b1	0.23360707
57	0xbeed87b0	-0.46392584
58	0xbe4b2386	-0.1983777
59	0x3c7c8145	0.01541168
60	0x3ee22049	0.44165257
61	0x3e9e88dc	0.3096379
62	0x3daf4334	0.0855774
63	0xbe80fd23	-0.25193128
64	0xbf1f95ff	-0.6233825
65	0x3dc8b2b1	0.09799708
66	0x3f380cc1	0.7189446
67	0xbedc1742	-0.42986494
68	0x3e26ebd7	0.16300903
69	0x3e52b228	0.20575774
70	0xbe501baf	-0.2032306
71	0xbf0ab9fb	-0.54190034
72	0x3e82a116	0.25513524
73	0x3cdfef6d	0.027335847
74	0xbeb7aefb	-0.35875687
75	0x3e24a7f8	0.160797
76	0x3f074b0d	0.52848893
77	0xbdb4b117	-0.0882284
78	0xbde01f55	-0.10943476
79	0xbe1b9381	-0.15192987
80	0xbe33aec6	-0.1754714
81	0x3e3196c0	0.17342663
82	0x3e89e737	0.26934215
83	0x3e1f0814	0.15530425
84	0x3cea7925	0.02862222
85	0xbebac52e	-0.3647856
86	0x3e80bc43	0.25143632
87	0x3dc66d8e	0.09688865
88	0xbea008ce	-0.31256717
89	0xbe796baa	-0.24357477
90	0xbed414ea	-0.41422206
91	0xbdece5bc	-0.11567256
92	0x3d270b02	0.040781982
93	0xbd925c9a	-0.071465686
94	0xbd3e8b66	-0.04651966
95	0x3f0613b3	0.5237381
96	0xbc580a71	-0.013186083
97	0x3edaa332	0.42702633
98	0xbd8b0e4f	-0.067898385
99	0xbe1b9abd	-0.15195747
100	0xbe4cce47	-0.20000564
101	0x3eb5f459	0.35537985
102	0xbe7732b1	-0.24140431
103	0xbe2dd045	-0.1697398
104	0xbe199f6a	-0.15002218
105	0xbe069a03	-0.13144688
106	0x3e19b060	0.15008688
107	0x3c2f7e08	0.010711201
108	0xbebbabdf	-0.36654565
109	0xb9f5c9e8	-0.00046880473
110	0x3b9dab53	0.004811683
111	0x3c851022	0.016243044
112	0xbe32b5f5	-0.17452224
113	0xbd13ffc9	-0.036132608
114	0xbe40d6ae	-0.18831894
115	0xbd8ea7b7	-0.06965583
116	0xbde04338	-0.10950321
117	0xbe8fe2a0	-0.2810259
118	0x3e6c356d	0.23067255
119	0x3db89ade	0.090139136
120	0x3d8e9ebe	0.069638714
121	0x3e789afb	0.2427787
122	0xbebef211	-0.37294057
123	0xbf0d3b01	-0.5516816
124	0x3e459f12	0.19298962
125	0xbe122573	-0.14272098
126	0x3e2cc6c8	0.16872704
127	0xbce92ee4	-0.028464742

actor.2.weight f4 [128, 128]
0	0xbde410a8	-0.111359894
1	0x3e0016f9	0.12508763
2	0x3c07f513	0.008298176
3	0x3e2981f5	0.16553481
4	0x3c7bb685	0.01536334
5	0xbd5143de	-0.051090114
6	0xbd955681	-0.0729189
7	0x3e6e1fe4	0.23254353
8	0x3d29ee29	0.041486893
9	0x3e4504de	0.19240138
10	0xbd12749f	-0.03575575
11	0xbe090af1	-0.1338308
12	0xbdd8546c	-0.10562977
13	0xbca541b2	-0.020172928
14	0x3e06f3ce	0.13178942
15	0xbdd7ff83	-0.10546782
16	0x3b1e6586	0.00241694
17	0x3b7ded33	0.0038746118
18	0xbc1bed14	-0.009516973
19	0x3ca5e195	0.020249167
20	0x3ca941df	0.020661293
21	0xbc1cfd5e	-0.009581892
22	0xbd66bb7b	-0.05633114
23	0x3d9b27f0	0.07575977
24	0x3baf6a6c	0.0053532626
25	0x3d2b1f2a	0.041777767
26	0xbc024f62	-0.007953497
27	0xbcac3c00	-0.021024704
28	0xbe5168a5	-0.20450075
29	0xbc1d8f11	-0.009616629
30	0xbd5b7e9a	-0.053587534
31	0x3dc3490c	0.09535417
32	0xbbc3412b	-0.0059586964
33	0x3e191030	0.14947581
34	0xbbf6bb8c	-0.0075296815
35	0xbe0a239e	-0.1349015
36	0x3e06ecad	0.13176222
37	0xbe21ccda	-0.15800801
38	0x3cf6bb7b	0.030118695
39	0xbe07b139	-0.13251199
40	0xbe15d5a6	-0.14632282
41	0xbdb944f8	-0.09046358
42	0xbc789def	-0.015174373
43	0xbdf435d6	-0.11924331
44	0xbd81267f	-0.06306171
45	0xbe91776a	-0.28411418
46	0x3daaa063	0.083313726
47	0x3ba99ec8	0.005176399
48	0xbcc1ecca	-0.02367248
49	0xbd22163a	-0.03957198
50	0x3d64e6c8	0.055884153
51	0xb8233679	-3.891296e-05
52	0x3d46e227	0.04855552
53	0x3e0aa470	0.1353929
54	0xbd6a0309	-0.0571318
55	0x3e2ba31b	0.16761439
56	0xbe787568	-0.24263537
57	0xbd661675	-0.05617376
58	0x3d50bcf0	0.050961435
59	0xbcb9ecb8	-0.022695884
60	0xbd4bbf44	-0.049742952
61	0xbcaff7d6	-0.021480482
62	0xbda2e45f	-0.079537146
63	0xbb9eebe7	-0.004849899
64	0x3bf35df9	0.007426974
65	0x3e0a57fd	0.13510127
66	0x3e058b7c	0.1304149
67	0x3e0825a5	0.1329561
68	0xbddd5e8f	-0.10809051
69	0x3cd46ed1	0.025931748
70	0x3c36b9db	0.01115271
71	0xb9b4b30d	-0.0003446568
72	0x3e27938f	0.16364883
73	0xbdba2ef3	-0.09090986
74	0xbda5bc2f	-0.08092534
75	0x3c998003	0.018737799
76	0x3e045903	0.1292458
77	0x3da4d163	0.0804775
78	0x3e23cb82	0.15995601
79	0xbe4fc883	-0.20291333
80	0xbdbaa837	-0.09114116
81	0x3b8606a0	0.004090145
82	0x3dc2b630	0.09507406
83	0xbe684791	-0.2268355
84	0xbdbf43a7	-0.093390755
85	0x3cd497dd	0.02595132
86	0xba6fbe2c	-0.0009145464
87	0xbca29a82	-0.019849066
88	0xbdfebbf6	-0.124381945
89	0x3cbf106c	0.02332326
90	0x3dbed9cf	0.093188874
91	0xbc113551	-0.008862809
92	0xbc585fc5	-0.013206427
93	0x3d2870c7	0.041123178
94	0x3e1393d7	0.14411865
95	0xbd4080c3	-0.046997797
96	0xbdd16c7c	-0.1022577
97	0x3cedfb9b	0.029050639
98	0x3da04b18	0.07826823
99	0xbd220f20	-0.039565206
100	0xbe4acd90	-0.19804978
101	0x3df890b5	0.12136976
102	0xbe459392	-0.19294575
103	0xbb8252b4	-0.003977144
104	0xbe99347e	-0.2992286
105	0xbd0e3a65	-0.034723658
106	0x3d8f52a0	0.06998181
107	0x3cf7f8dd	0.030270034
108	0x3e2df9d6	0.16989836
109	0x3e0363cc	0.12831038
110	0x3e2049ec	0.15653199
111	0x3d8c32cf	0.068456285
112	0x3c4264dc	0.011864867
113	0x3d89e7e2	0.06733681
114	0xbe77aa5c	-0.2418608
115	0xbe187fad	-0.14892454
116	0xbab41361	-0.0013738686
117	0x3dfaad26	0.12240057
118	0xbe1f41db	-0.15552466
119	0x3e09467b	0.13405792
120	0x3e028928	0.12747633
121	0xbe192c92	-0.14958408
122	0x3d3ce123	0.046113145
123	0xbd9cb810	-0.07652295
124	0xbda0f786	-0.07859711
125	0xbd3d0cd1	-0.0461548
126	0x3d52511f	0.051346894
127	0xbe1eaa86	-0.15494737
128	0x3d42454a	0.04742936
129	0xbdf0426c	-0.11731419
130	0xbe1357b8	-0.14388931
131	0x3dc8f390	0.09812081
132	0x3b0b184c	0.00212242
133	0xbdca08e3	-0.09864976
134	0xbe31af90	-0.17352128
135	0x3c004e56	0.007831177
136	0x3ae79dc0	0.0017670915
137	0x3d3ef735	0.046622474
138	0x3d78cf1f	0.0607444
139	0xbd4899b7	-0.04897472
140	0x3cfc9965	0.030834863
141	0xbd16e3a2	-0.03683818
142	0xbe7ce83d	-0.24697967
143	0x3de1624f	0.11005079
144	0xbe68a87e	-0.22720525
145	0xbd216b49	-0.039408956
146	0xbc981d89	-0.018568771
147	0xbc9856a4	-0.018596001
148	0x3e355911	0.17709757
149	0xbdc018c8	-0.09379727
150	0x3c002d28	0.007823266
151	0xbd697872	-0.05699963
152	0xbdb898d7	-0.09013527
153	0x3d7e9aaf	0.062159237
154	0xbdc6d574	-0.09708682
155	0x3d2a09b6	0.041513167
156	0xbd677870	-0.056511343
157	0x3d3471fb	0.044054013
158	0x3d62fd65	0.055417437
159	0xbd0cdd12	-0.034390517
160	0xbde9033e	-0.113775715
161	0xbd4248a8	-0.04743257
162	0x3e264ef5	0.16241057
163	0xbda3d764	-0.08000067
164	0x3c5a537a	0.013325566
165	0xbcac627e	-0.021043058
166	0x3d44b38b	0.048022788
167	0x3d9d7e89	0.0769015
168	0xbd100e2b	-0.03516976
169	0xbd9f48b8	-0.07777542
170	0xbe247b07	-0.16062556
171	0x3ceebaa9	0.02914174
172	0xbe2988d4	-0.16556102
173	0x3d0b835b	0.034060817
174	0xbd8a77c0	-0.06761122
175	0x3c1c4592	0.009538071
176	0xbc820b0b	-0.015874406
177	0x3daaa802	0.08332826
178	0x3e179824	0.14804131
179	0x3d69e975	0.057107408
180	0xbd9326dd	-0.07185147
181	0x3c2d3fe8	0.0105743185
182	0xbd7dcdfb	-0.061964016
183	0xbcf09170	-0.029366225
184	0xbe03c171	-0.12866761
185	0xbd27a28b	-0.040926497
186	0xbd809244	-0.06277898
187	0xbdab131c	-0.08353254
188	0x3d95798d	0.072985746
189	0xbe220443	-0.15821938
190	0xbb63fa3f	-0.003478661
191	0xbd0c8110	-0.03430277
192	0xbd20249c	-0.039097413
193	0xbb5807b2	-0.003296357
194	0xbd52065a	-0.05127559
195	0xbd70e9ff	-0.058816906
196	0x3d29cdc9	0.041456018
197	0xbdb01466	-0.08597641
198	0x3e25f4b9	0.16206636
199	0x3dc51355	0.09622828
200	0x3cd20f67	0.02564211
201	0x3dc2ed53	0.09517922
202	0xbd1844a1	-0.037174825
203	0xbd1d35fe	-0.03838157
204	0x3d582444	0.05276896
205	0x3d402134	0.046906665
206	0x3c13b88f	0.00901617
207	0xbe04e0a9	-0.12976326
208	0x3d17dfb9	0.037078593
209	0x3d65ac49	0.056072507
210	0x3df26fb6	0.118377134
211	0xbda05f2e	-0.07830654
212	0x3da6fbb1	0.08153475
213	0x3de7ccd2	0.11318363
214	0x3b915f69	0.0044364226
215	0x3d5639c6	0.05230119
216	0x3cbcfb91	0.023069175
217	0x3d78d7f4	0.060752824
218	0xbb6b299c	-0.0035882955
219	0x3d6d9517	0.05800351
220	0x3d3bd1bc	0.045854315
221	0xbd2ceb19	-0.042216394
222	0xbca79066	-0.020454597
223	0x3da1c21a	0.0789835
224	0xbb136ab8	-0.002249403
225	0x3c8f2393	0.017473018
226	0xbdf07618	-0.117412746
227	0xbc94b384	-0.018152006
228	0x3b22101c	0.002472884
229	0xbc30d906	-0.01079393
230	0x3d308612	0.04309661
231	0xbc140ad8	-0.0090357885
232	0xbc4beb80	-0.012446284
233	0x3dca9565	0.09891776
234	0x3e1e5419	0.15461768
235	0xbcb559eb	-0.022137603
236	0x3e14376b	0.14474265
237	0xbd16fe3f	-0.03686356
238	0x3c099d1f	0.008399277
239	0xbdd53998	-0.10411376
240	0xbd3cc729	-0.04608837
241	0xbcf5d184	-0.030007131
242	0x3db7b0d7	0.089692764
243	0x3db33ad2	0.087514535
244	0xbcf1cffc	-0.02951812
245	0x3d037a4e	0.03209906
246	0xbc46a091	-0.012123243
247	0x3d0d94a7	0.034565594
248	0xbdb0be94	-0.086301
249	0xbd3127c1	-0.043250803
250	0xbe18ee17	-0.14934574
251	0x3d3752ed	0.04475682
252	0x3d998fd6	0.07498138
253	0x3d1d94d3	0.038472008
254	0x3dd3c438	0.1034016
255	0xbe40b619	-0.18819465

actor.2.bias f4 [128]
0	0xbd27293e	-0.040810816
1	0x3be5d42d	0.0070138187
2	0x3e181913	0.14853315
3	0xbe7c50f0	-0.2464025
4	0x3dc6a0d7	0.096986465
5	0x3e28f388	0.1649915
6	0x3e2ba680	0.16762733
7	0xbd8fc88b	-0.070206724
8	0x3d94bb53	0.07262292
9	0xbdb422ce	-0.08795701
10	0xbf4b7686	-0.7947773
11	0xbd02e688	-0.031958133
12	0xbe058cd7	-0.13042007
13	0xbd9f8273	-0.07788553
14	0x3e335ef9	0.17516698
15	0x3d1e4643	0.038641226
16	0x3e5f46c0	0.21804333
17	0x3d1f79ec	0.038934633
18	0xbde3c055	-0.11120669
19	0xbdc36faf	-0.09542786
20	0xbe92abe4	-0.28646767
21	0xbdd79a73	-0.10527506
22	0xbdc30efd	-0.09524343
23	0x3f119af5	0.5687707
24	0xbd2d0928	-0.04224506
25	0xbf5d9921	-0.8656178
26	0x3d34c5f7	0.044134106
27	0xbce690ca	-0.028145213
28	0xbf1a77c8	-0.6033902
29	0x3a1947e4	0.00058471994
30	0x3e93b9dc	0.28852737
31	0xbdd6a124	-0.10479954
32	0xbd848c06	-0.0647202
33	0x3d29df63	0.041472804
34	0xbd5bc9db	-0.0536593
35	0xbea88a18	-0.32917857
36	0x3c439e13	0.011939543
37	0x3d908c74	0.07058039
38	0x3d2ddb86	0.042445682
39	0xbc72b8e5	-0.01481459
40	0x3e13edf8	0.14446247
41	0xbcd23628	-0.02566059
42	0xbd801c94	-0.06255451
43	0x3f134089	0.5752035
44	0xbe33df92	-0.17565754
45	0xbcdf3c33	-0.027250385
46	0x3d4a7e65	0.049436945
47	0x3dd635ca	0.10459478
48	0xbee2faf3	-0.44332084
49	0xbe8cce79	-0.27501276
50	0x3d801d52	0.062555924
51	0xbdd3c945	-0.103411235
52	0xbdad5f43	-0.08465435
53	0x3d2306d8	0.03980145
54	0x3bdbcc49	0.0067077023
55	0xbdaf8d8a	-0.08571918
56	0xbced5707	-0.028972162
57	0xbe1f44fc	-0.15553659
58	0x3d4f0fcf	0.050552186
59	0xbe0fd1e9	-0.14044918
60	0x3cf345f2	0.029696438
61	0xbd7e248f	-0.062046584
62	0x3d8ce4d3	0.06879582
63	0x3de6cf3e	0.11269997
64	0xbdd0ccd9	-0.101953216
65	0xbd7607aa	-0.060065903
66	0xbc1c61d8	-0.009544812
67	0x3d59430f	0.053042468
68	0x3d4098c5	0.047020692
69	0x3d4b0da6	0.049573563
70	0x3d8c54b6	0.06852095
71	0x37ff1d0c	3.0411895e-05
72	0x3e99217a	0.29908353
73	0x3c4e95a4	0.012608919
74	0x3dc3ce65	0.09560851
75	0xbbfb9708	-0.0076779164
76	0x3d15f4a1	0.03661025
77	0xbd80ca94	-0.06288639
78	0xbd27e4e1	-0.04098976
79	0xbd9a7911	-0.07542623
80	0x3ce46ece	0.027884867
81	0x3dfa0f6a	0.12209971
82	0x3d8b37fa	0.06797786
83	0xbec0123d	-0.37513915
84	0xbdbc9518	-0.09208125
85	0xbd3eb1b1	-0.04655618
86	0xb93e1489	-0.00018127462
87	0xbc8579f7	-0.016293509
88	0xbc80f8fe	-0.015743729
89	0x3f1492e0	0.58036613
90	0xbde6ee89	-0.11275966
91	0xbeb04730	-0.34429312
92	0x3d2336fc	0.03984736
93	0xbd9461f5	-0.07245246
94	0x3d8c4e78	0.06850904
95	0x3c52e3ae	0.012871666
96	0xbd385c96	-0.04501017
97	0x3c86161b	0.016367963
98	0x3f819f09	1.0126659
99	0x3dd520df	0.1040666
100	0xbc35e819	-0.0111027
101	0x3eb3f5cb	0.35148463
102	0xbb121cab	-0.002229492
103	0x3d38443e	0.044986956
104	0xbccdb42c	-0.025110327
105	0xbdc98c19	-0.09841175
106	0x3d998de3	0.07497766
107	0x3c2dff82	0.01062
108	0xbdeb218e	-0.114810094
109	0x3edb5bc6	0.42843455
110	0x3efbe4d9	0.49198034
111	0x3c78c502	0.015183689
112	0x3d5db27e	0.0541253
113	0x3c803990	0.015652448
114	0xbe42c844	-0.19021708
115	0x3c5af360	0.013363689
116	0x3e6fac13	0.23405485
117	0x3d583aac	0.05279033
118	0xbd255802	-0.040367134
119	0xbe1502af	-0.14551805
120	0xbddf2049	-0.1089483
121	0xbcd9c06c	-0.026581012
122	0x3e139afb	0.14414589
123	0xbd0c4971	-0.034249727
124	0x3ea3249e	0.31863874
125	0x3e0992d7	0.13434921
126	0x3d8a6e07	0.06759267
127	0xbab9fead	-0.0014190279

actor.4.weight f4 [4, 128]
0	0x3df644ea	0.12024863
1	0x3cf4f491	0.029901775
2	0x3b81facd	0.0039666654
3	0x3cbad171	0.022804948
4	0xbbcd753c	-0.006270079
5	0xbb0bf5ab	-0.0021356146
6	0x3e1c746a	0.15278783
7	0x3e74506e	0.23858806
8	0xbe24c765	-0.16091688
9	0x3ab42109	0.0013742755
10	0xbe548f11	-0.207577
11	0x3b8eafe5	0.0043544644
12	0xbe405f91	-0.18786456
13	0x3bf68433	0.0075230836
14	0xbd2677f2	-0.040641733
15	0x3dd61632	0.10453452
16	0x3d1e5a97	0.038660612
17	0xbb6b90d3	-0.0035944476
18	0xbb998aa1	-0.0046857153
19	0x3daf94d7	0.08573311
20	0xbe70f7ca	-0.23532024
21	0xb8fb1632	-0.00011972747
22	0xbdbdb81d	-0.092636324
23	0x3ebe44bc	0.37161815
24	0x3dceba54	0.10094133
25	0x3dba5397	0.09097975
26	0xbc292a5b	-0.01032504
27	0x3a63131c	0.00086622103
28	0xbe14b4fe	-0.14522168
29	0xba7b70b1	-0.00095916825
30	0x3d33c3c5	0.043887872
31	0x3adb4443	0.0016728718
32	0x3bd3bf34	0.006462002
33	0x39dddf28	0.0004231867
34	0x3b837608	0.004011873
35	0x3e884545	0.26615348
36	0x39d5801f	0.00040721984
37	0x3af88e63	0.0018963333
38	0x3b80ae08	0.003926996
39	0xbc30dc0f	-0.010794654
40	0xbc585140	-0.013202965
41	0x3bb72438	0.0055890344
42	0x3c2d6702	0.010583641
43	0xbdca20d9	-0.098695464
44	0x3dff7b97	0.12474745
45	0x3b83b2bc	0.0040191095
46	0xbc0f92a7	-0.008762992
47	0xbbc6b261	-0.006063745
48	0xbdb9a053	-0.090637825
49	0xbd89dc0f	-0.06731426
50	0xbd30d098	-0.04316768
51	0xbda77431	-0.081764586
52	0x3d906f29	0.07052452
53	0x3c2f067f	0.010682701
54	0x3b1f4674	0.0024303468
55	0x3ca32686	0.01991583
56	0xbbaf31cf	-0.005346514
57	0xbb7164b6	-0.003683371
58	0x3b5e0bfd	0.0033881657
59	0xbdbd9cd9	-0.09258432
60	0xbad0be18	-0.0015925793
61	0x3b0ec997	0.0021787637
62	0xbbc3ed58	-0.0059792213
63	0x3bd96b70	0.006635122
64	0x3cbcda39	0.023053275
65	0xbbac995e	-0.005267306
66	0xbb13b681	-0.00225392
67	0x3a68a440	0.0008874573
68	0xbc8e0792	-0.017337594
69	0xbbb41ab6	-0.0054963483
70	0x3e25dc7b	0.16197388
71	0x3b2951d2	0.0025836122
72	0x3d7e2a72	0.062052198
73	0xbb7e4df8	-0.0038803797
74	0x39e843d1	0.00044301015
75	0x3b0ae7b6	0.002119524
76	0xbafa14ae	-0.0019079649
77	0xbc44c664	-0.012010191
78	0x3a27795b	0.0006388628
79	0x3e51efca	0.20501629
80	0xbb85e494	-0.0040860865
81	0xbd1b6307	-0.037936237
82	0x3d6ceb00	0.0578413
83	0xbe7481e5	-0.23877676
84	0xbaeafdbc	-0.0017928402
85	0x3a940592	0.0011293164
86	0xbc4c1ceb	-0.012458066
87	0x3a083739	0.0005196217
88	0x3baf0b45	0.0053419196
89	0xbcbc221f	-0.022965489
90	0x3c0032f1	0.007824645
91	0x3d53ba6d	0.05169146
92	0x3b07f25d	0.0020743825
93	0xbdbdced0	-0.09267962
94	0xbc4ff7bf	-0.012693345
95	0x3b22fca2	0.002486982
96	0xbc360b59	-0.011111104
97	0xbb96557a	-0.0045878263
98	0x3ea918fb	0.3302687
99	0x3cbbd00e	0.022926357
100	0xbca962af	-0.020676939
101	0x3da08932	0.07838668
102	0x3b4bf46a	0.0031121024
103	0x3c4b9e86	0.012427932
104	0x3b021e71	0.001985457
105	0xbc130ab2	-0.008974718
106	0xbe2ad170	-0.16681457
107	0xbb743206	-0.0037261262
108	0xbca2f77b	-0.019893399
109	0x3de7b9c4	0.11314729
110	0x3da8be22	0.0823939
111	0xba582926	-0.00082458777
112	0x3b3c194d	0.0028701604
113	0x3afd61cc	0.0019331514
114	0x3bd8e61b	0.0066192276
115	0xbc521dd4	-0.012824494
116	0x3e686b12	0.22697094
117	0xbb34cb40	-0.0027586967
118	0xbb502c6c	-0.0031764759
119	0x3d41e6be	0.047339194
120	0xbaed546f	-0.0018106828
121	0x3e13b872	0.14425829
122	0xbdb27f3e	-0.08715676
123	0xbd3046bc	-0.043036208
124	0x3d2ac10c	0.04168801
125	0x3cff2191	0.031143935
126	0xbbcf839f	-0.006332829
127	0xbe128ac1	-0.14310743
128	0xbdd3cb10	-0.103414655
129	0xbd32a880	-0.043617725
130	0x3a767aaf	0.00094024366
131	0xbd3eaec5	-0.046553392
132	0x3c11ce24	0.008899245
133	0xbb61cb64	-0.0034453506
134	0x3e108680	0.14113808
135	0xbdb4f033	-0.08834877
136	0x3d51ab97	0.05118903
137	0xbb897510	-0.004194863
138	0x3e1515d5	0.1455911
139	0xbb6c75b9	-0.003608091
140	0xbe2b4ecd	-0.16729279
141	0xbbc77fad	-0.006088218
142	0x3d49df30	0.049285114
143	0x3d3858c8	0.045006543
144	0x3d85d9e9	0.06535704
145	0xbacc6fc9	-0.0015597279
146	0x3b75ec8b	0.0037525024
147	0x3c8fc4a0	0.017549813
148	0xbdd8bb55	-0.10582606
149	0xbb1ba9e5	-0.0023752388
150	0xbe173c44	-0.14769083
151	0x3c3da2f6	0.011574497
152	0xbe4b10bb	-0.19830601
153	0xbf2bb7ff	-0.6707763
154	0x3bcab5c9	0.0061862213
155	0x3b057aae	0.0020367312
156	0xbd24b0f4	-0.04020782
157	0xbb72c238	-0.0037042033
158	0x3da19ae3	0.078908704
159	0xba0921d8	-0.00052311784
160	0x3bddfd9b	0.006774617
161	0x3c24d713	0.010061043
162	0xbc724a44	-0.014788214
163	0xbdbf41f8	-0.093387544
164	0xbb3a4c2a	-0.0028426745
165	0x3ce4deb9	0.027938234
166	0xbb69b7b8	-0.0035662483
167	0xbb789164	-0.0037928456
168	0x3e88cab0	0.26717138
169	0xbb8a6298	-0.004223179
170	0xbc169298	-0.009190224
171	0x3b579a62	0.0032898416
172	0x3d46c785	0.04853012
173	0xbb41c06e	-0.002956416
174	0x3be540f0	0.0069962665
175	0xbb56e262	-0.0032788743
176	0x3d6ae88a	0.057350673
177	0x3caef3d4	0.0213565
178	0xbe48c645	-0.19606884
179	0xbe07a7ae	-0.13247558
180	0x3dc04435	0.093880095
181	0x3bdaaf09	0.006673698
182	0x3b3f397c	0.002917855
183	0xbc8945d5	-0.016756931
184	0xba435074	-0.0007450648
185	0x3d052b4c	0.032511994
186	0xbb316510	-0.0027068295
187	0xbd96d2d6	-0.073644325
188	0xbba30fbe	-0.004976242
189	0xbb71afb3	-0.0036878407
190	0xbb8c255f	-0.004276916
191	0x3c12e03e	0.008964596
192	0xbd2bb247	-0.041918065
193	0x3caec78b	0.021335384
194	0xbafffa43	-0.001952954
195	0x3be195d1	0.0068843146
196	0xbc232067	-0.009956456
197	0xbaa3983c	-0.0012481282
198	0x3e58eeb9	0.21184815
199	0x3c203818	0.009778999
200	0x3e1cb332	0.15302733
201	0xbd8d2c75	-0.06893245
202	0x3bea2dac	0.007146558
203	0xbb5e6fdb	-0.0033941183
204	0xbc35aa68	-0.011087991
205	0xbbb1c2b4	-0.0054248217
206	0xbc140384	-0.009034041
207	0xbd75e027	-0.06002822
208	0x3bb591f1	0.005541079
209	0x3d90acdd	0.07064221
210	0x3c97ae1b	0.018515637
211	0x3e01a538	0.12660682
212	0xbc77e0a1	-0.015129239
213	0xbb8dc104	-0.004325988
214	0x3c045d29	0.008078852
215	0x3c363fc8	0.011123605
216	0x3be1ad82	0.006887139
217	0x3db1b528	0.08677131
218	0xbbe0ed0d	-0.006864196
219	0xbea41147	-0.32044432
220	0xbb851ec4	-0.0040625054
221	0xbe15d740	-0.14632893
222	0xbb04446e	-0.0020182389
223	0x3ac8db8c	0.0015324219
224	0x3bd42af4	0.006474847
225	0x3b9b73f1	0.004744046
226	0x3edec7de	0.43511862
227	0xbba7004a	-0.00509647
228	0x3c814512	0.015780006
229	0xbe00b3eb	-0.12568633
230	0xbbab7f7d	-0.0052337036
231	0x3c8f3d1b	0.017485192
232	0x3c4edab7	0.012625388
233	0xbc976791	-0.018482001
234	0xbe957e70	-0.29198027
235	0x3adf02a7	0.001701434
236	0xba94e4f3	-0.0011359736
237	0x3e7b1137	0.24518286
238	0x3d3d4812	0.04621131
239	0xba8aa8ca	-0.0010578868
240	0x39934db2	0.00028095912
241	0xb98afbdd	-0.00026509064
242	0xbe29a00b	-0.16564958
243	0xbde1360b	-0.10996636
244	0xbe23836d	-0.15968104
245	0x3befdab1	0.007319771
246	0xbbbae07e	-0.005703031
247	0x3dd6e5ab	0.104930244
248	0xbeb56ca9	-0.35434464
249	0xbe42d461	-0.19026329
250	0x3d703962	0.058648475
251	0x3e303254	0.17206699
252	0xbdf84a61	-0.12123562
253	0xbc981ec6	-0.018569361
254	0xb99893e5	-0.0002910189
255	0x3d054352	0.032534905

actor.4.bias f4 [4]
0	0x3ea2ff16	0.3183524
1	0x3efdc027	0.49560663
2	0x3f133d98	0.5751586
3	0x3ed4c2f9	0.41555002

critic.0.weight f4 [128, 17]
0	0x3e38851f	0.18019532
1	0xbf8a73f1	-1.0816633
2	0xc090a645	-4.5202966
3	0xbef9be5c	-0.48778045
4	0x40106054	2.2558794
5	0x3f7c485e	0.98547924
6	0x3da48bb2	0.08034457
7	0x3f23e9a6	0.64028394
8	0x400b913a	2.180739
9	0xbe5e5286	-0.21711168
10	0x3e96cbbe	0.29452318
11	0x3e8faa92	0.28059822
12	0xbe4c9075	-0.19976981
13	0xbe978621	-0.2959452
14	0xbdbbcf70	-0.09170425
15	0xbeb2a464	-0.34891045
16	0xbf00b35f	-0.502737
17	0xc0ff01c3	-7.968965
18	0xbf61932e	-0.88115203
19	0xc043c119	-3.0586607
20	0xbf6274bf	-0.8845939
21	0x3f4a018d	0.78908616
22	0xbffe56fb	-1.9870294
23	0xbe87d68f	-0.26530883
24	0x3fd42d0a	1.6576245
25	0x3ec98870	0.39361906
26	0x3e1f40e2	0.15552095
27	0xbd67d23e	-0.056596987
28	0x3bfe42fd	0.0077594505
29	0xbe8ad5d6	-0.2711627
30	0xbd1bdee5	-0.038054366
31	0x3caffb71	0.021482201
32	0xbe3f56cb	-0.18685453
33	0x3dcb4ab0	0.09926355
34	0x3fa8f25e	1.3198965
35	0x3fb43bbf	1.4080733
36	0xc007acd5	-2.1199238
37	0x3f3eb188	0.7448964
38	0xbfadec2c	-1.3587699
39	0x3fce53e3	1.611935
40	0x3c292e6d	0.01032601
41	0xbebc0ce8	-0.36728597
42	0x3d55aa29	0.05216423
43	0xbd7f637d	-0.06235074
44	0xbeffc9cb	-0.49958643
45	0xbd86b156	-0.06576793
46	0xbe4d0429	-0.20021118
47	0x3ed3b895	0.41351762
48	0x3eca157c	0.39469516
49	0x3f0b18a7	0.5433449
50	0x3f4164bf	0.7554435
51	0x3e85b366	0.26113433
52	0xbfdc1301	-1.71933
53	0xc0028979	-2.0396407
54	0xbf317756	-0.6932272
55	0xc04da1b6	-3.212995
56	0x40773b6e	3.8630023
57	0xbfa0e15b	-1.2568773
58	0x3f109459	0.5647636
59	0xbf4ca3e3	-0.7993757
60	0xbf90a09b	-1.1299013
61	0x3e9175d7	0.28410217
62	0xbc46408c	-0.01210035
63	0xbc1633d1	-0.009167627
64	0x3e0e7aa0	0.13913965
65	0x3e2a1c5b	0.16612379
66	0x3e8a7ab0	0.27046728
67	0x3e549cce	0.20762941
68	0x3f5d92d4	0.86552167
69	0x3f403770	0.7508459
70	0xbf909a61	-1.1297113
71	0xbf35c69b	-0.7100617
72	0xbffd9939	-1.9812385
73	0x3fffcc14	1.9984155
74	0xc0000153	-2.0000808
75	0xbf68254a	-0.906819
76	0xbf5d6c8b	-0.8649375
77	0x3f8e0861	1.1096307
78	0x3fcbd7f9	1.5925285
79	0x40896f43	4.2948318
80	0x3f920deb	1.1410497
81	0x3e32237c	0.17396349
82	0xbeddcc18	-0.43319774
83	0xbcafcdaa	-0.021460373
84	0xbda906df	-0.08253264
85	0x3f9b9cd7	1.2157239
86	0x3fbbd222	1.4673502
87	0x40919691	4.5496297
88	0xbf492498	-0.7857146
89	0xbec96af1	-0.39339402
90	0x3f1bd432	0.6087066
91	0x3f58dc02	0.84710705
92	0x4021dff3	2.5292938
93	0x3ffb9167	1.9653748
94	0xbf00fe83	-0.50388354
95	0xbdcff129	-0.101534195
96	0x3e6e2825	0.23257501
97	0xbe39f9a8	-0.18161643
98	0x3e041c88	0.12901509
99	0x3e4ec99a	0.20194092
100	0x3e8a1b5d	0.26974002
101	0x3eb5033b	0.35354027
102	0xbfc21daf	-1.5165309
103	0xc0935673	-4.604303
104	0xc067cbfe	-3.6218257
105	0xbe80c410	-0.25149584
106	0x3de15239	0.11002011
107	0x4084b977	4.1476398
108	0x3eb5f586	0.35538882
109	0x3f02c601	0.5108338
110	0x3f082c8e	0.53192985
111	0x3b1b8f1a	0.0023736418
112	0xbdc969ad	-0.09834609
113	0xbe100b68	-0.14066851
114	0x3f1d1571	0.6136084
115	0x3e8441c7	0.25831434
116	0x3e3bc511	0.18336894
117	0x3e9ba1db	0.30396923
118	0x3df29e64	0.11846617
119	0x3ebe0d37	0.37119457
120	0xc00f3f78	-2.2382488
121	0x40da39fa	6.819577
122	0x3e189fee	0.14904758
123	0xbf2de503	-0.6792757
124	0x4023092e	2.5474353
125	0x40365502	2.8489385
126	0xbe7c202f	-0.24621652
127	0xbfc39a4b	-1.5281461
128	0x3dc4ed47	0.096155696
129	0xbc8a63f4	-0.016893364
130	0xbf19d0d3	-0.60084265
131	0x3ec27806	0.37982196
132	0x3c74c285	0.014938955
133	0x3dae2132	0.08502425
134	0xbca9cd60	-0.020727813
135	0x3d4414d2	0.04787142
136	0xbf64d65c	-0.89389586
137	0x402ffe03	2.7498786
138	0x3f20b955	0.62782794
139	0xbf36823e	-0.71292484
140	0xbefcbfc5	-0.4936506
141	0x3f9bb53a	1.2164681
142	0x3df40e0a	0.1191674
143	0x3f04e1b8	0.5190692
144	0xbf4be975	-0.796531
145	0xbd55fb3e	-0.052241556
146	0x40063b58	2.097372
147	0x4015fa13	2.3433883
148	0xc01d3327	-2.456247
149	0x3b96d83f	0.0046034153
150	0x3cee1dcc	0.029066943
151	0x3df94cb5	0.12172834
152	0x3d21465d	0.039373744
153	0xc03714f9	-2.860655
154	0x3f389514	0.72102475
155	0x411577a4	9.341709
156	0x3dc597c7	0.0964809
157	0xbf968bf5	-1.1761461
158	0x3fea0dd9	1.8285476
159	0x3f985a86	1.1902626
160	0xbe2f7de6	-0.1713787
161	0xbfdc1fc2	-1.7197192
162	0x3e0b39d5	0.1359628
163	0x3e25b72f	0.1618316
164	0x3d36d036	0.04463216
165	0xbd96188e	-0.07328902
166	0x3e8ede6d	0.27904072
167	0x3e463716	0.19356951
168	0x3eb2da3b	0.34932122
169	0x3e4d3419	0.20039405
170	0xbeffa77d	-0.4993247
171	0x3fe16c2a	1.7611134
172	0x3fdd7c94	1.7303643
173	0x3ece1f9d	0.40258494
174	0x3fc7c1b3	1.5605987
175	0xbf4c1406	-0.79718053
176	0xbfd32f07	-1.6498727
177	0x3e6c9db4	0.23107034
178	0x3f0356c5	0.51304275
179	0xc01e3011	-2.4716837
180	0x3fc0f7ef	1.5075663
181	0x401dd2e1	2.465996
182	0x40754e1d	3.8328927
183	0x3eca0f29	0.3946469
184	0xbc6ff390	-0.014645472
185	0x3da597b2	0.08085574
186	0x3e96d3e5	0.29458538
187	0x3febcb78	1.8421469
188	0xbfe8e4f7	-1.8194875
189	0x3fb88b6c	1.4417548
190	0xbf9a7ae8	-1.2068758
191	0x3fcef15f	1.6167411
192	0x3f864075	1.0488421
193	0xbf3147c0	-0.69250107
194	0x3fae0c33	1.3597473
195	0xbe51a56f	-0.20473264
196	0x3fbf747a	1.4957421
197	0x3dc30452	0.095223084
198	0xbe905fc5	-0.28198066
199	0xbd50d3e1	-0.050983313
200	0x3c2a343b	0.010388429
201	0x3d98079e	0.07423328
202	0xbd7bf47c	-0.061512455
203	0xbe62c31f	-0.22144745
204	0x3f902ccc	1.1263671
205	0x3fb746fe	1.431854
206	0xc0377e5f	-2.867088
207	0xbcc03935	-0.023464778
208	0x3fbbc9a8	1.4670916
209	0xbea37723	-0.31926832
210	0xbe0dec9e	-0.13859794
211	0xbfa95666	-1.3229492
212	0x40203613	2.5033004
213	0x3ffc69dd	1.9719807
214	0xc03b69b0	-2.9283257
215	0xbe149043	-0.14508156
216	0x3fa6926b	1.3013433
217	0xbdb70191	-0.08935846
218	0xbe2e4556	-0.17018637
219	0xbd7932ef	-0.06083959
220	0xbc1d587a	-0.009603614
221	0xbfaaede6	-1.3353851
222	0x3f707950	0.9393511
223	0x41281cfa	10.507074
224	0xbf5e974b	-0.86949605
225	0xbf1413a3	-0.57842463
226	0x3f83ab42	1.0286639
227	0xbffd46c5	-1.9787222
228	0x3f3474bf	0.7049064
229	0xbf1e9073	-0.6193916
230	0xbe205ea7	-0.15661107
231	0xbe17892b	-0.14798419
232	0x3e84390c	0.25824773
233	0xbf309c6a	-0.6898867
234	0xbe3b7770	-0.1830728
235	0xbd719091	-0.05897576
236	0xbe42f433	-0.19038467
237	0xbe58e2cd	-0.21180268
238	0x3f889843	1.0671467
239	0xbe27a4ed	-0.16371508
240	0xc03b5ccd	-2.927539
241	0x3cb32b27	0.021871163
242	0xc00f9994	-2.2437487
243	0x3fdab965	1.7087828
244	0xc0136c95	-2.3035023
245	0xbfba3f58	-1.4550581
246	0xbf8690ce	-1.0512941
247	0xbe62480d	-0.22097798
248	0x3f801233	1.0005554
249	0x3f459731	0.77183825
250	0xbf8e1ef6	-1.1103199
251	0x3dcb1224	0.099155694
252	0x3cca5cae	0.024702396
253	0x3e8cac22	0.27475077
254	0x3d111f27	0.0354301
255	0xc0ab901c	-5.3613415

critic.0.bias f4 [128]
0	0xbf4bd4d7	-0.7962164
1	0xbf138c1e	-0.57635677
2	0xbdce1dac	-0.10064253
3	0xbe2dd1d6	-0.16974577
4	0xbc41125f	-0.011784165
5	0xbf59ba5f	-0.85050005
6	0xbef7ae6b	-0.48375258
7	0x3d02c61f	0.031927224
8	0xbf10ed7a	-0.5661236
9	0x3f311294	0.6916897
10	0x3a967460	0.0011478774
11	0xbfa718ad	-1.3054405
12	0x3e99ebee	0.30062813
13	0xbeb2bb2e	-0.34908432
14	0x3e56f86c	0.20993203
15	0x3f259e13	0.6469433
16	0xbe41e175	-0.18933661
17	0xbedcd95e	-0.43134588
18	0x3d5b843d	0.05359291
19	0xbefd8443	-0.4951497
20	0xbea6ec20	-0.32602024
21	0x3cdad980	0.02671504
22	0x3e0dd1ca	0.1384956
23	0x3e07858f	0.13234542
24	0x3ece8b58	0.40340686
25	0xbf5ff021	-0.8747578
26	0xbe9af3e7	-0.30264208
27	0xbea1c6d0	-0.31596994
28	0xbc58290c	-0.01319338
29	0xbd5d796d	-0.05407088
30	0xbe547812	-0.20748928
31	0xbd859e9a	-0.065243915
32	0xbe28cde2	-0.16484788
33	0xbe477740	-0.19479084
34	0xbf73d6ea	-0.9524981
35	0xbee534a7	-0.44766733
36	0x3e3be8a6	0.18350467
37	0x3ea401fd	0.32032767
38	0x3da2d118	0.07950038
39	0xbcddfd9d	-0.027098471
40	0x3e9304dd	0.28714648
41	0xbec56c58	-0.38559222
42	0x3e6120eb	0.21985213
43	0x3e566275	0.20935996
44	0xbe0e9789	-0.13924994
45	0xbe1609cf	-0.14652179
46	0xbedede5b	-0.4352902
47	0xbf525493	-0.821603
48	0xbdd1e125	-0.10248021
49	0x3f367b0c	0.71281505
50	0x3d2e449f	0.04254591
51	0xbed50a5e	-0.41609472
52	0x3e0ecda4	0.13945633
53	0x3cdedfbc	0.027206294
54	0x3dbf7b13	0.093496464
55	0x3eedbca5	0.46432987
56	0xbf247310	-0.6423807
57	0xbf891bce	-1.071161
58	0x3de50155	0.11181895
59	0xbdee0432	-0.11621894
60	0x3d1d359a	0.038381197
61	0x3e8601ef	0.2617335
62	0xbf3fb3cc	-0.74883723
63	0xbe40bc0c	-0.18821734
64	0xbc8144ae	-0.01577982
65	0x3e10b4b4	0.14131433
66	0x3e5ce150	0.21570325
67	0x3f107ae4	0.56437516
68	0x3dd00ae4	0.10158327
69	0xbf801f1b	-1.0009493
70	0xbe3e2c6d	-0.18571635
71	0x3e76b158	0.24091089
72	0x3ed26c9e	0.41098493
73	0xbd8e5125	-0.06949071
74	0x3ec75602	0.38932806
75	0x3f20c40f	0.6279916
76	0x3de11246	0.109898135
77	0xbe960307	-0.29299185
78	0xbcbb2d87	-0.022848858
79	0x3dd5bb15	0.10436074
80	0xbde19107	-0.1101399
81	0xbd33fad5	-0.043940384
82	0xbf010c06	-0.5040897
83	0xbece32c7	-0.40273115
84	0xbeb724af	-0.35770175
85	0x3e2c4137	0.16821752
86	0x3f0a3106	0.53981054
87	0xbe0085a3	-0.12550978
88	0x3cde800b	0.027160665
89	0x3e066ffd	0.13128658
90	0x3e55525d	0.208322
91	0xbf1d228a	-0.6138083
92	0x3edd6a47	0.43245146
93	0xbf3fc3ac	-0.74907947
94	0xbdca83bb	-0.09888407
95	0xbebb5c60	-0.36593914
96	0x3e4f0aef	0.20219015
97	0x3f0673a0	0.5252018
98	0x3e8fc1d5	0.2807757
99	0x3ea789d2	0.32722336
100	0xbd460af1	-0.04835028
101	0xbee8e9b3	-0.45490798
102	0x3e511236	0.20417103
103	0x3de7b69d	0.113141276
104	0xbf0486b1	-0.5176802
105	0xbec92351	-0.39284757
106	0x3f3d2711	0.73887736
107	0xbf157b6c	-0.5839145
108	0x3f227644	0.6346171
109	0xbf00182b	-0.5003688
110	0xbe9bacec	-0.30405366
111	0x3e95f889	0.2929118
112	0x3ee9a3bc	0.45632732
113	0xbe6b1f04	-0.2296105
114	0x3d6d389d	0.05791532
115	0x3f11b3cb	0.5691497
116	0x3e0ec196	0.13941035
117	0xbe3f672f	-0.18691705
118	0xbeab3121	-0.3343592
119	0x3f0cb426	0.54962385
120	0x3d893030	0.06698644
121	0xbeb4e0ca	-0.3532775
122	0xbe44960b	-0.19197862
123	0x3efad58f	0.48991057
124	0xbea4e49d	-0.32205668
125	0xbcf39edf	-0.029738842
126	0x3e0da04b	0.13830678
127	0xbf612377	-0.8794474

critic.2.weight f4 [128, 128]
0	0x3fcfaf86	1.622544
1	0xbe866bc1	-0.26254085
2	0xbf594b79	-0.8488079
3	0xbfa96afe	-1.3235776
4	0x3e32ce39	0.1746148
5	0xbec928eb	-0.3928903
6	0x3ec71d1b	0.38889393
7	0xbf603e33	-0.8759491
8	0x3f25c606	0.64755285
9	0xbfa550f8	-1.2915335
10	0x3f2b0a1b	0.66812295
11	0xbecb74cb	-0.39737543
12	0x3dd8ea52	0.10591568
13	0xc01b64c9	-2.4280264
14	0xbf3caaac	-0.73697925
15	0x3f838370	1.0274487
16	0x3f4b0579	0.79305226
17	0x3f1f2d71	0.62178713
18	0x3ef6f9af	0.48237368
19	0xbf460533	-0.77351683
20	0xbe482383	-0.19544797
21	0x3f429e0f	0.7602243
22	0xbedaac79	-0.4270971
23	0x3f6d15d7	0.9261145
24	0xbefa5724	-0.48894608
25	0x3f5bcfd4	0.85863996
26	0x3f2d6cea	0.67744315
27	0xbf24dfc7	-0.6440396
28	0xbd018683	-0.03162242
29	0xbfa94cfc	-1.3226619
30	0xbf65ac0e	-0.8971566
31	0x3f0564a0	0.52106667
32	0xbf261af7	-0.64884895
33	0x3f53130f	0.82450956
34	0x3e2a42d9	0.16627063
35	0xbdee769b	-0.11643716
36	0x3f1cd51e	0.6126269
37	0xbcae91c3	-0.021309739
38	0x3f580ccd	0.8439453
39	0x3e2b1b1e	0.16709563
40	0xbf066d7f	-0.5251083
41	0x3fd517b2	1.6647856
42	0x3e8d0867	0.27545473
43	0x3ed1baeb	0.4096292
44	0xbf8aabf9	-1.0833732
45	0x3fb0cd72	1.3812697
46	0xbea224a0	-0.31668568
47	0x3f07fd5e	0.5312098
48	0xbf5ea0c5	-0.86964065
49	0x3f90915c	1.129436
50	0x3eb6f4c9	0.3573363
51	0x3f36f28f	0.71463865
52	0x3f8e77aa	1.1130269
53	0xbf944c6e	-1.1585824
54	0xbec3e6cc	-0.38262022
55	0xbf5d48b3	-0.86439055
56	0xbf2f70a0	-0.6853123
57	0x3fac4013	1.3457054
58	0xbe1ae95b	-0.1512808
59	0x3f85ce1f	1.0453528
60	0x3f97e73e	1.1867445
61	0x3fc546bd	1.5412213
62	0x3da2c6dc	0.07948086
63	0x3f3fdb6a	0.74944174
64	0xbffd5912	-1.9792807
65	0xbf35da3d	-0.7103613
66	0xbe06c036	-0.1315926
67	0xbf4da3ff	-0.80328363
68	0xbf56a40b	-0.8384406
69	0xbe8e2f0a	-0.27770263
70	0xbf1d92cb	-0.61552113
71	0x3f5b5524	0.8567679
72	0x3e275913	0.16342573
73	0x3e6f3665	0.23360594
74	0xbfa1ab60	-1.2630424
75	0x3eae56cc	0.34050596
76	0x3dbeea35	0.09322015
77	0x3f6f3e9f	0.9345493
78	0x3f06fb06	0.5272678
79	0xbf0ccfe8	-0.5500474
80	0xbfc63208	-1.5484018
81	0xbe23e034	-0.16003495
82	0x3fb80369	1.4376041
83	0xbf4dfe8c	-0.8046653
84	0xbfe90ddf	-1.8207358
85	0x3e2371c1	0.15961362
86	0x3f17b573	0.59261245
87	0xbf1925e4	-0.5982344
88	0xbee63e5d	-0.44969454
89	0x400a7669	2.1634772
90	0x3fd602e0	1.6719627
91	0xbd9f1ba4	-0.07768944
92	0x3ec35764	0.3815261
93	0x3f863bc0	1.0486984
94	0x3e9eae54	0.30992377
95	0x3e0281d4	0.12744838
96	0x3f90ee5e	1.1322744
97	0x3f3fc90b	0.7491614
98	0xbe966d49	-0.29380253
99	0x3f7ead16	0.9948286
100	0x3f517067	0.8181214
101	0x3edfeda9	0.43736008
102	0xbfa70926	-1.3049667
103	0x3f9d6823	1.2297405
104	0xbec327d1	-0.38116315
105	0xbf440814	-0.76574826
106	0xbf27c300	-0.6553192
107	0x3f6602ae	0.8984784
108	0x3f261d5f	0.64888567
109	0xbf2f6264	-0.6850951
110	0xbf4b4fa3	-0.7941839
111	0x3f7b6de6	0.98214567
112	0x3eed909c	0.4639939
113	0x3de777fa	0.113021806
114	0xbee3cb9c	-0.4449128
115	0xbec14a43	-0.3775197
116	0x3f1c304d	0.610112
117	0x3f5ae5e4	0.85507035
118	0xbc988ce3	-0.018621868
119	0x3dbc1a65	0.09184722
120	0xbf9f34c8	-1.2437983
121	0xbf25b5f2	-0.6473075
122	0x3f1c9498	0.61164236
123	0x3f37fc8b	0.71869725
124	0x3df2f2e1	0.11862732
125	0xbb8b81ad	-0.004257402
126	0xbf5a48f3	-0.8526756
127	0x3fb1c053	1.3886818
128	0x3f64423e	0.8916358
129	0x3f5f855f	0.87312883
130	0xbdc8383b	-0.0977635
131	0xbf0b0052	-0.54297364
132	0xbf6b5d1f	-0.91938967
133	0x3fb245ea	1.3927586
134	0xbe6b1c8b	-0.22960107
135	0xbef95ed4	-0.4870516
136	0xbd333249	-0.043749128
137	0xbfd8062d	-1.6876885
138	0xbfbd57c4	-1.4792409
139	0xbe0cb9ae	-0.13742706
140	0x3e882a36	0.26594704
141	0xbfb358b3	-1.4011444
142	0xbf45a75f	-0.77208513
143	0xbed38318	-0.41310954
144	0x3f727e42	0.94723904
145	0x3ff22fc7	1.892083
146	0x3fc7a24d	1.5596405
147	0x3f7d902f	0.9904813
148	0x3f92a2ff	1.1455992
149	0xbd54b9a0	-0.05193484
150	0xbedbf07e	-0.42956918
151	0xbc27a0ad	-0.010231179
152	0x3e6e459a	0.23268738
153	0x3fcf1682	1.6178744
154	0xbb624cf2	-0.0034530726
155	0xbe7aea48	-0.24503434
156	0xbefda0c1	-0.49536708
157	0x3d66bd37	0.056332793
158	0xbee440c1	-0.44580653
159	0x3e3659df	0.1780772
160	0x3f23b3fd	0.63946515
161	0x3fa841ea	1.3145115
162	0xbf2aefd8	-0.6677222
163	0xbf004d24	-0.5011771
164	0xbf904d66	-1.127362
165	0x3df2bd18	0.11852473
166	0x3f76bf5a	0.9638573
167	0x3eb916ee	0.36150306
168	0xbf3ea518	-0.74470663
169	0x3f88b5dd	1.06805
170	0x3e6bbb7d	0.2302074
171	0xbf155df9	-0.58346516
172	0xbf9eec0d	-1.2415787
173	0x3eea9b86	0.4582178
174	0xbfd533bb	-1.6656412
175	0x3fa18432	1.2618468
176	0x3ebb1405	0.3653871
177	0xbe55d43b	-0.20881741
178	0x3f508139	0.8144718
179	0x3fe73ab0	1.8064785
180	0x3ef54cc7	0.4791014
181	0x3f72d0af	0.94849676
182	0xbf003163	-0.5007536
183	0xbef85798	-0.4850433
184	0xbf02978c	-0.5101249
185	0x4016b467	2.354761
186	0xbd6e1068	-0.058121115
187	0x3fbfba8d	1.4978806
188	0xbf35212f	-0.7075376
189	0x3e351ab6	0.1768597
190	0x3f317dbf	0.693325
191	0x3d971215	0.07376496
192	0xbfb42edf	-1.4076804
193	0x3cb9b9f4	0.022671677
194	0x3f929078	1.1450338
195	0xbeea4d5a	-0.4576214
196	0xbf3a5323	-0.72783107
197	0x3effd936	0.49970406
198	0x3fabdb62	1.3426325
199	0xbfd16b2d	-1.6360832
200	0xbe1748da	-0.14773884
201	0xbe281c95	-0.16417153
202	0xbfac7d71	-1.3475782
203	0x3e4ef4d3	0.2021058
204	0x3fc5926a	1.5435307
205	0x3f3a6c8b	0.72821873
206	0xbe84d095	-0.25940385
207	0xbf7e5983	-0.99355334
208	0xc00ce644	-2.2015543
209	0xbf8c622e	-1.0967462
210	0x3f4fc433	0.8115875
211	0x3f3a91d6	0.7287878
212	0x3cd03533	0.025415992
213	0xbe567272	-0.20942095
214	0xbf04641b	-0.5171525
215	0xbe06474f	-0.1311314
216	0x40405eec	3.0057936
217	0x3fe6bd66	1.802655
218	0xbfc4ad2c	-1.5365348
219	0x3fb3e34a	1.4053738
220	0x3fa54b54	1.2913613
221	0x400e464f	2.2230413
222	0x3f6e4410	0.93072605
223	0x3f22e846	0.6363567
224	0x3eebb900	0.4603958
225	0xbefbb04c	-0.4915794
226	0xbe7d4933	-0.24734955
227	0xbf55243b	-0.8325841
228	0xbe728623	-0.23683982
229	0x3fb8bbbd	1.4432293
230	0xbf91501f	-1.1352576
231	0x3ea50a10	0.3223424
232	0xbdbb5f56	-0.09149043
233	0xbf99f0b7	-1.2026585
234	0xbff2bdd5	-1.8964182
235	0x3fc980d8	1.5742445
236	0xbec649dc	-0.38728225
237	0x3dbf0551	0.09327186
238	0x3f456f5a	0.77123034
239	0xbf3f275c	-0.7466943
240	0x3f0ae734	0.5425904
241	0x3f377b3f	0.71672434
242	0xbfac66d8	-1.3468885
243	0xbef712b7	-0.48256466
244	0xbddd7572	-0.108134165
245	0xbf115ee1	-0.567854
246	0x3f511ebb	0.81687516
247	0xbf02168b	-0.5081565
248	0xbf2f639a	-0.68511355
249	0x3e522286	0.20520982
250	0x3e98595e	0.29755682
251	0x3ef4f6f0	0.47844648
252	0xbeead89a	-0.4586838
253	0xbfcc651b	-1.5968355
254	0x3e3cb512	0.18428448
255	0x3be02cb2	0.0068412656

critic.2.bias f4 [128]
0	0xbf2ee6e0	-0.6832104
1	0xbe2f3f14	-0.17113906
2	0x3e85f140	0.26160622
3	0x3ed4de0e	0.41575664
4	0x3e1e0132	0.15430143
5	0x3e8f7340	0.28017616
6	0xbed0cefd	-0.4078292
7	0xbe3aa7fd	-0.18228145
8	0xbd3f2a63	-0.046671283
9	0xbf1848ba	-0.5948597
10	0xbef6970a	-0.4816211
11	0x3de75511	0.11295522
12	0x3e2db129	0.16962112
13	0xbea180dc	-0.31543624
14	0x3f0e0ea9	0.5549112
15	0xbe618710	-0.22024179
16	0x3f014c3d	0.50506955
17	0xbea324b1	-0.3186393
18	0x3dca7a32	0.09886588
19	0x3e16d650	0.14730191
20	0xbca14b5e	-0.019689258
21	0x3ef0c27e	0.47023386
22	0x3dc477d2	0.095931664
23	0x3f26d397	0.6516661
24	0xbda2961d	-0.07938788
25	0xbefc33ae	-0.49258178
26	0x3ee12a79	0.43977717
27	0xbecd8e47	-0.40147611
28	0xbe96f4c0	-0.29483604
29	0xbed5ab98	-0.41732478
30	0xbcb998c4	-0.022655852
31	0xbf238308	-0.6387181
32	0x3f78f724	0.97252107
33	0x3f1a468c	0.60263896
34	0x3cacbb7f	0.021085499
35	0x3d233283	0.039843094
36	0x3e0bf6d5	0.13668378
37	0x3f01d348	0.50713015
38	0x3e96b534	0.29435122
39	0xbe6224ec	-0.22084397
40	0x3d69c5e3	0.057073485
41	0xbdd74230	-0.10510671
42	0xbe05fc90	-0.13084626
43	0xbcf5ea83	-0.03001905
44	0xbe732e9a	-0.23748246
45	0x3eb16554	0.3464762
46	0x3e9670d2	0.2938295
47	0xbe60c605	-0.21950538
48	0xbd577ba4	-0.052608147
49	0xbe96b635	-0.29435888
50	0xbefdc374	-0.4956318
51	0xbe11d52d	-0.14241476
52	0x3f2a16bc	0.6644094
53	0xbdeb628a	-0.11493404
54	0xbd818ee3	-0.063260816
55	0x3f101bd1	0.56292444
56	0x3f30147a	0.68781245
57	0x3cf67725	0.03008611
58	0xbea41499	-0.32046965
59	0x3edb40fb	0.42823014
60	0xbf27e16e	-0.65578353
61	0x3e970d95	0.2950255
62	0xbea5e557	-0.32401535
63	0xbe991f68	-0.29906774
64	0x3c8a8570	0.016909331
65	0xbebdbb8f	-0.37057158
66	0x3ef938fe	0.48676294
67	0x3ed67879	0.41888788
68	0xbe09eeab	-0.13469951
69	0xbed16a04	-0.40901196
70	0x3eede0ae	0.4646048
71	0x3e51994e	0.20468637
72	0x3f73c26e	0.9521855
73	0x3f33ff5c	0.7031152
74	0x3eb30e0a	0.34971648
75	0xbeaaa92c	-0.33332193
76	0xbe47f055	-0.19525273
77	0x3d9898bd	0.074510075
78	0x3f933ebf	1.1503524
79	0x3eb4df4a	0.35326606
80	0xbefec575	-0.49760023
81	0x3c91376c	0.017726623
82	0x3f28d539	0.6595035
83	0xbdba4564	-0.090952665
84	0x3d912e1e	0.07088874
85	0xbd589958	-0.052880615
86	0x3ee893eb	0.45425352
87	0x3e04bf60	0.12963629
88	0xbd9ed079	-0.07754607
89	0xbe4997af	-0.19686769
90	0xbf1276d2	-0.57212555
91	0x3eb42f65	0.3519241
92	0xbf179d48	-0.5922437
93	0x3f48e7e2	0.78478825
94	0xbf0f6a83	-0.560219
95	0x3e06bba1	0.13157512
96	0xbee3f09f	-0.44519517
97	0x3f258778	0.64659834
98	0x3e8086c7	0.25102827
99	0xbd0a733e	-0.03380131
100	0xbdd31b58	-0.1030795
101	0xbece6085	-0.40308014
102	0xbf19ac1b	-0.6002824
103	0xbf011b91	-0.5043269
104	0x3f42e3de	0.7612895
105	0x3ecb349a	0.3968857
106	0x3e72fef8	0.23730075
107	0x3d59e46e	0.053196363
108	0xbef81e2b	-0.48460516
109	0x3ca28dae	0.019842949
110	0x3f09a466	0.5376648
111	0xbf01d2ef	-0.50712484
112	0x3e6e7275	0.2328585
113	0xbe949861	-0.29022506
114	0xbccdc9ec	-0.025120698
115	0xbee07323	-0.43837842
116	0x3f34a88b	0.70569676
117	0x3e60691b	0.21915095
118	0xbf1bbde2	-0.60836613
119	0x3f02ce1d	0.51095754
120	0x3f88a479	1.0675193
121	0x3edb5a03	0.4284211
122	0xbde4e15b	-0.11175796
123	0xbe8fd094	-0.2808882
124	0xbe859461	-0.26089767
125	0x3ea09796	0.3136565
126	0x3f1aac3d	0.60419065
127	0xbe9bd266	-0.3043396
