examples/drone/logs/drone-racing/model_600.pt (torch, 474922 bytes, 36 tensors)

std f4 [4]
000000 35 51 a5 3e 1a ce 8f 3e 17 05 a0 3e b2 66 b6 3e
       0.3228852 0.2808693 0.31253883 0.35625225

actor.0.weight f4 [128, 17]
000000 e0 8e e3 3f 12 23 93 3f 18 0b f6 c0 44 f6 a5 3e
       1.7777977 1.1495078 -7.688854 0.32414448
000010 e3 85 09 bf f6 a4 1b 3f 2f 15 07 3f 8b 75 43 3f
       -0.5371992 0.60798585 0.527667 0.7635123
000020 db e2 8c 3d 8b 2d fb 3e 60 65 06 3e a9 ee d8 bd
       0.06879207 0.49058184 0.13124609 -0.10592396
000030 c0 50 2e 3e e0 96 3a bc 31 71 09 3c 5c 16 18 3c
       0.17022991 -0.01138851 0.008388803 0.009282675
000040 a3 69 d3 3d e1 44 96 3e 53 e9 26 bf 6b cf aa 3f
       0.10322883 0.29349425 -0.65199775 1.3344549
000050 f1 d4 b3 be 6f 4b 6a bf f2 10 ab bd 02 a5 5a 3e
       -0.351234 -0.9152135 -0.083528414 0.21352008
000060 90 ed 38 3e 70 8f 28 3e 9c 03 ff bc 39 8a 17 3e
       0.18059373 0.16460967 -0.03112965 0.14798822
000070 52 9e 01 3c 4d 2e 32 bd 9f aa 67 3e dc ce 3d 3e
       0.007911282 -0.043501187 0.2262368 0.18535942
000080 6c e1 e2 3d 3d b7 91 3d 0e 91 74 bf b0 17 85 be
       0.11078152 0.07115028 -0.95533836 -0.25994635
000090 47 a6 5b bf 4b b8 dd 3e 1d 6b 70 bf 78 33 01 3e
       -0.85800594 0.43304667 -0.9391344 0.1261729
0000a0 0b f1 88 be 3f 68 e2 be 40 d5 11 bf 23 38 9a 3e
       -0.267464 -0.44220158 -0.5696602 0.30120954
0000b0 37 58 02 be 11 f5 bb 3e cf f8 08 3e aa 91 21 bc
       -0.12728964 0.36710408 0.13376163 -0.009861389
0000c0 8a b9 30 3d 9e bf 1a bd 80 32 d2 3c 8c 2a a1 be
       0.043145694 -0.037780397 0.025658846 -0.31477773
0000d0 7e 52 33 3f a6 59 b7 3e ac e4 fc 3d ac c2 be be
       0.7004775 0.35810584 0.12348303 -0.37257898
0000e0 74 69 49 3f c6 40 21 bf 18 ce c5 3e ae e3 6c bc
       0.78676534 -0.6298946 0.386338 -0.01445858
0000f0 0f ba 7d be af b5 03 3c 3c cb 38 3e 1f 10 53 be
       -0.24778007 0.008038922 0.18046278 -0.20611618
000100 97 40 36 3e f4 9a 0b be dc fc f8 3c fd d2 5d 3d
       0.17798077 -0.13633329 0.03039401 0.054156292
000110 26 df 08 3e c8 91 fb be 34 dd 08 3f d5 a3 eb be
       0.13366374 -0.4913466 0.5346253 -0.4602343
000120 15 8c 08 bf e8 04 1d 3e b1 f5 09 3f 4f 19 55 3d
       -0.5333875 0.15333903 0.5389052 0.05202609
000130 a5 da 46 bd cd f9 b0 bb 4c 28 e5 bd ac da 86 3d
       -0.04854836 -0.0054008723 -0.11189327 0.06584677
000140 57 5e c2 3d 46 2b 25 3e b9 db 4f 3d c3 9c e4 3b
       0.0949065 0.16129789 0.050746653 0.0069766953
000150 48 22 4d bb f3 00 04 3e 40 7d e7 be e5 84 d5 3f
       -0.003130095 0.12890987 -0.45212746 1.6681181
000160 44 1e 8f bc db 32 9d bf cb 99 1d bf 4b 85 cb 3d
       -0.017470486 -1.2281145 -0.61562794 0.09937533
000170 d3 0b af 3e 93 ff b7 3c 85 7f ec bd 75 14 39 3d
       0.3418871 0.022460734 -0.1154776 0.045185525
000180 ab 6e 24 3e a5 ec 85 bd f8 1f 1c be b7 62 0c bc
       0.16057841 -0.06539277 -0.1524657 -0.008568457
000190 c7 88 a3 bd 04 1c 9e bc 44 10 d9 bf 87 b2 10 bf
       -0.079850726 -0.019300468 -1.6958089 -0.5652241
0001a0 0f dc 5a c0 5a 52 08 3e 67 07 60 bf 79 ea 8f 3e
       -3.4196813 0.13312665 -0.87511295 0.28108576
0001b0 41 0d 0a bd 97 09 03 3d e7 ee fa 3e 35 83 fb 3e
       -0.033704046 0.031991567 0.49010393 0.4912354
0001c0 57 76 83 3d 97 e3 a6 3e 45 cf cf bc 7a 8a 32 3c
       0.06419056 0.32595512 -0.025367389 0.010897273
0001d0 ea c7 b8 3d c9 4f a8 bd c3 b5 21 be b2 5f 76 3e
       0.090225056 -0.08218343 -0.15791993 0.24059942
0001e0 69 e9 22 3e f1 80 1d 40 73 ee 11 3d e5 04 b0 3e
       0.15909351 2.460995 0.035627794 0.34378734
0001f0 82 04 0b 3f db 79 06 bf 51 cf ac 3e dc 9e e8 3d
       0.54303753 -0.52529687 0.3375192 0.11358425
000200 d5 17 fa be f1 b8 99 3b 8f b1 20 3e 03 5c e0 be
       -0.48846307 0.004691236 0.15692733 -0.438202
000210 63 b1 6c bd 1c 37 28 bd 07 03 cf bd 04 8a 50 3d
       -0.057786357 -0.04106818 -0.10107999 0.050912872
000220 6a 9c 86 bd fe a5 da bd fb 45 a7 3d 06 16 8b bd
       -0.06572802 -0.10676192 0.081676446 -0.0679131
000230 6e de 05 bf 6c 58 3b 3b 4c e7 64 be c5 24 54 bd
       -0.52292526 0.002858664 -0.22353858 -0.05179288
000240 16 a9 86 3d 1d 3e 24 bd 71 5b de 3d 73 29 08 bb
       0.06575219 -0.0400983 0.10857285 -0.0020776659
000250 3b 02 a6 3d 5a ab 4a 3b 6f 6a 12 be 7e e9 34 3d
       0.08105894 0.0030924887 -0.14298414 0.044167988
000260 44 8d 3d 3e 3c 0e 7b 3e db 28 19 bf 28 05 71 bf
       0.1851092 0.24517149 -0.59827965 -0.9414849
000270 dc 0b 9c bc bf 81 a0 be 61 65 a9 3f 24 2b 05 40
       -0.019048624 -0.31348988 1.3234063 2.080758
000280 40 c9 8f 3e a3 10 3f 3f 98 88 40 3f 24 08 0f be
       0.2808323 0.7463476 0.75208426 -0.13967949
000290 fa 4d ac 3d 47 4a a8 3e a6 56 5a bd 6c d6 c6 bc
       0.0841331 0.3286917 -0.05330529 -0.024272166
0002a0 b3 e2 f3 bd 36 36 b4 bd b2 87 f6 bd c0 bc 38 be
       -0.11908474 -0.087994024 -0.120376006 -0.18040752
0002b0 d3 74 d4 3e 32 73 ca be c3 d7 cf be 40 6e e4 3e
       0.4149538 -0.39541012 -0.405943 0.44615364
0002c0 f0 4a 20 3e 0d 61 f2 3d ac 9c ab 3c 9c 7b 30 be
       0.15653586 0.11834917 0.02094873 -0.17234653
0002d0 b5 88 df 3d 85 42 9f bc 57 c5 5d bc 39 1a 89 3d
       0.10914747 -0.019440899 -0.013535819 0.06694455
0002e0 cb d7 a0 3d ee da 9c bd 3f 68 7f bc 12 d9 bf bc
       0.07853659 -0.07658945 -0.015588819 -0.023418937
0002f0 c2 ab 85 3f e7 c9 37 bf 0d 23 b1 3e 67 9a 06 bf
       1.0443041 -0.71792454 0.34597054 -0.5257935
000300 c0 e1 15 3f 31 02 cb be bb 2a 4d 3f 18 1b ed be
       0.5854759 -0.3965011 0.80143327 -0.46309733
000310 9f ef 00 bf ea f5 37 be a5 3a 3d 3c 4c 1f 95 3e
       -0.5036563 -0.17964903 0.0115496265 0.2912544
000320 d8 b3 e4 3b 83 f3 a3 3d 96 1c dc bd 31 30 c9 bd
       0.006979447 0.080054305 -0.1074764 -0.09823645
000330 eb d2 70 3f 7a 23 14 be a8 55 f6 bf d5 9a 48 bd
       0.94071835 -0.14466658 -1.924489 -0.048975784
000340 4e 5e 18 3e 49 de a3 3f ad 3e d7 3e c6 0e 2f 3f
       0.14879724 1.2802211 0.42040005 0.6838192
000350 58 e7 e4 3e 27 ba 63 3f 97 05 3e be 31 47 28 3f
       0.4470775 0.8895592 -0.1855682 0.6573363
000360 1d b5 cb 3e bc e0 c8 3b ae 76 32 3d 2d 41 5c bd
       0.39786616 0.006130306 0.043570213 -0.053773094
000370 a6 32 34 3e ca 70 35 be 3a a8 96 be 27 99 33 3f
       0.17597446 -0.17718807 -0.29425222 0.70155567
000380 9f 95 d0 be 70 b9 12 bf ae 5c 73 3f d8 c5 f1 3d
       -0.40739152 -0.57314205 0.9506329 0.11805314
000390 58 e9 9e 3e cd c2 24 3e 82 1b 6a be 83 d4 75 3d
       0.31037402 0.16089936 -0.22862056 0.06001712
0003a0 c6 34 84 bd 57 d6 e0 3d 1e 2b 26 3d f9 59 b9 bd
       -0.06455378 0.10978382 0.040568464 -0.09050364
0003b0 49 21 af 3d 12 4f e0 3c 2e be c2 3e cc f1 41 bf
       0.085512705 0.027381454 0.3803572 -0.7575958
0003c0 58 01 99 3f 84 54 50 be 62 80 6f bf 52 1c 48 bf
       1.1953535 -0.2034474 -0.9355527 -0.78168213
0003d0 fb 5c 9f 3d 10 a7 ec 3e a1 ed a8 3e a2 0c fc 3c
       0.077814065 0.4622121 0.32993796 0.030767743
0003e0 0d 5e 34 3d 28 8f 1f be 37 e6 6c 3c 6e bd 92 3c
       0.044035006 -0.15581954 0.014459184 0.017912593
0003f0 94 a9 47 3d 91 b6 96 3d ab 4f 90 bd 35 e4 62 3e
       0.048745707 0.073590405 -0.070464455 0.22157367

actor.0.bias f4 [128]
000000 02 73 8b 3d 8f 10 80 be 78 9b 5e be 20 17 c8 be
       0.068090454 -0.25012633 -0.21738994 -0.39080143
000010 8d df 84 3e e9 01 d0 3d b1 84 4a be ad 82 1c bd
       0.25951806 0.10156614 -0.1977718 -0.03821056
000020 79 d8 31 bd af bb 18 bc 8c bf 90 3e 48 38 75 3b
       -0.043419335 -0.009322091 0.2827114 0.003741758
000030 71 93 11 3e da 46 15 3e e4 41 16 be 04 80 9a be
       0.142164 0.14577809 -0.14673573 -0.30175793
000040 8b 4a 70 bd ff bc 4f 3e 2e e5 f1 bd 66 df 4a be
       -0.05866484 0.2028694 -0.11811291 -0.19811782
000050 2c 3f a6 3e 0f 1e 63 bd 1a 08 99 3d e6 73 a0 bd
       0.3247007 -0.055448588 0.074722484 -0.07834606
000060 7a 1f 05 be 6d 1f 3f be 36 af 35 3e f1 76 6f 3e
       -0.13000289 -0.18664332 0.17742619 0.23385216
000070 78 f5 bf bd 14 70 ce 3d 66 2c 43 3d 95 65 3c 3d
       -0.09372991 0.10079971 0.047649764 0.045995314
000080 93 93 a4 be d5 2f 7a 3e 96 4c e8 3d ce a9 fe bd
       -0.3214384 0.24432309 0.113427326 -0.124347314
000090 b8 e2 b6 be 86 e4 1d bc d2 e7 fc bd 1e db 30 bd
       -0.35719848 -0.009637004 -0.12348904 -0.043177716
0000a0 8c cc ea 3d 51 c7 0b be 6a 1c 9d 3d 8b cf cb 3d
       0.114647955 -0.13650252 0.07671435 0.09951695
0000b0 c1 20 11 be 36 37 13 be f0 64 e5 bd b3 ee 4f be
       -0.14172651 -0.1437653 -0.11200893 -0.203059
0000c0 44 c4 0a bd 0c 2c f2 3d 8c 4f dd 3d 3f 67 16 be
       -0.03387858 0.118248075 0.10806188 -0.14687823
0000d0 d8 5b 81 3d 2a 07 b8 bc 82 ac 40 bd 5d 47 3a 3e
       0.06316346 -0.022464354 -0.047039516 0.18191285
0000e0 11 06 5a 3e b4 aa c0 be b0 5f 8e be 60 8b de 3d
       0.21291377 -0.37630236 -0.2780738 0.108664274
0000f0 36 08 68 3e ed 38 8c 3e ad 3e d5 3d 9f df e6 bd
       0.22659382 0.2738718 0.10412345 -0.11273121
000100 53 ba 32 be 15 a7 58 3d 60 a1 13 3f e1 a2 ac be
       -0.1745389 0.052893717 0.57668114 -0.33718017
000110 ea 7b cf 3d f7 04 39 3e 73 1d 8f bd 20 2b e4 be
       0.101310566 0.180683 -0.06988039 -0.44564152
000120 ef 94 fc 3d 1e 71 86 3d 11 35 7b be da c5 48 3e
       0.12333094 0.06564544 -0.24531962 0.19606724
000130 db d7 b8 3e 59 d8 ab bd 27 94 03 3e bf c8 10 be
       0.36102185 -0.083908744 0.12849484 -0.14139079
000140 80 bf af bc 43 6d 43 3e 28 87 61 bb 76 05 7c 3d
       -0.021453619 0.19084649 -0.0034412835 0.061528645
000150 6d c6 c4 3d 9a fb 35 be 55 fd 7f 3d 66 ec 11 3d
       0.09608159 -0.1777176 0.062497456 0.035625838
000160 12 d1 60 be 95 94 76 be ab b7 67 be 0f f5 b0 bd
       -0.21954754 -0.24080117 -0.22628658 -0.08640491
000170 4f b1 97 3c bd 7b c2 bd 0c 59 8c bd 5a 5e 14 3e
       0.018517165 -0.094962575 -0.06852922 0.14489117
000180 d1 bd db 3a 4a 8e 8a 3e a1 13 f9 3b 1c 8e 91 bd
       0.0016764944 0.27061683 0.007601217 -0.07107183
000190 9f b8 e2 3c 01 22 4c 3e cb 50 4a be 83 63 6d be
       0.027675925 0.19934846 -0.19757383 -0.23182492
0001a0 92 ee ed bd 85 aa dd bd 9c e1 3c 3e 9f ad cf bd
       -0.11617769 -0.1082354 0.18445438 -0.101405375
0001b0 82 cb 39 be b5 ef 9d 3d ae da 50 3d eb 93 df 3d
       -0.18144038 0.07711736 0.0509898 0.10916885
0001c0 8a 30 4a bd 8f dc cb bc 12 96 5a 3b 1c 55 40 be
       -0.049362697 -0.024885444 0.003335361 -0.18782467
0001d0 b5 81 70 3d 70 e8 34 be d9 9d 90 3e 56 5c dc bd
       0.05871745 -0.17666793 0.28245428 -0.10759799
0001e0 97 82 c9 3d f0 62 dc 3d c4 3e 68 be 6f ad 7f be
       0.09839361 0.10761058 -0.22680193 -0.24968503
0001f0 63 39 97 3e 8b f6 32 bd 8a 05 db 3d b8 34 21 be
       0.2953597 -0.043692153 0.10694416 -0.15742767

actor.2.weight f4 [128, 128]
000000 1e 57 dd bc 02 8a 55 3d e7 3c be 3d d4 65 81 3d
       -0.02701908 0.052133568 0.0928896 0.0631825
000010 dd ad 8e 3c 4a b4 52 bd f9 38 65 3d 26 3f ec 3d
       0.017416889 -0.05144147 0.055962536 0.11535482
000020 03 bb 60 bd 20 e9 13 3e 8d ef 46 3d 28 94 3c be
       -0.05486585 0.14444399 0.048568297 -0.18415892
000030 e1 a3 25 be 40 7f f5 bc 5f 77 b2 3c f9 66 00 be
       -0.16175796 -0.029967904 0.021785436 -0.12539281
000040 29 3e 54 3d f7 65 c9 3c fc 83 7a bd fe 2b 26 3d
       0.051817093 0.024584753 -0.061161026 0.040569298
000050 f2 26 28 3d 4a 9b 84 3a 15 7c ba bd d4 40 6d bd
       0.041052766 0.001011708 -0.09105698 -0.057923153
000060 00 8f f8 3c 88 df af 3d 81 4a 82 3c 22 a4 1e bc
       0.030341625 0.08587557 0.015904667 -0.009682687
000070 81 b6 77 bd d2 61 e2 3d 95 c8 18 be bb 8b 8a 3d
       -0.060476784 0.11053814 -0.14920266 0.06764933
000080 80 56 85 3c e5 32 c2 3d b9 18 23 be 62 dc 14 be
       0.016276598 0.094823636 -0.159274 -0.14537194
000090 9f 3e 67 3c da 08 10 bd fb 6e d9 3d bc d7 4e be
       0.014114051 -0.03516469 0.10616871 -0.20199484
0000a0 04 db 34 3c 10 74 ab bd 91 4f ee 3c 05 c1 db bd
       0.0110385455 -0.083717465 0.029090675 -0.10730175
0000b0 36 50 43 3d 9f a4 d4 bd 09 cb 5c 3d 57 e6 d5 3c
       0.047683917 -0.103829615 0.053904567 0.026110811
0000c0 c8 bd 09 bd 98 5d bb 3d 0f d7 3e 3d 0a 84 74 bc
       -0.033628255 0.09148711 0.046591815 -0.014924059
0000d0 44 40 ba bd e5 a7 a3 3d 84 51 5a 3c 86 72 14 3e
       -0.09094289 0.07991008 0.013325099 0.14496812
0000e0 9a bc 55 be a8 0e a6 bc dd 91 c7 3c 21 8c b6 3d
       -0.20872727 -0.02027066 0.024361545 0.08913446
0000f0 30 23 ac bd 06 ba ee bb 3b ed fd bd 7f f3 02 bd
       -0.08405149 -0.0072853593 -0.12398764 -0.031970497
000100 78 28 aa 3b a2 39 b8 3d ff 28 11 3c 0e 54 7e bb
       0.0051928125 0.089953676 0.008859872 -0.0038807425
000110 eb cd fe bd 48 64 48 bd 85 f3 73 bd 3a 60 ae 3d
       -0.124416195 -0.04892376 -0.05955841 0.085144475
000120 6a 6c 7e 3c 45 5d 15 be b5 9a fb 3a 4b 68 ce 3d
       0.015528778 -0.14586361 0.0019195887 0.10078486
000130 85 e5 57 3c 27 33 af 3d db fb f1 3d c4 ca 6b be
       0.01317728 0.085546784 0.11815616 -0.23026568
000140 ad a8 0f bd 8d 87 8f 3d a6 33 92 3d 4e f2 cb bd
       -0.03507297 0.07008276 0.071387574 -0.09958325
000150 e9 9d 4a bc 6f 39 a0 3b ee f8 af 3b c8 dd ef bc
       -0.01236675 0.004889659 0.005370251 -0.029280558
000160 21 e0 01 bd 19 3c 6d 3d 80 5c 84 bd 79 7e c6 bd
       -0.031707887 0.05791864 -0.064629555 -0.096920915
000170 11 11 b6 3d 8e f8 20 3e e7 da 50 3d 72 a6 e9 bc
       0.08889974 0.15719816 0.05099001 -0.02852175
000180 a5 24 29 be 87 83 1a bd fd 45 d8 3c 81 2f b6 bb
       -0.16517885 -0.03772309 0.02640056 -0.005559862
000190 af 81 36 be 26 33 6d 3d 72 5c 86 bd db 6c 54 bd
       -0.17822908 0.057910107 -0.06560601 -0.051861625
0001a0 6e 60 5d be e1 be 07 3d dd 97 b9 3d 1f 38 34 bd
       -0.21618816 0.03314102 0.09062169 -0.043998834
0001b0 b2 95 e9 3d ba b6 03 3e 93 28 99 3c e2 75 b7 3c
       0.11405505 0.12862673 0.018696105 0.022395078
0001c0 cf 58 8d 3d d0 89 31 3e b0 84 24 be e1 94 6d 3d
       0.069017045 0.17337728 -0.16066241 0.05800331
0001d0 4f 9c af 3d fb 8b 76 bd 5d d6 1d 3c b9 44 4b 3c
       0.085747354 -0.06019209 0.009633628 0.0124065215
0001e0 0f 2e d2 bd 24 9d 86 bd f1 76 d4 3c 0e c6 8b 3d
       -0.10262691 -0.06572941 0.025935622 0.06824885
0001f0 30 08 61 bc 47 57 18 bd 89 a1 da 3d 2c d5 c6 bd
       -0.013734862 -0.03719261 0.10675342 -0.09708628
000200 70 f3 cc 3d b4 41 99 bc c9 4e a5 bd d3 e6 45 3d
       0.100073695 -0.018708088 -0.08071668 0.048315834
000210 7a 4b 57 bd 64 70 db bc b4 e0 c2 3c 6b e0 97 bc
       -0.052562214 -0.02678699 0.023788787 -0.018539628
000220 df 81 bd bd 1f ec 6e 3e d1 bf af bd 98 65 f8 bc
       -0.092532866 0.2333226 -0.08581508 -0.030321881
000230 50 b4 c0 3d f6 ab 23 3d 04 b8 19 be f8 56 1b 3e
       0.09409392 0.039958917 -0.15011603 0.15169895
000240 bc e9 27 bd df 2a 0e bc 9c 93 f4 3c 52 be 36 3d
       -0.04099439 -0.008677213 0.029855542 0.044615097
000250 19 28 3d 3e 84 9d 45 be 17 19 10 3c 43 7f d3 3c
       0.18472327 -0.19298369 0.008795044 0.025817519
000260 ce 89 68 be 18 cd 4f 39 f5 b1 8d bd 21 62 00 3d
       -0.22708818 0.00019817462 -0.06918708 0.031343583
000270 34 f8 f2 3b 54 f1 40 bd 67 6b a3 3d 35 a8 a1 bc
       0.007414842 -0.04710515 0.0797947 -0.019733528
000280 e4 a6 8f bd 6b 63 38 bd 2b 3a 2c 3e e7 bf 67 3d
       -0.07014254 -0.045016687 0.16819064 0.056579497
000290 4e 8b 72 3b 3f d1 0c 3c c0 dd dc bd 21 ef 05 3e
       0.0037009302 0.00859481 -0.10784483 0.13079502
0002a0 bc 40 1f bc 5f 8c 6d bd 13 4e f5 bd 3f 8d d9 3d
       -0.009720024 -0.057995196 -0.11977782 0.10622644
0002b0 11 db d1 bd 46 68 10 bd 20 97 c4 3b 10 ac 4e 3d
       -0.10246862 -0.035255693 0.005999461 0.05045706
0002c0 1c 5e b4 bd 5e ff 38 3d 72 23 f2 3d 4a 14 03 3e
       -0.088070124 0.045165412 0.11823167 0.12800708
0002d0 7f 95 48 bd fc c0 b9 bc e8 eb 0c bd f5 e8 c5 bd
       -0.048970696 -0.02267503 -0.034404665 -0.09663574
0002e0 fc 71 79 bd b3 aa a0 3b 23 b0 2f bd 36 c9 80 bd
       -0.06089972 0.0049031614 -0.042892586 -0.06288378
0002f0 27 3f 46 3d 33 d6 cd bd 65 b1 ea 3d 4c ed b3 bc
       0.04840007 -0.10050621 0.114596166 -0.021963738
000300 8f c8 90 3d 61 bf 2d bc 06 ae a7 bd ce d9 00 be
       0.070695035 -0.01060471 -0.08187489 -0.12583086
000310 c0 9e 1d 3d a7 6e 80 bd 28 11 1d 3e 9c af 25 3d
       0.038481474 -0.06271105 0.15338576 0.040450677
000320 0c 0f 18 3d 65 8b 92 3d 63 aa 5a 3d 46 1d a4 bb
       0.037123725 0.07155494 0.05338515 -0.0050083725
000330 84 fb 1b 3d 7a b8 c6 3d d5 61 b1 bc fc 1b 0e be
       0.03808166 0.09703155 -0.021653095 -0.13877863
000340 6d e6 0a bd 94 cf 07 3d b9 52 ab 3d 22 26 04 be
       -0.033911157 0.033156946 0.083653875 -0.12905172
000350 10 57 14 3e 11 5b 5c 3e 3f b3 b1 bd e7 51 80 bb
       0.14486337 0.21519114 -0.086767666 -0.0039160135
000360 35 95 b9 bd cc f5 a3 3b c4 4c b4 3d 4d 44 c9 3d
       -0.09061662 0.0050036665 0.088037044 0.098274805
000370 a3 d3 23 bd aa ff 55 bd 7c 47 15 3d 78 4d ac bc
       -0.039996754 -0.052245773 0.036445126 -0.021033034
000380 f9 d9 9a bc 21 e8 95 bc 43 af 0c be 65 72 18 bc
       -0.018902766 -0.018299164 -0.13738732 -0.0093046175
000390 33 a0 d1 3b 94 10 1a bd 95 b3 19 bd 4e 69 36 3d
       0.006397271 -0.037613466 -0.03752478 0.04453402
0003a0 03 ec 86 3d 34 86 fb 3d 39 50 f6 3d a8 01 2d bd
       0.065879844 0.122814566 0.1202702 -0.042237908
0003b0 db b2 28 3d 39 d9 8e bb 05 a9 e5 bd 8e 31 ce 3c
       0.041186195 -0.004359391 -0.112138785 0.025170114
0003c0 3d 30 da 3d 10 f3 01 be e2 0a 97 3c 3e 13 84 bc
       0.10653732 -0.12690377 0.018437807 -0.016122457
0003d0 d7 4e 86 bd 16 50 b0 3d e5 90 cf 3a a9 3b ea 3c
       -0.06558006 0.08609025 0.0015836029 0.028592901
0003e0 dc 5d 29 be df f2 f8 bc b3 ab 3d bd af bb 62 bd
       -0.16539711 -0.030389247 -0.046306323 -0.05535477
0003f0 1a ea c9 bb bf c7 53 3d 86 1c 78 3e 92 80 15 be
       -0.0061619403 0.051704165 0.24229631 -0.14599827

actor.2.bias f4 [128]
000000 a2 1f 63 bc 62 88 a0 bc 3f 9a f0 3d 0d c4 1b be
       -0.013862522 -0.019596282 0.1174817 -0.15211506
000010 5d f0 55 3d 45 a7 c7 3d d5 3d 41 3e fc 82 0e bd
       0.05223118 0.09748701 0.18871243 -0.034792885
000020 57 14 a3 3d ef 0d 98 bd 95 84 2a bf 20 60 8f bd
       0.07962864 -0.074245326 -0.66608554 -0.07000756
000030 d0 9d b6 bd c5 e4 a8 bd b7 68 e9 3d 7c 34 a0 3a
       -0.08916819 -0.08246759 0.11396926 0.0012222673
000040 37 44 50 3d c8 f0 7d bb 0e 24 d3 bd 3a 45 73 be
       0.050846305 -0.0038748253 -0.10309611 -0.23756877
000050 6d a7 f2 bd df 2a 7b bd a5 2a fc 3d 4c f7 0b 3f
       -0.1184834 -0.061320182 0.12312821 0.5467422
000060 f5 4a 76 bd b2 65 b0 be a7 c3 98 3c bc d0 d0 bc
       -0.06013008 -0.34452587 0.018647982 -0.025490157
000070 8d 23 f4 be b6 51 29 bc 71 68 15 3e 7a 64 d6 bd
       -0.47683373 -0.010334423 0.14590622 -0.10468383
000080 5d 7e a4 bd 32 36 a0 3c 86 8c 3f bd fe 29 82 be
       -0.080319144 0.019557092 -0.046764873 -0.25422662
000090 37 f2 92 3c 2b 91 a6 3d 14 35 86 bc 7e e9 e1 3c
       0.017937763 0.08133157 -0.016382731 0.027577158
0000a0 54 5b fb bc bb 3e 90 bd 34 07 df bc e2 c0 13 3f
       -0.030683197 -0.07043215 -0.027225114 0.5771619
0000b0 ad ef 18 be 3d 9d cd bc fd 9e 9d 3d b3 8b 8f 3d
       -0.14935179 -0.025099391 0.0769634 0.070090674
0000c0 65 e7 ee be 72 e2 1d be 2f 74 0d 3d a0 43 cc bc
       -0.46660915 -0.15418413 0.03453463 -0.02493459
0000d0 90 7c b5 bd 66 ea 32 3d 1c 31 1a bc 93 73 ef bd
       -0.08861649 0.04368057 -0.009411123 -0.11691966
0000e0 4a bf 13 bd d0 6e 0a be bd 5f aa bc e1 a8 86 3d
       -0.0360711 -0.13518834 -0.020797605 0.0657518
0000f0 99 fc de bb 83 f7 a6 bd 97 ae 9f 3c 62 9f 49 3d
       -0.0068050143 -0.08152678 0.01949243 0.049224265
000100 11 a3 b4 bd 27 d0 2b bd 5d 03 b7 3c d1 2a f1 3c
       -0.08820165 -0.041946556 0.02234047 0.029439362
000110 bd 65 9b 3c 14 39 c0 3d 01 d5 c5 3d 31 81 a8 bd
       0.018969411 0.09385887 0.09659768 -0.08227766
000120 d7 13 21 3e 9b 7c a0 3b 5c 9a 9c 3d 28 dc 72 3b
       0.15730225 0.0048976666 0.07646629 0.0037057493
000130 9b 14 83 3d 88 34 b0 bd f2 41 82 bb 33 1c 16 bd
       0.064004146 -0.086037695 -0.0039751465 -0.036647987
000140 12 d2 8a 3c 8a 55 88 3d 16 f3 70 3d b2 a7 c8 be
       0.016945872 0.0665694 0.058825575 -0.3919044
000150 3f bc 85 bd 64 aa b9 bc d7 5b 0f bd 69 e7 0e bd
       -0.06530046 -0.022664256 -0.034999695 -0.03488866
000160 e1 46 52 3b 30 91 37 3e 5c 94 9c bd f2 27 9b bd
       0.0032085704 0.17926478 -0.07645485 -0.07575978
000170 19 fb dd 3b 5a b6 69 3d be 60 c5 3c 6b 34 12 bd
       0.006774318 0.05705867 0.024093982 -0.03569452
000180 f2 23 16 bd e0 c1 47 3d e9 23 46 3f 04 3f af 3d
       -0.036655374 0.048768878 0.77398545 0.08556941
000190 f0 ae ce 3b b6 7f a2 3e 1d 72 69 3b f1 e3 dd 3c
       0.0063074753 0.3173806 0.0035620995 0.02708623
0001a0 4d b4 4a bd 11 36 c7 bc cb 7a 40 3e 90 ee e1 bb
       -0.049488354 -0.024317773 0.18796842 -0.006894894
0001b0 c5 8e 3b bd 69 fa 1c 3c 4b a5 d0 3e 3d ae 37 3d
       -0.045790453 0.009581187 0.4075111 0.0448439
0001c0 22 d0 5a 3d 05 49 01 3c 34 94 c9 bd 68 40 c1 bc
       0.053421147 0.007890944 -0.09842721 -0.023590282
0001d0 d8 07 77 3e 48 23 18 3d e8 45 83 bd 7d f4 11 be
       0.24124086 0.03714302 -0.06409818 -0.14253421
0001e0 ca ef 02 be 26 ef fa 3d 17 82 f1 3d ca 3e d8 bd
       -0.12786785 0.12252645 0.11792391 -0.10558851
0001f0 f0 9d d7 3d c4 66 1f bd fa 78 6f 3d e9 b2 ba 3d
       0.10528171 -0.038916364 0.05846498 0.09116156

actor.4.weight f4 [4, 128]
000000 33 35 e2 3b 31 ec 9f 39 13 51 35 3b bf 29 65 be
       0.0069033145 0.0003050282 0.0027666732 -0.22379206
000010 04 6a 0e 3b 61 4d 86 3a 15 0c ad 3b 39 77 ff 3d
       0.002173067 0.0010246449 0.0052809813 0.12473912
000020 40 24 27 be b6 49 14 3a 68 43 c1 be fd df 55 3b
       -0.16322422 0.0005656736 -0.3774674 0.0032634728
000030 20 66 fe bd a4 22 3c b9 d4 90 96 bb f2 a1 af b8
       -0.124218225 -0.00017941982 -0.0045949016 -8.374815e-05
000040 f2 f9 7f 3d 8b f0 91 3b 7c 2f c1 bb 1c 00 66 3e
       0.062494226 0.004453724 -0.005895553 0.22460979
000050 b4 b9 9f bd c6 b4 b7 ba 7e bc c1 3d f8 9f e7 3e
       -0.07799092 -0.0014015667 0.0945978 0.45239234
000060 fb d1 c9 3a 67 2f c5 3b 3e 42 72 bb 8d 65 6f bb
       0.0015397662 0.0060176137 -0.0036965753 -0.0036529035
000070 a8 20 a0 bd c8 00 b1 bb ed 5c df 3c af fd 0a ba
       -0.07818729 -0.0054017045 0.02726599 -0.0005302084
000080 ab d6 82 3b ae 84 5a 3b 22 11 6d bb 9f 2a b5 3e
       0.0039928756 0.0033343243 -0.0036173542 0.3538408
000090 9e ac 30 b7 e7 2d 37 3b e1 19 20 3b 60 af 91 bb
       -1.0530608e-05 0.0027950944 0.0024429488 -0.004445955
0000a0 98 d6 b8 3c f7 ca 2d bb af 36 14 3a ef 55 0d bd
       0.022563264 -0.0026518682 0.00056539004 -0.03450578
0000b0 89 29 ce 3d ed 31 bb ba 6e 17 a9 3b 7b da a4 3b
       0.10066516 -0.0014281847 0.0051602637 0.0050309277
0000c0 e4 de dc bd ea fd a8 bd 87 da fd 3c 76 b4 89 bd
       -0.107847005 -0.08251555 0.030987991 -0.06723873
0000d0 96 0b 84 3d a3 ca c9 3b 8b 87 b8 bb 22 e4 90 ba
       0.06447522 0.0061581894 -0.0056313924 -0.0011054317
0000e0 5b 47 3e bb 2d a2 0e 3e aa 62 4f bb 53 75 7a be
       -0.002903423 0.13929053 -0.0031644502 -0.24458818
0000f0 e4 9a 29 bb 08 b5 f1 ba a7 93 ae bb b1 06 d5 3b
       -0.0025879676 -0.0018440792 -0.00532766 0.006501042
000100 b7 ee b7 3b a9 b0 f8 3b 47 da 9b 3a c1 0e 24 3b
       0.005613174 0.007589419 0.0011890613 0.0025033208
000110 0e 2a 3b 3b 53 81 34 bb 9a a2 c7 3d f1 34 62 bb
       0.0028559002 -0.0027542904 0.09747811 -0.0034516419
000120 7f bf 21 3d e1 b6 11 be c4 40 62 3b 08 f6 a4 b9
       0.039489266 -0.14229919 0.0034523467 -0.00031463825
000130 9a 64 74 3a 06 ee 8f 3b a6 d4 cc 3b da 07 42 3e
       0.0009322852 0.0043923883 0.0062509356 0.18948308
000140 35 ec 0b 3b 99 c4 39 bd 53 05 1c bb d3 7b cd bd
       0.0021350507 -0.045353506 -0.0023806884 -0.10033383
000150 39 35 c5 3a 73 c9 b5 3b 8b 27 ab bb 3a 9c 4b bc
       0.0015045769 0.0055476963 -0.0052232197 -0.012427384
000160 00 2d 93 3a 79 6f b4 bd b9 e2 3a 3a 27 1f 5c 3d
       0.0011228621 -0.08810324 0.0007129121 0.053740647
000170 43 65 c4 3a f6 88 b1 bd 88 dc 4e 3b dd 4b 6a bb
       0.0014983792 -0.08668701 0.0031564552 -0.0035750784
000180 9e fa 06 bb f9 1c 4d 3b 06 85 9d 3e 68 ae 65 bb
       -0.0020596157 0.0031297787 0.3076555 -0.0035046581
000190 6b e1 ab 3b 11 c9 ac 3d 25 bd a7 3b 92 13 9c bb
       0.005245378 0.08436788 0.0051189833 -0.004763075
0001a0 cf aa b1 bb 19 f2 84 b9 4b c6 85 bd 46 81 17 3c
       -0.0054219733 -0.0002535738 -0.06531962 0.00924713
0001b0 c9 f4 6e 3b 02 c4 f8 3c 6f a4 ab 3d 84 9b 5c ba
       0.0036461821 0.030366901 0.083809726 -0.00084155076
0001c0 dc 0e 9f 3a dc 3e 91 bb df 5d 2e 3b 77 5f 0d 3d
       0.0012135166 -0.0044325422 0.0026606245 0.03451487
0001d0 9c bc 1e 3e 58 26 57 3b 86 fa b7 ba b0 96 21 3d
       0.15501636 0.003282925 -0.0014036454 0.039450347
0001e0 4d d3 67 bd 8e 25 ea bb 21 f4 41 bd ef 60 a5 bd
       -0.056597997 -0.00714559 -0.04735196 -0.08075129
0001f0 6b eb 91 3d ae bc 84 bb 8b 28 d8 3b ec 2b c1 bd
       0.071249805 -0.0040508127 0.00659663 -0.094322056
000200 2b 46 d4 3b 49 76 5d b9 63 89 69 bb 77 8d 32 bc
       0.0064780912 -0.00021120267 -0.0035634867 -0.010897986
000210 06 97 25 bb 28 c8 1c 3b 4d dc fc ba a6 d3 26 3d
       -0.002526702 0.0023923013 -0.0019291729 0.040729187
000220 2a f5 45 bd 00 40 eb b9 24 86 03 3e a2 cd ca 39
       -0.04832951 -0.00044870377 0.1284414 0.0003868165
000230 f8 e0 4c be c3 50 83 ba 03 73 5f bb 36 b6 ec 3a
       -0.20007694 -0.0010018576 -0.0034095652 0.0018059674
000240 ce 12 19 3e b3 fc 01 ba 03 ce 4f 3b 99 8d 7f bd
       0.1494858 -0.00049586146 0.0031708486 -0.062390897
000250 00 a0 aa bd 35 b8 a8 3a 4b b2 29 be 5a f4 0f 3e
       -0.08331299 0.0012872281 -0.1657192 0.14058056
000260 b6 8e f2 bb 3d 5b 16 bf dc 1a a8 3a fe b2 60 3a
       -0.0074022664 -0.5873297 0.0012825388 0.0008571594
000270 7b f9 0f be a3 05 68 bb 18 43 83 3c 9c ec 2c bb
       -0.14060013 -0.003540375 0.016023204 -0.0026386147
000280 b6 8f c1 3a b4 4e 75 bb 8e 55 cf ba e2 38 96 3c
       0.0014767561 -0.0037430944 -0.0015818344 0.01833767
000290 2b 30 5a 3b 7e c5 5d 3b 01 1c 94 bb b1 6e 06 3a
       0.003329287 0.0033839638 -0.00451994 0.00051281886
0002a0 9c fe 9b 3e 40 77 12 3b f3 9c fd ba 62 c1 31 3e
       0.3046769 0.002234891 -0.0019349143 0.17358926
0002b0 2c c6 a8 3d 07 25 1c bb f7 f7 51 3a 40 da 5a bb
       0.08240923 -0.002382578 0.0008009667 -0.0033394247
0002c0 4f 34 04 be 26 c8 5a bc 73 39 83 3c 21 78 01 bc
       -0.12910579 -0.013353383 0.016018605 -0.007902176
0002d0 92 01 17 3e 58 b0 39 bb 38 b7 77 3b 80 b3 18 bb
       0.14746693 -0.0028333869 0.0037798416 -0.002330035
0002e0 5d b6 56 ba 36 84 39 be a5 97 6d bb 3b 3a 86 bd
       -0.00081906264 -0.1811684 -0.0036253717 -0.06554075
0002f0 e8 a1 33 bb 0e 1b 0a 3b 07 5d 0f bb f5 79 65 3b
       -0.0027409736 0.0021073255 -0.0021875517 0.003501532
000300 de a9 69 bb ca b7 2f bb 70 1a 6e 39 3f ed bd b9
       -0.0035654227 -0.0026812428 0.00022707297 -0.0003622565
000310 55 87 d8 3a fd 12 75 bb b7 44 14 3e a6 db eb 3a
       0.0016519824 -0.003739535 0.14479338 0.0017994537
000320 82 0e 36 3e a8 9e 40 3d a1 ce a4 3a a2 f2 22 3b
       0.17778972 0.047026306 0.0012573787 0.0024863859
000330 e6 ad 2e 3b 23 9c b9 bb 60 2b 2f 3a c8 91 c3 ba
       0.0026653945 -0.005664365 0.00066821836 -0.0014920766
000340 4e 66 d2 b9 20 24 86 bc fe a6 12 3b d3 cb ab 3d
       -0.00040130544 -0.016374648 0.0022377367 0.08388486
000350 90 c2 6c 3a 45 0d 02 bb 6f 5a 11 3a 36 37 54 bb
       0.00090316776 -0.0019844335 0.00055447867 -0.003238154
000360 f3 1b 6b 3b d4 bd 50 bd 58 65 98 b9 18 dd 8d bd
       0.0035874813 -0.050962284 -0.00029067206 -0.06926936
000370 1f 06 a2 b8 fe b4 a8 bd 81 c7 05 ba 32 00 58 bb
       -7.725902e-05 -0.082376465 -0.0005103276 -0.00329591
000380 2f 66 61 3b ae 2a 9f ba 41 d7 ae 3e ae 58 01 bc
       0.0034393182 -0.0012143457 0.341486 -0.007894678
000390 73 e2 d2 39 12 3f ac bd f1 56 3f bb b2 cf e9 3b
       0.0004022304 -0.08410467 -0.0029196108 0.007135355
0003a0 19 0a 53 3b 45 c7 b2 3a 70 78 52 be 23 8a 04 bc
       0.0032202064 0.0013639709 -0.20553756 -0.008089575
0003b0 fa d7 cb ba 72 6f 79 3e f6 b8 a0 3d 56 53 52 3b
       -0.0015552037 0.2435892 0.078477785 0.003209313
0003c0 33 81 df bb 4f 73 12 ba 8f c6 ec b9 a6 32 79 3b
       -0.0068208217 -0.00055866403 -0.00045161365 0.0038024574
0003d0 15 52 18 3d 3f 6f 3a 3a 8e 4b 01 bc b2 62 20 3e
       0.037187655 0.0007111914 -0.007891549 0.1566265
0003e0 c6 ed 71 be 82 62 1e be f2 c9 78 bd 11 52 2b 3e
       -0.2362586 -0.15467265 -0.060739465 0.16730525
0003f0 13 3b 54 bc a6 c2 fc b9 10 c6 71 bb a6 64 45 3d
       -0.0129535375 -0.0004821021 -0.0036891736 0.04819169

actor.4.bias f4 [4]
000000 9c 09 7d 3e 78 0b 9b 3e a3 f4 b3 3e ab 80 b1 3e
       0.24710697 0.30282187 0.3514758 0.34668478

critic.0.weight f4 [128, 17]
000000 a1 98 99 3e e5 06 b7 be 39 aa 23 3d 78 09 9f 3d
       0.2999926 -0.35747448 0.03995726 0.07765478
000010 58 07 87 3e cd 9d fb be c3 25 8d be 7a ea 2f 3f
       0.2637279 -0.4914383 -0.27567872 0.6871716
000020 91 43 03 3f c8 b7 05 bf c8 0e 0f be 9d cf 33 be
       0.51274973 -0.5223355 -0.13970482 -0.17559667
000030 77 59 12 be 37 24 3b be 9a f2 84 be d4 73 05 be
       -0.1429194 -0.18275534 -0.2596634 -0.13032466
000040 d6 5a b1 bd e1 a8 e0 be b4 17 5f bd 3e 2c 1e 3f
       -0.08659904 -0.43878844 -0.054465964 0.6178626
000050 50 b3 cc be 9e ee 5e 3d 69 df 16 be 90 ee 08 be
       -0.39980555 0.05442678 -0.14733662 -0.13372254
000060 00 84 9b 3e 07 22 3f 3e c6 bb f3 bc 0c 7f 03 bf
       0.30374146 0.18665324 -0.029752623 -0.51365733
000070 47 52 3d 3e 76 de 01 bd 8f 91 6e be f8 3d 2f 3d
       0.18488418 -0.031706296 -0.23297714 0.042783707
000080 30 89 d8 bd 72 7d 19 be 5b 66 4a 3d 70 98 74 be
       -0.105730414 -0.1498926 0.04941402 -0.23886275
000090 49 b5 c9 be 0c 32 1d 3e 4f 3b b5 bb c3 53 49 3e
       -0.39396122 0.15351123 -0.005530752 0.19660859
0000a0 a1 f5 cb 3e 0f 48 2e be 8e fa 8c 3d f7 82 07 3e
       0.39835837 -0.17019676 0.06883727 0.13233553
0000b0 9e b0 f9 be df cc 74 3e d1 e0 3f 3e 0c 60 66 bd
       -0.4876756 0.23906277 0.18738104 -0.05624394
0000c0 75 2e a3 3d b0 40 6e be a2 d1 d9 3d 95 78 ac 3e
       0.07967845 -0.23266864 0.106356874 0.33685747
0000d0 67 93 c5 be 1c b5 74 bf 94 82 51 bd 9a 1a 26 bf
       -0.38589022 -0.9558885 -0.05114992 -0.6488434
0000e0 9c d4 18 3e df 69 fc bd d3 91 01 3e 5c 15 80 be
       0.14924854 -0.12324881 0.12653284 -0.25016296
0000f0 f1 52 e3 3c 91 ad 93 3d 3f 73 35 be c9 43 4b bd
       0.02774951 0.072108395 -0.17719744 -0.04962519
000100 8f b1 60 bd 3a 29 7b bd 16 6a 37 bc f7 a5 79 be
       -0.054856833 -0.061318614 -0.011194726 -0.24379717
000110 94 51 4f 3e 52 9d df bc de 08 fa 3c eb 15 09 bd
       0.20245963 -0.027296696 0.030521806 -0.03346817
000120 94 cb b7 3e 6e e3 93 3d 4a 67 43 bf 3d fc 5a 3c
       0.35897505 0.07221113 -0.7632948 0.013365802
000130 5b ed 9e be 8c 0e 9c 3d 88 8e 0b bc b5 c5 03 3f
       -0.31040463 0.07619962 -0.008517869 0.5147355
000140 83 61 fa bd 45 4d 49 3e 32 0c 31 be e5 7a 52 3e
       -0.1222563 0.19658382 -0.17289808 0.20554693
000150 cd 2b 1c 3e 44 7b 68 3e 55 9e ec 3e c0 46 dc 3f
       0.15251084 0.22703272 0.46214548 1.7209091
000160 74 1c b5 be 4c 0a 51 3c 0d de f0 3d 17 dd 6e bd
       -0.3537327 0.012758803 0.11761103 -0.058316316
000170 b8 3b 51 3f 11 fe 39 3f 97 4f 03 3d 3f ff b0 be
       0.8173175 0.726533 0.032058325 -0.34569737
000180 c7 8a 7d 3e 05 2a 05 bf 0b b0 e9 ba fa b9 44 3d
       0.2475997 -0.5201724 -0.0017828954 0.048028924
000190 56 6c d0 bc 9b c5 99 3d 95 5d d0 be e9 97 a7 bf
       -0.025442284 0.075083934 -0.40696397 -1.3093234
0001a0 1b 7e 1d bf a9 b4 bb bd 78 ab 0f 3f 25 aa c6 3e
       -0.61520547 -0.091653176 0.56121016 0.38801685
0001b0 88 62 21 3e 9d 45 1f 3c 2a 46 8d be 90 0a 55 be
       0.15760243 0.009721187 -0.27592593 -0.2080481
0001c0 49 7f 79 be cf 1b 12 be fe 6a 43 3e b1 9c 2c 3e
       -0.24364962 -0.1426842 0.19083783 0.16856648
0001d0 9c 4b 16 3e 5a 83 a9 bc 69 44 47 bd 89 01 0b bf
       0.1467728 -0.020692516 -0.048649225 -0.5429922
0001e0 86 59 47 bf 8a 07 ca 3f 99 c3 e0 bd 18 77 7c be
       -0.77870977 1.5783551 -0.10974807 -0.24654806
0001f0 8c 0f 7d 3f fd 54 5c 3f 34 31 af bd 1f 68 16 bf
       0.9885185 0.8606718 -0.085543066 -0.58752626
000200 07 44 80 be a7 bc 6c 3e 2c 99 e3 bd da 16 26 be
       -0.250519 0.2311884 -0.111131996 -0.16219655
000210 15 29 34 be 18 9d 00 3e 0d 1a 0e 3d e2 5e 84 3e
       -0.17593797 0.12559927 0.034692813 0.2585364
000220 dc 03 ba be df c9 e1 3e 67 c7 13 3f 58 58 6e bd
       -0.3633107 0.44099328 0.5772614 -0.05818972
000230 9f 12 65 3a f7 3c dd 3d fd b9 97 3e 64 8d b4 3d
       0.00087384315 0.10802644 0.29634085 0.088160306
000240 5a 26 91 be c7 2a 6d 3e 41 d5 09 3e 60 85 e6 3d
       -0.28349572 0.2316085 0.13460256 0.11255908
000250 b6 8b bb bd 4b 6d 9e bd bb 5a a6 3d 0b 44 93 bd
       -0.09157507 -0.0773569 0.08122774 -0.071907125
000260 50 72 ef bd a6 6e 72 bf 4d d1 e2 3e 84 38 d7 3f
       -0.11691725 -0.94700086 0.4430031 1.6814122
000270 82 d3 0c be c1 6b b9 be 07 30 04 3e 95 3f 92 3e
       -0.13752559 -0.36215022 0.12908946 0.28564134
000280 43 5c 99 be 74 17 b8 be 6b 96 1b 3f 7e f7 78 3e
       -0.29953203 -0.35955393 0.60776395 0.24313161
000290 25 f9 d0 3e 57 76 c1 3c 3c ad 2f 3e 94 aa 6a 3a
       0.40815082 0.023616 0.17155927 0.000895181
0002a0 b1 2e 5f 3e c3 4e fa 3d 60 c5 7f be 7f 72 25 3f
       0.21795155 0.12222054 -0.24977636 0.6462783
0002b0 64 4f 33 3e 10 36 c1 3d 45 7c 31 3f 40 5d 9b 3d
       0.17510754 0.0943414 0.69330245 0.075861454
0002c0 cb 1a 84 be 7d 6a 64 3e b3 f6 9b bd 01 84 08 bd
       -0.2580169 0.22306247 -0.076154135 -0.033329014
0002d0 9e 01 89 be 44 20 2f 3f 34 e8 64 3f 98 54 83 3e
       -0.26759046 0.6840861 0.89416814 0.25650477
0002e0 4d 1c f3 bc 01 63 f9 bb 0b 3c 20 3e ba fd ae be
       -0.02967658 -0.007610679 0.15647905 -0.34177953
0002f0 4b dc 58 bd a8 70 1d bf 98 ef 01 3e af 29 56 3f
       -0.052944463 -0.61500025 0.12689054 0.83657354
000300 0e e8 20 be 06 81 15 bf a4 86 c0 3e 71 c6 22 bf
       -0.15713522 -0.584 0.37602723 -0.6358405
000310 ec dc d5 bb f1 6d 04 3e 07 a8 94 bd 42 4b 6d be
       -0.00652658 0.12932564 -0.07258611 -0.2317324
000320 30 b3 56 be 78 13 cc 3c 4a ae 4c be d1 6f c5 3c
       -0.20966792 0.024911627 -0.19988361 0.02410117
000330 d5 72 33 3f 09 74 8a bd ff 5f 9b bf b5 27 10 3e
       0.70097095 -0.06760413 -1.2138671 0.14077647
000340 81 17 e4 3d c0 7f 9f bc ca 03 26 be 72 e7 b8 be
       0.111372955 -0.019470096 -0.16212383 -0.3611408
000350 93 ac 1a 3f 56 e1 44 bd f4 83 32 bf ab 16 c8 3e
       0.6041958 -0.04806646 -0.69732594 0.39079794
000360 5d e8 97 bd 8d da 10 be 95 69 ec bd d0 2a c0 3c
       -0.07417367 -0.1414587 -0.11543576 0.023457915
000370 9c 4d 71 bd 4b b4 1c bf 9f 6a 94 3e fa 18 63 40
       -0.058911905 -0.61212605 0.28987595 3.5483994
000380 43 93 15 be e2 cc 14 be df de 0c bf 0e 39 2b be
       -0.14606957 -0.14531282 -0.55027574 -0.16720983
000390 a3 29 7f 3e 6e b0 b9 3d 55 2f 0d be a9 58 af bd
       0.24918227 0.090668544 -0.13787587 -0.085618325
0003a0 c8 4b a2 be 4c 88 46 3e e1 ad 37 be de 36 5e bd
       -0.31698442 0.1938793 -0.17937423 -0.054251544
0003b0 6a 29 c4 bd e6 4e 0d 3e 08 9a 26 3b 0d 72 9a bc
       -0.095782116 0.13799629 0.00254214 -0.018853212
0003c0 6d ef 59 be f7 20 85 3e 32 ae 2e bf ed a4 9d 3d
       -0.2128274 0.26001713 -0.6823455 0.07697473
0003d0 e6 48 4e bf 58 7c 60 3c 2a 1e 5a be d6 e3 ed 3c
       -0.80579984 0.013701521 -0.21300569 0.029039305
0003e0 1f a8 40 3e cd 60 67 3e 3f 5c 7b be 77 4b 90 3e
       0.18814133 0.2259552 -0.24546908 0.28182575
0003f0 bb c2 a4 3e 6f ee c6 3e 93 58 8c 3e 48 6e ec bd
       0.32179818 0.38853785 0.27411327 -0.11544472

critic.0.bias f4 [128]
000000 da c4 97 be a4 f5 b3 be b3 c6 9d be b2 2b 3f bd
       -0.29642373 -0.35148346 -0.30815658 -0.04667253
000010 a3 57 3c 3e 89 84 ad be 3b 64 26 be 14 c1 ce bd
       0.18392806 -0.3389018 -0.16249172 -0.100954205
000020 08 52 b9 bd 23 cb 8c 3d b6 a6 a4 bd 30 9e b1 bd
       -0.09048849 0.06874683 -0.0803961 -0.0867275
000030 85 63 09 bd f0 8e df 3d 83 60 2c 3e ea 1c ea bd
       -0.033542175 0.10915935 0.16833691 -0.11431296
000040 c3 ca 80 3e 66 72 47 be b8 86 45 3e dd c6 10 3c
       0.25154695 -0.19477233 0.19289672 0.008836475
000050 67 a2 aa bd 13 79 d4 bc 1e da ee 3d 35 95 7d be
       -0.08331757 -0.025936639 0.11662696 -0.24763949
000060 74 f1 8f 3e bb 92 83 be a5 6c 32 3e 45 06 ec 3d
       0.28113902 -0.25697884 0.17424257 0.11524633
000070 83 b6 3c be 1b 6d 50 bd b7 88 9b 3d 38 de 44 3e
       -0.18428998 -0.0508853 0.07594436 0.19225395
000080 e9 cd 4e be d8 9c 8b 3e 62 bf e5 bc 85 c7 8d 3d
       -0.20195736 0.272681 -0.02804536 0.06922821
000090 9e cc 88 bc 2e 5c 69 bc 06 f9 56 be f0 92 2a be
       -0.016699132 -0.014243169 -0.20993432 -0.16657615
0000a0 c7 b1 1a 3e 2f 94 01 be 65 35 86 3d 08 f6 b7 bd
       0.15106879 -0.12654184 0.06553153 -0.089824736
0000b0 34 1a b6 3d c9 30 fb bc 16 fa e7 bc ea 64 2c be
       0.088917166 -0.030662911 -0.028317492 -0.1683537
0000c0 5a 82 92 bd c8 02 35 3e 1e 7f 9b 3d 85 25 1e be
       -0.07153769 0.17676842 0.07592605 -0.15444
0000d0 fc df 95 3e 31 5d bb 3e 39 a4 6a 3e d5 18 0a 3e
       0.2927245 0.36594537 0.22914208 0.13486035
0000e0 4e 8f 6f 3d 59 12 b3 be 80 35 85 be 18 72 9d be
       0.058486275 -0.34974936 -0.2601738 -0.3075111
0000f0 64 1f 15 be 94 92 ef 3d 25 bb 83 bd 36 31 90 3e
       -0.14562756 0.116978794 -0.06432179 0.28162545
000100 8d 1c cc 3d ff f2 48 be 62 00 0b 3e e6 ec 03 3e
       0.09966383 -0.19623946 0.13574365 0.12883338
000110 b1 ae 8d bd ec fa 2e 3c 2f 1d 2c bd 01 ca 4d be
       -0.06918085 0.010679942 -0.04202002 -0.2009659
000120 18 99 b0 3e 6f 00 19 be 06 4f a0 3d 6b 82 db bc
       0.344918 -0.14941572 0.078275725 -0.026795587
000130 dc 69 2a 3d 65 ba 12 3d 66 37 64 3e d7 a8 b9 be
       0.04160486 0.03582229 0.22286758 -0.36261627
000140 31 f8 d3 bc cf 89 03 bc 95 70 8c be 5b 45 7c bb
       -0.025875183 -0.008028462 -0.27429643 -0.0038493488
000150 6b ba 03 3e 3b 47 9f bd f7 37 92 3c 70 60 bf bd
       0.12864082 -0.07777258 0.017848952 -0.09344566
000160 27 55 0d 3d c1 c0 72 be 72 f7 07 be 7b 77 d1 bd
       0.034505036 -0.23706342 -0.13277987 -0.10227867
000170 e0 3d 1c 3e 09 0c bf be 39 fc 56 3d c8 40 20 bd
       0.15257978 -0.3731387 0.052486632 -0.03912428
000180 10 57 8b be 22 dd 97 3d 02 b8 18 be 58 bc 47 bd
       -0.2721486 0.074152246 -0.14913943 -0.048763603
000190 62 2f 9a 3d f9 05 8c 3d 5d dc 9c be d5 58 85 3d
       0.07528569 0.06837077 -0.30636874 0.06511084
0001a0 74 6a dc bd 2d 81 05 be 83 38 4a 3e 7b e6 3a be
       -0.10762492 -0.13037558 0.1974812 -0.18251984
0001b0 d9 b7 13 be eb bf 72 be 61 60 f4 3d b2 44 f7 3d
       -0.14425601 -0.23706023 0.11932445 0.120736495
0001c0 b4 d4 e0 3d 75 41 6d bd 67 4f 32 3d 45 f2 d4 3d
       0.1097807 -0.057923753 0.043532755 0.10397772
0001d0 3b a3 36 3e ce 4a 8a be 4e 99 2e 3d 07 b2 83 3e
       0.17835705 -0.27010196 0.04262667 0.25721762
0001e0 48 20 40 3e 88 43 7c 3e 66 c7 17 3c c8 5b 34 bb
       0.18762314 0.24635136 0.009263849 -0.0027520526
0001f0 2b 55 55 be 71 4d 41 be ec 1d 23 bd a4 30 9e bd
       -0.2083327 -0.18877198 -0.039823458 -0.07724121

critic.2.weight f4 [128, 128]
000000 08 35 94 3c 18 a9 f5 bc 96 b6 11 be 72 74 91 bd
       0.018091694 -0.029987857 -0.14229807 -0.07102288
000010 92 cf a9 3d 6c 7d 06 3d 64 0c c9 3b ef 2b 35 be
       0.08291544 0.032834455 0.0061355103 -0.1769254
000020 89 37 1a be 73 e4 0a 3e a3 5b 1b bd b5 70 3b 3e
       -0.15060247 0.13563709 -0.03792919 0.18304713
000030 00 e6 37 be ad 8a 83 be 7e 53 1f be 48 9a 3c 3c
       -0.17958832 -0.2569174 -0.15559193 0.011511393
000040 c0 36 04 3e 84 06 9b bc 42 11 67 be ff 89 24 3e
       0.1291151 -0.018924005 -0.22565177 0.16068266
000050 e8 71 74 be 90 f3 19 be 7a c9 b2 3d 5a cb 0e 3d
       -0.23871577 -0.15034318 0.08729835 0.0348619
000060 3c fe 1c be de ca 60 bd 54 f3 52 3e e3 08 74 3e
       -0.15331358 -0.05488097 0.20600635 0.23831515
000070 93 8e 49 3e f5 c9 f9 bd 35 91 50 be 43 7c 53 be
       0.19683294 -0.12196723 -0.20367892 -0.20652871
000080 88 22 14 be 56 c6 46 3d 67 2c 4c be 2c 43 88 3d
       -0.14466298 0.04852899 -0.19938813 0.06653437
000090 aa 35 67 bc 43 bf db bd 7e 8c 49 bd 04 5c 10 3d
       -0.014111916 -0.1072984 -0.04920625 0.035244003
0000a0 fa 3b 04 be b2 e3 4e 3d 43 43 2d be b9 62 bc bd
       -0.12913504 0.050510116 -0.1692019 -0.09198517
0000b0 66 1c 62 3e d2 2e 3d be f2 80 09 3f 97 67 66 3e
       0.22081146 -0.18474892 0.5371238 0.22500454
0000c0 8a c4 a7 bd 04 09 94 3e 1c df 05 3e c2 64 14 3e
       -0.08191784 0.28913128 0.1307339 0.14491561
0000d0 0b 0a ba 3d 27 9a 9b 3c aa 7e 33 be 99 17 54 3e
       0.09083947 0.018994404 -0.17528787 0.20712127
0000e0 dc 29 7e 3d bd 2d 09 3e e8 20 54 3d 46 0b 23 3e
       0.06205164 0.13396354 0.051789194 0.15922269
0000f0 c4 62 23 3e da 8f 99 3e 97 6b b1 3b 49 04 1e 3e
       0.15955645 0.29992563 0.005414437 0.15431322
000100 64 ee aa 3e 02 f3 c7 3d a8 4c b5 3d cd 04 2d 3d
       0.33385003 0.09763147 0.08852512 0.042240907
000110 5e fd 8a bd 36 e5 25 3e 74 28 a9 be 72 42 10 be
       -0.06786607 0.16200718 -0.33038676 -0.14087847
000120 f9 22 4e 3e 7c 8c ec 3d aa 26 cb be be aa a6 bd
       0.20130529 0.11550233 -0.39677936 -0.08138035
000130 42 b2 fc be 67 30 06 be d3 68 15 3e 3c e1 07 3e
       -0.4935475 -0.13104402 0.14590769 0.13269514
000140 c8 9f 92 be ee 88 19 3e 6b 4b 56 bd d0 1f 65 3e
       -0.28637528 0.14993641 -0.052318018 0.22375417
000150 e0 77 23 be 5a 7d 16 be ac 4b c2 3d d0 a0 27 be
       -0.15963697 -0.14696255 0.094870895 -0.16369939
000160 46 71 14 bd ff 33 72 3d 6c 64 8b 3e 4f a6 1e 3e
       -0.03624084 0.05913162 0.27225053 0.15493129
000170 1d a9 26 be d6 9d 32 be 62 81 5e 3c 4d eb 4a 3d
       -0.16275449 -0.17443022 0.013580652 0.049540807
000180 dd 05 48 3e bb a7 82 3d 86 2a b9 be 14 e5 46 3e
       0.19533487 0.06379648 -0.36165255 0.19423324
000190 12 c0 87 3e 70 a8 f3 bb 74 ef 1a be 57 e6 5c be
       0.26513726 -0.007435851 -0.15130407 -0.21572243
0001a0 d2 aa 0b bd be 3c 88 3e e3 5a 33 be 7b b7 14 3e
       -0.034098454 0.26608843 -0.1751514 0.14523117
0001b0 d1 4d 4a bd 7e d4 76 bd ed f6 b2 bd 16 8b ed bb
       -0.049390618 -0.060261242 -0.087385036 -0.0072492464
0001c0 8d 24 9c bd 02 43 20 bd 35 78 f3 bc d3 00 81 3d
       -0.07624159 -0.039126404 -0.029720405 0.06298985
0001d0 b5 73 8f bd aa 45 5c 3e 02 35 29 3e a9 45 46 3e
       -0.07004491 0.2151095 0.16524127 0.1936251
0001e0 91 75 13 be f7 ef ab 3d ab 0f 03 bd ab 26 85 3e
       -0.14400317 0.08395379 -0.031997364 0.26006064
0001f0 aa e5 5d be 72 03 c6 3e b5 df 42 be 51 a8 bb 3d
       -0.21669641 0.38674504 -0.1903065 0.09162963
000200 41 2c 74 be 88 0d 21 be 88 5d 85 3e dc 4b 0c bc
       -0.23845007 -0.15727818 0.2604792 -0.008563008
000210 18 9d e7 bc eb 72 18 3d 57 0a 19 be 31 77 76 3e
       -0.02827315 0.03721897 -0.1494535 0.24068905
000220 f9 40 d0 3e ed 55 10 3d 61 57 ab 3d fe 27 2e be
       0.4067457 0.035238195 0.083662756 -0.17007443
000230 aa 74 d2 3c 1c ca 28 3e 61 6d ee be e0 6e e9 3b
       0.025690395 0.16483349 -0.46567824 0.007123813
000240 eb b6 f5 bd 24 06 26 3e 69 36 93 3d 82 57 d1 3c
       -0.119977795 0.1621328 0.07188112 0.025554422
000250 b2 c0 cb 3e 6f 1c d0 bd 77 ee 99 3d 48 13 73 be
       0.39795452 -0.10161673 0.07516187 -0.23737824
000260 8f 67 be be 49 17 e5 be c5 6c dd bd 28 34 7e be
       -0.37188384 -0.44744328 -0.10811762 -0.24824584
000270 fe 2f ea bd 1f 1e 00 3c 7a 3a 25 3e 19 e6 85 be
       -0.11434935 0.007819681 0.16135588 -0.26152113
000280 10 1a bd bd d7 e8 97 bd 85 e8 06 3e ac 1f 11 be
       -0.09233487 -0.074174576 0.13174637 -0.14172238
000290 f2 d4 a3 3c d6 4a 88 3d 49 6b 08 3e fc 58 3c be
       0.019999001 0.06654899 0.13322176 -0.1839332
0002a0 b1 fc bf 3d 62 bb 88 bb 69 a2 c0 be a8 01 9e 3d
       0.09374369 -0.0041727284 -0.3762391 0.0771516
0002b0 e1 0b 2a bc bd 1a 93 be 37 46 ce be be 23 53 bc
       -0.010378809 -0.28731337 -0.40287945 -0.01288694
0002c0 45 86 23 3e 42 e1 10 be b2 7b 29 3e bf 09 09 3e
       0.15969189 -0.14148429 0.16551092 0.13382624
0002d0 26 30 43 3e 43 c4 a9 be 7e 5c 91 bc 64 70 19 3e
       0.19061336 -0.33157548 -0.017744299 0.1498428
0002e0 93 2a 3e bf 19 0e 20 be 73 eb de bc 73 d1 f6 bd
       -0.74283713 -0.15630378 -0.02721188 -0.12051668
0002f0 62 a4 94 be 21 99 90 bd ea 90 b9 bd eb b3 8e 3e
       -0.29031664 -0.07060457 -0.09060843 0.27871642
000300 56 1d a8 be 47 f6 22 be 58 60 88 bd dc dc 32 3e
       -0.32834882 -0.1591426 -0.06659001 0.17467064
000310 d9 46 18 be bc 48 84 be df 5a 8f 3e d9 42 ad 3e
       -0.14870776 -0.25836742 0.27999017 0.33840063
000320 1e 82 80 be 5b 3c 86 3e 91 17 c2 3e 87 39 68 be
       -0.25099272 0.26217923 0.37908605 -0.22678195
000330 9e 77 d0 bc 79 9e e8 bb 5f 00 6d 3d a6 9a 40 bd
       -0.025447663 -0.0070989695 0.057861682 -0.047022484
000340 1c a7 bc bc 53 cc 27 be 69 97 8b 3e d9 76 ae bd
       -0.023028903 -0.16386537 0.27263954 -0.08518762
000350 21 c6 c3 3e 51 b1 b3 3b 71 3b d4 bd 03 36 61 3e
       0.38237098 0.0054837842 -0.103629 0.2199326
000360 36 3c e3 3e 9a 05 54 3c 11 94 6e bd 86 c1 83 3e
       0.44381875 0.012940789 -0.058246676 0.25733584
000370 4d c7 bb 3d f4 4f e1 3e be ce d3 bd 3e bd 09 be
       0.09168873 0.44006312 -0.10342167 -0.13451096
000380 72 c2 11 3e 97 9f 70 3e d7 11 30 bd 3d a5 c0 bd
       0.14234331 0.23498379 -0.042985763 -0.09406517
000390 41 5c 53 3e f2 ba 3e be ea d6 e7 bd 55 03 8e 3c
       0.20640661 -0.18626001 -0.113202885 0.017335573
0003a0 d5 6f 89 be d1 e1 69 be 18 15 7d 3e dd 42 92 be
       -0.26843134 -0.22840048 0.24715078 -0.28566638
0003b0 5d 0c 50 3e 04 31 bf bd dc 64 13 3e 15 9e e6 bd
       0.20317216 -0.09335521 0.14393944 -0.112606205
0003c0 d3 07 0c be d4 fe 53 bc 0d ab 1c 3d 1f 1d a6 bd
       -0.1367486 -0.012939174 0.038249064 -0.08111023
0003d0 a0 e4 74 bd 35 bc e1 3d 0e 8f 01 3d e9 65 ad 3d
       -0.059788346 0.11022226 0.03163057 0.084667034
0003e0 b8 5f 01 be 0b f9 3d 3e 1d a9 d5 bd 56 5c 02 be
       -0.1263417 0.18552034 -0.104326464 -0.12730536
0003f0 02 47 6b be 39 22 f0 bd 02 cb 89 be 88 94 e3 bc
       -0.22976306 -0.117252775 -0.26912695 -0.027780786

critic.2.bias f4 [128]
000000 52 6f 15 be 17 10 cb bc de 89 6f 3c aa 16 de bc
       -0.14593247 -0.024787946 0.014620272 -0.027110416
000010 e5 40 79 bd cc be 62 3b 80 a1 40 bd b3 84 f1 bd
       -0.060852904 0.0034598587 -0.04702902 -0.117928885
000020 26 ae f0 3d 0a e0 06 be 9a dd b1 3d 75 e3 81 bc
       0.11751966 -0.13171402 0.08684845 -0.01585553
000030 68 84 49 3d 78 6f dc bd 1b a5 08 3c ec 6b 63 3c
       0.049198538 -0.107634485 0.008340145 0.013880711
000040 6f a3 92 3c 04 b1 88 bd 97 a4 cb bd 8f 65 9a 3c
       0.017900197 -0.06674388 -0.099435024 0.018847255
000050 eb 86 aa bd 8e 9e fd 3d 57 dc de bd ef 70 bc 3d
       -0.08326515 0.123837575 -0.1088187 0.09201228
000060 97 4a bd bd d9 26 aa bd 66 7d 9e bd c8 29 2b be
       -0.092427425 -0.08308191 -0.077387616 -0.16715157
000070 90 6b c1 ba a4 bf 8b 3d a6 7f 9b bd 40 6f 95 3d
       -0.0014756788 0.06823662 -0.075927064 0.0729661
000080 af a4 83 3c 1d c2 65 bd d6 b1 d0 bd f1 dc 8d bd
       0.016069738 -0.056093324 -0.101901695 -0.06926907
000090 6d a4 42 b9 91 a0 85 3e ee 5f 88 bd af 80 55 be
       -0.00018562535 0.26099065 -0.06658922 -0.2084987
0000a0 4b a1 54 bd 1f c2 05 be 36 e5 4c bd 6d 21 1c 3d
       -0.051911633 -0.13062333 -0.05002328 0.038117815
0000b0 e5 40 3b 3c 7b e0 a9 bd 72 2b 22 3e a5 ca 16 3e
       0.011429046 -0.082947694 0.15836886 0.1472574
0000c0 01 83 f9 bd 1c 5f 37 bd ca 84 1b bd 83 9e 14 be
       -0.1218319 -0.044768438 -0.037968434 -0.14513592
0000d0 5a 56 1c be 9b ae 8d 3b 1a 1e 0f 3d cd a9 9b 3c
       -0.15267316 0.004323793 0.034940816 0.019001866
0000e0 91 3f 0f 3d a7 06 a3 bd 9a 6f 2a 3d 48 a3 46 3f
       0.03497273 -0.07960253 0.041610338 0.775929
0000f0 ae 90 5d bd 5c b3 8e 3c 30 3c 13 3d ae c0 0b bd
       -0.054093055 0.01741951 0.03594607 -0.0341193
000100 0e 42 1d 3e 79 b0 87 bd 42 a5 83 3c 63 74 71 bd
       0.15357229 -0.06625456 0.016070012 -0.058948886
000110 4f 41 65 be 53 20 db 3c 24 b6 bc 3d 06 8a 8b 3c
       -0.22388195 0.026748812 0.09214428 0.017033588
000120 20 8a c0 bc c1 82 f5 3d 47 4b 2b 3d 45 25 0d be
       -0.023503363 0.1198783 0.041819837 -0.13783748
000130 af 7c 3f 3e 1a 0e cb 3d ea 14 34 3f 77 c5 22 3b
       0.18699907 0.09914799 0.7034441 0.0024836936
000140 43 4f 90 3d f7 51 6b bd 92 93 34 3d c9 f9 28 bd
       0.07046368 -0.057451215 0.044086047 -0.04125384
000150 c4 0a 2b be e8 24 51 bd ed 7f 86 3e 88 b6 cf 3e
       -0.16703326 -0.051060587 0.26269475 0.40568948
000160 2f 09 81 3c d2 21 97 3e b4 bb 94 bd a4 56 b2 3d
       0.01575145 0.2951799 -0.07262364 0.08707932
000170 ac de fe bd 6e 6b 4b bd 13 92 27 3e 9c 0f 93 3d
       -0.12444815 -0.049663 0.16364317 0.071807116
000180 35 b2 07 3d d7 db b5 3b b0 67 19 be 01 ab 7e 3d
       0.033128936 0.0055498886 -0.1498096 0.0621748
000190 cd 95 c3 bd 7a 5b 37 be 65 99 91 bd 10 48 05 3d
       -0.095500566 -0.1790599 -0.07109336 0.032539427
0001a0 e5 d4 ae 3d 78 ea 5f 3d b6 2c ca 3d ec 7a e3 bc
       0.085367 0.054666966 0.09871809 -0.027768575
0001b0 dd 47 b4 bc 34 41 8e bd 0a 9a c1 3d de 8a 04 bd
       -0.022006923 -0.0694603 0.09453209 -0.032358997
0001c0 ee c6 ba 3c ca 14 67 bd 8f b6 7a 3d 74 40 26 be
       0.022799935 -0.05641631 0.061209258 -0.16235524
0001d0 0a 4a a1 3d ea 4a d1 3a 21 ae fd bd ce 1d dc 3c
       0.0787545 0.0015967761 -0.12386728 0.02686968
0001e0 6e 18 c7 3d 8a e4 93 3d 14 d4 53 bd 90 19 aa bd
       0.097214565 0.07221325 -0.051715925 -0.08305657
0001f0 53 21 3a bd 3d cb 52 3e ee a0 e9 3b 55 eb da bc
       -0.045441937 0.20585342 0.00712978 -0.026723543
