examples/drone/logs/drone-racing/model_4200.pt (torch, 474978 bytes, 36 tensors)

std f4 [4]
0	0x3e145b20	0.14487886
1	0x3e4b4936	0.19852147
2	0x3ccb0a7d	0.024785275
3	0x3d598e94	0.05311449

actor.0.weight f4 [128, 17]
0	0x40244c4c	2.5671568
1	0x3f84d5bf	1.037773
2	0xc1273b8c	-10.452038
3	0x3eae14fc	0.34000385
4	0xbf540d5a	-0.8283287
5	0x3fab5cde	1.3387716
6	0x3f10fae3	0.5663282
7	0x3eb9f392	0.36318642
8	0x3c968f4f	0.018378882
9	0x3f196826	0.5992454
10	0xbcb99c91	-0.022657664
11	0xbbcaf4ff	-0.0061937566
12	0x3ddbf34b	0.10739764
13	0xbd0df6db	-0.034659248
14	0x3c9b4123	0.018951958
15	0xbcc09b18	-0.023511454
16	0x3d3d8208	0.046266586
17	0x3efa5863	0.4889556
18	0xbf0999ee	-0.53750503
19	0x3fda68ff	1.7063292
20	0xbed2dc81	-0.41183856
21	0xbf6e8de1	-0.9318524
22	0xbf0631bd	-0.52419645
23	0xbc4d2abd	-0.012522397
24	0x3e819b26	0.2531368
25	0x3da5e799	0.08100814
26	0xbdf359f2	-0.1188239
27	0x3d9ebcf5	0.077508844
28	0xbd83a257	-0.06427448
29	0xbe0915cc	-0.13387221
30	0x3e8ec90d	0.27887765
31	0x3e89d756	0.269221
32	0x3e366e5b	0.17815535
33	0x3d94e952	0.07271065
34	0xbfa18e84	-1.2621617
35	0xbe988ed5	-0.29796472
36	0x3d7cc87c	0.061714634
37	0x3f095cfd	0.53657514
38	0xbfc65280	-1.5493927
39	0x3f22c333	0.635791
40	0xbf2af171	-0.6677466
41	0xbf54105b	-0.82837456
42	0xbf7ba842	-0.98303616
43	0x3f345fca	0.7045866
44	0xbeb4acc9	-0.35288075
45	0x3f2ef941	0.6834908
46	0x3ea20229	0.31642273
47	0xbb31d6fa	-0.0027136193
48	0xbc9065de	-0.017626699
49	0xbd4b4630	-0.049627483
50	0xba9ea622	-0.0012103955
51	0xbf37cfa5	-0.71801215
52	0x3f7311d1	0.9494906
53	0x3f9c7e3c	1.2226024
54	0x3e64b839	0.223359
55	0xbed7072e	-0.41997665
56	0x3eb299bb	0.34882912
57	0xbf01033c	-0.5039556
58	0x3eb50d38	0.35361648
59	0x3dce78c7	0.1008163
60	0xbdc5e066	-0.09661941
61	0xbd04c3fb	-0.032413464
62	0x3da1035a	0.078619674
63	0xbe1aa597	-0.1510223
64	0x3e142e08	0.14470685
65	0xbdeffc29	-0.117180176
66	0x3bd091aa	0.0063650208
67	0x3d924454	0.07141939
68	0x3e8744e7	0.26419756
69	0xbe4fe28a	-0.20301262
70	0x3e68468b	0.2268316
71	0xbed0f141	-0.40809062
72	0xbe1eaac3	-0.15494828
73	0xbd9e5688	-0.07731348
74	0x3d022565	0.031773943
75	0xbb948a3d	-0.004533081
76	0x3ccf3c34	0.025297262
77	0xbd3f35c1	-0.046682123
78	0x3c1c80f3	0.009552228
79	0xbca17631	-0.019709678
80	0xbce77655	-0.028254667
81	0x3e2d4cbb	0.16923802
82	0x3dda45d9	0.10657854
83	0xbe642d41	-0.22282888
84	0xbe663c81	-0.22484018
85	0x3ea315ad	0.31852475
86	0xbf340343	-0.70317477
87	0x400b2e61	2.1747057
88	0x3dbfe737	0.093702726
89	0xbfb0a040	-1.3798904
90	0xbf095f4a	-0.53661025
91	0xbe4fd509	-0.2029611
92	0x3eb66434	0.35623324
93	0x3dd49f0c	0.10381898
94	0xbe671d09	-0.2256967
95	0x3e507463	0.20356898
96	0x3ef99498	0.4874618
97	0xbe4981de	-0.19678447
98	0xbe2b75e9	-0.16744198
99	0xbd914366	-0.07092933
100	0xbce6a9c3	-0.02815712
101	0xbd94c0b2	-0.07263316
102	0xc018afea	-2.385737
103	0xbe4914a7	-0.19636784
104	0xc07e23b4	-3.9709291
105	0x3e7de5c0	0.24794674
106	0xbfc361b8	-1.5264196
107	0x3cc61503	0.024179941
108	0xbc8f1f6a	-0.017471034
109	0x3e8229ba	0.2542246
110	0x3ea7bcc2	0.32761198
111	0x3f103a72	0.5633918
112	0xbcf5b449	-0.029993193
113	0x3ef0d782	0.4703942
114	0xbe869d7a	-0.2629202
115	0xbcb28c39	-0.021795379
116	0x3c38c1cc	0.0112766735
117	0xbddec267	-0.10876923
118	0xbe32f789	-0.1747724
119	0xbd1ad70c	-0.03780274
120	0x3eb62de8	0.355819
121	0x40784180	3.8789978
122	0xbd42c733	-0.047553252
123	0x3d24c8fd	0.04023074
124	0x3e84e8fc	0.25959003
125	0xbf10a291	-0.56498057
126	0x3edeecb8	0.43539977
127	0x3b7da3fe	0.0038702483
128	0xbee3ce08	-0.44493127
129	0x3e71314c	0.23553962
130	0x3ee3b22a	0.44471866
131	0xbe96b2bb	-0.29433236
132	0xbdb3ff5f	-0.087889425
133	0xbd664c97	-0.056225386
134	0x3d8278c3	0.0637069
135	0x3d4cac9c	0.0499693
136	0x3e263fad	0.16235228
137	0xbd80113f	-0.062532894
138	0xbeb0f53d	-0.34562102
139	0x39aad7ed	0.00032585804
140	0xbd61b0fc	-0.055100426
141	0xbd8333e5	-0.064063825
142	0x3c894012	0.016754184
143	0x3ca9fe48	0.020751134
144	0xbd490ce9	-0.049084578
145	0x3c657a0d	0.01400615
146	0x3d22c781	0.039741043
147	0x3c4bb033	0.012432146
148	0xbd0c8dfe	-0.0343151
149	0x3e6603b0	0.22462344
150	0xbe82c4cc	-0.2554077
151	0xbdb1bc5d	-0.086785056
152	0x3eae3653	0.3402582
153	0x3f83864d	1.027536
154	0xbf8ac5e9	-1.0841647
155	0xbff27bdd	-1.894405
156	0xbd30898f	-0.043099936
157	0xbcfa654d	-0.030565882
158	0x3fdd039d	1.7266728
159	0x40274da5	2.614114
160	0x3f38a2f4	0.72123647
161	0x3ec04d7e	0.37559122
162	0x3f5876a0	0.8455601
163	0x3e0ec1b1	0.13941075
164	0xbe587b9c	-0.21140903
165	0xbe1d0c19	-0.15336646
166	0xbdac587f	-0.08415317
167	0xbd19d5bc	-0.03755735
168	0xbdeb58b3	-0.114915274
169	0xbe5b528d	-0.2141821
170	0x3e702b4c	0.23454016
171	0xbded09ab	-0.1157411
172	0x3e8686ce	0.26274723
173	0xbef50d24	-0.47861588
174	0xbde0af24	-0.109709054
175	0x3d13b54c	0.03606157
176	0xbb60302d	-0.0034208403
177	0xbd1431d3	-0.03618033
178	0x3d700967	0.058602717
179	0xbd8beecf	-0.068326585
180	0xbca93536	-0.020655256
181	0x3b12a45a	0.0022375793
182	0xba707708	-0.00091730105
183	0xbda54969	-0.080706425
184	0xbcb1107b	-0.021614304
185	0xbe10e15e	-0.14148471
186	0xbe09292c	-0.13394612
187	0xbce0431a	-0.027375747
188	0x3fa70b5a	1.3050339
189	0xbf8a55d3	-1.0807441
190	0x3f0b235d	0.54350835
191	0xbf575949	-0.84120613
192	0x3f48c8af	0.7843122
193	0x3db0c3b4	0.086310774
194	0x3f0645b4	0.5245011
195	0xbead9611	-0.33903554
196	0xbf958aaf	-1.1682948
197	0xbec4e149	-0.3845313
198	0x3e8ee528	0.27909207
199	0x3ed9e7d0	0.4255967
200	0xbc25ec3a	-0.010127122
201	0x3d4fbe99	0.050718877
202	0xbd28abed	-0.041179586
203	0xbe071fef	-0.13195775
204	0x3f2929b2	0.66079247
205	0xbd85f49f	-0.065407984
206	0xc058390c	-3.3784819
207	0xbbae6c60	-0.005322978
208	0x3e7c5d45	0.24644955
209	0x3ff288a7	1.8947953
210	0x3e4324d6	0.1905702
211	0x3f6ff651	0.93735224
212	0x3ec236c0	0.37932396
213	0x3f94ee62	1.1635249
214	0xbec19e75	-0.37816206
215	0x3f97d9bd	1.1863323
216	0x3e27e532	0.16396025
217	0x3e158bb3	0.14604072
218	0x3d3be91f	0.04587662
219	0xbd02889c	-0.031868562
220	0x3e47f890	0.19528413
221	0x3bf36531	0.0074278344
222	0x3c5b7b9f	0.013396173
223	0x3e99daaa	0.3004964
224	0xbee236bb	-0.4418238
225	0xbea65091	-0.32483342
226	0x3f0f5476	0.5598825
227	0x3acc714d	0.0015597731
228	0x3e59b79b	0.21261446
229	0x3da33343	0.07968762
230	0xbd6abdbe	-0.05730986
231	0xbddeb054	-0.10873476
232	0xbd9bc45f	-0.07605814
233	0xbe012592	-0.12611988
234	0x3d8761bf	0.066104405
235	0xbd83a2ad	-0.06427512
236	0x3dfbe515	0.12299553
237	0xbd6f0852	-0.058357544
238	0x3f0e7c5a	0.55658495
239	0xbf20844c	-0.6270187
240	0x3f687f88	0.908196
241	0xbea76905	-0.3269731
242	0xbf98294e	-1.1887605
243	0xbf34d668	-0.7063966
244	0xbdcd4265	-0.100224294
245	0x3eb33a48	0.35005403
246	0x3e07d850	0.1326611
247	0xbe7cc17a	-0.2468318
248	0x3e26e68c	0.16298884
249	0x3d3e7690	0.04649979
250	0xbde69e3d	-0.1126065
251	0x3e339dc3	0.1754065
252	0x3e14d325	0.1453367
253	0x3e71f064	0.23626858
254	0xbccc8679	-0.024966465
255	0x3f66dec7	0.9018368

actor.0.bias f4 [128]
0	0x3dd1069b	0.10206338
1	0xbecd9a92	-0.4015699
2	0xbe4df2ef	-0.20112203
3	0xbf19d09e	-0.6008395
4	0x3efb1a57	0.49043533
5	0x3e8106a4	0.2520038
6	0xbe7cffcc	-0.24706954
7	0xbddabd8c	-0.106806844
8	0xbe3c75df	-0.18404339
9	0xbd254f81	-0.040359024
10	0x3f36478c	0.7120292
11	0x3de701f1	0.11279667
12	0x3e7001e8	0.23438227
13	0x3dd43f5a	0.10363646
14	0xbe4a266b	-0.19741218
15	0xbf33ef81	-0.7028733
16	0x3d2c4727	0.042060044
17	0x3e19749d	0.1498589
18	0xbe81bb10	-0.2533803
19	0xbeb38966	-0.35065764
20	0x3ed0276c	0.40655077
21	0xbe153ed4	-0.14574748
22	0x3e0af5a7	0.13570271
23	0xbcd2b969	-0.025723176
24	0xbe2db2ec	-0.16962785
25	0xbeac8141	-0.33692363
26	0x3e87cfe2	0.2652579
27	0x3edae43f	0.42752263
28	0xbe0ee617	-0.1395496
29	0xbd8c3ccb	-0.06847533
30	0xbc9ce208	-0.019150749
31	0xbe118897	-0.14212261
32	0xbee32e0d	-0.4437107
33	0x3ebaf8ae	0.36517853
34	0x3ded1802	0.11576845
35	0xbe825764	-0.254573
36	0xbf339e99	-0.70163876
37	0x3e249b6b	0.16074912
38	0xbed4fa7c	-0.41597354
39	0xbe76aef4	-0.24090177
40	0xbd439a61	-0.04775465
41	0xbe93f819	-0.2890022
42	0x3eadd90a	0.3395465
43	0x3e06ee8c	0.13176936
44	0xbe658633	-0.22414474
45	0xbe88f8da	-0.2675236
46	0xbe25e77e	-0.16201589
47	0xbe41970d	-0.18905278
48	0xbe3ebc66	-0.18626556
49	0x3d54cb81	0.05195189
50	0x3e91abd9	0.28451422
51	0xbeb96d69	-0.36216286
52	0xbd9eda31	-0.077564605
53	0x3e339790	0.17538285
54	0xbe85eabb	-0.26155648
55	0x3e83186a	0.25604564
56	0x3e6f0ee7	0.23345529
57	0xbeeef797	-0.4667327
58	0xbe4a7388	-0.19770634
59	0x3c931875	0.017955998
60	0x3ee1c79e	0.44097608
61	0x3ea335dd	0.31877032
62	0x3d9b009d	0.07568476
63	0xbe7d31a5	-0.24725969
64	0xbf1f4595	-0.6221555
65	0x3dc8d9bf	0.09807157
66	0x3f381000	0.71899414
67	0xbed9d651	-0.42546323
68	0x3e269d3e	0.1627092
69	0x3e553ccd	0.20823975
70	0xbe511e9d	-0.20421834
71	0xbf0a79a2	-0.54091847
72	0x3e817a2e	0.25288528
73	0x3cb21c7a	0.021742094
74	0xbeb9870e	-0.3623585
75	0x3e21fa11	0.15818049
76	0x3f070ad8	0.5275092
77	0xbdbc3ca4	-0.09191254
78	0xbde18103	-0.11010935
79	0xbe199a42	-0.15000251
80	0xbe31ac7b	-0.17350952
81	0x3e3496ae	0.17635605
82	0x3e8a536d	0.27016774
83	0x3e229fbd	0.15881248
84	0x3cdf6af2	0.027272675
85	0xbeb99301	-0.36244968
86	0x3e83fdfc	0.25779712
87	0x3dc531b4	0.09628621
88	0xbea22cc7	-0.31674787
89	0xbe759d85	-0.2398587
90	0xbed7034d	-0.41994706
91	0xbdebb11f	-0.115083925
92	0x3d265868	0.040611655
93	0xbd97d94e	-0.074144945
94	0xbd3f7060	-0.04673803
95	0x3f056d70	0.52120113
96	0xbc3f7907	-0.01168657
97	0x3ed890e8	0.42298055
98	0xbd8eb4be	-0.069680676
99	0xbe205075	-0.15655692
100	0xbe44f5f1	-0.19234444
101	0x3eb5ac59	0.35483053
102	0xbe78ecc9	-0.24309076
103	0xbe2dca0e	-0.16971609
104	0xbe14918a	-0.14508644
105	0xbe086461	-0.13319542
106	0x3e137dd7	0.14403473
107	0x3c159f91	0.009132282
108	0xbebb3d8c	-0.36570394
109	0xba9f1c5c	-0.0012139189
110	0xbb44fd24	-0.003005811
111	0x3c89ccfb	0.016821375
112	0xbe2ef975	-0.17087348
113	0xbd19f34e	-0.03758555
114	0xbe44c2df	-0.19214962
115	0xbd90171e	-0.07035659
116	0xbde2a71c	-0.1106703
117	0xbe8f0d6a	-0.27939922
118	0x3e6f23c1	0.23353483
119	0x3db6b56f	0.089213245
120	0x3d8f87f1	0.07008351
121	0x3e70f8a2	0.23532346
122	0xbebebcdb	-0.3725346
123	0xbf0d7f72	-0.5527259
124	0x3e3f8419	0.18702735
125	0xbe0bd6ee	-0.13656208
126	0x3e2a750d	0.16646214
127	0xbccbe182	-0.024887804

actor.2.weight f4 [128, 128]
0	0xbdc90611	-0.0981561
1	0x3df74c83	0.1207514
2	0x3c2d7f5b	0.010589446
3	0x3e30b68d	0.17257138
4	0xbb367551	-0.0027840922
5	0xbd8b5438	-0.06803173
6	0xbd94ed6a	-0.07271846
7	0x3e6264f8	0.22108829
8	0x3d7a41ac	0.061097786
9	0x3e490c48	0.19633591
10	0xbd62cf1f	-0.055373307
11	0xbe02f79f	-0.12789772
12	0xbde4fd31	-0.11181105
13	0xbc268ad4	-0.010164935
14	0x3e048a43	0.12943368
15	0xbdcc99fb	-0.09990307
16	0x3a9c13be	0.0011907739
17	0x3b97ff21	0.004638568
18	0xbc01ad77	-0.007914892
19	0x3ca4666a	0.020068366
20	0x3ca49fd6	0.020095747
21	0xbc56623e	-0.013084946
22	0xbd457258	-0.04820475
23	0x3dac3d59	0.08410139
24	0x3c450b4a	0.012026617
25	0x3cdfa673	0.027301049
26	0xbca24be1	-0.019811573
27	0xbc385c6d	-0.011252505
28	0xbe5a3619	-0.21309699
29	0x3ae6df55	0.0017614166
30	0xbd90bac2	-0.07066871
31	0x3dce9778	0.10087484
32	0x3bf21a0b	0.0073883585
33	0x3e1dad9b	0.15398256
34	0x39a576af	0.0003155968
35	0xbdfb9787	-0.12284761
36	0x3e102b44	0.14079005
37	0xbe2b90c7	-0.16754447
38	0x3c78231e	0.015145091
39	0xbe027d86	-0.12743196
40	0xbe1b6981	-0.15176965
41	0xbdb26b86	-0.08711915
42	0xbc93f307	-0.01806022
43	0xbe072081	-0.13195993
44	0xbd68bd5b	-0.05682121
45	0xbe875246	-0.26429957
46	0x3d7e52cf	0.06209069
47	0x3bf8bc13	0.0075907796
48	0xbc9f10b4	-0.019417144
49	0xbd65b4e8	-0.05608073
50	0x3d5689e6	0.052377604
51	0x3c8051fc	0.015664093
52	0x3d89e7e5	0.067336835
53	0x3e0f9138	0.1402024
54	0xbd60b51d	-0.054860223
55	0x3e29f057	0.16595589
56	0xbe79a2a9	-0.24378456
57	0xbd8c8af8	-0.06862444
58	0x3d3c8b65	0.046031374
59	0xbcd58b0c	-0.02606728
60	0xbd835913	-0.06413474
61	0xbcd509a8	-0.026005581
62	0xbda65a59	-0.08122701
63	0x3bc666fd	0.0060547576
64	0x3c5fd8f8	0.013662569
65	0x3e0ba553	0.13637285
66	0x3e03f400	0.12886047
67	0x3e10183f	0.14071749
68	0xbe033dfc	-0.12816614
69	0x3c74311e	0.014904289
70	0x3cb7fb75	0.022458771
71	0xbaea50b1	-0.0017876831
72	0x3e3e1f33	0.18566589
73	0xbdc4f5db	-0.09617206
74	0xbda79fd2	-0.0818478
75	0x3c770dad	0.015078944
76	0x3dfeeb45	0.12447218
77	0x3dadc07d	0.0848398
78	0x3e2243d4	0.15846187
79	0xbe58e865	-0.21182401
80	0xbde4c637	-0.11170619
81	0x3bc6fb3c	0.00607243
82	0x3dfa9180	0.12234783
83	0xbe6a80f2	-0.22900751
84	0xbda81952	-0.082079545
85	0x3d0a1f6f	0.033721384
86	0xbc6ed9e8	-0.01457832
87	0xbcf0094d	-0.02930131
88	0xbe09059c	-0.13381046
89	0x3caa95e8	0.020823434
90	0x3dbbea62	0.09175564
91	0xba153ba1	-0.00056927843
92	0xbcd95dc5	-0.02653397
93	0x3d055aa6	0.032557152
94	0x3e0bda5d	0.13657518
95	0xbd589e33	-0.052885246
96	0xbdd4f971	-0.1039914
97	0x3d06ff6c	0.032958433
98	0x3da7e71f	0.0819838
99	0xbcfba785	-0.030719528
100	0xbe4cc266	-0.19996032
101	0x3de3fdf1	0.1113242
102	0xbe4c3fd9	-0.19946231
103	0xbc9737a0	-0.018459141
104	0xbe9220df	-0.28540704
105	0xbd2a7890	-0.041618884
106	0x3d996b95	0.07491223
107	0x3d42a4ac	0.047520325
108	0x3e3ce63a	0.184472
109	0x3df3b50a	0.11899765
110	0x3e1977e1	0.14987136
111	0x3d64719e	0.055772416
112	0x3c10cddc	0.008838143
113	0x3d726cfe	0.059185974
114	0xbe7b93b4	-0.24568063
115	0xbe238c09	-0.15971388
116	0xbacfd592	-0.0015856496
117	0x3de6f765	0.112776555
118	0xbe273759	-0.16329707
119	0x3e130958	0.14359033
120	0x3df21e27	0.11822157
121	0xbe269d2f	-0.16270898
122	0x3d2da912	0.042397566
123	0xbd406cbf	-0.04697871
124	0xbd9fe2d9	-0.0780694
125	0xbd3c248e	-0.0459333
126	0x3d7db165	0.061936755
127	0xbe35516c	-0.17706841
128	0x3d5e6699	0.054297063
129	0xbdf4b014	-0.11947647
130	0xbe15a020	-0.14611864
131	0x3dd975aa	0.10618146
132	0xbc3255d9	-0.0108847255
133	0xbde192dd	-0.1101434
134	0xbe330a6e	-0.17484447
135	0x3b81575f	0.003947183
136	0x3cd298d1	0.025707634
137	0x3d50af0c	0.050948188
138	0x3d3032fa	0.043017365
139	0xbd399b99	-0.045314405
140	0x3ca6c933	0.020359611
141	0xbd244675	-0.040106256
142	0xbe8055bd	-0.25065413
143	0x3dddfcb5	0.10839216
144	0xbe669c83	-0.22520642
145	0xbd21d0e7	-0.039505865
146	0xbc8b1848	-0.016979352
147	0xbca8378c	-0.0205343
148	0x3e34d6d9	0.17660083
149	0xbdcc0f5c	-0.09963867
150	0xb988456b	-0.00025991662
151	0xbd676d6e	-0.056500845
152	0xbdaca7f8	-0.08430475
153	0x3d724d1b	0.059155565
154	0xbdc922b4	-0.09821072
155	0x3d3c6aaf	0.04600018
156	0xbd97c963	-0.07411458
157	0x3d4a3726	0.049369
158	0x3d105513	0.035237383
159	0xbd03e35e	-0.032199256
160	0xbdd83864	-0.10557631
161	0xbd4a2e2e	-0.049360447
162	0x3e2ef8d0	0.17087102
163	0xbdafbde3	-0.0858114
164	0x3c80799c	0.015682988
165	0xbcb8233f	-0.022477744
166	0x3cdda05a	0.027054
167	0x3dae646c	0.08515248
168	0xbd240387	-0.040042426
169	0xbdaa2dc4	-0.0830951
170	0xbe27401b	-0.16333048
171	0x3cd3ad2e	0.025839414
172	0xbe301987	-0.17197238
173	0x3d3f48fd	0.046700466
174	0xbda341c5	-0.07971529
175	0xbb366221	-0.0027829485
176	0xbba5fe2b	-0.0050656996
177	0x3d8dde8a	0.069272116
178	0x3e11a5ce	0.14223406
179	0x3d704d92	0.058667727
180	0xbd727deb	-0.059202116
181	0x3c814911	0.015781911
182	0xbd892233	-0.06695976
183	0xbcf88b31	-0.03033981
184	0xbdfe3ffd	-0.124145485
185	0xbd5ae985	-0.053445358
186	0xbd7e289b	-0.062050443
187	0xbdab3baf	-0.08360993
188	0x3d8b8c28	0.06813842
189	0xbe27b3c0	-0.16377163
190	0xbbbc6fca	-0.005750631
191	0xbd10cc2c	-0.035350963
192	0xbd027426	-0.03184905
193	0xbbf11497	-0.007357191
194	0xbd604b25	-0.054759163
195	0xbd706f95	-0.058700163
196	0x3cd7c9b3	0.026341295
197	0xbdcde83c	-0.10054061
198	0x3e3004f8	0.17189395
199	0x3dcd2609	0.1001702
200	0x3ca61f12	0.020278487
201	0x3dc1c2ac	0.09460959
202	0xbd0e57ff	-0.03475189
203	0xbd10a327	-0.035311844
204	0x3d596f8a	0.053084888
205	0x3d5c920b	0.053850215
206	0x3c17f898	0.009275578
207	0xbe0473c9	-0.12934794
208	0x3caaafaa	0.020835716
209	0x3d604e1d	0.054761995
210	0x3e1521e9	0.14563717
211	0xbd9e83e2	-0.077399984
212	0x3dca418e	0.09875785
213	0x3dfe390f	0.12413227
214	0x3b87e800	0.0041475296
215	0x3d2ac316	0.041689955
216	0x3bc444b2	0.0059896344
217	0x3d86c4e8	0.06580526
218	0xbb9ab737	-0.004721548
219	0x3d72f629	0.059316788
220	0x3d581327	0.05275264
221	0xbd4ac95c	-0.049508438
222	0xbc9459b5	-0.018109182
223	0x3db2c777	0.08729451
224	0x39edbe28	0.0004534584
225	0x3ba1e4bd	0.004940598
226	0xbdd5f032	-0.10446204
227	0xbc8d23b5	-0.01722894
228	0xbafbf970	-0.0019224118
229	0xbd0867b2	-0.033302017
230	0x3cf147ea	0.029453237
231	0xbc9fd60d	-0.019511247
232	0x3a39e69a	0.0007091552
233	0x3db41bc7	0.087943606
234	0x3e297f01	0.16552354
235	0xbbef4e72	-0.0073030526
236	0x3e19767e	0.14986607
237	0xbd2a43e0	-0.041568637
238	0x3b971818	0.0046110265
239	0xbddc4882	-0.10756017
240	0xbd24cc33	-0.040233802
241	0xbd26e358	-0.040744156
242	0x3db0d909	0.08635146
243	0x3d97962a	0.074016884
244	0xbcfd1eb4	-0.03089843
245	0x3d261214	0.040544584
246	0xbcb5f93d	-0.022213573
247	0x3d38b15d	0.04509102
248	0xbdb83de6	-0.08996181
249	0xbd4b6f85	-0.0496669
250	0xbe1cf967	-0.15329514
251	0x3d4b4a0f	0.049631175
252	0x3d9861c8	0.07440525
253	0x3c8b59ee	0.017010655
254	0x3de0da69	0.109791584
255	0xbe4886bf	-0.19582652

actor.2.bias f4 [128]
0	0xbd2ac878	-0.04169509
1	0x3bc0dd34	0.0058857445
2	0x3e19263b	0.1495599
3	0xbe7ec529	-0.24879898
4	0x3dc62cf6	0.09676544
5	0x3e2afefd	0.16698833
6	0x3e285d04	0.16441733
7	0xbd938135	-0.07202379
8	0x3da1f854	0.07908693
9	0xbdb9b9a1	-0.09068609
10	0xbf4b0187	-0.79299206
11	0xbd012d0d	-0.031537104
12	0xbe04a737	-0.12954412
13	0xbd9db777	-0.07701009
14	0x3e35ed55	0.17766316
15	0x3d135a5d	0.03597485
16	0x3e4bcb6f	0.19901823
17	0x3d279496	0.040913187
18	0xbde726dc	-0.11286709
19	0xbdbd0eb1	-0.09231318
20	0xbe91ed48	-0.28501344
21	0xbdd6613c	-0.10467765
22	0xbdcac92e	-0.09901653
23	0x3f134859	0.5753227
24	0xbd2f9c90	-0.04287392
25	0xbf5f3c0d	-0.87201005
26	0x3d393279	0.04521415
27	0xbce4dfc3	-0.02793873
28	0xbf1a987c	-0.6038892
29	0xba42e40b	-0.0007434494
30	0x3e953850	0.29144526
31	0xbdd6a645	-0.10480932
32	0xbd83d1b4	-0.06436482
33	0x3d2c56f4	0.042075112
34	0xbd52004a	-0.051269807
35	0xbeabf809	-0.33587673
36	0x3c3cc7c7	0.01152224
37	0x3d910f44	0.0708299
38	0x3d1eb285	0.03874447
39	0xbc834f17	-0.016028924
40	0x3e135f0e	0.14391729
41	0xbcc572c9	-0.024102585
42	0xbd82afcc	-0.06381187
43	0x3f12f36e	0.57402694
44	0xbe2e8a2c	-0.17044896
45	0xbccdeeea	-0.025138337
46	0x3d43c630	0.04779643
47	0x3dd9723d	0.10617492
48	0xbedef46b	-0.4354585
49	0xbe8cd784	-0.27508175
50	0x3d6de7d1	0.058082405
51	0xbdce84ff	-0.10083961
52	0xbda81bbd	-0.08208416
53	0x3d231467	0.03981438
54	0x3b84048b	0.004028862
55	0xbdb31289	-0.0874377
56	0xbcfc145f	-0.030771432
57	0xbe1e7497	-0.15474163
58	0x3d5057ca	0.050864972
59	0xbe156a56	-0.14591345
60	0x3d04f838	0.032463282
61	0xbd814c5a	-0.06313391
62	0x3d88c534	0.066782385
63	0x3deb84a4	0.114999086
64	0xbdd32b8c	-0.1031104
65	0xbd745fc0	-0.059661627
66	0xbbd33e2d	-0.006446621
67	0x3d5941e7	0.053041365
68	0x3d484607	0.04889491
69	0x3d3c7ea5	0.046019215
70	0x3d8eb249	0.06967599
71	0xbb400a25	-0.0029302922
72	0x3e9d2643	0.30693254
73	0x3c1ed650	0.009694651
74	0x3dc25dc9	0.09490544
75	0xbc12025b	-0.008911694
76	0x3d155bbb	0.036464434
77	0xbd816070	-0.06317222
78	0xbd3089ad	-0.043100048
79	0xbdb2f3b8	-0.08737892
80	0x3cd90376	0.026490908
81	0x3dfb7b4d	0.12279377
82	0x3d88b762	0.066756025
83	0xbebec607	-0.37260458
84	0xbdbc519e	-0.09195255
85	0xbd3a8ef7	-0.0455465
86	0x3a47d6a1	0.000762323
87	0xbc8afbb9	-0.016965734
88	0xbc7546e4	-0.014970515
89	0x3f14375f	0.5789699
90	0xbde7c884	-0.11317542
91	0xbeaf5d42	-0.34250838
92	0x3d1fb9a5	0.038995404
93	0xbd83ccdb	-0.064355575
94	0x3d90a4f4	0.07062712
95	0x3c528f23	0.012851509
96	0xbd359784	-0.04433395
97	0x3c7a8a94	0.015291829
98	0x3f8168ad	1.011007
99	0x3dd2494d	0.10267887
100	0xbc1d4478	-0.009598844
101	0x3eb3d30e	0.3512196
102	0xbb6ac427	-0.0035822482
103	0x3d3ac253	0.04559548
104	0xbcbc93fc	-0.023019783
105	0xbdcda2bd	-0.100408055
106	0x3d97d22b	0.07413133
107	0x3c07d3ec	0.008290272
108	0xbdeb8ebe	-0.11501835
109	0x3edfbd26	0.43698996
110	0x3efb143e	0.4903888
111	0x3c7be47c	0.015374299
112	0x3d54bfc4	0.051940694
113	0x3c802cb7	0.015646322
114	0xbe43f8ba	-0.1913785
115	0x3c3394bd	0.010960755
116	0x3e700933	0.23441009
117	0x3d5feeeb	0.05467121
118	0xbd2405f0	-0.040044725
119	0xbe169f85	-0.1470929
120	0xbdc8373c	-0.0977616
121	0xbcea5230	-0.028603643
122	0x3e173d06	0.14769372
123	0xbcee4cf3	-0.029089427
124	0x3ea291ca	0.31751853
125	0x3e051521	0.12996341
126	0x3d884d3c	0.06655356
127	0x3b43d648	0.002988236

actor.4.weight f4 [4, 128]
0	0x3ddd3d42	0.108026996
1	0x3c30954b	0.010777782
2	0x3a9775b5	0.0011555465
3	0x3cceccde	0.025244173
4	0xbc5cf480	-0.013486028
5	0x3b3ff377	0.0029289403
6	0x3e20fd1f	0.15721558
7	0x3e7cdd46	0.24693784
8	0xbe357910	-0.17721963
9	0xb9ef81a9	-0.00045682237
10	0xbe551827	-0.20809995
11	0xbb175639	-0.0023092164
12	0xbe48b92d	-0.19601889
13	0xba89af34	-0.0010504485
14	0xbc4fd523	-0.012685093
15	0x3de7eb9b	0.11324235
16	0x3d0a8ac7	0.033823755
17	0xbbd0aedb	-0.0063685006
18	0xbbe291cb	-0.0069143525
19	0x3d93a16d	0.07208524
20	0xbe74a704	-0.23891836
21	0xbb91030a	-0.004425411
22	0xbde80589	-0.11329181
23	0x3ebd0685	0.36919037
24	0x3e04d44b	0.12971608
25	0x3dc0ea95	0.09419743
26	0xbc74f90b	-0.014951955
27	0x3a4a7f52	0.00077246607
28	0xbe1d2cef	-0.15349172
29	0x3a488fde	0.00076508324
30	0x3cfcff33	0.030883407
31	0xba617029	-0.0008599782
32	0xbbc7a6a4	-0.006092863
33	0xbba58e10	-0.0050523356
34	0x3bf909a1	0.007600025
35	0x3e87400e	0.26416057
36	0x3c006d65	0.007838582
37	0xb9526c37	-0.00020067474
38	0xbbf036df	-0.00733076
39	0x3b6c8ee8	0.003609592
40	0xbc8665ef	-0.016406028
41	0x3b03c5b0	0.0020106845
42	0x38a51ee7	7.873569e-05
43	0xbdba55a2	-0.090983644
44	0x3deccc17	0.115623645
45	0xbc1478d3	-0.00906201
46	0xbb5ebad3	-0.0033985868
47	0xbbd38aef	-0.006455771
48	0xbdb2b7c1	-0.087264545
49	0xbd5a2100	-0.053254128
50	0xbd6b7ab0	-0.05749005
51	0xbdb1b04c	-0.08676204
52	0x3da1cc30	0.07900274
53	0x3a80dedb	0.0009832041
54	0xba661d33	-0.0008778155
55	0x3c65b8de	0.014021127
56	0xbb728f84	-0.0037011812
57	0xbc275966	-0.010214185
58	0x3c4713a5	0.01215068
59	0xbdd1acfc	-0.10238072
60	0x3bdd6d42	0.0067574093
61	0x3882bfa0	6.234576e-05
62	0xba07cd15	-0.0005180401
63	0xbb13d734	-0.002255869
64	0x3c9a7b1b	0.01885753
65	0xba0bf948	-0.0005339575
66	0x3a2a354d	0.0006492928
67	0xbc645f54	-0.013938744
68	0xbc83152d	-0.016001308
69	0xbad013b0	-0.0015875008
70	0x3e2efdff	0.1708908
71	0xbc4296d0	-0.011876777
72	0x3d5a398c	0.053277537
73	0x3b871833	0.004122758
74	0x3c2555f1	0.010091291
75	0x3a0308e5	0.0004998579
76	0x3bb2c792	0.0054559195
77	0xba2a6a9e	-0.00065008726
78	0x3bddb2f0	0.006765716
79	0x3e5ae3cc	0.2137596
80	0x3ba68a36	0.005082394
81	0xbcd28d7e	-0.025702234
82	0x3d4ac92d	0.049508262
83	0xbe72c356	-0.23707327
84	0xbacfb3bb	-0.001584641
85	0x399be41b	0.00029733856
86	0xbb5b217c	-0.0033436706
87	0xbc14dc9d	-0.009085801
88	0x3c3737b7	0.011182717
89	0xbcbc6d66	-0.023001384
90	0xbbab52cc	-0.005228376
91	0x3d2b284b	0.041786473
92	0x39b22fff	0.00033986566
93	0xbdca1a39	-0.09868283
94	0x3bfcb59b	0.0077120787
95	0x3a645b8e	0.00087111525
96	0xbc8e29c0	-0.017353892
97	0xbb553515	-0.003253286
98	0x3ea941a7	0.330579
99	0x3c1b4db9	0.00947898
100	0x3b851d1c	0.004062308
101	0x3d791786	0.06081345
102	0xb983cb59	-0.00025137773
103	0xbc0a1849	-0.008428642
104	0xbc351de0	-0.011054486
105	0xbc2df14e	-0.010616614
106	0xbe2e0569	-0.16994251
107	0x3b904f31	0.0044039716
108	0xbc615958	-0.013754211
109	0x3df01f2d	0.11724696
110	0x3d97fc6a	0.07421191
111	0xb9a471fa	-0.00031365437
112	0xbbadd084	-0.005304398
113	0xbbc1def8	-0.0059164725
114	0xbc74f7a8	-0.014951624
115	0xbbf1033d	-0.0073551224
116	0x3e628f18	0.22124898
117	0xbc204619	-0.009782338
118	0x3c4db62d	0.012555641
119	0x3d61b45f	0.055103656
120	0xbcd3e07d	-0.02586388
121	0x3e18f3bc	0.14936727
122	0xbda355f8	-0.079753816
123	0xbd38ba9b	-0.045099836
124	0x3d38d9a7	0.045129444
125	0x3d0af3de	0.033923976
126	0xbb17d28c	-0.0023166267
127	0xbe007e5d	-0.12548204
128	0xbdfceb1f	-0.12349533
129	0xbc11bd49	-0.008895227
130	0xbc69527e	-0.014240859
131	0xbd124650	-0.035711586
132	0x3a826df0	0.0009950977
133	0xbbd5399a	-0.006507111
134	0x3e075730	0.13216853
135	0xbdd02de1	-0.10165001
136	0x3d58e2f3	0.05295081
137	0xbbe7fd0f	-0.0070797275
138	0x3e144d69	0.14482655
139	0x3bc5a777	0.0060319263
140	0xbe168789	-0.1470014
141	0xbad52e8d	-0.0016264484
142	0x3d94c068	0.07263261
143	0x3d477878	0.048698872
144	0x3da8c29f	0.08240246
145	0xbbcd7f9a	-0.006271315
146	0x3ac7d1f9	0.0015245072
147	0x3c6edc44	0.014578883
148	0xbdd08707	-0.101820044
149	0x39b4c413	0.00034478362
150	0xbe15565a	-0.14583722
151	0x3c18c58a	0.009324441
152	0xbe6b30bc	-0.2296781
153	0xbf2cdce6	-0.67524564
154	0xbb809b1d	-0.003924741
155	0xbb5089d8	-0.0031820443
156	0xbd2cfad7	-0.042231407
157	0x3a66f932	0.00088109367
158	0x3db5f3fd	0.08884428
159	0xbb5a99d6	-0.0033355854
160	0x3b68bffd	0.0035514825
161	0x3be70573	0.00705021
162	0x3be28234	0.006912494
163	0xbdd212d6	-0.10257499
164	0xbb2cc1a7	-0.0026360543
165	0x3a9318a6	0.0011222556
166	0x3c2e3cb0	0.010634586
167	0x391a96f8	0.00014742825
168	0x3e9098bf	0.28241536
169	0x3ad9cf39	0.0016617543
170	0x3be2dcc3	0.0069232895
171	0x3aeb4ac5	0.001795136
172	0x3d1b6b23	0.03794397
173	0xbb807985	-0.0039207363
174	0xbc06ea0b	-0.008234511
175	0x3c2dbe5a	0.010604465
176	0x3d6de023	0.05807508
177	0x3cf87c62	0.030332748
178	0xbe4bc5c8	-0.19899666
179	0xbe080d7e	-0.13286397
180	0x3de14f99	0.1100151
181	0x3c0f00bd	0.008728203
182	0xbb610b13	-0.0034338876
183	0xbbe52f14	-0.0069941375
184	0xbb968950	-0.0045940056
185	0x3ca148b1	0.019687982
186	0x3c187de0	0.009307355
187	0xbdadd21b	-0.0848734
188	0xbb6b716c	-0.003592576
189	0xb982c316	-0.00024940883
190	0xbc978ba5	-0.018499205
191	0x3a492911	0.0007673661
192	0xbd1f56f5	-0.038901288
193	0x3b97b98c	0.004630273
194	0xbc5c71de	-0.013454882
195	0xb9f6ffe5	-0.00047111433
196	0x3beb5703	0.0071820035
197	0x3bf945c2	0.0076071927
198	0x3e46c7dc	0.19412178
199	0xbaa3adf2	-0.0012487753
200	0x3e1a1285	0.15046127
201	0xbd7a87e5	-0.061164755
202	0xbc1ea537	-0.009682945
203	0x3bcee512	0.0063139284
204	0xb9b2ce58	-0.00034104544
205	0x3a954caa	0.0011390646
206	0xbb827125	-0.003980773
207	0xbd50d2d7	-0.050982323
208	0xbb3929fa	-0.002825378
209	0x3d3440bd	0.04400705
210	0xbab7a7ce	-0.0014011802
211	0x3e06234c	0.13099402
212	0x3bb0ccde	0.005395516
213	0xbac8d013	-0.00153208
214	0x3bc7eddc	0.006101353
215	0x3b17ca64	0.0023161406
216	0x3c4747b3	0.0121630905
217	0x3dd2a20a	0.10284813
218	0xbbd3b7bb	-0.0064611114
219	0xbea0c23d	-0.31398192
220	0x3c055559	0.008138024
221	0xbdf6480f	-0.12025463
222	0xbc1f2b84	-0.009714965
223	0xbb222c55	-0.0024745662
224	0x3bdad2bc	0.0066779535
225	0xbb9ed1fa	-0.0048468085
226	0x3ee47767	0.44622347
227	0x3aaae2fb	0.0013037616
228	0x3c519524	0.012791906
229	0xbdf7244a	-0.120674685
230	0xb9ce0395	-0.0003929405
231	0xbb0aca03	-0.0021177537
232	0x3c8a2739	0.016864406
233	0xbb039c7a	-0.002008228
234	0xbe9751a4	-0.29554474
235	0x3c1e155e	0.009648649
236	0xbab9ff83	-0.0014190528
237	0x3e8097ed	0.2511591
238	0x3d44d836	0.048057757
239	0xbc3702f1	-0.011170135
240	0x3a233d6d	0.00062271097
241	0xbb231432	-0.0024883864
242	0xbe47e9c0	-0.19522762
243	0xbdc42d7a	-0.095789865
244	0xbe1e72a4	-0.1547342
245	0x3c02c1a7	0.007980741
246	0x3abad4e9	0.0014254126
247	0x3dd3f639	0.103496976
248	0xbeba0f4f	-0.36339805
249	0xbe4fd371	-0.20295502
250	0x3d72f072	0.059311338
251	0x3e2bf785	0.1679364
252	0xbdffc278	-0.12488264
253	0xbca11c9f	-0.019666968
254	0xbbdba846	-0.0067034094
255	0x3ccfaf82	0.025352243

actor.4.bias f4 [4]
0	0x3ea44cd2	0.3208986
1	0x3efd327f	0.49452588
2	0x3f13741a	0.5759903
3	0x3ed51eb9	0.41625002

critic.0.weight f4 [128, 17]
0	0x3e387c96	0.18016276
1	0xbf85a183	-1.0439914
2	0xc0912408	-4.5356483
3	0xbef8e90a	-0.48615295
4	0x401273a5	2.2883084
5	0x3f75e303	0.9604952
6	0x3dc7dd46	0.097590014
7	0x3f30b9b0	0.69033337
8	0x400aa2da	2.1661897
9	0xbe80ddc9	-0.2516921
10	0x3e708919	0.23489799
11	0x3e75577a	0.23959151
12	0xbe33b640	-0.17549992
13	0xbe93b959	-0.28852347
14	0xbdc08529	-0.09400398
15	0xbeaf6fa2	-0.34264857
16	0xbefceb80	-0.49398422
17	0xc1017102	-8.09009
18	0xbf7dadf6	-0.9909357
19	0xc03ff0b7	-2.999067
20	0xbf6100fd	-0.87892133
21	0x3f31d19c	0.69460464
22	0xc00434be	-2.0657191
23	0xbe9c5b8d	-0.30538598
24	0x3fd4ec31	1.663458
25	0x3ef1e98d	0.47248498
26	0x3e31964c	0.1734249
27	0xbd759eae	-0.059965782
28	0xbd2aef62	-0.0417322
29	0xbe84eb2d	-0.25960675
30	0xbd0f6708	-0.035010368
31	0x3c8b569e	0.017009076
32	0xbe22483d	-0.15847869
33	0x3dfec198	0.12439269
34	0x3fa8e064	1.3193479
35	0x3fb70c3d	1.430061
36	0xc007d226	-2.1222014
37	0x3f3c124f	0.73465437
38	0xbfb2d0ee	-1.397001
39	0x3fd3455b	1.6505541
40	0xbb62d6c6	-0.0034612878
41	0xbec29cca	-0.38010246
42	0x3de8ccc1	0.11367179
43	0xbda54570	-0.08069885
44	0xbf103946	-0.5633739
45	0xbd71c368	-0.059024245
46	0xbe707716	-0.23482928
47	0x3ecf0641	0.4043446
48	0x3ebd19d6	0.36933774
49	0x3f07a4d6	0.52985895
50	0x3f43985d	0.7640436
51	0x3e78755d	0.2426352
52	0xbfe63ca9	-1.7987262
53	0xbffe1b07	-1.9851998
54	0xbf235a9f	-0.6381015
55	0xc04961de	-3.1465983
56	0x407b01eb	3.921992
57	0xbfaa970b	-1.3327345
58	0x3f235cac	0.6381328
59	0xbf34e692	-0.7066432
60	0xbf8b3523	-1.0875591
61	0x3ea43089	0.3206828
62	0x3ccc24fc	0.02491998
63	0xbd9fa2e7	-0.07794743
64	0x3e54eb59	0.20792903
65	0x3e63a77f	0.22231863
66	0x3eac99e3	0.33711156
67	0x3e875b57	0.26436874
68	0x3f6750df	0.90357774
69	0x3f56d35e	0.8391627
70	0xbf8e3111	-1.1108724
71	0xbf2bbde4	-0.67086625
72	0xc001449e	-2.019813
73	0x400397a1	2.0561297
74	0xc00321a8	-2.0489292
75	0xbf5a159d	-0.8518923
76	0xbf69dedc	-0.9135568
77	0x3f99d749	1.2018825
78	0x3fba0156	1.4531658
79	0x408905e4	4.281969
80	0x3f934595	1.150561
81	0x3e58ea80	0.21183205
82	0xbebfb994	-0.37446272
83	0x3c576e2f	0.013148828
84	0xbd3880c6	-0.045044683
85	0x3f97297e	1.1809537
86	0x3fbd1567	1.4772156
87	0x408d6887	4.4190097
88	0xbf44219a	-0.7661377
89	0xbefeb899	-0.49750212
90	0x3f252aa5	0.64518195
91	0x3f5c83a0	0.86138344
92	0x4020987f	2.5093076
93	0x3fff7ca2	1.995991
94	0xbf2aba87	-0.6669087
95	0xbe0a41d5	-0.13501675
96	0x3e0251e0	0.12726545
97	0xbda819e4	-0.08208063
98	0x3da9a5d1	0.0828358
99	0x3e28b65c	0.16475815
100	0x3e823c02	0.25436407
101	0x3eab1b2d	0.3341917
102	0xbfbd161b	-1.4772371
103	0xc0957dc2	-4.6716013
104	0xc0618aa9	-3.5240881
105	0xbe797322	-0.24360326
106	0x3e1567e1	0.14590408
107	0x40854077	4.1641192
108	0x3ec9bf9f	0.39404008
109	0x3eff77c5	0.49896064
110	0x3f02b5c9	0.5105863
111	0xba277655	-0.0006388177
112	0xbd88522a	-0.066562966
113	0xbe4a84e4	-0.19777256
114	0x3f2aae06	0.6667179
115	0x3e6716cf	0.22567295
116	0x3e2bd7dc	0.16781563
117	0x3e8c9c1f	0.2746286
118	0x3dd47d25	0.10375432
119	0x3e944368	0.28957677
120	0xc01307cf	-2.2973516
121	0x40e06298	7.0120354
122	0x3dfdb262	0.123875394
123	0xbf1bce8f	-0.6086206
124	0x4026a0a7	2.6035554
125	0x403a9da8	2.9158726
126	0xbe9e0e4f	-0.30870292
127	0xbfb02968	-1.3762636
128	0x3dce0195	0.100588955
129	0xbc09cd87	-0.008410818
130	0xbf07d680	-0.53061676
131	0x3e8be564	0.2732345
132	0xba16418b	-0.00057318126
133	0x3d87a74e	0.06623708
134	0xbd401516	-0.04689511
135	0x3ce1e810	0.027576476
136	0xbf672428	-0.90289545
137	0x40377b5d	2.8669045
138	0x3f119dae	0.56881225
139	0xbf4e3a6a	-0.8055788
140	0xbf19f71e	-0.60142696
141	0x3f95ff75	1.1718584
142	0x3e30d405	0.17268379
143	0x3ede2e8c	0.43394887
144	0xbf535a2d	-0.8255947
145	0xbdc89659	-0.097943015
146	0x4002e62f	2.0452993
147	0x40115131	2.2705805
148	0xc0163388	-2.3468952
149	0xbd8f01b8	-0.0698275
150	0xbd2da3a4	-0.042392388
151	0x3d46121f	0.048357125
152	0xbd200986	-0.039071582
153	0xc039737c	-2.8976736
154	0x3f2c84df	0.67390245
155	0x4115b0b8	9.355644
156	0x3d965db9	0.07342095
157	0xbf942bf9	-1.1575919
158	0x3fe9e32b	1.8272451
159	0x3f9a9449	1.2076503
160	0xbe46af7f	-0.19402884
161	0xbfd4eeaf	-1.663534
162	0x3dd755f7	0.10514443
163	0x3e312d70	0.1730249
164	0x3da70fb5	0.08157293
165	0xbc98fe81	-0.018676044
166	0x3e6e1fc4	0.23254305
167	0x3e300a0e	0.17191336
168	0x3ea01b59	0.31270865
169	0x3e275f7e	0.16345021
170	0xbef42700	-0.47686005
171	0x3fe738ee	1.8064249
172	0x3fddc41e	1.7325475
173	0x3ed7529e	0.4205522
174	0x3fc6a45f	1.5518912
175	0xbf4b7e97	-0.79490036
176	0xbfd4eef3	-1.6635422
177	0x3e88cb50	0.26717615
178	0x3ef0c791	0.47027257
179	0xc01ff4e7	-2.4993227
180	0x3fbb3af0	1.4627361
181	0x401e11bc	2.4698324
182	0x4073515c	3.8018408
183	0x3ed88ade	0.42293447
184	0x3c9441e4	0.018097825
185	0x3dc1dd1f	0.094660036
186	0x3e9e2c4d	0.30893174
187	0x3ff002a1	1.8750802
188	0xbfe4fd8f	-1.788988
189	0x3fb74ae1	1.4319726
190	0xbf9ca6d7	-1.2238415
191	0x3fcc5e95	1.5966364
192	0x3f89fcbb	1.0780252
193	0xbf2d1a60	-0.6761837
194	0x3fb1ab20	1.3880348
195	0xbe61f0c2	-0.22064498
196	0x3fc49809	1.5358897
197	0x3dbb4998	0.09144896
198	0xbe3a8a28	-0.18216765
199	0xbd9db69d	-0.07700846
200	0x3af02943	0.0018322844
201	0x3d9096a1	0.0705998
202	0xbd61e23e	-0.055147402
203	0xbe5cbaa0	-0.21555567
204	0x3f8ab1ff	1.083557
205	0x3fbf3b76	1.4940021
206	0xc037978f	-2.8686254
207	0x3bc3a836	0.00597098
208	0x3fc1d87f	1.5144194
209	0xbe884774	-0.26617014
210	0xbda48094	-0.08032337
211	0xbfac8415	-1.3477808
212	0x4027dfc5	2.6230328
213	0x3ffd7668	1.980176
214	0xc031584f	-2.771015
215	0xbe51cbbf	-0.20487879
216	0x3fa96909	1.3235179
217	0xbd174ddf	-0.036939498
218	0xbe00fb2a	-0.12595811
219	0xbbc4b11b	-0.006002558
220	0x3d34b78a	0.04412035
221	0xbfacf3ff	-1.3511962
222	0x3f818d15	1.012118
223	0x41280510	10.501236
224	0xbf654030	-0.8955107
225	0xbf1f46af	-0.6221723
226	0x3f866fe3	1.0502895
227	0xbffdd417	-1.983035
228	0x3f39479e	0.72374904
229	0xbf35e860	-0.710577
230	0xbdc73713	-0.097273014
231	0xbe13edc3	-0.14446168
232	0x3e86f3f0	0.26357985
233	0xbf32a009	-0.69775444
234	0xbe4a234c	-0.19740027
235	0xbd6a5a09	-0.05721477
236	0xbe4ab235	-0.19794543
237	0xbe5781c2	-0.21045592
238	0x3f8d7b0b	1.1053175
239	0xbe3e2cf8	-0.18571842
240	0xc0324ae1	-2.7858202
241	0x3d4d7afb	0.05016611
242	0xc011de94	-2.27921
243	0x3fe4f8be	1.788841
244	0xc014c30e	-2.3244052
245	0xbfb63923	-1.4236187
246	0xbf6f038b	-0.9336478
247	0xbde37089	-0.11105449
248	0x3f840732	1.0314696
249	0x3f532a3d	0.82486326
250	0xbf979c72	-1.1844618
251	0x3e125627	0.14290677
252	0x3d8b2434	0.067940146
253	0x3eac0fed	0.336059
254	0x3daa8076	0.08325283
255	0xc0aace21	-5.337662

critic.0.bias f4 [128]
0	0xbf4d1802	-0.8011476
1	0xbf1261fe	-0.57180774
2	0xbdda5115	-0.106599964
3	0xbdd6b8bc	-0.10484454
4	0x3d0f076d	0.03491919
5	0xbf55d7d8	-0.83532476
6	0xbf012298	-0.5044341
7	0xb9be6e05	-0.00036321595
8	0xbf23dde5	-0.6401046
9	0x3f2be65e	0.6714839
10	0x3c473018	0.012157463
11	0xbfa8d94f	-1.3191317
12	0x3eab3138	0.33435988
13	0xbebd2dd4	-0.36949027
14	0x3e757faf	0.23974489
15	0x3f24e1e9	0.6440721
16	0xbe5ea735	-0.21743472
17	0xbedbd311	-0.42934468
18	0x3d8ba91f	0.06819367
19	0xbee8ff6f	-0.4550738
20	0xbeae93a0	-0.34097004
21	0x3db49f4c	0.08819446
22	0x3e36a0b8	0.17834747
23	0x3e054f7d	0.13018604
24	0x3ed6bba0	0.41940022
25	0xbf6cd440	-0.9251137
26	0xbea6aa90	-0.32552004
27	0xbea19ea0	-0.31566334
28	0xbd36eee0	-0.044661403
29	0xbd1b63de	-0.037937038
30	0xbe5cfd6b	-0.21581046
31	0xbdb2f5c2	-0.08738281
32	0xbe735ca6	-0.23765811
33	0xbe5cbfc9	-0.21557535
34	0xbf7c3e2a	-0.98532355
35	0xbeec845f	-0.4619474
36	0x3e269752	0.16268662
37	0x3ea2a42f	0.31765887
38	0x3dd008b2	0.101579085
39	0x3d4be0c8	0.049774915
40	0x3e90cbab	0.28280386
41	0xbec2a2f3	-0.38014945
42	0x3e49c43a	0.1970376
43	0x3e6ec686	0.23317918
44	0xbdd6c30c	-0.10486421
45	0xbe51d111	-0.20489909
46	0xbed32c53	-0.41244754
47	0xbf5f426c	-0.87210727
48	0xbdf483cf	-0.11939203
49	0x3f344442	0.70416653
50	0xbb1dc528	-0.0024073813
51	0xbf130274	-0.5742562
52	0x3e25edc9	0.16203989
53	0x3ce1cfef	0.02756497
54	0x3ddee7f3	0.108840846
55	0x3ee9d516	0.45670384
56	0xbf1fe571	-0.62459475
57	0xbf8b085d	-1.0861927
58	0x3de26077	0.110535555
59	0xbdf55a37	-0.11980098
60	0x3cfc717c	0.030815832
61	0x3e305cae	0.17222854
62	0xbf3f0e6b	-0.74631375
63	0xbe523760	-0.20528936
64	0xbd9e3800	-0.07725525
65	0x3e0bc8e8	0.13650858
66	0x3e668d29	0.22514786
67	0x3f178b16	0.59196603
68	0xbdb60ed5	-0.08889548
69	0xbf7c78ab	-0.98621625
70	0xbe3c7864	-0.184053
71	0x3e78495e	0.24246737
72	0x3ed5b879	0.41742304
73	0xbdb0e2a8	-0.08636981
74	0x3ec44c76	0.38339585
75	0x3f2200b2	0.6328231
76	0x3de3a437	0.11115306
77	0xbe8a040c	-0.26956213
78	0xbbfb8583	-0.007675828
79	0x3d5c20b4	0.053742126
80	0xbd98295c	-0.07429764
81	0xbd5990ab	-0.05311648
82	0xbf160d4f	-0.5861406
83	0xbed2cb6c	-0.41170824
84	0xbea20ade	-0.31648916
85	0x3e176f1e	0.14788482
86	0x3f08e8c0	0.5348015
87	0xbdc4dae5	-0.09612063
88	0xbaa5325f	-0.0012603513
89	0x3db9b08a	0.09066875
90	0x3df08e82	0.11745931
91	0xbf2111e5	-0.6291793
92	0x3eca79e2	0.39546114
93	0xbf494927	-0.78627247
94	0xbd2c5ffd	-0.04208373
95	0xbede6eb0	-0.43443823
96	0x3e2fea47	0.17179213
97	0x3f18b89b	0.59656686
98	0x3e961093	0.2930952
99	0x3eaa3ad7	0.33248016
100	0xbde9ac7e	-0.114098534
101	0xbee5edbe	-0.44907945
102	0x3e4abdda	0.19798985
103	0x3dd40132	0.103517905
104	0xbee9e8df	-0.4568548
105	0xbe873452	-0.26407105
106	0x3f5704bd	0.83991605
107	0xbf20959f	-0.62728304
108	0x3f23b565	0.6394866
109	0xbf0b0047	-0.542973
110	0xbe913aec	-0.28365266
111	0x3ef270b0	0.473516
112	0x3ef31e3d	0.47484007
113	0xbe52c596	-0.20583186
114	0x3e0e486d	0.13894816
115	0x3f1de389	0.61675316
116	0x3e21db2f	0.15806268
117	0xbe429310	-0.19001412
118	0xbeb32391	-0.34988073
119	0x3f072d83	0.5280382
120	0x3d1ed931	0.03878135
121	0xbec27835	-0.37982336
122	0xbe7e5769	-0.24838032
123	0x3efcd9eb	0.49385008
124	0xbeb0be26	-0.34520072
125	0xbc96a219	-0.018387841
126	0x3e1baefe	0.15203473
127	0xbf5b5710	-0.8567972

critic.2.weight f4 [128, 128]
0	0x3fd5b23f	1.6695021
1	0xbebccbb0	-0.3687415
2	0xbf57f179	-0.84352833
3	0xbfaba551	-1.3409826
4	0x3e00b98a	0.12570778
5	0xbec1a134	-0.378183
6	0x3e832925	0.25617328
7	0xbf672291	-0.9028712
8	0x3f2d5f70	0.6772375
9	0xbfb41aae	-1.4070642
10	0x3f12c72e	0.57335174
11	0xbeef4fa7	-0.46740457
12	0x3e61d61b	0.22054331
13	0xc0239ef1	-2.556576
14	0xbf437cb1	-0.7636214
15	0x3f89c1e9	1.0762302
16	0x3f6b0b83	0.9181444
17	0x3f2341cc	0.63772273
18	0x3ebce1c2	0.3689099
19	0xbf43c6e7	-0.76475376
20	0xbe29e96b	-0.16592948
21	0x3f528c72	0.8224555
22	0xbe95f737	-0.29290172
23	0x3f4c1488	0.7971883
24	0xbed856ea	-0.4225381
25	0x3f5e953c	0.86946464
26	0x3f4eabd1	0.8073092
27	0xbf174de6	-0.5910324
28	0x3da94535	0.08265153
29	0xbfaa0994	-1.3284173
30	0xbf6062ba	-0.87650645
31	0x3f0c356a	0.54769003
32	0xbf1d6edd	-0.6149729
33	0x3f6ad700	0.91734314
34	0x3e689c3d	0.2271585
35	0xbceb6b9b	-0.028737834
36	0x3f2ee710	0.68321323
37	0xbb3f3a92	-0.0029179198
38	0x3f49185c	0.78552794
39	0x3c6fbf55	0.014633019
40	0xbedaffc9	-0.42773274
41	0x3fc58291	1.5430471
42	0x3e7bf432	0.24604872
43	0x3eb82732	0.35967404
44	0xbf7fc964	-0.9991667
45	0x3fafdc3a	1.3739083
46	0xbe96a245	-0.29420677
47	0x3f09e624	0.5386679
48	0xbf736df4	-0.9508965
49	0x3f8a656f	1.0812205
50	0x3eb5755f	0.3544111
51	0x3f3f2c33	0.7467682
52	0x3f8b131f	1.086521
53	0xbfa1dd07	-1.2645577
54	0xbee2eed0	-0.44322824
55	0xbf3c6304	-0.73588586
56	0xbf1aa2cd	-0.60404664
57	0x3fa54a9a	1.2913392
58	0xbe88b60f	-0.267014
59	0x3f832ef9	1.024871
60	0x3f88c1c4	1.0684133
61	0x3fc26c00	1.5189209
62	0x3e33eb4d	0.17570229
63	0x3f47dc64	0.78070664
64	0xbfef5752	-1.8698523
65	0xbf5143d6	-0.81744134
66	0xbe38fd23	-0.18065314
67	0xbf56420f	-0.8369455
68	0xbf2da16b	-0.6782443
69	0xbeb8c9d0	-0.3609147
70	0xbf0f6d84	-0.5602648
71	0x3f60a235	0.8774751
72	0x3e864c2c	0.2622999
73	0x3e9c50f6	0.30530518
74	0xbf9291ac	-1.1450706
75	0x3eb61a1a	0.3556679
76	0x3c639c26	0.013892209
77	0x3f5257fe	0.82165515
78	0x3f163ad3	0.5868351
79	0xbee77f77	-0.45214435
80	0xbfd0cff1	-1.6313459
81	0xbd16d501	-0.03682423
82	0x3fb725e6	1.4308441
83	0xbf3123b1	-0.69195086
84	0xbfe86582	-1.8155978
85	0x3da5175a	0.080610946
86	0x3f2a0727	0.66417164
87	0xbf21e6a2	-0.6324254
88	0xbee91e8c	-0.45531118
89	0x40069dbd	2.1033776
90	0x3fd35dbf	1.6512984
91	0xbded5c19	-0.11589832
92	0x3ec94e3a	0.39317495
93	0x3f8d2de1	1.1029626
94	0x3e326ed4	0.1742509
95	0x3dff7162	0.12472798
96	0x3f9768b5	1.1828829
97	0x3f283484	0.6570513
98	0xbebc9ddb	-0.36839184
99	0x3f8da6b4	1.1066499
100	0x3f3471fd	0.7048643
101	0x3e9a8122	0.30176646
102	0xbfaddd80	-1.3583221
103	0x3fabeb41	1.3431169
104	0xbe6747c9	-0.22585978
105	0xbf3256bc	-0.69663596
106	0xbf2f6964	-0.6852019
107	0x3f4cfee5	0.8007644
108	0x3f42da5a	0.7611443
109	0xbf4642c2	-0.77445614
110	0xbf4741dc	-0.7783487
111	0x3f5bf6dc	0.8592355
112	0x3eeed2fd	0.46645346
113	0x3e8258e2	0.25458437
114	0xbecc03e2	-0.39846712
115	0xbe9f71ce	-0.31141514
116	0x3f2a3026	0.6647972
117	0x3f73f2d2	0.9529239
118	0x3de8083d	0.11329696
119	0xbd06d038	-0.032913417
120	0xbfaab9df	-1.3337973
121	0xbf123ed6	-0.5712713
122	0x3f0c22e9	0.5474077
123	0x3f51d223	0.8196127
124	0x3e41bffd	0.18920894
125	0xbc26f0aa	-0.010189215
126	0xbf69ef58	-0.91380835
127	0x3fb90043	1.4453205
128	0x3f5fd383	0.87432116
129	0x3f690ec3	0.9103815
130	0xbe2c4a33	-0.1682518
131	0xbf141f99	-0.57860714
132	0xbf7686db	-0.96299523
133	0x3fac7357	1.3472699
134	0xbe9c37dc	-0.30511367
135	0xbef53186	-0.47889346
136	0xbd7fb37e	-0.062427036
137	0xbfe1a2b3	-1.7627777
138	0xbfc8ce7b	-1.5688013
139	0xbdc894b1	-0.09793986
140	0x3ea1a3c3	0.31570253
141	0xbfad5406	-1.3541267
142	0xbf54dc6d	-0.83148843
143	0xbeb1ad83	-0.3470269
144	0x3f8049ae	1.0022485
145	0x3ff83b3f	1.939308
146	0x3fb9674a	1.4484646
147	0x3f8352d2	1.025965
148	0x3f9a4384	1.2051854
149	0xbdd8195c	-0.10551712
150	0xbeb401fd	-0.35157767
151	0xbdeb3ce3	-0.114862226
152	0x3e6f11cf	0.23346637
153	0x3fd616e9	1.6725742
154	0x3da88ca3	0.08229949
155	0xbe4d128e	-0.2002661
156	0xbed8939b	-0.42300114
157	0x3c956b91	0.018239768
158	0xbeca502a	-0.39514285
159	0x3e7c4d22	0.24638799
160	0x3f2217ca	0.6331755
161	0x3fa9173e	1.3210218
162	0xbf15e57c	-0.5855329
163	0xbee38b99	-0.44442442
164	0xbf91c1a2	-1.1387217
165	0x3e27bbd5	0.16380246
166	0x3f648188	0.8926015
167	0x3e88d52f	0.26725146
168	0xbf36f740	-0.71471024
169	0x3f795f6f	0.97411245
170	0x3e7b7101	0.24554826
171	0xbf25e0e4	-0.6479628
172	0xbf9594d3	-1.1686043
173	0x3edc34d7	0.43009064
174	0xbfc85e7a	-1.5653832
175	0x3fa7e558	1.3116865
176	0x3eda82f8	0.42678046
177	0xbe8e17d8	-0.27752566
178	0x3f4e213c	0.8051946
179	0x3fef1e5d	1.8681141
180	0x3edf6e6b	0.4363893
181	0x3f58d2dc	0.84696746
182	0xbf155618	-0.58334494
183	0xbee62a10	-0.44953966
184	0xbf0a8477	-0.54108375
185	0x401b968d	2.431064
186	0xbde53659	-0.111920066
187	0x3fbb6ed2	1.4643195
188	0xbf4842d8	-0.78226995
189	0x3df55627	0.11979323
190	0x3f46fb85	0.7772754
191	0x3d3635c5	0.044484872
192	0xbfa6c396	-1.3028438
193	0xbd9ee0f0	-0.07757747
194	0x3f9b5236	1.2134464
195	0xbf035c63	-0.51312846
196	0xbf2830db	-0.6569955
197	0x3ecbdb4f	0.39815757
198	0x3fb32e8d	1.3998581
199	0xbfd6d2bb	-1.678306
200	0xbe3ac40f	-0.18238853
201	0xbdf8f09d	-0.12155268
202	0xbfa23f6d	-1.2675606
203	0x3e2783c6	0.16358861
204	0x3fbce944	1.4758687
205	0x3f30001f	0.68750185
206	0xbea3d62f	-0.31999347
207	0xbf6b5dd7	-0.91940063
208	0xc00cb66a	-2.1986337
209	0xbf7ca6ba	-0.98691905
210	0x3f40f5e0	0.75375175
211	0x3f4f88ab	0.81067914
212	0x3dbe5331	0.09293211
213	0xbe936c9b	-0.28793797
214	0xbeef717c	-0.4676627
215	0xbdb5ca15	-0.08876435
216	0x403d507b	2.9580371
217	0x3fdd090d	1.7268387
218	0xbfc41e28	-1.5321703
219	0x3fbb379d	1.4626347
220	0x3f9ddfea	1.2333958
221	0x4014384a	2.3159356
222	0x3f546c24	0.8297751
223	0x3f32938b	0.6975638
224	0x3f08056f	0.5313329
225	0xbf1452a5	-0.57938606
226	0xbe9d867d	-0.3076667
227	0xbf5f3cde	-0.8720225
228	0xbe98121c	-0.29701316
229	0x3fbb26d7	1.4621228
230	0xbf8bb89b	-1.0915712
231	0x3ec27295	0.37978044
232	0xbd0776b5	-0.033072192
233	0xbf922153	-1.141642
234	0xbfff28a6	-1.993428
235	0x3fc0606a	1.5029423
236	0xbedf06be	-0.4355983
237	0x3d9b88eb	0.075944744
238	0x3f4bb2dd	0.795698
239	0xbf52faa1	-0.8241368
240	0x3efe1cb1	0.49631265
241	0x3f4d042d	0.80084497
242	0xbfaef5e4	-1.366879
243	0xbf047f8c	-0.5175712
244	0xbd9fa1c5	-0.07794527
245	0xbefe6eaf	-0.4969382
246	0x3f676fd7	0.9040503
247	0xbf1b66c9	-0.6070371
248	0xbf441e38	-0.7660861
249	0x3e92165f	0.28532693
250	0x3e80cde9	0.25157097
251	0x3efe7064	0.49695122
252	0xbec7619b	-0.38941655
253	0xbfcd1c11	-1.602419
254	0x3dfe5e25	0.124203004
255	0xbb98bb87	-0.004661027

critic.2.bias f4 [128]
0	0xbf44751f	-0.7674121
1	0xbe808ab3	-0.2510582
2	0x3e5f7fb0	0.21826053
3	0x3edc791f	0.43061158
4	0x3df41fea	0.119201496
5	0x3e8acbc2	0.2710858
6	0xbed4755e	-0.41495794
7	0xbe44ee90	-0.1923163
8	0x3cec65a0	0.028857052
9	0xbf17a39c	-0.59234023
10	0xbf06276a	-0.5240389
11	0x3e287a83	0.16452985
12	0x3e3c17c5	0.18368442
13	0xbe9ecec6	-0.3101713
14	0x3f1ac5c0	0.6045799
15	0xbe3aef5a	-0.18255368
16	0x3f190c7b	0.5978467
17	0xbe57783c	-0.2104196
18	0x3de44b90	0.11147225
19	0x3e18084f	0.1484692
20	0xbda25fdf	-0.07928442
21	0x3efbaef9	0.4915693
22	0x3cdd033f	0.026979087
23	0x3f294bcf	0.661313
24	0xbe256e9a	-0.16155472
25	0xbefd0da9	-0.49424484
26	0x3eb0a61c	0.3450173
27	0xbebd90c7	-0.3702452
28	0xbe63b142	-0.22235587
29	0xbef1d1e9	-0.4723046
30	0xbe0acf63	-0.13555674
31	0xbf1df702	-0.6170503
32	0x3f75a250	0.95950794
33	0x3f1a5f00	0.6030121
34	0xbd7d9a33	-0.061914634
35	0x3daeea89	0.08540828
36	0x3e111af8	0.14170444
37	0x3f0fb9a3	0.56142634
38	0x3ec94678	0.39311576
39	0xbe317024	-0.17327935
40	0x3d21706a	0.039413847
41	0xbd3346d3	-0.043768715
42	0xbdb88855	-0.09010378
43	0xbc0eb9f7	-0.00871133
44	0xbea70890	-0.3262372
45	0x3e9ca962	0.3059798
46	0x3ea0385e	0.31293005
47	0xbe358d0f	-0.17729591
48	0xbe14c914	-0.1452983
49	0xbe5f84e6	-0.2182804
50	0xbef4067c	-0.47661197
51	0xbe775945	-0.24155147
52	0x3f3e1915	0.7425702
53	0xbdf2b0cb	-0.11850127
54	0xbd8590d4	-0.065217644
55	0x3efc3447	0.49258634
56	0x3f220d11	0.6330119
57	0x3d823a2d	0.063587524
58	0xbebfde61	-0.3747435
59	0x3ebb8571	0.36625245
60	0xbf20ac96	-0.62763345
61	0x3e726394	0.23670799
62	0xbeccdbe9	-0.40011528
63	0xbe6bfe52	-0.23046234
64	0x3ca62375	0.02028058
65	0xbee9469b	-0.4556168
66	0x3ee09d46	0.4386999
67	0x3ebff573	0.3749195
68	0xbcd3f1ae	-0.025872078
69	0xbea18f44	-0.31554615
70	0x3ef7de91	0.48411992
71	0x3e4ad857	0.1980909
72	0x3f765038	0.96216154
73	0x3f227f05	0.63475066
74	0x3ed4ba54	0.41548407
75	0xbecb7adf	-0.3974218
76	0xbe19aee0	-0.15008116
77	0x3d3eda4b	0.0465949
78	0x3f91c467	1.1388062
79	0x3ee983d7	0.45608398
80	0xbf07e88a	-0.530892
81	0x3dbcc9ac	0.09218153
82	0x3f216de2	0.6305829
83	0xbe58b5ac	-0.21163052
84	0xbc194b8e	-0.009356393
85	0xbdbc7212	-0.09201445
86	0x3eff0695	0.4980971
87	0x3df689c5	0.12037996
88	0xbe21112a	-0.15729204
89	0xbe5cd78e	-0.21566603
90	0xbf033c43	-0.5126383
91	0x3e914b51	0.28377774
92	0xbf0df464	-0.55451035
93	0x3f45091b	0.7696702
94	0xbf321b83	-0.6957323
95	0x3da72888	0.081620276
96	0xbf1184aa	-0.56843054
97	0x3f2ad288	0.66727495
98	0x3e9fa1e5	0.31178203
99	0xbba8c307	-0.005150202
100	0xbde3d762	-0.111250654
101	0xbecaa7d8	-0.3958118
102	0xbf0dfc4c	-0.554631
103	0xbefb6f99	-0.4910858
104	0x3f410455	0.75397235
105	0x3ef7c9d3	0.48396167
106	0x3e709ded	0.23497744
107	0x3d164def	0.036695417
108	0xbef3fb1d	-0.47652522
109	0x3be4b7e3	0.006979929
110	0x3f022da5	0.508509
111	0xbf0d1186	-0.55104864
112	0x3e9367b4	0.28790057
113	0xbea71d43	-0.32639512
114	0x3cfd2b51	0.030904444
115	0xbee40d2c	-0.445413
116	0x3f2865b1	0.6578017
117	0x3e2e6e39	0.17034234
118	0xbf2a0260	-0.66409874
119	0x3f1b975f	0.6077785
120	0x3f89e27f	1.0772246
121	0x3ec03af9	0.37544993
122	0xbe691bae	-0.22764465
123	0xbea4b3ad	-0.32168332
124	0xbe8dd2cc	-0.27699888
125	0x3ec7c9ab	0.39021048
126	0x3f0ebc3a	0.5575596
127	0xbead5d6c	-0.33860338
