examples/drone/logs/drone-racing/model_1000.pt (torch, 474978 bytes, 36 tensors)

std f4 [4]
00000000: e91a 733e ce4d 3f3e ab6e 7f3e 0dcf 593e
0.23740734 0.18682024 0.2494456 0.2127039

actor.0.weight f4 [128, 17]
00000000: 961f 0740 6310 923f 15a2 0ac1 af2d ad3e
00000010: 5cd9 1ebf 01ff 7c3f fdec fa3e 750b 273f
00000020: eee1 aabd f78a c63e e480 7a3e 4a9c a2bc
00000030: 1abf 7c3e dcd4 84bd 942e 4d3c 41b2 c3bb
00000040: 7a86 b03d 2017 d73e 99e4 20bf b0ea c03f
00000050: 3ee5 c4be db03 85bf 98c9 d2bd fc52 d73d
00000060: b81a 2c3e 6362 053e e7e3 e3bd 0efd 0b3e
00000070: 036a 1a3a e7d3 78bd 9b5c 7f3e ad8e 4b3e
00000080: 4572 013e 14df dd3d 8145 81bf f8c9 18be
00000090: 68a6 4fbf 9d64 d53e d9e1 8abf 16ff 633e
000000a0: 1c29 96be 8c06 18bf 4b8a 24bf d13e bc3e
000000b0: 2ba7 8bbe ab64 5c3f c657 823e acbd 423b
000000c0: 2863 463d 90d7 fabc 1da5 ae3b 521b 2ebf
000000d0: 268c 343f ce66 3e3f 5620 d33d 1f64 02bf
000000e0: 3618 373f ca52 07bf 7d04 9f3e 90b2 1d3e
000000f0: 97af 81be 25ce 053e 0d6d bd3d e1d4 7bbe
00000100: 4a56 563e 4bda febd 9553 983c c153 303d
00000110: a593 413e e7fe edbe 3b7e 563f ba1a ebbe
00000120: 1e9b d4be 48b9 0d3e 58ce ad3e 9176 a83c
00000130: 0a05 fc3c 076f 6abc 9ed5 35be b68c 4c3d
00000140: c0c0 1f3e 42a8 183e 4a0a 8e3d 6c5c 39bd
00000150: 38d2 82bd f2c2 c03e d1f4 d0be bd51 d63f
00000160: a770 2f3c d9e3 a8bf 7f55 ffbe 1b9d a2bc
00000170: dae7 a33e 466b 163d a61e 69be 1731 893d
00000180: 5f6e 363e 44a2 53be 4d03 0bbe 9e09 4f3a
00000190: 012d b3bd ad34 28bd 4940 eabf b836 acbe
000001a0: 46df 78c0 e9a1 1b3e 9b26 92bf 96d2 713e
000001b0: 34b5 9c3d fd2a c73d 3279 e73e 5ff7 083f
000001c0: f754 eebc 41b7 173f d441 a5bd 9cc0 4bbc
000001d0: 8f56 5f3d 6eba e2bd e38a 1ebe 182b 573e
000001e0: 0e6a 823e 4db5 3440 3706 883c 881b b63e
000001f0: df2a db3e 7007 ffbe e238 d23e 4bd2 373e
00000200: 3729 03bf 96d6 2e3e 5863 8a3e fef0 0ebf
00000210: fcb6 86bd cc6c 82bd eff0 75bd 21c7 a63d
00000220: 85e0 68bd 0992 f2bc 5417 c8be 1d47 e2bd
00000230: 32c5 43be 98a1 b7bd 7c0e 44be 21cd a2bd
00000240: 131b 9d3d 1f7e 74bd 1d57 68bd eaaa 97bc
00000250: a676 2e3d 4c2e c83c 6aa2 45be d9c7 083e
00000260: 4bf9 4d3e bcb5 da3e 3a7b 13bf 8ba3 65bf
00000270: e331 103d 082f 42be 80b2 bd3f 6d8a 1240
00000280: 5513 d13e 2983 4a3f 2efc 573f a738 463d
00000290: 827e 6ebd f804 333e d71d 46bd 5975 123d
000002a0: d240 4fbd d56a 98bd 502b 23bd c6b6 0f3d
000002b0: 8de7 ae3e a307 abbe 4f09 16be cecd 893e
000002c0: d119 54bd c4dd 9cbb 3a4f 763d 94f0 b7bd
000002d0: 8118 a33c a4c5 6fbd cbcb 273d 016e 06bc
000002e0: 8118 a0bc bc34 fdbd be79 2cbd 3377 14bc
000002f0: ac1d 833f 83c3 55bf 1626 d53e 8304 95be
00000300: f9d0 173f 9771 12be a728 593f d7b4 d8be
00000310: 3e1e 0fbf 0e61 76be e765 883e 41ec 983e
00000320: 6468 a1bc c790 ce3d e166 dabd 69cf 76bd
00000330: dc77 913f 0e50 22bd 9de6 14c0 c35c c33b
00000340: a6db 30bc 10c9 c43f f2b7 033f 430c 583f
00000350: 68b3 dc3e 63cf 743f 5381 5c3c d728 603f
00000360: cb36 a63e b373 2b3d 4649 943d 28c2 17bd
00000370: 75b4 183e 4ffd 38be 524e 3ebe bdc9 233f
00000380: 913d d6be 6671 16bf 8772 7e3f a1e4 573d
00000390: 701a 883e 9879 563e 5bdb 88be 950c 783d
000003a0: 8de7 16be b26b f73d a09f 933d 0fd5 75bd
000003b0: e881 ba3d 5ee8 913c 0940 173f e3c9 33bf
000003c0: dca0 883f 7f43 51be 49fd 8dbf 238c 21bf
000003d0: fa5b 8cbc 8c97 ac3e e133 5d3e 42f5 3cbe
000003e0: 4601 0e3e dea0 06be d33b eb3b 9cff c33d
000003f0: 7597 833d c5f9 d93d ecac 6abb 1793 d33e
2.1113029 1.1411251 -8.664571 0.33823916 -0.62050414 0.98826605 0.49008933 0.6525186
-0.08343874 0.38777897 0.2446323 -0.019849915 0.24682274 -0.06485912 0.012523312 -0.0059721773
0.08619399 0.4200983 -0.6284881 1.5071621 -0.38456148 -1.0391802 -0.10292357 0.10513875
0.16807067 0.13025813 -0.11127453 0.13670751 0.0005890431 -0.06074896 0.2493767 0.19878645
0.12641247 0.108335644 -1.0099336 -0.14920795 -0.8111329 0.41678324 -1.0850173 0.22265276
-0.2932824 -0.5938499 -0.6427352 0.36766675 -0.27275977 0.8609111 0.2545759 0.0029715104
0.048434407 -0.030620366 0.0053297416 -0.6801044 0.7052635 0.7437562 0.10308902 -0.5093402
0.7152132 -0.528607 0.31058112 0.15400147 -0.25329277 0.13066919 0.092493154 -0.24592926
0.20931354 -0.1244398 0.018594543 0.043048624 0.18903978 -0.46483538 0.8378636 -0.45918828
-0.41524595 0.1384021 0.3394649 0.02056435 0.030764122 -0.014308698 -0.1775727 0.04993888
0.15600872 0.14907935 0.06935556 -0.045254156 -0.06387752 0.3764873 -0.4081178 1.6743695
0.010708011 -1.3194534 -0.49869916 -0.019850304 0.32012826 0.036723398 -0.22765598 0.06698816
0.1781554 -0.20667368 -0.13575478 0.00078978564 -0.08748818 -0.04106586 -1.8300868 -0.33635497
-3.8886275 0.15198483 -1.1418031 0.23615488 0.07651749 0.09724996 0.45209652 0.5350246
-0.029093249 0.59264 -0.08069196 -0.012436058 0.054525908 -0.11070715 -0.15482669 0.21012533
0.25471538 2.8235657 0.016604526 0.3556788 0.42806146 -0.49810362 0.41059023 0.17951314
-0.51234764 0.17074046 0.27028918 -0.55836475 -0.0657787 -0.063684076 -0.060044225 0.081434496
-0.056854744 -0.02961065 -0.39080298 -0.1104872 -0.19118193 -0.089663684 -0.1914615 -0.079492815
0.076711796 -0.05969059 -0.056723703 -0.018514115 0.04259362 0.024436139 -0.19300237 0.13357486
0.20114629 0.42716777 -0.57609904 -0.8970267 0.035203826 -0.18963253 1.4820099 2.2896988
0.40835062 0.79106385 0.8436917 0.04839387 -0.058226116 0.17482364 -0.0483683 0.035756443
-0.050598927 -0.074422516 -0.039836228 0.035086416 0.34161034 -0.33404264 -0.14651988 0.2691483
-0.051782433 -0.0047871787 0.06013415 -0.089814335 0.019909145 -0.058538094 0.040965836 -0.008204938
-0.019542934 -0.12363574 -0.04210829 -0.009061622 1.024343 -0.8350145 0.4163062 -0.29105005
0.5930324 -0.14301144 0.84827656 -0.4232547 -0.5590552 -0.24060461 0.26640245 0.29867747
-0.019703098 0.10086208 -0.10664154 -0.060256395 1.1364703 -0.039627127 -2.3265755 0.005961986
-0.010794556 1.537386 0.51452553 0.8439371 0.43105626 0.95628947 0.013458568 0.87562317
0.3246368 0.041858386 0.07240538 -0.037050396 0.14912589 -0.1806538 -0.18584564 0.63979703
-0.41843846 -0.5876678 0.99393505 0.052708272 0.2658267 0.20944822 -0.26729855 0.060558874
-0.14736767 0.12081088 0.072081804 -0.06001764 0.09106809 0.017810997 0.59082085 -0.7022993
1.067409 -0.20435904 -1.1092921 -0.63104457 -0.017133702 0.3370937 0.21601821 -0.18452933
0.13867673 -0.13147303 0.0071787625 0.09570238 0.064253725 0.10643343 -0.0035808636 0.41323158

actor.0.bias f4 [128]
00000000: 55e2 6a3d aaf3 9cbe d3d2 66be f871 d9be
00000010: dd7b 8c3e 7d3f a03d 57f0 61be 7300 72bd
00000020: d477 15bd c4ca 243d eff7 c33e b3eb 843d
00000030: 9450 373e 7d57 be3d 931e 3cbe 6397 c7be
00000040: 5bed 42bd 995d 423e 26b7 1dbe 7645 4cbe
00000050: 4ec3 af3e 58c9 03bd d3f3 993d b69d 75bd
00000060: fa8e edbd a0c8 5bbe 8656 423e 863e 943e
00000070: 7a6b 21be ad99 733d b0d8 863d 9e74 e03c
00000080: 6c03 b4be 49da a83e 0603 1f3e d5da 0ebe
00000090: dce8 dfbe 2bb3 4f3d 2485 48be 225b e0bd
000000a0: b809 283d 26ec 26be 8d36 093e 320b 7f3d
000000b0: c039 0bbe 61ec 39be 02e1 06be c49f 3bbe
000000c0: 298b 71bd 7ec7 243c be18 f83d cf7d 48be
000000d0: cc44 3b3d 84f5 3e3d 6673 c0bd 5648 413e
000000e0: 4e27 5f3e cef1 cbbe 6177 22be cb86 723d
000000f0: 521c 933e b165 9c3e a4a3 a63d 009d f3bd
00000100: 92d4 84be 31f3 853b 7a9e 283f 3ba3 b2be
00000110: 702e 163e ce09 4b3e 39d3 a5bd cdd4 f9be
00000120: b110 033e 6068 733d f020 85be bc43 3e3e
00000130: c077 cc3e a0ea b1bd 9487 303d 4a68 24be
00000140: 7e79 1abd d1fe 333e 925e 003d b2a6 f33d
00000150: 8c15 ce3d 45a0 51be 8ba2 b73d 0460 2e3c
00000160: 87cb 6dbe e0b8 4dbe ed25 8dbe b149 bdbd
00000170: e498 d5bb 0b79 bfbd 2ddf cdbd 410e 863e
00000180: 5896 8c3c 23d0 733e ffb7 7fbc c4bf a8bd
00000190: 6d89 88bd 5ec8 613e f377 47be e7ca 60be
000001a0: 5711 05be 19d5 fbbd c474 1c3e c6b1 76bd
000001b0: 6276 7dbe c566 4b3d 3a28 8b3c 9386 103e
000001c0: b501 aebd fa80 48bc a0d2 79bd 0ee3 21be
000001d0: a4a6 fd3c 3a01 31be ddda 8b3e f20e 86bd
000001e0: 6b4a b83d c810 b73d d6cb 8fbe 1a53 7dbe
000001f0: 58a8 7c3e e91a e0bd 02d9 163e 3257 a6bd
0.057344753 -0.3065465 -0.2254136 -0.42469764 0.2743825 0.078246094 -0.22064339 -0.05908246
-0.03649123 0.040232435 0.38275096 0.064902686 0.17901832 0.09294031 -0.18371038 -0.38982686
-0.04758964 0.18981017 -0.15401897 -0.19948372 0.34328693 -0.03217444 0.07517209 -0.059964858
-0.11599536 -0.21463251 0.18978319 0.28953952 -0.15763655 0.05947273 0.065842986 0.027399357
-0.3515886 0.32979038 0.15528497 -0.13950665 -0.43732345 0.050707977 -0.19582039 -0.10954882
0.041024894 -0.16301021 0.13399716 0.062266536 -0.13596249 -0.18156578 -0.13171771 -0.18322664
-0.058970604 0.010057328 0.12114094 -0.19579242 0.045719907 0.04662086 -0.093970105 0.1887525
0.21792337 -0.3983292 -0.15865852 0.05921058 0.28732544 0.30546334 0.08136681 -0.1189518
-0.25943428 0.0040878286 0.65866816 -0.3489016 0.14666152 0.19827959 -0.08096928 -0.48795167
0.12799336 0.05942571 -0.26001692 0.18580526 0.39935112 -0.08687329 0.043098047 -0.16055408
-0.03771352 0.17577673 0.03134019 0.11897029 0.100627035 -0.20471294 0.089665495 0.010643009
-0.23222171 -0.20090055 -0.27567998 -0.09242571 -0.00651847 -0.09349259 -0.10052333 0.2618275
0.017161533 0.23809867 -0.015607833 -0.082397014 -0.06666837 0.2204909 -0.19479351 -0.21952401
-0.12994896 -0.122965045 0.15278918 -0.06022813 -0.2475219 0.049658556 0.016986955 0.14113836
-0.08496419 -0.012237782 -0.060991883 -0.1580927 0.03096325 -0.17285624 0.27315417 -0.06545819
0.08998569 0.08938748 -0.28085202 -0.24738732 0.24673593 -0.10942633 0.1473122 -0.081221

actor.2.weight f4 [128, 128]
00000000: abe1 41be ea1b a73d a425 9c3d ad8e b63d
00000010: 3fd2 e43c 4b90 fbbd afb7 d83d 7895 183e
00000020: 6b2d 2bbd f4bf 363e 10dd da3c d1de 38be
00000030: b2ef a7bd 74ef 823b 0bc9 8bbd 7ce1 25be
00000040: c549 8a3d 1cd4 d7ba c942 cfbd 9bf6 9a3d
00000050: fb95 613d d55b 033d beb8 d6bd 19b0 a6bd
00000060: 9b20 783c c62e 463c fdf9 aabc f1a0 90bd
00000070: 4465 c7bb e531 b53d f175 0ebc f774 8d3d
00000080: d3b3 083d 8556 553d 3e20 22be f4f5 02be
00000090: ee6e 863c 86e8 63bd f06b a53d 3cb1 1ebe
000000a0: e9ba c4bb 8681 b2bd 538d 0b3d 34ad 15be
000000b0: 2e44 2d3d 81b8 18be 9d60 d23d 4ba9 e43d
000000c0: 1e7c babd 5769 993d e615 ad3d 1e78 15bd
000000d0: 42aa 6abd bc59 813d 25b6 c4bd 9e47 553e
000000e0: ced7 88be 68fb 67bd ce55 c7bd 0fe2 363d
000000f0: bdac 02be f92a 873d 9d80 28be c587 b33b
00000100: 1f0e b0bc 7995 da3d 813b 903d 2078 8c3d
00000110: bd32 03be 81a7 f1bc 2ce0 1abd 0ffa 9ab9
00000120: 1864 683d 3b3c 30be 3bcc 8abb 34e7 15bb
00000130: 52c9 ba3d 3dba 093e 419e 163e 875f 5cbe
00000140: 4c67 73bd 4944 693d 0fa4 fe3d 7961 e1bd
00000150: 2d3d 493d f653 6e3c e0c0 113d 136c 2abd
00000160: 15a3 82bd f895 f33c f83e 99bd 04b9 4fbd
00000170: bcb2 1b3d a5e3 253e 96a2 393c b685 63bc
00000180: acfd 4ebe 2865 46bc d4e7 873d 8f7a 2e3c
00000190: 7366 3bbe 24b9 7d3d 5169 12be e073 6dbd
000001a0: ba23 81be ab40 3e3d c953 a33d 180a 74bd
000001b0: 6c37 0e3e 11e2 4b3e 8c96 193d 5b81 d03c
000001c0: a17f 783d 3e62 4d3e 4c59 6fbe 770b 813d
000001d0: e64d 1f3d 82bf cbbd b528 88bb fd82 313b
000001e0: 4f7d 3fbd d3e7 b7bc 3000 f4bc 6b49 373d
000001f0: d5bd 85bd b105 5cbd 18a4 a13d 4b97 bcbd
00000200: fda7 a53d 746f 35bd 3efa cfbd 4e77 d53d
00000210: 4ae3 94bd c032 88bd 2fad 03bd bcbc c1bb
00000220: 2edd 42bd 267c 113e e6a8 d7bd d66f 3c3c
00000230: b699 5e3d 6c22 81bc faaa 23be f7d1 103e
00000240: 7e32 d0bd cdad 86bd 44f5 513c 2c56 ff3c
00000250: 60d2 213e 016a 66bd 3498 bbbb 5a65 37bc
00000260: 23a4 56be b64a b53d bbe4 bdbd 259e a63d
00000270: 8757 94bb 4e0a 39bd 2ba4 273e e809 76bd
00000280: 2cd9 3dbd da5a 1ab9 6c73 2d3e 2116 0dbd
00000290: 3f89 843d dcec 8e3c e368 cebd cf76 dc3d
000002a0: 83cd 813c e577 90bd cf9d 1cbe 28b4 103e
000002b0: a8fd 30be 2ca7 4c3d 3c10 55bd 2070 833b
000002c0: 4a74 293c 978a a93d 0833 253e 79ab 3d3d
000002d0: 9ca2 0fbd 963e 893c e48c 47bd fe58 babd
000002e0: 2663 f93a 3bb1 573b e468 e8bc f586 dabd
000002f0: 0092 ea3c 2fb4 22be de48 b63d 6d35 64bd
00000300: 059f 993d cef1 3bbd b2f0 8dbd bcfc a1bd
00000310: 0221 a93c 9f11 d6bd bc3b 2d3e 3eaa 6b3d
00000320: 5589 43bc 3f30 a33d 5b10 02bd f94f 41bc
00000330: 709f 313d 8b1f e53c 63a9 1dbd e2ab 2abe
00000340: 2375 a9bd fe1b d93c 072d b13d 71c0 2fbe
00000350: d671 d03d 2307 733e 1daf 14bc c890 d23b
00000360: 0b50 28bc c9e9 343c e344 8b3d a28e 263e
00000370: b96b 433c ebf4 67bd 02e5 663d 857f 563d
00000380: 5d5f 30bc b27e 1dbd fe82 4bbe fb5e 92bc
00000390: d597 6c3c d33e 63bd 7d65 8bbc 7bac 5a3d
000003a0: 9081 7f3d 8f05 003e 6980 0b3e aa56 86bc
000003b0: e11b 673d 96ee 27bd d7a9 c3bd a110 f53b
000003c0: da19 8b3d e8cb 96bd 3e04 b43c e530 8b3d
000003d0: a5d2 8fbd 71ff c43d a067 bcbc 7ea7 533d
000003e0: 0fd5 30be 7261 04ba b8b8 40bd 84e3 d9bc
000003f0: f3d2 a93b 5e11 8cbd e625 943e f3d5 2dbe
-0.18933742 0.08159621 0.07624367 0.08913932 0.027932284 -0.12283381 0.1058191 0.14900768
-0.04179136 0.17846662 0.026716739 -0.18053748 -0.08200015 0.00399583 -0.06825455 -0.16199297
0.06752352 -0.0016466412 -0.1012016 0.075665675 0.055074673 0.03207 -0.104844555 -0.08139057
0.0151444925 0.012096113 -0.020871157 -0.07061947 -0.00608507 0.08847407 -0.008695112 0.06907075
0.03337462 0.052084465 -0.15832612 -0.12789136 0.016410317 -0.055641674 0.08077228 -0.15497297
-0.0060037267 -0.08716111 0.034070324 -0.14616853 0.04230135 -0.14914133 0.10272334 0.111651026
-0.09105705 0.07490795 0.084514424 -0.036491506 -0.057291277 0.063159436 -0.09605054 0.20828101
-0.26727146 -0.056636244 -0.09733163 0.04464918 -0.12761207 0.06599993 -0.16455312 0.0054788315
-0.021491108 0.10673041 0.070425995 0.068588495 -0.12812324 -0.029498817 -0.037811443 -0.00029559477
0.05673608 -0.17210476 -0.004235772 -0.0022873404 0.0912043 0.1344995 0.14708807 -0.21520816
-0.059424683 0.056949887 0.124336354 -0.110049196 0.049130607 0.014546385 0.03558433 -0.041606974
-0.06378762 0.029734597 -0.074827135 -0.050713554 0.03801225 0.16200121 0.011330267 -0.01388686
-0.20213956 -0.0121090785 0.066360146 0.010649337 -0.183008 0.061944142 -0.14297988 -0.057971835
-0.2522257 0.04644839 0.07974965 -0.05957994 0.1388833 0.19910456 0.03749709 0.025452306
0.06066859 0.20057008 -0.23373908 0.06301015 0.03889265 -0.099486366 -0.0041552433 0.0027086132
-0.046750363 -0.02244941 -0.029785246 0.04474775 -0.06530348 -0.053716365 0.078926265 -0.09208544
0.08088682 -0.044295743 -0.10155152 0.10423146 -0.072699144 -0.06650305 -0.032147583 -0.0059123915
-0.047574215 0.14207515 -0.10530262 0.011501273 0.05434581 -0.015763484 -0.15983191 0.14142595
-0.101658806 -0.065761186 0.012814824 0.03116902 0.15802908 -0.056253437 -0.005724931 -0.011193598
-0.2096105 0.088521406 -0.092721425 0.081356324 -0.0045270356 -0.045175843 0.16371219 -0.06006804
-0.04634969 -0.0001472043 0.16938561 -0.034444932 0.0647149 0.017446928 -0.10078599 0.107648484
0.015845066 -0.07054118 -0.15294574 0.14131224 -0.17284262 0.049964115 -0.052017435 0.004011169
0.010342667 0.08278387 0.16132748 0.046306107 -0.035067186 0.016753476 -0.04871835 -0.09099005
0.0019026741 0.0032912034 -0.028370328 -0.10670272 0.028634071 -0.15889047 0.08900617 -0.055715013
0.07501034 -0.0458849 -0.069306746 -0.079095334 0.020645622 -0.1045258 0.16917318 0.057535402
-0.011934598 0.079681866 -0.03175388 -0.011798852 0.043364942 0.027969142 -0.038491618 -0.1666713
-0.08274295 0.026502606 0.086511664 -0.17163254 0.101779625 0.23733191 -0.009074953 0.0064259507
-0.01027299 0.011042067 0.068002485 0.16265348 0.011927539 -0.056630056 0.056370743 0.052367706
-0.010764924 -0.038450904 -0.19874188 -0.017867556 0.014440496 -0.055479836 -0.017016167 0.053387146
0.06237942 0.1250212 0.13623203 -0.016398747 0.05642307 -0.040999018 -0.09553879 0.007478789
0.0679204 -0.07363111 0.02197468 0.06796435 -0.07022599 0.09619034 -0.022998631 0.051673405
-0.17268775 -0.0005049921 -0.04705116 -0.026597746 0.005182618 -0.0683925 0.28935164 -0.16976146

actor.2.bias f4 [128]
00000000: 68e9 bf3b df36 35bc af7f 0b3e f8e6 63be
00000010: 04fb 8a3d 8109 e33d 0c88 233e 1c6d 16be
00000020: 8387 cd3d 988e adbd 4ebc 41bf 52d6 6abd
00000030: b8ff e6bd b1cf 99bd 607f f83d a85d 23bb
00000040: 8712 1d3d 80d6 3d3c 9d55 cabd 899a 6dbe
00000050: cab1 2bbe ee6b 87bd a11b 363e 64c0 173f
00000060: f0e7 65bd 6836 10bf 2b0f 5a3b 1a97 a3bc
00000070: 7d90 f5be 63e4 3abc 0f42 493e f750 07be
00000080: e22a b9bd 9db2 393c fca2 94bd e45b 9ebe
00000090: 3db4 293c 8dfa 8e3d f497 403a 6046 e63b
000000a0: eeaa eabc 7a5e 2cbd 9576 adbc a6ce 0b3f
000000b0: 5330 0cbe f15d 2ebd f08a ab3d 078a cf3d
000000c0: d23e 05bf b7cd 4dbe 2d8b 5dbc 487a bebc
000000d0: 32d4 31be 86bb 5b3d 7ba7 b1bb 81e0 bdbd
000000e0: 5d19 b0bc 6f45 2ebe 336f f339 e278 8dbc
000000f0: 9493 ca3c 0996 c4bd fc00 803c ad1b bf3d
00000100: 82da cbbd 20c0 6cbd 8c31 cf3c 48e0 4e3d
00000110: 3d10 d23c 6db2 bd3d 13f8 ff3d 8a94 a6bd
00000120: 5244 1a3e ec7c 933d ab62 ba3d 16b6 523b
00000130: ab24 7a3d 2c02 bcbd 459d acbc dad9 c23d
00000140: d791 f63b 3334 3c3d 4d1d 573d e5b2 bbbe
00000150: 4f59 50bd ba1a 43bd 38af f7bc 2ad5 7cbb
00000160: d61b 393b ddd5 973e 8b2e abbd 1bb9 4fbd
00000170: fc6c 6a3c dd25 0e3e f5e6 303d 065f d8bc
00000180: 3973 14bd c17c 6a3d f009 5d3f ac29 7a3d
00000190: 1f79 133d 5dc5 b33e 44f2 c0bc a6bb a83c
000001a0: fa12 17bd 5bb2 8abc 4e6b 633e 3c0e 213d
000001b0: 1718 80bd a93c 653d f44e e43e a2c9 eb3c
000001c0: 84fa 4f3d 7766 a73c c8ed a6bd de09 7f3d
000001d0: 6568 733e caae 243d cab5 60bd 82da 32be
000001e0: 4c05 f1bd acde 3b3e 301a 313e a2c6 83bd
000001f0: cbe7 1e3e 544e 9a3c 6cbf 5f3d 5a4b 0b3d
0.0058566816 -0.011060446 0.13622926 -0.22256076 0.06786159 0.11085797 0.15969867 -0.1469006
0.100356124 -0.08474463 -0.75677955 -0.057333298 -0.11279243 -0.07510317 0.1213367 -0.002492765
0.038347747 0.011586785 -0.09879611 -0.23203482 -0.1676704 -0.06612383 0.17783977 0.5927794
-0.056129396 -0.5633302 0.00332732 -0.019969512 -0.47961798 -0.011406991 0.19654106 -0.1321448
-0.09041382 0.011334089 -0.07257649 -0.30929482 0.010357914 0.069813825 0.00073468615 0.0070274323
-0.028645959 -0.042082287 -0.021174708 0.54612195 -0.13690309 -0.04257006 0.083761096 0.101337485
-0.5204898 -0.20098005 -0.013521952 -0.023251668 -0.17366102 0.053645633 -0.0054215766 -0.09271336
-0.02149647 -0.17018674 0.00046431422 -0.017269555 0.024728574 -0.095989294 0.01562547 0.093314506
-0.099537864 -0.057800412 0.02529218 0.05050686 0.025642509 0.09262548 0.12498488 -0.081338
0.15065125 0.07201561 0.09100851 0.0032151989 0.061070126 -0.09180102 -0.021071086 0.09514208
0.0075247097 0.04594822 0.052518178 -0.36659923 -0.05086642 -0.04763291 -0.030234918 -0.0038579204
0.0028245351 0.29655352 -0.08358487 -0.05071364 0.01430821 0.13881631 0.043189008 -0.026412498
-0.036242697 0.05724788 0.8634329 0.061074898 0.036004182 0.35111514 -0.023553021 0.02059729
-0.03688333 -0.01693075 0.22208902 0.039320216 -0.06254595 0.055966053 0.44591486 0.02878267
0.05077602 0.020434601 -0.08150822 0.06226527 0.23770292 0.040205754 -0.054860868 -0.17466167
-0.117685884 0.18346661 0.17295146 -0.064343706 0.1551811 0.018836178 0.054625914 0.034007408

actor.4.weight f4 [4, 128]
00000000: 1491 ae3b 24cd 98ba d95e ad3a 0964 88bd
00000010: 8262 f5ba c9a9 4c3b eeb3 82b9 5cd1 233e
00000020: 1c38 22be 0e36 a9bb 3659 a1be 9df6 9bbb
00000030: 9e59 57be 5fbe f93a a793 c7bb a418 423b
00000040: 5be2 923d 2424 443a 6eae 253b f35e 2b3e
00000050: 3ca1 86bd 045d ae3a a0aa 093d 63c1 e03e
00000060: fc20 fd3a f49b 873d 3bc1 82ba 9bb5 383b
00000070: 74f4 c4bd df5a fdba 3d6d 303d d1b4 e83a
00000080: c8de 683b 07d8 71bb 5de5 e83a 955a d63e
00000090: fc21 07bb 60ff 7c3b cd2e 5abb 25be cfba
000000a0: 34f7 2ebd 1f0b 9a3a 8ecb 513a a516 54bd
000000b0: 656f 303e b1c4 9bba e5ef 19b8 dd1c fcb9
000000c0: fabf a5bd adb2 eebd d03b c93b c05a 81bd
000000d0: 505b e33c 4204 8d39 a99c 363b 219c c8ba
000000e0: 716c ceba 378f 8d3d 3691 3dbb 11aa 63be
000000f0: e38b 6cbb 9fdb 893b 27ab 583b b340 493b
00000100: ce36 c93a 84c9 44bb 77c5 863a 32ff 843a
00000110: 4052 923b 3407 1dbb 4e44 153d 7805 883a
00000120: 32c4 4a3d 7756 a6bd bda8 103b 8c50 c03a
00000130: 32e5 33bb 0014 01bb be9c d2b9 d48d 0c3e
00000140: 708c 13bb f742 383c 8a8d 483a 9998 42be
00000150: c720 00bb 8452 183b bff7 253b 2835 45bb
00000160: bee7 5aba 2c74 13be 18d0 6eba 0861 dcbb
00000170: 1a6d f43a 9a2c 2ebd 7503 8f3a 6243 353a
00000180: 606a 80ba a4e1 17bb 4d9d a33e 55cb b1bb
00000190: b9f3 173a 4c32 743d 0876 ca39 45c6 423b
000001a0: c9e6 4cbb dfef 0cbb 3dc4 0bbd 5ddf a6bb
000001b0: 273d 5aba b6ea 1e3e 2277 a33d 6c45 fdb9
000001c0: 9f3c 8cb9 7eea 233b e88c 7b3b fe28 d7bb
000001d0: 0d22 1a3e 0398 9339 fca0 32bb 4480 c23c
000001e0: e28f 8a3d 622c 283d 4790 c3bd 0280 50bd
000001f0: d0c2 0a3d fdc2 8c3c 4ebd 2a3a 8d78 d2bd
00000200: 08a8 08b9 2ddd 04bb 2b4a 09bb e7f5 91bc
00000210: 534e db3a 13d4 303b 2837 31ba 6025 063d
00000220: 46d1 353d 0c98 613b de3f 123e 96e8 d83a
00000230: 7c22 04be 0e08 313a 3242 7b3a 9908 c33a
00000240: 6e39 523d 38ef e0ba cc55 07bb f36b 2abd
00000250: 03e5 31bd b937 063b fba1 0cbe 5ecb 1f3d
00000260: 0505 63bb 5e20 1fbf 859a f0b9 fe27 393a
00000270: e316 e2bd 82f9 d2b8 a821 d83c b442 20ba
00000280: f39d af3b 8d4a 0d38 fe98 aa3a 9819 4b3d
00000290: 4c94 0e3a 4a9c 2cbb 4df4 c739 e83f 083b
000002a0: 9b05 6e3e 0c90 77b8 ab16 cb3b f448 e13d
000002b0: 9cad db3d 5b10 f7b8 75fe b73a 1163 84ba
000002c0: cc71 68bd bb37 843d 691e 11bc f783 f6bc
000002d0: 6780 7b3d ea22 3e3b a8fc 7db8 64b2 b9ba
000002e0: 5782 f0ba 96b2 c5bd 23a1 603a 88c4 d6bd
000002f0: ad53 afbb a915 243a e196 67bb 0a9e 4f3b
00000300: fdb8 083b 3dff 4dbb 8a08 97ba 7711 4fbb
00000310: d931 75bb b8f1 84ba c269 1b3e 106b 59ba
00000320: 12b6 0b3e fe4f 0b3c 6a63 baba c249 5f39
00000330: de0c 5138 f16f a8ba c281 7c3b 2030 02bd
00000340: 35cf a7ba 2ffa 06bd 83d8 5f3a 09d7 a7bb
00000350: bb03 3a3b 2738 963a 0a00 d2ba edba 10bb
00000360: ae24 8038 9a1b f1bb 0584 983a 0c1c e6bd
00000370: 10bf 8aba 4989 52bd 8496 803a 65cf 1dba
00000380: 1203 64bb 994e b739 f804 c13e 43fc b139
00000390: 5446 803a 6e16 93bd c53e 883a 93a3 063b
000003a0: 26a5 a5ba b45e 9f3a 54f6 71be 5da4 0bbb
000003b0: 6b57 41bb 0224 563e 32b6 273d 93b7 6e3b
000003c0: b9d7 43bb 5419 023b a19e e038 0080 73bc
000003d0: 485b ffbc 5628 7f3b a036 c4ba 83b3 153e
000003e0: 4573 15be c557 23be e574 86bc f98b 783d
000003f0: c390 c03b 3ca2 d0ba ea99 ba3a ebcc a53d
0.0053273533 -0.0011657816 0.0013227119 -0.06659705 -0.0018721374 0.003122913 -0.0002492959 0.15997833
-0.15841717 -0.0051639145 -0.31513375 -0.004759623 -0.2103028 0.0019053927 -0.0060905996 0.0029616738
0.0717208 0.0007482192 0.002528097 0.16735439 -0.06573722 0.0013302867 0.033609986 0.43897542
0.0019312198 0.066215426 -0.00099758 0.0028184417 -0.09616938 -0.001932945 0.043072928 0.0017754083
0.0035533179 -0.0036902444 0.0017768551 0.41865984 -0.0020619622 0.0038604364 -0.0033292056 -0.0015849514
-0.04271622 0.0011752582 0.00080030493 -0.051779408 0.17229994 -0.001188418 -3.670146e-05 -0.0004808669
-0.08093257 -0.116551735 0.0061411634 -0.06316137 0.027753502 0.00026896788 0.0027864373 -0.0015305319
-0.0015748871 0.06912082 -0.0028925664 -0.22232844 -0.0036094121 0.004207089 0.0033061 0.003070873
0.0015351416 -0.003002734 0.0010282238 0.0010146855 0.0044653714 -0.0023960592 0.036442094 0.0010377606
0.049503513 -0.081219606 0.0022073232 0.0014672442 -0.0027449843 -0.0019695759 -0.00040171103 0.13725978
-0.0022514127 0.011246434 0.00076504855 -0.19003524 -0.0019550787 0.0023242543 0.002532467 -0.0030091498
-0.00083505723 -0.14399785 -0.0009109988 -0.006725434 0.0018648237 -0.042523004 0.0010911064 0.0006914643
-0.0009797327 -0.0023175264 0.31955948 -0.0054258504 0.00057965104 0.05961828 0.00038616383 0.0029720229
-0.0031265488 -0.002150528 -0.034122694 -0.005092545 -0.00083251524 0.15519223 0.07981707 -0.00048307644
-0.00026748047 0.0025011594 0.0038383547 -0.006566166 0.15052052 0.00028151282 -0.0027256599 0.023742802
0.06765725 0.04105795 -0.09549003 -0.050903328 0.033877194 0.017182821 0.0006513194 -0.102768995
-0.00013032567 -0.0020273433 -0.0020948749 -0.01781745 0.0016731716 0.0026981875 -0.0006760233 0.032750487
0.04438903 0.0034422902 0.14282176 0.0016548808 -0.1290378 0.00067532144 0.0009584754 0.0014879882
0.0513243 -0.0017161136 -0.0020650504 -0.041606855 -0.043431293 0.002047999 -0.13733666 0.039012305
-0.0034640443 -0.62158763 -0.00045891493 0.0007063149 -0.110395215 -0.00010060055 0.026383236 -0.0006113455
0.005359405 3.368645e-05 0.0013015566 0.049584955 0.0005438968 -0.0026338273 0.00038138256 0.0020790044
0.23244326 -5.9023543e-05 0.0061977706 0.11000243 0.10726473 -0.00011780924 0.0014037626 -0.0010100325
-0.05674915 0.06455942 -0.008857348 -0.030092223 0.06140175 0.002901251 -6.0555205e-05 -0.0014167544
-0.0018349391 -0.09653203 0.0008568933 -0.10486704 -0.005350551 0.0006259331 -0.0035337734 0.0031679892
0.0020862215 -0.0031432651 -0.001152293 -0.0031596103 -0.0037413745 -0.0010142839 0.15177062 -0.00082938466
0.13643673 0.008502958 -0.0014220302 0.00021294414 4.9841467e-05 -0.0012850744 0.003852949 -0.031784177
-0.0012802841 -0.032953437 0.00085390377 -0.0051220697 0.0028383571 0.0011460826 -0.001602174 -0.0022084073
6.110348e-05 -0.0073580267 0.0011636025 -0.11235818 -0.0010585506 -0.051400457 0.0009810482 -0.0006019979
-0.003479187 0.0003496304 0.37699103 0.0003394802 0.0009786584 -0.071820125 0.0010394683 0.0020544275
-0.0012637719 0.0012158961 -0.23629123 -0.0021307685 -0.0029501568 0.20912173 0.04094524 0.0036425337
-0.002988322 0.0019851523 0.00010710699 -0.014862061 -0.031171456 0.0038933954 -0.0014969893 0.1461926
-0.14594753 -0.1595145 -0.016413162 0.060680363 0.005876632 -0.001591749 0.0014236544 0.080957256

actor.4.bias f4 [4]
00000000: 3d12 a13e 9e68 bc3e e7c1 dc3e 14d5 aa3e
0.31459227 0.36798567 0.43116686 0.3336569

critic.0.weight f4 [128, 17]
00000000: 4fb2 c23e 2816 2dbf 4052 7ebf bd7e 3d3e
00000010: ad7c 853f c9fc dabe af5c 4ebe 88f5 8a3f
00000020: 53a6 ac3f 37ab 98bf f9c4 4cbe 2453 0cbf
00000030: c957 27be 6dd0 67be c294 63be e4d3 21be
00000040: 6a80 f1bd 4ad8 d2bf 6f7f f7be 58ab ad3d
00000050: 2d05 79be 8527 f73e e12c ffbe 5e56 0cbe
00000060: b5b6 383f e018 483f fa6f bf3d 322d aebd
00000070: 9ef9 acbe ab7d febe a2c0 f93b 560c 7c3e
00000080: 6849 1c3e a2dc 153e 16d6 2a3f b184 2c3d
00000090: 8683 21bf 8f45 c03e 450b 9abe c4f0 f13e
000000a0: 34bd 743e 1f6b a3be 4ac2 47be b6cb ca3e
000000b0: d412 40bf 3372 d1be ba0d 223f 8664 aebc
000000c0: d2d6 143e 32fb 37be fe00 0f3e 2f05 563f
000000d0: 74b6 00be ac59 3dbf 3710 a9bd 28d2 fdbf
000000e0: 80f5 ef3e fe9c 2c3c 1a69 c63e 476d f9be
000000f0: b7be c6be 7d10 903d 38dc 4cbf 28f7 0d3f
00000100: 67f7 4e3d d66c 413d f301 313d 8b0b 07be
00000110: 4439 f93e 80a0 c73e 795b 4b3f e7d3 babe
00000120: 7298 82be 565f ff3e 9ad4 19bf 0829 9cbe
00000130: 89eb 90bb ad90 023f 3462 793f 967e c83f
00000140: b751 b93d ec9f 593d ae53 bfbe 810e 49bc
00000150: 579c 96bc 661f 973f 2c37 353f 84e1 0940
00000160: 7c2f 00bf 611c 45be 48f6 1a3e 0f1d 6fbe
00000170: 88b3 8b3f 0961 6c3f 9e52 c13c bd44 a6be
00000180: 0bc3 6ebe 0b1a ebbe cfa3 fb3d f3e0 753e
00000190: 26ac 3f3e cfb2 8d3e 796b a9bf 519c 0cc0
000001a0: 27e6 42bf 7a87 1cbe 7886 803e 774f 0d3f
000001b0: 905f 1a3f 7482 5ebe ab83 01bd 2816 f7bd
000001c0: a497 1fbe 72bc fcbe b422 4c3e e5da 8f3c
000001d0: 26a7 8c3c 41e6 8fbd 100c 19be b976 abbf
000001e0: 1acd 75bf 6546 ff3f e105 ebbc 4ed5 a2be
000001f0: 8b72 9d3f 2a33 9c3f 565b 96be 7c50 56bf
00000200: 1173 f7be e2ba 9c3e d81b 9dbd 8db4 6dbf
00000210: e600 80be 6337 6f3d a80e cf3c 4af8 5c3e
00000220: 842c 803d 0201 903f 325d 7e3f 40c8 0abe
00000230: bd9b 0b3f f0a7 513f 4fc8 7cbd 160c 093f
00000240: 50c8 36bf 4e89 0b3e b77b 063f b80d 3e3e
00000250: 312f 48be c48f 82bd 08ba 9d3d 0c1d 1fbc
00000260: cc4a 92bd e9e0 debf 2312 053f 566d 2b40
00000270: f535 97be ea5a e4be f055 193f 0315 d73e
00000280: 0636 d5bb 9c10 6ebf a226 813f 1914 e63e
00000290: f92c 1f3f eb04 18be 7cb5 603e 4987 343c
000002a0: 6014 5a3e 9da0 c23d c5c9 2a3c 2031 9a3f
000002b0: 0fb8 72bd cef7 923e 16b8 0f3f 5e05 9b3e
000002c0: 8e92 0cbf 0428 c73e 5b1c 43be ff1f ecbe
000002d0: a2b5 4e3e 25ff a63f bef9 d73f e0c7 ad3e
000002e0: 53ba afbd 5488 173d d8fa 2d3e 6d02 64be
000002f0: a9bb a2be 2b9c 8e3e 1332 66bd aff6 0c3f
00000300: 4c9b 643e 4967 5ebf fb27 ad3f 94b1 4ebf
00000310: 0c25 343f 8007 553e fa45 83be 5bff 2ebb
00000320: a718 a7be 6849 ffbd a951 acbe 040e 01be
00000330: e8ba 983f 1913 353e f906 d9bf 9d9c d63e
00000340: abdb 7e3e cd48 d3bd 3f2a 783e ecd2 44bf
00000350: e22f 8d3f 54e2 88bd b3ec 64bf ebb7 513d
00000360: 9b8d 843e 4933 c83c cb45 f93b e966 213e
00000370: ef10 693d 3850 8cbf 5873 ff3d 136f 8440
00000380: ec90 26be 36aa 62be 2f44 d0bd 9f98 4bbf
00000390: 9bf8 0b3f b1ff 21bd 18b4 4dbc 52bf 1bbe
000003a0: f5ef 97be 9304 1b3e c3ff 7cbe a769 e1bd
000003b0: 6a9d 33be 5f8a 7bbd 37f3 98be 2209 9ebc
000003c0: 5d97 5c3f 6545 88be 279a 68bf e0b9 a03e
000003d0: f8d5 b0bf 9b0f dbbe 119e 6ebf 83cc adbd
000003e0: 749f 5c3e 4344 2d3f 71c1 bbbd 8d57 03be
000003f0: e7f8 a3bd 8cb7 07bd bc0b dcbd ffc4 dabf
0.38026664 -0.6761193 -0.99344254 0.18505378 1.0428673 -0.42770985 -0.20152543 1.085618
1.3488258 -1.1927251 -0.19997014 -0.5481436 -0.16342081 -0.22638102 -0.22224715 -0.15803486
-0.11792071 -1.6472256 -0.48339412 0.08479947 -0.2431838 0.48272339 -0.49838927 -0.13704821
0.7215379 0.78162956 0.0934753 -0.08504714 -0.33784193 -0.49705252 0.0076218406 0.24614081
0.15262377 0.14634946 0.6673292 0.042118732 -0.63091314 0.3755307 -0.30086723 0.47254002
0.239003 -0.31917664 -0.19507709 0.39608544 -0.7502873 -0.4090744 0.63302195 -0.021288168
0.14535072 -0.17966917 0.13965222 0.8360166 -0.125696 -0.73964953 -0.08255046 -1.982976
0.4686699 0.010535477 0.3875206 -0.48716184 -0.3881738 0.07034395 -0.8002353 0.55455256
0.05052891 0.047222935 0.04321475 -0.13187997 0.48676503 0.3898964 0.7943645 -0.36489794
-0.25506932 0.49877423 -0.6009003 -0.30500054 -0.004422609 0.5100201 0.9741547 1.5663631
0.09048789 0.05313103 -0.3736853 -0.012271524 -0.018385096 1.1806457 0.7078731 2.1543894
-0.50072455 -0.19249107 0.15133011 -0.23350929 1.0914164 0.92335564 0.023598965 -0.32474318
-0.2331659 -0.45918307 0.122871034 0.24011593 0.18718013 0.27675483 -1.3235923 -2.1970408
-0.76132435 -0.15286055 0.25102592 0.5519938 0.60302067 -0.21729451 -0.03161971 -0.12064773
-0.1558519 -0.49362522 0.19935113 0.017560432 0.017169546 -0.07026339 -0.14946008 -1.3395606
-0.96016085 1.9943358 -0.028689327 -0.31803364 1.2300581 1.2203114 -0.2936656 -0.8371656
-0.48329976 0.3061133 -0.076713264 -0.92853624 -0.25000685 0.05840243 0.025275543 0.2157909
0.06258491 1.1250308 0.99360955 -0.13552952 0.5453451 0.8189688 -0.061714467 0.53534067
-0.713994 0.13626596 0.52532524 0.18559921 -0.19549252 -0.06375077 0.07701498 -0.009711515
-0.071431726 -1.7412387 0.519808 2.6785483 -0.29533353 -0.44600612 0.59896755 0.42008218
-0.0065066842 -0.92994094 1.0089915 0.44937208 0.62178 -0.14845626 0.21944231 0.011018583
0.21296835 0.09503291 0.010424082 1.2046242 -0.059257563 0.28704685 0.5614027 0.30277532
-0.54911125 0.38897717 -0.19053786 -0.4611816 0.20186475 1.3046614 1.687309 0.33941555
-0.085804604 0.036995247 0.1699022 -0.2226655 -0.31783798 0.27853522 -0.0562001 0.5506391
0.22324866 -0.8687635 1.3527826 -0.8073971 0.7036903 0.20803642 -0.25639325 -0.0026702497
-0.32635996 -0.12465173 -0.33656052 -0.12603003 1.1932039 0.17683066 -1.6955253 0.4191636
0.24888484 -0.1031662 0.24234866 -0.7688434 1.1030238 -0.06683794 -0.89423674 0.05120079
0.25889286 0.024438517 0.007607197 0.15761913 0.056900915 -1.0961981 0.12473172 4.138559
-0.16266221 -0.22135243 -0.10169255 -0.79529756 0.54676217 -0.039550487 -0.012555145 -0.15209702
-0.2967526 0.15138464 -0.2470694 -0.1100648 -0.17540517 -0.061411258 -0.29873058 -0.019291464
0.8616846 -0.26615444 -0.9086022 0.3139181 -1.3815298 -0.42785344 -0.9320994 -0.08486273
0.21545202 0.67682284 -0.091677554 -0.12826367 -0.08006459 -0.03313403 -0.10744426 -1.7091368

critic.0.bias f4 [128]
00000000: af86 5fbe 823c 16be 140d 8ebe a118 e9bd
00000010: 5519 88bd 8c4b d0be f5fe 8ebe 34f8 05be
00000020: d95a 55be c31f 1e3e 1a8d 3dbd 6fe1 a2be
00000030: 1e51 253e f238 983e a8e4 9bbe ac85 153e
00000040: 473f 043d d32b ebbd a889 583d 9829 28be
00000050: 6742 7f3d dc2c 87bd 575f 13bd 0a6d 7dbe
00000060: f37a 1b3e 0cf8 d0be fd97 80bc 6009 38be
00000070: 2fd4 75bd c289 ca3d cff8 203e 95ff 8e3e
00000080: e4f6 93bd e561 8abd 7930 b0bc 326e 09be
00000090: 08e5 c0bc 41a0 e33d 2d66 84be c4a4 6cbe
000000a0: 65d5 c13e 3a3e 17be bbb3 253e bd1b 2d3e
000000b0: abec 7dbe b08e f23c d39f 79be 9e33 7dbe
000000c0: 4898 543e 8083 873e 5eb9 aebd a6a8 d6bd
000000d0: 7bf6 073e d923 223c f4a3 ab3e 8d1c 12be
000000e0: de0c 87be bc32 ddbe a81d e1bd 00ee 5abe
000000f0: 6b27 1cbd e7de 5a3e 4ecc 20be 5c19 7ebe
00000100: e7ed 90bd 53be 91be edfb 883d 2ae4 ee3d
00000110: c984 6bbb de6c cabe b22a 333e 9eae 43bc
00000120: 5e02 683e 80fd 6abc 3421 2c3e fde1 02be
00000130: 0c3f ba3e 3d06 9ebd 36cc 3c3e 0d86 f7bd
00000140: 49e8 7dbd e6f9 2d3d 6ece 6abd dc67 3bbe
00000150: 7b2f 2e3d 1418 a93d 1ddb 3e3e f4eb 303d
00000160: dd1f e8bd 9bac 6f3c 29cb 4fbe 2ff8 ebbe
00000170: 2cbe e03d ea24 19be f1bb b3be 5378 c8be
00000180: a17d e8bd f54b 10be 6dfc 8e3e 1f79 3abe
00000190: 9478 58be 3672 89bd a641 45be 1d60 d93e
000001a0: 16ed 3abe bce2 6fbe 83ec 853e 1200 d0be
000001b0: bfc1 de3d 46b7 a7be 0cc4 91bd e301 0e3d
000001c0: b24a 8f3d 5ee3 76bd 4d0f 51be e222 febb
000001d0: 16dc 013e c54d 92be 62db 57be 0bd4 343e
000001e0: 450d 1fbb 04ba 213e cea0 62be ce27 8f3d
000001f0: 5a08 f5bd b6c8 02bf f6de 4ebd bd86 0dbe
-0.21828721 -0.1467152 -0.27744353 -0.11381651 -0.06645457 -0.40682638 -0.27928892 -0.13082963
-0.20835437 0.15441804 -0.046277143 -0.31812617 0.16144225 0.29730946 -0.30447888 0.14601773
0.03228691 -0.11482968 0.052865654 -0.16422117 0.062319186 -0.06600353 -0.035979595 -0.24748626
0.1518362 -0.40814245 -0.015697474 -0.17972326 -0.060016807 0.098895565 0.15719913 0.2792937
-0.07224825 -0.06756953 -0.021507489 -0.13420942 -0.02354671 0.111145504 -0.25859204 -0.23109728
0.3785812 -0.14769831 0.16181843 0.16905113 -0.24797313 0.029609054 -0.24377374 -0.24726722
0.20761216 0.26467514 -0.0853145 -0.10481386 0.13277619 0.009896242 0.33523524 -0.14268704
-0.26377004 -0.4320277 -0.109919846 -0.21379852 -0.03812353 0.21374093 -0.15702936 -0.24814361
-0.07076626 -0.28465518 0.06688676 0.116646126 -0.00359373 -0.39536184 0.17496756 -0.011943487
0.22657153 -0.014342666 0.16809541 -0.1278152 0.36376226 -0.077160336 0.18437275 -0.12086115
-0.061989103 0.04247465 -0.057325773 -0.18301338 0.04252575 0.08256546 0.18638273 0.043193772
-0.113342024 0.014628555 -0.20292343 -0.46087787 0.109737724 -0.14955488 -0.35104325 -0.391543
-0.11352087 -0.14091475 0.2792696 -0.18210267 -0.21139747 -0.06711237 -0.19263324 0.4245614
-0.18254504 -0.23426336 0.26157007 -0.40625054 0.10876798 -0.32757014 -0.07117471 0.034669768
0.06996669 -0.060275428 -0.20415993 -0.007755623 0.12681612 -0.28574958 -0.21079782 0.17659013
-0.0024269384 0.15793616 -0.22131655 0.06990014 -0.119644836 -0.5108751 -0.0505056 -0.1382093

critic.2.weight f4 [128, 128]
00000000: cc0f e2be f97f 89be 8d92 66be 5348 9fbe
00000010: 1dde 313d 1f65 e5be c57c 753e 1b42 f43d
00000020: 0ab6 f63b c4f3 f43e c780 d63e 8228 0cbd
00000030: f29d cdbe 8fa8 aebe 98da d2ba 827b 593e
00000040: 250e 8bbe e1ef 4fbd 6b34 e1bd a482 e3bc
00000050: 1be6 3bbf 0c62 dabd 4175 fb3d f38e 773d
00000060: e273 78be 10a3 d1be edb1 953e 93db 883e
00000070: 3041 a03e 61fc 16bf e4ed 5f3d 16c3 9fbd
00000080: b503 a2bd 0964 82bd eef1 86bd a939 5cbe
00000090: 8f22 1fbe 5d06 7f3e 4f1b 993e 0e81 6b3e
000000a0: f720 143e 9874 a7bd 51f9 a0be c39d ad3d
000000b0: 5be3 96bc 526c 8cbe a61a 083f 2190 efbd
000000c0: 21a9 7abd aedd 803e 15e6 d0be 117b 903d
000000d0: 4bad 893e 5978 533e 6d95 85be 5efe 1b3e
000000e0: 5374 90be b513 913d f5be cbbb 9d2b 82bd
000000f0: a754 e23e 11af 063f da48 debe dc5d 8b3e
00000100: 5782 6c3e 6e00 c8bd 6992 6a3e 48b3 bd3d
00000110: ca88 35be a58b 9bbe d404 98be 0765 36bd
00000120: eaca 6a3e d29a 2d3e 1f1a 91be b3a7 dcbd
00000130: d8e9 1cbf 7635 aebe e2c6 3a3d ae0a 933e
00000140: ac71 02bf 00fc 333e 381a c03d 36c7 96bd
00000150: 35bd 4bbe 64bb 0abd 2ad1 af3d 0626 1bbe
00000160: e422 e0be df31 893d 0912 273f 1e08 26be
00000170: a75f fdbe 25e8 fbbe a6ed a6be fff8 07be
00000180: b983 8b3e 18ca b83d f8e8 d5be d0a7 2d3e
00000190: c865 ac3e 83b8 42be ace4 3abe b5c6 82be
000001a0: ffc5 0cbe 9356 1f3f 223c d53e ea83 d43b
000001b0: 4739 e8bd 5d0d a5be 824e c0bd b60c 803e
000001c0: ea48 3fbd 0415 9b3d e685 1b3d 71cc de3e
000001d0: 4be7 10be 0f09 eb3e 50dd 363e ca40 973e
000001e0: 3c8b 8bbe f5ae a93e 9db6 e4bd 8b50 aebe
000001f0: c0df 7fbe 6664 363f 7bb2 9cbe 348e fd3d
00000200: 9f7b 9abe bb87 6e3d 81de b8be 1716 a3be
00000210: 12b2 8f3e 4cfb a33e a4ce 88bd 1aab 0a3e
00000220: 5181 cd3e 6571 863e 29d5 94be 776a 8c3e
00000230: fc82 c4bd 4df0 09be beec bb3c b489 2dbc
00000240: 8a03 4c3f 7c93 243f fb82 cabd 3408 693f
00000250: 6c0d 113e 79cc 82ba 603c 4c3d 4e7d 163e
00000260: fceb 95be a703 67be 2402 1b3e b3fe 74be
00000270: 10f6 a9be 480d 183e b8bf 35bf d5c7 91be
00000280: 2fbf 543e 6656 aa3c 8ec0 a93d 61e7 b7be
00000290: 32ad 593e 60d8 873e 6ba9 053f 447d 82be
000002a0: 1c03 12bf 01d6 3b3f 4fd4 e43d 065a 92be
000002b0: c06b a0be 2fc9 a1bd 5ae4 913e 4144 a63e
000002c0: 3255 73bd fbbc 4fbe 0979 093f f53c 1e3f
000002d0: f712 303f 2f7f 89be bb51 4ebe 159e cf3e
000002e0: 776f 82bf 3ac5 5e3e 7278 afbe a1bd 113f
000002f0: d83b f83d 2f71 a13e 0d7c 803e bb4f 003f
00000300: cc87 5a3b 8f88 733d 3fda ae3e e5d8 80be
00000310: 522f 11bf 9f6a 40bd 6f0f 913e 9ef1 ef3e
00000320: e551 9abd fe43 e13d a354 d0be e8e3 403e
00000330: 62aa a43e 5df0 df3e 9015 3d3e 6a40 e1be
00000340: b0d2 44bf 5b8a 1fbf 4685 9d3a 436a 363d
00000350: 2992 873e 8460 8fbe 4a11 293d 9cf4 a33e
00000360: 79e5 9f3f 68c7 1f3f e951 1bbf e890 5a3f
00000370: 4f7d adbb 27eb 063f defd d33e 8821 03be
00000380: 5885 193f 3c04 fb3e 3f5a 9cbe f8cc cabd
00000390: f3a9 803f 8095 833e fa1e 9fbe 0fdf 83be
000003a0: 0ea7 edbe 86ac 73bf 5003 3e3e eae7 0a3e
000003b0: c112 fabd d89c 903c b46b 983e 2af6 0f3d
000003c0: c193 bdbd c4ba bd3e 9827 17bf 24cc b3be
000003d0: ff88 a5bd e4bf a7be d745 183e 1d9d 37be
000003e0: ef35 c9be d314 013e 504b ac3e dfa8 bc3e
000003f0: 09dc 25bf 7f1c 213e ca73 3b3c 99af e13d
-0.44152677 -0.26855448 -0.22516842 -0.31109866 0.043424714 -0.44803712 0.23973377 0.11926671
0.007529025 0.47842228 0.41895124 -0.03421832 -0.40159565 -0.34112975 -0.0016086875 0.2123852
-0.2715923 -0.050765876 -0.10996326 -0.027772255 -0.7339799 -0.10663232 0.12278224 0.06043906
-0.24262956 -0.4094472 0.2923731 0.26730022 0.31299734 -0.5897885 0.05467023 -0.078008816
-0.07910863 -0.063667364 -0.06589113 -0.2150637 -0.15540527 0.24904771 0.29903647 0.22998449
0.144657 -0.08176535 -0.31440213 0.08477356 -0.018418958 -0.27426392 0.5316566 -0.11697412
-0.06119645 0.25169128 -0.4080054 0.07054723 0.26890025 0.20651378 -0.26090565 0.15233752
-0.28213748 0.07083837 -0.006217832 -0.06355975 0.4420521 0.5261088 -0.43414956 0.27220047
0.23096596 -0.09765707 0.22907414 0.09262711 -0.17727962 -0.30379978 -0.29691184 -0.04452994
0.22928968 0.1695359 -0.2834024 -0.107741736 -0.6129432 -0.34025162 0.045599826 0.28719085
-0.509547 0.17576599 0.09380001 -0.07362215 -0.19896396 -0.033870116 0.08584817 -0.15151224
-0.4377662 0.06698965 0.65261894 -0.16214034 -0.4948704 -0.4920055 -0.32603186 -0.13278578
0.27248934 0.09022921 -0.41779304 0.16958547 0.33671403 -0.19015698 -0.18251294 -0.25542226
-0.13747405 0.62241477 0.4164744 0.006485452 -0.1133905 -0.32236758 -0.09389974 0.25009698
-0.046700396 0.07572368 0.037969492 0.4351535 -0.14150731 0.4590535 0.17857862 0.29541618
-0.27254665 0.33141294 -0.11167643 -0.34045824 -0.24987698 0.71246946 -0.3060492 0.12380639
-0.3017244 0.05823491 -0.36107257 -0.3185279 0.28065544 0.32027662 -0.066800386 0.13541833
0.40137723 0.26258388 -0.29068878 0.27424976 -0.09595296 -0.13470574 0.022940036 -0.010591913
0.796929 0.64287543 -0.09888264 0.9102814 0.14165276 -0.000997915 0.049862266 0.14696237
-0.29281604 -0.22559987 0.15137535 -0.23925285 -0.33195543 0.14848816 -0.70995665 -0.28472772
0.20776056 0.020793151 0.0828868 -0.35918716 0.21257475 0.2653227 0.52211636 -0.25486195
-0.57035995 0.7337342 0.11173307 -0.28584307 -0.31332207 -0.07899701 0.2849453 0.3247395
-0.05940742 -0.20286934 0.5370031 0.61811763 0.6877894 -0.26854846 -0.20148365 0.40550295
-1.0190266 0.21754923 -0.3427158 0.56929976 0.12120789 0.31531665 0.25094643 0.5012166
0.0033345101 0.059456404 0.34150884 -0.25165477 -0.5671283 -0.04697668 0.28332087 0.46864027
-0.075351514 0.109992966 -0.40689573 0.1883694 0.32161242 0.4373807 0.18465257 -0.43994457
-0.76883984 -0.6232049 0.0012017868 0.044534933 0.264787 -0.28003323 0.041276254 0.3202256
1.2491904 0.62413645 -0.6067186 0.8537736 -0.005294479 0.52702564 0.41404623 -0.1280576
0.5996909 0.49026668 -0.30537602 -0.09902376 1.0051864 0.25699997 -0.3107832 -0.25756118
-0.46416515 -0.95185125 0.18555951 0.1356503 -0.12210608 0.017652914 0.2976967 0.03514687
-0.092566974 0.37056553 -0.5904479 -0.35116684 -0.080827706 -0.32763588 0.14870392 -0.17931028
-0.3929896 0.126056 0.3365121 0.36847588 -0.6478887 0.15733527 0.0114411805 0.11019821

critic.2.bias f4 [128]
00000000: 1292 65be 24b7 2e3e afab 193e d37d e9bd
00000010: 6679 4cbd 5b63 14be 9beb 8abd 2459 6bbe
00000020: 2324 80bb 1942 e9bd d9e7 1c3e 4091 b13d
00000030: 7832 bebd 6a16 98bd 31b7 463e ca85 b93d
00000040: 6113 ae3c a693 95bd 1e4a cbbb 4608 85bd
00000050: 002a 5ebe 0c77 7cbc 0467 0a3c 71f8 973e
00000060: 37ba c0bd aa4a cbbe 2daf b8bd 48ac e8bd
00000070: fe48 383d e705 97be d309 40be c73f 913d
00000080: 9275 283e 272d b43d 2e9c 57bd 286e 81bd
00000090: d987 c63d 7287 233e 7ff8 88be 61b1 7fbe
000000a0: e462 f93c d31a 06be 195b 4bbc f7ae f4bd
000000b0: 4f5f 883d 7c50 d5bd 98a6 ce3e 5bac 463e
000000c0: 379d 24be 03ca f13d cefd 97bd 1d7e b1bc
000000d0: 0a54 03bd 45c9 23bd ea46 cc3c 511a 823e
000000e0: 4200 1abe 7fce d33d 357f 453e 2325 f33e
000000f0: 9def 293e e7f9 8e3e f042 ad3d bf4d 3e3d
00000100: 12c1 a33e cbeb 79bd 636c 5fbd 41cd dd3c
00000110: 7254 97be 6893 a93d 7b8b 7cbd a9dd 933e
00000120: 4aa4 44be 76b8 543d a531 183d f25c 7cbe
00000130: 44e1 d23d 57a8 4cbd 3bec e93e 2bcd 8a3d
00000140: e40f b83e e76a 743d 7c17 433d 5e63 dabd
00000150: e645 e5bd 8c80 83be b0cd bb3d eb1c c33e
00000160: a74b 1ebe 5309 aa3e b9d8 ddbc c282 f53d
00000170: 9d36 003d d339 b43d aaf5 253e 7cb7 143e
00000180: 1d13 643e 333b 043e 807e 5abd 59ba 133d
00000190: 27a3 6dbd b546 a3bd 927d d7bc 3ae9 303c
000001a0: 5b8f 2d3d 08b9 9e3c 4a21 6d3e fa6a c43d
000001b0: 87dc b83d c671 6abd 4685 163e db84 743d
000001c0: 3e77 c13d 5102 8dbe 6017 4a3e f8c8 883d
000001d0: e80a 7e3d c3a0 0c3e 14f7 0abe 2ff7 cf3d
000001e0: e56c 103f ff42 adbd c8e9 b2be c1ab 07be
000001f0: 8334 433e 4dc7 e73e 0d4c f5bc e18c e9bd
-0.22419003 0.1706205 0.15006898 -0.11400952 -0.049920462 -0.14491026 -0.067832194 -0.22983223
-0.003910558 -0.1138956 0.15322818 0.08670282 -0.0928697 -0.0742615 0.1940582 0.09058721
0.021249475 -0.07303552 -0.006203904 -0.06495719 -0.21695709 -0.015409242 0.008447412 0.29681733
-0.09410518 -0.39705402 -0.09017787 -0.11360985 0.044991486 -0.2949669 -0.18753748 0.07092243
0.164511 0.087976746 -0.05263918 -0.06319839 0.0969388 0.15969637 -0.26752087 -0.24970008
0.030442663 -0.1309617 -0.012411856 -0.119474344 0.06658804 -0.10415742 0.40361476 0.19401686
-0.16075598 0.11806109 -0.07421456 -0.02166658 -0.032062568 -0.039986867 0.024936158 0.25410703
-0.15039161 0.103421204 0.19286807 0.4748927 0.16595311 0.27925035 0.08460033 0.046460863
0.31983238 -0.061015885 -0.054546725 0.027075412 -0.29556614 0.08280069 -0.061656456 0.2888005
-0.19203296 0.05193373 0.03715672 -0.24644831 0.10296872 -0.04996523 0.45688042 0.06777414
0.35949624 0.059672263 0.04762982 -0.10663484 -0.11194973 -0.2568401 0.09170091 0.38108
-0.15458547 0.3321024 -0.02708088 0.11987831 0.031302083 0.088000916 0.16206995 0.14523119
0.22272916 0.12913208 -0.053343296 0.036066387 -0.058016922 -0.07972471 -0.026304994 0.010797793
0.042373043 0.01937534 0.2315723 0.09590717 0.09026437 -0.05723741 0.14699277 0.059697013
0.09446572 -0.2754083 0.1973548 0.06678957 0.06202212 0.137332 -0.13570815 0.101545684
0.5641616 -0.08460044 -0.34943986 -0.13249113 0.19063 0.45269242 -0.02994349 -0.11403824

critic.4.weight f4 [1, 128]
00000000: 1abd 17b9 09a2 9cb9 f8ca 88ba 47b4 7cb9
00000010: f0dd c0b9 581b 1c3a 3105 a23a 7efc 28bc
00000020: c98f 9639 9a20 7739 b4c4 a3ba bf94 9bb9
00000030: f93f 40ba 3984 a5b9 2684 f039 e00b 143a
00000040: 33bd 9639 83f3 2538 c779 feb9 b648 c0b9
00000050: 060a 9b39 17ea 593a 9704 2139 0782 25bb
00000060: 2926 2d3a 4893 9f37 db33 933a f25f e2ba
00000070: a3bc 20b9 5d44 643c c1de 6bba 19d8 47b9
00000080: 7ef0 f8b9 13bc dcbb 82cf 0bba 2c1e 0cb9
00000090: 4ed0 b539 0035 a53b 8693 d439 1416 3b39
000000a0: 03d3 6638 e79a 6c3a 9d66 023a 0e18 b03a
000000b0: 8821 b93a b6c1 df38 7c3f 243a 0b9c b33a
000000c0: 8864 c4b8 520c 24b6 7a6f d1ba 6c5b 1c3a
000000d0: 1e40 b938 62dd 0339 e32d 6eba ae1a 39ba
000000e0: 80d2 073a bcf6 49b9 622d 15bb d6e2 973d
000000f0: a4c9 57ba d4d1 193b 1ec2 a6b9 0d4c c3b9
00000100: 3b5e a73b a6ed 5ebb 3de1 c4ba c3e7 8439
00000110: 47f2 6fba 6e1b cbbb b017 90b9 bda1 59bc
00000120: b679 67bb 11c6 07ba cb09 93b8 165c c638
00000130: 7124 77b9 abf4 27bb da4f 713d 5688 a2ba
00000140: e015 bb39 7366 a239 20a0 6639 df51 9bba
00000150: 58f9 d638 27a8 1e39 4632 9639 b84b 533d
00000160: efdf 8fb9 1543 a93b aa6a 583b 389c 2fba
00000170: 7dd7 e93a c229 9c3a 1cc6 adba b270 2dbb
00000180: 7a28 ef35 50ab f5bb 901c 7e39 a75f c3ba
00000190: dd87 c239 e116 143b 3484 f0ba 4d6d 9bbb
000001a0: c775 a43a 732b 5939 8d74 1c3a 3cec 4fb9
000001b0: d4fb 05ba 8889 f237 54af 3dba 74a9 0f37
000001c0: c3cd d4ba 0ea3 e438 0dc7 08ba 68f5 c838
000001d0: 206e 8139 7d41 f7b9 0475 cdb9 0972 d3b8
000001e0: 1431 5abc 58d4 f1b9 0771 55ba 9515 32ba
000001f0: 155e 833a cde8 32bb ba92 41bc 57e3 153a
-0.00014470928 -0.00029875364 -0.0010436466 -0.00024099751 -0.0003678645 0.0005955002 0.0012361166 -0.010314105
0.00028717358 0.000235679 -0.0012494535 -0.00029674728 -0.00073337514 -0.00031569766 0.00045874825 0.00056475215
0.00028751194 3.9565854e-05 -0.00048537386 -0.00036675268 0.00029571372 0.0008312775 0.00015355866 -0.0025254504
0.00066051126 1.902286e-05 0.0011230664 -0.0017271026 -0.00015329062 0.013932315 -0.00089977315 -0.00019058622
-0.00047481427 -0.0067362874 -0.000533335 -0.0001336268 0.0003467821 0.0050417185 0.00040545705 0.00017841934
5.5032793e-05 0.0009025768 0.0004974397 0.0013434903 0.0014124373 0.0001066955 0.00062655634 0.0013703121
-9.364734e-05 -2.4445076e-06 -0.0015978657 0.00059645507 8.83343e-05 0.00012575605 -0.0009085817 -0.00070611655
0.0005181208 -0.0001926077 -0.0022762646 0.074163124 -0.0008231646 0.0023471015 -0.00031806616 -0.0003724996
0.0051076687 -0.0034016161 -0.001502074 0.00025349678 -0.00091532286 -0.0061983382 -0.0002748347 -0.01328319
-0.0035320348 -0.00051793555 -7.01133e-05 9.458528e-05 -0.00023569331 -0.0025628011 0.058914043 -0.001240025
0.00035683718 0.00030975378 0.0002199416 -0.0011849961 0.00010250759 0.00015130696 0.00028647686 0.051585883
-0.0002744193 0.0051654675 0.003302256 -0.00066989986 0.001784071 0.00119143 -0.0013257894 -0.0026464877
1.7818668e-06 -0.0074972287 0.00024233968 -0.0014905826 0.0003710379 0.0022596645 -0.0018349946 -0.0047432543
0.0012547307 0.00020710919 0.0005968295 -0.00019829063 -0.00051110727 2.8912691e-05 -0.0007235904 8.562918e-06
-0.0016235638 0.000109022585 -0.0005217649 9.582454e-05 0.00024686847 -0.00047160304 -0.0003918783 -0.00010082505
-0.013317365 -0.0004612531 -0.00081421476 -0.0006793377 0.0010022545 -0.0027299405 -0.0118147675 0.0005717775

exp_avg f4 [4]
00000000: 12f7 e4b9 7a10 abba e5ed 99bb 30b8 ad39
-0.0004367163 -0.0013051175 -0.0046975487 0.00033134362

exp_avg_sq f4 [4]
00000000: 3adb e239 9e1f 723a 9694 df39 566a 383a
0.00043269416 0.0009236279 0.0004264458 0.0007034888
