examples/drone/logs/drone-racing/model_3000.pt (torch, 474978 bytes, 36 tensors)

std f4 [4]
00000000: 5cdb 033e e87f 293e 5655 b33d 471a 8a3d
0.12876648 0.16552699 0.08756511 0.06743293

actor.0.weight f4 [128, 17]
00000000: 0501 2e40 ae61 823f e5dc 22c1 024f b93e
00000010: fb64 4bbf 460d a43f 955c 123f 0736 e73e
00000020: 7a33 863d 2b65 333f 7d12 693d bbd5 41bd
00000030: 29de 393d 13b9 6bbd 16f1 11bc fe75 14bd
00000040: c031 093d 3a2e f73e 4016 27bf 0aea da3f
00000050: a124 cebe d81b 77bf 4f57 f0be 6b2b 81bd
00000060: 4f32 6a3e 5b3e b13d 1047 e3bd d9a8 c53d
00000070: 534b 62bd 040f 93bd 392b 923e 30fc 783e
00000080: a89b 363e 9205 d43d 614d 9ebf 90c5 abbe
00000090: d5fd 98be ebd4 063f d0db b9bf f157 0c3f
000000a0: 489c 16bf 64a2 4abf 34b4 64bf 76c0 103f
000000b0: 1385 b9be 6864 613f 452b 593e b8c0 5c3b
000000c0: ebae 863c 2b1c 66bd 1ef0 c03b 933e 34bf
000000d0: 26e9 683f 6fbe 8d3f 3519 5d3e 6534 00bf
000000e0: b4b4 fa3e 605d 0abf 4ff7 a63e ee2f a83d
000000f0: 45bb 08be 8dff cb3b b5f3 d83d 01c5 e5bd
00000100: e893 203e 0e2d f8bd ef02 533c ab3a 393d
00000110: 88bb 8e3e e842 27be 5a45 c93e 4e90 d6be
00000120: 0fe1 e4bd 268a 3bbe 5b3d 053d 55ca d8bc
00000130: b00b 8a3d 05a6 3cbd 9811 60bd d289 5fbd
00000140: 2781 d4bb 526d 2d3e dcc4 c63d e3f4 0ebe
00000150: 2605 43be 3554 8d3e a102 15bf 2e10 0940
00000160: 98ed b93d 28f3 b3bf 233d 25bf 5bb2 56be
00000170: cfdd c63e 9ac7 d03d 97e0 81be 90b9 033e
00000180: e5a3 eb3e d3c0 1cbe 4b61 42be e750 b5bd
00000190: 30ff 15bd 5891 72bd 4a6b 0ec0 82d9 79be
000001a0: 30b7 77c0 ca59 6c3e b283 c7bf 75d4 533e
000001b0: eed8 6a3b 978a 303e b9aa b03e 9e0a 003f
000001c0: 1362 11be 41db 0a3f 20e1 83be f896 b0bc
000001d0: e999 373c adcb 02be 6c3e 22be bdb5 91bd
000001e0: 224e e63e b682 7540 370d 09bc caad 063d
000001f0: b5b9 713e 2236 09bf c0fe ea3e 1a80 303d
00000200: 0b9e f2be b3de 803e c123 e43e 3ad9 b9be
00000210: f81d 7cbd c14c 35bd 17a5 9c3d bad8 883d
00000220: 113b 7d3d d09a 39bd e893 6bbe 663e 1b3c
00000230: 872f b3bd 1da4 adbd 5cf1 d0bc 71d5 73bb
00000240: e2ba 40bb 3f06 953c 1a71 003d f0de 39bb
00000250: 29e6 aa3b cfd2 653e ba02 a1be 3dd8 71bd
00000260: bf63 9f3e 14e5 783f 854d 70bf 2ea9 f1bf
00000270: 98ca ac3c 9c13 dcbd b1d3 d83f dfb3 2440
00000280: 39ae 463f 5bc5 fb3e cfaa 623f d0c8 553e
00000290: 5642 d2bc 6ce7 00bd 5456 fdbc cd97 ad3b
000002a0: 80a6 bebd ea15 30be c7eb 503e da0c 2abd
000002b0: 254f 833e 4681 ebbe 0950 5abd 7123 aebd
000002c0: f31e 733c ced3 ad3c 955b 083e 4837 62bd
000002d0: e3ee 68bd 74c4 43bd 2098 16bc 644b a6bd
000002e0: eb0c 40bd 30fd c6bd ad6b d5bd 8044 51bd
000002f0: 4e25 a03f bdce 7abf 8e2f 153f 405b 43bf
00000300: 967e 703f e521 57bd cb79 293f 8e0c c6be
00000310: e343 8cbf 0293 cdbe 6567 813e b8ea df3e
00000320: 8569 d33c 81c7 dc3d f20b 8fbc 5b7e b4bd
00000330: 3a86 503f e4f0 dd3c d49b 63c0 3027 ec3a
00000340: 1286 243e 050b f13f 6094 ae3e 1903 813f
00000350: 4886 8f3e 0674 993f bb3d adbe a17b 953f
00000360: b881 893e 1d5f e33d 67f6 d13c d33d 44bd
00000370: ebf3 1b3e a76b a7bd 3e95 95bd 11ac e33e
00000380: 74d6 e5be 64c1 b7be 6151 2b3f 7b64 8fbd
00000390: 4de9 813e 0435 d13d f6ce 18bd 00ea 3dbd
000003a0: 4c5b 3cbe 9623 87bd 09ef a13d 240b c1bd
000003b0: 6afe e43d c5a6 10bd 42a3 0f3f be40 36bf
000003c0: 1530 643f 2a5e 9bbe efdb 9cbf ceb9 3abf
000003d0: 6be5 ddbd 1224 c13e b9ed 0d3e e42d 45be
000003e0: a20a 4e3e 5c62 313c 2bfd 64bd cdaa 1b3e
000003f0: 0cff ad3d 0018 5d3e ede9 e0bb 1b45 4f3f
2.7188122 1.018606 -10.178929 0.3619309 -0.7945096 1.2816551 0.5717252 0.45158407
0.06552787 0.70076245 0.056902397 -0.04732297 0.045377884 -0.057549547 -0.008907577 -0.03624534
0.03349471 0.48277456 -0.65268326 1.7102673 -0.4026232 -0.9652686 -0.4694161 -0.063071094
0.22870754 0.086544715 -0.110975385 0.09651346 -0.055247616 -0.071805984 0.285486 0.24314952
0.17832816 0.10352625 -1.2367364 -0.33549166 -0.29881158 0.5266864 -1.4520206 0.5482169
-0.58832216 -0.7915404 -0.8933747 0.5654367 -0.3623434 0.8804383 0.21207912 0.0033684205
0.01644083 -0.056179207 0.005887999 -0.7040798 0.90980756 1.1073741 0.21591647 -0.5007995
0.4896599 -0.5404873 0.32610556 0.08212267 -0.13352688 0.0062255324 0.105933584 -0.11219216
0.15681422 -0.121179685 0.012879117 0.045221966 0.2787745 -0.16334116 0.39310724 -0.4190697
-0.11175739 -0.18314418 0.032529216 -0.026463667 0.067405105 -0.046056766 -0.05470428 -0.054574795
-0.0064851227 0.16936234 0.09705517 -0.13960604 -0.19044933 0.27603307 -0.58207136 2.1416125
0.090785205 -1.405858 -0.6454641 -0.20966475 0.38841102 0.10194321 -0.2536666 0.12863755
0.4602348 -0.15307932 -0.18982427 -0.088533215 -0.03662032 -0.05922064 -2.2252984 -0.24399379
-3.8705559 0.23081127 -1.5587065 0.20686515 0.0035834867 0.17240368 0.3450525 0.500162
-0.14197569 0.54240805 -0.25757694 -0.021556363 0.011206129 -0.12773009 -0.15844125 -0.07114742
0.44981486 3.836103 -0.008364967 0.032880582 0.23605998 -0.53598225 0.45897484 0.043090917
-0.47386202 0.25169906 0.44558528 -0.36298543 -0.061552018 -0.04426265 0.07648676 0.06681962
0.06182391 -0.045313656 -0.2300564 0.009475326 -0.087492995 -0.08478568 -0.025505714 -0.0037206078
-0.0029408266 0.018191455 0.031357862 -0.002836164 0.0052154255 0.22443698 -0.31447393 -0.05904411
0.31130788 0.97224545 -0.93868285 -1.8879755 0.021092698 -0.10745928 1.6939603 2.5734785
0.7760959 0.49174008 0.88541883 0.20877385 -0.025666397 -0.0314707 -0.030924954 0.005297637
-0.09309101 -0.1719586 0.20402442 -0.041516162 0.2564632 -0.45997065 -0.053298984 -0.08502854
0.014838922 0.02121916 0.13316186 -0.0552285 -0.056868445 -0.047794774 -0.009191543 -0.08119848
-0.04688732 -0.097162604 -0.10420928 -0.051090717 1.2511384 -0.9797171 0.5827569 -0.7631111
0.93943155 -0.05252256 0.66201466 -0.38681453 -1.0958217 -0.4015122 0.25274196 0.43733764
0.025807152 0.1078024 -0.01746175 -0.08813163 0.81454813 0.027092405 -3.556386 0.001801705
0.16066769 1.8831488 0.34097576 1.007907 0.28032136 1.1988533 -0.3383616 1.1678354
0.2685678 0.11102126 0.02563019 -0.047910523 0.15229766 -0.0817483 -0.07303856 0.44467214
-0.44890177 -0.35889733 0.6692105 -0.07001587 0.25373307 0.1021519 -0.03730675 -0.046365738
-0.18394202 -0.06598584 0.079069205 -0.09425953 0.11181338 -0.035315294 0.56108487 -0.7119254
0.8913587 -0.3034528 -1.2254618 -0.72939765 -0.10834774 0.37722832 0.13860215 -0.19255787
0.20121244 0.010826673 -0.055905502 0.15201874 0.08495912 0.21591187 -0.0068638236 0.8096482

actor.0.bias f4 [128]
00000000: c01a c43d 1142 c1be ada8 3fbe 856e 0cbf
00000010: 56c2 da3e 2a5a 693e f7b8 6bbe 214a 9cbd
00000020: 8b87 08be 3bcd 093d 5bd4 213f 26ee 203e
00000030: 8472 653e efad c33d 2fa5 47be 8239 24bf
00000040: c566 bb3c e9ed 413e 3119 6fbe 7de6 a8be
00000050: 68e0 d93e ed58 f0bd b82f 0b3e 8b5f 77bc
00000060: 273e 00be dd9f 99be d745 873e d472 ca3e
00000070: fa54 2ebe 8016 68bd 58e0 97bc 7024 ecbd
00000080: d908 d6be 216e c23e 11aa 053e d4ac 6dbe
00000090: 14cd 24bf eac1 db3d a98a c4be abc3 69be
000000a0: b518 27bc 6b79 79be ffda 873e feef 0f3e
000000b0: c9a2 45be 7641 70be ce49 2bbe a220 3bbe
000000c0: a267 1abe aebe 7a3d 8ebd 853e 5283 b5be
000000d0: 9764 8abd f977 723e d5cb 7fbe 19f3 863e
000000e0: 3445 6d3e b258 e5be 4cb8 4cbe 8001 463b
000000f0: c53b d43e c32b 8f3e 1054 cb3d 5c34 86be
00000100: 4509 0ebf 5885 7f3d 3e18 2e3f b35c d2be
00000110: ae42 273e e2ac 563e bb23 48be 648a 07bf
00000120: b9c0 823e 7aaa 603d a7f5 b3be dc1e 343e
00000130: 151e 073f bb7f e4bd 3c22 98bd 5104 10be
00000140: f142 38be ac73 183e bc07 483e 51fc 083e
00000150: b53e 2b3d b47e adbe 681d 633e fd92 b33d
00000160: bb65 a2be 91af 6bbe 4b41 b7be 8e33 fbbd
00000170: 1778 903c a632 62bd df21 87bd 3ec3 f23e
00000180: 56b8 27bb 8676 d23e cd69 b0bc 75f5 05be
00000190: cf9c 53be 0267 ae3e d378 5ebe 6a51 4bbe
000001a0: f19e 00be ac87 e9bd 6ce5 233e ae18 b1bc
000001b0: 6797 b4be 4067 e23b 52ea 463c 882f 003d
000001c0: 80d6 0dbe 38fd 35bd 6c6c 21be 830d b1bd
000001d0: 89ae aabd 6e5d 7ebe 2cb6 7e3e 9dc9 053d
000001e0: 6a0a 8d3d 8e16 f83d a038 a9be a8ba 01bf
000001f0: 251c 213e 1c13 1bbe 6922 233e aa74 0cbd
0.09575415 -0.37745717 -0.18716688 -0.5485614 0.42726392 0.22788301 -0.23019777 -0.076313265
-0.13332956 0.03364299 0.63214654 0.15715846 0.22406965 0.095546596 -0.19496606 -0.6415025
0.022876153 0.18938412 -0.23349454 -0.3298835 0.4255402 -0.11735711 0.13592422 -0.015098463
-0.12523709 -0.30004779 0.2642047 0.39540732 -0.17024603 -0.056662083 -0.018539593 -0.115303874
-0.41803625 0.37974647 0.13053156 -0.2321046 -0.64375424 0.107303455 -0.3838704 -0.22828548
-0.010198762 -0.24362724 0.26534268 0.14056394 -0.19300379 -0.23462471 -0.16727373 -0.18274167
-0.15078595 0.061217003 0.2612118 -0.35451752 -0.06757467 0.23678578 -0.249801 0.26357344
0.2317093 -0.44794232 -0.19992179 0.0030213296 0.4145185 0.27963075 0.09928143 -0.26211822
-0.55482894 0.062383026 0.6800574 -0.4108635 0.1633403 0.20964387 -0.1954488 -0.5294554
0.2553766 0.05485008 -0.35148355 0.17589897 0.52780277 -0.11157175 -0.07428405 -0.14064147
-0.17994286 0.14887875 0.195342 0.13377501 0.04180785 -0.3388573 0.22179186 0.0876827
-0.3171824 -0.23016192 -0.35792002 -0.12265693 0.017635388 -0.055224083 -0.06598257 0.47414583
-0.002559205 0.4110605 -0.021534825 -0.13081916 -0.20665286 0.34062964 -0.21725778 -0.19855276
-0.12560631 -0.114028305 0.16005486 -0.021618214 -0.3527176 0.006909281 0.012140827 0.03129533
-0.13851357 -0.04443094 -0.15764016 -0.08645155 -0.08334071 -0.24840328 0.2487418 0.032662977
0.06886752 0.12113677 -0.33051014 -0.5067544 0.15733393 -0.15144008 0.15931095 -0.034290947

actor.2.weight f4 [128, 128]
00000000: 95e0 36be b663 9c3d 6115 3f3d 4192 173e
00000010: 26ed 603c faf0 efbd 2f83 db3c 807b 6d3e
00000020: fc2f a9bd 2a02 093e 57ff 42bc 3130 e5bd
00000030: d1fe 2fbc 7777 013b e2ea 0c3d ddd6 f6bd
00000040: ba80 b83d e0a1 1c3b ea94 cebd 293f 3b3d
00000050: 7a79 ec3c d7ab 73bc b554 90bd 46b7 5a3d
00000060: 888d b4bd 91e1 4c3d 27a1 8dbd fd3b 5fbd
00000070: 3114 9ebd 7475 edbb 51e8 a53c 531f 313d
00000080: 0b6a d13c 10b5 9b3d 9095 05be 0ede cbbd
00000090: 23ef a33d 6afd e4bd 6753 bc3d cec1 e1bd
000000a0: 3538 7abd a52d c0bd 4ca1 0ebc eecd b3bd
000000b0: fb2b c9bc c405 52be a84e 053e 44c8 ad3d
000000c0: 0311 3cbd 1466 283d a69a 3f3d 3ab8 c2bc
000000d0: ce92 13bd 06d8 dc3d 8623 74bd ed17 533e
000000e0: 3201 2fbe 66f5 a9bd 1377 ba3c 1ba5 d7bc
000000f0: 0fb5 01be b114 603d 1382 ddbd 97f9 f5bc
00000100: 6827 85bd 43e3 693c 0aa1 cc3d c5a5 3a3e
00000110: 609a a4bd 50c4 02bd a225 143b c6af 153d
00000120: 4e9d 843d 14d3 e6bd 223e 96bc 7784 d8bc
00000130: 0c8a 123e 17cf a63c 74a3 e73d 1295 71be
00000140: e30c 36bd 5b13 dc3b d69c fe3d 6190 1dbe
00000150: 7d58 fcba c645 e53c 72f4 b63c ab0f 74bd
00000160: 685a 8cbd aaa7 c23c cafd 963d b7ce 04be
00000170: 9a11 0a3c 6b89 f23c 3999 343d a401 0bbd
00000180: 98a4 20be 4ee8 033d 4b94 053d 250e f23c
00000190: 8be9 bebd 1413 c93d 3dec 54be 99f6 f4bb
000001a0: dee4 1abe 62eb 0b3c f566 a13d cfad d33c
000001b0: 62f4 4d3e e0df 433e f548 ad3d 9745 213d
000001c0: f60c 30bd 422d 293c a7d0 64be 246a 6ebd
000001d0: 23d6 cf3a 0855 703d d191 b5bd 122a 973d
000001e0: 6903 933d 9c39 90bb c9ac 5abb 398e 29bd
000001f0: b998 dcbd d62d 283d 0d2c 0a3d 8ce8 32bd
00000200: ba69 0b3d b6b1 a3bd f437 e9bd 3f09 b63d
00000210: 34eb 09bd cd14 64bd e8bd fcbd 9023 003d
00000220: abb8 b03c 3bef d03c c2aa 363c 7b17 54bd
00000230: 2bed 043d 7ff6 1abd 9d3c 5dbe 0889 bc3d
00000240: f9a8 5cbe 5137 5bbd 6a6e 4f3b cd7f 853c
00000250: caf5 4d3e 5893 b4bd 699d 6ebc f7f6 70bd
00000260: 49b0 b6bd b867 7a3d 9654 b4bd f470 593d
00000270: 7233 bebc 7ba1 823c dd99 a83d 3126 8bbd
00000280: ab52 bbbd 3a71 8abd b783 583e d23c 94bd
00000290: 8425 cd3c eace 0b3c f5dd 393c 83ba c13d
000002a0: d531 b93c f353 9fbd 511b 10be b934 673d
000002b0: 1bf9 3cbe c92f aa3c 90aa f5bc 4ec4 653c
000002c0: 5b32 cbbb 3a00 713d 9dc3 063e 29e2 943d
000002d0: 038a b4bd 2ed5 e83c b96b 54bd 62fd 24bd
000002e0: 4596 bcbd aa2f b1bc 151d bebc 13eb bdbd
000002f0: 8c1d 613d 1638 28be 1068 503c e180 5ebd
00000300: 7203 23bd 09c9 edbb e7de 91bd 111b ccbd
00000310: 1cab 653c fecb 92bd e8e0 fd3d 9f9d ca3d
00000320: a1f2 123d a079 853d 8169 20bc 5119 2dbd
00000330: 68a2 ac3d 790b 753d 4f81 093c 8624 27be
00000340: b663 52bc 4bb3 453d 8cc0 e53d 7aba babd
00000350: fdbe 863d 9f5f 0f3e 6d74 91bc 4978 053d
00000360: 3a95 043d 2fbc 983d 22b4 ea3a 620f ea3d
00000370: ecac 883d 0c2b 0fbd b3f0 a2bb 94eb 9f3d
00000380: cbb1 2ebd 310e 593c 0d14 b5bd 5309 adba
00000390: c4f7 023d f0c5 70bc 1b97 65ba d367 7e3b
000003a0: 1905 dbbc cd96 0e3e 2172 323e 706d 9abc
000003b0: 7b01 f43d b76e 8bbc c512 94bb b7b3 63bd
000003c0: 6c73 3abd 9c7a d3bc 4f1b f93d f3cc af3d
000003d0: 2e4c 24bd 9bcc f13c dd7d 06bc fd1d 533c
000003e0: bc2c 8dbd 6f89 12bd 75ab 08be 2183 1e3d
000003f0: 8fe1 ae3d dcba 54bc 52c6 eb3d ef84 24be
-0.17859109 0.07636206 0.046651248 0.14801885 0.013728416 -0.117158845 0.026795952 0.23191643
-0.082611054 0.13379732 -0.011901698 -0.111908324 -0.010741905 0.0019755044 0.03440369 -0.12052701
0.09008928 0.0023900196 -0.10086997 0.04571453 0.028866518 -0.014872513 -0.070474066 0.05339744
-0.088160574 0.050019804 -0.06915503 -0.05450057 -0.07718695 -0.0072466675 0.020252379 0.043242764
0.02556326 0.07602894 -0.13045335 -0.09954463 0.08004596 -0.111811474 0.09195595 -0.110232934
-0.06108876 -0.09383706 -0.008705448 -0.08779512 -0.024557104 -0.20510012 0.13018286 0.08485463
-0.04591466 0.041112974 0.046778344 -0.023769487 -0.036028676 0.10783391 -0.05960419 0.20614596
-0.170903 -0.08298759 0.022761857 -0.026323846 -0.12666725 0.054707233 -0.10815825 -0.03002624
-0.06501657 0.014275375 0.09991653 0.18227299 -0.08037257 -0.0319255 0.0022605439 0.036544584
0.06475316 -0.11270729 -0.018340174 -0.026430352 0.14310473 0.02036242 0.11310473 -0.23592022
-0.044445883 0.0067161745 0.12432258 -0.15387107 -0.0019252446 0.027987372 0.022333357 -0.059585255
-0.06853181 0.02376159 0.07372625 -0.1296948 0.008427048 0.029606542 0.044091437 -0.03393711
-0.15687788 0.032203965 0.032612126 0.02954776 -0.093218885 0.09818092 -0.20793243 -0.007475686
-0.15126368 0.008540006 0.078809656 0.025839714 0.20112756 0.1912837 0.08461181 0.039373007
-0.04298111 0.010325732 -0.2234522 -0.058206692 0.0015856664 0.058674842 -0.08865703 0.07381071
0.07178385 -0.004401399 -0.0033367148 -0.0413954 -0.10771317 0.041059338 0.033733416 -0.043678805
0.034036376 -0.0799288 -0.11387625 0.08888482 -0.033671573 -0.0556839 -0.12340909 0.031283915
0.021572432 0.025504699 0.01114911 -0.051780205 0.032452744 -0.037832733 -0.21605153 0.09205824
-0.21548833 -0.05351955 0.0031651505 0.016296292 0.20113292 -0.08817166 -0.014563897 -0.058829274
-0.089203425 0.06113407 -0.08805196 0.053086236 -0.02321789 0.01594614 0.08232472 -0.06794394
-0.09146627 -0.067598775 0.21143995 -0.07238163 0.025042303 0.008533219 0.011344423 0.094594024
0.02260677 -0.07779684 -0.1407292 0.056446765 -0.18454401 0.020774739 -0.029988557 0.0140238535
-0.006201071 0.058838107 0.13160558 0.07269699 -0.08815386 0.028421964 -0.051860545 -0.040280707
-0.09208349 -0.021629173 -0.023207227 -0.092733525 0.05495982 -0.16427645 0.012720123 -0.054322127
-0.039798208 -0.0072566313 -0.071225934 -0.099661 0.014017846 -0.07167815 0.12396413 0.09893345
0.03587592 0.06517339 -0.009790779 -0.04226047 0.08429414 0.059825394 0.008392646 -0.16322526
-0.012841156 0.04826669 0.11218366 -0.09117599 0.06579397 0.1400132 -0.017755711 0.032585416
0.032368876 0.07457768 0.0017906467 0.11428715 0.06673607 -0.034953162 -0.0049725412 0.07808605
-0.042650025 0.013248012 -0.08841715 -0.0013201631 0.03197457 -0.0146956295 -0.0008758173 0.0038819208
-0.02673583 0.13924713 0.17426349 -0.018851012 0.11914345 -0.017020566 -0.004518839 -0.05559131
-0.04552023 -0.0258153 0.12163412 0.08584013 -0.040111713 0.029516509 -0.008208719 0.012885568
-0.06893298 -0.0357756 -0.13346656 0.038699273 0.08539116 -0.012984004 0.11512436 -0.16066335

actor.2.bias f4 [128]
00000000: 7646 abbc a734 033c 48db 0f3e cb54 7fbe
00000010: 7cc6 e53d 5bdf 1b3e c0c1 2a3e 11c5 a8bc
00000020: 2245 b33d bee4 bebd 1264 57bf 2a40 3bbd
00000030: a2c2 f7bd b8b4 91bd 5b40 0d3e 0c77 023d
00000040: f6a0 1b3e 7cca ce3c 617c ccbd 9616 c5bd
00000050: efec 97be f327 c0bd 1c37 afbd b49f 173f
00000060: d668 fdbc 21e4 52bf fce9 d53c 64ab e7bc
00000070: daf0 0fbf 51dc 99bb 38f2 873e 5ebb e1bd
00000080: 78c3 8bbd a49f 8b3c 200f 73bd a44b 9ebe
00000090: d723 7abb 61cb 8f3d a428 3b3d 5f89 58bc
000000a0: 3894 da3d 2f19 27bd 707d 14bd 5a42 153f
000000b0: bf6c 29be ba77 cbbc 5264 5b3d e259 c63d
000000c0: 2426 ddbe e1c1 a7be e417 633d c075 02be
000000d0: 2cb5 6bbd 0fb7 433d 7fd8 d03c 0461 a9bd
000000e0: e4f6 cdbc 2df7 22be 9303 283d 1a7b fdbd
000000f0: be22 b03c a282 4fbd bcd6 8a3d 3fe7 df3d
00000100: bd6f e4bd bb7e 9dbd 84e7 57bc 9a6b 323d
00000110: b2bd 363d f14d 9e3d b5ba 393d a1e9 efbc
00000120: a9ba 863e 57af c13c 15b0 b33d dcad 203c
00000130: 36dc 293d 0251 71bd 3e49 50bd ba0c bbbd
00000140: 8d8c 3b3c 1b0a f63d 2329 8a3d 3160 c7be
00000150: 2bed 91bd 2211 40bd 0054 30bc b715 82bc
00000160: 94ad 3ebc 494e 193f a147 ebbd 7a7a b4be
00000170: ca8a 1d3d 0d75 28bd 9748 6c3d 417c 923c
00000180: 7c61 fbbc 72d4 c93c 1314 843f 88c6 b33d
00000190: 5f3d 48bc e75e b33e d00a 79bc f1e0 4a3d
000001a0: bcd1 b0bc 36bb b1bd 8ba0 053e b44a d73c
000001b0: cdfd e9bd 4300 a53e a269 dd3e ea66 9e3c
000001c0: 0ec6 5d3d f55a 0a3d 3cb5 28be 880e ffbb
000001d0: 935a 753e 2132 7b3d 3731 27bd 58cf 70bd
000001e0: 13b2 0dbe 1a85 853d 0658 883d 8466 9bbd
000001f0: 4d65 923e 7851 013e 00d6 a43d 698f 7ebb
-0.020907622 0.008008159 0.14048493 -0.2493469 0.112194985 0.15221922 0.16675472 -0.020601781
0.087534204 -0.09320973 -0.8413707 -0.04571549 -0.1209767 -0.071145475 0.13794081 0.031851813
0.1519812 0.025243036 -0.09984661 -0.096234486 -0.29672953 -0.0938262 -0.08555433 0.5922806
-0.030933779 -0.8237935 0.026112549 -0.028279968 -0.56226885 -0.004695453 0.26551986 -0.110220656
-0.06824392 0.017043896 -0.059340596 -0.30917084 -0.0038168335 0.07021213 0.045693055 -0.013216346
0.10672802 -0.0407955 -0.03625244 0.5830437 -0.1654539 -0.024837364 0.05356247 0.096851125
-0.4319316 -0.32765105 0.055442706 -0.1274023 -0.057545826 0.047782 0.025493858 -0.082704574
-0.02514214 -0.15914603 0.041019034 -0.123769954 0.021500941 -0.05066169 0.067792386 0.109327786
-0.11154125 -0.076901875 -0.013177756 0.043559648 0.0446145 0.0772971 0.045344073 -0.029286208
0.26314285 0.023643179 0.08773819 0.009807076 0.041469775 -0.058915146 -0.0508511 -0.09133287
0.011447084 0.12013646 0.067461275 -0.38940576 -0.07125314 -0.04689134 -0.010762215 -0.015879495
-0.011638064 0.5988508 -0.114882715 -0.35249692 0.038462438 -0.041127253 0.057686415 0.017881515
-0.030686133 0.024637435 1.0318626 0.08778101 -0.012221663 0.35033342 -0.015200332 0.049530927
-0.021584384 -0.08678286 0.13049524 0.026280738 -0.11425362 0.32226762 0.43244654 0.019336183
0.054143958 0.03377815 -0.16475385 -0.0077837147 0.23960333 0.061327104 -0.04081842 -0.05879149
-0.13837461 0.06519528 0.06657414 -0.07587913 0.2859291 0.12628734 0.0804863 -0.0038842803

actor.4.weight f4 [4, 128]
00000000: 52ed 9eb9 7669 393a 660b f6ba 7a46 923c
00000010: 0ae4 8eb9 e309 bfb8 8a24 873b 44a8 e03d
00000020: d696 b6bd 3da4 94ba 93c0 70be 3658 fb3a
00000030: 20db b4bd d4d5 87ba 3739 10bb 2456 b63b
00000040: 5c95 643c 73b4 4439 df4d d539 dd7f 473d
00000050: fb81 e3bd 2afc 16ba e94f 06bd eaad af3e
00000060: 98bd 793b b5ad aa3d 0aaa 8a39 a65b 42ba
00000070: 0243 33be 34db bfb9 2863 a43d 73bd 6cba
00000080: 4180 c039 c3e4 383b ad84 0a3b 9ac9 613e
00000090: b4b3 5d3b 9a8b 2d3b 781c 9d3b afc8 5d3b
000000a0: 2c79 23bd 7beb 9039 cbd4 5c39 d4ca bdbd
000000b0: 9cb3 323e 9493 e2ba 32a5 3a3b 1743 3dba
000000c0: df35 47bd 5465 99bd 55f6 a1bc faeb 4cbd
000000d0: 4a84 823d d49c 7abb 8258 3cbb b54a 62bb
000000e0: 20c6 86b9 4ad5 c23d f43b 3a39 5e25 bdbd
000000f0: 5a1a 1fba fd2c 14ba 4c2c 623b 2476 17bb
00000100: 4583 e638 d855 1bba 331d 4db8 3616 a337
00000110: cf0a 36ba 2c05 15ba 9404 9b3d 5799 09bb
00000120: b543 803c fdab b3bd a4a5 7438 649f 863a
00000130: 708a a53b 8f0c 85bb 24d5 043a 254b c03d
00000140: 52a8 ca3a 4dd2 173d e3c3 2eb8 9eff 41be
00000150: 3cc7 a739 0d87 233a 7005 3dbb 02a1 0d3b
00000160: ed0d 8b3a 883f 46bd 2828 a536 f442 3bbc
00000170: d85a 8739 4c96 38bd 8c1b ce39 bbdd 84b9
00000180: e0bf 053b 09a6 aeba 81b5 843e a1eb a6b8
00000190: b636 e83a 0363 553c 934e f539 33da 9eba
000001a0: b0f4 1bbb 84f0 a7ba 3f62 c3bc dda7 0fbb
000001b0: ab08 5b39 9018 a63d 2cd4 0f3d af35 993a
000001c0: e080 1ebb 9a93 b3ba ebfe 31ba d795 093d
000001d0: 41de 3b3e d9d5 20b9 39b7 0fbb a308 103d
000001e0: da0e 2cba 9c1d c03d 8e2d 46bd cf06 6cbd
000001f0: c1c4 f13c 60b3 05bd 0aac b339 70ee 14be
00000200: a227 1a3b 4842 41bb 5dc4 a33b 9873 edbc
00000210: 63ac 0dbb 2917 da3b a55e e1bb 3904 91bd
00000220: d681 e83c e632 0e3a da4f 0f3e 6e2e e2ba
00000230: 41cb 3cbe ee2e 54bb 7aec 75bb a27b c73a
00000240: 6f02 273d ba91 9a3b f247 29bb 8f29 b9bc
00000250: 4af6 03bd cf74 9ab9 856a d7bd 19d8 9cbc
00000260: 25e4 95ba bb30 1bbf 4503 503c 1a6a a53a
00000270: e6ef 69bd 88db fa3a 6b84 1a3d bc64 28bb
00000280: f882 4bbb 4b1a 223c 33a3 a73b 773f 1abd
00000290: 4093 3f3b 27e0 553c 2eb6 c63b 80b2 653b
000002a0: 7490 5a3e 0855 15ba a0be e83a 79e7 783c
000002b0: 932c 683d 35ff 46bb 5cd4 64b9 31e8 4d3b
000002c0: a104 9dbc 781b 3f3c c5b1 a7bd b4ef c5bd
000002d0: f8b5 d03d 8c46 8dbb f2fc f0b9 282f 023b
000002e0: 2dd8 323a 3a5a a7bd d70f a93b 9763 02be
000002f0: 8d1f ee3b 67f2 88b7 bd84 253c de7b 82bb
00000300: 8d29 e4bb 556f 35b9 fa64 6e3b ab62 e73b
00000310: e92b 4b3b 7060 b9bb 9561 7c3e 94e3 babb
00000320: 8c59 123e 89c5 4839 5967 5139 59d5 a4bb
00000330: b7c6 c93b 7686 343b 80a0 aeba 6db9 28bd
00000340: ccf4 25ba 3801 9f3d 0b6a 2b3b 3d31 18bc
00000350: cda0 2b39 bbeb 6b3b 1cda b939 ed55 58b8
00000360: 5383 f7ba 79a6 793d 75a6 b8bb 9baf 19be
00000370: 04ab 0c3c 27ec 99bd bbc8 be3b d828 973b
00000380: 0eb6 f33b 3cb4 dfbb 98b6 af3e 68b0 443b
00000390: 18c3 49bb 3349 97bd d85f 9abb 7c2b a7b7
000003a0: f116 18bc 88c4 a8ba bf60 57be b896 bebb
000003b0: 140d 94bb d32a 223e 636f 7e3d 4df8 80bb
000003c0: 9768 20bb 9901 4bbb 9147 f3bb 495c 4abd
000003d0: 1713 b3bd 835f 2a3b 5ec8 163b cdb8 013e
000003e0: b0d4 30be 517c a8bd 5273 053d aaff ea3d
000003f0: 55aa f0bd 8c07 cc3b c36a c33b 9b20 d93c
-0.00030312926 0.0007072905 -0.0018771708 0.017855871 -0.00027254253 -9.109431e-05 0.004124229 0.10969594
-0.089154884 -0.0011340451 -0.23510961 0.0019176069 -0.08830857 -0.0010363408 -0.002200676 0.005564468
0.013951626 0.00018759239 0.00040684544 0.048705924 -0.11108776 -0.0005759621 -0.032791052 0.34312373
0.0038107391 0.08333913 0.000264481 -0.00074141694 -0.1750603 -0.00036593678 0.08026725 -0.00090309157
0.0003671665 0.0028212524 0.002113621 0.22049561 0.0033829035 0.0026480914 0.0047946535 0.003384154
-0.03991048 0.00027641267 0.00021060107 -0.09267202 0.17451328 -0.0017286413 0.0028479812 -0.0007219775
-0.04863536 -0.0749003 -0.01977078 -0.050029732 0.063728884 -0.003824045 -0.0028739278 -0.0034529392
-0.00025706086 0.09513338 0.00017760677 -0.09235643 -0.00060692953 -0.0005652456 0.0034511266 -0.0023111189
0.000109917055 -0.00059255725 -4.8903003e-05 1.9441457e-05 -0.00069443596 -0.00056846696 0.075692326 -0.0020995939
0.015657285 -0.087730385 5.8328398e-05 0.0010270891 0.0050519034 -0.004060335 0.0005067161 0.09389333
0.001546154 0.037065793 -4.1667266e-05 -0.18945166 0.00032001163 0.00062380807 -0.0028842352 0.002161086
0.0010609009 -0.048400432 4.922058e-06 -0.011429537 0.0002581689 -0.04506521 0.00039311906 -0.00025342204
0.0020408556 -0.0013324629 0.25919726 -7.959386e-05 0.00177165 0.0130240945 0.00046788584 -0.0012119472
-0.0023796968 -0.0012812768 -0.023850558 -0.0021920123 0.00020888697 0.08110154 0.035114452 0.0011688973
-0.0024185702 -0.0013700605 -0.000679 0.033590164 0.18346502 -0.00015338454 -0.0021929278 0.035164487
-0.00065634924 0.093806475 -0.048383288 -0.05762368 0.029512765 -0.03264177 0.0003426972 -0.14544082
0.0023522158 -0.002948897 0.0049977736 -0.028985783 -0.0021617643 0.006655593 -0.0068777376 -0.070808835
0.028382223 0.00054244546 0.13995305 -0.0017256269 -0.1843691 -0.0032376605 -0.0037524984 0.001521934
0.040773805 0.004717079 -0.0025830236 -0.022602824 -0.0322173 -0.00029460198 -0.10518364 -0.019146012
-0.001143579 -0.6062123 0.012696092 0.0012620122 -0.05711355 0.0019138912 0.03772394 -0.0025694808
-0.0031053405 0.009893964 0.0051158904 -0.03765818 0.0029232055 0.01305393 0.006064198 0.0035049021
0.21344167 -0.00056965696 0.0017757006 0.015191906 0.056683134 -0.0030364518 -0.00021822884 0.0031418914
-0.019167246 0.011664264 -0.08188204 -0.0966486 0.10190958 -0.0043113884 -0.00045964826 0.0019864533
0.0006822374 -0.08171506 0.005159359 -0.12733303 0.0072669447 -1.632534e-05 0.010102448 -0.0039820513
-0.006962961 -0.0001730298 0.0036376105 0.0070613227 0.0031001514 -0.005657248 0.246466 -0.005703399
0.14291972 0.00019147074 0.00019970293 -0.005030316 0.006157722 0.0027545965 -0.0013322979 -0.04119246
-0.0006330728 0.07763904 0.0026155736 -0.009289083 0.00016367734 0.003599866 0.00035448454 -5.1578438e-05
-0.0018883742 0.060949776 -0.0056350776 -0.15008394 0.008585695 -0.075157456 0.005822269 0.0046130233
0.007437474 -0.0068269055 0.34318995 0.0030012373 -0.003078645 -0.073870085 -0.0047111325 -1.99282e-05
-0.009282813 -0.0012875954 -0.21033 -0.005816307 -0.0045181606 0.15836649 0.062117945 -0.0039358498
-0.0024476403 -0.0030976294 -0.007424303 -0.049404416 -0.087438755 0.002599687 0.0023007612 0.12668152
-0.17268634 -0.082268365 0.03258068 0.11474545 -0.11751238 0.0062264856 0.0059636547 0.026504805

actor.4.bias f4 [4]
00000000: 38b0 a63e d585 ec3e 0ac0 0d3f cd67 cb3e
0.3255632 0.46195856 0.55371153 0.3972763

critic.0.weight f4 [128, 17]
00000000: 24f0 b53e e0fd b7bf b70b 63c0 0b8a b9be
00000010: 30d3 e13f 7d9a 513f 9e9b 6abd f33e 5c3f
00000020: 7879 1240 faab 0fbe 76d8 173f 361d 0a3e
00000030: fca6 84be 2583 e0be 7d31 6ebe 3daa d5be
00000040: f8a2 f8be d046 c0c0 d7b2 b8be a09b 51c0
00000050: c884 5fbf 9629 8b3e a07f 95bf 9ec9 05be
00000060: a2d3 af3f 04fe 2c3f e719 8f3e 3d87 c6bd
00000070: 362c 423b 26f1 263d d9e7 a5bd 1649 203d
00000080: 6fe1 1abe a3b1 8e3d 42da 973f 2926 893f
00000090: 4e03 eabf c2ab 2a3f 4e84 a7bf 2fe6 fe3f
000000a0: 107a 92bd 4bce 833c 52eb bc3d 7a17 16bd
000000b0: 37d1 babe e60f 023d ed18 02bf 411d 9b3e
000000c0: 618f 1d3f e073 023f 9cdd 543f 9f1d 733f
000000d0: b2f4 d6bf 440a 16c0 b946 0abf 2388 46c0
000000e0: fe13 8e40 ab27 7ebf 6e98 103f 840b 35bf
000000f0: 3b34 9bbe 5c81 26bd 23b3 b2be 42c7 85bd
00000100: 8f5b 0a3e d650 5f3e 3124 2d3e c57e 273e
00000110: 88de 933f 8aea 303f 663d 94bf 6d51 06bf
00000120: fcd5 e1bf 4830 1140 ac11 eebf 3225 1fbf
00000130: 03dc 58bf 8ead 8d3f 47de 0b40 d5f8 6c40
00000140: 43b1 893f e4a2 5e3e 8150 bdbe b4ef dc3b
00000150: bfa2 45bd 1bf3 db3f 1791 d33f fd54 8340
00000160: 048d 61bf 1956 efbd 11ce 0d3f d655 413f
00000170: e889 1140 4be2 d53f 2a72 2bbf 3073 03bf
00000180: 18f0 3c3e 0c27 dc3d afa9 853e c12d 9c3e
00000190: d7b9 a93e f476 e83e aa32 e5bf 3cc8 8ac0
000001a0: 3dc5 65c0 d6d0 a2be 08a2 4d3e 0ad1 5840
000001b0: d2b7 0b3f 5676 903e 55da 113f d7f6 69be
000001c0: aaef 34bf 42da 18be ba17 163f 17d6 733e
000001d0: 0be8 e63d 6500 863e 6cbc bf3d d156 e8be
000001e0: d044 07c0 32ad 9c40 7c74 133d 9407 68bf
000001f0: 9165 1040 1a00 2840 fa51 23bf 6afb 03c0
00000200: 6c21 dd3e 616c 473e 4bf7 f7be 9e9d d3bd
00000210: feef ddbc 8523 c03d ca2d 983c 43d0 473e
00000220: 5a26 a5be 9e80 2740 5542 813d d17d 14bf
00000230: a128 5cbf f340 a43f 40e0 153e 4cd9 543f
00000240: 933e afbf eb16 0b3f 5a13 ee3f 18bf 0f40
00000250: 1d53 e6bf 6c78 5c3d 29d1 593d 22df 913d
00000260: d827 c33c 8302 16c0 3548 b63f 4ff7 1241
00000270: 7ab1 95bd 8eb7 99bf 2a35 ab3f 3890 b83f
00000280: 3357 b6be 55de 02c0 1fc6 e43d 2c95 7a3e
00000290: 96b4 153e 6833 2dbe 7d8e cb3e 75b6 153e
000002a0: 8666 b93e d14a 873e 3473 d23d 8108 a83f
000002b0: c58d ae3f 4438 8b3e b647 953f 12fe 10bf
000002c0: 1a29 b1bf 1c04 8cbd 0c47 b23e dc2b 04c0
000002d0: 6132 d83f 29fa 4440 8c51 6b40 11c9 273e
000002e0: 4296 9bbe de71 94bd 0fe0 973d da7a 1040
000002f0: d6e5 aebf 7b94 0740 527f 07bf 347d cb3f
00000300: fa4e 253f 5758 78bf c644 d43f 7220 67bf
00000310: 30bf b53f a74b d73e d3b7 e5be 31e8 a3be
00000320: fe20 35bd 90f7 cc3d bf82 cb3d 5509 3dbe
00000330: 571c cc3f e32e fb3e eb4b 2bc0 8c82 053d
00000340: bb33 e03f 39e1 b1be 0a5f 27bf b4ae 94bf
00000350: e134 1740 aaf0 b73f 6eb8 4cc0 09d7 c63e
00000360: d7f5 063f 0e8b aebe fb6f cabe c4ea 6fbe
00000370: 04c3 72be 4a64 7cbe 3ba9 593f f9e0 1841
00000380: 33bf 0bbf abb4 36bf d9f6 823f d78f 0ec0
00000390: fea6 583f 08df 9bbf 0361 11bf 74b5 77be
000003a0: 5c3a 253e c4fc d5be 7e0f aabe d1b5 b4bd
000003b0: b57c 46be 635f 41be 8dd8 843f 5956 bf3d
000003c0: af11 34c0 1cc1 be3d 186e 13c0 dac8 b33f
000003d0: 816a 02c0 0f91 cfbf b144 9cbf cbc0 a2be
000003e0: f75e 333f 3182 a23f 86e0 91bf 9ea6 0f3e
000003f0: 80fb 10bc 36c8 383e 88bd 363d 3b1f b3c0
0.35534775 -1.4374352 -3.54759 -0.3623813 1.7642574 0.81876355 -0.057277314 0.8603355
2.2886639 -0.14030448 0.5931467 0.13487706 -0.2590865 -0.43850055 -0.23261066 -0.41731444
-0.48561835 -6.008644 -0.36073944 -3.2751236 -0.87311983 0.27180165 -1.1679573 -0.13065192
1.373646 0.675751 0.2794945 -0.096937634 0.0029628403 0.04075732 -0.08100862 0.0391322
-0.15125059 0.06967475 1.1863482 1.071477 -1.8282259 0.6666833 -1.3087251 1.9913996
-0.07152188 0.01608958 0.09224571 -0.036643483 -0.36487743 0.031753443 -0.50819284 0.30295756
0.61546904 0.5095806 0.8315065 0.94967073 -1.6793425 -2.3443766 -0.54014164 -3.1020591
4.4399405 -0.9927928 0.5648259 -0.70720696 -0.30313286 -0.04065071 -0.34902295 -0.06532146
0.1351149 0.2180818 0.16908337 0.16356952 1.1552286 0.6910788 -1.1581237 -0.52467996
-1.7643428 2.2685719 -1.8599143 -0.6216613 -0.8471071 1.106859 2.1854417 3.7026875
1.0757221 0.21741825 -0.36975482 0.006742442 -0.04825091 1.7183565 1.6528653 4.1041245
-0.881058 -0.11686344 0.5539256 0.755216 2.2740421 1.6709684 -0.66971076 -0.5134764
0.18450963 0.10749635 0.2610602 0.30503657 0.33149597 0.45403254 -1.7906086 -4.3369427
-3.5901635 -0.31799954 0.20081341 3.3877587 0.5457736 0.28215283 0.56973773 -0.22848068
-0.706782 -0.14927009 0.58629954 0.23812138 0.112747274 0.26172176 0.093621105 -0.45378736
-2.113575 4.896142 0.03599976 -0.90636563 2.2561991 2.6250062 -0.6379696 -2.06222
0.4318956 0.19474937 -0.48430857 -0.103327975 -0.027091976 0.09381775 0.018576521 0.1951304
-0.32255822 2.6172252 0.0631148 -0.5800448 -0.85999495 1.2832321 0.14636326 0.8314407
-1.3690971 0.54331845 1.8599656 2.2460384 -1.7994114 0.05382578 0.053177986 0.07122637
0.02382271 -2.3439033 1.4240786 9.185378 -0.073092416 -1.2009141 1.3375599 1.4419012
-0.35613403 -2.04482 0.11170601 0.24470967 0.1461967 -0.16914141 0.39757147 0.14620383
0.36211032 0.26424268 0.102758795 1.3127595 1.3637015 0.27191365 1.166251 -0.5663768
-1.3840668 -0.06836721 0.3481983 -2.065177 1.6890374 3.0777686 3.6768522 0.16385294
-0.30388075 -0.07248281 0.07415783 2.2574983 -1.366389 2.1184375 -0.5292865 1.5897584
0.64573634 -0.97009796 1.6583488 -0.9028388 1.4198971 0.42049906 -0.4486681 -0.32013085
-0.044220917 0.10008156 0.09937047 -0.18460591 1.5946149 0.4905921 -2.6765087 0.032595202
1.7515787 -0.34742144 -0.65379393 -1.1615815 2.3626025 1.437032 -3.1987567 0.38835934
0.5271887 -0.34090465 -0.3953856 -0.234294 -0.23707205 -0.24647632 0.8502385 9.554925
-0.5458862 -0.7136943 1.0231582 -2.2275293 0.8462981 -1.2177439 -0.56788653 -0.24190313
0.16135544 -0.41794407 -0.33214945 -0.08823741 -0.1938351 -0.18884043 1.0378586 0.093426414
-2.8135793 0.093141764 -2.3035946 1.404567 -2.0377505 -1.6216143 -1.2208463 -0.31787714
0.7006678 1.2695981 -1.1396644 0.14028403 -0.008849025 0.18045124 0.044614345 -5.5975623

critic.0.bias f4 [128]
00000000: 5eb7 37bf 3a57 21bf be5b 39be c49a 08be
00000010: 2034 223d 9da2 5cbf 73d3 e1be f1ed f5bd
00000020: 3514 ddbe efdf e53e 4f84 29be 4c78 48bf
00000030: 8783 353e e67b a1bd 42f5 7a3e 19a8 123f
00000040: be3f babe 4323 79be 764b 23be fe36 c2be
00000050: 805e 80be 0045 08be ecac 253d 562d 01be
00000060: cbbf f53e 63bf 6fbf ba2a 87be bd6a 48be
00000070: 8fbc c9bd 8be7 bbbd 4002 eb3c 7d48 b03e
00000080: 48fc 1fbd 0d3d 16be 3c18 11bf 0060 89be
00000090: be39 e0bc f9d4 0c3e eba8 eabd 161d e43d
000000a0: 506b e63e 499d c5be 51e4 323e e944 093e
000000b0: 7e5b 30be da87 7e3d 1f02 c2be ecc6 ecbe
000000c0: 8e52 c73d 07c1 343f 0103 003e 0cf5 99be
000000d0: 3aa5 9b3e 6558 5c3c 2790 023f 4bb1 713e
000000e0: 3ec7 febe 41fc 4dbf 7b60 dcbc 6554 00bf
000000f0: ce71 a23d f1a6 143e e20a 14bf 9d2b 17be
00000100: a7f3 513e 926c 84bc 1d68 473e 633e da3e
00000110: 7d15 2d3e 71f9 7ebf a989 06bd 2637 61bd
00000120: 21d7 da3e 8446 bbbd a2a5 b63e 61c5 a03e
00000130: ebf2 2e3e d18a babe d88c 04be b7eb 00bd
00000140: 7b41 bc3c 2fa5 473e 170b ecbe c423 bdbe
00000150: 19bb c2be ac5e 0b3e 475e d33e 9dc9 b8bd
00000160: 25bc 073e 1102 8b3e aaae 193d b3dd 29bf
00000170: b226 a13e 9fc3 17bf 4d2e ae3d f550 11bf
00000180: 809e ca3e c5f3 813d b17d 3b3e 53e5 543e
00000190: 82e0 11be 4d77 b1be 2eb8 fd3d c37b b63d
000001a0: 525a f3be cf73 cdbe 1f96 5f3f d5a8 49bf
000001b0: cef0 d03e 3566 63be ea39 efbd e418 23be
000001c0: 9cc5 c43e 2357 b6be 9628 0a3d 1092 153f
000001d0: ac8b 3f3e 53b8 48be 4d7f e1be 7480 133f
000001e0: 3c20 74bb 3e4c f8bc ac49 4dbe 87d3 b13e
000001f0: 1f77 b9be 77cd debd 5d2b 873b 48b2 0fbf
-0.7176417 -0.6302372 -0.18101403 -0.13340288 0.03960049 -0.8618563 -0.44106635 -0.12008274
-0.4317948 0.4489741 -0.16554378 -0.7830856 0.17725955 -0.0788496 0.24507621 0.57287747
-0.36376756 -0.24329858 -0.15946755 -0.3793258 -0.25072098 -0.13307571 0.040448114 -0.1261495
0.4799789 -0.9365141 -0.26399785 -0.19571967 -0.09850418 -0.09175023 0.028687596 0.34430304
-0.039058954 -0.14671727 -0.56677604 -0.26831055 -0.027371284 0.13753118 -0.11458 0.1113836
0.45003748 -0.38596562 0.17469908 0.13405193 -0.17222401 0.062141277 -0.37892243 -0.46245515
0.09732543 0.70607036 0.12501146 -0.30069768 0.30399495 0.013448809 0.5100121 0.23602788
-0.49761385 -0.80463034 -0.026901474 -0.50128776 0.07931863 0.14516808 -0.57829106 -0.14762731
0.20503102 -0.016165052 0.1947331 0.42625722 0.16902728 -0.9959937 -0.032846127 -0.054984234
0.42742255 -0.09144309 0.35673243 0.31400588 0.17084853 -0.36434034 -0.12944353 -0.031474795
0.022980442 0.19496606 -0.4610221 -0.3694135 -0.3803337 0.13610333 0.41282865 -0.0902283
0.13255365 0.27150014 0.03752009 -0.6635391 0.31474835 -0.5928287 0.08504925 -0.56764156
0.3957405 0.063453235 0.18309666 0.20790605 -0.14245799 -0.34661332 0.12388645 0.089103244
-0.47529846 -0.40127417 0.8733844 -0.7877324 0.4080872 -0.22206958 -0.11680968 -0.15927464
0.38432014 -0.35613355 0.033730112 0.58426 0.18705624 -0.19601564 -0.44042435 0.5761788
-0.0037250658 -0.030309793 -0.20047635 0.34731695 -0.36223695 -0.10879033 0.0041250424 -0.5613141

critic.2.weight f4 [128, 128]
00000000: f19d c73f 5363 8bbe 1b55 6cbf cf66 aebf
00000010: 2d0c 833e 1b86 76be 945d 54bd 640c 7dbf
00000020: 3c84 f43e c185 aebf 6f71 073f aa38 cc3b
00000030: 265f f53b f97e 01c0 233c 89bf 403f 453f
00000040: 458d 833f 4453 0a3f 7c83 d13e 03fe 06bf
00000050: 7dc3 c9bc 8eb2 2a3f d0f4 34be feb4 893f
00000060: d850 2fbf 928f 123f 385c 293f dcf0 38be
00000070: 28b7 753e 787f d0bf 2ec9 06bf 6269 783f
00000080: 0bac 21bf a685 2d3f 32b5 b53e 2785 9abe
00000090: 03ab 593f 5a49 cf3e 4c20 b93e 86a2 eb3e
000000a0: 3b86 4dbf 265e b33f 0df2 903e 1483 203f
000000b0: 6e77 46bf b175 cd3f 9c39 bdbe 406b 6f3f
000000c0: 9a55 81bf de07 813f 3825 c83e 38a3 b93e
000000d0: 9017 583f d6cd 70bf 0d95 c2be 764f 6ebf
000000e0: f99d 04bf d3dd a03f 4b12 013e 1cd3 553f
000000f0: 7f05 513f 218f a53f 8178 723e 8540 7e3e
00000100: 26bb d3bf 1e1c 3cbf f796 acbd 854a 17bf
00000110: c75f 53bf 01be 943d 2c7b 1abf 879f 4c3f
00000120: 4877 7a3e e5e6 4e3f 0eab 9ebf f2df 10be
00000130: 240b 793e 6ead 1a3f 05f7 5a3f 767c 54be
00000140: ae1d b7bf 8cd8 e9be efaf cc3f b17d 18bf
00000150: 9e4e cfbf e3c8 043b 4569 b83e 074f e2be
00000160: 8880 1abf 5d14 1140 2c2c d83f 03ae 97bd
00000170: 310a 093f 5bdc 593f 1d36 813e 97c5 043e
00000180: d751 3e3f 08b4 ca3e 4fae 2c3d d828 833f
00000190: f7c5 e13e e80a cf3e ba6f c7bf de9e a83f
000001a0: 6a08 ebbd be14 cebe 182c 30bf 3f15 623f
000001b0: 911d 153f 2390 41bf 43de 59bf d4da 883f
000001c0: 8a2f 913d 8770 5b3e a45b 1fbf 60b0 9ebe
000001d0: ddd5 273f d68a 583f ee6c 1abc bbff f83d
000001e0: 688c 91bf 5407 17bf 8c16 373e 2581 043f
000001f0: b858 27be f3d3 0f3d 7163 78bf a47d 8d3f
00000200: 280e 493f ab63 103f 7691 13be 7af5 3bbe
00000210: 47b7 41be 3949 d63f d0b8 08bf 05ac 8dbe
00000220: 3dbd d13c 7140 c5bf 343b b9bf 6c3d cb3e
00000230: 3522 493f 22fb 89bf 293e 84bf 83e7 23bf
00000240: f0b3 a83f d4fe 1040 0502 5e3f 203d 933f
00000250: 5b98 8e3f df2e a1be 1397 d7be b1e3 04be
00000260: 70a7 043d 1348 d23f 03f9 203f 6afe 763d
00000270: f995 193e df52 7bbe 18c7 aabe 1bf2 9e3e
00000280: 9d7c 663f 549f 743f 055e 36bf eb62 02bf
00000290: db97 8bbf 4da8 1b3f 7963 2a3f 21bf a93e
000002a0: 67ab 85bf 83a6 523f 7215 d4ba d524 21bf
000002b0: 494f 44bf 6c71 953e 82f8 a8bf 834c b33f
000002c0: 8acc 053d 57bd 26be bc8b 963f 266e ec3f
000002d0: b399 633e 9340 283f c423 17bf 6bda f8bd
000002e0: 6067 1abf c294 0e40 56d3 babe 3341 973f
000002f0: 079c 79bf 1261 163f f571 c03f df8c 61be
00000300: a5ab 9ebf 01af d1be f5d6 983f 8ce0 5dbd
00000310: 8935 bbbe 6f8f 0b3f c91d ae3f 6adc b4bf
00000320: 2747 563d 77c7 b53e d400 58bf d318 54be
00000330: 07a2 503f 15ab a43e 7f0b d03e 4317 24bf
00000340: 3561 08c0 908d 86bf 5c85 b33e 0351 923f
00000350: b9f2 873e 42a1 56bf 9a0c 2fbf 65c9 cdbe
00000360: 95f2 3740 1f79 cd3f 07d3 cbbf 9983 c53f
00000370: 193c aa3f 8ee8 0140 2a28 b03e 591d a23e
00000380: 4c6c c43e 92db 14bf 57e8 52bf eac2 19bf
00000390: 94ae 05be e5c2 a23f da88 e4bf 233c 133f
000003a0: 590d d83e e72c 3cbf 71ce c2bf 9233 863f
000003b0: 4b0d 0bbf b4cb 3238 1674 913f e137 2bbf
000003c0: 1da6 2f3d 0b30 5f3f a2a1 9cbf 7d45 3cbe
000003d0: 8d3e 27be 2c92 d5be 92a6 4e3f 2e7b 18bf
000003e0: 51a9 02bf 17ed f83e dc65 28be 9cc9 113f
000003f0: a930 fabe ec08 93bf c7e9 85bd e992 6dbe
1.5595075 -0.27224216 -0.9231736 -1.3625125 0.25595227 -0.24074595 -0.051847056 -0.9884703
0.47757137 -1.3634568 0.5290746 0.006232341 0.007488149 -2.0233748 -1.0721477 0.77049637
1.0277487 0.54033303 0.40920627 -0.5273134 -0.024629349 0.666787 -0.17671514 1.075836
-0.6848273 0.5725032 0.6615634 -0.1806063 0.2399565 -1.62889 -0.52650726 0.970358
-0.6315314 0.67782056 0.35489804 -0.30179712 0.8502657 0.4048565 0.36157453 0.46022433
-0.80282944 1.4013107 0.2830967 0.6270001 -0.77525985 1.6051542 -0.36958015 0.93523026
-1.0104249 1.0080526 0.39090896 0.3625734 0.84410954 -0.9406408 -0.38004342 -0.9309
-0.5180355 1.2567695 0.12604634 0.8352525 0.8164901 1.2934304 0.23678781 0.248293
-1.6541488 -0.73480403 -0.08427232 -0.5909808 -0.8256802 0.07262803 -0.60344195 0.7993092
0.24459565 0.8082107 -1.2395952 -0.14147928 0.24320656 0.6042088 0.8553317 -0.20750603
-1.4305933 -0.45673025 1.5991191 -0.5956679 -1.6195867 0.002026134 0.36017814 -0.44200918
-0.60352373 2.2668679 1.688848 -0.07406237 0.53531176 0.8510186 0.25236598 0.12966
0.7434363 0.39590478 0.04215842 1.024684 0.44096348 0.40438008 -1.5580971 1.3173482
-0.11476214 -0.402502 -0.6881728 0.8831367 0.5824824 -0.7561056 -0.8510477 1.0691781
0.070891455 0.21429645 -0.6224921 -0.30993938 0.65560704 0.84586847 -0.009425385 0.12158152
-1.1370974 -0.58995557 0.17879695 0.5175956 -0.16342437 0.03511424 -0.97026736 1.1053967
0.78537226 0.5640208 -0.14410958 -0.1835536 -0.18917571 1.6741096 -0.53407 -0.27670303
0.025602931 -1.5410291 -1.4471192 0.396953 0.7856782 -1.0779765 -1.033147 -0.64025134
1.3179913 2.2655535 0.8672183 1.1503029 1.1140245 -0.31481072 -0.42107448 -0.12977482
0.032386243 1.6428245 0.6287996 0.060301222 0.14998616 -0.24543332 -0.3335502 0.31044087
0.90033895 0.95555615 -0.7123721 -0.50932187 -1.0905718 0.6080368 0.66558033 0.33153632
-1.0442933 0.82285327 -0.0016180708 -0.62946826 -0.7668348 0.29188097 -1.3200839 1.4007725
0.032665767 -0.16283165 1.1761394 1.8471115 0.222266 0.6572353 -0.5903895 -0.12151035
-0.6031399 2.2278295 -0.36489362 1.1816772 -0.97503704 0.5874187 1.5034777 -0.22026394
-1.2396132 -0.4095383 1.19406 -0.054169223 -0.36564282 0.5451574 1.360284 -1.4129765
0.05231395 0.35503742 -0.84376264 -0.20712595 0.81497234 0.32161775 0.4063377 -0.64097995
-2.130933 -1.0511951 0.35062683 1.1430973 0.2655237 -0.8383981 -0.68378603 -0.40192714
2.874181 1.6052588 -1.5923775 1.5430785 1.329959 2.029819 0.34405643 0.31663015
0.38363874 -0.5814754 -0.8238577 -0.6006304 -0.13054878 1.2715727 -1.7854264 0.57513636
0.42197683 -0.73506016 -1.5219251 1.0484488 -0.5431716 4.262822e-05 1.1363552 -0.6688214
0.042883027 0.8718268 -1.2236826 -0.18385883 -0.16332455 -0.41713083 0.80722916 -0.5956296
-0.51039606 0.48618385 -0.16445106 0.56948256 -0.4886525 -1.1487098 -0.0653873 -0.23200573

critic.2.bias f4 [128]
00000000: 38bb 2dbf ad88 cfbe 5c40 e63d b66e 073f
00000010: 3d14 083f 250c d43d d6b2 0dbf 6442 52be
00000020: 0abe 5d3e 2078 cdbe 2ded cabe 7814 293d
00000030: ec8c 563e 57a0 5fbe d5ff e43e 0010 5ebd
00000040: f0a2 f43e ae07 e5bd cf76 3f3d 86d1 2c3e
00000050: 9229 35be 9f9e 963e bc79 063e c2b3 263f
00000060: fab4 b3bc 8618 92be 48ee 343f 3d10 a0be
00000070: 3445 bebe 8e86 fbbe 43a3 acbe 033a 17bf
00000080: 90ac 443f 4d15 023f 10dc 0b3d 6879 ca3e
00000090: 4ceb 623c 0e5e 9d3e 9d67 d73e 24dd 13bf
000000a0: 9c49 a53d c437 0ebe 9a36 9abe fb89 d83d
000000b0: 4930 11bf fdbb 953e 80f6 cdbd 58d1 c23d
000000c0: 1369 2e3e ebbb 95be 42a4 d4be 831c 36be
000000d0: 0652 c23e fdca 21be 6b9a 863e b521 fe3e
000000e0: 1c81 d43e b223 67bd c881 e8be cb8b d13e
000000f0: afb2 17bf 622e 1e3e ed24 d2be 6bb9 b9be
00000100: 3bb8 d2bb ed37 0bbe 7d80 f93e 6912 b53e
00000110: 4faa 0dbf 89a2 8dbd d067 b73e 17c3 63bd
00000120: 2fdb 543f 3265 da3e 2b37 873e aa4f fbbe
00000130: bc01 cebc fa52 30bd f47b 7b3f f6dc eb3e
00000140: 62be 9fbe fc3c e13c 9689 e23e af93 37be
00000150: 99e0 fa3b 47d9 ab3d f5c6 153f 1b77 b13d
00000160: 9efd c23d 0037 49be b670 01bf 44b9 f33e
00000170: ab2f 30be 8bf9 9c3e f9f7 8bbe 5d16 b53e
00000180: e7ff d2be e0ee c13e b154 82bc 3e2f fbbd
00000190: 2ba9 633d 3b93 10bf 3d34 11bf cf5a c2be
000001a0: 81e9 3d3f 5df5 85bd 1d8f 2d3e 51ea 9fbd
000001b0: ab60 fdbe 8222 223e ec75 df3a 480d cabe
000001c0: 72fd 113e 48e3 453c 9c73 c4bd faf8 55be
000001d0: a0fb 053f 5d0d 803d 690d 61be 9ed5 b23d
000001e0: 3d41 833f f954 ff3e 5d27 17be c2cc 17be
000001f0: 9da8 96be 20e1 5d3e 46ef 513f 7b3f babd
-0.678638 -0.40533963 0.11242744 0.52903306 0.5315588 0.10353879 -0.55351007 -0.20533139
0.21654525 -0.4013071 -0.39634076 0.041279286 0.20952195 -0.21838509 0.44726434 -0.054214478
0.4778056 -0.111831054 0.046744164 0.16876802 -0.17691639 0.29417893 0.13132375 0.6511804
-0.021936882 -0.28534335 0.7067609 -0.3126239 -0.37162173 -0.49126095 -0.3371831 -0.59072894
0.7682581 0.5081375 0.034145415 0.3954575 0.013850044 0.3073582 0.42071238 -0.5775931
0.080706805 -0.1388846 -0.30119783 0.10573193 -0.567143 0.29244986 -0.10056782 0.095125854
0.1703227 -0.29244933 -0.4153157 -0.17784314 0.37953204 -0.1580009 0.26289687 0.4963509
0.41504753 -0.056430526 -0.45411515 0.40926966 -0.59257025 0.15447381 -0.41043797 -0.36274275
-0.0064306534 -0.13595553 0.4873084 0.35365608 -0.55337995 -0.06915767 0.3582139 -0.055605974
0.8314695 0.4265533 0.26409277 -0.49084216 -0.025147311 -0.043047883 0.9823601 0.46067017
-0.31199938 0.0274949 0.44245595 -0.1792743 0.0076561687 0.08391052 0.5850671 0.08665296
0.0952103 -0.19649887 -0.5056261 0.47602284 -0.17205684 0.30659136 -0.27337626 0.35368624
-0.41210863 0.3787756 -0.015909525 -0.1226487 0.055581253 -0.56474656 -0.56720334 -0.37959906
0.74184424 -0.0654094 0.16949125 -0.07808364 -0.49487814 0.15833476 0.0017048693 -0.39463258
0.14256838 0.012078114 -0.09592363 -0.20895758 0.52337074 0.06252549 -0.21977772 0.087321505
1.0254284 0.49869516 -0.1476111 -0.14824203 -0.29425517 0.2166791 0.8200573 -0.09094139

critic.4.weight f4 [1, 128]
00000000: 6a49 26b9 63e4 83ba 0477 923a a27b e33a
00000010: 3685 3cb9 14c6 10ba 6ab0 ddba fe4a 34bc
00000020: cf07 71b9 954e 133a 3e13 93b8 9a02 8039
00000030: 68c7 dc39 26fb 0e39 9668 afb9 7821 003a
00000040: 4995 0c3a 3d3e 073a ba7f 7c39 a760 c038
00000050: 8d32 12b8 2f9d f6b9 a930 8cba 39a4 bfb8
00000060: 4fdf 8fba 7320 8539 a589 d939 d1c8 8eb9
00000070: c0d2 87b9 ec86 a43a 36ec d638 2dcd ab39
00000080: 232f 1abb 25e9 75bc 28f9 8fb9 1fba 0c39
00000090: 7941 08bb 4ea8 9939 4b6b 4739 3757 9438
000000a0: ae70 463a 3dbb b439 d86b edb8 230b 32b9
000000b0: e111 7939 92c2 48ba 6c6b 50b9 12af 3c38
000000c0: 719b 3739 49a9 d93a a87a 1f3a f77d 3c39
000000d0: a089 3bb9 b9d5 42ba a06c e437 5a1a e3b6
000000e0: 9e93 98b9 46e6 92b9 2d60 063a 2076 9f3d
000000f0: f8e6 05ba e342 9c37 a467 37b9 9887 3339
00000100: bcc6 e33c bc68 fdb9 d8ee b8b9 b4c8 d0b9
00000110: 3f1c d1b9 6918 cf3a c573 2abb 1774 b138
00000120: 35c8 5d3a f4cc 6b38 364f 74b9 3144 cdb9
00000130: fa23 f239 1bc3 27ba f5dc c23d ecea 0138
00000140: 687f 2c3a 90a8 51b9 99cd 2fb9 fcc6 2bba
00000150: 69c9 a639 b1e8 9b3a 4b3d 17ba 75d6 bf3c
00000160: 809b 0cba 7c18 173a 4e44 f6b9 ec6e edb8
00000170: 4a7e a239 f945 64b9 ef65 43ba bbfd b1b9
00000180: f2ae 46b7 66d1 b2ba cb8b 1db9 c7c2 11ba
00000190: 2096 00b8 7046 7a38 b808 e939 58d0 8eb9
000001a0: 06bd 0f3a 1e03 27b9 7dbd f338 3a2f 46ba
000001b0: 150f c8ba 9acd 4039 3b84 01ba e194 15b9
000001c0: 327c 4cb9 e2e7 ca38 6381 70ba f64d 9739
000001d0: 9841 98ba 97dd 7d38 5f2f b3b9 1cd6 2fba
000001e0: 1469 5cbc 5a0c 0939 f293 a239 435e 4e3a
000001f0: c738 003a 3f0d 73b8 3404 43ba 9c58 bb39
-0.00015858343 -0.0010062571 0.0011174385 0.0017355571 -0.00017978702 -0.000552268 -0.0016913537 -0.011004208
-0.0002298646 0.00056193146 -7.01309e-05 0.00024416 0.0004211024 0.00013635735 -0.00033456524 0.00048878
0.00053628214 0.00051591155 0.00024080175 9.173276e-05 -3.485619e-05 -0.00047037887 -0.0010695654 -9.1381786e-05
-0.0010976585 0.00025391913 0.00041492018 -0.0002723397 -0.00025906228 0.0012552417 0.00010248313 0.0003276853
-0.002352663 -0.015009199 -0.0002746072 0.00013420776 -0.0020790978 0.0002930783 0.00019018089 7.073435e-05
0.0007569891 0.0003447178 -0.00011321128 -0.00016979552 0.00023753151 -0.0007658388 -0.00019876444 4.498574e-05
0.00017510146 0.0016606237 0.0006083646 0.00017976003 -0.00017884979 -0.000743236 2.72303e-05 -6.768195e-06
-0.00029101683 -0.00028018857 0.00051260256 0.077862024 -0.00051079644 1.8627796e-05 -0.00017490849 0.00017121283
0.027804725 -0.00048333954 -0.00035273167 -0.00039822387 -0.0003988463 0.0015800121 -0.0026008945 8.461641e-05
0.0008460314 5.6219244e-05 -0.00023299162 -0.00039151454 0.00046184642 -0.00063996174 0.095148005 3.0974785e-05
0.00065802643 -0.00019994588 -0.00016765892 -0.00065527833 0.0003181205 0.0011894909 -0.0005769326 0.02341769
-0.00053637475 0.00057638413 -0.00046971667 -0.000113217015 0.0003099314 -0.00021769841 -0.0007453849 -0.00033949115
-1.1842452e-05 -0.0013642728 -0.00015024764 -0.0005560335 -3.0657393e-05 5.9670245e-05 0.0004444772 -0.0002723958
0.0005483184 -0.00015927522 0.00011622438 -0.0007560138 -0.0015263284 0.0001838714 -0.00049406633 -0.00014265209
-0.00019501222 9.675302e-05 -0.00091745536 0.0002885905 -0.0011616228 6.0526272e-05 -0.00034176835 -0.0006707625
-0.013452787 0.0001306994 0.00031009276 0.00078723225 0.0004891273 -5.794805e-05 -0.0007439286 0.0003573344

exp_avg f4 [4]
00000000: efd2 61bb 6982 3a3a d4b0 413c 99d6 263b
-0.0034458002 0.00071147695 0.011821944 0.00254575

exp_avg_sq f4 [4]
00000000: 10cd 3b3a 6865 d639 0cea ff3a bbe4 a63b
0.00071640406 0.00040892814 0.0019524707 0.0050931848
