examples/drone/logs/fig-eight-1000/model_200.pt (torch, 474922 bytes, 36 tensors)

std f4 [4]
0.9303982 0.5661914 0.781003 0.48966697
00000000: 942e 6e3f ebf1 103f d0ef 473f a1b5 fa3e

actor.0.weight f4 [128, 17]
-0.40008315 0.04202928 -0.3874616 -0.0028109476 -0.2998049 -0.17567639 -0.5271353 0.16885135
0.09597142 0.26175234 -0.12570581 -0.13711618 -0.077102065 0.14566667 -0.009790968 -0.06223162
0.067666754 -0.04330451 0.23537283 -0.005139131 -0.37956288 0.4927029 0.8620849 0.13866411
0.22058609 0.08555642 0.49569672 0.3473438 0.14813404 -0.1946784 -0.12566707 -0.112486646
0.11232571 -0.059604723 0.04292857 -0.031701535 -0.051528372 -0.01960755 0.51860416 -1.0194412
-0.4248532 -0.2962122 0.11923996 -0.30356434 0.30401418 -0.3509893 -0.14033338 -0.055563234
0.013486731 0.19951995 -0.042913225 -0.24977666 -0.15016387 0.30190533 0.052626718 -0.5476515
0.062716834 0.0894884 0.04889152 -0.024687832 -0.052075718 0.08489112 -0.031589843 -0.027571034
-0.11782371 0.028954478 0.07340827 -0.1410222 -0.568855 -0.106662475 -0.03899823 0.048710097
-0.28101197 0.4603594 -0.11925136 0.076354854 -0.0043043233 -0.26739803 -0.10452763 -0.009756273
-0.0750386 0.09119409 -0.043955907 0.08918403 -0.043778554 -0.18239616 -0.004931239 -0.17052238
-0.07364198 -0.16911621 -0.13330215 -0.1432458 0.17583433 -0.10123309 0.047017742 0.07733843
0.13576171 0.12317801 0.11992814 0.122351825 -0.02228283 0.007726548 -0.41440457 -0.12941352
-0.2501248 -0.20826307 0.890439 0.82870483 0.5018956 -0.18880576 0.040768266 -0.18180288
0.07693278 0.010346441 0.036569096 -0.12320186 0.054568965 -0.050405636 -0.099337585 0.2490706
0.18509527 -0.29424408 0.0065588034 0.97946084 -0.25487807 0.62386936 -0.05912903 -0.1561138
-0.5261544 -0.246405 -0.090026446 0.12244688 -0.04444223 -0.20773987 0.08211786 0.09729674
-0.27131075 0.1770913 -0.31410173 -0.12578423 0.25820547 0.26978096 0.1526851 0.528709
-0.33242458 0.25653547 0.22670376 0.29025063 -0.24843109 -0.009239537 0.037167307 -0.10475734
-0.11426041 -0.33376938 -0.18668023 -0.29595304 0.29135337 -0.19454485 1.246192 0.50650877
0.043842282 -0.36097118 -0.0066495715 -0.23496963 0.53746927 0.23266932 -0.10447937 -0.13720639
-0.015880339 -0.07310447 -0.22257067 0.0071660676 0.07462323 0.026557341 0.2899252 -0.42915058
0.35550183 -0.1483925 0.15811662 0.55535114 -0.1090945 -0.03217599 0.06725707 -0.11553504
0.14599693 -0.009659662 0.068356104 -0.19499208 -0.078630395 0.51537544 -0.2202902 -0.6201074
1.0086931 0.21394056 0.16858885 -0.18228945 0.088404864 -0.114847526 0.021533795 0.13600077
-0.0720665 0.047402196 0.13664654 -0.014918488 0.16229959 -0.02634884 0.729466 -0.07673735
-0.24541277 -0.76488227 0.012750093 -0.123175055 0.08225786 -0.4370782 -0.07453793 -0.1536875
0.18494052 0.11341188 -0.03782338 -0.028784508 0.026838174 0.07911936 0.10866891 0.0009855108
-0.09199038 0.37042737 -0.12560776 -0.34064934 0.32644752 -0.14049916 -0.23656459 -0.07411126
-0.010996229 0.0982694 0.102551736 0.07058653 -0.016430603 -0.009227688 -0.1774764 -0.2843457
-0.8079696 0.10440027 -0.35437027 0.79958475 -0.5093605 0.11525844 -0.38364276 -0.21967967
-0.07721442 0.057046607 0.09009323 0.01998051 0.1379144 0.0038034115 0.030310886 0.07270425
00000000: b3d7 ccbe e526 2c3d 5e61 c6be e037 38bb
00000010: 0780 99be 83e4 33be 57f2 06bf 5ee7 2c3e
00000020: aa8c c43d 6704 863e 06b9 00be 2f68 0cbe
00000030: b0e7 9dbd a529 153e 4c6a 20bc 95e6 7ebd
00000040: de94 8a3d 1260 31bd 9305 713e 2866 a8bb
00000050: 1156 c2be 8e43 fc3e 99b1 5c3f f7fd 0d3e
00000060: 52e1 613e 3438 af3d f6cb fd3e 0cd7 b13e
00000070: 73b0 173e c659 47be deae 00be 665f e6bd
00000080: 060b e63d 1524 74bd ded5 2f3d 78d9 01bd
00000090: 6a0f 53bd 03a0 a0bc 3ec3 043f 0d7d 82bf
000000a0: 5c86 d9be 20a9 97be 1534 f43d c96c 9bbe
000000b0: bfa7 9b3e dfb4 b3be 8eb3 0fbe 4696 63bd
000000c0: 73f7 5c3c f54e 4c3e c7c5 2fbd 74c5 7fbe
000000d0: 8fc4 19be 5693 9a3e 1d8f 573d e432 0cbf
000000e0: af71 803d b245 b73d 7942 483d 233e cabc
000000f0: 594d 55bd 65db ad3d 5a64 01bd a6dc e1bc
00000100: 8f4d f1bd f131 ed3c 1357 963d 2068 10be
00000110: 7ba0 11bf db71 dabd 9cbc 1fbd 3d84 473d
00000120: cde0 8fbe 3ab4 eb3e 0f3a f4bd ef5f 9c3d
00000130: 480b 8dbb 65e8 88be 9512 d6bd c6d8 1fbc
00000140: d6ad 99bd f8c3 ba3d 1c0b 34bd 1ea6 b63d
00000150: 2451 33bd 0fc6 3abe 3b96 a1bb 6b9d 2ebe
00000160: 9bd1 96bd cd2c 2dbe 5c80 08be 07af 12be
00000170: ea0d 343e 4b53 cfbd ad95 403d 9c63 9e3d
00000180: 1e05 0b3e c144 fc3d e29c f53d 9893 fa3d
00000190: 7b8a b6bc fb2e fd3b d62c d4be fa84 04be
000001a0: 5c10 80be ea42 55be cff3 633f 0026 543f
000001b0: 3b7c 003f 4c56 41be a0fc 263d 892a 3abe
000001c0: ef8e 9d3d 1e84 293c 7ac9 153d 4251 fcbd
000001d0: b583 5f3d 2476 4ebd 8171 cbbd 5d0c 7f3e
000001e0: 9d89 3d3e 29a7 96be 3beb d63b f2bd 7a3f
000001f0: 617f 82be e7b5 1f3f 4831 72bd 4cdc 1fbe
00000200: 0eb2 06bf 9851 7cbe c95f b8bd 6ec5 fa3d
00000210: 0e09 36bd c3b9 54be 692d a83d 8343 c73d
00000220: 3ee9 8abe 6c57 353e f1d1 a0be 95cd 00be
00000230: 8233 843e bb20 8a3e 7c59 1c3e 7959 073f
00000240: 8e33 aabe 9e58 833e 0825 683e bb9b 943e
00000250: b864 7ebe 6d61 17bc bf3c 183d 048b d6bd
00000260: 5d01 eabd d2e3 aabe 1a29 3fbe 2887 97be
00000270: 452c 953e c436 47be 3883 9f3f 8faa 013f
00000280: f793 333d 37d1 b8be a6e4 d9bb e19b 70be
00000290: 9697 093f de40 6e3e 48f9 d5bd d57f 0cbe
000002a0: 7c17 82bc ccb7 95bd 91e9 63be 55d1 ea3b
000002b0: 10d4 983d c88e d93c 1371 943e a0b9 dbbe
000002c0: 5604 b63e 34f4 17be 53e9 213e 7e2b 0e3f
000002d0: f06c dfbd f9ca 03bd 13be 893d a39d ecbd
000002e0: 3880 153e 8f43 1ebc 49fe 8b3d 01ac 47be
000002f0: f908 a1bd a5ef 033f c193 61be 5cbf 1ebf
00000300: db1c 813f 3c13 5b3e 8ea2 2c3e 16aa 3abe
00000310: 9c0d b53d 2e35 ebbd a467 b03c c943 0b3e
00000320: 9a97 93bd ce28 423d 12ed 0b3e ad6c 74bc
00000330: dd31 263e 86d9 d7bc 49be 3a3f 7928 9dbd
00000340: 7c4d 7bbe 53cf 43bf c4e5 503c 3443 fcbd
00000350: cf76 a83d b7c8 dfbe 58a7 98bd 4260 1dbe
00000360: 0c61 3d3e 7d44 e83d b0ec 1abd 7dcd ebbc
00000370: bbdb db3c 5509 a23d ce8d de3d 412c 813a
00000380: 7465 bcbd a8a8 bd3e 529f 00be 9769 aebe
00000390: 2124 a73e 03df 0fbe fd3d 72be a5c7 97bd
000003a0: 8729 34bc 7841 c93d a506 d23d ac8f 903d
000003b0: 7999 86bc bb2f 17bc 60bc 35be c295 91be
000003c0: 19d7 4ebf cfcf d53d 0570 b5be 96b1 4c3f
000003d0: 7365 02bf 9e0c ec3d d36c c4be b5f3 60be
000003e0: 9822 9ebd b4a9 693d cd82 b83d 2bae a33c
000003f0: 6f39 0d3e a842 793b 894e f83c f7e5 943d

actor.0.bias f4 [128]
0.06911006 0.2148186 0.11172941 0.067911945 -0.06723296 -0.07412512 0.0619475 -0.153786
-0.050900176 -0.325345 -0.17456432 -0.075446784 0.21477921 0.069071114 -0.18454859 0.2591977
0.16452305 0.26715338 -0.004529952 -0.16654018 -0.04226262 0.15949376 0.0005446663 0.122719124
-0.15982975 0.065971345 0.18875018 0.046365306 -0.038001955 -0.09179849 -0.2263788 -0.21316697
0.105473936 -0.17847048 -0.09404953 -0.13741504 -0.18916017 -0.25948885 0.10666287 -0.1133839
-0.16350286 0.13483198 0.00995153 0.011397013 0.004251132 -0.23183948 0.22908545 0.003661551
0.18846461 -0.087451994 0.0069931103 -0.038002048 0.18089521 0.095490605 0.07298585 -0.1881207
-0.08730161 0.037851907 -0.047728036 0.025596445 -0.16551393 0.3158356 -0.051024325 -0.052538313
0.04794293 -0.22249028 -0.21184726 0.052891914 0.015161219 -0.114365265 -0.09522984 0.10389972
-0.00785569 0.017826915 -0.18048012 0.09639222 0.06747566 0.09100734 0.13492669 -0.106666416
-0.0027750032 0.17902842 0.17860377 -0.14251201 -0.16527893 0.093211144 -0.12884857 -0.013944705
0.085914314 0.0012749103 0.077151194 0.12071132 -0.061265178 -0.008318475 -0.00483135 -0.29037347
0.26213425 0.20519261 -0.08661703 0.17718796 -0.02619256 0.20611353 0.2789494 0.1394654
-0.028542355 -0.17770696 -0.171229 -0.13506353 0.08033511 -0.17982225 -0.1822954 -0.0837824
0.23269336 -0.041110475 0.13446522 -0.049657617 -0.03410951 -0.31404614 0.021863358 -0.08936912
0.24106266 0.09368732 -0.061550993 0.040065963 0.20814702 -0.22181113 -0.12458251 -0.03325581
00000000: 9389 8d3d 68f9 5b3e 64d2 e43d 6b15 8b3d
00000010: 6fb1 89bd e9ce 97bd a9bc 7d3d 147a 1dbe
00000020: b47c 50bd 9f93 a6be fdc0 32be d883 9abd
00000030: 15ef 5b3e 2875 8d3d 4efa 3cbe 90b5 843e
00000040: bb78 283e 54c8 883e fe6f 94bb 8289 2abe
00000050: 921b 2dbd 5552 233e f0c7 0e3a 2a54 fb3d
00000060: 69aa 23be fc1b 873d ba47 413e 8ce9 3d3d
00000070: f0a7 1bbd d900 bcbd d8cf 67be 7148 5abe
00000080: b802 d83d f7c0 36be 0a9d c0bd 87b6 0cbe
00000090: 34b3 41be b9db 84be 1072 da3d d135 e8bd
000000a0: 4b6d 27be 6511 0a3e be0b 233c 8aba 3a3c
000000b0: 144d 8b3b 5467 6dbe 6095 6a3e a2f6 6f3b
000000c0: defc 403e 081a b3bd 7626 e53b 09a8 1bbd
000000d0: 983c 393e 9490 c33d 9b79 953d b6a2 40be
000000e0: 30cb b2bd 9a0a 1b3d 797e 43bd a3af d13c
000000f0: 7c7c 29be 34b5 a13e e2fe 50bd 6a32 57bd
00000100: ce5f 443d 7ed4 63be 7dee 58be 31a5 583d
00000110: c366 783c 5638 eabd dd07 c3bd 60c9 d43d
00000120: 27b5 00bc c009 923c c8cf 38be 4969 c53d
00000130: ae30 8a3d 0e62 ba3d 392a 0a3e ec73 dabd
00000140: d4dc 35bb 3a53 373e e8e3 363e abee 11be
00000150: e13e 29be 7ce5 be3d e1f0 03be 5578 64bc
00000160: d8f3 af3d e41a a73a 7201 9e3d 7f37 f73d
00000170: 32f1 7abd 374a 08bc 4d50 9ebb d5ab 94be
00000180: 7636 863e 031e 523e 4564 b1bd c370 353e
00000190: c891 d6bc 6d0f 533e 75d2 8e3e 05d0 0e3e
000001a0: a8d1 e9bc d0f8 35be a856 2fbe 184e 0abe
000001b0: bc86 a43d 5323 38be a5ab 3abe 1b96 abbd
000001c0: 2b47 6e3e 7563 28bd 40b1 093e c965 4bbd
000001d0: 6ab6 0bbd a8ca a0be c91a b33c 2807 b7bd
000001e0: 21d9 763e 23df bf3d e51c 7cbd 351c 243d
000001f0: 7e24 553e 7522 63be 1d25 ffbd 3f37 08bd

actor.2.weight f4 [128, 128]
0.0407846 -0.016400939 0.05805629 0.0008195388 -0.037360854 0.008415793 0.017228948 -0.10799767
-0.04394584 0.08390406 -0.048827287 -0.0028875363 -0.015399604 0.014147269 0.045609117 -0.036179822
0.010849211 -0.025165625 -0.08852823 -0.0544729 -0.03573058 -0.038452506 0.0004931793 0.02575489
0.0589768 -0.09203036 -0.059544537 0.037124474 0.06892771 -0.08820557 -0.027751962 0.0034969202
-0.023036761 0.021585671 0.027603662 -0.020689055 -0.058980852 0.011366788 0.014557379 -0.028002335
-0.06255265 -0.06293293 0.012194316 0.07492635 -0.034777064 -0.04634703 -0.013010639 -0.016840205
-0.025831591 0.063252054 0.06144339 0.022988087 0.007899467 0.03826053 0.078041784 0.09574145
-0.0596109 -0.075428374 -0.018589145 -0.0057472037 -0.032901775 -0.024230983 -0.035925783 0.07416997
-0.02343575 -0.04610089 0.045055706 -0.006290282 -0.050351642 0.0006419669 -0.06415795 0.013494141
0.03638901 -0.07773855 0.050746735 0.013692307 -0.063257426 -0.022592528 0.07279175 0.047571458
0.022056563 0.016413257 0.08579141 0.0030151447 0.027855024 0.007060424 0.05732686 0.07428977
0.025296723 -0.018162059 -0.041947994 -0.015704978 -0.010518787 -0.06778369 0.0049215043 -0.018350994
-0.018886121 0.09943933 0.059868958 -0.03267222 0.02199932 0.03300463 0.017001692 -0.006392088
0.012002827 -0.047738433 0.004177276 -0.022627706 -0.043176536 0.13966697 0.056958035 0.05254056
0.019607836 -0.074739635 0.007372172 -0.030089239 0.06741345 0.016493004 -0.06593676 -0.07650365
0.050664246 -0.094251625 0.052885123 0.0073891105 -0.0063798223 -0.080175176 0.048148677 -0.059601825
-0.03553462 -0.119639985 -0.032428868 0.032003086 -0.0036538602 -0.053054664 -0.043869864 -0.04226704
0.08181904 -0.08473339 0.021064794 0.07283656 -0.033963095 0.0482712 0.07885034 -0.12424376
0.04959166 0.0066984477 -0.052247714 0.027897203 0.0076433024 -0.054732908 0.0074727936 0.06908447
0.03944778 0.059954837 -0.006985257 0.09962086 -0.058385976 -0.07655451 0.048041493 -0.05629283
-0.016770232 -0.055342223 0.021541247 0.027118754 0.025259215 -0.008535555 0.008646438 -0.062580615
-0.025641885 0.05388797 -0.004600596 -0.0040883073 -0.08007034 -0.048338383 0.017379295 -0.023293754
-0.02316891 -0.0581691 -0.06904861 -0.029336486 0.06449523 0.0057264003 0.055254422 0.03239208
0.004173633 0.06645019 0.1268866 0.016474238 0.029074764 -0.016549775 -0.056772698 0.10656088
-0.0030420942 0.04791945 -0.02592151 -0.061501745 -0.019960921 0.080288075 -0.09074585 0.024811711
0.09605309 -0.05893654 -0.050927736 -0.046607193 -0.050836623 -0.010557806 0.07638541 0.06816806
-0.0385369 0.04370033 -0.03014646 0.056416567 -0.022957196 -0.021413192 0.06940242 -0.019029574
0.100162365 -0.020177137 0.011062847 -0.010066315 -0.1287314 0.038076445 -0.13940677 0.03076517
-0.049639124 -0.042568605 0.009307478 -0.0045583155 -0.071902275 -0.04606824 -0.052647043 -0.0730729
0.018417133 0.052698873 0.016127467 0.034524214 0.1374087 -0.00044073613 0.07259134 0.032715525
-0.117800586 -0.00022486523 -0.009673067 0.04470265 0.11748831 -0.039391298 -0.024688464 0.0018048458
-0.08778465 0.003780617 0.08941529 -0.12217304 -0.0010018137 0.0042803916 0.07286053 0.02166214
00000000: c10d 273d 435b 86bc 6fcc 6d3d 51d6 563a
00000010: b207 19bd 65e2 093c b923 8d3c e22d ddbd
00000020: 8e00 34bd e4d5 ab3d 1fff 47bd d23c 3dbb
00000030: 9f4e 7cbc f2c9 673c a0d0 3a3d 4b31 14bd
00000040: e4c0 313c 2428 cebc 4a4e b5bd fa1e 5fbd
00000050: 3b5a 12bd 6080 1dbd b448 013a ebfb d23c
00000060: a891 713d 6a7a bcbd f9e4 73bd d50f 183d
00000070: f929 8d3d 1fa5 b4bd 1558 e3bc 962c 653b
00000080: 97b7 bcbc 6fd4 b03c 1321 e23c 187c a9bc
00000090: e895 71bd c43b 3a3c 1382 6e3c 2765 e5bc
000000a0: 9b1b 80bd fbe2 80bd abca 473c fc72 993d
000000b0: 6572 0ebd 62d6 3dbd 932a 55bc 78f4 89bc
000000c0: c69c d3bc 4b8a 813d 10ac 7b3d 8351 bc3c
000000d0: c46c 013c 13b7 1c3d 5fd4 9f3d 1814 c43d
000000e0: 8f2a 74bd 317a 9abd 4348 98bc 0a53 bcbb
000000f0: 03c4 06bd 0e80 c6bc ea26 13bd 6de6 973d
00000100: 54fc bfbc 49d4 3cbd 558c 383d b61e cebb
00000110: 863d 4ebd ab49 283a 3e65 83bd 8816 5d3c
00000120: a40c 153d 6435 9fbd cfdb 4f3d b355 603c
00000130: 1c8d 81bd f713 b9bc d713 953d 4ada 423d
00000140: f7af b43c 1875 863c 68b3 af3d bc99 453b
00000150: 3830 e43c 215b e73b 92cf 6a3d 3c25 983d
00000160: 133b cf3c 99c8 94bc a9d1 2bbd baa7 80bc
00000170: fe56 2cbc 2dd2 8abd 9244 a13b d354 96bc
00000180: 11b7 9abc d9a6 cb3d 2739 753d 4ed3 05bd
00000190: eb37 b43c dd2f 073d 2247 8b3c b874 d1bb
000001a0: 81a7 443c 6089 43bd 88e1 883b bd5d b9bc
000001b0: e1d9 30bd dc04 0f3e d44c 693d c534 573d
000001c0: 9da0 a03c 1811 99bd 4392 f13b b57d f6bc
000001d0: 1010 8a3d 561c 873c da09 87bd f2ad 9cbd
000001e0: 5085 4f3d ff06 c1bd 129e 583d 5a20 f23b
000001f0: d40d d1bb e232 a4bd 8c37 453d 0b21 74bd
00000200: c08c 11bd cf05 f5bd 22d4 04bd ab15 033d
00000210: 9a75 6fbb d94f 59bd e3b0 33bd 3420 2dbd
00000220: be90 a73d b388 adbd 1390 ac3c 562b 953d
00000230: e31c 0bbd 06b8 453d 497c a13d 8373 febd
00000240: a020 4b3d a77e db3b b301 56bd ad88 e43c
00000250: ab74 fa3b 9d2f 60bd 56de f43b 297c 8d3d
00000260: ff93 213d 3493 753d 95e4 e4bb 0506 cc3d
00000270: 2226 6fbd 9cc8 9cbd 28c7 443d 4f93 66bd
00000280: ba61 89bc 87ae 62bd 4577 b03c 2628 de3c
00000290: 6aec ce3c b6d8 0bbc caa9 0d3c 442a 80bd
000002a0: ee0e d2bc a2b9 5c3d 99c0 96bb 35f7 85bb
000002b0: ebfb a3bd 78fe 45bd 065f 8e3c 8bd2 bebc
000002c0: bacc bdbc b942 6ebd 5c69 8dbd 1253 f0bc
000002d0: 1316 843d 87a4 bb3b 7652 623d 8fad 043d
000002e0: f9c2 883b 0a17 883d 90ee 013e fbf4 863c
000002f0: 332e ee3c 6593 87bc 7d8a 68bd 973c da3d
00000300: df5d 47bb 2f47 443d 5959 d4bc 41e9 7bbd
00000310: 1685 a3bc 136e a43d f6d8 b9bd ee41 cb3c
00000320: 7cb7 c43d 7167 71bd 9a99 50bd 2fe7 3ebd
00000330: 103a 50bd a6fa 2cbc f46f 9c3d b29b 8b3d
00000340: ded8 1dbd 1eff 323d b5f5 f6bc 0f15 673d
00000350: bb10 bcbc b86a afbc db22 8e3d e9e3 9bbc
00000360: ed21 cd3d 864a a5bc f240 353c 2fed 24bc
00000370: 2ad2 03be 0cf6 1b3d a6c0 0ebe 3d07 fc3c
00000380: 6552 4bbd 6b5c 2ebd 647e 183c ec5d 95bb
00000390: 8041 93bd 0db2 3cbd 6da4 57bd 3fa7 95bd
000003a0: 87df 963c c6da 573d c01d 843c 4369 0d3d
000003b0: deb4 0c3e 9a12 e7b9 c5aa 943d b700 063d
000003c0: 6f41 f1bd cdc9 6bb9 c97b 1ebc 201a 373d
000003d0: b69d f03d c558 21bd 763f cabc 9390 ec3a
000003e0: 70c8 b3bd 3ac4 773b 5d1f b73d dc35 fabd
000003f0: 4a4f 83ba 8742 8c3b e737 953d cd74 b13c

actor.2.bias f4 [128]
-0.030235851 0.047913633 0.04046699 0.022565853 0.07186206 -0.11723565 0.12518774 -0.20438041
0.029370207 0.018336708 -0.18439555 -0.067750506 -0.06463449 -0.028950008 -0.002078039 0.005483859
-0.0023073417 -0.024654953 -0.14704657 -0.07450808 0.061387014 -0.045791417 -0.024046142 0.04224587
-0.055710316 0.04560374 -0.20146208 0.07958742 -0.22549371 -0.0005234769 0.0421215 -0.08362257
0.017500859 0.08539888 0.042087436 0.010479229 -0.22994715 0.01531576 0.005538067 0.001371349
-0.027784048 0.041296802 0.065073594 -0.03710531 0.01784547 -0.044044524 -0.031406257 -0.024020243
0.0013711168 0.017962066 0.015442917 -0.2559751 -0.07387912 -0.050755225 -0.23755056 0.054843407
0.37377945 -0.0042811837 -0.016338311 -0.14047432 0.076540045 -0.060234625 0.45839733 0.005834141
0.019361688 -0.015361744 -0.033670288 0.12322242 -0.048357636 -0.5961648 -0.026681034 0.07697371
-0.03596559 -0.10185805 -0.013452295 -0.1059995 -0.02728219 -0.014015595 0.043629564 0.05427777
0.082377076 0.015804857 -0.038172156 -0.049113575 -0.09801834 -0.0589934 -0.026495151 0.0674062
0.06607915 -0.081922434 -0.110862784 -0.061882813 -0.1323991 -0.040685944 -0.016549967 -0.07457913
0.042307954 -0.048673864 -0.013171378 0.018254349 -0.009499617 -0.22478826 0.07610174 -0.009658774
0.10008026 0.20303664 0.058133595 0.029439602 0.03503379 0.026496585 0.09395855 0.03167807
0.051865842 0.13914806 -0.027333025 -0.07213948 0.04868991 -0.059257627 -0.03743465 0.04572159
0.09898699 0.12632716 0.06716511 0.040856477 -0.10151763 0.026191926 -0.15085411 -0.06319212
00000000: 2db1 f7bc 1641 443d b7c0 253d 06dc b83c
00000010: 6a2c 933d 3f19 f0bd 3731 003e 1949 51be
00000020: ca99 f03c dd36 963c 30d2 3cbe c7c0 8abd
00000030: 165f 84bd 9128 edbc b62f 08bb f2b1 b33b
00000040: c536 17bb 2ff9 c9bc 6093 16be b197 98bd
00000050: f370 7b3d c88f 3bbd 6afc c4bc 010a 2d3d
00000060: 8030 64bd fdca 3a3d 134c 4ebe bbfe a23d
00000070: d3e7 66be f139 09ba 9887 2c3d 4f42 abbd
00000080: f65d 8f3c 9ce5 ae3d e063 2c3d 12b1 2b3c
00000090: 4477 6bbe f4ee 7a3c ac78 b53b d6be b33a
000000a0: 5f9b e3bc d626 293d 4e45 853d bdfb 17bd
000000b0: aa30 923c 0868 34bd d9a3 00bd 1ac6 c4bc
000000c0: 0cb7 b33a 2f25 933c 4a04 7d3c 2b0f 83be
000000d0: f04d 97bd b6e4 4fbd 7440 73be 7ba3 603d
000000e0: 0560 bf3e 2c49 8cbb ecd7 85bc 80d8 0fbe
000000f0: 07c1 9c3d 95b8 76bd 0eb3 ea3e 522c bf3b
00000100: 679c 9e3c d3af 7bbc dbe9 09bd 095c fc3d
00000110: a812 46bd 429e 18bf 2f92 dabc 64a4 9d3d
00000120: a850 13bd f49a d0bd 0467 5cbc 4416 d9bd
00000130: e67e dfbc aba1 65bc eab4 323d 5e52 5e3d
00000140: 50b5 a83d 3079 813c 685a 1cbd 512b 49bd
00000150: d7bd c8bd 10a3 71bd 5c0c d9bc 430c 8a3d
00000160: 8154 873d f3c6 a7bd 070c e3bd d578 7dbd
00000170: a193 07be 4ea6 26bd cc93 87bc f1bc 98bd
00000180: 1b4b 2d3d 3f5e 47bd c3cc 57bc 258a 953c
00000190: 48a4 1bbc e52e 66be 3bdb 9b3d d63f 1ebc
000001a0: e1f6 cc3d d6e8 4f3e 7e1d 6e3d 522b f13c
000001b0: 977f 0f3d 5e0f d93c 576d c03d ddc0 013d
000001c0: 4771 543d d47c 0e3e 82e9 dfbc ddbd 93bd
000001d0: 126f 473d 20b8 72bd 1355 19bd 9046 3b3d
000001e0: b1b9 ca3d e85b 013e dc8d 893d 1f59 273d
000001f0: 7ae8 cfbd 7390 d63c 8079 1abe df6a 81bd

actor.4.weight f4 [4, 128]
-0.0028512864 0.0013767921 -0.0029754092 0.0020473432 -0.0011543874 -0.019876821 -0.1148679 0.020567413
0.002723738 0.0018754131 -0.16689351 0.0010032279 -0.0021876513 0.0007419208 -0.0023315938 -0.006451009
-0.19026953 -0.0014706262 -0.06588377 0.0046941056 0.0076804105 -0.0084708845 -0.006144093 -0.00024647437
-0.02634453 0.011919425 -0.27699146 -0.007046494 -0.004302251 0.011442698 -0.0043334365 -0.010849555
0.003273216 0.007035797 -0.005147335 0.00096207025 -0.050702438 0.0026239345 -0.008659249 -0.00848751
0.003922985 -0.008578602 0.0019641712 -0.0032073718 -0.00060919236 -0.018055523 -0.017844835 -0.00015402905
-0.03804423 -0.005455626 0.0065004826 -0.27875352 -0.0022891762 0.018443424 -0.18821792 0.0046976237
-0.062959194 0.00041941635 0.0019800093 -0.049377777 -0.01703899 0.025777603 0.08128962 0.16359317
-0.005264279 -0.0074743913 -0.075237304 0.03703719 0.0024780943 -0.19789332 0.026955841 0.014965064
0.007843564 -0.08593499 -0.08893395 -0.070951335 -0.0013132032 -0.002676654 0.0022461014 0.0023526081
-0.42364362 0.11408377 -0.0056218887 -0.00421159 0.016646063 -0.0043742843 -0.00059059623 0.027237112
0.002911217 -0.0011032188 -0.0013266946 0.004747518 -0.06562081 -0.004770614 0.002661193 -0.0029798
0.00757694 -0.0049687135 0.0062197302 -0.0021043045 -0.0035205667 -0.12825584 -0.0045775645 0.0031764791
0.005058601 -0.019757304 0.0045749694 -0.0026531871 -0.009699078 -0.0011450588 0.0056754546 -8.097238e-05
0.0042331987 0.11625386 -0.00053166307 -0.04082616 -0.016101591 0.001092675 0.0025621653 -0.008686215
0.0058641364 -0.052112907 0.003786999 -0.06818898 -0.13261646 0.10876164 0.08583643 -0.040810652
0.0017904207 -0.0017656322 0.0050447355 -0.0038598592 0.0059558637 -0.05111398 0.06660054 0.06578086
8.268445e-05 -6.325879e-05 0.11242439 0.000580704 0.0019175807 6.4048276e-05 0.0038935472 0.007748476
0.016006332 -0.0034016082 -0.038481202 0.0005651479 -0.0025763542 0.004980155 0.0022115323 0.001595785
0.014217506 -0.0012864111 -0.057240374 0.010094662 -0.08155771 -0.007898985 0.002763025 0.0046633757
-0.007161766 -0.0003635488 0.0064142677 -0.0019238283 -0.06575839 0.0009015841 0.00093897 0.012506752
0.00037519477 -0.00039286725 -0.0033128592 0.008429724 0.0026398874 0.0038383335 0.0076668565 0.0012430423
-0.17453957 0.0021416333 -0.0051207137 -0.15374133 0.0024805418 0.0007469102 -0.044909026 -0.004006324
0.19201545 -0.0023557935 0.0020038332 -0.054173637 0.0007709134 -0.02584407 0.08307084 -0.06794521
0.00046713825 -0.00029573863 0.057180468 0.043341424 0.0050630323 -0.03393169 -0.0123109445 -0.0071797087
0.001486567 0.01143733 0.010483259 -0.021675345 0.0022376352 0.0028628013 -0.004195971 0.0028273065
-0.09273755 -0.012911569 0.0017244344 0.0023656883 -0.02577705 0.0052746935 0.0001292235 -0.00801572
-0.0035780163 -0.0042321496 -0.0071618287 0.00421181 -0.017642647 0.0034692357 -8.2228544e-05 -0.0013998153
-0.0035904723 0.003096971 0.13109466 -0.0030885371 0.0041751866 0.035237495 0.00011743122 0.004998227
-0.0045492337 -0.039162908 -0.0031258985 -0.00024820914 0.00921821 -0.0021955422 -0.006548941 0.008370743
-0.0049382113 -0.05146019 -0.003251301 -0.03868917 0.01543106 0.005957159 -0.00016059654 0.0058424124
0.0027552312 0.020782936 -0.003037598 0.04926035 -0.15810947 -0.03637893 -0.04721104 0.04432713
00000000: a6dc 3abb 7a75 b43a 15ff 42bb b82c 063b
00000010: d04e 97ba b7d4 a2bc dd3f ebbd fe7c a83c
00000020: be80 323b 6cd0 f53a 22e6 2abe be7e 833a
00000030: b35e 0fbb 767d 423a a7cd 18bb fc62 d3bb
00000040: 04d6 42be 07c2 c0ba 12ee 86bd 03d1 993b
00000050: f4ab fb3b 77c9 0abc 6354 c9bb 3b39 81b9
00000060: 7cd0 d7bc b149 433c d3d1 8dbe 47e6 e6bb
00000070: e6f9 8cbb 277a 3b3c 80ff 8dbb 55c2 31bc
00000080: 7483 563b 8b8c e63b faaa a8bb 7133 7c3a
00000090: 5cad 4fbd 51f6 2b3b 86df 0dbc 320f 0bbc
000000a0: 628c 803b 448d 0cbc 53b9 003b c532 52bb
000000b0: 35b2 1fba 2de9 93bc 552f 92bc dc82 21b9
000000c0: 44d4 1bbd 1cc5 b2bb 0002 d53b c8b8 8ebe
000000d0: 0106 16bb aa16 973c 33bc 40be 86ee 993b
000000e0: c0f0 80bd 1ce5 db39 0bc3 013b 5a40 4abd
000000f0: 5a95 8bbc 8d2b d33c 2c7b a63d f884 273e
00000100: f97f acbb bdeb f4bb 0416 9abd 4fb4 173d
00000110: 8667 223b 8ca4 4abe 7fd2 dc3c 0730 753c
00000120: 4b82 003c affe afbd 0123 b6bd ef4e 91bd
00000130: ca1f acba cd6a 2fbb 5433 133b 372e 1a3b
00000140: d1e7 d8be c0a4 e93d d237 b8bb 6101 8abb
00000150: 535d 883c 2856 8fbb 3ed2 1aba 5d20 df3c
00000160: 1eca 3e3b e199 90ba 7ce4 adba 1191 9b3b
00000170: 3464 86bd d052 9cbb 6967 2e3b c048 43bb
00000180: fb47 f83b 97d0 a2bb e1ce cb3b 5fe8 09bb
00000190: 4fb9 66bb 8055 03be 65ff 95bb 7a2c 503b
000001a0: 9fc2 a53b 12da a1bc a0e9 953b 18e1 2dbb
000001b0: e2e8 1ebc cc15 96ba 2af9 b93b b7cf a9b8
000001c0: a5b6 8a3b 8116 ee3d 4e5f 0bba 5539 27bd
000001d0: 7ce7 83bc 1738 8f3a 00ea 273b a050 0ebc
000001e0: f127 c03b 5874 55bd 4d2f 783b aaa6 8bbd
000001f0: 9ccc 07be 6cbe de3d 03cb af3d 1229 27bd
00000200: 8dac ea3a c96c e7ba 4f4e a53b b1f5 7cbb
00000210: 6829 c33b e55c 51bd dd65 883d 1eb8 863d
00000220: e066 ad38 cea9 84b8 c23e e63d 633a 183a
00000230: 5557 fb3a a851 8638 e22a 7f3b eee6 fd3b
00000240: b61f 833c 84ed 5ebb 779e 1dbd 6f26 143a
00000250: 0dd8 28bb 9130 a33b 5bef 103b a929 d13a
00000260: 8bf0 683c cb9c a8ba e274 6abd 1564 253c
00000270: bb07 a7bd bf6a 01bc de13 353b 3bcf 983b
00000280: 3fad eabb b29a beb9 c72e d23b f728 fcba
00000290: 56ac 86bd 4958 6c3a 3625 763a 1fe9 4c3c
000002a0: cab5 c439 c0f9 cdb9 8e1c 59bb d31c 0a3c
000002b0: f601 2d3b 8d8c 7b3b 413a fb3b 94ed a23a
000002c0: 80ba 32be a55a 0c3b a9cb a7bb 5e6e 1dbe
000002d0: 9690 223b 4ccc 433a 87f2 37bd 7b47 83bb
000002e0: b39f 443e a863 1abb be52 033b 2de5 5dbd
000002f0: 1f17 4a3a f1b6 d3bc 0b21 aa3d dc26 8bbd
00000300: 3cea f439 5e0d 9bb9 1136 6a3d c786 313d
00000310: cbe7 a53b f5fb 0abd d8b3 49bc c343 ebbb
00000320: e9d8 c23a a463 3b3c fac1 2b3c 7e90 b1bc
00000330: 4aa5 123b d69d 3b3b 5b7e 89bb 554a 393b
00000340: 2fed bdbd 0c8b 53bc 6b06 e23a aa09 1b3b
00000350: 642a d3bc 56d7 ac3b 2b80 0739 5e54 03bc
00000360: 277d 6abb d8ad 8abb c6ad eabb 3903 8a3b
00000370: 5087 90bc 1e5c 633b 1d72 acb8 027a b7ba
00000380: 214e 6bbb 8df6 4a3b ae3d 063e 0e69 4abb
00000390: 01d0 883b 3155 103d 6845 f638 2bc8 a33b
000003a0: bd11 95bb 4969 20bd e0db 4cbb 1122 82b9
000003b0: fa07 173c 16e3 0fbb 8098 d6bb 7125 093c
000003c0: b8d0 a1bb ecc7 52bd c713 55bb 8978 1ebd
000003d0: 8fd2 7c3c 4634 c33b ce65 28b9 b571 bf3b
000003e0: 1c91 343b fa40 aa3c 7012 47bb 39c5 493d
000003f0: 73e7 21be 1302 15bd 5d60 41bd 5d90 353d

actor.4.bias f4 [4]
0.2387345 0.20729107 0.2592759 0.21890415
00000000: d176 743e 1c44 543e d0bf 843e 6928 603e

critic.0.weight f4 [128, 17]
0.16360818 0.3404626 0.094587296 -0.094743766 0.18457061 0.042528186 -0.13488388 0.15022387
0.046146523 -0.10905101 0.023334643 0.051641203 -0.110810414 -0.10279056 0.16272084 0.15543535
-0.1668039 0.25387147 -0.14318419 0.39099464 -0.01260757 -0.18604968 -0.13222677 0.034495465
0.10952727 -0.15996954 0.20360304 -0.09335492 0.12416825 -0.15985253 0.060175397 -0.03875041
0.1646015 -0.124464065 -0.01826831 0.1803727 -0.70965856 0.15769401 -0.084026635 -0.058541782
-0.15253468 0.15997186 0.0082951505 -0.051726103 -0.20486043 0.24513838 0.050131086 -0.1816321
0.1162248 0.011736284 -0.1485613 0.29838362 0.11394552 -0.00835806 -0.09924501 0.20675659
0.33943844 -0.08994101 0.29668593 -0.2594164 -0.2527337 0.120779715 -0.2918371 0.2750392
-0.089417525 0.0062559843 0.07110132 -0.07036674 0.10897098 -0.12680325 0.57401407 -0.11807072
0.16469759 0.15168223 0.06070571 -0.035657484 -0.008508226 0.007200379 0.0943273 -0.058801387
-0.046300672 -0.015981087 0.08341322 -0.008526469 -0.061297238 -0.06224101 -0.0055531235 -0.24518874
-0.18884979 0.052855987 0.16362812 -0.053397305 0.18495247 -0.16006884 -0.082727745 -0.06361186
-0.064278916 0.05860239 -0.08842553 0.034629088 0.094966985 0.0013102818 -0.10030905 -0.15989818
0.29132763 0.07934302 0.13647676 0.032578375 -0.14875405 -0.009929053 -0.036459073 0.03826272
-0.122744866 0.17114745 -0.025163386 -0.027928622 0.07494413 0.02521136 0.082338974 -0.24337088
0.17842016 0.1007763 -0.18894017 -0.33117893 0.9699292 -0.25239387 0.49913615 0.008624081
-0.16903149 0.08959211 -0.13674116 -0.011417518 0.055275768 -0.038025457 -0.20258956 -0.18752737
-0.019291978 0.14065653 -0.25386426 0.062382694 -0.10198477 -0.09162567 -0.056939974 -0.024811259
-0.0146504985 0.039280888 -0.14106171 -0.06825611 0.014264247 -0.013242154 -0.05748575 -0.15635842
0.026941374 -0.18837312 0.3028435 -0.10912657 -0.10879996 -0.22935693 0.15914845 -0.10510724
0.22479 0.07309695 0.062047847 0.07253973 0.36472943 0.112662755 0.29990914 0.04228016
-0.1375493 0.10990006 -0.15422322 -0.13792096 -0.44329482 -0.013541257 -0.09039174 -0.36709026
-0.050020475 -0.03617763 0.028553868 -0.065018855 0.040066533 -0.09733982 0.11876684 0.19668448
0.07693818 -0.14398088 -0.064656205 -0.15485337 -0.17454335 0.23518732 0.16403875 -0.13767295
0.13099389 -0.10638139 -0.02901601 0.0928859 0.23028702 -0.14909548 0.1642935 0.11712326
-0.029643694 0.063731804 0.17750384 0.10471498 0.1393088 0.40766641 -0.013468404 0.20455648
0.03414822 0.22274573 -0.04399991 0.1662581 0.07105413 0.015196992 0.05980146 0.01884844
0.15162502 0.1969484 -0.05598813 -0.19236012 -0.16156359 -0.15544757 -0.25833845 -0.2829179
-0.06484668 -0.027233886 -0.062332027 0.059292164 0.09759341 -0.01388517 0.036329113 -0.117467724
0.036659446 0.11687017 0.12298475 -0.06585008 0.110030316 0.14386 -0.18344602 0.21928708
-0.11098713 0.092074595 -0.16422448 -0.18471402 -0.0710625 0.05434327 -0.02126908 -0.03489553
0.12431643 0.15695532 -0.12773877 -0.065488815 -0.012554692 -0.059210904 0.13656388 0.063600704
00000000: e788 273e 1d51 ae3e fcb6 c13d 0509 c2bd
00000010: 1400 3d3e 0932 2e3d 001f 0abe 49d4 193e
00000020: 2304 3d3d 2356 dfbd 4b28 bf3c ba85 533d
00000030: 92f0 e2bd db83 d2bd 4ba0 263e 722a 1f3e
00000040: a4ce 2abe 71fb 813e e09e 12be 7330 c83e
00000050: fb8f 4ebc cf83 3ebe 7466 07be 1e4b 0d3d
00000060: d54f e03d 0ecf 23be 517d 503e dd30 bfbd
00000070: ec4b fe3d 62b0 23be 7a7a 763d c0b8 1ebd
00000080: 4c8d 283e 04e7 febd 6ca7 95bc 9fb3 383e
00000090: 2fac 35bf 8a7a 213e 2816 acbd 82c9 6fbd
000000a0: 0d32 1cbe aacf 233e 62e8 073c c0de 53bd
000000b0: efc6 51be 8e05 7b3e 4156 4d3d c4fd 39be
000000c0: 4507 ee3d 8b49 403c 7420 18be bdc5 983e
000000d0: 455c e93d 3ff0 08bc f840 cbbd 00b8 533e
000000e0: e0ca ad3e fe32 b8bd 38e7 973e 3ad2 84be
000000f0: 5066 81be 5b5b f73d ac6b 95be f0d1 8c3e
00000100: 8920 b7bd 00ff cc3b 929d 913d 701c 90bd
00000110: 2d2c df3d b6d8 01be 96f2 123f 10cf f1bd
00000120: 7ca6 283e 9652 1b3e 8da6 783d 950d 12bd
00000130: 1666 0bbc 28f1 eb3b ac2e c13d b9d9 70bd
00000140: c6a5 3dbd c5ea 82bc 8dd4 aa3d 9ab2 0bbc
00000150: d012 7bbd 6ef0 7ebd faf6 b5bb c212 7bbe
00000160: d761 41be 857f 583d 218e 273e 22b7 5abd
00000170: 2e64 3d3e 16e9 23be 2a6d a9bd ef46 82bd
00000180: aaa4 83bd 0f09 703d 7218 b5bd 3bd7 0d3d
00000190: 0d7e c23d c3bd ab3a d56e cdbd 59bc 23be
000001a0: e528 953e 987e a23d 90c0 0b3e e770 053d
000001b0: fb52 18be 77ad 22bc 1c56 15bd 5fb9 1c3d
000001c0: a961 fbbd 4741 2f3e 7223 cebc 91ca e4bc
000001d0: 4f7c 993d 0e88 ce3c 56a1 a83d 3736 79be
000001e0: c6b3 363e ce63 ce3d 8879 41be 4990 a9be
000001f0: 484d 783f c539 81be c68e ff3e 044c 0d3c
00000200: 9716 2dbe 117c b73d e005 0cbe 8b10 3bbc
00000210: d868 623d 95c0 1bbd a373 4fbe 2d07 40be
00000220: 360a 9ebc 4408 103e 7ffa 81be ff84 7f3d
00000230: 64dd d0bd 3da6 bbbd e439 69bd fb40 cbbc
00000240: a508 70bc ffe4 203d 7b72 10be dcc9 8bbd
00000250: 97b4 693c 9ff5 58bc 2e76 6bbd 6c1c 20be
00000260: 28b4 dc3c e2e4 40be 4e0e 9b3e c07d dfbd
00000270: 83d2 debd 8bdc 6abe d0f7 223e 7742 d7bd
00000280: 5a2f 663e dbb3 953d e225 7e3d b68f 943d
00000290: d1bd ba3e bbbb e63d b18d 993e f62d 2d3d
000002a0: b9d9 0cbe 4813 e13d b1ec 1dbe 273b 0dbe
000002b0: 8af7 e2be 26dc 5dbc 4e1f b9bd 41f3 bbbe
000002c0: 45e2 4cbd ff2e 14bd cde9 e93c 9b28 85bd
000002d0: ce1c 243d 195a c7bd 073c f33d a867 493e
000002e0: c491 9d3d b96f 13be 796a 84bd e291 1ebe
000002f0: 7ebb 32be f2d4 703e c6f9 273e 23fa 0cbe
00000300: 4323 063e 7cde d9bd fcb2 edbc f63a be3d
00000310: 5cd0 6b3e 7cac 18be 8e3c 283e 52de ef3d
00000320: 55d7 f2bc d285 823d 91c3 353e cf74 d63d
00000330: f7a6 0e3e a7b9 d03e 95aa 5cbc 4177 513e
00000340: 01df 0b3d 7517 643e 4039 34bd 903f 2a3e
00000350: d484 913d cefc 783c 60f2 743d 0b68 9a3c
00000360: 9743 1b3e d7ac 493e cf53 65bd 0dfa 44be
00000370: ed70 25be a62d 1fbe f044 84be 9dda 90be
00000380: 56ce 84bd 9919 dfbc de4f 7fbd 57dc 723d
00000390: 0edf c73d a07e 63bc d6cd 143d eb92 f0bd
000003a0: 3728 163d a159 ef3d 6edf fb3d 68dc 86bd
000003b0: 9357 e13d 0950 133e 46d9 3bbe cb8c 603e
000003c0: 384d e3bd 9b91 bc3d 762a 28be ac25 3dbe
000003d0: 3789 91bd 0c97 5e3d 7e3c aebc 9eee 0ebd
000003e0: 9d99 fe3d e5b8 203e f4cd 02be 001f 86bd
000003f0: 32b2 4dbc 2287 72bd 67d7 0b3e 1641 823d

critic.0.bias f4 [128]
0.023230642 0.15542556 -0.13978021 0.02951459 0.19513951 -0.051693577 -0.035841793 -0.12547384
0.007858851 -0.033813074 0.06076942 -0.110701986 -0.15107802 -0.13759348 -0.11580085 -0.14160165
-0.17043401 0.22098702 -0.090804435 0.16727974 -0.02444742 -0.15806846 -0.15838565 0.062585115
-0.31382915 -0.17191382 0.14930524 -0.008194149 -0.21215525 -0.06495898 0.11036487 0.08639907
0.266406 0.31342596 0.18042432 0.008326719 0.19241649 0.00984171 0.22437745 -0.095163696
0.012408587 -0.2613623 -0.14533432 -0.1526026 0.21902137 0.27738503 0.07220112 -0.049561203
-0.19120483 0.20728898 -0.25057438 -0.096574105 0.18071331 -0.05918262 0.0521884 -0.07932791
-0.22583397 0.15672821 0.16918494 -0.17182335 -0.022440616 0.041193802 0.08501876 0.19783892
0.06753576 -0.059298147 -0.13793202 -0.13525976 -0.27630538 0.27472913 0.041005358 -0.36291462
-0.18513244 0.23681189 -0.30418053 -0.30000937 0.15425171 0.089290865 -0.046041314 0.058353104
0.041085634 -0.24146932 -0.07691238 -0.015056081 -0.114534914 -0.26430443 -0.04879216 0.1830729
-0.11560118 0.256603 -0.099498734 -0.11840487 -0.19508247 -0.09241058 -0.13038461 -0.073961794
-0.20676795 -0.049153138 -0.09703543 0.2184875 -0.09761201 -0.23725551 -0.1065631 -0.017968664
0.2361517 0.09564355 0.12680015 0.19192877 0.03989337 -0.14474516 -0.100273594 0.30978155
0.1609681 -0.16710192 0.09886337 -0.20702076 0.1441607 -0.15827502 -0.15106614 0.1707457
0.019899199 -0.06498005 -0.12439211 0.13023189 0.014121545 0.16937669 -0.043036103 -0.0883194
00000000: 304e be3c e127 1f3e 8b22 0fbe 95c8 f13c
00000010: a7d2 473e a5bc 53bd d8ce 12bd 377c 00be
00000020: 69c2 003c 947f 0abd 5be9 783d b9b7 e2bd
00000030: 32b4 1abe 4ee5 0cbe ff28 edbd 0600 11be
00000040: 4186 2ebe 6c4a 623e adf7 b9bd 614b 2b3e
00000050: f545 c8bc b3dc 21be d92f 22be a02c 803d
00000060: 37ae a0be 2d0a 30be 79e3 183e c040 06bc
00000070: 3a3f 59be 3709 85bd fa06 e23d fff1 b03d
00000080: 5e66 883e 5e79 a03e 27c1 383e ca6c 083c
00000090: d408 453e 203f 213c 34c3 653e 2fe5 c2bd
000000a0: 634d 4b3c 48d1 85be 85d2 14be db43 1cbe
000000b0: 2347 603e 6905 8e3e 2ede 933d b000 4bbd
000000c0: 33cb 43be 9043 543e 494b 80be a5c8 c5bd
000000d0: e90c 393e 7a69 72bd 81c3 553d ac76 a2bd
000000e0: 0541 67be 5c7d 203e d13e 2d3e 76f2 2fbe
000000f0: 62d5 b7bc d5ba 283d 511e ae3d 4996 4a3e
00000100: 3050 8a3d 9de2 72bd 0d3e 0dbe 8981 0abe
00000110: e677 8dbe 4ca9 8c3e 3cf5 273d f2cf b9be
00000120: 5c93 3dbe d17e 723e 8dbd 9bbe d49a 99be
00000130: 29f4 1d3e 21de b63d d195 3cbd aa03 6f3d
00000140: 6949 283d bc43 77be 3d84 9dbd c8ad 76bc
00000150: 4891 eabd e952 87be 4ada 47bd 7677 3b3e
00000160: 50c0 ecbd 7861 833e fec5 cbbd 417e f2bd
00000170: b3c3 47be c241 bdbd 8b83 05be 4879 97bd
00000180: faba 53be cd54 49bd 83ba c6bd 30bb 5f3e
00000190: cee8 c7bd 1cf3 72be c13d dabd 0533 93bc
000001a0: c0d1 713e c4e0 c33d e6d7 013e fa88 443e
000001b0: 3b67 233d 1338 14be 3e5c cdbd b09b 9e3e
000001c0: d2d4 243e c41c 2bbe e178 ca3d 40fd 53be
000001d0: dd9e 133e d912 22be 15b1 1abe f6d7 2e3e
000001e0: a503 a33c 4314 85bd 4ac1 febd 825b 053e
000001f0: 0d5e 673c 1571 2d3e a046 30bd cde0 b4bd

critic.2.weight f4 [128, 128]
-0.008132095 0.035480533 0.039864145 0.06800071 -0.040984187 -0.07882874 0.04835399 -0.043735072
-0.09597263 0.0037975006 -0.041008197 0.014745048 0.02295475 -0.019620424 -0.04479874 -0.04409655
0.0022806602 -0.009791069 -0.006749278 0.030128542 0.031944 0.024949426 -0.08041597 0.082810186
-0.022727314 -0.11103675 -0.017370105 -0.06229762 0.040079206 -0.05170011 0.04611229 -0.031629812
-0.09720893 0.07628508 -0.053504083 -0.031591345 0.10660351 0.059595637 0.0035714654 0.032751754
-0.02522692 -0.04129175 -0.07292134 -0.04094472 0.09164394 -0.027513698 -0.03979887 -0.0015507992
0.02323644 0.018890668 0.0088710915 -0.071087755 -0.112771794 0.09646001 0.08122968 0.04485728
0.059780274 -0.03286286 -0.06140962 0.04753471 0.048743322 0.024059806 0.07309844 -0.08935283
-0.052475113 -0.058947522 -0.017076526 0.05325366 -0.026170636 -0.021990392 -0.07255006 0.06443232
-0.034766495 0.045779973 0.01969547 -0.002015529 -0.05087654 -0.016086439 -0.0908079 0.038635463
-0.014270539 0.01149317 0.020714326 -0.06177722 0.0020749562 0.054034006 0.0043982193 -0.04707343
-0.047781337 -0.023160337 -0.04084638 0.00011355957 -0.07119119 -0.052960496 -0.056314047 -0.04294784
-0.021093577 -0.020783443 0.009419612 -0.06858504 -0.036398698 -0.052584816 0.06674214 0.020809447
0.052402623 0.018979117 0.0025929436 0.006681796 -0.08452618 0.077006005 0.04126092 -0.058807746
-0.014553045 -0.051473945 -0.08561769 -0.082761504 -0.034818687 -0.105248876 0.009711049 -0.01009561
0.025779737 0.0020643903 0.057137933 0.043823697 -0.0823296 -0.037914902 -0.070623256 0.07568655
-0.06594511 0.00022413074 0.005586766 0.08638237 0.029678863 0.032532476 0.04172839 -0.0020121075
0.046232168 -0.0464287 -0.067627646 0.1165471 -0.079952285 -0.041646715 -0.018428389 0.0048138807
-0.07398141 -0.029184844 -0.058850776 -0.0034826193 -0.0962738 -0.10825722 0.035716627 0.06598606
0.057575196 -0.01993807 0.010063199 0.06772182 0.02206129 0.049626306 -0.059907734 -0.022071335
0.007864363 0.081565425 0.05018091 0.08513499 0.059394144 0.03045126 0.036452815 0.014015596
-0.00063208956 0.016730858 0.037162043 -0.025403421 0.011779719 0.08827181 0.076139204 0.10801005
0.10217469 -0.029085808 -0.016662017 0.012664643 0.104748674 -0.089419834 -0.03603425 -0.022516238
0.0032004449 0.012683616 -0.02009769 0.022036275 0.014561095 -0.04804168 -0.08174953 0.010003143
-0.10389397 -0.011471629 -0.045272235 -0.06255132 0.06423327 -0.037922185 -0.026241014 0.03621395
0.0042512515 -0.074893475 -0.006455735 -0.04905456 -0.008901116 -0.055760037 0.050428532 0.00201343
-0.062369566 0.069886796 0.05401262 -0.0043710084 -0.0145731075 0.065342195 -0.0069005275 -0.022996966
0.03465964 -0.023944084 -0.060039084 -0.037156235 -0.019309347 -0.027977638 -0.0031400938 0.04441792
0.013205557 0.04146356 -0.0011688981 0.08437434 -0.07387767 -0.07344407 0.03712429 -0.008651172
-0.026854089 -0.087598175 -0.035291646 0.06623342 0.10052954 0.028289186 0.064172514 -0.08741057
0.0863833 0.00989995 0.10633782 0.062845856 -0.021199998 0.093325116 0.07723266 -0.051593076
-0.038472794 -0.05386221 0.0125014065 0.06771511 -0.05765094 -0.03468747 0.06061704 -0.05733885
00000000: 7b3c 05bc 0954 113d 9648 233d f543 8b3d
00000010: 09df 27bd f670 a1bd d50e 463d 8c23 33bd
00000020: 4c8d c4bd 7ddf 783b 36f8 27bd 3795 713c
00000030: 9a0b bc3c 03bb a0bc e27e 37bd 969e 34bd
00000040: 2177 153b b86a 20bc 0c29 ddbb 22d0 f63c
00000050: b6d7 023d bd62 cc3c 21b1 a4bd 6398 a93d
00000060: a22e babc 3c67 e3bd c04b 8ebc ca2b 7fbd
00000070: 182a 243d 7fc3 53bd 3ee0 3c3d 438e 01bd
00000080: 7a15 c7bd 5a3b 9c3d 1927 5bbd ed65 01bd
00000090: f152 da3d 8e1a 743d 3f0f 6a3b b426 063d
000000a0: b0a8 cebc 8a21 29bd c957 95bd a7b5 27bd
000000b0: d1af bb3d 6864 e1bc 2404 23bd 3044 cbba
000000c0: 595a be3c 9ac0 9a3c 0e58 113c 7596 91bd
000000d0: e6f4 e6bd d38c c53d bf5b a63d 44bc 373d
000000e0: 29dc 743d 359b 06bd a788 7bbd c2b3 423d
000000f0: 14a7 473d 1219 c53c a3b4 953d 9efe b6bd
00000100: 25f0 56bd f572 71bd 12e4 8bbc 8320 5a3d
00000110: cd63 d6bc 3225 b4bc 2095 94bd 18f5 833d
00000120: 5067 0ebd c883 3b3d 6558 a13c f716 04bb
00000130: eb63 50bd b5c7 83bc 7ef9 b9bd 3840 1e3d
00000140: fbce 69bc d94d 3c3c 17b1 a93c 1c0a 7dbd
00000150: fdfb 073b c352 5d3d f01e 903b 12d0 40bd
00000160: 5db6 43bd bfba bdbc 894e 27bd d426 ee38
00000170: b0cc 91bd 1bed 58bd 8fa9 66bd 13ea 2fbd
00000180: 70cc acbc 0a42 aabc b754 1a3c 5076 8cbd
00000190: cd16 15bd 2d63 57bd 1ab0 883d 9378 aa3c
000001a0: 22a4 563d 187a 9b3c 60ee 293b f8f2 da3b
000001b0: 101c adbd 53b5 9d3d 3601 293d 64e0 70bd
000001c0: e56f 6ebc 58d6 52bd 5458 afbd dd7e a9bd
000001d0: 0a9e 0ebd b98c d7bd 171b 1f3c 0f68 25bc
000001e0: 0730 d33c b94a 073b 7709 6a3d 7a80 333d
000001f0: 6c9c a8bd a84c 1bbd eda2 90bd 8d01 9b3d
00000200: 3b0e 87bd a304 6b39 3111 b73b 3de9 b03d
00000210: 1621 f33c c640 053d 63eb 2a3d 90dd 03bb
00000220: f15d 3d3d 052c 3ebd 5d80 8abd 3fb0 ee3d
00000230: 06be a3bd bf95 2abd 22f7 96bc c2bd 9d3b
00000240: 9183 97bd 0e15 efbc 830d 71bd a83c 64bb
00000250: 332b c5bd f6b5 ddbd 994b 123d b323 873d
00000260: f8d3 6b3d 2a55 a3bc 1ee0 243c bdb1 8a3d
00000270: e1b9 b43c f444 4b3d d061 75bd f2ce b4bc
00000280: 87d9 003c c60b a73d 7f8a 4d3d 415b ae3d
00000290: 4647 733d ec74 f93c 8c4f 153d aca1 653c
000002a0: d0b2 25ba 270f 893c 3a37 183d d61a d0bc
000002b0: b9ff 403c dac7 b43d dfee 9b3d 6034 dd3d
000002c0: f740 d13d 5c45 eebc c87e 88bc 5d7f 4f3c
000002d0: 7986 d63d bf21 b7bd a698 13bd f973 b8bc
000002e0: 8ebe 513b f1ce 4f3c e9a3 a4bc 6b85 b43c
000002f0: a991 6e3c 5ac7 44bd 4c6c a7bd 39e4 233c
00000300: 5dc6 d4bd 80f3 3bbc 616f 39bd e81a 80bd
00000310: bc8c 833d 4b54 1bbd 65f7 d6bc 1455 143d
00000320: 154e 8b3b c061 99bd a18a d3bb 6fed 48bd
00000330: fdd5 11bc a364 64bd 268e 4e3d c0f3 033b
00000340: 3b77 7fbd cf20 8f3d 563c 5d3d ad3a 8fbb
00000350: 0bc4 6ebc 21d2 853d d21d e2bb 2264 bcbc
00000360: 44f7 0d3d 6226 c4bc 8beb 75bd 2331 18bd
00000370: a32e 9ebc 5c31 e5bc 08ca 4dbb 91ef 353d
00000380: 1f5c 583c b2d5 293d b635 99ba 74cc ac3d
00000390: 2d4d 97bd d869 96bd a40f 183d a5bd 0dbc
000003a0: 1bfd dbbc ac66 b3bd f98d 10bd 63a5 873d
000003b0: 6ee2 cd3d b9be e73c e16c 833d 5004 b3bd
000003c0: bae9 b03d 6633 223c a5c7 d93d 54b5 803d
000003d0: 9eab adbc 3d21 bf3d 282c 9e3d 4353 53bd
000003e0: a695 1dbd 9f9e 5cbd b3d2 4c3c 38ae 8a3d
000003f0: 6423 6cbd 7314 0ebd 9349 783d 24dc 6abd

critic.2.bias f4 [128]
-0.00038571944 -0.121052966 0.076856904 -0.08973568 -0.013500844 0.022193458 0.072561465 -0.031853452
0.06459498 -0.024845289 0.08523855 0.042727392 0.00996315 -0.088354655 0.09941504 -0.0002662132
0.063447654 0.13280624 -0.02507713 0.07062413 0.096285895 0.07895717 0.0030735978 0.103350535
-0.022474995 -0.042061727 -0.058997784 -0.0086125005 0.009698364 0.0676336 -0.011502104 0.014813084
0.06246727 0.13604654 0.041166015 -0.06383912 0.14116226 0.021181567 -0.05959608 -0.09317515
0.022602739 0.036218397 -0.102776736 0.08039523 -0.10679053 0.08241884 -0.0020759727 0.08774947
-0.0023605837 -0.08239586 0.17208222 0.14352284 0.10329202 -0.03821908 -0.086462654 -0.033321712
0.044081453 -0.08643277 -0.116189025 -0.0013623791 -0.089353606 0.06006604 0.12808508 0.04375705
-0.05911792 -0.103259765 0.04952817 -0.04500113 -0.03677223 -0.18006481 -0.08151377 -0.041416373
-0.048631232 -0.029376207 -0.076003104 0.0066207694 0.14055112 -0.028841319 0.045200396 -0.18384808
0.09016139 -0.08971278 -0.113803715 0.1435374 -0.082955554 0.08445388 0.060491357 -0.05522592
-0.08336909 -0.034099743 -0.03419448 0.042994168 -0.078772254 -0.070174165 -0.051381327 -0.33306795
-0.0141103985 0.055748366 0.11816425 -0.11562577 0.025658874 0.080368176 -0.045584515 -0.083374575
0.07744497 0.026597045 0.025822321 0.030344322 -0.0077126785 -0.141822 0.104363546 -0.0065321075
-0.034260772 0.03144964 -0.07539998 -0.052791502 0.1000587 0.053069793 -0.10083292 0.11302022
0.054930214 0.040271252 -0.07231961 -0.013882109 0.07638276 0.048938792 0.0836275 0.05691537
00000000: 633a cab9 9eea f7bd 2767 9d3d 57c7 b7bd
00000010: a532 5dbc 0ecf b53c 1b9b 943d c478 02bd
00000020: 5f4a 843d 5988 cbbc 8d91 ae3d eb02 2f3d
00000030: 7b3c 233c 49f3 b4bd 1d9a cb3d 8892 8bb9
00000040: d8f0 813d 5cfe 073e 8e6e cdbc 62a3 903d
00000050: 8a31 c53d 4cb4 a13d 6a6e 493b 72a9 d33d
00000060: 7b1d b8bc eb48 2cbd a9a7 71bd 721b 0dbc
00000070: e3e5 1e3c 7c83 8a3d 5273 3cbc 94b2 723c
00000080: aedd 7f3d c94f 0b3e b29d 283d 16be 82bd
00000090: d78c 103e f784 ad3c 051b 74bd 9dd2 bebd
000000a0: 6129 b93c be59 143d 9c7c d2bd 41a6 a43d
000000b0: feb4 dabd 35cb a83d 0b0d 08bb feb5 b33d
000000c0: 06b4 1abb 29bf a8bd 5236 303e a7f7 123e
000000d0: c48a d33d 9c8b 1cbd 5513 b1bd 597c 08bd
000000e0: c18e 343d aa03 b1bd 83f4 edbd db91 b2ba
000000f0: 06ff b6bd cf07 763d bc28 033e 983a 333d
00000100: a225 72bd db79 d3bd 0dde 4a3d 1b53 38bd
00000110: 7a9e 16bd e962 38be b1f0 a6bd 37a4 29bd
00000120: 8b31 47bd 5fa6 f0bc 84a7 9bbd 0af3 d83b
00000130: a2ec 0f3e a144 ecbc 0d24 393d ac42 3cbe
00000140: 89a6 b83d 56bb b7bd ec11 e9bd 78fb 123e
00000150: 9ae4 a9bd 28f6 ac3d c9c5 773d 9334 62bd
00000160: 6abd aabd 2cac 0bbd 830f 0cbd a71a 303d
00000170: 5953 a1bd 79b7 8fbd 3a75 52bd e287 aabe
00000180: 4d2f 67bc 6658 643d 1900 f23d 34cd ecbd
00000190: 8f32 d23c 1298 a43d d4b6 3abd 4ac0 aabd
000001a0: 789b 9e3d 0ce2 d93c 5589 d33c a894 f83c
000001b0: a3ba fcbb c939 11be 8ebc d53d 4a0b d6bb
000001c0: 0655 0cbd 56d1 003d 4e6b 9abd e73b 58bd
000001d0: 93eb cc3d b65f 593d 7d81 cebd 2577 e73d
000001e0: 81fe 603d 78f3 243d 4e1c 94bd c971 63bc
000001f0: 916e 9c3d 0b74 483d e544 ab3d 1720 693d

critic.4.weight f4 [1, 128]
0.0019880014 -7.9476835e-05 0.0008808427 -0.0010125058 0.001335931 0.0007522144 0.0005718168 0.003683338
0.00028055694 0.00046626225 0.001961353 0.00046816445 0.00057100353 -0.0003661272 -0.000100748584 -0.00057544396
0.0005100243 0.00062463 -0.0007727679 0.00016744649 0.00099402 -0.0007088369 0.0018305051 0.0011919836
0.0015993074 0.00091980206 0.00023278303 0.00055299164 0.0014954634 -0.0011888073 -0.00090743625 -0.00036314162
-0.00046447237 0.0014527083 0.0016655414 -6.2655294e-05 0.0014136144 0.00088286446 0.000287677 -0.00042029202
-0.0011026153 -0.0010918318 0.0005295884 0.0006773082 -0.001163999 -0.0013527814 -0.0003579292 8.289257e-05
1.33367375e-05 0.00061627704 -0.0003235392 -0.0010356958 -0.0027267428 0.00023870348 0.003319938 -0.00096347963
0.0014489519 0.0009429566 -0.0006189969 0.001563323 0.0008713127 -0.0016819449 0.0015284998 -0.0066859326
-0.0013241058 -4.1369098e-05 -0.006830239 0.00014673156 0.00046220105 0.0001565547 -0.000971429 -0.0006229198
-8.815317e-05 0.0011820777 0.00018230843 0.0010059591 0.0020635363 -0.00023245349 0.00029243462 -0.0014160408
-0.009580551 -0.0014724422 0.0002682564 -0.000889287 0.0012440725 0.0005732972 0.0025949369 9.1946225e-05
-0.0024012607 0.0014043588 -0.006904318 0.0015413398 -0.00012914972 0.0004773376 0.0013468126 -0.08614658
7.266074e-05 -0.00026907565 0.0013324975 -0.00065366295 -0.00054667296 0.0011173858 0.00020714664 -0.0016184673
0.0004961022 -0.0016267746 -0.00039794133 -0.00092406815 -0.00034215083 0.002884339 0.00077938783 0.00034396464
0.00021287471 0.00018827707 -4.8990805e-05 -0.00015318277 0.0013356187 0.0013173133 -0.0019043825 0.002124129
0.0001138321 0.0013062808 0.00027889025 -0.00043648566 0.0014428293 -0.0005068596 0.0014529637 0.00074939843
00000000: 2149 023b cdac a6b8 5ae8 663a 0fb6 84ba
00000010: 681a af3a 4130 453a fae5 153a 2864 713b
00000020: b717 9339 a974 f439 0b8a 003b f873 f539
00000030: 66af 153a c3f4 bfb9 fc48 d3b8 64d9 16ba
00000040: 27b3 053a 36be 233a 9393 4aba 9394 2f39
00000050: c749 823a 3dd1 39ba 8fed ef3a 553c 9c3a
00000060: da9f d13a df1e 713a 3817 7439 a4f6 103a
00000070: 6d03 c43a c1d1 9bba 04e1 6dba 0b64 beb9
00000080: 6d84 f3b9 cd68 be3a 4c4e da3a ce65 83b8
00000090: 0749 b93a 0870 673a 5ad3 9639 a45a dcb9
000000a0: a185 90ba cc1b 8fba 13d4 0a3a 628d 313a
000000b0: 5391 98ba d04f b1ba 72a8 bbb9 9cd6 ad38
000000c0: dac0 5f37 a78d 213a b2a0 a9b9 2fc0 87ba
000000d0: 27b3 32bb 7a4c 7a39 5193 593b 0692 7cba
000000e0: c2ea bd3a bf30 773a 2e44 22ba 6ae8 cc3a
000000f0: ce68 643a b574 dcba f157 c83a ab15 dbbb
00000100: 9e8d adba bb83 2db8 33d0 dfbb f4db 1939
00000110: 9353 f239 d528 2439 7fa7 7eba 714b 23ba
00000120: dfde b8b8 f2ef 9a3a 0c2a 3f39 63da 833a
00000130: 653c 073b c2be 73b9 e951 9939 729a b9ba
00000140: bef7 1cbc f6fe c0ba c4a4 8c39 0a1f 69ba
00000150: 2510 a33a 5349 163a d10f 2a3b 41d3 c038
00000160: 785e 1dbb 7612 b83a 9e3d e2bb c806 ca3a
00000170: 5d6c 07b9 2b43 fa39 8887 b03a 9e6d b0bd
00000180: 7061 9838 b912 8db9 32a7 ae3a 945a 2bba
00000190: 9a4e 0fba 3f75 923a 8135 5939 c022 d4ba
000001a0: db0c 023a 7f39 d5ba c8a2 d0b9 2a3d 72ba
000001b0: b562 b3b9 2e07 3d3b d54f 4c3a 2756 b439
000001c0: 1f37 5f39 3e6c 4539 7a7b 4db8 b09f 20b9
000001d0: ed0f af3a b3a9 ac3a 799c f9ba f934 0b3b
000001e0: 25b9 ee38 8337 ab3a 0438 9239 1dd8 e4b9
000001f0: 511d bd3a c6de 04ba 5f71 be3a 4773 443a

exp_avg f4 [4]
-0.0002751052 6.952944e-05 -0.00089821 -0.0031393913
00000000: ff3b 90b9 55d0 9138 da75 6bba 3fbe 4dbb

exp_avg_sq f4 [4]
7.081334e-05 0.000211607 5.524338e-05 0.00025933728
00000000: 9f81 9438 d2e2 5d39 21b5 6738 a9f7 8739
