examples/drone/logs/fig-eight-5000-forgiving/model_1500.pt (torch, 474978 bytes, 36 tensors)

std f4 [4]
00000000: f13b ad3e 0450 053e 0cb2 643e 7fe0 3e3e
0.33834794 0.13018805 0.22333544 0.18640326

actor.0.weight f4 [128, 17]
00000000: c264 abbe c2d1 383f 56a0 a43d cbae abbe
00000010: c119 85be 1cf3 693f 0d2f a7be dc1a 03bf
00000020: 0a98 5abe cb52 b33f 8413 d9bf 0e8c 8c3f
00000030: 9c6a d73f 6ee8 d53c 1578 62bd ffd9 82bc
00000040: 60dd adbe a367 5e3d caff 70bd 4278 a63f
00000050: 5e87 84bd ebd7 f4bd 0f97 b7bd 54fd 91bc
00000060: 2cd7 90bd ebfc febc 513d e8bc e6d9 0eba
00000070: dedd 09bd 980d 57bd aee4 dabe 51fb b73e
00000080: 2731 3e39 d777 32bd 9d37 143d 73de c9bd
00000090: 92fa acbf 4798 2bbf 3515 b8be 75b1 05bf
000000a0: d1a0 17be 0301 00be a160 883c c41b 013d
000000b0: b9ea 243d 298f a8bd e8ca e93c 5e80 963e
000000c0: 103b d83d 8d46 b63e 5b91 503e 90fa 2d3e
000000d0: 81ce d4be 5712 87c0 02f4 123f e0af 80bf
000000e0: 07b8 9dbe 4a99 ebbe 7a71 cbbd 6884 f63c
000000f0: 0102 0ebe 612c 40be 059b ac3d 82bd e7bd
00000100: 1bef 68be f476 32be c6ea 08be 82bb 2cbe
00000110: 548a 383f 8ab9 2f3e b162 6340 3558 41be
00000120: 5abf ec3e bdbb c9bf 4a39 30bf cb5b a23e
00000130: e7f8 7f3d f6f7 473e b15a 93be eeac 773d
00000140: 257d 64be a8d4 97bd b730 163c 246f 083f
00000150: 52b7 a33e 10a0 8bbe 9a2d e2bd 3d74 30c0
00000160: 9f5c 863e 11e9 bdbf 7f28 c8be 6ca6 863f
00000170: 5ca3 933e 3b7d 503f 773c ac3f a7d0 19bf
00000180: 17a9 2a3f 3a9e 8c3f 3987 493e f4a5 de3e
00000190: dc3b 3d3e 1405 85bd 74cf 99be 626d 1ebf
000001a0: 3287 8240 5a31 bfbe 9070 6ebe f80f 4f3d
000001b0: b992 0cbf adcc 6d3d 1e76 9dbd f7ba 073c
000001c0: 5327 183c 6686 20be 8ba6 033e 1d78 653e
000001d0: 3b69 853e a741 123d 8385 2c3e ccc9 64c0
000001e0: 13db 0640 ab13 0ec0 0da9 613d 5456 583f
000001f0: 75c5 b9be ff2d 38be cd9c 703f 4aa2 bbbe
00000200: 1258 9c3e 58b4 7fbd b632 803e 97c7 5f3e
00000210: 577b 38bd 349c 16bd f72b ef3d 9678 0e3d
00000220: dc63 16bf 47d3 b2bf 6b6b 6fc0 0df5 253f
00000230: 9e1a 1340 f25f eb3f fc42 5f3f 7c75 ad3f
00000240: 76bc 93bf bc59 80be 3892 ca3d 337e 66be
00000250: 1636 a2bd 1d46 123e 7686 773e 008c 9e3c
00000260: ba50 f93e b21e acbe 6e4f 963f 3b55 ce3f
00000270: e044 763e 34ab a83f b54b 8b3f 5be6 28be
00000280: 706a 9f3d 075b 97be 8e00 2f3c ae42 ca3d
00000290: faf9 143e ce12 1d3e c9f0 24be 5294 923d
000002a0: 9645 a13e 1b56 25be 4af3 843e ecf2 063d
000002b0: 3b0f 2640 2cc4 8fbb cb53 c33f 60be 6dbf
000002c0: 9a04 bbbe a8f2 973e e9b1 313e 9d04 fa3d
000002d0: 7167 be3e 2649 e5be 0fb3 ce3e b06a f93d
000002e0: 323e e53b 119f 99bd 0f31 db3d df67 763e
000002f0: 1148 39be 1a57 8a3f 15e4 263d 3b84 80be
00000300: 82f0 d2be 5145 50be 5a0d 09bd d267 25ba
00000310: f82e a0bd b634 013d d066 813d 9595 a3bd
00000320: a48d 063e 6a83 293e 7427 b4be 1626 a2be
00000330: 1925 50be fc68 a33f 5b07 3cc0 b99d 293e
00000340: 22c0 1440 e435 a6bf 4624 0c3e ef39 8c3e
00000350: 7b71 20bd eb99 b0bb d533 97bd 5cb0 06bf
00000360: c037 6bbe d40e 0cbe 23b3 e7bd 6dbe 8bbc
00000370: fd1c a3bd 7784 653e 0c1a 363f 8656 c7bf
00000380: f03c 1bbd 5755 e53f 11ec adbe 4cfe 103f
00000390: 9baa a3be 2cdb 833d 9272 683e f8fd 193f
000003a0: a6ed 0fbf 6bf9 91bf 5857 3ebe a062 3dbe
000003b0: d162 37be 38f3 bebe 9100 883f 2ca2 2bbe
000003c0: 6caa 2640 df07 54be 4814 66bf 12c6 e9bf
000003d0: 8ddb 0c3f c6fb 8fbe 6e89 c83d fc16 8e3c
000003e0: c625 b63d 5aaf bc3d 5325 88be 3cb2 883c
000003f0: 549e 63bd 0954 d5bd dcc9 173e 3ffe a43d
-0.3347531 0.72195065 0.08038394 -0.33531794 -0.2599621 0.9138658 -0.32653084 -0.5121286
-0.21347061 1.4009641 -1.6959081 1.0980241 1.682941 0.026111808 -0.0552903 -0.01597309
-0.33957958 0.054298054 -0.05883769 1.300545 -0.06471132 -0.119552456 -0.08964359 -0.017820992
-0.07072291 -0.03112646 -0.02834955 -0.00054493395 -0.033658855 -0.0525032 -0.42752594 0.35933927
0.00018138123 -0.04357132 0.03618585 -0.09856882 -1.3513968 -0.6702923 -0.3595368 -0.522239
-0.1480744 -0.12500386 0.016647639 0.03152062 0.04026291 -0.08230431 0.028539136 0.2939481
0.1055814 0.356007 0.20367949 0.16990113 -0.415638 -4.2209888 0.57403576 -1.0053673
-0.30804464 -0.46015388 -0.09933753 0.030092433 -0.13867952 -0.18766929 0.08428005 -0.113154426
-0.22747461 -0.1742819 -0.13370809 -0.16868404 0.7208607 0.17160621 3.5528986 -0.18881305
0.4623974 -1.5760418 -0.68837416 0.31710657 0.06249323 0.19528183 -0.2878013 0.060467653
-0.22313364 -0.07413608 0.009166888 0.5329459 0.319758 -0.27270555 -0.11043854 -2.7570946
0.2624254 -1.4836751 -0.39093396 1.0519538 0.2883557 0.81441087 1.3455952 -0.60084003
0.6666426 1.0985787 0.1968049 0.43485987 0.18479866 -0.06495109 -0.30041087 -0.61885655
4.0790033 -0.3734234 -0.23285127 0.05055234 -0.5491138 0.058056522 -0.07688545 0.008284322
0.009286719 -0.15676269 0.128565 0.22409101 0.26056847 0.035707142 0.16847806 -3.5748167
2.1071212 -2.2199504 0.05509286 0.84506726 -0.3628346 -0.17986296 0.9398926 -0.36647254
0.30535942 -0.06242785 0.2503869 0.21853481 -0.0450395 -0.03677006 0.116783075 0.03478297
-0.58746123 -1.3970727 -3.7409313 0.6482704 2.2984996 1.8388655 0.87211585 1.3551478
-1.1541889 -0.25068462 0.0989117 -0.22509079 -0.07920472 0.14284559 0.24172387 0.019353867
0.48694402 -0.3361717 1.174299 1.611976 0.24049711 1.3177247 1.0882479 -0.16494124
0.07783973 -0.29561636 0.010681285 0.098759994 0.14548483 0.15339205 -0.16107477 0.07157196
0.31498402 -0.16146128 0.25966865 0.032946512 2.5946796 -0.004387399 1.5259947 -0.92868614
-0.36526948 0.2967732 0.17353024 0.12207911 0.37188295 -0.4478237 0.40370986 0.12178552
0.0069959396 -0.07501043 0.107027166 0.24063061 -0.18093897 1.0807831 0.04074486 -0.25100884
-0.41199118 -0.20338942 -0.03346 -0.0006309721 -0.078214586 0.03154441 0.06318438 -0.07987515
0.13139969 0.16554037 -0.3518635 -0.31669682 -0.20326652 1.2766414 -2.937949 0.16564073
2.3242269 -1.2985196 0.13685712 0.2738795 -0.039170723 -0.005389442 -0.07382933 -0.52612853
-0.22970486 -0.13677531 -0.113134645 -0.017058576 -0.079645135 0.22413813 0.71133494 -1.557328
-0.03789991 1.7916669 -0.33969167 0.56638026 -0.319661 0.06438288 0.22699955 0.6015315
-0.56222 -1.1404241 -0.18588006 -0.18494654 -0.17908789 -0.37294936 1.0625173 -0.16761082
2.6041517 -0.20706128 -0.89874697 -1.8263571 0.5502251 -0.28121775 0.09791838 0.017344944
0.088939235 0.09213133 -0.26590976 0.016686551 -0.055570915 -0.10416419 0.14823097 0.08056306

actor.0.bias f4 [128]
00000000: 6f33 7ebe 3cdf 323e c40b acbe 18af 90bd
00000010: 557d 59bd 8652 263e 7209 a73c 2ff1 05bd
00000020: 9dd3 d83e 8ba2 bcbb f3ee 953d 4f42 9b3e
00000030: cc60 66bc 1961 fd3d 7c77 80bb 69a9 adbe
00000040: 8be1 4b3e 3f86 fcbc 22d5 a93e 943d 2c3e
00000050: b154 ca3d f267 b83e ddf5 0cbe a6ba 97be
00000060: 9eb3 b2be 0664 0fbe 2fdb ba3e c3ba 333e
00000070: 3eb7 65be f1c2 ecbe 0419 f0bd 2b55 3b3d
00000080: 397a ca3e abc4 073e 0e46 b23d 0673 4a3c
00000090: 3bbd 57be 8bd4 1abd 7735 3ebe bac2 f83d
000000a0: 7a36 8f3c 4e62 e73e 3f77 553e 22c1 1d3e
000000b0: a7df 15be e8de 0c3d b744 1d3e 1eb9 c3be
000000c0: 538e bfbe 31ab bcbd 0731 963e 5202 f7bc
000000d0: 7534 523e 3dc1 a03d e02a 59bb c1ae ac3e
000000e0: 5ac7 153e bf33 d1bc 3cea 373e b172 33be
000000f0: 270f 76be edd4 003e d638 1fbe f8ca f8be
00000100: 2a6a 703d 2e8f 693d 22c6 53bd a8c1 2e3d
00000110: 7c41 813e c0a5 c4be cafa 983e a88f a5be
00000120: 7d46 60be 554c aabd 068e 15bd 1083 4a3e
00000130: ea08 d1be 7bc6 fc3e c24d debe 3cc8 f0bd
00000140: 55a7 b03c 98c3 b63d 42f6 953d ef1b b5be
00000150: f28d 133c 29e1 4e3e eeac 70bd f158 4b3e
00000160: 6071 0bbe bb82 1e3e d03c 9e3d 165a c7bd
00000170: 3edf 77be e2e7 d63d 9868 e73e 5dc7 373e
00000180: 5269 84be 9618 05be 0370 1fbe 0c29 553e
00000190: 1ea0 a53d d33d 613c ee53 a73d 47ea b5bb
000001a0: 1d7e 9e3e 63bd 91be aaec f13b 4101 2cbe
000001b0: 4e48 8dbc ad4f e73c c0f3 3c3d 5171 273e
000001c0: 54f6 e3be 1883 283c f100 28be 51b6 b73e
000001d0: ebd9 a03e 7d47 7bbe 034d 0abe cb24 27be
000001e0: 3a15 553e e11f 75be dff9 20be 3e98 70bd
000001f0: ba89 9cb9 2993 33be f96d d2bd 3e1e 62bd
-0.24824308 0.1746797 -0.33602726 -0.070646465 -0.05309804 0.16242418 0.020390246 -0.032700714
0.42348948 -0.0057566813 0.073209666 0.30324027 -0.014061164 0.123720355 -0.0039204936 -0.33918312
0.19910257 -0.030825732 0.3317042 0.16820365 0.09879435 0.36016804 -0.13765664 -0.2963459
-0.34902662 -0.14003 0.3649535 0.17551713 -0.22433183 -0.46242478 -0.11723521 0.04573552
0.39546373 0.13258617 0.08704768 0.012356525 -0.2106828 -0.037800353 -0.18575083 0.12146516
0.017482031 0.45192188 0.2084627 0.15405706 -0.14636098 0.034392267 0.15358244 -0.3822717
-0.37413272 -0.0921234 0.2933428 -0.030152474 0.20527823 0.07849357 -0.0033137128 0.33727077
0.14626828 -0.02553737 0.17960447 -0.1752422 -0.24029218 0.12581225 -0.15549025 -0.48592353
0.058694996 0.057021312 -0.051702626 0.042665154 0.25245273 -0.38407707 0.29878837 -0.32336164
-0.21901889 -0.083153404 -0.036512397 0.19776559 -0.40827113 0.4937018 -0.434187 -0.11756942
0.021564165 0.08924025 0.073223606 -0.35372874 0.00900601 0.2020308 -0.05875867 0.19858147
-0.13617468 0.15479557 0.07726443 -0.097339794 -0.24206254 0.10493447 0.45196986 0.17947145
-0.25861603 -0.1299766 -0.15570073 0.2081644 0.080871806 0.01374765 0.08170305 -0.0055516097
0.30955592 -0.28464803 0.007382949 -0.16797353 -0.017246392 0.028236235 0.046130896 0.1635182
-0.4452387 0.010285161 -0.16406609 0.35881284 0.31416258 -0.2453899 -0.1350594 -0.16322629
0.20808879 -0.23937942 -0.15720318 -0.05873894 -0.00029857253 -0.17536606 -0.10274882 -0.055204622

actor.2.weight f4 [128, 128]
00000000: 727d a53d 4d95 40bd 5c20 533b 2e1c c1bd
00000010: 0430 9ebb d89e 92bd f904 623d c8c5 d23c
00000020: cd38 84bb a205 39bd 80f7 64bd 791e b5bd
00000030: 05b6 01bb 6463 eabd aae3 3ebd 2c29 bfbd
00000040: 3f6f 01bd 064b 65bd b503 ea3d 23b5 c4bd
00000050: c75b b83c 7d54 eaba 68d1 63bd 0e13 03bc
00000060: e003 12bd e488 8bbd cc70 bdbd dd81 b13a
00000070: b284 e53c 4caa 2bbc 85f3 033e cc81 9bbd
00000080: 2756 48ba 029b b2bd 2fad 06bd 802c 523d
00000090: 926a 343d aa59 e83c 5afe 3a3d 8d82 26bd
000000a0: b7cd 0ebd b3cc b1bd 076e 01be 108b 8d3d
000000b0: c146 92bd 7cac 4d3c 09d2 2fbd 012a 13be
000000c0: 6c84 bd3d dfd6 753d eff9 cebb 2f07 e6bc
000000d0: cb79 dbbd e7f1 023a ca1b a3bd 61c6 923d
000000e0: c82e b33b 1ea1 61be eb54 543d 0aac a23d
000000f0: f5f8 2c3d ce14 2d3d 39e6 b23d f956 c7bc
00000100: 8bb7 123d d7de 4cbd 5b13 1f3d 4032 28bd
00000110: cc63 ccbc 1313 7a3d 8d6d d6bc 6abb e3bc
00000120: 6a4d ab3d b896 c1bc bd3d 7c3d 9d4f afbc
00000130: 25cf 39bc 471a 473b bf64 25ba 019d 2e3d
00000140: 553a b4bd c2a1 ec3c 5d13 303d 8115 b93c
00000150: 3e69 25bd 80a0 d0bc 8a10 b1bd 64bf 383d
00000160: 9df3 c33d 35b9 0cbd 4006 11bd 230f febc
00000170: 767e c73c 18b1 85bd 9f37 0fbd f85e fabc
00000180: e7ff f7bc 224c 20bc 4541 e4bd f995 733c
00000190: d103 ebbd 37cd d4bd bb0e 40bd c8de 5c3d
000001a0: 0df2 c3bd f707 3fbd c190 2abd 3dbe 013d
000001b0: eb74 adbc fa48 243d 38fc 46bd f1c6 6a3d
000001c0: c673 1b3e 0a35 c83d 9d53 66bc bc04 653c
000001d0: 4110 b5bc a7c7 143d b612 a8bd 3b66 be3c
000001e0: 6103 0c3d 1dde 71bd 2249 9dbd aa63 1b3b
000001f0: 765d 183e fb29 babd 6713 0cba 9150 ccbd
00000200: 533a 553d f627 f93c b2dd 16bd 4d97 4a3b
00000210: 0073 97bc 855d 01bd dd1b 9dbd 4d72 f83d
00000220: 9637 973d 482a f3bc ab80 b7bd 1919 0e3d
00000230: d3d4 4b3d 9079 ffbd f990 413e b574 973b
00000240: 4489 3fbd 9a8e f3ba c46d a2bc 748e 963d
00000250: 06bd d43c 89cb d0bc d554 dd3d 406a 94bc
00000260: f5ba 153d a1cd cabc 949a 443b a67f bcbc
00000270: 243d a23c cae4 17bd 62f2 2fbe 2b54 6ebd
00000280: 9408 9a3d a9f3 fd3d 5956 31bd b95b 223d
00000290: 03e9 3dbd 15bb 30bd 684c 1c3c bf13 0b3e
000002a0: b74b aabd f0de b43d fbb2 353d 1b62 893d
000002b0: c68d efbd 8f86 823d e0ff ad3c 399d 5c3d
000002c0: 155d 3c3e 644c bdbd 0ab9 60bd fe4e e73d
000002d0: 1a37 30be 0af4 6d3c 4066 87bd aa0d 133e
000002e0: d5d6 efbd 924d 413c a7de 26be 7e94 87bd
000002f0: 2e44 e7bc 5f2f 0dbd 828d 5abd e57f 8b3c
00000300: a36a 1f3d c509 0dbe 0dfe b53c bc4d 703d
00000310: c073 88bc ea1a 963d 1bea 4f3d c35b 98bc
00000320: c70b 103d 285b a73d 6a1e 08bc ab32 9c3d
00000330: 9334 02bc 30d9 253d b161 25be 89f5 8b3c
00000340: 7540 953d c56c b83c 1b50 053c f41f ab3b
00000350: 40ab 003d 3834 273d f8f9 46be 8ff7 dc3c
00000360: 876c 25be 7963 9bbd fe16 953c e0ef 053e
00000370: ed46 533d 3c50 023d 3f7e f3bd a848 913d
00000380: 4450 1c3e 3fdc 8cba 14be 4ebc e03a a43d
00000390: c59e d33d 31e1 d5bb 49fb 78bd 6522 90be
000003a0: a84c 0c3d 864d 963d fef3 e63c 115f 7d3d
000003b0: 851b 26be fea2 ddbd dc4e 9dbd 03ae bb3d
000003c0: 871a 993d 32a7 c2bd 9951 ab3d 9f0f 453d
000003d0: 244b 16bd f61f 0fbd 5db5 0bbe 3cf0 f93c
000003e0: 1057 103e 7979 0cbc 3530 883c 3635 10bc
000003f0: 3655 fd3d 361c 083d e866 31bd a4eb 973b
0.080805674 -0.047017384 0.0032215333 -0.09429203 -0.0048275013 -0.07159203 0.055180524 0.025729075
-0.0040350915 -0.045171387 -0.055900097 -0.08843703 -0.001979233 -0.114447385 -0.046603836 -0.09334025
-0.031600233 -0.05597975 0.11426488 -0.096048616 0.0225047 -0.0017877963 -0.055619627 -0.008000148
-0.035648227 -0.06813219 -0.0925003 0.0013542731 0.028017376 -0.010477614 0.12885864 -0.07593116
-0.0007642232 -0.08720972 -0.032880004 0.05131197 0.044046946 0.028363068 0.045652725 -0.040651847
-0.034864154 -0.086816214 -0.12639628 0.0691129 -0.071424015 0.0125533305 -0.042924915 -0.14371492
0.09253773 0.06001937 -0.0063164155 -0.028079597 -0.107165895 0.00049951527 -0.07964285 0.07166744
0.0054682232 -0.22034118 0.051838797 0.0794297 0.04222961 0.04225617 0.08735318 -0.024333464
0.03581957 -0.050017204 0.03883682 -0.041063547 -0.02494993 0.061053347 -0.026175285 -0.027799327
0.08364375 -0.023631439 0.061582316 -0.021400267 -0.011340891 0.0030380653 -0.0006309263 0.0426302
-0.088001885 0.028885726 0.042987216 0.022593262 -0.04038357 -0.025467157 -0.08645733 0.0451044
0.0956795 -0.034356315 -0.03540635 -0.031013077 0.024352293 -0.065279186 -0.034965154 -0.030562863
-0.030273391 -0.0097837765 -0.11145262 0.014867299 -0.11475337 -0.10390704 -0.046889048 0.0539234
-0.09567652 -0.046638455 -0.041641954 0.031675566 -0.021173915 0.04010866 -0.04858038 0.05731863
0.15180883 0.097757414 -0.014058021 0.01397818 -0.022102477 0.036323216 -0.08206694 0.023242107
0.03418291 -0.059049714 -0.076799646 0.0023710527 0.14879403 -0.090900384 -0.00053434673 -0.09976304
0.052057575 0.030414563 -0.03683252 0.0030912936 -0.018487453 -0.031583328 -0.0767133 0.12131176
0.07383649 -0.029683247 -0.08960088 0.034691904 0.049763512 -0.12474358 0.18902959 0.004622067
-0.046761766 -0.0018581927 -0.019827731 0.073513895 0.02596904 -0.025487678 0.10807196 -0.01811707
0.03655525 -0.024756255 0.0029999362 -0.023010086 0.019804545 -0.037083425 -0.17182305 -0.058185738
0.075211674 0.1239999 -0.04329524 0.039638255 -0.046364795 -0.043147165 0.009539701 0.13581751
-0.08315223 0.088315845 0.044360142 0.06708165 -0.11696963 0.06373321 0.021240175 0.053860877
0.18394883 -0.09243086 -0.054863967 0.112943634 -0.1720852 0.0145235155 -0.066112995 0.14360681
-0.11710898 0.011798279 -0.16295873 -0.066201195 -0.028230753 -0.034469005 -0.05335761 0.017028758
0.038920056 -0.13773258 0.022215867 0.058667883 -0.016656756 0.07329352 0.05076037 -0.018598443
0.03516748 0.081716835 -0.0083080325 0.07626852 -0.007947105 0.04049033 -0.16150548 0.017084854
0.07287685 0.022512803 0.008136774 0.005222315 0.031413317 0.040821284 -0.19431293 0.026973514
-0.16154681 -0.07587332 0.01819944 0.13079786 0.051581312 0.0318148 -0.11889314 0.07093936
0.15264994 -0.0010746791 -0.01261856 0.08019042 0.10333017 -0.006527089 -0.06078652 -0.2815124
0.034252793 0.07339005 0.028192516 0.06185824 -0.16221435 -0.10822104 -0.07681057 0.091640495
0.07475763 -0.09504546 0.08365173 0.0481106 -0.036692753 -0.03494259 -0.13643403 0.03051006
0.14095712 -0.008573883 0.01662455 -0.008801749 0.12369768 0.03323003 -0.04331103 0.004636245

actor.2.bias f4 [128]
00000000: 60b1 863d 0136 e93d e220 913d b5a9 193d
00000010: b18b d63d 906c 51bc 763f 233e 55ec e0bc
00000020: fc9b 8abd 1ea1 2b3d 2d53 d3bd 76f9 963b
00000030: ac55 ef3a c8af 9f3c c650 4abe 6704 e13d
00000040: 1adb 553e cb59 afbd 2dd8 813d c251 433d
00000050: 4b6a 1ebe 613b c0be 6c96 133d 55e3 5ebd
00000060: e332 b1bc b52c 89bd 552e fa3d 439c 5b3d
00000070: 05f5 88bd 002e 23bd 4c2a c4bd 4bf7 443f
00000080: 60cb ad3c 1888 e13d a0f0 73bd 2f59 1b3d
00000090: d26a e63d c013 82bd 430d 62be 6d6c dabc
000000a0: 4a36 14be 2b9e 85be 62c0 263d 0fce e43e
000000b0: 522b 283e 51d4 a2bb a9e0 63bd 4fa4 683d
000000c0: ce89 203d 63e0 b0bd 8bd6 3d3f d586 55be
000000d0: 29cf 1a3b d854 21bc 0b5b a63b 5238 08bd
000000e0: 579d fc3c caf3 80bd da5c 0d3c 8662 913d
000000f0: 7c0d a3be 6ec3 053d c8af 31be 6960 733d
00000100: 8bda 41be d107 de3d 72b4 d0bc 0f15 ad3d
00000110: 43ac b63c cb7c cc3c f3e7 603d f686 03be
00000120: 75be acbd e7ef d23d 4fd2 9ebd 8a77 f6bd
00000130: 4ec0 48be fc08 2e3f d63b a33e b512 e03e
00000140: 0f9f 753c 6054 603d de00 b73d 59ab 2c3c
00000150: 3e96 c0bc 7398 f6be e3bf 3bbd c888 23bd
00000160: 06e5 553e 6aef 90be 9683 fdbd 9541 2abe
00000170: 923f ce3e f35c a1bd 4c28 65bc 8a99 a7bd
00000180: cac1 79be 544f e83d 0fdf b3bd 3470 933d
00000190: 8233 d23d b764 de3e ae51 0f3f 1343 85bb
000001a0: 627a 9fbd c6f7 0dbd fcc7 423e 4a1d 913e
000001b0: 5b93 153d d309 b1be 8cf1 5cbb 7f89 783c
000001c0: bb8f d43e 4d17 ffbe ae33 afbd 7853 16bf
000001d0: 74cb 76bd e7a5 c9bc 1f2f b9be fe3d 15bc
000001e0: dd6f 90bd 0414 99bd 5aa1 1cbe 66c3 293d
000001f0: 199a 0a3f dea1 17be 13fc 083d 78d3 ebb9
0.065768 0.113872536 0.0708635 0.03751536 0.10475863 -0.012782231 0.15942177 -0.027456442
-0.06768033 0.0419017 -0.10318599 0.004607375 0.0018259785 0.019492999 -0.19757375 0.10987168
0.20884362 -0.085620485 0.063400604 0.047685392 -0.15470235 -0.37545303 0.036032125 -0.05441602
-0.02163071 -0.0669798 0.122158684 0.05361582 -0.06687359 -0.03983879 -0.0957838 0.7693984
0.02121514 0.11012286 -0.05955565 0.03792685 0.11250843 -0.06351423 -0.22075371 -0.02666303
-0.14473835 -0.26097235 0.040710814 0.4468846 0.16422775 -0.0049691577 -0.055634174 0.056797322
0.03919392 -0.08636548 0.7415549 -0.20852216 0.0023622012 -0.0098468885 0.005076771 -0.033256836
0.030836744 -0.06296499 0.008628095 0.0709887 -0.31846225 0.03265708 -0.17352211 0.059418116
-0.18931024 0.108413346 -0.025476668 0.08451282 0.022298938 0.02496185 0.054908704 -0.12844452
-0.08434764 0.10299664 -0.07754957 -0.12034519 -0.19604608 0.6798246 0.3188159 0.43764272
0.014991536 0.054767966 0.08935712 0.010538899 -0.023509141 -0.48163185 -0.045837294 -0.039925367
0.20888147 -0.28307658 -0.12378614 -0.1662658 0.40282875 -0.07879057 -0.013986658 -0.08183582
-0.24390331 0.11343256 -0.087827794 0.071991354 0.102637306 0.43436214 0.5598401 -0.0040668338
-0.077870145 -0.034660123 0.190216 0.28342658 0.036517482 -0.34577808 -0.003371331 0.0151695
0.41515908 -0.49822465 -0.08554779 -0.58721113 -0.06025262 -0.024615241 -0.36168763 -0.009109018
-0.07052586 -0.07474521 -0.15295926 0.041446112 0.54141384 -0.14807841 0.03344352 -0.0004498025

actor.4.weight f4 [4, 128]
00000000: 6f4b a7ba 5cc1 f73a 599b 463b 549f 6fb8
00000010: 0807 7bbb f7cb b6ba 585b 4b3c 7277 dcba
00000020: 6cea aa38 3568 e93b 059e 0fbe b6bd 00bd
00000030: 4d65 a13b e46d 353b d2a4 be3c 5f5a e43a
00000040: 6230 23be 3fe3 abba 0e91 8c3b 0810 183c
00000050: d3ce 063b 834f c23d 7f0c 00ba d4ed 89bb
00000060: c9f0 d4bb 00fe 72bb f7b3 d5ba c7a2 1b3b
00000070: f0eb 3c3b ba3b b73d 0c57 72ba c181 2e3e
00000080: 9ff8 993c f699 9739 4be6 fbba 812a bdbb
00000090: acd0 f5b7 5ed5 23bc 9115 a63d be92 c1bd
000000a0: 3a6e d03d fd21 99be ed61 0339 62ef b0bd
000000b0: 8a28 763d 2304 a238 618f 4bbb 8097 793b
000000c0: 5f76 483b 358b c8bb 6a5c cb3e 88de 023e
000000d0: b11b 943a 5329 3abb 6bb7 9b3a 6f4c 883a
000000e0: 4be7 353c bff4 323e 3663 293e ad35 6a3b
000000f0: 17c2 0bbd 570c 113c 79f3 9ebc 55ef 713a
00000100: fea0 0e3d d0c2 a8bc 8546 fe3a e4de 483b
00000110: d72d 9039 b012 b2bb 17b2 333b 753b 4a3b
00000120: f0e4 493b 94f8 cd3d fac0 01be 354f 443b
00000130: 25da 7c3d c07c 003f 8a78 713d dd03 bfbc
00000140: 82e8 afbd 14b6 17b9 0946 c3bb ac88 513c
00000150: bd5d a6bd 8d04 88bd 73ec 5fba 4998 043d
00000160: 89f9 2d3e 2d14 50bd 1947 c338 f557 cb3c
00000170: 47c2 1b3e d852 a93a d85f afba 01ef 3039
00000180: 6353 85bd e4dd 9e3b 5b5a 85bd c238 09bb
00000190: 3141 253b 47e9 37be ade0 05be 166b 5cba
000001a0: 50b7 aaba 879f e9b9 3531 9d3d bece 2e3d
000001b0: 82a5 b13a d465 e63c ddac 053b 30a5 03bb
000001c0: a20d 3a3d 0f1c debc 6300 0b3a a553 c2bd
000001d0: 331a 10bb 63fd 2a3b 003b 16be d7cd c33a
000001e0: 3626 b33a 0a3c 28bb 62cc f8bc 5411 0f3d
000001f0: d185 bf3d 0934 fe3b 96bf b0bb 1da7 8ebb
00000200: e93f d0ba 9966 c039 98c5 24bb c6ea 2e3b
00000210: 9d35 a53a cfe7 feb9 b9e7 903d 7283 9cb8
00000220: a3d9 7e3a 72e5 c93a 12c5 eebc 4d6a 3c3d
00000230: dbad dc39 0a64 9fb9 3534 9d3b c630 f839
00000240: 8d5f 153c 58f7 00bb 9621 273a 3dba c139
00000250: 5c7d 1c39 f25c 8dbd 8461 81ba 2a60 6cba
00000260: c4cf f9ba 6f8f 5b39 be55 143a 6ffc 46ba
00000270: 5ac8 adba 2a03 d83d 5136 80ba ff88 f63e
00000280: 90d3 03bb d29c 6f39 83d7 203a 9953 f5ba
00000290: 54b2 093b 2697 a7bc 522c 21bc 262f c5bc
000002a0: c0be c73d f122 58bc 9ae8 02ba ec8c c6bd
000002b0: 7bbb 653c f5b5 85ba 2bba f1ba 967e 74ba
000002c0: de50 32ba 526e edb9 3b23 f93d 1850 43bc
000002d0: bb98 dd3a e746 023a 45b3 41bb a49a 1dbb
000002e0: b44c fe3a 4359 babd 6cf6 f7bd e128 75ba
000002f0: 7ef2 1fbc 363c 0b3b 3785 05bd 18b5 3d3b
00000300: b2e8 5dbd eb8b a93d c047 2dba 00db 6838
00000310: 3673 00bb a18e 85ba 2dea f237 ac04 dfb9
00000320: 95a4 c2ba a0b6 8dbd 4c39 b9bd 6f35 553a
00000330: 6b2c 99bd 4191 d33d ce3c 3c3d 3d3b 9e3d
00000340: d862 39bd dd75 bdb9 b406 413b f345 cd3c
00000350: 1bab c53d eabd d33c 3e8d 0a39 f829 1fbc
00000360: f2bb b33c 7117 193e 12df 36b9 abd1 a8bc
00000370: e27b d7bd 2f89 423b 1d91 30ba 40a3 1cba
00000380: 0289 613c 641f e5ba 36b2 d8bd 0be3 303a
00000390: a19b 113b 2337 963d 47cc 6ebd 05c2 6b3a
000003a0: 0749 e8ba 76e2 4a39 8e1e 74bc 482e a83c
000003b0: b8ce aa3a e153 03be 7f9b cc39 0253 39ba
000003c0: 67fd bb3d 25df ca3d d0c6 f5ba 66ae 80bc
000003d0: 0407 913d c386 6939 1e8e 683b 7670 83b9
000003e0: cff2 663a e906 27ba 6335 62bd 682d bdbb
000003f0: 7ba7 84b9 1b66 3cbd c848 f2ba 5567 5dba
-0.001276357 0.001890223 0.0030304997 -5.7130426e-05 -0.0038303751 -0.0013946284 0.012411915 -0.0016820265
8.149896e-05 0.007123018 -0.14025123 -0.031430922 0.004925406 0.0027683908 0.023271952 0.0017421952
-0.15936425 -0.0013113989 0.004289753 0.009281166 0.0020570054 0.09487822 -0.00048846746 -0.0042092595
-0.0064984304 -0.0037077665 -0.0016304244 0.0023748146 0.0028827153 0.08946939 -0.00092445384 0.17041685
0.01879531 0.00028915674 -0.0019218413 -0.005772889 -2.9303446e-05 -0.009999601 0.08109582 -0.09451817
0.10177274 -0.29908744 0.00012529614 -0.08639409 0.060097255 7.7255325e-05 -0.0031060802 0.0038084686
0.0030588133 -0.0061201104 0.39718944 0.12780201 0.0011299757 -0.0028405979 0.0011880224 0.0010398756
0.011102508 0.17476176 0.16541752 0.003573756 -0.034120645 0.00885304 -0.019403206 0.00092290837
0.034821503 -0.020600706 0.0019399679 0.0030650431 0.00027499974 -0.0054343566 0.0027419382 0.0030858193
0.0030806623 0.10057178 -0.12671271 0.0029954438 0.061731476 0.50190353 0.058952846 -0.023317272
-0.08589269 -0.00014468312 -0.0059592766 0.012788933 -0.08123348 -0.06641493 -0.00085420086 0.032371793
0.16989721 -0.05080049 9.3115676e-05 0.024822215 0.1521083 0.0012918366 -0.0013380004 0.00016873704
-0.065100454 0.004848229 -0.065113746 -0.0020938371 0.002521586 -0.17960082 -0.13073988 -0.0008408291
-0.0013024602 -0.0004456008 0.07675401 0.042677633 0.0013553353 0.028124727 0.0020397224 -0.0020087473
0.045423158 -0.027112989 0.0005302487 -0.0948861 -0.0021988272 0.0026090972 -0.14670944 0.0014938664
0.0013668004 -0.0025670552 -0.030370895 0.034928635 0.09351695 0.007757668 -0.0053939326 -0.0043534175
-0.0015888187 0.00036697535 -0.002514219 0.002669023 0.0012604479 -0.00048619366 0.070754476 -7.463143e-05
0.00097217615 0.0015403463 -0.029146705 0.045999814 0.00042091202 -0.00030401378 0.0047974833 0.00047338585
0.009117019 -0.0019678678 0.0006375549 0.00036950587 0.0001492402 -0.069024935 -0.0009870981 -0.0009017015
-0.0019059111 0.000209389 0.00056585285 -0.0007590716 -0.0013258562 0.105474785 -0.0009781813 0.48151395
-0.0020115115 0.00022851236 0.00061356294 -0.0018716931 0.0021010833 -0.020457815 -0.009837227 -0.024070334
0.097531796 -0.013191924 -0.0004993767 -0.096948475 0.01402175 -0.0010201322 -0.0018442323 -0.0009326724
-0.0006802211 -0.00045286358 0.12164923 -0.011920951 0.0016906479 0.0004969672 -0.0029556316 -0.0024048472
0.0019401521 -0.090990566 -0.12107548 -0.00093521 -0.0097624045 0.0021245605 -0.032597747 0.0028947052
-0.054176994 0.0827864 -0.0006610118 5.551707e-05 -0.001959992 -0.0010189601 2.8957695e-05 -0.00042537355
-0.0014850075 -0.069195986 -0.09044132 0.00081332674 -0.07479175 0.10330439 0.045956425 0.077261426
-0.04526028 -0.00036136704 0.0029453458 0.025057768 0.096517764 0.025847394 0.00013213322 -0.009714596
0.021940205 0.14950348 -0.00017439973 -0.02060779 -0.10521676 0.0029683819 -0.0006735491 -0.0005975254
0.013765575 -0.0017480669 -0.10580866 0.0006747699 0.0022218006 0.07334735 -0.058300283 0.000899345
-0.0017721959 0.00019348584 -0.014899863 0.020529881 0.0013031578 -0.12824966 0.00039025766 -0.0007069559
0.09179192 0.09905843 -0.0018751267 -0.01570816 0.07081416 0.00022270814 0.00354851 -0.00025070057
0.0008809985 -0.0006371574 -0.055226695 -0.005773235 -0.00025301785 -0.045995813 -0.0018484825 -0.00084458786

actor.4.bias f4 [4]
00000000: d684 933e 70b9 083f 663f f83e 7e40 223f
0.28812283 0.53407955 0.4848587 0.6337966

critic.0.weight f4 [128, 17]
00000000: 37a7 c7bf eb33 ad3e 37da b93e 3706 16bf
00000010: b003 84bf d0ce b1be 3c8c c7bf e982 a0be
00000020: 35ec d9bf 3ae3 bfbe ac82 ab3f f085 9740
00000030: 814f d33f f63c ccbe 2a96 b7bd e8aa 88be
00000040: 5487 1dbd 77ba 0dbf 2d07 e73f d10e f63f
00000050: 771f d1be a9b5 1e3f 6282 0dbe 2bce 2a40
00000060: 304e a23f 26c5 b53f 19ab ad3d 4989 09c0
00000070: 2f7b 75bf d4f9 ec3e 6252 5b3e 6d0d c53e
00000080: 907f 4fbe f9fa cd3d eba2 7e3f b3bd 1c3e
00000090: 5e04 bfbe 6097 363f 9f5a e93e 2e5a c9bf
000000a0: bbf4 053f 1185 813f 3b45 8bbf 0e3b a53f
000000b0: 8912 f2bf 9b76 433f 9361 f63d 7d64 133e
000000c0: 4839 083f 6865 a93d 6b74 373d 0780 2440
000000d0: f9f0 3d3f 0b91 fcbe c138 f63e 2114 8b3f
000000e0: 176a f8be bd95 8bbf c04c 08bf 2c63 78bf
000000f0: f703 e53f 4bdc bf3e 9ddc 04c0 1783 e6be
00000100: e50a 8b3d 08f7 323d 9e97 ffbc 2ead a7bd
00000110: ad7c 55c0 36b3 e13f 7c78 e83e f2e7 90be
00000120: 98ad 5bc0 7003 5d3f 4b2a 1a40 fd7a 8d3e
00000130: e66f 1a3c 9f13 123f 1e9b 033f 15df 26bf
00000140: f710 eabe b269 263d 8f0c c73c e670 4dbe
00000150: 3e38 87bc e996 37c0 8c38 ac3f 30bc 093f
00000160: 8ee0 c23b c586 95bf 01ff 02c0 d14f fcbe
00000170: 262e 783d 7281 30bf fde4 ad3f becf 993d
00000180: 8834 9e3f dda2 9f3f 20f2 0c3e 34d3 1d3c
00000190: 035d 663d 4844 073e 9900 4240 6b09 d03f
000001a0: 6fa4 3d3f 7388 8fbb 1766 6cbf 79df d53f
000001b0: 0254 93be 19ba 953e 8fd3 c33e c5d5 aabe
000001c0: b396 733e f7c4 513e 7c3d d53b f244 5f3d
000001d0: c629 f23d fa59 343e 8ee5 4a3e 6e9d 1ebf
000001e0: 4675 02c0 de5a 263e f460 143e b5ca 91bf
000001f0: ef0c 59bf 8696 32c0 a70b 90bf d2e7 543e
00000200: a021 0ebf ae02 3440 08e5 e73f fc30 973f
00000210: 1c39 3e3d 0b55 01be b55d b53e 0dbb 023f
00000220: f7b1 143f 95f0 dabf bebd 58bf aea7 e13e
00000230: c480 9abf 5178 093f e944 0f3f 63da 903e
00000240: 2360 5f3e fabb 263f 29af 2540 9b12 d8be
00000250: 3053 0bbd 52c0 9dbe 6983 36be 2b18 c5be
00000260: 4dbd 76be 7233 8440 ddf6 853f 0052 a4bf
00000270: 7814 133e dff5 9ebf 3b50 3040 c131 cfbf
00000280: e48d b53c bb74 673f 3127 a8bf d01a 4ebd
00000290: 144e bb3f 24f2 043f 1c0d 5e3e a4dc 973e
000002a0: 1b05 9b3e 6a7f 863d 86d1 ab3e 9c74 22c0
000002b0: f094 a4bf d784 3bbe 6659 4c40 e026 98bf
000002c0: 3f6a 44c0 d3ba 79be de98 763f cb56 5d3f
000002d0: 0b5e a33e 871d f7be 564a f4bd ed33 113e
000002e0: 6242 373d e7b6 1ebc 3a51 af3c a3ce ffbf
000002f0: 418a b6be bb99 49c0 38c9 40bf 688c 7fbf
00000300: e46e cb3b 5a64 6d40 2b26 7c3f 0244 023f
00000310: d1e6 91be ff33 b0bd 670c 303f 1433 243f
00000320: 8096 46be 481e a4be 27e9 a5be c5f2 dcbe
00000330: 4ed5 5b3f d2be 54bf 28c7 3540 4e96 cebd
00000340: ab2d fdbc 94d2 1dbf ded1 ad3f 3b69 9ebf
00000350: 5c0d ca3f 2428 753f cd70 94be 5ce1 a9bd
00000360: 76b7 cd3e ed98 6dbe 52c6 bfbe d06a b2bd
00000370: 06d7 c8bd d7de 0a40 92f2 0d3f ba0d 2540
00000380: b0b5 a9bf 13fd 2b3e 4b38 1440 f516 00c0
00000390: 29f1 403e 1a4f 19bd 4e51 8f3e a0fd 8a3e
000003a0: 77af b33d 53d2 343e 775d 9fb8 aab0 6e3d
000003b0: 19e8 f23c 46ae 48be c3e1 6a3f 08aa 1e40
000003c0: b94f 5cbe a73e 82be 6d08 41be 06d7 853f
000003d0: 24f5 16be eda6 aebf 458d 64bf 501d 3bbf
000003e0: b88d 06c0 20b1 073f 055b 413f e393 e3be
000003f0: be68 cfbe f7b7 2bbf 9aef 3fbf 2716 1d3f
-1.5597905 0.33828673 0.36299297 -0.58603233 -1.0313625 -0.34728098 -1.5589671 -0.31349877
-1.702521 -0.37478048 1.3399253 4.7351 1.6508638 -0.3989026 -0.089641884 -0.2669289
-0.038459137 -0.5536265 1.8049065 1.9223272 -0.40844318 0.6199594 -0.13819268 2.6688335
1.2680111 1.420079 0.084799 -2.1490042 -0.9589109 0.46284354 0.21418145 0.38486806
-0.20263505 0.10057635 0.99467343 0.1530674 -0.3730802 0.7132473 0.4557695 -1.5730646
0.52326554 1.0118734 -1.0880502 1.2908647 -1.8911906 0.7635285 0.120303296 0.14393802
0.53212404 0.08271295 0.04478876 2.5703142 0.7419582 -0.4932941 0.48090175 1.0865518
-0.4851844 -1.0905071 -0.5324211 -0.97026324 1.7891835 0.37472758 -2.0759652 -0.4502189
0.06789187 0.04369262 -0.031200226 -0.08187328 -3.3357346 1.7632816 0.45404422 -0.2830196
-3.4324703 0.8633337 2.4088314 0.27632895 0.009426093 0.5706119 0.51408565 -0.65184146
-0.45716068 0.040628143 0.02429798 -0.20062599 -0.01650631 -2.8685858 1.3454757 0.53802776
0.005947179 -1.1681753 -2.0468142 -0.49279645 0.060590886 -0.6894752 1.3585507 0.07510327
1.2359781 1.2471577 0.13764238 0.009632874 0.056241047 0.13209641 3.0312865 1.6252874
0.7407903 -0.0043802797 -0.92343277 1.6708823 -0.2877503 0.29243544 0.38247344 -0.33366218
0.23787956 0.20485292 0.0065075736 0.05450911 0.11824374 0.17612448 0.1981413 -0.6195897
-2.0384078 0.162456 0.1449011 -1.1389986 -0.8478536 -2.7904372 -1.1253556 0.20791557
-0.5552006 2.8126636 1.811677 1.1811824 0.046441182 -0.12630098 0.35423055 0.51066667
0.5808405 -1.710467 -0.84664524 0.44073242 -1.2070546 0.53699213 0.55964524 0.28291616
0.21814017 0.6513058 2.588816 -0.42201695 -0.03401488 -0.3081079 -0.17823566 -0.38495
-0.2409565 4.13128 1.0465962 -1.2837524 0.14363277 -1.2418784 2.7548969 -1.6187059
0.022162385 0.9041249 -1.313696 -0.05031854 1.4633203 0.5193198 0.21684688 0.29660523
0.30277333 0.06567271 0.3355829 -2.5383673 -1.2857952 -0.18312393 3.1929564 -1.1886864
-3.0689847 -0.24387674 0.96327007 0.8646056 0.31907687 -0.48264715 -0.11928241 0.14179964
0.044741042 -0.009687162 0.021401037 -1.9984936 -0.35652354 -3.150008 -0.75307035 -0.9982362
0.0062082876 3.70925 0.9849574 0.5088502 -0.2849641 -0.086036675 0.68768924 0.6414044
-0.19393349 -0.32054353 -0.32404444 -0.43153968 0.8587235 -0.8310367 2.8402805 -0.10087262
-0.030905565 -0.6164944 1.3579671 -1.2375864 1.5785327 0.95764375 -0.2899231 -0.08294937
0.40179032 -0.23202868 -0.37455994 -0.08711779 -0.098066375 2.169851 0.5544826 2.5789628
-1.3258572 0.16795759 2.3159359 -2.0014012 0.18841995 -0.037428953 0.27991718 0.27146626
0.08773702 0.17658357 -7.59912e-05 0.05827395 0.029651688 -0.1959773 0.91750735 2.479128
-0.21514787 -0.25438425 -0.1885087 1.0456245 -0.14741951 -1.3644692 -0.8927806 -0.730916
-2.1023998 0.53004646 0.7552951 -0.44448766 -0.405096 -0.67077583 -0.7497498 0.61361927

critic.0.bias f4 [128]
00000000: c866 10bf e7a5 76be 8967 2f3f f878 503e
00000010: 7621 cfbc 1a68 043d 2d57 133f 841a 4fbe
00000020: f67f 4dbd 4c70 923e 1ee4 cbbe 92c3 28bf
00000030: 4255 0b3d 6ba2 17bf 9d1b 92be 23f2 ed3e
00000040: c090 afbe f2dd 3f3e d4de 33bf f945 26bf
00000050: 4825 f2be dc96 a1bd c2dc 6abe 4fac 6d3e
00000060: df1a 9cbe 7828 063e ff96 8b3f 9005 50be
00000070: 4b17 0fbe f88c 05bf 775d 393f a1fa fbbd
00000080: 534d b53e 3a71 3e3d cef8 7f3d adac c1be
00000090: 9a76 9cbe b0e0 87be bfc9 55be 7138 9abe
000000a0: eeda 76bd 9fe8 debc 2f6c 893d 4558 aa3d
000000b0: 037e b83e cbd2 913d 3ce1 193e 6f2d 32bd
000000c0: a028 49be 7601 0fbf 7700 85bd 566f 04be
000000d0: 82cb 33be f2ed e03e ce74 893c b615 503e
000000e0: b8c7 8f3e bccc bb3d f117 2e3e 8755 873d
000000f0: df51 093f 5c57 75be 1564 bdbe 590f 883e
00000100: f4ff aa3e e22a 913e 7b2a 1fbf 1124 85be
00000110: ae9d c0bc 0d39 34bc ba94 93be 0f8f 833d
00000120: 7d4d 9c3d fc26 143e a023 733e 73d8 48bf
00000130: b418 933c ad43 a53e 7f66 0b3d f821 843d
00000140: 23a5 873a db72 30bf 19a5 033e aed3 0dbe
00000150: 7f9b 5e3f 21b3 82be 63b8 3abf 85f7 ddbe
00000160: ae25 b1be cb2a 823f a8a1 493e 7b54 303e
00000170: a41e 53be 9935 81be 0895 063f 78d1 033e
00000180: 4973 b73d 5dda cb3e a081 3abe 0d32 4f3e
00000190: e386 82bd dd02 77bd 3d1a 7c3e 0a0f 083f
000001a0: ed11 da3c 98b5 98be 8ffe b33d 0e8b 30be
000001b0: a4e2 60be aa74 023e 91f5 fd3e 4c2b 633e
000001c0: ea50 5abe a6ae 3d3d c8da 0cbf 5908 b8bc
000001d0: 9799 61bc 850f dbbe 6ab4 6bbe 5f85 c83e
000001e0: bc82 66be d61a 7bbe 945b b1be 7462 9f3e
000001f0: 3c61 1bbe 2c15 8c3e dd2f abbb 3695 1cbf
-0.5640683 -0.24086724 0.6851736 0.20358646 -0.02528451 0.03232584 0.57554895 -0.20224959
-0.05017086 0.286013 -0.39822477 -0.65923417 0.034016855 -0.59232205 -0.28536692 0.46473798
-0.34290123 0.18737009 -0.70261884 -0.6495052 -0.47294068 -0.07890102 -0.22935775 0.23210262
-0.3048925 0.13101375 1.0905455 -0.20314622 -0.1397373 -0.52168226 0.7240824 -0.12303663
0.35410556 0.0464947 0.062493138 -0.37827054 -0.30559236 -0.2653861 -0.20877741 -0.30121186
-0.06026738 -0.027210532 0.067100875 0.08317617 0.3603364 0.07120284 0.15027326 -0.04350036
-0.19644403 -0.55861604 -0.06494229 -0.12933096 -0.17558101 0.43931538 0.01677933 0.20320782
0.2808206 0.09169909 0.1700132 0.0660811 0.5364055 -0.23959106 -0.3699042 0.2657421
0.33398402 0.2835303 -0.62174195 -0.2600408 -0.023512688 -0.01099993 -0.28824407 0.06423771
0.07631967 0.14467996 0.23744059 -0.78455275 0.017956115 0.32278195 0.034033295 0.064517915
0.0010348897 -0.68925256 0.12855949 -0.1385028 0.8695602 -0.2552729 -0.729376 -0.43352905
-0.3459906 1.0169309 0.19690573 0.17219727 -0.20617157 -0.25236204 0.52571154 0.12872875
0.08957536 0.39815035 -0.1821351 0.20233937 -0.06373384 -0.060305465 0.24619384 0.5314795
0.026619876 -0.29826045 0.087887876 -0.17240545 -0.21961457 0.12739816 0.49601415 0.22184485
-0.21319929 0.046309136 -0.55021334 -0.022464918 -0.013769529 -0.42785278 -0.23018041 0.39164254
-0.22510809 -0.24521956 -0.3464018 0.311298 -0.1517381 0.27359903 -0.0052242116 -0.6116518

critic.2.weight f4 [128, 128]
00000000: 27bf 29bf c7f2 c43e 7518 32bc 4782 363f
00000010: 5527 05be 68a9 2bbf 84bd 903f a48d 003e
00000020: 9f2d 1cbf 1de4 2c3f f867 8cbd 9636 abbe
00000030: 5d5f 4a3e e03e b3be aec8 273f acc8 773f
00000040: ed9a e83e f6fe 8b3d e77e aa3d 2f6d 713e
00000050: f2ee 94be f32e 2a3f ba81 a3be ef62 52bf
00000060: c1de 013f 4d4e 03bf 9aed 97bc 3ef6 36bf
00000070: a77c 83be 9f3b afbe b0a9 1d3f 1af5 a1be
00000080: 7858 6e3f 8a94 e43d df9a 643f 9a28 abbd
00000090: cc23 3dbf 7563 c73e 4523 a53e b682 f3bd
000000a0: 4345 27bf e9b8 7ebf 210e 58be a1f6 e9bd
000000b0: d34f 28be e8e5 e0be 6e32 433f 39cd d53e
000000c0: 326e 95be 0ad9 e0be 3091 b8be effe 203e
000000d0: 0874 463e c8f1 423e f535 5ebf c134 153f
000000e0: 48b9 b03f e03a dabe 0dd8 adbe a9e2 86bd
000000f0: 4666 d3be 7786 893f 64e1 0abe 76b6 68bd
00000100: ccd5 ac3e 9ac4 233e 2cfd 59be 7a30 db3e
00000110: f7d9 993f 0dfe 8c3e d7c2 0ebe ebcd 553f
00000120: 9753 2d3e 3e0e 2bbf f5f6 24be 1111 4bbf
00000130: a943 aebe 0a55 353d 0124 813f d492 93bf
00000140: 1355 113e abc2 8a3e 7e1f a8bf 9909 42bf
00000150: 3235 ad3e 2bdb a93e 85d7 8abe 9805 44be
00000160: 162c fdbd a995 58be 636a 00be b9da d63d
00000170: fc7e 53bd a0b3 833e 3112 133f 6a0d b73e
00000180: afd2 153f ab03 3e3e 5a2a 2e3e e7d8 f03e
00000190: 06ca 2abf 32c8 c93e fa80 27bf ef69 80be
000001a0: 3cac adbf ff58 c6bd 3deb e8bc 51bf d83e
000001b0: 35a7 e2bd 5afa 993d 2161 a63f 8bb1 0bbf
000001c0: 77ab 82bf c01a eb3e cd12 e63d 7709 6b3f
000001d0: 5a0a 8b3f 6866 6ebf 948a 31bf 5c6c cebe
000001e0: 892d 6e3f 220d cabd 36b4 b03e 7db2 80bf
000001f0: d087 aabd 4851 f4bd 9121 263e 7be2 b3be
00000200: 6293 673f 7c4c 3dbe 86cf eabe df7d 0cbf
00000210: f57a b3be ba5d 79be 1001 b7bd 18e8 043f
00000220: 18ab 34bf c06f 75bc 2047 9bbe 8749 07bf
00000230: 42cf 93bf 6af9 b23e 35fc 223f 5ba8 863d
00000240: ee44 783f 5890 dd3f cd81 65be 4a5f cb3e
00000250: f0f2 023f a95d 97bf 8a61 2abd ec6a d53d
00000260: f5a4 7a3f e3cb 043f 779f 8dbf a3ab 9fbe
00000270: 7cba 52be a2b7 00bf 4ab8 493e 82f4 6e3f
00000280: e206 08bf 71de 303f 1fd7 863f 763f fd3e
00000290: 6a61 8abc 4abf 8f3f f14e 1c3f d2ec a83f
000002a0: 1da3 6ebe 5efb 63bf 1e32 983f 28d5 82be
000002b0: 1b6b 153e 1897 093f 921e 403f 2311 a8be
000002c0: 9a26 5bbe 50f2 b53e 6b1f 2dbd fd63 493f
000002d0: 5c52 2dbe 7d97 12bf 0dd9 323e 23bb 8c3f
000002e0: da69 cc3e a1ba 3fbf 1344 0cbe ccfe b2bd
000002f0: 0bd3 24be 8f14 e33b 67c1 003f 81a8 093f
00000300: 833d 54bf cf4c b03b 38ad 3a3f 2643 5b3f
00000310: 794c a53f 7c4c debd 952e 043f 0bb0 23bf
00000320: 22aa febf e229 d13e 45dd 64bf 1db6 bd3f
00000330: 0984 f9be 6991 3a3f 5bcf de3f eb5d bbbe
00000340: a1e2 41bf a956 883e 173c 30bf 1a78 babf
00000350: 838c 713d 5203 813f 4687 6e3e 7ffa 743f
00000360: 6a1c 0d3e df6f 2dbe 2898 aebf 57de 1ec0
00000370: 7f27 3f3f e80d 203e 21f6 4d3f 26c3 0fbc
00000380: 12f7 783f 2969 ff3e 384f 8bbe 3a2b 37be
00000390: 89e3 c63d a385 843f ca94 053f d1c6 9c3d
000003a0: ebea 4fbf 8852 0a3f 2077 f1bd bcdd 9bbf
000003b0: 15ad 393f 1129 21be c0e1 20bf cfa2 c13f
000003c0: 9976 1fbf b8a3 2fbe 6a8c 303f 1867 733f
000003d0: a673 07be 3a7f 61bf 94cd 663f 916c 77bf
000003e0: e0a6 c03e 8ea2 173f f015 c93e f248 2bbe
000003f0: 4419 683c 614d 7bbf 6bc8 d43f bb39 523e
-0.663073 0.38466474 -0.010870089 0.7129254 -0.13003285 -0.6705537 1.1307836 0.12554032
-0.6100711 0.67535573 -0.06855768 -0.33440083 0.1976294 -0.35008907 0.6554059 0.96790576
0.454307 0.06835739 0.08324986 0.23576806 -0.2908855 0.6647789 -0.3193491 -0.8218221
0.5073052 -0.5129135 -0.018545914 -0.71469486 -0.2568104 -0.34225175 0.6158705 -0.3163231
0.9310374 0.11161144 0.89298815 -0.083573535 -0.73882747 0.38943067 0.3225347 -0.118901655
-0.6534006 -0.995009 -0.2109914 -0.11423994 -0.164367 -0.43925405 0.76248825 0.41758135
-0.29185635 -0.43915588 -0.3604827 0.1572225 0.193802 0.19037545 -0.8680108 0.5828362
1.3806543 -0.42623043 -0.33953896 -0.06586201 -0.41288966 1.074416 -0.13562542 -0.056814633
0.33756864 0.15992966 -0.21287984 0.42810422 1.2019643 0.27537575 -0.13941513 0.8351733
0.16926418 -0.66818607 -0.16109832 -0.79322916 -0.34035996 0.044270553 1.0089113 -1.1529183
0.1419261 0.27101645 -1.3134611 -0.75795895 0.33829647 0.33175024 -0.27117553 -0.19142759
-0.12361924 -0.21150841 -0.12540583 0.10490937 -0.051634774 0.2572298 0.5744963 0.35752422
0.585246 0.18556087 0.17008343 0.47040483 -0.66714513 0.3941055 -0.6543118 -0.2508082
-1.3568187 -0.096849434 -0.028432483 0.42333463 -0.110670485 0.07518454 1.2998391 -0.54567784
-1.0208577 0.45918846 0.11234055 0.9181132 1.0862534 -0.9312501 -0.6935208 -0.40317047
0.9303823 -0.09865786 0.3451249 -1.005447 -0.083266854 -0.11929566 0.16223742 -0.35133728
0.90459263 -0.18486208 -0.45861453 -0.54879564 -0.35054746 -0.2435216 -0.089357495 0.51916647
-0.7057357 -0.014980257 -0.30327702 -0.5284657 -1.1547625 0.34955913 0.6366609 0.0657508
0.9698018 1.7309675 -0.22412796 0.39721137 0.51151943 -1.1825458 -0.041596927 0.10420784
0.97907954 0.51873606 -1.106429 -0.31185636 -0.2057895 -0.502802 0.19699207 0.9334184
-0.531355 0.6908942 1.05344 0.4946248 -0.016892154 1.1230252 0.61057955 1.3197272
-0.2330441 -0.8905543 1.1890295 -0.2555325 0.14591639 0.53746176 0.75046647 -0.32825574
-0.21401444 0.35536432 -0.04226629 0.78668195 -0.16925949 -0.572624 0.17465611 1.099461
0.39924508 -0.7489415 -0.13697843 -0.08740005 -0.16096132 0.006929941 0.5029511 0.5377274
-0.8290636 0.00538025 0.7292056 0.85649335 1.2913963 -0.10854432 0.5163358 -0.63940495
-1.989567 0.40852267 -0.8940013 1.4821202 -0.48733547 0.7287813 1.740703 -0.3659509
-0.75736433 0.26628616 -0.6884169 -1.4567902 0.058971893 1.0079138 0.2329379 0.95694727
0.1378037 -0.16937207 -1.3640184 -2.4823205 0.7466964 0.15630305 0.8045369 -0.008774554
0.97252 0.49884918 -0.27208877 -0.17887583 0.09711368 1.0353283 0.5218016 0.07655109
-0.8121783 0.5403218 -0.117902994 -1.2177043 0.7252973 -0.15738322 -0.6284447 1.512781
-0.6229034 -0.17152297 0.68964255 0.95079184 -0.1322771 -0.8808476 0.9015744 -0.96650034
0.37627316 0.59232414 0.3927455 -0.16727045 0.01416618 -0.98164946 1.6623663 0.20529835

critic.2.bias f4 [128]
00000000: ba88 b63e f8b6 11bf 51bd 25be 990a c9bd
00000010: 850f 5abe 754d 463e 4b61 a1be 0d0d 383e
00000020: 249f f7bd 5a5f af3e 4098 6c3e 1db6 5a3e
00000030: 4ecd ce3e f63a c63d f69e 5e3e 31e6 e9bd
00000040: 2c43 f2bc a74e 7abe 1d24 06bf 0da0 c8be
00000050: 9a01 8e3e 4824 123f 5796 273e cd19 70bd
00000060: 33f5 69be 9dcf 13bf b1b3 493e c02d 063e
00000070: f226 733d bac0 bbbd c3d2 2cbf 1f22 23be
00000080: d598 613e f8f2 973e 0ffc fa3e 1250 0bbf
00000090: 1a30 56bd 4ea7 373e 37cb a4bf 7ea2 d83e
000000a0: a7e8 dc3d 423d 993e 694f c63e a7af d93e
000000b0: 99e0 4fbe 65a6 f13d 378e 72bc ee85 6abd
000000c0: 55ce fa3e b8d9 28bd 1b69 c6bd 73aa 203e
000000d0: 3a5a 89be 34bf 99be d3bb 303d 17af 0fbf
000000e0: d764 713d 98fb 97be f636 fd3c b450 d3be
000000f0: 8b14 893d b4be 323c a45d 2cbe 500a d8be
00000100: 1925 973e 9d59 a3be b773 3dbd 9b62 dc3e
00000110: bbcb 39be 5c58 91bf 0014 aa3e ae11 53bc
00000120: bce9 803e 29a7 3ebe 4bec c83e f98e eb3d
00000130: cfd9 a13d e1be 5dbd 0d9c 27be 614e ca3e
00000140: 2ee8 df3d 7756 4bbe 06c9 8ebe d980 59be
00000150: 2725 e5bc 035b 2bbe 9639 61be 7b80 70be
00000160: 0760 273e 3b27 fd3e 5c2a 17bd eddd 89be
00000170: 540e 2d3e 38ad 023f e51f 943d 3d56 60bd
00000180: 9e8a a33d c4ed 8cbe 5a7c 87bc 2a2c abbc
00000190: 2c89 bbbe 34d4 92be 40e2 e1be c40c c03d
000001a0: 3319 77bd b3a3 933c 87f7 6f3e 88b8 cc3d
000001b0: aa02 8abe 6d7e 063e 4fb8 773e d530 dcbd
000001c0: b2cb 663b 2157 313e 47e5 23be d83a 963e
000001d0: 0766 f93d ae2c e73e d0c5 58be 9a69 d5be
000001e0: efef 783e c4af 873d 17c6 3c3b 16bc a2be
000001f0: 225d 03be b4cf 76bc c871 8ebd 581a ed3d
0.3565119 -0.56919813 -0.161855 -0.098164745 -0.21294983 0.19365485 -0.3151954 0.17973728
-0.120909005 0.34252435 0.23104954 0.21358533 0.4039101 0.09679215 0.21740326 -0.11420859
-0.029573046 -0.24444066 -0.52398854 -0.3918461 0.27735597 0.5708661 0.16365944 -0.058618356
-0.22847442 -0.5773867 0.19697453 0.1310339 0.059363313 -0.09167619 -0.67509097 -0.15930985
0.22030957 0.29677558 0.4902043 -0.5441905 -0.052291967 0.17934915 -1.2874516 0.42311472
0.107865624 0.29929549 0.3873246 0.42516825 -0.20300521 0.11799315 -0.0148044145 -0.05725663
0.48985544 -0.041223258 -0.09688016 0.15690021 -0.2682665 -0.3002869 0.043147873 -0.5612654
0.05893406 -0.29684138 0.030909996 -0.4127251 0.066933714 0.010909725 -0.16832596 -0.42195368
0.2952049 -0.31904307 -0.046252932 0.4304398 -0.18144123 -1.135509 0.33218384 -0.012882633
0.25178325 -0.18618454 0.39242777 0.11501879 0.07902872 -0.054137114 -0.16368122 0.39512923
0.10932957 -0.19857202 -0.27887744 -0.21240558 -0.027971817 -0.16733937 -0.21994624 -0.23486511
0.16345225 0.49443993 -0.03690563 -0.26927128 0.16899997 0.5104556 0.07232646 -0.054769743
0.079854235 -0.2752515 -0.016538788 -0.020895083 -0.3662809 -0.28677523 -0.44117928 0.09377435
-0.060326766 0.018022394 0.23434268 0.09996134 -0.26955158 0.13134165 0.24191402 -0.107515015
0.0035216627 0.17318393 -0.16005431 0.2934177 0.12177663 0.45151275 -0.2116921 -0.4168213
0.24310277 0.066253215 0.0028804594 -0.31784123 -0.12828496 -0.015064169 -0.06955296 0.1157729

critic.4.weight f4 [1, 128]
00000000: 5773 0bba 45db 74b8 80d7 a1ba a044 5aba
00000010: e72e 65bb 3ed2 1bb9 1533 ba3a 3e9e 04ba
00000020: 3177 133a a53f 1d3b 5cb2 82ba 2479 c2b9
00000030: 1eaa a3ba ac26 21ba 2499 5f3a eb3d 28bb
00000040: daab 8cbc 6898 84b9 3422 28b7 dedd e238
00000050: aef6 373a 8120 36bc 2fde 71ba 43d0 4bba
00000060: 3816 7c39 b590 d6ba 19af 78b9 4213 e6bb
00000070: bc83 5b3a f2db 63b8 ef22 173a 3f30 f2b9
00000080: 700d 03bb 7166 593a 0886 5738 4ed0 8c3a
00000090: b048 03bb b75e 5d3a de66 3dbb f0a4 29b9
000000a0: 3924 6a3a 3f07 4a39 0594 c8ba 2be5 8cbd
000000b0: b710 c6ba 4e78 5fb9 e778 9d3a 178b 14ba
000000c0: 92d2 5739 5e90 56ba 66e6 c539 d2a6 17bd
000000d0: 50cf 9c38 de7c 0238 38e8 933a 1d3a e6ba
000000e0: ee7a 8db9 2257 173a 6563 da3a f075 33ba
000000f0: 53d5 043b 0ec0 ccba ef0b a439 8e61 bf3a
00000100: c1a7 9e39 ee13 8bba 6ed1 dbba 6f97 4a3d
00000110: 1b52 2b3a 8c8e b13a b14d 8eb9 9700 f4ba
00000120: e8a9 9a3a 2e40 ac3a 98bb 8f38 2864 3fb9
00000130: 6b16 923a f8e0 9aba 83b7 07bb 6949 cf37
00000140: 09e1 96b9 8e63 bfba a1a2 8e3a f880 02ba
00000150: 9f3e 62ba dd8e 30bb 55bd 403a 3d70 b9ba
00000160: 56b5 22ba c02a f238 d2a7 7a3a a221 49b9
00000170: f581 803d 48f3 f2ba 4b07 6eba a5e0 e53a
00000180: b4d8 983a 0f2b 5fba 50fe edba e303 0f3a
00000190: 23d5 8ab9 b4ce 7aba 64e1 d139 87c7 9fb8
000001a0: b836 85ba c19e a53a 4274 54ba eb4e 9cba
000001b0: 5b29 c8b9 ce00 443a d7b0 8f38 db23 37ba
000001c0: 540a aeb9 c695 7339 679a 6fba 6697 d438
000001d0: 38f0 6d3a b43d 123a 8b78 bf39 4d38 54ba
000001e0: d59d 7eba fd0c 27ba aece 67ba 27af b83a
000001f0: 1db1 a53a af28 0d3b 9dc6 c9ba d7cd 3a3a
-0.0005319616 -5.8378344e-05 -0.0012347549 -0.0008326266 -0.0034970583 -0.00014860273 0.0014205897 -0.00050589803
0.0005625366 0.0023994234 -0.0009971368 -0.0003709282 -0.0012486612 -0.0006147425 0.00085295946 -0.0025671672
-0.017171789 -0.00025290553 -1.0021544e-05 0.00010817846 0.0007017654 -0.011116148 -0.00092265283 -0.0007774869
0.0002404087 -0.001637003 -0.00023716352 -0.0070213387 0.0008373817 -5.4325857e-05 0.00057653984 -0.00046193783
-0.0019997023 0.0008293158 5.138482e-05 0.0010743232 -0.0020032339 0.00084445946 -0.0028900425 -0.0001617854
0.0008931789 0.0001926692 -0.0015302902 -0.06879648 -0.0015111183 -0.00021311754 0.0012014181 -0.0005666478
0.00020582441 -0.00081849645 0.00037746428 -0.037024327 7.4772746e-05 3.1110707e-05 0.0011284417 -0.0017564927
-0.00026985205 0.00057731767 0.0016661702 -0.0006845882 0.0020268753 -0.0015621202 0.0003128941 0.0014601217
0.00030261095 -0.0010610798 -0.0016770789 0.049460825 0.0006535367 0.0013546511 -0.00027142235 -0.0018615898
0.0011799904 0.0013141686 6.8537134e-05 -0.0001825249 0.0011145597 -0.0011816313 -0.0020708747 2.4710507e-05
-0.00028777894 -0.0014601813 0.0010882207 -0.0004978324 -0.0008630547 -0.0026940622 0.00073524314 -0.001414783
-0.0006206831 0.00011547422 0.00095617503 -0.00019181383 0.06274787 -0.0018535638 -0.0009080066 0.0017538263
0.0011661262 -0.0008513191 -0.0018157456 0.0005455596 -0.0002648021 -0.00095675443 0.00040031516 -7.618876e-05
-0.0010163402 0.0012635813 -0.0008104482 -0.0011925375 -0.00038177785 0.00074769265 6.85171e-05 -0.0006986239
-0.0003319556 0.00023230081 -0.0009140134 0.00010137148 0.0009076628 0.00055786525 0.0003652017 -0.00080955477
-0.000971285 -0.000637248 -0.00088427484 0.0014090285 0.0012641285 0.0021539142 -0.0015394274 0.00071260094

exp_avg f4 [4]
00000000: 9c5a 39bb b5d8 3dba 3617 953b 8f47 e23a
-0.0028282767 -0.00072420697 0.004549886 0.0017263758

exp_avg_sq f4 [4]
00000000: 723e 4f39 714e 3e3b 4c7b 013a bb83 8e3a
0.00019764321 0.0029038454 0.0004939332 0.0010872999
