examples/drone/logs/fig-eight-5000-forgiving/model_4900.pt (torch, 474978 bytes, 36 tensors)

std f4 [4]
000000 fa 4b 46 3e 72 0d b4 3c 0a de 44 3e 87 37 3e 3e
       0.1936492 0.021979067 0.19225326 0.1857587

actor.0.weight f4 [128, 17]
000000 18 23 0d bf d5 eb 4e 3f fc 9d 82 3f 86 55 87 be
       -0.55131674 0.808286 1.0204463 -0.26432437
000010 09 61 02 bf ea e6 a8 3f bd f6 92 be 72 51 a3 be
       -0.50929314 1.3195469 -0.2870387 -0.31898075
000020 7e e7 c3 be 5b 90 c1 3f 84 58 08 c0 c0 a0 6f 3f
       -0.38262552 1.5122179 -2.1304026 0.9360466
000030 e3 f1 7b 3f f0 62 27 3d b6 d3 d9 bc 0b b3 ed bc
       0.98415965 0.04086584 -0.02659021 -0.029016038
000040 95 b4 9e be 07 f4 94 bd 1f 83 38 be 42 ed ee 3f
       -0.30997148 -0.07273107 -0.18018769 1.8666155
000050 5a 04 5d bc 53 ac ab bd c2 f4 16 3d fa a7 b1 bc
       -0.013489807 -0.083824776 0.036854513 -0.021686543
000060 0c 8a 7e 3c 01 1d 67 3c ec e1 b5 ba 2e 40 75 bd
       0.015535843 0.014106036 -0.0013876534 -0.05987566
000070 22 f3 a0 bd f7 a0 ad 3c c2 09 ec be 96 ad 01 3f
       -0.07858874 0.021194918 -0.46101195 0.50655496
000080 45 9e 2f be 3e 2b 1f be 23 d9 60 bc 71 4f 71 bc
       -0.17150219 -0.1554384 -0.013723644 -0.014728413
000090 f8 da 0f c0 f3 1c 4d bf eb 06 72 be 25 f8 e3 be
       -2.2477398 -0.801223 -0.23635451 -0.44525257
0000a0 7e cc 3d bd 67 67 2d be a1 55 4e 3c 01 52 85 bd
       -0.046337597 -0.16933976 0.012593658 -0.06509782
0000b0 33 66 11 3e c9 6d 0e bd a5 66 0a 3e c4 60 ae 3e
       0.14199142 -0.034772668 0.13515718 0.340582
0000c0 f1 9e ac 3d 20 0f ce 3e a0 9f 6c 3e 38 7c e7 3d
       0.08428753 0.40245914 0.23107767 0.1130299
0000d0 06 ef ea be 97 a7 cc c0 8c d5 2c 3f cf 77 83 bf
       -0.45885485 -6.3954577 0.67513347 -1.0270938
0000e0 50 b5 fd be 9d de e9 be 58 2f b4 bd ab cd 20 3e
       -0.49552393 -0.45677653 -0.087980926 0.15703456
0000f0 08 eb 4a be 03 b6 c6 bd cd e6 45 3c a5 2a 35 3e
       -0.1981622 -0.09702685 0.012078953 0.17692049
000100 f0 02 47 be ce ca 29 be 21 3b 02 be f4 b2 23 be
       -0.19434714 -0.1658127 -0.12717868 -0.15986234
000110 35 b6 91 3f 26 46 1d 3f af 9e 96 40 9c a3 36 be
       1.138373 0.61435163 4.7068706 -0.1783585
000120 10 b2 07 3f 33 ea df bf 69 57 8f bf 7b 21 76 3e
       0.53006077 -1.7493347 -1.119855 0.2403621
000130 7e 63 3e 3e 20 42 a8 3e 1e e4 e7 be 2d d8 16 3e
       0.18592641 0.3286295 -0.45291227 0.14730902
000140 af 11 a3 be 0e 70 a2 3c 93 25 12 3e 99 c3 09 3f
       -0.3184943 0.019828822 0.14272146 0.53814083
000150 99 ef ab 3e 21 d0 46 bf 95 23 eb 3d 0a e5 3b c0
       0.33581236 -0.7766133 0.11481396 -2.9358544
000160 6c 72 91 3e 3f dd c7 bf d7 4f 51 bf 41 74 ce 3f
       0.2840761 -1.5614394 -0.8176245 1.6129228
000170 40 73 bf 3e eb 72 64 3f 7a b9 ab 3f 3f f0 2b bf
       0.37392616 0.8923785 1.3415978 -0.6716346
000180 4e c9 40 3f 3d bd 42 3f 27 74 93 3e 8c cd 00 3f
       0.75307167 0.76070005 0.28799555 0.5031364
000190 1d c2 2d 3e d5 d7 85 bd 7f 2f cd be 0e 7b 27 bf
       0.1696858 -0.06535307 -0.400753 -0.6542214
0001a0 28 0c 98 40 9c 7b e8 be 73 7c 61 bd 3b 77 a5 3d
       4.751484 -0.45406806 -0.055050325 0.08079382
0001b0 5f 38 04 bf e4 cb 66 bc 04 82 15 bc 26 97 e0 bd
       -0.51648515 -0.014086697 -0.009125236 -0.10966329
0001c0 ef 76 c2 3d 7b 28 36 3e c7 97 3f 3e be dc 3e 3e
       0.09495341 0.1778888 0.18710242 0.18638894
0001d0 25 b3 43 3e f7 51 1b bc 0c 0d ab 3d ee 79 7f c0
       0.19111307 -0.009479991 0.08352098 -3.991817
0001e0 cf 12 13 40 0b 2d 23 c0 1f 32 9a 3d 26 b0 7f 3f
       2.298023 -2.5496242 0.07529091 0.99878156
0001f0 25 f7 f8 be 31 28 1d bf a7 9e a3 3f 0f 2d f4 be
       -0.48626056 -0.6138945 1.2782792 -0.47690627
000200 4b fc 5a 3e 91 ad 91 3e 88 ba 02 3e c0 64 76 be
       0.21385305 0.28452733 0.12766469 -0.2406187
000210 f6 7f 9f 3c e3 da b3 bd 42 b9 2e 3e dd d5 0f 3d
       0.019470196 -0.08781984 0.17062858 0.035116065
000220 b6 4a dd bd 34 29 80 bf b7 21 b0 c0 33 f1 63 3f
       -0.108052656 -1.0012574 -5.5041156 0.89039916
000230 cb fe 13 40 ff 23 f1 3f a5 c8 40 3f 28 2e b8 3f
       2.3124263 1.883911 0.7530616 1.4389086
000240 c0 ea 95 bf 1a 5a c2 3d e7 e0 c1 bd 9b ec 52 be
       -1.1712265 0.09489842 -0.09466725 -0.2059807
000250 82 1b 0f 3e 9d 72 4d 3e 9d 83 bb 3e ac 0e 2f 3e
       0.13975337 0.20063253 0.3662385 0.1709544
000260 43 fc 33 3f be d1 b3 be a3 e2 9e 3f 6e 04 05 40
       0.70306796 -0.35120958 1.2412914 2.0783954
000270 3a d5 79 3e e5 85 99 3f 4e 0a 82 3f d3 03 92 be
       0.24397746 1.1993986 1.0159395 -0.28518543
000280 c9 cf bb bd 5f 53 04 bf 78 48 20 3d 36 2a 9f 3d
       -0.09170491 -0.51689714 0.03913161 0.07771723
000290 9e 1c 85 be 4e 4e 8b be 97 5d 1f be ba 95 5a 3e
       -0.25998396 -0.2720818 -0.15563045 0.21346179
0002a0 a4 ae 81 3e 4b 94 3e be b9 d5 02 3f b4 66 26 3c
       0.25328553 -0.18611257 0.51107365 0.010156322
0002b0 4a 67 1c 40 1e f7 ab 3d 5b 2a ee 3f c3 91 8a bf
       2.4438043 0.08396743 1.8606676 -1.0825733
0002c0 51 d5 a4 be 7c d3 c7 3e fc 99 c2 3d 1e 66 10 3e
       -0.32193998 0.39028537 0.095020264 0.14101455
0002d0 8b 56 05 3f 1f a7 7e be d9 c6 2e 3f 81 71 1a 3e
       0.5208518 -0.24868439 0.6827217 0.15082361
0002e0 b5 01 9a 3d aa 08 3d bd 25 a6 18 3e 9f 46 0f 3e
       0.07519857 -0.04615084 0.14907129 0.13991784
0002f0 38 2b 18 bd d1 8a 70 3f 30 58 cf 3d 05 01 25 be
       -0.03715059 0.9396182 0.10124242 -0.1611367
000300 b6 c0 31 be f5 19 05 3e ff a0 b3 bd 3c fb f5 bc
       -0.1735867 0.12998183 -0.08770942 -0.030027024
000310 a8 c1 7b bc 36 b3 84 3d 1d 21 36 3c c7 39 9b bd
       -0.0153659955 0.06479494 0.011116293 -0.075793795
000320 bc 60 86 3d 5c fb c5 3d 05 69 d4 be 8d b9 e4 be
       0.06561419 0.096670836 -0.41486374 -0.44672814
000330 80 18 63 be 44 de c8 3f 04 7f 3b c0 4a 5b d4 3d
       -0.22177315 1.569283 -2.9296274 0.103689745
000340 b1 38 2b 40 0c 1f b2 bf 48 09 62 bd ca a8 46 3e
       2.6753352 -1.3915725 -0.055184633 0.19400325
000350 7e 57 1b 3e 85 51 69 3e 0a c6 98 3e 02 fb 11 bf
       0.15170094 0.22785003 0.29838592 -0.5702363
000360 3a 3b 24 be e9 91 b9 bd 88 8d 49 bd 87 e6 20 3d
       -0.16038218 -0.09061033 -0.04920724 0.039282348
000370 c8 fa 84 bd e6 3f c3 3e ca e6 4d 3f 87 e4 f5 bf
       -0.06493145 0.38134688 0.8043028 -1.9210366
000380 4b 84 1f bd aa f7 f2 3f 10 c4 1a bf 8b e8 0b 3f
       -0.038944524 1.8981831 -0.6045542 0.5465171
000390 a7 5d a7 be 78 83 45 3e f5 68 65 3e e9 76 0b 3f
       -0.3268864 0.19288433 0.22403319 0.5447832
0003a0 6c 7c 75 bf c7 39 9b bf 7d df ed bd af 6b 11 be
       -0.9589298 -1.2127007 -0.11614893 -0.14201234
0003b0 fe 42 fe bc 98 55 9f be 23 42 98 3f a6 49 61 be
       -0.031037804 -0.3111999 1.1895183 -0.22000751
0003c0 34 09 2b 40 72 09 66 be ac 99 5c bf d0 cb f0 bf
       2.6724367 -0.2246454 -0.86171985 -1.8812199
0003d0 27 a3 8c 3f 62 ee 55 be 6f a9 46 3e 16 1b 83 bd
       1.098729 -0.20891717 0.19400571 -0.064016506
0003e0 6a 90 3f bc 62 05 5e 3e cf 16 a0 be 14 d9 85 bd
       -0.011692146 0.21681741 -0.31267402 -0.06535545
0003f0 39 5a d7 bd 05 5e e5 bd 82 e9 32 3d 8f 1e 24 bd
       -0.105152555 -0.111995734 0.04367972 -0.040068205

actor.0.bias f4 [128]
000000 39 42 35 be 92 3e 8c 3e 00 d6 b8 be 5d 3c 0f bd
       -0.17701043 0.27391487 -0.3610077 -0.034969676
000010 c9 92 a8 bc f2 7a 31 3e 3d af 39 bd e6 48 59 bc
       -0.020577805 0.17332056 -0.045333136 -0.013262009
000020 c9 79 1d 3f a9 4d ee 3c 4a 86 46 3e 9e 4e ed 3e
       0.61513954 0.029089766 0.19387165 0.46349043
000030 7b 7f a3 bd 30 f6 fc 3d cf e7 d8 bc 20 b2 c2 be
       -0.07983299 0.12351644 -0.026477722 -0.38026524
000040 3b 89 29 3e 4b 85 bf bc e0 f7 be 3e 0e 6d 56 3e
       0.16556256 -0.023378989 0.3729849 0.20940039
000050 cc 22 28 3e 22 9d b6 3e 3e 25 9d bd 25 25 93 be
       0.16419524 0.35666758 -0.07673119 -0.28739277
000060 98 6d bd be 30 38 7c be 60 76 ef 3e 95 73 88 3e
       -0.36997676 -0.24630809 0.4677 0.26650682
000070 5a a4 f9 be ca 4d e8 be bc a5 51 be ea fc 40 3d
       -0.48758203 -0.45371848 -0.20473379 0.047116198
000080 f2 4d df 3e fc 68 61 3e 39 41 8a 3e e7 40 df ba
       0.43614155 0.22012705 0.27002886 -0.0017032892
000090 75 30 4a be cc 45 4f bc cd 13 83 be 3f 38 d0 3d
       -0.19745047 -0.012650918 -0.25601044 0.10166978
0000a0 e3 37 52 3c b5 e3 a7 3e c9 91 87 3e 6c 6b 4d 3e
       0.012830707 0.32790914 0.26478413 0.2006051
0000b0 b6 53 16 be d1 b5 0d 3e f9 6d d8 3d d8 56 d8 be
       -0.1468037 0.13838889 0.105678506 -0.42253757
0000c0 d6 94 d2 be 12 0e 0a be b2 9c c1 3e af bb 80 3d
       -0.41129178 -0.1348193 0.37814862 0.06285798
0000d0 93 42 60 3e 6c 5e 3b 3c 78 33 ff 3c 0e 0b cb 3e
       0.21900396 0.011436086 0.031152472 0.39656872
0000e0 7f 32 94 3e f4 e9 08 be af 90 68 3e 2d f2 61 be
       0.28944775 -0.13370496 0.22711442 -0.22065039
0000f0 5d 9f 91 be b2 93 88 3e c0 75 41 be 76 f9 17 bf
       -0.28441897 0.26675183 -0.18892574 -0.5936502
000100 7b e1 bd 3d 89 92 d5 3d c7 c7 a0 bd ff 72 fd 3d
       0.092715226 0.1042834 -0.078506045 0.123754494
000110 2a 92 7f 3e a8 e8 d9 be fd 39 c2 3e 9f fc c3 be
       0.24958101 -0.42560315 0.37934867 -0.38278672
000120 31 3e d9 be f4 9e a8 bd f1 06 86 ba f6 55 2d 3e
       -0.4243026 -0.08233443 -0.0010225457 0.16927323
000130 ca a9 ed be 01 60 1d 3f 41 f5 e9 be ef 39 a2 3d
       -0.464186 0.61474615 -0.45694926 0.07921206
000140 24 7c 5c 3d c2 dc 00 3e 6b 48 d9 3d f7 3a cd be
       0.053829327 0.12584212 0.10609516 -0.4008405
000150 b9 5b b6 bb 25 bb 67 3e 14 ba a1 bc 6d c2 7a 3e
       -0.0055651334 0.22629984 -0.01974205 0.2448823
000160 7f ae 54 bd 9e 68 1e bb 69 ae af 3d ad c1 46 be
       -0.051924225 -0.0024171243 0.08578188 -0.19409819
000170 8c 4a 67 be 9e 2f a4 3d f6 ac 0a 3f 53 2c 99 3e
       -0.22587031 0.08016895 0.5417017 0.2991663
000180 ea f3 98 be 6e 7f f4 bd 93 e4 f4 bd 05 b8 98 3e
       -0.29873592 -0.11938368 -0.119576596 0.29827896
000190 c7 a8 54 3d 46 d0 0b 3d 79 33 3b 3e 1b cc 38 bc
       0.05191877 0.034134172 0.18281354 -0.011279131
0001a0 67 9f d1 3e d1 d1 5b be c8 b1 49 3d 03 e0 60 be
       0.40941927 -0.21466757 0.04924181 -0.21960454
0001b0 86 23 94 bc 83 35 33 3d ed 09 5c 3e 8d bf 49 3e
       -0.018083345 0.043752205 0.21488161 0.19701977
0001c0 9f e4 16 bf 2a 34 39 3e 72 e7 46 be 9f 6e 8d 3e
       -0.589426 0.18086305 -0.19424227 0.2762346
0001d0 f0 57 0a 3e d9 06 69 be 3f 6a 49 be c0 9b 2a be
       0.13510108 -0.22756518 -0.19669436 -0.16660976
0001e0 57 ce 3f 3d 09 a3 9f be 34 b5 7a be 79 2e c7 bd
       0.04682764 -0.31179073 -0.24483186 -0.09725661
0001f0 d5 2c 9f 3d eb d8 80 be 94 87 00 bc 73 d2 23 bd
       0.07772223 -0.25165495 -0.007844824 -0.039995622

actor.2.weight f4 [128, 128]
000000 f9 ae 5a 3b ca 06 33 bd 4d 4c 8c 3c 9a 93 88 bd
       0.0033368452 -0.043707646 0.017126227 -0.06668778
000010 3a cf 4c 3c 12 43 63 bc 51 79 d1 3d 3e 19 94 bc
       0.012500579 -0.013870971 0.102282174 -0.018078443
000020 69 02 b1 bc 89 01 2b 3b 11 dc d6 bd 36 8c 0e bd
       -0.021607595 0.0026093444 -0.10491193 -0.034801684
000030 e7 b3 a7 3c 0d 90 20 bb ca f4 e3 bd b8 f8 7f bd
       0.020471526 -0.0024499923 -0.11130674 -0.062493056
000040 29 e0 7a bb 45 f0 ca bd 1d c9 5a 3d 08 f1 db bd
       -0.0038280583 -0.09909109 0.053414453 -0.107393324
000050 44 f6 d0 3d ad 85 5b bc a0 8b 20 bb e4 4d 8c bc
       0.102032214 -0.01339857 -0.0024497285 -0.017126985
000060 91 4c 9d bb b7 31 9c bb 7c 2f 99 bd 68 6d 84 3c
       -0.004800387 -0.0047666687 -0.0747976 0.01616545
000070 13 a0 96 bb 5c e1 96 bc 1d f0 a4 3d aa 27 fd bd
       -0.004596719 -0.018418007 0.080536105 -0.12361081
000080 4a b6 02 bd 01 83 ce bd d7 6c 06 bc 25 80 49 3d
       -0.031912126 -0.10083581 -0.00820466 0.049194474
000090 52 80 55 bc cd fa 36 3d 0f 10 01 3d 4c e9 2b bc
       -0.013031082 0.044672776 0.031509455 -0.010492634
0000a0 3a c1 df bd 13 ff 19 bd 9c 74 da bd 39 3c b8 3b
       -0.10925527 -0.037596773 -0.10666773 0.0056224135
0000b0 ea f6 a2 bd 2a 91 95 3b d9 29 1b 3c 03 c2 03 bd
       -0.07957251 0.004564424 0.0094704265 -0.032167446
0000c0 4d 8a d3 3b de b2 64 3d da cd 06 bb 38 86 a5 3c
       0.0064556957 0.055834644 -0.0020569474 0.020205602
0000d0 fb b3 a2 bd b2 15 8b 3c 40 29 c5 bd 8f d9 24 3d
       -0.07944485 0.016978119 -0.096270084 0.040246543
0000e0 d7 57 c1 3c 15 4f 1e be c5 02 f8 3b 74 3f 14 3e
       0.023601456 -0.15459855 0.0075686895 0.1447733
0000f0 68 57 0d bd b0 2c 16 ba e2 24 4f 3d 5d 46 0c bd
       -0.034507185 -0.0005728705 0.050572284 -0.03424679
000100 27 d6 04 bc 5a 0b 9d bc 1c 0c 17 3b 74 bc 52 3d
       -0.0081076985 -0.019170452 0.002304799 0.051449254
000110 e4 4b 05 bd 7f 55 04 3d 5e 67 15 bd d0 84 20 bd
       -0.032543078 0.032308098 -0.03647553 -0.03918916
000120 ed 95 0c bc 8a 8a 96 bc 48 75 07 3e e2 2e 21 bc
       -0.008580667 -0.018376607 0.13228333 -0.009837838
000130 a7 1c 0f bd 2a a5 64 bd 0a e0 2c bd d8 53 91 ba
       -0.034939434 -0.055821575 -0.042205848 -0.001108761
000140 64 33 e5 bd ee 7c e6 bb 4f cb 7e 3c 6b 95 7f bc
       -0.111914426 -0.0070339357 0.015551402 -0.015599589
000150 3c ca 17 3d 42 0b 8b 3b 41 c2 03 ba b5 04 ba bb
       0.0370581 0.0042432854 -0.00050261995 -0.0056768307
000160 35 78 a4 3d b1 34 93 bc a3 79 d7 3c eb 30 7a bd
       0.0803074 -0.017969461 0.026303118 -0.061081808
000170 da 03 2f 3d 97 c7 3e 3d 5a 87 80 bc 70 92 18 bd
       0.042728283 0.046577062 -0.01568954 -0.03724903
000180 f4 8c 00 3d 59 6a 39 bb 0a 7b 18 bd d1 f7 a4 3c
       0.031384423 -0.0028292148 -0.037226714 0.0201377
000190 6a 0c d4 bc 68 fb fd bc 29 e4 a5 bc 1c 4d 8b 3d
       -0.025884826 -0.031003669 -0.020250397 0.06801817
0001a0 e4 c7 2c bc ba 6c 07 3d c4 ed 22 ba ff 6c 7c bc
       -0.0105457045 0.033062674 -0.00062152394 -0.015406846
0001b0 e5 0a 60 bb f2 b7 92 bd 8b fe 60 bc 84 09 a7 3d
       -0.003418618 -0.07163991 -0.013732563 0.08156112
0001c0 4f 85 3f 3d da db 88 3d 19 6c dd ba 04 41 4e bb
       0.046757992 0.06682558 -0.0016893178 -0.0031471858
0001d0 44 c3 d7 3b 4e 0e 8f bc eb 37 97 bc 3d 75 0c bd
       0.006584557 -0.017462876 -0.018459281 -0.034291495
0001e0 08 31 23 3c 32 61 6a bd 76 92 96 bc 33 d7 b0 3d
       0.00996042 -0.0572216 -0.018380385 0.08634796
0001f0 f8 ed fc 3c 56 17 31 3c 02 0d 1e 3c af 91 c2 bd
       0.030875191 0.010808786 0.009646656 -0.09500443
000200 3c c2 60 3d 46 56 46 3d 92 64 80 bd 82 51 07 3c
       0.054872736 0.04842212 -0.06269182 0.008259179
000210 ba 21 db bd 2f 06 32 3d 1e e6 ae bd fb fa 8e 3d
       -0.10699792 0.04346293 -0.08539985 0.069814645
000220 33 24 be 3c c8 f6 d7 3c bf 0f 8b bd 18 e2 45 bc
       0.02321062 0.026362792 -0.06790113 -0.012077831
000230 1b 0d 0d 3d c8 e1 8d bd d7 ca 2f 3e 9e 55 03 bc
       0.034436326 -0.0692783 0.17167221 -0.008016018
000240 da 77 26 bd db 9f d6 3c 68 e0 33 3d 9a 85 d4 3d
       -0.040641643 0.026199272 0.043915182 0.10377045
000250 d5 c2 3f 3c 51 b4 cf 3c 9e 15 8f 3c db 2d 5d bd
       0.011704166 0.025354536 0.017466363 -0.05399881
000260 ec aa 2a 3d e6 88 4e 3c 29 d2 12 3d 6f 76 6e bc
       0.04166691 0.012605881 0.035844956 -0.014554604
000270 e7 77 a8 3c b0 e2 db bc cf 67 29 be 06 9d df bb
       0.020564986 -0.026841491 -0.16543506 -0.0068241386
000280 cd c1 60 3d 8c 39 e6 3d 5a b1 4f bd 43 56 d7 3c
       0.054872323 0.11241445 -0.050706245 0.02628625
000290 e7 0d 2e bd d7 32 52 bd 71 6f 92 3d 25 5f c9 3d
       -0.042493727 -0.051318016 0.07150162 0.098326005
0002a0 39 2e 04 be 8b 0e ca 3c 65 20 a9 3c b0 3f 4c 3d
       -0.12908258 0.024665138 0.02064533 0.049865425
0002b0 0e d1 36 bd d4 5f eb 3c d8 85 b8 3b 90 91 3c 3d
       -0.044632964 0.028732218 0.00563119 0.046037257
0002c0 f5 6e 3c 3d f6 63 fc bc 00 11 20 bd fb 8b 65 3d
       0.046004254 -0.030809384 -0.039078712 0.0560417
0002d0 b6 ee 47 be a3 1e ba 3c 2b aa 8e bd b3 2f c6 3d
       -0.19524655 0.022719687 -0.06966051 0.09677067
0002e0 0d 44 fb bd 9e 0c 96 3b e0 20 de bd 3e 16 40 bd
       -0.12268839 0.004579141 -0.10846114 -0.04689621
0002f0 24 a6 b0 bc 56 38 d4 bc 19 ad 55 bd 8f 2c 09 3d
       -0.021563597 -0.02590577 -0.052167032 0.03348976
000300 0f 25 dc bc ed be ed bd 26 c4 73 3d 70 8c 81 3d
       -0.02687314 -0.11608682 0.059513234 0.063256145
000310 78 fc 5d 3b 33 05 41 bc c0 ab 18 3d 8f 0a bb bc
       0.0033872407 -0.011781025 0.03727317 -0.022832183
000320 c3 6c fe 3d b3 6f a7 3c 1b d2 7e bd 5b 5d 28 3e
       0.124230884 0.020439005 -0.06221209 0.16441862
000330 62 ca 2f 3b c4 2b ac bd c2 81 05 bd f7 fa 47 bb
       0.002682351 -0.08406785 -0.03259445 -0.0030514577
000340 f3 b6 3e bd 7c 03 29 3d 82 66 6a 3c 51 4c 02 bd
       -0.046561193 0.04126309 0.014306666 -0.031811062
000350 4d 48 b9 bb ba e0 4b 3d e5 62 05 be a1 0f 34 bc
       -0.005654371 0.049774863 -0.13026007 -0.010990054
000360 c0 55 8f be 70 22 98 bd 62 ec 81 3d a0 14 ed 3d
       -0.2799511 -0.074284434 0.063439146 0.115761995
000370 ca d9 31 3c 5f 16 ec 3d ca a6 ab 3b 52 5b ec bc
       0.010855148 0.115277044 0.0052383887 -0.028852139
000380 56 11 93 3d 9f 9e 2d 3d d1 39 80 3d 95 ab 66 bc
       0.07181041 0.0423876 0.062610276 -0.014078994
000390 1e 58 d8 3b d4 f7 d4 3c 77 bd a6 3b 56 59 33 be
       0.0066023013 0.02599708 0.005088504 -0.17514548
0003a0 30 4b 2c 3c d9 3e b7 3d 5a 61 83 3d 8d 2c 34 3d
       0.010515973 0.08947534 0.06415053 0.0439878
0003b0 47 ee 0b be 11 7f 0e be 0d 40 a6 bc af fb c2 3d
       -0.13665114 -0.1391566 -0.020294214 0.09520661
0003c0 ba e0 28 3e 42 03 c8 bc 87 25 e7 3b cf 2d 0e 3d
       0.16491976 -0.024415616 0.007054034 0.034711655
0003d0 ab 9e c2 bd e8 2e 03 3d 29 f3 a2 bc 08 97 f1 bc
       -0.0950292 0.032027155 -0.019891338 -0.029490963
0003e0 61 37 b4 3d 90 ca 03 3d 5d ef e9 3c 8b 59 96 bd
       0.08799625 0.0321756 0.02855652 -0.07341298
0003f0 7d b2 ac 3d 08 ba 00 bd 23 02 17 3c 1d cd 81 3a
       0.084324814 -0.031427413 0.009216818 0.0009903047

actor.2.bias f4 [128]
000000 7f ec 0e 3d aa b8 d6 3d d0 f6 20 3d fd bd c1 3b
       0.03489351 0.104844406 0.03929788 0.005912541
000010 4a 6c ee 3d b8 35 ec bc 24 dc aa 3e 6c 7b e8 bb
       0.11641748 -0.028834209 0.3337108 -0.007094791
000020 83 1a c6 bd 23 6b 85 3d 67 1a 23 be 15 42 a7 3d
       -0.096730255 0.06514575 -0.1592804 0.08166901
000030 c5 7b 0c 3d 61 54 94 3c 7b 42 96 be fa 85 9c 3d
       0.034297723 0.018106641 -0.29347596 0.076427415
000040 73 4f 28 3e 71 2d f2 bd e9 6d af 3d bf eb c2 3b
       0.16436557 -0.118250735 0.085658856 0.0059485133
000050 88 0c ee bd bb 5f 71 be ef ca ff bb 0d 21 9c bd
       -0.11623484 -0.23571675 -0.007806174 -0.076234914
000060 45 75 a2 bc 38 55 b2 bd b1 e0 f7 3d ad 33 80 3d
       -0.01983131 -0.087076604 0.12103403 0.062598564
000070 27 52 3b bd 32 0d db 3d 67 14 d6 bd 4a 05 2b 3f
       -0.045732643 0.10695876 -0.1045311 0.66804945
000080 90 93 00 bd 8a 5b 5d 3d a0 2b 1f bd d6 81 40 bc
       -0.031390727 0.054042377 -0.038859963 -0.011749705
000090 90 7f 93 3d c9 a3 16 3e c0 f9 ac be 7f 20 8a bd
       0.07202065 0.14710917 -0.33784294 -0.067444794
0000a0 76 8d 04 be 9a d5 84 be 8d ce 46 3d d6 7b f4 3e
       -0.12944588 -0.25944215 0.048536826 0.4775073
0000b0 11 69 01 3e 0d 89 a7 bc 15 02 7e bc 73 cd 85 3d
       0.12637736 -0.020451093 -0.015503426 0.06533327
0000c0 e9 b1 2a 3d ad 93 34 bd c7 24 40 3f 19 0c 36 be
       0.041673575 -0.044086147 0.7505612 -0.17778052
0000d0 fa 3b 6b 3d 0b 14 60 bc 93 ad a6 bc 94 65 0c bd
       0.057430245 -0.013676654 -0.020346439 -0.03427656
0000e0 fb 69 4b 3d b5 84 61 bd 1c 5d 0c 3e d3 59 ba 3d
       0.049661618 -0.0550582 0.13707393 0.09099164
0000f0 39 b9 08 bf f2 e5 9f 3a 6d 07 85 be 92 37 92 3d
       -0.5340763 0.0012199266 -0.25982228 0.071395054
000100 40 7b 45 be 9f 2e a1 3e 8e 0b 0d bd 2f c1 5d 3d
       -0.19285297 0.31480882 -0.034434848 0.054139312
000110 f3 af 44 3d 4b 34 3f 3d 9d 80 47 3d a4 ff 21 be
       0.04801936 0.04668073 0.04870664 -0.15820175
000120 58 ac f7 bd ea 24 d3 bd c4 35 4e be 1a 8b 3c be
       -0.12093419 -0.10309775 -0.20137697 -0.18412438
000130 a2 7e 2b be 7e ec 24 3f 06 28 68 3e 05 64 1a 3f
       -0.16747525 0.6442336 0.22671518 0.6030887
000140 e2 93 a5 3c 75 2f fd 3c 2b fa e0 3d 34 c1 5b bd
       0.020212118 0.030906418 0.10985216 -0.05365105
000150 fc dd 36 be f3 8e e3 be f9 45 5b bd 86 21 21 ba
       -0.17858118 -0.44445 -0.053533528 -0.0006146658
000160 e1 6a 4b 3e b5 d8 88 be d7 80 07 be 14 68 bc be
       0.1986499 -0.26727834 -0.13232742 -0.36798155
000170 c8 89 26 3f 4f 00 34 bd 76 ec 87 bc e6 35 dc bd
       0.6505399 -0.043945607 -0.016592246 -0.10752468
000180 27 1e b7 be 7d f8 bc 3d 6a fa a1 be 28 ee f1 3d
       -0.35765192 0.09227083 -0.31636363 0.11813003
000190 22 1b ad 3d f1 08 f6 3e da 1a 3d 3f af ef ac 3c
       0.08452441 0.48053697 0.738691 0.021110384
0001a0 ff 36 2b bd 62 af 53 bd 5a 37 a3 3e 8f 9e a2 3e
       -0.041800495 -0.05168093 0.31878167 0.31761596
0001b0 5a ff 84 3c 84 3e eb be f5 8b fd 3c 4e b8 94 bc
       0.016235042 -0.45946133 0.030950526 -0.01815429
0001c0 a3 35 db 3e de a7 d5 be 61 91 25 bd c8 ba fd be
       0.4281436 -0.41729635 -0.040421847 -0.49556565
0001d0 1d 41 12 3e 04 3d 1f 3d 56 94 13 bf 66 52 de 3b
       0.14282651 0.03887655 -0.5764822 0.006784725
0001e0 69 d5 ae bd 98 14 86 bb bb 57 30 be f9 4d aa 3d
       -0.085367985 -0.0040918104 -0.17220967 0.08315653
0001f0 27 d2 32 3f 59 ad 18 be 75 26 83 3c 0a 07 08 bd
       0.6985192 -0.14909877 0.016009549 -0.033209838

actor.4.weight f4 [4, 128]
000000 05 80 b9 bb 1e 31 3a 3c 59 af 91 bc 23 3c 81 bb
       -0.005661013 0.0113642495 -0.017783808 -0.0039439364
000010 e4 62 aa bb 8d 43 de bb 20 f3 0f bb b0 2f fd ba
       -0.005199777 -0.006782955 -0.0021964982 -0.001931658
000020 ea af 0d 3c 87 98 2b 3b 36 bf 06 be 58 b1 e2 bc
       0.008647898 0.0026183443 -0.13158879 -0.027672455
000030 64 53 d8 38 26 55 c0 ba e9 dd 2f bd 09 cb e7 3a
       0.00010315215 -0.0014673814 -0.04293624 0.001768441
000040 b4 26 f6 be ee cf 55 bb ef b5 21 b8 b3 ed cf 3c
       -0.48076403 -0.0032625156 -3.855483e-05 0.025381899
000050 15 3d 8a bb d8 a3 d9 3d 89 da 49 ba b3 8d 6d bc
       -0.0042187073 0.10626954 -0.0007700106 -0.014499116
000060 08 47 55 3c cd 11 92 bb 7e 01 55 bc be 76 b5 3b
       0.013017423 -0.0044576884 -0.013000844 0.005537837
000070 6f 8f 5c bb 54 9b a0 3d ab ad aa 3a 8a 80 d8 3d
       -0.003365483 0.078421265 0.0013021728 0.10571392
000080 32 7b 45 be 30 9c 80 bd 98 5f 0b bc 39 de 33 ba
       -0.19285277 -0.062797904 -0.008506678 -0.0006861422
000090 1e 54 76 3b c6 37 5f 3d f0 33 a9 3d cc be 81 be
       0.003758676 0.05449655 0.082618594 -0.2534088
0000a0 8d 49 65 3d 7b 7d a4 be a5 0a dc 3a a4 bf 07 bd
       0.055978347 -0.32126984 0.001678784 -0.033141747
0000b0 05 3a 07 3e 94 20 d0 ba ab 4b 4e bc 70 21 28 bb
       0.13205726 -0.001587885 -0.012591283 -0.0025654696
0000c0 24 f3 d1 3b 91 f4 f4 3b 12 97 ec 3e 7c d4 2d bc
       0.0064071584 0.0074754437 0.46209008 -0.010609742
0000d0 d3 2d 02 3c 37 d7 52 3a 88 da 47 bd a7 a2 a8 bb
       0.007945496 0.0008042934 -0.048792392 -0.005146343
0000e0 32 a0 20 bd a2 18 7f bb 4c 62 d9 3d 86 96 ea 3b
       -0.039215274 -0.0038924594 0.10614452 0.007159057
0000f0 66 ae 9d 3d a5 c0 cd 3a 34 3d 69 3d d4 c8 44 bc
       0.076992795 0.0015697671 0.056943133 -0.012010772
000100 3f a5 53 be 42 49 f7 3c 39 20 d0 3a 1f 35 86 3c
       -0.20668505 0.0301863 0.0015878744 0.016382752
000110 18 87 93 3a da 2a 3f bb b2 bd 84 ba 75 49 5a bc
       0.0011255471 -0.0029169829 -0.0010127334 -0.013323178
000120 83 99 81 3b 72 bf 95 bd b1 80 b1 3d d7 6e e8 bd
       0.0039550676 -0.07311906 0.08667124 -0.11349266
000130 f5 9c 8b be a2 8d 38 3f 2a f8 f0 3c 5b e2 06 be
       -0.27268186 0.72091115 0.029415209 -0.13172285
000140 1c b2 21 bd 8d 36 f6 ba 9f f3 4d bc c7 42 0b bd
       -0.0394765 -0.0018784568 -0.012570291 -0.03399923
000150 02 46 25 bd 33 f7 21 be 19 81 4f bb 08 b5 76 bd
       -0.040349968 -0.15816955 -0.0031662642 -0.06023124
000160 8a f2 a6 3e 54 61 93 bb b0 cb 76 3b d3 f3 64 be
       0.32606918 -0.0044976864 0.0037658028 -0.22358637
000170 27 73 6e bd ca 78 68 bc f5 c6 74 3c d3 e0 67 3a
       -0.058215287 -0.014188955 0.014940013 0.0008845452
000180 af da 0a be d2 0b 07 bc b5 4a 8d be b1 5b c9 bb
       -0.13559984 -0.008242564 -0.2759606 -0.0061449637
000190 54 49 85 3b 98 83 4f be 32 c4 7d be c4 6c d0 3b
       0.0040675793 -0.20265043 -0.24781874 0.006360622
0001a0 93 89 78 3c 40 50 35 3b 48 25 ee bc 23 c2 fe 3b
       0.015169519 0.002766624 -0.029070511 0.0077746077
0001b0 9b 94 70 3b b4 bd 3a 3d e1 8f 74 3b 76 aa f2 bb
       0.003670967 0.04559107 0.0037317204 -0.0074055744
0001c0 61 b2 67 3e e2 51 af bd 0c ae ab 3a 30 01 16 bd
       0.2262664 -0.0856054 0.0013098135 -0.036622226
0001d0 ca 4b 19 3d 9b 97 67 3a ba dd b4 be 5b 62 fb 3b
       0.037425794 0.00088345417 -0.35325414 0.007671637
0001e0 26 36 43 bb 94 17 0a 3c 6c 71 96 bd a9 48 d6 3b
       -0.0029786914 0.008428473 -0.07345852 0.0065394235
0001f0 05 2f 20 bd 81 cd 73 bd fe f5 dc b9 54 21 4c 3c
       -0.03910734 -0.059522156 -0.00042144948 0.012459118
000200 92 1a 04 3a 1c b6 f9 b9 eb e5 bb 38 79 58 7d ba
       0.00050393597 -0.00047628663 8.9596804e-05 -0.00096643675
000210 12 f4 5a ba a4 c5 1e 3a c2 95 12 3d b4 8a ad 39
       -0.00083524093 0.00060566724 0.03578735 0.00033100473
000220 5e ca 40 3a d1 78 9c ba cb 98 15 bc 84 5b c8 3c
       0.0007354374 -0.0011937862 -0.009130667 0.0244577
000230 5f 73 8b 38 c5 01 ae ba 89 84 ce bc 1b 84 c5 3a
       6.649526e-05 -0.0013275674 -0.025209682 0.0015069278
000240 02 cb d9 3c 50 dd 62 39 a4 91 8d 36 11 1a d9 3a
       0.02658606 0.00021635485 4.2190823e-06 0.0016563555
000250 71 24 ae 3a 68 a9 49 bc 49 26 87 b9 c4 01 66 3a
       0.0013286007 -0.012308456 -0.0002577773 0.0008774067
000260 73 cd 80 b9 33 5c 37 ba 01 d2 f9 39 d4 33 cc b9
       -0.00024567134 -0.0006994635 0.00047649446 -0.00038948527
000270 4d 8b 02 3a 87 7e 80 3d ed ea 94 3a e7 e9 d5 3e
       0.0004979864 0.06274133 0.0011361517 0.41780016
000280 f6 5c 0b 3b 63 5b 25 ba c6 63 a1 39 ee aa 04 39
       0.0021265126 -0.0006307868 0.0003078265 0.00012652177
000290 50 40 b4 3a 4a cc 2c bc 95 7c b2 3b fa aa 7d 3c
       0.0013752077 -0.010546753 0.0054469802 0.0154826585
0002a0 57 c3 77 3d 70 a9 89 3b d1 4c ac 39 5b 12 9c bd
       0.060489025 0.0042011067 0.0003286363 -0.076206885
0002b0 0f 97 9a bb d1 06 24 3a 6f 32 4d b9 1a 61 bb 3a
       -0.0047177146 0.0006257119 -0.00019569111 0.0014295906
0002c0 76 5e 4e 39 d0 71 6f 39 5e 84 39 3c ff a3 59 bc
       0.0001968088 0.00022835215 0.011323063 -0.013283729
0002d0 f1 b6 38 ba 88 75 2c ba 6b 2b 79 bb 35 77 3e 39
       -0.00070463034 -0.0006578793 -0.0038020264 0.0001816422
0002e0 0f 09 ba bb f6 8f 1f bd ce 6e 82 bd db e2 3f 3a
       -0.0056773494 -0.03895565 -0.063687906 0.0007319876
0002f0 7d d1 9d 3b 27 43 bb 3a 75 b3 f0 bb 76 b4 c0 39
       0.0048162327 0.0014286981 -0.0073456117 0.00036755548
000300 1c 86 43 bd e3 78 33 3d eb dc 08 3a 9b 18 d4 38
       -0.04773532 0.04381646 0.00052209076 0.00010113531
000310 9d 17 bc b9 28 97 ea 39 77 37 48 ba de d5 83 39
       -0.00035875748 0.00044744578 -0.00076376594 0.0002514561
000320 31 a2 ed 39 45 77 f9 bc 04 d1 73 bd c5 7f 19 ba
       0.00045325005 -0.03045238 -0.059525505 -0.0005855526
000330 68 e9 24 bd 05 15 42 3d 37 ac f0 3c e8 2a 12 3c
       -0.040261656 0.047383327 0.029378993 0.008921362
000340 c4 e3 c5 bc 44 cc 66 39 95 42 98 ba 09 b8 a5 3c
       -0.024156459 0.00022010604 -0.0011616523 0.020229356
000350 9a 5d 5c 3d 38 f7 40 3b 29 7a 32 b7 fa cc c9 bb
       0.053800203 0.002944423 -1.0638069e-05 -0.0061584683
000360 3e cd aa 3c 5c 58 9a 3d 9c 38 1b ba cc ce 98 ba
       0.02084982 0.075363845 -0.0005921216 -0.001165831
000370 ac 94 84 bd 1e 9b 98 3a 09 fd 90 3a 6e 11 78 ba
       -0.064736694 0.0011642908 0.0011061738 -0.00094630464
000380 9c b2 51 ba 9f fd 30 39 6f e0 3d bd be eb 5c ba
       -0.0007999332 0.00016879149 -0.046356615 -0.00084274623
000390 b3 a5 98 b8 cd 9b 7b 3d 6d 78 61 bd 61 4e 5e 3a
       -7.278789e-05 0.06142788 -0.055046488 0.00084803073
0003a0 33 0c 1f 39 3c 90 86 b9 3a ce 18 bd 49 f4 25 3c
       0.00015167966 -0.00025665935 -0.037306048 0.010129043
0003b0 61 7b 4e 38 dc 32 ed bd 1f 47 60 ba db 3f ee b9
       4.9229133e-05 -0.11581966 -0.000855552 -0.00045442473
0003c0 ca eb c2 3d 8d fa 70 3d fc 51 70 39 d4 7d ad 3c
       0.095176294 0.058832694 0.00022918725 0.021178164
0003d0 6f a1 17 3d f3 80 94 39 17 51 de 3c 06 63 21 ba
       0.03701919 0.00028324834 0.027138276 -0.0006156418
0003e0 15 2f 19 3a ea e9 ce 38 aa c9 9c bd 7a b8 01 bc
       0.00058435026 9.866415e-05 -0.07655652 -0.007917518
0003f0 b1 c4 61 3c 9d 3a 10 bd 9d 12 2f 3a 17 6c f3 b9
       0.013779805 -0.035212148 0.0006678494 -0.00046429105

actor.4.bias f4 [4]
000000 d7 48 b4 3e be e2 06 3f b0 e8 0c 3f 5e f8 16 3f
       0.35211822 0.5268973 0.5504255 0.5897273

critic.0.weight f4 [128, 17]
000000 ac 22 41 bf 65 26 f0 3e b0 b6 75 be 0f 0d 66 bf
       -0.7544353 0.46904293 -0.23995471 -0.89863676
000010 6c 9a 36 c0 01 28 01 3f bd 3e 52 c0 c3 bf 38 3f
       -2.8531752 0.50451666 -3.2850792 0.72167605
000020 17 e4 c1 bf 1e 43 f1 3d a5 36 d6 3f 30 42 ff 40
       -1.5147732 0.1178038 1.6735426 7.9768295
000030 fb 45 3e 3f 23 c7 e5 be 5f d1 42 be 73 9c 87 be
       0.7432553 -0.44878492 -0.19025181 -0.2648655
000040 76 db d5 bd da cd 48 3c 77 07 23 40 97 08 a7 40
       -0.104422495 0.01225611 2.5473306 5.2197986
000050 21 e2 f0 be aa b9 0c 40 1a 4c b8 3d 2a 46 6c 40
       -0.47047523 2.198832 0.0899889 3.6917825
000060 1c a3 00 40 bd 53 e0 3f 64 38 b7 be 54 cc ff bf
       2.0099554 1.7525555 -0.3578521 -1.9984231
000070 0a c9 96 3e fa 75 19 3f f3 8a 60 3e e0 24 2d 3f
       0.29450256 0.5994564 0.21928005 0.6763439
000080 23 c6 60 3e ca 1c 7c 3e b4 e0 14 40 56 c6 2b bd
       0.21950583 0.24620357 2.3262148 -0.041937195
000090 c3 3a 47 40 c7 08 15 3f ff 81 2f 40 24 c8 6e c0
       3.1129615 0.5821652 2.7423093 -3.7309656
0000a0 64 eb 45 3f 10 ee 86 bc 5c 73 a3 bf a8 15 df 3f
       0.773123 -0.016470939 -1.276958 1.7428484
0000b0 b6 6f 30 bf 52 bd 21 3f 7d ef d9 3e 47 b0 5e be
       -0.6892046 0.63179505 0.42565528 -0.21746932
0000c0 86 de ce bd f2 6b a7 be cf c7 27 bf eb 45 83 40
       -0.10101037 -0.32699543 -0.6553926 4.102285
0000d0 eb 4d d7 3e e3 d8 9a bf 47 46 eb 3d 4e 9d 8f 40
       0.42051634 -1.2097439 0.11488014 4.487952
0000e0 72 8e 0a bf 1f d2 9e bd ef 95 85 bf 6e 06 33 c0
       -0.54123604 -0.07754921 -1.0436381 -2.7972674
0000f0 4c e4 3b 3f f2 7a a8 3e b6 b2 5b be d0 2c 4d bc
       0.7339523 0.329063 -0.21454892 -0.012522891
000100 80 43 49 bd 18 66 c2 3b a6 e0 62 be 87 42 d3 3c
       -0.04913664 0.0059325807 -0.22156009 0.025788559
000110 2d 91 8d c0 fb 89 80 3d 82 27 7e 40 f8 5f 23 bc
       -4.4239717 0.06276318 3.9711614 -0.009971611
000120 5a c3 58 c0 f0 93 37 3f 05 fd ce 3f c3 2e 37 3f
       -3.3869233 0.7171011 1.6170965 0.7155573
000130 d0 3a 24 be b3 5f 07 3f 9e 9a e2 bd 4a 25 78 3e
       -0.1603806 0.528804 -0.11064647 0.24232975
000140 00 5c 2f 3f df ba 7f 3e 14 1f b5 3e e8 44 81 3e
       0.68499756 0.2497363 0.35375273 0.25247884
000150 50 df 5a 3d 2f 1e 0a c0 8c 0e 9f 3f 5f f6 36 40
       0.053435624 -2.1580923 1.2426314 2.8587873
000160 58 0f ff 3e 17 34 99 3f d1 fd 75 c0 83 b2 fc bf
       0.49816394 1.1969022 -3.8436167 -1.9741977
000170 39 e0 0a 40 64 86 21 be e7 7a ab 3f bf 0e cd 3e
       2.1699355 -0.15773922 1.3396882 0.40050313
000180 83 82 75 be 91 8f 8b 3f 68 12 c9 3e ef 9b c6 3e
       -0.23975568 1.0903188 0.39271855 0.38790843
000190 49 e0 9a 3e 53 5b 2e 3d b1 c4 a9 40 5d b9 8e 40
       0.3024924 0.042567562 5.30526 4.4601274
0001a0 d6 d5 ca bf 13 78 b4 be 89 00 da bd 5a 9f d8 3f
       -1.5846508 -0.3524786 -0.10644633 1.692363
0001b0 5f 06 69 bd c5 bd b3 be 1b 0e 75 be 2d 9e 42 3e
       -0.05689084 -0.3510572 -0.23931162 0.19005652
0001c0 68 6e 73 bd 15 e3 5e ba c1 63 0f be d6 83 db bd
       -0.059431463 -0.0008502466 -0.14002897 -0.10718505
0001d0 49 d9 17 be df c0 d2 bd 1d 70 b1 3c 39 ad f3 bf
       -0.14828981 -0.102906935 0.021659905 -1.9037238
0001e0 a6 96 30 c0 7b aa 81 3f 5f 89 68 be f5 5f 31 c0
       -2.7591949 1.0130152 -0.22708653 -2.7714818
0001f0 75 a6 33 c0 1a c1 73 c0 dd 81 bd bf 43 05 37 3f
       -2.8070347 -3.808661 -1.4805256 0.71492404
000200 b4 39 b6 bf eb a9 31 40 d1 c9 17 40 2d f8 3e 3f
       -1.423636 2.775996 2.371693 0.74597436
000210 2e 8e b7 3d 7f ec 84 be 08 e6 91 3e 66 f4 ab 3e
       0.089626655 -0.25961682 0.28495812 0.335849
000220 d7 94 ff 3e ee 98 18 c0 f7 d6 05 c0 8f 2c 1f 3f
       0.49918243 -2.384334 -2.0912454 0.62177366
000230 77 27 0c c0 6a 54 e7 3f 5d eb b4 3f e2 a9 45 3f
       -2.1899087 1.8072636 1.4134327 0.77212346
000240 2a 91 2f bf 7e 50 5f 3f 89 ec 82 40 7a 69 80 3e
       -0.6858088 0.87232196 4.091374 0.25080472
000250 21 f3 60 bf c9 5d 21 bd 25 97 bc be d2 8f 92 be
       -0.87870985 -0.03939608 -0.36834064 -0.2862535
000260 f8 8c fa bd 60 e1 3c 41 bf 92 79 be 96 af 14 c0
       -0.12233919 11.805023 -0.24372385 -2.323217
000270 b0 28 7d 3e b1 7c a1 3f 3f f0 21 40 a3 f2 69 3f
       0.24722552 1.2616178 2.5302885 0.9138586
000280 c7 6f 1c bf 2f 59 47 3e 6e 15 db be d6 c8 c2 3c
       -0.6110806 0.19467615 -0.42789787 0.023777407
000290 a5 b7 27 be 46 34 af 3d 10 37 12 bd 8f db 16 3e
       -0.16378649 0.08554892 -0.035697043 0.14732192
0002a0 32 80 c9 3c 85 d9 b4 bd 7a b4 2d bd 52 04 17 c0
       0.024597261 -0.08830551 -0.042408444 -2.3596387
0002b0 5e 72 9c bf c3 1a a3 be 26 2a f3 3f 8b ca 6e bf
       -1.2222402 -0.31856355 1.8997238 -0.93277806
0002c0 bd 2e 99 c0 25 68 3c 3f 0e 44 ea 3f b1 45 94 bf
       -4.7869554 0.7359641 1.8302019 -1.1583768
0002d0 72 50 70 be 2a 7c 31 3e 27 36 bf bc c4 ff 9a bc
       -0.23468187 0.17332521 -0.023341252 -0.018920787
0002e0 11 af 57 be 9b 1b 7c 3d 08 fc 2f 3c 9e b2 3a c0
       -0.21062876 0.061549764 0.010741241 -2.917152
0002f0 4d 9e 6b be 50 96 ef c0 58 66 3c bf 5e cf 0f bf
       -0.23009606 -7.4870987 -0.73593664 -0.5617579
000300 80 b3 18 bf b6 a6 7c 40 42 bb 3b 3d f5 e5 fc 3e
       -0.59648895 3.9476752 0.04583288 0.49394193
000310 24 42 94 be 23 0c d5 3e 14 df 9b bd fe 40 47 3d
       -0.2895671 0.41610822 -0.07610908 0.048645966
000320 9a 46 b5 bd 10 a9 56 be 86 bb 85 be f7 ae 05 be
       -0.08851357 -0.2096293 -0.26119632 -0.13055025
000330 cd 12 20 be e1 89 d5 be 7c 54 10 40 38 86 71 bf
       -0.15632172 -0.41706756 2.2551565 -0.94345427
000340 55 53 ff 3f 41 6f be bf bd 21 2e 40 00 36 f6 bf
       1.9947306 -1.4877702 2.7208092 -1.923523
000350 e6 4f 9c 3f a3 41 1d 3e 14 f8 60 be 04 25 7a 3d
       1.2211883 0.1535707 -0.21969634 0.061070457
000360 7a c2 4f be 6d d1 fb be d5 fb 19 bf 00 55 97 be
       -0.2028903 -0.49183217 -0.6014989 -0.29557037
000370 61 7b 60 be 62 05 07 40 6e 3d 22 3f 94 0e 95 bf
       -0.21922065 2.1097035 0.63374984 -1.1645074
000380 f5 f8 a0 bf 0d 8e 5a 3d 3f af 0f 40 a2 01 03 c0
       -1.2575976 0.053358126 2.2450712 -2.0469747
000390 fe 77 21 3f 2d 9f 08 bf be b0 1e bb be 99 ee bd
       0.6307372 -0.5336788 -0.0024214233 -0.11650418
0003a0 69 37 10 3e 18 15 61 be 9d 37 11 3d e9 09 0e 3b
       0.14083637 -0.21980703 0.035453428 0.0021673387
0003b0 90 63 b2 3d 84 9f 9b bd 85 bb f0 3e c6 39 7b 40
       0.08710396 -0.075987846 0.47018066 3.9254012
0003c0 9b 53 67 c0 d1 87 21 ba 95 7b 97 be 7b 7b e5 be
       -3.6144779 -0.0006161901 -0.29586473 -0.4482077
0003d0 9d ca af be f5 cd 16 c0 8d d8 ef bf 94 d6 89 bf
       -0.3433427 -2.3563206 -1.8737961 -1.0768609
0003e0 6c 86 fc bf 30 78 3f 3f 84 c0 2b 3e 1a b0 bc be
       -1.9728522 0.74792767 0.16772658 -0.36853105
0003f0 97 6f 82 be fe 8c 01 bf 88 66 1b bf 2a e0 18 bd
       -0.2547576 -0.5060576 -0.60703325 -0.037323155

critic.0.bias f4 [128]
000000 33 d0 40 bf aa 0c 07 bd b2 db e6 3e 6d c0 99 bd
       -0.75317687 -0.03297106 0.4508949 -0.075074054
000010 9e 3d 9e 3e 89 ef d6 3e 90 7a 9d 3e b4 99 0a bf
       0.30906385 0.41979626 0.3075757 -0.5414078
000020 48 ce 9c 3d 79 c2 41 3e 26 94 ce be 20 5f 1f bf
       0.076565325 0.18921842 -0.40347403 -0.62254524
000030 5a ba 31 bf 63 a7 e5 be 9c 5f 0f bd 9b 51 f6 3e
       -0.69424975 -0.44854268 -0.03500329 0.48109135
000040 4b c1 0f bf c3 53 31 3e fc 11 81 bf 4d f5 50 bf
       -0.56154317 0.17317109 -1.0083613 -0.816243
000050 0e 32 1a bf 06 9b 02 bf 3c ab 58 3f a4 3d 5b 3e
       -0.6023263 -0.51017797 0.8463628 0.21410233
000060 c0 25 19 bf ea 9a d8 bd 9f 6e 12 3f f0 57 99 3e
       -0.59823227 -0.105764225 0.57200044 0.29949903
000070 f3 4b 5f 38 57 4d a0 be 61 c5 7f 3f c8 10 4a 3e
       5.3238076e-05 -0.31309006 0.9991055 0.19732964
000080 db 5e a5 3f 2d d5 62 bd c2 f3 8c be 29 76 10 bf
       1.2919573 -0.05537908 -0.27529722 -0.564303
000090 e5 04 04 bf 94 a0 14 3e e9 2e c9 be b4 89 1b bf
       -0.5156997 0.1451438 -0.39293602 -0.60756993
0000a0 3b c6 97 be 35 87 61 bf 97 31 46 bc aa 0d c6 3d
       -0.29643425 -0.88096935 -0.012096784 0.09670575
0000b0 a4 c8 87 be aa ec 0a 3f d7 8d bb 3e a7 f1 63 3e
       -0.26520264 0.5426737 0.36631653 0.22260152
0000c0 97 4e a6 be 60 a2 de be c7 e0 14 3f 4a 18 00 3f
       -0.32481834 -0.43483257 0.58155483 0.5003706
0000d0 8f 4b 7c 3e 47 57 98 3e ba 59 05 3f 06 ca ed 3e
       0.24638198 0.29754087 0.52090037 0.46443194
0000e0 80 fa 91 3e b3 b8 13 3e bc 43 3c bd 15 d3 ff bd
       0.2851143 0.14425926 -0.045963034 -0.124914326
0000f0 2c 31 23 3f e4 31 8f be 30 2e 10 bf 9b a7 44 3f
       0.63746905 -0.2796775 -0.56320477 0.76818246
000100 0f 92 00 3f a9 c9 83 3e 7e 0f 82 bf 8b 93 07 bf
       0.5022287 0.25739792 -1.0160978 -0.5295951
000110 8a 83 fe 3d 5d 72 3e be 6c d9 b6 be a7 59 88 be
       0.12427433 -0.18598314 -0.35712755 -0.266309
000120 d0 c3 13 3f 16 2f 38 be 0a 31 3c 3e b8 37 89 bf
       0.5772066 -0.17986712 0.18378082 -1.0720129
000130 49 62 50 bf 44 63 66 3e b6 ea 00 3e fd dd 27 3f
       -0.8139997 0.22498804 0.12589535 0.655731
000140 cf 2b a0 3e 5a 79 b5 bb 13 ed 21 3f 9c c8 a2 3d
       0.31283423 -0.005538148 0.6325237 0.079484195
000150 04 d3 2c 3f c0 73 b9 be d6 55 99 bf 4d 9b b5 be
       0.67509484 -0.36221123 -1.197932 -0.35470048
000160 0b 28 0d be 70 84 8d 3f 8d d2 a8 3e ba 27 e2 be
       -0.13784806 1.1056042 0.32973137 -0.44170934
000170 bf 7c e2 3e 02 f3 62 be 9c 63 37 3f 2e 58 fd 3e
       0.442358 -0.22163013 0.71636367 0.49481338
000180 17 44 81 be c9 5d 35 3f 78 7e 6c 3e 03 23 99 3e
       -0.2524726 0.7084623 0.23095119 0.29909524
000190 ce bf 07 3e 72 74 ee bc 75 70 4c 3e 7e f4 db 3e
       0.13256761 -0.02910826 0.19964774 0.4295997
0001a0 5a 1d 2b 3f 93 76 25 be e4 7d 06 bf b9 20 df 3d
       0.6684166 -0.16158514 -0.52535844 0.10894913
0001b0 cf e3 af be 47 bf ef 3e 50 bd 42 3f e0 ef 07 3f
       -0.34353492 0.4682562 0.7607012 0.53100395
0001c0 59 e2 90 3c b9 e5 3e 3d 21 8e 33 bd c2 65 a0 bd
       0.017686056 0.0466058 -0.043836717 -0.07831909
0001d0 0e 4d 4d be 0d 40 0f bf 0e a0 2d bd 7f 22 da be
       -0.20048925 -0.5595711 -0.04238897 -0.42604443
0001e0 39 40 34 be 68 31 0a bf 54 b3 f0 bd c8 62 1d 3f
       -0.17602624 -0.5398164 -0.11752954 0.61478853
0001f0 05 b1 22 3b fb 81 da 3e 2c 11 5f 3e 23 37 6d bf
       0.002482475 0.42677292 0.21783894 -0.92662257

critic.2.weight f4 [128, 128]
000000 17 e6 1d bf e7 92 01 be 7e f5 03 3f 48 f2 a2 3f
       -0.61679214 -0.12653695 0.51546466 1.2730188
000010 ed c7 5d 3f b7 d6 1d bf 64 52 2c 3d a0 61 c7 be
       0.8663319 -0.61655754 0.04207076 -0.3894167
000020 89 ef 90 3e ec 66 f6 bc 71 3a 7d 3d 3f 27 68 be
       0.2830775 -0.030078374 0.061823312 -0.22671221
000030 11 86 51 3e af 42 87 bd 03 f9 2f 3f c0 be ca 3f
       0.20461299 -0.06604516 0.68739337 1.5839462
000040 85 20 02 3f 7c 1a 77 bf 65 3c 6a bf 9f 28 a7 3f
       0.5083087 -0.96524787 -0.91498405 1.3059272
000050 8c 05 0e be 36 2e 6a 3f ed be 3a 3f f0 88 a5 3e
       -0.13869303 0.9147676 0.7294758 0.32331038
000060 14 28 07 3f 16 e5 19 c0 b4 7e 8e be bc ce 6b 3e
       0.5279553 -2.4046073 -0.27831042 0.23028082
000070 ad c4 eb bf ee 56 e9 bf c3 8f 4f 3d bc 65 30 be
       -1.8419396 -1.8229654 0.05067421 -0.17226309
000080 12 61 e3 3f 2d c3 09 bf 04 52 34 3f a4 87 69 3d
       1.7763999 -0.5381344 0.70437646 0.057014123
000090 3d e1 86 bf b7 5c 1f 3f 56 46 95 3f e6 1d 75 be
       -1.0537487 0.62250847 1.166209 -0.23937187
0000a0 44 d0 02 bf ff 2d e8 be 98 51 2e 3e db 55 94 3e
       -0.5109904 -0.45347592 0.17023313 0.28971753
0000b0 26 25 76 bf 64 8e af bf 25 d9 50 3f f0 c2 86 3f
       -0.96150434 -1.3715329 0.81581336 1.052824
0000c0 bc b2 73 be df 9e e5 bf aa 87 f5 be 38 2e 4a 3f
       -0.2379865 -1.7939109 -0.47955066 0.78976774
0000d0 c6 03 95 3f 66 3d 0e be 52 f1 35 bf 47 87 35 3f
       1.1641777 -0.13890609 -0.7107135 0.7090954
0000e0 db ab c6 3e ab 13 89 bf 25 d8 a6 bf 79 4a 85 3e
       0.3880299 -1.0709127 -1.3034712 0.2603338
0000f0 fe d0 ab bd ad e0 7a 3f d5 cd f4 3e 93 a1 6d 3f
       -0.083894715 0.9799908 0.47813287 0.9282467
000100 6f 36 a3 3e b1 e2 87 3c e3 8a e8 3d e3 6d d0 3f
       0.31877467 0.016587587 0.113546155 1.6283535
000110 fc d6 d2 3f 11 11 24 3e 98 bd 5c bc de 8a af be
       1.6471858 0.16022135 -0.013472937 -0.34285635
000120 8b a1 4e 3f 62 2a 62 be 39 b9 d0 be 53 ab 81 bf
       0.80715245 -0.2208648 -0.40766314 -1.0130409
000130 88 27 0e bf 81 27 51 3c 51 07 15 40 38 84 c1 bf
       -0.5552907 0.012765766 2.3285716 -1.5118475
000140 94 09 c1 3c 41 d4 9e 3e b0 99 c9 bf 52 cf 59 3e
       0.023564138 0.31021312 -1.5750027 0.21270493
000150 74 95 df 3e 69 d6 1b 3f e6 10 ea bd 2a a8 18 3f
       0.4366871 0.6087404 -0.11429004 0.596316
000160 a4 8a 3f bf 4c d3 e3 be 61 36 1e bf 3d b7 4e be
       -0.74820924 -0.44497144 -0.61801726 -0.20187087
000170 11 b8 f3 be 40 20 e9 be e4 cc b0 3e ff c7 93 bf
       -0.4760137 -0.45532417 0.3453132 -1.1545409
000180 d7 c3 80 be 39 51 27 be e1 08 a5 bc c4 ac 91 3e
       -0.25149414 -0.16339578 -0.020145835 0.28452122
000190 3e b4 a8 bf 90 e7 ac 3f f3 72 4f bf 1d 33 8b bd
       -1.3180006 1.3508167 -0.81034774 -0.067968585
0001a0 86 b2 a5 bf 31 bf b2 3d d6 df 38 be 6c dd 06 3f
       -1.2945106 0.08727873 -0.18054137 0.5268161
0001b0 33 43 f7 be a8 d8 60 bf e7 11 98 3f 5d c0 42 bf
       -0.48293456 -0.8783059 1.1880463 -0.76074773
0001c0 7b 09 96 bf fb fc 98 3e fb 2e e8 be 98 2a db 3f
       -1.1721643 0.2988051 -0.45348343 1.7122374
0001d0 10 f1 d9 3f a5 d4 4a c0 97 1b df bf 30 8a 21 bf
       1.7026691 -3.1692288 -1.7430295 -0.6310148
0001e0 b6 a9 98 3f 3b 39 90 bf f2 d5 3e 3e e3 b2 b8 bf
       1.1926792 -1.1267465 0.18636301 -1.4429592
0001f0 f3 f2 af bd 79 20 7b bf 69 91 80 3f 92 e7 cf be
       -0.08591261 -0.98096424 1.0044376 -0.40606362
000200 ea 20 d1 3f c5 14 45 bb d3 48 5e be ba e4 56 bf
       1.633817 -0.0030072194 -0.21707468 -0.8394276
000210 51 a8 4f 3f 31 0e a8 be 92 f9 b5 be 72 30 87 3f
       0.81116205 -0.32823327 -0.3554197 1.0561659
000220 1c 96 1b be 1e a4 88 3e b2 9e b8 bf 89 6e 53 3f
       -0.15193981 0.2668771 -1.442343 0.8259054
000230 87 59 b1 be ee 89 a3 be 18 63 a4 3f 88 01 f1 3e
       -0.34638616 -0.3194117 1.2842741 0.4707148
000240 58 f9 83 3f a2 de 52 3f a8 ea 93 be c4 13 b9 3f
       1.0310469 0.8237096 -0.28889966 1.4459157
000250 4a 92 72 3f 11 53 8e bf 2a da 5e 3d 7e 9b 3e 3e
       0.9475447 -1.11191 0.054407276 0.18614003
000260 98 b8 7b 3f f8 03 48 3d 69 5e 00 bf 1a e5 33 3f
       0.9832854 0.04883191 -0.5014406 0.70271456
000270 82 f6 74 3e 93 eb 6e bf 09 1b 92 3e b6 c1 c5 3f
       0.2392216 -0.9332821 0.2853625 1.5449741
000280 83 47 79 bf f7 cf 3c be 4c 9a d3 3f 98 b3 29 3f
       -0.97374743 -0.18438707 1.6531463 0.66289663
000290 54 8e 93 bf 4e 1d ea 3f cc 85 b5 3f 5d dd ab 3f
       -1.152781 1.8290193 1.4181457 1.342693
0002a0 d2 d1 03 bf ac ef e8 bf 21 8d ff 3f dc 1a f2 be
       -0.51492035 -1.8198142 1.9964944 -0.47286117
0002b0 a9 94 04 bf 09 bf 68 3f 7f a1 bc 3f dc 12 6f bd
       -0.5178934 0.90916497 1.4736785 -0.058367595
0002c0 58 e3 01 bf fb 61 5f 3e d5 3e 6a 3d a6 ed 2a 40
       -0.50737524 0.2181472 0.057188828 2.670755
0002d0 c7 c7 07 3f 04 84 44 bf c6 4f 6c 3f 3a 9a 31 40
       0.5303921 -0.7676394 0.92309225 2.7750382
0002e0 48 85 95 be a6 95 38 bf 0d fb a3 3e d4 f2 15 be
       -0.29203248 -0.72103345 0.32027474 -0.14643413
0002f0 44 ec 5e 3f 62 d0 98 3f 41 6f 2a 3f 62 0f 74 3f
       0.8707926 1.1938593 0.6657601 0.9533597
000300 cf 6e 82 be 32 ed c8 3e 8d c7 5b 3f 58 d5 96 3f
       -0.25475165 0.39243466 0.85851365 1.1783857
000310 ae dc 12 40 58 5c 55 bf a7 af 87 3f 25 60 ca be
       2.2947192 -0.8334403 1.060048 -0.39526477
000320 7d 1e c2 bf e9 c9 78 3e 5b a3 67 bf 65 db 11 40
       -1.5165554 0.24295773 -0.90483636 2.2790158
000330 d3 9f 68 bf 22 f0 93 bd 32 23 22 40 47 bf b1 3d
       -0.9086887 -0.07223536 2.5333982 0.086790614
000340 cd 30 a6 be c1 aa f9 3e 2f cb e2 bf 34 92 e3 bf
       -0.32459107 0.48763087 -1.7718257 -1.7778993
000350 b5 c3 a0 3e 9f ac cc 3e 0a 78 15 be 5b 8d f7 3f
       0.31399313 0.3997545 -0.14596573 1.9340013
000360 7d 0e cc be c4 40 2c be 27 8d dd bf 79 02 4b c0
       -0.39854804 -0.16821581 -1.7308701 -3.172026
000370 8b 61 cb 3e f0 e4 43 3f 79 f6 a9 3f 30 ca 69 bf
       0.39722857 0.76521206 1.3278342 -0.9132414
000380 d4 4c 9e 3f 98 9b 13 bf ef ef 40 3e 3e 4e 6b 3f
       1.2367196 -0.5765929 0.18841527 0.91916263
000390 58 b4 35 bf ec df 08 40 43 05 77 3e 6b af 8f bd
       -0.7097831 2.138667 0.24123101 -0.0701588
0003a0 71 d6 bd bf 1f 96 46 3f 24 35 60 3e b6 52 3c 3e
       -1.4831067 0.77572817 0.21895272 0.18390927
0003b0 ff b4 6a 3f 09 4a 73 bf 5a 92 32 bf e2 6f 82 3f
       0.9168243 -0.95034844 -0.69754565 1.0190394
0003c0 cc 22 99 be 33 e3 7c 3e 5e fc ca 3e e8 68 72 3f
       -0.2990936 0.24696045 0.39645666 0.94691324
0003d0 1d 97 dd 3e 39 91 91 bf 58 b9 86 bc c0 bb 3e bf
       0.43279353 -1.1372443 -0.0164458 -0.74505234
0003e0 a0 2c 24 3f 4a c0 9a 3e 01 0d f4 3e 5d 17 2a 3f
       0.6413059 0.3022483 0.4766617 0.664419
0003f0 44 76 25 be a7 fc 5c bf 37 a1 26 40 f5 6d 81 3f
       -0.16158396 -0.86323017 2.6035898 1.0111681

critic.2.bias f4 [128]
000000 f2 13 7a 3d b6 07 91 be d1 02 be 3e 26 d6 1c 3a
       0.061054178 -0.28326195 0.37111524 0.00059828383
000010 54 d3 cd be eb ca b1 3e 9b 18 a9 be d7 90 15 3f
       -0.40200293 0.34725127 -0.33026585 0.58424133
000020 fd a2 10 bf 42 50 4f be 23 53 2d 3d 56 8a 16 3f
       -0.564987 -0.2024546 0.042315613 0.58804834
000030 65 df 6e 3f 62 92 83 3e 11 66 c0 3e d1 0f 4e 3f
       0.93309623 0.2569762 0.3757787 0.80492884
000040 d0 92 2e 3d 3c f2 37 be 03 4d 13 bf ca 96 09 bf
       0.04262048 -0.17963499 -0.57539386 -0.5374571
000050 91 b7 ac 3e e4 67 52 3f 8d e3 d2 be 9e ec 60 3d
       0.337338 0.82189775 -0.41189232 0.054913156
000060 5b f5 21 3e 57 d8 77 be 59 45 b2 3e d1 cd cc be
       0.15816252 -0.24203621 0.34818533 -0.40000775
000070 03 8b 28 3f 80 39 d9 be b5 2b 4c bf ad 97 9e be
       0.65837115 -0.42426682 -0.7975419 -0.30975094
000080 d1 23 7c 3e 75 9c 0d bf c1 db 81 3f 23 43 5b bf
       0.24623038 -0.5531686 1.0145189 -0.8564932
000090 9b e7 6f be 91 65 a0 3e 0b 09 70 bf c0 61 84 3e
       -0.23428194 0.3132749 -0.937638 0.25855827
0000a0 ea 14 b5 3e db cc 18 be 59 28 3b 3f c0 10 37 3f
       0.3536752 -0.14921896 0.7310844 0.71509933
0000b0 52 96 59 be 66 8d 87 bc 61 a6 ea be 1a b8 59 3e
       -0.21248749 -0.016546916 -0.45830062 0.21261635
0000c0 b6 56 1d 3f 4d 47 ff bd c2 cd 22 bf ef e7 fd 3d
       0.61460435 -0.124647714 -0.6359521 0.123977534
0000d0 b1 8e 0d bf 24 46 11 bf df d5 9f 3e 4a d5 50 bf
       -0.55295855 -0.5674765 0.31217858 -0.81575453
0000e0 1c e8 1d 3f 43 6b 04 be bb 5d d4 3e 6e 29 af bd
       0.61682296 -0.12931542 0.4147776 -0.08552824
0000f0 22 8c e3 bb 4d b2 5b 3e 06 f1 1a 3d 6c 9e a2 3d
       -0.0069441954 0.21454735 0.037827514 0.07940373
000100 97 9b ed 3d e0 12 fb 3e 4e 44 a4 3e 28 d4 25 3e
       0.11601942 0.49037838 0.32083362 0.16194212
000110 04 e5 b5 be dd 66 ae be 9a a1 34 3f 08 71 9c be
       -0.35526288 -0.34062853 0.70559084 -0.30554986
000120 e9 f7 0b 3f f7 5d d1 be cc 29 ea 3e e1 83 85 3e
       0.54675156 -0.40892002 0.45735013 0.26077178
000130 9f 07 5c bf 79 08 7e be e0 25 0b be af 39 41 3f
       -0.8594913 -0.2480792 -0.13588667 0.75478643
000140 56 66 86 3e 2e 7a 8b be 76 4d 5c bf 26 20 b3 3e
       0.2624995 -0.27241653 -0.86055696 0.34985465
000150 79 56 78 3e 35 2e c1 3b fd fe 02 be 7d 85 17 3e
       0.24251737 0.005895401 -0.12792583 0.14797015
000160 ed df 21 3e de d8 b8 3e b1 48 81 be d8 22 73 3d
       0.15808077 0.36102957 -0.25250772 0.0593594
000170 71 7e 0c bf be ab 90 3d e3 e1 26 3e 84 89 a5 3d
       -0.54880434 0.07064007 0.16297106 0.0808287
000180 d2 3e 5a 3e 85 02 d4 be 3b 37 10 bd c8 8e 42 be
       0.21313027 -0.41408172 -0.035208922 -0.18999779
000190 d1 db b8 3d 5b e3 5e 3e 8a ad 14 bf 54 62 8a be
       0.09026302 0.21766417 -0.580773 -0.27028143
0001a0 b0 6d c7 be 6c 67 d2 3e 0c 82 0c bd a2 ae 25 3f
       -0.38950872 0.4109453 -0.03430371 0.64719594
0001b0 d2 72 d9 be 53 cd 69 bc ad c9 d7 be 22 89 d8 be
       -0.42470413 -0.0142701445 -0.42146054 -0.42292124
0001c0 67 be 18 bf 7d 06 65 3e ec d5 24 bf 76 a7 49 3f
       -0.5966553 0.22365756 -0.6438892 0.7877115
0001d0 1d 5c 57 be 4c 53 24 3f 70 7f 62 bf 0b 29 d7 be
       -0.21031232 0.641896 -0.88475704 -0.420235
0001e0 9a 7b b9 3d 18 78 4b be ca 93 31 3e a7 50 81 be
       0.09056778 -0.19870031 0.17341533 -0.25256845
0001f0 c2 16 82 bd 08 fe d2 be e5 bf 6b 3e f2 73 c3 be
       -0.06351997 -0.41209435 0.2302242 -0.38174397
