examples/drone/logs/fig-eight-5000-forgiving/model_4100.pt (torch, 474978 bytes, 36 tensors)

std f4 [4]
000000 cd 10 9e 3e f9 5a 1b 3d 99 10 28 3e e9 db 1e 3e
       0.30872193 0.037928555 0.16412582 0.15513577

actor.0.weight f4 [128, 17]
000000 bd 3c 11 bf d9 db 4c 3f 76 5b 92 3f cc d9 86 be
       -0.56733304 0.8002296 1.1434162 -0.2633804
000010 a0 af 0b bf 03 86 a1 3f 9e 76 78 be f2 1e b6 be
       -0.5456486 1.2619022 -0.24263999 -0.35570484
000020 a7 99 b7 be ff 71 c3 3f fd 97 06 c0 a4 34 86 3f
       -0.35859415 1.5269164 -2.1030266 1.0484815
000030 1f 43 6b 3f 23 85 55 3d b3 59 00 bd 7e 54 9e bc
       0.91899294 0.052128922 -0.031335544 -0.019327398
000040 68 0a 9d be a4 64 67 bd cb 31 2c be 13 61 e4 3f
       -0.30672002 -0.056492463 -0.1681587 1.7842125
000050 27 d7 a0 bc 52 65 0d be 57 fa d4 3c fb dc 06 3b
       -0.019633843 -0.13808182 0.025998278 0.0020578492
000060 35 82 fa 3c 3e 5e b6 3c ea ff 2f bd 62 09 95 bd
       0.030579666 0.022261735 -0.042968668 -0.0727718
000070 a2 7f a1 bd 41 4a 27 bd d6 cc ea be fc c2 02 3f
       -0.07885672 -0.0408423 -0.45859402 0.5107877
000080 84 8a 26 be 17 c8 21 be a9 b7 57 bc b5 db ac bc
       -0.16263777 -0.15798984 -0.013166347 -0.021100858
000090 11 75 12 c0 73 f4 4c bf bd 93 70 be ac 8b cb be
       -2.2883952 -0.800605 -0.23493858 -0.39755
0000a0 d4 a0 9d bb a7 de 23 be 09 52 e7 3c 88 1c 45 bd
       -0.004810432 -0.16002904 0.02823736 -0.048122913
0000b0 41 97 f5 3d 54 45 90 bc 6a 49 0b 3e fd 57 aa 3e
       0.1199174 -0.017611183 0.13602224 0.33270255
0000c0 44 31 8b 3d 62 5c c7 3e 7a fd 65 3e 93 b1 19 3e
       0.06796506 0.3893767 0.22459975 0.15009145
0000d0 aa c3 f5 be 85 99 c8 c0 19 1d 2b 3f 87 00 81 bf
       -0.48000842 -6.26874 0.66841274 -1.0078286
0000e0 fc 72 02 bf 07 21 fd be 8a 3f c2 bd 00 53 e2 3d
       -0.509567 -0.4943926 -0.09484775 0.11050987
0000f0 26 61 31 be 82 a2 e0 bd 7f fd 58 3d bc 29 35 3e
       -0.17322215 -0.10968496 0.052976128 0.17691702
000100 c1 35 45 be de 82 22 be e9 75 f8 bd ac 0b 1a be
       -0.19258787 -0.15870234 -0.121318646 -0.15043515
000110 99 fa 98 3f 53 80 11 3f 15 28 94 40 5e 3f 43 be
       1.1951476 0.5683643 4.629893 -0.19067141
000120 53 56 0c 3f 4e 79 cc bf b8 fa 87 bf fd ff 5e 3e
       0.5481922 -1.5974519 -1.0623388 0.2177734
000130 b8 1d 6d 3e c7 aa ac 3e e0 20 ae be 78 37 39 3e
       0.23155868 0.33724043 -0.34009457 0.18087566
000140 8e 8e 90 be 7c 1b 0d bc 73 d4 ef 3d a4 9b 0c 3f
       -0.2823376 -0.00861251 0.11710443 0.5492499
000150 88 6b a4 3e 19 59 56 bf 34 97 e7 3d 59 67 42 c0
       0.3211329 -0.837297 0.113081366 -3.0375578
000160 0d 21 90 3e b1 f8 c9 bf 84 be 55 bf 6d a7 c9 3f
       0.28150216 -1.577902 -0.8349383 1.5754219
000170 de 21 a7 3e 55 27 60 3f b3 5e ad 3f 0b 93 2c bf
       0.32643026 0.87560016 1.3544525 -0.6741187
000180 6d 11 4b 3f ae 85 49 3f 34 f8 88 3e ea e5 01 3f
       0.79323465 0.78719604 0.26751864 0.50741446
000190 8c 04 33 3e 2d cc 92 bd bf 1d c1 be f5 e5 1e bf
       0.17482203 -0.0716785 -0.37718007 -0.62069637
0001a0 30 b9 98 40 96 42 e5 be 8e d3 8e bd ce b4 18 3e
       4.772606 -0.44777364 -0.069739446 0.14912722
0001b0 4e 0a e1 be 3b ee a2 bc d1 0c 13 b9 06 e6 e5 bd
       -0.43953174 -0.019888988 -0.00014023787 -0.11225514
0001c0 67 c2 75 3d f6 1f 2d 3e f0 24 2c 3e 69 51 38 3e
       0.05999985 0.16906723 0.16810966 0.17999806
0001d0 92 08 3c 3e 20 14 30 bc 03 28 c5 3d 54 25 7e c0
       0.18362644 -0.010746986 0.09626772 -3.9710283
0001e0 dc 51 06 40 4a 1a 28 c0 7e cb be 3d da a9 63 3f
       2.0987463 -2.6266046 0.09316157 0.8893105
0001f0 ee 10 09 bf 56 b8 18 bf df d6 a1 3f c1 1c 0e bf
       -0.5354146 -0.59656274 1.2643698 -0.55512625
000200 89 6c 7d 3e b8 d4 40 3e 05 47 d8 3d 98 e1 49 be
       0.24748434 0.18831146 0.10560421 -0.19714963
000210 b7 e6 16 ba 76 f9 d3 bd b3 1e 42 3e d1 fc 56 3d
       -0.0005756425 -0.10350315 0.18957023 0.0524872
000220 d5 05 e9 bd ef 14 75 bf e6 de b2 c0 74 e6 5c 3f
       -0.113780655 -0.9573507 -5.5897093 0.86289144
000230 ba fe 18 40 f2 48 e3 3f 1f 44 46 3f 56 29 be 3f
       2.3905473 1.7756636 0.77447695 1.4856365
000240 60 62 93 bf d7 18 74 b8 fb f3 30 bd 74 ba af bd
       -1.1514397 -5.8197267e-05 -0.043201428 -0.08580485
000250 e2 a4 59 3e a2 3d 2c 3e 78 da a8 3e e2 7e 1c 3e
       0.21254304 0.16820386 0.32979178 0.15282777
000260 6c 1f 2a 3f ff 5a d2 be 45 0b 9e 3f 07 cd ed 3f
       0.66454196 -0.4108505 1.2347189 1.8578194
000270 5d 76 80 3e 14 b3 99 3f 6e 82 83 3f 2f ae 8b be
       0.25090304 1.2007775 1.0274179 -0.2728133
000280 0a f8 97 bd 77 9c 00 bf c1 84 6a 3d fb 36 2d 3d
       -0.074203566 -0.50238746 0.05725551 0.04228876
000290 48 be 40 be a1 53 71 be 37 cb 2d be 1b c1 51 3e
       -0.18822587 -0.23567058 -0.16972052 0.2048382
0002a0 43 b4 7c 3e 94 ed 52 be 22 3a be 3e 9d cd c3 ba
       0.2467814 -0.20598441 0.37153727 -0.0014938597
0002b0 2c 77 20 40 2b 96 3b 3d 74 18 ed 3f 21 9d 84 bf
       2.5072737 0.04579751 1.8523088 -1.0360452
0002c0 fe 7d b2 be 34 6e c3 3e 6a 9f fa 3d ca 02 1b 3e
       -0.3486175 0.38170016 0.12237437 0.15137783
0002d0 c2 26 f6 3e 27 51 87 be 36 a8 22 3f e9 e4 04 3e
       0.48076445 -0.26429102 0.6353792 0.12977947
0002e0 30 73 24 3d 48 8d 90 bd ea 38 04 3e 1e 62 11 3e
       0.040148914 -0.07058197 0.12912336 0.14197585
0002f0 c9 f5 ae bd 6f 60 6c 3f 38 56 d0 3d e8 61 1b be
       -0.085429735 0.92334646 0.10172695 -0.15174067
000300 17 cb 27 be 39 c7 fb 3d d1 26 94 bd dc bd 98 bc
       -0.16386066 0.12293858 -0.07233966 -0.01864522
000310 16 d2 99 bc b7 ab bc 3d 5e 28 d2 bb f7 11 ef bd
       -0.018776935 0.092124395 -0.0064135035 -0.116733484
000320 3d f9 87 3d dd d8 e3 3d ff c2 c1 be c2 59 f2 be
       0.06639335 0.11125348 -0.37844083 -0.47334105
000330 3b 4b 4f be d7 f1 d3 3f 93 cb 4b c0 f8 9f b9 3d
       -0.20243542 1.6558179 -3.1843002 0.09063715
000340 56 10 27 40 e7 fa b4 bf cb f6 7e bd 1e b6 7e 3e
       2.610372 -1.4139069 -0.06224708 0.2487416
000350 e4 da 1f 3e ea 8f 5c 3e 1b 4d a9 3e 18 67 fe be
       0.15610844 0.21539274 0.3306664 -0.4968803
000360 96 6d 21 be 69 65 f4 bd 49 dc b0 bd 2a 8c 96 3b
       -0.1576446 -0.11933405 -0.08635766 0.0045943456
000370 0b 8f d4 bd 40 94 a3 3e 75 8d 3d 3f 7f e4 e3 bf
       -0.10378846 0.31949043 0.7404397 -1.7804106
000380 1b 6d 18 bd 24 7d f5 3f 6a 90 1b bf d7 e3 15 3f
       -0.037213426 1.9178815 -0.60767233 0.5855078
000390 53 44 98 be 3a c2 0e 3e 5a ec 4c 3e 1e 35 28 3f
       -0.29739627 0.13941279 0.20012036 0.6570605
0003a0 80 c0 7d bf aa 4b 91 bf db 98 ec bd 6a 93 10 be
       -0.99121857 -1.1351216 -0.11552592 -0.14118734
0003b0 43 99 1b bd 54 45 9f be 86 b2 9d 3f 21 a5 2d be
       -0.03798796 -0.3110758 1.2320106 -0.16957523
0003c0 7d d1 36 40 40 7b 68 be 54 bb 5f bf cc 81 f6 bf
       2.8565361 -0.22703266 -0.87395215 -1.9258361
0003d0 d0 d8 88 3f a6 57 35 be aa 2c 53 3e 49 e0 89 bd
       1.0691166 -0.17709216 0.20622507 -0.06732232
0003e0 cd d8 1e 3d d6 6c 68 3e de 31 a6 be 67 16 4b bd
       0.038780976 0.22697768 -0.3245992 -0.04958191
0003f0 2f dd c7 bd 3b 4d d2 bd 0e 84 70 3d 28 14 5f bc
       -0.09758984 -0.10268637 0.058719687 -0.0136156455

actor.0.bias f4 [128]
000000 1a f0 33 be ce fe 86 3e 71 50 b7 be 07 0a 0e bd
       -0.1757206 0.26366276 -0.3580356 -0.03467753
000010 39 c1 20 bd 7f d5 2c 3e 00 cc 29 bd b1 56 41 3c
       -0.03924677 0.16878317 -0.041454315 0.011800454
000020 bd b3 15 3f 28 ef dd 3c be f7 1f 3e cc 12 e1 3e
       0.58477384 0.027091578 0.1562185 0.43959653
000030 79 4c c3 bd c4 67 07 3e f8 94 f7 bc d9 b7 c1 be
       -0.095360704 0.13223177 -0.030222401 -0.37835577
000040 cc 32 27 3e 7d 28 c5 bc 9c a0 be 3e 3c f8 57 3e
       0.16327971 -0.024067158 0.3723191 0.21090788
000050 e2 ae f9 3d be d5 ae 3e 0a ab ac bd cb f8 95 be
       0.121915594 0.34147447 -0.084310606 -0.29291376
000060 91 bb b6 be 8c 48 62 be 77 ea f1 3e f7 cd 7d 3e
       -0.35689977 -0.22097987 0.47249195 0.247856
000070 a8 df e6 be ba 26 ec be da b4 66 be d9 e0 47 3d
       -0.4509251 -0.46123296 -0.22529927 0.048798416
000080 d7 3d e0 3e 7e 90 52 3e 9b 26 84 3e f1 7d 73 3c
       0.4379718 0.20562932 0.25810704 0.01486157
000090 d4 58 4f be 1b d2 16 bc a7 e8 7f be 41 8d dd 3d
       -0.20248729 -0.0092053665 -0.24991094 0.10817958
0000a0 ea a8 30 3c 99 e1 ba 3e b7 f5 90 3e f6 0a 4b 3e
       0.01078246 0.36500242 0.28312466 0.198284
0000b0 62 8d 0a be cc 75 ee 3d af 3e e1 3d 0e a5 db be
       -0.13530496 0.11643562 0.10998284 -0.42899364
0000c0 03 61 c8 be 95 fc 0a be 59 d4 c5 3e 6e fc 45 3d
       -0.39136514 -0.13572915 0.3863857 0.04833644
0000d0 19 b7 59 3e 06 26 1c 3c 4c 2e 03 3d 97 89 cd 3e
       0.21261252 0.00953055 0.032026574 0.40144035
0000e0 09 e4 99 3e 1f f0 df bd 12 c4 5f 3e 4e 98 4c be
       0.3005679 -0.10934471 0.21852139 -0.19979975
0000f0 50 17 93 be b1 26 7d 3e 6a 02 3a be b3 d7 16 bf
       -0.28728724 0.24721791 -0.18164983 -0.5892288
000100 ea 47 c7 3d d6 0a fe 3d c0 61 6f bd 3f 91 e6 3d
       0.097305134 0.124044105 -0.05844283 0.11258172
000110 0a 71 88 3e 61 c0 d9 be 11 5e b6 3e 90 3b bf be
       0.26648742 -0.42529586 0.35618642 -0.3735013
000120 7a ff d1 be 25 a1 be bd 04 25 6f bb 4f 7c 20 3e
       -0.41015226 -0.0930808 -0.003649057 0.1567242
000130 d7 fa e5 be e5 eb 1c 3f 4e c2 dd be 83 45 56 3d
       -0.44917938 0.61297446 -0.43312305 0.052312385
000140 46 2e b7 3c 13 5e f7 3d d8 ea b7 3d 8a f9 cf be
       0.022360932 0.1207849 0.0898034 -0.4062007
000150 d6 e3 50 3a 82 29 76 3e 42 b4 15 bd b8 65 7f 3e
       0.00079685205 0.24039271 -0.03654886 0.24941146
000160 97 e1 ae bd 5c 0c 34 3c 0d 50 a2 3d 8c 71 34 be
       -0.085391216 0.010989275 0.07925425 -0.1762144
000170 36 e6 77 be 9f be 80 3d 4c 3f 08 3f 64 5a 84 3e
       -0.24208912 0.06286358 0.53221583 0.25850213
000180 3b 7d 97 be c9 2b 01 be fa d3 ee bd 22 b2 85 3e
       -0.2958773 -0.12614359 -0.11661525 0.26112467
000190 f2 29 77 3d d6 87 12 3d 65 c1 28 3e 23 d6 35 bc
       0.060342737 0.035774074 0.16480024 -0.011098417
0001a0 f4 9c cb 3e a3 b5 6a be ac 18 d0 3c 46 05 7d be
       0.39768183 -0.22920851 0.02540239 -0.24709043
0001b0 90 ab 72 bc 99 b4 0b 3d 6b 3e 5f 3e fb 5a 3d 3e
       -0.0148114115 0.03410778 0.21801154 0.18491738
0001c0 84 f1 0d bf 10 f0 2e 3e aa 20 54 be 20 84 8b 3e
       -0.5544665 0.17083764 -0.20715585 0.2724924
0001d0 07 22 12 3e 1f 3f 6f be 72 7a 37 be 05 08 f9 bd
       0.14270793 -0.23363923 -0.17917803 -0.12159733
0001e0 d7 28 9d 3d 4f bc 8a be ce 24 44 be c0 bf 82 bd
       0.07673805 -0.27096793 -0.19154665 -0.0638423
0001f0 e1 5c 85 3d fd 53 68 be fd aa 9b bb 6d 79 45 bd
       0.06511856 -0.22688289 -0.004750608 -0.048211504

actor.2.weight f4 [128, 128]
000000 fc 63 ac 3b eb 27 18 bd ff ae b3 3c b1 2e 8c bd
       0.0052609425 -0.037147444 0.02193403 -0.06844843
000010 b4 49 23 3c 5a 23 d3 bb 24 89 d1 3d 25 08 51 bb
       0.009966303 -0.006443423 0.102312356 -0.0031895724
000020 e1 90 f4 bb df c5 5f 3c eb 67 de bd ff 0d b2 bc
       -0.00746356 0.013658016 -0.108596645 -0.02173519
000030 ec 07 13 3d 5a 7b fc bc 25 27 d1 bd 0b a2 86 bd
       0.035896227 -0.030820537 -0.10212544 -0.06573876
000040 0c 6e 2f bc 7d 7c bd bd 23 e4 90 3d 09 a1 e2 bd
       -0.01070739 -0.0925226 0.070747636 -0.11065871
000050 18 d8 c0 3d f2 fc cf bc 54 77 ac 3b a7 4a 83 bc
       0.094162166 -0.025389168 0.0052632485 -0.016026808
000060 09 8f b1 3b 3d 8d 8b 3b 92 75 b6 bd ee 7a 87 3c
       0.0054186624 0.0042587803 -0.089091435 0.01653811
000070 34 c0 bb bc e8 51 88 bc fe c4 89 3d 13 fb ea bd
       -0.022918798 -0.016640618 0.067270264 -0.1147367
000080 57 86 ee bc d7 ea ba bd 1f e7 ad bb 82 54 30 3d
       -0.029116793 -0.091268234 -0.005307093 0.043049343
000090 d5 d0 b5 3b ed ad 32 3d 5b d0 f6 3c 05 1f f2 bb
       0.0055485764 0.0436229 0.030128649 -0.0073889517
0000a0 70 1f eb bd e5 b7 08 bd ac 11 e2 bd a5 a9 cf 3c
       -0.114806056 -0.0333785 -0.11038527 0.025349448
0000b0 61 44 96 bd f9 73 04 3c 04 10 70 3b ce 26 32 bd
       -0.07337261 0.008084291 0.003663064 -0.04349404
0000c0 ed 3a df 3b 22 c0 43 3d f7 91 55 bc b0 50 f5 3b
       0.0068124444 0.047790654 -0.013035289 0.0074864253
0000d0 d3 40 d7 bd bc e7 2a 3c 47 d2 cf bd 3a 82 07 3d
       -0.10510411 0.010431226 -0.10147529 0.033083178
0000e0 1b 15 91 3c e3 ad 24 be 5a d5 fb 3c 7a 3a 00 3e
       0.01771026 -0.16081958 0.030741382 0.12522307
0000f0 8b 68 88 bc 66 c8 c4 3b 67 50 8f 3d 20 39 23 bd
       -0.016651412 0.0060053347 0.069977574 -0.0398494
000100 97 88 a2 bb a2 d6 fd bc bf e1 58 bc 29 de 09 3d
       -0.0049601304 -0.030986134 -0.013237416 0.033659134
000110 01 22 11 bd 07 8b e0 3c 45 8f 2d bd c7 f4 4b bd
       -0.03543282 0.027410043 -0.04237296 -0.049793985
000120 f6 06 86 bd 52 e9 db bc e5 e9 1a 3e 1f 2b af bc
       -0.065442964 -0.026844654 0.15128286 -0.021382866
000130 26 ef cc bc 06 0b 5f bc 4b 23 03 bd 22 98 19 3c
       -0.025016379 -0.013613468 -0.03201608 0.00937465
000140 91 dd d1 bd 12 e5 0d 3a 81 f9 81 3c 6e 96 65 bc
       -0.102473386 0.0005412857 0.015866043 -0.014012916
000150 c9 93 45 3d e2 33 25 bc 62 a2 87 bc 0e 90 10 3b
       0.048236642 -0.010083171 -0.016556922 0.002205852
000160 21 32 d5 3d 1b 8b 87 bc 58 78 f4 bb b1 36 46 bd
       0.10409952 -0.016545823 -0.007460635 -0.048392
000170 6d 0c 40 3d 81 9a 9d 3c 5c 32 56 bd f0 2c cf bc
       0.04688685 0.019238712 -0.05229412 -0.025289983
000180 e9 08 ab 3c 25 d9 b1 3b ef 8c 77 bd d0 ba e2 3c
       0.020878272 0.005427497 -0.06043714 0.02767697
000190 13 cd 18 bd 0c 54 20 bd 4e 27 b9 bc e1 ce 76 3d
       -0.03730495 -0.039142653 -0.02260175 0.06025589
0001a0 97 aa 9e bc 76 1d c2 3c 0f be 91 3c 4b f9 a1 ba
       -0.019368453 0.023695689 0.017790822 -0.001235762
0001b0 0d 1c e4 bc 4d 10 0f bd 5c 7e 87 bc 38 4a c8 3d
       -0.027845407 -0.034927655 -0.016539745 0.09779781
0001c0 bf 34 33 3d cd 54 83 3d 8f 10 0d 3c 6b 01 45 bc
       0.043751474 0.06412659 0.008609905 -0.012024264
0001d0 cc 04 92 3c 43 16 80 bc da 87 c5 bc 64 58 1d bd
       0.017824553 -0.015635615 -0.02411263 -0.038414374
0001e0 eb 67 c5 3c 78 68 62 bd 66 b3 15 bd 40 83 7f 3d
       0.024097404 -0.05527541 -0.03654804 0.06238103
0001f0 d6 3d 20 3d e7 02 b2 3c 27 0c a3 3c 89 aa bd bd
       0.03912147 0.0217299 0.019903256 -0.092610426
000200 ab 37 69 3d d5 b7 43 ba 91 a1 80 bd 97 2a 33 3c
       0.056937855 -0.0007466053 -0.06280816 0.010935447
000210 c8 c2 d3 bd 11 f6 b1 3c 91 8a bb bd 20 2d 91 3d
       -0.10339886 0.021723779 -0.09157289 0.07088685
000220 21 a3 b9 3c a5 97 01 3c 19 6b 85 bd 40 08 b4 bd
       0.022660794 0.00790969 -0.06514568 -0.08790636
000230 d6 d9 01 3d 0e 07 78 bd 8b 95 1d 3e 44 96 05 bb
       0.031701885 -0.060553603 0.15389077 -0.0020383755
000240 b3 66 3c bd 16 ce 62 3c 52 ae 50 3d a0 33 93 3d
       -0.04599638 0.01384308 0.050947495 0.07187581
000250 0c bc b4 3c a9 f4 5e 3c 95 05 3b 3d c5 09 2f bd
       0.022062324 0.013608136 0.04565962 -0.042733926
000260 b8 cb 1a 3d 78 33 aa 3b a8 22 37 3c 35 94 d3 bc
       0.037791938 0.005194124 0.011177696 -0.025827507
000270 bb b4 96 3d 83 b1 e2 3c a1 44 28 be 4b 00 76 bc
       0.0735869 0.027672535 -0.1643243 -0.015014718
000280 8d 4e 09 3d 90 98 e6 3d 13 e9 88 bd f1 83 2a 3d
       0.033522177 0.11259568 -0.066850804 0.041629735
000290 1f 3d fc bc 01 2e 64 bd c9 f2 87 3d 03 2a ae 3d
       -0.030790864 -0.055707935 0.066381045 0.08504107
0002a0 47 b0 00 be 02 82 cc 3c 2a 20 92 3c 17 b1 78 3d
       -0.12567244 0.024964336 0.017837603 0.06071576
0002b0 87 05 fe bc 35 f4 3f 3d f7 0e 09 bb c7 a5 fe 3c
       -0.031008495 0.046863753 -0.002091346 0.031084908
0002c0 4f 22 4f 3d 26 e6 7f bd 5a 2b 2a bd fa ad 97 3d
       0.05056983 -0.062475346 -0.04154525 0.0740623
0002d0 76 03 43 be 89 52 8f 3c 52 64 9b bd ad 62 d6 3d
       -0.19044289 0.01749541 -0.07587494 0.1046804
0002e0 d1 d9 d4 bd fe 1c 56 bb fe c1 b7 bd 17 c0 fe bc
       -0.10393108 -0.003267109 -0.08972548 -0.031097455
0002f0 e1 6d 1d bd 2c 88 3f bd 49 3a c7 bc f5 41 c1 3c
       -0.038434867 -0.046760723 -0.024319785 0.023591021
000300 43 33 3d bd d8 3b 04 be 33 c5 fe 3c a6 31 71 3d
       -0.046191465 -0.12913454 0.031099891 0.05888524
000310 4e eb 3d ba 8c 1b 18 3c 8d 3a 1e 3d 97 5d b9 bb
       -0.0007244841 0.009283911 0.038630057 -0.0056569087
000320 c4 06 df 3d b1 52 f2 3c 67 1d 1e bd 2a 85 21 3e
       0.10889962 0.029580446 -0.03860226 0.15773454
000330 50 4a 3b 3c de ac c9 bd 54 d6 e1 bc 33 a6 b1 bb
       0.011431292 -0.09847425 -0.02756802 -0.005421424
000340 57 5c 19 bd c9 b7 3e 3d 84 4a 80 3c 48 d7 ef bc
       -0.037441578 0.04656199 0.015660532 -0.029277459
000350 60 60 87 3c 48 29 de 3c 92 e6 1b be fb fb 83 bb
       0.016525447 0.027119294 -0.15224674 -0.004027841
000360 4e 21 91 be ed 19 1b bd 3b 56 52 3d 31 a1 01 3e
       -0.28345722 -0.03786652 0.051351767 0.12659146
000370 9d 64 a2 3b f3 7a 6c 3d 71 e4 de bc 87 ce 9f bc
       0.0049558417 0.05773444 -0.027208539 -0.01950766
000380 50 b7 8a 3d 66 f5 12 3d ea 84 88 3d 78 09 65 bc
       0.06773245 0.03587856 0.06665976 -0.013979308
000390 95 14 20 3d 60 d3 a2 3c 27 66 7f bc 6f 78 35 be
       0.03908213 0.019876182 -0.01558832 -0.17721723
0003a0 5e 7a ae bb a8 52 90 3d d6 12 5e 3d de 73 99 3d
       -0.005324646 0.070470154 0.054217182 0.07492803
0003b0 ca 7f 1a be ab 2a f4 bd f7 4e 8d bc aa 34 d4 3d
       -0.1508781 -0.11922201 -0.017249567 0.103616074
0003c0 0c 18 40 3e 47 a7 56 bd d0 41 47 3d a7 ab 1e 3d
       0.18759173 -0.05240562 0.048646748 0.03873792
0003d0 04 9c aa bd 03 0e c3 3c a8 be 15 bd e7 c6 b5 bc
       -0.08330539 0.023810392 -0.036558777 -0.02218957
0003e0 dc 7f bc 3d 2c e6 0d 3d 7e 03 1d 3b c6 68 aa bd
       0.09204075 0.034643337 0.002395838 -0.08320765
0003f0 2a cf e2 3d 56 c5 4f bd fd 5e 7a bc e1 c1 f1 bb
       0.1107467 -0.050725304 -0.015281436 -0.0073778485

actor.2.bias f4 [128]
000000 7c 10 29 3d 35 03 d2 3d 78 77 e3 3c f0 98 35 3c
       0.041275486 0.10254518 0.027766928 0.011083826
000010 f7 b3 ea 3d 1b 46 86 bc be 44 ae 3e 9c a3 a8 bb
       0.11460107 -0.01639085 0.3403682 -0.005146457
000020 5d fe c4 bd 6a d0 62 3d bf 26 e8 bd c9 71 b2 3d
       -0.096188284 0.05537454 -0.11335515 0.08713109
000030 e1 6f 08 3d 1f b4 83 3c 0c da 97 be ab 8f ca 3d
       0.03330982 0.0160771 -0.29658544 0.09890684
000040 ea 53 25 3e 50 ac ec bd 51 e6 a6 3d 44 43 5a bb
       0.16145292 -0.115563035 0.08149398 -0.0033304254
000050 b9 ad e4 bd d9 56 8b be 71 a8 5d bb 59 ab b1 bd
       -0.111659475 -0.27214697 -0.0033822323 -0.0867526
000060 31 0d ef bc 6a 37 ba bd 79 47 e6 3d 73 e8 77 3d
       -0.029181095 -0.09092601 0.11244101 0.060524415
000070 12 67 11 bd 10 a0 d5 3d 3c 66 ce bd 27 b5 2e 3f
       -0.035498686 0.1043092 -0.100780934 0.68245167
000080 a5 8c 12 bd c2 dc 8e 3d 1a 4f 11 bd 76 1e 1a bc
       -0.03577866 0.069757 -0.035475828 -0.0094066765
000090 f6 c7 b4 3d f3 34 14 3e e8 ff 8c be 15 f2 2d bd
       0.08827202 0.14473324 -0.2753899 -0.042467196
0000a0 ad 04 19 be 3b 22 87 be ee 0a 5a 3d 23 d7 f1 3e
       -0.1494319 -0.26393303 0.05323308 0.4723445
0000b0 8f 0d 0a 3e b3 8e c6 bc 18 f3 fc bc 83 06 9e 3d
       0.13481735 -0.024237966 -0.030877635 0.07716086
0000c0 1c 6f 25 3d 98 68 1d bd d6 83 3a 3f 7e 6f 35 be
       0.040389165 -0.038429826 0.72857416 -0.17718312
0000d0 54 ef 48 3d de bc 8f bb 80 07 c0 bc 59 28 0c bd
       0.049056366 -0.0043865284 -0.023441076 -0.034218166
0000e0 0b 62 6c 3d 64 a0 8d bd d0 b9 03 3e f1 1f d9 3d
       0.05771069 -0.06915358 0.1286385 0.106017955
0000f0 bd 6e 05 bf ab 10 50 3c 7e 32 86 be fa 64 83 3d
       -0.521221 0.012699286 -0.26210397 0.06415744
000100 01 69 4b be 25 2c 95 3e c2 ee 16 bd d8 7a 6f 3d
       -0.19864275 0.29135242 -0.03684879 0.058466762
000110 58 6e 20 3d 7c f2 75 3d e7 95 3f 3d e9 5f 27 be
       0.039167732 0.060045704 0.046773817 -0.1634518
000120 a9 1e ec bd 72 19 ab bd 3c c1 4e be e9 c7 0d be
       -0.115292855 -0.08354463 -0.201909 -0.13845791
000130 33 c1 37 be 65 de 27 3f c3 b2 6c 3e e4 3c 15 3f
       -0.17944793 0.6557372 0.23115067 0.58296037
000140 94 10 81 3d da 5b e3 3c 46 f5 db 3d 19 a5 1f bd
       0.0630199 0.02775376 0.107401416 -0.03897581
000150 26 4f 34 be 5f 52 f5 be 86 cd 36 bd 49 0c 44 3c
       -0.17608318 -0.47914407 -0.044629596 0.01196582
000160 62 b0 4e 3e dc 02 88 be d3 ff 08 be 22 47 d1 be
       0.20184472 -0.26564682 -0.13378839 -0.40874583
000170 24 6b 22 3f 1f 54 19 bd cd 2c 1a 3b 39 59 c5 bd
       0.63444734 -0.03743374 0.0023525239 -0.096361585
000180 65 32 c6 be 4c 55 c1 3d 78 b8 a3 be 63 6c ea 3d
       -0.38710323 0.09440097 -0.31976676 0.114464544
000190 b0 01 bd 3d 75 27 f9 3e 1c de 3a 3f 8a 44 c1 3c
       0.092288375 0.48662916 0.7299516 0.023592252
0001a0 80 97 40 bd af 45 16 bd 4a ac 87 3e 5f 92 b0 3e
       -0.04701948 -0.03668755 0.26498634 0.34486672
0001b0 c4 a7 6e 39 60 63 e1 be 21 ec d1 3c b8 17 30 bc
       0.00022759946 -0.4402113 0.02562529 -0.0107478425
0001c0 fc f4 da 3e ad d4 cf be bd 7a 18 bd a0 fe 00 bf
       0.42765033 -0.40591946 -0.037226427 -0.50388527
0001d0 4e 28 be 3d 37 e7 ac 3c b5 9d 10 bf b8 4a 34 3c
       0.09285031 0.021106346 -0.5649064 0.011004142
0001e0 73 5c b1 bd 23 a1 bd bb a6 f9 2a be 8d af d9 3d
       -0.086602114 -0.0057870313 -0.16696796 0.10629187
0001f0 ef 7e 30 3f ee 76 23 be db 72 cf 3b 1d 5f fb bc
       0.68943685 -0.15963337 0.0063308305 -0.030685002

actor.4.weight f4 [4, 128]
000000 de db 4a ba 30 d8 77 3b 38 29 77 bc a7 7a 96 bb
       -0.0007738451 0.0037818067 -0.015085511 -0.004592258
000010 7f 89 21 3b 1a 4d fb 3b c7 cc 13 3c fe 56 18 bc
       0.0024648604 0.0076691033 0.009020991 -0.009298084
000020 b2 cf 9e b7 31 24 29 3c 53 fb 07 be 7d c6 9b bc
       -1.8931783e-05 0.01032357 -0.13279466 -0.019015545
000030 a0 17 67 3c 50 71 d7 bb 6f bd 49 bd 41 c4 f0 bb
       0.014104754 -0.006574787 -0.049252924 -0.007347614
000040 38 59 f2 be 12 0b 3d 3b 8a 68 79 bc 84 cf a2 3b
       -0.47333694 0.002884571 -0.015222678 0.0049685854
000050 65 dc b3 3b 48 2f f6 3d e1 81 0f ba b7 8d a9 bb
       0.0054889196 0.12020737 -0.00054743706 -0.0051743644
000060 b1 1d 27 3b d8 21 81 3a cd 2b 86 bb e8 61 d2 bb
       0.0025499875 0.0009852005 -0.004094577 -0.0064203627
000070 06 2b 69 bc 01 29 ea 3d 8d f0 08 3c 03 89 0f 3e
       -0.014231449 0.11433602 0.008358133 0.1401711
000080 d2 9f 17 be 45 46 8b bc 2e aa 48 bb d4 e9 0e bb
       -0.1480706 -0.01700128 -0.0030619013 -0.0021806853
000090 02 45 50 3c e1 3d b9 3d 1d 36 19 3e 25 62 97 be
       0.012711765 0.090450056 0.14962049 -0.29567066
0000a0 bd b8 f7 3d 41 85 bf be 1f 3b 91 bb 4e 00 bf bd
       0.12095783 -0.37406352 -0.0044320966 -0.0932623
0000b0 d2 e9 03 3e c5 98 5a 3b e9 11 64 b9 a3 c6 f9 3b
       0.12882164 0.0033355218 -0.00021750446 0.0076225563
0000c0 6f dc 4b ba 30 6f cd 3a 88 50 e4 3e c5 42 88 3c
       -0.00077766826 0.0015673395 0.4459269 0.0166334
0000d0 9a 21 de 3b 8a 48 81 3a 44 7e 86 bc 93 4b af bb
       0.006778908 0.0009863537 -0.01641763 -0.0053495853
0000e0 5f 5b 13 bc e0 75 84 3d 70 35 06 3e 94 47 9a 3c
       -0.008993953 0.06467795 0.13106322 0.01883296
0000f0 ae a4 70 3d ff 06 03 bc a6 e8 92 3d fc bc 62 3b
       0.0587508 -0.0079972735 0.071732804 0.0034597507
000100 a0 ef 65 be 08 b3 39 bc 24 a8 6c bb 4f 1b a3 3b
       -0.22454691 -0.011334188 -0.0036110962 0.0049776207
000110 38 7e 9c 3b 06 3c 67 3b a1 04 0c bc 52 36 a5 bb
       0.0047757886 0.003528358 -0.0085460255 -0.005041876
000120 89 32 c5 b8 24 d0 1b bd b9 d5 08 3e e2 ea e5 bc
       -9.403105e-05 -0.038040295 0.13362779 -0.028066102
000130 32 6e 85 be 94 0f 35 3f 98 26 2a 3d a9 24 d5 bd
       -0.26060635 0.70726895 0.041540712 -0.10407383
000140 ef d3 a8 bd e4 52 44 bc 5a ea 38 3c 67 81 b5 bc
       -0.08243548 -0.011982653 0.0112863425 -0.02215643
000150 e7 64 97 bd 21 86 1a be f0 5b a9 bb df ce 1c bd
       -0.073922925 -0.15090229 -0.0051684305 -0.038283225
000160 80 84 b3 3e be c8 40 3d b3 c3 dc bb ff 89 3d be
       0.35062027 0.047066443 -0.0067371964 -0.18509673
000170 ad fb 07 bd 99 77 8a 3a 53 13 83 3c 31 1c 9e 3a
       -0.033199 0.0010564207 0.016000425 0.0012062845
000180 91 21 27 be b8 e6 2b 39 89 05 87 be 90 17 04 39
       -0.16321398 0.0001639378 -0.2637141 0.00012597279
000190 4d 3b 58 3c fa fe 53 be e1 b1 39 be f4 d9 c8 3b
       0.013197732 -0.20702735 -0.18134262 0.0061294977
0001a0 60 05 f5 3a 1a fb 75 3b 33 f7 a7 bd fa 4e 8c 3c
       0.0018693618 0.0037533701 -0.082014464 0.017127503
0001b0 b3 84 ae ba f4 d8 63 3d d1 7c 83 bb bb d5 81 bb
       -0.0013314694 0.055626824 -0.004012682 -0.0039622462
0001c0 14 37 77 3e 6e dd e4 bd 7a 74 83 3b 84 94 44 bd
       0.24142104 -0.11175047 0.004011688 -0.047993198
0001d0 e4 48 70 3c a4 6b 81 b9 24 28 fb be 55 20 42 3c
       0.014665816 -0.00024684996 -0.49054062 0.011848529
0001e0 22 20 12 3b ab 98 03 3b c0 5d 92 bd 4c b3 c2 3d
       0.0022296985 0.002008001 -0.07146788 0.095068544
0001f0 48 43 84 3b 40 cb 32 bd 7b c1 c8 ba e2 23 2b bb
       0.004036341 -0.043650866 -0.0015316451 -0.0026113917
000200 c4 21 57 39 d8 78 4d b9 e9 37 bc 39 5c 76 37 3a
       0.00020516576 -0.00019595341 0.0003589981 0.0006998533
000210 68 9f a8 ba bf c1 da 39 b0 2d 17 3d af 22 0b 39
       -0.001286489 0.00041724552 0.036908805 0.00013268994
000220 07 58 2e 3a 31 b0 ba 3a 35 e1 bd bc 47 6d 08 3d
       0.00066506903 0.0014243183 -0.023178676 0.03330734
000230 8c 5e 79 38 5c 3a e9 38 74 dd 03 bd c2 c8 05 3a
       5.945428e-05 0.00011121176 -0.032193616 0.00051034626
000240 7c a8 d0 3c fe 61 38 3a d1 6f 24 b8 c7 a4 7c ba
       0.025470965 0.0007033645 -3.9204784e-05 -0.0009637591
000250 6e 15 cf b8 b6 45 6f bc 8b c5 04 3a 08 05 b5 b9
       -9.874521e-05 -0.014604023 0.00050648366 -0.0003452676
000260 5b 4b 4a ba a4 ae 5e b9 f3 3c 62 3a a8 f9 fb b9
       -0.00077169173 -0.00021236629 0.0008630298 -0.0004806046
000270 34 31 d3 b7 de be 92 3d 37 24 1d ba 2b da d9 3e
       -2.5176072e-05 0.07165311 -0.0005994471 0.4254926
000280 9e be d1 ba eb 69 91 3a 8c e0 0e 39 f4 3a 20 3a
       -0.0016002243 0.0011094188 0.00013625826 0.00061123003
000290 b3 5a c1 b8 94 6c d2 bc 01 3f 83 bb 5b 1d 28 3c
       -9.219851e-05 -0.02568654 -0.0040053134 0.010260905
0002a0 65 48 8a 3d 83 4a ba 3b 7f ba 72 b9 69 0c b1 bd
       0.067520894 0.005685152 -0.00023148394 -0.08644945
0002b0 5e 19 71 bc c1 d0 13 b9 f9 44 20 3a 78 f3 06 3a
       -0.014715521 -0.0001409678 0.00061137934 0.0005147974
0002c0 f2 83 6a b9 4a 32 97 39 2c f3 92 3c 5f 61 1a bc
       -0.00022365132 0.00028838433 0.017938219 -0.009422629
0002d0 85 d2 d8 38 0e 1b b5 39 d2 7e 8b 3a 03 07 a7 39
       0.00010338895 0.00034543168 0.0010642654 0.00031857946
0002e0 bb 4b 4a bc c4 2c 4d bd 5a ab 86 bd 26 ac 8b 3a
       -0.012347157 -0.05009152 -0.065756515 0.0010656163
0002f0 f4 3f 22 3c 4a 78 14 b9 1a 38 18 bc 8e 3c 12 39
       0.009902943 -0.00014159191 -0.009290719 0.00013946203
000300 8f e6 60 bd ea 3d 59 3d 1d 79 c9 3a 60 bf e5 39
       -0.054907378 0.05303756 0.0015371178 0.0004382087
000310 63 4e 59 3a 54 05 1d 3a 74 b0 ec b9 10 57 be b9
       0.00082895736 0.00059898687 -0.00045144896 -0.0003630449
000320 9c 9e 85 37 98 33 ed bc 91 fd 95 bd c7 38 46 3a
       1.5928694e-05 -0.028955266 -0.073237546 0.0007561561
000330 b9 50 06 bd d8 72 6d 3d f9 4e cf 3c b2 ec 50 3c
       -0.032791827 0.05797085 0.025306212 0.012751745
000340 db 92 ab bc be 65 85 3a f0 fe 3c 3a 50 bd 89 3c
       -0.02094405 0.0010177416 0.00072096195 0.016813904
000350 a8 8c 5b 3d da 73 7b 3c a5 dd 8a ba 96 cc b7 bb
       0.053600937 0.015347445 -0.001059462 -0.0056091053
000360 27 01 b4 3c 40 c6 99 3d a9 3a b3 39 a7 85 fa 3a
       0.021973206 0.07508516 0.00034185246 0.0019113318
000370 eb 67 a7 bd 42 fd 4b 39 01 b7 71 b9 4a 8e 75 3a
       -0.08174118 0.00019453935 -0.00023051725 0.0009367211
000380 fd 05 1a bb 7b 0e 69 ba ed ee 3d bd 01 f2 a8 b9
       -0.0023502104 -0.00088904024 -0.046370436 -0.00032223764
000390 ef 8f ee b8 d1 93 6b 3d 6f 68 5d bd 76 02 42 ba
       -0.00011375534 0.057514016 -0.054054674 -0.00074008794
0003a0 2f 00 ee 39 73 fd 10 3a 85 fe 00 bd 60 0e 86 3c
       0.00045395034 0.0005530931 -0.03149273 0.016364276
0003b0 36 e9 92 39 8e 99 ea bd 9b 3b f7 39 1e 91 2b ba
       0.00028021046 -0.114550695 0.0004715592 -0.00065447565
0003c0 9f f4 ae 3d 79 22 9d 3d 6e 96 dc 37 34 05 79 3c
       0.085427515 0.07672591 2.6296093e-05 0.015198994
0003d0 a2 0f 4f 3d 67 36 99 39 2d d7 04 3d 75 f3 e5 b9
       0.050552018 0.00029222967 0.03243177 -0.00043859673
0003e0 dd 8e 2a 3a ed c9 80 3a e4 1f 7d bd 18 e4 06 bc
       0.00065062736 0.0009825804 -0.06179799 -0.008233093
0003f0 52 f7 d4 3c e4 9b 4d bd 9d c8 38 b9 57 c6 41 39
       0.025996838 -0.050197497 -0.00017622342 0.00018479802

actor.4.bias f4 [4]
000000 c6 b4 b7 3e 00 b0 07 3f e4 77 03 3f 52 11 1e 3f
       0.35880107 0.5300293 0.51354814 0.6174518

critic.0.weight f4 [128, 17]
000000 a8 ff 7a bf ed ec 99 3e 9a 97 a0 be 48 15 2b bf
       -0.9804635 0.30063573 -0.31365663 -0.6682935
000010 52 83 22 c0 9f 52 a5 3e 41 84 46 c0 84 af c9 3e
       -2.5392652 0.32289597 -3.1018221 0.3939172
000020 e4 eb c4 bf 2a 96 8a 3e 46 28 df 3f 02 f2 02 41
       -1.5384488 0.2706769 1.7434165 8.184084
000030 60 88 51 3f 59 d6 89 be 9b cb 4e 3c 39 dd a7 bd
       0.81848717 -0.26921347 0.0126217855 -0.08196492
000040 ed 00 aa 3d 12 25 a0 3e c8 de 20 40 a1 6f ac 40
       0.08300958 0.31278282 2.5135975 5.3886266
000050 45 3d f5 be f0 05 f4 3f 23 93 74 bc f1 ed 58 40
       -0.47898307 1.9064312 -0.014927658 3.3895228
000060 51 12 ff 3f f4 0b e8 3f a8 02 82 be b6 00 26 c0
       1.9927465 1.8128648 -0.25392652 -2.5937934
000070 59 bc e2 be f8 01 e3 3e c5 1a b5 3e 92 98 34 3f
       -0.44284323 0.4433744 0.35371986 0.70545304
000080 38 a1 7a 3e 62 40 af 3e 59 d2 f8 3f c0 21 d8 be
       0.24475563 0.34228808 1.9439193 -0.4221325
000090 ae 96 35 40 c3 25 2d 3f 5a 29 29 40 e3 d4 56 c0
       2.8373218 0.67635745 2.643149 -3.3567436
0000a0 91 57 9e 3f 7a 59 cc 3e f9 54 cc bf 84 89 ef 3f
       1.2370473 0.39912015 -1.5963432 1.8713841
0000b0 29 27 65 bf 7f 20 e1 3e b8 2e 9f 3e 5c 9c 1a be
       -0.8951288 0.43970105 0.3109033 -0.15098709
0000c0 02 00 ff 3a a6 8f 7f be 3e 47 f9 be b6 4f 84 40
       0.0019454958 -0.24957141 -0.48687166 4.1347303
0000d0 ee 6f 5c 3e 9e 7a e9 bf a5 d8 62 3d f1 83 70 40
       0.21527073 -1.8240545 0.05538239 3.758053
0000e0 b2 1a 11 bf e0 c6 11 3e 05 ca 9b bf 60 03 37 c0
       -0.5668136 0.14236021 -1.2171026 -2.859581
0000f0 09 d7 63 3f c0 2e 16 be 90 1c 07 bf 7d cd c0 3e
       0.8899999 -0.14666271 -0.5277796 0.37656775
000100 92 24 19 be 9b 0b c6 bd 71 b6 86 be 85 e9 8c bd
       -0.14955357 -0.09670182 -0.26311067 -0.06880478
000110 d1 a4 8d c0 64 e0 dd 3e 58 67 6f 40 18 b7 11 be
       -4.426369 0.4333526 3.7406826 -0.14230001
000120 44 61 5e c0 39 a4 94 3f 8d ed bf 3f c7 61 27 3f
       -3.4746866 1.1612617 1.499437 0.6538357
000130 79 08 4f bd c8 67 f9 3e bd 0b 76 3e 73 ad f0 bd
       -0.05054519 0.4871199 0.24027915 -0.11751833
000140 a3 b8 44 3f 64 b3 33 3e 53 46 b3 3e ba eb 73 3e
       0.76844233 0.17548901 0.3501459 0.23820391
000150 14 0d 14 3e 15 67 35 c0 bb 56 a0 3f 7e 98 3d 40
       0.14458114 -2.8344166 1.2526468 2.9624324
000160 4d 72 8a 3e eb 8e 80 3f 13 9f 5c c0 76 1f 20 c0
       0.2704033 1.0043615 -3.4472091 -2.5019202
000170 cb aa c3 3f 37 1b 9a 3c 7b 61 c4 3f eb bc 3b 3e
       1.5286497 0.018811805 1.5342249 0.18333785
000180 11 05 38 be df 61 f2 3f 07 09 09 3f f1 a3 e7 3e
       -0.17970683 1.8936118 0.535294 0.45242265
000190 3b 55 e8 3e 12 83 55 3e 31 72 9d 40 2c 4d 7d 40
       0.45377526 0.2085078 4.9201894 3.9578352
0001a0 14 6d 09 c0 ae 60 8c be af 0d b7 bd a9 9b fb 3f
       -2.1472826 -0.2741751 -0.08938157 1.9656879
0001b0 ac 36 85 be 56 ec 93 be 83 d5 35 3e 59 16 59 3e
       -0.26018274 -0.28891248 0.1775723 0.21199931
0001c0 0a d0 eb bd 1b c0 78 3d 30 e4 26 be 2b d8 eb bd
       -0.1151429 0.06073008 -0.16297984 -0.1151584
0001d0 84 98 1c be 09 0f ba bd 7c 8f 00 bc 43 6f f6 bf
       -0.15292555 -0.09084899 -0.007846709 -1.9252704
0001e0 aa 67 2a c0 2c 6a 5e 3f 9e c4 40 bd bf f9 26 c0
       -2.6625772 0.86880755 -0.04706251 -2.6089933
0001f0 03 ce 24 c0 74 f7 61 c0 cd 1c e2 bf 75 57 13 3f
       -2.575074 -3.5307283 -1.7665039 0.57555324
000200 af ec aa bf 4b 23 40 40 d8 6c 2e 40 51 7f 9b 3f
       -1.335348 3.002154 2.7253933 1.2148229
000210 32 af 43 3e 8a 64 09 be 10 38 cc 3e 8f 2b dd 3e
       0.191098 -0.13417259 0.39886522 0.43197295
000220 8b bf 30 3f 9d cf 11 c0 7a 50 f6 bf dc 2d fa 3e
       0.6904227 -2.2782967 -1.924331 0.48863113
000230 72 37 17 c0 9c a8 da 3f ef 12 90 3f f4 1b 19 3f
       -2.362759 1.7082705 1.1255778 0.5980828
000240 02 d2 34 bf 6f 04 9f 3f 94 f3 7d 40 27 02 33 3e
       -0.70632946 1.2423228 3.9679918 0.1748129
000250 91 97 5b bf 84 ca b1 bd 1b 67 d4 be 97 24 9c be
       -0.85778147 -0.08681205 -0.41484913 -0.30496666
000260 1b e2 20 be 1a f2 29 41 0e 7a e1 be c5 2d 0e c0
       -0.15711252 10.621607 -0.44038433 -2.2215436
000270 c9 ae 7f 3e bd a6 92 3f c5 c1 28 40 0c 96 05 3f
       0.24969019 1.1457134 2.6368268 0.5218208
000280 07 73 2d bf bc 7f d9 3e 8a 9d 20 bf 3e 3a a0 bd
       -0.6775364 0.42480266 -0.62740386 -0.07823609
000290 1b 81 47 bc 87 b2 1a 3e e2 3b 1c bc 6e 40 39 3e
       -0.012176777 0.15107165 -0.009535762 0.18090984
0002a0 19 89 98 3b ae 8d 9a bd 95 d5 0e bc 44 81 2c c0
       0.004655015 -0.075465545 -0.008717914 -2.6953897
0002b0 60 23 06 c0 98 a7 55 be d0 e4 0a 40 45 30 a4 bf
       -2.095909 -0.20864713 2.1702156 -1.2827231
0002c0 65 3c 92 c0 20 b2 69 3f 55 1e db 3f e5 a3 9f bf
       -4.5698724 0.9128742 1.7118632 -1.2471892
0002d0 ba 47 d5 bd 03 22 a1 3e 93 be 06 bd 61 10 6d bc
       -0.104140714 0.3147126 -0.03289659 -0.014469237
0002e0 fb 1d 21 be 9c 14 f7 3d 8b 5e 29 3d 77 98 40 c0
       -0.15734093 0.12064478 0.04134993 -3.0093057
0002f0 29 e9 59 be e9 81 da c0 e3 50 60 bf 2c 45 3b bf
       -0.2128035 -6.828358 -0.87623423 -0.7315242
000300 24 b3 3a bf 87 e3 82 40 68 7d 3a 3b 1d 21 ee 3e
       -0.72929597 4.0902743 0.0028456096 0.46509638
000310 16 5d 80 be 1e b7 a3 3e 85 4e 99 ba 8b 08 f1 3d
       -0.2507102 0.31975645 -0.0011696374 0.117692076
000320 45 72 83 bd a0 e3 2c be 91 da 91 be 70 d3 4d be
       -0.064182796 -0.16883707 -0.28487065 -0.20100188
000330 1b de 09 bf 0a 24 fe be 03 be 26 40 d7 b0 58 bf
       -0.5385453 -0.4963687 2.6053474 -0.84644836
000340 83 95 b6 3f ad 77 04 c0 7c 42 3b 40 7a d5 f3 bf
       1.4264377 -2.0698044 2.925933 -1.9049523
000350 f0 7f b7 3f d6 5b eb 3e e8 a2 27 be 40 fc bd 3d
       1.4335918 0.45968503 -0.16370738 0.092766285
000360 75 40 cd be d9 09 e0 be be eb 19 bf 08 3a 96 be
       -0.4008824 -0.43757513 -0.6012534 -0.2934115
000370 f4 f4 98 be d1 8b 04 40 64 42 16 3f a3 ce 29 bf
       -0.29874384 2.0710337 0.58695054 -0.6633093
000380 48 74 a5 bf 37 05 b8 3e 53 f5 e8 3f 1e 35 01 c0
       -1.2926111 0.3594148 1.8199867 -2.018867
000390 53 32 2e 3f d4 ab 06 bf fc 3a a4 3e 68 62 f7 3d
       0.6804554 -0.5260594 0.32076252 0.120793164
0003a0 41 f4 e9 3b 94 e0 6f bd 38 56 5b bb 51 dd 2f bd
       0.007139713 -0.058563784 -0.0033468138 -0.042935673
0003b0 ee fa bc 3d 46 9c 18 be c2 bd b6 3e ab 5a 71 40
       0.092275485 -0.14903364 0.3569165 3.771159
0003c0 86 34 50 c0 a9 36 b1 3d f4 28 ec be e3 c4 74 be
       -3.2532058 0.08653004 -0.46124995 -0.23903231
0003d0 1e 1b bc be c2 22 27 c0 41 38 e0 bf 22 12 77 bf
       -0.3673944 -2.6114964 -1.7517167 -0.96512043
0003e0 5f b0 05 c0 d4 f5 64 3f 9f 08 07 3e 26 f7 aa be
       -2.0888898 0.89437604 0.13186882 -0.33391684
0003f0 cf 8d 49 be c8 1f df be e6 ce 13 bf be be 90 3e
       -0.19683002 -0.43578935 -0.57737577 0.28270525

critic.0.bias f4 [128]
000000 af ff 07 bf 6d 57 d8 bd 7b db 0e 3f 32 05 1f be
       -0.5312452 -0.1056355 0.5580365 -0.15529326
000010 71 a8 14 3e 95 e3 ba 3e 63 3f d0 3e f5 a9 bd be
       0.1451738 0.36501756 0.4067336 -0.3704373
000020 8c 46 c2 bb 16 eb 5f 3e a9 35 b7 be 78 96 3a bf
       -0.00592882 0.21867022 -0.35783127 -0.7288585
000030 a6 08 1a bf bd f4 e9 be d8 0c 07 3d 1a 33 9c 3e
       -0.60169446 -0.45694533 0.032971233 0.30507737
000040 c4 e3 0c bf 1b 93 50 3e 52 12 4b bf d7 a4 29 bf
       -0.5503504 0.20368616 -0.7932483 -0.6626715
000050 7c b1 14 bf de 21 09 bf 9b 7f 22 3f a4 af 99 3e
       -0.5808332 -0.535673 0.6347596 0.30016816
000060 f8 66 08 bf 29 53 bd bc 11 dd 22 3f ad 36 8a 3e
       -0.5328212 -0.023110943 0.6361857 0.2699484
000070 be 7d a5 3d fd 1e ae be 91 8e 83 3f 1e 86 6e 3e
       0.08080624 -0.34008017 1.0277883 0.23293349
000080 6f 30 8e 3f fd 11 6a bd 5d 5a 72 be 0f 7b 0b bf
       1.1108531 -0.05714606 -0.23667283 -0.5448465
000090 b7 ab 10 bf 07 f9 56 3e a5 42 d8 be 12 1d 25 bf
       -0.56512016 0.20993434 -0.42238346 -0.6449748
0000a0 fb 06 44 be da e9 32 bf 73 a3 d2 3d 0e 9f 03 bc
       -0.19143288 -0.6988808 0.10285082 -0.008033527
0000b0 08 9c c1 bd 4a c5 d1 3e bb 07 9c 3e 22 21 d6 3e
       -0.09453589 0.40970832 0.30474648 0.41822153
0000c0 23 fc 8e be 71 9b 01 bf cb c4 fa 3e d7 5b f9 3e
       -0.2792674 -0.5062781 0.48978266 0.4870288
0000d0 ab f8 87 3e 03 06 ca 3e 3a c9 ed 3e 38 a1 04 3f
       0.26556906 0.39457712 0.46442586 0.518085
0000e0 c6 71 77 3e 18 6f 35 3d 24 59 91 bd 36 20 15 be
       0.24164495 0.0442954 -0.0709708 -0.14563069
0000f0 61 39 32 3f 04 94 0e be ce 8e 06 bf 51 8f 3f 3f
       0.69618803 -0.13923651 -0.5256165 0.7482806
000100 c0 33 05 3f 7f 73 80 3e 88 bb 82 bf eb 4c 10 bf
       0.5203209 0.25088117 -1.021348 -0.5636737
000110 0f e3 6c bd df c1 f7 bd a7 bd 76 be 2c e2 83 be
       -0.057833727 -0.12097525 -0.24095784 -0.25758493
000120 6a 9e c9 3e 63 0b 3e be fb d3 3c 3e 58 9d 86 bf
       0.39378673 -0.18559031 0.18440239 -1.0516768
000130 46 73 27 bf d4 ce 1e 3e 1c 5c 3f 3d c2 fd e2 3e
       -0.6541027 0.15508586 0.0467187 0.44334227
000140 f3 51 a3 3e 59 d4 ff bd d7 97 0c 3f 91 a0 61 bd
       0.3189846 -0.12491674 0.5491919 -0.05508477
000150 4a f5 21 3f 43 5e 91 be ae a0 8c bf b1 d9 58 be
       0.63264906 -0.28392228 -1.0986536 -0.21176793
000160 87 3a 77 be a4 f8 89 3f fe 90 a5 3e fb 12 b1 be
       -0.2414342 1.0779004 0.32337183 -0.34584793
000170 a0 c1 ba 3e 13 a7 76 be ef 24 0a 3f 70 2c dd 3e
       0.3647585 -0.24087171 0.53962606 0.43197966
000180 e2 ea 6c be d6 59 24 3f 62 97 1d 3e ae 0c 82 3e
       -0.23136476 0.6419958 0.15389779 0.254003
000190 69 5c e6 3d fb 02 5d bd ec 5e 05 3e a6 11 8f 3e
       0.112480946 -0.05395792 0.13024491 0.27943152
0001a0 f8 de e2 3e 73 b6 1e be cf d4 b4 be e9 7f 53 3e
       0.44310737 -0.15499286 -0.3531861 0.20654263
0001b0 3c 71 bc be 3a a3 84 3e 7c 18 4a 3f fb 9f d2 3e
       -0.3680514 0.25905782 0.7894361 0.4113768
0001c0 e1 9f a5 3d e6 52 e2 3d 26 98 19 be 40 d8 ce bc
       0.08087135 0.11050968 -0.14999446 -0.0252496
0001d0 e1 2a 6a be 6b 4a e8 be 79 0d d5 bc 89 ae 85 be
       -0.2286792 -0.45369276 -0.0260074 -0.26109722
0001e0 99 84 dc bd ea 55 10 bf 19 c7 0e be aa ef 09 3f
       -0.107674785 -0.56381094 -0.13943137 0.53881323
0001f0 10 d4 84 3d 46 e0 d6 3e da 40 84 3e 25 ad 55 bf
       0.0648576 0.41967982 0.25830728 -0.8346732

critic.2.weight f4 [128, 128]
000000 53 fd 27 bf 7c ee 97 3c dc 2e a5 3e 16 1b 98 3f
       -0.6562092 0.018546335 0.32262313 1.1883266
000010 f1 55 2e 3f 3f d5 6e bf 30 fe 9b 3e a0 62 09 bf
       0.68099886 -0.9329414 0.30467367 -0.53666115
000020 d2 c4 95 be ca 72 46 3e 1b 51 25 3d d4 3a 16 be
       -0.29251724 0.19379726 0.04036055 -0.14670879
000030 21 2d 92 3e 4c a5 f6 bd b0 ef aa 3f 11 3f ed 3f
       0.28550056 -0.120432466 1.3354397 1.8534871
000040 f9 16 05 3f 17 c3 f4 be 81 86 5f bf 66 68 a7 3f
       0.5198818 -0.47805092 -0.8731461 1.3078735
000050 d5 3e a3 be 8e 55 8b 3f f4 b6 20 3f 35 2b 14 bd
       -0.31883875 1.0885484 0.62779164 -0.036174018
000060 a1 6b 2e 3f de 21 17 c0 d5 df 6f be 4a fd a2 be
       0.6813298 -2.361442 -0.23425229 -0.3183387
000070 4e 10 db bf 43 82 c5 bf d8 94 c7 3e af 0c 2c be
       -1.7114351 -1.5430378 0.38980746 -0.16801713
000080 16 fd c1 3f bf 4b ca be f1 c1 84 3f 9c 6a 4f 3e
       1.5155361 -0.39510915 1.0371686 0.20255512
000090 c1 3e 99 bf 9f 6b 59 3f 4d 1e a4 3f dd b1 15 be
       -1.1972276 0.8492984 1.2821747 -0.1461863
0000a0 14 50 f8 be ce 0c 21 bf 93 5f 36 3e 96 94 05 3e
       -0.48498595 -0.62910163 0.17809896 0.13044962
0000b0 ac a6 41 bf a8 90 b0 bf 0b 0c b6 3f 38 a1 95 3f
       -0.75644946 -1.3794146 1.4222425 1.1689825
0000c0 80 d0 e5 be 8d a8 d2 bf 76 aa c2 be 66 83 4f 3f
       -0.44885635 -1.6457688 -0.38020676 0.81059873
0000d0 55 fb 47 3f 9c a0 f0 bd 21 b2 1a bf fb 42 8d 3f
       0.7811788 -0.11749384 -0.60428053 1.1036066
0000e0 9a 48 3d 3f 03 97 83 bf 96 1c 70 bf ab 02 23 3e
       0.73938906 -1.028046 -0.9379362 0.15918986
0000f0 ab 94 5a be ee 42 61 3f a4 ef 1c 3f 79 44 36 3f
       -0.21345775 0.8799275 0.6130316 0.7119823
000100 05 de 74 3e bb 52 76 bd bf 8e 6f 3e 9d 94 c8 3f
       0.23912819 -0.06013749 0.23394297 1.5670353
000110 36 df d2 3f b0 29 24 3f be b9 22 be b9 c5 73 bd
       1.6474369 0.6412611 -0.15891168 -0.059514735
000120 40 58 f7 3e c4 57 a6 be 54 5d 0f bf a7 02 61 bf
       0.48309517 -0.32488835 -0.5600178 -0.8789467
000130 cb b0 0f bf 57 47 30 3d be 21 0f 40 11 87 e7 bf
       -0.5612914 0.043036785 2.2364345 -1.8088094
000140 05 70 04 bc 85 e2 03 3f 77 58 c8 bf 1a a6 c9 be
       -0.008083348 0.51517516 -1.5651997 -0.39384538
000150 56 07 ba 3e 1e c9 62 3f 82 44 14 be fc b7 12 3f
       0.36333722 0.8858813 -0.14479259 0.5731199
000160 94 64 87 bf 95 49 f5 be 64 86 e7 be b1 5e 8d be
       -1.0577569 -0.479077 -0.4521972 -0.27611306
000170 c2 79 23 bf ba 7d 3d be 99 45 30 3f 98 57 54 bf
       -0.6385766 -0.18504992 0.688562 -0.8294616
000180 47 15 5c be bd fc f7 be fc 79 7a be a4 1b 1d 3e
       -0.21492492 -0.48435012 -0.24460596 0.15342575
000190 08 fa a9 bf 74 cd cf 3f 02 12 40 bf 41 e3 75 be
       -1.3279428 1.6234574 -0.7502748 -0.24012472
0001a0 30 6b cd bf 84 1f 3e 3d b4 af 33 be 79 ab 13 3f
       -1.6048336 0.046416774 -0.17547494 0.5768352
0001b0 7a 1f b4 be 4a 9e 51 bf a1 16 be 3f ed 9f 25 bf
       -0.35180265 -0.81882155 1.4850656 -0.6469715
0001c0 53 3c bb bf e9 b1 eb 3d 64 3d 15 be cb 9a ba 3f
       -1.4627784 0.11508543 -0.145742 1.4578489
0001d0 35 e4 ac 3f e8 69 2a c0 98 1c db bf d5 5e 2a bf
       1.3507143 -2.662714 -1.7118101 -0.6655095
0001e0 24 10 a9 3f bf 3d 3d bf 17 4a ef 3e 83 8f a8 bf
       1.3208051 -0.7392234 0.46736214 -1.3168796
0001f0 de d0 1c 3e bb fc 6d bf 84 a9 48 3f f3 75 0d bf
       0.15314052 -0.9296376 0.7838366 -0.552581
000200 30 65 f0 3f 69 1f 1f be 6e 21 87 be 66 4b 60 bf
       1.878088 -0.15539326 -0.26392692 -0.8761505
000210 bc f1 5b 3f 21 d6 20 be f1 14 e1 bd 76 af 93 3f
       0.8591573 -0.15706684 -0.109903224 1.1537921
000220 c5 e1 e0 3c 90 10 ee 3d b0 71 c0 bf d9 1a 36 3f
       0.027451405 0.11624253 -1.5034695 0.71134716
000230 da 0b 7e be 01 5c 45 be 51 b5 bb 3f 71 3a 52 3e
       -0.24809209 -0.19273378 1.4664708 0.20530106
000240 0e 4d ab 3f 8b 38 30 3f 1f 25 3b be 84 a0 c9 3f
       1.338289 0.6883628 -0.1827588 1.575211
000250 48 eb 82 3f fc 30 88 bf 53 ef 73 3d 7a d3 32 3d
       1.0228052 -1.0639949 0.05955441 0.04365871
000260 f6 5f 89 3f 26 4a 84 bc 88 ee 2b bf 68 71 3c 3f
       1.073241 -0.016148638 -0.67160845 0.73610544
000270 52 d6 58 3e 9a 65 4f bf 69 b6 92 3e 16 c8 a4 3f
       0.21175507 -0.81014407 0.28654793 1.2873561
000280 d2 76 74 bf e5 bd 2b bc 7d 45 fc 3f 11 2f 3a 3f
       -0.95493805 -0.010482286 1.9708706 0.7272807
000290 b9 71 88 bf 24 de d2 3f 62 20 98 3f cf da a5 3f
       -1.0659705 1.6474042 1.1884882 1.29574
0002a0 36 ed b7 be 27 2c f7 bf 98 52 e0 3f bd 13 d5 be
       -0.35923165 -1.9310349 1.7525206 -0.41616622
0002b0 bd 13 0d bf 27 ba 24 3f 64 af b8 3f c6 54 02 be
       -0.55108243 0.64346546 1.4428525 -0.12727651
0002c0 8c 25 d3 be e9 bd 03 3f 6a f0 e9 3d 39 af 2b 40
       -0.41239583 0.51461655 0.114228085 2.6825697
0002d0 31 77 0a 3f 10 5e 4e bf 75 3e 5f 3f c2 c5 35 40
       0.5408812 -0.8061228 0.87204677 2.8401952
0002e0 15 c9 ca be 5b 77 53 bf 71 bf d8 3d f1 b2 5d be
       -0.39606538 -0.82603997 0.105833896 -0.21650292
0002f0 63 dc 7a 3f 55 ca b0 3f bf 5c 12 3f 84 78 4a 3f
       0.97992533 1.3811747 0.5717277 0.7909014
000300 64 27 92 be 7a 4d cf 3e 42 66 41 3f 52 c2 ae 3f
       -0.28545678 0.40488797 0.7554666 1.3653052
000310 d2 4a 11 40 df 2a 39 bf ff d2 a4 3f b8 68 07 bf
       2.2701917 -0.7233104 1.2876891 -0.52894163
000320 d5 39 d8 bf 60 2d b2 3e 50 60 55 bf a2 df 0d 40
       -1.6892649 0.34800243 -0.83350086 2.2167745
000330 b6 5e 81 bf 27 d6 8f be e9 37 29 40 0c ff b1 3e
       -1.0107028 -0.28093073 2.6440375 0.34764898
000340 52 b4 bc be b8 af 29 3f a9 ce 02 c0 36 9f d8 bf
       -0.36856323 0.6628375 -2.0438635 -1.6923587
000350 be a3 80 3e 62 20 5c 3e d3 02 8d be 3a ca d4 3f
       0.25124925 0.21496728 -0.27541217 1.6624215
000360 21 25 ad be da e7 1a be 65 ba cd bf 04 24 3e c0
       -0.3381739 -0.15127507 -1.6072508 -2.9709482
000370 46 a8 aa 3e a6 8b 65 3f 4d b9 ac 3f 37 93 16 bf
       0.33331507 0.8966621 1.3494049 -0.5881838
000380 af 96 bd 3f ab 86 3e bf 46 dd a0 bc 85 69 5e 3f
       1.481161 -0.74424237 -0.019636761 0.8687976
000390 fd 44 48 bf 03 00 f1 3f ab 5a 2a 3e c6 d7 90 bd
       -0.7823027 1.8828129 0.1663615 -0.070724055
0003a0 ba e8 c1 bf bd 1f 25 3f 84 f5 85 3e f1 21 21 bd
       -1.5149148 0.64501554 0.26163876 -0.03933901
0003b0 82 a3 41 3f c2 d1 97 bf 16 2e 3a bf 72 58 37 3f
       0.7564012 -1.1860888 -0.7272657 0.7161933
0003c0 1c cb 10 be 11 e2 54 3e a5 cb 9c 3e 5c ca 7c 3f
       -0.1413998 0.20789362 0.30624118 0.98746276
0003d0 9f 59 c9 3e 2c 02 8f bf 08 05 c7 bd 89 de 41 bf
       0.39326188 -1.1172538 -0.097177565 -0.75730187
0003e0 38 b3 4b 3f 4b e5 00 3f ea 53 fa 3e 06 1b 18 3f
       0.7957034 0.50349873 0.48892146 0.59416234
0003f0 7e 4d 90 be a3 5f 66 bf 87 aa 1e 40 d1 06 58 3f
       -0.28184122 -0.8998968 2.4791582 0.843854

critic.2.bias f4 [128]
000000 76 cf 23 bd 18 21 aa be 05 d3 ff 3e b9 98 21 3e
       -0.039992772 -0.33228374 0.49965683 0.15780915
000010 01 08 ab be 41 9a 88 3e 43 59 d6 be e5 5e b2 3e
       -0.33404544 0.26680186 -0.41864976 0.34838024
000020 c6 38 1a bf 1d b6 8b bd dc ce 25 3e a0 60 07 3f
       -0.6024288 -0.06821845 0.16192192 0.52881813
000030 c3 94 5c 3f 15 e2 ad 3e 95 2f dc 3e b8 4d 47 3f
       0.8616449 0.3396155 0.43005052 0.77852964
000040 5d 90 57 3d a7 be 93 bd ac 2c c9 be 7b 88 2d bf
       0.05262791 -0.072140984 -0.39291894 -0.6778638
000050 eb 83 d0 3e 7a b8 52 3f 72 cd bf be 86 a6 6c 3c
       0.40725645 0.8231274 -0.3746143 0.014443999
000060 83 ba c6 3d b3 16 21 be 63 4b b4 3e 25 d3 ca be
       0.09703543 -0.15731315 0.35213766 -0.39614215
000070 a2 a1 2f 3f 85 04 19 bf 77 84 2f bf 2f 2d e4 bd
       0.6860601 -0.5977252 -0.685615 -0.111414306
000080 4e f8 66 3e a1 a7 e5 be b5 9a 4e 3f 94 58 30 bf
       0.22555658 -0.44854453 0.80704814 -0.6888516
000090 f6 ca 48 be 70 d5 3a 3e f9 65 76 bf 63 34 87 3e
       -0.19608673 0.18245482 -0.9624935 0.26407155
0000a0 49 37 dd 3e 23 2e ab be 00 9b 3d 3f 66 4e 3e 3f
       0.43206242 -0.33433637 0.74064636 0.74338377
0000b0 5d 27 93 be 5c 59 98 bd 8f 86 a3 be b0 cb 98 3e
       -0.2874097 -0.07438919 -0.31938598 0.298429
0000c0 73 12 ff 3e 67 4b 50 3d ff f2 2c bf 47 05 ce 3d
       0.49818763 0.05085316 -0.6755828 0.100596
0000d0 cf c1 2c bf 4a b5 dd be cc 71 2c 3e fc dc 3c bf
       -0.6748323 -0.43302375 0.16840285 -0.73774695
0000e0 0f 5e 0a 3f ae 0e 6e be e6 5f eb 3e 60 4e 40 ba
       0.5404977 -0.23247787 0.45971602 -0.00073358975
0000f0 f8 5d 6a be 8c c1 ab 3e dc 38 95 bd 3a d4 c4 3b
       -0.22887409 0.33546102 -0.07286236 0.0060067447
000100 98 fd cd 3d 4d 5c 04 3f eb d4 d6 3d e9 94 5e 3e
       0.10058135 0.5170334 0.1048983 0.21736492
000110 66 8f be be 31 34 13 bf eb 43 2b 3f 87 42 dc be
       -0.3721878 -0.5750151 0.6690051 -0.43019506
000120 04 b9 af 3e 00 1f e6 be 39 c5 16 3f 76 05 87 3e
       0.34320843 -0.44945526 0.5889469 0.26371354
000130 11 55 38 bf 09 96 ae bd e3 65 73 bc 8b 6c 4e 3f
       -0.720048 -0.08524711 -0.014855835 0.80634373
000140 8c 4a de 3d 55 48 18 be cb 02 51 bf 8d e5 4c 3e
       0.108540624 -0.14871342 -0.81644887 0.20009442
000150 be 3d 39 3e 68 ed 47 bd a1 23 40 be 8c c2 05 3e
       0.18089959 -0.048810393 -0.18763591 0.13062495
000160 09 ab 80 3e 5d 03 c3 3e 2f 64 95 be 61 00 db b8
       0.2513049 0.38088503 -0.29177997 -0.00010442804
000170 a9 ab de be 20 ad b3 3d 1d 00 ff bc fe 18 08 3e
       -0.4349034 0.08773255 -0.031127984 0.13290784
000180 43 b6 5f 3e 76 e0 b3 be a5 92 4d bd 96 94 72 be
       0.21846871 -0.35132188 -0.05018868 -0.23689494
000190 ac a4 6c 3c 62 e1 ba 3e ac ce 29 bf 28 f1 97 be
       0.014443558 0.36500078 -0.6633098 -0.29676175
0001a0 8e ae 81 be 3c d7 cf 3e cb da e0 3c 5f 63 10 3f
       -0.25328487 0.40593898 0.027448079 0.5640163
0001b0 36 e7 f6 be 28 a7 1b bc 78 5c 82 be 2f 6f 00 bf
       -0.48223275 -0.009500302 -0.25461173 -0.5016965
0001c0 72 14 12 bf d0 43 18 be 27 ba df be 09 ef 3c 3f
       -0.5706245 -0.14869618 -0.4369671 0.7380224
0001d0 c3 42 a3 be 86 9c 30 3f 5f 2d 32 bf b5 b6 98 be
       -0.31886873 0.68988836 -0.6960048 -0.29826894
0001e0 85 8d ac 3d 2b 98 2f be 98 06 47 3d c9 43 27 bf
       0.0842543 -0.17147891 0.048590273 -0.65337807
0001f0 58 5f 0e bd dd be c8 be cf 7a 52 3e 4f d4 a6 be
       -0.034758896 -0.39208117 0.2055466 -0.32583854
