examples/drone/logs/fig-eight-5000-forgiving/model_1800.pt (torch, 474978 bytes, 36 tensors)

std f4 [4]
000000 13 f5 a4 3e b2 ba e5 3d 31 43 36 3e df 0e 1e 3e
       0.32218227 0.1121725 0.17799069 0.1543536

actor.0.weight f4 [128, 17]
000000 b6 11 0e be 9d 00 54 3f 90 f5 fe 3e 74 32 b9 be
       -0.13873944 0.82813436 0.49796724 -0.36171305
000010 f6 2d da be 14 01 98 3f 74 ab 05 bf 96 6b aa be
       -0.4261319 1.1875329 -0.5221474 -0.33285207
000020 bd 29 7b be 29 f5 c5 3f 6a 1e f7 bf 61 27 96 3f
       -0.2452764 1.5465442 -1.9306157 1.1730767
000030 e1 84 c0 3f e7 6e a0 bc 32 08 c6 bd 20 76 f3 bc
       1.5040551 -0.019584132 -0.09669532 -0.029719412
000040 a6 04 d5 be 1d 4f b0 ba 6e 4e a2 bd 75 4e af 3f
       -0.4160511 -0.0013451312 -0.079251155 1.3695818
000050 65 92 57 bd 40 3e 10 be 1e f2 db bc d4 68 8b 3d
       -0.052629847 -0.14086246 -0.026848849 0.06807104
000060 7f db 9c bc 1d 18 57 3d 9a a9 f1 bc 87 90 d8 bc
       -0.019147633 0.05251323 -0.029499818 -0.026436104
000070 7e 12 43 bd a8 09 78 bd 76 0e ea be 28 d0 c4 3e
       -0.047625057 -0.060556084 -0.45714158 0.3844006
000080 04 47 5d bd 6b 29 90 bd ed c0 2c 3d 62 a7 d5 bd
       -0.054022804 -0.0703915 0.042176176 -0.10432316
000090 02 df b4 bf 25 fd 2f bf e3 bb db be 15 b6 df be
       -1.4130557 -0.6874564 -0.42916784 -0.43693605
0000a0 23 49 98 bd c6 85 3c be bf 40 ec bc ad 0e 2e 3d
       -0.07435825 -0.18410406 -0.028839467 0.042494465
0000b0 25 f5 88 3d 36 62 83 bd 9d 53 54 3d 99 52 ab 3e
       0.066873826 -0.064152166 0.051837552 0.33461455
0000c0 1a 18 8b 3d 42 0c b8 3e 45 a1 75 3e a5 87 1f 3e
       0.067917064 0.35946852 0.239873 0.15579088
0000d0 62 ee dd be 11 21 91 c0 66 b1 14 3f e0 5e 7a bf
       -0.43345934 -4.5352864 0.5808319 -0.9780102
0000e0 dc 4d b9 be 20 a9 ee be c6 77 e5 bd 4f 07 97 3d
       -0.36192214 -0.46613407 -0.112044856 0.07374441
0000f0 8d a4 1d be b7 84 25 be af 61 6f 3d 7f 9b 4f bd
       -0.15394802 -0.16163908 0.058442768 -0.050685402
000100 4f 6f 71 be 3e 53 31 be a7 52 13 be b2 55 2e be
       -0.23577617 -0.1731691 -0.14386998 -0.17024878
000110 47 6d 5d 3f 7e d4 2c 3e 4c bc 74 40 07 0e 33 be
       0.8649487 0.16877934 3.8239927 -0.1748582
000120 f5 06 16 3f d2 fd d3 bf 05 e1 39 bf 74 10 b6 3e
       0.58604366 -1.6561835 -0.7260898 0.35559428
000130 be 0b 96 3d 7d 4b 04 3e 15 b3 5a be 68 cc f6 3d
       0.073264584 0.12919421 -0.21357377 0.12050706
000140 82 1f 32 be 94 4b 1b bd 00 f6 2a 3d 56 e5 0d 3f
       -0.17394832 -0.037913874 0.04173851 0.55428064
000150 00 9f a5 3e 13 0a 87 be 24 88 5d bc b1 6d 42 c0
       0.3234787 -0.26374874 -0.013521228 -3.037945
000160 92 83 7b 3e 29 ee b9 bf ae e6 17 bf 9d 9b 82 3f
       0.24561909 -1.4525806 -0.59336364 1.020374
000170 95 e5 b9 3e 5d 74 42 3f 8d 5f af 3f 62 0b 28 bf
       0.3630797 0.75958806 1.3701035 -0.6564237
000180 f6 86 26 3f 0a ff 9b 3f 39 cc 5a 3e a3 d8 e9 3e
       0.65049684 1.2187207 0.21366967 0.45673093
000190 ed ad 37 3e fb 84 a5 bd bd 82 86 be 74 7f 2d bf
       0.17937441 -0.08082005 -0.2627162 -0.67772603
0001a0 d8 b4 86 40 98 a4 d1 be 8b 27 26 be 74 aa 81 3d
       4.2095757 -0.40945888 -0.16226022 0.063313395
0001b0 43 00 e2 be f2 0a 30 3d ac 87 7e bd 96 cb c9 bc
       -0.44140825 0.04297919 -0.062141106 -0.02463321
0001c0 b9 89 1d 3a 3e 41 de bd 75 ef fe 3d f3 82 74 3e
       0.0006009597 -0.10852288 0.124480166 0.23878078
0001d0 58 cd 7c 3e 28 63 bc 3c fe d2 1d 3e 1e 28 68 c0
       0.24687707 0.0229965 0.15412518 -3.6274486
0001e0 08 ca 01 40 6a b1 16 c0 58 45 b2 3d 74 33 4d 3f
       2.027956 -2.3545785 0.087046325 0.80156636
0001f0 eb 92 cb be d5 8f de be 71 9d 90 3f 98 7f e6 be
       -0.39760527 -0.4346911 1.1298047 -0.4501922
000200 0f f1 c6 3e 79 ed 1f bd b1 f6 8c 3e 43 39 44 3e
       0.38855788 -0.03904483 0.2753196 0.19162469
000210 8b 70 72 bd 5b cf 48 bd 2e 38 23 3e 00 c9 b7 3d
       -0.05918936 -0.049025875 0.159394 0.089738846
000220 2d 13 a5 be 59 93 a0 bf 7f a1 8d c0 08 4d 39 3f
       -0.32241192 -1.2544967 -4.425964 0.72383165
000230 21 e3 17 40 97 40 f0 3f f2 41 4d 3f 8e 76 ba 3f
       2.3732378 1.8769711 0.8017875 1.456743
000240 45 8a 92 bf 95 65 4e be 52 ba 0f 3e 2b 34 27 be
       -1.1448447 -0.20155938 0.1403592 -0.16328494
000250 a5 7a 92 3d 19 78 29 3e 4b d9 91 3e da 78 28 3d
       0.07152299 0.1654972 0.28486094 0.041130878
000260 7e 9e 06 3f 1e 57 b5 be 01 d1 ab 3f 89 24 cb 3f
       0.5258559 -0.35418028 1.3423158 1.5870525
000270 97 0f 8c 3e 59 42 b0 3f e9 a5 8c 3f 3d 23 c1 bd
       0.27355644 1.3770248 1.0988132 -0.09430549
000280 6c 95 ae 3d 2f 32 9e be 88 8f bd bc 47 38 f1 3d
       0.08524594 -0.30897662 -0.02313973 0.11778312
000290 81 c6 a0 3d 4f 40 88 3d d9 5a 56 be e8 69 b3 3d
       0.078503616 0.06652891 -0.20933093 0.087604344
0002a0 b4 d2 96 3e d5 4e 66 be 33 14 74 3e 4d 61 e8 bb
       0.2945763 -0.2249101 0.2383583 -0.0070916773
0002b0 06 c5 2b 40 13 17 df 3c 8c 70 d5 3f 97 84 78 bf
       2.6839004 0.027232682 1.6674972 -0.97077316
0002c0 c5 3d d1 be 7d 2a a1 3e 5b fa 0a 3e 23 c9 15 3e
       -0.4086744 0.31477728 0.13572066 0.14627509
0002d0 90 84 b4 3e 39 e9 c8 be 85 01 ff 3e 3e 47 14 3e
       0.35257387 -0.39240435 0.49805847 0.14480302
0002e0 8d 84 8c 3c 8a cd 74 bd 57 05 09 3e c6 d7 62 3e
       0.017153049 -0.05976633 0.13380943 0.22152624
0002f0 37 11 3d be d9 de 81 3f cc db d9 3c 37 8e 91 be
       -0.18463598 1.0146133 0.026594065 -0.28428814
000300 c7 25 9e be 5e 6b 0b be 51 e0 aa bd c1 3a 4d ba
       -0.30888197 -0.13615176 -0.08343566 -0.00078288844
000310 93 21 b4 bd 49 f9 08 3d d7 13 22 3d f2 3f df bd
       -0.08795466 0.03344086 0.039569702 -0.109008685
000320 38 4b 1f 3e 03 1e 23 3e 4d 5e b2 be e5 28 c9 be
       0.15556037 0.15929417 -0.3483757 -0.39289013
000330 12 2c 16 be e2 62 a7 3f 8a 6d 38 c0 e0 04 44 3e
       -0.14665249 1.3077052 -2.8816857 0.19142485
000340 30 48 19 40 4d 38 a8 bf a7 1d d8 3d 0c 08 88 3e
       2.395031 -1.3142182 0.10552531 0.2656864
000350 30 34 40 bd 15 3f 82 bc 4f bd ba bd 24 6c 22 bf
       -0.04692477 -0.01589922 -0.09118139 -0.6344626
000360 68 da 81 be 65 66 09 be 5b f5 c2 bd b2 d4 c9 bc
       -0.25361943 -0.13417967 -0.09519454 -0.024637554
000370 62 26 a9 bd e4 e6 80 3e 64 bb 38 3f 5d 1b c3 bf
       -0.08259274 0.25176156 0.72160935 -1.5242726
000380 02 db 48 bd 72 09 e8 3f 9c 1b cb be 62 23 0c 3f
       -0.049036987 1.8127882 -0.39669502 0.5474149
000390 e6 a1 a5 be 4d e0 cd 3d 79 ed 49 3e ef 22 2e 3f
       -0.3235008 0.100525476 0.19719495 0.68022054
0003a0 34 fe 40 bf 52 0f 9e bf 27 ce 1f be d9 74 43 be
       -0.75387883 -1.2348425 -0.15605985 -0.19087543
0003b0 16 08 24 be d3 fa c1 be ae 14 93 3f 2f f8 5b be
       -0.1601871 -0.37886676 1.1490686 -0.21481393
0003c0 76 9f 2c 40 f6 08 50 be c8 0d 71 bf 1f 9d ef bf
       2.6972327 -0.20315918 -0.94161654 -1.8719825
0003d0 03 5a 24 3f a6 d5 66 be f1 96 d0 3d df f4 26 bb
       0.64199847 -0.22542438 0.1018504 -0.0025475544
0003e0 c6 f2 47 3c 1d 03 35 3e 9c 95 91 be 77 e7 14 3d
       0.012203878 0.17676969 -0.28434455 0.036353555
0003f0 13 f9 21 bd 37 25 bb bd 6e 75 0d 3e 6e a3 8f 3d
       -0.039544176 -0.091379575 0.13814327 0.070135936

actor.0.bias f4 [128]
000000 5a 5b 8e be dd ef 53 3e 08 e4 ac be ff ab 85 bd
       -0.2780407 0.2069697 -0.33767724 -0.06526946
000010 9d 64 40 bd 69 b3 25 3e 56 1d 91 ba 25 8f 8f 3a
       -0.046970952 0.16181721 -0.0011071365 0.0010952695
000020 12 9e f1 3e 54 bf 38 bc e0 f7 c4 3d 59 1a a8 3e
       0.4719091 -0.011276085 0.09617591 0.32832602
000030 70 f7 85 bc ad e3 e3 3d f0 34 d2 bb 2d 80 ab be
       -0.016353339 0.1112741 -0.006415002 -0.33496228
000040 68 a0 43 3e 47 c8 3d bc 17 70 b1 3e d5 8e 3f 3e
       0.19104159 -0.011583394 0.3465583 0.1870683
000050 00 15 15 3e 12 57 b4 3e 76 eb ed bd 98 91 92 be
       0.14558792 0.3522268 -0.11617176 -0.28626704
000060 73 80 ba be 48 40 10 be 8f f3 ce 3e d4 43 50 3e
       -0.36426124 -0.14087021 0.40420195 0.20338374
000070 7a 5f 82 be a9 53 02 bf c2 32 d1 bd 82 bb 5f 3d
       -0.25463468 -0.50908905 -0.102147594 0.05462218
000080 56 42 d1 3e e2 a9 1d 3e 31 8b 96 3d 3e 4d a5 3c
       0.40870923 0.15396836 0.073507674 0.020178434
000090 24 f2 60 be 7e de 13 bd 1b ed 3c be 00 34 db 3d
       -0.2196737 -0.036100857 -0.18449824 0.107032776
0000a0 bc 4c 7b 3c 02 4a e5 3e 92 b7 50 3e 00 ed 25 3e
       0.015338119 0.44783026 0.20382527 0.1620369
0000b0 86 94 2d be 2c 73 ec 3d a0 a1 f7 3d a7 11 d6 be
       -0.16951188 0.11545405 0.120913744 -0.41810343
0000c0 de 72 a7 be 4c aa 11 be b7 00 9e 3e 2a 71 9f 3b
       -0.32704824 -0.1422512 0.3085992 0.004865785
0000d0 9f 52 61 3e 49 de b6 3d bc 63 00 bc c7 80 ae 3e
       0.22004174 0.08929116 -0.0078362785 0.34082624
0000e0 a0 40 36 3e 24 58 62 bd 1e 2f 37 3e 3f c8 42 be
       0.1779809 -0.05525984 0.17889068 -0.190217
0000f0 42 83 7b be cf a9 2f 3e e3 cd 3c be b0 be 03 bf
       -0.2456179 0.1715462 -0.18437915 -0.5146284
000100 c1 34 8d 3d 51 39 96 3d e1 df 0a bd 77 9a 2c 3d
       0.06894828 0.07335151 -0.033904914 0.042139497
000110 82 db 7a 3e dc 69 c7 be fc 5f 98 3e 24 7a b3 be
       0.24497798 -0.38947952 0.2976073 -0.35054123
000120 06 f1 5f be 6c d5 9f bd f1 4f be bc 91 8d 2f 3e
       -0.21869287 -0.07804379 -0.023231478 0.17143847
000130 95 1e dd be c5 4f 00 3f 1c 16 e2 be 11 7b e3 bd
       -0.43187395 0.5012172 -0.44157493 -0.111074574
000140 cb f6 33 3b 4a 4e e1 3d 10 14 83 3d d9 d6 ac be
       0.0027460332 0.110012606 0.06400311 -0.33757666
000150 07 ae e5 3b c2 4f 49 3e 70 41 87 bd 68 c7 4d 3e
       0.007009271 0.19659331 -0.06604278 0.20095599
000160 a4 f8 09 be 0d e9 2e 3e e6 be 9f 3d 79 ff 05 be
       -0.13473755 0.1708109 0.07800083 -0.13085736
000170 23 d3 86 be 0a b0 ed 3d 6f 21 f4 3e 3f 2f 26 3e
       -0.2633296 0.116058424 0.47681758 0.1622896
000180 2e 40 6e be b8 f0 e2 bd c2 9a 1b be e7 c7 59 3e
       -0.2326667 -0.1108107 -0.15195754 0.21267663
000190 6a 6d 9e 3d e9 54 a4 3c 98 c5 c0 3d a6 4b 07 bd
       0.07735713 0.02006002 0.09412688 -0.03303113
0001a0 57 07 a5 3e 88 a3 89 be 14 12 d7 3c 55 6c 42 be
       0.32232162 -0.26882577 0.026253738 -0.18986638
0001b0 75 cc 6e bc f2 e0 d6 3c ba d7 0b 3e 7f 2d 31 3e
       -0.014575114 0.02623031 0.13656512 0.17302512
0001c0 91 67 f5 be e1 fe d5 3c 9f c6 3b be 51 05 aa 3e
       -0.47930577 0.026122512 -0.18337487 0.3320718
0001d0 6e 57 92 3e 22 ce 5f be 7f f9 11 be 44 bb 2f be
       0.2858233 -0.21855977 -0.14255331 -0.1716128
0001e0 94 fc 3b 3e 31 d4 7f be 5d 69 50 be 15 d8 a6 bd
       0.1835807 -0.24983288 -0.20352693 -0.08146683
0001f0 b6 96 02 3d a4 87 14 be c9 78 a7 bd 93 c7 3b bd
       0.03188201 -0.14504868 -0.08177335 -0.045844626

actor.2.weight f4 [128, 128]
000000 fb 67 4e 3d b1 9d 8f bd 89 2e a2 3b 2f 9c d4 bd
       0.050392132 -0.07012499 0.004949395 -0.10381352
000010 d0 e6 06 3b 24 f6 8c bd 25 6e 80 3d dc e3 35 3b
       0.0020584352 -0.06882885 0.062710084 0.0027754223
000020 ac 64 15 3b e4 cd f0 bc 55 13 94 bd a7 7c 0b bc
       0.00227956 -0.029395051 -0.0723025 -0.008513606
000030 f9 f0 97 3c f9 a1 f7 bd e5 8b 82 bd 06 57 08 be
       0.018547522 -0.12091441 -0.06374339 -0.13314447
000040 b2 ed b8 bc 0a 40 61 bd 52 05 b7 3d a9 6c 93 bd
       -0.02257428 -0.054992713 0.08936562 -0.0719846
000050 74 9b 2d 3d 90 5c a2 3c d8 2e 3d bd 6b e4 da bc
       0.04238458 0.019819528 -0.04618725 -0.026720246
000060 1e c6 2f bd e6 c8 aa bd c8 32 cf bd 37 0b e9 bb
       -0.04291355 -0.083390996 -0.10117108 -0.0071119326
000070 c2 36 30 3c 95 d5 17 bc 94 65 a2 3d cd 47 e5 bd
       0.010755243 -0.0092672305 0.07929531 -0.111953355
000080 c3 94 14 bd c1 33 a8 bd 6e b0 9f bc 3d 05 70 3d
       -0.036274683 -0.08212996 -0.019493308 0.058598746
000090 cf ef fa 3c b2 28 80 3c c0 b9 22 3d 0f 28 ed bc
       0.030631928 0.015644405 0.039727926 -0.028949765
0000a0 78 0d 26 bd 57 6d 77 bd b9 fc e1 bd 42 7e 7b 3d
       -0.04054019 -0.06040701 -0.11034531 0.061399706
0000b0 60 76 c9 bd 3f ed 1d 3c ed 8d 32 bd 31 54 ec bd
       -0.09837031 0.009639083 -0.043592382 -0.11539496
0000c0 1c 22 5b 3d da c6 60 3d 52 0b 37 3c 44 45 37 bc
       0.053499326 0.05487714 0.011172133 -0.011185948
0000d0 8d 64 1a be 7e fe be 3c a0 7a 5a bd 3f ba a1 3d
       -0.1507742 0.02331471 -0.0533396 0.07896852
0000e0 cc b3 fb bb c2 23 62 be cb 91 ab 3d c8 09 cd 3d
       -0.0076813456 -0.22083953 0.08377417 0.10011631
0000f0 08 69 37 3d 90 04 ec 3b 53 ef 58 3d ec fb 84 bc
       0.0447779 0.0072026923 0.052962612 -0.016233407
000100 1d c1 61 3d 26 7a 1a bd d6 0b 87 3d 4d bc 47 bc
       0.055115808 -0.037714146 0.065940544 -0.0121908905
000110 56 86 13 bd cc 72 86 3d 09 d8 6a bc 14 fe 6c bd
       -0.036016785 0.065648645 -0.014333733 -0.057859495
000120 65 f4 6e 3d 9d 26 93 bc 26 4b 8d 3d a2 3d 8c bb
       0.05833854 -0.017962748 0.06899099 -0.004279808
000130 95 bd d9 bc 3f aa b8 3c 96 f7 cb 3b fb 4d 1f 3d
       -0.026579658 0.022542117 0.006224583 0.038892727
000140 a1 c9 b7 bd 62 47 19 3d 8b 69 18 3d 9c 05 a6 3c
       -0.089740045 0.03742159 0.03721003 0.020266347
000150 29 fa 9e bc 85 37 0f bd 78 89 90 bd 35 58 ce 3c
       -0.019406395 -0.034965057 -0.0705747 0.025188545
000160 d2 6f e2 3d 7e 44 72 bd aa 0b f2 bc c5 23 71 bd
       0.11056484 -0.05914735 -0.029546577 -0.058872003
000170 67 32 3c 3d 18 ba 67 bc 94 51 71 bc e0 ac fe bc
       0.045946505 -0.014143489 -0.014728922 -0.031088293
000180 61 be 88 3a 2b 80 ff 3c 5a 84 d7 bd 09 6d 6b 3c
       0.0010432714 0.031189045 -0.10523291 0.014369258
000190 98 03 bb bd 24 99 9a bd f5 cb 09 bd a2 ef 8b 3d
       -0.09131545 -0.075487405 -0.033641774 0.06832816
0001a0 57 09 c2 bd fe bb 25 bd 96 fe 67 bc 5f d4 30 3d
       -0.09474438 -0.040462486 -0.014159819 0.043171283
0001b0 07 b3 08 bd f7 70 35 3d 0a 96 24 bd a0 6e ac 3d
       -0.03337386 0.044297185 -0.04018215 0.084195375
0001c0 a0 a8 c1 3d bf 7b d2 3d b7 a1 71 bc 29 3e 87 3c
       0.09455991 0.10277509 -0.0147480285 0.016509132
0001d0 e2 ce 13 bd cd 20 ca 3c 22 35 92 bd ac af a6 3c
       -0.03608597 0.024673844 -0.071390405 0.020347439
0001e0 7f 8d d7 3c 05 e0 72 bd d8 15 3d bd c9 04 dd 3c
       0.026312588 -0.059295673 -0.04616341 0.02697982
0001f0 24 30 fd 3d ad 87 6d bd 22 ab bd ba d1 07 e2 bd
       0.12362698 -0.05799072 -0.0014470557 -0.11036647
000200 c5 86 9b 3d e2 51 85 3d 0b 30 88 bd 1d f9 97 bc
       0.075940646 0.065097585 -0.066497885 -0.018551404
000210 20 b8 71 bd d3 94 07 bd b4 8a a0 bd 6c 1c da 3d
       -0.059013486 -0.033100914 -0.078389555 0.10649952
000220 33 4b 83 3d e9 6b e3 3c 8f 3d d9 bd 01 a2 5f 3c
       0.064108275 0.027761417 -0.106074445 0.013649465
000230 7b 22 26 3d d7 0d b4 bd e2 1a 29 3e 69 fb b8 bc
       0.040560227 -0.08791702 0.16514161 -0.02258082
000240 56 91 81 bd 2f 03 60 bc 63 07 8b bb 8f 7b cd 3d
       -0.06326549 -0.013672634 -0.004242824 0.100333326
000250 52 b2 0b bc 0d 58 1e bd 5e eb 90 3d a9 bb 3d bd
       -0.008526402 -0.03865819 0.07076143 -0.046321545
000260 be 6b 17 3d 52 4e 2f bd e9 d1 c0 3c 97 fb 32 bd
       0.036967985 -0.0427993 0.023537593 -0.043696966
000270 c0 74 27 3b ad f4 a5 bc 07 90 33 be 5a e1 4d bd
       0.0025551766 -0.020258272 -0.17535411 -0.05026374
000280 15 74 9b 3d a3 88 2b 3e 42 47 e9 bb 05 60 5f 3d
       0.075905 0.16751342 -0.0071190903 0.05453493
000290 c1 4c 1b bc 78 21 73 bd c2 df 16 bc e3 66 06 3e
       -0.009478749 -0.05935809 -0.009208621 0.13125186
0002a0 38 1e e5 bd 44 7b 14 3d 53 1e 0c 3d e0 d4 86 3d
       -0.111874044 0.036250368 0.034208607 0.065835714
0002b0 de d8 f9 bd 48 42 78 3d 86 0e ad bb c2 a3 6c 3d
       -0.12199567 0.060610086 -0.0052812723 0.05777336
0002c0 8e c2 07 3e e0 25 a7 bd 44 fd 0c 3b 4f 43 e5 3d
       0.1325781 -0.08161521 0.0021513263 0.11194479
0002d0 99 4a 19 be 83 d4 6d 3d 4e e5 2e bd 6f 67 1d 3e
       -0.14969863 0.058063995 -0.04269915 0.15371488
0002e0 03 89 08 be 5f 5e 7d 3b d4 0a 3b be fe 9f 9c bd
       -0.13333516 0.0038660986 -0.1826585 -0.076477036
0002f0 0b db 15 bd fb af a1 bd 23 41 d6 bc 01 be f6 3c
       -0.03658585 -0.07894894 -0.026154106 0.030119898
000300 32 9c 01 3c 7e 1c 11 be 89 8c a8 3c 91 fe 92 3d
       0.007910775 -0.14171025 0.020574825 0.07177461
000310 6d 06 a6 3c 94 1c 2a 3d 1d a9 94 3d 90 ba d8 bc
       0.020266736 0.04153116 0.07258818 -0.026456147
000320 38 98 e0 bb 07 94 b2 3d a9 59 b3 bc c4 cf f7 3d
       -0.0068540834 0.0871964 -0.02189334 0.12100175
000330 f7 ee c8 3b 9b 5f 04 3e 5f ef 05 be 19 ab 4c 3d
       0.0061320025 0.12927096 -0.13079594 0.04996786
000340 20 98 17 3d 1b 4d 55 3d f4 b9 e7 3b 5d 04 0b 3d
       0.037010312 0.052075487 0.007071728 0.033939708
000350 81 cc 67 3c 6b a6 3e 3d dc 28 36 be d1 5f 90 3c
       0.014147879 0.046545427 -0.17789024 0.017623814
000360 84 f3 52 be 94 e7 5d bd 3a c9 3e 3c 12 3e 02 3e
       -0.20600706 -0.05417593 0.011644656 0.1271899
000370 da 91 30 3d f4 73 87 3c 7d f6 99 bd 22 8d 7e 3d
       0.043107845 0.016534783 -0.07517717 0.062146313
000380 4d 5a dc 3d 6d 27 39 3c 17 8f 70 bc 21 3a 4e 3d
       0.10759411 0.011300904 -0.014682553 0.050348405
000390 12 72 86 3d db 96 f0 bc 30 38 05 bd c0 17 8b be
       0.06564726 -0.029368808 -0.032524288 -0.27166557
0003a0 0b 9c 95 3c 6e 94 96 3d 73 2d 0b 3d 6e 39 a7 3d
       0.018262884 0.073525295 0.03397889 0.08165251
0003b0 af d0 45 be 94 0e 00 be 02 e8 c2 bc f7 00 91 3d
       -0.19317888 -0.12505561 -0.02379227 0.07080262
0003c0 e5 6e 87 3d ae 19 d7 bd 0e ba c0 3d 17 e9 2d 3d
       0.06612948 -0.10502945 0.09410487 0.04245862
0003d0 10 31 28 bd b5 06 5d bd 7f bc d8 bd bd a4 2f 3d
       -0.041062415 -0.053961474 -0.10582828 0.042881716
0003e0 fc 5d 0a 3e 41 28 80 3a d5 d4 f9 3a 17 19 db bc
       0.13512415 0.0009777622 0.0019060621 -0.026745362
0003f0 d7 b2 22 3e 27 47 76 3c 8e f4 30 bd e8 e0 06 bc
       0.15888534 0.0150316125 -0.043201976 -0.008232333

actor.2.bias f4 [128]
000000 96 1c 79 3d e2 3a f2 3d 5c 52 a1 3d 9a cf d9 3c
       0.060818277 0.11827637 0.07877037 0.02658825
000010 c1 76 f4 3d d4 7d a0 bc 2f 3b 52 3e 0b a3 c6 bc
       0.11936713 -0.01959125 0.20530389 -0.024247667
000020 4b 60 c5 bd a9 9f 5f 3d 34 f5 90 bd 94 c8 57 bc
       -0.09637507 0.054595623 -0.07078019 -0.01317038
000030 0a 97 71 3b 2e 06 98 3c f0 98 91 be 21 91 c1 3d
       0.0036863708 0.018557634 -0.28436995 0.09451509
000040 c7 0a 38 3e 1b 31 d1 bd f9 26 90 3d 14 65 f9 3c
       0.17972861 -0.10214444 0.070386834 0.030443706
000050 60 39 15 be 75 b7 c2 be 73 36 8c 3c 74 23 7b bd
       -0.14572668 -0.38030592 0.017115807 -0.061313108
000060 d8 d7 e0 bb 0e 9b 83 bd 49 31 d5 3d 16 64 70 3d
       -0.006861668 -0.06426059 0.10409791 0.0586892
000070 c2 c4 8f bd 94 a6 47 3c 27 dd d6 bd d7 79 3e 3f
       -0.070199504 0.012185711 -0.104914 0.7440466
000080 88 a3 7d 3c 03 76 c6 3d 0a 0e 2a bd 23 44 ca 3c
       0.015480883 0.09690478 -0.041517295 0.024690693
000090 84 70 ec 3d de 0a c1 bc be 1e 78 be 7f e8 6d bd
       0.11544898 -0.023564752 -0.24230477 -0.058083054
0000a0 11 de 0b be f5 03 85 be c8 94 5f 3d 39 f3 dd 3e
       -0.1365893 -0.2597958 0.05458525 0.43349627
0000b0 3d f8 00 3e 71 3c c5 bc a1 53 49 bd ca 44 57 3d
       0.12594695 -0.024076672 -0.04915202 0.052555837
0000c0 84 dc 37 3d 9a 3a 9c bd 1d 1e 3f 3f 65 8f 4e be
       0.044888034 -0.07628365 0.74655324 -0.20171888
0000d0 7b 10 e3 3c f6 a3 1e bc a8 a7 fc 3b 6e 26 c1 bc
       0.02771782 -0.009682646 0.007710416 -0.023577895
0000e0 90 44 48 3c f0 64 d2 bd 4c ef f5 bc 72 b6 a7 3d
       0.012223378 -0.102731586 -0.030021332 0.081890956
0000f0 72 2d ab be 70 e7 25 3c 69 58 46 be f0 c8 6e 3d
       -0.3343311 0.01012598 -0.19369663 0.058297098
000100 e6 63 17 be 84 eb 14 3e 36 2a 34 bc a4 a9 9e 3d
       -0.14784202 0.14542967 -0.010996392 0.077472
000110 03 ae 46 3c 74 f1 d3 3c 0f 00 5f 3d fc b8 f3 bd
       0.012126449 0.02587197 0.054443415 -0.11900517
000120 65 66 b1 bd 83 17 e9 3d 7f b5 9a bd 26 4a dd bd
       -0.08662108 0.11381438 -0.07554149 -0.10805158
000130 65 81 39 be c6 e7 25 3f 28 f5 b4 3e 06 3d ec 3e
       -0.18115766 0.64806783 0.3534329 0.46140307
000140 b5 5f 6e 3c 04 91 43 3d 7f c4 d1 3d cb dc d9 bc
       0.0145491855 0.04774572 0.10242557 -0.02659454
000150 f2 4b c4 bd d0 87 e4 be 28 c6 68 bd a6 a2 2f bd
       -0.09584798 -0.44634867 -0.0568296 -0.042879723
000160 40 f3 55 3e 8b af 92 be 67 dd ed bd 94 0c 95 be
       0.20893574 -0.28649554 -0.11614495 -0.2911116
000170 0d 86 eb 3e 9c be 81 bd ef a2 07 bc 69 fc 97 bd
       0.4600071 -0.06335184 -0.0082785925 -0.0742119
000180 97 6f 54 be db 6b cc 3d c2 b7 03 be 13 a1 be 3d
       -0.20745693 0.09981509 -0.12863067 0.09308066
000190 95 dc c1 3d b4 df f6 3e 2f a8 22 3f f5 d7 1f bb
       0.09465901 0.48217547 0.6353788 -0.0024390195
0001a0 ba da ab bd 27 ae db bc 1f b2 7e 3e 09 8d c6 3e
       -0.08391328 -0.02681644 0.24872635 0.38779476
0001b0 db 03 37 3c 0e a6 b7 be 62 ac b8 3c 08 b8 78 3c
       0.011170353 -0.35868877 0.022543136 0.015180595
0001c0 35 52 c6 3e 7e 82 ea be 0e e5 82 bd 98 7f 21 bf
       0.38734594 -0.45802683 -0.06391345 -0.6308532
0001d0 03 61 eb bc 19 28 57 bc e5 6c c4 be be 60 b6 bc
       -0.028732782 -0.013132119 -0.3836433 -0.022262927
0001e0 0b e4 99 bd 6f cd 87 bd a1 19 2a be 94 42 5f 3d
       -0.07514199 -0.0663098 -0.16611339 0.054506853
0001f0 10 7a 1e 3f 46 d2 2b be 5b b3 ee 3c 50 08 cb bb
       0.61905 -0.16779432 0.029138258 -0.0061960593

actor.4.weight f4 [4, 128]
000000 32 b7 32 3b dd ee 1b 3a 1a bd 01 bc c7 2c b4 39
       0.0027269837 0.0005948374 -0.0079186205 0.00034365637
000010 14 c3 28 bb 76 94 1a bb 99 8d 41 bd 62 a2 b6 ba
       -0.0025751041 -0.0023587025 -0.04725418 -0.0013933892
000020 21 d0 31 b9 69 15 73 3b 0f f4 da bd 94 bc 62 bd
       -0.0001695757 0.003709162 -0.10691082 -0.055355623
000030 73 b0 8d bb ea 82 ac ba ae 2c 8a 3d 89 bc 3e 3a
       -0.004324013 -0.0013161574 0.06746803 0.0007276019
000040 f5 35 40 be bf 23 c9 bb 87 61 00 ba bd fc 09 bb
       -0.18770583 -0.0061382945 -0.0004897345 -0.0021055185
000050 c7 d3 40 3a cd d6 d9 3d 8c c7 d6 bb c2 cb e4 3b
       0.0007355776 0.10636673 -0.0065545496 0.0069822976
000060 5c 6c 3b 3b 67 37 3e ba e2 fa 41 3b 5c 28 53 3b
       0.0028598523 -0.00072561804 0.0029599 0.00322201
000070 04 4c 5a bb 61 36 16 3e 12 b7 59 bb 38 99 3b 3e
       -0.003330947 0.14669181 -0.003322069 0.18320167
000080 2e 65 fc 3a dc cd d5 3b 80 48 ba 3a 5f 79 f3 b9
       0.0019256228 0.0065247845 0.001421228 -0.00046439
000090 08 73 b4 bb 04 0a 3d bb b4 b7 d6 3d a8 d6 18 be
       -0.005506877 -0.002884508 0.10484257 -0.14925635
0000a0 8e 36 b3 3d 1c c7 92 be 57 f4 0a 3b e4 cf bd bd
       0.0875064 -0.28667533 0.0021202767 -0.092681676
0000b0 0f 72 c1 3d 09 96 54 38 b3 72 65 3b 42 23 92 bb
       0.09445583 5.068447e-05 0.0035010993 -0.0044597695
0000c0 e9 a2 63 3b fe 95 fa ba 0c 60 c4 3e e2 62 cb 3d
       0.0034734553 -0.0019118187 0.38354528 0.0993097
0000d0 6c f4 04 3b b3 2a 5f 39 94 2f 4e 3a ec 03 40 bb
       0.0020287288 0.00021282844 0.0007865366 -0.0029299213
0000e0 cc cb ed 3c ac e4 25 3e 5f f0 05 3e de 9d d8 39
       0.029027842 0.16200513 0.13079976 0.0004131635
0000f0 b3 51 08 bd f6 2f bb 38 45 61 11 3d 9a c2 cc ba
       -0.03328104 8.925788e-05 0.035493154 -0.0015621961
000100 93 96 9c 3c 86 84 2c bc d2 6b 51 3b 5d 6a 7b bb
       0.019114768 -0.010529643 0.0031955135 -0.0038362958
000110 f5 45 aa 38 9a 67 25 3b 7d 0b 46 3b 85 e4 3c 3b
       8.119262e-05 0.0025238753 0.003021925 0.0028822732
000120 b9 a1 79 3b 9f a6 d9 3d 02 be a1 bd 65 c2 b7 3a
       0.003809078 0.106274836 -0.07897569 0.0014019726
000130 03 6a 09 3e 76 f8 ec 3e 82 24 4c 3d d3 14 97 bd
       0.13419347 0.4628331 0.049839504 -0.07377019
000140 38 ee c0 bd 0b 93 2e 3a 8b b1 a2 ba c4 70 31 3d
       -0.094204366 0.00066594844 -0.0012412531 0.043320432
000150 a9 47 e4 bd a7 8e 0c be fa 94 36 3b cd 0d e1 3c
       -0.111464806 -0.13726293 0.0027859793 0.027472401
000160 aa 40 4a 3e e1 e0 f6 3c b4 71 0a bb df 2a 5d 3d
       0.1975123 0.030136527 -0.0021124901 0.053995963
000170 e5 12 3a 3e 82 f4 40 ba 9b c6 06 3b 69 eb 1b bb
       0.1817127 -0.0007360653 0.0020565155 -0.0023791438
000180 b9 c1 5a bd cf 4a f2 3a 6e 55 1e bd 91 30 be 3a
       -0.053407405 0.001848543 -0.03865569 0.0014510324
000190 ef 36 f6 3b 23 5b 22 be a3 dd ff bd bd 09 22 3b
       0.007513873 -0.15855078 -0.12493446 0.0024725043
0001a0 5e 6e 1e bb a9 03 82 ba ad fb a2 3d 2b a9 4b 3d
       -0.002417467 -0.0009919304 0.079581596 0.049721878
0001b0 f1 8b 8c bb 9b 72 23 bd 2d 8e 4e 3b 0a b1 fe 36
       -0.0042891433 -0.03990422 0.003151785 7.5904e-06
0001c0 5f b3 43 3d 07 7d 1d bd d4 32 cc 39 d0 e7 e2 bd
       0.047778483 -0.038449313 0.00038947782 -0.11079371
0001d0 c0 af f7 3c 5b 91 b6 ba fa 4a 23 be bc 1c 5a bb
       0.030235171 -0.0013928817 -0.1594657 -0.0033281287
0001e0 e9 21 9d 3a 87 3c 39 ba fc 86 23 bd 14 e5 8a 3d
       0.0011988255 -0.0007066209 -0.039923653 0.067819744
0001f0 9b a4 ea 3d 41 f6 7c 3c 15 3a 1e bb c5 b9 33 bc
       0.11457177 0.015439571 -0.0024143506 -0.010969584
000200 15 bc 88 b9 de bc 20 ba 2a 7c 5b b9 a2 85 01 b7
       -0.00026080073 -0.0006131659 -0.00020931722 -7.720113e-06
000210 ac c8 a1 ba 65 6c 22 ba 4e ee 95 3d 66 76 11 39
       -0.001234313 -0.00061959616 0.07320844 0.00013872384
000220 92 49 88 ba e9 16 b1 39 22 ab 21 bd 36 ff 6e 3d
       -0.0010397902 0.0003377714 -0.039469846 0.058348857
000230 4b 19 83 3a c9 e8 94 3a c8 e7 e7 bb 4e d0 99 b9
       0.0010002045 0.0011360879 -0.007077191 -0.00029337633
000240 21 45 c5 3b 49 97 52 3a 46 12 e2 ba 4b d6 59 3b
       0.0060202037 0.00080334075 -0.0017247878 0.00332393
000250 6a dd 31 3a 6b 3d 5c bd f1 f7 94 38 2f 63 d8 ba
       0.00067850074 -0.05376951 7.1033726e-05 -0.0016509051
000260 fa 0a a3 39 3a c1 e3 ba 97 33 a2 b9 90 f4 70 ba
       0.0003109796 -0.0017376312 -0.00030937485 -0.0009191716
000270 76 3a e8 3a 8a e6 c1 3d 99 ec 2e 3a 59 22 f0 3e
       0.0017717618 0.094678 0.0006672829 0.46901205
000280 49 0e 86 ba 49 b1 d1 b9 bd 8a a4 3a 34 8b 8c ba
       -0.0010227646 -0.00039995674 0.0012553554 -0.0010722638
000290 54 65 91 b9 0d d1 3a 3b 22 9b bc ba 1b 87 90 bc
       -0.0002773205 0.0028505952 -0.0014389495 -0.017642548
0002a0 74 1e bf 3d 46 50 a5 bc 24 33 a3 b7 76 68 cb bd
       0.0933198 -0.020179879 -1.9454928e-05 -0.09932034
0002b0 f7 0b 14 3b 92 36 45 ba 08 25 48 b9 0a a3 4d 3a
       0.002259014 -0.0007523085 -0.00019087282 0.0007844424
0002c0 3b d4 19 ba 29 88 4d ba e3 50 00 3e 50 90 be bc
       -0.00058681116 -0.0007840419 0.12530856 -0.023262173
0002d0 45 a0 92 b9 e1 b7 47 ba 0b 97 18 3a 4d a4 0e 3a
       -0.000279667 -0.00076186477 0.0005820847 0.0005441353
0002e0 74 56 a1 bc 25 c3 ad bd 5a f6 cb bd 92 ea 64 3a
       -0.019694544 -0.084844865 -0.09959097 0.00087324635
0002f0 b6 12 a6 ba 11 4e c7 39 b3 a9 1d bd 09 80 bb 39
       -0.0012670371 0.00038014402 -0.038491916 0.00035762813
000300 96 3b 9a bd d2 7a 9d 3d de bc 3c ba 90 76 0e 3a
       -0.07530896 0.07689442 -0.0007199774 0.00054345373
000310 26 6d 8c 3a 4b 18 85 3a 52 2f 30 ba 52 96 80 3a
       0.0010713681 0.0010154335 -0.00067209185 0.0009810424
000320 a5 ea 59 3a 8d 46 6b bd f5 af a7 bd fa d2 9e b9
       0.0008312858 -0.05744033 -0.08187858 -0.00030293298
000330 bd 77 6e bd d3 70 9f 3d 96 7a cf 3c 26 8e 60 3d
       -0.05821966 0.077851914 0.025327008 0.054823063
000340 1c cd 3a bd 3b 72 ab 38 78 a3 86 3a a9 a8 09 3d
       -0.045605764 8.1751925e-05 0.0010272106 0.033608112
000350 bf db b4 3d 72 92 af 3c 55 45 c3 ba 2c 6f 9d bc
       0.08830976 0.021432135 -0.0014897982 -0.01921805
000360 82 1e ca 3c cd 84 1c 3e a8 27 ae 38 ec 3c 1a bd
       0.02467275 0.15285034 8.304353e-05 -0.037655756
000370 1f 6c d9 bd a1 3a 98 3a 96 19 2c ba 97 da 4f ba
       -0.106163256 0.0011614152 -0.0006565092 -0.0007928996
000380 05 e9 d8 3b a4 b8 3f b9 45 f9 b2 bd b0 e6 8a ba
       0.006619575 -0.00018283963 -0.08738951 -0.0010597315
000390 9b 0f 8d ba bc 4c 76 3d 92 03 77 bd 17 6f 84 3a
       -0.0010762097 0.060131773 -0.06030614 0.0010103908
0003a0 af bf 05 3a 90 ea ee 39 5b ad 1b bd 98 79 70 bb
       0.00051021104 0.0004556966 -0.03800712 -0.003669357
0003b0 11 3f 9e ba 9f 03 01 be e1 c0 74 39 64 c6 33 39
       -0.0012073239 -0.12599038 0.00023341506 0.00017144677
0003c0 42 c6 c6 3d 97 ea d1 3d 82 47 fe 39 c7 ed 4d 3b
       0.097057834 0.102498226 0.00048499933 0.0031422244
0003d0 9a fb 55 3d 72 8d 2f b9 8e 64 07 3c 57 51 66 39
       0.0522419 -0.00016741993 0.00826372 0.00021964811
0003e0 19 67 0d 3a 56 05 cb 39 ea 3d 01 bd c8 3a 13 ba
       0.0005394086 0.00038723153 -0.031553186 -0.0005616364
0003f0 bb 06 98 3c 41 0c 29 bd 9c 25 02 3b 9d c9 40 ba
       0.018557897 -0.04127145 0.0019858843 -0.00073542615

actor.4.bias f4 [4]
000000 64 07 98 3e 6c f8 0a 3f e0 ce ea 3e a5 37 23 3f
       0.2969314 0.5428531 0.45860958 0.6375678

critic.0.weight f4 [128, 17]
000000 95 ba 87 bf b6 13 a6 bd e1 89 20 be 27 2f 84 be
       -1.0603815 -0.08109228 -0.15677597 -0.25817224
000010 8c 59 a1 bf af 9c e8 3d f5 8c fd bf 16 7f 80 be
       -1.2605453 0.1135801 -1.9808642 -0.2509696
000020 a5 a3 ee bf 8a df 00 be 56 58 dd 3f 46 2b b9 40
       -1.864369 -0.12585273 1.7292583 5.7865324
000030 5d 0e cf 3f 2f aa e4 bc 0e f0 91 3e c3 d6 12 3e
       1.6176258 -0.027913181 0.2850346 0.14339738
000040 9f e0 b7 3e 0f 62 51 bf 86 45 07 40 2d e7 01 40
       0.3591356 -0.8179025 2.1136184 2.0297348
000050 f3 21 13 be 55 dc 68 3f 41 0b a2 bc 28 01 43 40
       -0.1436842 0.909612 -0.019780757 3.0469456
000060 ba 23 bd 3f 12 d8 d7 3f 64 00 87 bd 11 b3 01 c0
       1.4776528 1.6862814 -0.065918714 -2.0265543
000070 80 72 a3 bf 7d cc 1a 3f 18 e2 c8 3e 61 1b 27 3f
       -1.2769318 0.60468274 0.39234996 0.6527615
000080 e5 34 8d 3d ea f9 ac 3e 13 e0 eb 3e f8 7b ad bd
       0.068948545 0.3378442 0.46069393 -0.08470911
000090 f0 ea d2 3e ef fc 4a 3f 50 55 24 3f 7c 00 c8 bf
       0.41194868 0.79292196 0.64192677 -1.5625148
0000a0 19 c0 0d 3f 72 ab 45 3f 66 73 99 bf 01 a0 df 3f
       0.5537124 0.7721473 -1.1988342 1.7470704
0000b0 bc 1a e2 bf 49 a7 3a 3f e4 43 ea 3e 89 77 88 3d
       -1.7664409 0.72911507 0.4575492 0.066634245
0000c0 e3 b8 e7 3e ad 4a c0 bc 65 63 c4 bc a9 60 40 40
       0.45258245 -0.023473108 -0.023973176 3.0058997
0000d0 f8 c5 76 3f 14 64 95 bf 2e 62 18 3f 92 de 30 3f
       0.96395826 -1.1671166 0.5952481 0.69089615
0000e0 f8 24 2c be 4c d4 73 bf 84 05 b4 be 25 56 d8 bf
       -0.16810977 -0.95245814 -0.35160458 -1.6901289
0000f0 cf e3 e6 3f d0 2a 46 bd 07 54 11 c0 9f ac 8c be
       1.8038272 -0.048380673 -2.2707536 -0.2747545
000100 a0 32 1d 3e f2 16 23 3e 26 56 0e 3d 6c c1 f5 3c
       0.15351343 0.15926722 0.034750126 0.029999457
000110 1f c6 7f c0 fc 88 9f 3f 0d 26 4e be 42 5d fc bd
       -3.9964674 1.2463679 -0.20131703 -0.12322475
000120 ae 58 51 c0 67 56 ac 3f 5d 31 16 40 7a 06 b2 be
       -3.2710376 1.3463868 2.346763 -0.34770566
000130 fa 48 cf bd e0 cf c7 3e b2 ac 56 3f 87 5c b8 bd
       -0.10121341 0.39025784 0.8385726 -0.09002023
000140 83 7f 01 3d 6f d8 56 3e b8 11 94 3e 21 dc 10 3e
       0.031615745 0.20981 0.28919768 0.14146473
000150 89 9d 8b 3e 8c 8b 3b c0 a6 20 a5 3f d1 d3 45 3f
       0.27268627 -2.9303923 1.2900589 0.7727633
000160 80 93 dd 3d d1 7a b0 be a3 6d 3b c0 61 fb 33 bf
       0.10819149 -0.344687 -2.9285667 -0.7030545
000170 15 56 8a 3f e6 ac d4 be 84 9b 8c 3f c5 bd e1 3e
       1.080752 -0.4153816 1.098496 0.44090095
000180 65 51 87 3f 1c a9 e2 3f 27 ee 16 3e cb 0b 84 3d
       1.0571715 1.7707858 0.14739285 0.06447562
000190 f8 26 d1 3d c6 ef 2d 3e 22 ac 5e 40 fc 2f e7 3f
       0.10212511 0.16985998 3.4792562 1.8061519
0001a0 57 ac da be 5b 7b 5e bd 86 9c 82 bf b3 be ca 3f
       -0.4270961 -0.05431686 -1.0204017 1.5839447
0001b0 00 3e 71 be bb ba a5 3e 88 85 93 3e 3c e1 96 3d
       -0.23558807 0.32369027 0.28812814 0.07367179
0001c0 b5 a0 c7 bd ef b9 9b 3e 37 6f 40 3e 50 9f 9c bb
       -0.09747449 0.30415294 0.18792425 -0.0047797337
0001d0 c9 9b ca 3c 65 ac 0a 3e a0 6b eb 3d 77 92 bc be
       0.024732487 0.13542326 0.11495137 -0.36830494
0001e0 d7 1b 2a c0 97 03 75 bc 0b 64 15 bd ae 00 87 bf
       -2.6579492 -0.014954469 -0.03647236 -1.0547082
0001f0 38 92 4b bf cc 85 3b c0 70 6b c6 bf 9a d9 b1 be
       -0.7951999 -2.9300413 -1.5501537 -0.3473633
000200 04 56 7f bf ba 50 10 40 18 7f 3a 40 72 b7 a1 3f
       -0.99740624 2.2549272 2.9140072 1.2634108
000210 60 64 76 3c 94 1d 4d be 03 df 94 3e ef a1 d5 3e
       0.01503858 -0.20030814 0.29076394 0.41725108
000220 2f 03 51 3f 07 d5 05 c0 16 ae b9 bf 46 a6 cc 3e
       0.8164548 -2.0911272 -1.4506252 0.39970607
000230 d3 1e b3 bf 30 d0 23 3f 1b 6d 8c 3f dd 5b 94 3e
       -1.3993782 0.63989544 1.0970796 0.28976336
000240 36 07 01 bf 09 d2 1a 3f da c8 1c 40 7d 4a 20 3f
       -0.5040163 0.6047674 2.449759 0.6261366
000250 1e 99 94 bd aa c6 91 be 52 8d 88 be 41 90 d7 be
       -0.07255767 -0.2847188 -0.2667032 -0.42102244
000260 cc 3d 98 be f1 b1 a1 40 d9 27 22 3f 7c ed 85 bf
       -0.29734647 5.0529714 0.6334205 -1.04631
000270 c1 dc c9 bd cd b7 e5 bf f3 8a 3a 40 b4 5b 0b c0
       -0.098565586 -1.7946717 2.9147308 -2.177472
000280 66 2b 22 be 6c cb 85 3f dd 8e 50 bf a0 32 c6 be
       -0.15836868 1.0452704 -0.8146799 -0.387105
000290 6f aa ae 3f 30 50 54 3f 2c bb d1 bd 14 64 67 3d
       1.3645762 0.82934856 -0.10240778 0.056491926
0002a0 af 5b 34 bd 45 f3 4b be 69 53 60 3f 2f 5c 35 c0
       -0.04403275 -0.19917019 0.87627274 -2.8337514
0002b0 0f b1 be bf f6 61 4d be d7 09 4a 40 1f b2 7b bf
       -1.4897784 -0.200569 3.1568506 -0.98318666
0002c0 cb b7 62 c0 6d 66 50 bd 75 1e 93 3f e0 d4 55 bd
       -3.5424678 -0.05087893 1.149367 -0.052204967
0002d0 cd 43 41 3e ea 40 1a be 9a 66 93 be cf ac 88 3e
       0.1887352 -0.15063825 -0.28789216 0.26694342
0002e0 61 83 33 3d fe ea 03 3e 0c cc 04 3e ea fb 1a c0
       0.043826465 0.12882611 0.12968463 -2.4216256
0002f0 ce 21 1b 3d 02 ff 8b c0 fb aa 44 bf 6b 83 1e bf
       0.037874036 -4.374879 -0.76823395 -0.6191928
000300 91 e1 91 bf c0 fb 80 40 bc 75 6f 3f 8b f8 d2 3e
       -1.1396962 4.030731 0.93539023 0.41205248
000310 f7 d8 dd bd ea 9c 87 3e d9 14 d5 3e de 86 10 3e
       -0.108323984 0.26486903 0.41617468 0.14113948
000320 4b 9b 13 be 92 43 94 be a1 b2 99 be 0a f7 ae be
       -0.14414708 -0.28957802 -0.30019096 -0.3417285
000330 e5 8c 8d 3f 4f cf a7 be 74 33 04 40 e9 c9 52 be
       1.1058623 -0.3277535 2.0656404 -0.20584835
000340 75 73 d5 bd 67 dc 3e bf 64 ac be 3f 14 dd c4 bf
       -0.10422412 -0.7455506 1.489636 -1.5379968
000350 cd 3b c3 3f f5 8a 42 3f b4 f2 01 bf 80 dd bc 3d
       1.5252625 0.7599328 -0.5076096 0.09221935
000360 eb f8 82 be b5 49 68 be 4d 14 c0 be 19 f1 a7 bd
       -0.25580534 -0.22684367 -0.37515488 -0.082002826
000370 60 c6 d5 bd ae dd ff 3f 59 ae 9a 3e 69 bc 00 40
       -0.10438228 1.9989526 0.30211142 2.0114996
000380 d4 64 b3 bf f3 5a 41 3e 04 6e 0c 40 51 6b d3 bf
       -1.4015145 0.1888235 2.1942148 -1.6517125
000390 f8 43 bd bd f2 7f ed be 4c c1 24 3f 51 ae 24 bd
       -0.0924148 -0.46386677 0.6435745 -0.040205304
0003a0 ae 05 7d 3e 46 77 35 3e 14 c9 25 3c 94 e5 c7 3c
       0.24709198 0.1772128 0.010118742 0.024401464
0003b0 2d b7 48 3e f6 ad 80 be 2f 1c 78 3f d6 32 43 40
       0.19601126 -0.25132722 0.96918005 3.0499778
0003c0 5a 2f 45 be 41 2c cc 3e 4d e4 62 be 41 4c 93 3f
       -0.19256344 0.39877513 -0.22157402 1.1507646
0003d0 84 f5 5f be d2 c8 16 c0 9e 75 81 bf 3d bd 57 be
       -0.21871 -2.356007 -1.0114019 -0.21068282
0003e0 7e f1 1a c0 bb c1 e1 3e 79 7a 1c 3f 8d 37 07 3e
       -2.4209895 0.44093117 0.6112438 0.13204785
0003f0 c5 4f 3b 3e ba 85 a0 bd 2f d4 1e be 52 6e e3 3d
       0.18292148 -0.07838006 -0.15510629 0.11105026

critic.0.bias f4 [128]
000000 9c 43 56 be c3 b7 c8 3c 04 4d 27 3f 4d 00 6c 3e
       -0.20924228 0.024501687 0.6535189 0.2304699
000010 10 8d 28 3e c6 65 f1 3d ba 2d 26 3f 08 0b b0 be
       0.16460061 0.1178699 0.64913523 -0.34383416
000020 79 9b 97 bd b5 96 71 bc 36 db e3 be a5 53 1a bf
       -0.07402701 -0.014745404 -0.44503182 -0.6028388
000030 0a a1 02 3d c1 10 10 bf fb 79 a3 3e 69 1e 8d 3e
       0.03189186 -0.56275564 0.31929 0.27562264
000040 a6 bf 51 be 6c 5e 20 3e c6 4d 01 bf ba 7b e7 be
       -0.20483264 0.15661019 -0.505093 -0.45211583
000050 93 08 0b bf a8 92 10 be b5 2c 01 be 19 52 aa 3e
       -0.5430996 -0.14118445 -0.1261471 0.3326576
000060 49 18 1b bd c0 71 08 be e6 c2 8e 3f 89 3c 38 be
       -0.037864957 -0.13324642 1.1153228 -0.17991842
000070 a0 58 b2 bd 47 dd aa be 59 29 52 3f cb 92 eb be
       -0.0870831 -0.33371946 0.8209434 -0.46010432
000080 78 0e 00 3f a4 22 91 3a df 74 71 bd d1 22 b5 be
       0.5002208 0.0011072946 -0.058949348 -0.35378125
000090 25 88 92 bd e3 da 8b be da 41 5d be 8f 24 9b be
       -0.07154874 -0.27315435 -0.21607152 -0.3030133
0000a0 51 a1 2f be 56 1b 48 bc c1 77 8f bc 9a a0 18 be
       -0.17151381 -0.012213549 -0.017513158 -0.14905015
0000b0 f2 fa 80 3d 6b f0 03 bd e1 20 85 3e dc a1 20 3e
       0.06297864 -0.032211702 0.26001647 0.15686744
0000c0 04 50 5f be a2 13 e9 be c1 6b 4d 3e 2d 7b ee 3d
       -0.21807867 -0.4552279 0.20060636 0.11644588
0000d0 b5 77 71 3e c3 0b 07 3f d9 0c 72 bd 8f ea a1 3e
       0.23580821 0.5275232 -0.059094284 0.31624267
0000e0 ae 46 94 3e 89 40 0d 3e 7a cc d6 3d 2d 7c 25 3e
       0.28960174 0.1379415 0.104882196 0.1616065
0000f0 f2 87 1f 3f a0 08 ee be d6 ec 98 be 76 8d ba 3e
       0.6231681 -0.46490955 -0.2986819 0.3643605
000100 01 87 cd 3e d4 7c cf 3d 36 4c 49 bf d4 4a 70 be
       0.40142062 0.10131231 -0.78631914 -0.23466045
000110 f3 b3 6a be aa b2 3c be 34 3f 09 3e 8b 8d 6d bd
       -0.22920208 -0.1842753 0.13403016 -0.057996314
000120 71 8b b8 3e bb 06 90 3c d8 08 67 3e 91 01 23 bf
       0.36043885 0.017581334 0.22561967 -0.63674265
000130 60 d7 36 bd 27 91 03 be 62 eb 93 3c 51 c1 27 3f
       -0.04463899 -0.1284834 0.018056575 0.6552935
000140 55 75 e6 bb d3 9b fc be 57 9e c3 3e 32 08 29 be
       -0.00703303 -0.49337634 0.3820674 -0.16507033
000150 4e 07 1c 3f 7f 63 a1 be b1 ca 1b bf 8c 4d b9 be
       0.60948646 -0.31521222 -0.6085616 -0.36191976
000160 37 d8 c2 be b9 28 8c 3f 5e e9 d8 3e d1 99 97 3e
       -0.38055584 1.0949928 0.42365545 0.2960954
000170 ca 73 d4 3c da e5 6e be a2 aa d2 3b 8b 17 17 3e
       0.025934119 -0.23329869 0.0064290324 0.14755075
000180 94 ad 68 bd cb ec de 3e 1b eb 40 3d e8 88 be bc
       -0.056806162 0.43540034 0.047099214 -0.023258641
000190 0e f8 95 bd ce 8c d4 be 67 c8 1b 3e e2 6d cb 3e
       -0.07322703 -0.41513675 0.15213166 0.3973227
0001a0 e8 d1 1d 3d aa 60 68 be 8b ba 2f 3e ac 7b 85 bc
       0.03853026 -0.22693124 0.17161004 -0.016294323
0001b0 d9 90 cb bd d6 c4 04 bd 96 b5 2e 3f 23 e5 3f 3e
       -0.09939737 -0.03241428 0.6824583 0.18739752
0001c0 d7 38 a0 3d ec e0 a3 bd bc 95 f0 bd 18 8c 9e bc
       0.07823341 -0.08001885 -0.117473096 -0.019353911
0001d0 73 2d d6 bc 50 bb 07 bf f1 91 87 be c3 66 16 3e
       -0.026144719 -0.5302019 -0.26478532 0.14687638
0001e0 54 74 26 be ec 29 4c bc 80 d0 8b be c6 0e ba 3e
       -0.16255313 -0.012461167 -0.2730751 0.36339396
0001f0 74 51 b1 bd e5 66 8b 3e e0 27 22 be 56 03 18 bf
       -0.08658114 0.2722694 -0.15835524 -0.5938009

critic.2.weight f4 [128, 128]
000000 de 2c 83 bf a3 f1 25 3f 25 54 ea be 5e 8c 2b 3f
       -1.0248067 0.64821833 -0.45767322 0.6701106
000010 d4 de 59 3e 7d 72 65 bf d3 5f 96 3f 7c 39 9b be
       0.21276408 -0.8962782 1.1747993 -0.30317295
000020 dc 24 b7 be b3 dc 16 3f 78 69 61 bc 69 ef 8d be
       -0.3577031 0.5893051 -0.013758056 -0.27721718
000030 18 f9 95 3e 25 08 f1 bd 9b 1f 10 3f 88 ba 76 3f
       0.29291606 -0.117691316 0.56298226 0.96378374
000040 af 5c 1d 3f 29 e8 dc bd af 36 27 3e cd d6 b9 3e
       0.6146955 -0.107864685 0.16329454 0.36296692
000050 fb d2 a6 bd d0 88 56 3f ec 64 9d bd c5 c5 38 bf
       -0.0814571 0.8380251 -0.07685265 -0.7217677
000060 a9 1a 34 3f 41 73 71 bf 6d 09 9e bd de 17 23 bf
       0.7035318 -0.9431649 -0.077166416 -0.63708293
000070 f7 f2 38 3d 24 47 ad be 6d fd bd 3e a7 cf 5d be
       0.045153584 -0.33843338 0.3710741 -0.21661244
000080 80 ef 7d 3f c2 3d 18 3e 5e 7b 58 3f a5 63 8b 3e
       0.99193573 0.14867309 0.84563243 0.2722446
000090 73 7d 24 bf 34 d4 f2 3e 55 34 19 3f b2 75 bf 3d
       -0.6425392 0.47427523 0.5984548 0.093486205
0000a0 a2 42 54 bf 09 fe 81 bf 91 bb 7e bd e3 61 1e 3d
       -0.82914174 -1.015565 -0.062190596 0.03866757
0000b0 fc 39 8c be 86 82 bc be 52 72 16 3f 25 9c 06 3f
       -0.2738799 -0.3681833 0.5876819 0.5258201
0000c0 93 5d f1 be 31 e8 51 bf 61 0c 20 bf 1c 1c 28 3f
       -0.47141704 -0.8199492 -0.6251889 0.6566789
0000d0 7b ad 2d 3f 18 d7 db bd 50 ee 77 bf f3 23 6d 3f
       0.67842835 -0.10734385 -0.9684801 0.9263298
0000e0 6f 5c 99 3f 58 16 34 bf 50 a9 2f bf 62 5e 17 3c
       1.1981333 -0.70346594 -0.68617725 0.009238811
0000f0 33 2c c5 be 0d df 72 3f e6 d9 bb 3d 8b 2c 5f be
       -0.38510284 0.948716 0.0917242 -0.21794336
000100 40 d5 8d 3e d3 2f ab 3e 3e 77 11 be 7e c7 17 3f
       0.2770176 0.33434924 -0.14205644 0.59288776
000110 dd f8 86 3f 43 e6 cd 3d 0c 63 25 bf 82 71 01 3f
       1.0544697 0.100536846 -0.6460426 0.50563824
000120 71 30 82 3e f2 e3 b5 be aa 54 c4 be a6 df 70 bf
       0.25427583 -0.3552547 -0.38345844 -0.9409126
000130 b8 96 23 bf b8 1b 2b 3e 3f b1 ab 3f 4f 57 a7 bf
       -0.63901854 0.16709793 1.3413466 -1.307352
000140 45 c4 1a 3d 25 9e 03 3f ca 82 c4 bf 71 73 76 bf
       0.037784833 0.51413184 -1.5352414 -0.962699
000150 0f aa 3e 3e a3 78 1d 3e d3 c9 2a be ad 6a 7d 3d
       0.1861956 0.1537805 -0.16678552 0.061869312
000160 68 c1 8e 3e b8 1d c2 be b5 e5 7b bd d7 bc 8d bb
       0.27881932 -0.379133 -0.061498363 -0.00432549
000170 a5 cc 03 3f 3f 23 04 3f 24 88 02 3e 2f 19 54 be
       0.5148414 0.5161628 0.12747246 -0.20712732
000180 cd cc bb 3e 66 04 33 be 5c 89 45 3f 52 eb 3c 3f
       0.36679688 -0.17482147 0.7716272 0.7379657
000190 74 86 78 bf 0c 26 5f 3f 57 f5 0e bf 4d 84 ae be
       -0.9708016 0.8716743 -0.5584311 -0.34085312
0001a0 6b 3e bf bf 28 a6 9f 3d 93 e0 0a bd b2 7d cc 3e
       -1.4940923 0.07795364 -0.033905577 0.39939648
0001b0 97 ef 8f be 39 f7 0a 3f 1f 0e b3 3f 84 17 4a bf
       -0.2811248 0.5428348 1.3988684 -0.7894213
0001c0 96 45 db bf a6 89 20 3f f8 40 3a bb bf 18 6d 3f
       -1.7130611 0.62710035 -0.0028420072 0.92615885
0001d0 25 89 a1 3f 31 b1 94 bf a7 6f 5b bf 9e 56 04 bf
       1.2619978 -1.1616575 -0.8571724 -0.5169467
0001e0 a8 74 a2 3f 35 3d 3d bc 65 e9 e9 3d 0a 19 a6 bf
       1.2691851 -0.011550237 0.114214696 -1.2976391
0001f0 8c 77 4d 3e 30 44 12 bf 70 81 15 3e e6 4b b4 be
       0.20065135 -0.57135296 0.14600158 -0.35214156
000200 ce 0d af 3f 2a 47 97 be 8c b7 a8 be 51 65 e8 be
       1.3676088 -0.2954648 -0.32952535 -0.45389798
000210 2f d2 84 bd 8c ba 56 3e e5 e0 60 bf ac 09 89 3f
       -0.06485402 0.209696 -0.8784316 1.0706077
000220 b2 e2 fb be be e3 40 bf 4d 4f 96 be a8 7d c5 be
       -0.49196392 -0.75347507 -0.29357377 -0.3857243
000230 8b 9c 5d bf e8 bb b0 3e c5 53 26 3f 92 18 da bd
       -0.8656699 0.3451836 0.6497157 -0.10649218
000240 17 a8 8d 3f 3a 2d e2 3f 81 3f 1f bd e9 4c 30 3f
       1.1066922 1.7670052 -0.03887892 0.68867356
000250 30 94 95 3f 9c 44 bb bf 52 9e 3d be df 73 31 3f
       1.1685848 -1.4630313 -0.18517426 0.6931743
000260 84 93 9f 3f f9 91 7e 3e 37 d4 85 bf b0 0d 6f 3d
       1.2466893 0.24860372 -1.0455388 0.058362663
000270 ed a4 8e 3c 1e f5 f1 be ba 18 46 3e 98 51 58 3f
       0.017412627 -0.47257322 0.1934537 0.844995
000280 4a 45 87 bf ce a8 9e 3e 2c f1 b1 3f fa 32 39 3f
       -1.056802 0.30988163 1.3901725 0.7234341
000290 71 6c c4 3e 63 41 4c 3f 0c 84 90 3f e4 5b 8c 3f
       0.38363984 0.7978727 1.1290298 1.0965543
0002a0 ac c0 5e 3d 84 80 41 bf 54 42 58 3f 69 e7 a9 bd
       0.054382965 -0.75586724 0.8447621 -0.08296091
0002b0 c1 32 b7 be 68 67 18 3f a0 e6 7a 3f 53 11 ff be
       -0.3578091 0.59532785 0.98008156 -0.49817905
0002c0 f0 01 7a be d8 fe 41 3f 82 32 90 3d b7 4d 5e 3f
       -0.24414802 0.75779486 0.070408836 0.86837333
0002d0 62 d2 af 3d f6 fb 00 bd 78 87 ea 3e cc 74 8f 3f
       0.08585049 -0.03149029 0.4580648 1.1207519
0002e0 33 fa 5d 3f 9b 6b d4 be 6e ac 63 be 28 4d b8 be
       0.867099 -0.41488346 -0.22233745 -0.35996366
0002f0 0a 7f 4a 3d 3e 8b 1b 3e 72 3d 92 3e e9 41 60 3e
       0.04943756 0.15189835 0.28562504 0.21900143
000300 07 43 66 bf f0 f4 0b bf 97 cc 50 3f a9 86 b0 3f
       -0.89946026 -0.5467062 0.8156218 1.3791095
000310 02 6b 8a 3f 27 21 01 bf f6 99 6d 3f 94 6f 70 bf
       1.0813906 -0.5044121 0.9281305 -0.93920255
000320 94 ff e1 bf ab 06 6f 3f e3 3b 35 bf 1a b1 09 40
       -1.7656121 0.9336955 -0.70794505 2.1514344
000330 ac 5a ec be 92 d3 fa 3e 8c ea f0 3f 53 d4 08 be
       -0.46162927 0.4898954 1.8821578 -0.13362245
000340 1e 11 5b bf 9e 8d 0a 3f 68 d2 2e bf 0e 05 d7 bf
       -0.85572994 0.5412234 -0.68289804 -1.6798418
000350 6d c8 17 bc 38 cc b2 3f df 9f 91 3e 87 96 b5 3f
       -0.009264094 1.3968573 0.28442284 1.4186562
000360 0e 6d 0d be e9 77 94 be c8 bd 85 bf b9 68 19 c0
       -0.13811132 -0.28997734 -1.0448542 -2.3970168
000370 a4 b5 04 3f 9e ef 8a be 15 07 60 3f fa de ad be
       0.5183966 -0.27135938 0.87510806 -0.3395918
000380 ce de f1 3e dd f0 3b 3f 5a e0 04 bf 7a 30 c7 be
       0.472403 0.73414403 -0.51904833 -0.38904172
000390 f8 3c 54 3c 36 4c 94 3f 82 03 be 3d 83 a6 f5 3b
       0.012953989 1.1585758 0.09278013 0.0074966564
0003a0 6e 28 aa bf 00 23 d0 3e 23 6b 69 bc 9e 4d ee be
       -1.3293588 0.40651703 -0.014246735 -0.46543592
0003b0 5e 75 9d 3f eb 7f 47 bf d1 57 b7 bf 8d 55 b7 3f
       1.2301443 -0.7792956 -1.4323674 1.4322983
0003c0 26 fb 9f be 9b c5 da be 4f 74 c6 3e 8a e0 42 3f
       -0.312463 -0.42728886 0.3876061 0.7612387
0003d0 97 51 ed be b0 a6 28 bf 05 37 89 3f 5d 27 06 bf
       -0.4635131 -0.65879345 1.0719916 -0.52403814
0003e0 5a c0 a0 3e 50 26 75 3f c5 30 0e 3e 95 41 fe 3d
       0.31396753 0.95761585 0.13885792 0.124148525
0003f0 9d 95 6e be ed 65 4f bf b8 dc c5 3f 18 8e 75 3f
       -0.2329926 -0.810149 1.5457983 0.9591994

critic.2.bias f4 [128]
000000 f4 9f 2f 3e f4 66 2b bf 20 68 c8 be fa 6c fd 3d
       0.17150861 -0.6695397 -0.3914194 0.12374301
000010 c8 b8 19 be 90 b4 8f 3d 42 56 17 be 90 b4 10 3e
       -0.15011895 0.070168614 -0.14778998 0.14131379
000020 28 df de be fa 57 11 3e b2 d2 05 3f a0 a1 a2 3e
       -0.4352963 0.14193717 0.5227462 0.31763935
000030 b5 34 e7 3e fb e6 4e be 5f 03 cc 3d c7 79 2a 3e
       0.451574 -0.202053 0.099615805 0.16648017
000040 4a 72 45 3d 0b 0a 77 be b5 5f e4 be 07 02 a0 be
       0.048204698 -0.24124925 -0.4460427 -0.31251547
000050 22 5b 9b 3e 64 11 3a 3f 16 67 74 be d6 8e b9 3b
       0.30342966 0.72682786 -0.23867449 0.0056627793
000060 b3 25 85 be 77 69 ad be dc 66 a1 3c dd c4 3a be
       -0.26005325 -0.33869526 0.019702367 -0.1823916
000070 f6 26 81 3e e2 0a 29 be a9 9b 16 bf 49 4d 98 be
       0.25225037 -0.16508058 -0.5883127 -0.29746464
000080 e4 ed af 3e 58 4f 0e 3e 4c da b7 3e 63 b4 28 bf
       0.34361184 0.13897455 0.35908735 -0.6590025
000090 86 85 98 be d0 03 f4 3d cd f1 63 bf 1b 03 aa 3e
       -0.2978937 0.1191479 -0.89040834 0.33205494
0000a0 c3 20 76 bc c7 0e dc 3d 23 8b cb 3e ba 2e 2c 3f
       -0.015022459 0.10745006 0.3975459 0.672588
0000b0 fc 85 8e be 75 e7 52 3e 3b f2 3b be a4 87 30 3e
       -0.27836597 0.20596106 -0.18354122 0.17239243
0000c0 14 84 93 3e e4 0d be bd 61 7a 72 3d 83 b8 05 3e
       0.28811705 -0.09279993 0.05919874 0.13058667
0000d0 54 fb 03 3e 71 b0 bf be 6b 51 f7 bd f2 3e 05 bf
       0.12888843 -0.37439302 -0.12076076 -0.5204917
0000e0 1b 2a 8a 3e 63 e1 96 be 78 8e cc 3d 44 e4 13 be
       0.2698525 -0.2946883 0.09988111 -0.14442545
0000f0 64 5a a5 3d ef 5b c7 3e b9 4b e0 bc 3d df 4d bc
       0.08073881 0.38937327 -0.027379857 -0.012565431
000100 9f af 57 bd 33 01 06 3e 08 d9 ef 3c 33 53 be 3e
       -0.05265772 0.13086395 0.029278293 0.3717285
000110 0b 71 93 be d7 7c 0c bf ad 6c 57 3e df 2d 7e be
       -0.28797182 -0.5487799 0.2103755 -0.24822186
000120 ec 77 89 3e 0d 17 a0 be 1f 45 2c 3e 43 fc 56 3d
       0.26849306 -0.31267586 0.16823243 0.05248667
000130 93 c2 a5 be 6f 67 92 3d da b6 1b 3e 32 d4 53 3e
       -0.3237501 0.07148635 0.15206471 0.20686415
000140 85 ad e8 3d 1d 2b a8 bd d6 41 19 bf 48 e8 14 bd
       0.11361221 -0.08211348 -0.5986608 -0.036354333
000150 8e 7a 9b bd 09 52 be bd 87 49 2e be c0 e0 1f 3c
       -0.07591735 -0.09292991 -0.17020236 0.009758174
000160 a7 50 4c 3e d9 a4 c3 3d 04 7c 99 be 93 4b 52 bd
       0.19952641 0.095529266 -0.2997743 -0.051341604
000170 e7 2a 35 bd 2b ae 61 be e5 68 70 3e 61 2d 8d 3d
       -0.044230368 -0.22039096 0.23477514 0.06893421
000180 03 b0 a9 3d 8d 22 dd bd 57 b5 3a 3e 0b 45 95 be
       0.08285525 -0.10797606 0.18233238 -0.29154238
000190 6e 12 df be 7e a1 12 be 07 28 a6 be 91 79 be 3e
       -0.43568748 -0.14319417 -0.32452413 0.37202123
0001a0 cb ac 98 be 88 c2 26 be fe bd 65 3d f2 09 b9 3e
       -0.2981933 -0.16285145 0.056089394 0.361404
0001b0 f3 9c d8 be 8c ec 0b be c9 7a 5a 3e c8 02 0a be
       -0.42307243 -0.13664454 0.21335901 -0.13477623
0001c0 e0 e1 74 be e4 9d ed 3d 92 93 2a bd a8 7a 24 3e
       -0.2391429 0.11602381 -0.04164464 0.16062415
0001d0 8d ea 26 be a7 ac 72 3e 43 ec 2c be e5 16 93 be
       -0.16300412 0.23698674 -0.16887002 -0.28728405
0001e0 30 5c 19 3f 6a e6 89 3b 52 71 2f 3e 7a 32 df be
       0.5990629 0.0042083757 0.17133072 -0.43593198
0001f0 93 79 51 be c6 33 29 be 9d 94 7f ba 9b db eb 3d
       -0.20456533 -0.16523656 -0.0009749623 0.11516496
