examples/drone/logs/fig-eight-5000-forgiving/model_4700.pt (torch, 474978 bytes, 36 tensors)

std f4 [4]
0	0x3e620cff	0.2207527
1	0x3cea8e8f	0.02863243
2	0x3e46c5c4	0.19411379
3	0x3e4403c8	0.19142067

actor.0.weight f4 [128, 17]
0	0xbf10932d	-0.5647457
1	0x3f581755	0.844106
2	0x3f87f5ca	1.0621884
3	0xbe886e5e	-0.26646703
4	0xbf02f6d8	-0.51157904
5	0x3faa4e9f	1.3305243
6	0xbe8db5a5	-0.27677646
7	0xbe9dd8d6	-0.30829495
8	0xbebd4dfa	-0.36973554
9	0x3fc1c81b	1.5139192
10	0xc008019f	-2.125099
11	0x3f782bb6	0.969417
12	0x3f777d07	0.9667515
13	0x3d13a281	0.036043648
14	0xbd00c871	-0.031441156
15	0xbd0cd1a7	-0.034379628
16	0xbe9b64d2	-0.30350357
17	0xbd9cc8c9	-0.07655484
18	0xbe3d09bc	-0.18460745
19	0x3fe935ab	1.8219503
20	0xbc5138fe	-0.012769936
21	0xbdc240c3	-0.094850086
22	0x3d2c6735	0.042090613
23	0xbcd39a21	-0.02583033
24	0x3c963d31	0.018339725
25	0x3d1388e6	0.03601923
26	0xbc35a2a7	-0.011086143
27	0xbd9c28ed	-0.076249935
28	0xbdc7ec0c	-0.09761819
29	0x3a254419	0.0006304398
30	0xbeeba251	-0.46022275
31	0x3efeda28	0.49775815
32	0xbe32788d	-0.17428799
33	0xbe1b00de	-0.1513705
34	0xbacb2310	-0.001549812
35	0xbb4f675b	-0.0031647298
36	0xc00f39e3	-2.2379081
37	0xbf4d41d3	-0.80178565
38	0xbe71e70a	-0.2362329
39	0xbed9c293	-0.4253126
40	0xbca1fe37	-0.01977454
41	0xbe30b65d	-0.17257066
42	0x3c83d469	0.016092496
43	0xbd5ed09a	-0.054398157
44	0x3deb9744	0.11503461
45	0xbd398031	-0.04528827
46	0x3e08fce0	0.13377714
47	0x3eae4175	0.34034315
48	0x3da5e070	0.08099449
49	0x3eccb3b6	0.3998086
50	0x3e6f263e	0.23354432
51	0x3e03d711	0.1287501
52	0xbeea02bb	-0.45705208
53	0xc0cc51cd	-6.3849854
54	0x3f2d6cf0	0.6774435
55	0xbf835c65	-1.0262572
56	0xbefdf73c	-0.49602687
57	0xbeec8867	-0.46197817
58	0xbda7cbfa	-0.08193202
59	0x3e1879f3	0.1489027
60	0xbe491e39	-0.19640435
61	0xbddeecb6	-0.10884993
62	0x3cd98fa3	0.02655775
63	0x3e302da4	0.1720491
64	0xbe4a2a67	-0.19742738
65	0xbe25585c	-0.16146988
66	0xbdec3b3c	-0.115347356
67	0xbe207b64	-0.1567207
68	0x3f954b2f	1.1663569
69	0x3f1b364b	0.6062972
70	0x409767d4	4.7314243
71	0xbe4309cc	-0.19046706
72	0x3f0c441c	0.54791427
73	0xbfdb9631	-1.715521
74	0xbf8fe41d	-1.124149
75	0x3e7c0987	0.2461301
76	0x3e497ba9	0.19676079
77	0x3ea852b2	0.32875592
78	0xbede43c3	-0.43411073
79	0x3e3a1ed2	0.1817582
80	0xbe960fb9	-0.2930887
81	0x3bf27e95	0.0074003437
82	0x3e03aa2d	0.12857886
83	0x3f0652fe	0.52470386
84	0x3ea43acc	0.32076108
85	0xbf478095	-0.77930576
86	0x3de8b57d	0.11362741
87	0xc03a95bf	-2.9153898
88	0x3e931eb8	0.28734374
89	0xbfc95aee	-1.5730875
90	0xbf51c1bf	-0.8193626
91	0x3fcd03ea	1.601682
92	0x3ebe49ac	0.37165582
93	0x3f629778	0.8851237
94	0x3fab60ce	1.3388917
95	0xbf2bc902	-0.6710359
96	0x3f42e979	0.761375
97	0x3f429349	0.7600599
98	0x3e9449be	0.2896251
99	0x3f021c1c	0.5082414
100	0x3e38b51b	0.18037836
101	0xbd82104f	-0.06350767
102	0xbebedace	-0.3727631
103	0xbf2548e5	-0.64564353
104	0x4098242c	4.7544155
105	0xbeeae536	-0.45878
106	0xbd5233ca	-0.05131892
107	0x3dc64b69	0.09682352
108	0xbf04dd7a	-0.51900446
109	0xbc84dfad	-0.016219938
110	0xbc01fd5a	-0.007933939
111	0xbdd7a45a	-0.105293944
112	0x3dddbaba	0.10826631
113	0x3e2607a3	0.1621385
114	0x3e3c3927	0.18381177
115	0x3e3f15d0	0.18660665
116	0x3e382ec0	0.17986584
117	0xbcaa2dc1	-0.02077377
118	0x3da5759e	0.08079074
119	0xc080e000	-4.0273438
120	0x400ca4d6	2.1975608
121	0xc024b49a	-2.573523
122	0x3da9a04d	0.08282528
123	0x3f7804af	0.96882147
124	0xbef178dd	-0.47162524
125	0xbf19fde4	-0.6015303
126	0x3fa3c6b1	1.2795011
127	0xbf07b900	-0.5301666
128	0x3e3be7fb	0.18350212
129	0x3e99dbe7	0.30050585
130	0x3dc5cc18	0.096580684
131	0xbe51e556	-0.20497641
132	0x3c5710c8	0.01312656
133	0xbdbcb119	-0.09213466
134	0x3e3035e1	0.17208053
135	0x3d3bbdb7	0.045835223
136	0xbdfd9979	-0.12382788
137	0xbf80d00b	-1.006349
138	0xc0b0f084	-5.52936
139	0x3f62b967	0.8856415
140	0x401504d1	2.328419
141	0x3fec0899	1.8440124
142	0x3f4a75a6	0.7908577
143	0x3fba2a94	1.4544244
144	0xbf9648d4	-1.1740975
145	0x3da7ac8f	0.0818721
146	0xbd7f097c	-0.062264904
147	0xbe54a3fb	-0.20765679
148	0x3e168412	0.14698818
149	0x3e460bff	0.19340514
150	0x3eb8e3b9	0.3611124
151	0x3e24a54a	0.16078678
152	0x3f31f364	0.6951201
153	0xbec52b8a	-0.3850978
154	0x3f9c94ff	1.223297
155	0x40052ee6	2.0809875
156	0x3e7b52dd	0.24543329
157	0x3f9ae91d	1.210239
158	0x3f811a94	1.0086236
159	0xbe8ce596	-0.2751891
160	0xbdb935ba	-0.09043451
161	0xbf077766	-0.5291656
162	0x3d3bc459	0.04584155
163	0x3d55c414	0.052188948
164	0xbe728883	-0.23684888
165	0xbe8d023a	-0.2754076
166	0xbe20995f	-0.15683506
167	0x3e543d59	0.20726527
168	0x3e816d4e	0.25278705
169	0xbe3f7b47	-0.1869937
170	0x3efe4a7b	0.496662
171	0xbb06b85b	-0.0020556662
172	0x401c0bad	2.4382126
173	0x3d96ba60	0.07359767
174	0x3ff01b9c	1.8758426
175	0xbf8b491d	-1.0881687
176	0xbea5b4d9	-0.32364538
177	0x3ec275b9	0.3798044
178	0x3dae8982	0.08522321
179	0x3e1459ce	0.14487383
180	0x3effd113	0.49964198
181	0xbe6d4ae4	-0.231731
182	0x3f2bfe05	0.6718448
183	0x3e1276f0	0.14303184
184	0x3d8bf468	0.06833726
185	0xbd71739a	-0.058948137
186	0x3e115b24	0.14194924
187	0x3e265ce5	0.16246374
188	0xbd8f632f	-0.0700134
189	0x3f6fa4af	0.9361066
190	0x3dd555c4	0.10416749
191	0xbe28eef8	-0.1649741
192	0xbe272b59	-0.1632513
193	0x3df2cd2a	0.11855538
194	0xbdb0e952	-0.08638252
195	0xbcde3ce3	-0.027128642
196	0xbcf1eb45	-0.02953113
197	0x3d6cf499	0.057850454
198	0x3d308115	0.043091852
199	0xbdaad3e1	-0.08341194
200	0x3d846f06	0.064664885
201	0x3dccc9c6	0.09999423
202	0xbed1693e	-0.40900606
203	0xbee3fa6f	-0.44527003
204	0xbe62ffc7	-0.22167884
205	0x3fca6205	1.5811163
206	0xc03f8eaf	-2.9930837
207	0x3dcf66fd	0.10127065
208	0x4029ff48	2.6562061
209	0xbfb23c8c	-1.3924727
210	0xbd2385db	-0.039922576
211	0x3e589375	0.2115
212	0x3e1e1a16	0.15439638
213	0x3e6617ef	0.22470067
214	0x3e9903f0	0.29885817
215	0xbf0d2f33	-0.55150145
216	0xbe15115b	-0.14557402
217	0xbdf3136d	-0.118689395
218	0xbd7cc21f	-0.061708566
219	0x3d0f306f	0.0349583
220	0xbd986402	-0.0744095
221	0x3eb98e31	0.36241296
222	0x3f4c6203	0.79837054
223	0xbff0aaa6	-1.8802078
224	0xbd346d27	-0.04404941
225	0x3ff4328b	1.9077924
226	0xbf1be867	-0.6090149
227	0x3f0fb90b	0.5614173
228	0xbe9e1310	-0.3087392
229	0x3e351159	0.17682399
230	0x3e4a5930	0.19760585
231	0x3f1163c5	0.5679286
232	0xbf70b3ab	-0.9402415
233	0xbf961363	-1.1724666
234	0xbdef0312	-0.116705075
235	0xbe15cabe	-0.14628121
236	0xbd29eebc	-0.04148744
237	0xbe9f2d0e	-0.31089061
238	0x3f9832ce	1.1890504
239	0xbe44761f	-0.19185685
240	0x402e3ec7	2.7225816
241	0xbe67e0e6	-0.22644386
242	0xbf607768	-0.876822
243	0xbfefeb97	-1.8743771
244	0x3f8bda24	1.0925946
245	0xbe549a4d	-0.20761986
246	0x3e5ce800	0.21572876
247	0xbd89ff2c	-0.06738123
248	0x3c61b54c	0.013776135
249	0x3e479698	0.1949104
250	0xbea4586e	-0.32098716
251	0xbd83be4c	-0.064327806
252	0xbdd36a10	-0.10322964
253	0xbdef28b2	-0.11677684
254	0x3d4860e9	0.048920546
255	0xbcae6b50	-0.021291405

actor.0.bias f4 [128]
0	0xbe337c0c	-0.17527789
1	0x3e8bac2d	0.27279797
2	0xbeb831cd	-0.35975495
3	0xbcfcdad8	-0.030866072
4	0xbd108342	-0.035281427
5	0x3e34c0b5	0.17651637
6	0xbd4f7ada	-0.05065427
7	0xbb3c1ed5	-0.00287049
8	0x3f1bf125	0.6091483
9	0x3cdcd9a6	0.026959252
10	0x3e3ab9e2	0.18234971
11	0x3eed9e61	0.46409896
12	0xbdb4c7ba	-0.08827157
13	0x3df29007	0.11843877
14	0xbce1acc9	-0.02754821
15	0xbec1ad5a	-0.3782757
16	0x3e1c6875	0.15274222
17	0xbceece6b	-0.029151162
18	0x3ebe8732	0.3721252
19	0x3e50face	0.20408174
20	0x3e2145e8	0.15749323
21	0x3eba1abc	0.36348522
22	0xbd983312	-0.07431616
23	0xbe92e882	-0.28693014
24	0xbebd4e06	-0.3697359
25	0xbe86b421	-0.26309302
26	0x3ef2239c	0.47292793
27	0x3e880880	0.26568985
28	0xbef6a51c	-0.48172843
29	0xbeed8cbb	-0.4639643
30	0xbe5b989e	-0.21444938
31	0x3d4a5e46	0.049406312
32	0x3ee3a6c3	0.44463167
33	0x3e5dd0c9	0.21661676
34	0x3e8bc181	0.2729607
35	0x3b831704	0.0040005464
36	0xbe4fd8b1	-0.20297505
37	0xbbedc6b2	-0.0072563523
38	0xbe8543b2	-0.2602821
39	0x3dea2c8e	0.114342794
40	0x3cc08737	0.023501975
41	0x3eae7fc9	0.34081867
42	0x3e8842e3	0.2661353
43	0x3e4c89aa	0.1997439
44	0xbe19a75f	-0.15005253
45	0x3e08406d	0.13305826
46	0x3de5e649	0.11225564
47	0xbedb149c	-0.4278916
48	0xbed27d43	-0.41111192
49	0xbe0579a1	-0.13034679
50	0x3ec50fe4	0.38488686
51	0x3d767134	0.060166553
52	0x3e67f090	0.22650361
53	0xbba87cb4	-0.005141819
54	0x3cb8febb	0.022582402
55	0x3ec22e23	0.37925825
56	0x3e966bcc	0.29379117
57	0xbe0aead4	-0.13566142
58	0x3e6217d1	0.22079398
59	0xbe66366c	-0.22481698
60	0xbe8d1f75	-0.27563062
61	0x3e83b1db	0.2572163
62	0xbe4673f3	-0.19380169
63	0xbf16f6b2	-0.5897018
64	0x3dbbd5d1	0.091716416
65	0x3dc9a48e	0.098458394
66	0xbd93db44	-0.07219556
67	0x3df94a6e	0.121723995
68	0x3e7c7982	0.24655727
69	0xbed6c290	-0.41945314
70	0x3ebfe0d0	0.37476206
71	0xbec24ae7	-0.3794777
72	0xbed7ff49	-0.42186955
73	0xbda6dced	-0.08147607
74	0x3af90a58	0.0019000275
75	0x3e301875	0.1719683
76	0xbeead535	-0.4586579
77	0x3f1d68b1	0.6148787
78	0xbee70559	-0.45121267
79	0x3d88e736	0.06684725
80	0x3d4e47b1	0.05036134
81	0x3df6c6e9	0.12049658
82	0x3dc0ceab	0.09414419
83	0xbec96ca6	-0.39340705
84	0xbbfb30fb	-0.007665751
85	0x3e6cda88	0.23130238
86	0xbcf83ddd	-0.030302936
87	0x3e80f93f	0.2519016
88	0xbd5228b1	-0.051308338
89	0x3b5051ba	0.0031786994
90	0x3dbaca04	0.09120563
91	0xbe45e65d	-0.19326158
92	0xbe68904d	-0.22711296
93	0x3d9e7f8d	0.07739172
94	0x3f0a58a4	0.54041505
95	0x3e96a536	0.2942292
96	0xbe99ba4b	-0.30024943
97	0xbe0021c9	-0.12512888
98	0xbe00e92d	-0.1258895
99	0x3e9736d1	0.2953401
100	0x3d63de10	0.055631697
101	0x3d0de132	0.03463859
102	0x3e3db0b2	0.18524435
103	0xbc3d9cda	-0.011573041
104	0x3ed06c67	0.40707704
105	0xbe5d044f	-0.21583675
106	0x3d41bfbe	0.047302
107	0xbe6c4d78	-0.23076427
108	0xbcb3c36e	-0.021943774
109	0x3d1efb8e	0.03881412
110	0x3e50b8aa	0.20382944
111	0x3e46ac1e	0.19401595
112	0xbf163610	-0.5867624
113	0x3e362fe7	0.17791711
114	0xbe585978	-0.2112788
115	0x3e8fe0b6	0.28101128
116	0x3e021048	0.12701523
117	0xbe6ac17a	-0.22925368
118	0xbe45b2e7	-0.19306527
119	0xbe226093	-0.15857153
120	0x3d22b5e5	0.03972425
121	0xbe99b0fe	-0.30017847
122	0xbe754939	-0.23953713
123	0xbdc58dbd	-0.09646175
124	0x3d9ef34f	0.07761251
125	0xbe7c3f72	-0.24633577
126	0xbc150208	-0.009094723
127	0xbd01bcec	-0.03167431

actor.2.weight f4 [128, 128]
0	0x3c610fb3	0.013736653
1	0xbd06bb4a	-0.032893457
2	0x3c23a2ba	0.0099875275
3	0xbd8732c3	-0.06601479
4	0x3c611a13	0.013739127
5	0xbc8c33eb	-0.0171146
6	0x3dba4c21	0.09096552
7	0xbc67c796	-0.014146706
8	0xbc5d9bb0	-0.013525888
9	0x3c187103	0.009304288
10	0xbdc72361	-0.09723545
11	0xbd813418	-0.06308764
12	0x3ce6cf10	0.028174907
13	0x3a7709f1	0.00094237836
14	0xbdec164a	-0.11527689
15	0xbd5643dd	-0.052310813
16	0x3b1cd4fc	0.002393066
17	0xbdd905bc	-0.10596797
18	0x3d89c0ac	0.06726202
19	0xbdf43ccd	-0.11925659
20	0x3dc27431	0.09494818
21	0xbbbc23f3	-0.00574159
22	0xbb8afd65	-0.0042416328
23	0xbbd5bcbc	-0.006522743
24	0xbb5e813a	-0.0033951537
25	0xbba474ce	-0.005018807
26	0xbda6a7dd	-0.08137486
27	0x3cb47d6f	0.022032468
28	0x3cc91c07	0.024549497
29	0xbc68feb4	-0.014220882
30	0x3da27141	0.07931758
31	0xbdea0a9a	-0.11427803
32	0xbce3aafe	-0.027791496
33	0xbdd67702	-0.10471918
34	0xbc01d279	-0.007923716
35	0x3d36b86f	0.044609483
36	0xbcb23721	-0.021754803
37	0x3d2fc4da	0.04291234
38	0x3d236947	0.039895322
39	0xbc2a2394	-0.010384459
40	0xbde2db76	-0.11077015
41	0xbd312627	-0.043249276
42	0xbdd67cee	-0.10473047
43	0x3c0c91f1	0.008579717
44	0xbda08c42	-0.07839252
45	0x3b933c96	0.0044933064
46	0x3c43720b	0.011929045
47	0xbccd6cf0	-0.02507636
48	0x3c226b0c	0.009913217
49	0x3d33ac30	0.043865383
50	0xbca28c99	-0.019842433
51	0x3c63cced	0.013903839
52	0xbdb618af	-0.08891427
53	0x3c3d4279	0.011551493
54	0xbdcbb4d4	-0.099465996
55	0x3d251872	0.040306516
56	0x3cad7134	0.021172144
57	0xbe1c48b3	-0.15262108
58	0x3c997e08	0.018736854
59	0x3e099035	0.13433917
60	0xbcce5c75	-0.025190571
61	0x3b3bc617	0.0028652006
62	0x3d64bce8	0.055844218
63	0xbd1b85ae	-0.037969284
64	0xbc4f76ce	-0.012662603
65	0xbc82bb6d	-0.015958512
66	0xbcd0324a	-0.025414605
67	0x3d59a69b	0.053137403
68	0xbcffbb9f	-0.031217394
69	0x3cfe5604	0.031046875
70	0xbd29262d	-0.041296173
71	0xbd0c4d31	-0.034253303
72	0xbcb73992	-0.022366319
73	0xbccc5bc2	-0.024946097
74	0x3e06c388	0.13160527
75	0xbcb295e6	-0.021799993
76	0xbce25b5d	-0.027631456
77	0xbd4e0416	-0.050296865
78	0xbd21cf4b	-0.03950433
79	0xbc4555bf	-0.012044369
80	0xbddcf086	-0.10788064
81	0xbc11d4a7	-0.008900798
82	0x3c4a2a23	0.012339148
83	0xbc974817	-0.018466992
84	0x3d00e627	0.03146949
85	0xbbbc791a	-0.005751741
86	0xbb30802d	-0.0026931867
87	0x3be44d01	0.0069671874
88	0x3db00868	0.08595353
89	0xbc97ba37	-0.018521411
90	0x3caea5ed	0.021319354
91	0xbd794572	-0.060857244
92	0x3d3092fe	0.043108933
93	0x3d2e61f2	0.042573877
94	0xbcaf161f	-0.021372853
95	0xbd1987f0	-0.037483156
96	0x3cc2d223	0.023781842
97	0xbbf5b5cc	-0.0074984785
98	0xbd1475ac	-0.036245033
99	0x3cc1df51	0.023666056
100	0xbcd9a057	-0.026565714
101	0xbd134b9e	-0.035960786
102	0xbc8b6591	-0.017016204
103	0x3d901b0a	0.07036407
104	0xbbdd7e44	-0.006759437
105	0x3cdd98e8	0.02705045
106	0x3b9b7319	0.0047439453
107	0xbcceaa31	-0.025227638
108	0xbc56ca85	-0.013109808
109	0xbd767e8e	-0.060179286
110	0xbc73af2e	-0.014873309
111	0x3da820c7	0.08209377
112	0x3d550895	0.052010138
113	0x3d8899ca	0.06669958
114	0xbb2bcb37	-0.0026213655
115	0x3b76f7f7	0.003768442
116	0x3c64b97a	0.013960237
117	0xbc6f4fc9	-0.014606425
118	0xbc82fa58	-0.015988514
119	0xbce19b0d	-0.027539754
120	0x3bbfbe9c	0.00585158
121	0xbd7cba62	-0.061701186
122	0xbcef39c2	-0.029202346
123	0x3db8354b	0.0899454
124	0x3d3378f7	0.043816533
125	0x3c21f077	0.009883991
126	0x3bc7a145	0.006092223
127	0xbdafe054	-0.08587709
128	0x3d2a89b9	0.04163525
129	0x3d3d569c	0.046225175
130	0xbd8352d5	-0.06412283
131	0x3bbe01f2	0.0057985717
132	0xbdc46bcf	-0.09590875
133	0x3d298e9f	0.04139578
134	0xbdad884e	-0.08473264
135	0x3d92f39c	0.07175371
136	0x3cb19b43	0.02168048
137	0x3cbb1cda	0.022840906
138	0xbd738e94	-0.059462145
139	0xbd139d0d	-0.036038447
140	0x3d0827f8	0.033241242
141	0xbd88b195	-0.06674496
142	0x3e252ed6	0.16131148
143	0x3a002ad3	0.0004889194
144	0xbd2c13f2	-0.04201121
145	0x3cbfaf25	0.023398945
146	0x3d3c7221	0.04600728
147	0x3db33727	0.08750754
148	0x3c878ac4	0.01654566
149	0x3caf4706	0.021396171
150	0x3c8d99ff	0.017285345
151	0xbd3c1075	-0.045914132
152	0x3d2292bf	0.03969073
153	0x3b28a005	0.0025730145
154	0x3cf99ffa	0.03047179
155	0xbcbd3c88	-0.023100153
156	0x3cd2009a	0.025635052
157	0xbccbea29	-0.02489193
158	0xbe248e6a	-0.16069952
159	0xbc0c8d7a	-0.0085786525
160	0x3d5ad4f7	0.053425755
161	0x3dddbdf6	0.10827248
162	0xbd7b0f6d	-0.061294008
163	0x3ce04ade	0.02737945
164	0xbcd72367	-0.026261998
165	0xbd75a613	-0.059972834
166	0x3da7e1a4	0.081973344
167	0x3dc860e8	0.097841084
168	0xbdfd5ae4	-0.12370852
169	0x3d1658cb	0.036705773
170	0x3cadf68d	0.021235729
171	0x3d5f7b0c	0.054560706
172	0xbd0b78e4	-0.034050837
173	0x3cd7d98a	0.026348848
174	0x3c671f96	0.014106652
175	0x3d3f064e	0.046636872
176	0x3d4bbd28	0.04974094
177	0xbd3f9a59	-0.046778057
178	0xbd8802ee	-0.06641184
179	0x3d7d29d5	0.061807472
180	0xbe4493ac	-0.19196957
181	0x3cdcb131	0.02693996
182	0xbda644d3	-0.08118596
183	0x3dd4e8da	0.103959754
184	0xbdf2766f	-0.11838996
185	0x3c4cdd64	0.0125039555
186	0xbdc67c42	-0.09691669
187	0xbd31acc6	-0.04337766
188	0xbc959d1e	-0.018263396
189	0xbcb60d9f	-0.022223292
190	0xbcdbda25	-0.026837418
191	0x3d0010ae	0.031265907
192	0xbd010930	-0.031502903
193	0xbddc400d	-0.10754404
194	0x3d112d3f	0.03544354
195	0x3d7e954c	0.0621541
196	0xbaf01494	-0.001831668
197	0xba33381d	-0.00068366696
198	0x3d16d8da	0.0368279
199	0xbcb0e669	-0.021594243
200	0x3dcad059	0.099030204
201	0x3cab8951	0.020939501
202	0xbd41dbbd	-0.0473287
203	0x3e28b4a1	0.16475154
204	0x3bd4c1b2	0.006492817
205	0xbd9ef703	-0.077619575
206	0xbce7b63f	-0.028285144
207	0xbab923e1	-0.0014125073
208	0xbd249fd9	-0.040191505
209	0x3d3d73bf	0.046252962
210	0x3c3df266	0.011593437
211	0xbc967a6e	-0.018368926
212	0x3bc55bc3	0.0060229017
213	0x3d1e520a	0.038652457
214	0xbe0e0235	-0.1386803
215	0xbc0ebd04	-0.008712057
216	0xbe8f8623	-0.28032026
217	0xbd9cfb9b	-0.076651774
218	0x3d6a8144	0.057252184
219	0x3e03ff65	0.12890394
220	0x3c1a6e43	0.0094257025
221	0x3dd341f2	0.103153124
222	0xbc923c67	-0.017851068
223	0xbce6804b	-0.028137347
224	0x3d8e3e2d	0.06945453
225	0x3d13f4c5	0.036122102
226	0x3d89d8ff	0.06730842
227	0xbc6d70de	-0.014492242
228	0x3c8ceadc	0.017201833
229	0x3cf4c6c5	0.029879937
230	0xbbbeea5d	-0.005826278
231	0xbe2f1710	-0.17098641
232	0x3ad4e0d2	0.0016241318
233	0x3d9fc500	0.07801247
234	0x3d7fa483	0.06241275
235	0x3d35dedc	0.04440199
236	0xbe00b704	-0.12569815
237	0xbe023a43	-0.12717538
238	0xbc606b99	-0.013697528
239	0x3ddd9a84	0.10820487
240	0x3e2bb2df	0.16767453
241	0xbcc2a0eb	-0.023758372
242	0x3c814244	0.015778668
243	0x3d13651e	0.035985105
244	0xbdc1591b	-0.09440824
245	0x3d021646	0.031759523
246	0xbcf1fce7	-0.029539539
247	0xbca83aca	-0.020535845
248	0x3da84f3c	0.08218238
249	0x3cfcaf61	0.030845346
250	0x3c23e411	0.010003106
251	0xbdb2e356	-0.08734767
252	0x3dbf920f	0.0935403
253	0xbd04746e	-0.0323376
254	0xbbfa6d80	-0.007642448
255	0x3827f7d7	4.004672e-05

actor.2.bias f4 [128]
0	0x3d1aad10	0.0377627
1	0x3dd3b8cb	0.10337981
2	0x3d164627	0.036687996
3	0x3be0ec1c	0.006864084
4	0x3deba36d	0.1150578
5	0xbcbb4598	-0.022860333
6	0x3eacbff2	0.33740193
7	0xbbeb90b4	-0.007188881
8	0xbdc40722	-0.09571673
9	0x3d6f08e9	0.058358107
10	0xbe2f768b	-0.17135064
11	0x3d9c0389	0.07617862
12	0x3d02c013	0.031921457
13	0x3c90b4f2	0.017664406
14	0xbe97371a	-0.29534227
15	0x3dad7055	0.08468691
16	0x3e2294be	0.15877053
17	0xbde6bef0	-0.11266887
18	0x3db07a97	0.08617132
19	0x3c2b625a	0.010460461
20	0xbdee67f7	-0.116409235
21	0xbe71ca6d	-0.23612376
22	0xbb8be9a4	-0.0042697955
23	0xbda94ac6	-0.08266215
24	0xbcd3e6a9	-0.025866823
25	0xbdbd3ac8	-0.09239727
26	0x3df37312	0.11887182
27	0x3d762674	0.060095266
28	0xbd218fbf	-0.039443728
29	0x3de510d3	0.111848496
30	0xbdd8fef1	-0.10595501
31	0x3f2b7105	0.6696933
32	0xbd197c2b	-0.03747193
33	0x3d5055fb	0.050863247
34	0xbd05f695	-0.032705862
35	0xbc4a7120	-0.012356073
36	0x3da65423	0.081215166
37	0x3e1ea3a5	0.15492113
38	0xbeacb1a5	-0.33729282
39	0xbd623345	-0.055224676
40	0xbe0761a5	-0.13220842
41	0xbe8a4e57	-0.27012894
42	0x3d505b10	0.050868094
43	0x3ef309cd	0.47468415
44	0x3e054b1d	0.13016935
45	0xbc9b619c	-0.018967442
46	0xbcc14c38	-0.023595914
47	0x3d9b570f	0.075849645
48	0x3d28fa7e	0.041254513
49	0xbd22a6b1	-0.03970975
50	0x3f41b395	0.75664645
51	0xbe2c13f5	-0.16804488
52	0x3d598949	0.05310944
53	0xbc146352	-0.009056883
54	0xbd060cad	-0.032726932
55	0xbd063729	-0.03276745
56	0x3d699201	0.057024006
57	0xbd832536	-0.06403582
58	0x3e11778e	0.14205763
59	0x3dcff6d3	0.101545
60	0xbf0aa70a	-0.5416113
61	0x3b5aca3a	0.0033384697
62	0xbe826f5d	-0.25475588
63	0x3d958501	0.07300759
64	0xbe498027	-0.19677792
65	0x3e9bbe5a	0.30418664
66	0xbd15444b	-0.036442082
67	0x3d5a2765	0.053260226
68	0x3d2cca60	0.042185187
69	0x3d5d0cd1	0.0539673
70	0x3d513012	0.051071234
71	0xbe22d505	-0.15901573
72	0xbdf8513e	-0.12124871
73	0xbdda7d4a	-0.10668428
74	0xbe4c9a50	-0.1998074
75	0xbe31e027	-0.17370664
76	0xbe2cc06f	-0.16870283
77	0x3f25b8c5	0.6473506
78	0x3e589005	0.21148689
79	0x3f186819	0.5953384
80	0x3c67798b	0.014128099
81	0x3d05d867	0.03267708
82	0x3ddae4d8	0.1068818
83	0xbd5307fc	-0.051521286
84	0xbe3728de	-0.17886683
85	0xbeec1acc	-0.46114194
86	0xbd51b8f0	-0.05120176
87	0x3b82c3f1	0.003990643
88	0x3e4ab248	0.19794571
89	0xbe860f8e	-0.26183742
90	0xbe0b5f64	-0.13610607
91	0xbec6615e	-0.3874616
92	0x3f296cab	0.6618144
93	0xbd1ca4a4	-0.03824295
94	0xbbb27b6f	-0.0054468433
95	0xbdd8b3dd	-0.10581181
96	0xbebf7403	-0.37393197
97	0x3dc03f88	0.093871176
98	0xbea1f223	-0.31630048
99	0x3def8bb7	0.1169657
100	0x3db89c4d	0.09014187
101	0x3ef46cd2	0.47739273
102	0x3f3ce684	0.7378924
103	0x3cdea0bb	0.027176252
104	0xbd38d8af	-0.04512852
105	0xbd4c7077	-0.049911942
106	0x3ea51daf	0.3224921
107	0x3eaa02b4	0.33205187
108	0x3c1e482e	0.009660764
109	0xbee8a476	-0.45437974
110	0x3ce97527	0.028498245
111	0xbc667d47	-0.014067954
112	0x3edbfc10	0.42965746
113	0xbed9becd	-0.42528382
114	0xbd22effb	-0.039779644
115	0xbeffb404	-0.4994203
116	0x3e0a7761	0.13522102
117	0x3d0e8837	0.034797873
118	0xbf1345c4	-0.5752833
119	0x3c0726ea	0.008249024
120	0xbdb8d3d6	-0.090247795
121	0xbb8509d6	-0.0040600104
122	0xbe301c3e	-0.17198274
123	0x3dc7b10b	0.09750565
124	0x3f2faf2f	0.68626684
125	0xbe0d3c77	-0.13792597
126	0x3c7c8b5c	0.015414085
127	0xbceb6817	-0.028736157

actor.4.weight f4 [4, 128]
0	0xbb7c7c85	-0.0038526368
1	0x3b10d3aa	0.0022098818
2	0xbc1db3ec	-0.009625416
3	0xbb61e61f	-0.0034469438
4	0x3a1866a1	0.0005813633
5	0xbaa1bb02	-0.0012339058
6	0x3b88e3d0	0.004177548
7	0x3a5b7e2f	0.000837299
8	0x3c04f7ca	0.008115718
9	0x3b1bbed3	0.0023764863
10	0xbe0fb68e	-0.14034483
11	0xbd03c399	-0.03216896
12	0x3982c59a	0.00024942757
13	0x3b1da613	0.0024055287
14	0xbd23889d	-0.039925206
15	0xbb19d946	-0.0023475452
16	0xbef4cb51	-0.47811368
17	0x3987bc5b	0.00025889542
18	0xbc05c60d	-0.008164895
19	0x3b986acb	0.0046514026
20	0x3a2218a0	0.0006183479
21	0x3dfed4d0	0.124429345
22	0xbb6327d6	-0.0034661195
23	0xbc255d3a	-0.010093028
24	0x3b057a0f	0.0020366942
25	0xbaa8babf	-0.0012873037
26	0xbc2b156f	-0.010442122
27	0x3bfd1d42	0.007724435
28	0x3bc09d9a	0.0058781626
29	0x3db96cf6	0.09053986
30	0xb9f2754e	-0.00046245236
31	0x3dfc584a	0.12321527
32	0xbe4246bb	-0.18972294
33	0xbcad6a1b	-0.02116876
34	0x3aa74f12	0.0012764654
35	0x3a807c5b	0.0009802686
36	0x3b9675ff	0.004591703
37	0x3d82265f	0.06354975
38	0x3de81d4e	0.113337144
39	0xbe91dfc7	-0.2849104
40	0x3d935d08	0.07195479
41	0xbeab8a6c	-0.33504045
42	0x3bba4d0a	0.0056854533
43	0xbd25bdb6	-0.040464126
44	0x3e000f24	0.12505776
45	0xbb8ec842	-0.0043573687
46	0xbc0ad809	-0.008474358
47	0x3c6555bf	0.013997494
48	0xbaa8d576	-0.0012880999
49	0x3b6e48cf	0.0036359315
50	0x3eeece50	0.4664178
51	0x3c504336	0.012711337
52	0x3b110c1b	0.002213246
53	0x3acb3f25	0.001550649
54	0xbc015f55	-0.007896264
55	0x3ba16c53	0.0049262433
56	0xbd05c9f6	-0.032663308
57	0x3cbc6c44	0.023000844
58	0x3e081f56	0.13293204
59	0xbb36baf9	-0.002788244
60	0x3dafb9eb	0.08580383
61	0x3b861adc	0.0040925574
62	0x3d9def82	0.07711698
63	0x3a2a621c	0.0006499605
64	0xbe66ef97	-0.22552334
65	0x3d34b314	0.044116095
66	0x3a652700	0.0008741468
67	0xbbbecb0b	-0.0058225445
68	0xbbaa9bbd	-0.0052065537
69	0x3c515b1b	0.012778069
70	0xbb1dce42	-0.0024079238
71	0xbb2bcce0	-0.0026214644
72	0x3c61b86c	0.01377688
73	0xbdac168d	-0.08402739
74	0x3d836cab	0.06417211
75	0xbd985983	-0.07438948
76	0xbe88e7bd	-0.26739302
77	0x3f3c5ce7	0.7357926
78	0x3ceada52	0.028668556
79	0xbe0159ac	-0.12631863
80	0xbd449f79	-0.048003647
81	0x3b91f1d9	0.0044538793
82	0xbbe00bcd	-0.0068373443
83	0xbcedf81b	-0.02904897
84	0xbd29e67e	-0.04147958
85	0xbe236150	-0.1595509
86	0xbb8cb837	-0.004294421
87	0xbd2b6152	-0.04184086
88	0x3ea6cdc2	0.32578856
89	0xbc630e9d	-0.013858465
90	0x3a91b62c	0.0011116914
91	0xbe5dc42e	-0.21656868
92	0xbd85eeb5	-0.065396704
93	0x38a482b4	7.844475e-05
94	0x3c3ecfc3	0.011646214
95	0xbb21fc9f	-0.0024717224
96	0xbe11b3b1	-0.14228703
97	0xbbb928db	-0.0056506223
98	0xbe95ca42	-0.29255873
99	0x3ab208a2	0.0013582895
100	0x3bc54fee	0.0060214913
101	0xbe49bb76	-0.19700417
102	0xbe8125af	-0.25224063
103	0x3c10e455	0.008843501
104	0xb8cdd355	-9.8145254e-05
105	0xb85843c4	-5.1561525e-05
106	0xbd8c9ecb	-0.06866225
107	0x3a9d81b7	0.0012016807
108	0x3ab75860	0.001398813
109	0x3d2bf8fd	0.0419855
110	0xbb589c3c	-0.0033052107
111	0xbb6230e6	-0.003451401
112	0x3e67a66c	0.22622079
113	0xbdc98223	-0.09839275
114	0x3c04e9ca	0.00811238
115	0xbc8cf21b	-0.017205289
116	0x3d3c72d2	0.04600794
117	0xbc01283d	-0.007883129
118	0xbecf1a52	-0.40449768
119	0x3a8ea399	0.0010882496
120	0x38d36c24	0.00010081407
121	0xbb860090	-0.0040894225
122	0xbdb6bc34	-0.08922616
123	0x3c988a48	0.018620625
124	0xbca18408	-0.019716278
125	0xbd42fc30	-0.047603786
126	0xba3673b8	-0.00069599925
127	0x3bc5ef7c	0.0060405117
128	0x39ed03d9	0.0004520703
129	0x38d99057	0.00010374252
130	0x398ac5c9	0.00026468773
131	0xb9fad397	-0.00047841363
132	0xb9f5e138	-0.00046897843
133	0xba024914	-0.0004969996
134	0x3d0b158b	0.03395609
135	0xba68e727	-0.0008884542
136	0xba864ff0	-0.0010247212
137	0x3870fb7c	5.7454672e-05
138	0xbc2a260e	-0.0103850495
139	0x3cce52ca	0.025185961
140	0xb97c4076	-0.00024056606
141	0xb826dabf	-3.9781207e-05
142	0xbcd7786c	-0.026302539
143	0x3aab3957	0.0013063353
144	0x3cf6f399	0.030145453
145	0x3a514526	0.0007983021
146	0x39ff1f06	0.00048660504
147	0xb973db58	-0.00023255998
148	0x39bf7e5f	0.00036524513
149	0xbc2343ba	-0.009964878
150	0x3a8210e5	0.0009923248
151	0xba3db58a	-0.0007236829
152	0xb9abd37f	-0.00032773238
153	0x3a638cc6	0.00086803397
154	0x3a2fba3d	0.0006703472
155	0x397d8a4a	0.00024179477
156	0x3a227a26	0.0006198011
157	0x3d83b7cc	0.06431541
158	0x39af0eda	0.00033389666
159	0x3ed7161f	0.42009065
160	0x3a4eea47	0.00078931864
161	0x39f89efd	0.00047420702
162	0x39b3ba04	0.00034280133
163	0x39c00d1b	0.00036630858
164	0xb980d51c	-0.0002457284
165	0xbc1a33db	-0.009411777
166	0x3b872fe4	0.004125582
167	0x3c902368	0.017595008
168	0x3d721d3d	0.059109915
169	0x3baf4f2d	0.0053500147
170	0x39c81d26	0.0003816869
171	0xbda38eff	-0.07986259
172	0xbbc49266	-0.0059988974
173	0xb928a5a3	-0.00016083433
174	0xba3e289c	-0.0007253976
175	0x3acae378	0.0015479168
176	0xb7c6c841	-2.369669e-05
177	0xb99d525e	-0.00030006742
178	0x3c7394e3	0.01486704
179	0xbc880040	-0.016601682
180	0x3907542c	0.0001290596
181	0x38e8c253	0.00011098818
182	0xb8d653df	-0.000102199374
183	0x39b5f1c9	0.00034703154
184	0xbba1d12c	-0.0049382653
185	0xbd0d121c	-0.0344411
186	0xbd8cc01c	-0.068725795
187	0xba549089	-0.00081086956
188	0x3bd95ed2	0.006633618
189	0xba71ebec	-0.00092285755
190	0xbc0307b9	-0.007997447
191	0x39091cc8	0.0001307606
192	0xbd4c370c	-0.049857184
193	0x3d4010d3	0.046891045
194	0xbac49fe0	-0.001500126
195	0x3a6160f7	0.0008597518
196	0x39b7adb3	0.00035033896
197	0x3a2281e8	0.0006199167
198	0x38f6dc0e	0.000117711825
199	0x39ba492a	0.00035531196
200	0xb91627c6	-0.00014319932
201	0xbcdab464	-0.026697345
202	0xbd835d42	-0.06414272
203	0x3ac285b3	0.0014840871
204	0xbd2523ca	-0.040317334
205	0x3d49ea80	0.049295902
206	0x3cf439ed	0.029812777
207	0x3c004d96	0.007830998
208	0xbcc513a2	-0.024057213
209	0xba11312a	-0.0005538637
210	0xba146ce3	-0.00056619773
211	0x3ca489d4	0.020085253
212	0x3d4b21b1	0.049592678
213	0x3b86cc88	0.0041137375
214	0xb9bcbe83	-0.00036000097
215	0xbbd73f52	-0.0065688277
216	0x3cbb3347	0.0228516
217	0x3d9d3483	0.076760314
218	0xba648b0f	-0.0008718231
219	0x3b647043	0.0034856952
220	0xbd874ad7	-0.066060714
221	0x3a014d5c	0.0004932487
222	0xb726628e	-9.917318e-06
223	0xb91ebce5	-0.00015138423
224	0x3ac69582	0.0015150758
225	0xba6b3a91	-0.00089732656
226	0xbd3c2951	-0.04593784
227	0x39c9cdc0	0.00038491003
228	0xb86e1271	-5.6760797e-05
229	0x3d6b4b02	0.05744458
230	0xbd553b96	-0.05205878
231	0x39470cf9	0.00018982952
232	0x39ba099b	0.0003548384
233	0xba11f7f0	-0.00055682566
234	0xbd11a2cd	-0.03555565
235	0x3c440385	0.01196373
236	0xba6a1f3f	-0.00089310476
237	0xbdeb47cf	-0.11488306
238	0x39994fed	0.00029241983
239	0x36c5dd2c	5.8968053e-06
240	0x3dc0a395	0.09406201
241	0x3d812e97	0.063077144
242	0x392f9e72	0.00016748326
243	0x3cbafc99	0.022825526
244	0x3d3062ac	0.04306285
245	0xba558894	-0.0008145657
246	0x3cd91412	0.026498828
247	0x38c2ab6b	9.28257e-05
248	0x3a2c03ba	0.00065618346
249	0xba09e7fd	-0.0005260704
250	0xbd93a488	-0.07209116
251	0xbc3301bd	-0.010925707
252	0x3c9191ce	0.01776972
253	0xbd1cbff0	-0.038268983
254	0x3904d5d6	0.00012668161
255	0xb802b070	-3.1158736e-05

actor.4.bias f4 [4]
0	0x3eb7c4b2	0.35892254
1	0x3f0719eb	0.5277392
2	0x3f0cdcd4	0.55024457
3	0x3f1997b1	0.5999709

critic.0.weight f4 [128, 17]
0	0xbf789ecd	-0.9711731
1	0x3e34eb52	0.17667893
2	0xbe73cee7	-0.23809396
3	0xbf4d87de	-0.8028544
4	0xc0222c71	-2.5339625
5	0x3e9669ba	0.29377538
6	0xc041da3c	-3.028945
7	0x3f3588aa	0.7091166
8	0xbfd137fa	-1.6345208
9	0x3e8388f0	0.25690413
10	0x3fba7b8f	1.4568957
11	0x410453b0	8.2704315
12	0x3f24aa72	0.6432258
13	0xbec32caf	-0.38120028
14	0xbdf5c664	-0.12000731
15	0xbe490f28	-0.19634688
16	0xbd518098	-0.051148027
17	0x3e114f03	0.14190297
18	0x4021b174	2.5264559
19	0x40aa3555	5.3190103
20	0xbf00f129	-0.5036798
21	0x400c689e	2.1938853
22	0xbc7796b6	-0.015111616
23	0x40671ad8	3.6110134
24	0x3fffe034	1.9990296
25	0x3fdf44c6	1.7442863
26	0xbede4817	-0.43414375
27	0xc005ecc0	-2.092575
28	0x3eab0b08	0.33406854
29	0x3f00d9ce	0.50332344
30	0x3e87124b	0.26381144
31	0x3f30bc71	0.6903754
32	0x3e60e08f	0.21960662
33	0x3e896b66	0.2683975
34	0x400b0d59	2.1726897
35	0xbe1bce17	-0.15215336
36	0x404f1314	3.2355394
37	0x3f169b0a	0.5883032
38	0x40324efb	2.7860706
39	0xc06594d3	-3.5872085
40	0x3f6adac4	0.9174006
41	0x3e2742b9	0.16334046
42	0xbfabe448	-1.3429041
43	0x3fe8e99b	1.8196291
44	0xbf48870c	-0.78331065
45	0x3f319c2b	0.6937892
46	0x3e9c0c58	0.30478168
47	0xbe5011f7	-0.20319353
48	0xbdda75dd	-0.10667012
49	0xbeb4f8eb	-0.3534616
50	0xbf256a99	-0.6461578
51	0x4085b7b2	4.1786737
52	0x3ec7eeee	0.39049476
53	0xbfa4a075	-1.2861468
54	0x3ceda12d	0.029007519
55	0x4086e952	4.2159815
56	0xbf05921c	-0.5217607
57	0xbca703a5	-0.02038748
58	0xbf93edce	-1.1556947
59	0xc034ffc3	-2.8281105
60	0x3f4361db	0.7632119
61	0x3e86c178	0.2631948
62	0xbe621411	-0.22077967
63	0xbc61fcb6	-0.013793161
64	0xbe1372ae	-0.14399216
65	0xbd855a3e	-0.06511353
66	0xbe816f3a	-0.25280172
67	0xbd8fdc50	-0.07024443
68	0xc08ce8ef	-4.4034343
69	0x3e278049	0.1635753
70	0x408a1264	4.314745
71	0xbcc03d1c	-0.02346664
72	0xc05a00c8	-3.4062977
73	0x3f69fc68	0.91400766
74	0x3fc7c1c7	1.5606011
75	0x3f45234d	0.7700699
76	0xbdc140f0	-0.09436214
77	0x3f0f619b	0.5600831
78	0x3dd422dd	0.10358212
79	0x3e019f9c	0.12658542
80	0x3f40c484	0.7529986
81	0x3e88c1e2	0.2671042
82	0x3ebdbc96	0.37057942
83	0x3e8503fd	0.25979605
84	0x3dc4899d	0.0959656
85	0xc01fa4b4	-2.4944277
86	0x3f9fa401	1.2471925
87	0x402d942b	2.7121685
88	0x3eee8c18	0.46591258
89	0x3f899821	1.0749551
90	0xc0771940	-3.8609161
91	0xbffe6743	-1.9875263
92	0x4003f3db	2.0617588
93	0xbdb50c68	-0.08840257
94	0x3fae5e82	1.3622591
95	0x3ea4e8a4	0.3220874
96	0xbe59b167	-0.2125908
97	0x3f96c386	1.1778419
98	0x3ed919c4	0.4240247
99	0x3ec871b5	0.39149252
100	0x3eab4f8a	0.3345912
101	0x3d3d9174	0.046281293
102	0x40a82746	5.254794
103	0x408a1bee	4.3159094
104	0xbf8e394f	-1.1111239
105	0xbeb87f38	-0.3603456
106	0xbe3c7a17	-0.18405949
107	0x3fd8c514	1.6935143
108	0x3d75da9d	0.06002294
109	0xbed6bb6d	-0.4193987
110	0xbde1aa48	-0.11018807
111	0x3e2830d6	0.1642488
112	0xbd288cf0	-0.041150033
113	0x3d07185b	0.03298221
114	0xbe4ce0c6	-0.2000762
115	0xbdae5bf5	-0.08513633
116	0xbdef5b0b	-0.11687287
117	0xbd889038	-0.066681325
118	0x3b3e008e	0.002899203
119	0xbff52de8	-1.9154634
120	0xc039e493	-2.904576
121	0x3f6520bf	0.8950309
122	0xbe1ef276	-0.15522179
123	0xc021aa2b	-2.5260112
124	0xc02ba9dd	-2.6822426
125	0xc0680598	-3.6253414
126	0xbfca47ac	-1.5803123
127	0x3f1c02fb	0.6094205
128	0xbfbd40e8	-1.4785433
129	0x40352be7	2.8308046
130	0x4021d2c1	2.5284884
131	0x3f5b6371	0.8569861
132	0x3e122d10	0.14275002
133	0xbe462e25	-0.1935354
134	0x3eb1b148	0.34705567
135	0x3ed406c1	0.41411403
136	0x3f0bc0f0	0.54591274
137	0xc0156da0	-2.334816
138	0xc002d1dc	-2.0440588
139	0x3f07d5f4	0.5306084
140	0xc00ee07f	-2.2324522
141	0x3fe04f33	1.752417
142	0x3f9f30cb	1.2436765
143	0x3f35df30	0.7104368
144	0xbf23b01a	-0.63940585
145	0x3f7aaf3a	0.97923625
146	0x4088300a	4.255864
147	0x3c12b4ee	0.00895427
148	0xbf2b736f	-0.6697301
149	0xbdad27c0	-0.08454847
150	0xbed49593	-0.41520366
151	0xbea06ecb	-0.31334528
152	0xbe1e907d	-0.15484805
153	0x4139e891	11.619279
154	0xbea2b58e	-0.3177914
155	0xc0025e1d	-2.0369942
156	0x3e81f6e8	0.25383687
157	0x3fa629e1	1.298153
158	0x402161a0	2.5215836
159	0x3f6230ed	0.88355905
160	0xbf18f196	-0.5974363
161	0x3e8c5726	0.2741024
162	0xbee433e6	-0.44570845
163	0xbbf91865	-0.007601785
164	0xbe116168	-0.14197314
165	0x3dbc9775	0.09208576
166	0xbc88fd9a	-0.01672249
167	0x3e3ff1e5	0.18744619
168	0x3d602160	0.05471933
169	0xbd92f6dc	-0.07175991
170	0xbcfbf724	-0.030757494
171	0xc0178094	-2.3672228
172	0xbfbdcbc0	-1.4827805
173	0xbe8a0211	-0.26954702
174	0x3ff3594a	1.9011624
175	0xbf83b20f	-1.0288714
176	0xc0988819	-4.7666135
177	0x3f508d50	0.81465626
178	0x3fe13088	1.7592936
179	0xbf9ef43e	-1.2418287
180	0xbe2de5ca	-0.16982189
181	0x3e4317fa	0.19052115
182	0x3e4694e8	0.1939274
183	0xbce1c58c	-0.027560018
184	0xbe5432ef	-0.20722555
185	0x3d9ff45f	0.07810282
186	0xbc318427	-0.01083473
187	0xc03f703e	-2.9912257
188	0xbe3faa9b	-0.18717425
189	0xc0ebbc62	-7.366746
190	0xbf417120	-0.7556324
191	0xbf36e3ec	-0.7144153
192	0xbf2af25d	-0.66776067
193	0x407f5763	3.9897087
194	0xbcebb806	-0.028774273
195	0x3ef8646d	0.4851412
196	0xbe606f7d	-0.2191753
197	0x3ea53cdd	0.32272997
198	0xbdd7c234	-0.10535088
199	0x3dbe32a5	0.092870034
200	0xbdb19ed8	-0.08672875
201	0xbe55da60	-0.20884085
202	0xbe8a5950	-0.27021265
203	0xbe0bfbf4	-0.13670331
204	0xbe1fb220	-0.15595293
205	0xbefd266a	-0.4944337
206	0x40105be9	2.2556098
207	0xbf665ac9	-0.8998228
208	0x3fef52e7	1.8697175
209	0xbfc90ab8	-1.5706396
210	0x4030d3ac	2.7629194
211	0xbff6797d	-1.9255825
212	0x3fa6c082	1.3027499
213	0x3e3d6b9a	0.18498078
214	0xbe095483	-0.13411145
215	0x3d54fa01	0.051996235
216	0xbebbd894	-0.36688673
217	0xbee5ac9e	-0.4485826
218	0xbf14b730	-0.5809202
219	0xbe99015c	-0.2988385
220	0xbe77217e	-0.2413387
221	0x40067ee3	2.1014946
222	0x3f43de39	0.7651096
223	0xbf9ee0fe	-1.2412412
224	0xbfa4b5a3	-1.2867931
225	0x3d244930	0.04010886
226	0x40013b81	2.0192568
227	0xbffec5c5	-1.9904104
228	0x3f40edaf	0.75362676
229	0xbf1102ee	-0.56645095
230	0x3cde7067	0.027153207
231	0xbdd0a4d9	-0.10187692
232	0x3e162030	0.14660716
233	0xbe9dfe82	-0.30858237
234	0x3b6c0ccb	0.0036018367
235	0xbd813dba	-0.063106015
236	0x3d873a0d	0.06602869
237	0xbe140b5b	-0.14457457
238	0x3efb6a9e	0.4910478
239	0x407a6a1b	3.9127262
240	0xc0620094	-3.5312853
241	0x3db22593	0.08698573
242	0xbeafea89	-0.34358624
243	0xbedf48a5	-0.4361011
244	0xbeaa266b	-0.33232436
245	0xc01e08f7	-2.4692972
246	0xbfea47d5	-1.8303171
247	0xbf8d0799	-1.1017944
248	0xbffd5f08	-1.9794626
249	0x3f4d8f01	0.8029633
250	0x3d90c536	0.07068865
251	0xbe9f1acf	-0.3107514
252	0xbe521f4c	-0.20519751
253	0xbee0ad51	-0.4388223
254	0xbf1234d3	-0.57111853
255	0x3e44a68e	0.1920416

critic.0.bias f4 [128]
0	0xbf2e7b51	-0.68156916
1	0xbd86221a	-0.06549473
2	0x3ee8d624	0.45475876
3	0xbe281645	-0.16414745
4	0x3e96833b	0.29396996
5	0x3ed2dca7	0.4118397
6	0x3ea25c34	0.3171097
7	0xbeef5646	-0.4674551
8	0x3c5bac7a	0.013407821
9	0x3e480bac	0.19535702
10	0xbec45e75	-0.38353315
11	0xbf245eef	-0.6420736
12	0xbf28c028	-0.6591821
13	0xbef21541	-0.4728184
14	0x3cc74f2a	0.02432974
15	0x3ef4f6f9	0.47844675
16	0xbf190c80	-0.597847
17	0x3e44afdc	0.1920771
18	0xbf62a8ac	-0.8853862
19	0xbf481b28	-0.7816644
20	0xbf1b8cf8	-0.60761976
21	0xbf043e37	-0.5165743
22	0x3f500e89	0.8127218
23	0x3e5b3f2f	0.21410821
24	0xbf10e406	-0.56597936
25	0xbdebac3c	-0.115074605
26	0x3f0b71d5	0.5447057
27	0x3e7c70c8	0.24652398
28	0x3d10ebd6	0.03538116
29	0xbeab1500	-0.3341446
30	0x3f7e4d53	0.9933674
31	0x3e304fc7	0.17217933
32	0x3f9e0126	1.23441
33	0xbb2a39c2	-0.0025974368
34	0xbe90362d	-0.28166333
35	0xbf0dfd99	-0.55465084
36	0xbf07ca71	-0.53043276
37	0x3e595039	0.21222009
38	0xbed0a6e9	-0.40752342
39	0xbf1430f5	-0.578872
40	0xbeafd14c	-0.34339368
41	0xbf6c9689	-0.924172
42	0xbde11893	-0.10991015
43	0x3d67a3c0	0.05655265
44	0xbe8b74a3	-0.27237424
45	0x3ef9b05d	0.48767367
46	0x3ebf80b0	0.37402868
47	0x3e74cba5	0.23905809
48	0xbea3ff32	-0.32030636
49	0xbee299db	-0.44258007
50	0x3efbc7cf	0.4917588
51	0x3ee36660	0.44414043
52	0x3e910254	0.2832209
53	0x3e9741fd	0.29542533
54	0x3f03aabc	0.51432395
55	0x3ed3043d	0.4121417
56	0x3e9eae77	0.3099248
57	0x3e007e0b	0.12548082
58	0xbd113a8f	-0.035456236
59	0xbe1bf698	-0.15230787
60	0x3f2ae455	0.6675466
61	0xbe4d0b11	-0.20023753
62	0xbf090632	-0.5352508
63	0x3f3bc2b3	0.7334396
64	0x3f084dd7	0.53243774
65	0x3e6dce54	0.23223239
66	0xbf801e5c	-1.0009265
67	0xbf0065fc	-0.50155616
68	0x3da3757b	0.07981392
69	0xbdebfdf6	-0.115230486
70	0xbea8108e	-0.3282513
71	0xbe687d9c	-0.22704166
72	0x3ed68f12	0.4190603
73	0xbe589f62	-0.2115455
74	0x3e457300	0.1928215
75	0xbf8a78ac	-1.0818076
76	0xbf53d7e3	-0.8275129
77	0x3e1d7299	0.15375747
78	0x3dd96b5e	0.10616182
79	0x3f1a1d57	0.6020102
80	0x3ea6cfcf	0.3258042
81	0xbc3b9f94	-0.011451621
82	0x3f13a510	0.5767374
83	0x3d435177	0.047685113
84	0x3f2e886b	0.6817691
85	0xbeba9fe7	-0.3645012
86	0xbf99f049	-1.2026454
87	0xbeaf0ec1	-0.34190944
88	0xbd2c5bd3	-0.042079758
89	0x3f8dfa45	1.1092001
90	0x3e91f224	0.2850505
91	0xbecd173c	-0.4005679
92	0x3ed0506a	0.4068635
93	0xbe593708	-0.21212399
94	0x3f1197a5	0.56872016
95	0x3eff4d5a	0.49863702
96	0xbe49de4e	-0.19713709
97	0x3f2f60aa	0.6850687
98	0x3ea36722	0.31914622
99	0x3e99075d	0.2988843
100	0x3dff83b6	0.12476294
101	0xbd896f59	-0.06710691
102	0x3e3cdaf5	0.184429
103	0x3ed922fc	0.42409503
104	0x3f0fdf05	0.56199676
105	0xbe293c71	-0.16526963
106	0xbf156c56	-0.5836843
107	0x3e372d70	0.17888427
108	0xbeb2d4fc	-0.3492812
109	0x3f0efd7a	0.55855525
110	0x3f47f674	0.7811043
111	0x3f071c6d	0.5277775
112	0x3ce4575d	0.02787369
113	0x3da3607e	0.07977389
114	0x3c187e3a	0.0093074385
115	0xbd80ee52	-0.06295456
116	0xbe4992b0	-0.19684863
117	0xbf073839	-0.52820164
118	0xbd1733ea	-0.036914743
119	0xbea33dca	-0.3188308
120	0xbe0c0859	-0.1367506
121	0xbf1ca13e	-0.61183536
122	0xbe096c8d	-0.13420315
123	0x3f1dbb24	0.6161368
124	0x3bc5925f	0.0060294117
125	0x3edf15df	0.43571374
126	0x3e53337b	0.20625107
127	0xbf689244	-0.90848184

critic.2.weight f4 [128, 128]
0	0xbf2bdde4	-0.67135453
1	0xbd91c8d8	-0.07118386
2	0x3f0cecc1	0.5504876
3	0x3fa8eb2c	1.3196769
4	0x3f3c1c46	0.7348064
5	0xbf49fec6	-0.7890438
6	0x3e748235	0.23877795
7	0xbf11a118	-0.56886435
8	0x3e86f0bd	0.26355544
9	0x3e4e1a73	0.20127277
10	0x3e1a0927	0.15042554
11	0xbe727cf7	-0.23680483
12	0x3e903ca1	0.28171256
13	0x3b80879c	0.003922416
14	0x3f49e7f4	0.7886956
15	0x3fd4cc93	1.6624931
16	0x3f0f6a85	0.5602191
17	0xbf576b2e	-0.8414792
18	0xbf4fab35	-0.81120616
19	0x3f96a101	1.1767884
20	0xbe7b803f	-0.24560641
21	0x3f761ccc	0.9613769
22	0x3f207560	0.626791
23	0x3e5be857	0.2147535
24	0x3f061713	0.5237896
25	0xc0139111	-2.3057292
26	0xbedae5eb	-0.42753538
27	0x3b9dda55	0.004817287
28	0xbffaaffa	-1.9584954
29	0xbfec3976	-1.8455036
30	0x3e4d81fb	0.20069115
31	0xbe254fde	-0.16143748
32	0x3fdf2b02	1.7435
33	0xbed177e2	-0.40911776
34	0x3f43c99d	0.7647951
35	0x3d0285cf	0.03186589
36	0xbf8673d0	-1.0504093
37	0x3f1d5854	0.61462903
38	0x3f8b6254	1.0889382
39	0xbdb47ac0	-0.08812475
40	0xbea59661	-0.32341293
41	0xbed280fc	-0.41114032
42	0x3d47721e	0.048692815
43	0x3e914502	0.2837296
44	0xbf3a1b3a	-0.72697794
45	0xbfb9372e	-1.4469965
46	0x3f67604a	0.903813
47	0x3f810743	1.0080341
48	0xbdf9d914	-0.121996075
49	0xbff299e7	-1.8953217
50	0xbea4e60b	-0.3220676
51	0x3f140078	0.57813215
52	0x3f8dad32	1.106848
53	0xbd689700	-0.05678463
54	0xbf56b9f6	-0.83877504
55	0x3f4b7df2	0.7948905
56	0x3f0490b2	0.5178329
57	0xbf9f2a3c	-1.2434764
58	0xbfa90534	-1.3204713
59	0x3ebb62d3	0.36598834
60	0xbe7fb78b	-0.2497236
61	0x3f5b9676	0.8577646
62	0x3f114a88	0.5675435
63	0x3f721073	0.9455635
64	0x3e6a3abb	0.22873966
65	0xbcb2e6c9	-0.021838563
66	0x3e57d973	0.21079044
67	0x3fc31648	1.5241175
68	0x3fcacafd	1.5843197
69	0x3eb8cc8c	0.36093557
70	0xbdafc60e	-0.08582698
71	0xbe1071b6	-0.14105877
72	0x3f432fa1	0.7624455
73	0xbea2b53d	-0.317789
74	0xbf1344ae	-0.5752667
75	0xbf86cdbd	-1.0531536
76	0xbeccb9e0	-0.3998556
77	0xbcc2eecd	-0.02379551
78	0x4019215a	2.3926606
79	0xbfcdc5a4	-1.607594
80	0xbda353b7	-0.07974952
81	0x3e91fa18	0.2851112
82	0xbfc254d5	-1.5182139
83	0x3d87ac93	0.06624713
84	0x3e86c4e1	0.26322082
85	0x3f0703d3	0.5274021
86	0xbdb4e5df	-0.08832907
87	0x3efdfaa8	0.49605298
88	0xbf7ea027	-0.99463123
89	0xbeffe83a	-0.49981862
90	0xbf1ecc4b	-0.62030476
91	0xbe409904	-0.18808371
92	0xbf0d70ff	-0.55250543
93	0xbe96f9f3	-0.2948757
94	0x3eac2451	0.33621457
95	0xbf8321f7	-1.024474
96	0xbe9ea3ec	-0.30984437
97	0xbe94be46	-0.29051417
98	0xbdb21bb3	-0.086966895
99	0x3e5da53b	0.21645062
100	0xbfa18d13	-1.2621177
101	0x3faf83b0	1.3712063
102	0xbf4ce3c3	-0.80035037
103	0xbded19f2	-0.11577214
104	0xbfa674bf	-1.3004378
105	0x3e1ca2a3	0.15296416
106	0xbe0e4185	-0.13892181
107	0x3eeadfde	0.45873922
108	0xbf05aab1	-0.5221358
109	0xbf76850e	-0.96296775
110	0x3fa32012	1.2744162
111	0xbf469cd4	-0.7758305
112	0xbfa86396	-1.3155391
113	0x3e9357d7	0.28777954
114	0xbf0aa0ee	-0.5415181
115	0x3fe1a0ab	1.7627157
116	0x3fdfdf58	1.7490034
117	0xc0479a90	-3.1188087
118	0xbfd8ec3d	-1.6947094
119	0xbeff8459	-0.4990566
120	0x3fb1b34b	1.3882841
121	0xbf9709d6	-1.1799877
122	0x3e0c6354	0.13709766
123	0xbfc7617e	-1.5576627
124	0x3dd10589	0.10206134
125	0xbf82ad27	-1.0209092
126	0x3f4f9ec9	0.8110166
127	0xbef1c6a2	-0.47221857
128	0x3fe1caca	1.7640011
129	0xbc197891	-0.009367124
130	0xbe85b910	-0.26117754
131	0xbf64c991	-0.89370066
132	0x3f5c5bf7	0.8607783
133	0xbe9a4eeb	-0.30138335
134	0xbe95b966	-0.2924301
135	0x3f8e686a	1.1125615
136	0xbe19a1ce	-0.1500313
137	0x3e774c8b	0.24150293
138	0xbfb8a0e3	-1.4424099
139	0x3f42b5cf	0.7605867
140	0xbea6afbb	-0.32555947
141	0xbeb3f837	-0.3515031
142	0x3fa713d5	1.3052927
143	0x3ee8fcff	0.4550552
144	0x3f918887	1.136979
145	0x3f4a5198	0.7903075
146	0xbe94f250	-0.2909112
147	0x3fb8a50c	1.4425368
148	0x3f733bb4	0.95012975
149	0xbf8e024b	-1.109445
150	0x3db50756	0.0883929
151	0x3e0962d3	0.13416605
152	0x3f75f651	0.96078974
153	0x3d1cd875	0.038292367
154	0xbf141766	-0.57848203
155	0x3f2e2c33	0.6803619
156	0x3e7086cd	0.23488922
157	0xbf62f4fb	-0.8865506
158	0x3e93743b	0.28799614
159	0x3fb7d940	1.4363174
160	0xbf6cb876	-0.92468965
161	0xbdd1eac4	-0.10249856
162	0x3febbe6f	1.8417491
163	0x3f2ac6f2	0.66709816
164	0xbf974b17	-1.1819791
165	0x3fec62ef	1.8467692
166	0x3fa7e287	1.3116006
167	0x3faad549	1.334634
168	0xbf09b0f1	-0.53785616
169	0xbfeac206	-1.8340461
170	0x3fefde1f	1.8739661
171	0xbefcecad	-0.4939932
172	0xbf028f7c	-0.5100019
173	0x3f4cdbb1	0.8002272
174	0x3fc15507	1.5104073
175	0xbd38bc5c	-0.04510151
176	0xbf00f1ad	-0.5036877
177	0x3e67ad12	0.22624615
178	0x3dc525a8	0.09626323
179	0x4029d589	2.6536582
180	0x3f0602b1	0.52347857
181	0xbf4756a5	-0.77866584
182	0x3f74e5fb	0.9566342
183	0x403554c4	2.8332987
184	0xbea57f64	-0.32323754
185	0xbf39804b	-0.72461385
186	0x3e7f6f66	0.24944839
187	0xbe28527d	-0.16437717
188	0x3f5ac9bd	0.8546408
189	0x3fa4e549	1.2882472
190	0x3f17233f	0.59038156
191	0x3f69c8f5	0.9132226
192	0xbe92134d	-0.2853035
193	0x3ee19c38	0.44064498
194	0x3f61d744	0.88219094
195	0x3f9c95d8	1.2233229
196	0x40175e13	2.3651168
197	0xbf3510d2	-0.7072879
198	0x3f9bb86e	1.2165658
199	0xbeda2966	-0.4260971
200	0xbfc90f9e	-1.5707891
201	0x3e15478f	0.14578079
202	0xbf66e0ca	-0.9018675
203	0x400df7bf	2.2182462
204	0xbf73b18d	-0.95192796
205	0xbe80608d	-0.25073662
206	0x40283c07	2.6286638
207	0x3dbe3f56	0.09289424
208	0xbe8fcdb5	-0.2808663
209	0x3f053488	0.5203328
210	0xbfef1920	-1.8679543
211	0xbfe6f92f	-1.8044795
212	0x3e9e1ccd	0.30881348
213	0x3e93dc8c	0.288792
214	0xbe44cf0a	-0.19219604
215	0x3fe5545b	1.7916368
216	0xbec12f72	-0.3773151
217	0xbe05eaea	-0.13077894
218	0xbfd2d976	-1.6472614
219	0xc045a6fe	-3.0883174
220	0x3ea76cf9	0.32700327
221	0x3f57781a	0.84167635
222	0x3faa0c14	1.3284936
223	0xbf409d59	-0.75240093
224	0x3fa45aac	1.2840171
225	0xbf20012e	-0.625018
226	0x3df458ef	0.11931025
227	0x3f6010c5	0.8752559
228	0xbf41bb1e	-0.75676143
229	0x400585fd	2.086303
230	0x3e232bdc	0.159347
231	0xbd2018ab	-0.039086025
232	0xbfc17579	-1.5113975
233	0x3f3a11fe	0.72683704
234	0x3e478127	0.19482861
235	0x3df2fec3	0.11864998
236	0x3f56a77a	0.838493
237	0xbf881994	-1.0632806
238	0xbf361cca	-0.7113768
239	0x3f761856	0.96130884
240	0xbea5d435	-0.32388464
241	0x3e9cc8c3	0.3062192
242	0x3ea03d89	0.31296948
243	0x3f723c6d	0.9462345
244	0x3eef0d96	0.46690053
245	0xbf98a583	-1.192551
246	0xbd908210	-0.070560575
247	0xbf36a9c4	-0.7135279
248	0x3f432ad9	0.76237255
249	0x3e9e8843	0.30963334
250	0x3f062846	0.524052
251	0x3f2d5bac	0.67718005
252	0xbe0e7a42	-0.13913825
253	0xbf5fbb4b	-0.8739516
254	0x4024e88f	2.5766943
255	0x3f51e584	0.8199084

critic.2.bias f4 [128]
0	0xbd5ddda4	-0.05416645
1	0xbe87838e	-0.26467556
2	0x3edb5d8c	0.42844808
3	0x3d38b15a	0.04509101
4	0xbe95b406	-0.2923891
5	0x3eecbc5d	0.4623746
6	0xbee96ce2	-0.45590883
7	0x3f2820ea	0.6567522
8	0xbf16c6ac	-0.588969
9	0xbe5dac01	-0.21647646
10	0xbd821763	-0.06352117
11	0x3f0e5718	0.55601645
12	0x3f78f0e9	0.972426
13	0x3ea5a614	0.3235327
14	0x3ee18ff0	0.44055128
15	0x3f67b45c	0.9050958
16	0x3cf5b177	0.029991848
17	0xbe0fd266	-0.14045104
18	0xbf142c2f	-0.5787992
19	0xbf0c0d68	-0.54707956
20	0x3ed7b2e9	0.42128685
21	0x3f50bc76	0.8153757
22	0xbe7c1f4f	-0.24621318
23	0xbc1bbd44	-0.009505574
24	0x3e494d21	0.19658329
25	0xbe228c92	-0.15873936
26	0x3eb63f96	0.35595387
27	0xbeae587a	-0.34051877
28	0x3f246739	0.64220005
29	0xbeffee50	-0.49986506
30	0xbf3b2475	-0.73102504
31	0xbe51eac4	-0.20499712
32	0x3e984165	0.29737392
33	0xbf0e441c	-0.55572677
34	0x3f816346	1.0108421
35	0xbf5dc9fb	-0.8663632
36	0xbe3c2ac8	-0.18375695
37	0x3e9c7602	0.30558783
38	0xbf78552d	-0.9700497
39	0x3e80703d	0.2508563
40	0x3ed70833	0.41998443
41	0xbe53da2f	-0.20688699
42	0x3f4c1027	0.79712147
43	0x3f324a47	0.6964459
44	0xbe5745fe	-0.21022794
45	0xbd0357df	-0.032066222
46	0xbecca502	-0.3996964
47	0x3e93a6ee	0.28838295
48	0x3f1fcd2f	0.6242246
49	0xbd6b7796	-0.057487093
50	0xbf1ec611	-0.62020975
51	0x3dc82903	0.09773447
52	0xbf215919	-0.6302658
53	0xbeec500c	-0.4615482
54	0x3ebdf5fa	0.37101728
55	0xbf31da88	-0.6947408
56	0x3f154041	0.5830117
57	0xbe49d123	-0.19708686
58	0x3ee8b2ee	0.45449013
59	0xbd915d9c	-0.07097933
60	0xbcf06530	-0.029345125
61	0x3e4c1811	0.19931056
62	0xbd25d327	-0.040484574
63	0x3d6726f1	0.05643362
64	0x3e025e45	0.12731273
65	0x3ed58528	0.41703153
66	0x3eaa7afa	0.3329695
67	0x3e2e95d4	0.17049342
68	0xbec12174	-0.37720835
69	0xbec72303	-0.388939
70	0x3f24849e	0.6426486
71	0xbee66e2c	-0.4500593
72	0x3f074f8b	0.5285575
73	0xbf166c46	-0.5875896
74	0x3f010f92	0.50414383
75	0x3ea10276	0.3144719
76	0xbf5753d8	-0.8411231
77	0xbe849b29	-0.25899628
78	0xbe3b7df1	-0.18309762
79	0x3f335b09	0.70060784
80	0x3eb0b610	0.34513903
81	0xbe99b8d4	-0.30023825
82	0xbf582260	-0.8442745
83	0x3e98a5d1	0.29814008
84	0x3e9dfb05	0.30855575
85	0xbdcf867d	-0.101330735
86	0xbe4125e7	-0.18862115
87	0x3e4e20cf	0.20129703
88	0x3e2d1139	0.16901101
89	0x3eab402f	0.33447406
90	0xbe6789cf	-0.22611164
91	0x3dbbf198	0.0917694
92	0xbefde203	-0.49586496
93	0x3d9917b9	0.07475228
94	0x3d5095e0	0.050924182
95	0x3e25fbc9	0.1620933
96	0x3e330beb	0.17485015
97	0xbec65bd2	-0.38741928
98	0xbd5c5355	-0.05379041
99	0xbe8de906	-0.27716845
100	0x3d848024	0.064697534
101	0x3e602a83	0.21891217
102	0xbf19c23d	-0.6006201
103	0xbe88a09a	-0.2668503
104	0xbe85068a	-0.2598155
105	0x3ecddb9a	0.40206605
106	0xbc17c7cb	-0.009263943
107	0x3f20b195	0.6277097
108	0xbec68332	-0.3877197
109	0x3db2ce07	0.08730703
110	0xbec75d74	-0.38938487
111	0xbefe36fd	-0.49651328
112	0xbf0f1ede	-0.55906475
113	0x3e28455e	0.16432711
114	0xbf120f96	-0.5705503
115	0x3f55b0a1	0.8347264
116	0xbe68132f	-0.22663568
117	0x3f18c62c	0.59677386
118	0xbf6c1fc9	-0.92236
119	0xbebfda75	-0.37471357
120	0x3e4fceda	0.20293751
121	0xbe1fe0d1	-0.15613104
122	0x3e4cc8dd	0.19998498
123	0xbeb77462	-0.3583098
124	0x3cc05a7d	0.023480648
125	0xbedd5c1c	-0.43234336
126	0x3e5481f7	0.20752703
127	0xbeddbefc	-0.43309772
