examples/drone/logs/fig-eight-5000-forgiving/model_600.pt (torch, 474922 bytes, 36 tensors)

std f4 [4]
00000000: f73a c83e f99f 913e 4a7f b23e 95b6 943e
0.39107487 0.28442362 0.3486274 0.2904555

actor.0.weight f4 [128, 17]
00000000: 9bd4 0abf 12e8 f73e b737 01bf 12a4 63be
00000010: 6406 23bf 7277 7f3f 8ea3 0c3f 1806 12bf
00000020: 2919 a5be b5f2 893f e928 83bf 34df 403f
00000030: 2d9e 643f 302b fd3c 63f6 14be 2085 0c3e
00000040: 78eb 7bbe 8c55 4f3e f924 40bd a1d7 c23f
00000050: dd22 7bbd 4cdb 5fbe 7658 99be 1b57 213e
00000060: 8ad5 7fbc 9bf0 03bc 66e2 0d3d 6e52 0c3d
00000070: cb5b f63b 8495 193d ac1c 42be 50c2 153e
00000080: d06e f83d 14aa a0bc 1dbd e03d ec88 8ebe
00000090: b857 10bf 48b6 c0be 7318 fcbe 600b 27bf
000000a0: c90f a9bc 95b7 36be 324d 5b3d a936 b83d
000000b0: 8aa2 e93c ba01 ac3d 8f28 ef3c ca0d ad3e
000000c0: 708e 90bd 3aa1 613e 34c1 1f3e 430b 223e
000000d0: a045 96be 291e 53c0 a221 e23e f700 74bf
000000e0: 9cae 12be 88cf 1cbf ea7c b6bd 7a9d 883d
000000f0: 86a0 17be 35db 71bd 12c0 4abd 3176 57be
00000100: 2713 40be 534e bbbd f7ce d6bd 884b c2bd
00000110: 4362 eb3e fc8a 593a 27fe 1140 f43a d6bd
00000120: 4117 c33e 3485 adbf f4c7 3cbf 3897 823e
00000130: ca4b 02be 8b53 f53e 1ffb 42be bd37 1fbe
00000140: 63b2 11be 670e c3bd 4274 a6bd 50e1 cb3e
00000150: 3b46 4f3e 5505 35bd ff99 cdbd 75d0 1ac0
00000160: bad1 423e d66d a5bf a580 0abf babc 873f
00000170: 9bb3 bd3e 82a7 af3e 65d2 6d3f 7a22 37bf
00000180: 9114 483e b589 6c3f 2e2f c73d a14c a33e
00000190: e4f7 2c3e 6ab7 84ba 6c60 76be aba5 98be
000001a0: 6939 4d40 d748 77be 67f4 d6be b71a 883e
000001b0: 83bc 2dbf 6d2b 353d 4c1b d5bd 75f3 383e
000001c0: a86b 43bd 6db5 07be 6a27 0fbd 7326 243e
000001d0: 8d54 703e ceea 06bc e70e b43d 6417 00c0
000001e0: cac1 b83f 4db9 f5bf 552e ee3d 4e82 773f
000001f0: 75ec 2bbe 2bf2 d93d 4ba0 233f 1b0f 60be
00000200: 7b11 ef3e fb7d 3dbe b07f 4c3c 0815 293e
00000210: 5e22 e83c eff6 07bd 19e9 2b3e 4738 b43d
00000220: 712d 05bf ee1d 90bf bed2 41c0 dc57 cd3e
00000230: ab80 f23f 6cce f43f 7ace 3a3f 251c 8c3f
00000240: 84b7 0cbf bf05 03bf 8286 3f3e 2b20 aabd
00000250: ea58 32bd c65e bb3d 5c5d 333e 9347 76bd
00000260: e8d9 da3e c9f2 68be 00d7 663f 59d1 b53f
00000270: 3520 c13d 9bfa ae3f 1ff0 933f e7f9 8bbe
00000280: 2f88 453d edcc 9fbe 34cd cebd ec0e 4c3e
00000290: c061 123e 0a75 3abe dd9e d7bd 29db 443d
000002a0: 6903 7d3e 55b8 d5bd f685 db3d ab81 6b3d
000002b0: d46c 1140 1845 3f3d 309b 993f 5268 8bbf
000002c0: 6b78 b9be f5bb 6a3e 9798 6c3d dd26 273e
000002d0: 0815 e03e 390c 2fbe c0e4 2f3e 92bd bf3d
000002e0: ce7f bcbc 6f08 68bd 941f b63d 8b0e 0b3f
000002f0: efeb f8bd dc13 123f 73ce 1bbd b25f c6be
00000300: f2ba 2ebf fdc5 2cbf 33b0 c83a 070d c0bb
00000310: f51e 833d 0ea0 64be 24d9 f8bd 5f4b 913d
00000320: 46f7 a1bc cb36 543e c0d4 2abe 55b8 babd
00000330: 39a8 4fbd 992c 943f b399 17c0 ab31 873d
00000340: 3754 0540 ead3 6bbf 82c6 083e 5723 2b3e
00000350: 3046 98bd 76b0 be3d 2721 11be e5fb 6abe
00000360: 487a 22be 3a9d e8bd f319 97bd f657 d93c
00000370: 64c2 2ebd a75a 9b3e ca97 103f 7401 bbbf
00000380: e233 87bd 7a15 e13f e7d8 cbbe 1e08 1d3f
00000390: dff2 80be 0f31 463d a444 1e3e 4238 cb3e
000003a0: 1f22 96be 31cc 2bbf d9fe ffbc 4dfd 84bd
000003b0: a2de d7bd ba5b 7bbe 8f5a 6a3f 0e47 32bd
000003c0: 5b9f 0540 1592 0bbe 4758 27bf 32b2 c9bf
000003d0: e4cc 333f 5de8 91be 7b92 343e fb21 313e
000003e0: 0f52 32bd 7715 f0bd 8f65 c1bc 1ceb 283d
000003f0: a164 34bd a49a aabd 34d7 9a3d a781 be3e
-0.5423066 0.48419243 -0.5047564 -0.22230557 -0.63681626 0.99791634 0.54937065 -0.5704055
-0.32245758 1.0777193 -1.024686 0.7534058 0.8930386 0.030904382 -0.14547114 0.13722658
-0.24601543 0.20247477 -0.04691026 1.5222055 -0.061312545 -0.21860999 -0.29950303 0.15755884
-0.0156148765 -0.00805297 0.03463974 0.0342583 0.007518267 0.037496105 -0.1895625 0.14624906
0.12130511 -0.01961235 0.109735705 -0.27838838 -0.5638385 -0.3763907 -0.49237403 -0.6525173
-0.02063741 -0.17843468 0.053540416 0.089948006 0.028519887 0.08398767 0.029194145 0.33799583
-0.07058418 0.2203416 0.15601045 0.15824609 -0.29349995 -3.2987158 0.44166285 -0.9531397
-0.1432442 -0.6125417 -0.08910544 0.06670661 -0.14807329 -0.059046943 -0.04949958 -0.2104118
-0.18757306 -0.091457985 -0.10488694 -0.09487063 0.45973405 0.00082986034 2.2811372 -0.10460463
0.3810368 -1.3556275 -0.73742604 0.25505996 -0.12724224 0.479153 -0.19041108 -0.15548606
-0.14228205 -0.095242314 -0.08127643 0.39820337 0.20241635 -0.04419454 -0.10039138 -2.4189732
0.19025317 -1.2924144 -0.54102546 1.060447 0.3705109 0.34307486 0.9289916 -0.7153698
0.19539095 0.92397624 0.09725796 0.318944 0.16891438 -0.0010125462 -0.2406022 -0.29813895
3.206629 -0.2414888 -0.4198334 0.26582882 -0.6786577 0.044230867 -0.10405597 0.18061621
-0.04771009 -0.13252802 -0.034949698 0.16030292 0.23469754 -0.008234693 0.08791905 -2.0014277
1.443414 -1.9197174 0.11629931 0.96683204 -0.1678942 0.10641893 0.6391646 -0.21880762
0.46693024 -0.18505089 0.012481615 0.16511929 0.0283367 -0.03319448 0.16788138 0.087997966
-0.52022463 -1.1259134 -3.0284877 0.40106094 1.8945516 1.9125495 0.7297131 1.0946089
-0.5496752 -0.5118064 0.18703654 -0.08306917 -0.043541826 0.09148936 0.17516083 -0.060126852
0.42744374 -0.22748865 0.90171814 1.4204513 0.09429971 1.3670229 1.1557654 -0.27339098
0.048225578 -0.31211033 -0.10097733 0.19927567 0.14295101 -0.1820871 -0.10528348 0.04806057
0.24708332 -0.10435549 0.107189104 0.057496708 2.2722673 0.046696752 1.2000484 -1.0891211
-0.36224684 0.22923262 0.05776271 0.16323419 0.43766046 -0.17094506 0.17177105 0.093623295
-0.02301016 -0.056648668 0.08892742 0.54319066 -0.12154376 0.57061553 -0.038038682 -0.38744885
-0.68254006 -0.67489606 0.00153113 -0.005860928 0.06402389 -0.22326681 -0.12150791 0.07094454
-0.01977123 0.20724027 -0.1668272 -0.0911719 -0.05069754 1.157611 -2.368756 0.0660127
2.083265 -0.9212023 0.13356975 0.167127 -0.07435262 0.09311001 -0.14172803 -0.22947653
-0.15866959 -0.113581136 -0.07377996 0.0265312 -0.042665854 0.303426 0.5648161 -1.4609818
-0.06601693 1.7584679 -0.3981392 0.6134051 -0.25185296 0.04838663 0.15455872 0.3969136
-0.29322907 -0.67108446 -0.03124945 -0.06493626 -0.10540511 -0.2454671 0.9154443 -0.043524794
2.0878513 -0.13629945 -0.65369076 -1.5757506 0.70234513 -0.28497592 0.17634003 0.17298119
-0.04353529 -0.11722844 -0.023607997 0.041239843 -0.04404128 -0.083302766 0.07560578 0.37208292

actor.0.bias f4 [128]
00000000: 4cae 82be 2a0b 943d c307 6ebe 67de 21be
00000010: b960 42bd b7cf 1e3e 67c5 a23d 0263 e03c
00000020: ace8 923e a248 96bd 3c1c bf3c fd78 fe3d
00000030: 95ea b1bd 9c98 023e fa08 973d 391a 40be
00000040: a114 8b3e 1f12 963c e87e 533e 21c3 173e
00000050: 235c 763d db17 de3e 9be8 d7bd 58ef f3bd
00000060: 6d16 2fbe fb30 adbc 0794 7f3e b1c2 4d3e
00000070: b807 98bd ccdf d2be 86a1 b1bd 0e2b 2b3d
00000080: e079 883e f9e0 443e 8406 7e3d 0b96 923b
00000090: fc34 04be e094 c7bd 8eac 35be 1650 033e
000000a0: ff5d d63c 2fb8 9c3e b9b4 e93d 8223 893d
000000b0: 2a85 21be 8ff6 c5bd 4a0a 243e f23c 81be
000000c0: 3ede a7be 9365 1dbd 55ee cd3d bc6a 8b3c
000000d0: 87a6 dc3d d0d8 533c 7a26 debc 7fce 833e
000000e0: c7e7 9d3d 42c4 f43c cc1e 293e b97f 22be
000000f0: 1c99 edbd e6ff 0f3e 831b 0cbe f774 b8be
00000100: 0131 e63d a693 03bd 0072 4fbd a96a 853c
00000110: 3511 513e 84d3 d4be e019 733e ad53 94be
00000120: 78ce f3bd bee9 5fbd 4aad 89bd db4a 283e
00000130: 5bba 7abe b585 d53e 7d00 c9be 5027 19be
00000140: 144d c53d 3548 b83d 4de2 e73c d546 98be
00000150: 9879 71bb 46a6 b43d c373 d0bd d313 893e
00000160: 376c efbd 52b5 173e b51e 163e a9b8 acbd
00000170: a968 1bbe 8d62 853c ad04 a63e 8aff 783e
00000180: 5a81 83be 0ad0 07be 62cf 4ebe 121e 493e
00000190: 51b8 1c3e 088a aa3c ca77 1fbb 4647 803d
000001a0: 8be1 0a3e 2832 32be 1f6b f43c bae6 81bd
000001b0: 7194 74bc 7519 363d 5497 c53d c925 313e
000001c0: 1d1c 6bbe f435 efbd 2dba 0dbe 3337 9e3e
000001d0: 3196 753e 5a63 46be 1cbe 78bc 4ea9 d036
000001e0: e1b6 713e f261 7abe b7ff 803d 11a9 09be
000001f0: 0ced e3bb c86e 1cbe 36b4 bebd b48d 8bbd
-0.25523603 0.07228692 -0.23245148 -0.15807496 -0.047455523 0.15508924 0.07947808 0.02739096
0.2869314 -0.07338072 0.023328893 0.124254204 -0.08687321 0.12753528 0.07374759 -0.18760003
0.27164176 0.018319188 0.2065388 0.1482053 0.060146462 0.43377575 -0.10542413 -0.119108856
-0.17098399 -0.02114152 0.24958812 0.200938 -0.07423347 -0.41186368 -0.08673386 0.041789107
0.26655483 0.19226445 0.062017933 0.004473453 -0.12910837 -0.097451925 -0.17741606 0.12823519
0.026167868 0.3060927 0.11411423 0.06696226 -0.15773454 -0.09666168 0.1601955 -0.2524181
-0.32786745 -0.038426947 0.10055224 0.017018668 0.1077395 0.01293011 -0.027117956 0.25743482
0.07710224 0.02987874 0.16515654 -0.15869035 -0.11601469 0.14062461 -0.1368237 -0.36026737
0.112398155 -0.03212323 -0.05064583 0.016286211 0.2041672 -0.41567624 0.2374034 -0.2897009
-0.11904615 -0.054666273 -0.067225054 0.16434805 -0.24485151 0.41703573 -0.39258185 -0.14956403
0.09633842 0.089981474 0.02830615 -0.2974154 -0.0036846157 0.08820777 -0.1017833 0.26772937
-0.11690562 0.14815262 0.14660151 -0.08433659 -0.15176643 0.016282344 0.32425442 0.2431623
-0.25684625 -0.13262954 -0.20196298 0.19640377 0.15304686 0.020817772 -0.0024332874 0.06263594
0.135626 -0.17401946 0.029836236 -0.06342836 -0.014927969 0.04445787 0.09648004 0.1729957
-0.22959943 -0.116802126 -0.13840552 0.3090149 0.23983075 -0.19373837 -0.015182044 6.2185927e-06
0.23604919 -0.24451426 0.06298774 -0.134434 -0.0069557484 -0.15276635 -0.09311716 -0.06814137

actor.2.weight f4 [128, 128]
00000000: 2351 193e 9947 0dbe 006f 62bb e722 43bd
00000010: 97c2 b23b 364f 66bd 9a96 893d 49d5 9b3d
00000020: 49d8 a4bd e7aa e1bd d1d9 0e3c 7cc8 febc
00000030: e3f4 1dbd f441 7dbd cd55 a1bd 6ee0 b3bc
00000040: 3ce6 0fbd b0c4 a13c a0b4 a23d f80a 74bd
00000050: 4d0d 4bbc ba8e a1bd fb5f 433b d28b c33c
00000060: fe5c 1b3c e26a 3b3b e9df 923c e119 37bd
00000070: e0f3 babd c55d 80bb a626 353d 669d d9bc
00000080: bf22 473d 9e82 77bd b752 2f3d 5807 653d
00000090: 23df f8bb 96c4 523d 8a65 a53b c6d2 79bd
000000a0: 09eb a5bd bbe4 87bd 5663 f8bd 5b97 6f3d
000000b0: bf7a a4bd a08b 0c3d 1710 2abc ad65 d5bd
000000c0: 3a00 543e 5eca e13d 8702 083c 2ddc 8c3d
000000d0: 64f4 adbd a0bc 673d 8b39 bebd 7031 b13d
000000e0: 4cb0 a03d d1d2 1bbe 3f36 d23d 4af4 c33d
000000f0: d44d d03c 0ad9 32bd ee42 943d 6e75 d0bc
00000100: 755c 0ebd b3b7 b7bc 75fe b9bc 73cf 03bd
00000110: 9519 79bc 453c a0bc 0a9d 19bd 0fb1 c9bc
00000120: 794e a93d c41d 503c e923 773d 3579 63bd
00000130: edb3 bc3d bf50 383d f299 5abd a5e2 bf3b
00000140: 15b5 5cbd b7c8 c9bd 4ddb 41bd 55f4 823d
00000150: 0abe b4bd a46c b73c 8627 12be 7672 d03d
00000160: d418 5b3d 1221 613d 5ea6 80bc cf3c 27bd
00000170: d554 ba3c 8264 2fbc edde 50bd 84ff 25bb
00000180: bb21 bb3d 9aa2 04bd b239 10be 7872 1c3d
00000190: 36d9 0fbe d04d 38bd fe72 193c 109d 843d
000001a0: 8e82 e83c c05e 5fbc 8029 80bc 2248 b2bd
000001b0: 2386 f3bd 8870 13bc e8e9 20bd 823b ba3d
000001c0: 0d49 d0bd 28df 5d3d 28a9 28be 0dd1 823d
000001d0: e5a0 653d d29c 46bd cfd2 36bd 92ba b63d
000001e0: d11e 82bd e2c8 81bd 45b8 0abd 48ff bcbd
000001f0: 550e f73d 5e63 03be 55ed 70bb 6aa4 04be
00000200: c782 323d 5f83 c9bd 56f1 033d c266 d93d
00000210: 7ae9 d03c 4685 a33a 7d42 1ebd af89 b03d
00000220: 5218 8e3d 625d 353d 8c57 04be 6ae0 dbbd
00000230: 08a1 9c3d 6c0f e63c 6834 0d3e 94b3 efba
00000240: d47b aebc 75d9 553b 4bba 6bbd 8929 813d
00000250: 494c 6a3d a415 05bd 5dbf 0a3d 4c84 4f3c
00000260: ee87 99bd 31df c9bc 8372 bd3d f234 7c3d
00000270: e063 83bd ad0e 2dbd b89d f8bd e2e2 17bc
00000280: 72ac 0c3d 05a5 173d 3d21 9dbc ead0 5d3d
00000290: ef61 f8bc b4f6 21be f1d4 abbd 5f41 e63d
000002a0: 902b abbd 9f0b 253e 72b9 9d3d 814a 303d
000002b0: fd3e c7bd 36a4 e13b 7b3c 943d 2932 2e3d
000002c0: 26f9 5c3e 320d 4ebd 8876 f6bd 904d b53d
000002d0: 67a1 f7bd a47e 7d3c 7905 c3bc 4379 633e
000002e0: 8f0a dbbd 144b 2bbc c1e4 a3bd 89b8 013d
000002f0: 8add f3bc bb42 82bd 20ce 02bd 0de8 c63c
00000300: 4e81 133d 2696 9abd 2fef 813d fc5e e43d
00000310: 7ee7 ad3c cd89 fc3d 3b2d d93d 60c4 af3c
00000320: 368c 42bd 220d b63d b9b1 6bbd 4dba 8a3d
00000330: 9de2 843d 903a 93ba 22de b4bd e3d8 a13d
00000340: cce1 f53d 8684 94bd 2d1d 44bc ef31 5dbb
00000350: 29f3 4c3d b690 cb3d 206a 48be 68e0 45bc
00000360: e629 4ebd 98da 90bd 379b 63bb b7f5 723d
00000370: e328 ab3d 348d 9cbc 38d5 c0bd 9ecb 0cbc
00000380: 1054 e03d eb28 253d e1cd 923c 29f9 ed3d
00000390: 7cca 4a3d 5cf5 cbbd 8a89 12be d4ba 4fbe
000003a0: cd99 343d 8bcb 7f3d f89b 3a3d 8ad9 cd3d
000003b0: 148f 9bbd 4431 eabb 5631 113d 5d20 0d3d
000003c0: 877d f1bc 8c73 a0bd 5b7d 573d c5ee bb3d
000003d0: 4209 41bd 65e0 933d 8359 dfbd b4f9 0c3d
000003e0: 959d a73d f9fc 0b3c 1ce1 223c 0424 dc3c
000003f0: 0df7 e73d a126 2d3c 6ec2 853a f528 bfbc
0.14972357 -0.13796844 -0.0034551024 -0.047640707 0.005455326 -0.056227885 0.06718178 0.0760904
-0.080490656 -0.11018925 0.008718924 -0.031101458 -0.03856362 -0.061830476 -0.07877693 -0.021957602
-0.035131678 0.019747108 0.07944608 -0.059580773 -0.012393308 -0.07888551 0.0029811847 0.023870382
0.00948262 0.0028597643 0.017929034 -0.044702414 -0.09128547 -0.003917428 0.04422631 -0.026564311
0.04861712 -0.0604273 0.042803492 0.055915207 -0.0075949593 0.05145701 0.005047505 -0.060992025
-0.0810147 -0.06635424 -0.12128322 0.058493953 -0.080312245 0.034312844 -0.010379813 -0.10419784
0.20703211 0.110249266 0.008301384 0.06877933 -0.084938794 0.05657637 -0.09288319 0.086520076
0.07846126 -0.15217139 0.10264253 0.09568079 0.025427736 -0.043664016 0.07239328 -0.02544662
-0.034756143 -0.022426462 -0.022704342 -0.03218026 -0.015203853 -0.019559989 -0.03750328 -0.02462056
0.082669206 0.012702409 0.06033698 -0.055535514 0.092140056 0.04499888 -0.05336947 0.0058558756
-0.05388363 -0.098527364 -0.047328282 0.06394259 -0.088253096 0.022390671 -0.1427289 0.10178082
0.053490475 0.05496318 -0.01570433 -0.040829476 0.02274553 -0.010705115 -0.05099385 -0.00253293
0.09137293 -0.03238163 -0.14084509 0.038195103 -0.14047703 -0.044996083 0.009365795 0.0647527
0.028382566 -0.01363343 -0.015644789 -0.087051645 -0.11890819 -0.0089989975 -0.03928557 0.090933815
-0.10170183 0.054167897 -0.16470778 0.063875295 0.056061644 -0.0484894 -0.044634636 0.08922304
-0.06353534 -0.063371435 -0.03386714 -0.092283785 0.120632805 -0.12830874 -0.0036762555 -0.12953344
0.04358175 -0.0983951 0.032212578 0.106153026 0.025501955 0.0012475632 -0.038637627 0.08620011
0.069382325 0.04427851 -0.12924021 -0.10736163 0.07647902 0.028083526 0.13789523 -0.0018287771
-0.02129928 0.0032630835 -0.05755071 0.0630675 0.057201657 -0.03249134 0.033873904 0.012665819
-0.0749663 -0.024642559 0.09250357 0.06157393 -0.06415534 -0.042250324 -0.121394575 -0.009270402
0.034344144 0.03702261 -0.019180888 0.054154314 -0.030320136 -0.15816766 -0.08390225 0.11242937
-0.08357918 0.16117714 0.077013865 0.043039802 -0.09728811 0.0068860305 0.07238098 0.042528305
0.21579418 -0.050305553 -0.12034327 0.088526845 -0.12091332 0.015472088 -0.02380632 0.22214226
-0.10695373 -0.010454912 -0.08002616 0.031670127 -0.029768724 -0.06360384 -0.031934857 0.024280572
0.036011986 -0.0754817 0.06344449 0.11150929 0.021228548 0.12330971 0.1060433 0.021455944
-0.047496997 0.08889224 -0.057542536 0.06773815 0.064885356 -0.0011232663 -0.08831431 0.07902696
0.12005958 -0.07251839 -0.011969847 -0.0033751687 0.050036583 0.09939711 -0.19571733 -0.012077428
-0.050332926 -0.070729434 -0.0034729966 0.059316363 0.08357408 -0.0191103 -0.09415668 -0.008593468
0.10953534 0.040322226 0.017920436 0.11619789 0.04950951 -0.09958908 -0.1431028 -0.20286113
0.04409199 0.062449973 0.0455589 0.10051258 -0.07595649 -0.007146986 0.03544744 0.034454692
-0.029478801 -0.07834539 0.052609783 0.09176401 -0.04712797 0.07220534 -0.10905745 0.034417823
0.08184353 0.0085442 0.009941366 0.026872642 0.11326418 0.010568292 0.0010205039 -0.02333496

actor.2.bias f4 [128]
00000000: 0487 a23d 8529 023e 62d0 653d 7ffc 7c3d
00000010: 5a68 903d f454 8f3b 872f 083e 9a87 92bd
00000020: 9fc5 94bd bcdd 2e3d b358 cbbc 690f e6bd
00000030: 21ac 993c 86cd debc 7a38 20bc 5f96 9e3d
00000040: e998 033e a55b c0bd 6dba 993c 8205 123e
00000050: 4a5b 25be 651d 12bf 894a 3bbb 29bd b2bd
00000060: 79b0 49bc daa9 9abc 083e c73d bb6d 2b3d
00000070: 3d49 9cbd 6258 3bbe 3845 90bd 40fc 353f
00000080: 449a 9d3c c398 d03d d58f 85bd 7f2f c03c
00000090: 946e 693d 4ab8 18be 0a56 41be 2cf7 c4bd
000000a0: 8e1a 37be 06be 6abe 8f4e 08bd 6390 a93e
000000b0: c181 593e e995 e7bb c44c 85bd 4f5c 7b3d
000000c0: 80ed 593d bc6b f3bd a8df 4e3f c0b6 86be
000000d0: 6d0c 04bd f049 59bc 73a8 0abd d385 bcbc
000000e0: 2fc3 983c d09b f9bd 0b0d c93d d03d b43d
000000f0: f2fc 7ebe d27f a93d 8898 c4bd 1658 093d
00000100: fcaf e0bd 5cd0 1f3e 4d9d a3bd 97be dd3d
00000110: 1180 c4bb b4e1 e6bc ddc2 8b3d c462 f8bd
00000120: f5c0 03be 9822 f93d 8150 3bbe 6f4e 80bd
00000130: 4b79 a3be f791 0c3f cc8b a23e e78d 913e
00000140: f0ce a8bd 2da2 693d d097 973d 2e4b 1f3e
00000150: 97b0 8bbd be40 e9be 004e 6dbb 7b76 18be
00000160: f75a 903c 6d25 4ebe 09a9 fabd 83a2 9dbd
00000170: 995d 023e c386 8abd 0b02 7dbc 7558 adbd
00000180: 8027 c2be dc60 e23d e856 27be 579e 4b3d
00000190: 4a55 d93d a21d 913e 88b7 a83e 6dc4 143c
000001a0: 23aa 8cbd 934e 22bb 64f7 de3b 3eab 843e
000001b0: ea8b 433d 1832 4ebe 2064 21bc d441 17bc
000001c0: f240 003f 686f fcbe 9284 c3bd 5a16 c1be
000001d0: 4160 00be 7911 d2bc a57a a5be 46b3 133c
000001e0: 4f65 9ebd f098 b8bd 240a e0bd 4594 cbbd
000001f0: f536 b93e fc76 3fbe 23fd 303d e901 f4bc
0.079359084 0.12711151 0.056106932 0.061764237 0.070511535 0.004374141 0.1329938 -0.0715477
-0.07264256 0.04269193 -0.024822569 -0.11233408 0.018758835 -0.02719761 -0.00977909 0.07743525
0.128513 -0.0939248 0.018765653 0.14259914 -0.16148105 -0.570761 -0.0028578362 -0.08727486
-0.012310141 -0.01887982 0.097286284 0.041852694 -0.076311566 -0.18295434 -0.070444524 0.7108803
0.019238599 0.10185387 -0.065215744 0.023460148 0.05699022 -0.1491405 -0.18880478 -0.09617457
-0.17881224 -0.2292405 -0.033278044 0.3311797 0.21240903 -0.007067431 -0.065087825 0.06136733
0.053205013 -0.11885783 0.8081002 -0.26311302 -0.032238413 -0.013262257 -0.033852052 -0.023013031
0.018647758 -0.12187922 0.09816941 0.08800852 -0.24901178 0.08276333 -0.095994055 0.03353127
-0.10971066 0.15606827 -0.07988987 0.10827368 -0.005996712 -0.028183796 0.068242766 -0.12128213
-0.12866576 0.12164801 -0.18292429 -0.0626496 -0.31928477 0.54910225 0.31747282 0.28428575
-0.08242595 0.05703943 0.07402003 0.15556023 -0.06820791 -0.45557207 -0.0036209822 -0.14888947
0.0176215 -0.20131464 -0.12239272 -0.07697012 0.12731017 -0.06763985 -0.015442382 -0.084641375
-0.3792076 0.11053631 -0.16341746 0.04971155 0.10611971 0.2834292 0.32952523 0.009080035
-0.068683885 -0.0024766072 0.0068043936 0.25911897 0.047740854 -0.20136297 -0.009850532 -0.009232003
0.500991 -0.49303746 -0.0954677 -0.37712365 -0.12536718 -0.025643097 -0.32320133 0.00901491
-0.07734167 -0.090135455 -0.10939434 -0.099403895 0.3617474 -0.18697733 0.04321016 -0.029786067

actor.4.weight f4 [4, 128]
00000000: c9ed 1a3a 666b 81ba 7f3c b13b 4ea8 0c3b
00000010: 5435 51bb b949 a03b d646 7abc 98fa a839
00000020: 1d4a 853a cf9c 87bb 3f60 0dbe 1bb5 b73c
00000030: 1583 333a f621 0cbb 8984 44bd d3be bfb9
00000040: 89b0 e7bd 2ad0 d7ba ce36 5cbb ed77 033b
00000050: ae1e 8fbb 50f8 c73d a56d 26b9 b55b a4ba
00000060: 5014 17bb ca57 97ba 488d fd3a 01df 50bb
00000070: bb31 6abb 8af2 283e ed79 413b bd3e 523e
00000080: 0c25 333b f393 b4bb 2a7c 2c3b 83b5 c73a
00000090: 2651 043b 2ed8 353c d345 3f3d db9f 9fbc
000000a0: 2fe1 7c3d c07c 94be a26d cc3a f49a 093d
000000b0: ca75 333e 6e52 1abb af70 a23a 6c0b 933b
000000c0: c489 9dba 46cd 133a 36a3 083f c6af 433e
000000d0: 8076 b138 5036 b23a 7e8a 03bb 7a6a 9bba
000000e0: 604c 833d 8a52 523e bb67 ca3d 3a0f a5b8
000000f0: be15 323d 9f2b 083b b49f 2a3d 5c08 86bb
00000100: 714f 38bd 4574 d23b b56c bc3a cafc fbba
00000110: ae5f 6b3b a838 643b 3f65 0e3b 6a29 e2ba
00000120: 795b cdba bd97 733e 2dd7 c2bd 95c9 613b
00000130: 2b75 203e 4cc7 d13e e604 3f3e a538 023d
00000140: 31ef c8bd b908 50ba cbef 453c 7b57 d9bc
00000150: 84b2 20be 3f65 80bc 5485 973b 9b8b 4a3c
00000160: 314e 353e 7588 443e 01a3 f0ba b44d 693d
00000170: d284 963c a081 c639 4725 0fbb fd1c 2c3a
00000180: bae6 42bd de2c 24bb 76d5 3fbc 37f5 73bb
00000190: 66c6 f93a 22be 98bd 944c 21be f14e 91ba
000001a0: 6245 8bba cc28 c7b9 b7aa 153d 3203 4abd
000001b0: a182 2b3b 0c8a babc b1f2 9dbb 0432 293a
000001c0: c5a1 d8bc 38fe b3bd b0a6 5439 b847 adbd
000001d0: 0bb8 d13c 19c0 4f3a 58e6 92be 68e8 dbb9
000001e0: 16b8 adba ec2c 2f3b 9e61 753c 4a5d e2bd
000001f0: dd7e 783e 59dd b33c 1b60 2dbb 97f8 00bb
00000200: 5a6f a13a ee70 853a abac cbb8 611e bfba
00000210: e456 6eba a35e b0ba 1c87 863d f849 88ba
00000220: 3f42 03bb 590c d83a f3ee aa3d f8e3 b43d
00000230: a7c8 193b 7fba ab3a 4658 a63d 8a98 34bb
00000240: d9c4 b23c b08a 74ba 614e 02ba 9299 b839
00000250: 949d b8b9 a380 31be ecf3 58bb 5bf6 82ba
00000260: 03ef 62b9 452b afba 9570 7bba d110 0b3b
00000270: 7be4 8c3a 80ec 583e b664 033a 27c2 033f
00000280: 1377 df3a 4af2 7c3a a6d3 fb3a a57f 2ebb
00000290: 2a3d c03a ebc4 2dbd 94c1 8dbd 907f 973a
000002a0: f024 0d3e 05f1 13bd f0db 8aba d016 2abe
000002b0: 4b79 3a3d 29e8 da39 3a31 c0ba 193a 043b
000002c0: 314e e93a 1888 0fbb cf8e b13d d220 6f3d
000002d0: 789a 80ba 1393 a7b9 bad8 1dba f303 c738
000002e0: 3598 9cbc 96fb 09be be19 f2bd 6672 cb3a
000002f0: 23f2 ff3c 23b4 6a3a 94a3 86bc 9573 10ba
00000300: 732f 0cbd e2e2 1e3e 2be8 533a d334 203b
00000310: e953 813a 68b1 d13a b5a1 65b7 4d88 6539
00000320: ddac 80b7 22f3 9fbc 96fc b7bd 9091 9eb9
00000330: 982e 56bd 7e5b 133e 9d4d d33c fd24 663c
00000340: ae64 41bd 6e8e 0339 2027 5539 3fe4 893c
00000350: 3a6d a73d 049e bcbd d4b2 0d3a fc96 aabc
00000360: 00e7 b03c 5d0f a83e 6cb8 b439 2b18 6fbd
00000370: 247f 4a3b 8258 693a b7c0 453a 8d56 4fba
00000380: 88a9 28bc 96a2 003b 73ed 7bbd 16c4 49ba
00000390: f454 a638 deb3 f73d eff0 53bb 035b a83a
000003a0: a185 193a f06a 223a d445 603a ff22 30bc
000003b0: 689d e43a ad1b 29be e06c e93a 4363 f0ba
000003c0: b5f8 353e 447c 523e f1a6 5cba 7cf5 f83c
000003d0: dca0 043d 866f 26ba e49d ab3c 0d1d 95b9
000003e0: 413c 11ba 1f52 8339 3d3e b6bd 491e d63c
000003f0: 5c60 2e3c a255 dcbd 0b02 74b8 f3ec 9fba
0.00059100665 -0.0009873926 0.005408823 0.0021462622 -0.0031922655 0.004891601 -0.015275678 0.00032230164
0.0010169182 -0.004138566 -0.13806246 0.022425225 0.0006847841 -0.0021382547 -0.047977958 -0.00036572534
-0.11312968 -0.0016465236 -0.0033602002 0.0020060495 -0.004367671 0.09764159 -0.0001587184 -0.0012539538
-0.0023052879 -0.0011546549 0.0019344473 -0.0031871202 -0.0035735208 0.16498771 0.0029522136 0.20531745
0.0027335314 -0.005510801 0.0026319125 0.001523659 0.002018997 0.011098905 0.04669745 -0.019485405
0.06173819 -0.29001427 0.0015596638 0.03359504 0.17525402 -0.0023547667 0.0012393201 0.0044874456
-0.0012019207 0.0005638193 0.5337404 0.19110021 8.46209e-05 0.0013596509 -0.0020071561 -0.0011857294
0.06411052 0.20539299 0.09883066 -7.870649e-05 0.043477766 0.0020777953 0.04165621 -0.004090352
-0.044997636 0.006422552 0.0014375659 -0.0019225117 0.0035915184 0.0034823809 0.0021727828 -0.0017254774
-0.001566752 0.23788352 -0.09513698 0.0034452428 0.15669696 0.40972364 0.18654212 0.0317923
-0.09811247 -0.000793587 0.012081097 -0.026530972 -0.15693098 -0.015673278 0.0046240482 0.012362386
0.17705609 0.19192679 -0.0018359126 0.05695887 0.01837388 0.0003786208 -0.0021842287 0.0006565599
-0.04758332 -0.0025051157 -0.011708608 -0.0037225017 0.001905632 -0.0745814 -0.15751868 -0.0011086148
-0.0010625536 -0.00037986634 0.03653976 -0.049319454 0.002617039 -0.022770904 -0.004820191 0.0006454291
-0.026444325 -0.08788723 0.00020279991 -0.08460945 0.025600454 0.0007925048 -0.28691363 -0.0004194409
-0.0013253714 0.0026729656 0.014976887 -0.1105295 0.24267145 0.021956133 -0.0026454988 -0.001967942
0.001231651 0.001018075 -9.711956e-05 -0.0014581197 -0.0009091927 -0.0013455938 0.06568739 -0.0010398021
-0.00200285 0.0016483172 0.08346357 0.08832544 0.0023465545 0.0013101845 0.081223056 -0.002755674
0.02182238 -0.00093285274 -0.0004970786 0.00035209634 -0.0003521262 -0.17334227 -0.0033104373 -0.0009991633
-0.00021642078 -0.0013364336 -0.0009591666 0.002121974 0.0010749245 0.21183968 0.00050122605 0.5146813
0.0017049037 0.0009649141 0.0019212856 -0.0026626375 0.0014666666 -0.042424124 -0.06921688 0.0011558402
0.13783622 -0.036118526 -0.0010594111 -0.16610265 0.04552583 0.00041753173 -0.0014663108 0.002017623
0.0017799792 -0.0021901187 0.08669817 0.05838091 -0.000981166 -0.000319623 -0.00060213695 9.489795e-05
-0.019115547 -0.13474879 -0.11821316 0.0015521764 0.03124339 0.0008953234 -0.016435422 -0.0005510387
-0.03422494 0.15516236 0.0008083607 0.0024445548 0.0009866926 0.0015998306 -1.3687114e-05 0.00021889918
-1.5339285e-05 -0.019525114 -0.08983724 -0.0003024456 -0.05229053 0.1439037 0.025793845 0.014046905
-0.047215156 0.00012546193 0.00020327838 0.016832469 0.0817513 -0.092098266 0.00054053706 -0.020823948
0.021594524 0.3282422 0.0003446968 -0.058372658 0.0030898536 0.00089014333 0.00075436704 -0.00079093204
-0.010294326 0.0019628159 -0.061505746 -0.00076967606 7.9313206e-05 0.12094854 -0.0032339653 0.0012844506
0.0005856399 0.00061957445 0.0008555327 -0.010750531 0.001744193 -0.16514464 0.0017808937 -0.0018340129
0.17770655 0.20555216 -0.000841721 0.030390494 0.03237997 -0.0006349016 0.020949312 -0.0002844114
-0.00055402896 0.00025047452 -0.0889859 0.026137488 0.010643091 -0.10758521 -5.8176036e-05 -0.0012201354

actor.4.bias f4 [4]
00000000: b691 b13e 19ba e23e 1055 f83e 6fbd 0b3f
0.3468148 0.44282606 0.48502398 0.5458593

critic.0.weight f4 [128, 17]
00000000: 4f26 27bf 9440 e8be fcec b6bd 9c6c 4bbe
00000010: 926d 81be da43 e13d bd35 2dbd eb36 2e3d
00000020: 3061 85be 5fa3 e6be 56ae 3fbe 47b4 673f
00000030: d54b 153f b4d5 6abe ccf8 263e 354f e1bd
00000040: d9e2 373e 5bd0 fbbe d51d 253e f8e7 543e
00000050: 5fd9 dcbd a31d 69bd af72 343b e07b f43e
00000060: ac68 403d 9978 a9bd 0e25 c5bd b465 69bf
00000070: 8db0 b03d 877a d43e 76cf c43e b7aa d73e
00000080: f39a 2fbe 682d 9d3e 2dc6 5e3f d336 10be
00000090: dc8a e03e 3a11 53be 3eda 2d3e fbb6 943c
000000a0: a09a d03c 7b99 933e 97f2 29be c83a b03e
000000b0: 61f4 dbbd 6160 e33e 693f cbbe 85b2 02be
000000c0: c87c 983d 024a 1ebe b32c 55be 29d9 3b3f
000000d0: cb86 bc3e ce9c 593e 460f ee3c ce6d ea3e
000000e0: f6e5 9bbe 3743 d13d da81 b4bd 4d48 a4be
000000f0: c6b7 a33d 071c b03c 179e 9ebe a90a 3b3e
00000100: 7373 f13c 51f8 1bbe b0ed cbbc 0745 26be
00000110: 5958 1dbf bd4e 7b3d f6a7 8d3e 7b2f 31be
00000120: cbcf 8abf 9140 833e 5eaa 903f 2c8d 26be
00000130: 4e3c 79be 6258 aabc 27cb a5bc 5cbc 2fbf
00000140: 49cd eb3e aa5a 393e 7fa4 c63d 1490 a0bd
00000150: b8db bcbc 62dd 15bf 5dfc db3d 4db0 4e3d
00000160: f190 f0bc d899 eb3d 4d33 88be bedc 54bd
00000170: 7524 d3bd 8f0a 5cbd 408b 603e 93c6 e13e
00000180: bf92 90be b948 0e3f 5d50 82bd ea06 29bd
00000190: 3341 86bd 3a20 883d e61e ea3f 1bf1 ac3e
000001a0: eb49 823f d466 8abe be4a b93e dcf7 e83e
000001b0: 4a9f 87be b3d1 203f 2692 bcbb 8391 713e
000001c0: e94f 263e f5d9 813d 001b 87bd 289e 54be
000001d0: c18b 4abd 21c2 d0bc fac4 8cbd 2aa1 693d
000001e0: 6557 54bf a54e 00be c024 0f3e 233c 87be
000001f0: 177f 5fbe 016b 2dbf ad2e 08be 6c8d 8c3e
00000200: 5aec 45be f8d1 f53e a428 4ebe a886 bd3e
00000210: 3989 1ebe fbc3 a5be d474 6b3d 3de2 963e
00000220: 10ce ab3e c279 c0be 8b19 20bd 313e 4c3e
00000230: f703 2d3e 1c6e 0c3f 3809 cdbd 65df 953e
00000240: 9b8a 473e 0a67 623e a78c 713f 3573 76be
00000250: ff13 bfbe a36a 26bd c1b8 e93c 1d16 85be
00000260: 51b1 57bd 7229 db3e 6e8d 4d3c 1395 2fbf
00000270: adf5 9b3c 4128 e6be f0d0 fa3d da4b 43bf
00000280: f738 9b3e e335 593e ecb7 aebe f254 ed3c
00000290: a933 52be f123 263f 128b ccbc bc10 503b
000002a0: d17f a6bd 54b3 20bd f1a2 823c affb 7ebe
000002b0: 694c 96bf ac56 663d 2f96 d23f 5ba7 c5bd
000002c0: 5347 63bf c62a 0e3d ea9e 9b3e b97b 893e
000002d0: fdba 263e 7616 00bd 09b2 d13d f16a 3a3e
000002e0: 8a48 5f3d b6b9 c9bd ee0d 393e 9cb2 81bf
000002f0: b05f 30be 12c8 c6bf d659 0abe f5af 29bf
00000300: 4d50 c7bd e72a cd3e cd8a 37bc 8e16 923e
00000310: 6030 4abd b311 423d 1a7e 1bbe 1ad6 623c
00000320: ca1e c23d ce97 fb3d bd1e 513d 8119 b6bd
00000330: 9949 133f e8c9 2bbf a234 b03f f736 a1bd
00000340: 26ed fa3d 12d6 87bb 149c 963e 18db 86bd
00000350: 4c96 9e3e 91ed 23bd 6aa2 57be 6623 583b
00000360: 4a8a a53e f9ae 47be cdc3 55be dea6 26bd
00000370: 0097 903b bcf0 373e 6c85 4fbe 6ff7 fcbe
00000380: 92e3 91be b378 8cbe 1f0c a33e f840 4ebf
00000390: a4ea dabc 7222 43be 5942 d53e 7405 94be
000003a0: c490 99bb b4cc 4ebf f04e 833d cbda d43d
000003b0: d325 edbc 4689 50be bc33 4e3f 2ee6 013e
000003c0: 3cf1 18be 26b7 193c 0e00 d23d 7b89 8f3e
000003d0: cd29 0abf 4392 3ebe 7409 733d 3cc6 0e3e
000003e0: 1773 b73c d128 9d3e 95b8 87be e006 703d
000003f0: adb6 4b3e 9ac2 abbd 1521 f5bd 8c8e b63e
-0.6529283 -0.4536177 -0.0893192 -0.1986565 -0.25278908 0.1099927 -0.042287577 0.042532843
-0.2605071 -0.45046517 -0.18718848 0.90509456 0.58318835 -0.22933084 0.16305846 -0.11001436
0.1795763 -0.491824 0.16124661 0.20791614 -0.10783648 -0.05691303 0.0027534177 0.4775076
0.046974823 -0.08274955 -0.09626208 -0.9117081 0.086274244 0.4149973 0.3843953 0.42122433
-0.17148952 0.30698705 0.8702114 -0.14083414 0.4385594 -0.2061204 0.16977784 0.018153658
0.025464356 0.28828034 -0.16596447 0.34419847 -0.10739971 0.4440947 -0.39696816 -0.12763412
0.07445675 -0.15457919 -0.20817833 0.73378235 0.3682159 0.21251222 0.029060017 0.457869
-0.30448884 0.10217898 -0.0881383 -0.3208641 0.079940364 0.02149774 -0.30979988 0.18265785
0.029473996 -0.15231444 -0.024893612 -0.1623727 -0.6146293 0.061354388 0.27667207 -0.17303269
-1.0844663 0.25635198 1.1301992 -0.1626479 -0.2433941 -0.020794097 -0.020238472 -0.6864679
0.46055058 0.18100992 0.09699344 -0.07839981 -0.023053989 -0.5854093 0.10741494 0.050461102
-0.029365988 0.11503953 -0.2660164 -0.05196833 -0.10309688 -0.053721007 0.2192812 0.44096813
-0.28236958 0.55579716 -0.06362984 -0.04126636 -0.065554045 0.06646772 1.829068 0.337777
1.0178808 -0.27031577 0.36189836 0.45501602 -0.26488715 0.62819976 -0.005754727 0.23590665
0.16241421 0.063404 -0.06596947 -0.20763457 -0.049449686 -0.025483193 -0.06873508 0.057038464
-0.82945853 -0.1253 0.13978863 -0.26413068 -0.21825825 -0.677414 -0.13299055 0.27451646
-0.19328442 0.48011756 -0.2013269 0.37016797 -0.15482034 -0.32376084 0.057484463 0.2946948
0.3355565 -0.37592894 -0.03908686 0.19945599 0.16896044 0.54855514 -0.10011524 0.29272
0.19486468 0.22109619 0.94355243 -0.24067385 -0.37319943 -0.04062904 0.02853048 -0.25993434
-0.052659336 0.42805058 0.0125459265 -0.68586844 0.019038046 -0.44952586 0.12246883 -0.76287615
0.30316898 0.21211962 -0.34124696 0.02897117 -0.2052752 0.6489859 -0.024968658 0.0031748256
-0.08129848 -0.03923352 0.015946837 -0.24900697 -1.1742069 0.056235 1.6452082 -0.09651061
-0.8878071 0.03470876 0.3039468 0.26852205 0.16282268 -0.03127142 0.10239036 0.18204857
0.054512538 -0.09849875 0.1807172 -1.0132632 -0.17224002 -1.5529807 -0.13510832 -0.66284114
-0.09732113 0.40071794 -0.011202526 0.28532833 -0.04936254 0.04738016 -0.15184823 0.013844991
0.09478529 0.12284814 0.051054705 -0.08891583 0.57534176 -0.6710496 1.3766062 -0.07871812
0.12252264 -0.004145392 0.29415953 -0.065847576 0.30974042 -0.040021483 -0.2105805 0.0032980083
0.3233207 -0.1950034 -0.20875473 -0.04068648 0.004412532 0.17962927 -0.2026574 -0.49407527
-0.28493935 -0.27435836 0.31845185 -0.80567884 -0.026723213 -0.19056109 0.41652182 -0.2891041
-0.004686447 -0.807811 0.064115405 0.10393294 -0.0289487 -0.20364866 0.8054769 0.12685463
-0.14935774 0.009382045 0.10253917 0.28034577 -0.5397003 -0.18610482 0.059335187 0.13942808
0.022393746 0.30695203 -0.26508012 0.058600307 0.19893904 -0.08386727 -0.119692005 0.3565563

critic.0.bias f4 [128]
00000000: b96c 17be 1095 7cbc dbf2 543c f124 26be
00000010: 2b35 8a3c 75eb 86bd 0283 883d a40b 37be
00000020: 430b 2abb 25ea 3bbd c72e e93c 1183 e6bd
00000030: e5ae 93bd 60f2 c1bd f778 093e 33b9 90bd
00000040: bf89 a4be 11fc 463e e666 15be 351d ddbd
00000050: 5a95 8dbc 8a8f 323e c627 89bd fdd6 693e
00000060: 780b 3e3e 157e 8b3c 97c1 b73d 9d1c be3d
00000070: 50dd 8c3e 378c 24be a93c 773e 9f91 063e
00000080: 9c64 8cbb da7d 563e d815 5fbd c248 a8bc
00000090: be15 00be 0bfc 063e 8c23 693d e916 813d
000000a0: c470 3dbb f746 5bbe fc8e a73d f0b0 0b3d
000000b0: 1619 c2bc e70d 4c3d 346d 1e3e 2800 913c
000000c0: 64c1 3d3d 9302 82bb fd30 4d3d 15f7 823d
000000d0: 771c efbd 09e2 b03e a17e 7abe b1f5 4dbd
000000e0: 49b6 a13d 1cd2 d0bd b2ba 39bd c676 6d3e
000000f0: 53c2 663e c24c babd 8334 3dbe 8149 fc3c
00000100: 69b8 8b3d 3b0d 4f3e e842 88bd d23f d6bd
00000110: 7cb6 8abd 2cca 2b3c 2320 453e 07dc a63d
00000120: 06f3 063c 8c6b 823e 330e 353c e1ce 92be
00000130: 37ee dfbd 002e debd de77 703e b51d 81bc
00000140: 5961 213d fadf 50be 5278 6b3e 338b c539
00000150: 9cc4 2ebe 5f4f 7cbe 8688 fa3d d199 92bc
00000160: 1f5f a13d ba8e 363d 5f0d b13e bf76 c03d
00000170: 23e2 173e a940 47bb 968b aebd 8c90 e0bd
00000180: 0545 61bc 1071 373e 5c92 89bd 722e f33d
00000190: 5014 e43d 5f18 213e ebd8 153d c8c0 c7bd
000001a0: 2d5f 383c 1394 893e 7800 04bd 75b1 febc
000001b0: c9e9 e5bd 84d0 25bd 8c66 b13d 1055 1e3e
000001c0: cf64 95be 326c 463b d358 713c 2f60 b7be
000001d0: 05eb 24be bb1f e5bd feb3 72be fb39 85bc
000001e0: 4a13 20bd 2f25 22be 339b 7bbd f5d9 0cbd
000001f0: 2713 3b3d 7241 3a3d 397d dabd fab5 93be
-0.14787568 -0.015416399 0.012997354 -0.1622503 0.016871056 -0.065878786 0.06665613 -0.17875534
-0.0025946654 -0.045877595 0.028464688 -0.11255468 -0.07211093 -0.094700575 0.1342505 -0.07066574
-0.32136342 0.19432093 -0.14590034 -0.107965864 -0.01728313 0.17437568 -0.06697039 0.22835918
0.18559062 0.017027894 0.08972471 0.09282801 0.27512598 -0.16069113 0.24144234 0.13141488
-0.0042844545 0.20946446 -0.05446419 -0.020542506 -0.12508294 0.13182084 0.056918666 0.06303198
-0.0028906325 -0.2141379 0.08181569 0.034104288 -0.023693603 0.049817946 0.15471345 0.01770027
0.04632701 -0.003967592 0.050095547 0.063947834 -0.11675351 0.3454745 -0.24462368 -0.050283138
0.07896096 -0.10196325 -0.045344062 0.2318984 0.22535066 -0.09096672 -0.18477063 0.030796768
0.06822283 0.20219891 -0.06653386 -0.104613915 -0.067730874 0.010485213 0.1925054 0.08147436
0.008236652 0.25472677 0.011050749 -0.2867346 -0.10934108 -0.108486176 0.23483226 -0.015761236
0.03939948 -0.2039794 0.22995117 0.0003767848 -0.17067188 -0.24639653 0.12233071 -0.017895611
0.07879471 0.04456971 0.34580514 0.09397649 0.14832358 -0.003040353 -0.08522718 -0.1096507
-0.013749366 0.17914224 -0.06717369 0.11874093 0.11136687 0.15731953 0.036583822 -0.09753567
0.01125316 0.26870784 -0.03222701 -0.031090477 -0.112262316 -0.04048206 0.086621374 0.15462136
-0.29178473 0.0030276892 0.01473065 -0.3581557 -0.16105278 -0.11187693 -0.23701474 -0.016262999
-0.039080895 -0.15834497 -0.061427306 -0.034387548 0.045672562 0.04547257 -0.106684156 -0.28849775

critic.2.weight f4 [128, 128]
00000000: 572f cdbd 0ba1 4f3e ee15 993e 6749 763e
00000010: a241 ccbe 750f 49be 3524 3f3e 806a afbe
00000020: e816 88be 7fe8 663d de8a 90bd 7e12 9ebe
00000030: fa44 803e 63ad 203e 6cdc b93d 2c86 2b3e
00000040: 2fd8 353e 2b19 d7bd a69e 5fbe 95ac 6c3c
00000050: bda5 3cbd 0274 923d f8ab 393e 3fb0 a73e
00000060: 2897 9b3d 817e 933e 4ad7 5d3e 04d8 b6be
00000070: 0d74 a1bd df0a 9cbd aa66 773e cb9b dbbc
00000080: bfe8 2f3e bd74 59be ca20 053e ac6c 813d
00000090: f657 723d 5a12 763d c63c 313e dd65 fcbd
000000a0: 7f11 3d3d f1b9 1c3e b99f 393c c1c5 34bd
000000b0: 7822 f53d 88db 253d 7a5a be3e b3ab b23d
000000c0: 2806 17bd 0177 51be ef97 563e 33d6 5ab9
000000d0: f998 33be ea44 e6bd 6c30 d6bd 654d a9bc
000000e0: 4f4e 1a3e f20b d23d 03bf 353d 3f6b 843e
000000f0: a2b4 01bd d8c4 2e3e eaa0 913d 02c2 67be
00000100: 0ac1 5e3e bb2b 323c c46e ec3c 8611 f2bd
00000110: a7ae 2c3d de42 083e dc0b 9c3e b8b5 583e
00000120: 7f64 8e3d 8aa2 a2be f1dd 17be 9fba aabd
00000130: a93f 2e3e 62a4 9c3b f5a3 51bd 0cd2 f2be
00000140: 24ac 393d f567 2c3d 83f8 50bd a764 eebb
00000150: 98fa 123e 8533 d43e ca1d 6abe d434 2abd
00000160: c556 e2be 6dfd 8dbd b033 e4bd ab05 a53c
00000170: e3d2 b13e 29cd 4ebe 0fab 26bd 062b ac3c
00000180: 32fc 043a f38b f1bc ba09 3bbe 9e03 7fbe
00000190: 3aa1 883c 6c44 c3bd 295d 8abc 683a d8bc
000001a0: f3e1 3bbe 15ad e23d 8e5f ddbd 92e8 e53d
000001b0: d556 05be 1eb3 0cbe 32de e63d 0c1e 75be
000001c0: c9ac 6bbe e6ef ebbd caf9 08be 82e6 ddbd
000001d0: 7881 c8bb 5560 2a3d d075 f73e 750e 903d
000001e0: b375 c53d 79a5 37be 1470 043e e7dc 30be
000001f0: d293 753c 77ba 2ebe d028 4e3e 5166 17be
00000200: ad14 093e 8e3b 0dbd b21a afbe b5c4 a8be
00000210: 8bd3 b93d 24b2 b8bd dd63 7bbd bfba 733e
00000220: 415e 3b3d 48c6 6c3a 9a2d 913c 8a9d 943e
00000230: 2cb6 a3bd ed52 af3d 8166 99bd 0c1d b93d
00000240: cc35 1a3d 0cc6 853e 588a 9f3d f57d 793d
00000250: 9b3f 9c3e bb61 32be ecfd 803b e19c 21be
00000260: 5540 cc3d 3d9a 2ebc 264b b2be 176f 02bd
00000270: 5ac3 0abd b790 3b3e 9ef5 e1bd 557f 613d
00000280: f5cd 86be 8ca4 cd3e f2e5 8b3e 06cb 713d
00000290: 574c 983d 9486 ce3d 4957 a7be cc2b 713e
000002a0: 7739 94be 83e3 7abe b4b7 f63d 8853 11be
000002b0: 4afd 8ebe ccb5 013e 55b9 12be 7cbb 063d
000002c0: c7a0 1dbd 4c1f 213e 98bd c4bd cfb8 b8bd
000002d0: 849b 743e 4915 85be 6560 8b3d e4f2 0bbc
000002e0: 7160 0e3e 6cec 1abe 5bdd 17be 24fd 8cbe
000002f0: 4ef4 5ebd 7040 09bc 89d5 873d 5ae9 283e
00000300: ddaa 1dbe 7b8d 643e c5a0 1cbd 8f1c 803e
00000310: 9954 09bd 14ba b2be 7d41 65be 51c6 d3bd
00000320: 099a edbe 8714 a13d 71b8 893d 2214 763d
00000330: 33ed 84be 20b7 063d e152 1d3c 5563 473e
00000340: 566c cbbd 5360 07be 1aff 79be beec 70bd
00000350: 7989 fe3d 0fa5 fdbc 6ba4 8a3e ecd2 633e
00000360: 9a07 373e d839 a0bb 42ab 95be ebab 58be
00000370: bf4c f7bd 7774 353e 9614 b5bd 91d1 b13d
00000380: 7e28 9a3d 2bb9 6bbe ef5c 653d eda7 b33d
00000390: 37d3 19be a2e5 d63d 117c 23be 40fc 2b3e
000003a0: 42c6 06bd 4bdc 823b 6d0b 02be 1810 19bd
000003b0: f936 b23d f9d8 293e 769b 7abe 8a38 853e
000003c0: ebdf a2bd ed7f 453e 154e 533e 2087 ed3d
000003d0: 0898 4b3e fe5f a9bd becd a2be 8d46 9e3d
000003e0: 2a78 b73c dc35 5dbd ff81 e7bd 55c5 90be
000003f0: 7eb9 5abe 4856 99bd bea8 3e3e 2790 bb3d
-0.10018795 0.20276277 0.29899544 0.24051438 -0.39893824 -0.19634803 0.18666156 -0.3426094
-0.26579976 0.05637407 -0.07057737 -0.30873483 0.25052625 0.15691142 0.09075245 0.16750401
0.17758249 -0.10502847 -0.21837863 0.014445444 -0.046056498 0.07151033 0.18132007 0.32751653
0.0759719 0.28807452 0.21664158 -0.35711682 -0.07883463 -0.07619261 0.24160257 -0.026807686
0.1717863 -0.21235938 0.1300079 0.06319556 0.059165917 0.060076095 0.1730834 -0.123241164
0.046159264 0.15305306 0.011329585 -0.044133905 0.11969465 0.040492564 0.37178403 0.08724155
-0.036871105 -0.20455553 0.20956396 -0.00020869896 -0.17538823 -0.11243613 -0.104584545 -0.020666787
0.15068935 0.10256185 0.044371616 0.25863072 -0.031666405 0.17067277 0.0711077 -0.22632602
0.21753326 0.010874684 0.02886141 -0.118197486 0.04215875 0.13306758 0.30477798 0.2116307
0.06952762 -0.31764632 -0.14830758 -0.083363764 0.17016472 0.004780338 -0.051181752 -0.47425878
0.04533018 0.04209133 -0.05101825 -0.0072751823 0.14353406 0.41445556 -0.22862926 -0.041554287
-0.44206825 -0.06933103 -0.11142671 0.020144304 0.34731206 -0.2019545 -0.040690478 0.021016609
0.00050729804 -0.029485678 -0.18265429 -0.24903724 0.016678441 -0.09534535 -0.016890125 -0.026395038
-0.18347912 0.11068169 -0.10809241 0.11226 -0.13021405 -0.13740203 0.11272849 -0.23937243
-0.23015131 -0.11520366 -0.13376537 -0.108349815 -0.0061189495 0.041595776 0.4833207 0.070340075
0.0964159 -0.17934217 0.1293338 -0.17271768 0.014988856 -0.17063318 0.20132756 -0.14785124
0.13386793 -0.034480624 -0.34200054 -0.32962576 0.09073552 -0.09018353 -0.061374534 0.23801707
0.045744184 0.0009032232 0.01772194 0.29026443 -0.07993731 0.08560739 -0.07490254 0.090387434
0.03764896 0.2612766 0.07790059 0.060911138 0.30517277 -0.17420094 0.00393652 -0.15782501
0.09973208 -0.01065689 -0.3482296 -0.031844225 -0.033877708 0.18316923 -0.11033176 0.055053074
-0.26329008 0.40164602 0.27323872 0.05903151 0.07436436 0.100842625 -0.3268378 0.23551863
-0.28950092 -0.24500851 0.12046757 -0.14192021 -0.2792762 0.12667006 -0.14328511 0.032893643
-0.038483407 0.15734595 -0.09606475 -0.090196244 0.2388745 -0.25992802 0.06805495 -0.008541796
0.13903977 -0.1512925 -0.14830534 -0.2753688 -0.054432206 -0.0083771795 0.066325255 0.16495267
-0.1539721 0.22319596 -0.03823926 0.25021788 -0.033527944 -0.3490759 -0.22388263 -0.1034056
-0.46406582 0.078652434 0.067246325 0.060077794 -0.2596222 0.032889485 0.009602279 0.19471486
-0.09932773 -0.13220339 -0.2441372 -0.058819525 0.124285646 -0.030962495 0.27078566 0.22248429
0.17873994 -0.004889708 -0.29232222 -0.21159332 -0.12075185 0.17720209 -0.08841817 0.0868255
0.075272545 -0.23019855 0.05599683 0.08772264 -0.15021978 0.10493018 -0.15965296 0.16795444
-0.032903917 0.003993546 -0.12699671 -0.037368864 0.087018915 0.16586675 -0.24473366 0.26019698
-0.07952865 0.19287081 0.20635255 0.11598039 0.19882214 -0.08270262 -0.31797594 0.077283
0.022396166 -0.054006442 -0.11304092 -0.28275552 -0.21359822 -0.0748716 0.18619058 0.09158354

critic.2.bias f4 [128]
00000000: 80f9 1c3e 868c 51bd e8c4 11bd b800 b9bd
00000010: ed5c 7abe c9d3 713e b25f 56bd c3d8 07be
00000020: 5268 c93c 6026 8c3d 8e7f fcbd 48e5 c13d
00000030: 9da3 1cbe fdb4 32be 0250 8e3d 31ed 0d3d
00000040: a372 87bd 726a 363d 5238 36be 3fb3 02be
00000050: 5144 343d 5351 81bd b84b ac3b 1320 c93e
00000060: 37fc b43d 7521 1dbe d863 40be 5e00 ddbc
00000070: c7af babd 8924 28be 925c 92bc 0fdc f8bd
00000080: 654d a7bb 8f51 283e 805a 42be 83e4 b7bd
00000090: d264 fbbd 5c2c bebd 1c2e 00bf 34af 533e
000000a0: 43bf fd3c 1f1e 5fbe 5420 e43d 43b0 abbd
000000b0: aa64 6e3d 6d50 353e 9209 163d e26e 143d
000000c0: 2376 36be cf5a 053d cfbf 07be f157 2d3e
000000d0: e5ab 5bbe 2f5a 17bd 36a4 3dbe f06e 2dbe
000000e0: cc99 0f3e ebc7 6dbe 0ee6 26bc b1ca 96bd
000000f0: 29bd 533e c446 593e b5b4 303d 2b47 f03c
00000100: 7069 043e 9c13 523c a00e 7c3e 7539 823e
00000110: d058 00bd 40a7 abbe 0b99 1c3d 639e a1be
00000120: 7efa 363e c994 19be b2f7 f23d 2120 c13d
00000130: 6a39 123d 5a5d 063c a40c 30bd e2f0 103d
00000140: 89dc d5bd 9ac6 b0bd c755 4ebd 47bb 6a3d
00000150: bda5 a6be f405 563d 69b7 213e c289 a6bd
00000160: a727 a6bd 45e6 3bbe 2efc 77bd 0815 f33d
00000170: 23df 0f3f 936a 5fbc d7a3 173e a78f 833e
00000180: cec3 dc3d eca4 b23b a433 01bd a0e6 373e
00000190: 4fec 0abd 25ec a3bd 32bb 38be b6d7 d23d
000001a0: 1af0 3e3d 7975 35be 1b07 983e a260 563e
000001b0: 48b2 8cbe cf31 813e 8a5b 953e 55be 2ebe
000001c0: 2b12 fd3d b321 b33e 5ed2 94be 1357 4f3e
000001d0: 0bf4 8abc 9ca8 6b3e 3b17 e3bd 8f0f 81bd
000001e0: 519b 85bc 1149 cf3c 4e9c 52be ae48 58be
000001f0: 0778 26be e291 a9be a297 83be 55d0 243e
0.15329552 -0.051159404 -0.035588175 -0.0903334 -0.24449511 0.23615946 -0.052337356 -0.13266282
0.024585877 0.06843257 -0.123290166 0.0946756 -0.15296789 -0.17451854 0.06948854 0.03465003
-0.06613662 0.044535108 -0.17794922 -0.1276369 0.044010464 -0.063143395 0.00525805 0.39282283
0.08837169 -0.15344794 -0.18788087 -0.026977714 -0.09115558 -0.16420187 -0.017866407 -0.12151348
-0.0051056617 0.16437362 -0.18979836 -0.08979132 -0.12275089 -0.09285805 -0.5007036 0.20672303
0.03097499 -0.21788834 0.111389786 -0.08383229 0.05820147 0.17706461 0.03663022 0.03623856
-0.17818503 0.032557305 -0.13256763 0.16928078 -0.21452291 -0.03695124 -0.18519673 -0.1693685
0.14023513 -0.23220794 -0.010186685 -0.07362879 0.20677628 0.21218401 0.043141086 0.02933081
0.12930846 0.012822058 0.24614954 0.2543446 -0.0313347 -0.3352604 0.03823189 -0.31566152
0.17868993 -0.14998163 0.118636504 0.09429956 0.035699286 0.008200968 -0.042980805 0.035385974
-0.10442454 -0.0863163 -0.050374772 0.057307508 -0.32548323 0.05225177 0.15792622 -0.08131744
-0.08113032 -0.1834956 -0.06054323 0.11869246 0.56199855 -0.013636249 0.14808594 0.25695536
0.10779534 0.005451789 -0.03154339 0.1795907 -0.033916768 -0.08004025 -0.1804016 0.1029505
0.046615697 -0.17720594 0.2969292 0.209353 -0.27479768 0.25233313 0.291714 -0.17064793
0.12356981 0.34986648 -0.29066747 0.2024806 -0.016962072 0.23013538 -0.11088415 -0.06301796
-0.016309412 0.025303395 -0.20567438 -0.21121475 -0.16256724 -0.33119112 -0.25701624 0.16095097

critic.4.weight f4 [1, 128]
00000000: 290f 2f3a baa2 60b9 81fa d53a c44d 673a
00000010: 66fc e439 adbd 4d3a ed98 37bb 535d 98bb
00000020: 2d06 d7ba c23c dc38 9666 a73a f66a 91b9
00000030: 3e74 69bb 04fb 243b 105b 473a eaf3 29ba
00000040: 7aa1 e33a 0d7b fbba 02c9 98ba f1fc 24ba
00000050: 73c6 8aba 5568 5e3a 484e b336 0510 0a3a
00000060: c651 9e3b 8747 ebb9 411b 833a 9d55 893b
00000070: 4157 d639 c985 0dbb 513c be39 1698 f9b8
00000080: 4227 f339 ed70 8d3a 25eb 023b 4bbf c1ba
00000090: 7e72 083a 5ea7 c039 69a8 88bb 19fa 59b9
000000a0: afc8 d83a 9b52 4c3c ba23 b13a 19ed 9fbb
000000b0: 1f49 00bb 4e1b 57bb bf7c 07ba b5e5 a8bb
000000c0: 8cf0 b738 ec02 083a 1f5f abb7 ea3f 593b
000000d0: cbf6 103a 2b4c da3a bc3b 57bb 1913 76bb
000000e0: c948 443b 543e fbba 19d0 133b 4808 77ba
000000f0: f41a 8f39 3fa6 a63a ed05 d1b9 11b9 d4b9
00000100: 7933 0b3c 341d 15bb 64ef 943a f0a1 983a
00000110: dcb8 7a3b 4782 da37 ebb5 0bbb 62e5 28ba
00000120: a188 bdba e98d d13a 91f6 a43b 795b dcbb
00000130: 4477 44bb 06a8 85ba ff6c 9e3a d311 82ba
00000140: fb1b e4b9 8d82 8eb9 2097 e4bb 42a8 13ba
00000150: 0d2b 573b 8495 fdbb bcb1 da3b 6845 93b8
00000160: 6b52 a2ba 8ac8 913a 12fc d7b9 25ae c039
00000170: 90e3 043e e6e2 babb 44a4 a63a af01 64b8
00000180: 8dd8 23b9 0bf0 233b c1e9 f938 92bd 4dba
00000190: c251 47b9 ae8c 843a 5485 153b 6a91 133b
000001a0: f00d 2aba d9d4 ce39 678b 933a 40ff c8b9
000001b0: 210c 343b 473a 0b3c ed7f c7bb bfb2 6039
000001c0: 2b49 bb3b 67cc 89bb 9f33 8cba de63 c23a
000001d0: f014 f1ba 7d30 83b9 d76b 60bb 40ba 9b3a
000001e0: 4648 623c a546 383a d128 57bb aab8 04bb
000001f0: 9e2c 893b 184c 01bb 7013 ec3b b43c 593b
0.0006677979 -0.00021422925 0.0016325266 0.00088235387 0.000436756 0.0007848393 -0.0028014735 -0.004649797
-0.0016405039 0.000105017345 0.0012771662 -0.00027736247 -0.0035622264 0.002517403 0.0007604817 -0.00064831844
0.0017366849 -0.0019186452 -0.0011656585 -0.0006293795 -0.0010587707 0.00084841746 5.343729e-06 0.00052666693
0.0048315255 -0.00044875985 0.0010002629 0.004191114 0.0004088227 -0.0021594635 0.00036284563 -0.000119015735
0.0004637782 0.0010791101 0.0019976583 -0.0014781741 0.0005205049 0.00036745792 -0.0041704667 -0.00020787901
0.00165393 0.012470867 0.0013514676 -0.004880559 -0.0019574834 -0.0032822671 -0.000516843 -0.0051543363
8.770925e-05 0.00051884237 -2.0429083e-05 0.0033149668 0.0005529939 0.001665478 -0.0032842 -0.0037548004
0.002995061 -0.0019168356 0.0022554456 -0.0009423536 0.00027295167 0.001271434 -0.00039868001 -0.00040573676
0.008496159 -0.0022753002 0.0011362848 0.0011644941 0.0038257157 2.604829e-05 -0.0021318148 -0.0006442872
-0.0014460274 0.0015987727 0.005034276 -0.0067247716 -0.0029978314 -0.001019717 0.0012086927 -0.0009923525
-0.00043508396 -0.00027181618 -0.0069760233 -0.00056326773 0.0032832057 -0.007738771 0.0066740196 -7.022434e-05
-0.0012384182 0.0011122387 -0.00041195803 0.00036750842 0.12977433 -0.005703318 0.001271375 -5.4361004e-05
-0.00015625563 0.0025014903 0.00011916785 -0.00078483776 -0.00019008576 0.0010112727 0.0022815065 0.0022517093
-0.0006487062 0.00039449966 0.0011256755 -0.0003833715 0.002747305 0.008497781 -0.006088248 0.00021428893
0.0057155094 -0.004205275 -0.0010696537 0.0014830788 -0.0018393081 -0.00025022394 -0.0034243965 0.0011881068
0.013811177 0.000702957 -0.0032830725 -0.002025167 0.004186227 -0.0019729193 0.0072044656 0.0033147754

exp_avg f4 [4]
00000000: eb9c b238 3d26 c03a 19c9 4d3a 6e31 5737
8.51693e-05 0.0014659833 0.0007850095 1.2826507e-05

exp_avg_sq f4 [4]
00000000: 82c2 1c39 835b e639 408a 9239 2cbf f939
0.00014949779 0.000439372 0.00027950294 0.00047635415
