examples/drone/logs/drone-waypointing/model_2100.pt (torch, 474978 bytes, 36 tensors)

std f4 [4]
00000000: 5c65 6a3e 7482 e33c b8d1 aa3e b09b 6b3e
0.22890228 0.027772166 0.33363128 0.23008609

actor.0.weight f4 [128, 17]
00000000: aaf4 f9bf df39 96bf 6a4a 7140 3927 42be
00000010: e346 a3be 5a3e 20be e006 5abd acdc d3be
00000020: f5ae 44bf e531 333f 9656 4e3f 1d5f 8dbe
00000030: 46bb 8fbd 8e82 243e 3134 c93d fd60 953e
00000040: 19a9 7f3d 033e c3be 6e2e 983c ea91 98bf
00000050: a24b e43e b4b9 f0bf a9ed f5bf 7018 933c
00000060: 7895 b63e 8d2f 7fbe 35d5 e6bd 0f9b 313e
00000070: 5074 4ebf ec46 57bf 12b6 6c3d 0516 f03c
00000080: 2399 ef3d 5db5 3bbc 0c75 58bc 10b6 6bbd
00000090: 93fa 4a3e 648d 5abc dd75 2dbd 0c58 0b3d
000000a0: 7d83 3d3b 5ee3 bc3d 698d 363c 5487 523c
000000b0: e279 9a3c 3ccf 2f3d bfe4 aabd 02f8 15be
000000c0: b668 aa3e a0ba 94bd 0087 91bd 9471 943d
000000d0: be0b a23e 96fe 05c0 bfea 88bf a067 b5bf
000000e0: 8481 993d ca0f 983f 6161 ad3f 430e 043f
000000f0: 1781 663f be2f febc 48ea 19bf b9a8 423f
00000100: f513 97be 7a1e a0be 8a0d bfbe b2b2 eabd
00000110: e278 a6be ed79 adbc 951b 12c0 87fe fb3c
00000120: 2e70 f13e 152c 4abd c09d 003f 5a2e 5bbd
00000130: 4c8e d5bd 403e 103d eccd 31bd 0607 7a3d
00000140: 74ba 083e 1bcc 333e a480 9fba e46a a03d
00000150: 164a 06be 8397 90bf 7677 b63e a40c 223f
00000160: 2a19 df3d 457a 3dbf 3901 a63f a679 2fbf
00000170: f364 6a3e ba87 e4bb 5fca c2bd f3de f53d
00000180: 77fa 13be 86e6 23be d5f5 d13d 8155 10be
00000190: 8379 a4bd 519f 9bbd a6fd 883f 4a24 e6bc
000001a0: 057a 1c40 f180 20bf 88f8 f13e a15c 7c3e
000001b0: 12a1 2dbf 4bce 4c3e 18a5 18be 85fd 37bf
000001c0: 58e8 3f3f 4691 dcbe 46d8 b4bd 3ebc 053e
000001d0: 7965 743e 1d7a 0c3e 2c90 843d a7d5 b43f
000001e0: f224 bdbe 5191 7dc0 bcd5 8b3e ca4d 19bf
000001f0: 07c5 6fbf 9f65 553d e4c5 0c3d 3a79 85be
00000200: 1a92 273f 5054 54be 4a39 f1bd 8a32 c3bc
00000210: 9e1c 98be ff37 acbe fda5 8abe 7d8f 6bbe
00000220: 39a6 1dbe d354 493e 9d0a 073e d5ba cfbc
00000230: 8bc7 3b3f 7ff4 bfbd 1cf6 283f bb02 913e
00000240: bb2e b1bd b4a3 0abb 402b e6bd a43f 833d
00000250: 0a56 483e 6ac0 a03d d207 b33c b4ac 363e
00000260: 7d5e 40be 2bc7 333d 45cf 5a3e 2c56 bfbf
00000270: a3ab 973a 9003 2f3f 320d dfbe 79cd 893e
00000280: b229 96bd 0da0 d2bc 7816 503b 6571 1ebd
00000290: 685c 5e3e 8c13 683e eb03 6e3c 1ebe 1d3d
000002a0: 63ed 0e3e 6d11 c23d 23b5 023e 1c73 543d
000002b0: 8252 f13d 9c6a 13bf fc7b b4bd b89e d5bd
000002c0: 7c12 69bd 9762 933d e49b 893c 8b5d 9f3c
000002d0: a3d5 0bbc 04ec 0e3d 06e6 7b3d 1b86 11be
000002e0: 0d61 003e 79a7 123d 8bf4 c6bd 2312 343f
000002f0: 269f 4d3f de11 bebf ae02 0c3f e1d3 a5bf
00000300: 3263 73be f4cf e33e cf84 cc3e 0608 29be
00000310: a675 c83e dd1a f93e f1c3 afbf d604 343f
00000320: 4db4 9ebc 266c 60bd e78e febd 1d14 d43d
00000330: fcd1 aa3e 2cda d03b c50b 4e40 27c7 37be
00000340: 1394 06bf 0f03 73be 9743 c8be efb8 883e
00000350: 17b1 693d 8d87 2cbe 4ad2 c63d 132d 07bc
00000360: 6a92 9dbe 2e7b 63bd 3379 273e 2050 94bd
00000370: 1d06 b73d 3df7 68be 7a5c bf3e 46a1 91bf
00000380: 4044 e73e dac5 dabe b54b 84bf 85a1 2bbf
00000390: bcb3 fd3c 8ea8 b3bd 83fb 0dbe 3e80 533d
000003a0: 384a be3e 1964 1c3e 2dae 173e 58ec 843d
000003b0: a307 053d 65e1 493d d360 783e b4ac 553e
000003c0: a9e5 a6bd bde4 8e3e 7503 173e a224 d3be
000003d0: a7bb cebd 04a6 a3be 8958 f9bb 2090 353d
000003e0: 3388 c2bc 67ad 87bd 93dd 16be 4445 dfbd
000003f0: 15fd 42be 6699 a5bd 7147 0f3e feb2 4fbf
-1.952779 -1.1736411 3.7701669 -0.18960275 -0.3189002 -0.15648785 -0.053229213 -0.41379297
-0.76829463 0.6999801 0.8060087 -0.27611628 -0.070181414 0.16065428 0.09824408 0.2917556
0.062417123 -0.3813325 0.018576827 -1.191953 0.44588953 -1.8806672 -1.9213153 0.017955989
0.3566091 -0.24920483 -0.11271135 0.17344306 -0.8064623 -0.84092593 0.057790823 0.029307375
0.116991304 -0.011456815 -0.0132115 -0.057546675 0.19822149 -0.013339374 -0.04234873 0.034019515
0.0028917484 0.09223054 0.011142113 0.012849648 0.018856946 0.042922243 -0.08344411 -0.14645389
0.33283013 -0.072621584 -0.07105827 0.07248226 0.31649584 -2.0936637 -1.0696639 -1.4172249
0.07495406 1.1879818 1.3545343 0.5158426 0.90040725 -0.031028625 -0.6012311 0.760387
-0.29507414 -0.31273252 -0.37315017 -0.11459865 -0.325141 -0.021176303 -2.2829335 0.030761017
0.471559 -0.049358446 0.5024071 -0.053511 -0.104275316 0.035215616 -0.043409273 0.061041854
0.13352376 0.17558329 -0.0012169075 0.07832888 -0.13114199 -1.1296238 0.35638016 0.6330054
0.108934715 -0.74014693 1.2969123 -0.68544996 0.22890072 -0.0069741877 -0.095112555 0.12005415
-0.14451014 -0.16005906 0.10251967 -0.14095117 -0.08030989 -0.075987466 1.0702407 -0.028093476
2.4449475 -0.6269675 0.47259927 0.2464471 -0.678239 0.2000057 -0.14906728 -0.71871215
0.74963903 -0.43079585 -0.088303134 0.1306009 0.23866834 0.13718458 0.06472811 1.4127702
-0.3694225 -3.9619944 0.27311504 -0.5988432 -0.93660015 0.052098867 0.03436841 -0.2606905
0.6545731 -0.20735288 -0.11778505 -0.02382781 -0.29709333 -0.33636472 -0.27079764 -0.23003955
-0.1539544 0.19661264 0.13187642 -0.025357643 0.73351353 -0.09372806 0.66000533 0.28322396
-0.08651491 -0.0021154704 -0.11238718 0.06408623 0.19564071 0.078492 0.021854315 0.17839319
-0.18786044 0.043891113 0.2136813 -1.4948173 0.0011571537 0.6836481 -0.43564755 0.26914576
-0.073321715 -0.025711084 0.0031751674 -0.03868236 0.21714938 0.22663707 0.014527301 0.038511388
0.13957743 0.0947598 0.1276441 0.05186759 0.11783315 -0.5758455 -0.08812711 -0.10430664
-0.056902394 0.07196539 0.016797967 0.019453784 -0.008534822 0.03489305 0.061498664 -0.14211313
0.12537022 0.035804246 -0.097146116 0.70340174 0.80320966 -1.4849203 0.5469159 -1.2955285
-0.23768309 0.44494593 0.39945075 -0.16506967 0.3915226 0.48653308 -1.3731672 0.7031988
-0.019373083 -0.05479064 -0.124296 0.10355399 0.3336333 0.0063736644 3.2194684 -0.17947064
-0.52569693 -0.23731636 -0.39114067 0.26703593 0.05705365 -0.16848584 0.09708078 -0.008250493
-0.30775768 -0.055537395 0.16354828 -0.07241845 0.08936713 -0.22750564 0.37375242 -1.1377342
0.45169258 -0.42729074 -1.0335604 -0.67043334 0.030969493 -0.08772384 -0.13865475 0.051635973
0.37166 0.15272559 0.14812537 0.064903915 0.032477986 0.04928722 0.24255686 0.20866662
-0.08149273 0.27908888 0.14747413 -0.41238886 -0.100943856 -0.31962597 -0.007609431 0.0443269
-0.023746585 -0.06624871 -0.14732961 -0.10901883 -0.19041856 -0.08085899 0.13992096 -0.81132495

actor.0.bias f4 [128]
00000000: e77c cebe 1eb0 9ebe 635a 60bd 0d0d fbbe
00000010: 8687 20be 9ee7 09bd 8404 193e a318 60be
00000020: 5e53 99bd e39f 5dbe 6e84 0c3f 4f92 8a3e
00000030: cae9 f23d 00d1 23bf ba38 923d b1b3 c6bc
00000040: b82a f0bd bd09 67be 6c10 b13e 26d2 b4be
00000050: db6b 2d3d 76e9 0f3e 0ee8 50bc 60f8 0d3d
00000060: 6047 7ebe 7b72 ff3e 930b 143f 3efb 4bbd
00000070: 29fb f4be 7dfb 94be ae38 163e ad14 b73d
00000080: 85ff 6d3e f75e fcbd 4041 a53e 9a61 7ebd
00000090: e1ee 413e f5d2 ddbe a1d5 9abe 2e40 40bf
000000a0: aed5 01bf eee7 633e f6c9 d5bd b9aa b3bd
000000b0: 4b65 153e e6d1 bf3d 8655 49be f00e 853d
000000c0: 2bd8 f03d 6ff8 3bbf 5474 42be 12f8 db3c
000000d0: ae46 993e e7bb 183e b70b a4bd 92c6 a4bd
000000e0: 0d99 43be 3291 943e e40b 783e a17b aebd
000000f0: 6432 ba3e 75d1 753e d930 e7be 15d0 cc3d
00000100: bf3a 7c3e 6d2c 923e 88fc 8abe 18b9 1c3e
00000110: 96f4 d9be 0bd8 d33d 7906 d1be 4947 38be
00000120: 5942 fa3c a1a3 c63d c6ea 343d 51d9 e03d
00000130: 445a 35be b634 b1bd fed6 ad3c 256c 8fbc
00000140: fba7 873d 96a3 a7bd b225 57be 8741 863d
00000150: 702e 81bc ca8f 853e 439e 82bd ef31 d0bb
00000160: add7 9b3d d266 493e bbea a53c e088 47be
00000170: 23ec f8bd 1357 cabe a339 f43d fe73 593d
00000180: 55f7 23be 0929 6e3e 784e a7be 5812 c63e
00000190: d8ac 77be ba53 e33e 7875 b7be 6081 413d
000001a0: 262c 41be ccbc 763d 1b9d 7b3d 4f3b 0d3e
000001b0: 6ef6 d7be 34c0 673e 6654 fa3d 427d b1be
000001c0: 2cd3 04be af7e 1cbe 106d e3be 84c3 ebbe
000001d0: 21f7 4dbe 49de a2bd 6cdd b43e 7f09 84bd
000001e0: 80a6 b23e b72a 53be 5725 073e 7c39 27be
000001f0: e804 a5be 9786 a43e 95a7 cd3e 5517 80be
-0.40329668 -0.30993742 -0.0547737 -0.49033394 -0.15676698 -0.033668153 0.14943129 -0.21884398
-0.07486604 -0.21643023 0.5488957 0.2706475 0.11860998 -0.63990784 0.07139726 -0.024255605
-0.11726898 -0.22562309 0.3458284 -0.3531658 0.042339187 0.14053902 -0.012750639 0.034660697
-0.24831915 0.4989203 0.5783016 -0.04980015 -0.4784787 -0.2909812 0.14670059 0.089394905
0.23242004 -0.123228006 0.32276344 -0.0621048 0.18938781 -0.4332501 -0.3024111 -0.7509793
-0.50716674 0.22256443 -0.104389116 -0.08772797 0.14589421 0.09366207 -0.19661531 0.0649699
0.11759981 -0.73425955 -0.18989688 0.026851688 0.29936737 0.14915429 -0.08010047 -0.08045687
-0.19101353 0.29017025 0.24223286 -0.08519674 0.3636657 0.24005683 -0.45154455 0.10000626
0.24631785 0.2854952 -0.2714579 0.15304983 -0.42569417 0.10343941 -0.4082525 -0.17995943
0.030549215 0.096991785 0.04416921 0.1097895 -0.17710215 -0.08652632 0.02122068 -0.017507622
0.066238366 -0.081854984 -0.21010473 0.06555467 -0.015769213 0.26086265 -0.06377842 -0.006353609
0.07609496 0.19668129 0.02025353 -0.19485807 -0.121544145 -0.39519557 0.11925056 0.053089134
-0.16012318 0.23257841 -0.32677054 0.3868587 -0.24187028 0.44399816 -0.3583181 0.047242522
-0.18864498 0.060238644 0.061429124 0.13792156 -0.42180198 0.22631913 0.12223129 -0.34665877
-0.1297118 -0.15282701 -0.44419146 -0.46047604 -0.20113803 -0.07952554 0.3532518 -0.06447124
0.34892654 -0.20621763 0.13197838 -0.16330522 -0.32230306 0.32133934 0.40166917 -0.250178

actor.2.weight f4 [128, 128]
00000000: d2dd 80bd 2bf1 86bd 0200 26bd 0e7d 3ebb
00000010: 12db 853d cd95 d8bd a44e f73d 9b5a 8fbd
00000020: 94ee e1bc da74 9c3a 5d53 c2bd d67f c33d
00000030: 7b3e 77bd 0a74 4e3d dded 183e 4ae7 c63c
00000040: d7df aa3d f00d 613d 7145 0dbd 4f8d 373d
00000050: cb60 07be fc54 e7bc e9e4 733d c43a c2bc
00000060: 2718 cd3d 534c ec3c b5ee 3cbc 7d57 6f3e
00000070: f385 c6bc 9b32 653d 8cd2 a13d 6ad8 febd
00000080: 01fa f3bc 0b93 8fbc 08cf 0b3b 846e f63d
00000090: d099 9dbc 4a29 13be 13a7 063e 1a86 23be
000000a0: aceb 63bd df37 4dbd 6241 a33d 73b0 ddba
000000b0: 0e5f e5bd 5d6b 3c3c 7fcb afbc 3b0f db3d
000000c0: dfc4 01bd a128 583d fc3f 223e a121 d43c
000000d0: 182c f53c 2d61 9fbd e68c f73c ee90 dfbc
000000e0: 03fc b2bc f9ab a33c e871 de3c 020b cf3d
000000f0: 6670 3dbb 6bf3 813a b776 0a3e 46da fbbd
00000100: 13c3 773d e3e9 413c ca46 c43c c585 b43d
00000110: 8131 3dbd 33be 523d e665 f73d 5745 e23c
00000120: 755a d9bc 8b86 2dbc aabc f4bc 95ed 243d
00000130: 853f 4f3d 1a98 cc3d bffc a4bb bd58 f13c
00000140: 24dc 5a3d 81f8 983d 7d1d c3bc 194a 203d
00000150: aabf 2fbc e9d2 f63c 32b5 a63c 36e5 eebd
00000160: 6b50 e8bd 4d99 24be 005c 1a3d dffb 14bd
00000170: 4d00 42bc 9642 02be 72f2 28bd f109 2e3e
00000180: 1e39 6a3c 1e62 33be 2fda 5cbd c836 3dbd
00000190: 72a2 dd3d 6cb8 d23c 85f0 7c3c 56a3 803d
000001a0: cb0b 153d 6226 96bd fa51 c13d c4fd 37bd
000001b0: c036 b23a cd4a 553e 4402 d8bc 193c f9bc
000001c0: 3267 403d b24c fd3c 48fd 103d c90c fa3d
000001d0: 990f 433d 5377 af3d 31a4 b93d d6ab 733c
000001e0: 73c8 21bc 9390 903d 7eff 083d 075f 0f3e
000001f0: ab5b df3d 10ee c8b8 832a f23d 31dc 793d
00000200: cf6b f2bd 1cc6 9b3d 4054 1c3c 9411 783d
00000210: 1338 08bc 069d 65bd bfca b6bd fd68 48be
00000220: 8365 d6bc 51df 173d 1c7e 57bd 2d04 af3b
00000230: ed33 033e 1fac e0bc 3aa3 84bd bdc4 acbd
00000240: 7d9c bbbc 3c2e 2a3a 41ce 9abd bd03 febd
00000250: 227f 4e3d aef0 94bc a805 11bd 21ce a43d
00000260: 8fab cabd 93a3 73bd c604 603d 3d91 0c3c
00000270: 4412 5e3d dab8 09be c09a a33d 4c1c 1d3e
00000280: ee52 cd3c 607d eabc 6470 893d 124a 153c
00000290: 2096 5f3d f329 813d a4b0 acbd 912c c33d
000002a0: 53bc bd3d 23a9 3abd 8c71 27bd 157c 68bd
000002b0: c94b d9bd bf09 923d 6759 d5bd 5c9f 113d
000002c0: 9642 ee3c 3b6b 5b3d 4d6e 96bd ff5a ae3c
000002d0: dfd7 d3bd c34f c83d 73c5 e1bc 4d68 6f3d
000002e0: 5a1d 513d 4522 ffbc 10c9 c7bc 8a65 a33d
000002f0: dbea a23b d9b8 46bd ef6e bcbd 81fa d03d
00000300: d69b 0fbe c4e1 82bd f3b9 c9bd e811 b93c
00000310: cca0 bdbd fef5 c53b fe02 80bd 553f c13d
00000320: f43f 653d 1abb 243e b6d7 2a3d 945a ab3d
00000330: 976d 80bd f32c 903d edbd 2d3d 0745 96bd
00000340: 64fa 1fbe 1d18 df3c a454 713d 2862 43bd
00000350: 154f 123d ac28 f2bd 7559 f43d b505 23bd
00000360: 411e 013e c015 91bc 3c67 8bbd 0a06 ac3d
00000370: f79a acbd f08c 6dbc f62f 053d 2a87 993c
00000380: a99b 06bd ae9b 833c 5844 6a3c 0b34 3c3d
00000390: 2296 1ebd e86e 88bd c233 28be 4baf 883b
000003a0: eb43 203e 8e14 b8bc 2ab0 673d 064a 163e
000003b0: 6ec2 53bd a4ca eebd 9e75 df3c 3526 a4bd
000003c0: ec28 303c 19d2 63bd 67b5 1ebd 6ad3 473e
000003d0: 053c 1b3e 15dd 5ebe c23f 1bbe 7f8b a3bc
000003e0: eeec 26be 312b f0bd a4ba c6bc dc28 1a3e
000003f0: e798 093e f296 d53c 7f63 dcbd d376 d23d
-0.06292309 -0.06588968 -0.04052735 -0.0029066238 0.06535925 -0.10575447 0.120755464 -0.069997035
-0.027579583 0.001193668 -0.094885565 0.09545867 -0.06036232 0.050403632 0.14934488 0.02428021
0.08343475 0.054944932 -0.034490053 0.044812497 -0.13220517 -0.028238766 0.059544478 -0.023709662
0.10014372 0.028844988 -0.011531522 0.23373218 -0.024233794 0.055956464 0.07901487 -0.124436215
-0.029782297 -0.01752617 0.0021333117 0.12032798 -0.019238383 -0.1437122 0.13149671 -0.15969124
-0.055644676 -0.05010211 0.07971455 -0.0016913548 -0.11199771 0.011500207 -0.02145934 0.10696264
-0.03168189 0.05277312 0.1584472 0.025894942 0.029928252 -0.07782207 0.030218553 -0.027290788
-0.021848684 0.019979464 0.027153924 0.101095214 -0.0028906106 0.0009914463 0.13521849 -0.12297492
0.06048877 0.011835548 0.023959536 0.08814577 -0.04618979 0.05145092 0.120799825 0.027620954
-0.026532391 -0.01059116 -0.029875118 0.04026564 0.050597686 0.099899486 -0.0050350125 0.029461259
0.0534326 0.07469273 -0.023817772 0.039133165 -0.010726849 0.030129867 0.020350073 -0.11664812
-0.113434635 -0.16074105 0.037685394 -0.036373015 -0.011840892 -0.12720713 -0.04124684 0.1699598
0.014295844 -0.17517897 -0.053919014 -0.04619482 0.108219996 0.025722705 0.015438204 0.06281154
0.0363882 -0.0733154 0.09439464 -0.044919744 0.0013596639 0.20829315 -0.026368268 -0.030424165
0.046973415 0.03092036 0.035397798 0.1220947 0.047622297 0.08567681 0.0906452 0.014872512
-0.009874451 0.07058825 0.03344678 0.14001094 0.10906156 -9.581086e-05 0.11824515 0.061001007
-0.11836969 0.07606146 0.009541571 0.06056364 -0.00831415 -0.056057952 -0.089253895 -0.195713
-0.026171451 0.037078205 -0.0526105 0.005341074 0.12812777 -0.027425824 -0.064764455 -0.08435962
-0.022901768 0.0006491875 -0.07558871 -0.12403057 0.050414212 -0.018181171 -0.035405785 0.080471285
-0.098960035 -0.05948217 0.054692052 0.008579549 0.05421664 -0.13449422 0.079885006 0.15342826
0.025063958 -0.028624237 0.0671089 0.009111898 0.05458653 0.06306829 -0.08432129 0.09529985
0.092644356 -0.045571458 -0.04087977 -0.05675896 -0.10610158 0.07130765 -0.10417443 0.035552368
0.029084485 0.05356906 -0.07345257 0.021283625 -0.103439085 0.09780838 -0.027559971 0.05844908
0.051053382 -0.03114427 -0.024387866 0.079783514 0.0049718446 -0.04851613 -0.092008464 0.1020403
-0.1402429 -0.063907176 -0.0984992 0.022591546 -0.09259185 0.0060412874 -0.06250571 0.09435908
0.055969194 0.16086999 0.041709624 0.08366886 -0.062709026 0.070398234 0.042417455 -0.07337385
-0.1562286 0.027233178 0.05891861 -0.04770103 0.03571995 -0.11824164 0.11931125 -0.039800365
0.12609197 -0.017710567 -0.068068 0.08399589 -0.08427995 -0.014498934 0.032516442 0.018741209
-0.032863293 0.016065445 0.014298521 0.04594807 -0.038717397 -0.06661779 -0.16425994 0.004171287
0.15650909 -0.022470739 0.056564488 0.14676675 -0.051699094 -0.116597444 0.027277764 -0.080151
0.010751944 -0.055620287 -0.038747218 0.19514242 0.15159614 -0.21764024 -0.1516104 -0.019963978
-0.16301319 -0.11726988 -0.024258919 0.15054649 0.13437234 0.026072953 -0.10761165 0.1027657

actor.2.bias f4 [128]
00000000: 4e1e 1e3d 5fff 853d 6a32 333e 1eb2 00bd
00000010: d16e c5bd 1ba3 6a3b f2bd 133f 163c 123f
00000020: 0c7c 97bd 11ae 63be 5724 1c3e f3a2 84bd
00000030: 78a9 9cbd f8f5 853d 5c00 383d 0a82 4c3f
00000040: b88f 94be b655 c4be 5e5e 9e3b 6235 ff3c
00000050: a808 933d acdd d0bd 3fa8 693c 0c7a a7be
00000060: ed9e 763d f899 8f3d 7653 73bb 3b4a 6bbe
00000070: 3bb8 7bbd 5fbb 11be 1609 05be ded7 ce3d
00000080: cd4e 92bd 561d 7bbe 5e78 9cbc d492 a5bd
00000090: de80 0cbd 929b 9e3c 0f2c 9ebd ee08 0d3e
000000a0: 6aa3 3e3e 97bc f33c cedd 11be 4d6b e1bd
000000b0: 804b a5bd 2144 b43d c811 45bd 52fb 1b3d
000000c0: 2412 6b3d 4d4f 5d3d 4e96 e3bc 640f d4be
000000d0: c611 363b 4083 cfbe 4740 163f b0f7 5d3d
000000e0: c1f2 4b3d ebc4 b83d 5cd6 bb3d 0150 05be
000000f0: de84 363d 616c 9ebc 558f a6bc 66db 873d
00000100: 69cb 45bd c770 b63e 1724 113c 0a33 b3bb
00000110: dd4a 4ebc cb72 9a3d 2bfd 73bd bfaa 94be
00000120: 4172 8fbd 0cbb 26bd 9e25 b5bd 4042 683b
00000130: 66f2 f7bd f068 b03d 4e22 92bd 07ef ed3d
00000140: 381d babe 04c8 89bd d982 f03c ce83 a0bd
00000150: ac66 d5bc db1b 813d 8c4b 15be c7d5 d7be
00000160: 070b 923e d264 733e 2bfe 3e3c 3d7e bebd
00000170: 453b 063d cc1e 373d efa5 293c 9785 42ba
00000180: f69f a4bc 7f6c 98bd 6cad a53d 65aa b2bd
00000190: 9f0c 873e d65a 1ebc b6cc 79bd f400 00bd
000001a0: 770e c73d c016 09bd c9bc a1bd f5af 953d
000001b0: aa3e 1cbf 8e29 233b 5ffc af3b 3282 203e
000001c0: c7ce 5cbd 5791 91bc fb2d 293d b0e5 4a3d
000001d0: d3f7 73be 910a 9fbc 42a8 ce3a 19ab 2a3e
000001e0: 1177 c63c d3f9 27bf 0d0a fb3d bcfb 98bd
000001f0: 8e93 64bd ffd5 003f 6d15 aa3e 1b8c e1bd
0.03860312 0.06542849 0.174997 -0.031419866 -0.09640277 0.0035802785 0.5771171 0.57122934
-0.07396707 -0.2223437 0.15248238 -0.064763926 -0.07649511 0.065410554 0.044922218 0.79885924
-0.290159 -0.38346642 0.004833027 0.031153385 0.071793854 -0.101985306 0.014261304 -0.32710302
0.060210157 0.07011789 -0.0037128604 -0.22977535 -0.061454993 -0.14231633 -0.12991747 0.10099767
-0.07143936 -0.2452291 -0.019100364 -0.08084646 -0.034302585 0.019361291 -0.07723247 0.13772938
0.18617025 0.029753013 -0.14244768 -0.11006794 -0.08071041 0.08802057 -0.04811266 0.038081475
0.057390347 0.054030705 -0.027781632 -0.41417992 0.002778159 -0.40529823 0.5869183 0.05419129
0.049792055 0.09021934 0.09171745 -0.130188 0.044560306 -0.019338788 -0.020332018 0.06633644
-0.04828969 0.35632917 0.008858702 -0.005468731 -0.012591091 0.07541426 -0.05956761 -0.2903652
-0.07004214 -0.040705726 -0.088450655 0.0035439879 -0.12106781 0.08613765 -0.07135449 0.116178565
-0.36350417 -0.06727603 0.029359268 -0.0783764 -0.026049934 0.06304141 -0.145796 -0.42155287
0.28524038 0.23768929 0.011657278 -0.09301422 0.032771368 0.044707105 0.010354503 -0.0007420419
-0.020095807 -0.07442569 0.08089718 -0.087239064 0.26376817 -0.009665212 -0.060986243 -0.03125091
0.09719556 -0.03346896 -0.07897336 0.07308952 -0.6103312 0.0024896595 0.005370661 0.15674666
-0.053908136 -0.017769499 0.041303616 0.049535453 -0.23825006 -0.019414218 0.0015766697 0.16666831
0.024226697 -0.65615577 0.122577764 -0.074698895 -0.05580478 0.5032653 0.33219472 -0.11013051

actor.4.weight f4 [4, 128]
00000000: f6c6 b6bb c7a5 3c3c 3941 e1bd 2106 093c
00000010: fb79 7dbc 84e3 88bc a0eb cd3d 9aba 063e
00000020: a12b 473c 56ef 80bd 85cf b6bd 0217 8dbe
00000030: baae ba3c 6240 593d fb6e d2bb 8232 753e
00000040: f2b7 c63d 6cb3 733d 79b6 5cbc c34f 593c
00000050: 17f5 14bc 9837 863c f274 c53b 4db4 56bd
00000060: 5c25 003c 7401 c63b 3108 b83b 749e 3cbd
00000070: d813 deba fb5a ae3c 405b c7bd cadf 5abc
00000080: 7e87 34bb ece4 72bd b135 bd3b 1c5f acb9
00000090: 9e6f 0bbc fc82 013c 511f 96bd d647 dbbd
000000a0: 80e4 1b3d b489 46bd 8da3 82bb 7051 93bc
000000b0: 06e0 723d 6e63 4a3a 0f4a a2bc 635e a13b
000000c0: ceae 4dbb 470b 1fbc 6320 253c f6e2 abbd
000000d0: dfba 4ebb 4a57 63be cb38 b53d f038 16bc
000000e0: 299e d738 84ef c13b 58e3 063d cce8 563c
000000f0: 9ec2 2bbc a643 293c 2cdf 6a3b 0d2d 443e
00000100: a1fb 223c 556f 323e e025 c13b 7ab9 c53c
00000110: 10fd 2dbb 1445 483c 7ad3 02bc 1158 a8bb
00000120: a35c 09bc 78be e3bb 4074 b73d 63d0 47bb
00000130: a7a5 8c3b d135 deba 7e6a 1a3e 410f 7cbd
00000140: 74e4 103e fa32 183b 2a42 17bb 4da4 f4bb
00000150: 5bd2 79bc c76c 4b3a 8a51 8dbd 86e3 343c
00000160: cdf7 a93d 1299 dd3e 9715 3438 86ef a7bb
00000170: a042 243b 284b 133b e44f 7c3a 7f76 89bb
00000180: 9bc3 35bc a20b 1e3b 1d0b 9139 b1a7 3cba
00000190: 7510 fdbc ef0f f5ba 7cc6 7dbc f503 5abb
000001a0: af7f e73a ee8a 213b b903 413c 3684 b73c
000001b0: 2f72 bdbe 314f b6bc 197e 2b3c b93c a93e
000001c0: 3b67 903e 46e4 8fba 0e45 d7bb c3c5 283c
000001d0: 5188 1b3e b692 40bc 6172 c8bb bca9 e53d
000001e0: 9af6 87bc 8758 d1bd a00e 67be 4645 98bd
000001f0: 0b04 f539 3324 02be 6ff0 663d a277 523c
00000200: d245 f43a ccaa 393a 8033 063b 021a 77ba
00000210: 2b8a 1738 feca da38 7091 063d ebb9 493c
00000220: 1d75 6239 d97e 09bd f703 013d fc4d 41bc
00000230: 414f 19bd c1a8 49ba 8169 7e38 06e6 483e
00000240: dd65 cbbb 0988 dfbc 634d 783a c728 50ba
00000250: 9be7 ef38 c211 69ba 71fb d8b9 37ce 28bd
00000260: 806d 0b3a 53c8 243a f896 efba 1a68 013d
00000270: e728 3e36 82b7 f93d c1ef 00bc 32a1 a8b9
00000280: 4ea1 253a b1e2 32bd 60c4 b339 713e 57b9
00000290: c179 8fb9 a631 a03a 8a53 ea3b d62c 50bb
000002a0: 508c 743d 055e 8039 8c93 c2ba 95bd 003a
000002b0: 3ed3 b4ba 496b 3e39 42b9 2a39 0a40 19ba
000002c0: 13a2 c6b9 81e3 2d38 cfcc dab7 1858 7bbd
000002d0: e1d5 5c3a 8832 5dbc f43d df3e e8b2 be3a
000002e0: f715 2539 aca5 b839 7dba 75ba 6c97 a23a
000002f0: 33cb 44ba 507d a4ba 71ff e536 4175 363b
00000300: 22c5 31ba bc19 9e3c 6047 fcb8 0b37 0dba
00000310: 6124 5dba b417 423b e61d 1c3a 4fce ccbc
00000320: c02b 9639 c3a0 363a 36de 3d3d 0dc5 57ba
00000330: 8627 0039 3451 42ba a8b8 153a de4e 1abe
00000340: 821d c93d d980 8f3a 0ba8 15ba bb1d 7fba
00000350: 9d0b 1f3a ba06 baba 5079 c13d 6227 e23d
00000360: aef8 b13a 73be 2d3c 892c 15b9 08e3 3aba
00000370: 13ab c5b9 35e8 21ba 865c b1ba 78b2 69b9
00000380: 5e0e c239 cbf7 7fba 44ca 2c3a 3297 12ba
00000390: 140f 903c a27e cbba cf9b 59b6 f2fb c03a
000003a0: 3698 8eba 5fe1 b5ba 5b54 03ba b5b6 b1ba
000003b0: bc22 433d 02ea 433a b560 f639 64a5 5d3d
000003c0: 69e6 ffbb 1dfa 5cba e791 6ab8 5afa 003a
000003d0: 6159 cabc fa9b 6c3a 5455 53b9 bad7 5d3d
000003e0: 0b60 07b9 c95b a2bc 2df8 373d 32e2 68ba
000003f0: b5c0 2dba 358b b33d 9ed9 dd3c bcc4 caba
-0.005577917 0.011514134 -0.10998768 0.008363278 -0.015470977 -0.01671005 0.100547075 0.1315712
0.012156398 -0.0629565 -0.089263 -0.27556616 0.022788394 0.053039916 -0.0064219213 0.23945048
0.097030535 0.059497282 -0.013471239 0.013263646 -0.009091637 0.016383931 0.006025904 -0.052418042
0.007821407 0.0060426537 0.005616211 -0.04604955 -0.001694317 0.021283617 -0.097342014 -0.0133590195
-0.002754658 -0.05930035 0.005774223 -0.00032877258 -0.008510498 0.007904764 -0.07330192 -0.10707061
0.03805971 -0.048471168 -0.003986782 -0.017983168 0.059295677 0.00077205047 -0.019810705 0.004924582
-0.003138471 -0.009707279 0.010078522 -0.08392899 -0.003154449 -0.22201267 0.08848723 -0.009168848
0.000102814585 0.005918445 0.032931656 0.013117027 -0.010483412 0.01033107 0.0035838587 0.1915781
0.009947688 0.17425282 0.0058944076 0.024136294 -0.0026548542 0.012223501 -0.00798499 -0.0051374515
-0.008383903 -0.006950196 0.0895772 -0.0030489198 0.0042922082 -0.0016953294 0.15079686 -0.061537985
0.14149648 0.0023223744 -0.0023080208 -0.0074658752 -0.015247907 0.00077600445 -0.06900318 0.011040574
0.082992174 0.43280846 4.293545e-05 -0.005124989 0.0025064126 0.0022475217 0.0009624942 -0.004195034
-0.011093999 0.002411582 0.00027664835 -0.0007196619 -0.030891636 -0.0018696765 -0.015489217 -0.0033266519
0.0017661954 0.002464946 0.011780673 0.02240191 -0.37001178 -0.022254558 0.010467076 0.3305414
0.2820376 -0.0010978065 -0.0065695113 0.010301056 0.1518872 -0.011753729 -0.0061171507 0.11214015
-0.016597081 -0.102219634 -0.22564173 -0.07435088 0.00046733054 -0.12709121 0.05638164 0.0128459055
0.0018636531 0.00070826407 0.0020477474 -0.0009426178 3.6129884e-05 0.0001043286 0.032853544 0.012312393
0.00021596668 -0.033568237 0.03149792 -0.011798378 -0.037429098 -0.0007692688 6.0656577e-05 0.19618997
-0.0062072114 -0.027286546 0.0009471981 -0.00079406466 0.00011439548 -0.0008890891 -0.0004138607 -0.041212287
0.0005318746 0.0006285954 -0.0018279245 0.03159342 2.8336015e-06 0.121932045 -0.007869662 -0.00032163557
0.0006318287 -0.04367322 0.0003428785 -0.00020527259 -0.000273658 0.0012221828 0.007151072 -0.0031765006
0.059704125 0.00024484113 -0.0014844998 0.00049110624 -0.0013795865 0.00018159779 0.00016281477 -0.00058460294
-0.00037886258 4.1458294e-05 -2.6082997e-05 -0.06136331 0.00084242044 -0.013500817 0.43601954 0.0014549168
0.00015743809 0.0003521865 -0.0009373797 0.0012404746 -0.00075070857 -0.0012549553 6.854469e-06 0.0027840885
-0.0006781389 0.01929938 -0.00012029591 -0.0005386925 -0.0008435902 0.002961618 0.0005955383 -0.02500072
0.00028642826 0.00069667044 0.046354495 -0.0008230962 0.00012221755 -0.0007412613 0.0005711415 -0.15069148
0.09820081 0.0010948434 -0.0005708939 -0.0009731908 0.0006067099 -0.0014192678 0.09446967 0.11042668
0.0013578141 0.010604489 -0.00014226338 -0.0007129167 -0.00037702228 -0.0006176264 -0.0013531602 -0.00022287096
0.00037013268 -0.0009764402 0.0006591419 -0.0005591988 0.017585315 -0.001552541 -3.2426212e-06 0.0014723523
-0.0010879103 -0.001387637 -0.00050098234 -0.0013558479 0.047640547 0.00074735295 0.0004699283 0.054112807
-0.0078094495 -0.0008429604 -5.592583e-05 0.0004920118 -0.024700822 0.0009025928 -0.00020154315 0.05416081
-0.00012910382 -0.019819157 0.044914413 -0.00088838034 -0.0006628142 0.08766786 0.027081307 -0.0015470008

actor.4.bias f4 [4]
00000000: 3498 033f 144e dc3e 8a2b f93e 82d3 8d3e
0.5140412 0.4302832 0.4866603 0.2770043

critic.0.weight f4 [128, 17]
00000000: f211 083e 48b0 e4bf a3b8 06c0 ccc9 30bb
00000010: 987b 33be 0217 233f 16e7 cb3f e0f6 11bf
00000020: 3ddf c33f 79f7 6a3e 5116 003f 2bf5 2d3f
00000030: 8a6b 47be e512 c5bd 7b10 18be 46d9 e2bd
00000040: 8c05 5abe a4bd 5bbf 35c3 413f cb20 98bf
00000050: 1637 df3e 2231 d63c ba80 933f 55d6 81be
00000060: 7cfe c83f 6a9d d4bd 8a45 8c3f 2fa2 b6bb
00000070: 23b0 93be 7723 c5be 60a6 9db7 5f31 833d
00000080: fe87 763d e2eb dd3d 5e88 033f 785b 5140
00000090: 896d 35c0 8881 6dbd ddab 4c3d 0887 29bf
000000a0: 97cd 973e c008 123d c5c9 163f 304f 5dbf
000000b0: 2360 d9bf 6e8e 233e ae75 4bbf 9653 5bbd
000000c0: 1669 a2bd 6779 e73c af76 1c3e 68f1 7bbf
000000d0: e19d b040 b8f3 0bbf 7da1 aebe 4ca5 3abf
000000e0: 02b3 4cc0 78db db3e ed6a c63f 9a32 9d3e
000000f0: a637 85bd a5d7 43be 6094 14be 8fa9 633e
00000100: 9e54 d1bc 5a66 70be 490a 20bd 10ee e3bd
00000110: c1de f13f 4c5e f33f 41ae 52c0 bf2e c9be
00000120: e37c 773f 5eaf dd3e 420c 3abf de4d 2ebf
00000130: e85c e73f 66e2 843f 7122 293f 0806 68bf
00000140: ef7e 69bf cd1e fbbd ed55 20bd 8d74 6bbd
00000150: ceff fdbd a393 01c0 b412 e1bf ec6b a0be
00000160: 7ccb f13d 087d c9bd ab32 c5bf dbf6 7b3e
00000170: acd0 b13d 3760 fa3d 73df 35bf 2e3f d23e
00000180: 9a07 05bf 60c0 5ebf e78b 19be 41fe 22bc
00000190: 94d3 18bd c5f1 02bc 8aa4 0a3f c3f1 b63c
000001a0: 6761 ed3f 5e6a 80bf 4228 4140 4efa 5d3e
000001b0: be5e 913e 3982 0d3e 9531 77bf 11fe 82bf
000001c0: 2bf4 c5bd a570 153d a849 ca3e c31f 823c
000001d0: c843 4ebd 2808 363d 0718 873d f771 82bf
000001e0: b8b2 923f b4f1 3cbf b065 96be d901 7b3f
000001f0: 4612 32bf 1a77 24be e46d 6c3e eecb aa3f
00000200: 66be 58bf f523 65bf e6e0 1840 786e 0d3f
00000210: 0a3e 90be 2040 c2be 863e 8dbe f7fa f7bd
00000220: 464a 863f 346d b1bf f1df e9c0 dc54 183f
00000230: 9227 033f 0b3f e0be 2f34 383f 38fa 64bf
00000240: 5699 803f 8c2e 153f 045e 863d 3dcb 28be
00000250: 7bba be3d c296 043d 12d2 483d 1d99 cf3b
00000260: 1078 c23d 70ba 3ebf 9f20 133f 2166 d83f
00000270: 2f66 f4be 779e 7abf 1860 ba3e 6c63 5dbe
00000280: 1f3f 40bf f494 f9bf 0911 c4be 2d5d 9a3f
00000290: 26bd 2f3f 8d85 4f40 60be f63d 360a 6b3d
000002a0: d256 353e 86bd 42bb 7cbb e53f da2a 57c0
000002b0: 23c2 eabf 3b76 823e 8806 94bf b167 d43e
000002c0: accc 2a3f 1763 923d 64d3 f5be d159 6fbe
000002d0: 7bc2 bcbe 6cbd 0c3f d3a8 dc3d 7570 a4bc
000002e0: f09d 943d 8ab7 1a3e f412 033e c6ae 14c0
000002f0: f0a3 413f 3a54 47c0 28a0 32bf 9311 b73f
00000300: 87cf 513f 5c53 0bbd 7d6a 34be 795b 583e
00000310: e82b 12bf dafd 97bd 6324 173d f78a ff3e
00000320: 738b c9bd 98d5 06be f9d0 fe3d 3418 8b3d
00000330: f8a8 8fbe 436c 04c0 a8b1 5d3f 7466 883e
00000340: a5d1 ebbe e9ce 56bf ff8b 9f3f 7ae1 303f
00000350: cf2e 623f 7e48 b1be 7ad5 44c0 acef 0140
00000360: 91fd b1be 9d57 29be 6a56 71be 0acc 9fbe
00000370: 29c2 31be fa28 aabf c423 3640 bf1a 0940
00000380: aec2 3b3e 6c93 df3f 475c 8a3f 503c 17c0
00000390: 2105 c5bf 461a 4cbf 01b9 2e3f 4815 e33e
000003a0: ddb6 33bc c876 f0bd 2028 0d3e d154 023e
000003b0: 7105 f93d 795e 083e fe18 163f ae40 8fbf
000003c0: aa5a e2bf 7a43 89bf 849a ab3f ead1 c73f
000003d0: da1a 8b3d 9733 033f 76e5 31bf ec7a 4b3f
000003e0: 2402 113e 5e72 983d 40b3 5dbe 6f4d 76bd
000003f0: a316 dfbd 3e8f 093d 73ef 933d 2d5c 68bf
0.13288096 -1.7866297 -2.1050193 -0.002697575 -0.17527616 0.6370698 1.5929897 -0.57017326
1.5302502 0.22945966 0.5003405 0.6795222 -0.19474617 -0.096227445 -0.14850037 -0.11076598
-0.21291178 -0.85836244 0.7568849 -1.1885008 0.43596715 0.026146475 1.1523659 -0.25358835
1.5702662 -0.10381587 1.0958722 -0.005573533 -0.2884532 -0.3850362 -1.8793333e-05 0.06405901
0.060188286 0.10836007 0.51379955 3.2712078 -2.8348105 -0.05798486 0.04996859 -0.66221666
0.2964904 0.035652876 0.58901626 -0.86448956 -1.6982464 0.15972301 -0.7947644 -0.05354651
-0.079302 0.028256131 0.15279649 -0.9841523 5.5192723 -0.5466876 -0.3410758 -0.72908473
-3.1984258 0.4294088 1.5501381 0.30702668 -0.06504755 -0.1912523 -0.14509726 0.2223265
-0.025553044 -0.23476544 -0.03907231 -0.11129391 1.8896104 1.9013152 -3.2918856 -0.39293477
0.96674937 0.43297857 -0.72674954 -0.68087566 1.8075228 1.0381591 0.6606818 -0.906342
-0.9120931 -0.12261734 -0.039144445 -0.0574842 -0.124023065 -2.024636 -1.7583833 -0.31332338
0.1180639 -0.09838301 -1.5406088 0.24605887 0.08682379 0.12225383 -0.7104408 0.41063827
-0.51964724 -0.8701229 -0.14994775 -0.009948314 -0.03731115 -0.007992213 0.54157317 0.022332078
1.854535 -1.0032461 3.0180821 0.21677515 0.28392595 0.13819207 -0.9656003 -1.0233785
-0.09665712 0.03648438 0.3950932 0.015884286 -0.05035761 0.044441372 0.0659638 -1.0191029
1.1460791 -0.7380631 -0.29374456 0.98049694 -0.69559133 -0.16061059 0.23088795 1.3343484
-0.84665525 -0.8950799 2.3887267 0.55246687 -0.28172332 -0.37939548 -0.27586764 -0.121084146
1.0491416 -1.3861451 -7.3085866 0.59504485 0.51232255 -0.43798098 0.71954626 -0.89444304
1.0046794 0.5827415 0.06560901 -0.16483779 0.09312912 0.032370336 0.049028464 0.006335391
0.09495556 -0.7450323 0.5747165 1.6906167 -0.4773421 -0.9789805 0.3640144 -0.21619958
-0.75096315 -1.9498582 -0.38294247 1.2059685 0.6864799 3.2425263 0.1204803 0.057382785
0.177089 -0.0029715016 1.7947841 -3.3619905 -1.8340496 0.25480828 -1.1564493 0.4148536
0.66718554 0.07147806 -0.4801284 -0.23374106 -0.36867127 0.54976535 0.10774388 -0.020073155
0.07256687 0.15109077 0.12800199 -2.3231673 0.75640774 -3.1145158 -0.6977563 1.4302238
0.81957287 -0.034015045 -0.17618747 0.21128644 -0.57098246 -0.07421465 0.036899935 0.4991071
-0.09841051 -0.13167417 0.12442202 0.06791726 -0.280586 -2.0691078 0.86599207 0.26640666
-0.46058384 -0.8390947 1.2464598 0.6909405 0.88352674 -0.3462562 -3.0755296 2.0302534
-0.34763768 -0.16537328 -0.2356812 -0.31210357 -0.17359222 -1.3293755 2.845933 2.1422575
0.18335983 1.7466865 1.0809411 -2.3630562 -1.539219 -0.7972759 0.68251044 0.44352174
-0.010968891 -0.11741406 0.13784838 0.12727667 0.12159241 0.13317288 0.58631885 -1.1191614
-1.7683918 -1.0723717 1.340653 1.5610936 0.06792231 0.51250595 -0.69490755 0.7948444
0.14160973 0.07443689 -0.2165041 -0.06013244 -0.108929895 0.033583872 0.07223406 -0.9076565

critic.0.bias f4 [128]
00000000: 0021 04be eb84 4d3e 01f8 193e fe11 81be
00000010: bb1f 94be 5e33 33bf 553d 05bf 1846 04be
00000020: 3dc8 ab3d df83 9bbe 5602 9dbd 2583 18be
00000030: 5f23 e0bc e2aa 873e 19e6 71bf d410 33be
00000040: 3344 a8be afbc 34be 3e92 adbc 1880 c63e
00000050: 83ac ee3d 8fe8 043f ae1b 75be 276e 65be
00000060: f5d7 99be da43 1a3e 2e23 eabd a104 003f
00000070: 4225 9ebb 77c2 ae3d f455 efbd facb 5a3e
00000080: 5477 12bf 90b1 f63d f254 2bbe c681 d5be
00000090: 646c d9be d430 123e e277 e9be 6f24 96be
000000a0: b3d7 853e 4ed8 4c3e e4ee 3bbf 6085 653d
000000b0: 4711 a4be 6357 713e 5c41 8cbc 2c23 f63d
000000c0: 5ae7 0dbe 0491 99be 7000 d93d 529e 3fbe
000000d0: 0cdd 43bc 3206 633e 6df7 a13d 44c4 243f
000000e0: bc2c 5f3e 2a29 38be ae03 f4bd e3e6 50be
000000f0: 9844 d53c 3146 a83b e1b5 7b3b 9f23 053f
00000100: 0e6a 203e 4f51 f9be e2ac 9fbe 1a72 dc3e
00000110: fc09 fcbd 78ea ea3c b33b 733b e78e 68bd
00000120: 8104 babd f39c cfbe 05d5 a0bd db56 83be
00000130: fd07 06be 9b6f 503e 4c6c d0bc a75e f33e
00000140: 4cc2 823e fc31 5cbe 2c5e 513e 883b 943e
00000150: 2f25 2a3d c51b 58bd f8ad 14be 8f21 80be
00000160: 9999 87be 7f30 853e c676 8a3e 1617 55be
00000170: 6ec6 debd 7cb6 9cbc 628b 80be 6908 d0be
00000180: 49ef 15be fc1d a83e 0202 efbc 7136 e33e
00000190: 5ece b6be f3f6 1dbe 4022 ca3d 3e0a 95bd
000001a0: 9409 0f3e cbf5 ec3d 5d6c a63d 1271 b8bd
000001b0: 0380 253e aa20 123e af8e 903d ab60 913e
000001c0: 6a74 0d3f 52ac 2ebf 3cf7 273e 754e bd3e
000001d0: c236 abbe 116c e0be 6ecb 763e 0088 95bb
000001e0: 97e7 8b3c 95e6 35be c98e 9fbc 1bdf 7dbd
000001f0: de1b 4fbe 32ce 9d3e 4d20 65be 5769 0ebf
-0.12903214 0.20070235 0.15036012 -0.2520904 -0.28930458 -0.70000255 -0.5204671 -0.12917364
0.08387802 -0.30374047 -0.07666461 -0.14893778 -0.027360616 0.2649756 -0.94491726 -0.17486888
-0.32864532 -0.17650102 -0.021187898 0.38769603 0.11653998 0.51917356 -0.2393634 -0.22405301
-0.30047575 0.15064946 -0.11432491 0.50007063 -0.004826219 0.08533185 -0.11686316 0.21366873
-0.5721333 0.12045586 -0.16731623 -0.41700572 -0.42465508 0.14276439 -0.45599276 -0.29324672
0.26141128 0.20004389 -0.73411393 0.0560354 -0.32044432 0.23568492 -0.01712101 0.12018427
-0.13857785 -0.2999345 0.105957866 -0.18712738 -0.011954557 0.22170332 0.07908521 0.6436198
0.21794409 -0.17984453 -0.11914764 -0.20400576 0.026033685 0.0051353206 0.0038407969 0.5200748
0.15665457 -0.48694846 -0.31186587 0.43055803 -0.12306592 0.028676257 0.003711444 -0.056776907
-0.0908289 -0.4054943 -0.0785313 -0.25652203 -0.13088985 0.20355074 -0.025442265 0.47533152
0.25538862 -0.21503443 0.2044608 0.2895167 0.041539367 -0.052760858 -0.14519489 -0.25025603
-0.26484373 0.26013562 0.27043742 -0.20809588 -0.10877691 -0.019129984 -0.2510634 -0.40631416
-0.14642061 0.32835376 -0.029175762 0.44377473 -0.3570432 -0.15426235 0.09869814 -0.07277344
0.13968498 0.11570319 0.081261374 -0.090059415 0.16162114 0.14270273 0.07058465 0.28394064
0.5525576 -0.6823169 0.16402906 0.3697392 -0.33440214 -0.43832448 0.2410104 -0.0045633316
0.017078204 -0.17763741 -0.019477265 -0.061980348 -0.20225474 0.30821377 -0.22375603 -0.55629486

critic.2.weight f4 [128, 128]
00000000: a9c0 24be 25a7 13be 1180 4dbe 375e b3be
00000010: 6e02 15be 237c dd3e 6344 d53e c418 4abe
00000020: 7e53 8d3f 77d6 18bd 3a7d 9d3d b5b0 a8bf
00000030: 6919 3bbf a83d 79bf 54a0 f53b 59cf a8bd
00000040: 6167 1a3f 79d1 033f 8482 0ebe b09d 8fbf
00000050: e378 b4be f096 a73e 84bf 853e c21f 843f
00000060: 98be 3a3d 8881 903e 51ff 37bf 95a9 e93e
00000070: 99dd 08be 48cf 3fbf bf83 aabe 82dc 61bf
00000080: 5f0f 34bf 98de 8dbe 0923 183f c998 3abf
00000090: c2bf ec3e 5cae fb3d faa8 583e 3263 a4be
000000a0: 2b2d b23e 227f dd3d 4f95 d03c c60c c83e
000000b0: c884 4ebf 0adf 53be a1bf 37bd 1437 01bf
000000c0: ffae 883f 17f8 313f 1e26 843f 88cf 143e
000000d0: 72cb 2cbc f37f c53e 836e 833f 8fe9 973f
000000e0: 6b09 e4bd 2035 853e 9592 4c3f 2349 493f
000000f0: 39e3 15be f251 08bf 3c1f 84bf 9cad 1f3f
00000100: f492 32bf aed3 44be 4306 04c0 7a0a 01bf
00000110: db4d e9be 4290 cebd e1b3 e03c fc60 893c
00000120: b3cf 1e3f 5176 8abe a96e 5a3f edca 4abe
00000130: a0c8 453f b565 d2be 2fa4 26bf a908 cd3e
00000140: 74e0 e0be cfbc f93d 6425 9d3e df2a bebf
00000150: dacf 4a3e 5c97 473e 9fc3 0e3d 83f6 323c
00000160: f720 303f 191a 863f f4ad ed3e df14 023f
00000170: 5da9 ed3d ea98 82be 9c94 913d d94b 5ebe
00000180: 74ab b9bd 4745 073f f766 223f a766 b7be
00000190: 7173 14bc b31e 0e3f b0ff e33e ef1d 233f
000001a0: 62d7 933e f761 3e3f a9f7 1b3e 067c d5be
000001b0: f256 1ebf 4f5e dbbe 6e52 fe3e 6f6f 8e3e
000001c0: 8f17 ffbd 6b23 c13e ee1f dd3e 8476 d5bf
000001d0: 07c6 373f a6fb 8e3f 148f 633f 8f4f 24be
000001e0: a14e 27bf 4697 23bf 3c87 94be d7e2 013e
000001f0: 322e ac3e 5e00 06be 437c 49bf beb3 d53e
00000200: ba8a 15bf e21a a0be f59c 5d3e 4679 a23f
00000210: f446 bd3d 0328 913f eaf9 083f de01 bfbd
00000220: 656a 1abe e885 853e 38c7 113f 2858 66bf
00000230: 4f66 94be 4e7c 7dbf 937a 2f3e d021 2c3e
00000240: d25c 8a3e 466f fe3e d92a 1b3e e728 bd3e
00000250: 7e5c 983e 62fd 013f 21ba e33e 8980 47be
00000260: ef58 92be 5ebb f2bc 2864 6e3d 8c50 81bf
00000270: fed1 04be c391 073d 0cad 1bbf 94ca 873f
00000280: 8ace b2bd 7423 00bb e111 3dbf bcd5 3b3f
00000290: 6c8e 763f 59c2 363e 51f5 663f cfd2 813b
000002a0: dd88 863f 6214 f93d 329a 283f 0d92 febd
000002b0: 62e0 bebe 4788 9ebe da85 203e 9a91 f43a
000002c0: a554 5f3e be7d fa3e b36b 8c3f afc6 453f
000002d0: d6fb c33e 49d7 393f a26c 52bf 0a21 c7bb
000002e0: 22a3 25bf 8f51 cdbd 9d99 423e 8431 0e3e
000002f0: bcee 14bf e378 63bf 365f 10bf 3603 2c3f
00000300: 32ad 72bf 7e4c c2be 9125 e2be 8702 66be
00000310: 4a4f a5bd 1605 4b3f 8f55 1b3c 02e3 f6be
00000320: 92a6 2f3f 8484 a63e 1e23 143f a094 fb3d
00000330: a28c d2be b530 9c3e 6f51 a7bf f0ac 11bf
00000340: bf5d 323d 5718 da3e a868 f8be c28c 6ebf
00000350: e993 f0bc b901 523f 25fa 2fbe a085 5dbf
00000360: a12e 073e 2a87 073d 32d3 823e d39e ee3e
00000370: 42c7 4b3d 334b 6cbe 03b5 2e3f 0421 b63e
00000380: 25ae 773e 5241 b43f 8945 773f 0b89 e13d
00000390: cdf4 8a3f 3c86 3cbe 1c07 d2be c7d1 d2bb
000003a0: 0439 d93e 8666 95bc 9c31 8bbe db63 6fbf
000003b0: 2c0d ca3d cdb2 79be f328 1e3e 566d 05bf
000003c0: 0428 abbd 52e4 2b3f 22ce c6bc 1115 9bbf
000003d0: ec2c c0bd fe3f 2f3e 825f ea3d b77b c9be
000003e0: 8f34 81be d1b6 42bf 7c0c 3e3f b5ae fb3d
000003f0: df45 c23e b27f c9bd 75c7 86bf b158 0cbe
-0.16089119 -0.1441923 -0.20068385 -0.35032818 -0.14551708 0.4325877 0.41653737 -0.1973601
1.1041105 -0.037313905 0.07689901 -1.3178927 -0.7308565 -0.97359705 0.0074959192 -0.082426734
0.60313994 0.51491505 -0.13916975 -1.1219997 -0.3524848 0.32732344 0.26122677 1.0322192
0.04559192 0.28223825 -0.71873957 0.45637193 -0.13365783 -0.7492566 -0.3330364 -0.88227093
-0.70335954 -0.27708888 0.5942846 -0.7288938 0.4624005 0.12289116 0.2115821 -0.3210693
0.34800085 0.10815264 0.02546182 0.39072245 -0.8067136 -0.20690551 -0.044860486 -0.5047467
1.0678405 0.6951918 1.0324132 0.14532292 -0.010546552 0.3857418 1.02681 1.1868151
-0.11134609 0.26017094 0.79911166 0.7862722 -0.1463746 -0.5325004 -1.0322032 0.6237428
-0.6975548 -0.19221374 -2.0628822 -0.5040661 -0.45567212 -0.10086109 0.027429523 0.016769879
0.62035674 -0.27043393 0.85325104 -0.19803973 0.77259254 -0.4109322 -0.65094274 0.4004567
-0.43921244 0.121942155 0.3069259 -1.4856833 0.19805852 0.19491333 0.034854528 0.010923031
0.688003 1.0476714 0.46421778 0.50813097 0.11604569 -0.2550729 0.07108423 -0.21708621
-0.09065905 0.52840084 0.6343836 -0.35820505 -0.0090607265 0.55515593 0.44531012 0.6371755
0.28875262 0.7436823 0.15231194 -0.41696185 -0.6185142 -0.4284539 0.49672264 0.27819392
-0.12455665 0.37722334 0.43188423 -1.6676793 0.7178654 1.1170547 0.88890195 -0.16045974
-0.65354353 -0.639027 -0.29009426 0.12684189 0.33628994 -0.13086078 -0.78705233 0.41738695
-0.58414805 -0.3127051 0.21641906 1.269326 0.09242049 1.1340336 0.5350634 -0.09326528
-0.15079649 0.26078725 0.5694461 -0.89978266 -0.28984305 -0.990178 0.17136602 0.16809773
0.2702394 0.4969427 0.15153064 0.3694527 0.29758066 0.50777256 0.44477943 -0.19482626
-0.28583476 -0.02963036 0.058200985 -1.0102706 -0.1297073 0.033097994 -0.60810924 1.0608697
-0.087308004 -0.0019552382 -0.73855406 0.7337301 0.9631107 0.17847575 0.90218073 0.003961898
1.0510517 0.12162091 0.65860283 -0.12430201 -0.37280566 -0.30963346 0.1567606 0.0018659115
0.21809633 0.4892406 1.0970367 0.7725629 0.38278073 0.72594124 -0.8219701 -0.0060769366
-0.64702046 -0.10025322 0.19003911 0.13886076 -0.5817678 -0.88856333 -0.5639528 0.671924
-0.94795525 -0.37948984 -0.44169286 -0.22461902 -0.08071764 0.79304636 0.009480848 -0.48220068
0.6861354 0.32522976 0.57866085 0.12284207 -0.4112292 0.3050591 -1.3071727 -0.56904507
0.043546434 0.42596695 -0.48517346 -0.9318353 -0.029367404 0.8203388 -0.17185266 -0.8653202
0.13201381 0.033087887 0.25551754 0.46605548 0.049750574 -0.23075561 0.6824495 0.35572064
0.24187525 1.4082434 0.9659048 0.11012467 1.0855957 -0.18410581 -0.4102105 -0.006433699
0.42426312 -0.018237364 -0.27186286 -0.9351174 0.098657936 -0.24384613 0.15445308 -0.5211996
-0.08357242 0.67145264 -0.024268214 -1.2115804 -0.09383568 0.17114255 0.11443998 -0.393522
-0.25235412 -0.76060206 0.742378 0.12289182 0.37943932 -0.09838809 -1.052962 -0.13705708

critic.2.bias f4 [128]
00000000: d43b 99be 6e51 b0be aebf 06be 60ea 97be
00000010: 1418 423e 8552 d93e 3123 993c 1895 513e
00000020: f09f 23be b3ca e23d ccd2 313e d1b7 d3bd
00000030: b6d3 633e 7f92 953e dcca 8b3d 1762 b3be
00000040: f0ab 57bd c45a f9be 8500 a4be ae87 7ebb
00000050: 4818 4cbd 3fc7 05bf d316 1d3e a969 04be
00000060: f71d 423e 4f5d 983f 69ca 55be 2db3 173e
00000070: 05ad f1bf 29f1 a3be d3ff bd3e 31d9 933d
00000080: 14e2 70bd f900 30bf 4815 0abf d06f 93bd
00000090: c06e 623e ac95 0e3e 938f 28bf d3cc 9f3e
000000a0: a3ee 4abf df69 83bd 80e2 8cbd 72c3 8bbd
000000b0: 66d6 a93e 4d73 993d 4c83 40bd 8750 1f3f
000000c0: c5b7 01bf 9772 af3d c7b4 213f 9729 cbbd
000000d0: e6e1 c63e cb19 6f3e c640 913e 880a a7be
000000e0: 0e32 8c3e 7348 553e 1505 4ebe 6684 a7be
000000f0: f23f 3cbd 912d 3a3f f23b 5fbe 3a3e 123e
00000100: e2e1 b5bd a199 c4be 438a da3d 56fc 7abe
00000110: e576 8ebe 30fd 02be e91b 133d 0627 9ebd
00000120: 00d3 eabe 6966 c1bd dc03 d23c 10fd 763e
00000130: 0df8 58bd c8be 94be 96c4 2e3f 3d6e d83e
00000140: efe1 abbe 3855 24bd 61d1 983d 3c57 fa3e
00000150: f091 3ebf e504 6b3e d367 fb3e b10a 59bd
00000160: c2a0 00bf 7a36 f0bd 2263 c9be 8b38 e5bc
00000170: 1dbd 753e 8d8d 793e f3b1 59be b234 8ebd
00000180: 8e44 233e d40a 98be 9259 b5bd dc59 473e
00000190: ef1f a93d 7492 ef3e ad8a 213c db57 743e
000001a0: cf90 dc3e 5bcc adbc 13ac febe b5ae e93e
000001b0: b878 153e 7c5e c0bc ee74 35bf fe54 d5be
000001c0: f956 55bc 2a9c 0b3c 4f23 2b3e 3dc3 d73e
000001d0: 93d7 49bd 1566 6a3e 041c b0be dac2 b8be
000001e0: ad36 463e 6a64 bfbe 82c2 ca3e 64b9 6a3e
000001f0: 071a 8b3d 168d 773e 48c5 923e 305e c5bf
-0.29928458 -0.34437126 -0.13159057 -0.29671 0.18954498 0.4244577 0.018693538 0.20467031
-0.1597898 0.11073818 0.17365569 -0.103377946 0.2224873 0.2921333 0.06825802 -0.35035774
-0.052654207 -0.4870206 -0.32031646 -0.0038838196 -0.049827844 -0.5225715 0.15340738 -0.12930931
0.18956743 1.1903476 -0.20877995 0.14814444 -1.8880926 -0.32019928 0.3710924 0.0721916
-0.058809355 -0.68751484 -0.5393872 -0.07199061 0.2211256 0.13924283 -0.65844077 0.31210956
-0.7927038 -0.06416678 -0.06879139 -0.068243876 0.33171386 0.07492695 -0.047000214 0.6223225
-0.50671035 0.08566778 0.6316647 -0.09920042 0.38844222 0.23349683 0.2836973 -0.32625222
0.2738194 0.20828418 -0.20119126 -0.327182 -0.04595942 0.7272578 -0.21800211 0.1428155
-0.08880974 -0.3839846 0.106709026 -0.24510321 -0.27825084 -0.12791896 0.03591529 -0.07722287
-0.45864105 -0.09443361 0.025636606 0.24119973 -0.052970935 -0.29051805 0.68268716 0.42271605
-0.3357081 -0.040120333 0.07461811 0.4889468 -0.7444143 0.22951086 0.4910265 -0.05298871
-0.50245297 -0.117291406 -0.39333445 -0.027981063 0.23997922 0.24370404 -0.21259288 -0.069436446
0.1594412 -0.2969576 -0.08854975 0.19467872 0.08258044 0.46791422 0.009859723 0.23861639
0.4307923 -0.021215608 -0.49740657 0.45641103 0.14596832 -0.023482554 -0.70881546 -0.41666406
-0.013021224 0.008521119 0.16712688 0.42141142 -0.049277853 0.22890504 -0.34396374 -0.3608616
0.19356795 -0.37381297 0.39601523 0.22922283 0.06792074 0.24174914 0.2866614 -1.5419369

critic.4.weight f4 [1, 128]
00000000: cfc7 71b9 a7fa 28ba 51fd 86ba 43a3 e6b8
00000010: 3947 06ba 7f9b ef38 98b2 7339 849b 14b6
00000020: d8b6 86b7 a124 8b3b c5c8 5739 7ecd a939
00000030: 1378 1539 9d10 58b9 6779 9939 7d05 f137
00000040: bac9 a8b9 7bf1 5a39 0737 8db9 5a40 05ba
00000050: 3b2e 76ba 5be9 8139 df45 b8b8 fbe0 f43a
00000060: ea90 d638 fb21 873d 6aaa 3139 ad1e da3a
00000070: 7d86 ad3d 43d1 dc38 f5ca a8b7 6ac5 a2b9
00000080: 9997 07b9 20e9 873c 513f a13a 592b 12b9
00000090: 7d41 be38 217d 26b9 b237 78bd 86ac beb9
000000a0: 7906 033a 12ad 07b9 641f 8438 ef58 973b
000000b0: ce57 beb9 cd13 3d3b acb4 29bc e64e b337
000000c0: 5edd c139 bebd a03a 2499 95b8 c572 81b8
000000d0: 8686 5339 1969 20b6 87e4 87bb f860 9cbb
000000e0: cb9c 20b7 2c31 c438 08eb ee38 123b e3b7
000000f0: f688 87b6 9a9e baba 4e66 163d e0c0 d13d
00000100: cd41 3639 f44c 9439 3fec 57b9 17bc 603a
00000110: 5abe f738 82ec bd39 d95a 613a 03f0 ffb8
00000120: 4cb5 8237 c823 ef38 ba65 d0b9 7363 633a
00000130: 7b4a 3d39 9e03 b038 ef01 27bb 60ec 8139
00000140: e99a 42ba 7110 3bb9 1727 4038 d6e7 30ba
00000150: 92c3 43b9 bfaf 33ba f6d5 9d39 0da7 dc3a
00000160: 8523 99bb 64c9 dc39 2a10 aa39 2ce4 083a
00000170: 9121 73b9 eb0f 32b9 7ac0 9f39 be19 2339
00000180: 2635 6c39 2e37 9339 9b3c 09b9 a6d9 5a39
00000190: 7c79 5f39 297e 9ebb a1ed 2339 7491 82b8
000001a0: bf81 0c39 9f58 a839 a577 94b9 aef9 3c37
000001b0: 78cf 68bb ccd4 dfb9 5c61 373b d124 db38
000001c0: cd9e d738 39a1 2337 332c 82b7 5808 503a
000001d0: d100 d9b8 611c 1abc 2473 7ab9 dd24 b838
000001e0: 68fb d8ba b1e1 34b9 5a29 94ba 8d32 4eb9
000001f0: ab29 0eb9 6bc3 c239 2422 0db9 8145 693d
-0.00023057986 -0.00064460415 -0.0010298883 -0.000109976645 -0.00051223073 0.000114253715 0.00023240817 -2.214424e-06
-1.6059188e-05 0.00424631 0.0002057879 0.00032387296 0.00014254478 -0.00020605554 0.00029272886 2.8731994e-05
-0.00032193755 0.00020880059 -0.00026934614 -0.00050831365 -0.0009391044 0.0002477866 -8.786818e-05 0.0018682772
0.000102313075 0.06598278 0.0001694352 0.0016641222 0.08472917 0.000105293955 -2.012167e-05 -0.00031046133
-0.00012931078 0.016590655 0.0012302195 -0.00013939793 9.072104e-05 -0.00015877608 -0.06059999 -0.00036368164
0.0004998218 -0.00012939077 6.3000974e-05 0.004618756 -0.00036305044 0.0028850914 -0.010358017 2.1375203e-05
0.0003697676 0.0012263579 -7.133398e-05 -6.172577e-05 0.00020172642 -2.3903033e-06 -0.0041471156 -0.0047723018
-9.573249e-06 9.355167e-05 0.00011392502 -2.7088015e-05 -4.039258e-06 -0.0014237941 0.03671866 0.10241866
0.00017381385 0.00028286094 -0.00020592006 0.00085729494 0.000118133335 0.000362251 0.0008596606 -0.00012204053
1.558163e-05 0.00011403073 -0.00039748644 0.0008674182 0.0001805219 8.393008e-05 -0.002548333 0.0002478091
-0.0007423596 -0.00017839835 4.5812772e-05 -0.00067484134 -0.00018669505 -0.00068544963 0.00030104787 0.0016834453
-0.0046734237 0.00042111718 0.0003243697 0.00052219885 -0.0002318679 -0.00016981333 0.0003047025 0.00015554481
0.00022526513 0.00028079137 -0.00013087915 0.0002087118 0.00021312194 -0.004836817 0.00015633415 -6.225976e-05
0.00013399775 0.00032109485 -0.00028317902 1.1263806e-05 -0.0035524052 -0.0004269242 0.0027981615 0.00010449591
0.00010281578 9.753095e-06 -1.551779e-05 0.00079358136 -0.000103475184 -0.00940618 -0.00023884751 8.78067e-05
-0.0016554417 -0.00017250214 -0.0011303828 -0.00019664523 -0.00013557698 0.0003714816 -0.00013459526 0.05695105

exp_avg f4 [4]
00000000: 78af 3dba b0dc 893c 3a7f 8d39 00d6 f5ba
-0.0007235925 0.016828865 0.00026988407 -0.0018755794

exp_avg_sq f4 [4]
00000000: 7f2f 5638 c66d 803c 2523 aa37 faaa 3f38
5.106581e-05 0.015677344 2.0281945e-05 4.5697183e-05
