examples/drone/logs/drone-waypointing/model_5400.pt (torch, 474978 bytes, 36 tensors)

std f4 [4]
000000 cb 69 aa 3e e9 8a 27 3a 63 48 c2 3e e1 17 c4 3e
       0.3328384 0.00063912437 0.37945852 0.38299468

actor.0.weight f4 [128, 17]
000000 27 15 f9 bf a6 b8 ab bf 1a f3 6f 40 f3 fd 3a be
       -1.945958 -1.3415725 3.7492127 -0.18260936
000010 0a dd 20 be 9e ce f1 bd f1 51 90 be 2f 40 bf be
       -0.1570932 -0.11806987 -0.28187516 -0.37353656
000020 8e d8 3c bf 0b a5 3e 3f b9 61 51 3f 0d ff a4 be
       -0.73767936 0.74470586 0.8178974 -0.32225838
000030 dc db 30 bd 85 02 3f 3e a4 04 db 3d ca 18 96 3e
       -0.043178424 0.18653305 0.106942445 0.29315788
000040 af 01 91 3d 81 48 d0 be e4 14 ed bb 9e 1e 95 bf
       0.07080399 -0.40680316 -0.0072351564 -1.1649969
000050 1e d0 dd 3e 9a e6 f2 bf 89 f1 f9 bf 26 60 8e 3c
       0.43322843 -1.8976624 -1.9526836 0.017379832
000060 f9 6a b3 3e 11 71 89 be 2b 92 91 bd f3 b4 27 3e
       0.3504255 -0.26844075 -0.071079575 0.1637762
000070 28 3d 48 bf 09 11 4c bf 5c d4 43 3d 05 3c df 3c
       -0.7821832 -0.79713494 0.047809944 0.0272503
000080 55 4f f5 3d f7 dc 96 bc db 83 82 bd d2 08 7f bd
       0.11978022 -0.018415911 -0.06372806 -0.06226427
000090 c2 4f 8b 3e 8b d4 0a bc db d3 84 bd 35 b0 cf bb
       0.27209288 -0.008473526 -0.06485721 -0.006338144
0000a0 58 ae b7 bc d5 ed ec 3d 60 0b cb 3c 41 79 96 3c
       -0.022422 0.115688 0.024785697 0.018368365
0000b0 cd bf af 3b dd 4b 5b 3d 78 81 4c bd 44 a3 2a be
       0.0053634406 0.053539146 -0.04992816 -0.16663843
0000c0 4e 0d af 3e 97 58 b1 bd 34 d1 86 bd 86 8c a9 3d
       0.34189838 -0.08659475 -0.06582871 0.08278756
0000d0 00 3d 88 3e 0e ab 03 c0 9b 30 8a bf 6a 5a b2 bf
       0.2660904 -2.0573153 -1.0796083 -1.3933842
0000e0 96 48 71 3d 06 d6 98 3f 6d a6 ae 3f 5d 07 02 3f
       0.058907114 1.1940315 1.3644539 0.50792485
0000f0 ec 29 65 3f 45 59 e2 bc 06 ee 26 bf 4a f4 40 3f
       0.8951709 -0.027630458 -0.65206945 0.75372756
000100 0e af 91 be 7e 7d a2 be a5 5b c8 be 2f 30 f3 bd
       -0.2845387 -0.31736368 -0.3913242 -0.11874425
000110 fb 14 a1 be 6c 03 f6 bc e5 91 0f c0 13 1f 38 3d
       -0.3146132 -0.030030929 -2.2432797 0.04495151
000120 56 ad fc 3e 23 6d 67 bd fd 9a f4 3e eb b5 90 bd
       0.49350995 -0.056500565 0.47774497 -0.07065948
000130 d9 fe d1 bd 28 91 86 ba bc 97 26 bc 15 76 9a 39
       -0.102536865 -0.0010266649 -0.010168012 0.00029461147
000140 0c ae 14 3e f1 83 36 3e 5d 9b 67 3c f6 ee b0 3d
       0.14519519 0.17823769 0.014136163 0.08639328
000150 63 cd 01 be e8 1a 94 bf 3c 53 d1 3e d6 cf 1f 3f
       -0.12676005 -1.1570711 0.40883815 0.6242651
000160 4a b5 d3 3d bc 7d 4f bf a9 54 a5 3f 8b ba 2c bf
       0.103373125 -0.8105123 1.2916461 -0.6747214
000170 c0 77 7e 3e 3a 5e 64 bc f4 88 0f be 83 e8 a8 3d
       0.24850368 -0.013938481 -0.14017087 0.08247473
000180 1a fb 30 be b1 9a 05 be 93 8c dc 3d ce 77 0a be
       -0.17283288 -0.13047291 0.10769 -0.13522264
000190 4e d3 51 bd da 30 69 bd 9c 3f 87 3f 42 59 88 bd
       -0.051226906 -0.056931354 1.0566287 -0.066576496
0001a0 8f eb 1d 40 54 f9 20 bf 38 d2 02 3f b8 b9 7d 3e
       2.4675024 -0.62880445 0.5110202 0.24777877
0001b0 9d 8b 34 bf f9 33 4f 3e 09 6c 21 be d4 d1 34 bf
       -0.7052553 0.2023467 -0.15763868 -0.7063267
0001c0 cc 64 3a 3f 46 9c ec be b8 04 01 be 87 71 0d 3e
       0.72810054 -0.46212977 -0.12599456 0.13812838
0001d0 37 a8 7d 3e 9f d3 1c 3e 24 d0 9f 3d ca e1 b6 3f
       0.247712 0.15315102 0.078033715 1.4287655
0001e0 54 5f d6 be 48 3f 7d c0 27 1a 8e 3e 60 d8 1f bf
       -0.41869605 -3.9569874 0.27754328 -0.6243954
0001f0 d3 b2 71 bf ed 56 a5 3d e6 b7 55 3d 5c cf 8e be
       -0.9441349 0.080732204 0.052177332 -0.27892578
000200 be 21 20 3f 0b e2 42 be 27 1d 27 be 96 93 16 3d
       0.62551486 -0.19031541 -0.16319714 0.036761843
000210 2b 66 9a be db dd ad be c5 6a 8a be 55 2f 7b be
       -0.30156073 -0.33958325 -0.27034584 -0.24529774
000220 6d 66 0d be a6 99 62 3e 82 e3 26 3e ca ad 86 3c
       -0.13808604 0.22128925 0.16297725 0.016440291
000230 3c 54 42 3f 7d ce 6b bd 0e 55 20 3f 12 d2 89 3e
       0.7590978 -0.05756997 0.62629783 0.26918083
000240 2d bf 29 be 28 27 8b 3c ea db 79 bd c5 a4 0c 3c
       -0.16576834 0.016986445 -0.061000742 0.008584206
000250 ec 24 24 3e 55 7d c7 3d 7c 26 ff 3c 2c 5e 30 3e
       0.1602971 0.09740702 0.03114628 0.17223424
000260 97 a9 30 be 47 a1 78 3d a7 1b 54 3e bf 9c c0 bf
       -0.17252193 0.06070068 0.20713674 -1.5047835
000270 ed 71 c3 3c e5 5f 3c 3f f7 03 c8 be 72 c8 8d 3e
       0.023858035 0.73583823 -0.39065525 0.2769199
000280 35 ef 8b bd 89 f3 03 bc 61 62 6e bc a1 65 be 3c
       -0.068327345 -0.008053669 -0.014549823 0.02324182
000290 d7 67 f8 3d 69 ae 44 3e 8c 2a 84 3c 8a 7a 5a 3d
       0.12129181 0.19207157 0.01613357 0.05333952
0002a0 02 cd ee 3d cd f8 b9 3d 96 c6 b8 3d 8b 2f 86 3d
       0.11660196 0.09080658 0.09022252 0.06552037
0002b0 7b f0 43 bd bb 02 1f bf 59 e9 ae bc bf 13 bf bd
       -0.047836762 -0.6211354 -0.021351503 -0.09329938
0002c0 12 54 d4 bd b9 da 1e 3c 3d 2e 10 3d 16 53 29 3d
       -0.10367598 0.009695702 0.035200346 0.041339003
0002d0 13 94 50 bb 1f b5 37 bd c7 af 85 3c 03 a1 f9 bd
       -0.003182654 -0.044850465 0.016319169 -0.12188914
0002e0 5d 85 fe 3d c6 ec 14 3c c3 10 ca bd ed 5d 23 3f
       0.12427781 0.009089654 -0.09866478 0.63815194
0002f0 54 92 53 3f aa cc b4 bf 57 83 08 3f 91 5a b8 bf
       0.82645154 -1.4124959 0.5332541 -1.4402639
000300 6d 67 96 be 3d 13 09 3f ed 28 af 3e e8 39 2d be
       -0.29375783 0.5354498 0.3421091 -0.1691662
000310 5b 43 e3 3e a0 5a 17 3f 7f 0f a1 bf d0 5f 41 3f
       0.44387326 0.5912266 -1.2582854 0.75536823
000320 10 ac 0c bd f7 82 a2 bd 26 6a ef bd 4f 87 a5 3d
       -0.03434378 -0.07935136 -0.11690168 0.08082449
000330 3c e4 a9 3e c2 df 15 bc ba 65 4d 40 ef 8a 2c be
       0.33181942 -0.009147586 3.209334 -0.16849874
000340 08 37 04 bf 8c 39 61 be d7 60 cd be 86 f7 8d 3e
       -0.5164647 -0.21994609 -0.40112945 0.27727908
000350 19 fe 30 3d d9 24 12 be 71 ea b9 3d 37 81 6d 3d
       0.043211076 -0.14271869 0.09077919 0.057984557
000360 b0 75 99 be d7 d6 20 bd fc 09 28 3e 8a 0a 7e bd
       -0.299726 -0.039267387 0.16410059 -0.06202177
000370 51 26 db 3d ab c1 67 be 27 67 db 3e 8b 40 86 bf
       0.10700668 -0.22632472 0.42852136 -1.0488447
000380 2c 2c ef 3e ff e6 cc be 15 69 89 bf 29 fd 29 bf
       0.46713388 -0.40019986 -1.0735193 -0.66401917
000390 a8 27 34 3d 42 19 ad bd 4f 63 0d be 25 f8 8f 3d
       0.04398313 -0.08452083 -0.13807414 0.07029752
0003a0 a7 3c cf 3e bc 06 10 3e 77 a7 12 3e 7b 17 ab 3d
       0.40475962 0.14065069 0.14321695 0.08354088
0003b0 d2 f8 5b 3d a8 af 40 3d 55 ab 72 3e 10 9d 47 3e
       0.05370409 0.04704252 0.2369817 0.19493508
0003c0 d3 6a 09 be de 16 92 3e cc 62 3d 3e b9 ce c3 be
       -0.13419656 0.2853307 0.1849472 -0.38243654
0003d0 36 db 13 be 36 8e 68 be fa d2 03 3d b9 1c 6e 3d
       -0.14439091 -0.22710499 0.032183625 0.05813286
0003e0 40 90 1b bd 3e 7b 21 bd 41 c3 26 be 78 44 e3 bd
       -0.037979364 -0.039424174 -0.16285421 -0.11097044
0003f0 3e f1 4c be 08 35 96 bd a1 41 e8 3d 3e 91 55 bf
       -0.20013902 -0.07334334 0.11340643 -0.83424747

actor.0.bias f4 [128]
000000 19 ea c3 be ff 46 a3 be ec 02 23 bd 0d a6 fe be
       -0.3826454 -0.31890103 -0.03979771 -0.49736062
000010 23 2c 15 be 6f 60 15 bd c5 03 1e 3e 6d ad 60 be
       -0.14567618 -0.03646892 0.15431125 -0.21941157
000020 c9 62 46 bd e1 29 47 be 08 b8 0e 3f 93 11 83 3e
       -0.048434053 -0.1944957 0.5574956 0.25599346
000030 34 4e 08 3e 37 bb 20 bf 6f ae b1 3d c0 56 f3 bc
       0.13311082 -0.6278567 0.08675849 -0.029704452
000040 49 10 fd bd 7c aa 64 be 7d ff a1 3e cb b6 ae be
       -0.12356622 -0.2233066 0.31640235 -0.34123835
000050 48 7c 3f 3d 50 19 01 3e 6a 5f b0 bc 39 44 33 3c
       0.046749383 0.12607312 -0.021529872 0.0109415585
000060 d6 7b 9b be 18 57 03 3f c7 15 14 3f 52 80 9f bd
       -0.30367917 0.5130477 0.5784573 -0.07788147
000070 2e b6 f5 be dc b5 91 be b0 39 10 3e 19 65 b8 3d
       -0.47990555 -0.2845906 0.14084506 0.09003658
000080 a0 a1 56 3e 38 e7 fd bd 43 ab aa 3e d7 41 75 bd
       0.20960093 -0.12397617 0.33333787 -0.059877243
000090 06 f5 52 3e bd 29 de be 51 d2 ad be 85 f4 42 bf
       0.20601282 -0.4339122 -0.3394952 -0.7615436
0000a0 da a4 0c bf e8 de 4d 3e fb 68 ed bd b2 78 0c be
       -0.54939044 0.20104563 -0.11592289 -0.13717917
0000b0 c7 24 33 3e 65 8a 0a 3e 88 58 22 be e9 20 15 3d
       0.17494498 0.13529356 -0.15854084 0.03640834
0000c0 c5 0a 10 3e bb 4d 3e bf a8 0b 52 be 25 dd 1b 3d
       0.14066608 -0.7433736 -0.20512259 0.038052697
0000d0 74 26 a7 3e 3f c1 05 3e aa d9 b3 bd 87 b7 ba bd
       0.32646525 0.13061999 -0.087817505 -0.09117036
0000e0 3f 2c 19 be 44 97 99 3e 5e d1 63 3e 52 e4 be bd
       -0.14958285 0.2999822 0.22247836 -0.093208924
0000f0 33 43 ba 3e 09 31 66 3e ea 93 ef be f8 61 ce 3d
       0.36379394 0.22479643 -0.46792537 0.1007728
000100 da 93 86 3e f5 b8 99 3e 4e 48 8f be 40 07 36 3e
       0.26284677 0.30023924 -0.27984852 0.17776203
000110 56 7b d6 be 33 d4 f4 3d f8 19 d2 be 7a e1 51 be
       -0.41890973 0.11954536 -0.41035438 -0.20496169
000120 f7 62 73 3d c5 b9 c8 3d 11 fb b7 3c 0f 23 d1 3d
       0.059420552 0.09801058 0.022458585 0.10211765
000130 85 e1 45 be 97 b7 84 bd 1d c9 27 3d 38 d0 61 bc
       -0.1932431 -0.064803295 0.04096328 -0.013782553
000140 da ed 58 3d 3e 68 a8 bd 2e 5f 56 be 3b 4d 82 3d
       0.052961208 -0.082230076 -0.20934746 0.06362387
000150 d0 ad 47 bd 16 fc 86 3e 69 45 8d bd 5f 5d f0 3b
       -0.048749745 0.263642 -0.068980046 0.0073353495
000160 1c 17 3e 3d 51 9c 63 3e f2 bb c3 3b af bb 44 be
       0.046408758 0.22227599 0.0059733326 -0.1921222
000170 1c 8d 00 be f9 41 d2 be d2 3e f4 3d e8 16 d5 3c
       -0.12553829 -0.41065958 0.119260445 0.0260119
000180 05 6c 25 be 74 20 6a 3e 64 dc 96 be 3b 30 ba 3e
       -0.16154487 0.22863942 -0.2946502 0.36364922
000190 32 60 86 be d4 1e ee 3e 16 15 b4 be 8b bb bc 3c
       -0.26245266 0.46507895 -0.35172337 0.023038646
0001a0 52 13 3d be bd 1c a2 3d 7b b4 8b 3d ac dc 13 3e
       -0.18464401 0.07915638 0.06821533 0.14439648
0001b0 63 16 d9 be ee ad 5f 3e 37 90 d5 3d 1f 1f b2 be
       -0.42399892 0.21843693 0.104278974 -0.3478937
0001c0 ca 8f c8 bd 22 fa 27 be a5 be ea be 28 9c f4 be
       -0.097930506 -0.16404012 -0.45848575 -0.47775388
0001d0 b3 1a 2d be e3 59 b7 bd 7e 44 ba 3e 06 de 85 bd
       -0.16904716 -0.089526914 0.3638038 -0.06536488
0001e0 ca 15 a9 3e b2 0a 34 be 31 dc 0a 3e e0 ef 35 be
       0.33024436 -0.17582205 0.13560559 -0.17767286
0001f0 ce 82 b0 be e2 dd 95 3e 04 2f d3 3e 2a 91 80 be
       -0.34474796 0.29270846 0.41246808 -0.2511075

actor.2.weight f4 [128, 128]
000000 bb 0f b2 bd 2b 7e be bd 15 82 9c bb e1 30 0d bd
       -0.086944066 -0.093014084 -0.004776249 -0.034470443
000010 7d c4 0e 3d ed b2 e3 bd c6 dd 0c 3e c7 c8 03 be
       0.034855355 -0.11118112 0.13756475 -0.12869559
000020 ba 7b 7a bd fa cb 91 bc b4 e3 ab bd 90 3b b4 3d
       -0.06115315 -0.017797459 -0.0839304 0.08800423
000030 9b 2e 5d bd 37 7b 88 3d 72 2b 11 3e ec fb 00 3a
       -0.053999525 0.06664126 0.1417673 0.0004920352
000040 57 77 89 3d 67 97 b1 3d ab 20 41 bd 22 8e 6d 3d
       0.067122154 0.08671456 -0.047150295 0.057996877
000050 5f fa d0 bd a4 3d 19 3d d9 81 bf 3d 93 0d 1c bd
       -0.102040045 0.0374123 0.09350938 -0.038098883
000060 c9 86 c2 3d a9 83 32 3d fc d6 25 bd 24 26 66 3e
       0.094983645 0.043582592 -0.04048823 0.22475487
000070 14 f1 df bb 7f 9a 06 3e 0c 54 9b 3d 3d e4 cb bd
       -0.0068341587 0.13144873 0.0758439 -0.09955642
000080 ee 8a 47 bd e1 d8 30 bc 73 cb fe ba ef 4b f6 3d
       -0.048716478 -0.010793895 -0.0019439295 0.12026202
000090 b4 73 9c bc 8c 0f 0a be fb 8c 37 3e 87 16 1e be
       -0.01909814 -0.13482493 0.17924874 -0.15438281
0000a0 c3 d3 37 bd e3 08 0b be 7f bc a9 3d 56 38 55 bd
       -0.044879686 -0.13577609 0.08287906 -0.05205568
0000b0 c5 3d 2c be bf 9a 3a bc 9f df c7 bc e4 48 ce 3d
       -0.16820438 -0.011389433 -0.024398623 0.100724965
0000c0 6a af 1b bd 48 2a 87 3c 99 5c 09 3e 17 e5 aa bb
       -0.038009085 0.016499653 0.1341423 -0.005215298
0000d0 66 6b 4f 3d 95 96 be bd cb 61 f7 3c 68 8e a9 bc
       0.050639533 -0.09306065 0.030197999 -0.020697787
0000e0 1b 93 33 bd 09 f6 3e 3d db 21 73 ba 11 14 da 3d
       -0.043841463 0.046621356 -0.0009274759 0.106483586
0000f0 3a 47 24 bd 7f 9d 18 3c d3 a5 c9 3d 63 b6 52 bd
       -0.04010699 0.009314894 0.098460816 -0.05144347
000100 df ac 87 3d 4a 11 9a 3c 21 2b 3b bd 7d a9 a7 3d
       0.066247694 0.018807072 -0.045695428 0.08186624
000110 12 15 dd bc 9c c7 ea 3d 95 a8 b5 3d 65 63 2d 3c
       -0.026987586 0.11463854 0.08870045 0.0105827795
000120 21 c2 48 bd 2a 28 89 3b a5 77 01 bd 5d 39 c6 bb
       -0.04901326 0.004185696 -0.031608243 -0.0060493187
000130 b4 79 86 3c 66 98 e1 3d fa 74 21 bd 14 44 ce 3c
       0.016415454 0.11015396 -0.0394182 0.025178947
000140 24 7d b2 3d a9 2c 0b 3e 5f 18 64 bd 67 9f 6a 3d
       0.08715275 0.13591255 -0.055687305 0.057280924
000150 da 4d 97 bd f1 77 bd bc f8 c8 16 3c b6 d8 41 be
       -0.07387896 -0.023128482 0.009203188 -0.18930325
000160 f9 cf 00 be 51 54 1f be fd b7 45 3b 63 a0 4a bd
       -0.12579335 -0.15559508 0.003016948 -0.049469363
000170 af be c6 3c 1d 7b de bd 72 58 5f bd 00 7a 24 3e
       0.024260847 -0.10863326 -0.054527707 0.16062164
000180 da 24 82 39 19 85 40 be bb 3a a7 bc a0 ed 9c bd
       0.0002482299 -0.18800773 -0.020413747 -0.07662511
000190 cd 36 f1 3d 88 8d ad 3c e1 12 d1 bc a6 50 ce 3d
       0.117780305 0.021185651 -0.025521697 0.10073976
0001a0 51 53 0a 3d 75 56 b5 bd f4 bd a1 3d b1 a7 64 bd
       0.033770863 -0.08854381 0.07897559 -0.055823985
0001b0 15 6d 18 bc 21 6f 2f 3e 54 0a 99 ba 31 71 d2 bc
       -0.009303351 0.17132236 -0.0011676052 -0.02568874
0001c0 87 df 0e bc ad 50 c0 3c 99 52 8e 3d 28 73 18 3e
       -0.008720285 0.02347597 0.06949348 0.14887679
0001d0 c4 9d 2c 3d 5a b5 e2 3d 60 ca ce 3d 3f 73 cd 3b
       0.042142645 0.11069746 0.10097194 0.006269842
0001e0 d3 b3 47 3c 35 86 bd 3d 3e ba 5f bc 88 27 f3 3d
       0.0121888695 0.092541136 -0.013655243 0.11872774
0001f0 bb 99 05 3e 86 e4 3a bd 43 31 16 3e 3d bc f3 3d
       0.13046925 -0.045628093 0.1466723 0.11901138
000200 64 b4 eb bd f0 7c a4 3d 4b 8d bb ba 06 fd 05 3d
       -0.11509016 0.080316424 -0.0014309076 0.032712005
000210 9f 7f 95 bc 7a 1a 84 bd ac 74 99 bd da 20 38 be
       -0.018249331 -0.064503625 -0.074929565 -0.17981282
000220 26 07 2b bd a0 37 41 3d cb e5 5a bd 6e 09 fd 3c
       -0.041754864 0.04717219 -0.053441804 0.030888285
000230 99 e4 00 3e 6d b3 23 3c 59 a1 5b bd 04 aa 8f bd
       0.12587203 0.009991509 -0.05362067 -0.0701485
000240 80 da 57 bc 15 b8 67 3c 0b 5f 4b bd 31 b9 c7 bd
       -0.013174653 0.01414301 -0.049651187 -0.09752119
000250 fb e2 e7 3c b8 58 00 3c cc a1 a3 bd 0e a0 1b 3d
       0.028306475 0.007833652 -0.07989845 0.037994437
000260 38 04 69 bd e2 e7 ee bc 66 0a 85 3d 03 94 28 3c
       -0.05688879 -0.029163305 0.06496124 0.010289195
000270 fd a7 c2 3c 12 33 93 bd ce 46 95 3d 2c 13 07 3e
       0.023761744 -0.07187475 0.072888955 0.13190907
000280 30 21 63 3c 9f c5 03 bb e1 1f d8 3c b1 28 0f 3d
       0.013862893 -0.0020106805 0.026382389 0.034950916
000290 73 c4 a3 3d bd a8 5a 3d 2e ab 02 bd e3 fc 92 3d
       0.07996454 0.053383578 -0.03190153 0.071771406
0002a0 33 96 b9 3d 7b bd 1b bd 72 59 7e bd c8 53 91 bc
       0.09061851 -0.0380225 -0.06209702 -0.017740145
0002b0 a2 cb a7 bd b8 89 b5 3c 51 bf d3 bd 26 55 4e 3d
       -0.08193137 0.022160396 -0.10339225 0.050374173
0002c0 32 e6 5d 3c 14 03 f8 3c 03 92 b5 bd 68 8a 96 3c
       0.013543652 0.030274905 -0.0886574 0.018376544
0002d0 5b 06 dd bd dd 99 9b 3d f7 61 e2 bc c7 c4 12 3d
       -0.10792228 0.075977065 -0.027634604 0.035832193
0002e0 49 1c 74 3d 4e a2 6c bc 72 74 87 3c dd fa 94 3d
       0.059597287 -0.014442993 0.016535018 0.07274411
0002f0 b2 cf d9 bb ae 44 66 bd 3b 7d 93 bd 94 cb 0a 3e
       -0.0066470737 -0.05621784 -0.0720162 0.13554221
000300 b5 5d 1e be b9 64 96 bc f0 1e dc bd 40 10 10 3d
       -0.15465434 -0.018358575 -0.10748088 0.035171747
000310 4a 2d 92 bd 02 ce 19 3c bf 52 c8 bc a1 91 93 3d
       -0.071375445 0.009387495 -0.024453519 0.07205511
000320 89 af 46 3d 97 f6 17 3e ea bb 31 3d fb eb ae 3d
       0.048507247 0.1484016 0.0433921 0.085411035
000330 33 c0 d2 bd 9c a2 8d 3d 4a d8 06 3d 67 ec 6b bd
       -0.10290565 0.06915781 0.032921113 -0.057598498
000340 68 4b 0a be 2f b3 b5 3c d7 b1 14 3b b1 ca f3 bc
       -0.13505328 0.022180168 0.0022689009 -0.029759737
000350 12 1c f5 3b c6 bf 12 be 7c 3f f2 3d 18 2e 99 bd
       0.007480153 -0.14330968 0.11828515 -0.07479495
000360 cc 1b dc 3d fd 8d 05 bd b3 6f 52 bd 98 c3 af 3d
       0.10747489 -0.032606114 -0.051376056 0.085822284
000370 7f c9 85 bd ad 7a fa bc 9b 7e 3a 3d 63 11 56 3a
       -0.06532573 -0.030576074 0.045530897 0.0008166043
000380 6c b1 56 bd b7 83 76 3c c6 0e f9 3c 09 f0 10 3c
       -0.052415296 0.015046052 0.030402552 0.008846291
000390 fa 0d da bc 23 7e 30 bd be fa 12 be c6 d2 52 3d
       -0.026617993 -0.043089043 -0.14353463 0.05147054
0003a0 b7 b6 1f 3e 41 6d 19 b9 02 28 6c 3d 06 5c 05 3e
       0.15597044 -0.00014631917 0.057655342 0.13023385
0003b0 11 c5 8b bd 23 c0 ea bd 60 ae ea 3c 75 20 b6 bd
       -0.06824697 -0.114624284 0.028647602 -0.088929094
0003c0 55 23 f1 3a 83 e9 82 bd 13 db c5 bc 7f 45 6d 3e
       0.0018397371 -0.06392195 -0.024152314 0.23171042
0003d0 82 eb 2d 3e 08 2e 55 be 87 8c 00 be ab f2 42 bd
       0.1698437 -0.20818341 -0.12553607 -0.047594707
0003e0 46 9c 05 be f5 30 9e bd 38 22 ff bc da ac 1e 3e
       -0.13047895 -0.077241816 -0.031144246 0.15495625
0003f0 7a c3 04 3e 52 60 1c 3c e8 32 a5 bd 35 6e 93 3d
       0.12965193 0.009544449 -0.0806635 0.07198755

actor.2.bias f4 [128]
000000 a1 29 20 3d 66 b3 92 3d 14 6a 1a 3e d9 7b 03 bd
       0.0391022 0.07163124 0.15079528 -0.032100532
000010 f8 33 bc bd cc b4 27 bc 2b fd 06 3f fa 6c 04 3f
       -0.091896 -0.010235976 0.52730054 0.51728785
000020 90 39 97 bd f6 f2 7e be db b6 19 3e 35 e1 9a bd
       -0.07384026 -0.2489737 0.1501116 -0.07562486
000030 f9 a8 c1 bd cf 29 d5 3d e3 c8 40 3d 44 2b 4b 3f
       -0.09456057 0.10408365 0.04706658 0.79362893
000040 94 99 ac be 8f 15 bf be ae 54 b4 3c e5 81 2d 3d
       -0.3371092 -0.37321135 0.022013035 0.042360205
000050 21 1c 43 3d 97 e2 d9 bd 4b e4 25 3c cb 59 a4 be
       0.047634248 -0.10638922 0.01012523 -0.32099757
000060 9d 23 98 3d 74 c2 8d 3d f4 75 8f bb ad fa 80 be
       0.07428668 0.069218546 -0.004378075 -0.2519125
000070 bb 65 96 bd 3b ba 0e be 0c 67 16 be 0b 1d c5 3d
       -0.07343622 -0.13938229 -0.14687747 0.0962468
000080 d8 71 94 bd 3f 81 5f be ed 27 1d bc 3f 8f 89 bd
       -0.072482765 -0.21826647 -0.009592039 -0.06716775
000090 cc 95 a9 bc 2f b8 ad 3c 3c fb c8 bd b4 68 00 3e
       -0.020701312 0.02120599 -0.09813544 0.12539941
0000a0 e4 3d 3d 3e 58 a7 8d 3d c2 45 01 be 61 25 fe bd
       0.1848064 0.06916684 -0.12624267 -0.12409473
0000b0 7b 07 96 bd 97 f3 be 3d 58 dd 75 bd c1 83 6a 3d
       -0.073256455 0.09323805 -0.060025543 0.057254557
0000c0 04 72 83 3d aa 85 49 3d 22 cf 02 bd 97 18 d0 be
       0.06418231 0.049199738 -0.03193582 -0.4064376
0000d0 4f 64 d4 bb 79 58 b8 be f9 e5 19 3f 81 06 66 3d
       -0.0064816843 -0.36005 0.60116535 0.056158546
0000e0 82 d8 54 3d 70 79 b2 3d 50 ab b6 3d 67 5d fd bd
       0.05196429 0.087145686 0.08919394 -0.12371331
0000f0 97 9a 16 3d 2f 87 ba bc db 93 4b bc 60 96 9b 3d
       0.036768522 -0.022769539 -0.012425388 0.07597041
000100 92 af 11 bd c7 43 ca 3e 69 5e 3b 3c df 63 37 3b
       -0.035567828 0.39504835 0.011436083 0.0027983112
000110 71 5d e9 bc 94 80 94 3d 27 5b 8e bd 7f cd 86 be
       -0.02848694 0.07251087 -0.0695098 -0.26328656
000120 a8 e0 6a bd 05 f6 61 bd 8c 7d c2 bd d8 b8 51 ba
       -0.057343155 -0.055166263 -0.094966024 -0.0008000261
000130 78 b2 f8 bd 02 87 a0 3d 3e e0 bf bd 8b 0b e0 3d
       -0.12143415 0.07838251 -0.09368943 0.10939702
000140 7d c8 b0 be a6 8e 6c bd 09 a4 33 3d 78 d8 a4 bd
       -0.3452796 -0.057753228 0.043857608 -0.08049101
000150 ff 12 9e bb 2a 08 70 3d 31 79 2b be 1e 9c d4 be
       -0.004824042 0.058601536 -0.1674545 -0.41525358
000160 55 eb 47 3e 8b e5 75 3e 81 63 8c 3c 65 8f c9 bd
       0.19523366 0.24013345 0.01713729 -0.098418035
000170 76 1f e7 3c 9a d1 4c 3d 8a b1 2f 3b c6 75 f5 bb
       0.028213244 0.05000458 0.0026808702 -0.0074908463
000180 52 f4 ce bc 05 c6 ba bd 17 3b aa 3d 22 47 bb bd
       -0.025262985 -0.091198005 0.08312052 -0.09144427
000190 7c 43 80 3e be ca c1 bc 23 43 8f bd bc 6c ae bc
       0.25051486 -0.023656245 -0.06995227 -0.021292083
0001a0 21 b3 c0 3d 0c 37 5f bd de 1c 6c bd fa 64 b0 3d
       0.09409166 -0.054495856 -0.057644717 0.0861301
0001b0 00 27 1c bf 13 43 2a bb cb a0 07 3c 5f 4f 24 3e
       -0.6099701 -0.002597992 0.008278082 0.16045903
0001c0 a9 66 bd bd 20 9f 36 bd b1 cb 02 3d 10 79 39 3d
       -0.092480965 -0.044585347 0.031932537 0.04528147
0001d0 17 86 90 be 2d 56 9a bb d9 3e ee 39 9a 97 45 3e
       -0.28227302 -0.00470998 0.00045441723 0.19296113
0001e0 08 b4 7c 3b 5d aa 1d bf c8 24 f3 3d 35 17 56 bd
       0.0038559455 -0.6158808 0.1187225 -0.052268226
0001f0 2a b2 87 bd 14 e3 04 3f f3 fe b1 3e 3c 0d e8 bd
       -0.06625779 0.51908994 0.34764823 -0.11330649

actor.4.weight f4 [4, 128]
000000 87 da 69 bd a4 c9 19 3c bd bb 2e be 79 8b 6f 3e
       -0.05709317 0.009386454 -0.17063804 0.23393048
000010 57 f1 92 3d 4b 8e 48 be 53 99 0e 3e 22 b0 11 3e
       0.07174938 -0.1958553 0.13925676 0.14227346
000020 64 a8 28 bd e4 06 7d bd e4 a6 0b be 71 60 b1 be
       -0.041176215 -0.06177415 -0.13637882 -0.3464389
000030 63 27 95 bd 2f 78 d6 3d 4c 5d ea 3d e3 a6 25 3e
       -0.07282903 0.10472142 0.11443576 0.16176943
000040 1d f1 f7 3d af 65 9d 3c ed aa 03 3d ac d7 d4 3c
       0.121065356 0.019213526 0.03214543 0.025981747
000050 45 25 5a 3b 94 f6 7e bd 39 46 25 3d ff 3c 96 bc
       0.0033286375 -0.062246874 0.040350173 -0.018339632
000060 f6 03 e6 3c 9c 6b 0f 3e fb eb 57 bc 15 22 8f bd
       0.02807806 0.14005893 -0.013178821 -0.069889225
000070 57 45 35 be 7b 10 e1 3c f8 c4 09 be e0 5a 0c 3d
       -0.17702232 0.027473679 -0.13454044 0.034266353
000080 51 26 b6 3d 94 a6 ae bd b8 a9 8d bd bb a9 ba 3d
       0.08894027 -0.08527866 -0.06917137 0.09114405
000090 d5 87 d4 3c 96 39 dd 3c 94 aa 60 bb 37 35 24 bd
       0.025943676 0.027004998 -0.003428136 -0.040089812
0000a0 84 33 a0 3c 67 02 8e be e4 a8 fa 3d b6 e8 31 3d
       0.019555815 -0.27736208 0.122392446 0.04343482
0000b0 3b 47 02 3d 23 4c 02 bd 9c c2 8c bd 96 37 ca 3c
       0.031806212 -0.03181089 -0.06873056 0.024684709
0000c0 c9 30 c8 3a 03 10 10 be 59 4c ce bd 62 c3 2a be
       0.0015273328 -0.14068608 -0.10073156 -0.16676095
0000d0 a1 d8 e4 bd e5 d2 95 be 18 e4 19 3e 90 64 05 3d
       -0.11174131 -0.29262462 0.15028417 0.032566607
0000e0 11 b6 1d 3e df 28 00 3e 1a 21 98 3d 51 c4 5d bd
       0.15401484 0.12515591 0.074281886 -0.0541423
0000f0 ea 53 64 bd 53 5b 53 3d 4d 44 18 3e 87 db a3 3e
       -0.05574409 0.051600765 0.14869805 0.32003424
000100 3b ca 43 3e 69 92 fc 3d 28 78 2f be ee ac ab 3c
       0.19120114 0.12332613 -0.1713568 0.020956483
000110 8f ac 64 be 37 28 13 3e 11 2c 3b 3c 1a 51 88 3d
       -0.22331451 0.1437081 0.0114240805 0.06656094
000120 4e d3 01 3d c0 16 84 be 57 8f 32 3e 6b e6 3c bc
       0.031695656 -0.25798607 0.17437492 -0.011529545
000130 fb 6a d3 bd 83 16 5f 3c 14 2b 87 3e a0 a8 e0 3d
       -0.10323139 0.013616207 0.26400054 0.10969663
000140 e3 33 2a 3e cb a4 18 3e f7 08 69 3d ec c7 d5 3a
       0.16621356 0.14906614 0.056893315 0.0016310192
000150 85 d4 df bd d5 b7 6a bd bb aa 3e bd ec cc 38 bd
       -0.10929207 -0.057304222 -0.04654954 -0.045117304
000160 d8 26 00 3e d4 31 08 3f ff ec eb 3c 28 53 25 bd
       0.12514818 0.5320103 0.028799532 -0.040362507
000170 47 93 8d 3e 6a 6e 8f 3c 2f 48 ad bd 84 21 7a bd
       0.27651426 0.017508704 -0.084610336 -0.06106712
000180 da 9f 8d bb ae 7e 4b be 97 60 13 3d 24 fc e2 bd
       -0.0043220343 -0.19872543 0.035980787 -0.11083248
000190 58 50 3c bb 7e 68 06 be 6c b7 a0 bd a8 1e a2 3d
       -0.0028734412 -0.13125798 -0.07847485 0.079160035
0001a0 8a 70 05 3b af aa 03 be 61 98 27 3e d3 c6 04 3e
       0.0020361268 -0.1285808 0.16366722 0.1296647
0001b0 cb 63 b1 be a7 f9 95 bd b1 6e a7 3d 24 1d 40 3e
       -0.34646448 -0.07323008 0.081754096 0.18761116
0001c0 36 e6 d7 3e cf 64 f2 bd 73 95 92 bb 7c 2a cb 3d
       0.42167825 -0.11835634 -0.004473382 0.099202126
0001d0 3b f4 7e 3e 3f b6 f0 3d e0 38 d1 3d b5 34 0d 3e
       0.24897854 0.11753511 0.10215926 0.13789637
0001e0 93 e7 e1 bd 14 3a 1a be 0e b5 ab be 1c 18 06 be
       -0.110304974 -0.15061218 -0.3353657 -0.13095134
0001f0 f3 45 54 3d 1f 01 13 be fc 6b 6e 3d f7 85 ff bd
       0.05182452 -0.14355896 0.05820845 -0.12476724
000200 c0 82 95 b8 ba c1 26 b9 57 af 22 bb 35 c7 8f ba
       -7.129228e-05 -0.00015903162 -0.002482375 -0.0010969403
000210 df 7b b7 b8 f2 81 08 bb 6b b2 c5 3c dd d4 27 3c
       -8.749193e-05 -0.0020829407 0.024132928 0.010243622
000220 e9 fc 58 38 b2 9e be bc 29 c4 09 3d 6a 44 7a bc
       5.1733954e-05 -0.023269031 0.03363434 -0.0152751
000230 ef 76 22 bd ea 75 4d bb 78 98 e8 39 49 66 4e 3e
       -0.039664205 -0.00313508 0.00044364086 0.20156206
000240 92 05 22 bc b8 b8 f7 bc 3c c3 36 3a 6c 2c 0b b8
       -0.009889023 -0.030239448 0.0006971841 -3.3181554e-05
000250 3e ef 1d b9 9c 66 75 ba 7f 69 18 b8 e3 8a 51 bd
       -0.00015061811 -0.0009361298 -3.6337875e-05 -0.051157843
000260 1c 19 de 3a 84 10 35 39 5d a9 3f 3a f1 3d b0 3c
       0.0016944739 0.00017267658 0.0007311309 0.021513911
000270 6a 5c 68 ba 52 0e d4 3d 3a 4d 8b bc 23 d6 42 38
       -0.00088638684 0.10354294 -0.017004598 4.6452635e-05
000280 f5 3c 63 ba 4a e6 22 bd a4 0f 3c 38 ad 00 12 3a
       -0.0008668446 -0.039770402 4.483726e-05 0.00055695587
000290 1a 24 85 b9 c7 72 2c 38 a8 85 dc 3b fc f2 c4 39
       -0.00025394635 4.111489e-05 0.0067298003 0.0003756507
0002a0 54 c3 31 3d 01 e1 26 3a 40 32 b4 38 59 ca 8a 38
       0.04339917 0.00063659257 8.592429e-05 6.618043e-05
0002b0 d2 54 51 b9 51 aa aa b7 ab 69 23 3a 49 db fd 38
       -0.00019963391 -2.0344889e-05 0.00062337023 0.00012104825
0002c0 0d 24 38 39 44 18 a9 b5 5a 77 26 b8 8b 8d 50 bd
       0.00017561037 -1.2598543e-06 -3.968864e-05 -0.050916236
0002d0 af 41 78 39 54 ad 55 bc 3e 4d de 3e 2a 3e 7a b9
       0.00023675592 -0.013041813 0.43418306 -0.00023865016
0002e0 8b 10 3f b9 52 08 5e b9 c4 ee 41 39 91 68 da 39
       -0.00018221342 -0.0002117467 0.00018494861 0.00041658108
0002f0 57 0f cb ba a7 76 04 39 95 4f d4 39 b6 c8 31 3a
       -0.0015492243 0.00012632702 0.00040495084 0.00067819224
000300 af 69 29 3a b7 6a 97 3c 7b 01 a6 3a 87 bc 83 38
       0.00064625865 0.018483503 0.0012665236 6.281683e-05
000310 84 d6 0f 38 e0 ff f5 3a 57 ee 2a b9 28 db dd bc
       3.429364e-05 0.0018768273 -0.00016301252 -0.02708204
000320 7b c8 fd 38 18 53 f9 b9 c7 a2 31 3d a4 97 61 3a
       0.000121013225 -0.0004755489 0.043368127 0.0008605665
000330 9a 52 46 39 c9 eb 22 b8 0c f8 bf 3b 8c ac 18 be
       0.00018913523 -3.8843402e-05 0.005858427 -0.14909571
000340 ec f8 c7 3d d9 cc b2 37 a7 55 97 ba 90 27 19 39
       0.09764275 2.1314643e-05 -0.0011545912 0.00014605955
000350 ce 53 da 39 82 e4 1a b8 f5 b0 a6 3d e2 77 c4 3d
       0.0004164264 -3.6929276e-05 0.081392206 0.09593178
000360 23 ef 95 ba 87 42 0c 3c 23 be fd 38 c1 3f 95 38
       -0.0011439066 0.008560783 0.00012099396 7.116749e-05
000370 c7 6f 84 38 63 09 a6 39 8e 93 d9 b9 90 6f e9 b7
       6.315071e-05 0.0003166898 -0.00041499402 -2.7827715e-05
000380 5c 95 bf 38 f9 3d fc b9 44 f4 1a 3a 0b fd 5c b9
       9.13541e-05 -0.0004811136 0.0005911032 -0.00021075101
000390 5b 10 21 3b 1e aa a7 37 5f 5c 94 39 a9 9e 7c 38
       0.00245764 1.9987168e-05 0.00028297582 6.0229246e-05
0003a0 bf 8f 48 39 1f 34 aa b9 53 30 8c 39 50 e8 9a ba
       0.00019127036 -0.0003246376 0.00026738885 -0.0011818502
0003b0 88 ce 39 3d 26 23 db 39 0c 65 64 b8 5e 91 79 3d
       0.04536298 0.00041797123 -5.4453543e-05 0.06092965
0003c0 b9 15 34 bc 8e c7 69 ba 10 e9 37 b9 d7 6c fe b9
       -0.010991507 -0.00089179806 -0.00017539063 -0.00048527747
0003d0 7e 31 b3 bc c0 91 88 b9 18 ba 5c 39 11 41 52 3d
       -0.021874186 -0.00026048534 0.0002105016 0.051331583
0003e0 9a b7 b0 b9 b7 8f 9c bc 32 81 2f 3d 67 97 46 3b
       -0.0003370613 -0.019111497 0.04284782 0.0030302645
0003f0 35 33 b4 37 1a 6d ac 3d bf 07 c8 3c ec 6d 8d ba
       2.1481517e-05 0.08419247 0.024417756 -0.0010790206

actor.4.bias f4 [4]
000000 7b d1 11 3f 63 85 e1 3e 3c ca e5 3e c9 5c 80 3e
       0.56960267 0.44047078 0.44880855 0.2507079

critic.0.weight f4 [128, 17]
000000 dd 31 ca 3e 38 40 9e bf 56 36 07 c0 eb 39 04 be
       0.39491168 -1.2363348 -2.1126914 -0.12912719
000010 1f 3b 0f bf a4 47 34 3f f1 2d cf 3f 01 c1 6e bf
       -0.55949587 0.70421815 1.6185895 -0.9326325
000020 ce 37 b2 3f 1d 5e 8a 3e e2 bc 9c 3e 9a 24 09 3e
       1.392328 0.27024928 0.30612856 0.13392869
000030 59 78 b7 be a6 68 a5 bd 17 b5 33 be 78 20 46 be
       -0.35834005 -0.08076601 -0.17549549 -0.19348323
000040 37 92 3f be ac b2 31 bf 85 f7 eb 3e eb 5a 22 bf
       -0.1870812 -0.69413257 0.4608728 -0.6341998
000050 75 cf 09 3f 48 cd d5 3d 23 ac aa 3f b4 a6 50 be
       0.5383218 0.10439545 1.3333782 -0.20376092
000060 f6 9d aa 3f 6a 51 68 be 39 4c 80 3f 23 36 6a bc
       1.3329456 -0.22687307 1.0023261 -0.014295134
000070 2c 47 2b bd 82 d7 86 be 56 28 6a 3d 6e 0c 24 3e
       -0.04181592 -0.26336294 0.057167374 0.16020367
000080 9a c7 00 3e 96 a0 29 3e 01 09 d1 3e 87 13 47 40
       0.12576142 0.16565165 0.40827182 3.1105669
000090 9a 31 40 c0 29 0c 1a bd c1 d8 55 3e c6 cc e1 be
       -3.0030274 -0.037609253 0.20883466 -0.44101542
0000a0 73 8b 5c 3d ce 69 9f 3e 5e 78 51 3f 28 a7 91 bf
       0.053843927 0.3113541 0.8182429 -1.1379137
0000b0 f6 a5 9e bf 72 6a 23 be 8b 8e 06 bc 19 0e 01 bd
       -1.2394397 -0.15958574 -0.008212696 -0.031507585
0000c0 a5 df c6 bd b6 13 dc 3d e1 42 7e 3e a2 69 96 bf
       -0.097106256 0.10745947 0.248302 -1.1750987
0000d0 a7 53 cf 40 f3 17 2a bf f2 2c 37 be 46 53 2b bf
       6.4789615 -0.66442794 -0.17888239 -0.6692394
0000e0 f1 23 1c c0 fe 75 23 3f c3 d8 82 3f 19 82 8f 3d
       -2.4396937 0.63851917 1.02224 0.07007236
0000f0 9e 60 5c 3e 60 6b 8b ba 9c fa 49 bc fa 1b 78 bd
       0.21521232 -0.0010636859 -0.012327816 -0.060573556
000100 21 a3 21 3d 60 cf 7b bd c1 e7 a8 bc ae 08 91 3c
       0.039462212 -0.061477065 -0.020618321 0.017704334
000110 f6 93 c5 3f 1c e0 f8 3f 5c d6 52 c0 7a d3 ca be
       1.5435779 1.9443393 -3.2943335 -0.3961447
000120 97 6a c6 3e 95 5a af 3e b8 bb 16 bf 85 ec 1e bf
       0.38753197 0.34248796 -0.58880186 -0.6207965
000130 a0 96 15 40 e7 94 81 3f 0e 94 7a 3e bd cb fc be
       2.3373184 1.0123566 0.24470541 -0.4937419
000140 d0 02 10 bf 61 d7 22 3c 65 98 19 3e 8e 83 07 bc
       -0.5625429 0.009939046 0.1499954 -0.008271111
000150 2a df f2 bc c3 99 f7 bf 83 06 f9 bf e9 d0 b6 bf
       -0.029647429 -1.9343799 -1.9455112 -1.4282504
000160 83 52 34 3c e2 a6 6f 3e c2 c1 d8 bf e2 a6 c4 3e
       0.011006 0.23403504 -1.693413 0.3840857
000170 02 78 d6 be 99 50 28 3e 33 85 61 bf 5a fb ad 3e
       -0.41888434 0.16436996 -0.8809387 0.3398083
000180 f4 d8 c1 be a1 0a f0 be 81 fc e2 bd 96 0e ec bd
       -0.37860835 -0.4688311 -0.110833175 -0.115262195
000190 ae 74 07 be 1e 93 19 bd ec cc 29 3f 9a 2a 88 3d
       -0.13228104 -0.037493818 0.6632831 0.066487506
0001a0 09 f6 b7 3f 3c bc 67 bf 52 34 33 40 5f 41 50 3d
       1.4371959 -0.905216 2.8000684 0.050843593
0001b0 d3 a8 b1 3d 8a de 37 3e a9 b7 8c bf 42 63 8f bf
       0.08674779 0.17955986 -1.0993549 -1.1202166
0001c0 45 e3 be bd bc 40 49 bc 27 33 25 3e e6 33 65 ba
       -0.09320692 -0.0122835 0.16132794 -0.000874339
0001d0 76 9d 7b bd 20 c8 10 3d f8 5b 86 3c 55 ec e5 be
       -0.061429463 0.035347104 0.016401276 -0.4490687
0001e0 d9 30 00 3f e7 5a 9b bf 8a 5f f3 be 5e a4 a1 3f
       0.50074536 -1.2137116 -0.47533828 1.2628286
0001f0 a7 92 3c bf 6b 20 eb be 4f 9b 2a 3f 3d c4 be 3f
       -0.73661274 -0.4592317 0.6664323 1.4903637
000200 14 75 8f bf b7 9e ea be 89 c3 c3 3f 9e 0c 09 3f
       -1.1207604 -0.45824215 1.5294048 0.5353488
000210 57 80 ac be 56 9e 1a bf 27 8f b5 be b4 21 51 be
       -0.33691666 -0.6039785 -0.3546078 -0.20423013
000220 ab db af 3f ea 04 7a bf 60 d3 e5 c0 6c 2e ed 3e
       1.3738912 -0.9766375 -7.1820526 0.4632448
000230 a0 57 b3 3e e3 cf bf 3d 7b d1 73 3f 40 52 36 bf
       0.3502779 0.09365823 0.95241517 -0.71219254
000240 20 28 8c 3f 79 50 24 3f 99 a9 73 3d b1 37 26 be
       1.0949745 0.6418529 0.059487913 -0.16232182
000250 7d 3f 1e be 77 13 4a bd 15 d2 fd 3c aa 6d d3 bc
       -0.15453906 -0.04933497 0.030983964 -0.025809128
000260 5e 82 bd 3b 68 70 b4 be 73 ef f0 3e 81 1e dd 3f
       0.0057833632 -0.3524201 0.47057685 1.7274934
000270 72 94 07 bf dc ce b0 bf e5 6c ad 3e f8 6b 4e be
       -0.52960885 -1.3813128 0.33872142 -0.20158374
000280 17 4a b4 be e5 df ff bf 55 ff 4d be b5 87 c7 3e
       -0.35212776 -1.9990202 -0.20116933 0.38970724
000290 34 85 a2 3e c2 ea 47 40 06 93 26 3e 88 57 99 3b
       0.3174225 3.1237035 0.16267022 0.004679624
0002a0 8e 40 6d 3e b7 23 d9 bc e4 90 e5 3f 3f 1b 74 c0
       0.23169157 -0.026506288 1.7934842 -3.814163
0002b0 08 28 ed bf 0e 1b d4 3e e4 b7 a9 bf 37 1f 6e bd
       -1.8527842 0.4142689 -1.3259244 -0.058135238
0002c0 af 60 1c 3f 64 a3 d9 bd 4c 14 0f bf f2 9a 44 bf
       0.6108503 -0.106268674 -0.55890346 -0.7679893
0002d0 1c dc 7e be 88 9a de 3d 2c be a8 3e f3 54 31 3e
       -0.24888653 0.10869318 0.3295759 0.17317562
0002e0 cd 6a 11 3e e6 17 5e 3e 9d fe fd 3d 04 eb 09 c0
       0.14200898 0.21688804 0.12402079 -2.1549692
0002f0 c3 22 42 3f 11 09 61 c0 10 40 65 bf dd 50 12 40
       0.7583429 -3.5161784 -0.89550877 2.2861855
000300 dd 6f 7c 3f af e7 46 bd f2 e4 a4 3e b4 33 ce 3e
       0.9860819 -0.048560794 0.3220592 0.4027382
000310 68 c8 65 bf 34 56 69 bd 53 5b 40 bb c9 ae 8b 3e
       -0.8975892 -0.056966975 -0.0029351308 0.27281788
000320 25 11 c9 bd 6b 39 9a be 16 3e 5a bd f4 a5 0b be
       -0.09817723 -0.3012193 -0.053281866 -0.13637525
000330 ff 26 da be ec ac 25 c0 d0 8e 38 3f ff 02 02 3e
       -0.42607877 -2.5886793 0.72092915 0.12696455
000340 28 eb 34 be 67 a3 7c bf 1c b4 8f 3f bc 0f b4 3e
       -0.1766783 -0.9868683 1.122684 0.35168254
000350 f4 ee 97 3f a6 b1 b7 be 55 c0 23 c0 2f 57 f8 3f
       1.1869798 -0.35877723 -2.558614 1.9401606
000360 11 b9 4c bf a5 e9 58 be 39 b9 9d be 5e db 9c be
       -0.7996989 -0.21182878 -0.30805376 -0.30636114
000370 44 94 34 be 6b 33 86 bf 5c 9c 11 40 02 85 04 40
       -0.17634684 -1.0484442 2.2751684 2.0706182
000380 0f d1 c0 3e 6c e9 1e 40 6c 73 1d 3f 92 d8 19 c0
       0.376595 2.482997 0.61504245 -2.4038434
000390 05 11 96 bf 4d e5 29 bf 17 ae dd 3e c7 e4 7b 3e
       -1.1723944 -0.6636551 0.43296883 0.2459899
0003a0 08 4c 6e 3d d9 6b 9d bc f0 58 c5 3d 24 07 d8 3d
       0.058177978 -0.019216465 0.09636104 0.10548237
0003b0 f7 bb 68 3d ac 97 b2 3d fe 4a aa 3e 7e 6f d5 bf
       0.056819882 0.08720335 0.3326034 -1.667465
0003c0 d8 f0 d7 bf b6 dc 8f bf f5 4a c5 3f f2 9f 98 3f
       -1.6870375 -1.1239231 1.54135 1.1923811
0003d0 7e 39 3c bd 71 82 fe bd 6a 37 34 bf d8 d3 7a 3f
       -0.045953266 -0.124272235 -0.70397055 0.979795
0003e0 9b 42 3e 3e 60 34 dc bd 32 48 b7 bd 20 ad b7 bd
       0.18580095 -0.10752177 -0.08949317 -0.08968568
0003f0 ef 3d 45 be 3a 9b 12 bd ec 5e 5c bd 44 11 32 be
       -0.19261907 -0.035792567 -0.053801462 -0.17389399

critic.0.bias f4 [128]
000000 25 1a a6 be d6 93 ad 3e e4 10 84 3c 30 03 31 be
       -0.32441822 0.33901852 0.016121335 -0.17286372
000010 bb 4a 97 be 80 1c 4e bf 39 cf 02 bf e3 04 d1 be
       -0.29549202 -0.8051224 -0.51097447 -0.4082404
000020 ad e8 04 3d 67 42 ef be 53 e1 01 3d 20 9b a3 be
       0.03244846 -0.46730348 0.031709027 -0.31954288
000030 e4 ad 27 bd bf 90 0a 3f 17 89 71 bf 3f ef b0 be
       -0.04093732 0.54127115 -0.9434981 -0.3455753
000040 4e 47 70 be bf b1 e1 3c 9e 5d 39 bd 10 80 1d 3f
       -0.234647 0.027550576 -0.045255296 0.6152353
000050 ec ae 80 3e f3 c4 10 3f a3 57 a5 be 85 c6 99 be
       0.25133455 0.5655052 -0.32293424 -0.3003427
000060 58 26 bb be b5 02 c2 3c 49 92 0a 3d 39 8f 46 3f
       -0.3655269 0.023682931 0.033830915 0.7756229
000070 bb 21 2c 3e 7c 16 53 3e 9f 52 2d bd a5 bd a7 3d
       0.16809742 0.20614046 -0.04231512 0.08190469
000080 8e 9a 36 bf e8 d3 52 3d 4b 01 49 be 50 b9 a7 be
       -0.7132958 0.05147162 -0.196294 -0.3275857
000090 76 f2 06 bf 2f ed b3 3e 54 3d 14 bf eb 8b 49 be
       -0.52713716 0.35141894 -0.5790608 -0.1968228
0000a0 14 a3 7f 3e 99 7d 09 3f 9a 09 80 bf ff ad a8 3e
       0.24964553 0.5370727 -1.000293 0.32945248
0000b0 be 32 ea be be 93 82 3c 49 c5 10 bc 8d ea 41 3e
       -0.45741838 0.01593959 -0.008836099 0.1893713
0000c0 f0 c3 10 bd e8 b3 f0 be bd be 8f 3e b0 f4 79 bb
       -0.03534311 -0.47012258 0.2807521 -0.003814023
0000d0 09 76 46 39 ce 63 e6 3e 56 35 c1 3c d5 96 27 3f
       0.00018926723 0.4499802 0.023585003 0.65464526
0000e0 7c f9 13 3f ad ae 3f be a7 f4 d0 bc 93 46 04 be
       0.5780256 -0.18718977 -0.025507284 -0.12917547
0000f0 48 08 a1 3d 7b 18 9b bc 79 20 92 bd 70 cf 28 3f
       0.07862908 -0.018932572 -0.071351 0.65941525
000100 fa f6 6d 3e 27 4d eb be 35 dc db be 24 c0 fa 3e
       0.23238745 -0.459573 -0.42941442 0.48974717
000110 ef 65 c5 bd d1 f7 2b 3d 6d bb 5d be f6 26 52 be
       -0.09638583 0.041984383 -0.21653529 -0.20522675
000120 ba 56 d1 bd 88 87 e5 be e7 12 96 3c f8 5b a2 be
       -0.1022162 -0.44829965 0.01831956 -0.31710792
000130 f7 5a 29 be a6 fa 81 3e 89 b8 6e be 71 e0 06 3f
       -0.16538607 0.25386542 -0.23312582 0.5268622
000140 5a 63 cf 3e 55 e0 bd bd a9 eb 48 3e 96 08 75 3e
       0.40505487 -0.092713036 0.19621147 0.23929057
000150 56 7b 1a bb 17 96 9e 3b 1b fb 42 be 6c a9 c3 be
       -0.002357205 0.0048396694 -0.19041102 -0.38215196
000160 54 e1 94 be de 1d 15 3f f3 3a 6b 3e 75 14 44 be
       -0.29078162 0.582487 0.22971706 -0.19148429
000170 bc 86 07 bd 05 d1 dc 3d 01 7d b5 bd fa de ff be
       -0.033087477 0.10782055 -0.08861733 -0.49974805
000180 cb 0e 07 be 25 fc 16 3f bb 08 ed 3d b9 10 de 3e
       -0.13189237 0.5897849 0.11573931 0.43372133
000190 32 1f 33 bf 58 83 c2 be 9b d9 8f 3e 2b 6a 71 be
       -0.69969475 -0.37990832 0.28095707 -0.23575656
0001a0 3d 65 84 3e 12 6a 9c 3e ae f4 6a bd 7f 37 a8 bd
       0.2585849 0.30549675 -0.05736225 -0.0821371
0001b0 b8 b4 38 3e c9 1e 89 3e c5 49 65 3c 33 fa b8 3e
       0.18037689 0.267813 0.013994639 0.36128387
0001c0 b1 88 30 3f a0 d4 3f bf a8 24 65 3e 08 8f c8 3e
       0.68958575 -0.74933815 0.22377264 0.39171624
0001d0 ca 7a cc be c9 3b b7 be 6b 4a 01 3f e7 2f 85 3e
       -0.3993743 -0.357878 0.5050418 0.2601311
0001e0 f6 4c 35 3d e2 65 ab be 02 8a 4c bd 4d 45 2c bd
       0.04426285 -0.33476168 -0.049936302 -0.042058278
0001f0 ac 20 96 be dd 7f c1 3e 16 4d df be d3 27 21 bf
       -0.29321802 0.37792864 -0.436135 -0.6295139

critic.2.weight f4 [128, 128]
000000 6b e7 82 be fe 8f 46 be 01 82 c3 bc ab 96 bd be
       -0.25567183 -0.19390866 -0.023865702 -0.37029013
000010 69 7a fb 3d 85 a7 8b 3e b0 95 c1 3e 33 7b 83 bb
       0.12279207 0.27276245 0.37809515 -0.004012489
000020 a4 0f 91 3f 27 88 bd be 21 40 37 3d a5 f3 ab bf
       1.1332898 -0.37017938 0.044738892 -1.343373
000030 c9 42 f8 be 93 84 91 bf 04 22 fd bc 2a d5 f9 bc
       -0.48488453 -1.1368583 -0.030900009 -0.030497152
000040 60 74 00 3f 2d c0 c5 3e 23 0a 65 be 02 7b 8a bf
       0.50177574 0.3862318 -0.22367148 -1.0818789
000050 87 2b 9e be 29 19 d1 3e 1e 5d 5e 3e e6 08 92 3f
       -0.30892584 0.40839508 0.21715209 1.1408966
000060 29 78 49 bd 6f e5 cd 3e d0 37 31 bf b2 73 db 3e
       -0.04918686 0.40214106 -0.6922579 0.42861706
000070 7a a9 a7 bd e5 16 db be 5a 9d 65 be bd 1a 19 bf
       -0.08186622 -0.42790905 -0.22423306 -0.59806424
000080 0a 1d 45 bf 4b ed 21 be 8a 7e ee 3e 66 dd 1e bf
       -0.76997435 -0.15813176 0.46580917 -0.6205658
000090 18 85 b9 3e e9 fb 51 3e be bb a3 3e 25 e9 ea be
       0.36234355 0.20506252 0.31979173 -0.45881
0000a0 3f 20 d1 3e 4f 66 ab 3d ef 7e d0 3d 71 28 ff 3d
       0.40844914 0.08369123 0.10180461 0.124588855
0000b0 13 a0 18 bf 41 9b b0 be 44 ad 4b 3d ad 79 88 be
       -0.59619254 -0.3449345 0.049725786 -0.2665533
0000c0 0c 9a 37 3f 25 a8 46 3f f9 1b 6b 3f ba a5 17 3e
       0.7171943 0.7760032 0.9183956 0.14809313
0000d0 02 2c a5 bd a8 3f d4 3e 40 9e 73 3f 62 70 92 3f
       -0.080650344 0.41454816 0.95163345 1.1440547
0000e0 67 b4 af bd b3 ce 7e 3e a5 1f 37 3f e7 e3 52 3f
       -0.08579331 0.24883537 0.7153266 0.82379
0000f0 e4 20 2b be b7 54 8b be 4c 56 76 bf 5c 29 0c 3f
       -0.16711766 -0.2721307 -0.9622543 0.5475061
000100 f1 04 1d bf c9 3c 03 3e 4f fe 05 c0 18 8d 2c bf
       -0.61335665 0.12816156 -2.0936468 -0.6740279
000110 14 ad b5 be d3 9c 12 bd 04 b0 a9 3d dd d9 27 3d
       -0.3548361 -0.03579409 0.082855254 0.040979255
000120 61 2c 52 3f 88 4e 9a be d2 27 71 3f 58 08 92 3d
       0.82098967 -0.3013804 0.94201386 0.07130498
000130 3d 1e 16 3f f4 a6 10 bf 74 62 1c bf 8f 00 ff 3e
       0.5863989 -0.5650475 -0.6108773 0.49805114
000140 20 6d 6c be 3d 7a a8 3e 6a a3 73 3e ae a4 ce bf
       -0.23088503 0.3290576 0.23792806 -1.6144006
000150 6c 1c 3f 3e 6c a8 13 3e 60 a5 09 3e 46 a3 fc 3c
       0.18663186 0.14419717 0.13441992 0.030839574
000160 8c bc 24 3f ae 85 48 3f 68 56 ff 3e eb e5 38 3f
       0.643502 0.7832898 0.4987061 0.72225827
000170 88 f3 99 3e d7 01 db be 35 c0 4a 3d 73 25 55 be
       0.30068612 -0.4277484 0.04949971 -0.20815067
000180 6d 8d ae 3e be 0c 39 3f ce 71 19 3f 9e 6e 83 be
       0.34092274 0.7228507 0.5993928 -0.25670332
000190 03 63 1f 3e a4 2a 04 3f 5b e0 1d 3f a0 48 26 3f
       0.15565114 0.51627564 0.61670464 0.64954567
0001a0 24 ea 1a 3f 1b 97 fb 3e 4e 5b d9 3e 3d bb c4 be
       0.6051352 0.49138722 0.42452472 -0.384241
0001b0 62 da 2b bf 70 16 9e be 52 eb 01 3f 00 0f e1 3e
       -0.671301 -0.30876493 0.50749695 0.43956757
0001c0 68 7e 4e bd c0 44 fa 3e ed fe da 3e e4 d4 e5 bf
       -0.05041352 0.48880577 0.42772618 -1.7955594
0001d0 cc 2a 16 3f e0 ef a6 3f a3 4c 79 3f f3 c9 67 be
       0.5865905 1.3041954 0.97382563 -0.22635631
0001e0 49 39 27 bf 74 3f fc be c8 b1 92 be b1 c1 70 3e
       -0.65321785 -0.4926716 -0.2865126 0.23511387
0001f0 98 db f8 3e 89 40 21 be 7a 71 73 bf 46 57 a6 3e
       0.48605037 -0.15747274 -0.95095026 0.3248846
000200 f1 fd 49 bf 8f c3 9f be c1 5a 5c 3e 9f 07 96 3f
       -0.7890311 -0.31203887 0.21518995 1.1721076
000210 f1 e1 af bd bb a9 7b 3f 44 92 1d 3f 93 5e d4 39
       -0.08588017 0.98305863 0.6155131 0.00040506254
000220 cf ef cc be 8a c3 84 3e 84 94 06 3f f9 6b 53 bf
       -0.4002671 0.25930434 0.52570367 -0.8258663
000230 6a a2 27 3e b2 27 6b bf 5f af 9e 3e b5 55 40 3e
       0.1637055 -0.91857445 0.30993173 0.18782695
000240 a3 05 ca 3e b4 97 0c 3f ef bd b2 3e 55 7d 85 3e
       0.39457425 0.5491898 0.34910533 0.26072183
000250 ea e2 44 3e be 57 ff 3e df fd 30 3f 05 5e 3c be
       0.19227186 0.4987163 0.69137377 -0.1839524
000260 1d a2 b6 be 99 1c 43 bd 70 ee 96 3d 5e 1e 89 bf
       -0.35670558 -0.047634695 0.07369697 -1.0712392
000270 de 21 87 be ca 10 fe be 40 d1 01 bf 01 19 70 3f
       -0.26393026 -0.49622184 -0.50709915 0.9378815
000280 55 8e fe bc ee 7c d2 bd c8 47 f7 be 51 25 e3 3e
       -0.031073729 -0.10277735 -0.48296952 0.44364408
000290 a6 46 9c 3f d0 ad 6a 3c 00 de 27 3f 27 a0 9c 3d
       1.220906 0.014323667 0.6557312 0.07647734
0002a0 42 ec 98 3f d8 4d eb bd 9a 53 45 3f b1 49 a2 bd
       1.19471 -0.11489457 0.7708069 -0.07924212
0002b0 2c 35 4d be b4 8a a4 bd 8e 56 22 be 9e 76 f9 bd
       -0.20039815 -0.08034268 -0.1585333 -0.121808276
0002c0 5c 49 02 3e f4 08 be 3e 73 eb 87 3f b8 a3 51 3f
       0.12723297 0.37116206 1.0618728 0.8189044
0002d0 8a 97 95 3e 25 4b 51 3f a5 69 23 bf 89 18 43 3d
       0.29217178 0.81755286 -0.63833076 0.04763082
0002e0 ce f5 0f bf 10 d4 e7 3d 56 89 b4 3c 78 ae 8d 3e
       -0.56234443 0.113197446 0.022038143 0.27672172
0002f0 b3 55 b8 be 16 cd 74 bf b7 cf 07 bf 4c 12 2c 3f
       -0.36002883 -0.95625436 -0.5305132 0.6721542
000300 af 14 85 bf ff fa 4b be 69 7d 75 be 0e 89 37 be
       -1.0396937 -0.19919966 -0.23973621 -0.17923376
000310 fe 00 ea 3c 68 c3 1d 3f d5 bb a4 3d 54 80 d1 be
       0.028564926 0.6162629 0.080436386 -0.4091822
000320 b5 5c 2d 3f 53 12 86 3e 21 c4 3f 3f a4 36 a9 3e
       0.67719585 0.26185855 0.74908644 0.330495
000330 3c 27 d5 be fd 02 f4 3e 66 f5 8a bf 73 01 12 bf
       -0.41631496 0.4765853 -1.085614 -0.5703346
000340 d1 21 94 3d dd 1e b5 3d 30 fd 4f bf 96 05 72 bf
       0.072330125 0.08843777 -0.8124571 -0.94539773
000350 71 53 61 bd fd a2 1e 3f d9 96 00 be 6d c4 56 bf
       -0.055011217 0.6196745 -0.12557544 -0.8389347
000360 cd c2 20 3e 6c f6 94 3d e2 58 8f 3d 77 1e de 3e
       0.1569931 0.07273564 0.06999375 0.43382618
000370 7e 3d 72 3d 1d 39 61 be 89 c1 55 3e 31 64 9b 3e
       0.059140675 -0.21994443 0.20874609 0.30349877
000380 9e 7f 81 3e 64 88 92 3f 0f 57 60 3f ad 9c 2e 3f
       0.25292677 1.1447873 0.8763284 0.6820782
000390 41 0f 90 3f 82 6a e7 bd c4 02 1f bf 97 52 44 be
       1.1254655 -0.11299612 -0.62113595 -0.1917213
0003a0 51 71 d3 3e 6d 25 b7 3d 77 7d 94 be 6a 91 6f bf
       0.4129739 0.08942685 -0.29001972 -0.9358126
0003b0 29 99 3f 3e f6 4a e6 bd 1c 0c 1c 3e 5c 87 1a bf
       0.1871077 -0.112447664 0.15238994 -0.6036279
0003c0 c0 e4 05 3d 40 82 4a 3f a8 c6 c6 3d b9 44 8f bf
       0.032688856 0.79104996 0.097058594 -1.1192847
0003d0 5c 4a 38 be 31 13 af 3d 19 b0 e5 3d cd 63 ab be
       -0.17997116 0.08548582 0.112152286 -0.3347458
0003e0 c8 5b 92 be 35 8f 50 bf 49 63 4d 3f 6c c0 8a 3a
       -0.2858565 -0.81468517 0.8022962 0.0010585911
0003f0 77 61 a5 3e ca cf 23 be d8 2e 8a bf a2 e6 b3 bd
       0.32300922 -0.15997234 -1.0795546 -0.08784224

critic.2.bias f4 [128]
000000 65 a4 bc be 0e b0 d3 be 5d 77 90 bd fe c0 52 be
       -0.36844173 -0.41345257 -0.07054017 -0.20581433
000010 30 d7 af 3d ba 7d ca 3e dc 99 a2 be 78 22 85 3e
       0.08585966 0.39549047 -0.3175801 0.2600286
000020 e1 49 17 be b3 c4 5a 3e f6 99 57 3e d7 42 e6 3c
       -0.14774276 0.21364097 0.21054825 0.028108044
000030 63 76 20 3e 77 87 00 3f f1 12 4c 3e 2b e7 09 bf
       0.15670161 0.502067 0.199291 -0.5386836
000040 33 f1 09 3e 8b ba 0b bf d5 d8 67 be ad b9 25 be
       0.13470916 -0.54581517 -0.22641309 -0.16184111
000050 1d 49 5c bd 64 ad ee be da 89 bc 3d 38 5c a9 bd
       -0.053780664 -0.46616662 0.092059806 -0.082695425
000060 92 f1 92 3e 95 f8 a0 3f cc 0a 65 be 43 5a 42 3e
       0.2869993 1.2575861 -0.223674 0.18979745
000070 53 e9 f3 bf e9 ce ba be 73 58 f3 3e 5f f7 02 3e
       -1.905558 -0.36485985 0.4752842 0.12789677
000080 9c c4 e1 bc 67 49 30 bf e2 ae ee be 64 43 8d 3b
       -0.027559571 -0.68862003 -0.466178 0.004311012
000090 33 65 86 3e cf 1d 9b 3e 3a 34 44 bf 1f e3 95 3e
       0.26249084 0.3029618 -0.7664219 0.29274842
0000a0 ee a3 4e bf 44 03 3b be a0 ca 34 be 8e 3f 15 bd
       -0.80718887 -0.18262964 -0.1765542 -0.036437564
0000b0 1c f1 06 3f c2 da 3e 3e a5 b2 e5 bd 49 d7 bd 3e
       0.52711654 0.18638137 -0.11215714 0.37078312
0000c0 f5 9e bb be 74 ed 24 3e 3e a2 32 3f c9 6f 02 bd
       -0.36644712 0.16106206 0.6977881 -0.031844888
0000d0 f3 7c 00 3f 6a 58 91 3e 41 49 04 3e 0b 2d 88 be
       0.5019066 0.28387767 0.12918569 -0.26596865
0000e0 e1 a3 8d 3e c9 27 1a bd 2d bc 2c be 2b f4 80 be
       0.27664092 -0.0376356 -0.16868658 -0.25186285
0000f0 c5 d5 50 bc a5 97 5a 3f 44 b7 7f be ea 2d 5d 3e
       -0.012746279 0.8538764 -0.24972254 0.21599546
000100 7d ef 1a 3d ee ac 81 be dd 6e 19 3e 59 58 51 be
       0.03782605 -0.25327247 0.14983697 -0.20443858
000110 d9 1b 10 be 6a ed da bd cd 0a a1 bc a3 51 5c be
       -0.14073123 -0.106898144 -0.01965847 -0.21515517
000120 dd ff a8 be d8 93 fc bd fa a9 08 3e 0a ba 71 3e
       -0.33007708 -0.123328865 0.13346091 0.23606125
000130 ba fb 05 be a0 51 45 be 95 12 1f 3f 69 10 c5 3e
       -0.13084307 -0.19269419 0.6213773 0.38489082
000140 a9 34 a8 be 78 da 18 bd 4e 18 92 3d b6 d1 15 3f
       -0.32852677 -0.037317723 0.07133542 0.5852312
000150 fb 5a 51 bf 4e 76 90 3e f2 a2 81 3e 61 8b 9d ba
       -0.8177945 0.2821526 0.2531963 -0.0012019688
000160 fc ad 0b bf b7 a6 0e be ea e2 15 bf 97 24 a1 bc
       -0.54562354 -0.13930784 -0.5854937 -0.019670768
000170 f9 70 2a 3e 19 c4 54 3e 35 56 7f bd 8e 07 c6 bd
       0.16644658 0.2077793 -0.062338073 -0.0966941
000180 97 f4 21 3e b1 f6 1f be d9 42 97 3d 49 42 83 3e
       0.1581596 -0.15621449 0.07385797 0.2563651
000190 ca 6b d4 3c 27 2d b1 3e a1 de 9d 3e 4a 26 c5 3e
       0.025930304 0.3460476 0.30833915 0.38505775
0001a0 57 a2 e9 3e 07 30 bb bd 05 d1 c9 be 56 c4 ed 3e
       0.45631668 -0.0914002 -0.39417282 0.46438855
0001b0 8f 24 56 3e 7b 18 11 3d 95 ee 46 bf c9 87 a3 be
       0.20912383 0.035423737 -0.777078 -0.31939533
0001c0 e7 36 90 3d a9 9e 24 3e 56 7d 32 3e 99 cd f1 3e
       0.07041722 0.16076149 0.17430624 0.4722717
0001d0 03 b1 9d 3d a5 2e db 3d 52 09 eb be 37 fe 6d be
       0.07699778 0.10702256 -0.45905548 -0.23241507
0001e0 78 e4 a5 3e 80 a9 c1 be c8 90 ec 3e a6 c7 aa 3d
       0.3240087 -0.3782463 0.4620421 0.08338861
0001f0 cb c7 95 bd ae 50 82 3e 42 de 87 3e c7 af ca bf
       -0.07313498 0.2545218 0.26536757 -1.5834893
