examples/drone/logs/drone-waypointing/model_1500.pt (torch, 474978 bytes, 36 tensors)

std f4 [4]
0.24284196 0.0700824 0.32703823 0.1933822
00000000: 90ab 783e 5d87 8f3d 8e71 a73e fc05 463e

actor.0.weight f4 [128, 17]
-1.8072554 -1.2797512 3.5296638 -0.25906107 -0.2259869 -0.15310507 -0.09013085 -0.55166066
-0.8236081 0.6944644 0.93866354 -0.34756914 -0.07715373 0.09724194 0.014854304 0.22379236
-0.00819843 -0.40589195 0.015250747 -1.2047182 0.4188265 -1.862343 -1.8232373 0.0099074235
0.28958452 -0.18536487 -0.12389972 0.16152902 -0.76736295 -0.80921143 0.033266388 0.003454332
0.076361366 -0.036179412 -0.0015713297 0.012456216 0.08081567 0.03938061 0.0077002835 -0.0060222135
0.019616568 0.016138908 0.005451654 -0.003521783 -0.0055174744 0.022168046 -0.0160797 -0.1885493
0.28555372 -0.07438303 -0.06120216 0.08883183 0.360334 -2.0455878 -1.0911872 -1.311509
0.17706831 1.2374068 1.2594895 0.40607262 0.8586256 -0.18310493 -0.4982515 0.74871165
-0.28105608 -0.33083862 -0.35945797 -0.14481084 -0.35028633 0.067530304 -2.3003566 0.03564465
0.5241643 -0.019691817 0.45222953 -0.012212588 -0.10071009 0.051371664 -0.06953287 0.06562805
0.24180266 0.14318521 -0.016613219 0.044005737 -0.17286237 -1.067668 0.41726798 0.5510724
0.106163345 -0.7133287 1.3025136 -0.5869586 0.21496731 0.03843815 -0.18881157 0.20575295
-0.040539194 -0.24364613 0.08949982 -0.14740865 -0.09912974 -0.08800166 1.0273756 -0.03369022
2.476126 -0.65289044 0.4253643 0.21542811 -0.66845626 0.16665581 -0.13559327 -0.7804512
0.7356431 -0.54259 -0.068891 0.09952418 0.22155266 0.104493655 0.03808916 1.4305047
-0.32647598 -4.057204 0.25008634 -0.50100476 -0.9125456 -0.05844809 -0.02856739 -0.2609999
0.575806 -0.13181615 -0.060170278 0.0024875486 -0.28500825 -0.32230583 -0.26722893 -0.23134528
-0.10567041 0.28441852 0.05202302 -0.010935332 0.86745435 0.055080656 0.646045 0.24392268
-0.02922131 -0.05560994 -0.09527677 0.054414697 0.1993272 0.017911116 -0.013077659 0.20726782
-0.22569558 0.047875028 0.22851603 -1.491743 -0.01542956 0.7280131 -0.3395318 0.2779626
-0.0780835 -0.12578335 0.06692084 0.013917121 0.09466867 0.34807935 -0.013690493 0.024372473
0.14403602 0.05525393 0.090854764 -0.0748929 0.14973484 -0.5487123 -0.12911993 -0.10690775
-0.024259016 0.08001622 0.059308965 -0.029159676 -0.04246582 0.07914148 0.07232373 -0.14361061
0.118844844 0.06508426 -0.098050125 0.8779097 0.779847 -1.6799297 0.52338326 -1.2815851
-0.17109229 0.49287298 0.43906453 -0.2259175 0.28298494 0.29342848 -1.2636925 0.7176154
-0.025301699 -0.056551035 -0.12516475 0.09999354 0.27588573 -0.03025434 3.1397316 -0.1891386
-0.55160284 -0.24392615 -0.29264602 0.22442007 0.02084705 -0.18006234 0.11739561 -0.0077923355
-0.40897644 -0.05680716 0.15465629 -0.07122416 0.09512497 -0.1613378 0.5005805 -1.2850689
0.4433069 -0.5171827 -0.97226685 -0.6342714 0.09721571 -0.063304625 -0.04432524 0.10946317
0.34231102 0.08183121 0.16458422 0.07509255 0.01510831 0.043513313 0.37966928 0.15658976
-0.058539744 0.27402008 0.25652683 -0.5327018 -0.12330402 -0.3347304 -0.08424408 0.11676094
-0.024878899 -0.110604055 -0.091241755 -0.1376235 -0.16508526 -0.08742802 0.19332466 -0.8449402
00000000: 2554 e7bf e3ce a3bf 03e6 6140 a7a3 84be
00000010: 1c69 67be 93c7 1cbe 8696 b8bd a239 0dbf
00000020: fbd7 52bf 6bc8 313f 414c 703f 95f4 b1be
00000030: c602 9ebd c826 c73d 775f 733c d329 653e
00000040: b552 06bc 12d1 cfbe 45de 793c 3534 9abf
00000050: 6d70 d63e 4161 eebf d75f e9bf bf52 223c
00000060: 6c44 943e 4ad0 3dbe 23bf fdbd dd67 253e
00000070: e671 44bf 7b28 4fbf 5642 083d 1362 623b
00000080: 5963 9c3d dd30 14bd 13f5 cdba 2815 4c3c
00000090: b082 a53d 904d 213d a952 fc3b fd55 c5bb
000000a0: edb2 a03c be35 843c caa3 b23b b7cd 66bb
000000b0: eecb b4bb c399 b53c 93b9 83bc 1113 41be
000000c0: 1934 923e 2156 98bd 1eaf 7abd 76ed b53d
000000d0: b37d b83e e9ea 02c0 06ac 8bbf 87df a7bf
000000e0: 6551 353e 5963 9e3f f436 a13f c0e8 cf3e
000000f0: e3ce 5b3f dc7f 3bbe d21a ffbe 91ab 3f3f
00000100: 95e6 8fbe ae63 a9be e00a b8be 4b49 14be
00000110: bb58 b3be 544d 8a3d 0b39 13c0 2000 123d
00000120: a22f 063f bc50 a1bc a18a e73e 4f17 48bc
00000130: 1741 cebd 186b 523d 4067 8ebd 0068 863d
00000140: 1e9b 773e 259f 123e 7218 88bc 5c3f 343d
00000150: d502 31be 58a9 88bf 26a4 d53e 1513 0d3f
00000160: 2b6c d93d b69c 36bf c4b8 a63f eb42 16bf
00000170: 6420 5c3e 5271 1d3d d257 41be e7b0 523e
00000180: 6d0c 26bd 5f7e 79be ae4b b73d 4bf2 16be
00000190: 8804 cbbd 373a b4bd 0b81 833f c2fe 09bd
000001a0: d978 1e40 d423 27bf 59c9 d93e 3099 5c3e
000001b0: f31f 2bbf d2a7 2a3e f6d8 0abe a6cb 47bf
000001c0: 1b53 3c3f 2ee7 0abf b916 8dbd 55d3 cb3d
000001d0: b3de 623e c500 d63d 6103 1c3d c71a b73f
000001e0: dc27 a7be 9dd4 81c0 510b 803e d941 00bf
000001f0: 979c 69bf 4467 6fbd 2906 eabc c7a1 85be
00000200: 0668 133f d0fa 06be 1c75 76bd 2406 233b
00000210: 9aec 91be 4505 a5be 3bd2 88be c7e5 6cbe
00000220: ba69 d8bd 4e9f 913e 1716 553d 1b2a 33bc
00000230: 7d11 5e3f 419c 613d 3563 253f dec6 793e
00000240: 8761 efbc 40c7 63bd 7820 c3bd f2e1 5e3d
00000250: 6e1c 4c3e 55ba 923c ad43 56bc 043e 543e
00000260: be1c 67be 9b18 443d 1b00 6a3e 6ff1 bebf
00000270: 44cc 7cbc 115f 3a3f 1dd7 adbe 1d51 8e3e
00000280: 3eea 9fbd 5acd 00be cb0d 893d a304 643c
00000290: a6e1 c13d 7537 b23e 174e 60bc c8a8 c73c
000002a0: 2e7e 133e f251 623d 1012 ba3d 7361 99bd
000002b0: 1754 193e 6978 0cbf 0438 04be 73f2 dabd
000002c0: d8ba c6bc 8bdf a33d f5ed 723d 46e0 eebc
000002d0: a4f0 2dbd ee14 a23d 771e 943d a90e 13be
000002e0: ed64 f33d e64a 853d 81ce c8bd b1be 603f
000002f0: 0ea4 473f f007 d7bf 72fc 053f fb0a a4bf
00000300: d132 2fbe d959 fc3e 11cd e03e eb56 67be
00000310: 67e3 903e 423c 963e adc0 a1bf a5b5 373f
00000320: 8245 cfbc 0fa2 67bd 302b 00be 6ac9 cc3d
00000330: e540 8d3e f3d7 f7bc 5df1 4840 8dad 41be
00000340: d835 0dbf c7c7 79be b3d5 95be 60ce 653e
00000350: 6fc7 aa3c 4362 38be 1c6d f03d d956 ffbb
00000360: 5c65 d1be a0ae 68bd 385e 1e3e f9dd 91bd
00000370: e1d0 c23d bc35 25be 0b26 003f 237d a4bf
00000380: 1ff9 e23e 1666 04bf 7be6 78bf 9c5f 22bf
00000390: 0819 c73d dba5 81bd 628e 35bd 3a2e e03d
000003a0: 6443 af3e 1f97 a73d c488 283e 1fca 993d
000003b0: d888 773c 043b 323d 0364 c23e 1159 203e
000003c0: 5fc7 6fbd 5c4c 8c3e 7c57 833e 255f 08bf
000003d0: d186 fcbd c861 abbe 2988 acbd 5c20 ef3d
000003e0: d5ce cbbc 6184 e2bd f5dc babd 2ded 0cbe
000003f0: 1c0c 29be 760d b3bd e6f6 453e 004e 58bf

actor.0.bias f4 [128]
-0.46460322 -0.31795797 0.0031606038 -0.5042528 -0.15725078 -0.027908837 0.11755762 -0.22196268
-0.06403176 -0.2356673 0.52563447 0.2538341 0.12317765 -0.6213022 0.06987751 -0.034797605
-0.14291425 -0.16355996 0.36805412 -0.3363197 0.034525502 0.14326711 -0.07827249 0.05313513
-0.25216764 0.46011263 0.551567 -0.05536817 -0.4692249 -0.2463262 0.13186389 0.07767839
0.25002724 -0.14785561 0.25140595 -0.07527422 0.15487635 -0.4130497 -0.26221764 -0.71844167
-0.47826606 0.22601676 -0.12048881 -0.0864126 0.12057143 0.0823628 -0.20149846 0.054250844
0.08955626 -0.7138145 -0.1988616 -0.0115437955 0.3148003 0.16798763 -0.11123704 -0.08409026
-0.1633191 0.3217593 0.2556198 -0.07960471 0.38153845 0.24562058 -0.4387048 0.08325026
0.24112727 0.26973718 -0.24177946 0.14404008 -0.42317662 0.08549571 -0.38078353 -0.16762036
0.12953646 0.11604213 0.037032135 0.071652226 -0.19048941 -0.06402255 0.017941602 -0.00865209
0.0013382604 -0.0827986 -0.20311028 0.052135877 -0.054300517 0.26507038 -0.083088115 -0.0008983501
0.07439487 0.11222503 0.05124274 -0.23341392 -0.11453819 -0.35587195 0.09321712 0.097319104
-0.14447367 0.24278322 -0.30576947 0.388513 -0.21854265 0.406583 -0.3676651 0.033080276
-0.18608831 0.031590167 0.076952286 0.14372727 -0.4266065 0.2395401 0.1313971 -0.34553212
-0.15348516 -0.145306 -0.39095938 -0.43820086 -0.22204775 -0.066700354 0.32527828 -0.051217686
0.3222082 -0.1878305 0.15277442 -0.15537691 -0.30578846 0.3490302 0.41320708 -0.25285318
00000000: 79e0 edbe 63cb a2be 2222 4f3b b616 01bf
00000010: 5906 21be 13a1 e4bc 0dc2 f03d 2f4a 63be
00000020: 1523 83bd c552 71be fb8f 063f 8bf6 813e
00000030: 9044 fc3d a90d 1fbf f11b 8f3d ef87 0ebd
00000040: 1d58 12be 437c 27be 9771 bc3e 1932 acbe
00000050: 9d6a 0d3d 9db4 123e 544d a0bd 39a4 593d
00000060: 1e1c 81be e293 eb3e 7f33 0d3f bcc9 62bd
00000070: 3f3e f0be ef3c 7cbe 5407 073e d915 9f3d
00000080: 9203 803e 7667 17be 48b8 803e 5f29 9abd
00000090: e897 1e3e 407b d3be 6441 86be cbeb 37bf
000000a0: 4adf f4be f070 673e d6c2 f6bd 17f9 b0bd
000000b0: 27ee f63d d4ad a83d 9d55 4ebe 2236 5e3d
000000c0: 4669 b73d 8cbc 36bf 60a2 4bbe 3022 3dbc
000000d0: 812d a13e f304 2c3e 3fd0 e3bd 8437 acbd
000000e0: 1f3d 27be a3bd a43e 99e0 823e cb07 a3bd
000000f0: 0259 c33e f683 7b3e ea9d e0be 1d7f aa3d
00000100: 11ea 763e fe1a 8a3e 0995 77be 3e7f 133e
00000110: 9baa d8be 6018 af3d 0ff6 c2be aca4 2bbe
00000120: 35a5 043e 7fa7 ed3d 02af 173d 67be 923d
00000130: a80f 43be 411e 83bd 44fa 923c 7fc1 0dbc
00000140: 9168 af3a 5092 a9bd 24fc 4fbe 6e8c 553d
00000150: 386a 5ebd 4eb7 873e 1a2a aabd 417f 6bba
00000160: 565c 983d 3dd6 e53d e8e3 513d 0f04 6fbe
00000170: 0093 eabd d934 b6be 9ee8 be3d 3d4f c73d
00000180: e8f0 13be 2a9c 783e d18d 9cbe 2deb c63e
00000190: a5c9 5fbe a62b d03e 9a3e bcbe 2f7f 073d
000001a0: ef8d 3ebe b164 013d 2999 9d3d 3e2d 133e
000001b0: 2b6c dabe 004a 753e f68c 063e 96e9 b0be
000001c0: 372b 1dbe 19cb 14be d42b c8be dd5b e0be
000001d0: 7c60 63be 329a 88bd e08a a63e a3c9 51bd
000001e0: 79f8 a43e a356 40be e670 1c3e 201b 1fbe
000001f0: 4e90 9cbe 16b4 b23e e18f d33e f975 81be

actor.2.weight f4 [128, 128]
-0.025889575 -0.10650637 -0.035444904 -0.014316144 0.06944056 -0.13617486 0.114995636 -0.0824283
-0.01498123 -0.0038406237 -0.013754046 0.060470197 -0.08521604 0.035887662 0.09291944 0.04059814
0.03926171 0.053293966 -0.036914654 0.007110015 -0.11844053 -0.007376319 0.025170378 0.06482289
0.01171896 0.055820473 -0.044893615 0.18087935 -0.028004672 -0.0012201761 0.049558904 -0.12956418
-0.024592746 -0.054979578 -0.035497937 0.057616577 0.03200155 -0.15638345 -0.037859228 -0.10700272
-0.017898714 -0.04187861 0.12101144 -0.012094389 -0.12777138 0.023560213 -0.010353315 0.07147999
-0.0046596047 -0.02310596 0.12370767 -0.029717054 0.0046558166 -0.08478462 0.0016820594 -0.0011440989
-0.016612794 0.05504103 0.05060077 0.09365478 0.021685727 -0.0027250992 0.042926155 -0.14384757
0.01882886 -0.0073111635 -0.010813461 0.09379454 -0.08002656 0.032499712 0.13645628 0.01624624
-0.011266892 0.0052404967 -0.03887452 0.09590394 0.018995496 0.14319813 -0.025426272 0.014883359
0.02876541 0.0516803 -0.03930569 0.012365422 -0.03144925 0.013651427 0.058117464 -0.06458387
-0.08164047 -0.12363087 0.03824071 0.05118104 -0.065964505 -0.10209146 -0.05187545 0.12405683
-0.009476544 -0.17061406 -0.0419396 -0.012503757 0.100317396 0.0041498817 0.042707838 -0.005702819
0.010560838 -0.035588603 0.10236336 -0.025557213 -0.022483978 0.17790146 -0.02503459 0.035571303
0.037876584 0.010943784 -0.006506396 0.15037706 0.044016067 0.044119492 0.035822973 -0.0078803105
-0.0058595873 0.041227598 0.053572748 0.18257158 0.09063005 0.045070264 0.11945545 0.08819514
-0.07824785 0.07418963 0.060677182 0.08016349 0.0009492986 -0.041004498 -0.076007456 -0.2139821
-0.005868771 0.034964424 -0.0689185 0.039613828 0.13822332 -0.00056841056 -0.040608995 -0.058582827
0.023452794 -0.01974388 -0.071728006 -0.045487832 0.061184533 0.009901031 -0.06619945 0.011725444
-0.051063843 -0.028095542 0.10155624 0.036082357 0.029977942 -0.08491227 0.03747657 0.12306494
0.00021931352 -0.058793306 0.04180726 0.03504251 0.056415413 0.016422406 0.006427956 0.032594416
0.08431864 -0.076045655 -0.004750431 0.0048512416 -0.103778936 0.02175075 -0.069599 -0.017006418
-0.0063029863 0.05126778 -0.043181233 -0.005848846 -0.058403704 0.11827996 -0.027861638 -0.003000771
0.08958144 -0.016261736 -0.04256041 0.03718149 -0.0025899862 -0.038278427 -0.101646334 0.062236343
-0.14275698 -0.07115318 -0.051084746 0.037120294 -0.044565726 -0.0069017955 -0.0954983 0.11109156
0.053247035 0.12991111 0.01688859 0.047480285 -0.055049993 0.041284155 0.023361254 -0.04696746
-0.10515019 0.025028002 0.026604172 -0.01868821 0.06667568 -0.04650233 0.034706887 -0.044401985
0.12552702 -0.009472109 -0.08311396 0.028611101 0.0029923064 -0.0070896395 0.03213756 0.09688234
-0.040648352 -0.031759523 0.02959036 0.025438977 -0.03947528 -0.04278653 -0.17360353 0.005107083
0.09469106 -0.013918249 0.028441017 0.124217324 0.00186292 -0.06696847 0.054792978 -0.04378246
0.03792375 -0.057238035 0.016876204 0.16207112 0.13562447 -0.23200057 -0.14618726 -0.046746187
-0.13466814 -0.070760846 -0.04365509 0.09622321 0.118298426 0.0021086235 -0.06082605 0.1265128
00000000: 6016 d4bc 0320 dabd ad2e 11bd 438e 6abc
00000010: da36 8e3d 6c71 0bbe d582 eb3d 2bd0 a8bd
00000020: d573 75bc f9b2 7bbb a658 61bc 99af 773d
00000030: bf85 aebd f1fe 123d 8c4c be3d 3c4a 263d
00000040: e3d0 203d c64a 5a3d d233 17bd 21fb e83b
00000050: f390 f2bd 0cb5 f1bb 1c32 ce3c ddc1 843d
00000060: e100 403c 02a4 643d 5ee2 37bd 7038 393e
00000070: 0e6a e5bc 51ee 9fba 47fe 4a3d 79ac 04be
00000080: ba76 c9bc 4432 61bd 4966 11bd 5cff 6b3d
00000090: 0f14 033d fc22 20be 4712 1bbd 3e24 dbbd
000000a0: 53a0 92bc e888 2bbd d9d4 f73d 8b27 46bc
000000b0: 80d6 02be 5901 c13c f3a0 29bc 1a64 923d
000000c0: 99af 98bb b648 bdbc 725a fd3d 2e71 f3bc
000000d0: d28f 983b 8fa3 adbd 8c78 dc3a 97f5 95ba
000000e0: 8e17 88bc b472 613d c142 4f3d 14ce bf3d
000000f0: 44a6 b13c 9497 32bb 56d3 2f3d c74c 13be
00000100: fb3e 9a3c 7c92 efbb f12a 31bc 5a17 c03d
00000110: f7e4 a3bd 6b1e 053d 32bb 0b3e d616 853c
00000120: c598 38bc 79b8 ab3b e43a 1fbd 4969 c43d
00000130: 719c 9b3c 88a2 123e c24a d0bc 55d9 733c
00000140: 70a5 eb3c b9ae 533d 01ff 20bd 5798 4a3c
00000150: eed0 00bd 3caa 5f3c 940c 6e3d 8c44 84bd
00000160: 1e33 a7bd 2e32 fdbd 4aa2 1c3d 36a3 513d
00000170: 6618 87bd 5415 d1bd 5a7b 54bd 8211 fe3d
00000180: 8243 1bbc 74b5 2ebe dcc8 2bbd 8fdc 4cbc
00000190: 3573 cd3d bbfb 873b 6aee 2e3d b7de babb
000001a0: 5d07 2d3c 5bc5 11bd e2a3 d13d 5c5d d1bc
000001b0: 5230 b8bc cd2b 363e 5715 cdbc 37b3 113d
000001c0: 7a24 1b3d 8f4d 333c 9b33 d5bb 72fc 193e
000001d0: 314a 343d a4b6 343d 1cbb 123d 6b1c 01bc
000001e0: c801 c0bb 45de 283d 196f 5b3d 0bf4 3a3e
000001f0: 3f9c b93d 999b 383d 0fa5 f43d a79f b43d
00000200: 6940 a0bd bcf0 973d a388 783d c12c a43d
00000210: 5ada 783a 55f4 27bd cca9 9bbd 201e 5bbe
00000220: d24e c0bb db36 0f3d 2425 8dbd 1c42 223d
00000230: 6a8a 0d3e 6301 15ba 9e55 26bd 8cf4 6fbd
00000240: 1320 c03c ebbd a1bc 22e6 92bd 7351 3abd
00000250: a29c 7a3d ef37 223c 9493 87bd 141c 403c
00000260: 5228 51bd 9f28 e6bc b8fc cf3d 18cb 133d
00000270: 4d94 f53c 7ce6 adbd 0881 193d 7909 fc3d
00000280: 86f7 6539 40d1 70bd 173e 2b3d bc88 0f3d
00000290: d913 673d 4888 863c 9aa1 d23b b981 053d
000002a0: 40af ac3d d3bd 9bbd 81a9 9bbb 2af7 9e3b
000002b0: 0d8a d4bd a12e b23c ec89 8ebd 0b51 8bbc
000002c0: 4889 cebb 2afe 513d cede 30bd ada7 bfbb
000002d0: b938 6fbd c33c f23d 173e e4bc 95a8 44bb
000002e0: 7976 b73d 5537 85bc d353 2ebd 9e4b 183d
000002f0: c2bc 29bb d7c9 1cbd f42b d0bd 89eb 7e3d
00000300: e32e 12be c2b8 91bd 3d3e 51bd 730b 183d
00000310: 8d8a 36bd 7528 e2bb 9d94 c3bd f983 e33d
00000320: 9019 5a3d 6b07 053e f159 8a3c b07a 423d
00000330: 1a7c 61bd 9319 293d 1a60 bf3c f460 40bd
00000340: fc58 d7bd 8607 cd3c fef0 d93c 0418 99bc
00000350: 428d 883d 3a79 3ebd cf28 0e3d dbde 35bd
00000360: 288a 003e e830 1bbc a737 aabd d461 ea3c
00000370: 921a 443b 3550 e8bb ada2 033d 406a c63d
00000380: e37e 26bd 4616 02bd 7c67 f23c 6765 d03c
00000390: d5b0 21bd ee40 2fbd 20c5 31be 5159 a73b
000003a0: 63ed c13d 5e09 64bc 23fd e83c a765 fe3d
000003b0: 392d f43a c426 89bd 9a6e 603d 3d55 33bd
000003c0: ef55 1b3d 6e72 6abd f73f 8a3c f9f5 253e
000003d0: 24e1 0a3e 8f91 6dbe 1db2 15be ee78 3fbd
000003e0: 72e6 09be 10eb 90bd aecf 32bd ad10 c53d
000003f0: 7246 f23d d530 0a3b bc24 79bd 928c 013e

actor.2.bias f4 [128]
0.016212773 0.08053385 0.14040238 -0.036759507 -0.09981927 0.0127819665 0.6139474 0.5504655
-0.06943307 -0.22508454 0.13270856 -0.042590037 -0.051385704 0.081909195 0.052704986 0.7851599
-0.28976607 -0.44293088 -0.0012425672 0.02746514 0.073941976 -0.09233916 0.007507405 -0.31273803
0.06533866 0.07655031 -0.017908268 -0.15046602 -0.058113985 -0.16227661 -0.13229518 0.09225353
-0.04887044 -0.25813448 -0.027795972 -0.07515748 -0.085077494 0.00993016 -0.0645394 0.13690026
0.14122866 0.001395194 -0.13223852 -0.11454556 -0.08782007 0.07849239 -0.049963243 0.0271876
0.0689373 0.081251666 -0.021585332 -0.4905495 0.0064501856 -0.4149749 0.5515935 0.04692548
0.020711644 0.10351124 0.100659676 -0.12556955 0.040873222 -0.0038273227 -0.022303183 0.17129426
-0.03334253 0.37167037 0.0074608917 -0.03466282 -0.012361995 0.058270108 -0.047222648 -0.3648225
-0.06533744 -0.03569333 -0.10211341 0.0074565466 -0.10891438 0.09684035 -0.010836479 0.09543234
-0.33636656 -0.059275255 0.030017748 -0.07314962 -0.04686738 0.052874174 -0.13112482 -0.41406947
0.27219176 0.2336262 0.012868129 -0.08569414 0.042664398 0.038929503 -0.006029739 0.024744863
0.004426106 -0.071722694 0.08119175 -0.06449364 0.22028236 0.0043999567 -0.030939538 -0.062362432
0.07878389 -0.03690543 -0.05049246 0.0901436 -0.6493089 0.019950362 0.007479407 0.1336106
-0.015230154 -0.011657299 0.050198514 0.024718398 -0.22687675 -0.020142077 -2.511776e-05 0.10064712
0.030991605 -0.628131 0.0873435 -0.09667015 -0.04907605 0.4790596 0.3226622 -0.088113725
00000000: a6d0 843c eeee a43d a4c5 0f3e 2391 16bd
00000010: 0c6e ccbd 746b 513c a82b 1d3f 4feb 0c3f
00000020: ed32 8ebd 907c 66be c1e4 073e e472 2ebd
00000030: d179 52bd 02c0 a73d 2fe1 573d 3d00 493f
00000040: 385c 94be d6c7 e2be a3dd a2ba 93fe e03c
00000050: e46e 973d 501c bdbd ad00 f63b 331f a0be
00000060: 46d0 853d 69c6 9c3d 5cb4 92bc c413 1abe
00000070: ee08 6ebd d72b 26be 6378 07be 6bef bc3d
00000080: 5f2c 48bd 342a 84be 61b4 e3bc 2aec 99bd
00000090: 1c3d aebd 1cb2 223c 3c2d 84bd 952f 0c3e
000000a0: 3f9e 103e f1de b63a 8969 07be dd96 eabd
000000b0: 02db b3bd 9ec0 a03d 42a6 4cbd 88b8 de3c
000000c0: 002f 8d3d 4667 a63d b9d3 b0bc 4e29 fbbe
000000d0: 145c d33b 9777 d4be 3b35 0d3f ef34 403d
000000e0: 77ab a93c b3fd d33d a926 ce3d 4e95 00be
000000f0: ae6a 273d d2d3 7abb 2ab5 b6bc c367 2f3e
00000100: 2d92 08bd 944b be3e 7f7a f43b 9afa 0dbd
00000110: f789 4abc a3ac 6e3d 896c 41bd 04ca babe
00000120: a3cf 85bd 2b33 12bd d620 d1bd 0c56 f43b
00000130: 810e dfbd 3c54 c63d 7d8b 31bc 0872 c33d
00000140: 3d38 acbe 9cca 72bd c8e7 f53c 78cf 95bd
00000150: 03f8 3fbd 9792 583d 9645 06be ea00 d4be
00000160: b85c 8b3e b53b 6f3e d8d4 523c 6980 afbd
00000170: ddc0 2e3d 8b74 1f3d 1e95 c5bb bdb5 ca3c
00000180: de08 913b 59e3 92bd dc47 a63d 3e15 84bd
00000190: b391 613e 832d 903b ea74 fdbc c06f 7fbd
000001a0: 7359 a13d 262a 17bd 2fd1 4ebd 359d b83d
000001b0: 1c39 26bf f16e a33c d015 f53b 38d1 083e
000001c0: e587 79bc 41fe 3ebc f59c 4d3d 3d7e ca3c
000001d0: 6152 68be ff00 a5bc fbb3 d2b7 1420 ce3d
000001e0: 1be2 fd3c 31cd 20bf 26e1 b23d 00fb c5bd
000001f0: f803 49bd 4d47 f53e fb33 a53e f874 b4bd

actor.4.weight f4 [4, 128]
-0.001988942 -0.0014894112 -0.076508746 -0.00011192895 -0.0022899106 0.0050992784 0.13133562 0.10985258
0.000293067 -0.02901369 -0.03340293 -0.29205292 0.01495389 -0.00093859294 -0.0039083194 0.19771925
0.080752276 0.0391409 -0.0033025953 -0.004852271 -0.00046407848 0.0009954595 0.00036520747 -0.036859073
-0.0016004464 0.002981165 -0.0003529175 -0.07754676 -0.00010991925 0.060683675 -0.105766304 0.007958393
0.00096022227 -0.05848007 -0.0010848877 0.0031625796 0.0032456552 0.005262788 -0.066828236 -0.16390191
0.13059554 0.011318944 0.0008647493 0.008502328 0.0067950524 0.0036013362 0.0015472592 -0.00082524616
-0.0023884827 0.0010892136 -0.0043907897 -0.15922421 -0.004547622 -0.1801027 0.08488413 0.00046162528
-0.0004903336 -0.0005842786 -0.0025730827 -0.00074312754 0.0016762746 0.0038887751 0.008478704 0.22376737
-4.554009e-05 0.0793036 0.00043671147 -0.012657559 0.0029234102 0.009022531 0.00067514094 -0.03198032
0.004405275 -0.008273836 0.111400336 0.00021139144 -0.004850086 0.004353469 0.098489866 -0.075733796
0.13569503 0.0038467257 -0.0018364625 -0.0026672888 0.0037333167 0.004880882 -0.08665797 -0.0331155
0.100615606 0.3054658 -0.0036162727 -0.0020013482 0.0003904639 -0.0015835896 -0.0016849808 -9.507175e-05
-0.00046241967 -0.0020621722 -0.0005121018 -0.005428599 -0.06256416 0.0022550547 0.0014745889 -0.0019503038
-0.0018972079 0.004468825 0.0017277963 -0.012548997 -0.33657235 0.0021280174 0.0026648983 0.34532627
0.14828551 5.873401e-05 -0.00054859126 0.004659018 0.13561052 0.001278073 -0.0014576262 0.067250416
-9.507898e-05 -0.11362857 -0.14833352 -0.053515553 0.000996286 -0.10100331 0.0049417717 -0.006654705
0.00046860604 -0.0005407527 0.010774442 0.0002650018 0.0003410177 -0.00011351149 0.04566638 0.014049376
0.00096301653 -0.03280201 0.03433444 -0.023214323 -0.0124125825 -0.00019135432 0.00062315905 0.20951267
-0.008668286 -0.0427116 -4.754884e-05 -1.4257051e-05 -0.00027576627 -0.0012453682 -0.0003238072 -0.042824604
4.79201e-05 -0.000463703 8.467819e-06 0.04095449 -9.3560724e-05 0.10632763 -0.0060839965 -0.00051517284
-0.00026468863 -0.0592287 -0.00010297776 2.4720042e-05 -0.00012682485 0.0005393072 0.0024427893 -0.012598386
0.068055116 0.0014323754 -0.00028812903 -0.00033687454 -0.00025699145 -0.00046704418 -0.00076184754 0.00021904595
-0.00021830523 0.0005488454 -0.00011537648 -0.072234 0.0008505365 -0.004567815 0.45135328 0.00024873274
0.0004924821 0.00013535238 -0.00040250988 -0.00028103715 0.00031385705 -0.00029107908 -0.001461104 -0.0045427363
-0.00089084235 0.007339292 -0.00023576374 0.00053598743 7.4722455e-05 -0.0008197341 0.00063625403 -0.01772718
-0.000420794 -0.00037366262 0.038368303 0.00035330222 0.00061010884 -0.00050989067 0.00059625646 -0.13932559
0.079050474 -0.0003622697 0.00021354988 -0.00093727396 0.0007521183 -0.000541915 0.09610448 0.09124307
0.0025867557 -0.0026698536 0.00078600453 -3.815385e-06 0.0004976791 -0.00030282463 0.00020420473 0.00017786292
0.000555884 0.0004174395 -0.00086777145 0.0014426679 0.016713357 -0.00026948677 0.0006872015 0.00083268154
-5.2075975e-05 -0.00019508778 -0.00083604624 0.0011634008 0.03809496 8.218474e-05 -0.00040995658 0.060355652
-0.0057017086 -5.0830968e-05 0.00048200088 6.1017097e-05 -0.03412673 0.00019960155 -0.00095841853 0.059181646
0.00020910751 -0.029905498 0.06489381 -0.0011561192 0.00047027424 0.102026835 0.046633635 0.0003700335
00000000: e958 02bb 5938 c3ba 9eb0 9cbd 66bb eab8
00000010: 5312 16bb d917 a73b d87c 063e 64fa e03d
00000020: c9a6 9939 1eae edbc 83d1 08bd f687 95be
00000030: 2901 753c e80b 76ba 5c11 80bb ea76 4a3e
00000040: 7361 a53d 3552 203d 5b70 58bb cdff 9ebb
00000050: 8f4f f3b9 147a 823a 5179 bf39 8af9 16bd
00000060: 12c6 d1ba a65f 433b c907 b9b9 d6d0 9ebd
00000070: 7384 e6b8 728f 783d 019c d8bd eb63 023c
00000080: 6db7 7b3a cc88 6fbd ca32 8eba 4843 4f3b
00000090: 0fb5 543b 7773 ac3b 3edd 88bd e7d5 27be
000000a0: d6ba 053e 1873 393c 58b0 623a 594d 0b3c
000000b0: 08a9 de3b 6504 6c3b 67cd ca3a 5555 58ba
000000c0: 1788 1cbb f2c3 8e3a 9de0 8fbb ac0b 23be
000000d0: 3804 95bb d86c 38be bbd7 ad3d 4c06 f239
000000e0: bb89 00ba 462a 19ba 2aa1 28bb 72ce 42ba
000000f0: 71b6 db3a d2da 7e3b 43ea 0a3c 4623 653e
00000100: 4d02 3fb8 ed69 a23d 6cf6 e439 a661 4fbc
00000110: af96 3f3b 3dd3 133c f1fb 303a ccfd 02bd
00000120: 205a 903b fc8e 07bc dc25 e43d f5a8 5d39
00000130: 78ed 9ebb 8ba7 8e3b 0eb5 c93d 521a 9bbd
00000140: a3f3 0a3e 5919 7c3b 75b5 f0ba aecd 2ebb
00000150: a9aa 743b ceef 9f3b bc79 b1bd 1ea4 07bd
00000160: 8e0f ce3d 0366 9c3e fdfe 6cbb 0d29 03bb
00000170: 2db7 cc39 7390 cfba 93da dcba 4261 c7b8
00000180: eb70 f2b9 8225 07bb 923e 06ba 64e2 b1bb
00000190: a321 80bd 8ac9 133b fe46 c13a 56a1 ffba
000001a0: bcab f8ba 396f 923b 3977 e23a 4f9a 4dbc
000001b0: 3653 acbe 3576 0b3b 93a5 2e3b 9bce b03e
000001c0: 28d8 173e 2a59 7638 56cf 0fba adaa 983b
000001d0: 7cdd 0a3e 0385 a73a d20d bfba 96ba 893d
000001e0: 2465 c7b8 19b6 e8bd bee4 17be 2033 5bbd
000001f0: d095 823a d3da cebd 96ee a13b b60f dabb
00000200: 3daf f539 4dc1 0dba 4987 303c f1ef 8a39
00000210: 9fca b239 040d eeb8 ac0c 3b3d 5b2f 663c
00000220: f272 7c3a 675b 06bd 45a2 0c3d f72b bebc
00000230: 255e 4bbc 49a6 48b9 7f5b 233a 7d8a 563e
00000240: 6d05 0ebc 5cf2 2ebd 2e6f 47b8 9131 6fb7
00000250: b994 90b9 9f3b a3ba abc4 a9b9 da68 2fbd
00000260: d1fd 4838 2a1d f3b9 0111 0e37 e5bf 273d
00000270: 0836 c4b8 4dc2 d93d 435c c7bb aa0c 07ba
00000280: e8c5 8ab9 cb99 72bd c4f5 d7b8 e35d cf37
00000290: 49fc 04b9 4b60 0d3a 3417 203b 7669 4ebc
000002a0: 7b60 8b3d 8bbe bb3a 0610 97b9 899e b0b9
000002b0: cfbc 86b9 9cdd f4b9 b9b6 47ba b3af 6539
000002c0: dde8 64b9 64e0 0f3a 47f6 f1b8 6bef 93bd
000002d0: 8af6 5e3a 9cad 95bb c717 e73e 5868 8239
000002e0: ea19 013a 61ed 0d39 f607 d3b9 2b58 93b9
000002f0: 2e8d a439 f99b 98b9 8482 bfba 3cdb 94bb
00000300: 6b87 69ba 727e f03b 5937 77b9 8281 0c3a
00000310: 50b4 9c38 6de3 56ba 49ca 263a 9738 91bc
00000320: 049e dcb9 26e8 c3b9 1528 1d3d 6c3b b939
00000330: b6ef 1f3a 2faa 05ba 184e 1c3a 5eab 0ebe
00000340: 37e5 a13d 04ef bdb9 5cec 5f39 64b3 75ba
00000350: ce29 453a 4d0f 0eba 6dd2 c43d a6dd ba3d
00000360: 8f86 293b b6f8 2ebb df0b 4e3a e805 80b6
00000370: ae76 023a 6fc4 9eb9 ca1f 5639 b780 3a39
00000380: beb8 113a c8db da39 287b 63ba e717 bd3a
00000390: 73ea 883c e749 8db9 5025 343a 5048 5a3a
000003a0: 276c 5ab8 7a90 4cb9 1d2a 5bba 417d 983a
000003b0: 7609 1c3d 995a ac38 71ef d6b9 7d37 773d
000003c0: 66d5 babb 5633 55b8 10b5 fc39 9cec 7f38
000003d0: 78c8 0bbd 224c 5139 613e 7bba 7468 723d
000003e0: df43 5b39 60fc f4bc 0ce7 843d ec88 97ba
000003f0: 248f f639 72f3 d03d e902 3f3d 0e01 c239

actor.4.bias f4 [4]
0.49194187 0.43269154 0.45791087 0.25112376
00000000: cedf fb3e bf89 dd3e 4b73 ea3e 4b93 803e

critic.0.weight f4 [128, 17]
-0.3822064 -2.353588 -1.5147804 0.015174639 0.4509331 0.09513802 0.6338788 -0.34777322
1.1010725 0.32738072 0.39170918 1.2618893 0.8710236 -0.30401468 -0.2108931 -0.27633643
-0.422882 -0.9181544 0.9663729 -1.0628129 0.46285322 -0.07571372 0.96436477 -0.015441642
1.6412216 -0.020651923 1.120654 0.03887878 -0.38192958 -0.28254524 -0.0031215507 0.0081385495
0.036977228 0.095117964 0.88353646 2.7923858 -2.6452572 -0.14484438 0.4834036 -0.3464353
0.10539563 -0.09501059 0.32153702 -0.73807913 -2.2193656 -0.10423286 -1.3717966 -0.30846927
-0.20727247 -0.18967335 -0.024125053 -1.1416298 4.987028 -1.2680329 -0.19283049 -0.48950762
-4.0079885 0.38574883 1.5385202 0.46003097 0.27575985 0.021722069 -0.17343101 0.351313
-0.019538214 -0.14661302 -0.08190702 -0.0030584487 2.2341187 1.77077 -3.507181 -0.45568082
1.7600007 0.444934 -0.9144212 -0.50274515 0.9604864 1.0928566 0.4019985 -1.1605028
-1.054599 -0.09789752 -0.028379539 -0.017904913 -0.11692861 -2.5490906 -1.5964248 0.039258532
0.44313553 0.026156345 -1.4722587 0.19648685 0.42650294 -0.024246005 -0.60219055 0.58287233
-0.7445167 -0.86587983 0.035491712 0.23545495 0.19049391 0.16796806 0.68211913 -0.076184615
1.7987391 -1.0577021 3.2275972 0.5208453 0.18982604 -0.14021754 -0.91816884 -1.0248512
-0.23365848 0.106862344 0.43726802 -0.06844971 -0.104316056 -0.046594698 0.006014396 -0.89290214
0.77083427 -0.51131505 -0.015741585 1.07898 -0.36332673 -0.46967098 -0.09633199 0.88774914
-1.2936035 -0.7484301 2.5858054 -0.24012077 -0.08391355 -0.1504364 -0.13464187 0.0073992074
1.0252558 -1.2583033 -7.048937 0.54704136 0.4106978 -0.52411413 0.36215517 -0.89762986
0.81494963 0.46488163 0.13587512 -0.063097484 0.32894853 0.12014731 0.08771891 0.12361628
0.20976008 -0.8934544 0.28905216 1.936956 -0.3635881 -0.94236195 0.028159272 -0.4014212
-0.51186633 -1.5508914 -0.62983954 1.2636034 0.82585204 3.1507683 0.14031619 0.07002598
0.19392742 0.04736611 1.4812301 -2.2790203 -1.6763031 0.14361572 -0.9476801 0.949533
0.38222885 0.48814908 -0.69130224 -0.5394363 -1.2103789 1.4231929 -0.7067959 -0.14538148
-0.058455646 0.14300723 0.007341719 -1.8311381 0.7215732 -3.007681 -0.6823108 0.9818132
1.2637967 -0.13501011 -1.1250288 0.37317857 -0.4830203 -0.18221012 -0.35626808 0.4425312
-0.10523459 -0.13341497 0.14482 0.1471839 -0.32934296 -2.214941 1.0266389 0.2503029
-0.28407037 -0.747191 0.6667801 0.7793587 0.47649047 -0.7376118 -2.9731035 1.809135
-0.12826842 -0.10869676 -0.20718573 -0.2612735 -0.14607711 -0.8341832 2.7511964 0.93048674
0.16061962 1.4433498 1.7918642 -2.341605 -1.5818185 -0.8109989 0.5553645 0.6113782
-0.009573607 -0.48785445 0.03070522 0.02935572 0.014929113 0.057713404 0.7415278 -0.6506582
-1.2030305 -0.89550954 1.3666505 2.1782198 0.41853482 1.1968322 -0.56862366 0.6344352
-0.1786378 0.1486728 -0.3270192 -0.095785 -0.11392511 -0.024255252 -0.075138584 -0.4964338
00000000: 8fb0 c3be 30a1 16c0 53e4 c1bf 0d9f 783c
00000010: b4e0 e63e b9d7 c23d e245 223f 550f b2be
00000020: f2ef 8c3f 729e a73e 1b8e c83e 9785 a13f
00000030: 67fb 5e3f d0a7 9bbe 5cf4 57be f87b 8dbe
00000040: fd83 d8be 2b0c 6bbf 3764 773f 410a 88bf
00000050: 19fb ec3e cb0f 9bbd 9ce0 763f f1fe 7cbc
00000060: 8d13 d23f 392e a9bc 9771 8f3f 5b3f 1f3d
00000070: 468c c3be c5a9 90be ee92 4cbb 8d57 053c
00000080: 6f75 173d 35cd c23d 722f 623f 73b6 3240
00000090: e54b 29c0 1652 14be ad80 f73e f85f b1be
000000a0: aad9 d73d ea94 c2bd 80a0 a43e c1f2 3cbf
000000b0: 160a 0ec0 0a78 d5bd 0897 afbf afef 9dbe
000000c0: 3c3f 54be bb39 42be e7a1 c5bc ed20 92bf
000000d0: bc95 9f40 e74e a2bf 5b75 45be bea0 fabe
000000e0: 7141 80c0 df80 c53e 3bee c43f 2e89 eb3e
000000f0: 6530 8d3e 7bf2 b13c e697 31be 4cdf b33e
00000100: 9b0e a0bc b921 16be debe a7bd 4170 48bb
00000110: cdfb 0e40 97a8 e23f a775 60c0 ff4e e9be
00000120: b447 e13f 64ce e33e 8217 6abf e8b3 00bf
00000130: 70e2 753f bae2 8b3f bfd2 cd3e 5b8b 94bf
00000140: 1afd 86bf 7f7e c8bd 357c e8bc 53ad 92bc
00000150: 4478 efbd 4d24 23c0 a657 ccbf 8ecd 203d
00000160: a9e2 e23e d545 d63c f972 bcbf d933 493e
00000170: 985e da3e 8f9f c6bc 2929 1abf 1f37 153f
00000180: a598 3ebf 4daa 5dbf c25f 113d 1a1b 713e
00000190: d610 433e d2ff 2b3e 5c9f 2e3f ae06 9cbd
000001a0: 153d e63f c862 87bf f490 4e40 1e56 053f
000001b0: c261 423e 3095 0fbe 1d0d 6bbf 532e 83bf
000001c0: 2b44 6fbe a5da da3d 98e1 df3e 5d2f 8cbd
000001d0: a8a3 d5bd 15da 3ebd 6914 c53b 3c95 64bf
000001e0: 6555 453f 8be5 02bf 7ff4 80bc 041c 8a3f
000001f0: f605 babe b778 f0be b549 c5bd 8743 633f
00000200: cd94 a5bf 1d99 3fbf d67d 2540 38e2 75be
00000210: deda abbd 000c 1abe 8fdf 09be 0d75 f23b
00000220: 953b 833f 1510 a1bf e490 e1c0 e70a 0c3f
00000230: fb46 d23e 582c 06bf 676c b93e 12cb 65bf
00000240: 8aa0 503f f704 ee3e d922 0b3e 4139 81bd
00000250: f16b a83e cb0f f63d f9a5 b33d 882a fd3d
00000260: 59cb 563e 6db9 64bf a5fe 933e 2dee f73f
00000270: 3828 babe a23e 71bf 46ae e63c 1487 cdbe
00000280: ac09 03bf 9c83 c6bf 2a3d 21bf c2bd a13f
00000290: 0a6b 533f 30a6 4940 0caf 0f3e c869 8f3d
000002a0: e994 463e f702 423d f398 bd3f 78db 11c0
000002b0: 1a91 d6bf 0010 133e 2a9b 72bf 9814 733f
000002c0: 80b3 c33e adee f93e 2ff9 30bf 7f18 0abf
000002d0: b2ed 9abf 2f2b b63f 93f0 34bf e2de 14be
000002e0: 306f 6fbd 7d70 123e ce92 f03b bc62 eabf
000002f0: 05b9 383f d87d 40c0 ecab 2ebf 1c58 7b3f
00000300: 17c4 a13f 1740 0abe f200 90bf 4311 bf3e
00000310: 704e f7be 4a95 3abe c568 b6be 7393 e23e
00000320: 3c85 d7bd ef9d 08be b24b 143e 60b7 163e
00000330: a49f a8be 98c1 0dc0 e768 833f b427 803e
00000340: ac71 91be e947 3fbf 1ab2 2a3f 0d84 473f
00000350: 8ff6 f33e 20d4 3cbf 5447 3ec0 bc91 e73f
00000360: cc58 03be 689c debd 7f28 54be a4c5 85be
00000370: 3d95 15be 088d 55bf 9a13 3040 6134 6e3f
00000380: 7879 243e b0bf b83f ce5b e53f dbdc 15c0
00000390: 0779 cabf a09d 4fbf 5e2c 0e3f 4883 1c3f
000003a0: 9eda 1cbc 0fc8 f9be 8389 fb3c 687b f03c
000003b0: 3d99 743c e464 6c3d c4d4 3d3f 8991 26bf
000003c0: e7fc 99bf 1d40 65bf 67ee ae3f f467 0b40
000003d0: 324a d63e cc31 993f 5291 11bf 586a 223f
000003e0: d4ec 36be af3d 183e 106f a7be ed2a c4bd
000003f0: 9151 e9bd f3b2 c6bc 42e2 99bd 922c febe

critic.0.bias f4 [128]
-0.14532842 0.15311258 0.09221121 -0.06632678 -0.26316634 -0.4232236 -0.5169956 0.12236994
0.0160617 -0.26467797 -0.20605129 -0.24308042 -0.07111786 0.15077123 -0.769274 -0.08922251
-0.2619717 -0.15831313 0.026491553 0.36425444 0.19115226 0.4842909 -0.15486416 -0.14763963
-0.17105603 0.102362655 0.06213333 0.18519154 -0.07476523 0.27211112 -0.09925791 0.20817752
-0.3084319 0.066759184 -0.13389416 -0.44543338 -0.41554624 0.1333655 -0.24489829 -0.2261884
0.20924784 -0.04337835 -0.6526465 0.02655566 -0.23209354 0.14975366 -0.17834191 0.1322304
-0.0808297 -0.23081212 0.033690277 -0.13411862 -0.07150224 0.017872317 0.21402423 0.51899636
0.23606339 -0.062563986 -0.07730641 -0.21372622 0.12535231 -0.098921336 -0.03609425 0.594182
0.17134123 -0.43726987 -0.23679724 0.27626657 0.0049703885 -0.010204275 0.07641625 -0.051325884
-0.17583536 -0.27410257 -0.036258087 -0.15500797 -0.23860218 0.30327025 0.010139123 0.26418778
0.33020782 -0.30286363 0.07892933 0.19203264 0.16096243 -0.004354285 0.051957797 -0.21066679
-0.27660376 0.22302288 0.22980677 -0.36299074 -0.05023854 -0.014016651 -0.28653705 -0.31303775
-0.16359891 0.32191747 -0.18659 0.37680584 -0.18798515 0.19965936 0.05962636 0.11306526
0.18800533 0.15524545 0.043733638 -0.027247155 0.27042127 0.09873528 -0.12397393 0.29805312
0.53633106 -0.5692002 0.22361231 0.46455857 -0.27464443 -0.512048 -0.03079996 -0.05373308
-0.09024887 -0.12344154 0.12591244 -0.04578372 -0.13825832 0.16271123 -0.2366279 -0.5004832
00000000: f9d0 14be 8bc9 1c3e 3bd9 bc3d 56d6 87bd
00000010: bdbd 86be c4b0 d8be d359 04bf 179d fa3d
00000020: d493 833c df83 87be 1cff 52be 13ea 78be
00000030: 3ea6 91bd c663 1a3e 24ef 44bf 4bba b6bd
00000040: 2821 86be d61c 22be d004 d93c 8f7f ba3e
00000050: 6bbd 433e faf4 f73e b694 1ebe d82e 17be
00000060: 5029 2fbe 83a3 d13d 857f 7e3d daa2 3d3e
00000070: 831e 99bd 2652 8b3e bb47 cbbd 7d2c 553e
00000080: c9ea 9dbe 0ab9 883d 8d1b 09be d80f e4be
00000090: 7ac2 d4be f790 083e 9ec6 7abe ef9d 67be
000000a0: 1145 563e 7fad 31bd d713 27bf 418b d93c
000000b0: eea9 6dbe 0659 193e 439f 36be 6867 073e
000000c0: 0b8a a5bd 035a 6cbe d1fe 093d 6456 09be
000000d0: c46f 92bd f768 923c 2b29 5b3e f2dc 043f
000000e0: 9aba 713e 8c21 80bd d352 9ebd 0cdb 5abe
000000f0: 5b5c 003e 4597 cabd 90d7 13bd 501c 183f
00000100: 1374 2f3e d6e1 dfbe fa7a 72be d072 8d3e
00000110: a4de a23b d52f 27bc 1f80 9c3d 173b 52bd
00000120: 2f0e 34be 2c57 8cbe 5c83 14bd 69ba 1ebe
00000130: 2154 74be 3d46 9b3e 901e 263c 9f43 873e
00000140: 0011 a93e f110 9bbe b3a5 a13d 34a4 443e
00000150: 56d3 243e 64ae 8ebb b3d1 543d 09b9 57be
00000160: 029f 8dbe 1c60 643e 7752 6b3e ecd9 b9be
00000170: edc6 4dbd 18a6 65bc fcb4 92be 7c46 a0be
00000180: 7986 27be 5ed2 a43e 7311 3fbe b2ec c03e
00000190: 2e7f 40be 8173 4c3e c53a 743d c28e e73d
000001a0: 7884 403e aaf8 1e3e 0b22 333d 6d35 dfbc
000001b0: a874 8a3e b935 ca3d 0be6 fdbd 6b9a 983e
000001c0: fe4c 093f 1bb7 11bf a0fa 643e 9fda ed3e
000001d0: 329e 8cbe 9415 03bf 3350 fcbc 3817 5cbd
000001e0: 66d4 b8bd ebce fcbd 31ef 003e b687 3bbd
000001f0: 9793 0dbe c69d 263e 964e 72be ab1f 00bf

critic.2.weight f4 [128, 128]
-0.016331213 0.0935689 0.25694475 -0.050251752 0.17524624 -0.036321692 0.13612 -0.15675537
1.4065757 -0.4496394 0.014106613 -1.2032406 -0.4644185 -0.6957554 -0.05189975 -0.36567244
0.6083392 0.45093897 -0.5346771 -0.80353844 -0.24359502 0.19492239 -0.037044335 1.191668
0.40048492 0.30381876 -1.086569 0.58212537 0.22238047 -0.27746242 -0.21375178 -0.7536719
-0.8021931 0.11876933 0.44690323 -0.76122975 0.016967034 0.20474935 -0.30192468 -0.71775955
0.13941136 -0.14632112 -0.24108398 0.12939247 -0.72015435 -0.52773255 -0.2017465 -0.24037944
0.4284166 -0.007997349 0.43665 -0.44311088 -0.39366502 -0.1750664 0.8923581 0.92414147
-0.20216562 0.1050083 0.7275348 0.49359503 -0.07502381 0.116934106 -0.9374668 0.81037515
-0.2016326 0.028455121 -2.0874803 -0.7773253 -0.7293292 -0.14137797 0.6886451 -0.30844066
0.26619196 -0.3917256 0.3103202 -0.25233555 0.60364527 -0.5804247 -0.3570299 0.5474866
-0.32993147 0.4364884 0.43335316 -1.0642607 0.31139603 0.151578 0.26352698 0.6266408
0.7834992 0.7936189 0.47956133 0.84027535 0.4961573 -0.5338986 -0.44064865 -0.5422174
0.062248055 0.17719844 0.13971658 0.3568688 -0.20372891 0.25159964 1.0132668 0.63936305
0.2131628 0.5490595 1.0828148 -0.20007345 -1.1342169 -0.31133735 0.550441 0.1407811
0.03975115 0.42957288 0.07584524 -1.4607158 0.6494244 1.3454664 0.7747881 -0.19709991
-0.33276197 -0.39718607 -0.49914566 0.013695232 0.71394885 0.23296782 -0.39989194 0.22851162
-0.69435763 -0.06557682 0.21065941 1.2441202 0.19464651 0.8245596 0.15752177 -0.2839094
-0.106875785 0.17256683 0.5560749 -1.2215517 -0.4333427 -0.8821106 0.1255826 -0.09416415
0.16147801 0.33840248 -0.099752165 0.3775653 0.42758888 0.24108832 0.17505337 -0.4822062
-0.42938298 -0.03397513 0.22053438 -0.53978854 -0.05673217 0.020518592 -0.86260974 1.1463683
-0.2170431 0.021104017 -0.97375536 0.514239 0.73377067 0.124901935 0.57277155 -0.32844862
0.712166 0.23914397 0.42127553 -0.30678555 -0.43842694 0.02589233 0.17950499 0.2041012
0.3786143 0.46149048 0.99831176 0.83911276 0.39877266 0.4906458 -0.71710014 -0.043663792
-0.47883478 0.025798244 0.32194892 -0.10294911 -0.5732594 -0.97064936 -0.6469092 0.8867734
-0.54185814 -0.47524104 -0.3893764 0.2310791 -0.32850975 0.73758173 -0.12923294 -0.028889515
0.41043666 0.42842212 0.22340955 0.22265786 -0.6114502 0.5266814 -1.0754467 -0.35789287
0.05673224 0.23075029 -0.4135961 -0.4570939 -0.23378716 0.77919424 0.06860284 -0.8570842
0.17485596 0.28640884 0.2567658 0.5203617 0.06858973 -0.13624161 0.61274827 0.1555184
0.10159809 1.2293881 0.89504564 0.06442224 1.151904 -0.17374684 -0.34134722 0.37170494
0.57534146 -0.031637523 -0.4487235 -0.8915135 0.019234588 -0.36387187 0.20676535 -0.5849251
-0.18535182 0.46904245 -0.04336155 -1.0085691 0.04260798 0.29986626 0.25393015 -0.21658994
0.029145686 -0.83800846 0.23086232 -0.04853064 0.235514 -0.21936966 -0.7338956 -0.26994956
00000000: 09c9 85bc 0da1 bf3d 438e 833e c8d4 4dbd
00000010: c073 333e 0ec6 14bd 0b63 0b3e 7b84 20be
00000020: ac0a b43f 2337 e6be 6c1f 673c ca03 9abf
00000030: 43c8 edbe 071d 32bf d594 54bd 6b39 bbbe
00000040: 1ebc 1b3f 79e1 e63e 99e0 08bf b2b4 4dbf
00000050: f970 79be bc99 473e cdbb 17bd 9488 983f
00000060: 5c0c cd3e 228e 9b3e b114 8bbf 2b06 153f
00000070: b5b7 633e 8e0f 8ebe bfe1 5abe a4f0 40bf
00000080: 875c 4dbf 563d f33d 80d0 e43e f4df 42bf
00000090: 73fe 8a3c d0a9 513e df95 9abe 17bf 37bf
000000a0: dac1 0e3e 34d5 15be b8de 76be 767f 043e
000000b0: 095c 38bf 7b19 07bf a296 4ebe 0726 76be
000000c0: 6c59 db3e 5007 03bc 9790 df3e 6edf e2be
000000d0: 768e c9be 9b44 33be 9571 643f 8994 6c3f
000000e0: 8104 4fbe 970e d73d b83f 3a3f 7db8 fc3e
000000f0: 15a6 99bd 267b ef3d d3fd 6fbf bf74 4f3f
00000100: c778 4ebe b71a e93c 4799 05c0 cafe 46bf
00000110: 52b5 3abf 63c5 10be 0c4b 303f efeb 9dbe
00000120: 504a 883e 4290 c8be 4ae2 9e3e 2032 81be
00000130: 7f88 1a3f b796 14bf a0cc b6be 1528 0c3f
00000140: c7ec a8be 687b df3e 77e0 dd3e b239 88bf
00000150: 4d6f 9f3e 4337 1b3e 02ed 863e 886b 203f
00000160: 6793 483f 9c2a 4b3f 1089 f53e 491c 573f
00000170: 5408 fe3e 94ad 08bf b39c e1be c2ce 0abf
00000180: d1f7 7e3d 8273 353e dd11 0f3e 82b7 b63e
00000190: 509e 50be abd1 803e bab2 813f 4cad 233f
000001a0: 5947 5a3e 2a8f 0c3f ad99 8a3f 0ee0 4cbe
000001b0: 052e 91bf 9c67 9fbe b4e9 0c3f ec28 103e
000001c0: 1ad2 223d faf0 db3e c054 9b3d bcf8 babf
000001d0: ad40 263f 3e38 ac3f 8358 463f 8fd4 49be
000001e0: c75f aabe f95b cbbe 0590 ffbe f761 603c
000001f0: 5ac5 363f 1e8f 6e3e a3be ccbe f3fe 693e
00000200: 6cc1 31bf 244d 86bd 1ab7 573e 553f 9f3f
00000210: 6a51 473e 5716 533f 634d 213e 935c 91be
00000220: b1e1 dabd 5cb5 303e ed5a 0e3f ce5b 9cbf
00000230: 18df ddbe 00d2 61bf ba98 003e 22d9 c0bd
00000240: 7e5a 253e 1743 ad3e dd4a ccbd 3d50 c13e
00000250: eeec da3e dbdf 763e 3141 333e bbe3 f6be
00000260: 16d8 dbbe 8229 0bbd c4d3 613e 952f 0abf
00000270: fe5f 68bd 9b16 a83c fed3 5cbf 32bc 923f
00000280: 8c40 5ebe 55e2 ac3c 0848 79bf 2ba5 033f
00000290: 65d8 3b3f 96cc ff3d 28a1 123f 6b2a a8be
000002a0: 8350 363f 28e2 743e 6db1 d73e ff12 9dbe
000002b0: 7f79 e0be 271c d43c 28d0 373e e8ff 503e
000002c0: bcd9 c13e 7b48 ec3e 5c91 7f3f 18d0 563f
000002d0: ee2b cc3e ed35 fb3e e093 37bf ced8 32bd
000002e0: d529 f5be d756 d33c 7dd6 a43e fcd6 d2bd
000002f0: 21c1 12bf 7a7c 78bf d79b 25bf 9503 633f
00000300: 37b7 0abf cb52 f3be 585c c7be 00a0 6c3e
00000310: 6e32 a8be 28d2 3c3f a455 04be b4a9 ecbc
00000320: c124 d23e 255a db3e 79c5 643e 6c00 643e
00000330: 0088 1cbf 98d4 063f 3da8 89bf bc3d b7be
00000340: 1160 683d ce49 6c3e dec2 d3be 3608 eabe
00000350: e765 6fbe 4679 473f a57f 8c3d df69 5bbf
00000360: 710d 333e 2ea4 923e cf76 833e 6d36 053f
00000370: c678 8c3d ec82 0bbe 12dd 1c3f 3740 1f3e
00000380: a912 d03d 975c 9d3f b621 653f cfef 833d
00000390: 9771 933f b1ea 31be 10c5 aebe 1c50 be3e
000003a0: 9449 133f 5996 01bd 16bf e5be 3b3a 64bf
000003b0: db91 9d3c 6a4d babe 4cba 533e a7bd 15bf
000003c0: decc 3dbe 5526 f03e e19b 31bd cb18 81bf
000003d0: b585 2e3d 1288 993e 2203 823e c1c9 5dbe
000003e0: efc2 ee3c b987 56bf 2c67 6c3e 10c8 46bd
000003f0: 952a 713e 71a2 60be 95e0 3bbf d436 8abe

critic.2.bias f4 [128]
-0.12609285 -0.18269376 -0.11490569 -0.0209642 0.30453208 0.2759588 0.09438958 0.13804033
-0.30116594 0.08571686 0.19640777 0.38465628 0.35161087 0.2959119 0.131219 -0.25565746
-0.09966004 -0.3661863 -0.28840664 0.042901054 -0.1808939 -0.22300376 0.09434141 -0.063549
0.20306559 1.192447 -0.10691163 0.12051441 -1.9271716 -0.359309 0.40928805 -0.09216289
-0.024067203 -0.64875466 -0.6009994 -0.11919172 0.17671779 0.16653344 -0.66160387 0.24106011
-0.46653885 -0.2662488 0.2065269 0.16424304 0.30819497 0.15227453 -0.061366893 0.47829854
-0.27403829 -0.15101196 0.3854616 -0.029404495 0.46552706 0.11307915 0.41885588 -0.2792268
0.06427158 -0.078512006 0.072215304 -0.24445058 -0.14609663 0.49454954 -0.11625219 0.09437463
-0.31852877 -0.23961908 0.08921025 -0.32862875 -0.042819563 0.073958814 0.062797435 -0.009218594
-0.26848984 -0.29611278 0.22498582 0.19306847 0.20363036 -0.3281739 0.6700278 0.4031868
-0.14742333 -0.12407785 0.32570082 0.46303234 -0.57143265 0.11522383 0.44556475 0.06697127
-0.27707884 -0.16124009 -0.21328177 0.20528638 -0.0980788 0.020918602 -0.21859314 -0.119797625
0.09005088 -0.24317835 -0.096138746 -0.04364958 0.17278796 0.42535982 0.21499951 0.21631704
0.4743934 -0.16232231 -0.2955737 0.51823235 0.10247687 0.09489485 -0.75463676 -0.32566398
-0.028039383 -0.14128734 0.1727143 0.39423233 0.06264612 0.29812288 -0.09675023 -0.16410768
0.27085727 -0.53588057 0.5291842 0.38198692 -0.061817124 0.4885298 0.14737466 -1.5314088
00000000: 7c1e 01be 1314 3bbe ad53 ebbd 1dbd abbc
00000010: a1eb 9b3e 794a 8d3e 534f c13d 725a 0d3e
00000020: 6c32 9abe 528c af3d 1e1f 493e abf1 c43e
00000030: 5706 b43e c481 973e 465e 063e 89e5 82be
00000040: 901a ccbd c57c bbbe 09aa 93be 04b9 2f3d
00000050: 403c 39be 195b 64be 1236 c13d fa25 82bd
00000060: 6df0 4f3e 1aa2 983f 7cf4 dabd 42d0 f63d
00000070: 8fad f6bf 59f7 b7be 348e d13e e6bf bcbd
00000080: 9528 c5bc c914 26bf 19db 19bf ca1a f4bd
00000090: 82f5 343e be87 2a3e df5e 29bf 76d8 763e
000000a0: 2ede eebe c351 88be ca7b 533e 542f 283e
000000b0: bbcb 9d3e dbed 1b3e da5b 7bbd 8ce3 f43e
000000c0: bf4e 8cbe e1a2 1abe 395b c53e b2e1 f0bc
000000d0: 9059 ee3e 0b96 e73d 4774 d63e d1f6 8ebe
000000e0: d1a0 833d e7ca a0bd 9ee5 933d 4151 7abe
000000f0: 5b9a 15be 9935 fd3e a115 eebd 7c47 c13d
00000100: 3416 a3be b45e 75be ddb3 b63d 0742 a8be
00000110: 9163 2fbd b877 973d f19b 803d 9609 17bc
00000120: 8077 89be 189c 97be af62 663e beb3 453e
00000130: 7a84 503e 6906 a8be f186 2b3f 806e ce3e
00000140: 24f6 16be 871c febd 42c2 a63e 9312 ed3e
00000150: 6949 12bf 79fa eb3d 1021 e43e 3c28 893d
00000160: 47dd 8dbe 1f1c 25be 8966 5abe 9836 523e
00000170: 8add c8bd 7d5d ab3c e1d6 5fbe 7558 f5bd
00000180: 996c b83d bf03 79be 64e4 c4bd e7c9 32bd
00000190: 54ef 303e c3c8 d93e d528 5c3e 3782 5d3e
000001a0: b1e3 f23e d237 26be 7055 97be e0aa 043f
000001b0: 65df d13d 3b58 c23d e02f 41bf 6ebd a6be
000001c0: d9b2 e5bc a1ad 10be 04dc 303e d2d8 c93e
000001d0: 9c4c 803d 90a3 983e fc24 c6bd d80b 28be
000001e0: cead 8a3e 782f 09bf 9e78 073f ca93 c33e
000001f0: f433 7dbd 9420 fa3e 62e9 163e 3405 c4bf

critic.4.weight f4 [1, 128]
0.0010787167 0.0014110574 0.00080013776 -9.372294e-05 -0.00042323163 -0.000596355 0.00038732588 0.00019971137
-0.00094064407 0.0031522913 -0.00018761186 2.8936773e-07 0.00045738238 0.0005309714 -0.00040149837 0.00037503283
0.00094249536 0.00039793362 -0.00036840138 0.00013627314 -0.0012292898 -9.29821e-06 -0.0015628904 -9.356902e-05
0.00021673119 0.07217218 -0.00025500526 -0.0010799317 0.06660291 0.00037747365 -0.0010816376 -0.00011242173
-0.00022750585 0.014382241 0.0014254274 -0.0003172121 0.0006951555 -0.000293362 -0.052896053 0.00039618288
-0.0012385086 0.00029396225 -0.00020484868 -0.00019103018 -0.00054612843 0.0015272765 -0.011490455 -0.0008439058
0.00027097942 -0.001974951 3.2371092e-05 0.0019498222 0.0018559484 -0.0005994924 -0.0013818982 -0.0063232044
0.00033863823 -0.00064831617 -8.826301e-05 8.025585e-05 7.025734e-05 0.00054938404 0.039282497 0.08557867
0.00041360574 -0.0014983598 0.0013286753 -0.0006160403 0.0014155001 0.0007231059 0.00016639261 0.0016100283
-0.00029829075 0.0008511793 0.0030533676 6.492015e-05 0.00095609494 0.00024811184 -0.0017335427 0.00094898185
0.00014003922 0.00091110513 0.0012617639 0.0009197793 0.0016237797 -0.0008407404 0.0007354284 0.0016213992
-0.0028959026 0.0041066855 -0.0005512429 -0.000412257 -0.0013442454 -0.0006751683 -0.0010989223 -0.0014911533
-7.055943e-05 -0.00052003463 0.0010063718 -0.0006191551 3.4384404e-05 -0.0018280438 0.00037762808 0.0014965946
-2.4527932e-05 0.00030764117 -3.436912e-05 0.0011302453 -0.0009110479 -0.0007289695 0.0010029378 -0.0013646416
0.0011185847 0.0005450103 0.00071784365 0.0010095723 0.00044308903 0.000108565204 0.00040272038 0.00045902282
0.0002018105 -0.00043672256 -0.0030705743 -0.0012514779 -0.00025915014 0.0010798322 0.0003949979 0.063858666
00000000: ba63 8d3a 3bf3 b83a 56c0 513a 1f8d c4b8
00000010: 30e5 ddb9 b554 1cba 0012 cb39 9d69 5139
00000020: 8e95 76ba ac96 4e3b adb9 44b9 665a 9b34
00000030: d3cc ef39 e330 0b3a 3380 d2b9 0ea0 c439
00000040: cb11 773a bfa1 d039 ff25 c1b9 8be4 0e39
00000050: 1f20 a1ba 82ff 1bb7 e6d9 ccba 7c3a c4b8
00000060: 5642 6339 02cf 933d 3ab2 85b9 7f8c 8dba
00000070: 1b67 883d a8e7 c539 bcc5 8dba f5c3 ebb8
00000080: a38e 6eb9 7ea3 6b3c 68d5 ba3a 7d4f a6b9
00000090: 193b 363a 62ce 99b9 88a9 58bd c4b6 cf39
000000a0: 7455 a2ba f21e 9a39 a6cc 56b9 464f 48b9
000000b0: 0f2a 0fba e52e c83a 7642 3cbc 8f39 5dba
000000c0: 3e12 8e39 2e6e 01bb 32c6 0738 2d91 ff3a
000000d0: 4b43 f33a 4127 1dba cf20 b5ba e232 cfbb
000000e0: 418b b139 c3f3 29ba d819 b9b8 084f a838
000000f0: 1f57 9338 8a04 103a afe6 203d df43 af3d
00000100: 39d9 d839 9d64 c4ba f226 ae3a c47d 21ba
00000110: 4d88 b93a d18e 3d3a ad79 2e39 9607 d33a
00000120: e863 9cb9 ad21 5f3a 021b 483b bd25 8838
00000130: 72a2 7a3a 0215 8239 0a38 e3ba 18c5 783a
00000140: 7ed7 1239 3bd7 6e3a c561 a53a 581d 713a
00000150: 01d5 d43a 2265 5cba c4c9 403a 2185 d43a
00000160: 2fc9 3dbb 6091 863b 4981 10ba 3324 d8b9
00000170: 6431 b0ba c7fd 30ba b709 90ba cd72 c3ba
00000180: 4ef9 93b8 ef52 08ba 3ce8 833a cc4e 22ba
00000190: f937 1038 f99a efba 62fc c539 6229 c43a
000001a0: 55c1 cdb7 e64a a139 9027 10b8 bd24 943a
000001b0: 64d3 6eba 5118 3fba 0275 833a c6dd b2ba
000001c0: 799d 923a 06df 0e3a ac2d 3c3a a053 843a
000001d0: 674e e839 80ad e338 3724 d339 00a9 f039
000001e0: 189d 5339 e9f7 e4b9 b03b 49bb a108 a4ba
000001f0: 8bde 87b9 2889 8d3a b817 cf39 55c8 823d

exp_avg f4 [4]
-0.00021674337 0.0042964467 4.2643813e-05 -0.0006050394
00000000: 9b45 63b9 35c9 8c3b 72dc 3238 829b 1eba

exp_avg_sq f4 [4]
0.00031776057 0.0077901455 8.682293e-05 0.00046100016
00000000: 1a99 a639 7a44 ff3b b514 b638 65b2 f139
