examples/drone/logs/drone-waypointing/model_5500.pt (torch, 474978 bytes, 36 tensors)

std f4 [4]
0.3359844 0.00051736063 0.38318184 0.38706663
00000000: 2606 ac3e 7c9f 073a 6930 c43e 992d c63e

actor.0.weight f4 [128, 17]
-1.9460282 -1.341486 3.7491808 -0.18276508 -0.15688775 -0.118200004 -0.28208578 -0.37310785
-0.7375617 0.7448604 0.81854844 -0.32214534 -0.043671496 0.1862689 0.106733315 0.2931258
0.07050418 -0.40729475 -0.0070184385 -1.1648953 0.4333184 -1.8977352 -1.9529531 0.01745227
0.35068768 -0.26823884 -0.07105179 0.16387576 -0.7825754 -0.79670626 0.04791776 0.027311893
0.119744346 -0.018201333 -0.06372734 -0.06209476 0.27204546 -0.008565418 -0.06487188 -0.005788194
-0.022649076 0.1152419 0.024690134 0.01817175 0.004881888 0.05326806 -0.049710345 -0.16650307
0.34193426 -0.086588085 -0.066037014 0.08290338 0.26638195 -2.0570352 -1.0797268 -1.3929368
0.05949296 1.1938106 1.3644667 0.5079412 0.8952903 -0.027611028 -0.65222836 0.75377345
-0.28427726 -0.31724963 -0.39134398 -0.11883199 -0.31476477 -0.030257192 -2.2432747 0.045112263
0.4935201 -0.056588244 0.4777548 -0.07057476 -0.10255624 -0.00097608636 -0.010307566 0.00047932687
0.14516743 0.17824315 0.014256647 0.08648423 -0.12667356 -1.1574441 0.40880695 0.62464386
0.10332808 -0.8107131 1.2913383 -0.6745005 0.24848849 -0.013609412 -0.1402255 0.0825919
-0.17278348 -0.13031188 0.10768687 -0.13532019 -0.05110339 -0.056794006 1.0563511 -0.067134455
2.467299 -0.6287922 0.51104045 0.24722756 -0.70536304 0.20240748 -0.15776582 -0.7060997
0.72803634 -0.4621055 -0.12603398 0.13798773 0.2476894 0.1530945 0.07802093 1.4288596
-0.41862297 -3.9569101 0.2774769 -0.62432146 -0.94440174 0.08086449 0.052186836 -0.2784825
0.6254834 -0.18979508 -0.16306964 0.036528334 -0.301502 -0.33954415 -0.27039096 -0.24537137
-0.13811833 0.22149627 0.16314784 0.016659284 0.7589639 -0.05773696 0.6263124 0.26895905
-0.16574214 0.017039856 -0.06175962 0.009217703 0.1603906 0.09756753 0.031292588 0.17230488
-0.17266947 0.060558498 0.20722322 -1.5051321 0.024055244 0.735884 -0.390723 0.27707422
-0.068094686 -0.008046819 -0.014678924 0.023271952 0.12152343 0.19207506 0.01612846 0.053409018
0.116595395 0.09071581 0.09000982 0.06532307 -0.047748763 -0.62132937 -0.021134682 -0.093329445
-0.103431 0.009805899 0.034939982 0.041415874 -0.0038898499 -0.04509928 0.016231399 -0.12195317
0.12430754 0.009157894 -0.09875974 0.63751245 0.8259937 -1.4121734 0.5335184 -1.440291
-0.29329675 0.53552604 0.34178224 -0.16877042 0.44365308 0.5912802 -1.2589146 0.7550366
-0.0339251 -0.07893808 -0.11640307 0.08114236 0.33193982 -0.009194497 3.2094827 -0.16877273
-0.5165179 -0.22011602 -0.40133923 0.27724954 0.04319845 -0.14255194 0.09068265 0.057893176
-0.2995683 -0.039414883 0.16389373 -0.0620809 0.10687032 -0.22643691 0.42863688 -1.0486232
0.4671666 -0.40012962 -1.0739189 -0.6641469 0.04411573 -0.084646925 -0.13828483 0.07051513
0.40484592 0.14058778 0.14320664 0.083608285 0.053641926 0.047102682 0.23809469 0.1944843
-0.13462244 0.2855389 0.18487962 -0.38191742 -0.14466058 -0.22642927 0.032549053 0.05798425
-0.03741079 -0.039944813 -0.16301692 -0.111008845 -0.20015825 -0.07325113 0.1135552 -0.8341586
00000000: 7417 f9bf d0b5 abbf 94f2 6f40 c526 3bbe
00000010: 2fa7 20be d812 f2bd 8c6d 90be fe07 bfbe
00000020: d8d0 3cbf 2caf 3e3f 648c 513f 3cf0 a4be
00000030: e2e0 32bd 46bd 3e3e ff96 da3d 9614 963e
00000040: 7f64 903d f088 d0be eefa e5bb 4a1b 95bf
00000050: e9db dd3e fde8 f2bf 5efa f9bf 10f8 8e3c
00000060: 568d b33e 9a56 89be 9a83 91bd 0ccf 273e
00000070: dd56 48bf f1f4 4bbf 6a45 443d 31bd df3c
00000080: 863c f53d f61a 95bc 7b83 82bd 1357 7ebd
00000090: 8b49 8b3e f855 0cbc 8cdb 84bd e4aa bdbb
000000a0: 8e8a b9bc f203 ec3d f742 ca3c ecdc 943c
000000b0: 3ff8 9f3b 9c2f 5a3d 139d 4bbd c87f 2abe
000000c0: 0212 af3e 1855 b1bd 6a3e 87bd 3fc9 a93d
000000d0: 3763 883e 77a6 03c0 7d34 8abf c14b b2bf
000000e0: e4ae 733d c9ce 983f d8a6 ae3f 6f08 023f
000000f0: bf31 653f 8630 e2bc 70f8 26bf 4cf7 403f
00000100: ca8c 91be 8b6e a2be 3d5e c8be 305e f3bd
00000110: d928 a1be eedd f7bc d091 0fc0 a3c7 383d
00000120: abae fc3e 13c9 67bd 479c f43e 8089 90bd
00000130: 0209 d2bd 0ce0 7fba 11e1 28bc 2a4e fb39
00000140: c5a6 143e 5f85 363e b694 693c a51e b13d
00000150: b7b6 01be 2127 94bf 254f d13e a9e8 1f3f
00000160: ac9d d33d e58a 4fbf 934a a53f 11ac 2cbf
00000170: c473 7e3e 03fa 5ebc 4697 0fbe f125 a93d
00000180: 27ee 30be 7a70 05be ef8a dc3d 6091 0abe
00000190: ca51 51bd d5a0 68bd 8336 873f ca7d 89bd
000001a0: 3ae8 1d40 87f8 20bf 8cd3 023f 3929 7d3e
000001b0: ac92 34bf e843 4f3e 5d8d 21be f3c2 34bf
000001c0: 9760 3a3f 1899 ecbe 0d0f 01be a84c 0d3e
000001d0: 4aa2 7d3e cec4 1c3e 70c9 9f3d dfe4 b63f
000001e0: c055 d6be 043e 7dc0 7411 8e3e 88d3 1fbf
000001f0: 50c4 71bf 489c a53d ddc1 553d 4295 8ebe
00000200: ae1f 203f a459 42be bafb 26be bc9e 153d
00000210: 785e 9abe bbd8 adbe af70 8abe a242 7bbe
00000220: e46e 0dbe ebcf 623e 3a10 273e 0d79 883c
00000230: 754b 423f 977d 6cbd 0256 203f 00b5 893e
00000240: 4fb8 29be 2b97 8b3c a8f7 7cbd d905 173c
00000250: 6f3d 243e 7cd1 c73d a82c 003d b170 303e
00000260: 44d0 30be 300c 783d 5332 543e 2ba8 c0bf
00000270: 810f c53c e562 3c3f d80c c8be acdc 8d3e
00000280: 3a75 8bbd ced6 03bc df7f 70bc d2a4 be3c
00000290: 47e1 f83d 53af 443e d51f 843c 6ac3 5a3d
000002a0: 91c9 ee3d 36c9 b93d 1257 b83d 1ac8 853d
000002b0: 3594 43bd 710f 1fbf a422 adbc 8223 bfbd
000002c0: a2d3 d3bd eca8 203c 3a1d 0f3d b1a3 293d
000002d0: daec 7ebb 06ba 38bd b6f7 843c 95c2 f9bd
000002e0: f494 fe3d fe0a 163c 8c42 cabd 0434 233f
000002f0: 5374 533f 19c2 b4bf a994 083f 755b b8bf
00000300: fe2a 96be 3c18 093f 15fe ae3e 27d2 2cbe
00000310: 7f26 e33e 245e 173f 1d24 a1bf 144a 413f
00000320: 0cf5 0abd 4aaa a1bd bc64 eebd f72d a63d
00000330: 04f4 a93e 84a4 16bc 2a68 4d40 c2d2 2cbe
00000340: 843a 04bf 1866 61be 567c cdbe a7f3 8d3e
00000350: dcf0 303d 23f9 11be d3b7 b93d 6521 6d3d
00000360: 0461 99be 8071 21bd c2d3 273e 8b48 7ebd
00000370: d4de da3d 14df 67be 4b76 db3e 4939 86bf
00000380: 7630 ef3e cadd ccbe 2d76 89bf 8805 2abf
00000390: b2b2 343d 5e5b adbd 8a9a 0dbe 3d6a 903d
000003a0: f747 cf3e 3ef6 0f3e c3a4 123e d23a ab3d
000003b0: a3b7 5b3d beee 403d 18cf 733e e426 473e
000003c0: 77da 09be 2832 923e 1551 3d3e ae8a c3be
000003d0: e721 14be 13dd 67be 2852 053d e580 6d3d
000003e0: 0e3c 19bd 2c9d 23bd e8ed 26be 9b58 e3bd
000003f0: 49f6 4cbe b004 96bd a18f e83d 6b8b 55bf

actor.0.bias f4 [128]
-0.38281146 -0.31879932 -0.039896242 -0.49742064 -0.14554013 -0.03650039 0.15435666 -0.21949625
-0.048258975 -0.19435105 0.5573621 0.25618282 0.13289145 -0.6278363 0.08697783 -0.029788118
-0.12345575 -0.22356412 0.31644583 -0.34128433 0.046715815 0.1260455 -0.021576436 0.010775275
-0.30355382 0.5128366 0.5784553 -0.077737115 -0.4798342 -0.28457654 0.14088032 0.090015225
0.20983043 -0.12402272 0.33333194 -0.060089637 0.20596382 -0.43394578 -0.3395093 -0.76159847
-0.5493647 0.20103353 -0.11587416 -0.13687852 0.17507708 0.1350151 -0.15847017 0.03638818
0.14062244 -0.7433494 -0.20500106 0.03775903 0.3264835 0.13070285 -0.08776917 -0.09121241
-0.14963818 0.2999104 0.22252929 -0.093330845 0.36390543 0.22471271 -0.46799397 0.10095966
0.26286238 0.30026355 -0.27978906 0.17772275 -0.41884276 0.11931592 -0.41036728 -0.20505007
0.059284046 0.098126456 0.022574784 0.102220416 -0.1933842 -0.06489014 0.040971417 -0.013514847
0.052855298 -0.08225339 -0.20950764 0.06359807 -0.04877472 0.26378006 -0.068868734 0.0074944966
0.04641672 0.22223233 0.005981525 -0.19212374 -0.12571728 -0.4104801 0.119196534 0.025971735
-0.16143745 0.22863899 -0.29475987 0.36373615 -0.26244378 0.4652635 -0.3517244 0.023175899
-0.1846903 0.07906196 0.06820691 0.14435804 -0.42403066 0.21856159 0.10433909 -0.34778106
-0.09824956 -0.16394135 -0.45820278 -0.4776826 -0.16912584 -0.08941769 0.36382928 -0.06554537
0.3301885 -0.17588109 0.13570268 -0.17782706 -0.34452227 0.29252434 0.41251966 -0.2509896
00000000: ddff c3be aa39 a3be 3e6a 23bd ebad febe
00000010: 7908 15be 6f81 15bd ac0f 1e3e a0c3 60be
00000020: 34ab 45bd f603 47be 48af 0e3f 652a 833e
00000030: b214 083e e1b9 20bf 6f21 b23d 3606 f4bc
00000040: 5ed6 fcbd feed 64be 3005 a23e d2bc aebe
00000050: 1559 3f3d 1212 013e 11c1 b0bc c78a 303c
00000060: 686b 9bbe 4249 033f a615 143f a334 9fbd
00000070: d4ac f5be 04b4 91be ee42 103e e759 b83d
00000080: cadd 563e a0ff fdbd 7caa aa3e 8d20 76bd
00000090: 2ee8 523e 242e debe 2ad4 adbe 1ef8 42bf
000000a0: 2aa3 0cbf bcdb 4d3e 6e4f edbd e229 0cbe
000000b0: 6847 333e 6641 0a3e 0146 22be c60b 153d
000000c0: 54ff 0f3e 254c 3ebf cceb 51be 36a9 1a3d
000000d0: d828 a73e f8d6 053e 53c0 b3bd 92cd babd
000000e0: c03a 19be db8d 993e b8de 633e 3e24 bfbd
000000f0: d051 ba3e 171b 663e e89c efbe f0c3 ce3d
00000100: e695 863e 25bc 993e 8340 8fbe f4fc 353e
00000110: 8f72 d6be e85b f43d a91b d2be a5f8 51be
00000120: d4d3 723d 86f6 c83d c1ee b83c f058 d13d
00000130: 8206 46be 1fe5 84bd a5d1 273d 606d 5dbc
00000140: cc7e 583d 7774 a8bd 2c89 56be b43f 823d
00000150: 00c8 47bd 2e0e 873e 0d0b 8dbd 6594 f53b
00000160: 751f 3e3d df90 633e ab00 c43b 16bc 44be
00000170: 08bc 00be 732a d2be 501d f43d adc2 d43c
00000180: dc4f 25be 5720 6a3e c4ea 96be a03b ba3e
00000190: 085f 86be 0437 ee3e 3815 b4be 62db bd3c
000001a0: 741f 3dbe 3deb a13d 10b0 8b3d 98d2 133e
000001b0: 8c1a d9be 9cce 5f3e bcaf d53d 5c10 b2be
000001c0: 1137 c9bd 3ee0 27be 8e99 eabe d092 f4be
000001d0: 532f 2dbe 9f20 b7bd d547 ba3e a73c 86bd
000001e0: 780e a93e 2c1a 34be a5f5 0a3e 4c18 36be
000001f0: 3965 b0be c0c5 953e c735 d33e b581 80be

actor.2.weight f4 [128, 128]
-0.08618745 -0.09237597 -0.0026813278 -0.034158632 0.034837794 -0.11185247 0.13746895 -0.1287738
-0.060174055 -0.017835349 -0.082997166 0.087634094 -0.054062754 0.06681239 0.14135468 0.0004624187
0.06513562 0.086990006 -0.047087494 0.05784421 -0.10183765 0.03792542 0.09384353 -0.03769665
0.09452464 0.042711195 -0.040448062 0.22462478 -0.006628827 0.1315593 0.075614974 -0.100036174
-0.049230967 -0.010715837 -0.0014142097 0.11960344 -0.02050227 -0.1346524 0.17940477 -0.15438065
-0.04432166 -0.13548383 0.08279561 -0.05182276 -0.16817304 -0.013007599 -0.024249947 0.099168256
-0.037180215 0.016255988 0.13399796 -0.00606013 0.050779965 -0.09227616 0.029862858 -0.021051394
-0.042928416 0.047124445 -0.0012382796 0.10568425 -0.03986179 0.008954928 0.098379225 -0.05105266
0.06596998 0.019018013 -0.045943096 0.08187096 -0.026888879 0.114332184 0.08859894 0.010457614
-0.048720025 0.003880824 -0.032538407 -0.008120064 0.016370913 0.11068681 -0.039546676 0.02514328
0.08640477 0.13633162 -0.055360194 0.05702538 -0.073836386 -0.023828896 0.009037412 -0.18953107
-0.12617244 -0.15591574 0.0039862636 -0.049739525 0.02542158 -0.10878728 -0.055246636 0.16088389
2.693171e-06 -0.18817343 -0.02014132 -0.07682156 0.117846616 0.021912266 -0.025685512 0.09964287
0.03395244 -0.08898378 0.07918402 -0.055445705 -0.00865785 0.1715244 -0.0012501691 -0.025502946
-0.009335338 0.023608977 0.06989663 0.14901398 0.042176485 0.11123552 0.10069058 0.006036928
0.012090773 0.09292039 -0.014176822 0.117799476 0.13063729 -0.045539647 0.1471551 0.118670814
-0.11519391 0.08023135 -0.0006552763 0.032952342 -0.018125778 -0.06462495 -0.074909486 -0.17982882
-0.041370887 0.047064207 -0.05270868 0.030965373 0.12575616 0.009753082 -0.05394724 -0.07027389
-0.014121627 0.014243362 -0.049791515 -0.09756237 0.028773194 0.008053287 -0.07973247 0.038222164
-0.057187825 -0.029081868 0.06477531 0.010227663 0.023650143 -0.07229544 0.07280462 0.13200213
0.01387071 -0.00218956 0.026378557 0.034825623 0.07950359 0.053358894 -0.03202906 0.07175127
0.09051925 -0.038159844 -0.061946213 -0.017696276 -0.082004234 0.021916395 -0.1033954 0.049804542
0.01383079 0.029644206 -0.088662766 0.018150795 -0.10805036 0.07619439 -0.02752301 0.03588171
0.059959702 -0.014255503 0.016693486 0.07233643 -0.006458862 -0.056322888 -0.07228277 0.13571855
-0.15474415 -0.01818764 -0.10746976 0.03509081 -0.07152162 0.009203427 -0.02419358 0.072119124
0.048731513 0.14807662 0.042993035 0.08465341 -0.10299417 0.06925169 0.03270292 -0.05759852
-0.1349256 0.022233801 0.002286033 -0.029574959 0.00755599 -0.14344628 0.11825733 -0.07466721
0.10761586 -0.032726977 -0.05133302 0.085718796 -0.06510293 -0.030479172 0.0454214 0.0007967735
-0.052458927 0.015258509 0.030612275 0.008930279 -0.02659163 -0.042736627 -0.14352098 0.051121287
0.15608986 -0.00034050018 0.05778737 0.13040122 -0.06823901 -0.114410125 0.028793324 -0.08867916
0.0016798084 -0.06411972 -0.02444276 0.23163214 0.1700855 -0.20821702 -0.12569594 -0.047748987
-0.1308512 -0.077464275 -0.031230189 0.15465857 0.12963894 0.00953942 -0.08054893 0.07163777
00000000: 0c83 b0bd 9d2f bdbd 37b9 2fbb ece9 0bbd
00000010: 13b2 0e3d e812 e5bd a9c4 0c3e 47dd 03be
00000020: 1279 76bd 701b 92bc 6bfa a9bd 8179 b33d
00000030: e870 5dbd efd4 883d 48bf 103e ca70 f239
00000040: d365 853d d127 b23d d1de 40bd 0dee 6c3d
00000050: 4290 d0bd af57 1b3d 0931 c03d cd67 1abd
00000060: 2296 c13d eff1 2e3d deac 25bd 0a04 663e
00000070: a236 d9bb 7bb7 063e 06dc 9a3d c4df ccbd
00000080: 69a6 49bd 7a91 2fbc 015d b9ba a6f2 f43d
00000090: 60f4 a7bc 52e2 09be e2b5 373e f615 1ebe
000000a0: a18a 35bd 46bc 0abe bf90 a93d 1a44 54bd
000000b0: 8e35 2cbe d31d 55bc d3a7 c6bc ba18 cb3d
000000c0: 484a 18bd 472b 853c c336 093e 0e94 c6bb
000000d0: a7fe 4f3d 49fb bcbd f4a2 f43c f973 acbc
000000e0: b5d5 2fbd 9005 413d c54d a2ba fc70 d83d
000000f0: 1e46 23bd b1b7 123c 0c7b c93d 981c 51bd
00000100: 451b 873d aacb 9b3c d42e 3cbd f6ab a73d
00000110: 1146 dcbc fe26 ea3d 5c73 b53d 6a56 2b3c
00000120: a68e 47bd 6c55 7e3b fe46 05bd 040a 05bc
00000130: 4b1c 863c c4af e23d b2fb 21bd 48f9 cd3c
00000140: fcf4 b03d 849a 0b3e 5fc1 62bd 7293 693d
00000150: 8837 97bd d134 c3bc a711 143c 6f14 42be
00000160: 5933 01be 60a8 1fbe 349f 823b acbb 4bbd
00000170: eb40 d03c decb debd 4c4a 62bd bfbe 243e
00000180: 53bc 3436 89b0 40be 69ff a4bc 9f54 9dbd
00000190: 9159 f13d 5a81 b33c 6c6a d2bc 9011 cc3d
000001a0: b711 0b3d 213d b6bd 3b2b a23d 091b 63bd
000001b0: a8d9 0dbc 18a4 2f3e b7dc a3ba 8eeb d0bc
000001c0: 3ff3 18bc 9d67 c13c f725 8f3d 1f97 183e
000001d0: 40c1 2c3d 73cf e33d dd36 ce3d 6cd1 c53b
000001e0: 6118 463c 0c4d be3d e745 68bc da40 f13d
000001f0: c8c5 053e c887 3abd d4af 163e af09 f33d
00000200: c9ea ebbd 5650 a43d d9c6 2bba 09f9 063d
00000210: 837c 94bc 165a 84bd 256a 99bd 0c25 38be
00000220: 8574 29bd 66c6 403d 0fe5 57bd 18ab fd3c
00000230: 39c6 003e 64cb 1f3c c8f7 5cbd c2eb 8fbd
00000240: 665e 67bc fd5c 693c 30f2 4bbd c8ce c7bd
00000250: c3b5 eb3c eff1 033c c74a a3bd d88e 1c3d
00000260: c83d 6abd 193d eebc eba8 843d ee91 273c
00000270: f2bd c13c a20f 94bd 971a 953d 912b 073e
00000280: f941 633c b97e 0fbb d817 d83c 50a5 0e3d
00000290: c7d2 a23d db8e 5a3d e730 03bd 54f2 923d
000002a0: 2862 b93d 7f4d 1cbd 50bb 7dbd c8f7 90bc
000002b0: d6f1 a7bd 038a b33c f8c0 d3bd d9ff 4b3d
000002c0: 8a9a 623c 68d8 f23c d394 b5bd fab0 943c
000002d0: 8249 ddbd ce0b 9c3d ef77 e1bc b3f8 123d
000002e0: 4e98 753d ea8f 69bc c7c0 883c 1f25 943d
000002f0: dda4 d3bb d4b2 66bd fd08 94bd cef9 0a3e
00000300: 4075 1ebe 3ffe 94bc 1b19 dcbd 62bb 0f3d
00000310: ed79 92bd f8c9 163c 9d31 c6bc 31b3 933d
00000320: b29a 473d 66a1 173e 7719 303d c45e ad3d
00000330: 9bee d2bd d4d3 8d3d 7ff3 053d 6dec 6bbd
00000340: f029 0abe a923 b63c 45d1 153b 2f47 f2bc
00000350: 3d98 f73b 95e3 12be e630 f23d 1feb 98bd
00000360: b465 dc3d b90c 06bd 9342 52bd 568d af3d
00000370: af54 85bd 75af f9bc ca0b 3a3d 90de 503a
00000380: 2cdf 56bd d3fe 793c 98c6 fa3c 4e50 123c
00000390: b1d6 d9bc 9a0c 2fbd 2af7 12be 8e64 513d
000003a0: 05d6 1f3e 2985 b2b9 73b2 6c3d e687 053e
000003b0: e5c0 8bbd db4f eabd fadf eb3c 6b9d b5bd
000003c0: 042d dc3a 3351 83bd 2f3c c8bc fa30 6d3e
000003d0: e52a 2e3e d836 55be 70b6 00be 7194 43bd
000003e0: dbfd 05be 97a5 9ebd 74d6 ffbc d15e 1e3e
000003f0: 12c0 043e 3a4b 1c3c d6f6 a4bd d3b6 923d

actor.2.bias f4 [128]
0.03893988 0.071637385 0.15132974 -0.032083925 -0.09171942 -0.010319014 0.5271646 0.51740766
-0.073856 -0.24926165 0.1501792 -0.07551509 -0.094520025 0.10406384 0.047179386 0.7937239
-0.33695203 -0.3731431 0.022037843 0.042451624 0.047619082 -0.10643165 0.010280351 -0.32109514
0.07431007 0.069574855 -0.00437639 -0.25191513 -0.07352188 -0.13944262 -0.14667153 0.09634112
-0.0724646 -0.2182852 -0.009792879 -0.067086674 -0.020646956 0.02125064 -0.09794963 0.12593132
0.1846051 0.0694765 -0.12589131 -0.12402339 -0.07327406 0.093126945 -0.060028657 0.057248622
0.06414802 0.048712987 -0.032244124 -0.40626234 -0.006611145 -0.3602483 0.60117835 0.05619369
0.052244067 0.08734411 0.08935947 -0.12374382 0.03674369 -0.022593794 -0.012272766 0.07595374
-0.035456646 0.3949779 0.011421482 0.0027367119 -0.029034808 0.07257764 -0.06950971 -0.26326516
-0.05729983 -0.055352196 -0.09484727 -0.0007974383 -0.12156363 0.078346506 -0.093417786 0.10940914
-0.3452837 -0.057350256 0.04386042 -0.080504976 -0.004875299 0.058488503 -0.16742264 -0.41524872
0.19594455 0.23994976 0.017194191 -0.09852916 0.028846202 0.05001709 0.0026297576 -0.007625428
-0.025285088 -0.0913466 0.0831164 -0.09151513 0.25030577 -0.024062976 -0.07003831 -0.021032603
0.094119325 -0.054572355 -0.057473883 0.086189255 -0.609918 -0.0026435554 0.008358001 0.16044518
-0.09246296 -0.04464803 0.031903367 0.045314804 -0.2826239 -0.004542491 0.00064667733 0.19304109
0.0038195474 -0.61608136 0.11870747 -0.052502576 -0.06605429 0.51898074 0.3476978 -0.11333735
00000000: 6c7f 1f3d 9fb6 923d 2ff6 1a3e 6f6a 03bd
00000010: 64d7 bbbd 1511 29bc 42f4 063f d474 043f
00000020: d141 97bd 723e 7fbe 94c8 193e a8a7 9abd
00000030: b793 c1bd 6c1f d53d 2c3f 413d 7d31 4b3f
00000040: fa84 acbe 9d0c bfbe b588 b43c c1e1 2d3d
00000050: 3a0c 433d d6f8 d9bd eb6e 283c 9566 a4be
00000060: e12f 983d 437d 8e3d d267 8fbb 05fb 80be
00000070: a492 96bd 0cca 0ebe 1031 16be 7e4e c53d
00000080: 5268 94bd 2886 5fbe 5072 20bc bd64 89bd
00000090: ce23 a9bc d215 ae3c d199 c8bd 24f4 003e
000000a0: 1f09 3d3e b249 8e3d a7e9 00be faff fdbd
000000b0: b610 96bd 57b9 be3d 9ce0 75bd 887d 6a3d
000000c0: 0a60 833d 4587 473d 6a12 04bd 9e01 d0be
000000d0: 4ea2 d8bb 7772 b8be d3e6 193f 5b2b 663d
000000e0: e0fd 553d 78e1 b23d 1902 b73d 666d fdbd
000000f0: 8d80 163d 9f16 b9bc b613 49bc a28d 9b3d
00000100: fd3a 11bd 8b3a ca3e 2b21 3b3c 685a 333b
00000110: 68da edbc 96a3 943d 1b5b 8ebd b1ca 86be
00000120: 3ab3 6abd fcb8 62bd 493f c2bd 2e0b 51ba
00000130: 5af6 f8bd 2274 a03d d351 bfbd e611 e03d
00000140: 06c9 b0be 1ae8 6abd fca6 333d cbdf a4bd
00000150: f9c0 9fbb a491 6f3d d770 2bbe 7b9b d4be
00000160: b0a5 483e 64b5 753e d5da 8c3c a8c9 c9bd
00000170: df4e ec3c b8de 4c3d 0358 2c3b bade f9bb
00000180: ac22 cfbc ed13 bbbd ee38 aa3d 496c bbbd
00000190: 1428 803e b81f c5bc 3f70 8fbd 914c acbc
000001a0: a2c1 c03d 4387 5fbd bc69 6bbd fe83 b03d
000001b0: 9623 1cbf 803f 2dbb ffef 083c be4b 243e
000001c0: 385d bdbd dae0 36bd 1bad 023d 049c 393d
000001d0: 14b4 90be 2dd9 94bb c885 293a 90ac 453e
000001e0: 5f51 7a3b 82b7 1dbf e71c f33d f10c 57bd
000001f0: 7947 87bd ecdb 043f 7205 b23e 6a1d e8bd

actor.4.weight f4 [4, 128]
-0.057830438 0.009276461 -0.17194857 0.23581713 0.070958115 -0.19603944 0.14107624 0.14185439
-0.039380055 -0.063139744 -0.13558918 -0.3460067 -0.07508882 0.105479784 0.11580398 0.1635597
0.12312911 0.021245861 0.030865317 0.026042828 0.0026800411 -0.06350176 0.043286376 -0.01977007
0.024084494 0.14183512 -0.014469217 -0.06874588 -0.17925017 0.027693113 -0.13537608 0.03565473
0.092286356 -0.083454914 -0.06981619 0.09337955 0.025526466 0.028074907 -0.002999983 -0.038394913
0.019236108 -0.27662155 0.123997845 0.041958444 0.027024973 -0.03525523 -0.07025759 0.026146742
0.0012912366 -0.14384724 -0.102411985 -0.16954625 -0.11489432 -0.2935622 0.15130617 0.03141439
0.15754874 0.12899971 0.07681366 -0.055543926 -0.05706826 0.055260234 0.15135285 0.31946954
0.19498834 0.12243026 -0.17321442 0.020921681 -0.2271499 0.14385097 0.015281555 0.06819797
0.032551713 -0.26287273 0.1734684 -0.010380567 -0.1065573 0.0126777245 0.26423675 0.11223317
0.16623297 0.1533811 0.0570173 0.0007666967 -0.111153506 -0.057337537 -0.04792739 -0.045471042
0.124243125 0.533812 0.02881496 -0.041518766 0.28208864 0.016539322 -0.08622527 -0.06171894
-0.0037351102 -0.1998052 0.035679445 -0.11059074 -0.0017850916 -0.13343339 -0.07795827 0.08047126
0.001234662 -0.12952636 0.16896656 0.13106033 -0.34631407 -0.075604565 0.08714729 0.1882188
0.42320573 -0.11946143 -0.0019162181 0.09883881 0.24898075 0.12007983 0.10536469 0.13817768
-0.109517895 -0.15098552 -0.33641797 -0.13302138 0.0525116 -0.1430068 0.05822994 -0.12872922
0.00010986006 -0.0003009923 -0.0025629306 -0.0011987304 -8.903945e-05 -0.0019671097 0.02421553 0.010180883
-4.7596546e-07 -0.02324083 0.03360219 -0.015289581 -0.03970764 -0.0030954285 0.00012619469 0.20167232
-0.009827123 -0.030219339 0.0005908483 -7.646078e-05 -0.00015253131 -0.0010434757 -0.000105413565 -0.051188573
0.0019326116 -2.7589935e-05 0.0007702689 0.021393549 -0.0008333539 0.10345148 -0.016994523 -0.0003051217
-0.00054221804 -0.039733067 0.00021683177 0.00019171373 -0.00019690124 -0.00027555707 0.006741433 0.00036772067
0.04344771 0.0005879595 8.063077e-05 -2.4622718e-06 -9.763418e-05 2.2084243e-05 0.0008681827 5.8475493e-05
-2.99854e-05 0.0003723976 0.00012567439 -0.051067922 0.00024317537 -0.013102011 0.43426457 0.00014538245
-0.00029877553 -9.2743016e-05 -2.087808e-05 0.00084002735 -0.0010538109 -1.7798953e-05 0.00081112445 0.00066830154
0.0003890238 0.018450188 0.0013417897 -0.00019285754 2.9601713e-05 0.0019393751 0.00018948666 -0.027059043
9.465541e-05 -0.0005362015 0.043469407 0.00063329336 5.803075e-05 -0.000224422 0.0058185533 -0.14916953
0.09763876 1.6564989e-05 -0.000915957 -8.685252e-06 0.00048136627 0.00040142503 0.08145775 0.095831096
-0.0011595592 0.008518704 9.213525e-05 0.00020636265 -8.850358e-05 -0.00023018991 -0.00033010892 6.269533e-05
4.778477e-05 -0.0006203189 0.00050044886 -0.00016256234 0.0024189465 -0.00027449377 0.000387152 3.7924696e-05
-0.0005174296 -0.00012308113 0.00047660564 -0.0011071406 0.045304783 0.00034407366 -0.00015508106 0.060888067
-0.011119259 -0.0006663006 -0.0004027664 -0.0005850942 -0.021813842 2.2392445e-05 0.0002984083 0.051364888
-0.00051106565 -0.019248694 0.04287795 0.003053412 -0.00011535391 0.084229246 0.024405682 -0.0011106884
00000000: 9cdf 6cbd 4cfc 173c 4913 30be 0c7a 713e
00000010: 7d52 913d 90be 48be 4a76 103e 4742 113e
00000020: fb4c 21bd 694f 81bd e4d7 0abe ca27 b1be
00000030: 2bc8 99bd c905 d83d a32a ed3d 327c 273e
00000040: 1d2b fc3d cd0b ae3c 43d9 fc3c c557 d53c
00000050: a1a3 2f3b 360d 82bd 0e4d 313d d8f4 a1bc
00000060: d84c c53c 3a3d 113e 4b10 6dbc a4ca 8cbd
00000070: 5b8d 37be abdc e23c 07a0 0abe b20a 123d
00000080: a100 bd3d 69ea aabd cafb 8ebd c73d bf3d
00000090: e11c d13c 59fd e53c 5d9b 44bb fc43 1dbd
000000a0: 0b95 9d3c 57a1 8dbe 95f2 fd3d 9edc 2b3d
000000b0: 7a63 dd3c ca67 10bd 36e3 8fbd b131 d63c
000000c0: b63e a93a b14c 13be 60bd d1bd 889d 2dbe
000000d0: b74d ebbd c94d 96be 01f0 1a3e 60ac 003d
000000e0: 7554 213e 8018 043e 7b50 9d3d 0782 63bd
000000f0: 68c0 69bd 8e58 623d 3efc 1a3e 8391 a33e
00000100: 06ab 473e b7bc fa3d 1f5f 31be f263 ab3c
00000110: fc99 68be ab4d 133e 7d5f 7a3c 61ab 8b3d
00000120: f254 053d 4197 86be b3a1 313e 4113 2abc
00000130: b73a dabd 3bb6 4f3c 0a4a 873e 81da e53d
00000140: fa38 2a3e ef0f 1d3e f98a 693d 25fc 483a
00000150: 73a4 e3bd c4da 6abd 834f 44bd d83f 3abd
00000160: 2e73 fe3d e7a7 083f 5a0d ec3c 950f 2abd
00000170: ec6d 903e 797d 873c e096 b0bd 00cd 7cbd
00000180: c0c8 74bb bc99 4cbe 9c24 123d 667d e2bd
00000190: bcf9 e9ba c3a2 08be 96a8 9fbd 1ece a43d
000001a0: 62d4 a13a 8fa2 04be 9205 2d3e ae34 063e
000001b0: 1450 b1be 91d6 9abd 477a b23d 6ebc 403e
000001c0: 6cae d83e 32a8 f4bd 9c29 fbba 016c ca3d
000001d0: cff4 7e3e 6aec f53d 71c9 d73d 737e 0d3e
000001e0: eb4a e0bd f39b 1abe fa3e acbe c236 08be
000001f0: 6716 573d 6070 12be 8482 6e3d 98d1 03be
00000200: ac64 e638 81ce 9db9 d7f6 27bb b81e 9dba
00000210: b1ba bab8 a0ea 00bb a65f c63c b8cd 263c
00000220: 3288 ffb4 8e63 bebc 73a2 093d 2781 7abc
00000230: 7aa4 22bd acdc 4abb 2153 0439 3083 4e3e
00000240: f101 21bc 8c8e f7bc 29e3 1a3a 9259 a0b8
00000250: d0f0 1fb9 3cc5 88ba 7a11 ddb8 1cab 51bd
00000260: af4f fd3a ef70 e7b7 dfeb 493a 8641 af3c
00000270: 6f75 5aba 5fde d33d 1938 8bbc bef8 9fb9
00000280: a323 0eba 24bf 22bd 565d 6339 c306 4939
00000290: 4677 4eb9 a578 90b9 3de7 dc3b a2ca c039
000002a0: 3af6 313d 4b21 1a3a 5118 a938 823d 25b6
000002b0: f4c0 ccb8 8d41 b937 c196 633a 9543 7538
000002c0: 2889 fbb7 5c3e c339 76c7 0339 992c 51bd
000002d0: e4fc 7e39 d1a9 56bc ed57 de3e ce71 1839
000002e0: f9a4 9cb9 077f c2b8 5623 afb7 4835 5c3a
000002f0: 0720 8aba f64e 95b7 a4a1 543a f530 2f3a
00000300: e4f5 cb39 d924 973c fede af3a cd39 4ab9
00000310: 3251 f837 a132 fe3a f0b0 4639 edaa ddbc
00000320: bc81 c638 e08f 0cba fa0c 323d 9903 263a
00000330: 0b66 7338 d252 6bb9 90a9 be3b e6bf 18be
00000340: d5f6 c73d 0bf5 8a37 d51c 70ba e0b6 11b7
00000350: e35f fc39 5b76 d239 52d3 a63d 1843 c43d
00000360: 5afc 97ba 0992 0b3c bc38 c138 0d63 5839
00000370: ff9a b9b8 225f 71b9 7812 adb9 4d7b 8338
00000380: 826c 4838 e69c 22ba 8e30 033a 7f75 2ab9
00000390: 3087 1e3b eee9 8fb9 a9fa ca39 5511 1f38
000003a0: 1da4 07ba 570f 01b9 ede0 f939 791d 91ba
000003b0: 8291 393d c964 b439 419d 22b9 c465 793d
000003c0: 8d2d 36bc adaa 2eba 642a d3b9 0261 19ba
000003d0: f1b2 b2bc 69d7 bb37 af73 9c39 fd63 523d
000003e0: 09f9 05ba 70af 9dbc caa0 2f3d c11b 483b
000003f0: 29ea f1b8 6280 ac3d 6dee c73c 8594 91ba

actor.4.bias f4 [4]
0.57077587 0.44048852 0.44898227 0.25112218
00000000: 5e1e 123f b687 e13e 01e1 e53e 1693 803e

critic.0.weight f4 [128, 17]
0.39572132 -1.2352574 -2.1124413 -0.12838036 -0.55993396 0.70368385 1.6186281 -0.9317519
1.3937887 0.26891607 0.3066962 0.13245915 -0.35865247 -0.08047738 -0.17404793 -0.19353245
-0.18707687 -0.69357544 0.4608317 -0.6334091 0.5402197 0.10237356 1.3353053 -0.20504926
1.3322325 -0.22670782 1.0010669 -0.013423855 -0.042373583 -0.26359525 0.05792166 0.16102353
0.12727623 0.16652003 0.40949938 3.1114714 -3.003378 -0.038039505 0.2092072 -0.44059557
0.053505257 0.3124397 0.81724185 -1.1374674 -1.2367108 -0.15857834 -0.006142245 -0.031731427
-0.097279005 0.10739678 0.24778825 -1.1748965 6.479351 -0.66472644 -0.17665592 -0.66880643
-2.4386694 0.6382214 1.0220418 0.07069449 0.21153982 -0.0023718183 -0.014480948 -0.060191877
0.04045387 -0.059770904 -0.019624423 0.018306106 1.5440066 1.944375 -3.2945635 -0.39550504
0.3858413 0.3429433 -0.5877234 -0.62234366 2.3362126 1.01349 0.24495643 -0.49180657
-0.5614235 0.010387613 0.15072776 -0.0077830623 -0.029415844 -1.9335643 -1.9450097 -1.4289452
0.011175004 0.23516166 -1.6933197 0.38529462 -0.41754732 0.16570044 -0.8826847 0.34244764
-0.37718818 -0.46885014 -0.11095356 -0.1149939 -0.13351844 -0.038605977 0.6596952 0.06197679
1.4366369 -0.90426254 2.8024633 0.05257089 0.08319538 0.18114115 -1.099328 -1.1216615
-0.094442755 -0.011077646 0.15920568 0.00053372956 -0.059633486 0.03614866 0.017483566 -0.4481066
0.5011831 -1.2141672 -0.47634 1.2629036 -0.7369131 -0.45875895 0.6674662 1.4897946
-1.119846 -0.45657143 1.5280155 0.53462386 -0.33686614 -0.604608 -0.35494208 -0.20437066
1.3738453 -0.97592527 -7.18268 0.4637765 0.34803766 0.09592393 0.9513454 -0.7127799
1.0962292 0.6406875 0.05965105 -0.16259067 -0.15501265 -0.04887372 0.031682827 -0.02526156
0.006483429 -0.3524463 0.470183 1.727613 -0.52888906 -1.3812274 0.3391184 -0.20207955
-0.35191008 -1.9990125 -0.20217933 0.38923118 0.31678507 3.1234066 0.16372968 0.0054167947
0.2327194 -0.025765846 1.7962037 -3.8145509 -1.8529636 0.414454 -1.3258536 -0.056159124
0.60944074 -0.10158291 -0.5555282 -0.77106905 -0.24875312 0.10853596 0.33106413 0.17180566
0.14139214 0.21629034 0.122804575 -2.1552577 0.7600937 -3.5160136 -0.8959411 2.2857444
0.9840921 -0.048777 0.3191126 0.40389094 -0.8953626 -0.054769818 -0.0013739022 0.2713278
-0.09793065 -0.3015708 -0.053821072 -0.13648623 -0.4255599 -2.5882974 0.72086906 0.12693569
-0.17681117 -0.98673946 1.122671 0.3521047 1.1862476 -0.35810262 -2.559113 1.9400309
-0.799999 -0.2118343 -0.3083593 -0.3063923 -0.17635858 -1.0476214 2.2743194 2.070629
0.37645715 2.4827573 0.6163233 -2.40393 -1.1715255 -0.66365004 0.43182057 0.24544306
0.057905443 -0.019245869 0.09701989 0.10566884 0.05698706 0.0880444 0.33147448 -1.6707162
-1.6865507 -1.1221504 1.5409824 1.1930337 -0.050119843 -0.123449154 -0.70620733 0.97831523
0.18527076 -0.10504011 -0.087328464 -0.08693924 -0.19081873 -0.033527456 -0.05166938 -0.17380261
00000000: fc9b ca3e ea1c 9ebf 3d32 07c0 2476 03be
00000010: d557 0fbf a024 343f 352f cf3f 4b87 6ebf
00000020: ab67 b23f 5eaf 893e 4907 9d3e 5fa3 073e
00000030: 4ca1 b7be 53d1 a4bd 9f39 32be 5f2d 46be
00000040: 1491 3fbe 298e 31bf 22f2 eb3e 1927 22bf
00000050: d74b 0a3f 3ba9 d13d 49eb aa3f 6ff8 51be
00000060: 9886 aa3f 1826 68be f622 803f bbef 5bbc
00000070: ec8f 2dbd f5f5 86be 433f 6d3d 5ae3 243e
00000080: b354 023e 3a84 2a3e e7a9 d13e 5922 4740
00000090: 5837 40c0 50cf 1bbd 6a3a 563e be95 e1be
000000a0: 5428 5b3d 19f8 9f3e c336 513f 8898 91bf
000000b0: 8a4c 9ebf 5c62 22be e344 c9bb d0f8 01bd
000000c0: 373a c7bd d8f2 db3d 34bc 7d3e 0263 96bf
000000d0: d856 cf40 832b 2abf 4ae5 34be e636 2bbf
000000e0: 2913 1cc0 7a62 233f 44d2 823f 46c8 903d
000000f0: e59d 583e 8270 1bbb 8041 6dbc c28b 76bd
00000100: f5b2 253d 56d2 74bd 66c3 a0bc b0f6 953c
00000110: 02a2 c53f 48e1 f83f 21da 52c0 a37f cabe
00000120: fe8c c53e 4496 af3e 0a75 16bf ea51 1fbf
00000130: 8284 1540 0aba 813f dcd5 7a3e 12ce fbbe
00000140: 73b9 0fbf cf30 2a3c 6158 1a3e 0f09 ffbb
00000150: 7ff9 f0bc 097f f7bf 14f6 f8bf ade7 b6bf
00000160: 5d17 373c 38ce 703e b3be d8bf 5645 c53e
00000170: c3c8 d5be 60ad 293e a0f7 61bf 4c55 af3e
00000180: cf1e c1be 200d f0be 9f3b e3bd ec81 ebbd
00000190: 0fb9 08be 4d21 1ebd c9e1 283f 60db 7d3d
000001a0: b8e3 b73f c07d 67bf 8f5b 3340 9354 573d
000001b0: 5762 aa3d 117d 393e c8b6 8cbf 9b92 8fbf
000001c0: 346b c1bd 047f 35bc d006 233e fce9 0b3a
000001d0: 3e42 74bd 9e10 143d b239 8f3c 3a6e e5be
000001e0: 894d 003f d569 9bbf d6e2 f3be d3a6 a13f
000001f0: 56a6 3cbf 74e2 eabe 11df 2a3f 97b1 be3f
00000200: 1d57 8fbf bbc3 e9be 0396 c33f 1cdd 083f
00000210: b879 acbe 97c7 1abf f8ba b5be 8b46 51be
00000220: 2ada af3f 3dd6 79bf 84d8 e5c0 1d74 ed3e
00000230: fe31 b23e c473 c43d 5f8b 733f be78 36bf
00000240: 3d51 8c3f 1904 243f a954 743d 2b7e 26be
00000250: a3bb 1ebe cf2f 48bd dac5 013d 55f1 cebc
00000260: f272 d43b d773 b4be d4bb f03e 6c22 dd3f
00000270: 4665 07bf 0fcc b0bf eda0 ad3e f1ed 4ebe
00000280: 8f2d b4be a4df ffbf 1908 4fbe 4f49 c73e
00000290: a731 a23e e5e5 4740 c1a8 273e 5e7f b13b
000002a0: ff4d 6e3e e512 d3bc 01ea e53f 9a21 74c0
000002b0: e92d edbf 5133 d43e 92b5 a9bf 1c07 66bd
000002c0: 4f04 1c3f b30a d0bd 1937 0ebf c864 45bf
000002d0: 23b9 7ebe 1a48 de3d 3d81 a93e d3ed 2f3e
000002e0: 1ac9 103e 377b 5d3e f780 fb3d beef 09c0
000002f0: 8095 423f 5e06 61c0 655c 65bf a349 1240
00000300: 76ed 7b3f 64ca 47bd ba62 a33e cbca ce3e
00000310: 7c36 65bf 5156 60bd 8214 b4ba 7aeb 8a3e
00000320: dd8f c8bd 7d67 9abe 7c73 5cbd 0cc3 0bbe
00000330: fde2 d9be aaa6 25c0 e08a 383f 6efb 013e
00000340: fd0d 35be f59a 7cbf afb3 8f3f 1147 b43e
00000350: f6d6 973f 3a59 b7be 82c8 23c0 ef52 f83f
00000360: bccc 4cbf 17eb 58be 45e1 9dbe 74df 9cbe
00000370: 5897 34be 7518 86bf 738e 1140 2f85 0440
00000380: febe c03e 7fe5 1e40 5dc7 1d3f fdd9 19c0
00000390: 8cf4 95bf f8e4 29bf 9617 dd3e 6d55 7b3e
000003a0: 422e 6d3d 83a9 9dbc 5db2 c63d e868 d83d
000003b0: 436b 693d 9f50 b43d 06b7 a93e 07da d5bf
000003c0: e5e0 d7bf a0a2 8fbf e93e c53f 54b5 983f
000003d0: 774a 4dbd e9d2 fcbd 01ca 34bf de72 7a3f
000003e0: 9eb7 3d3e 451f d7bd 44d9 b2bd 330d b2bd
000003f0: fc65 43be 1654 09bd 46a3 53bd 50f9 31be

critic.0.bias f4 [128]
-0.32361537 0.34067562 0.015413693 -0.17113174 -0.29474738 -0.8052709 -0.5093398 -0.40930623
0.033051163 -0.46650904 0.03137439 -0.32040492 -0.04096681 0.54151386 -0.94107497 -0.34512854
-0.231512 0.027101092 -0.04538275 0.6147645 0.24962421 0.565067 -0.3221688 -0.3018763
-0.36518556 0.024728334 0.031835586 0.7760537 0.1685048 0.20824419 -0.042996164 0.07956234
-0.7130836 0.05194337 -0.19747911 -0.32777256 -0.5277316 0.3502607 -0.5796411 -0.19764422
0.24801022 0.53722507 -1.0011901 0.32991296 -0.45833635 0.015694704 -0.008417695 0.18878946
-0.035248138 -0.4713566 0.28117272 -0.00460927 0.0021958677 0.4493313 0.024059808 0.6540984
0.57802075 -0.18726245 -0.026343817 -0.12841193 0.07945534 -0.01866682 -0.07128372 0.66067487
0.23256208 -0.45758578 -0.4308026 0.49043337 -0.095555566 0.041636348 -0.21675918 -0.20498931
-0.10215001 -0.44885728 0.019009462 -0.31750944 -0.16698213 0.25514528 -0.23332986 0.5253369
0.4051531 -0.09206002 0.1956453 0.24069509 -0.0025912812 0.0049792193 -0.19072467 -0.3822252
-0.28973782 0.58115643 0.2310854 -0.19203621 -0.03176037 0.107072465 -0.08938344 -0.50148743
-0.13060293 0.5917249 0.117500834 0.43334907 -0.69885 -0.37991273 0.28085276 -0.23663366
0.25978383 0.3076226 -0.05749947 -0.08497966 0.18215539 0.26677403 0.015786923 0.36116442
0.6895268 -0.7504933 0.22424446 0.39273626 -0.40003252 -0.35637522 0.5062164 0.26123977
0.043506745 -0.33466652 -0.05157776 -0.04277085 -0.2929507 0.3787261 -0.4383638 -0.6298933
00000000: eab0 a5be 096d ae3e b789 7c3c 293d 2fbe
00000010: 21e9 96be 3c26 4ebf 1864 02bf 9690 d1be
00000020: a860 073d 46da eebe 6f82 003d 1d0c a4be
00000030: d0cc 27bd a7a0 0a3f 4aea 70bf b0b4 b0be
00000040: 7b11 6dbe 1c03 de3c 43e3 39bd 3561 1d3f
00000050: 7d9d 7f3e 3ba8 103f 4ff3 a4be 888f 9abe
00000060: 9af9 babe 1393 ca3c 0866 023d 75ab 463f
00000070: 868c 2c3e f73d 553e bf1c 30bd 95f1 a23d
00000080: a68c 36bf 92c2 543d f737 4abe ced1 a7be
00000090: 6b19 07bf 5f55 b33e 5c63 14bf 3f63 4abe
000000a0: 64f6 7d3e 9587 093f ff26 80bf 5aea a83e
000000b0: 10ab eabe 2e92 803c 5fea 09bc 0652 413e
000000c0: 5a60 10bd a755 f1be dff5 8f3e 5c09 97bb
000000d0: 8ce8 0f3b c10e e63e 1319 c53c fe72 273f
000000e0: 2bf9 133f bac1 3fbe fdce d7bc 6b7e 03be
000000f0: 7bb9 a23d 29eb 98bc 33fd 91bd fd21 293f
00000100: c124 6e3e af48 eabe 2992 dcbe 151a fb3e
00000110: a3b2 c3bd e08a 2a3d 1ef6 5dbe b8e8 51be
00000120: 0634 d1bd 9fd0 e5be bbb9 9b3c 9990 a2be
00000130: 5dfd 2abe 67a2 823e 06ee 6ebe 7b7c 063f
00000140: 3a70 cf3e f789 bcbd 3e57 483e c678 763e
00000150: 7cd2 29bb b828 a33b 544d 43be 05b3 c3be
00000160: 8458 94be abc6 143f a7a1 6c3e 24a5 44be
00000170: 2917 02bd cf48 db3d aa0e b7bd 7b61 00bf
00000180: c6bc 05be 487b 173f 47a4 f03d eedf dd3e
00000190: d5e7 32bf ec83 c2be efcb 8f3e 1850 72be
000001a0: 6302 853e b680 9d3e 9084 6bbd d109 aebd
000001b0: f186 3a3e 9b96 883e 9453 813c 8bea b83e
000001c0: d484 303f 5420 40bf 57a0 653e ba14 c93e
000001d0: 10d1 ccbe d076 b6be 6697 013f 38c1 853e
000001e0: 2134 323d 6959 abbe 3443 53bd 7d30 2fbd
000001f0: a2fd 95be 63e8 c13e 3871 e0be b040 21bf

critic.2.weight f4 [128, 128]
-0.2557129 -0.19391474 -0.023854693 -0.3706779 0.123206556 0.27284026 0.37802127 -0.0036457554
1.133505 -0.37061703 0.044632077 -1.3430775 -0.4843802 -1.1365268 -0.03077688 -0.030287528
0.50179476 0.38623357 -0.22369826 -1.0819281 -0.30897275 0.40868342 0.21696417 1.1410674
-0.049263924 0.40216413 -0.6923889 0.42852995 -0.08200848 -0.42742673 -0.22431229 -0.5980603
-0.7700913 -0.15814354 0.4657918 -0.6207726 0.36216518 0.20523688 0.31957445 -0.4586657
0.4087474 0.08390247 0.101898246 0.12453664 -0.59613335 -0.3449117 0.049685035 -0.26640683
0.7172307 0.77566344 0.9185741 0.1482686 -0.08044927 0.41452366 0.9515448 1.1441064
-0.08571742 0.24904668 0.71543944 0.8236934 -0.1668243 -0.27232453 -0.9625184 0.54758185
-0.6134061 0.12848315 -2.093793 -0.67393297 -0.35451898 -0.03562924 0.08296521 0.04100635
0.82138306 -0.3016807 0.94168365 0.071515985 0.5862728 -0.5650872 -0.61070955 0.4981811
-0.23044094 0.32939553 0.23754767 -1.6149616 0.1866045 0.14398672 0.13394864 0.030924365
0.64349174 0.78298545 0.4984024 0.7219222 0.30102158 -0.42786676 0.049217325 -0.20809527
0.34114227 0.72292507 0.5994254 -0.25620955 0.1555065 0.5159039 0.61671716 0.64975494
0.60516167 0.49164766 0.42462158 -0.38385025 -0.671013 -0.3084041 0.50742096 0.43943954
-0.050169993 0.48911425 0.42783892 -1.7955049 0.5865205 1.303962 0.9734339 -0.22623025
-0.6535735 -0.49267122 -0.2860686 0.23519614 0.4863122 -0.15753849 -0.95099247 0.32480898
-0.7891018 -0.31206638 0.21514705 1.1719989 -0.0861185 0.9830684 0.6155336 0.0003019452
-0.40018895 0.25914732 0.52570945 -0.82589996 0.16385496 -0.9187653 0.30996862 0.18785553
0.39457595 0.5492165 0.34912705 0.260734 0.19227912 0.4987868 0.69148475 -0.18386921
-0.35662335 -0.047632203 0.07371503 -1.0711862 -0.2639609 -0.49654663 -0.50707597 0.9378493
-0.031091386 -0.102737606 -0.4827495 0.4434414 1.2211187 0.01408716 0.655768 0.07641243
1.1944323 -0.11513331 0.7707904 -0.079169326 -0.20045704 -0.08028906 -0.15864937 -0.12183894
0.12708615 0.3711615 1.0618267 0.8188367 0.2920268 0.81752175 -0.63831425 0.047721144
-0.5624084 0.11327172 0.021981878 0.27660674 -0.35978192 -0.956279 -0.53059596 0.6720627
-1.0397903 -0.19941129 -0.23962781 -0.17916182 0.028505309 0.61631423 0.08066612 -0.4091234
0.67711955 0.26161364 0.7490135 0.33049127 -0.41609073 0.4766519 -1.0855819 -0.57034266
0.072158515 0.0882403 -0.8123663 -0.94525814 -0.05498455 0.61949646 -0.12554076 -0.83896375
0.15702666 0.07285744 0.06996892 0.43384397 0.059277024 -0.21975453 0.20859946 0.30354276
0.25287434 1.1447268 0.8763817 0.68224853 1.1257124 -0.11308426 -0.62113273 -0.19179143
0.41276625 0.08959491 -0.28990722 -0.9356193 0.18717895 -0.112337485 0.15229161 -0.6036255
0.03281014 0.7910949 0.09690553 -1.1192813 -0.17982139 0.08536825 0.112289265 -0.33471224
-0.28585708 -0.8149249 0.8022488 0.00090204127 0.32280406 -0.16001888 -1.0793865 -0.08777748
00000000: cdec 82be 9691 46be eb6a c3bc 7ec9 bdbe
00000010: b853 fc3d b8b1 8b3e 018c c13e a0ed 6ebb
00000020: b116 913f 84c1 bdbe 20d0 363d f7e9 abbf
00000030: ae00 f8be b679 91bf cc1f fcbc 8d1d f8bc
00000040: 9f75 003f 68c0 c53e 2811 65be 9f7c 8abf
00000050: ad31 9ebe f43e d13e db2b 5e3e 7f0e 923f
00000060: f8c8 49bd 75e8 cd3e 6640 31bf 4768 db3e
00000070: 10f4 a7bd add7 dabe 1fb2 65be 7b1a 19bf
00000080: b424 45bf 61f0 21be 437c ee3e f4ea 1ebf
00000090: b76d b93e 9e29 523e 439f a33e 3bd6 eabe
000000a0: 5747 d13e 0fd5 ab3d 07b0 d03d 110d ff3d
000000b0: 329c 18bf 4498 b0be 8982 4b3d 7a66 88be
000000c0: 6e9c 373f e191 463f ac27 6b3f b9d3 173e
000000d0: 96c2 a4bd 723c d43e 7198 733f 1472 923f
000000e0: 9d8c afbd 1806 7f3e 0a27 373f 92dd 523f
000000f0: fdd3 2abe 1f6e 8bbe 9b67 76bf 532e 0c3f
00000100: 2f08 1dbf 1691 033e b400 06c0 df86 2cbf
00000110: 8383 b5be f7ef 11bd aae9 a93d 46f6 273d
00000120: 2946 523f e575 9abe 2e12 713f f976 923d
00000130: f915 163f 8ea9 10bf 7657 1cbf 9811 ff3e
00000140: b6f8 6bbe 88a6 a83e b23f 733e 10b7 cebf
00000150: 4015 3f3e 4171 133e d529 093e 1855 fd3c
00000160: e0bb 243f bc71 483f 992e ff3e e5cf 383f
00000170: 801f 9a3e 5a11 dbbe 1b98 493d ed16 55be
00000180: 33aa ae3e 9e11 393f f173 193f e62d 83be
00000190: 193d 1f3e 4712 043f 2de1 1d3f 5756 263f
000001a0: e0eb 1a3f 3eb9 fb3e 0068 d93e 0588 c4be
000001b0: 82c7 2bbf 24e7 9dbe 57e6 013f 38fe e03e
000001c0: 0d7f 4dbd 2f6d fa3e b40d db3e 1bd3 e5bf
000001d0: 3526 163f 3ae8 a63f f732 793f e7a8 67be
000001e0: 9850 27bf 673f fcbe 9577 92be 42d7 703e
000001f0: eafd f83e c551 21be 3e74 73bf 5d4d a63e
00000200: 9302 4abf 2ac7 9fbe 824f 5c3e 0f04 963f
00000210: e55e b0bd 5faa 7b3f 9c93 1d3f 664e 9e39
00000220: 91e5 ccbe f5ae 843e e594 063f 2e6e 53bf
00000230: 98c9 273e 3434 6bbf 35b4 9e3e 335d 403e
00000240: dc05 ca3e 7499 0c3f c8c0 b23e ed7e 853e
00000250: d1e4 443e fc60 ff3e 2505 313f 3648 3cbe
00000260: 5697 b6be fc19 43bd e8f7 963d a11c 89bf
00000270: e225 87be 5c3b febe bbcf 01bf e416 703f
00000280: 5db3 febc 1868 d2bd f12a f7be c00a e33e
00000290: 9e4d 9c3f d5cd 663c 69e0 273f 1f7e 9c3d
000002a0: 28e3 983f 03cb ebbd 8552 453f 8723 a2bd
000002b0: 9c44 4dbe 976e a4bd fb74 22be b286 f9bd
000002c0: df22 023e e108 be3e f0e9 873f 489f 513f
000002d0: 8984 953e 1b49 513f 9068 23bf 3f77 433d
000002e0: fff9 0fbf 01fb e73d 5713 b43c 669f 8d3e
000002f0: 5635 b8be b3ce 74bf 23d5 07bf 4d0c 2c3f
00000300: d917 85bf 7932 4cbe fe60 75be 3276 37be
00000310: f783 e93c c5c6 1d3f 4734 a53d 9f78 d1be
00000320: b557 2d3f 39f2 853e 59bf 3f3f 2736 a93e
00000330: d809 d5be b80b f43e 59f4 8abf fa01 12bf
00000340: d8c7 933d 55b7 b43d 3df7 4fbf 70fc 71bf
00000350: 7b37 61bd 5297 1e3f c28d 00be 54c6 56bf
00000360: 99cb 203e 4836 953d dd4b 8f3d cc20 de3e
00000370: 77cc 723d 5507 61be 199b 553e f569 9b3e
00000380: bf78 813e 6886 923f 8d5a 603f d7a7 2e3f
00000390: 5817 903f b898 e7bd 8e02 1fbf f964 44be
000003a0: 1956 d33e 897d b73d b86e 94be bf84 6fbf
000003b0: d7ab 3f3e 3211 e6bd 55f2 1b3e 3387 1abf
000003c0: ed63 063d 3285 4a3f 6876 c63d 9c44 8fbf
000003d0: 1923 38be 8dd5 ae3d eaf7 e53d 675f abbe
000003e0: dc5b 92be eb9e 50bf 2d60 4d3f f776 6c3a
000003f0: 9346 a53e fddb 23be 5629 8abf aec4 b3bd

critic.2.bias f4 [128]
-0.3684573 -0.41343045 -0.07064987 -0.20581298 0.08588994 0.3954988 -0.3175897 0.2600663
-0.14776424 0.21518861 0.21055584 0.027994819 0.15672864 0.50206953 0.19948979 -0.5386725
0.13470706 -0.5459224 -0.22603352 -0.16202247 -0.053851996 -0.46616635 0.09206071 -0.08188224
0.28699833 1.2568858 -0.22371799 0.18914059 -1.9063429 -0.36485538 0.4752889 0.12778002
-0.027498303 -0.6902568 -0.46609727 0.004320274 0.26255092 0.3027983 -0.7659437 0.2927538
-0.8071974 -0.18262862 -0.1765459 -0.03586967 0.5268852 0.18671992 -0.1129592 0.37126893
-0.36645457 0.16124079 0.6977916 -0.031826004 0.5019038 0.28384304 0.13041629 -0.26551107
0.2766463 -0.037636276 -0.1687197 -0.25181943 -0.012756225 0.85364264 -0.25224772 0.2159925
0.037872117 -0.2533435 0.14983907 -0.20449987 -0.1407346 -0.10692042 -0.019751977 -0.21527983
-0.33006516 -0.12332058 0.13351378 0.23594403 -0.13091241 -0.19272396 0.621312 0.38480532
-0.32883736 -0.037213974 0.071285605 0.5849722 -0.8177938 0.2817835 0.25339705 -0.00065678055
-0.54616493 -0.13995524 -0.5855433 -0.01973579 0.16645613 0.20778012 -0.06236203 -0.096896954
0.15795176 -0.15611324 0.073845014 0.256393 0.02593302 0.3463976 0.30837396 0.38506106
0.45618185 -0.091399096 -0.39419645 0.46437225 0.20850961 0.03539752 -0.77745545 -0.31938204
0.07043372 0.16074863 0.1743244 0.47218853 0.07699755 0.10521972 -0.45907176 -0.23233923
0.32464334 -0.37822065 0.46234336 0.08374192 -0.07313693 0.25453287 0.2653407 -1.5851868
00000000: 6fa6 bcbe 28ad d3be e1b0 90bd a3c0 52be
00000010: 11e7 af3d d27e ca3e 1e9b a2be 6927 853e
00000020: 824f 17be 675a 5c3e f39b 573e 6455 e53c
00000030: 797d 203e a187 003f 0d47 4c3e 71e6 09bf
00000040: a6f0 093e 92c1 0bbf 5575 67be 38e9 25be
00000050: e993 5cbd 5bad eebe 538a bc3d e0b1 a7bd
00000060: 72f1 923e a2e1 a03f 5416 65be 12ae 413e
00000070: 0b03 f4bf 53ce babe 1159 f33e c4d8 023e
00000080: 1f44 e1bc abb4 30bf 4da4 eebe 1691 8d3b
00000090: 136d 863e 6108 9b3e e314 44bf d3e3 953e
000000a0: 7da4 4ebf ff02 3bbe 73c8 34be 13ec 12bd
000000b0: f3e1 063f 8233 3f3e 2757 e7bd f616 be3e
000000c0: ef9f bbbe 4e1c 253e 78a2 323f fc5b 02bd
000000d0: c47c 003f e053 913e d98b 053e 11f1 87be
000000e0: 95a4 8d3e 7f28 1abd dbc4 2cbe 7aee 80be
000000f0: 7cff 50bc 5388 5a3f 9d26 81be 232d 5d3e
00000100: cb1f 1b3d 3db6 81be 6a6f 193e 6a68 51be
00000110: bb1c 10be 18f9 dabd e6ce a1bc 5172 5cbe
00000120: 4dfe a8be 808f fcbd d6b7 083e 509b 713e
00000130: e70d 06be 6e59 45be 4e0e 1f3f 3405 c53e
00000140: 5f5d a8be ae6d 18bd 30fe 913d bdc0 153f
00000150: ef5a 51bf ed45 903e 42bd 813e cc2b 2cba
00000160: 77d1 0bbf 6d50 0fbe 2ae6 15bf f4ac a1bc
00000170: 7a73 2a3e 50c4 543e 546f 7fbd e971 c6bd
00000180: 1bbe 213e 26dc 1fbe 0e3c 973d f145 833e
00000190: 7c71 d43c 075b b13e 31e3 9d3e b926 c53e
000001a0: ab90 e93e 732f bbbd 1ed4 c9be 33c2 ed3e
000001b0: 8b83 553e fdfc 103d 5207 47bf 0b86 a3be
000001c0: 8e3f 903d 4a9b 243e 1882 323e b2c2 f13e
000001d0: e4b0 9d3d 707d d73d 740b ebbe 56ea 6dbe
000001e0: a737 a63e 23a6 c1be 45b8 ec3e e280 ab3d
000001f0: d1c8 95bd 2252 823e bcda 873e 67e7 cabf

critic.4.weight f4 [1, 128]
0.000420835 -0.0008135714 -0.0032544176 -3.0245985e-05 -0.0004001812 4.1237392e-05 0.00047413533 4.0162107e-05
6.410479e-05 0.006275566 0.00035646177 0.00034757715 0.00010080251 -6.409311e-06 -0.0006203813 -0.00022829167
-9.1997266e-05 -0.000557853 -0.0010517995 -0.0007212106 -0.001057892 -5.4890832e-05 8.557487e-05 0.0038517818
1.0127363e-05 0.062194634 -0.00019806014 0.0035816687 0.13494086 -0.00014417013 3.0606793e-06 0.0015018171
-0.0008941548 0.020740556 0.0023782188 9.985163e-05 0.0002754064 -0.0002988955 -0.066031024 5.181006e-05
-4.8513986e-05 2.8660368e-05 0.0002446465 0.00674542 -0.0017559349 0.006398027 -0.018923702 0.0017980678
-0.0004481928 0.0013770864 -0.00011005113 -0.0002740795 -4.3141565e-05 -9.002498e-05 -0.007006638 -0.010812748
-6.468151e-05 -4.3385222e-05 0.00011974309 -0.0003019086 -0.00015816561 -0.0024784626 0.04164478 0.15548347
0.0009835748 0.00056513166 7.3194e-05 0.00034319365 -1.6163578e-05 0.0001092895 0.0002425312 0.0007889043
0.00019526941 9.037664e-05 -0.00031790955 0.00072034943 -0.00015988004 0.00035357918 -0.0017924326 0.0012010802
-0.0014101174 -0.0007310099 -0.00041108576 0.0012783355 4.987022e-05 -0.0018864196 0.0009971735 0.002135795
-0.01081002 0.0031599863 0.0010482224 0.00017120645 -5.047821e-05 -9.099627e-05 0.00079917326 0.0014516409
0.00066392985 -0.0009065978 2.4526726e-05 0.00030493605 0.00013031796 -0.006327122 -0.0004221119 4.670391e-05
0.00034790207 5.952667e-05 0.00016348164 -0.00014931866 -0.0061429585 -0.0011905351 0.004028881 -0.00022606997
-0.00016341457 -0.0006273387 0.00021386858 0.0007111815 -1.6793561e-05 -0.008632328 -0.00014314307 0.00035667443
-0.0012797818 0.00015022268 0.0033393428 -0.000990462 -4.34467e-05 -0.00025092848 -0.00021645606 0.0623659
00000000: 84a3 dc39 da45 55ba 1148 55bb c2b8 fdb7
00000010: 69cf d1b9 50f6 2c38 5e95 f839 bc73 2838
00000020: ff6f 8638 43a3 cd3b 7de3 ba39 043b b639
00000030: ef65 d338 900f d7b6 16a1 22ba 9461 6fb9
00000040: a8ee c0b8 e23c 12ba 89dc 89ba a00f 3dba
00000050: f7a8 8aba 953a 66b8 a976 b338 2d6e 7c3b
00000060: b1e8 2937 cdbf 7e3d 5dae 4fb9 6eba 6a3b
00000070: f02d 0a3e 602c 17b9 1266 4d36 9fd8 c43a
00000080: b665 6aba 19e8 a93c e4db 1b3b 7067 d138
00000090: 6c64 9039 13b5 9cb9 463b 87bd a14e 5938
000000a0: 7f7b 4bb8 ac6b f037 e643 8039 af08 dd3b
000000b0: 6627 e6ba 8aa6 d13b e105 9bbc 25ad eb3a
000000c0: 6bfb eab9 5a7f b43a 40cb e6b8 54b2 8fb9
000000d0: e7f2 34b8 cbcb bcb8 f197 e5bb f427 31bc
000000e0: 9fa5 87b8 87f8 35b8 951e fb38 7d49 9eb9
000000f0: 42d9 25b9 b46d 22bb b893 2a3d 0f37 1f3e
00000100: 4beb 803a 5825 143a bb7f 9938 acee b339
00000110: 0597 87b7 5b32 e538 f94f 7e39 79ce 4e3a
00000120: 3cc1 4c39 9788 bd38 19ad a6b9 d5d5 3c3a
00000130: 79a5 27b9 9860 b939 0ff0 eaba 906d 9d3a
00000140: b0d3 b8ba 3ea1 3fba ff86 d7b9 d28d a73a
00000150: be2b 5138 bd41 f7ba 97b3 823a b2f8 0b3b
00000160: 831c 31bc c617 4f3b 8264 893a e285 3339
00000170: 91b8 53b8 40d5 beb8 9c7f 513a fc44 be3a
00000180: 940b 2e3a c0a8 6dba bebe cd37 d3df 9f39
00000190: f6a5 0839 bf53 cfbb e64e ddb9 f1e3 4338
000001a0: a066 b639 46ac 7938 456c 2b39 6c92 1cb9
000001b0: df4a c9bb bb0b 9cba b404 843b 320d 6db9
000001c0: 445a 2bb9 fd73 24ba e941 6039 956e 3a3a
000001d0: e6df 8cb7 9c6e 0dbc ad18 16b9 0800 bb39
000001e0: 5abe a7ba 1885 1d39 e0d8 5a3b 64d2 81ba
000001f0: 8a3a 36b8 0d8f 83b9 7bf8 62b9 6373 7f3d

exp_avg f4 [4]
-2.9683458e-06 -0.020703085 -5.420433e-06 -2.5155568e-05
00000000: cb33 47b6 8499 a9bc 2ae1 b5b6 2c05 d3b7

exp_avg_sq f4 [4]
9.046309e-09 0.027997423 6.7546155e-09 7.199917e-09
00000000: 166a 1b32 da5a e53c 3a16 e831 2463 f731
