examples/drone/logs/drone-waypointing/model_1300.pt (torch, 474978 bytes, 36 tensors)

std f4 [4]
000000 9a 20 5e 3e 34 b3 ad 3d de f8 a5 3e f3 3e 5f 3e
       0.21692124 0.08481446 0.32416433 0.21801357

actor.0.weight f4 [128, 17]
000000 9c 13 e0 bf ef b1 93 bf af cf 4e 40 93 15 6f be
       -1.7505984 -1.1538676 3.231426 -0.23348074
000010 89 c8 4d be 36 bc 83 be d6 74 37 be db 57 06 bf
       -0.2009603 -0.2572953 -0.17915663 -0.52477807
000020 27 62 70 bf 31 bf 4d 3f 29 04 35 3f e7 95 cb be
       -0.9389977 0.8036986 0.7070947 -0.39762804
000030 78 fb a2 bd 2e 92 bb 3d 99 bf 9c 3b 3d 04 47 3e
       -0.0795812 0.09158741 0.0047835824 0.1943521
000040 40 99 26 3c 62 9c e2 be 6d a6 0c bd b5 8f 8d bf
       0.010168374 -0.44259936 -0.034338403 -1.1059481
000050 39 73 ca 3e 90 41 e8 bf 82 51 e5 bf 53 75 d9 bc
       0.39541033 -1.8145008 -1.7915499 -0.026545202
000060 a8 a9 ab 3e a4 fb 13 be 2f 29 04 be 0f 64 3a 3d
       0.33527875 -0.14451462 -0.12906335 0.04550558
000070 e5 12 41 bf eb c7 4e bf 49 18 15 3d c3 03 a7 bb
       -0.75419456 -0.807738 0.036400113 -0.005096884
000080 f4 3c 9b 3d 9a 3d a1 bc ed 34 71 bc a8 d2 8c 3c
       0.07579985 -0.019682694 -0.014722091 0.017190292
000090 b4 8e 47 3e cf fd 69 3d 28 ff bf 3b ce 3e 0c 3d
       0.1948803 0.057126816 0.0058592744 0.034239583
0000a0 a8 55 5e bc 57 8a 45 3c ad 7d 8c 3b 21 ec 86 37
       -0.013570227 0.012056909 0.0042874427 1.6084e-05
0000b0 a5 ee 18 bb 21 1a bb 3b b0 14 f2 bc bd 02 47 be
       -0.0023335603 0.005709902 -0.02955088 -0.19434638
0000c0 dc ce 83 3e 5a 8d af bd 82 48 65 bd 86 b9 c7 3d
       0.2574376 -0.085718825 -0.055977352 0.09752183
0000d0 6b 12 c5 3e 89 3f 03 c0 65 48 89 bf 37 6a a0 bf
       0.38490614 -2.0507529 -1.0725218 -1.2532414
0000e0 3b 5c 95 3e 81 7d 9d 3f 75 1e a5 3f d3 73 cc 3e
       0.2917193 1.2303926 1.289992 0.39932117
0000f0 76 82 54 3f e4 ce 65 be 00 bd 01 bf 25 44 3f 3f
       0.8301157 -0.22442204 -0.50679016 0.74713355
000100 79 aa 84 be 4c bb a4 be fa 15 af be dd 82 e3 bd
       -0.2591131 -0.32174146 -0.34196454 -0.111089446
000110 e4 0b c1 be c4 7f 9c 3d 33 ad 15 c0 c1 98 35 3d
       -0.37704384 0.07641557 -2.3386962 0.04433513
000120 23 f1 0d 3f 35 d1 c1 3c ba 15 e0 3e e5 c8 2e 3a
       0.5544607 0.023659328 0.43766576 0.0006667509
000130 8a 2b cc bd 44 20 80 3d 65 ab be bd dc 58 d6 3d
       -0.09969242 0.06256154 -0.09310035 0.10466167
000140 b9 66 72 3e 19 64 24 3e 7c c3 33 3c 7f b8 72 3d
       0.23671998 0.16053809 0.0109719 0.05925798
000150 d4 cb 23 be 5c 9e 80 bf a0 cf e7 3e f5 76 e9 3e
       -0.15995723 -1.0048327 0.45275593 0.4559857
000160 72 a5 a9 3d 8c e0 37 bf 50 4c ab 3f f1 d5 12 bf
       0.08283509 -0.71827006 1.3382664 -0.573577
000170 3e 53 3c 3e 9f c7 54 3b 45 78 42 be ee 67 38 3e
       0.1839113 0.0032467616 -0.18991192 0.18008396
000180 64 3d 46 bd a7 5d 73 be 73 7b 9c 3d e3 85 1d be
       -0.04839839 -0.23766194 0.076407336 -0.15383105
000190 04 3d f5 bd 94 72 b4 bd 94 ac 81 3f 46 f1 8d bc
       -0.119745284 -0.088109165 1.0130792 -0.017326962
0001a0 bb e6 1a 40 c9 27 24 bf 19 f0 d8 3e 2b 2a 44 3e
       2.4203327 -0.6412321 0.4237068 0.19156711
0001b0 74 86 25 bf 55 fb 24 3e eb 43 dc bd 1d f7 4e bf
       -0.64658284 0.161115 -0.10755142 -0.80845815
0001c0 14 99 3b 3f 9b cf 00 bf 44 52 2f bd 4d 03 cf 3d
       0.73280454 -0.5031678 -0.042803064 0.101080514
0001d0 7d d7 4d 3e 4b 27 a1 3d fc 3f dd 3c 19 19 b5 3f
       0.20101734 0.07868823 0.02700805 1.4148284
0001e0 63 fe 8d be f5 68 80 c0 67 8d 7d 3e eb 2f 06 bf
       -0.27733144 -4.012812 0.24760972 -0.52416867
0001f0 04 3d 4d bf 2e 45 a4 bd 81 cf 3e bd 2a d5 78 be
       -0.8017123 -0.080210075 -0.04658461 -0.24300066
000200 7b 48 0f 3f f1 28 03 be bc 9a da bd 90 6b fa bc
       0.5596997 -0.12808587 -0.106740445 -0.030568868
000210 d9 db 8c be 84 f2 97 be 8e 92 7a be 8a 39 5c be
       -0.2751148 -0.29677212 -0.24469969 -0.21506324
000220 bd 9d 5a be 5d 2f 94 3e 6a d5 49 3d fd f3 4a bc
       -0.21349235 0.28942385 0.049275793 -0.012387273
000230 dc 16 6d 3f 27 4b f0 3c 5e 8b 2d 3f 2a c4 90 3e
       0.92613006 0.02933271 0.6779078 0.2827466
000240 e7 19 36 bd cb 4b 1d bd 8a 22 3d be 8f e8 ce 3d
       -0.044458296 -0.03840236 -0.18470207 0.10102951
000250 fa 85 2c 3e e6 4c 38 3d 4c 2d f3 3a 42 4a 4b 3e
       0.16847983 0.04499521 0.0018552928 0.19852546
000260 85 d1 5a be db a7 a7 3c 19 62 6e 3e 2c 1c c3 bf
       -0.21368988 0.020465782 0.23279609 -1.5242972
000270 f4 56 3d 3b 7d 1f 46 3f 7a 3d 87 be 3e 95 9d 3e
       0.002889094 0.773918 -0.2641409 0.30777925
000280 86 a5 6e bd c9 8f f3 bd 8a 8f c2 3d c6 15 83 3d
       -0.058263324 -0.11892659 0.09500034 0.06400637
000290 27 b2 0f 3e 91 3b b1 3e 62 b3 5a 3b 4c e9 20 3d
       0.14032803 0.34615758 0.003337108 0.03928499
0002a0 e2 a2 25 3e 5f d5 89 3d 45 93 ab 3d 98 81 2b bd
       0.16175416 0.067301504 0.08377699 -0.041871637
0002b0 9a bc e0 3d 63 5f 06 bf 35 51 00 be 5c 9c d7 bd
       0.10973473 -0.524893 -0.12530978 -0.1052787
0002c0 68 e2 27 bd 36 c6 c5 3c 39 50 2b 3d 77 b5 dd bc
       -0.040987402 0.024142366 0.041824553 -0.027064068
0002d0 b5 1b 8c 3c 34 65 b6 3d c5 64 8f 3d e4 88 1c be
       0.017103055 0.08906022 0.07001642 -0.15286595
0002e0 ef 83 ec 3d 6d 0f 68 3d 22 ae eb bd be 4c 68 3f
       0.11548602 0.056655336 -0.115078226 0.907421
0002f0 fd 86 2a 3f c6 fd df bf 0d a4 08 3f 33 8f 9c bf
       0.66612226 -1.749932 0.5337532 -1.2231201
000300 bd 58 07 be c0 2e f5 3e 5d 2d f5 3e 54 a5 19 be
       -0.13217445 0.4788723 0.47886172 -0.15004474
000310 9c 1b 83 3e 5d 38 9d 3e 80 fa 93 bf 79 8b 42 3f
       0.25607002 0.30707064 -1.1560822 0.7599407
000320 93 e6 16 bc 3e f7 06 bd c0 56 d5 bd 2c 8b 11 3e
       -0.009210247 -0.032950632 -0.10416937 0.14213246
000330 91 2f 90 3e d3 7e 03 bd ff 88 47 40 ef 8b 45 be
       0.2816129 -0.03210337 3.1177366 -0.19291662
000340 66 c3 11 bf e5 c7 64 be 69 29 83 be 88 2e 5c 3e
       -0.5693878 -0.22341879 -0.2561753 0.21502125
000350 e3 84 11 3d 60 f1 38 be 38 02 1b 3e c3 b2 29 bc
       0.03552712 -0.18060827 0.15137565 -0.0103575615
000360 53 ae c7 be 93 12 64 bd 98 9e 14 3e 66 8a b9 bd
       -0.39000186 -0.055681776 0.14513624 -0.090596005
000370 79 5b cb 3d a6 fe e2 bd 97 61 ed 3e 75 a6 a5 bf
       0.099295564 -0.110837266 0.46363518 -1.2941424
000380 70 2d d7 3e 4d 88 04 bf 28 de 64 bf 8d 42 19 bf
       0.42026854 -0.5177048 -0.89401484 -0.59867173
000390 f0 91 a5 3d 3f 07 9e bd f5 b6 79 bd 11 b0 13 3e
       0.08084476 -0.07716226 -0.060965497 0.14422633
0003a0 be 24 c0 3e b2 a7 48 3d 4a 3f 1e 3e f8 e1 ae 3d
       0.37528032 0.04898805 0.1545383 0.08539194
0003b0 a9 76 d2 3c 95 cc 36 3d 16 30 eb 3e 89 94 a7 3d
       0.025691347 0.0446287 0.45935124 0.08182628
0003c0 e3 a6 16 3d 97 3d 8c 3e 5f f5 72 3e c1 9b 0a bf
       0.03678025 0.2739074 0.23726414 -0.5414391
0003d0 37 37 04 be 49 af b2 be d3 db b4 bd 70 cf fc 3d
       -0.12911688 -0.34899357 -0.08830991 0.12344253
0003e0 f8 b5 61 bc 9d 5c e4 bd 92 cf b8 3b 1b 27 f5 bd
       -0.013776295 -0.11150477 0.0056399787 -0.119703494
0003f0 91 67 2a be 60 22 8d bd 14 e7 55 3e d7 3e 39 bf
       -0.1664107 -0.06891322 0.2088893 -0.7236151

actor.0.bias f4 [128]
000000 ae 35 ea be f7 43 a5 be e0 19 8d 3c e3 02 f6 be
       -0.4574408 -0.32278416 0.017224252 -0.48049077
000010 73 47 08 be b0 d6 00 bd f0 b5 f0 3d 80 88 56 be
       -0.13308506 -0.031454742 0.11753452 -0.20950508
000020 b3 a8 6f bd 64 71 59 be cc 14 04 3f a5 7c 8c 3e
       -0.058510493 -0.21234661 0.51594234 0.27438846
000030 cf b6 df 3d 85 8a 1e bf 02 ab 16 3d 21 07 7d bd
       0.1092354 -0.61930114 0.03678418 -0.061774377
000040 1d 70 0e be b7 91 28 be 74 e8 b5 3e 09 f1 a5 be
       -0.13909955 -0.16461836 0.3552891 -0.32410458
000050 f9 a7 fe 3c c7 67 15 3e 2c fe a1 bd a1 9d 80 3d
       0.031085955 0.14590369 -0.079098076 0.06280065
000060 ca f5 74 be e3 53 e1 3e 8c 98 08 3f c3 cb 8f bd
       -0.23921886 0.44009313 0.5335777 -0.07021286
000070 cc 29 db be 02 2f 7e be 0b 9c 08 3e a1 88 93 3d
       -0.42805326 -0.2482262 0.13340776 0.07203794
000080 e8 0d 7f 3e c9 11 03 be cb 9d 7d 3e 2f 85 9c bd
       0.24907649 -0.12799753 0.24767224 -0.0764259
000090 a3 4a 0d 3e 67 9b d0 be 60 18 88 be 68 af 2e bf
       0.13798003 -0.40743563 -0.26581097 -0.682364
0000a0 93 95 e4 be ef c2 6c 3e b8 22 f1 bd 40 46 a6 bd
       -0.44645366 0.23121236 -0.117742 -0.08118868
0000b0 2e 24 fe 3d 0f 28 a5 3d 4a 32 59 be 98 23 08 3d
       0.124092445 0.08064281 -0.2121059 0.03323707
0000c0 27 d4 ef 3c df a3 2f bf 6d 3b 3f be 77 c7 d3 bc
       0.029275967 -0.6860942 -0.18675013 -0.025851948
0000d0 8d e9 95 3e 10 17 3b 3e f3 e0 b7 bd ee b5 ad bd
       0.29279748 0.18270516 -0.089784525 -0.08481966
0000e0 ff 49 2f be 4c b6 99 3e 1c c3 8b 3e 14 34 55 bd
       -0.17118071 0.30021894 0.27297294 -0.05205162
0000f0 4b dd b7 3e 44 1b 67 3e de 34 d8 be 4a 4c b1 3d
       0.3591102 0.22568995 -0.42227834 0.08657129
000100 de ba 5a 3e 4a ce 88 3e a1 ba 6c be b1 2e 01 3e
       0.21360347 0.26719886 -0.23118068 0.12615468
000110 1a c5 ce be 3f d3 9c 3d 0d 35 c7 be 88 a6 07 be
       -0.40384752 0.076574795 -0.38907662 -0.1324712
000120 a9 4a e8 3d 0d b4 de 3d b8 aa e4 3c 43 e1 82 3d
       0.11342365 0.10874186 0.027913436 0.063906215
000130 e3 db 55 be 77 d0 96 bd dc 35 8b 3b 18 aa 9a bc
       -0.20884661 -0.0736398 0.004248364 -0.018879935
000140 41 f5 d6 3b 8a ab a1 bd f6 42 45 be 67 72 76 3d
       0.0065599983 -0.078940466 -0.19263825 0.060167696
000150 3f e9 94 bd c6 4d 84 3e 15 d1 a9 bd f0 56 41 3b
       -0.07271051 0.25840586 -0.08291832 0.0029501282
000160 46 e6 c0 3d 71 e5 a9 3d 57 7a 84 3d f4 d7 6c be
       0.09418921 0.082957156 0.06468647 -0.23129255
000170 27 6b e7 bd c8 8e a7 be 28 1c c0 3d 59 b5 81 3d
       -0.112997346 -0.3272612 0.093803704 0.063334174
000180 db 57 1b be 35 d8 74 3e f1 f4 90 be 1a 4a be 3e
       -0.15170233 0.23910601 -0.28311875 0.3716591
000190 ca c0 5e be a4 a0 c3 3e d4 b4 b4 be 67 6b 25 3c
       -0.2175323 0.38208497 -0.3529421 0.0100964075
0001a0 93 42 3c be e2 20 2f 3d fd 30 8f 3d d9 bb 17 3e
       -0.18384771 0.04275597 0.06991766 0.14817752
0001b0 33 e9 c5 be 77 ea 65 3e e5 16 01 3e 3e 47 b4 be
       -0.3865448 0.22452722 0.1260639 -0.35210603
0001c0 41 91 17 be a2 64 1e be 69 27 c0 be f4 c5 dd be
       -0.14801504 -0.15468076 -0.37530068 -0.4331509
0001d0 18 37 54 be ea fb 6f bd bb a6 ab 3e b5 f6 21 bd
       -0.20724142 -0.058589853 0.33525643 -0.03954192
0001e0 c1 34 aa 3e 34 05 51 be fa 8e 17 3e 5d f4 02 be
       0.33243373 -0.20412141 0.14800635 -0.1278853
0001f0 52 39 97 be 34 84 af 3e 01 fa c1 3e d1 26 83 be
       -0.2953592 0.3428055 0.3788605 -0.25615552

actor.2.weight f4 [128, 128]
000000 51 af d0 bc 4a f8 cc bd e4 a6 04 bd 92 8a 8c bc
       -0.025474222 -0.10008295 -0.03238572 -0.01715592
000010 51 96 5a 3d 27 fd da bd 25 e1 fd 3d c6 78 b3 bd
       0.05336601 -0.10692816 0.123964585 -0.0876327
000020 ac 9c 65 bd a6 56 c2 bc 7b c0 c3 bc 7e 37 9f 3d
       -0.056057617 -0.023722958 -0.023895493 0.07774256
000030 bf 34 b5 bd 41 4c 2b 3d c8 37 ed 3d 25 64 46 3d
       -0.08847951 0.04182077 0.11582905 0.04843535
000040 51 dd a9 3c c9 54 59 3d 84 4b d6 bc 18 b9 cb 3c
       0.020735415 0.053059373 -0.026159056 0.024868533
000050 28 62 f5 bd 93 62 d5 bc e9 ce 55 3d 10 8f 8e 3d
       -0.119816124 -0.02604798 0.052199278 0.06960881
000060 98 48 81 3d e8 fe 9e 3d 82 ed 3a bd e9 c1 4c 3e
       0.06312674 0.07763463 -0.04563666 0.19995846
000070 4b e1 0c bc 2b 1b 25 3c b6 04 60 3d a8 7f 13 be
       -0.008598636 0.010077278 0.054691993 -0.14404166
000080 cc f3 7c 3a 53 2d bd bd 0b b1 c5 bc 72 68 84 3d
       0.00096493657 -0.092371605 -0.024132272 0.06465234
000090 94 2f b6 3b 9c ab 0b be f6 99 19 bc 83 43 a7 bd
       0.005559871 -0.13639683 -0.009375086 -0.08167174
0000a0 2a dc e1 bc dc 74 8d bd 41 74 2d 3e 91 9d 67 bc
       -0.027570803 -0.06907055 0.16938879 -0.014136688
0000b0 1c 4c 1f be 39 b1 87 bc 8f 5d ef 3c 47 8c 6d 3d
       -0.15556377 -0.016563999 0.029219417 0.057995107
0000c0 cb fc 26 bc 37 4d 35 bd 80 19 11 3e e2 85 32 bc
       -0.0101921065 -0.04426309 0.14169884 -0.010896178
0000d0 67 56 f4 3b a4 a5 eb bd 38 d5 95 3c 5c 7b 27 3c
       0.007456589 -0.11506203 0.018290147 0.010222282
0000e0 3f 1a 6d bd c6 c1 23 3d 81 7a 53 3d a4 c8 ed 3d
       -0.05788636 0.03997972 0.0516305 0.11610535
0000f0 77 7b 56 3d f8 89 dd 3c 13 b0 a5 3c 43 30 15 be
       0.05236384 0.027043328 0.02022556 -0.14569192
000100 81 da cb 3c a4 21 42 bb 95 e4 19 bd cb 97 cb 3d
       0.024884464 -0.0029622102 -0.03757151 0.099410616
000110 1d e9 ac bd 3a 0e 1a 3d e5 b7 16 3e 5d cb c9 3c
       -0.084429 0.037611224 0.14718588 0.024633104
000120 d5 16 c2 3a 31 a4 15 bc 28 24 41 bd 33 5d bf bc
       0.001480783 -0.009133385 -0.047153622 -0.02335987
000130 18 ee c6 3c c0 bb 0f 3e f4 3f 31 bd 06 76 ae 3c
       0.024283454 0.14036465 -0.04327388 0.021296512
000140 90 50 15 3d 20 a3 69 3d f5 55 c7 bb c9 7e ff 3c
       0.036453784 0.057040334 -0.006083245 0.031188386
000150 8e 87 0a bd 68 cb 25 3c 60 be 8e 3d 85 ca 50 bd
       -0.03382068 0.010119297 0.06969905 -0.050974388
000160 e3 27 79 bd 7e 51 d9 bd 51 69 46 3d 3e 5d 49 3d
       -0.060829055 -0.106112465 0.04844028 0.04916119
000170 24 1e 14 bd a4 e6 b9 bd 64 0a 81 bd 23 a1 f0 3d
       -0.036161557 -0.09077194 -0.0630081 0.117494844
000180 ee b0 3b 3c bd f7 28 be b4 e0 60 bd ff 7c e7 bc
       0.011455758 -0.16500755 -0.054901794 -0.028257845
000190 57 39 e3 3d bd cb 1d 3b 19 30 51 3d c3 05 03 3d
       0.11094921 0.0024077736 0.05107126 0.031987917
0001a0 1b c7 44 3c da 05 00 bd 53 1e e3 3d 28 cc 04 bd
       0.012010361 -0.03125558 0.11089768 -0.03242126
0001b0 19 8d 23 bd 4c b2 32 3e fe 98 08 bd 89 f7 a0 3d
       -0.039929483 0.17450827 -0.03334903 0.078597136
0001c0 56 93 3b bb 86 02 a4 3c bb 66 03 bd 93 24 0c 3e
       -0.0028621755 0.020020735 -0.032080393 0.13685827
0001d0 8c 81 36 3d 94 1d 55 3d 78 95 8e 3c 9b a3 7c bc
       0.04455714 0.05203016 0.017405257 -0.015419866
0001e0 ed 63 6c 3b 91 6f 0f 3d d0 1a a8 3d 2d 23 49 3e
       0.0036070303 0.035018507 0.08208239 0.19642325
0001f0 65 04 94 3d 35 1a 1d 3d 85 93 04 3e a6 d7 f3 3d
       0.07227401 0.03835507 0.12946899 0.11906366
000200 ea 6a 96 bd 5f b4 a9 3d 8b 02 55 bc 50 63 89 3d
       -0.07344611 0.08286356 -0.013001095 0.067083955
000210 10 fd b0 3b de 66 89 bd 8c c9 b3 bd e5 f8 79 be
       0.005401261 -0.067090735 -0.087786764 -0.24411352
000220 db 52 00 3c 6a 43 06 3d 59 0a fc 3c 7c 82 26 3d
       0.007832254 0.032779135 0.030766653 0.040651783
000230 2b bf 08 3e 60 2b 8e bc 4b 19 82 bd 66 0c 34 bd
       0.13354175 -0.017354667 -0.063524805 -0.043957137
000240 32 f4 bd bc 2b 51 12 3b b0 0b 08 bd 7d 9c 70 bd
       -0.02318773 0.0022326212 -0.03321427 -0.05874299
000250 1c 5e 3a 3d 17 bf 91 3a 85 4f 36 bd 9f 46 c5 3c
       0.045499906 0.0011119571 -0.04450943 0.024081526
000260 5d 0d 8b bd 58 12 57 3c a3 77 c0 3d 2d ab 0e 3d
       -0.06789658 0.013126932 0.09397819 0.034831215
000270 fe f8 b8 3c b2 05 39 be 2a 3a 2f 3d 54 af 0b 3e
       0.022579666 -0.18068579 0.04278008 0.13641101
000280 ed 42 2a 3a 19 d0 5e bd 8b cf 55 3d 3a ea 49 3c
       0.0006494958 -0.054397676 0.05219988 0.01232391
000290 44 11 71 3d c1 f8 bd 3c b2 1a b4 bb e5 26 b2 3c
       0.058854356 0.023189904 -0.0054963464 0.021747062
0002a0 de 7e 92 3d dd 72 8f bd 4e c9 aa bc f2 78 2f bd
       0.07153104 -0.0700433 -0.020847943 -0.04283995
0002b0 ae a9 1e be c6 70 9c 3d fd 57 96 bd ca 14 f1 ba
       -0.15494415 0.07638697 -0.07341001 -0.0018393036
0002c0 e7 a7 bf 3c 98 75 62 3c 93 8c 59 bd ca c4 a5 3c
       0.023395492 0.013821982 -0.053112578 0.020235438
0002d0 b0 7c 62 bd 99 ac fe 3d 62 99 fd bc f1 ea a7 bc
       -0.055294693 0.12435264 -0.030956928 -0.020497771
0002e0 a2 a3 d1 3d f8 13 8b 3a 23 d7 2b bd 3c 14 cc 3c
       0.102362886 0.001061081 -0.041953217 0.024911992
0002f0 15 82 85 3a 65 ac 79 bd 86 cf ee bd 32 e2 7e 3d
       0.0010185862 -0.060955424 -0.11660676 0.062227435
000300 71 17 0e be 29 b4 90 bd 12 c5 4c bd 58 55 41 3d
       -0.1387613 -0.07065613 -0.04999263 0.04720053
000310 42 75 79 bd 16 73 42 bc fb d3 cd bd 45 c4 d3 3d
       -0.06090284 -0.011868259 -0.10050198 0.1034017
000320 76 ee 3e 3c 23 fb fe 3d 77 b0 c2 3c 06 9f 70 3d
       0.011653533 0.12450244 0.023765786 0.058745407
000330 bf f2 8f bd 1f da 5e 3d 43 b5 aa 3c 79 ba 90 bd
       -0.07028722 0.054407235 0.020838385 -0.07066817
000340 49 42 dc bd bf bb ed 3c 56 20 36 39 90 18 2a bd
       -0.107548304 0.029020188 0.00017368919 -0.04152733
000350 e0 5a 91 3d 86 c5 86 bd f6 fc af 3c 8b 80 91 bd
       0.07097411 -0.06580643 0.021482926 -0.07104596
000360 4a df e7 3d 24 78 6f bc 7a 61 a0 bd 31 c3 dd 3c
       0.11321886 -0.014616046 -0.07831092 0.027070614
000370 8c 09 0c bd 82 56 a4 3c 99 a0 d0 3c cd 72 b4 3d
       -0.034188792 0.020060781 0.025467204 0.08810959
000380 28 d5 5b bd 95 11 2d bd cb f1 e7 3c 8c 79 1a 3d
       -0.05367008 -0.042253096 0.028313538 0.037713572
000390 dc dd 2a bd a2 29 09 bd b8 d2 2d be a8 20 b1 bc
       -0.041715488 -0.03348697 -0.16974914 -0.021622017
0003a0 1b 80 e1 3d 31 d0 d3 bc 2c 6c 09 3d d0 6e f4 3d
       0.11010762 -0.02585611 0.033550426 0.11935198
0003b0 2c af 66 b8 63 16 95 bd 01 eb 65 3d 50 09 3a bd
       -5.4999415e-05 -0.072796606 0.05613232 -0.045419037
0003c0 28 36 83 3d 21 4d 5b bd bb 5a 77 bd 99 64 37 3e
       0.06406814 -0.053540353 -0.06038926 0.17909469
0003d0 2c 29 f8 3d 98 43 62 be 1b d9 1e be ac 0d 0f bd
       0.12117228 -0.22096097 -0.15512507 -0.034925148
0003e0 af a6 11 be 9e 73 a9 bd 26 ae 8b bd 97 52 ac 3d
       -0.14223741 -0.08274005 -0.068203256 0.0841419
0003f0 83 02 f5 3d d2 a4 a9 3b a4 32 7a bd e7 96 dc 3d
       0.1196337 0.005177119 -0.06108345 0.1077097

actor.2.bias f4 [128]
000000 2d 3d 9a 3c 65 bf 9e 3d 2f b4 0b 3e 7e cb 2f bd
       0.018827999 0.07751349 0.13642953 -0.042918675
000010 c2 32 da bd 10 95 c8 3c b7 ea 22 3f 10 48 00 3f
       -0.106542125 0.024485141 0.63639396 0.5010996
000020 8e 29 91 bd 23 19 6e be b5 67 d1 3d 79 7c 2c bd
       -0.07088004 -0.23251776 0.10224859 -0.042110894
000030 75 62 ba bc be 0f ae 3d b9 6a 6e 3d 2d 26 44 3f
       -0.022752026 0.08499096 0.058207247 0.7662075
000040 17 b3 98 be 83 dc ed be fb 42 f4 3b 92 13 05 3d
       -0.29824135 -0.464573 0.0074542738 0.032489367
000050 53 f3 a4 3d 5a d1 d1 bd be cd e5 3a fe 74 95 be
       0.08054223 -0.10245009 0.001753263 -0.2919082
000060 d6 92 82 3d 34 82 8e 3d 8f 66 be bc 52 87 cc bd
       0.06375663 0.06958428 -0.023242263 -0.09986748
000070 07 13 6d bd 59 70 1f be 32 06 15 be f0 94 c8 3d
       -0.057879474 -0.15570201 -0.14553145 0.097940326
000080 44 d6 41 bd 28 5a 9b be 03 a4 fb bc ed 76 8b bd
       -0.04732348 -0.3034222 -0.030717855 -0.06809793
000090 bf 50 a1 bd 6c a0 93 3c f8 d6 5e bd 98 e0 1d 3e
       -0.07876729 0.018020831 -0.05440423 0.15417707
0000a0 44 1d 16 3e 63 cd 95 3c f7 36 fd bd ff a7 f5 bd
       0.14659601 0.018286413 -0.12363999 -0.11994933
0000b0 28 15 b9 bd f9 14 9a 3d d2 cc 25 bd 7a e1 0d 3d
       -0.09037238 0.075235315 -0.040478535 0.03463886
0000c0 b1 d7 a7 3d 81 d7 d5 3d a0 29 cd bc ab 07 06 bf
       0.08195437 0.10441495 -0.025044262 -0.5235545
0000d0 9c 6d b1 3a fb ce c7 be 52 6e 0a 3f b6 d4 2b 3d
       0.0013536694 -0.390251 0.54074585 0.041950904
0000e0 a9 e6 61 3c 44 99 e5 3d 14 7c f6 3d e3 dc 0e be
       0.013787904 0.11210874 0.12035385 -0.13951449
0000f0 98 15 e3 3c 24 c6 ad 3b 86 6d e8 bb 89 40 12 3e
       0.027720258 0.005303161 -0.0070931343 0.1428243
000100 a1 e4 0b bd 59 db b8 3e 8a 7f 7c 3c 70 42 0e bd
       -0.034153584 0.3610485 0.015411267 -0.03473133
000110 16 19 1b bc 8e 8c 55 3d 2d bd 3b bd 59 3e af be
       -0.00946643 0.052135997 -0.04583471 -0.34227255
000120 cd a0 8b bd 5b 6d c4 bc b9 0e d3 bd be 8b 04 3c
       -0.0681778 -0.023977926 -0.103055425 0.008089958
000130 27 8f eb bd fa 53 e1 3d df 0e 89 ba e9 80 9f 3d
       -0.115019135 0.110023454 -0.0010456702 0.077882595
000140 cd a9 a6 be bb df 20 bd 2b 6f bc 3c 0e b9 8f bd
       -0.32551423 -0.039275866 0.023002228 -0.07017718
000150 2a ff 2b bd f5 02 52 3d 60 37 04 be b6 9d cd be
       -0.04199139 0.05127235 -0.12911749 -0.40159386
000160 0b d1 7a 3e 8c 8a 75 3e 68 a0 2b 3c 8d c7 ac bd
       0.24493806 0.23978633 0.010475256 -0.08436499
000170 01 b2 22 3d e6 e5 26 3d 8b 35 31 bc 7a 12 f7 3c
       0.03972054 0.040746592 -0.010815988 0.030160177
000180 f7 3a b4 3c b7 64 98 bd 82 10 b1 3d 74 7f 8c bd
       0.022000773 -0.07441085 0.08645727 -0.06860247
000190 43 dd 57 3e 1b 5f cd 3c 01 bc f3 bc 70 e2 8f bd
       0.21080498 0.025069764 -0.029752733 -0.070256114
0001a0 e8 7b 92 3d 26 97 08 bd 17 c6 57 bd a9 bc c6 3d
       0.071525395 -0.03334727 -0.052679148 0.09703953
0001b0 e3 0a 26 bf 00 e0 ac 3c 53 2a 50 3c a2 28 06 3e
       -0.6486036 0.021102905 0.012705403 0.13101438
0001c0 97 ae 0e bd 02 53 9f bb 39 bd 6d 3d 57 54 a9 3c
       -0.03483447 -0.00486219 0.058041785 0.0206701
0001d0 9f b8 6a be 42 42 94 bc 07 7a e0 3b d5 dc b1 3d
       -0.2292199 -0.018098 0.0068504843 0.086846985
0001e0 d2 f9 1f 3d 10 c6 18 bf 7b b5 8f 3d a3 fe c8 bd
       0.039056607 -0.5967722 0.070170365 -0.09814193
0001f0 e5 8b 83 bd 35 53 f6 3e 26 80 99 3e b4 6f c8 bd
       -0.06423167 0.48110357 0.29980582 -0.09786931

actor.4.weight f4 [4, 128]
000000 6c 0f 1a 3b e4 83 53 3a 8d 1c 9c bd 48 45 b1 ba
       0.0023507727 0.00080686645 -0.07622633 -0.0013524676
000010 4c 6f a0 38 f6 76 2a bb 91 3d 08 3e 71 4d d9 3d
       7.650125e-05 -0.0026010848 0.13304736 0.10610474
000020 a4 b6 16 bb c8 3f a7 bc 37 bd fd bc da bd 73 be
       -0.0022997046 -0.020416155 -0.030974014 -0.23802891
000030 ce 8c 6b 3b 36 43 d3 3a 81 00 24 bb 72 0d 3c 3e
       0.003594208 0.0016118053 -0.0025024714 0.18364504
000040 e7 54 9b 3d 1c 2f 05 3c e7 13 78 3a 1b a5 62 bb
       0.07584553 0.0081289075 0.0009463415 -0.0034583274
000050 54 5e f2 ba 31 f3 f9 b9 d7 c7 4f bb ba f0 31 bd
       -0.0018491247 -0.00047674173 -0.0031704807 -0.043442465
000060 e7 79 a3 ba cb da e3 ba 5d 38 0d 3b c3 fc 92 bd
       -0.0012472243 -0.0017383931 0.0021548488 -0.07177117
000070 fa 6a 47 b9 04 08 25 3d 85 03 8a bd 01 aa de ba
       -0.00019017971 0.040290847 -0.067389525 -0.0016987921
000080 95 ca 6f ba 36 35 42 bd 90 f8 c3 ba f4 cb be ba
       -0.00091473135 -0.047414027 -0.0014951397 -0.0014556632
000090 b8 e2 1e 3a 4a 82 15 3b a6 5e 6e bd f9 cf 30 be
       0.00060610054 0.0022813254 -0.058195733 -0.17266835
0000a0 40 1e a1 3d e4 16 32 3a 55 d3 14 ba 9a a9 0e 3b
       0.07867098 0.0006793572 -0.0005677243 0.002176857
0000b0 9a 73 d1 bb 0d c7 17 bb 00 93 7f ba f5 b3 cd ba
       -0.0063919546 -0.0023159415 -0.0009749383 -0.001569389
0000c0 2a 37 d6 ba 96 26 7b bb ec ca 0b bb b4 91 31 be
       -0.0016343344 -0.003832256 -0.0021330668 -0.17340738
0000d0 9b a2 9c ba 8c 5b 10 be 22 3c a1 3d f5 b6 14 b9
       -0.0011950316 -0.14097422 0.078727975 -0.00014182537
0000e0 f7 63 11 39 ab 66 08 39 cb 80 20 3b 77 e9 84 ba
       0.00013865517 0.00013008218 0.002449083 -0.0010140379
0000f0 05 79 e0 ba 9d 62 3f 3b 41 4a 0c bb cd c5 46 3e
       -0.001712591 0.0029203065 -0.0021406563 0.19411393
000100 07 66 df b9 ef e6 83 3d cf 75 b5 ba 65 0a ed b9
       -0.0004260989 0.064405315 -0.0013844314 -0.00045211907
000110 2e 96 ff b9 6f ba 61 bb d2 6c 90 ba 1e f2 54 bd
       -0.00048749283 -0.0034443398 -0.0011018759 -0.051988713
000120 1b e1 16 3a 7d c1 58 ba e3 2a d3 3d d0 29 59 ba
       0.0005755589 -0.0008268578 0.10310914 -0.00082841236
000130 77 7f cb ba e9 91 28 bb 00 02 b6 3d d6 be fe bc
       -0.0015525658 -0.0025721735 0.088871 -0.031096857
000140 2f 2f e1 3d 6c c8 ae 3a b3 57 51 bb 5d b7 0f ba
       0.10995328 0.0013334877 -0.0031943142 -0.00054823403
000150 8e e0 b2 3a 5b 4a 25 ba bb 4e 9b bd 1b f0 e6 bc
       0.0013647245 -0.00063053303 -0.07583376 -0.028190663
000160 0f db f9 3d b2 68 7c 3e 87 82 6f bb 74 91 90 b9
       0.12199985 0.24649313 -0.0036546306 -0.0002757419
000170 eb 92 d2 b8 1e df 67 3b 5c cf 5b 3a 88 e1 b6 ba
       -0.00010040946 0.003538079 0.0008385086 -0.0013952712
000180 e0 8f af 39 c0 02 42 3b 29 c2 f3 38 75 46 36 bb
       0.00033485796 0.002960369 0.00011623308 -0.0027812992
000190 53 7a d4 bc 1d 59 b5 3a 1a e3 9e ba 38 57 cc 3a
       -0.025937235 0.0013835762 -0.0012122125 0.0015589958
0001a0 d5 7e e9 38 2a ff 59 3a f3 be c7 b9 03 a8 d5 bb
       0.0001113393 0.00083159155 -0.00038098506 -0.0065202727
0001b0 54 62 b6 be cc d6 08 3b 53 13 9f ba 5c 68 a8 3e
       -0.35621893 0.0020879982 -0.0012136496 0.3289212
0001c0 2b 4e f2 3d d9 9b 38 ba 2e a4 fc b9 80 58 1b 3b
       0.118313156 -0.0007042266 -0.0004818751 0.0023703873
0001d0 e6 4a d4 3d 19 e3 eb 39 8b 30 88 ba 4f a3 b1 3d
       0.10365848 0.00044991894 -0.0010390443 0.08673727
0001e0 a3 60 39 bb ef f5 fd bd d9 1b ac bd 8d da af bc
       -0.002828636 -0.12400424 -0.08403749 -0.021466518
0001f0 c7 43 4e bb 78 8d 94 bd b3 29 a5 bc 91 23 3b bb
       -0.0031473504 -0.072535455 -0.020161485 -0.0028555135
000200 0c d9 f5 b9 af ed 5c ba 35 a4 7b 3c 1c d8 5d ba
       -0.00046891754 -0.00084277516 0.015358974 -0.0008462684
000210 14 a6 c1 b9 e1 66 92 3a f1 c4 16 3d ba b4 f9 3c
       -0.00036935566 0.0011169576 0.03680891 0.030481685
000220 e5 24 1b 3a 5f f0 18 bd 7f 02 2e 3d 2c 30 09 bd
       0.00059182785 -0.03733861 0.04248285 -0.033493206
000230 69 e6 a9 bc 45 d0 db 39 57 56 50 3a ec fb 69 3e
       -0.020739751 0.00041926108 0.0007947436 0.22850007
000240 f2 c1 0c bc c0 aa 03 bd 1a 7c fc b8 db 1a c1 39
       -0.008591162 -0.03214526 -0.00012039412 0.00036831837
000250 45 e8 90 ba 17 fb b9 3a db 88 d0 3a 54 2f 80 bd
       -0.001105555 0.001418921 0.0015909927 -0.06259027
000260 37 8b a6 ba fc 96 21 3a e4 a1 a7 b9 df 3d f3 3c
       -0.0012706284 0.0006164161 -0.0003197334 0.029692588
000270 9e 98 77 b9 3b b7 f8 3d 2f ff f4 bb 95 fa 8e 38
       -0.0002361261 0.121443234 -0.0074767093 6.817762e-05
000280 de 60 0c 3a 87 59 69 bd e7 dc 27 ba 2b ff 6d b9
       0.00053550105 -0.056970146 -0.00064034614 -0.00022697139
000290 2d ae 4b 3a d0 21 a4 ba ad e4 f4 3b e3 18 8d 3b
       0.00077697897 -0.0012522284 0.0074735493 0.0043059452
0002a0 18 a3 59 3d 2f bd 95 ba 26 be 0c 3a 0e 59 99 3a
       0.053134054 -0.0011424179 0.00053689105 0.0011699514
0002b0 c2 23 84 ba c1 21 8d 3a ff 0e c5 3a 0e 05 6e 3a
       -0.0010081457 0.0010767506 0.0015034376 0.00090797327
0002c0 f8 8f 67 38 eb c5 b6 39 73 39 71 b8 13 7e b9 bd
       5.5208773e-05 0.00034861205 -5.751238e-05 -0.0905725
0002d0 70 4b 85 ba b6 45 af 3a 33 6a e6 3e e8 b0 f5 3a
       -0.0010169577 0.0013372216 0.450029 0.0018744739
0002e0 14 4f 3c 3a 16 41 87 ba 51 78 44 b9 32 99 ee b8
       0.00071834144 -0.001031908 -0.00018736838 -0.00011377259
0002f0 e9 dc 14 3a 52 f7 a7 b9 56 53 f2 b9 e1 e6 1f bc
       0.000567867 -0.0003203699 -0.00046219927 -0.009759636
000300 89 f7 32 b9 f7 0e c8 3b eb 07 c7 ba 5c 71 00 3a
       -0.00017067617 0.0061052996 -0.0015184855 0.00048997044
000310 15 f2 3d b9 6a 6d 7c 3a de 03 8c b9 1c a3 b2 bc
       -0.00018114627 0.0009629341 -0.00026705762 -0.021806292
000320 05 ee 7b b8 37 3a 12 39 f9 ae 52 3d f4 49 d8 ba
       -6.0064736e-05 0.00013945332 0.0514364 -0.0016501532
000330 68 2f 6b ba a4 9c a6 3a 12 5b 09 3c 82 2e 16 be
       -0.00089716027 0.0012711477 0.008383529 -0.14666179
000340 88 10 ce 3d f9 20 bb b9 3f 69 10 3a b8 f4 04 ba
       0.10061747 -0.00035691986 0.0005508847 -0.00050718663
000350 ec 9b 14 bb e4 3b 62 3a 5a 2a fe 3d b6 43 dc 3d
       -0.0022675944 0.000863014 0.12410422 0.10755102
000360 15 50 a8 3b 1d 39 00 3c 9b d3 31 3a c3 1f 97 3a
       0.0051364996 0.007826117 0.0006783546 0.0011529851
000370 f8 78 88 3a 60 35 0f b9 62 eb e0 b7 32 3b c0 39
       0.0010412028 -0.00013657426 -2.681249e-05 0.00036665198
000380 28 f8 ad 38 99 4f e6 ba ac 9e a4 b9 55 dd 62 ba
       8.2955055e-05 -0.0017571329 -0.00031398737 -0.0008654197
000390 58 4b 57 3c 71 27 9d 39 13 04 3f 38 f0 90 d8 ba
       0.013140522 0.0002997476 4.5541743e-05 -0.0016522687
0003a0 9a d7 08 ba 5b fc 70 ba 4c 6f 88 b9 2e a8 38 ba
       -0.00052201154 -0.00091928773 -0.00026022864 -0.00070441037
0003b0 73 12 19 3d 5f 38 c3 ba 69 fa 07 3a d9 6e 8a 3d
       0.03737111 -0.0014894119 0.00051871553 0.06759424
0003c0 a7 ca 53 bc a4 36 94 3a 4b 91 e4 b9 b5 d8 e8 3a
       -0.012926734 0.0011307788 -0.000435958 0.0017764779
0003d0 d0 85 35 bd ff ad 26 b7 1b 02 2d 3a 5e c7 90 3d
       -0.044317067 -9.934883e-06 0.000659974 0.07069276
0003e0 8b 51 84 ba 2c f5 3d bd 54 13 83 3d a1 df 18 bb
       -0.0010095102 -0.046376392 0.06400171 -0.0023326653
0003f0 6a 00 2d 3a 43 df f8 3d f2 53 5d 3d 1b 52 2a b9
       0.0006599488 0.12151959 0.054035135 -0.0001624305

actor.4.bias f4 [4]
000000 26 f8 f7 3e bc 35 d7 3e bf 14 ee 3e 0a e8 76 3e
       0.4843151 0.42033184 0.46500203 0.24111953

critic.0.weight f4 [128, 17]
000000 f0 79 34 be 7f 6f 15 c0 52 7c e8 bf 16 8f b7 3e
       -0.1762464 -2.3349302 -1.816294 0.35851353
000010 e4 88 57 3f 85 60 34 3f ae ae 8c 3d 2f 5f d2 3e
       0.84193254 0.7045978 0.06869255 0.41088244
000020 f7 f4 28 3f 17 51 02 3f 11 75 11 3d 76 4d 84 3f
       0.65998787 0.50904983 0.035512034 1.0336139
000030 f4 7e 2c 3f 46 fb c0 3d ea 66 70 3e 81 7d 1c 3e
       0.67381215 0.094229266 0.23476759 0.15282251
000040 0f ef 95 3c 3a 90 63 bf c9 b6 49 3f 1d d0 9a bf
       0.018302469 -0.8889195 0.78794533 -1.2094761
000050 31 98 dc 3e 4a 54 36 be 81 1f 8d 3f 30 24 06 3e
       0.43084863 -0.17805591 1.1025239 0.13099742
000060 1f a1 dd 3f 1a 89 c7 3d a7 1e 92 3f cf 70 4b 3d
       1.7314795 0.09742947 1.1415604 0.04966813
000070 54 ec bb be 8d 6c 6e be 4d 4c 4b bd 5a 29 64 bb
       -0.36703742 -0.23283596 -0.049633313 -0.0034814687
000080 6b bd 8a 3a f8 3e 8e 3d 73 39 db 3e ac d8 1c 40
       0.0010585015 0.06945604 0.42817268 2.4507246
000090 63 38 20 c0 52 3d 38 3d 3a 1f 7c 3e 6c 2f 3f be
       -2.5034416 0.044980355 0.24621287 -0.18670434
0000a0 cb a7 af 3c a9 93 a8 be fb 56 ac 3e a9 46 7a bf
       0.021442315 -0.32925156 0.3366011 -0.9776407
0000b0 ea 08 06 c0 9b 8d 28 be ba ef 77 bf 8a 5c 4b be
       -2.094294 -0.16460268 -0.9685017 -0.1985952
0000c0 87 bb 4b bd 1f a2 56 bd f5 62 02 3e 75 a3 91 bf
       -0.049739387 -0.052400704 0.12733062 -1.1378008
0000d0 77 97 93 40 08 44 8a bf e2 18 5e be 45 c4 02 bf
       4.6122394 -1.0802011 -0.2168918 -0.51080734
0000e0 2e 74 7e c0 40 61 da 3e 70 57 bc 3f 12 af a3 3e
       -3.975841 0.4265232 1.4714184 0.31969506
0000f0 32 9f 43 bb d4 c6 0d bd 45 b6 57 be e6 ec 3f 3e
       -0.0029849526 -0.034613445 -0.21065624 0.18742713
000100 06 83 f9 bc f7 63 33 be 7e 42 f5 bd 46 b1 88 bd
       -0.030457985 -0.17518602 -0.11975573 -0.06674437
000110 da fb b0 3f be a2 9a 3f 5a 6c 48 c0 4d 90 a6 be
       1.3826859 1.2080915 -3.1316133 -0.32531968
000120 71 c2 ee 3f a5 9f 11 be 2b 5b a0 bf ef 61 cb be
       1.8653089 -0.14221056 -1.2527822 -0.39723155
000130 f0 f3 48 3f 18 73 69 3f 9d 6d b8 3c 2d b3 a9 bf
       0.7849722 0.91191244 0.022513205 -1.3257805
000140 c0 58 29 bf cf f5 6e bd 02 12 02 3d 6f a8 aa 3d
       -0.66151047 -0.05833989 0.031755455 0.083329074
000150 31 a1 5d bd 0b 7e 1b c0 0d 87 90 bf e9 14 59 3e
       -0.054108802 -2.429568 -1.1291214 0.21199383
000160 3a d0 15 3e 54 e0 c5 be bb 78 b9 bf b6 86 f0 3e
       0.14630213 -0.3864771 -1.4489969 0.46977776
000170 f5 a4 70 3d 05 f0 46 be 83 9e 0a bf f6 10 1b 3f
       0.058751065 -0.19427498 -0.5414812 0.60572755
000180 e5 03 0a bf dd d2 4a bf 38 c7 40 be 6e 27 2b 3c
       -0.5391219 -0.79228 -0.18825996 0.0104464125
000190 5c d3 fd bc 27 cc 82 bd 46 03 ba 3e 1d fe 29 3d
       -0.030984573 -0.06386595 0.36330622 0.041502107
0001a0 d0 09 d5 3f a3 c9 7f bf 8d f4 51 40 47 b8 03 3e
       1.664362 -0.9991705 3.2805512 0.12863265
0001b0 9b 8d 9f 3e 88 62 cc bd a5 69 7f bf 88 6d 6b bf
       0.31162724 -0.09979731 -0.99770576 -0.91964006
0001c0 41 5b 9b bd cd 1e 3a 3e b5 77 f0 3e 52 b3 e3 bd
       -0.07585765 0.18175812 0.4696633 -0.11118187
0001d0 f4 ca 0e be b2 dc 73 bd fe d3 9f bb d4 c4 20 bf
       -0.13944608 -0.059536643 -0.0048775664 -0.62800336
0001e0 df 57 05 3f 28 f5 24 bf 26 34 ed 3a fa a8 81 3f
       0.52087206 -0.6443658 0.0018097206 1.0129693
0001f0 38 6a 31 3e 28 0c 35 bf dc 1b 20 3e 42 a7 c3 3e
       0.17325675 -0.70721674 0.15635628 0.38213545
000200 fe be 98 bf 53 b6 44 bf 8c a8 fd 3f 37 73 12 bf
       -1.1933286 -0.76840705 1.9817061 -0.57207054
000210 84 9e 36 3d 89 62 e9 bc 08 54 05 bc 9d 5d c4 3d
       0.044584766 -0.028489368 -0.00813771 0.09588168
000220 2b d2 63 3f 4d e8 95 bf 01 6f df c0 fb d6 e4 3e
       0.88992566 -1.1711518 -6.9823003 0.44695267
000230 92 fe 1a 3e 47 54 ba bd 7f 66 80 3e e3 0e 53 bf
       0.15136173 -0.09098106 0.25078198 -0.8244459
000240 bb d0 2d 3f 4c c5 01 3f cb 13 0f 3e e1 17 9e 3c
       0.6789662 0.50691676 0.13972394 0.019298496
000250 d4 8e 8a 3e 8c 8d 04 3e d9 64 94 3d df 4a be 3d
       0.27062094 0.12944621 0.07245798 0.09291624
000260 f7 b2 65 3e ea 38 56 bd 35 cd 1e 3f ed 50 ad 3f
       0.22431551 -0.05230037 0.6203187 1.3540322
000270 a1 d6 95 be 03 23 95 bf 91 74 b2 3e 70 92 c6 bd
       -0.2926531 -1.165131 0.34854558 -0.096958995
000280 22 bb b6 be b7 14 c2 bf e4 07 f0 be f1 21 84 3f
       -0.35689646 -1.5162572 -0.4688102 1.0322858
000290 e9 f0 16 3f a6 ca 06 40 b2 b2 67 3e c7 63 20 3e
       0.5896135 2.1061187 0.2262676 0.15663062
0002a0 0e 1e 91 3e 0f ca 03 3e 23 ad b6 3f 00 8d c8 bf
       0.28343242 0.12870048 1.4271587 -1.566803
0002b0 1c 92 c7 bf 64 e4 1d 3e ee 0a 88 bf 92 9f 6b 3f
       -1.5591464 0.15419155 -1.0628335 0.9204036
0002c0 12 75 08 3f 9c c1 d9 3e 41 47 3f bf 5e 89 a7 be
       0.53303635 0.42530525 -0.747181 -0.3272199
0002d0 98 d1 6c bf 87 d2 b6 3f 83 2b 34 bf 7a 8d c4 bd
       -0.92507315 1.4282998 -0.70378894 -0.09597297
0002e0 db a5 03 bd 2b 5d 2e 3e 5a 00 28 3d d6 09 c8 bf
       -0.032140594 0.17027728 0.04101596 -1.5628002
0002f0 bc 74 de 3e a1 21 3b c0 8e 6a 3b bf ad cd 88 3f
       0.43448436 -2.9239275 -0.73209465 1.0687767
000300 38 a6 a0 3f 18 78 e1 be 26 e9 7f bf ac c6 32 3f
       1.2550726 -0.44036937 -0.9996513 0.698344
000310 5b 46 05 bf e3 18 fa 3c d4 69 10 be a6 5e 91 3e
       -0.5206048 0.030529445 -0.1410287 0.28392524
000320 8e d9 e6 bd b2 00 07 be 55 c3 96 3d 2d ba fe 3d
       -0.11271964 -0.13183859 0.073614754 0.12437854
000330 dc 6f 53 be e3 99 f7 bf 31 1a 7f 3f 99 81 20 3e
       -0.2064814 -1.9343837 0.9964934 0.15674438
000340 45 f3 b6 be b0 46 f8 be 8c 78 82 3f 1d bc 0b 3f
       -0.35732475 -0.4849143 1.0193038 0.54583913
000350 73 bf 3a 3f c6 76 c0 be 24 94 22 c0 bb fe c2 3f
       0.7294838 -0.37590617 -2.5402918 1.5233988
000360 49 c2 c9 be 05 af cc bd 7a 0e 57 be 67 9b 8b be
       -0.3940604 -0.0999432 -0.21001616 -0.27267
000370 bc 07 17 be b3 e7 12 bf 81 6f 2b 40 40 c3 2c 3f
       -0.14749044 -0.57384795 2.6786807 0.6748543
000380 e4 c3 0c 3e b6 6e 96 3f bd cd d4 3f e3 a0 06 c0
       0.13746601 1.1752536 1.6625286 -2.1035697
000390 79 39 ae bf 0a 63 8f bf 26 ac f8 3e 27 7b e3 3e
       -1.3611289 -1.1202099 0.4856884 0.44429895
0003a0 4a 0c 88 be e9 9b c7 be e9 31 25 bd 2b cb 67 bd
       -0.26571876 -0.38986138 -0.0403308 -0.05659024
0003b0 5c 76 84 bd 65 57 ff bc 4d a6 11 3f 9c f0 96 be
       -0.06467888 -0.031169603 0.5689438 -0.29480445
0003c0 17 2e ab bf d6 88 62 bf ba 08 98 3f 7f 51 06 40
       -1.337344 -0.88490045 1.1877663 2.0987241
0003d0 53 e4 d7 3e 13 eb 8f 3f 81 a2 c4 be 05 2a 2d 3f
       0.42166385 1.1243614 -0.3840523 0.6764224
0003e0 26 f0 31 be 33 40 ed 3d ec 8e b1 be bb ba 7e bd
       -0.17376766 0.11584511 -0.34679353 -0.0621898
0003f0 b9 73 da bd 16 e0 72 3c 32 8f 25 bd 3b c6 cf be
       -0.106666036 0.014823934 -0.040419765 -0.40580925

critic.0.bias f4 [128]
000000 66 ba 84 3e 01 b3 12 3e 2a 8c 70 3e e9 a2 eb bd
       0.2592346 0.14326097 0.23490968 -0.11505682
000010 43 4c 54 be 71 68 25 bf 7f 14 02 bf c0 79 64 3e
       -0.20732217 -0.6461249 -0.50812525 0.22312069
000020 71 64 c6 bc a1 14 3b be b5 c8 5e be 91 95 92 be
       -0.024217816 -0.18269588 -0.21756251 -0.28629735
000030 f4 44 e2 bd 5d ea bf 3d c6 b6 3c bf 70 4b 55 3e
       -0.11048308 0.09370873 -0.7371639 0.20829558
000040 15 3c 20 be a3 ab 8c 3c 96 b0 90 3c 7a 97 f8 3e
       -0.1564792 0.017171687 0.017662328 0.48553067
000050 e3 71 f9 bc f5 f7 1b 3f b8 fb 1a bd 2a de b3 bc
       -0.030449813 0.6092523 -0.037837714 -0.021956522
000060 b1 da fb bd 0a f8 af 3d 76 7e 23 bb 58 ba 99 3e
       -0.122975715 0.085922316 -0.0024947203 0.30024981
000070 a8 ce fa bd 55 bc 7d 3d 7c 94 10 3e 4a fd a3 3e
       -0.12246448 0.061947186 0.14119142 0.32029182
000080 46 3b 21 be 97 f0 8c 3d 47 60 70 3d 7b 5e 5c be
       -0.15745267 0.06881826 0.058685567 -0.21520416
000090 98 79 5b be ca d2 f5 bd 7a 61 b0 be 6e 23 71 be
       -0.21433103 -0.120030954 -0.3444937 -0.23548672
0000a0 8a dd 8d 3e 33 5e 20 bc 6b 42 a8 be cd cf 9e bc
       0.27708083 -0.009788084 -0.32863173 -0.019386197
0000b0 72 22 34 be dc b2 5e 3e 3b ff 5c bd 17 d8 90 3d
       -0.17591265 0.21747917 -0.053954344 0.07072466
0000c0 ba 08 55 be c1 6f 44 be 48 32 36 3e 83 8d 1d be
       -0.2080411 -0.19183256 0.17792618 -0.15386014
0000d0 db 41 60 bd 77 a9 26 3d bd 52 0c 3e 9a a0 25 3f
       -0.054750305 0.040688958 0.13703437 0.64698184
0000e0 b3 ac b8 3d 57 af c7 be 29 b2 8b be 63 f7 4d bd
       0.09017315 -0.3900096 -0.27284363 -0.050284754
0000f0 8e 27 57 bd ad 50 21 be 08 0d 05 3d ea c5 9b 3d
       -0.052527957 -0.15753432 0.03248313 0.076061085
000100 c5 a5 48 3e 09 9e 87 be aa 42 4c be 26 70 a5 3e
       0.19594486 -0.2648776 -0.19947305 0.32312125
000110 d7 e8 a5 3c a1 db e1 bc 1c 41 3c 3d 8f be 02 be
       0.020252628 -0.027570548 0.04596053 -0.12768005
000120 78 ab 67 bd 65 f4 80 be 07 85 03 3e c2 e9 6f be
       -0.05656001 -0.25186458 0.12843715 -0.23429015
000130 ad 09 9c bd ac 1c 81 3d 7c 2b a2 bd 14 dd a4 3d
       -0.07619033 0.06304297 -0.0791845 0.0804998
000140 3d d7 d5 3d ae be 98 be 68 4c 83 3d 40 eb e7 3d
       0.10441444 -0.29832977 0.06411058 0.11324167
000150 e8 93 e9 bc f0 95 ce bd 92 76 f7 bd 6a 04 ce bd
       -0.02851291 -0.10087192 -0.12083162 -0.10059436
000160 e6 e1 d2 be 64 01 39 3e aa cb 54 3e d7 0b 96 be
       -0.41187972 0.18066937 0.20780817 -0.29305908
000170 91 59 b4 bd a2 f0 e4 bd a8 28 99 be ee f2 e0 be
       -0.08806146 -0.111787096 -0.2991383 -0.4393534
000180 00 52 55 3d 2e 69 8f 3e 6e fd 09 be 20 2f d0 3e
       0.052080154 0.28009933 -0.13475582 0.40660954
000190 52 b4 b1 be 89 a2 e4 3e 49 f7 88 3d c6 c0 85 bd
       -0.34707886 0.44655254 0.06687791 -0.06530909
0001a0 07 69 b0 3d d5 44 ac 3e 14 10 3c bc b8 de b9 bc
       0.086137824 0.33646265 -0.011478443 -0.022689208
0001b0 04 76 f9 3d 42 ba 22 bc 51 7d 35 bd a1 85 b7 3e
       0.12180713 -0.009932103 -0.044308964 0.35844138
0001c0 ef 0b ef 3e 3c 35 62 bc df 64 7b 3e 4f 1b cf 3e
       0.46688792 -0.013806637 0.24550198 0.40450522
0001d0 ba d7 87 be c1 85 1e bf b7 f3 00 be 86 27 c2 be
       -0.26531774 -0.6192284 -0.1259297 -0.3792078
0001e0 ca 6d 92 bd 70 e3 ed bd b6 d0 95 3c 7d 98 4c bd
       -0.07149847 -0.11615646 0.018287998 -0.04995011
0001f0 69 6e 93 bd 61 63 6b 3a 24 92 99 be 32 6e 08 bf
       -0.071987934 0.0008979347 -0.2999431 -0.53293145

critic.2.weight f4 [128, 128]
000000 83 3d f4 3b c1 dc 39 bd a3 58 e7 3d 07 26 1c be
       0.007453622 -0.045376543 0.11296203 -0.15248881
000010 4d ef a7 3e 17 3e 9e 3e 29 5c ae 3e 26 96 86 3e
       0.3279976 0.30906746 0.34054688 0.2628643
000020 4c 79 86 3f e3 d5 f5 be 3d 90 e8 bd b6 24 49 bf
       1.0505767 -0.48014745 -0.11355636 -0.7857164
000030 2d e6 57 3e 29 68 98 be 78 ed 62 3e f9 df 7c bd
       0.21083899 -0.29766968 0.221609 -0.061737034
000040 25 da 39 3f d3 67 ab 3e 78 f1 9c be d5 b0 7e bf
       0.7259849 0.3347765 -0.30652976 -0.99488574
000050 bf 2e cf bd fa 79 4f 3e 33 62 12 be bf a4 52 3f
       -0.10116338 0.20261374 -0.14295273 0.8228263
000060 07 99 58 bc 48 51 d4 3e 45 a1 6d bf e0 b4 ac 3e
       -0.013220078 0.41468263 -0.928242 0.33731747
000070 cb 1c 80 3e a5 c6 cc be 04 32 2c bf 66 cc 39 bf
       0.25021967 -0.39995304 -0.6726382 -0.7257751
000080 7c 53 c9 be a3 9b d6 bd 21 96 0f 3f 6c bf 69 bf
       -0.39321506 -0.10478904 0.56088454 -0.9130771
000090 07 56 92 bd 81 70 91 3e e4 3b 51 be e9 42 2f be
       -0.07145315 0.28406146 -0.20433003 -0.17115368
0000a0 80 d3 24 3e 8e 13 81 bd 53 ab 37 bd 8c 51 d8 3d
       0.16096306 -0.06302558 -0.044841122 0.10562429
0000b0 2e 70 20 bf 66 31 3e be 3b ca 60 bf 68 c0 d4 be
       -0.6267117 -0.18573532 -0.8780858 -0.41553044
0000c0 b3 41 d2 3e bf b0 85 be 9a eb e7 3d 0f c0 49 be
       0.4106575 -0.2611141 0.11324234 -0.19702171
0000d0 66 9f 8a be 55 c0 71 be 88 3f db 3e 78 d4 4c 3e
       -0.27074736 -0.23608525 0.42821908 0.20002925
0000e0 57 6c 82 be 2a a7 cf 3e 04 20 53 3f 37 b2 c5 3e
       -0.25473282 0.40557224 0.82470727 0.3861253
0000f0 c6 e5 85 3e a9 23 c1 bd 28 cb 59 bf 39 77 59 3f
       0.26151866 -0.0943063 -0.85075617 0.84947544
000100 90 22 03 bf c8 9b f4 bd e9 d1 e0 bf 83 67 94 be
       -0.51224613 -0.119437754 -1.756406 -0.28985223
000110 4d 56 ff be 17 8b 62 3d 76 6f d8 3e 88 77 50 be
       -0.4987053 0.055308428 0.42272538 -0.20358098
000120 d3 10 83 3e f0 14 51 be c0 bd 1c 3e 6a 46 12 3d
       0.25598773 -0.20418143 0.15306759 0.035711683
000130 3f d8 3b 3f b5 6d af be ab ed dd 3c 49 12 fa 3e
       0.7337684 -0.34263387 0.027090868 0.48842075
000140 87 d9 a9 be 37 38 0d 3e 52 32 b6 bd bf f0 99 bf
       -0.33173773 0.13790976 -0.088963166 -1.2026595
000150 f8 15 7e 3d 92 a0 d6 be ab fc b3 be 19 28 83 3f
       0.06203267 -0.4191938 -0.35153708 1.0246612
000160 4a e0 f4 3e d2 82 17 3f c8 58 bd be 7b 4e 94 3e
       0.4782737 0.5918399 -0.36981797 0.28966126
000170 83 ba 27 3f 9d f5 6a 3d cc fe 1a bf 78 d3 91 bd
       0.6551897 0.05736314 -0.6054504 -0.071204126
000180 f2 ea 38 be 1e c8 1a be 81 5e 65 3d f8 d6 4d 3f
       -0.18058375 -0.15115401 0.05599833 0.8040614
000190 19 58 65 be cd 98 87 3b aa 87 e8 3e dc 71 22 3f
       -0.22396888 0.0041380883 0.45416003 0.63454986
0001a0 1e f0 94 3e 51 7a 67 3f 22 d3 56 3f 5d 46 77 3e
       0.29089445 0.90421015 0.83915913 0.24147935
0001b0 3a 9c a0 be 2d 1a b7 3e 7b 1d 54 3e 03 4e 1d bd
       -0.3136919 0.35762158 0.20714371 -0.038404476
0001c0 62 33 10 39 40 68 93 3e 4b ca ce 3e fe 11 c2 bf
       0.00013752052 0.28790474 0.40388712 -1.5161741
0001d0 de 2b cb 3e 8a 28 48 3f 0c e2 e9 3e 54 86 9c 3d
       0.39681906 0.7818686 0.45680273 0.076428086
0001e0 ab 4c 2d bf c3 a3 0d bf b8 0a 98 3d 04 48 8b 3c
       -0.6769511 -0.55328006 0.074239194 0.017002113
0001f0 82 27 42 3f 15 9e 1b 3f 53 90 01 be c9 9c e5 3e
       0.75841534 0.6078809 -0.12652712 0.4484618
000200 3f de b8 be a7 2e 0f be 11 64 9e bd e2 19 81 3f
       -0.3610706 -0.1398264 -0.0773393 1.0086024
000210 ff 64 d5 bd 15 db 3d 3f 64 89 30 3e c0 df f9 bd
       -0.10419654 0.7416242 0.1723991 -0.1220088
000220 70 3d d5 be 3e 5c ef 3e 28 10 20 3e 94 75 6a bf
       -0.41648436 0.46750063 0.15631163 -0.9158566
000230 37 0d 18 bf ff d1 ee be d8 46 bd bc 74 61 b4 bd
       -0.59395164 -0.4664459 -0.02310507 -0.0880765
000240 75 76 d9 3e 18 f5 18 3e 9f 09 b4 3d f8 5d 8a 3d
       0.42473188 0.14937246 0.087908976 0.06756204
000250 4f 49 dc 3d b9 89 94 bd 8b e7 78 be 87 21 12 bf
       0.1075617 -0.07252831 -0.24307077 -0.5708241
000260 cd 56 14 bf 67 37 ce be 12 c6 de 3e 1f f9 e7 be
       -0.5794495 -0.40276644 0.4351049 -0.45307252
000270 e9 f6 35 bf c5 bb 63 3b 21 d6 53 bf 09 b5 2c 3f
       -0.7107988 0.003474937 -0.8274861 0.6746374
000280 62 7b 02 3e 3f 9d b8 be d5 e8 fa be 6c 2d f4 3e
       0.1274238 -0.3605747 -0.49005762 0.47690904
000290 80 d1 07 3f 6e eb ab 3d 5d e6 61 3e 36 72 d6 bd
       0.53054047 0.08394514 0.22060533 -0.10471003
0002a0 58 e4 a5 3e b5 a4 d3 3e a6 ec cc 3d 41 89 84 be
       0.32400775 0.413366 0.100060746 -0.25885966
0002b0 31 2d c1 be a8 8c 45 3e a9 db 20 be 57 71 84 3d
       -0.3772979 0.19291937 -0.15708794 0.0646693
0002c0 bb 6e 23 3f 7b bd df 3e b4 20 1a 3f 33 3d 5d 3f
       0.63840836 0.4369925 0.6020615 0.8642151
0002d0 4a 8a 90 3e 1c 24 7c 3e 8c ab 21 be 08 52 54 3e
       0.28230506 0.2462315 -0.15788096 0.20734417
0002e0 bb ed ab be 1c 0f 68 3d 17 79 b1 3e 2c d2 81 3e
       -0.3357981 0.056655034 0.34662697 0.2535566
0002f0 92 d6 95 be ee 9d 65 bf 9d 11 ed be 44 43 0d 3f
       -0.29265267 -0.89694107 -0.463025 0.55180764
000300 ef 30 32 bf 41 1a 36 be 0d 67 93 bd 3a 24 c4 3e
       -0.69605917 -0.17783453 -0.0719739 0.3830889
000310 42 f2 26 be f9 df ee 3e 09 b2 34 be 0e 02 f4 3d
       -0.16303352 0.46655253 -0.1764604 0.119144544
000320 a0 a8 bb 3e d6 52 c3 3e da 87 10 3f d8 c1 a8 3d
       0.36652088 0.38149136 0.56457293 0.08240098
000330 29 15 38 bf 84 6b c9 3e 19 b1 0a bf 25 94 0a bf
       -0.7190729 0.3933984 -0.5417648 -0.541323
000340 14 c8 81 3d 72 13 63 be 46 57 d1 be 98 cb ec be
       0.0633699 -0.22175387 -0.40886897 -0.4624908
000350 78 d0 90 bd 0b 51 b1 3e 2b b0 0e be d1 e3 4b bf
       -0.07071012 0.34632143 -0.1393439 -0.79644495
000360 85 4d 84 3e ae 0f 8c 3e 4f 9a 6b 3e a3 3e 9e 3e
       0.25840393 0.27355713 0.23008083 0.30907163
000370 60 97 6e be ea 49 5e 3e e4 6c c4 3e fd e5 82 3e
       -0.23299932 0.21707883 0.38364327 0.25566092
000380 0d 8a 84 be 8c 7e 89 3f 8e 7a 3b 3f 83 79 71 bd
       -0.25886574 1.0741744 0.7323388 -0.058953773
000390 e2 87 30 3f f0 8d 66 3e da c8 27 bf be a5 e1 3e
       0.6895734 0.22515082 -0.6554085 0.44071764
0003a0 d0 09 df 3e c9 d0 70 3e e7 02 c2 be 1a 1d 56 bf
       0.43562174 0.23517145 -0.3789284 -0.83638155
0003b0 ab a0 26 bd 32 b7 a7 be 41 ba 26 3e 6e 32 9f be
       -0.04068057 -0.32756954 0.16281988 -0.31093162
0003c0 35 e5 aa bc 35 30 64 3e c9 07 1b 3e 02 1d 3f bf
       -0.020861248 0.22284015 0.15139689 -0.7465364
0003d0 96 9a 39 be 80 da 05 3e 50 58 48 3e f7 4c 02 3e
       -0.18125376 0.13071632 0.19564939 0.12724672
0003e0 4f 5c 64 be 82 cd 2b bf 47 1c 22 3e 55 dc 43 3e
       -0.22300838 -0.67110455 0.158311 0.19127019
0003f0 d5 b7 4d bd d0 60 96 bd 93 4a 1b bf 90 bc 9c 3d
       -0.050224144 -0.07342684 -0.60660666 0.07653153

critic.2.bias f4 [128]
000000 ed 24 82 be 2e 7d 71 be 22 19 24 be da 9b de bd
       -0.25418797 -0.23582909 -0.16025212 -0.1086957
000010 8b f4 0b 3e 1b 77 1a 3f 02 34 73 3c 8f 0b 7a 3e
       0.13667504 0.6033799 0.014843943 0.24418472
000020 e1 31 18 be b7 6b 04 3e 4e 7f ef bd 09 aa ad 3e
       -0.14862777 0.12931715 -0.11694203 0.3391879
000030 2a 65 3e 3e 13 20 14 3f 48 36 a3 3e 9b 4a 84 be
       0.18593279 0.5786144 0.3187735 -0.2583817
000040 1e 1a 86 be c9 15 3b be a1 61 8b be 63 de 33 3d
       -0.261918 -0.18270029 -0.27222922 0.043913256
000050 f2 0b a8 be b8 17 88 be c8 27 93 be 52 20 e2 bb
       -0.32821614 -0.26580596 -0.28741288 -0.0069008255
000060 25 b6 eb 3e 02 db 9d 3f 19 e3 c3 bd be aa 19 be
       0.46037403 1.2332461 -0.095648 -0.15006539
000070 57 c5 cc bf 59 12 b0 be ca 49 9b 3e 13 97 74 be
       -1.5997723 -0.34388998 0.30329734 -0.23885755
000080 1a ae 0a be db 7f 16 bf f5 45 47 bf 16 da 43 be
       -0.13542977 -0.5878884 -0.7784112 -0.19126162
000090 0e a3 85 3d de 5b 02 3e be 6a 22 bf b2 c4 18 3c
       0.06525241 0.12730357 -0.63444126 0.00932424
0000a0 ee 0c ea be b7 d4 74 be 1c 2e ca 3e 03 e9 fb bc
       -0.4571299 -0.2390927 0.39488304 -0.030750757
0000b0 d3 20 92 3e 7b d7 9a bd a2 b6 71 bd 51 e4 55 3c
       0.28540668 -0.07560631 -0.059012063 0.013054923
0000c0 7c fe c9 be e1 46 1a be eb a7 3d 3e 49 bc a3 be
       -0.3945197 -0.150661 0.18521087 -0.31979588
0000d0 1e bd 7d 3e dc 21 99 3c b2 7e 49 3e f3 c3 92 be
       0.24779174 0.018692903 0.19677237 -0.28665122
0000e0 3d 45 f3 bc c9 f2 53 be f1 02 ed 3d 10 e8 7d 3d
       -0.029696101 -0.20698084 0.11572827 0.06198889
0000f0 09 37 7a 3d 4e 2e 96 3e 76 08 8d bd c3 c3 39 3e
       0.061087642 0.29332203 -0.068863794 0.18141083
000100 4b b6 bd be 0e a9 f7 be 4f d9 6d 3e 24 4b 5e be
       -0.3705314 -0.48371166 0.23227428 -0.21708351
000110 25 e9 74 bd 4b d1 53 be 14 6b a5 3d d6 fd f1 3c
       -0.059792656 -0.20685308 0.08077064 0.029539984
000120 69 77 8a be 80 b4 3e bd a6 db 97 3e aa 50 bf 3e
       -0.27044228 -0.046558857 0.29659766 0.3736623
000130 20 e8 b1 bc 47 fd a1 bd c4 fe bf 3e ea 0a a0 3e
       -0.021717131 -0.07909637 0.37499058 0.31258327
000140 a2 2b 58 be de d5 8e 3c 1c fe 1f 3d a4 5f d3 3d
       -0.21110395 0.017435964 0.039060697 0.103209764
000150 f1 b8 2d bf 1e 44 66 be ac 8e 7f 3e e5 4b 4b 3d
       -0.67860323 -0.22486922 0.24956769 0.049632926
000160 8a 3b 51 be 4b e9 37 bd fc f2 77 be 47 be 45 3e
       -0.20432869 -0.04490022 -0.24213785 0.19310866
000170 51 eb 80 bc 27 83 db 3b 46 33 e4 bd 98 8b 25 3e
       -0.015737208 0.006698984 -0.11142592 0.16166532
000180 95 93 17 3e 25 57 c5 be 0a 16 de 3d 4d f3 1e 3e
       0.14802392 -0.38543049 0.10844047 0.155225
000190 bc 70 ce bd 64 50 c3 3e 75 9b 00 3e 13 34 64 3e
       -0.10080096 0.3814727 0.12559302 0.2228549
0001a0 04 dc bc 3e e6 6b d5 3d aa ee 85 be 03 51 af 3e
       0.3688661 0.104209706 -0.2615865 0.34241495
0001b0 80 c9 20 3e 6d 66 25 be e0 23 44 bf 51 55 1e be
       0.15701866 -0.16152354 -0.7661724 -0.15462233
0001c0 dd 75 99 3c 87 5c 2e be 66 46 a9 bb cf 48 b7 3e
       0.01873296 -0.17027484 -0.005165863 0.35797736
0001d0 92 88 4a bd 89 93 b8 3e 75 d7 28 be e1 c3 1f be
       -0.04944665 0.3605006 -0.1648844 -0.15602066
0001e0 d2 8d ec bd 5b 56 89 be 5b 6d f2 3e 37 bd 92 3e
       -0.115504876 -0.26823696 0.47349057 0.28659984
0001f0 07 4c 05 3e 62 ff 49 3e dc c1 05 be 7a 5b ad bf
       0.13017283 0.19726327 -0.13062233 -1.3543541
