examples/drone/logs/drone-waypointing/model_0.pt (torch, 474554 bytes, 36 tensors)

std f4 [4]
000000 0d 36 7f 3f 13 5a 7f 3f ba f2 80 3f 89 b7 7f 3f
       0.9969185 0.9974682 1.0074074 0.9988943

actor.0.weight f4 [128, 17]
000000 ea 7e 53 be 73 9c 14 bd 69 5e 57 3e 98 3e 4c bc
       -0.20653883 -0.036282014 0.21032108 -0.012466095
000010 61 a4 6d 3d ee 9e d2 bd 99 0b 1e be 25 49 3d be
       0.058018092 -0.1028422 -0.15434112 -0.18484934
000020 a8 61 24 be 79 fe 15 3e bf 42 04 be ed 29 ac 3d
       -0.16052878 0.14647855 -0.12916087 0.08406434
000030 6a 1a 0a 3e 0d ed c3 3d 10 26 2c 3e b1 2a 77 3c
       0.13486639 0.09566698 0.16811395 0.015085862
000040 57 29 99 3d e6 7d 68 be b3 df 1c 3e df 0f fe bd
       0.07478588 -0.22704276 0.1531971 -0.12405371
000050 3a 06 55 3e 1f 41 87 bd 5d 53 69 be da 4e c1 3d
       0.20803156 -0.06604218 -0.22785707 0.09438868
000060 5d 0c 29 3e fd 69 03 bc 16 0c 63 3d 5c 03 21 be
       0.16508622 -0.008020875 0.055431448 -0.15723938
000070 13 63 25 be 33 ee 34 be ca ea 28 3e 86 fb 37 3e
       -0.16151075 -0.17668991 0.16495815 0.17967042
000080 b8 cd 18 3e 7a 04 28 3e 6a dc 5a 3d 83 de 13 bd
       0.14922225 0.16407958 0.05343286 -0.036100876
000090 17 19 4b be 12 33 a7 3d d6 16 dd 3d 76 e0 01 3e
       -0.1983379 0.08164038 0.10795371 0.12683281
0000a0 97 87 07 3d dc f6 37 bd 8b d8 e1 3d 5b cf 26 3d
       0.033088293 -0.044913158 0.110276304 0.040725093
0000b0 27 48 74 3e 32 af 87 3b d6 e9 fa bd 22 5e 01 3d
       0.23855649 0.004140758 -0.12251632 0.031583913
0000c0 e0 6c 1d 3d da 56 8a bc 99 93 19 3e d6 e7 1b be
       0.03843391 -0.016887117 0.1499771 -0.15225157
0000d0 f0 39 a2 bc ac 8d 18 be 47 d9 2c be 3a b4 26 be
       -0.019803017 -0.14897794 -0.1687976 -0.16279688
0000e0 a3 4a be bd d0 e9 a8 3b b7 22 28 3e 13 ce d8 3d
       -0.092915796 0.0051548257 0.16419493 0.105861805
0000f0 1f 25 4c 3e 87 7e 00 be 68 60 23 be f1 0a aa 3c
       0.19936036 -0.12548266 -0.15954745 0.02075717
000100 6a 99 5c 3e 08 af d3 3c 53 bb 2d be cb cb 3f 3e
       0.21542898 0.025840297 -0.1696599 0.18730085
000110 54 38 81 bc 54 c8 04 be 82 9a 4c be 8b 2c a2 3d
       -0.01577393 -0.12967044 -0.19980815 0.07918652
000120 f2 fd 0c 3e a3 c0 e3 bb b7 d5 0f 3e 49 a1 04 bc
       0.13768747 -0.0069504543 0.1404637 -0.008095094
000130 54 79 db 3d 4e b9 39 3e 1f ba 13 3d 30 5f ff 3c
       0.10716501 0.18137094 0.03606617 0.031173319
000140 6b b1 47 3e 58 10 70 3e 3f 43 07 3e 95 9d 87 bd
       0.19501273 0.23443735 0.13209246 -0.06621853
000150 f3 79 5c be ff 1d 28 be 44 c2 d5 bb 0c a4 5f 3d
       -0.21530895 -0.16417693 -0.0065234024 0.054599807
000160 75 a4 15 3e 92 ae 73 bd af 09 fd 3d 84 fc c5 bc
       0.14613517 -0.059492655 0.123553626 -0.02416826
000170 28 4e 06 3e 52 8e 26 be f9 dd 75 be bd af db bd
       0.13115752 -0.16265228 -0.24010457 -0.10726879
000180 53 86 39 3e ec d2 2c 3e 09 19 c8 3d d9 4d 83 bd
       0.18117647 0.16877335 0.097704 -0.06411333
000190 57 c9 d5 bd 7e 52 25 be 54 9f 2b 3e ad 4c 0f be
       -0.10438793 -0.1614475 0.16759998 -0.13994093
0001a0 6d 2c 34 3e b8 7c 39 be eb 04 63 3d b3 8b 5e 3e
       0.17595072 -0.18113983 0.055424612 0.21732979
0001b0 8e c1 58 be b9 e2 d5 bd 10 df 8d 3d 60 41 25 be
       -0.21167585 -0.104436345 0.069273114 -0.1613822
0001c0 66 e0 9c 3a fa 91 52 be 46 bd 19 be 4e 6f 35 3e
       0.0011968731 -0.20563498 -0.15013608 0.1771824
0001d0 fb ba 4d 3e 79 21 e8 bc da 48 20 be 5e 47 52 3e
       0.20090859 -0.028336274 -0.1565279 0.20535037
0001e0 55 87 a9 3d 74 62 53 bc 5f 87 1f 3c 8b 3c bf bd
       0.08277766 -0.012901891 0.009736865 -0.093377195
0001f0 a9 5e b2 bd 60 14 a3 bd 20 27 84 bc 89 9e af bd
       -0.08709461 -0.079628706 -0.016131938 -0.0857516
000200 9f 6e 2a be 73 a2 0b 3e dc 15 13 3e 51 31 97 3d
       -0.16643761 0.13636188 0.14363807 0.07382453
000210 f3 2e 82 3d 17 18 99 3d 4a 0f f8 3d 76 8e 96 3d
       0.06356611 0.07475298 0.12112291 0.07351391
000220 d8 06 fb 3d db 11 88 be 89 40 8b 3d cf 55 2e 3e
       0.12257165 -0.26576123 0.067994185 0.17024921
000230 87 80 5e 3e c3 b9 22 be da 99 d7 3d 87 78 13 3e
       0.21728717 -0.15891175 0.10527392 0.14401446
000240 5d 8c 15 be 8c 45 52 be 6a 27 93 3d e1 82 98 bd
       -0.14604326 -0.20534343 0.07185252 -0.07446838
000250 32 90 81 bd a5 31 03 3e bf 8a eb 3d 52 a1 49 3e
       -0.06326331 0.12811907 0.11501073 0.19690445
000260 fc 68 6a be 2f 77 20 3e c8 b2 2d be a4 4a 55 be
       -0.22891611 0.15670465 -0.16962731 -0.20829254
000270 fa 30 da 3c 4a 53 d6 3d 3a af 42 be ee 51 b9 3d
       0.026634682 0.10465105 -0.19012156 0.0904883
000280 75 03 74 3e e9 b0 5e be 4f c8 3b be 96 9b a1 bd
       0.23829444 -0.21747173 -0.1833813 -0.07891004
000290 a8 3f e4 3d da 1b 8d 3d 4e 56 f6 3d 61 98 61 bd
       0.11144954 0.06890078 0.1202818 -0.05507696
0002a0 8f e7 1c 3e 56 da 4a 3e 31 47 6e bd c8 06 ab bd
       0.15322708 0.19809851 -0.058173362 -0.08350903
0002b0 70 3b 3a be d8 e7 a8 bd a4 dd 0a 3d e5 f8 be bd
       -0.18186736 -0.08247346 0.03390278 -0.093248166
0002c0 c1 5d 6f 3d c7 51 10 bd 3e b4 93 bd b2 c2 89 bd
       0.05843902 -0.03523424 -0.07212113 -0.06726588
0002d0 00 64 69 3d 39 de 44 be 8f 24 32 be 95 44 3d be
       0.056980133 -0.19225396 -0.17396758 -0.18483193
0002e0 7f 46 9e 3d 4b f8 0c 3d f3 f9 38 be f4 37 68 bd
       0.0772829 0.034416478 -0.18064098 -0.056693986
0002f0 1e 1c 82 3e 43 90 5b 3e a5 57 4f 3e d4 80 37 bd
       0.25412077 0.2144175 0.20248277 -0.044800594
000300 40 f9 49 be 31 1e 50 3e 72 2b 55 3e 76 ce 0b be
       -0.19723988 0.20324017 0.20817354 -0.13652977
000310 be 69 25 3e 20 f5 b9 bd 65 f3 0d be 63 de 10 bc
       0.16153619 -0.09079957 -0.13862379 -0.008842084
000320 c8 d7 92 bd bb ee a6 3d 6c bb 93 bd ab cf 1e 3d
       -0.07170063 0.08151003 -0.07213482 0.038772266
000330 58 f4 1d 3e c5 fd 11 be de 0b 6e 3e 3d 57 ba 3c
       0.15425241 -0.14256962 0.23246714 0.022746677
000340 49 3d 50 bd ff 62 54 3c df f1 1a be f1 05 37 3d
       -0.050839696 0.012963056 -0.15131329 0.0446834
000350 b1 6d 16 be 8b 9e bf bd 2b 98 81 3c af 03 3f 3e
       -0.14690281 -0.093564115 0.01581963 0.18653749
000360 f6 ff 68 bd 23 0c ac bd d1 fc 23 3e 72 97 ca bd
       -0.05688473 -0.084007524 0.1601441 -0.09892167
000370 5f d4 1b 3e 38 5a 26 3d fe 81 46 3d 97 e4 b2 3d
       0.15217732 0.040613383 0.048463814 0.08735006
000380 1f 42 0b 3e d2 5c 53 be 98 eb 3b be df 9a 98 bd
       0.13599442 -0.20640877 -0.1835159 -0.07451414
000390 29 b7 1a 3e 8c 1b 0f be 9f 40 0e be 0b 2e a9 bd
       0.15108933 -0.13975352 -0.13891838 -0.08260735
0003a0 fb 71 4e 3c c6 93 64 3e e4 08 31 3d f5 50 d0 3d
       0.012600417 0.22321996 0.04322137 0.10171691
0003b0 f0 c3 c1 3d 9e 23 d1 bd 30 34 95 bc b0 75 1d 3e
       0.094612 -0.102118716 -0.018213362 0.15376925
0003c0 43 ad 93 bb fb 33 01 3e 73 e9 eb bd b6 f9 05 be
       -0.0045067384 0.12617485 -0.11519136 -0.13083538
0003d0 03 d0 f3 bc 5c f0 28 be 1c 17 6b 3e bf 58 42 3d
       -0.029762274 -0.1649794 0.22958034 0.047447916
0003e0 68 da 58 3e 9c ed 72 be 06 58 f1 3d 42 1e 1f be
       0.21177065 -0.23723453 0.11784367 -0.15538886
0003f0 3c 6c dc bd 8f ce 06 be 6e da 4b 3d 73 2b 13 bc
       -0.107628316 -0.13164733 0.049768858 -0.008982527

actor.0.bias f4 [128]
000000 54 42 cd bc 6d 56 d7 bd 0f 82 a3 3d df 01 07 be
       -0.025056042 -0.10514531 0.07983791 -0.13184308
000010 d3 d2 e5 3d ee 3f a6 3d 3b f5 0a 3e c2 8f f7 bc
       0.11221852 0.08117662 0.1357011 -0.030219916
000020 09 82 1d 3e 33 83 0c be 9a ed 5c 3e 99 65 0c 3e
       0.15381636 -0.13721924 0.21575013 0.13710631
000030 bc b3 a6 3c 5b 3f 31 be 87 1f 1b be e6 79 d4 bd
       0.020349376 -0.17309324 -0.15148745 -0.10374813
000040 14 26 0f be 54 12 59 be b3 08 50 3e cd 2f 1f be
       -0.1397937 -0.21198398 0.20315818 -0.15545578
000050 dc ac 1b 3e e1 84 d8 3d ca 25 30 be 42 d3 5c bd
       0.1520266 0.1057222 -0.17201915 -0.05391241
000060 da a7 1b be 49 87 47 3e b1 c4 5f 3e 18 2c a6 bd
       -0.15200749 0.19485201 0.21852376 -0.08113879
000070 7c c2 30 be df 3d 2b 3c af 76 a3 bb 6f 91 5e 3c
       -0.1726169 0.010451763 -0.0049885134 0.013584479
000080 87 95 ff 3d 62 4e 30 be fa 37 66 3c 84 90 91 bd
       0.12479692 -0.172174 0.014051432 -0.07107642
000090 51 a0 a5 3c 51 89 ae bd c7 fb b4 3d c7 ae 50 be
       0.020218046 -0.08522285 0.08837085 -0.20379172
0000a0 30 32 99 3d 73 02 0d 3e a9 bc 42 3c fe d6 d8 bb
       0.07480276 0.13770466 0.0118858 -0.006617426
0000b0 da 84 73 3e 96 f0 cf bd 02 75 6c be 69 9b d4 3b
       0.23781148 -0.1015331 -0.2309151 0.006488253
0000c0 58 ad 63 be 55 8c 3f be 72 bd 33 be 68 9b bd ba
       -0.22234094 -0.18705876 -0.17552736 -0.001446587
0000d0 e9 a9 1b 3e 54 40 46 3e bc 27 5e 3d 74 db 69 3d
       0.15201534 0.19360477 0.054237112 0.057094052
0000e0 32 d8 6b bc c9 7b fb 3d 16 57 ee 3d 38 bc 16 3e
       -0.014394807 0.122794695 0.11637704 0.14720237
0000f0 e0 8d 50 3e 2e d3 59 3e 70 e0 60 be db fa d8 3d
       0.20366621 0.21271965 -0.21960616 0.10594722
000100 d6 64 fb 3d 95 73 f9 3d 8b b8 8c 3c ef 62 0a bc
       0.12275092 0.12180249 0.01717784 -0.008446439
000110 0e d8 44 be 2f 3c 6f 3e ea e2 74 be e5 78 e6 bd
       -0.19223043 0.23362802 -0.23914686 -0.112535276
000120 1d 4c 03 3b 29 49 3e bd e8 3d 8d bd 10 4f 4c bd
       0.002003438 -0.04645649 -0.06896573 -0.049880087
000130 88 16 51 be 73 02 5e be db f7 33 be 73 40 bf 3d
       -0.20418751 -0.21680622 -0.17575018 0.093384646
000140 a1 46 31 3e 6d 6a d7 bd 23 9f e8 bd f9 47 86 bd
       0.17312099 -0.10518346 -0.11358478 -0.065566964
000150 fc a6 da bd 95 cd 1e 3e 7c 70 bc bd 25 16 bf 3d
       -0.10676381 0.15508111 -0.09201142 0.093303956
000160 fe 4b 52 3e 3e eb ff bd 55 d9 25 3e dc cd 8e bd
       0.20536801 -0.12496041 0.16196187 -0.06972858
000170 ef 42 d0 bd 61 ae 11 be fa a3 c7 3d 01 34 1f 3e
       -0.101690166 -0.14226677 0.09748073 0.15547182
000180 0c aa 89 bd b8 30 43 be 6f ff 31 be e7 a8 db 3d
       -0.06721887 -0.19061553 -0.17382596 0.10725575
000190 ef 7d 58 bd 1e 10 55 3e c9 e7 50 be 8c cc 06 be
       -0.052854475 0.2080693 -0.20400919 -0.13163966
0001a0 7f 25 40 be 5b c4 04 be 7d 9e c4 3d 7c 0b 10 bc
       -0.18764304 -0.12965529 0.09600542 -0.008791801
0001b0 f6 f9 e9 bd 90 2d ee 3d 4a c1 b4 3d b5 53 42 be
       -0.114246294 0.11629784 0.088259295 -0.18977244
0001c0 6e 68 29 be 82 98 db 3d 66 96 65 be 5d fa 5e be
       -0.16543743 0.10722448 -0.22420654 -0.21775194
0001d0 f2 ea 65 bd 5b d1 1a 3c 1a 89 1a 3e ab f9 ae 3a
       -0.056132264 0.009449328 0.15091363 0.0013349553
0001e0 15 b6 4c 3e a1 1a 28 be ab 8f 4e 3d 29 cf a7 bc
       0.19991334 -0.16416408 0.05042998 -0.020484524
0001f0 0c 66 1f be eb 31 3d 3e bd 09 5e 3e 65 8a 13 bd
       -0.15566272 0.18476073 0.21683402 -0.036020655

actor.2.weight f4 [128, 128]
000000 d5 df 12 bc ce 27 33 bd 3f b0 60 bd ac b3 50 3c
       -0.0089644985 -0.043739133 -0.05485558 0.01273815
000010 38 79 97 bd 53 3e 9b bd 00 f6 86 3b 22 5d b2 bd
       -0.073961675 -0.07580247 0.004118681 -0.0870917
000020 d5 5d a6 bd b5 dd 06 bd 73 46 71 bd c4 c5 1a ba
       -0.08123366 -0.03292628 -0.058905076 -0.0005904103
000030 4f fd 78 3d 7e 13 cc 3c 7d 72 a5 3d ec 29 e3 3b
       0.06078845 0.024911638 0.080784775 0.0069324877
000040 8e 60 93 bd 39 83 32 3d 65 0b 00 bd 5a 85 74 bd
       -0.07196151 0.043582175 -0.031260867 -0.059697486
000050 9b ef 67 bd 3d 53 bf bc 96 c3 c3 bc 7f 21 20 3d
       -0.05662499 -0.02335512 -0.023896974 0.039094444
000060 25 e1 8c 3d 9a 29 17 3c 3e ac 2b 3b 8f f6 95 3d
       0.068788804 0.009226227 0.0026195194 0.07322418
000070 3c 3c 0b bd 24 9b 81 bd fc af 88 3d cb 13 9a bd
       -0.03399299 -0.06328419 0.06674191 -0.075233065
000080 a9 b7 ed 3c 2d f5 4b 3c e9 05 79 3c ca 16 02 bd
       0.02901824 0.012448591 0.015199163 -0.031760015
000090 b8 c1 49 3d 72 92 8c bd fc 7a ab bc 2e b0 83 3d
       0.04925701 -0.0686387 -0.020932667 0.06430088
0000a0 28 c6 55 bd 93 d8 b6 bc f0 8a 84 3d 8d b8 5e 3d
       -0.05219093 -0.022320068 0.06471813 0.05437522
0000b0 3d 23 93 bd 42 97 ef 3c f8 9c a3 bd c7 f7 99 3d
       -0.071844555 0.02924693 -0.07988924 0.07517963
0000c0 fe 39 6d bd b2 1b 6a 3d 38 6e a2 3d be 5f b7 bd
       -0.057916634 0.05715532 0.07931179 -0.08953808
0000d0 24 57 5b bc 84 2b 6b bd e9 22 a4 3d c5 2d 95 3b
       -0.013387475 -0.057414547 0.08014471 0.0045525753
0000e0 5d 49 48 bd a6 b2 a7 bd 66 6d 14 3d 04 d0 74 3d
       -0.04889809 -0.08188371 0.036237143 0.05976869
0000f0 9a 9c 7f 3d 18 d2 a4 3c a9 9c 2b 3d 07 44 2a 3d
       0.062405206 0.020119712 0.04189745 0.041568782
000100 df 9a da bc d5 5a 73 bd b7 a2 0e bb 8e 0c 7c 3d
       -0.026685176 -0.059412796 -0.0021764466 0.06153541
000110 87 fd 0d bc c3 91 8b bd a6 62 68 3d d2 3f f5 bc
       -0.008666403 -0.06814911 0.056734703 -0.029937658
000120 5e cb a6 bc 51 4f ac 3d 6f 03 5f bd 13 ce 65 3a
       -0.020360645 0.08413566 -0.054446634 0.0008766364
000130 f5 95 86 3c 40 d9 20 3d ca c8 1f 3d 94 a6 ba 3c
       0.016428927 0.039269686 0.039009847 0.022784509
000140 78 c9 85 3d c1 14 7c 3c df c0 d1 bc 54 37 fd 3c
       0.06532568 0.0153858075 -0.025604663 0.030910172
000150 3c e6 a2 3c 84 56 66 bc eb 76 03 bd 9d 07 3e bd
       0.019885175 -0.014058713 -0.03209583 -0.04639398
000160 48 62 87 3c 6a 2d 90 bd af 39 e1 3c b8 6a a0 bc
       0.016526356 -0.07039912 0.027493326 -0.019582137
000170 0f d6 5d bd 6d 4f 8e 38 b6 14 1f bc a1 57 10 bd
       -0.05415922 6.785882e-05 -0.009709528 -0.03523982
000180 d2 69 30 3d 77 de a8 bd d4 37 d7 bc eb e2 4e bc
       0.043069668 -0.08245557 -0.026271738 -0.012627344
000190 7c cc a5 3d 46 68 06 bd e9 71 01 3d 84 ba a7 3d
       0.08095643 -0.032814287 0.031602774 0.08189872
0001a0 a4 64 5b 3c cf f1 08 3d a7 33 15 ba 25 b9 59 3d
       0.013390694 0.03343373 -0.0005691596 0.053155083
0001b0 de 85 cb bc 4f f2 05 3d 74 95 8c 3c 7c d2 63 bd
       -0.024844106 0.032701787 0.017161109 -0.055620655
0001c0 bd 60 17 3d 9d 3f 47 bc ef af 84 bd c4 63 ad 3d
       0.03695749 -0.012161163 -0.06478869 0.084662944
0001d0 db 9d 07 bd 8f 25 53 3d eb 27 24 3d d7 5e 13 bd
       -0.033109527 0.05154949 0.04007713 -0.03597912
0001e0 e3 3d 6e bd 22 0a 72 3d ba f9 43 bb be d6 7a 3d
       -0.05816449 0.059091695 -0.0029903487 0.06123995
0001f0 e4 a7 8c 3d 57 77 f8 3c a4 3e a0 3d 29 36 ab 3d
       0.0686796 0.030330343 0.07824448 0.083599396
000200 f0 5b 34 bd 17 dc 35 3c ea e7 8b 3d 1c ba e8 bc
       -0.04403299 0.011099837 0.068313435 -0.028409056
000210 7d c1 56 3d 3a 4c 07 bc 14 c4 23 bd 3c f1 19 bd
       0.05243062 -0.00825792 -0.039981917 -0.037583575
000220 4c da 60 bc 62 b5 8b 3d 58 87 86 3d d8 50 93 3d
       -0.013723921 0.068217054 0.065687835 0.07193154
000230 0d ae 97 3d 17 61 d9 bb 28 03 87 bd 59 68 89 bd
       0.074062444 -0.0066338885 -0.06592399 -0.06709356
000240 0a 2b 19 3d 15 1f e5 bc 50 61 70 bd 86 b5 9e bd
       0.03739456 -0.027968923 -0.058686554 -0.077494666
000250 29 e9 05 3c ad c5 60 3c e2 79 37 bd 08 e2 2b 3b
       0.0081732655 0.013719005 -0.04479397 0.0026227254
000260 f4 50 ae bd b1 3f 4b 3d ec bd 8f 3d 95 c5 35 bc
       -0.08511534 0.049621288 0.070186466 -0.0110944705
000270 a2 2f 02 3d c8 3b a6 bd 7b 95 8b bd 96 58 d0 3c
       0.031783707 -0.08116871 -0.068156205 0.025432866
000280 06 e6 89 bc c4 e8 3c bd e2 83 a1 bc 60 7e 1b 3d
       -0.016833317 -0.04612042 -0.019716207 0.037962317
000290 d7 70 99 3b 2b f8 20 bd ee 2c af 3d ae 24 4c 3d
       0.004682641 -0.03929917 0.085534915 0.049839668
0002a0 27 aa a5 3d a5 4f a8 bd 37 3b 00 bd 50 08 7a bc
       0.080890946 -0.08218316 -0.03130647 -0.015260771
0002b0 36 81 b4 bd a7 b7 1f bd 53 53 0b bd 08 32 82 3d
       -0.088137075 -0.038993504 -0.03401501 0.06357199
0002c0 37 33 99 3c ea 97 56 3d b7 2e df bc 08 68 0b 3d
       0.018701179 0.05239097 -0.027243955 0.03403476
0002d0 e1 45 49 bd 4e cf a0 3d 6e 3f 88 bd ad 0c 4d bd
       -0.049138907 0.0785204 -0.06652723 -0.050060917
0002e0 e2 27 a8 3d 78 f2 16 3c c6 14 ec 3c 2c 58 21 3d
       0.08210732 0.0092130825 0.0288185 0.039390728
0002f0 c8 50 ed 3c 9e 88 9e bb ea e3 a9 bd 73 02 60 3d
       0.028969184 -0.0048380634 -0.08295424 0.054689836
000300 e1 9c 25 bd bb e4 86 bd fe 69 52 bd ea fa 98 3d
       -0.040432815 -0.065865956 -0.051370613 0.07469733
000310 15 dc 9e bd ae ed 61 bc a5 03 a1 bd 8b e1 8a 3d
       -0.07756821 -0.013789577 -0.07862023 0.067813
000320 2b d3 9d 3d 4c d1 98 3c 0c d2 ff 3b 00 af 2c 3d
       0.07706293 0.018654488 0.007807022 0.04215908
000330 29 4c b3 bd 43 64 98 bb 71 a7 89 3d 50 f2 77 3d
       -0.08754761 -0.004650624 0.0672139 0.06053382
000340 84 9c ae bd 50 66 8d 3d 49 a6 a1 bd 95 99 18 3d
       -0.08525947 0.0690428 -0.078930445 0.037255842
000350 97 0a 66 3c 78 b5 47 bd c9 b7 40 3d b1 49 ab bc
       0.014040611 -0.048757046 0.04705027 -0.020909162
000360 71 eb 84 3d e8 c4 3f bd 35 81 8a bd 90 f1 85 3d
       0.064902194 -0.046818644 -0.067629255 0.06540215
000370 57 70 85 3c d6 16 97 3d 9b 85 8f 3d 18 3c 02 bd
       0.01628892 0.073774025 0.07007905 -0.03179559
000380 2b fc 07 bd 5a a3 df 3c 0b d6 0d 3d 86 d0 a8 3d
       -0.03319947 0.027299572 0.034627955 0.08242898
000390 37 eb fd bc ef df a0 bc 5c 6b b0 bd 5a d0 3a bd
       -0.030995948 -0.01963803 -0.08614227 -0.045608856
0003a0 d0 6b a0 3d 41 21 e0 bc f0 ce 15 3d 5d 5b 63 bd
       0.078330636 -0.027359607 0.036574304 -0.055507053
0003b0 6a 0f 9e bd 64 76 67 bd 9e e7 e4 3c c6 5f c0 3c
       -0.07717784 -0.05650939 0.027942475 0.023483168
0003c0 70 f0 08 3d ec c3 84 bd 41 a6 64 bd 05 49 87 3d
       0.033432424 -0.06482682 -0.055822615 0.06605724
0003d0 69 d8 a1 3d c6 f8 ac bd cb ee ac bd 98 c4 87 bd
       0.07902605 -0.08445887 -0.08443984 -0.06629294
0003e0 c6 0b fb bc 9a f9 61 bd dc 5c ef bc 64 db dc 3c
       -0.030645262 -0.05516968 -0.029219083 0.026960082
0003f0 e3 21 7c 3d f0 44 c5 bc a8 a2 6e bd 5d 47 16 3d
       0.061555754 -0.024080724 -0.05826059 0.03668915

actor.2.bias f4 [128]
000000 63 52 ea 3c c1 99 8f 3d ed 99 ae 3d 0e 35 8f bd
       0.028603738 0.07011748 0.08525453 -0.06992541
000010 61 fe 87 bd 73 11 83 3b 80 14 78 3d 6c e1 b0 3d
       -0.06640316 0.003999883 0.060566425 0.08636746
000020 77 04 94 bd ce 4b 0b 3d 4f 30 82 bd 5d 9e 8f bd
       -0.07227414 0.03400784 -0.063568704 -0.07012627
000030 5e 17 56 bd cb eb a1 3d be 7d a0 3c 8c 7a a9 3d
       -0.05226838 0.07906302 0.019591209 0.08275327
000040 da b2 8f bd 25 13 29 3c 9b 6f fb 3c c9 d2 12 3d
       -0.07016535 0.010319506 0.030692866 0.03584555
000050 b4 06 01 3d aa f7 5e bd e3 49 9d 39 d4 af 02 bd
       0.031500533 -0.05443541 0.00030000423 -0.031905964
000060 d0 ee 65 3d 73 16 8c 3d fd 1d a1 bc fd c2 9a 3d
       0.056135952 0.06840219 -0.01966762 0.07556722
000070 d6 c2 13 bd 26 a6 69 bd 89 70 e2 bb ea 50 1d 3d
       -0.036074482 -0.057043217 -0.006910388 0.038407244
000080 fe eb 94 bd f6 4e 83 bd 01 47 54 bd 14 0d 86 bc
       -0.072715744 -0.06411545 -0.051825527 -0.016363658
000090 08 c0 a5 bd 35 ff 88 3d 7a 41 88 bd b0 b0 96 3c
       -0.08093268 0.06689302 -0.06653114 0.018394798
0000a0 81 0e 06 bd a1 26 77 3d 30 ab 21 bd 32 97 de bc
       -0.032728676 0.060339574 -0.039469898 -0.027171705
0000b0 da 69 41 bd 8b d2 27 3d 99 06 87 bd 80 37 da bb
       -0.04722009 0.040972274 -0.06593055 -0.006659448
0000c0 29 da 7d 3d 0e 13 ad 3d e1 27 8b bd e3 cc 73 bd
       0.061975632 0.084509 -0.06794716 -0.059521567
0000d0 43 45 16 bc dc 26 99 bd 74 9b 3c bb e4 d7 81 3d
       -0.009171787 -0.07478115 -0.002877918 0.06340006
0000e0 a7 84 a1 3b 2f fa a9 3d 53 d1 8f 3d dd 94 52 bd
       0.0049291435 0.08299672 0.07022347 -0.0514115
0000f0 a4 cc 06 bc 1c d6 ae bb 0e 5c 2e 3d a3 d8 8b 3d
       -0.008227501 -0.0053355824 0.04256826 0.068284295
000100 35 d8 26 bd 62 a5 16 3d cc 92 90 3d 9c e0 b0 bc
       -0.040733535 0.036778815 0.07059249 -0.021591477
000110 d3 9b ef 3c d2 f2 1e 3d 38 d1 91 bd 18 74 59 bd
       0.029249107 0.03880579 -0.071199834 -0.05308923
000120 69 d5 37 bd 73 e4 7d 3c 73 76 04 3d 9d 2f 5c bb
       -0.04488126 0.015496361 0.032339524 -0.0033597716
000130 58 f8 81 bd 5d 50 a2 3d 69 4d fd 3c 70 31 64 bd
       -0.06346196 0.07925484 0.030920701 -0.05571121
000140 4c ef 17 bd bb 62 61 bd 06 d4 23 bd df 4c a6 bd
       -0.037093446 -0.055025797 -0.039997123 -0.08120131
000150 b8 76 cf 3c cd 9f ec 3c 39 e6 9b bc e6 0a 24 bd
       0.025325164 0.028884793 -0.019030677 -0.040049456
000160 09 68 9f 3d 81 bf 80 bd d0 15 be bc c7 cb 2c 3a
       0.07783515 -0.062865265 -0.02320376 0.00065916445
000170 00 1a c4 3b e1 aa 23 3d 13 9b a9 3c 4d 74 4b 3d
       0.0059845448 0.039957885 0.020703828 0.04967146
000180 3e 60 95 3d 81 60 c9 bc 97 fb 4a 3d 3e 61 93 bd
       0.07293747 -0.02458215 0.04955634 -0.07196282
000190 da 64 76 3c 92 43 49 3d 53 40 a2 bd 4c bc d5 ba
       0.015038693 0.049136706 -0.07922425 -0.0016306727
0001a0 d8 1b a5 3d d5 33 4c 3c 9f ab a0 bd 01 0f af 3d
       0.080619514 0.01246353 -0.07845234 0.08547784
0001b0 43 f2 e1 3b fc b6 70 3c 7d 5f 1c bc af 57 b9 bc
       0.006895335 0.014692064 -0.009544251 -0.022624819
0001c0 0e 77 97 bd 63 1e 89 bd d4 d4 76 3d bd 3b 1b bc
       -0.07395755 -0.06695249 0.060261562 -0.009474692
0001d0 eb 6a 2b 3c e5 5d fe 3c d5 57 a7 bd 6a 2c a6 bd
       0.010462503 0.031050632 -0.081710495 -0.0811394
0001e0 1b 2c 86 3d bf c0 03 bd 85 1d ba 3c db b7 a5 3c
       0.06551381 -0.03216624 0.022719154 0.02022927
0001f0 b2 6b 88 bd f9 76 52 3d d4 a6 38 bc d2 11 71 bd
       -0.06661166 0.051382992 -0.011270244 -0.058854885

actor.4.weight f4 [4, 128]
000000 76 d4 89 3d 58 6e 49 bd 50 e0 9d 3d ad ed d2 bb
       0.06729977 -0.049177498 0.077088 -0.0064370246
000010 60 c7 9a 3c 35 c8 a5 bb e9 e6 91 3d 48 e0 08 3d
       0.018893898 -0.005059267 0.07124121 0.033417016
000020 8b 6a a8 3d 6e c1 53 3d 04 1e c4 3c 30 a7 19 3d
       0.082234465 0.05169814 0.023940094 0.037512958
000030 7d 16 5b 3d 16 0d ab 3c d1 f1 65 3d 22 33 56 bd
       0.053488243 0.020880263 0.056138817 -0.052294858
000040 a0 3c 89 bd ed 16 73 3d 77 14 71 3d f4 1b 95 bd
       -0.067010164 0.059348036 0.058857407 -0.07280722
000050 6c 36 f1 3c 74 f4 d5 bc b2 bb 9a bd 5b 3d 73 3d
       0.029444896 -0.02611754 -0.07555331 0.059384685
000060 d9 33 e7 bc 6e 7e 03 3d af 84 03 bc c9 7d a2 bd
       -0.028222965 0.032102995 -0.00802724 -0.07934148
000070 12 f9 83 bd e9 37 bf bc 4d 4d 2d 3c 1c 9b 81 bd
       -0.06443991 -0.02334209 0.010577512 -0.06328413
000080 c2 8c 73 bd 0c 60 5b 3d 7b c3 0e 3d 7c b7 ed bb
       -0.05946041 0.053558394 0.034854393 -0.007254539
000090 3b 66 bf 3c 8a 6f 8a bd 7a fc c7 bc 5c a9 06 bd
       0.023364177 -0.06759556 -0.024412382 -0.032876357
0000a0 c5 f0 5e bc b3 f5 27 bd 52 2c ab 3d 2a c7 aa bd
       -0.013607209 -0.0410058 0.08358063 -0.08338769
0000b0 f0 1b 86 bd 0f 8c a3 3c 03 d9 0c bc 89 14 9f 3d
       -0.065482974 0.019964246 -0.0085966615 0.07767589
0000c0 8a 69 25 3d c1 97 dd 3c f8 1d 76 3d 6c 33 1a bd
       0.040383853 0.027049901 0.060087174 -0.037646696
0000d0 e2 f6 b8 3c b1 4e b5 bc 6d 22 96 bd 7f 94 83 3d
       0.02257866 -0.02213225 -0.07330785 0.06424808
0000e0 a9 57 68 bd 9b 35 03 3d e9 d4 9a bd 8a 43 59 bc
       -0.056724224 0.032033544 -0.07560141 -0.0132607315
0000f0 f7 f5 78 3b 3f b4 3f bc 44 61 53 3d b3 81 a5 3d
       0.0037988403 -0.011700689 0.05160643 0.08081379
000100 1a 75 d7 3c 3a b4 26 bd b0 6a 75 bb da 1e 50 bd
       0.026300956 -0.04069922 -0.0037447624 -0.050810672
000110 a9 91 8f 3d 2e ea 81 3d d8 4b 8d 3d bd 16 95 bd
       0.07010204 0.06343494 0.06899232 -0.072797276
000120 14 51 11 3c e1 9d 20 bc 44 4a 87 3b 8c e7 85 bd
       0.008869428 -0.009803266 0.004128726 -0.06538305
000130 f6 8b 38 bd 65 a7 93 bc b7 01 8a bd a9 6f 75 bd
       -0.045055352 -0.018024156 -0.06738608 -0.05992094
000140 d8 ff 3f 3d b6 22 89 3d 3c 8a 41 bd bb 77 48 bd
       0.04687485 0.06696074 -0.04725097 -0.04894231
000150 25 3c 80 bd 99 79 f9 3b 88 52 7a bd bf bd 43 bd
       -0.06261472 0.0076133725 -0.061113864 -0.047788378
000160 70 b6 a7 3d 9a 6c 8b 3d 07 37 66 3d 66 4f 01 3d
       0.08189094 0.068078235 0.056204822 0.03156986
000170 dc 4b 78 bc eb c1 51 bd 7a 25 15 3c fe ec 92 bd
       -0.015154805 -0.051210325 0.009103173 -0.07174109
000180 80 13 88 3c 35 5b a2 3d 3a db 81 3d 63 13 8b bd
       0.01661086 0.079275526 0.06340642 -0.06790807
000190 b3 15 0e bd f0 bd b0 bd 70 21 2e 3d 07 16 95 3d
       -0.034688663 -0.08629978 0.042512357 0.07279592
0001a0 24 38 a3 3d e6 de e6 3c 34 50 2f bd 73 2b 4a bd
       0.07969692 0.028182458 -0.042801097 -0.049357843
0001b0 b8 0f a2 bd fa 88 aa bc 3e d2 b6 bd 0a 3b 24 bd
       -0.07913154 -0.020817269 -0.08926819 -0.040095367
0001c0 ff 33 a1 3c 44 33 9c bb 6d c3 0c 3c 52 45 81 3d
       0.019678114 -0.0047668535 0.008591515 0.0631205
0001d0 d5 70 a0 bd d8 85 42 bd d0 16 70 bd 2b 84 94 bd
       -0.07834021 -0.047490925 -0.058615506 -0.072517715
0001e0 59 b9 00 3d 62 6c 69 bd 37 16 8b bd f9 7c 76 3d
       0.03142676 -0.056988128 -0.067913465 0.060177777
0001f0 9f 00 81 bd ff 84 59 bd 79 ef 34 3d 67 3d 65 bd
       -0.062989466 -0.05310535 0.04417369 -0.05596676
000200 3c 2a 6f bd 2d 09 68 3d 69 16 ab 3d 7d be ca bc
       -0.058389887 0.056649376 0.08353884 -0.024749035
000210 b8 ab a7 3c fe 9f 9e 3d bd f2 b0 3d 15 22 8c 3d
       0.020467624 0.0774536 0.08640049 0.06842438
000220 8d f7 85 bd b6 02 83 bd 41 09 11 3d fd 0f 26 bd
       -0.06541357 -0.063970014 0.035409216 -0.04054259
000230 df 2e 13 3d 9e e9 14 bd e3 1b 71 bd c8 18 ac 3d
       0.03593337 -0.036355607 -0.058864485 0.08403164
000240 94 d5 81 bd c0 56 14 bd fc bd cf 3c c2 d7 ab bd
       -0.06339565 -0.036215544 0.025359146 -0.08390762
000250 92 22 3c 3c ca 26 14 bd 5f e0 59 bc 90 63 89 3d
       0.011482852 -0.036169805 -0.013298123 0.06708443
000260 53 d9 d6 bb eb cd 84 3d 0d 76 9a bc 46 25 25 bd
       -0.006556669 0.06484588 -0.01885512 -0.04031875
000270 a0 d4 05 3d ea 8a c0 bc 51 8f 68 bd 11 d9 fa 3c
       0.032673478 -0.02350374 -0.056777302 0.030621083
000280 5d f7 2d 3d 6e 34 9c bd 1c c2 33 bd 0a 0f 88 bd
       0.042472232 -0.07627188 -0.04388629 -0.066434935
000290 e5 11 31 3d 87 ca 81 3c 0a 8d 22 3d 9f 38 94 3d
       0.043229956 0.015843643 0.039685287 0.07237362
0002a0 7e e5 2d bd b2 3f 99 3d c7 ad ad bc 47 15 0d bd
       -0.04245519 0.07482852 -0.021201028 -0.03444412
0002b0 5e 91 30 3d c7 d6 f7 bc f7 24 c9 ba 94 3c 3e 3d
       0.043107383 -0.030253781 -0.0015346099 0.04644449
0002c0 e7 4d c6 3b 4f e5 8a 3d 9c bc 3e 3d fd a7 a9 bd
       0.006051767 0.067820184 0.04656659 -0.08283994
0002d0 e4 11 c3 3b 86 a0 70 3b 7e 65 97 3d 7d 12 90 3c
       0.0059530605 0.0036716773 0.07392405 0.01758694
0002e0 4c b7 6a bd 91 22 80 3d 05 33 81 3c 49 00 73 3d
       -0.05730371 0.06256593 0.015771398 0.059326444
0002f0 c1 ce 98 3d b8 e5 94 bd a2 24 0d bd 4c 7c aa 3d
       0.0746131 -0.07270378 -0.034458764 0.08324489
000300 23 7b cf 3a c5 95 96 3d 6f 96 4a 3d 59 1d a8 3c
       0.0015829544 0.07352785 0.04945987 0.020521807
000310 89 3d c5 bb df 3f 69 bd 9a 43 19 3d 8b ea 06 bd
       -0.0060192985 -0.056945678 0.037417985 -0.03293852
000320 4b be d7 bc 31 de 5a 3c 51 6c 5e 3c 26 5a 29 bd
       -0.026335856 0.013358639 0.013575629 -0.041345738
000330 87 30 64 bd c6 25 16 3d d4 16 a4 3d 00 64 8f bd
       -0.05571034 0.036657117 0.080121666 -0.07001495
000340 12 26 22 3d fa b3 44 bd 83 9d ad ba e5 ac 84 3d
       0.039587088 -0.0480232 -0.0013245795 0.064782895
000350 de 35 5d 3b b2 fe a7 3d 70 8f f4 bb 04 6f 08 3c
       0.0033754031 0.08202876 -0.007463388 0.008327249
000360 4c e9 e5 3c 78 7e 5b bd d8 79 9d bd a0 c4 85 bd
       0.028065346 -0.053587407 -0.076892555 -0.06531644
000370 40 e3 85 bc b2 19 8d bd fd 72 c5 bc 67 e5 75 3d
       -0.016343713 -0.068896666 -0.024102682 0.06003323
000380 e8 ae de 3a 47 3f 49 bd 2c c2 f5 bc 59 bb b4 bc
       0.0016989382 -0.04913261 -0.029999815 -0.02206199
000390 a4 91 c3 3c 11 7c ea bc 67 22 0b 3d 4b bd 18 3d
       0.023873158 -0.028623613 0.033968356 0.0372899
0003a0 8d eb 79 bd 5f 2a 81 bc 60 19 3c bd 35 4c 83 3d
       -0.061015654 -0.015767274 -0.045922637 0.0641102
0003b0 6b 30 76 bd 13 15 47 3c 29 0f d7 ba 12 c8 93 3d
       -0.06010477 0.012151021 -0.0016407716 0.07215895
0003c0 57 f6 19 39 c5 77 14 bc 22 8f ec 3c de c9 17 bd
       0.00014682986 -0.009061758 0.028876845 -0.03705775
0003d0 b8 7d eb 3c 98 a7 71 3d f1 14 a2 bd 86 73 4d 3d
       0.02874647 0.05899772 -0.079141505 0.050159
0003e0 a9 f4 94 3d 6a 83 25 bd 93 27 22 3c 01 a7 81 bd
       0.07273228 -0.04040853 0.009897131 -0.063306816
0003f0 e1 e7 8b bd 78 ee 73 3d fb b2 a9 bd 32 de 50 3d
       -0.06831337 0.059553593 -0.08286091 0.050993152

actor.4.bias f4 [4]
000000 35 48 84 bd cf 0b 7f bd 54 8a e5 bc 62 b9 9e bd
       -0.06459085 -0.06226712 -0.028020062 -0.07750203

critic.0.weight f4 [128, 17]
000000 2b a7 64 bd 04 63 2d be 51 f0 ed bd 4d 80 01 bc
       -0.055823486 -0.16932303 -0.11618102 -0.007904124
000010 49 cc c3 3d 18 c7 f6 bd 7c a0 64 3e cb fb 3f be
       0.09560449 -0.12049693 0.22326845 -0.18748395
000020 0b 40 48 3c 53 a6 3a 3e 08 05 36 be c8 b7 46 3e
       0.0122223 0.1822751 -0.17775357 0.19406044
000030 68 86 39 be 67 47 ae bd ab 17 35 3c 6c 00 d8 bc
       -0.18117678 -0.08509713 0.011053006 -0.026367389
000040 bd fd 16 be 4c c0 00 be da f3 9e 3b ce 62 6b 3e
       -0.14745231 -0.12573355 0.0048508467 0.2298691
000050 cf d6 5c 3e 1f 69 13 be 40 de 36 bc ed 79 dc 3d
       0.21566318 -0.1439557 -0.011161387 0.10765443
000060 0b 27 61 be bf de 0d 3e 2a 34 38 3e 3b 5c d8 3d
       -0.2198755 0.13854502 0.17988649 0.105644666
000070 a6 03 22 be e7 b6 0d be f7 db 12 be b4 c3 c8 bd
       -0.15821704 -0.13839303 -0.14341722 -0.098029524
000080 ae 58 37 be e2 1c 48 3e 48 ad b5 3d be 01 9f 3d
       -0.17904922 0.19542268 0.088709414 0.07764004
000090 68 45 59 be c4 fc ff 3d 51 c1 57 3e 2d ec 07 3e
       -0.21217883 0.12499383 0.21069838 0.13273688
0000a0 91 15 69 be ad a6 ca bd f2 74 08 bd aa 99 49 be
       -0.22762133 -0.09895072 -0.033314653 -0.19687524
0000b0 61 ab 8d bd 8c 0f 05 bd 32 bf 0c be 1f 08 53 be
       -0.069174536 -0.03248553 -0.1374481 -0.20608567
0000c0 6b 07 0b be dd a0 bb bd 4f fa 67 3d 35 0d cb bd
       -0.13577048 -0.091615416 0.056635197 -0.099146284
0000d0 22 2a 33 3e a5 2a 86 bd 9f bc ca 3c 0d c0 42 be
       0.17496541 -0.065511025 0.024748145 -0.19018574
0000e0 30 e0 f4 3c 65 b0 a3 3d 2d 28 17 be 2c 12 6b 3e
       0.029892057 0.07992629 -0.1476142 0.22956151
0000f0 7f 3b 74 3d b8 4b 85 bd b0 69 02 3e 02 72 4e be
       0.059627052 -0.06508583 0.12735629 -0.20160678
000100 da 75 6d 3e e5 8b a5 3d 90 25 27 3e fe 78 20 be
       0.23189488 0.080833234 0.16322923 -0.15671155
000110 64 12 55 3d ba 8d 06 3e 68 d5 68 be 0e ee 29 be
       0.05201949 0.13140002 -0.22737658 -0.16594717
000120 9b 52 3b 3e 23 59 08 3e 85 ec 40 be 21 e4 11 3e
       0.1829323 0.13315253 -0.18840225 0.1424718
000130 6f 36 b6 3d a0 a4 13 3e 19 20 14 be 1c 8a 64 be
       0.08897101 0.14418268 -0.1446537 -0.2231831
000140 20 04 0a 3e 12 e4 0c be 69 87 92 3c dd 40 05 3e
       0.13478136 -0.13758877 0.017886834 0.13013025
000150 d7 8e 2c be ef 6a 09 3e ad 5f c8 bd e3 3f 40 3d
       -0.16851364 0.13419698 -0.09783874 0.046935927
000160 56 14 5c 3e a8 1b 0f 3e 91 b1 46 be 28 84 fa 3d
       0.21492133 0.13975394 -0.19403674 0.12232238
000170 07 19 d3 3a 39 67 1d be 82 60 a9 3d 71 ee de 3c
       0.0016105481 -0.15371408 0.082703605 0.027213307
000180 e4 aa 0e 3e 2f f8 4d be 1b 5c 07 be 60 47 51 3e
       0.13932377 -0.20114206 -0.13218729 0.20437384
000190 63 c9 c1 3d 81 cd d8 3d 38 88 33 be c2 09 7f bd
       0.094622396 0.10586072 -0.17532432 -0.062265165
0001a0 85 22 a8 3d 79 67 48 be e8 bf f6 3d 8b cb 11 3e
       0.08209709 -0.19570722 0.12048322 0.14237802
0001b0 7b 9e 01 3e 7a 97 0e be 23 4a 05 be a0 0d 08 be
       0.12658112 -0.13924971 -0.13016562 -0.13286448
0001c0 0e 60 f2 3d de fb 01 3e d5 ad 14 3e 4e 80 2e 3e
       0.11834727 0.12693736 0.14519437 0.17041132
0001d0 85 36 ac bd 2c d1 6c be 24 3a 22 3e e1 fc 2f be
       -0.08408836 -0.23126668 0.15842491 -0.1718631
0001e0 76 58 06 bd 19 11 54 bd 14 a2 60 be 05 6e 23 3e
       -0.032799207 -0.051774118 -0.21936828 0.15959938
0001f0 3f 7b 1d 3e 16 e4 b1 bd 46 ec 07 3e 15 9f 81 3c
       0.15379046 -0.08686082 0.13273725 0.015822927
000200 a2 96 29 be 8b 4c ea 3c 0d 51 57 3e 02 0b 0b be
       -0.16561368 0.028600952 0.21027012 -0.13578418
000210 97 25 0b 3d 6e 92 66 bd 3b 73 d2 bc 18 ab 9d bd
       0.033971395 -0.05629199 -0.025689712 -0.07698649
000220 f6 6f 2f 3e c0 21 16 bd dc bd 88 be c3 93 a3 3d
       0.17132553 -0.03665328 -0.2670735 0.07987168
000230 da c6 61 be 21 12 68 3e 14 74 44 3e 8b 91 00 3e
       -0.22048512 0.22663166 0.19184905 0.1255552
000240 4a 58 9e 3d 23 64 30 3e 23 3c 44 be fd 88 ef bc
       0.077316836 0.17225699 -0.19163565 -0.029240126
000250 a5 ab 4a 3e 72 87 e2 bc 47 97 68 be e6 9e 48 be
       0.1979204 -0.027652476 -0.22713958 -0.19591865
000260 a1 4a 84 3d 9a bc 4e 3e 74 f6 3e 3e 74 89 59 bd
       0.06459547 0.20189133 0.18648702 -0.0531096
000270 cc 0e 4d be 75 94 38 3e 5f 35 1f bd 46 f1 2d be
       -0.20025176 0.18025382 -0.038869258 -0.1698657
000280 90 c7 8c 3c d3 e1 f0 3d 25 42 14 be 5d fa e6 3d
       0.017185003 0.117618226 -0.14478357 0.11278222
000290 76 cf 61 3c b1 ba 67 3e 96 fa 93 bd 4e fe b2 bc
       0.013782373 0.22629811 -0.0722553 -0.021849778
0002a0 3d aa 66 3e 0b c2 1d be 5c ed 0b be 1f b7 8d 3d
       0.22525878 -0.15406053 -0.13664764 0.06919693
0002b0 3d c4 44 be 00 ed 42 3e ed 84 5c be ec 88 8d bd
       -0.19215484 0.19035721 -0.21535082 -0.069108814
0002c0 17 11 6a 3e 65 69 a0 bd 91 55 06 3d fb 36 11 be
       0.22858082 -0.078326024 0.032796446 -0.1418113
0002d0 c0 b5 2a be 6b ee 96 bd ca 13 2c bd e9 ad 4f be
       -0.16670895 -0.07369693 -0.04201106 -0.20281185
0002e0 90 23 37 3d c9 77 65 3e a8 f2 13 bb b0 59 5d be
       0.04471165 0.22408976 -0.0022575054 -0.21616244
0002f0 fe ed 1e 3e 56 e9 5c be f9 4d 47 be 88 ae 43 3e
       0.15520474 -0.21573386 -0.19463338 0.19109547
000300 a4 21 f8 3d c7 aa 12 be 94 26 5e bb 21 62 61 be
       0.121157914 -0.14322959 -0.0033897506 -0.2201009
000310 b3 36 53 3a 49 2b a1 3c 68 25 48 be 4d ae d3 3d
       0.0008057162 0.01967396 -0.1954552 0.103359796
000320 be f4 b1 bd b3 87 4b be 17 d0 7f 3e 07 63 55 3e
       -0.08689259 -0.19875984 0.24981724 0.20838557
000330 6c b6 93 3d 48 0e 15 be ce 59 b8 3d 1d 00 6c bd
       0.072125286 -0.14556229 0.09001504 -0.057617296
000340 d8 32 97 3c 44 61 2b be 33 b9 34 bd 40 a1 27 3e
       0.018456861 -0.16736323 -0.044121932 0.16370106
000350 13 d3 67 3e 7f bb 2f bd 64 a8 43 be ee d4 f5 3c
       0.22639112 -0.04290342 -0.19107205 0.03000876
000360 4a a2 95 3d dd cc 4f 3e 6b ae be 3c a9 ea 84 bd
       0.07306345 0.20292993 0.023276528 -0.064900704
000370 3e df 12 3e 82 cd dc 3d 20 b8 95 3e 9f b2 d7 bd
       0.14342973 0.10781385 0.2924204 -0.10532116
000380 3e 71 0e 3e 70 5c de bd 48 06 a1 bd d1 8e 37 3e
       0.13910386 -0.10857475 -0.07862526 0.17925574
000390 f9 83 32 be ec 9e 1e 3e 2f b9 7d bd a5 f3 66 be
       -0.17433156 0.15490311 -0.061944183 -0.2255388
0003a0 3f 89 1b be ca e4 4c bd aa 7c 20 be b7 a6 e8 bc
       -0.15189074 -0.050022878 -0.15672556 -0.028399808
0003b0 ae 3a aa bd 13 d8 28 be de ca 57 be fa 29 30 3e
       -0.083119735 -0.16488676 -0.21073481 0.17203513
0003c0 bf d0 4b be 26 65 15 be 0f 91 41 3e 33 02 36 3e
       -0.19903849 -0.14589366 0.18902992 0.17774276
0003d0 ba 7e 21 3d 5e cf 81 3e aa 15 25 be 1d de 0d 3e
       0.039427496 0.2535352 -0.16121545 0.1385426
0003e0 e6 00 d2 3d a6 b3 59 3e ff 77 3c be be 96 78 3e
       0.102540776 0.21259937 -0.1840515 0.24276254
0003f0 dc 16 61 3d 04 74 0a bd a0 d2 f8 bd b1 de 6a 3e
       0.05495344 -0.033802047 -0.121495485 0.22936513

critic.0.bias f4 [128]
000000 66 a4 72 3d 71 30 29 3e 38 bc c1 3d c0 08 2e 3d
       0.059238814 0.16522385 0.09459728 0.042488813
000010 d5 23 5e be af a1 39 be 99 ad 6b be 8d fd 0a 3d
       -0.21693356 -0.18128084 -0.23015441 0.03393321
000020 90 e1 72 be 07 cf 36 be bf ff 5b bd 36 b8 f3 3d
       -0.23718858 -0.17852412 -0.053710695 0.1190037
000030 2c 09 8f bd 11 2c 0a be ed 4c 65 be ef ea 60 3e
       -0.06984171 -0.13493372 -0.22392626 0.2196462
000040 a0 30 bb bd 8d 98 70 be 12 18 26 bd 09 68 4f 3e
       -0.09140134 -0.23495694 -0.0405503 0.2025453
000050 b3 d2 03 be b4 7c 68 3e 30 c9 06 3e ed c1 5d be
       -0.12873344 0.2270382 0.13162684 -0.21656008
000060 aa 2e 9d bd 15 b2 65 3e 25 19 86 3d 6f dc 23 3e
       -0.07674916 0.22431214 0.06547765 0.16002057
000070 11 2d aa bd 88 72 28 3e 6d 8f fb 3d 98 58 5a 3d
       -0.08309377 0.1644994 0.12283216 0.053307146
000080 8d bd 5f 3e f8 7c 1a 3e b7 88 5e 3b 66 b8 5f be
       0.21849652 0.15086734 0.0033956 -0.21847686
000090 67 b5 6a be 04 01 8c 3d 23 88 0c be 15 7c 1e be
       -0.22920762 0.06836131 -0.13723807 -0.15477021
0000a0 d6 3f 30 3e c2 84 60 be 34 a8 5f be 7a 3c b0 bd
       0.17211851 -0.21925643 -0.21841508 -0.08605285
0000b0 c1 4e 73 bd b9 af 55 3e de 1d 84 3d 11 90 cb bd
       -0.059401277 0.20867814 0.06451009 -0.09939588
0000c0 d8 0a 35 be 9b 19 47 bd a1 be b6 3c dc 8e b0 3c
       -0.17679918 -0.048608404 0.022307696 0.021552496
0000d0 8b c6 26 bd e4 bc 60 be c0 6a 25 3e f3 ff 7d bd
       -0.04071669 -0.21947056 0.16154003 -0.06201167
0000e0 51 9e 5b be ed cd cb bd b1 f2 0d 3e bb 6b 1c be
       -0.21447112 -0.099513866 0.1386211 -0.15275471
0000f0 70 79 7f 3c da c3 3a be fe f6 bd 3c a3 45 34 3c
       0.015592918 -0.18238774 0.023189064 0.011002931
000100 c5 52 0a be a5 48 4b be 1a 87 84 3d 98 b0 58 3e
       -0.13508137 -0.1985193 0.06471081 0.21161115
000110 aa d5 d3 bd 1f a9 55 be 2f 14 42 3e 12 44 8e bb
       -0.103434876 -0.20865296 0.18953012 -0.0043416107
000120 1c 59 53 be 25 e3 11 bd a6 ac 2d 3e 68 97 f8 3d
       -0.20639461 -0.035617013 0.16960391 0.121382535
000130 b5 ba 04 be 84 e7 00 3e 03 d8 3e 3e 12 6d 3c 3e
       -0.12961848 0.12588316 0.1863709 0.18400982
000140 15 5c 8c 3c ab 78 2b be 27 50 d7 bd 57 c2 c8 3d
       0.017133752 -0.1674525 -0.10513335 0.098026924
000150 fa cd e3 bc aa ee 25 bd df 23 63 3d 02 d8 35 be
       -0.027808178 -0.04051081 0.05545413 -0.17758182
000160 ad 6c 5f bd dd 62 e9 3d fd ff 46 be e1 b4 e2 3d
       -0.054547 0.1139581 -0.1943359 0.11069656
000170 3a c5 98 bd 8c 6e 3f 3e c9 c3 6a be de b4 26 be
       -0.07459493 0.18694514 -0.22926249 -0.16279933
000180 16 c9 cc bd 1d fc 6f 3e b0 7e cd bd 5f c4 2c 3e
       -0.099992916 0.23436017 -0.10033929 0.16871785
000190 b4 37 ef bd 28 5f 60 3e bd 6c ad 3d c9 13 d9 bd
       -0.116805464 0.21911299 0.08468006 -0.10599477
0001a0 f4 f4 f1 3c 13 a3 17 bc e9 a6 9e 3d eb 26 fd bc
       0.029535748 -0.0092551885 0.07746679 -0.030902347
0001b0 34 af 22 3e e9 cd b2 3d 79 18 2c 3d 96 1b 5e 3e
       0.15887147 0.087306805 0.042015526 0.2169021
0001c0 2c 85 39 3e e8 10 df bd d5 5f 84 3d 95 ef 31 3e
       0.18117207 -0.108918965 0.06463591 0.1737655
0001d0 65 69 5d be b1 ef 10 be 3e 98 0c be 05 42 30 be
       -0.21622236 -0.14153935 -0.13729951 -0.17212684
0001e0 91 71 01 3e c0 4e b9 3d eb c1 0a 3e 82 44 4b be
       0.12640978 0.090482235 0.13550536 -0.19850352
0001f0 91 af 28 bd 5e ec 1a bd 5c 80 49 be 2e 3f 9c bd
       -0.04118306 -0.037823074 -0.19677871 -0.07629238

critic.2.weight f4 [128, 128]
000000 97 9e 93 bc 59 44 01 bb a2 0c 40 bd a0 73 5e 3b
       -0.018019957 -0.0019724576 -0.046887048 0.003394343
000010 4b aa 80 3d 80 6b 47 3d 61 6f 8a 3d ee 1b 44 3d
       0.06282481 0.048686504 0.06759525 0.0478782
000020 70 45 6d 3d 2f cf 95 bd 69 c4 a6 bd 6e 73 77 bd
       0.05792755 -0.07314908 -0.08142931 -0.060412817
000030 15 97 a7 bc 26 8d 3f bd 7e 0a 91 bd a6 e4 99 3d
       -0.020457784 -0.04676547 -0.07082079 0.07514314
000040 ef 28 49 3d 09 e9 8c bd 70 05 ee 3c 11 7a fc 3c
       0.049111303 -0.068803854 0.029055327 0.030819925
000050 a8 2d ad 3d 53 25 1f 3d 0f 39 81 bd 11 eb 1d 3d
       0.08455974 0.038853955 -0.06309711 0.038554255
000060 eb be 3c 3d 1f 39 f1 3b 09 c7 5c bd f3 77 00 bb
       0.04608051 0.0073615457 -0.053900752 -0.0019602745
000070 00 ab 60 3d 43 95 8e bc a3 4f aa 3d df e3 a8 bd
       0.05485058 -0.017405158 0.08315971 -0.08246588
000080 65 92 98 bc d7 1a 89 bd 7b c6 ed bc 73 a1 86 bd
       -0.018624494 -0.066945724 -0.029025307 -0.06573763
000090 1a 58 51 3d 83 90 99 3d f0 9a 7a bd ad f9 10 3c
       0.05110941 0.074982665 -0.061182916 0.00884859
0000a0 a3 c8 81 3c a1 00 35 3d 63 e2 f4 3c cc f6 1a bd
       0.015842741 0.044190053 0.029893106 -0.03783302
0000b0 73 1e 97 bc ef 40 1a 3c 96 9e d5 bc 18 3a ca bc
       -0.018447137 0.009414895 -0.026076596 -0.024685904
0000c0 88 c8 54 bc 52 4d b5 3d d7 73 2e 3d 8b 6c 11 3d
       -0.0129872635 0.08852638 0.042590942 0.035503905
0000d0 fb 54 6e 3d 5d d2 98 bd ed 87 ab 3d 06 7f 73 3d
       0.058186512 -0.074619986 0.08375535 0.05944731
0000e0 88 55 ef bc 25 70 a0 3d 41 15 65 bd fc 6d 91 bc
       -0.02921559 0.0783389 -0.055928472 -0.01775264
0000f0 b5 97 88 bd 23 84 21 bd 85 1b 48 3d 86 8c 73 3d
       -0.06669561 -0.039432656 0.04885437 0.059460185
000100 84 88 4a 3d c3 e1 a6 3d aa f3 18 bd 69 70 a4 bd
       0.049446598 0.081485294 -0.03734175 -0.08029253
000110 86 24 3e bc f9 a3 96 bd d6 05 4e 3c 2d 2f 68 bd
       -0.011605388 -0.07355494 0.012574634 -0.056685615
000120 3b 95 9e 3d 96 b0 fb b9 d1 5f 88 3d a7 a9 6e 3d
       0.07743307 -0.00048006017 0.066589005 0.05826726
000130 a5 40 e5 bc 16 51 fd 3c a1 78 b0 3d ea 24 0e bd
       -0.027984926 0.030922454 0.08616758 -0.034703173
000140 65 51 4f bc 72 62 47 3c 4f cc 8d 3c a4 ae 40 bd
       -0.012653683 0.012169467 0.017309336 -0.04704155
000150 b8 01 88 bc 93 3a f9 3c dc 52 3e bd ba b5 02 bd
       -0.016602382 0.030423438 -0.04646574 -0.03191159
000160 1c 01 27 3c 47 e7 56 3d a8 15 1d 3d 1d 1e 9f 3d
       0.010193136 0.052466657 0.03835073 0.077694155
000170 0f 71 c6 bc a7 43 8b bb 50 5f 97 3c 04 5d a7 bd
       -0.024223832 -0.004250008 0.018478066 -0.08172038
000180 91 a7 9f 3d 65 dd 80 bd 11 c4 20 3d 67 66 a3 3d
       0.07795633 -0.06292228 0.039249483 0.07978516
000190 74 41 36 3d bd b5 29 3d d7 5d 88 bd 28 da 20 bd
       0.044496015 0.041433085 -0.066585235 -0.03927055
0001a0 3d 53 81 b9 72 eb 6c bc ef 91 86 3c 0e d7 00 bd
       -0.00024666815 -0.014460431 0.016427008 -0.031455092
0001b0 55 64 88 bd db 9f 93 3d bb 22 66 bc 94 6b 3f 3c
       -0.06659762 0.072082244 -0.014046366 0.0116833635
0001c0 b0 35 87 bd 28 59 35 3d 01 2b 13 3d 4d 13 68 bc
       -0.06602037 0.04427448 0.035929684 -0.014164758
0001d0 7f 66 41 3c 6f 4f 51 3c 8d 8c 56 3d 60 ce 95 3d
       0.011804222 0.012775286 0.052380133 0.073147535
0001e0 03 99 a5 bd fb 27 1e bd df 42 00 3c 60 81 93 3d
       -0.08085825 -0.038612347 0.007828443 0.07202411
0001f0 34 cb 43 bc dc 7e 9f 3d 66 d9 af 3d 70 c1 37 bd
       -0.011950303 0.077878684 0.08586387 -0.04486221
000200 c4 5f 85 bd d9 1c a7 bd b3 3c 58 3a 64 56 63 bc
       -0.065124065 -0.08159799 0.0008248791 -0.013875578
000210 22 84 eb 3c 6b 62 a4 bc 68 ed 36 bd e6 b5 f5 bc
       0.02874953 -0.02006646 -0.044660002 -0.029993962
000220 dc c1 9a bd fb 92 83 3d 51 13 22 bd 66 73 85 bd
       -0.07556507 0.06424519 -0.039569203 -0.06516151
000230 70 cd 71 3b a2 84 20 bd 69 e1 8c bd df 28 0a bd
       0.0036896132 -0.03918899 -0.06878931 -0.033730384
000240 0a 66 ed 3c c0 07 8d bd 1e ae c1 bd ac 97 ac bd
       0.02897932 -0.06886244 -0.09457038 -0.084273666
000250 3f 4a a2 bd 21 ee a8 bc 34 eb bc bc 2e fb 16 3d
       -0.079243176 -0.020621361 -0.023061372 0.036860637
000260 25 f4 1a bd e5 fb a9 bd c6 3f b9 bc ad 5f 9f bd
       -0.03783049 -0.08299998 -0.022613417 -0.077819206
000270 45 15 95 bd 8c df a5 3c 24 78 ba bd f0 60 5e bc
       -0.072794475 0.020248197 -0.09104946 -0.013572916
000280 24 05 6d 3b 4f ac bd bd c3 0c 81 bd 3f 1a 8d 3c
       0.0036166394 -0.09261381 -0.06301262 0.01722443
000290 5c bc b1 3c 13 1a 91 3d 6d e5 7c bd ce 14 88 bd
       0.021696262 0.070850514 -0.061742235 -0.06644593
0002a0 24 ce bb bd 04 d2 dc bb be 05 50 bc ff 0f 2f 3d
       -0.091701776 -0.006738903 -0.012696682 0.042739864
0002b0 0d 0d 4e 3d 1e b4 08 3c 31 db 99 bc 7d 6e d1 3c
       0.050305415 0.0083437245 -0.018781276 0.02556538
0002c0 cb 0f 71 bd be 96 01 3d 8f 8d 40 3b 07 7c 73 bb
       -0.058852952 0.0316379 0.002938125 -0.0037152783
0002d0 e6 33 2a 3c 6d 9e 3f bd 1b e3 a2 bc 2f f0 aa 3d
       0.01038835 -0.046781946 -0.019883683 0.08346593
0002e0 71 b4 73 3d 1e fb 9c bd c8 1d c0 bd b2 6d 91 bd
       0.059498254 -0.07665084 -0.0938068 -0.07101001
0002f0 9a dc 41 3d a3 77 4a bd e9 08 39 3d 44 1e f4 bc
       0.047329523 -0.0494305 0.045174513 -0.029799588
000300 6b 14 5f bd 70 6e cd bc e7 50 32 bb cb 43 a8 bc
       -0.05446283 -0.025077075 -0.0027208866 -0.020540139
000310 75 de 71 3d 28 b2 42 bd 09 ce 2f 3d ad e9 ab 3d
       0.059050042 -0.047533184 0.0429211 0.083941795
000320 13 6d 92 3d df 80 76 3c 43 d3 9d 3d 1d ea 69 bd
       0.071497105 0.015045374 0.077063106 -0.057108033
000330 01 8f 62 3d e4 64 3e ba b3 af a5 bd a8 fd 0b bd
       0.05531216 -0.00072629587 -0.080901526 -0.034177452
000340 a4 2d b7 3c 5e 50 a3 3d 27 82 8f 3d 87 67 60 bd
       0.02236063 0.07974313 0.070072465 -0.05478623
000350 6e a5 63 bd 0f 7a f2 bc b0 ea 57 bd 3f b8 b2 bd
       -0.055577688 -0.029599218 -0.05271405 -0.087265484
000360 51 c8 60 bd be b7 2a bd e8 6e 9e bd 0f d8 41 bd
       -0.054878537 -0.041679136 -0.077359974 -0.04732519
000370 d1 d2 21 bd 75 cf 8f 3d a5 c9 9d 3d 1b 4d 6f bd
       -0.03950769 0.07021991 0.07704476 -0.058423143
000380 6e 3d 54 bd 0c c1 90 bd 66 c6 73 3c 93 3a 37 bd
       -0.051816396 -0.07068071 0.014878845 -0.044733595
000390 62 cc 9f 3d a4 6f 9b bd 54 df 8e bd e8 88 50 3d
       0.07802655 -0.07589653 -0.0697619 0.050911814
0003a0 8f 3d 9a bd 82 58 ed 3c f3 91 68 bd 59 c2 06 3d
       -0.075312726 0.028972868 -0.056779813 0.032900188
0003b0 a1 36 2c 3d 27 82 ad bd 98 2b 71 bd be 41 40 3d
       0.042044286 -0.0847209 -0.058879465 0.046937697
0003c0 1f e5 4b 3b 34 de 34 3d d9 a0 a3 3d ad 32 45 3a
       0.0031111909 0.044157222 0.07989664 0.0007522505
0003d0 17 8d ae bd 9b af 88 3d c4 a7 2b bd c7 0a da bc
       -0.085230045 0.06674119 -0.04190804 -0.026616467
0003e0 93 16 01 3d d1 8c 73 3d 02 b4 88 3d 4c 74 71 bd
       0.03151567 0.059460465 0.06674959 -0.0589488
0003f0 ed df 88 bd cb 76 8d 3d d8 5c ff bc dc b2 ab 3d
       -0.066833355 0.069074236 -0.031172201 0.08383724

critic.2.bias f4 [128]
000000 4b f0 a0 3d c1 af 47 3d 96 87 7a bd c0 c1 12 bd
       0.07858332 0.048751596 -0.06116446 -0.035829306
000010 8b bb 31 3d 50 73 b5 3d 28 92 1f 3d 9a 02 97 3c
       0.043391746 0.08859885 0.038957745 0.018433858
000020 b7 0c 0c 3d 8f 3e fe bb fc ec 94 bd f7 d1 e1 bc
       0.034191813 -0.0077589224 -0.07271764 -0.02756594
000030 e3 a2 06 3d 44 43 db bc 7a b9 b1 3d 7a 14 8e 3b
       0.032870185 -0.026765473 0.08677955 0.004335937
000040 b5 56 15 3d 3c 86 af bc 13 15 15 bd 9f ce 6f bd
       0.036459643 -0.021426313 -0.03639705 -0.05854666
000050 6d cf 31 bd ae 7f db 3c 43 bf a2 bd 53 5a 72 bc
       -0.043410707 0.02679428 -0.079466365 -0.014792043
000060 a7 a2 11 3c 5c 4f a3 3d e7 32 8d 3d 62 82 c9 bc
       0.008888877 0.07974121 0.068944745 -0.024598304
000070 aa 0f cb bc 09 48 11 3c 6b 28 39 3c 24 f4 fa bc
       -0.024787743 0.008867272 0.01130114 -0.030633993
000080 fd 79 a1 ba 78 33 dd 3c 9d a5 ac bd c6 fa e4 bc
       -0.001231968 0.027002081 -0.08430026 -0.02795161
000090 4a 58 35 3d b4 06 09 bd cb 08 a1 bd c5 ac 5e 3c
       0.044273652 -0.03345366 -0.07863005 0.013590996
0000a0 42 86 74 bd a2 c6 ad bd a6 d6 af 3d 77 62 53 3d
       -0.05969835 -0.08485152 0.08585863 0.051607575
0000b0 48 34 3d 3c f6 a7 b2 3a 8c 51 59 bd f0 da b9 bc
       0.011548109 0.0013630379 -0.053056285 -0.022687405
0000c0 a6 e0 81 3d de 94 05 bc 51 44 30 3d a1 dc 7b bd
       0.063416764 -0.0081531685 0.0430339 -0.061489705
0000d0 a5 a1 61 3d d5 04 13 bd b0 2c 32 bc 3c 10 c8 3c
       0.055085797 -0.03589328 -0.010874912 0.024421804
0000e0 a7 79 bf 3b 86 2a 04 3d 3e 9c c7 bc 0f 92 21 3d
       0.0058433595 0.032267116 -0.024366494 0.039445933
0000f0 fc 06 b3 3c 8c fc 50 3d f1 c5 4b 3d 27 2a 4d bd
       0.021853916 0.051022097 0.04974932 -0.050089028
000100 b1 b5 8c bd 93 7a a6 bd 80 ba 7a bb 04 f7 8f bd
       -0.068705924 -0.08128848 -0.0038258135 -0.07029536
000110 68 f0 6e bd b7 2b 74 bd 12 8c 10 bd 4f 2f 71 bd
       -0.058334738 -0.059612002 -0.03528983 -0.058883008
000120 14 17 c5 bc 38 2d 36 bd 54 c2 80 bc b4 d9 4e 3c
       -0.024058856 -0.044476718 -0.015717663 0.012625147
000130 a3 7c 64 3d b2 0e 7f bc 9f bb e4 bc 16 6f dc ba
       0.055782925 -0.0155674685 -0.027921496 -0.0016817774
000140 ae bb 6c 3b 1d a8 9c 3d 54 93 3c bd 4e 29 05 bd
       0.0036122608 0.076492526 -0.04603894 -0.032510094
000150 a5 e5 42 bd 21 67 ab 3d fc 0d 42 bd 33 0e c0 bc
       -0.047582287 0.0836928 -0.047376618 -0.02344427
000160 8a 69 d2 bc 32 98 0e bd 9f e4 97 3d bb ac 40 bd
       -0.02568509 -0.034813114 0.07416653 -0.04703973
000170 aa a3 3e 3d 5c 5a 48 3b 5a e4 ae bd d0 e5 a8 3d
       0.0465428 0.0030571437 -0.08539648 0.08246958
000180 2f 0d 6f bd bd b1 30 bb b2 e5 65 3d 73 8d 5c 3c
       -0.058362182 -0.002696141 0.056127258 0.0134614585
000190 a3 11 40 bd b6 69 76 bd 49 b3 5c 3c 18 8e b0 3d
       -0.04689182 -0.060159408 0.013470479 0.08620852
0001a0 40 9c a6 3b 83 8d ee 3c 2e 63 ea bc 00 e9 03 3d
       0.0050845444 0.029120212 -0.028611746 0.032204628
0001b0 91 c8 d7 3b 6b e1 a3 3d 9d 4e a1 bd 51 c7 5e 3d
       0.0065851887 0.080019794 -0.078763224 0.0543893
0001c0 da a7 06 3d 78 ef fe bc 82 cc cd 3c c5 1b 4b 3d
       0.03287492 -0.031120047 0.025121931 0.04958703
0001d0 0c 85 a0 3c e4 f5 87 bd 1f 7e f9 bc 68 ed 2a bd
       0.019594692 -0.06638697 -0.030455647 -0.041730314
0001e0 04 4a a5 bb 15 1f 7c bd 78 0b 34 3d 3f f2 dd bc
       -0.0050442237 -0.06155308 0.04395625 -0.027093051
0001f0 56 09 a5 bd fd 40 ac 3d 14 26 7d 3c 7f 74 f0 3c
       -0.08058421 0.08410833 0.015450973 0.029352425
