examples/drone/logs/drone-waypointing/model_5700.pt (torch, 474978 bytes, 36 tensors)

std f4 [4]
0.34211394 0.00042306274 0.38242602 0.39166898
00000000: 8f29 af3e 85ce dd39 58cd c33e d688 c83e

actor.0.weight f4 [128, 17]
-1.9460208 -1.3416456 3.748961 -0.1828135 -0.1568363 -0.11817893 -0.28196234 -0.37279594
-0.73778075 0.7442574 0.8188503 -0.3224187 -0.043619588 0.18608196 0.10674681 0.2929942
0.07051993 -0.40764907 -0.0073872996 -1.1647002 0.43347234 -1.8977149 -1.9529408 0.017441906
0.35057813 -0.26818925 -0.071150325 0.16373165 -0.78295743 -0.79652727 0.048174664 0.027494248
0.119970866 -0.017997658 -0.06418728 -0.06202156 0.2724056 -0.008642226 -0.06502186 -0.0057254354
-0.022556003 0.11536279 0.024529139 0.018796116 0.0056103035 0.052998126 -0.049483705 -0.16668685
0.3420439 -0.086511165 -0.06554445 0.082992256 0.26645488 -2.0571096 -1.0799494 -1.3926616
0.05975293 1.1939018 1.3644735 0.50754386 0.89556515 -0.027710136 -0.65183806 0.7535062
-0.2842481 -0.31724554 -0.3914228 -0.11899228 -0.31465596 -0.030448379 -2.2439532 0.044916
0.4933427 -0.056802534 0.47745654 -0.07055438 -0.10301821 -0.0009712008 -0.009787458 0.00050662534
0.144458 0.17801361 0.014138803 0.08612831 -0.12659375 -1.1577238 0.40823528 0.62441796
0.10337606 -0.8106515 1.2919021 -0.67474145 0.24819154 -0.013454905 -0.14034104 0.08198491
-0.17257833 -0.13013905 0.10783073 -0.13510422 -0.050816122 -0.05693767 1.0568752 -0.06713934
2.46702 -0.6286691 0.51114446 0.24760051 -0.7056311 0.2022218 -0.15789804 -0.7061997
0.7275881 -0.46231887 -0.1261154 0.13815367 0.24771568 0.15291432 0.07798866 1.4284708
-0.4186636 -3.9568863 0.27750736 -0.624019 -0.9449631 0.080896825 0.05227921 -0.27837846
0.6254328 -0.1894595 -0.16320288 0.036160547 -0.3014142 -0.33958024 -0.27040073 -0.24529721
-0.1372713 0.22096461 0.16182764 0.01634281 0.7590632 -0.05773013 0.62538123 0.2689912
-0.1660553 0.016653476 -0.061571777 0.009353113 0.15969828 0.09753947 0.031062257 0.17200589
-0.17246878 0.060939528 0.20781927 -1.505511 0.023956185 0.7353425 -0.3906441 0.27746913
-0.06800073 -0.008432809 -0.014413632 0.023888873 0.121630095 0.19129038 0.01596285 0.053234544
0.116242595 0.09080193 0.09037264 0.0649902 -0.047805514 -0.6215444 -0.02198861 -0.093177326
-0.10341578 0.010516872 0.03521395 0.041877594 -0.0039865742 -0.045406558 0.015691318 -0.122216195
0.124013074 0.0089693405 -0.09876551 0.637635 0.82627684 -1.4122068 0.533538 -1.4401782
-0.2924168 0.53515315 0.3412379 -0.16897151 0.4435888 0.59139097 -1.2589246 0.7555122
-0.033966806 -0.07883258 -0.11652264 0.08096954 0.3319477 -0.0089386795 3.2099228 -0.16851287
-0.5164948 -0.21991661 -0.4011577 0.27718872 0.04333405 -0.14266023 0.09053033 0.05781703
-0.29901713 -0.039165445 0.16412322 -0.061692175 0.10707563 -0.22673513 0.42995375 -1.0487684
0.46727753 -0.40021867 -1.0740539 -0.6638137 0.044038806 -0.08450316 -0.13832128 0.07083478
0.40517825 0.14026155 0.1431511 0.08390949 0.05405129 0.047429495 0.23767531 0.19504912
-0.1332839 0.285701 0.18451513 -0.38195932 -0.14400978 -0.22660571 0.032397922 0.0581984
-0.03713563 -0.039754573 -0.16239062 -0.11097448 -0.20015109 -0.07302834 0.11345688 -0.83410287
00000000: 3617 f9bf 0bbb abbf faee 6f40 7633 3bbe
00000010: b299 20be cb07 f2bd 5e5d 90be 1cdf bebe
00000020: 33df 3cbf a787 3e3f 2ca0 513f 1014 a5be
00000030: 74aa 32bd 458c 3e3e 129e da3d 5603 963e
00000040: c16c 903d 61b7 d0be 2911 f2bb e514 95bf
00000050: 16f0 dd3e 52e8 f2bf f7f9 f9bf 54e2 8e3c
00000060: fa7e b33e 1a50 89be 43b7 91bd 45a9 273e
00000070: e66f 48bf 36e9 4bbf cc52 453d 9e3b e13c
00000080: 49b3 f53d d36f 93bc 9f74 83bd 520a 7ebd
00000090: bf78 8b3e 2098 0dbc 2e2a 85bd 6f9c bbbb
000000a0: 5ec7 b8bc 5443 ec3d 55f1 c83c 50fa 993c
000000b0: a3d6 b73b 9014 593d 6daf 4abd f5af 2abe
000000c0: 6120 af3e c42c b1bd 2b3c 86bd d8f7 a93d
000000d0: c66c 883e afa7 03c0 c83b 8abf bc42 b2bf
000000e0: 7dbf 743d c6d1 983f 11a7 ae3f 65ee 013f
000000f0: c243 653f 5e00 e3bc dcde 26bf c8e5 403f
00000100: f888 91be 026e a2be 9268 c8be 39b2 f3bd
00000110: 961a a1be e16e f9bc ee9c 0fc0 d7f9 373d
00000120: 6a97 fc3e c6a9 68bd 2f75 f43e d17e 90bd
00000130: 36fb d2bd 2f98 7eba 935b 20bc 0dcf 043a
00000140: ccec 133e 3349 363e 70a6 673c 0a64 b03d
00000150: cba1 01be 4b30 94bf 3704 d13e dbd9 1f3f
00000160: d4b6 d33d db86 4fbf 0c5d a53f dbbb 2cbf
00000170: ec25 7e3e f671 5cbc 90b5 0fbe b4e7 a73d
00000180: 60b8 30be 2c43 05be 5cd6 dc3d c358 0abe
00000190: 9124 50bd 7937 69bd b047 873f 5a80 89bd
000001a0: a8e3 1d40 75f0 20bf 5dda 023f fd8a 7d3e
000001b0: 3da4 34bf 3b13 4f3e 06b0 21be 81c9 34bf
000001c0: 3743 3a3f 0fb5 ecbe 6524 01be 2878 0d3e
000001d0: 2ea9 7d3e 9295 1c3e 85b8 9f3d 22d8 b63f
000001e0: 135b d6be a03d 7dc0 7215 8e3e b6bf 1fbf
000001f0: 1ae9 71bf 3cad a53d ba22 563d 9f87 8ebe
00000200: 5d1c 203f ac01 42be a81e 27be 151d 143d
00000210: f652 9abe 76dd adbe f771 8abe 312f 7bbe
00000220: d990 0cbe 8c44 623e 25b6 253e 5be1 853c
00000230: f751 423f 6e76 6cbd fc18 203f 37b9 893e
00000240: 670a 2abe df6c 883c b032 7cbd cd3d 193c
00000250: f287 233e c6c2 c73d 4676 fe3c 5022 303e
00000260: a89b 30be ba9b 793d 93ce 543e 96b4 c0bf
00000270: c33f c43c 683f 3c3f 8102 c8be 6f10 8e3e
00000280: f743 8bbd c429 0abc 2827 6cbc 99b2 c33c
00000290: 3319 f93d a0e1 433e 86c4 823c 770c 5a3d
000002a0: 9910 ee3d 5df6 b93d 4a15 b93d 9519 853d
000002b0: b7cf 43bd 891d 1fbf 7521 b4bc c1d3 bebd
000002c0: a7cb d3bd f54e 2c3c 813c 103d d787 2b3d
000002d0: cfa1 82bb 3afc 39bd 148b 803c 7c4c fabd
000002e0: 91fa fd3d 24f4 123c 9245 cabd 0c3c 233f
000002f0: e186 533f 31c3 b4bf f295 083f c257 b8bf
00000300: a8b7 95be ccff 083f bcb6 ae3e de06 2dbe
00000310: 121e e33e 6665 173f 7124 a1bf 3f69 413f
00000320: c720 0bbd fa72 a1bd 6ca3 eebd 5cd3 a53d
00000330: 0df5 a93e 8a73 12bc 606f 4d40 a38e 2cbe
00000340: 0139 04bf d231 61be 8b64 cdbe aeeb 8d3e
00000350: 0b7f 313d 8615 12be f767 b93d 8dd1 6c3d
00000360: c618 99be f26b 20bd eb0f 283e efb0 7cbd
00000370: 784a db3d 412d 68be e622 dc3e 0b3e 86bf
00000380: 003f ef3e 76e9 ccbe 997a 89bf b2ef 29bf
00000390: 0962 343d fe0f adbd 18a4 0dbe d311 913d
000003a0: 8673 cf3e b9a0 0f3e 3496 123e bdd8 ab3d
000003b0: e364 5d3d 6e45 423d 2861 733e f5ba 473e
000003c0: 937b 08be 6747 923e 89f1 3c3e 2c90 c3be
000003d0: 4d77 13be 540b 68be afb3 043d 7261 6e3d
000003e0: 881b 18bd b1d5 22bd ba49 26be 9746 e3bd
000003f0: 68f4 4cbe e28f 95bd 155c e83d c487 55bf

actor.0.bias f4 [128]
-0.3829131 -0.31862488 -0.03983687 -0.49760628 -0.14569302 -0.03641757 0.15447746 -0.21939796
-0.048462447 -0.1943942 0.5572228 0.25630233 0.13306257 -0.627644 0.08710448 -0.02962658
-0.123679675 -0.22360034 0.3164955 -0.34118852 0.046556246 0.12601498 -0.021602785 0.010815936
-0.30337685 0.5126219 0.57843924 -0.07752836 -0.47959515 -0.2845187 0.14093336 0.08999027
0.20984419 -0.124243684 0.33341286 -0.06012876 0.2057782 -0.43419325 -0.33925882 -0.7613232
-0.54943043 0.20111771 -0.115700446 -0.13710438 0.17492636 0.13471173 -0.1585105 0.036336843
0.1408006 -0.7432126 -0.20493855 0.037258092 0.3263269 0.13062033 -0.08778554 -0.0909026
-0.14967534 0.29979596 0.22266991 -0.09332977 0.36389583 0.2247722 -0.4676925 0.10095697
0.26290286 0.3003867 -0.27963695 0.17760582 -0.41874415 0.119359195 -0.41026697 -0.20510156
0.059551977 0.098274544 0.02235735 0.10217084 -0.19339089 -0.064861104 0.040993296 -0.013429958
0.052960448 -0.08219014 -0.20934945 0.06346125 -0.04857322 0.26375297 -0.0690002 0.007488699
0.04634842 0.22223812 0.006043631 -0.19206148 -0.12609324 -0.41035563 0.11932836 0.02589714
-0.16136862 0.22857167 -0.29484567 0.3639302 -0.2623248 0.4651638 -0.35165942 0.023401456
-0.18477003 0.07915088 0.068076774 0.14430253 -0.424031 0.21841843 0.10437597 -0.34780312
-0.09845574 -0.1639484 -0.4581993 -0.47779486 -0.16911253 -0.08948352 0.36367488 -0.0655895
0.33005032 -0.17574672 0.13546117 -0.17776138 -0.3445178 0.29267323 0.41250944 -0.25120035
00000000: 300d c4be cd22 a3be fc2b 23bd 40c6 febe
00000010: 8d30 15be 972a 15bd 572f 1e3e dca9 60be
00000020: 8f80 46bd 460f 47be 27a6 0e3f 0f3a 833e
00000030: 8e41 083e 47ad 20bf d563 b23d 71b3 f2bc
00000040: c54b fdbd 7df7 64be b30b a23e 43b0 aebe
00000050: c3b1 3e3d 120a 013e 53f8 b0bc 5335 313c
00000060: 3654 9bbe 303b 033f 9814 143f 30c7 9ebd
00000070: 7f8d f5be 6fac 91be d650 103e d24c b83d
00000080: 65e1 563e 7973 febd 17b5 aa3e 9349 76bd
00000090: 85b7 523e 944e debe 55b3 adbe 14e6 42bf
000000a0: 79a7 0cbf cdf1 4d3e 5bf4 ecbd 1765 0cbe
000000b0: e51f 333e dff1 093e 9450 22be f1d5 143d
000000c0: 082e 103e 2e43 3ebf 69db 51be f19b 183d
000000d0: 5214 a73e 56c1 053e e8c8 b3bd 242b babd
000000e0: 7e44 19be db7e 993e 9503 643e ae23 bfbd
000000f0: 8e50 ba3e af2a 663e 6475 efbe 87c2 ce3d
00000100: 349b 863e 49cc 993e 932c 8fbe 4dde 353e
00000110: a265 d6be 9872 f43d 830e d2be 2506 52be
00000120: c6ec 733d 2a44 c93d c326 b73c f23e d13d
00000130: 4308 46be e6d5 84bd 96e8 273d 5409 5cbc
00000140: 0eed 583d 4e53 a8bd b45f 56be f9f7 813d
00000150: b6f4 46bd a10a 873e fa4f 8dbd c363 f53b
00000160: d7d7 3d3d 6492 633e a709 c63b c4ab 44be
00000170: 961e 01be 221a d2be 6d62 f43d 3d26 d43c
00000180: d13d 25be b10e 6a3e 03f6 96be 0f55 ba3e
00000190: 704f 86be f329 ee3e b40c b4be 69b4 bf3c
000001a0: 5b34 3dbe db19 a23d d66b 8b3d 0bc4 133e
000001b0: 971a d9be 15a9 5f3e 12c3 d53d 4013 b2be
000001c0: 2aa3 c9bd 17e2 27be 1999 eabe 87a1 f4be
000001d0: d62b 2dbe 2343 b7bd 9833 ba3e ca53 86bd
000001e0: 5bfc a83e f3f6 33be 55b6 0a3e 1407 36be
000001f0: a364 b0be 44d9 953e 7034 d33e 559d 80be

actor.2.weight f4 [128, 128]
-0.08570927 -0.09247576 -0.0026313616 -0.03411943 0.03633163 -0.11168595 0.13707589 -0.128859
-0.060631882 -0.017569412 -0.07966813 0.08649301 -0.055999886 0.06691912 0.14168712 0.0005422741
0.06423406 0.08677987 -0.046275627 0.05880666 -0.102041796 0.0396674 0.09447688 -0.037961327
0.092795074 0.04458236 -0.039737925 0.22468509 -0.00571299 0.1299255 0.075454146 -0.09896973
-0.049097646 -0.009122561 -0.0012492124 0.12143548 -0.020363262 -0.13490021 0.17736636 -0.15609713
-0.043987677 -0.1343555 0.08341506 -0.05295117 -0.16775423 -0.012436189 -0.02445916 0.09834441
-0.03635484 0.013263576 0.13418536 -0.006833057 0.051640436 -0.09174121 0.031205539 -0.021250544
-0.044178076 0.047161188 -0.00094498746 0.10650713 -0.03973415 0.008966631 0.09617578 -0.051063452
0.064189464 0.0185545 -0.045420587 0.08165696 -0.025883507 0.11439477 0.088865794 0.009857706
-0.048134338 0.0036551799 -0.03377424 -0.008222386 0.015447019 0.11030859 -0.0392182 0.024892233
0.08673022 0.13796525 -0.055193983 0.05802193 -0.07352007 -0.022940638 0.010354835 -0.1894756
-0.12625597 -0.15636933 0.004025446 -0.049319264 0.024600117 -0.107883155 -0.05583972 0.16036397
0.0008366081 -0.18828224 -0.020598968 -0.076045506 0.11839601 0.022740815 -0.024214989 0.09896547
0.034356605 -0.089803375 0.07882049 -0.055222835 -0.008826169 0.17103195 -0.00029887547 -0.026057256
-0.009940424 0.02409187 0.06779441 0.1486899 0.041797116 0.110547915 0.10005278 0.0049794666
0.013200193 0.09256895 -0.013151846 0.11742314 0.13112508 -0.04579105 0.14754201 0.11855886
-0.115204245 0.080186926 -0.0008871192 0.032998353 -0.017999362 -0.06466633 -0.074887335 -0.1799391
-0.041483138 0.04703395 -0.05307579 0.030878719 0.12559634 0.010204001 -0.05369758 -0.07035002
-0.013438018 0.014367837 -0.049475886 -0.09731669 0.028873008 0.008102361 -0.07971726 0.038123243
-0.05738722 -0.029554509 0.06507036 0.010395962 0.023786793 -0.07190186 0.07298862 0.1320947
0.013639873 -0.0021770357 0.026437912 0.03489816 0.079390764 0.053347245 -0.03261957 0.07169204
0.090474494 -0.038118172 -0.06194693 -0.017458953 -0.08204845 0.021822907 -0.103116 0.049760066
0.014179009 0.029963639 -0.08869102 0.018022139 -0.10776551 0.0762588 -0.027900603 0.0358412
0.05998751 -0.014095245 0.016646447 0.072309904 -0.0064882515 -0.056380067 -0.07239058 0.13553351
-0.15490843 -0.01834607 -0.10749773 0.035198655 -0.07118168 0.009220696 -0.024171287 0.07199596
0.048642304 0.1482319 0.04290293 0.08455325 -0.10330665 0.06947939 0.032807387 -0.057671823
-0.1348539 0.02237697 0.00248941 -0.029548204 0.0077038794 -0.14337765 0.11821337 -0.07462416
0.107343584 -0.032721747 -0.051203296 0.08585775 -0.06499481 -0.03038763 0.04526781 0.00072990573
-0.05260521 0.015018166 0.030317033 0.008933804 -0.026776444 -0.04284132 -0.14361468 0.05056819
0.1560816 -0.00045118178 0.05754021 0.13029397 -0.068033084 -0.114461474 0.028814152 -0.088593714
0.0021846446 -0.06417472 -0.023669153 0.23155461 0.16995497 -0.20837623 -0.12580231 -0.04796473
-0.13115612 -0.07694515 -0.030974632 0.15462136 0.12961255 0.009669844 -0.080351174 0.07156932
00000000: 5788 afbd ee63 bdbd ec72 2cbb d1c0 0bbd
00000010: 7ad0 143d 9abb e4bd 9f5d 0c3e 9df3 03be
00000020: 2359 78bd baed 8fbc 0b29 a3bd 3f23 b13d
00000030: 2360 65bd e40c 893d 6e16 113e 6627 0e3a
00000040: 268d 833d a5b9 b13d 838b 3dbd 41df 703d
00000050: 4afb d0bd 497a 223d 187d c13d 567d 1bbd
00000060: 580b be3d fe9b 363d 3cc4 22bd d913 663e
00000070: 0934 bbbb 310b 053e b487 9a3d a4b0 cabd
00000080: 9d1a 49bd cb76 15bc 9dbc a3ba 2ab3 f83d
00000090: dbd0 a6bc 4823 0abe 879f 353e edd7 1fbe
000000a0: 6c2c 34bd 7d94 09be 84d5 aa3d 53e3 58bd
000000b0: c4c7 2bbe 28c1 4bbc 945e c8bc cb68 c93d
000000c0: d0e8 14bd 784f 593c e367 093e d6e7 dfbb
000000d0: ec84 533d d1e2 bbbd c2a2 ff3c 9f15 aebc
000000e0: 12f4 34bd 172c 413d 09b9 77ba 6920 da3d
000000f0: 47c0 22bd c7e8 123c cff7 c43d e927 51bd
00000100: c475 833d 9bff 973c f00a 3abd c43b a73d
00000110: a609 d4bc ce47 ea3d 45ff b53d 3782 213c
00000120: 8328 45bd be8b 6f3b dc56 0abd 30b7 06bc
00000130: 7e15 7d3c 78e9 e13d 43a3 20bd ccea cb3c
00000140: 9d9f b13d c346 0d3e 1613 62bd 67a8 6d3d
00000150: b191 96bd 01ee bbbc 53a7 293c e405 42be
00000160: 3f49 01be 481f 20be e3e7 833b ff02 4abd
00000170: 2f86 c93c d8f1 dcbd 31b8 64bd 7436 243e
00000180: d24f 5b3a 0fcd 40be 2bbf a8bc bfbd 9bbd
00000190: 9b79 f23d f24a ba3c 835e c6bc 69ae ca3d
000001a0: 83b9 0c3d d5ea b7bd a36c a13d 5731 62bd
000001b0: a39b 10bc 0023 2f3e 63b2 9cb9 0776 d5bc
000001c0: 29dd 22bc 505c c53c ccd7 8a3d 2a42 183e
000001d0: 7433 2b3d f266 e23d 79e8 cc3d cb2a a33b
000001e0: 9f45 583c ca94 bd3d d77a 57bc 8b7b f03d
000001f0: a745 063e 658f 3bbd 4115 173e fdce f23d
00000200: 34f0 ebbd 0b39 a43d 908d 68ba 4829 073d
00000210: 6673 93bc c86f 84bd 885e 99bd f541 38be
00000220: 39ea 29bd aca6 403d 0066 59bd 5ef5 fc3c
00000230: 549c 003e af2e 273c fef1 5bbd ac13 90bd
00000240: 222b 5cbc 1467 6b3c 3aa7 4abd f94d c7bd
00000250: 1687 ec3c c4bf 043c ce42 a3bd 1e27 1c3d
00000260: dd0e 6bbd 4c1c f2bc 9c43 853d d353 2a3c
00000270: 85dc c23c 4841 93bd 0f7b 953d d543 073e
00000280: c679 5f3c 99ac 0ebb 5294 d83c 5ff1 0e3d
00000290: a097 a23d a482 5a3d 199c 05bd 47d3 923d
000002a0: b14a b93d cd21 1cbd 10bc 7dbd 1406 8fbc
000002b0: 0509 a8bd f4c5 b23c 7b2e d3bd 36d1 4b3d
000002c0: 134f 683c 4e76 f53c a3a3 b5bd 2aa3 933c
000002d0: 2ab4 dcbd 932d 9c3d ce8f e4bc 39ce 123d
000002e0: 77b5 753d beef 66bc 215e 883c 3717 943d
000002f0: 669b d4bb c9ee 66bd 8341 94bd 4cc9 0a3e
00000300: 51a0 1ebe 7f4a 96bc c527 dcbd 772c 103d
00000310: b3c7 91bd 6712 173c dd02 c6bc 9e72 933d
00000320: 273d 473d 1aca 173e fcba 2f3d 412a ad3d
00000330: 7092 d3bd 364b 8e3d 0a61 063d 4a39 6cbd
00000340: 2417 0abe e84f b73c 5f25 233b 130f f2bc
00000350: d370 fc3b 97d1 12be da19 f23d 8dd4 98bd
00000360: f4d6 db3d 3d07 06bd 8cba 51bd 30d6 af3d
00000370: 001c 85bd 7bef f8bc bd6a 393d 2557 3f3a
00000380: 9078 57bd c10e 763c 6d5b f83c 175f 123c
00000390: 465a dbbc 617a 2fbd ba0f 13be 9720 4f3d
000003a0: dbd3 1f3e 988c ecb9 49af 6b3d c86b 053e
000003b0: ee54 8bbd c76a eabd a80b ec3c 9f70 b5bd
000003c0: 412c 0f3b 096e 83bd d0e5 c1bc a71c 6d3e
000003d0: ad08 2e3e 9460 55be 52d2 00be aa76 44bd
000003e0: ca4d 06be 6b95 9dbd 83be fdbc 1055 1e3e
000003f0: 27b9 043e 446e 1e3c 288f a4bd f092 923d

actor.2.bias f4 [128]
0.039027225 0.071611315 0.15090601 -0.03198026 -0.09115248 -0.010460729 0.52703846 0.5169417
-0.07420189 -0.249183 0.1500864 -0.07543738 -0.09444354 0.10380074 0.04748345 0.79377794
-0.33655658 -0.3729831 0.022115557 0.043023232 0.04795191 -0.10646986 0.010587561 -0.32118124
0.074397966 0.070599005 -0.0043066125 -0.25199705 -0.07368218 -0.13949142 -0.14685783 0.09635114
-0.07253219 -0.21838239 -0.010307526 -0.06695094 -0.020494321 0.021558566 -0.097734205 0.12657265
0.18487181 0.06998855 -0.12593473 -0.12369729 -0.073767886 0.09280886 -0.05996037 0.056938335
0.063664876 0.048545875 -0.03258983 -0.40627936 -0.0064983675 -0.36020604 0.6012041 0.056088176
0.052308768 0.08762925 0.089340046 -0.12369502 0.03671276 -0.022664858 -0.012212107 0.07626864
-0.035351954 0.39509133 0.011508303 0.002300119 -0.029268658 0.07271338 -0.06945789 -0.26337662
-0.057063986 -0.055451214 -0.094694115 -0.0007477413 -0.12144238 0.07824174 -0.093481526 0.10938649
-0.34526008 -0.05702207 0.043860596 -0.081106596 -0.0049215658 0.058470976 -0.16741796 -0.4152196
0.19601913 0.23997411 0.01749874 -0.09886814 0.029235438 0.049831383 0.0025253587 -0.0073219575
-0.025370391 -0.09143469 0.08307554 -0.09161794 0.25061554 -0.024150476 -0.07012164 -0.021012684
0.094045095 -0.054592006 -0.05728032 0.08624902 -0.60982054 -0.0026530905 0.008560644 0.1604153
-0.09249815 -0.04475218 0.03180354 0.045376804 -0.2824477 -0.004314105 0.0006320239 0.19311245
0.0036682815 -0.6162542 0.11882225 -0.052682284 -0.06552912 0.5189545 0.347281 -0.11338406
00000000: 03db 1f3d f4a8 923d 1b87 1a3e bcfd 02bd
00000010: 27ae babd 7a63 2bbc feeb 063f 4b56 043f
00000020: 29f7 97bd d429 7fbe 40b0 193e ea7e 9abd
00000030: 9d6b c1bd 7b95 d43d 027e 423d 0835 4b3f
00000040: 2551 acbe a4f7 bebe af2b b53c 2139 303d
00000050: 3969 443d df0c dabd 7377 2d3c de71 a4be
00000060: f65d 983d 3696 903d 7c1e 8dbb c205 81be
00000070: afe6 96bd d7d6 0ebe e661 16be bf53 c53d
00000080: c28b 94bd a29f 5fbe e6e0 28bc 931d 89bd
00000090: b5e3 a7bc 979b b03c df28 c8bd 439c 013e
000000a0: 094f 3d3e 2856 8f3d 09f5 00be 0155 fdbd
000000b0: 9e13 97bd 9212 be3d 0199 75bd 2c38 693d
000000c0: bb62 823d 0ad8 463d ea7c 05bd d903 d0be
000000d0: 42f0 d4bb ed6c b8be 83e8 193f b7bc 653d
000000e0: b841 563d f776 b33d eaf7 b63d d153 fdbd
000000f0: 1e60 163d a7ab b9bc 4a15 48bc bc32 9c3d
00000100: 36cd 10bd 6949 ca3e 528d 3c3c 98bd 163b
00000110: d3c4 efbc c1ea 943d f03f 8ebd 4dd9 86be
00000120: edbb 69bd d020 63bd fdee c1bd 1204 44ba
00000130: c8b6 f8bd 353d a03d 3e73 bfbd 0606 e03d
00000140: eec5 b0be f98f 69bd 2ba7 333d 371b a6bd
00000150: 1645 a1bb 437f 6f3d 9d6f 2bbe aa97 d4be
00000160: 3db9 483e c6bb 753e 8559 8f3c 617b cabd
00000170: 287f ef3c fe1b 4c3d 7d80 253b 08ed efbb
00000180: 91d5 cfbc 1c42 bbbd 8223 aa3d 30a2 bbbd
00000190: ae50 803e 38d7 c5bc ef9b 8fbd cb22 acbc
000001a0: b79a c03d de9b 5fbd c59e 6abd 54a3 b03d
000001b0: 331d 1cbf 79df 2dbb f241 0c3c e943 243e
000001c0: ac6f bdbd 104e 37bd 6e44 023d 07dd 393d
000001d0: fc9c 90be 565d 8dbb 68ae 253a 45bf 453e
000001e0: 8d67 703b d6c2 1dbf 1459 f33d 61c9 57bd
000001f0: 2234 86bd 34da 043f d1ce b13e e735 e8bd

actor.4.weight f4 [4, 128]
-0.055437725 0.010106253 -0.17215475 0.2356437 0.07429045 -0.19953114 0.14293098 0.14604548
-0.041900385 -0.06510847 -0.13604026 -0.34682342 -0.07677008 0.10635547 0.11686006 0.16319792
0.124237485 0.020166427 0.03460895 0.026522592 0.0044025253 -0.06259347 0.045124456 -0.020879582
0.023709865 0.14575478 -0.018369019 -0.071659744 -0.18284056 0.024678055 -0.1366794 0.033790436
0.101267315 -0.08175698 -0.0707027 0.09460847 0.022696925 0.03329544 -0.0035942844 -0.03746416
0.019930847 -0.28083846 0.122799784 0.04282564 0.025362154 -0.035321277 -0.0738268 0.032323025
0.0005152519 -0.14514273 -0.10344653 -0.17041649 -0.11961334 -0.29461434 0.15209834 0.034220118
0.15976542 0.13333654 0.078861356 -0.058639705 -0.056356672 0.0549507 0.15128317 0.32240346
0.20146997 0.123831294 -0.17115948 0.01724622 -0.23176812 0.14694658 0.017780636 0.06888287
0.035076067 -0.26456088 0.17630218 -0.006315828 -0.107623346 0.0138642425 0.2652072 0.11435643
0.1696778 0.1587069 0.061520837 -0.0037179089 -0.11101098 -0.059909225 -0.049340297 -0.04639222
0.12530668 0.53662044 0.03150378 -0.047945015 0.29134858 0.017080793 -0.09194558 -0.059751574
-0.0010547048 -0.19925216 0.036600694 -0.11243583 -0.0034893814 -0.13546892 -0.08328933 0.080672696
0.0019638573 -0.13199554 0.17109486 0.13472328 -0.34501976 -0.07823159 0.087826826 0.18911636
0.42778656 -0.12343424 -0.005842943 0.096885845 0.24969208 0.120068654 0.10316907 0.13921995
-0.11013764 -0.15052497 -0.33761638 -0.13459042 0.05026033 -0.14199069 0.05769486 -0.12941726
-1.4988693e-05 -0.0006986586 -0.0025793677 -0.0011857202 0.000194544 -0.0019846135 0.024209954 0.0102432985
7.352438e-05 -0.023273911 0.033629104 -0.015303983 -0.039790906 -0.0029233892 -0.00031568686 0.20176479
-0.009761786 -0.030264579 0.00078369945 -5.3778917e-06 7.778737e-05 -0.0005106233 -0.00029012797 -0.05134726
0.0015870776 -0.00013268982 0.0006755879 0.021273192 -0.00056300254 0.103360504 -0.016917156 -0.0001772705
-0.0004090427 -0.039780367 0.00056902494 1.7815339e-05 -0.00011187275 1.9087189e-05 0.006708313 0.0004959993
0.043587025 0.00058615115 0.00030877462 1.3335651e-05 -0.00016778796 -6.559045e-05 0.00075376686 -1.3343604e-05
-1.43186e-05 3.6308804e-05 8.9780624e-05 -0.05106711 0.00013786094 -0.013080131 0.4343302 9.015389e-05
-0.00010872329 0.0002835983 -1.7277267e-05 0.0011607088 -0.0005857057 7.87785e-05 0.0010920083 0.0006175279
0.0003999052 0.018448928 0.0010823329 -0.0002946972 -9.265521e-07 0.0018705536 -0.00012085454 -0.027066093
-2.1961809e-05 -0.00046471233 0.04341935 0.00012708218 -2.3107661e-05 -0.00027017426 0.005871198 -0.14913821
0.09749785 5.9019334e-05 -4.0140585e-05 -0.00027423215 0.0005905584 9.0758906e-05 0.08149555 0.09585782
-0.0011996797 0.008480202 -0.00015844544 0.00019714478 -0.00021816556 -0.0006436678 -9.8438875e-05 -6.858257e-05
0.00012996665 -0.00049254455 0.0002891498 -5.1912106e-05 0.0023385107 8.412423e-05 0.00021085523 0.00023719469
-0.0005487378 -0.00013556264 0.0005503453 -0.0010595646 0.04523542 1.4457688e-05 0.00035595644 0.06092244
-0.011041406 -0.0004228341 -0.00018558619 -0.0003718145 -0.021769518 0.00019642965 0.00070379407 0.051334314
-0.00046005775 -0.019148653 0.042817824 0.0029452064 -0.00017295366 0.08415923 0.024322757 -0.0008957773
00000000: ab12 63bd b394 253c 5649 30be 954c 713e
00000010: 9725 983d e451 4cbe 805c 123e f28c 153e
00000020: bd9f 2bbd 9757 85bd 234e 0bbe d792 b1be
00000030: a239 9dbd e6d0 d93d 5454 ef3d 5b1d 273e
00000040: 3970 fe3d 1034 a53c 1dc2 0d3d e845 d93c
00000050: 0f43 903b 0131 80bd 6cd4 383d a80b abbc
00000060: 313b c23c be40 153e a07a 96bc 58c2 92bd
00000070: 8e3a 3bbe a229 ca3c aff5 0bbe d767 0a3d
00000080: 3d65 cf3d 3470 a7bd 94cc 90bd 16c2 c13d
00000090: e7ee b93c cd60 083d 168e 6bbb 0574 19bd
000000a0: 0446 a33c 0fca 8fbe 747e fb3d f069 2f3d
000000b0: 4bc4 cf3c 0bad 10bd 8132 97bd 2665 043d
000000c0: f811 073a 4ca0 14be c6db d3bd a981 2ebe
000000d0: d7f7 f4bd b1d7 96be abbf 1b3e 652a 0c3d
000000e0: 8c99 233e 6089 083e 1082 a13d 3030 70bd
000000f0: 41d6 66bd fc13 613d fae9 1a3e 1112 a53e
00000100: 254e 4e3e 439b fd3d 6e44 2fbe f247 8d3c
00000110: 9f54 6dbe 2a79 163e b2a8 913c 7612 8d3d
00000120: ecab 0f3d 8674 87be 8f88 343e 01f5 cebb
00000130: a169 dcbd d926 633c 3dc9 873e b433 ea3d
00000140: 04c0 2d3e 1084 223e 46fd 7b3d 29a8 73bb
00000150: ba59 e3bd 6063 75bd 0d19 4abd c505 3ebd
00000160: 6550 003e f55f 093f 1c0a 013d fe61 44bd
00000170: a42b 953e 05ed 8b3c f74d bcbd 11be 74bd
00000180: 053e 8aba c208 4cbe 9cea 153d c244 e6bd
00000190: 1bae 64bb 5db8 0abe 9993 aabd ba37 a53d
000001a0: 0fb4 003b d729 07be 7e33 2f3e e6f4 093e
000001b0: 6ea6 b0be e237 a0bd 8dde b33d b8a7 413e
000001c0: d706 db3e 17cb fcbd 2976 bfbb 166c c63d
000001d0: 48af 7f3e 8ee6 f53d 4e4a d33d ad8f 0e3e
000001e0: d88f e1bd 3823 1abe 0edc acbe 12d2 09be
000001f0: c7dd 4d3d 0266 11be 7251 6c3d f585 04be
00000200: f277 7bb7 2f26 37ba 9c0a 29bb 2b6a 9bba
00000210: 82fe 4b39 4a10 02bb f453 c63c 82d3 273c
00000220: 1a31 9a38 eea8 bebc acbe 093d 8fbd 7abc
00000230: cafb 22bd 5596 3fbb c682 a5b9 6e9b 4e3e
00000240: e6ef 1fbc 6ced f7bc 2e71 4d3a bd73 b4b6
00000250: c721 a338 59db 05ba 511c 98b9 8151 52bd
00000260: 7d05 d03a a722 0bb9 f019 313a 1e45 ae3c
00000270: 7696 13ba acae d33d d995 8abc b0e1 39b9
00000280: c874 d6b9 bdf0 22bd 9e2a 153a 2672 9537
00000290: 3a9d eab8 6d1d a037 68d1 db3b f305 023a
000002a0: 4f88 323d f0a7 193a 07e3 a139 2fbc 5f37
000002b0: 3df0 2fb9 9b8d 89b8 7098 453a 58de 5fb7
000002c0: eb39 70b7 484a 1838 9b48 bc38 bf2b 51bd
000002d0: c48e 1039 0c4e 56bc 8760 de3e 0011 bd38
000002e0: 5f02 e4b8 ebaf 9439 a6ee 90b7 ed22 983a
000002f0: 0b8a 19ba e335 a538 b821 8f3a 99e1 213a
00000300: 5eaa d139 3522 973c 11dd 8d3a 9781 9ab9
00000310: 2db8 78b5 5d2d f53a 4973 fdb8 b6b9 ddbc
00000320: a03a b8b7 a2a4 f3b9 7dd8 313d 5d41 0539
00000330: 53d7 c1b7 2da6 8db9 2e63 c03b b0b7 18be
00000340: f4ac c73d 878b 7738 a05c 28b8 d1c6 8fb9
00000350: b4cf 1a3a d155 be38 24e7 a63d 1b51 c43d
00000360: 923e 9dba 8cf0 0a3c 6024 26b9 a6b8 4e39
00000370: 5fc3 64b9 d1bb 28ba f870 ceb8 fdd3 8fb8
00000380: a847 0839 1b1e 01ba 0799 9739 33bc 59b8
00000390: b341 193b da6b b038 0519 5d39 77b7 7839
000003a0: 2cd9 0fba d225 0eb9 0c45 103a 17e1 8aba
000003b0: c748 393d 4c8f 7237 aa9f ba39 cf89 793d
000003c0: 03e7 34bc d5af ddb9 ea99 42b9 19f0 c2b9
000003d0: fd55 b2bc aff8 4d39 d27e 383a ee43 523d
000003e0: e833 f1b9 a3dd 9cbc be61 2f3d 5d04 413b
000003f0: e55a 35b9 ad5b ac3d 8540 c73c 99d2 6aba

actor.4.bias f4 [4]
0.5722139 0.44056007 0.44867697 0.2523275
00000000: 9c7c 123f 1791 e13e fdb8 e53e 1231 813e

critic.0.weight f4 [128, 17]
0.39609975 -1.2342672 -2.111855 -0.12955542 -0.5606771 0.70352966 1.6179949 -0.9318389
1.3942945 0.2701422 0.3065241 0.13033667 -0.35716456 -0.08084589 -0.17318763 -0.19434367
-0.18738674 -0.69248724 0.46141878 -0.63406295 0.541008 0.103018396 1.3377621 -0.20593388
1.3354882 -0.22466612 0.9979096 -0.012866958 -0.039923213 -0.26876685 0.05609585 0.16037504
0.12614311 0.16514885 0.41101348 3.1121943 -3.0038462 -0.039003097 0.2093002 -0.43976697
0.053162448 0.31348333 0.8166011 -1.1365904 -1.2341081 -0.1567918 -0.0039890218 -0.031979937
-0.097709954 0.10750024 0.24710625 -1.1737916 6.480846 -0.66465753 -0.17562926 -0.67053217
-2.4345772 0.64005923 1.0229563 0.071200624 0.20787229 -0.0010164938 -0.018008884 -0.05653233
0.040653564 -0.059102904 -0.019379307 0.018350044 1.5448407 1.9450642 -3.2950175 -0.39531633
0.38392854 0.3430178 -0.5872875 -0.62252223 2.334023 1.0154741 0.2447402 -0.48919317
-0.5593067 0.010961789 0.15155037 -0.0072866012 -0.029194517 -1.9324691 -1.9451886 -1.4299845
0.00913247 0.23479375 -1.6910993 0.38738707 -0.41636252 0.16579278 -0.88323814 0.34535944
-0.3751572 -0.4678549 -0.11163103 -0.115901805 -0.13547413 -0.040009726 0.6571603 0.060000684
1.4360019 -0.9056613 2.8012297 0.05480742 0.08107037 0.17904973 -1.0993079 -1.1206417
-0.09301231 -0.011601956 0.15674432 -0.00039604356 -0.060669303 0.035281178 0.016453583 -0.4465205
0.5005824 -1.2148834 -0.47904187 1.2624533 -0.73661923 -0.45813113 0.6680601 1.487146
-1.1177415 -0.4555799 1.5269309 0.5340466 -0.33781382 -0.6068499 -0.35648605 -0.20585315
1.3759351 -0.9725505 -7.1844707 0.46318564 0.34713998 0.100661755 0.9495233 -0.71067023
1.0971789 0.6380629 0.057814464 -0.15884714 -0.15675609 -0.049286947 0.031997602 -0.025789516
0.006580095 -0.3522486 0.4697089 1.7278569 -0.52868515 -1.381359 0.33972484 -0.20261759
-0.35172558 -1.9994817 -0.20322871 0.38859436 0.3162252 3.122432 0.16462387 0.005685244
0.23355031 -0.02552055 1.7979233 -3.8164012 -1.8530315 0.41587603 -1.3258785 -0.05509554
0.60890126 -0.10088266 -0.5552794 -0.7715679 -0.24760474 0.10882525 0.33080626 0.1711795
0.14126815 0.21731603 0.12209838 -2.1536386 0.76117235 -3.5165281 -0.89726377 2.2838938
0.9852551 -0.049574517 0.31715322 0.4038593 -0.8941058 -0.053130165 0.00010585626 0.26773542
-0.09781441 -0.3025816 -0.05519437 -0.13668178 -0.42513573 -2.5879743 0.72080326 0.12746675
-0.17649895 -0.9867243 1.1222082 0.35217145 1.185583 -0.35772043 -2.5595849 1.9398227
-0.8001062 -0.2116564 -0.30831653 -0.30612582 -0.17599852 -1.0475818 2.2720613 2.0712566
0.37533104 2.4832296 0.6165284 -2.403088 -1.1721326 -0.66547257 0.43103644 0.24492344
0.05846381 -0.018596496 0.09614233 0.10414756 0.054747242 0.086638674 0.32694438 -1.6739604
-1.6865824 -1.1207321 1.5414273 1.190264 -0.05294598 -0.12553895 -0.70766217 0.9799143
0.18450737 -0.10332357 -0.08935257 -0.08573348 -0.19080712 -0.032629345 -0.05093776 -0.17345673
00000000: 96cd ca3e 78fc 9dbf a228 07c0 2daa 04be
00000010: 8988 0fbf 851a 343f 751a cf3f ff8c 6ebf
00000020: 3e78 b23f 1450 8a3e baf0 9c3e fa76 053e
00000030: 46de b6be 8892 a5bd 1958 31be 0702 47be
00000040: 4fe2 3fbe d846 31bf 153f ec3e f351 22bf
00000050: 807f 0a3f 4ffb d23d ca3b ab3f 55e0 52be
00000060: 47f1 aa3f e00e 66be 0177 7f3f efcf 52bc
00000070: 8686 23bd cf9b 89be c3c4 653d 5b39 243e
00000080: a92b 013e c81c 293e 5c70 d23e 312e 4740
00000090: 043f 40c0 b6c1 1fbd cb52 563e 2329 e1be
000000a0: dec0 593d e380 a03e c50c 513f cb7b 91bf
000000b0: 41f7 9dbf 088e 20be 57b6 82bb 65fd 02bd
000000c0: 281c c8bd 1629 dc3d 6c09 7d3e ce3e 96bf
000000d0: 1763 cf40 ff26 2abf 28d8 33be ffa7 2bbf
000000e0: 1dd0 1bc0 ecda 233f 3bf0 823f a2d1 913d
000000f0: 79dc 543e df3b 85ba 5e87 93bc 728e 67bd
00000100: 5a84 263d e315 72bd 5ac1 9ebc d552 963c
00000110: 57bd c53f ddf7 f83f 91e1 52c0 e766 cabe
00000120: 4892 c43e 07a0 af3e 7958 16bf 9e5d 1fbf
00000130: a260 1540 0efb 813f 2d9d 7a3e 8777 fabe
00000140: b92e 0fbf 1399 333c 0530 1b3e 71c4 eebb
00000150: 5729 efbc 265b f7bf f1fb f8bf bb09 b7bf
00000160: 5ba0 153c c66d 703e f175 d8bf 9957 c63e
00000170: 782d d5be 95c5 293e e51b 62bf f4d2 b03e
00000180: 9b14 c0be ad8a efbe cf9e e4bd ed5d edbd
00000190: bbb9 0abe 3de1 23bd a83b 283f 47c3 753d
000001a0: e9ce b73f 6bd9 67bf 5947 3340 bf7d 603d
000001b0: 3908 a63d d058 373e 1fb6 8cbf 3071 8fbf
000001c0: 3d7d bebd 2116 3ebc 9581 203e 11a4 cfb9
000001d0: 6080 78bd ff82 103d aac9 863c 569e e4be
000001e0: 2b26 003f 4d81 9bbf fa44 f5be 1298 a13f
000001f0: 1493 3cbf 2a90 eabe fd05 2b3f cd5a be3f
00000200: 2712 8fbf c541 e9be 7972 c33f 47b7 083f
00000210: eff5 acbe 845a 1bbf 5785 b6be 2bcb 52be
00000220: a41e b03f 12f9 78bf 2fe7 e5c0 ab26 ed3e
00000230: 55bc b13e c027 ce3d f613 733f 7cee 35bf
00000240: 5c70 8c3f 1758 233f dcce 6c3d d3a8 22be
00000250: ab84 20be 1ce1 49bd eb0f 033d 8944 d3bc
00000260: d69d d73b ee59 b4be af7d f03e 6a2a dd3f
00000270: e957 07bf 5fd0 b0bf 6af0 ad3e fc7a 4fbe
00000280: 6015 b4be 04ef ffbf 301b 50be d7f5 c63e
00000290: 45e8 a13e edd5 4740 2993 283e 494b ba3b
000002a0: d027 6f3e 7910 d1bc 5a22 e63f eb3f 74c0
000002b0: 2330 edbf b4ed d43e 63b6 a9bf dcab 61bd
000002c0: f4e0 1b3f 919b cebd ca26 0ebf 7985 45bf
000002d0: 198c 7dbe c6df de3d 705f a93e ae49 2f3e
000002e0: 99a8 103e 1888 5e3e b70e fa3d 37d5 09c0
000002f0: 31dc 423f cc0e 61c0 14b3 65bf 512b 1240
00000300: ae39 7c3f a60e 4bbd e861 a23e a5c6 ce3e
00000310: 1ee4 64bf 049f 59bd 26ff dd38 9e14 893e
00000320: ec52 c8bd faeb 9abe 7e13 62bd 4ff6 0bbe
00000330: 64ab d9be 5fa1 25c0 9086 383f a586 023e
00000340: 24bc 34be f799 7cbf 85a4 8f3f d14f b43e
00000350: 2fc1 973f 2227 b7be 3dd0 23c0 1c4c f83f
00000360: c3d3 4cbf 75bc 58be aadb 9dbe 86bc 9cbe
00000370: f538 34be 2917 86bf 7469 1140 788f 0440
00000380: 642b c03e 3ced 1e40 ced4 1d3f 32cc 19c0
00000390: 7108 96bf 695c 2abf cfb0 dc3e 36cd 7a3e
000003a0: bf77 6f3d ae57 98bc 45e6 c43d 514b d53d
000003b0: a53e 603d 9e6f b13d 4165 a73e 5644 d6bf
000003c0: efe1 d7bf 2674 8fbf 7d4d c53f 925a 983f
000003d0: e2dd 58bd 488d 00be 5929 35bf aadb 7a3f
000003e0: 80ef 3c3e 4f9b d3bd 7bfe b6bd 0995 afbd
000003f0: f162 43be 59a6 05bd 1da4 50bd a49e 31be

critic.0.bias f4 [128]
-0.324583 0.3414687 0.013877547 -0.17113711 -0.29453108 -0.807399 -0.51027304 -0.4123002
0.03282144 -0.4663361 0.03156874 -0.32206458 -0.04036914 0.5405399 -0.9392653 -0.34607232
-0.23165947 0.028466057 -0.046451658 0.61565346 0.24898767 0.5661049 -0.32109526 -0.30082047
-0.36533 0.020886304 0.033971764 0.7782929 0.16962048 0.20924504 -0.04432465 0.07853012
-0.712474 0.052082736 -0.19953437 -0.32742342 -0.5300239 0.3517581 -0.58017087 -0.19775577
0.24733517 0.53741556 -1.0026267 0.32979834 -0.460135 0.015458839 -0.008940209 0.18705387
-0.03505913 -0.4718626 0.28193772 -0.0028431816 0.0032159335 0.44967028 0.024053914 0.65625095
0.5782005 -0.18764977 -0.025904268 -0.12983868 0.07968675 -0.017926665 -0.06942926 0.66198075
0.23263139 -0.4564044 -0.43294957 0.49062777 -0.097346395 0.04099928 -0.21709028 -0.20436722
-0.10194198 -0.4504801 0.018802509 -0.31721786 -0.16781428 0.25722685 -0.2351589 0.5265026
0.40506482 -0.09331021 0.19503903 0.2383079 -0.0027358471 0.00263291 -0.1908851 -0.38450578
-0.28849906 0.5827569 0.22985235 -0.1920617 -0.031565975 0.10465217 -0.089537345 -0.5029596
-0.13087308 0.5906365 0.11752705 0.43327034 -0.7007671 -0.38026482 0.28266305 -0.23924465
0.2604599 0.3072284 -0.057482213 -0.0840308 0.18172522 0.2658478 0.015259517 0.36311802
0.6909512 -0.75125384 0.22541857 0.39384976 -0.40086815 -0.3571547 0.5062191 0.26456833
0.044751808 -0.3342723 -0.052346718 -0.044993628 -0.2942546 0.38014033 -0.43911213 -0.63069296
00000000: be2f a6be fcd4 ae3e a75e 633c 913e 2fbe
00000010: c7cc 96be b3b1 4ebf 41a1 02bf 0319 d3be
00000020: c66f 063d 9bc3 eebe 394e 013d a6e5 a4be
00000030: 1d5a 25bd d360 0a3f b173 70bf 6430 b1be
00000040: 2438 6dbe a631 e93c 1844 3ebd 779b 1d3f
00000050: a0f6 7e3e 40ec 103f 9966 a4be 2405 9abe
00000060: 890c bbbe c119 ab3c fa25 0b3d 343e 473f
00000070: feb0 2d3e 5544 563e c48d 35bd 66d4 a03d
00000080: b264 36bf b554 553d bd52 4cbe 0ba4 a7be
00000090: a5af 07bf a319 b43e 1486 14bf 7d80 4abe
000000a0: 6e45 7d3e 1194 093f 1256 80bf 54db a83e
000000b0: d196 ebbe 1247 7d3c f479 12bc 0d8b 3f3e
000000c0: 2a9a 0fbd fa97 f1be 245a 903e ac54 3abb
000000d0: 69c2 523b 2f3b e63e b70c c53c 1000 283f
000000e0: f304 143f 4327 40be 3035 d4bc 6ef4 04be
000000f0: cf32 a33d f1da 92bc ee30 8ebd 9277 293f
00000100: ec36 6e3e d6ad e9be 91ab ddbe 9033 fb3e
00000110: 8c5d c7bd dcee 273d ea4c 5ebe a445 51be
00000120: f5c6 d0bd 54a5 e6be b807 9a3c 616a a2be
00000130: 82d7 2bbe 3db3 833e 7fcd 70be e0c8 063f
00000140: a864 cf3e 6c19 bfbd 50b8 473e fc06 743e
00000150: e64b 33bb e68c 2c3b 6277 43be f1dd c4be
00000160: 26b6 93be 8e2f 153f 6a5e 6b3e d3ab 44be
00000170: 534b 01bd e053 d63d 5b5f b7bd f6c1 00bf
00000180: 9803 06be f433 173f 06b2 f03d 9cd5 dd3e
00000190: 7965 33bf 12b2 c2be 36b9 903e 8dfc 74be
000001a0: 005b 853e 0a4d 9d3e 7872 6bbd 5718 acbd
000001b0: 2d16 3a3e 341d 883e 0e03 7a3c 9bea b93e
000001c0: 2ee2 303f 2c52 40bf 20d4 663e ada6 c93e
000001d0: 973e cdbe fbdc b6be 9397 013f 8075 873e
000001e0: ac4d 373d bd25 abbe 8369 56bd 3d4b 38bd
000001f0: 8aa8 96be c1a1 c23e 4ed3 e0be 1875 21bf

critic.2.weight f4 [128, 128]
-0.25592223 -0.19391571 -0.023817042 -0.371089 0.12369224 0.27291766 0.3779927 -0.0032308928
1.133697 -0.37109083 0.04450658 -1.3427272 -0.4838136 -1.1362374 -0.030660104 -0.030063642
0.5017588 0.38616574 -0.22376315 -1.0819712 -0.3090227 0.4089987 0.21678613 1.1411033
-0.049352944 0.40224513 -0.69246966 0.42839497 -0.082196675 -0.42686638 -0.22453153 -0.5979635
-0.77021927 -0.15816188 0.46570605 -0.6211274 0.36205545 0.20536771 0.31939918 -0.45842087
0.40915498 0.084098265 0.10214438 0.12442511 -0.59613276 -0.34491205 0.049645428 -0.26623163
0.71728724 0.77535313 0.9188705 0.148519 -0.08004485 0.41449818 0.9513404 1.1440946
-0.08568793 0.24922799 0.7155301 0.8235623 -0.16651937 -0.2726826 -0.962682 0.5476142
-0.6134522 0.12880032 -2.0938556 -0.6737869 -0.35415038 -0.035270207 0.08310081 0.0410836
0.8218568 -0.30193716 0.9413402 0.071845636 0.5860597 -0.56509584 -0.61067456 0.49822384
-0.2300038 0.32977816 0.23703536 -1.6156162 0.18661895 0.14371444 0.13336152 0.030903602
0.64344615 0.7827135 0.49802855 0.7214955 0.30140716 -0.4280105 0.04893448 -0.20794897
0.34148788 0.72305566 0.5996481 -0.25560915 0.15553299 0.5155086 0.61666024 0.64998865
0.6052688 0.49195704 0.42472574 -0.38347748 -0.67063504 -0.30804753 0.5073856 0.43914214
-0.04998129 0.48960313 0.42807388 -1.795495 0.5864479 1.3036999 0.9729117 -0.22611767
-0.65402025 -0.49267676 -0.2855806 0.23531719 0.4865856 -0.15760174 -0.9511795 0.32469532
-0.7888802 -0.312474 0.21525727 1.1716527 -0.08643315 0.98338044 0.61573297 0.0006109872
-0.4001247 0.25889307 0.5257204 -0.82558423 0.16444536 -0.9191025 0.3100883 0.1885092
0.3945931 0.5496874 0.3494872 0.26066795 0.19216265 0.4990284 0.69193274 -0.18311708
-0.35630023 -0.047547434 0.07324904 -1.0712413 -0.2640677 -0.49726084 -0.50675595 0.9377677
-0.030888539 -0.10276188 -0.48250985 0.44303113 1.22148 0.013716216 0.6558269 0.0763669
1.1940917 -0.115390204 0.7711078 -0.07881026 -0.2000859 -0.080316834 -0.15881617 -0.12202544
0.12703615 0.37119377 1.0619283 0.818334 0.29157954 0.8172778 -0.6383089 0.048064776
-0.5626297 0.11337598 0.021523831 0.276667 -0.35939476 -0.9564139 -0.5307122 0.67178863
-1.0399448 -0.19951615 -0.23942745 -0.17930755 0.028834784 0.61606735 0.08098047 -0.4092951
0.6772243 0.26109943 0.7490246 0.33011046 -0.41539133 0.4769533 -1.0854498 -0.57029533
0.071755365 0.08798392 -0.8121655 -0.94530797 -0.05543377 0.6190832 -0.12523605 -0.8388251
0.15692449 0.072568245 0.06984559 0.43393382 0.059212588 -0.2197298 0.20794316 0.3034283
0.25265598 1.1446193 0.87623036 0.68254095 1.1259966 -0.11296726 -0.6210582 -0.19212607
0.4123209 0.08990729 -0.28966025 -0.9352553 0.18718088 -0.11229433 0.152131 -0.6035513
0.033154637 0.7914862 0.09661967 -1.119261 -0.17946638 0.085055694 0.112070516 -0.33460185
-0.28592718 -0.8152222 0.802498 0.000759354 0.3228332 -0.16025001 -1.0789729 -0.08756986
00000000: 3d08 83be d791 46be f51b c3bc 61ff bdbe
00000010: 5b52 fd3d ddbb 8b3e 4288 c13e 63bd 53bb
00000020: fc1c 913f 9eff bdbe 884c 363d 7cde abbf
00000030: 6bb6 f7be 3a70 91bf e62a fbbc 0748 f6bc
00000040: 4473 003f 84b7 c53e 2b22 65be 087e 8abf
00000050: 3938 9ebe 4768 d13e 2ffd 5d3e ac0f 923f
00000060: 5026 4abd 13f3 cd3e b145 31bf 9656 db3e
00000070: bb56 a8bd 3b8e dabe 98eb 65be 2314 19bf
00000080: 172d 45bf 30f5 21be 0671 ee3e 3502 1fbf
00000090: 555f b93e ea4b 523e 4a88 a33e 24b6 eabe
000000a0: c37c d13e b63b ac3d 1331 d13d 98d2 fe3d
000000b0: 289c 18bf 5098 b0be 0159 4b3d 834f 88be
000000c0: 23a0 373f 8b7d 463f 193b 6b3f 5d15 183e
000000d0: 8eee a3bd 1b39 d43e 0b8b 733f b171 923f
000000e0: 277d afbd 9f35 7f3e fb2c 373f fbd4 523f
000000f0: 0e84 2abe 0e9d 8bbe 5472 76bf 7230 0c3f
00000100: 340b 1dbf 3be4 033e bb01 06c0 4c7d 2cbf
00000110: 3353 b5be 7e77 10bd c230 aa3d 4747 283d
00000120: 3565 523f 8297 9abe acfb 703f ce23 933d
00000130: 0208 163f 1faa 10bf 2b55 1cbf 3217 ff3e
00000140: 1e86 6bbe afd8 a83e 66b9 723e 83cc cebf
00000150: 0a19 3f3e e129 133e ec8f 083e 8d29 fd3c
00000160: e3b8 243f e95f 483f 99fd fe3e eeb3 383f
00000170: 0a52 9a3e 3124 dbbe 856f 483d 93f0 54be
00000180: 80d7 ae3e 2d1a 393f 8a82 193f 34df 82be
00000190: 0a44 1f3e 5ff8 033f 72dd 1d3f a865 263f
000001a0: e5f2 1a3f cbe1 fb3e a775 d93e 2957 c4be
000001b0: bdae 2bbf 68b8 9dbe 06e4 013f 3dd7 e03e
000001c0: 2eb9 4cbd 43ad fa3e 802c db3e c8d2 e5bf
000001d0: 7321 163f a3df a63f be10 793f 648b 67be
000001e0: df6d 27bf 2140 fcbe 9f37 92be fdf6 703e
000001f0: bf21 f93e 5a62 21be 8080 73bf 773e a63e
00000200: 0ef4 49bf 98fc 9fbe 676c 5c3e b7f8 953f
00000210: dd03 b1bd d2be 7b3f ada0 1d3f a82a 203a
00000220: 25dd ccbe a28d 843e 9d95 063f 7d59 53bf
00000230: 5d64 283e 4d4a 6bbf e5c3 9e3e 8e08 413e
00000240: 1b08 ca3e 50b8 0c3f fcef b23e 4576 853e
00000250: 49c6 443e a780 ff3e 8122 313f 0b83 3bbe
00000260: fc6c b6be 19c1 42bd 9803 963d 6f1e 89bf
00000270: e233 87be f998 febe c2ba 01bf 8b11 703f
00000280: f609 fdbc d274 d2bd 880b f7be fad4 e23e
00000290: 7559 9c3f fbb9 603c 46e4 273f 4066 9c3d
000002a0: ffd7 983f b351 ecbd 5267 453f 4667 a1bd
000002b0: 51e3 4cbe 277d a4bd b5a0 22be 79e8 f9bd
000002c0: c415 023e 1c0d be3e 44ed 873f 567e 513f
000002d0: ea49 953e 1e39 513f 3668 23bf 92df 443d
000002e0: 8008 10bf aa31 e83d bf52 b03c 4ca7 8d3e
000002f0: 9702 b8be 8bd7 74bf c1dc 07bf 57fa 2b3f
00000300: e91c 85bf f64d 4cbe 782c 75be 669c 37be
00000310: ed36 ec3c 97b6 1d3f 17d9 a53d 218f d1be
00000320: 925e 2d3f d3ae 853e 14c0 3f3f 3d04 a93e
00000330: 2cae d4be 3933 f43e 05f0 8abf e0fe 11bf
00000340: 7af4 923d ea30 b43d 14ea 4fbf b4ff 71bf
00000350: 850e 63bd 3d7c 1e3f e13d 00be 3ebd 56bf
00000360: d0b0 203e a99e 943d 340b 8f3d 932c de3e
00000370: e688 723d d900 61be 0def 543e f45a 9b3e
00000380: 205c 813e e382 923f a250 603f 01bb 2e3f
00000390: a820 903f 615b e7bd acfd 1ebf b2bc 44be
000003a0: ba1b d33e 5021 b83d 594e 94be e46c 6fbf
000003b0: 58ac 3f3e 92fa e5bd 3bc8 1b3e 5782 1abf
000003c0: 28cd 073d d79e 4a3f 89e0 c53d f243 8fbf
000003d0: 09c6 37be ae31 ae3d 3a85 e53d ef50 abbe
000003e0: 0c65 92be 67b2 50bf 8270 4d3f 620f 473a
000003f0: 654a a53e 9418 24be c91b 8abf d457 b3bd

critic.2.bias f4 [128]
-0.36848292 -0.41362268 -0.07028651 -0.2058165 0.08590981 0.3955018 -0.31761375 0.260097
-0.14778917 0.2169329 0.21055661 0.027779486 0.15676633 0.5020695 0.19976509 -0.53871095
0.13471813 -0.5460964 -0.22593549 -0.16226962 -0.054117333 -0.4661686 0.09207602 -0.08235145
0.28699756 1.2567282 -0.22376035 0.18894745 -1.9056398 -0.36486065 0.47528452 0.12777561
-0.02710416 -0.6898704 -0.466116 0.004346027 0.26264203 0.30260268 -0.76742893 0.2927615
-0.8072025 -0.18262962 -0.17653961 -0.03594759 0.5266827 0.18706578 -0.11219099 0.37145495
-0.3664894 0.16174425 0.697796 -0.03177342 0.5018697 0.28381965 0.12941822 -0.26578078
0.276663 -0.037632223 -0.16876766 -0.2517237 -0.012781883 0.8542883 -0.25268716 0.21543421
0.03819463 -0.25323355 0.14983481 -0.20454499 -0.14073905 -0.10695001 -0.019790022 -0.21524651
-0.33009818 -0.123303995 0.13354543 0.23570469 -0.13097794 -0.19279656 0.62175757 0.38466486
-0.3288217 -0.036957216 0.07116621 0.58536696 -0.81779206 0.28170216 0.2539111 0.00016023128
-0.54690695 -0.13975309 -0.585538 -0.019797543 0.16647917 0.20780668 -0.06230392 -0.09723861
0.15770747 -0.15584125 0.07383291 0.25642782 0.025897663 0.3464682 0.30841196 0.3850533
0.4559375 -0.091400996 -0.3942129 0.46436822 0.209142 0.035663 -0.77812696 -0.3194289
0.070432365 0.16078986 0.17433797 0.47201765 0.076994784 0.10355435 -0.45908022 -0.23222432
0.32509768 -0.3782095 0.4614863 0.08411476 -0.07314184 0.25456822 0.26533335 -1.5859729
00000000: cba9 bcbe 5ac6 d3be 60f2 8fbd 90c1 52be
00000010: 7cf1 af3d 367f ca3e 459e a2be 6f2b 853e
00000020: 0b56 17be a823 5e3e 279c 573e ce91 e33c
00000030: 5a87 203e a087 003f 388f 4c3e f6e8 09bf
00000040: 8df3 093e f9cc 0bbf a25b 67be 022a 26be
00000050: 23aa 5dbd a7ad eebe 5a92 bc3d e1a7 a8bd
00000060: 58f1 923e 78dc a03f 6f21 65be 717b 413e
00000070: 01ec f3bf 04cf babe 7e58 f33e 9cd7 023e
00000080: 8b09 debc 599b 30bf c2a6 eebe 1e69 8e3b
00000090: 0479 863e bdee 9a3e 3976 44bf d6e4 953e
000000a0: d3a4 4ebf 4203 3bbe cdc6 34be c83d 13bd
000000b0: add4 063f 2c8e 3f3e 64c4 e5bd 582f be3e
000000c0: 80a4 bbbe 49a0 253e c2a2 323f d824 02bd
000000d0: 887a 003f cf50 913e 3686 043e 6b14 88be
000000e0: c6a6 8d3e 3f24 1abd 6ed1 2cbe eee1 80be
000000f0: 1a6b 51bc a3b2 5a3f 3660 81be c99a 5c3e
00000100: f971 1c3d d4a7 81be 4c6e 193e 3e74 51be
00000110: e61d 10be 9b08 dbbd af1e a2bc 9569 5cbe
00000120: a102 a9be ce86 fcbd 22c0 083e 925c 713e
00000130: 151f 06be 766c 45be 812b 1f3f cbf2 c43e
00000140: 515b a8be 7360 17bd 97bf 913d 9cda 153f
00000150: d25a 51bf 443b 903e a300 823e c203 2839
00000160: 1802 0cbf 6f1b 0fbe d2e5 15bf 752e a2bc
00000170: 8479 2a3e 46cb 543e 6532 7fbd 0925 c7bd
00000180: 117e 213e d994 1fbe b535 973d 824a 833e
00000190: 5627 d43c 4864 b13e 2ce8 9d3e b525 c53e
000001a0: a470 e93e 7230 bbbd 46d6 c9be acc1 ed3e
000001b0: 5229 563e 5e13 123d 5433 47bf 2f8c a3be
000001c0: d83e 903d 19a6 243e a785 323e 4cac f13e
000001d0: 71af 9d3d 4e14 d43d 900c ebbe 36cc 6dbe
000001e0: 3473 a63e ada4 c1be ef47 ec3e 5c44 ac3d
000001f0: 64cb 95bd c456 823e c6d9 873e 2901 cbbf

critic.4.weight f4 [1, 128]
0.00041643874 -0.0008535336 -0.0031422377 2.886913e-05 -0.00048904604 2.5091236e-05 0.00031062824 9.006818e-05
0.000110977686 0.0060801655 0.00024285658 0.00031662747 5.5160785e-05 4.4574535e-05 -0.00044405865 -0.00026702785
-8.6219996e-05 -0.0005335892 -0.0011241249 -0.00065950124 -0.0010222972 -4.8891583e-05 6.125595e-05 0.0036964316
3.1751428e-05 0.062351733 -0.00015536539 0.003457221 0.1352491 -0.00014500323 1.6750597e-05 0.0013302703
-0.0010925627 0.020710528 0.002257013 -2.903097e-06 0.00030816306 -0.00026810577 -0.06588142 6.073372e-06
1.816369e-05 6.617397e-05 0.00012222992 0.006416465 -0.0016569119 0.0055491645 -0.018520528 0.0016917681
-0.0004315977 0.0014177044 3.0024787e-05 -0.0002451837 -5.497473e-05 -9.159571e-05 -0.007464131 -0.0105541665
-8.878794e-05 -8.946725e-05 0.000120211116 -0.00024828356 -0.00015264886 -0.0024712097 0.04135542 0.15672368
0.0011534971 0.00050937885 9.441779e-05 0.0003164512 2.360159e-05 9.375131e-05 0.00026169477 0.00087885256
0.000105666775 8.5175314e-05 -0.0002778534 0.0006253169 -0.00017385911 0.0003890899 -0.00204719 0.0011142149
-0.0014021472 -0.00050862326 -0.00036660235 0.0011873192 -1.0799472e-05 -0.0019686976 0.0010440539 0.0022013104
-0.011300687 0.0029851291 0.0010151331 0.00023078162 -8.4147294e-05 -0.000105733154 0.00068921293 0.0012734812
0.00059597736 -0.0006999172 6.5820605e-05 0.00020548815 0.00016162959 -0.006160839 -0.0002818041 -5.7955534e-05
0.00038858422 -3.0704035e-05 3.5205507e-05 -4.2059604e-05 -0.0058441437 -0.0012169488 0.003903566 -0.00034434517
-4.404236e-05 -0.00050377514 0.00016404726 0.00095833506 -5.379402e-05 -0.008755788 -0.00015811344 0.0003596601
-0.0014344413 0.00017420619 0.0034107706 -0.00093738764 1.6435499e-05 -0.0002899148 -0.00030529095 0.0623948
00000000: 7655 da39 acbf 5fba 00ee 4dbb fc2b f237
00000010: 5333 00ba 057b d237 d1db a239 fce2 bc38
00000020: b1bc e838 203c c73b 51a7 7e39 0501 a639
00000030: 715c 6738 8bf5 3a38 8bd0 e8b9 dfff 8bb9
00000040: 02d1 b4b8 91e0 0bba 5f57 93ba 61e2 2cba
00000050: 9afe 85ba f010 4db8 8a76 8038 d53f 723b
00000060: d62c 0538 8864 7f3d 94e9 22b9 8b92 623b
00000070: bd7e 0a3e 020c 18b9 a283 8c37 775c ae3a
00000080: 5234 8fba 20a9 a93c 65ea 133b d4d2 42b6
00000090: f290 a139 8c90 8cb9 d7ec 86bd dec9 cb36
000000a0: 3a5e 9837 e1c6 8a38 d82a 0039 3641 d23b
000000b0: bd2c d9ba c4d5 b53b 5db8 97bc 51be dd3a
000000c0: 1048 e2b9 44d2 b93a bddd fb37 008c 80b9
000000d0: ab94 66b8 1317 c0b8 ab95 f4bb 62eb 2cbc
000000e0: aa33 bab8 5da0 bbb8 da19 fc38 0e2c 82b9
000000f0: 5e10 20b9 05f4 21bb 4d64 293d 2c7c 203e
00000100: f130 973a d687 053a 2a02 c638 5ce9 a539
00000110: 07fc c537 5a9c c438 1434 8939 cc62 663a
00000120: 6b99 dd38 26a0 b238 daac 91b9 4fec 233a
00000130: f34d 36b9 c3fe cb39 262a 06bb d90a 923a
00000140: 41c8 b7ba 2155 05ba 8934 c0b9 d29f 9b3a
00000150: 612f 35b7 4405 01bb a3d8 883a dc43 103b
00000160: 8426 39bc 28a2 433b 370e 853a f8fd 7139
00000170: 3c78 b0b8 0ebd ddb8 4cac 343a f0ea a63a
00000180: 5d3b 1c3a a67a 37ba 2b09 8a38 4e78 5739
00000190: 1d7b 2939 dde0 c9bb 1bbf 93b9 4815 73b8
000001a0: e4ba cb39 35c8 00b8 a0a9 1338 2869 30b8
000001b0: 3b80 bfbb 0782 9fba f8d2 7f3b 3a89 b4b9
000001c0: 20ba 38b8 c70f 04ba 1a04 2c39 c738 7b3a
000001d0: e4a0 61b8 7074 0fbc 41cb 25b9 c390 bc39
000001e0: dd03 bcba 1eab 3639 3c87 5f3b 05bb 75ba
000001f0: f7de 8937 b5ff 97b9 750f a0b9 b191 7f3d

exp_avg f4 [4]
-1.6891347e-06 -0.015204731 7.226926e-06 -2.2690417e-06
00000000: 3ab6 e2b5 441d 79bc d27e f236 d745 18b6

exp_avg_sq f4 [4]
7.968841e-09 0.022812245 5.511519e-09 5.777897e-09
00000000: 55e7 0832 bfe0 ba3c d55f bd31 eb86 c631
