examples/drone/logs/drone-hovering/model_100.pt (torch, 474922 bytes, 36 tensors)

std f4 [4]
000000 ae 1e 36 3f 3c 30 33 3f 11 13 34 3f 00 ab 3e 3f
       0.71140563 0.69995475 0.70341593 0.74479675

actor.0.weight f4 [128, 17]
000000 d2 22 4d bf 31 23 96 be f2 20 a6 bf 89 33 cb 3d
       -0.80131257 -0.29323724 -1.2978804 0.09921939
000010 73 4b bd be d5 de c9 3f 6f 8b 01 3e e7 2b 4d 3f
       -0.36971626 1.5771128 0.12650846 0.80145115
000020 5b 72 9d 3e 28 b5 3b 3f e6 28 e8 bd 4c 98 0a 3d
       0.3075131 0.733233 -0.11335926 0.033836648
000030 37 45 24 3e 5e 65 c7 3d b9 1a eb 3c a2 4a f0 3d
       0.16042028 0.09736131 0.028699266 0.11732985
000040 b5 8e a1 3c 4e 85 4d be 9e 5e 10 3f 54 d6 bb 3f
       0.019721368 -0.20070383 0.56394374 1.4674783
000050 17 cc 27 bd 78 f1 b8 3f 3e ea 8f 3e eb 41 be be
       -0.04096612 1.444869 0.281084 -0.37159666
000060 bf e2 bb bd c5 06 f3 bd 5e 58 72 be 6d 2e 20 3e
       -0.09174108 -0.118665256 -0.23666522 0.1564271
000070 b3 ce 13 3e a0 d0 e5 3d c9 8a c3 bd 59 af 81 bd
       0.14434318 0.11221433 -0.095479555 -0.06332273
000080 4f a9 43 3e d3 68 8a 3d c9 1a 6d 3f a9 72 95 bf
       0.19107555 0.06758275 0.92618996 -1.1675617
000090 51 ca f9 3e df b4 1e be 1f 86 89 be c0 e8 73 be
       0.48787168 -0.15498684 -0.2686014 -0.23819256
0000a0 74 a5 37 bf 6f c0 94 3d ed dd 02 bd 6f ed e5 bd
       -0.71736836 0.07263266 -0.031949926 -0.112269275
0000b0 fb 1a b3 3d 99 4f 1f be 62 a4 64 3c 8b b8 c9 3d
       0.087453805 -0.15557708 0.013955208 0.09849652
0000c0 77 a6 de bd 96 7e a7 3d 63 90 52 3d d2 f6 10 3e
       -0.108715944 0.08178441 0.05140723 0.14156654
0000d0 ea 27 22 3f 0e aa 3e 3f 31 52 f7 3a 49 aa 90 be
       0.63342154 0.7447823 0.00188691 -0.28254917
0000e0 c3 48 2c bf ea dc 66 bf 68 a4 a0 3d a9 ea f6 be
       -0.67298526 -0.9018084 0.07843858 -0.48225906
0000f0 61 41 5a be 07 b5 1c 3d 60 80 ca 3d 2f 9e a3 bd
       -0.21314003 0.03825858 0.09887767 -0.079891555
000100 a6 28 b7 bc f0 1c 84 bc 77 29 3f bd 4b 1a 3d 3d
       -0.02235825 -0.01612708 -0.046670403 0.046167653
000110 a9 33 30 bf 85 a5 02 3e 18 84 5c 3f 49 a4 59 bd
       -0.6882883 0.12758453 0.8613906 -0.05313519
000120 d8 14 3f be 7e 1f 0f 3f 96 cb 0b bf 9c 07 0a 3e
       -0.18660295 0.5590743 -0.5460752 0.13479465
000130 a3 d0 c7 be 8c f6 37 3e 96 d4 0a be e8 9e b2 3e
       -0.39026365 0.17965144 -0.13557658 0.3488686
000140 53 7c 1d be 6a 24 d8 3d bb 92 1e bd d4 52 c9 3d
       -0.15379457 0.105538204 -0.03871415 0.09830251
000150 2f 6d 2f bd 7f 74 bf 3e 5c 24 b1 be 3b 50 a2 be
       -0.042828735 0.37393567 -0.34598053 -0.31701836
000160 a7 ba 54 3e 55 8c 57 be 83 c1 3a bf 8c b4 5e be
       0.20774327 -0.21049626 -0.72951525 -0.2174856
000170 c8 66 91 bc 18 44 16 3e c7 d5 c3 be 60 6b 2f 3d
       -0.017749205 0.14674413 -0.38249037 0.04282701
000180 5c 55 a2 3c 77 a2 14 bd 90 82 00 bd 18 a2 10 be
       0.019816093 -0.03628775 -0.031374514 -0.14124334
000190 e6 bf 16 bd d2 01 e7 bc 4c 6b e5 be 18 bd 90 3f
       -0.036804102 -0.02819911 -0.44808424 1.1307707
0001a0 13 11 9f 3f bb a7 87 3c 0a 88 13 3f 23 13 1b 3f
       1.2427086 0.016559472 0.57629454 0.60576075
0001b0 5c 3e 6a be 84 9f 4e 3d f8 74 f4 be 40 8b 07 bf
       -0.2287535 0.050445095 -0.4774549 -0.52946854
0001c0 ec 3b 50 3e 56 be 84 3c d9 98 eb bd 68 70 be bd
       0.20335358 0.01620404 -0.11503763 -0.092987835
0001d0 27 21 6e bc 90 37 81 3d 9c eb 8b bc 14 93 cc be
       -0.014534271 0.06309426 -0.01708012 -0.39955962
0001e0 5d 2e bc 3e 7e d1 21 bf 12 a5 b8 3d 26 7d bc be
       0.36754122 -0.63210285 0.0901586 -0.3681423
0001f0 75 53 59 be c1 45 7e 3f 4e d8 59 3e bf 08 76 3e
       -0.21223243 0.99325186 0.2127392 0.24026774
000200 3e 69 2e be 02 26 97 bd 8b f6 dd 3d cd ba 9a 3d
       -0.17032334 -0.07380296 0.1083804 0.07555161
000210 92 24 c7 bc 42 fa 18 bd d6 6b 57 3d 93 1f 45 3d
       -0.02430943 -0.03734804 0.052593075 0.048125815
000220 c4 69 0d be 8d 84 62 bf 02 3f 5c 3e b8 1a 5d be
       -0.13809878 -0.88483506 0.2150841 -0.21592224
000230 4e e4 a9 bf 73 48 bf 3d de f8 b4 3d a8 d7 bd bd
       -1.3272798 0.093399905 0.0883653 -0.09269649
000240 76 09 73 3e d5 22 80 3e 8a 3c 2c be bf 7f d0 3c
       0.23734078 0.25026575 -0.16819969 0.02545154
000250 d7 25 4e bd 53 2a 64 3c 3f 8f 6b 3d b0 12 88 3d
       -0.050329056 0.0139261065 0.057509657 0.06644189
000260 a2 40 b8 bc 14 d3 ad 3e 00 fb 7c be ca ad 3b 3e
       -0.022491757 0.33950102 -0.24705124 0.18328014
000270 a1 2e 36 3d 12 a1 b0 3e 37 33 4a 3e 83 aa f3 be
       0.044478063 0.34497887 0.197461 -0.47591028
000280 47 a6 95 be d3 1a 2d 3d 30 5b d7 be 94 cf a8 3d
       -0.29228422 0.04226191 -0.42061758 0.082427174
000290 94 02 a8 be a4 14 53 be ec 39 0a be 74 0b 2b 3d
       -0.32814467 -0.20613343 -0.13498658 0.04175897
0002a0 c3 21 dd bd 8e d3 33 3d 49 65 3b 3f 74 53 1b 3f
       -0.10797455 0.043902926 0.73201424 0.60674214
0002b0 cc 31 a4 3e cc b5 90 3d 6e 2c 39 3f 89 a1 52 bf
       0.32069242 0.07065925 0.7233342 -0.82277733
0002c0 d7 ab ad bf 98 6c 25 bf 6f d6 a4 be 95 58 90 be
       -1.3568066 -0.64618826 -0.3219485 -0.28192583
0002d0 63 9e 4e 3e d8 c0 93 be 17 c1 ed be cc 86 48 bd
       0.20177607 -0.28858066 -0.46436378 -0.048956677
0002e0 95 39 fa 3c 2f 3f 24 3e 33 b7 6a 3b 6e cc b3 be
       0.030545035 0.16039728 0.0035814762 -0.35116905
0002f0 6c 5b 9c bd 1f d5 34 3f e6 7d 2f 3d 88 78 f7 3e
       -0.07634625 0.70637697 0.042844675 0.48334146
000300 01 d9 f4 3d e8 3e 4f be 26 f6 5d 3e 3c 2a f4 3d
       0.11955453 -0.2023884 0.2167593 0.11922118
000310 a5 35 a1 be 98 59 e5 bc 22 e7 57 bd a7 5f 2c 3b
       -0.3148624 -0.027996823 -0.05271066 0.002630213
000320 a5 5e 11 3d b0 41 09 bd 4d 67 38 3c 66 0f 48 3d
       0.03549065 -0.03350991 0.011255098 0.04884281
000330 06 e8 00 3f 42 0a 63 be 42 6e 8d be 10 2c ed 3d
       0.5035404 -0.22171882 -0.27623183 0.1158067
000340 6f 1c ba bd 12 9d b4 3d d6 c0 c3 be ca 66 62 3e
       -0.090874545 0.08819021 -0.3823306 0.22109523
000350 62 e7 83 be c8 f7 35 bc 70 c0 b8 bd 07 49 5c 3e
       -0.2576247 -0.011106439 -0.090210795 0.21512233
000360 6f 92 1b be 83 6a 1e be ea d0 dd 3d 80 23 31 bd
       -0.15192579 -0.15470318 0.10830863 -0.043246746
000370 9e b0 4d 3e f4 6b 9a be 82 1a 89 3f da 55 97 3e
       0.20086905 -0.30160487 1.0711215 0.29557687
000380 2a 84 77 bc 75 60 ae 3f 19 80 b2 3e 20 8c 19 3f
       -0.015107194 1.3623186 0.34863356 0.5997944
000390 93 b1 4e 3e 90 86 35 bf 50 93 16 bf 61 6a 4a 3e
       0.20184927 -0.7090845 -0.5881853 0.19767143
0003a0 ea 89 4e 3e 0b 78 9f bd 05 d4 3d 3d ca a0 50 3d
       0.20169798 -0.07786568 0.046344776 0.05093459
0003b0 85 dc aa bd ee 57 9e 3c 06 fc 93 3f 2c 97 bb 3e
       -0.08342842 0.019329038 1.1561286 0.36638772
0003c0 ef 54 a5 3f a2 09 5c be c8 12 6d 3f 47 d6 10 be
       1.2916545 -0.2148805 0.9260678 -0.1414424
0003d0 0c af 1c bf 47 ac 34 bd e9 93 3f bf 45 1e da be
       -0.612046 -0.04410961 -0.7483507 -0.4260122
0003e0 fe 9a 91 bd f2 19 33 be cb 2c 90 bd 61 98 aa bd
       -0.071096405 -0.17490366 -0.070397936 -0.08329845
0003f0 24 a0 90 3d c9 6a dc bd d4 94 3f 3c e6 e9 42 bd
       0.070617944 -0.10762555 0.011693198 -0.047586344

actor.0.bias f4 [128]
000000 bc aa 38 be 1a 81 74 bd 9f 93 53 3d b3 16 1d 3d
       -0.1803388 -0.059693433 0.051654454 0.038351726
000010 60 cd bb bd 0c 81 b5 bd 64 a4 fe bc dc f2 f3 bd
       -0.091700315 -0.08862504 -0.031084247 -0.11911556
000020 12 84 22 3e 50 49 b4 3c 1a de 28 be ce a5 a9 bd
       0.15870693 0.022007614 -0.16490975 -0.08283578
000030 87 62 bf 3d fb 4e 78 bd 78 85 ed 3d d2 50 12 be
       0.093449645 -0.060622197 0.11597723 -0.14288643
000040 8f 8a e8 3d 99 b1 02 be 0e 40 c2 3d 3c d4 ad 3d
       0.11354553 -0.1276306 0.09484874 0.08487746
000050 26 3e f4 bd 27 86 d2 3d f7 5c 0d 3e 51 fc 19 bd
       -0.119259164 0.10279494 0.13804995 -0.037594143
000060 2a 79 b8 3d bb 07 9e 3c 69 44 11 3e 57 22 3e be
       0.09007485 0.019290796 0.14186253 -0.18567787
000070 7f bc 15 3d a0 61 af bd f2 a8 be 3d b2 36 93 3d
       0.036556717 -0.08563542 0.093095675 0.07188167
000080 63 1e cb 3d 0a 53 09 3e 9d 17 98 3d 5e b4 12 3d
       0.09917905 0.13410583 0.07426379 0.035816543
000090 9c 8c fb 3d 04 15 a9 bc 0b ed 34 be 45 47 aa bd
       0.122826785 -0.020639904 -0.1766855 -0.08314375
0000a0 72 53 17 be 81 cb c3 bc 09 68 93 bc 37 de e1 bd
       -0.14777926 -0.02390075 -0.017993944 -0.11028712
0000b0 7d fa e4 3d 19 c9 01 be b4 c4 be ba b3 53 07 bd
       0.11180589 -0.12674369 -0.0014554472 -0.033038806
0000c0 7e 78 19 3e 5b 3e ba 3d 36 c4 cb 3d 9b 8b 72 bd
       0.1498737 0.090939246 0.09949534 -0.05921517
0000d0 e8 d9 a6 bd d0 48 7f 3c f2 d9 32 3e 14 56 88 bd
       -0.08147031 0.015581325 0.17465952 -0.06657043
0000e0 9d 50 fa bc 22 a6 56 3c fd e0 b6 3d 6e 3c 06 3e
       -0.030556018 0.013101133 0.08929632 0.1310899
0000f0 ab 3a d1 3c ff b0 9a bc 74 7e 64 3e b9 14 9c 3d
       0.02554067 -0.018883226 0.22313863 0.0762114
000100 93 df c9 bd b6 d0 1d bd d6 29 45 3d 08 d3 9a bd
       -0.098570965 -0.03852912 0.0481356 -0.07559782
000110 65 78 c9 bd 35 43 01 3e f6 cf 08 3d 54 9d b4 bd
       -0.098374166 0.12623294 0.033401452 -0.088190705
000120 d0 dc 32 bd 27 b3 e7 3c cf 60 37 3e 00 41 d9 3d
       -0.043667614 0.028283669 0.17908023 0.10608101
000130 6e b5 21 3d a8 b8 0c bc 2d 9b 70 bd ce b3 d7 3c
       0.039479665 -0.008588947 -0.058741737 0.026330855
000140 74 8b ed 3d 1e ad d8 3d 9b ca 38 3e 86 de df bd
       0.11598864 0.105798945 0.18046038 -0.10931115
000150 e6 0c b0 bc 52 66 a1 3d 7c 74 3a 3d cf 5a e1 bd
       -0.021490525 0.07880844 0.045521244 -0.110036485
000160 d6 1e a2 3d e3 c2 f5 3d 51 e2 0b be be f8 37 3e
       0.07916038 0.12000062 -0.13660552 0.17965981
000170 98 b0 da bd b0 d3 d4 bc 85 96 d1 bd ad 88 4b 3d
       -0.10678214 -0.025979847 -0.102337874 0.04969089
000180 66 6b aa bd d2 f1 bf bc 22 99 c3 ba 2f 57 87 be
       -0.08321266 -0.023430739 -0.0014922956 -0.26433703
000190 bc 04 b0 bd 73 0c a2 3a 68 80 4f 3d ae 16 55 3c
       -0.08594653 0.0012363329 0.050659567 0.013005896
0001a0 4c 66 c0 3d 24 aa 5c 3d a6 20 39 3e d6 8b f9 bd
       0.093945116 0.053873196 0.1807886 -0.12184875
0001b0 80 44 1e 3e 25 b6 69 bd 13 38 d0 3d ea 3f 51 bc
       0.15455818 -0.057058472 0.10166945 -0.012771586
0001c0 f5 b7 54 be c4 c6 8e bd f1 e7 9e bd e4 ad 8f 3d
       -0.20773299 -0.06971505 -0.07759083 0.07015589
0001d0 64 46 fe 3d 00 3f ca 3c 8b 3b bf 3d bc 6b 83 3b
       0.1241577 0.024688244 0.09337529 0.0040106457
0001e0 58 2f 56 3c 6f f3 29 3e 83 f2 ca 3b 9e 19 68 be
       0.013072811 0.16596769 0.0061934604 -0.22666022
0001f0 72 a1 07 be ab a3 f2 bc 82 ba 21 3d de 44 4e be
       -0.1324518 -0.029619059 0.03948451 -0.20143458

actor.2.weight f4 [128, 128]
000000 d0 72 0c 3f 19 76 a5 be 8a c6 04 be 56 fb 17 3e
       0.5486269 -0.32316664 -0.12966362 0.14841971
000010 4e 14 0d be 5a 9c bd bc d7 bc 80 be b3 c7 e0 3e
       -0.13777277 -0.023145843 -0.25144073 0.43902358
000020 eb aa c7 ba b7 27 78 bd 22 79 8a bd 7d da 33 be
       -0.0015233433 -0.06058475 -0.067613855 -0.17563815
000030 81 d4 6e 3d a4 14 31 be a6 61 a0 be 6d 60 22 3e
       0.05830813 -0.1729303 -0.313245 0.15857096
000040 4c ae a3 3c 92 b0 01 3f 6d 7f b5 bd 22 be 89 be
       0.019980572 0.5066005 -0.08862195 -0.26902872
000050 f4 ea 39 bd 3a 7b 8d 3e 08 3e 23 bc a2 73 a9 bd
       -0.045390084 0.27633077 -0.00996352 -0.08274008
000060 ea d4 9f bc 54 72 63 3f 2c 70 dd bc 7d 31 30 3e
       -0.019510705 0.88846326 -0.027031027 0.17206378
000070 4e 9b 95 be 3b 39 1e 3e 92 50 42 bd de 71 f5 bd
       -0.2922005 0.15451519 -0.04744012 -0.11984609
000080 f2 7d f5 3c 86 a8 36 3d c8 85 45 be 5a 1f 78 bd
       0.029967282 0.04459431 -0.19289315 -0.060576774
000090 90 8d f6 3d 94 29 14 be 0d 8f 05 3d f5 a6 4c be
       0.1203872 -0.14468986 0.032607127 -0.19985564
0000a0 04 a3 41 bd 6e 8e 02 bf 08 14 bb 3e 66 63 86 be
       -0.047274604 -0.5099858 0.3653872 -0.2624771
0000b0 c5 66 ea 3e ef 26 76 be 02 e3 79 be bb f0 10 3e
       0.45781532 -0.2403829 -0.24403003 0.14154331
0000c0 24 0c 66 bb 85 1b 28 3d 12 d4 07 3e e2 d2 60 be
       -0.0035102451 0.04104187 0.13264492 -0.21955445
0000d0 10 61 77 3e c2 bb 1a bd e6 47 0c be 79 ad 83 3d
       0.2415812 -0.037776716 -0.13699302 0.06429572
0000e0 24 d7 43 be 89 2e c8 be c2 a6 0e 3d c6 e9 3b be
       -0.19125038 -0.39098004 0.034827 -0.18350896
0000f0 d3 98 c6 3e 2e 04 da 3d 16 d8 56 be 9f 03 b2 3e
       0.3878847 0.106453285 -0.20980868 0.34768388
000100 ea e5 45 3e 7d ab d7 3e dc da f8 bd 7b f4 4b be
       0.19325987 0.42123023 -0.12151119 -0.1991748
000110 14 36 82 bd 8a 4b 54 3e 9b a6 39 3f b5 cb ed bc
       -0.06357971 0.20731941 0.72519845 -0.0290278
000120 12 9b be be 1f 9b 52 3e 7e 40 84 be 90 34 b2 bc
       -0.37227684 0.20566987 -0.25830454 -0.02175358
000130 7c c0 2d bd 09 1f 3c be ca cb e9 be 3e 77 75 3f
       -0.042419896 -0.18371214 -0.4566329 0.95885074
000140 f9 96 b3 bb 5f 07 a2 bd 78 0f 2e be fd f0 a1 3d
       -0.005480644 -0.07911562 -0.16998088 0.07907293
000150 a5 39 3a 3e 8e cc a0 3d 05 ac e7 be ca e1 77 be
       0.18186052 0.07851516 -0.45248428 -0.24207225
000160 0f 5d 91 3d e8 65 5f be de 3a 81 3c 2a 43 e3 3e
       0.07097828 -0.21816218 0.01577514 0.4438718
000170 46 d2 81 bd e4 5f 96 be db 86 ac 3c e0 20 2f 3e
       -0.063389346 -0.29370034 0.021060398 0.17102385
000180 cd 0b c6 bd 79 4f 54 3c 76 97 ac 3e e9 f2 db 3e
       -0.096702196 0.012958401 0.33709306 0.42958763
000190 8f 42 3c 3e 41 d1 b6 3e cf 5e 5b 3e 49 2c ba be
       0.18384765 0.35706523 0.21422885 -0.36361912
0001a0 0d fb d3 3e 43 ab 31 be f0 bc 03 3c f6 df d6 bd
       0.41402474 -0.17350487 0.008040652 -0.10491936
0001b0 9d 3e 22 3e 6c bc 6c bd 13 0b 4a 3d b4 f2 bc bc
       0.15844198 -0.05779688 0.049326967 -0.023064949
0001c0 d9 a1 8b 3e 11 45 fe 3d 84 ee fc bd e0 47 92 bd
       0.27271917 0.12415517 -0.12350181 -0.07142615
0001d0 61 40 6e be 6d 26 2c 3e 46 91 ee 3d ec 40 93 be
       -0.23266746 0.16811533 0.116488025 -0.2876047
0001e0 50 f1 9e be ea 5f ca 3d a3 8a 40 3d dd 9b 83 3c
       -0.31043482 0.098815754 0.047007214 0.016065532
0001f0 e2 77 a6 bc 91 42 1f be fa 0e 30 3d c2 13 a8 3e
       -0.020320836 -0.15552737 0.042983033 0.32827574
000200 06 23 e7 bd b5 21 2a bd 56 cc 10 3c d9 a5 69 bd
       -0.11285977 -0.04153605 0.00883778 -0.05704293
000210 03 dc 9f bd 8c 9d 73 3d a9 c1 73 3d 62 6e fc bc
       -0.07805636 0.05947642 0.05951086 -0.030814353
000220 40 7f 1d 3d 72 d9 c8 bd 2a 50 29 3d 7a 89 0c bd
       0.038451433 -0.098070994 0.041336216 -0.034310795
000230 f0 d7 00 bd 7a 75 d4 bd 03 5f 47 bd 98 be 98 3c
       -0.031455934 -0.103739694 -0.048674595 0.01864557
000240 d2 03 23 bd a0 3a 8a 3c bb 13 3e 3d 5f bb 26 bd
       -0.039798565 0.016873658 0.046405535 -0.040706035
000250 3d fb 50 bd 5f 64 3c bd d7 86 a3 3d 43 de 94 3c
       -0.05102085 -0.04599416 0.07984703 0.018172389
000260 43 d5 a1 3d a0 a9 22 bd 2e 40 88 bc 3c e1 78 bd
       0.079020046 -0.03971255 -0.016632166 -0.060761675
000270 c9 4f 44 3d 2e 7d 16 3c e1 3f 0e 3d 30 60 b0 bb
       0.04792765 0.009185119 0.03472889 -0.00538256
000280 52 fa e9 bd 33 d4 82 3d f8 00 9f bd 62 91 2b 3d
       -0.11424698 0.0638813 -0.07763857 0.041886695
000290 fb a7 ea 3c 87 c6 1c 3d f8 84 23 bd ea bd 8f 3c
       0.028644552 0.038275268 -0.03992173 0.017546613
0002a0 1a 5d a6 3d 2c d7 ed 3d 4f f4 dd 3c 97 11 42 3c
       0.081232265 0.116133064 0.027094034 0.011845014
0002b0 99 43 ca 3c f9 ab 7b bd 92 29 bf bd 95 38 cc 3c
       0.024690436 -0.061443303 -0.09334101 0.024929324
0002c0 aa ef 9e 3d 05 14 00 3d 37 0c 00 3d 3c 30 3a 3d
       0.07760556 0.031269092 0.03126165 0.045456156
0002d0 76 fc 0a 3d 19 98 c4 3b 67 0b f5 3c 84 f4 c6 3c
       0.03393217 0.0059995768 0.029912664 0.024286516
0002e0 d3 ab bb 3d 86 d8 83 3c 2a 1e 1f 3c ca 0d 36 bc
       0.09163632 0.016094457 0.0097117815 -0.011111686
0002f0 eb 02 69 bd 80 65 9b bd 13 a8 0b 3d 58 ec 9e bc
       -0.05688755 -0.07587719 0.034095835 -0.019399807
000300 01 59 b6 3b ad a6 35 bc 7c 64 88 3d 55 66 8f 3c
       0.0055648093 -0.011087102 0.06659791 0.01750485
000310 4b 0d b2 3b 16 3e 87 3d f5 6d c9 3d 46 84 09 3d
       0.0054337136 0.06603639 0.09835426 0.03357341
000320 b3 ff 87 bc 61 3e 01 3d d5 88 b8 bc 57 5c a7 3d
       -0.01660142 0.03155363 -0.022526184 0.08171909
000330 1c 49 37 3d c4 b0 97 bd f9 f3 8a 3c c9 96 da bc
       0.044747457 -0.07406762 0.016962038 -0.026683228
000340 25 a4 89 3d f0 af 71 bc 43 b7 4a 3d c6 aa df bd
       0.06720761 -0.014751419 0.04949118 -0.10921244
000350 dd b3 51 3d 58 7d 1e 3d 2e 12 f1 3b 12 ef 7a bd
       0.05119692 0.038693756 0.0073569035 -0.06126315
000360 a7 49 ea 3c 1d 9c 63 bd 3d 71 a6 3c 53 34 06 3d
       0.028599573 -0.055568803 0.020317668 0.032764744
000370 ec 7e 6e bc 38 cf c0 bd c1 b1 bf bd fa 9a 23 3b
       -0.014556628 -0.09414524 -0.09360076 0.00249642
000380 21 7a dd bc bf 59 7d bd b6 97 01 3d 9e f1 4b be
       -0.027035775 -0.061853167 0.031638823 -0.19916388
000390 65 21 ee bc c7 a8 b4 3b 5a d4 80 3c 5e be 0f 3e
       -0.029068658 0.005513284 0.015726257 0.14037463
0003a0 a4 34 19 bd c4 90 6b 3d b7 22 e8 3c 91 ae 12 bd
       -0.037403718 0.057511106 0.028336866 -0.03581101
0003b0 a0 5c 43 3c a4 31 3c bd 76 e5 c2 3d 3b 58 eb bc
       0.011923939 -0.04594578 0.095164225 -0.028728595
0003c0 0f b4 6a 3d 5b f2 e6 3b 59 ad 35 3d 4a 84 c0 bd
       0.057300624 0.007047934 0.04435477 -0.09400232
0003d0 f5 a1 8f 3d 42 ef 95 bc 17 f4 5c bd c7 40 43 3c
       0.07013313 -0.018302564 -0.05394372 0.0119173
0003e0 da 72 c3 3c b4 6e be bd dd b8 fa bc af 7a e2 bc
       0.023858476 -0.09298459 -0.030605728 -0.02764639
0003f0 6f 06 1f 3d 73 cd 35 3d 18 33 05 bd d1 6f d4 bd
       0.038824495 0.044385385 -0.03251943 -0.1037289

actor.2.bias f4 [128]
000000 3e 75 4c bd 52 4f ed 3b ca 2a 16 bd 74 87 d4 bc
       -0.0499165 0.0072421217 -0.0366619 -0.025943495
000010 8f 1d b9 3c 40 7f 44 3d 1f df 1f 3e 66 0f a8 bd
       0.022597102 0.047972918 0.15612458 -0.08206062
000020 6c 53 58 3c fa 77 b5 be 67 40 7f 3d cf 79 01 3d
       0.013203483 -0.35443097 0.06231728 0.031610306
000030 1d c3 60 bd 6b ad ea 3c 9d 11 7a 3d da 84 94 bc
       -0.054873575 0.028647145 0.061051954 -0.018129755
000040 dd 8a 07 3c 57 a3 01 3d 73 b9 85 bd 35 a8 dd 3d
       0.008272854 0.031649914 -0.06529512 0.108230986
000050 f1 43 64 bd 0e ef 09 3e 26 b2 ea bd d0 56 f8 be
       -0.055728856 0.13470098 -0.1145976 -0.48503733
000060 d2 c7 6f bb 9e 3d fd ba 56 e4 82 bc 5c 94 99 bc
       -0.0036587608 -0.0019320732 -0.01597802 -0.018747501
000070 44 dd 76 3d 9c e9 85 bc 43 9b 9e bd 21 a9 ac be
       0.06026961 -0.016346745 -0.077444576 -0.33722785
000080 de 76 b2 bd 53 c5 46 bd 9f 5c f1 3c 44 09 45 3d
       -0.08714078 -0.048528027 0.02946311 0.04810454
000090 7f d8 9b bd fe d5 f5 3e 46 5b 59 3d 5b 4a 94 bb
       -0.07609653 0.48014826 0.05306556 -0.0045254654
0000a0 54 42 51 3d b8 2e 6a 3d e2 a3 0b bf e8 8c 8a 3d
       0.051088646 0.05717346 -0.5454694 0.06765157
0000b0 df 04 d2 bc 5c ec 19 bc 44 ad 03 3d a5 80 cf bc
       -0.025637088 -0.009394731 0.03214766 -0.025329897
0000c0 ea 73 66 bd 02 76 24 bd db 08 4b bb 37 65 6d bd
       -0.056262888 -0.040151604 -0.003098062 -0.057957854
0000d0 09 78 11 3d 42 14 2e bc e3 25 95 bd dd 23 d1 3c
       0.035514865 -0.010624947 -0.07282617 0.025529796
0000e0 f2 ea f5 3c 6d 54 41 bb fa 28 24 bd 4b e5 23 be
       0.030019257 -0.0029499785 -0.04007814 -0.16005437
0000f0 76 2e a5 3d ec 3d 7b 3d ef 80 5c 3d f8 8f 8c 3d
       0.08065502 0.06133835 0.0538339 0.06863397
000100 c0 6b a3 3d f9 0b bc bd b3 e9 d6 bc 6d cb 59 3d
       0.07979536 -0.09181971 -0.026234483 0.053172518
000110 35 f2 06 be ee 30 85 3c ef af 69 be 38 f0 56 bd
       -0.13178332 0.016258683 -0.2282102 -0.052475184
000120 ee 41 2d bd fc 4e a1 3c 9d 29 03 bc 9b e6 02 3e
       -0.042299204 0.019690983 -0.008005527 0.12783282
000130 06 b2 79 3b 2b d7 0d bb 0b 3e 06 3e 86 0a 0b 3e
       0.0038100495 -0.0021643143 0.13109605 0.13578233
000140 3d e5 bf bd 4a c6 9e bc 03 e0 04 3c 77 f8 d8 3c
       -0.093698956 -0.019381661 0.008110049 0.026485665
000150 ed 82 32 bd 96 b5 29 bd 4b 68 ae 3d d5 62 c6 3d
       -0.04358189 -0.04143294 0.08515986 0.096868195
000160 0e 15 42 3c 66 14 77 3d 94 d2 86 bd 98 55 11 3b
       0.01184584 0.060322188 -0.06583133 0.0022176262
000170 d5 45 30 3d 94 0e 62 3d bd 33 31 3d aa 8b 89 bd
       0.043035347 0.055189684 0.043262232 -0.06716092
000180 47 9b 51 3d cd 97 ab bd c4 a6 b3 3d 5b 33 46 be
       0.051173475 -0.08378563 0.087720424 -0.19355528
000190 a0 05 66 3d df e9 8b 3b 72 1b c8 bd 1b 79 12 be
       0.05615771 0.004269823 -0.0977086 -0.1430401
0001a0 13 c7 35 3d 22 c7 9c 3c 12 33 a4 3d d6 0f 20 3c
       0.044379305 0.019137923 0.080175534 0.009769401
0001b0 76 2a 3c 3e 28 cc 25 bc 61 73 3f bd 26 8e 55 3d
       0.18375573 -0.010119475 -0.046740893 0.052137516
0001c0 6c 09 51 bc 8a bb 98 bd 96 e1 cc 3e 24 4b 90 bd
       -0.012758594 -0.07457645 0.40015858 -0.07045582
0001d0 e9 d1 83 bd f9 5e 4c bd de 43 39 3e 4a c4 9a bd
       -0.064365216 -0.04989526 0.18092296 -0.075569704
0001e0 1e 8f 84 3b 3f e6 c2 bd 73 d8 ee 3c 2f 85 81 bd
       0.004045381 -0.09516572 0.029155945 -0.06324231
0001f0 19 6c 41 bd 97 8a a9 bc 0b 68 c3 3c 12 cf 5e bd
       -0.04722223 -0.020695968 0.023853322 -0.054396696

actor.4.weight f4 [4, 128]
000000 5c 4e 5d be 19 0e f0 3b 9f fd b2 bb 60 49 d5 3a
       -0.21611923 0.0073258993 -0.005462363 0.0016272478
000010 34 a7 e7 bc ff 03 84 bb d9 e0 9f 3b 60 8f 79 bb
       -0.02827797 -0.0040287967 0.004879099 -0.0038079843
000020 41 be 59 bb 5d 99 4f bd c2 91 9d 3b b2 b9 ca 3b
       -0.0033224972 -0.050683368 0.0048086355 0.0061866874
000030 25 9f 6b 3c c3 0f 6a ba 84 70 ce ba 36 8b 27 3a
       0.014381205 -0.000892874 -0.0015750085 0.00063912885
000040 97 45 05 3b bf 71 7f 3a 9f af 57 bb 5c 8a 4c 3d
       0.0020335668 0.00097444275 -0.0032911075 0.049936637
000050 a4 c2 97 bb 76 a3 11 3c 6b 04 0b 3e 0e 33 94 be
       -0.0046313573 0.00888907 0.13575904 -0.28945202
000060 91 e5 ae bb f0 70 a9 bd 5f 2b f9 bb f4 ce b7 3a
       -0.005337425 -0.08273494 -0.007604047 0.0014023469
000070 af 81 17 bb e1 72 ce bb 72 07 a3 bb d4 5e e0 be
       -0.002311807 -0.0063003157 -0.004975253 -0.43822348
000080 e5 83 9a ba 85 fa 47 ba 68 87 50 3b 4a c2 90 ba
       -0.0011788575 -0.0007628578 0.003181899 -0.0011044231
000090 a5 f5 ac bb b9 92 14 bd 78 81 9b 3a 43 b6 ea ba
       -0.0052783065 -0.036272738 0.0011864146 -0.0017907101
0000a0 04 e5 89 ba a5 bb 1a 3b bb 60 01 be 08 25 2e 3b
       -0.0010520522 0.002361038 -0.12634556 0.0026572365
0000b0 ea cc be 3b d2 6d 7f ba 26 c8 3c bb e2 11 d9 bb
       0.0058227675 -0.00097438425 -0.0028805821 -0.0066244463
0000c0 71 a1 4d bc 33 62 da 3c 9b 42 55 bb 36 bd 04 bc
       -0.012550698 0.026658153 -0.003254092 -0.008101752
0000d0 69 64 ed 3a 67 20 9c 3b cc 47 bf bb cb 61 73 3b
       0.001811159 0.004764605 -0.0058374163 0.0037137147
0000e0 40 9b bf 3b 65 e1 da ba 7a 46 fd ba 7b 1f df be
       0.0058473647 -0.0016699253 -0.0019323372 -0.43578705
0000f0 ea f3 9b 3b 29 bf d2 ba e2 cb cf ba 93 f2 52 3b
       0.0047593014 -0.0016078699 -0.0015853608 0.0032188043
000100 ce 9d 09 3e 09 df aa be 90 a3 71 bb 67 ba af 39
       0.13439104 -0.33373287 -0.0036871172 0.00033517482
000110 8a 8f 2d 3d 08 67 86 3b b2 71 b8 3d 3a 71 97 bb
       0.042373218 0.0041016378 0.09006061 -0.004621652
000120 c1 51 09 bc 97 db a9 3b 56 de 1c bc 75 21 17 3c
       -0.008381308 0.005183648 -0.009574493 0.009224285
000130 b7 c9 9f bb 00 bb 2d bb 6c fa 0f 3e 07 4e fd 3d
       -0.004876341 -0.0026509166 0.14060372 0.12368398
000140 43 a4 d7 bb f6 c0 b8 3a bf 4e e2 3a ed fd 3f 3b
       -0.006580861 0.0014095593 0.00172659 0.0029295639
000150 f0 ef 06 39 0e 63 01 bc c2 a5 85 3c 54 b7 e7 3a
       0.0001286862 -0.007897152 0.016314391 0.0017678537
000160 60 d8 e5 b7 7b d6 8b 3d d1 6c 9c bc 42 35 ce ba
       -2.7399685e-05 0.06828018 -0.019094856 -0.0015732425
000170 76 69 ef 39 e8 ca 25 3c 40 e1 24 ba a1 e8 19 bc
       0.00045664207 0.010119177 -0.00062896684 -0.009393842
000180 e2 42 b4 3a d8 ac c3 3a 3b 5f 6c 3b 1f 09 52 3c
       0.0013752843 0.0014928831 0.0036067504 0.012819557
000190 f0 59 83 39 9a 18 2d be c0 dd 50 bb d9 b1 df bc
       0.00025053276 -0.16903916 -0.0031870455 -0.027306484
0001a0 13 36 6a 3d 95 9a 4b b9 21 b1 6f bd 9b 99 af 3b
       0.057180475 -0.00019417175 -0.058518533 0.0053588874
0001b0 8b c5 1e bd c9 78 ff ba 9a 51 06 3b 33 ed 00 ba
       -0.03876261 -0.0019490953 0.0020495416 -0.0004918158
0001c0 c9 34 b5 bb 00 8f c4 3e 84 dc 49 be 4f 4e 45 3a
       -0.005529974 0.3839035 -0.19713026 0.00075266225
0001d0 d6 65 0f bc db 59 c0 b8 bf 0e 7d 3e 17 b7 14 ba
       -0.008752307 -9.17201e-05 0.24712656 -0.00056730345
0001e0 4d cd 18 bc ab 76 98 bb 62 0e 05 3c fd a2 0e 3c
       -0.009326291 -0.004652818 0.008121105 0.008705852
0001f0 dd e6 6f bb 66 dc ba 39 96 c5 26 bd ed ab 6f 3a
       -0.003660611 0.00035640894 -0.040715776 0.00091427454
000200 cb 73 0b be 32 10 c8 bb 7b 73 10 3c 05 28 ca 3b
       -0.1361839 -0.0061054463 0.008816595 0.0061693215
000210 92 3d 1f 3e 0f fc 7f 3b bb 8f 2e 3e 3e 74 eb 3b
       0.15550831 0.003906015 0.17047016 0.007185488
000220 ee b3 71 bb d9 ff 27 bb 18 ae c1 bb e0 25 b9 bb
       -0.0036880928 -0.0025634675 -0.005910646 -0.005650267
000230 b0 28 d0 bb d8 21 b0 3b fd 67 61 bc 9a 89 29 3c
       -0.0063525066 0.0053751282 -0.013757703 0.010347748
000240 df a3 0d 3c 23 b6 0b bc 08 8d 82 bb 25 7b 40 bd
       0.008645027 -0.0085273115 -0.0039840974 -0.04699244
000250 8a a3 c5 3b df 49 08 bc fe 87 a8 3c 3f 3b f0 bd
       0.0060314583 -0.0083183935 0.020572659 -0.1173005
000260 56 d0 96 3a 72 df 33 3e 97 49 3f 3b e0 1c 5c 3b
       0.0011506181 0.17565706 0.002918815 0.0033586547
000270 49 f4 a8 bb d9 4b 15 3c a6 a0 dd 3b 20 88 46 be
       -0.005156074 0.009112322 0.0067635356 -0.19387865
000280 6f 17 c2 3b 1c 6a 1b b9 5e 74 d3 bb 2f b0 1b bc
       0.0059232037 -0.0001482148 -0.006453081 -0.009502455
000290 57 77 4d 3c c4 21 7a 3e 7d 25 bf 3b 24 54 94 b9
       0.01254066 0.24426943 0.0058333264 -0.0002829145
0002a0 fc b0 c8 3b 2e f3 c0 3a 50 de 28 be 42 fd 2e 3a
       0.006124614 0.0014720911 -0.16491055 0.00066753116
0002b0 5c 6d 1b bc ba 30 85 3b 32 89 7c 3b 9f 15 27 3c
       -0.0094865225 0.0040646465 0.0038533923 0.010198026
0002c0 24 d3 74 3c e3 0d a2 bd ab 27 6b ba bb 80 72 3b
       0.014942918 -0.07912805 -0.00089704496 0.0037003
0002d0 a7 e4 4d b9 c5 c4 2a bc 1f d7 76 3b c7 83 15 bc
       -0.00019635503 -0.01042289 0.0037664843 -0.009125656
0002e0 ac 56 98 bb 5c e9 8c ba fe a4 d3 bb 25 f3 1c bd
       -0.004649004 -0.0010750699 -0.0064588776 -0.03831782
0002f0 fd 6c 48 bb 87 17 5a 3c 7a 54 e1 39 a3 2e 2f ba
       -0.003058254 0.013311273 0.00042978284 -0.00066826696
000300 be 97 27 3e 43 47 4a bd cf e1 38 bb 28 ab a7 3a
       0.16366479 -0.049384367 -0.0028210764 0.0012792097
000310 39 b8 30 be 03 6e d6 3a de 7f 4a 3d b4 75 51 3c
       -0.17257775 0.001635969 0.04943835 0.01278441
000320 de c0 0b 3c 18 e4 f1 3d 17 0e e5 3b 36 6f 6d bc
       0.00852987 0.118110836 0.006990205 -0.014491847
000330 33 6b 05 3c f0 bb 21 b7 de ab d3 ba ec 06 ae bc
       0.008143234 -9.640105e-06 -0.0016149243 -0.021243535
000340 4d 94 03 3c 4f 3a b7 b8 d8 f6 63 39 54 0b b3 bb
       0.008030963 -8.736981e-05 0.00021740363 -0.005463997
000350 b7 60 89 3b 3c fc 1e 3c 62 e4 d4 bb 39 86 5c bc
       0.0041924375 0.009703692 -0.006496952 -0.013459736
000360 7c 38 01 bc cc db 44 bd 4e 2f 36 bd de 67 81 3a
       -0.007887002 -0.048061177 -0.044478707 0.0009872874
000370 70 f8 0a bc b7 5b 7e bc 56 d9 8a bc 11 89 75 3c
       -0.008482084 -0.015524796 -0.016949337 0.014986292
000380 07 1d cc bb c5 bb c0 3b 60 ad 97 bb 87 8f 98 be
       -0.0062290463 0.005881759 -0.004628822 -0.29797003
000390 b3 2b 0a ba cc 7c 24 3d 9f 3f ce 3b 69 08 24 be
       -0.0005270794 0.040158078 0.0062942053 -0.16018833
0003a0 f0 04 0e 3c d7 94 af ba bd cd 0c bc 32 5e 14 bb
       0.008668169 -0.0013395798 -0.008593974 -0.0022639153
0003b0 7a 93 9b 3d d3 78 d2 3b 97 97 e9 3b 4e 49 c6 bb
       0.07596488 0.006423095 0.0071286666 -0.006051219
0003c0 a2 86 e6 3a 0f 58 30 bd 63 c7 c2 3d 5c 9c f8 ba
       0.0017587731 -0.04305273 0.09510686 -0.0018967497
0003d0 21 4e 42 3c 13 8d 68 3c 96 40 7a 3e 08 24 b1 3b
       0.011859448 0.014193791 0.244387 0.0054059066
0003e0 7b 02 9d bd 1a e2 ab 3a 87 7b d1 3d ab ff a9 3a
       -0.07666489 0.0013113648 0.10228639 0.0012969872
0003f0 89 e5 7f 3c 65 d1 e0 bb 15 00 4c bd 7c 7a 60 3a
       0.01561869 -0.0068608993 -0.049804766 0.00085631735

actor.4.bias f4 [4]
000000 29 cd 66 3e 8a 57 2a 3e 26 fc 26 3e de be 44 3e
       0.225392 0.16634956 0.16307124 0.19213435

critic.0.weight f4 [128, 17]
000000 4c c8 8c 3e 4e 8a 7c be d6 c9 5b 3e 98 8f 35 3e
       0.27496564 -0.24662134 0.21463713 0.17730558
000010 f2 c0 5e be ae 6d 11 bd 3c e2 26 be 82 c1 77 3e
       -0.2175329 -0.03550499 -0.16297239 0.24194911
000020 eb 6e 18 bc 65 80 62 be 1c 5f 99 3e 9f 5c 29 3e
       -0.009303789 -0.22119291 0.29955375 0.16539238
000030 bd 65 0e 3e b7 d9 64 bc 5f 8d 43 be 15 a3 e4 bc
       0.13905998 -0.013967923 -0.19096898 -0.027909795
000040 f7 26 05 be 9f 15 8d be aa be 7f 3e 59 7f d7 3d
       -0.13003145 -0.27555558 0.24975076 0.105223365
000050 b5 57 66 be 1e a2 b7 3e 51 cf 5f be 4d 64 ef 3d
       -0.22494395 0.35865873 -0.21856429 0.11689053
000060 c8 4e 16 be d6 e6 10 3c 4a 0e 34 bd 25 fb 9b bd
       -0.1467849 0.008844098 -0.04395894 -0.076162614
000070 68 58 48 be a0 12 c8 bd 68 17 b7 3d 80 f6 ea 3d
       -0.19564974 -0.097691774 0.08940011 0.114727974
000080 fb 7e e3 3c b4 cd 06 3e b3 6f 8e 3e 49 f5 d7 3d
       0.02777051 0.13164407 0.27819595 0.10544831
000090 4a fa 1d 3f 29 07 f5 bd 2e 13 b7 be cc a4 fc bc
       0.61710036 -0.11964256 -0.3575682 -0.0308403
0000a0 b8 51 a5 be 74 f3 63 be 3a f0 74 3c c4 1c 26 3e
       -0.3228891 -0.22260839 0.014949853 0.1622191
0000b0 aa 43 db 3d 60 5f bc be 5f f0 66 3e 14 71 81 bd
       0.10706265 -0.36791515 0.22552632 -0.06320396
0000c0 27 d8 22 3e bc b0 1e bd 1a ef 00 3e 8d 09 99 3f
       0.15902768 -0.038742766 0.1259121 1.195604
0000d0 1f c3 8d 3f 04 dc 21 3f a9 19 a2 3d ce ab 9e bd
       1.1075171 0.6322634 0.079150505 -0.07747613
0000e0 d9 18 a6 3d af e7 b5 3d 78 80 98 bd 7b 3b 64 3d
       0.08110208 0.08882081 -0.074463785 0.055720787
0000f0 c3 91 71 bd e9 9a 12 be 20 d0 43 3d 4f ea ab be
       -0.0589769 -0.14316906 0.047805905 -0.335772
000100 27 64 dd bd 2e f2 2e 3e 5e e3 80 bd aa b4 f1 bd
       -0.10810118 0.17084572 -0.06293367 -0.11802037
000110 f1 c6 38 bf f7 99 76 3f e6 9b 9c bd b8 93 3c 3e
       -0.7217856 0.9632868 -0.07646923 0.18415725
000120 4c 00 93 3d 8e 1d ab 3e 51 f5 4f bc 69 b3 94 3e
       0.07177791 0.33420986 -0.012692765 0.2904313
000130 06 d5 5d 3e d5 d2 6f be a4 85 8d be 05 50 57 3e
       0.21663293 -0.2342027 -0.27641022 0.21026619
000140 08 d1 c9 3e 12 28 7d be 04 36 39 be b5 03 58 be
       0.3941729 -0.24722317 -0.18087012 -0.21095164
000150 9e f4 ca 3d 24 0d 15 bf 2d 5b 08 3f 8b dc 77 3e
       0.09909938 -0.58223176 0.53264123 0.24205224
000160 9a 64 98 3d 39 74 b7 3d 40 eb 45 bd c6 8f d2 bd
       0.07441063 0.089577146 -0.048320055 -0.10281329
000170 71 dc 41 bd ba 4f 05 3e 00 76 ab be fa bf 90 3d
       -0.04732937 0.13018695 -0.33488464 0.070678666
000180 23 85 bb 3e fe 82 ff bd ff 8a 4f bb 5a 90 fa 3c
       0.36625013 -0.12476157 -0.0031668541 0.03058641
000190 5b 67 d0 bc 84 98 b8 3d 34 a7 d0 3e 46 6f 9b bf
       -0.025439909 0.09013465 0.40752566 -1.2143333
0001a0 b4 79 cb be 13 3e aa 3c 73 bb ed bd 41 80 01 3e
       -0.3974129 0.020781552 -0.11608019 0.12646581
0001b0 2d 8a 2b 3e d6 82 dd bc 7d cb 00 3f 59 35 28 be
       0.16751929 -0.027039926 0.503105 -0.164266
0001c0 af 9b 06 be 79 57 a9 3e 57 f4 b0 bd 2a 51 f1 bd
       -0.13145326 0.3307455 -0.08640354 -0.11783059
0001d0 71 c9 28 be 63 fd 83 bc 8b 87 c0 3d 61 34 6c be
       -0.16483094 -0.016112035 0.09400853 -0.23066856
0001e0 79 3f 0a bf 7b cc b9 3e fd 8a 85 3c 67 f9 bc 3d
       -0.540031 0.3628882 0.016301626 0.09227257
0001f0 fc 2b c2 be 80 6f 86 be 04 56 b2 be af 84 c9 3e
       -0.37924182 -0.26256943 -0.3483125 0.39359042
000200 bb 6e 1c be 84 15 4c be fc 27 8c 3d 1a ff d1 be
       -0.15276615 -0.19930083 0.06843564 -0.4101494
000210 bd 4d a7 3d 6f 30 1d 3e f1 05 b0 bc 03 f4 44 bd
       0.08169124 0.15350507 -0.021487208 -0.04808427
000220 b7 b5 77 be ad c0 29 3f dd bd a3 3e 22 c6 d9 3c
       -0.24190412 0.66309625 0.31980792 0.026583735
000230 e3 44 7c bd b3 af 2a 3e 80 ba f9 bd 8c 77 0f be
       -0.061589133 0.16668586 -0.12193775 -0.14010447
000240 93 1c 93 be 90 31 bb 3e 9f 34 2a 3d 9f 31 0a bd
       -0.28732738 0.3656125 0.04155409 -0.03373873
000250 37 b7 85 be 58 78 4c 3e 4c ae 90 bd 6d 97 02 3e
       -0.26116344 0.19967782 -0.070644945 0.12753077
000260 86 0f 0a 3e 59 ac 05 3f cd 51 90 3e 9d 9d 62 bf
       0.13482484 0.52216107 0.2818741 -0.8852175
000270 d5 1b 69 3e 61 6c fc 3e 5a fe df be 63 fa 95 3e
       0.22764523 0.49301437 -0.43748742 0.29292592
000280 96 1b 64 3c e2 5c 87 be 1f e2 b0 3d 3a d2 0c 3f
       0.013922593 -0.2643805 0.08636879 0.5500828
000290 42 cf 48 3e b3 d6 bc 3e 95 c2 05 3c ae 8c 10 3e
       0.19610313 0.36882553 0.008164068 0.14116165
0002a0 1c 36 80 3b 8d c6 51 3d 57 31 d6 3d 4d ca 86 be
       0.0039127003 0.051214743 0.104586296 -0.26326218
0002b0 2b ad af 3e da e9 36 3d 7c 94 a0 be 23 69 38 3d
       0.34311804 0.044656612 -0.31363285 0.04502214
0002c0 ef 69 af bd 5d 35 07 be 3d ce 79 be 88 4b c7 be
       -0.08565127 -0.1320395 -0.2439508 -0.38924813
0002d0 eb d1 0d 3e fd da aa 3e a2 d7 99 3e 67 6f a1 bd
       0.13849609 0.333702 0.30047327 -0.078825764
0002e0 3e 65 d5 bb 73 d6 d0 bd cb ef dc 3d 5d 40 73 bf
       -0.006512313 -0.10197153 0.107879244 -0.95020086
0002f0 de f8 d4 bc 22 ea 87 3d 78 6e 73 bd 8f d2 80 3e
       -0.025997575 0.06636454 -0.059431523 0.25160643
000300 65 de be 3e a1 d5 5a be 1b 26 17 3e 6b 4e 92 bf
       0.3727905 -0.21370555 0.1476063 -1.1430181
000310 9f 7d d3 3e ed a8 9c 3e 99 87 08 3f 0b 49 09 bf
       0.4130678 0.3059763 0.53331906 -0.5362708
000320 d5 6e d9 3d fb 91 59 bc 73 09 7b 3d 5f 7b 00 3e
       0.10616843 -0.013279433 0.06128831 0.12547062
000330 48 9f 15 bf 8d 78 d0 be 0c f3 89 be 47 29 dd bc
       -0.5844617 -0.40716973 -0.26943243 -0.026997222
000340 77 8d bd 3e c4 d6 93 bd 41 34 aa 3d 6c f5 0c be
       0.37021992 -0.07218698 0.08310748 -0.13765496
000350 05 d4 e4 3e 39 d9 b3 3e ad 5d 42 3d 9e 5e d4 3d
       0.44693008 0.35126665 0.047452617 0.10369609
000360 58 4e 86 3e b7 92 f5 bc 84 97 1d 3e 54 b0 74 3d
       0.26231647 -0.029977186 0.1538983 0.059738472
000370 c8 39 e7 bc a4 9f be 3f 68 92 a7 bd 2d 5d 51 bf
       -0.028225794 1.4892468 -0.08182222 -0.817828
000380 a3 0a 36 3e c8 d1 a6 3e 1e 72 2e 3e 96 9c c4 bd
       0.17777495 0.32581925 0.1703572 -0.09600179
000390 0b b6 33 3f 4a 4c 8f 3e c9 27 ad 3e 74 07 80 be
       0.7019965 0.2798789 0.33819416 -0.25005686
0003a0 ab 5d ae 3e 86 92 ee bd 68 31 82 bc 93 55 9d 3d
       0.34055838 -0.11649041 -0.0158927 0.076823376
0003b0 ee eb a4 3c cb 93 90 3c 55 35 e8 be 35 0d 72 bb
       0.020132031 0.017648598 -0.4535319 -0.0036934142
0003c0 f2 8c 7c be 98 19 0b be b9 ac 71 be 87 8c ba bd
       -0.24663141 -0.13583982 -0.23601045 -0.09108835
0003d0 5d ff 21 bc 54 94 9d bd 5c 05 cd 3e 13 c8 29 3f
       -0.0098875435 -0.07694307 0.4004315 0.66320914
0003e0 5c b9 08 be 59 7b 0a bf ae 66 67 3c 58 ea b9 3d
       -0.13351959 -0.54094464 0.014123602 0.09077901
0003f0 d3 46 3b 3e fb 2a 2f 3d e2 4e d0 3d 71 48 45 be
       0.18288736 0.0427656 0.10171296 -0.19265915

critic.0.bias f4 [128]
000000 f5 df 80 bc e2 a2 e0 3d a7 e9 fd 3d ec 7c 79 3d
       -0.015731791 0.109685674 0.12398081 0.06091015
000010 f1 e7 9a 3b 94 93 16 3e a4 44 3a bd 90 33 91 bd
       0.0047273566 0.14704734 -0.045475617 -0.07089913
000020 86 ca b8 3e f7 3b 7d be 79 fc 8a 3c d3 d3 85 bc
       0.36092013 -0.24729906 0.016966091 -0.016336357
000030 8e b6 3e be 22 9c 28 3c 53 3d 58 3e 1f 22 b2 bc
       -0.18624327 0.010291131 0.21117143 -0.021744786
000040 c0 f6 71 3e 7d 5b a1 bd 00 aa c0 3c 13 a9 0a 3e
       0.23629284 -0.07878778 0.023518562 0.13541059
000050 11 53 54 3e 50 3d 6c 3d 45 ab 56 bd 0b da 0d bd
       0.20734812 0.05767566 -0.05240943 -0.03463177
000060 6c 9a d9 3c 3c 72 ac bd bd 21 c1 bd d3 b8 da bd
       0.026562892 -0.08420226 -0.09430263 -0.10679784
000070 9f 4b 59 3c 3a 50 70 be df a6 89 3d 60 e5 53 bd
       0.013262658 -0.23468104 0.06721281 -0.05173242
000080 a1 a4 c6 bd 67 0b c5 3d 58 b9 ea bd 4e c9 58 bd
       -0.09699369 0.096213154 -0.11461133 -0.052926354
000090 94 23 0c 3e f3 0e 11 3e 3c 0b 61 be dc ed 16 bd
       0.13685447 0.14165859 -0.21976942 -0.036847934
0000a0 f4 4b c0 bc e7 04 7a be 70 ab 1f 3e c7 ce 0f be
       -0.023473717 -0.24415933 0.15592742 -0.14043723
0000b0 4e 86 11 3e 4c 21 22 3e 19 74 e6 bd 4c 6e af bd
       0.1421139 0.15833014 -0.112526126 -0.08565959
0000c0 41 21 d2 3d 6a 2a 1e bd cb 76 1c be f9 7e 43 3e
       0.10260249 -0.038614668 -0.15279691 0.19091405
0000d0 16 06 9c be 77 89 6e 3d a2 66 16 be b7 46 61 be
       -0.30473393 0.058236565 -0.14687589 -0.21999632
0000e0 1e 0d 4d 3e 9c 57 41 3b f9 a2 8b 3c fd 54 aa 3d
       0.20024535 0.0029501682 0.017045485 0.083169915
0000f0 e0 1e 98 3d ae 5c b4 3d ec 01 7a 3c 41 35 d2 3d
       0.07427764 0.0880674 0.015259247 0.102640636
000100 bd 75 85 be b7 ee 29 3d 69 ac 0c bd 2e 3f 3d 3c
       -0.2606639 0.04148742 -0.03434411 0.011550708
000110 1c 04 a4 be 10 62 35 3e 70 68 4c be d1 c4 37 3d
       -0.32034385 0.17713189 -0.19961715 0.044865433
000120 e8 ca 28 bd 90 b7 51 3d 00 69 4c bd 79 4f a4 3e
       -0.04120913 0.05120045 -0.049904823 0.32091883
000130 e4 fa 8e 3d f3 0a 27 3e 2d ef 04 3e 6b ab 24 3d
       0.06981447 0.1631277 0.12981863 0.04020254
000140 c5 79 59 bd 0b 37 25 3e 08 a4 81 bd cd f4 0f 3e
       -0.053094644 0.16134278 -0.063301146 0.14058228
000150 84 5d 19 3d 12 c0 65 be b2 b8 b7 bd aa 03 39 be
       0.0374427 -0.2243655 -0.08970775 -0.18067804
000160 f7 7e 3d bd ca ba f1 bc 43 c7 c1 bd 32 36 88 bd
       -0.04626366 -0.029508013 -0.09461834 -0.06650962
000170 54 a0 1a be 1d d2 1e be cd 1c 06 bd 99 e9 7d be
       -0.15100223 -0.1550984 -0.03274231 -0.24796142
000180 91 9b 61 3d 87 ad 7b 3e 32 8e d9 bd 4a 05 1a be
       0.05508 0.24577914 -0.10622825 -0.1504108
000190 b2 77 35 3e 25 24 3d 3e f7 16 98 bc 2e 8c 41 bd
       0.17721441 0.1847082 -0.018565638 -0.047252826
0001a0 ce a0 5c 3e 6c c3 b2 3b d1 57 52 3d b4 dc 88 3d
       0.21545717 0.005455425 0.05135328 0.06682721
0001b0 39 84 04 be b2 bb 4e be b7 0b 36 3e 89 28 08 be
       -0.12941064 -0.20188788 0.17777906 -0.13296713
0001c0 93 33 d5 3d fe 76 27 bc ec dc 03 3e 88 80 3b 3e
       0.104102276 -0.010221241 0.12877244 0.1831075
0001d0 9b 2e c1 3d 2a d8 b8 3d 61 e3 9b be b5 6c 44 be
       0.094327174 0.09025605 -0.30446914 -0.19182093
0001e0 f1 94 93 3e 5b ab 80 3c 7d f5 30 3e 62 72 4f 3e
       0.2882457 0.015706709 0.17281146 0.20258477
0001f0 7c a5 e7 3d 72 74 19 3d 72 74 2e 3d 2f b9 c3 3c
       0.113108605 0.037464567 0.04259152 0.023892013

critic.2.weight f4 [128, 128]
000000 19 24 13 bc 1a c1 83 3d 7c 8a 0e 3e 83 00 90 3d
       -0.008980774 0.064333156 0.13920015 0.070313476
000010 2d 2a 62 3d 96 5a ff bc 33 54 71 3d 4b ea 85 bd
       0.055216003 -0.031171124 0.05891819 -0.065388285
000020 79 64 d9 bc fd c7 14 bd 2a aa a7 3d f0 c3 94 bd
       -0.026537167 -0.036323536 0.08186753 -0.072639346
000030 8e ca c7 3d f2 3a 7c 3c f5 3f f6 3c 89 af e1 bc
       0.09755431 0.015394913 0.030059794 -0.027549522
000040 2c 95 c0 3d d5 d8 57 bd 93 81 62 bd 87 5c 77 3c
       0.09403452 -0.05269702 -0.055299353 0.015097744
000050 38 33 fd 3c 7b 59 b8 bd 11 50 5b 3e 79 cd 2d 3e
       0.030908212 -0.09001442 0.21417262 0.16972913
000060 9b 12 58 3d 82 4c a8 3a 92 56 6a 3d 39 91 1e bd
       0.05275212 0.0012840184 0.057211466 -0.038712714
000070 8b 61 85 ba 77 43 dd 3c f9 c9 d7 3d cc 1e ff bd
       -0.0010176165 0.027009709 0.1053657 -0.12457046
000080 23 bf cf 3d 33 c5 08 3e 3d 50 82 3d a6 58 a3 bb
       0.10143878 0.13356476 0.063629605 -0.004984933
000090 f6 87 46 bd 83 10 71 3d bd 07 48 bd 6c 4f b7 bd
       -0.048469506 0.058853637 -0.048835505 -0.089506954
0000a0 38 64 b2 3d 6f 2a e6 3d 7c 0c 39 3d 45 97 38 bd
       0.087105215 0.11238562 0.04517792 -0.045066137
0000b0 03 a5 a6 bc 6a 4c 7a 3d e9 44 42 3d ed 78 49 3d
       -0.020342356 0.06110803 0.047429 0.04918759
0000c0 76 06 4a 3d 73 2f 09 3d 1f 72 cf bd 74 a4 0b 3e
       0.049322568 0.033492517 -0.10129189 0.13636953
0000d0 c6 04 1e 3e aa 93 52 bd 1b a0 0e bd 13 d9 17 3d
       0.15431508 -0.051410355 -0.034820657 0.037072252
0000e0 a0 c6 e0 3c fc e0 37 bc d4 9f 0a be 43 73 b5 3d
       0.027438462 -0.011223074 -0.13537532 0.08859875
0000f0 b8 f2 60 bd 87 1b e0 bd 70 f7 16 bd 2e 08 d2 bc
       -0.054918975 -0.109427504 -0.03685707 -0.025638666
000100 34 c7 16 bd 88 0d 33 3d 27 4c e0 bd 64 b2 9b 3a
       -0.03681107 0.043714076 -0.10952025 0.0011878726
000110 86 93 83 bd a1 a8 48 3d 81 88 4d 3b e1 1e 37 bc
       -0.06424622 0.048988942 0.003136188 -0.011176796
000120 b4 c0 e6 bd ff 02 01 3c fc b7 33 3e 67 fc 7c bd
       -0.11267224 0.0078742495 0.17550653 -0.061764147
000130 d4 86 09 be 85 0b 74 3d 7a 9a c6 bd 9d aa 0b 3d
       -0.13430339 0.0595813 -0.09697433 0.034098256
000140 72 b3 fc bd b2 32 f6 bd 6a 40 ad bd 22 7f d6 3a
       -0.12338914 -0.12021388 -0.08459552 0.0016364793
000150 8c ad 53 3e 68 fc 9e 3c 01 2e 25 bd d1 a3 90 3d
       0.20671672 0.019407466 -0.040327076 0.070624955
000160 54 c5 24 3d 72 79 e0 3c 3b aa 9b bd 04 ac b6 3b
       0.04022725 0.02740166 -0.07600828 0.005574705
000170 29 9d 46 3d c2 ee 4c bd 4a be ea bc 1a 93 1f be
       0.048489723 -0.050032385 -0.02865519 -0.15583459
000180 3b 74 60 bc 2d 06 58 bd c2 10 4e 3d 55 96 01 3e
       -0.0136995865 -0.052740265 0.05030895 0.12655003
000190 e1 79 c6 bb e7 23 5f 3c 32 45 3b bd 98 70 d4 bc
       -0.0060570096 0.0136194 -0.045720287 -0.025932595
0001a0 44 4c a1 bc 26 b6 83 3d 1b 20 05 bd 24 1b 63 3c
       -0.019689687 0.064312264 -0.03250132 0.013861451
0001b0 67 19 86 be c8 eb 59 bd 52 90 d2 bc af ab 57 3c
       -0.26191255 -0.053203374 -0.025703583 0.013163491
0001c0 36 49 67 3d 20 e8 61 3d 64 c7 34 3d 95 5f d0 3d
       0.056466304 0.055153012 0.044135466 0.10174481
0001d0 fb 0c 34 bd 2f 74 26 bc 38 5b ef 3d 78 d4 e8 3a
       -0.04395769 -0.010159536 0.116873205 0.0017763516
0001e0 a7 5b 96 3c 8a 54 4c bd 1a 7e b2 bd d4 26 51 bc
       0.01835425 -0.04988531 -0.08715458 -0.012765605
0001f0 10 2b 8d bd 7f 83 60 bd 88 73 74 3c f5 76 26 3d
       -0.06892979 -0.054812904 0.014920123 0.04064079
000200 b7 4d 69 3d d0 35 51 bd c2 06 2b bc c2 11 0c 3b
       0.05695888 -0.05107671 -0.010438623 0.002137289
000210 8a dd 8e bb db 6b fe bb ec 23 fa bc cc bd 62 bd
       -0.0043599056 -0.007764322 -0.030534707 -0.055356786
000220 10 c6 e5 bd 8f 24 ba 3c 38 90 b8 bc cb e8 1e bd
       -0.11219418 0.02272251 -0.022529706 -0.038796227
000230 83 c3 26 be 4b fa 1c 3e 98 a6 d5 bd 92 74 1f 3d
       -0.1628552 0.15329854 -0.10432166 0.03892953
000240 04 41 58 3c 25 40 29 3c bb 7f ad bc 19 48 38 3c
       0.013199095 0.010330235 -0.02117907 0.011247658
000250 1c 50 97 3d 34 54 56 3d f8 b6 e2 bd ac e6 61 3d
       0.073883265 0.052326396 -0.11070055 0.055151626
000260 ea e2 06 be 78 cf 04 3d 27 d7 d2 3d 92 2f 3e 3d
       -0.13172498 0.03242442 0.10294943 0.046432085
000270 48 dd 63 3d 23 a3 86 3d 45 36 95 3d f2 20 36 3d
       0.055630952 0.065740846 0.07285742 0.044465013
000280 77 b4 02 3d 74 2f 4f be fc 58 74 bd 41 b4 ae 3c
       0.031910386 -0.20232946 -0.059655175 0.021326186
000290 5b 6c df 3d b4 c4 9a bd 66 b1 0d 3d f8 46 5d 3d
       0.10909339 -0.075570494 0.03459301 0.05402276
0002a0 9c fe 2e 3c 6a 0c 0a 3d bc 2f 23 bc 3c d5 99 3d
       0.010680821 0.033703245 -0.009960111 0.07511374
0002b0 a1 c1 ac bd 92 1a 23 3d 93 41 6a 3d 06 6f 86 bb
       -0.08435369 0.03982026 0.057191443 -0.0041025905
0002c0 65 58 8a 3d 02 ea 06 3d a9 bb da 3d 6c 25 1a bd
       0.06755141 0.03293801 0.106803246 -0.037633345
0002d0 e0 2b 8b 3d 93 60 cf ba 30 23 85 bd df 6a ab 3b
       0.06795478 -0.0015821628 -0.06500852 0.005231246
0002e0 f8 87 30 bc 64 4d ea bd 53 c5 cb 3d 06 cd 25 b7
       -0.010774605 -0.11440542 0.09949746 -9.882502e-06
0002f0 22 f9 ca 3d 8a 56 51 3c 60 87 91 bd d9 23 d4 3d
       0.099107996 0.01277698 -0.07105899 0.103584
000300 00 23 66 3d e2 ef 00 bd 51 fb 5d bc 29 93 a8 bd
       0.056185722 -0.03147877 -0.013548688 -0.082311936
000310 c3 4c 18 3e 1f 28 be bd 21 dd e8 bc c5 76 55 bd
       0.14873032 -0.09284996 -0.028425755 -0.05211522
000320 7e 0a ec 3c 73 2a 97 bc 42 7c b3 bd fd 1a ef bd
       0.028813597 -0.018452859 -0.08763935 -0.116750695
000330 50 0a 23 3e 83 e6 1c 3a 7b 0d 6b bc fb 36 bf bc
       0.15921903 0.00059852767 -0.014346476 -0.023341646
000340 ac 19 9f 3d 2d 21 3d 3c 87 5a 30 3e 7d 7b 99 bd
       0.077685684 0.011543554 0.17222033 -0.07494257
000350 3b 82 27 be dc 5f 4e be fa 0b a2 3d 2a 14 1f bd
       -0.16358273 -0.20153755 0.079124406 -0.03883759
000360 43 da 7d bd be 8a 5e bd 09 22 92 bc 7e f3 92 3d
       -0.06197573 -0.054331534 -0.017838495 0.07175349
000370 fb f2 20 be f7 25 f1 bd ae 1f a1 bc 13 28 00 3e
       -0.1571769 -0.11774819 -0.019668426 0.12515287
000380 a0 ca c1 bd b5 8e d2 bd ba 02 31 3d 92 a7 f4 bd
       -0.09462476 -0.102811255 0.04321549 -0.11946024
000390 06 f3 48 3d ea 93 a6 3d dc 8f f9 bc a9 d0 96 3d
       0.04905989 0.08133681 -0.030464105 0.073640175
0003a0 dc 13 97 bc 11 9a 8d 3d 15 5f 41 3d 1c 75 f4 bd
       -0.018442087 0.069141515 0.047209818 -0.11936399
0003b0 a3 d4 0a 3e 7d 51 34 3d e2 d4 a9 bd 29 39 10 3d
       0.13557677 0.044023026 -0.08292557 0.035210762
0003c0 46 39 ae bd a1 13 64 bd 7b b5 a5 bd b0 9b 58 bd
       -0.08507018 -0.055682782 -0.08091255 -0.05288285
0003d0 ac b9 8d 3c 34 d6 0f bb a9 7b 46 bc f9 cc a1 3d
       0.01730045 -0.0021947743 -0.012114444 0.079004236
0003e0 5c f5 59 3d e5 89 a8 3d 08 87 82 3d 6b db 40 3d
       0.05321251 0.08229426 0.063734114 0.047084253
0003f0 ff 1a f7 bd 87 78 27 bd af b0 37 3d 09 f4 8b 3c
       -0.12065696 -0.04088643 0.044846233 0.017084138

critic.2.bias f4 [128]
000000 e1 9f 3f 3d df 19 1e bd 39 4d 20 3e 83 5c 1f 3e
       0.04678333 -0.03859889 0.15654458 0.15562634
000010 11 a6 f1 3d 75 e4 5a 3d e7 ab c3 3c 3c b6 8c bc
       0.11799253 0.05344053 0.02388568 -0.01717674
000020 60 d9 20 3e ea bd d0 3b 00 2d a5 bd be a2 8e bd
       0.15707922 0.006370296 -0.08065224 -0.06964634
000030 a3 30 62 3c 0f e1 02 3e d4 2a 0a 3e 3f 72 c7 bb
       0.013805541 0.12781166 0.134929 -0.0060866172
000040 0e 94 c9 bd d9 23 be 3c 0c fb 66 bd 23 c0 35 3e
       -0.09842692 0.023210453 -0.05639176 0.17749076
000050 9d d4 fb bb 80 51 ec bc be 17 82 bc b7 91 73 3d
       -0.0076852576 -0.028847456 -0.015880462 0.059465136
000060 0f 12 71 bd 55 28 16 be 16 e8 e1 3d 1e 37 85 be
       -0.058855113 -0.14663823 0.11030595 -0.26018614
000070 66 24 05 bd 48 ba 2a 3e 85 51 95 bd 43 20 82 3d
       -0.032505415 0.16672623 -0.07290939 0.0635381
000080 e0 90 5e 3d fd 1c e1 bc 08 3c e6 bc 3e 48 cc 3c
       0.054337382 -0.027479643 -0.028104797 0.024936792
000090 d9 ed e2 3d fb 22 e4 bc f9 b5 ab bb 6b 77 dd 3a
       0.11080522 -0.027848711 -0.0052401987 0.0016896551
0000a0 76 94 23 3d 7e b4 97 bd d1 f1 2b bc ff fd 1a bd
       0.039936505 -0.07407473 -0.010494665 -0.037839886
0000b0 03 f9 45 bd 81 1f 58 bc de af f7 bd eb 27 db 3c
       -0.04833318 -0.013191105 -0.12094091 0.026752433
0000c0 be 1b 50 3e a1 c6 0e be 44 69 c0 bc 3c fd b9 3d
       0.20323083 -0.13942958 -0.023487695 0.09081504
0000d0 4f ad 65 bd d4 51 cf 3d 10 1f 38 be 4f 6e 02 be
       -0.056073483 0.10123029 -0.179806 -0.12737392
0000e0 22 01 f4 bb 67 be de bd b5 c1 84 3d a5 51 b2 3d
       -0.007446424 -0.1087616 0.06482259 0.08706979
0000f0 61 5b de 3c 58 fb 7e bc 69 78 6e bd 61 05 1f 3d
       0.027143182 -0.015562855 -0.0582203 0.03882349
000100 ab 6b cd bc f3 76 5e 3d 61 40 81 3d 82 76 a3 bd
       -0.025075754 0.054312658 0.063111074 -0.07981588
000110 51 7d 60 3e d1 78 e0 bd e6 02 3c 3d 8b 0b 13 3d
       0.21922804 -0.10960544 0.0459012 0.03589968
000120 eb f8 51 bd fc b6 9a bc e1 87 bf 3b 3f 1f ce 3d
       -0.051262777 -0.018886082 0.0058450554 0.100645535
000130 55 b1 ae bc 21 a2 8f 3e 28 31 31 be 32 66 e5 3c
       -0.021324793 0.28053382 -0.17303908 0.028002832
000140 e4 40 50 3e 28 04 00 bb 13 cc a1 be 59 9c 12 3e
       0.20337254 -0.0019533727 -0.3160101 0.14317454
000150 7a da bb 3d 9e d2 a2 3d f4 ab 13 3d a8 af c3 3d
       0.091725305 0.07950328 0.03605266 0.09554988
000160 1f 92 e3 3d 60 56 df bd 02 03 45 3d 06 ee 8d 3d
       0.11111855 -0.109051466 0.04809857 0.06930165
000170 a1 1b a0 3d 2c f9 ab bd cc b8 d2 3d 53 c3 3f 3e
       0.0781777 -0.08397135 0.102891535 0.18726854
000180 8a 5a 4b 3e 35 7e bd be 3f ca cf bc 06 3b 8b bd
       0.19858757 -0.3701035 -0.025364993 -0.06798367
000190 52 ef 94 bc b5 5d 6b 3d 5d 0d 9b 3d f9 cb 1d 3e
       -0.018180523 0.057462413 0.07570908 0.1540984
0001a0 fa 77 45 be a7 d7 b3 bc 90 86 f8 bd 9f 78 36 bd
       -0.19284049 -0.021953417 -0.12135041 -0.044548627
0001b0 0a bc 15 bd 7b a6 5c bd a3 2a 86 bd c7 ae 69 bd
       -0.03655628 -0.053869706 -0.06551101 -0.057051446
0001c0 02 56 b0 3d 55 bb 5c 3e 66 6b 8b 3e 8b 06 88 3d
       0.08610155 0.21555836 0.27230376 0.06641873
0001d0 07 99 ae 3b 42 66 94 bd 86 76 dd bc 8a 4f 4a bd
       0.005328301 -0.07246067 -0.027034055 -0.04939226
0001e0 b9 cd 97 bd 4d 83 ab bd d2 7b 03 3e d2 e8 c9 3c
       -0.07412285 -0.08374653 0.12840202 0.02464715
0001f0 0f 71 07 3e e3 ff cf 3d 8a b8 5e be 22 ce 95 3d
       0.13226722 0.101562284 -0.21750084 0.07314707
