examples/drone/logs/fig-eight-5000/model_3800.pt (torch, 474978 bytes, 36 tensors)

std f4 [4]
000000 87 f4 60 3e 17 70 70 3e c0 b0 2e 3e cb b5 50 3c
       0.2196828 0.23480259 0.17059612 0.012738655

actor.0.weight f4 [128, 17]
000000 b0 f9 07 40 76 14 da c0 c2 e8 81 c0 a1 05 ae 3e
       2.1246147 -6.8149977 -4.059663 0.3398867
000010 ca 4d 24 3f 10 c6 46 bf 6f df 0e bf 75 83 ae 3f
       0.64181197 -0.7764597 -0.5580968 1.3633868
000020 0f 4e 25 be a0 18 45 3f c8 84 4d be d3 bf a3 3e
       -0.16143058 0.769907 -0.20070183 0.31982288
000030 87 06 29 be 1f ce 20 be b8 ae 95 3d 47 4c d1 bd
       -0.16506396 -0.15703629 0.073087156 -0.10219627
000040 60 f3 ee 3d 9a 2e f4 bf 76 d3 06 3f da 36 9b c0
       0.11667514 -1.9076722 0.52666414 -4.8504457
000050 7c 3d b0 3e a3 74 50 3f c2 39 b0 bf 02 4e 18 bf
       0.3442191 0.81427974 -1.3767626 -0.5949403
000060 5f 7f 50 bf 9e a0 92 bf b0 0f 1b 40 92 ba 4c 3e
       -0.8144435 -1.1455266 2.4228325 0.19993046
000070 4b 24 f9 be 93 76 5f 3e 11 27 c6 bc e8 3f 5e be
       -0.48660502 0.21822576 -0.02418855 -0.21704066
000080 d6 cc 07 be cf 55 a9 3d af 15 65 be cc 85 10 c0
       -0.13261732 0.0826832 -0.22371553 -2.2581663
000090 e9 34 63 c0 41 7d 80 3e 30 08 d7 bf 6f b1 ff 3e
       -3.5501044 0.2509556 -1.6799374 0.4994006
0000a0 70 d7 aa be 15 cf 46 3f 0f 2a 1a 3f 0c 1f b1 3e
       -0.3336749 0.7765973 0.60220426 0.34594
0000b0 93 e6 01 3e ad 1d 3c 3e ff 1c a4 3e 47 13 07 be
       0.12685613 0.18370695 0.32053372 -0.13190947
0000c0 d5 e7 bc be 8c 83 5e be aa 91 eb bd a4 19 94 3f
       -0.36895624 -0.21729869 -0.115023926 1.1570325
0000d0 a4 80 1c bf 53 b6 85 40 9f c1 04 be 47 62 46 bf
       -0.6113379 4.1785064 -0.12964486 -0.7749371
0000e0 0e 1e b0 bf ee e5 6e 3f 48 0e 15 bf e1 d5 56 be
       -1.3759172 0.93319595 -0.58224916 -0.20980026
0000f0 17 9e 92 be d0 dd a0 3e cd 27 86 be c5 2f db 3e
       -0.28636238 0.3141923 -0.2620224 0.42809883
000100 9f 81 66 3e 3b 75 11 3e f0 7e 7c bd 82 69 5b 3d
       0.22510384 0.14204876 -0.061644495 0.053567417
000110 55 b7 2a 40 e5 0e 2f 40 5b 2d 31 3f 7d 4e c0 bd
       2.6674397 2.735284 0.6920983 -0.093899705
000120 c7 c1 3d 3f 20 db 96 3e 48 5b 42 3f 28 df 9d 3c
       0.74123806 0.29464054 0.75920534 0.019271448
000130 80 24 3b be 28 ef 56 3f 31 00 1f bd bd 95 49 3f
       -0.18275642 0.83958673 -0.038818542 0.7874411
000140 ad 67 70 3e d7 2d de bd 96 fb 8d 3c 21 a0 45 3d
       0.23477049 -0.10848587 0.01733188 0.048248414
000150 a5 a7 df 3c 83 8a d0 3e 92 44 a0 bd 88 2c 2d c0
       0.027301619 0.40730676 -0.07825579 -2.705843
000160 c2 c6 14 3e f0 41 15 c0 bf 6a 15 40 90 b5 97 bf
       0.14528945 -2.3321495 2.3346403 -1.1852283
000170 d1 5c 24 be 15 f6 43 be 24 87 cc 3e ed 55 9e bf
       -0.16051032 -0.19136842 0.39946854 -1.2369972
000180 7a df a1 3d 93 d2 7c be 46 70 64 3c aa 56 30 be
       0.07903953 -0.24689703 0.013942784 -0.1722056
000190 73 a2 72 3d 34 1e e9 bd b1 49 9f be 54 b1 14 bf
       0.059236955 -0.11382714 -0.3111091 -0.5808308
0001a0 a1 5f 1c c0 94 73 23 3d 5a 87 9b bf ba 37 eb 3f
       -2.4433367 0.039905146 -1.2150681 1.8376381
0001b0 e2 3c 51 bf 2b 64 0d bd bd a2 83 3c fc c3 5a 3e
       -0.81733525 -0.034519356 0.01606881 0.21363825
0001c0 6f 4e 4e be 24 5c 81 bd 3c 73 e8 3c 6d 43 8c be
       -0.20147108 -0.063164026 0.02837526 -0.27395192
0001d0 03 d3 88 be a6 96 bb bb cb 42 15 3e 8b be a9 3f
       -0.2672349 -0.005724746 0.14576261 1.3261274
0001e0 73 8d db 3f db be 85 40 0c 85 4e be 12 2e 14 c0
       1.7152542 4.179548 -0.20167941 -2.315312
0001f0 24 37 12 c0 5d 71 08 40 bc 35 da be d6 60 80 3f
       -2.2846155 2.1319191 -0.4261912 1.0029552
000200 bd b9 ea be fb 84 e3 be cf 69 bd be b7 d0 24 be
       -0.45844832 -0.44437394 -0.36994788 -0.16095243
000210 f9 75 1a be 55 a8 c9 bd 88 4b 6d 3d 3a d3 0d bc
       -0.15084065 -0.0984656 0.05793336 -0.008656317
000220 3c 9c 6d 3e df 98 23 bf 0e d2 1f c0 72 84 2b 3e
       0.2320413 -0.6390514 -2.4971957 0.16749743
000230 f6 2c 01 c0 ae a1 05 c0 7e f0 18 be 65 a3 d2 bd
       -2.0183692 -2.0879931 -0.1493549 -0.10285071
000240 f4 0e c1 be 8e aa d1 3e a0 1a 43 3d 2a 28 78 be
       -0.3770672 0.40950435 0.047632813 -0.24234071
000250 bb bd c6 bd fa b1 80 be 7a 4d 9d be 89 b8 4c bd
       -0.09704157 -0.25135785 -0.30723172 -0.049980674
000260 d0 32 10 3e e8 40 86 be 5e 81 57 c0 71 f2 5e c0
       0.14081883 -0.26221395 -3.367271 -3.4835474
000270 e6 38 b5 3e f7 2f c0 bf f4 48 a8 3e 36 e0 40 bf
       0.35394973 -1.5014638 0.3286816 -0.7534212
000280 3b 06 a4 bf 13 ed a4 3e c5 4e 3e 3f 68 dd c4 3e
       -1.2814401 0.32212123 0.7433894 0.3845017
000290 43 f1 8f 3d 80 66 e7 be a1 9a f6 3c 4f 62 22 be
       0.07028439 -0.4519539 0.03010303 -0.15857814
0002a0 12 02 0c be ec 67 71 bd 24 4b d3 40 e8 5a ad 40
       -0.13672665 -0.058937 6.6029224 5.417347
0002b0 60 6f 9e bf cd 7b b1 3e 26 e7 9e bc c0 5e 01 bf
       -1.2377739 0.34664765 -0.01939733 -0.505352
0002c0 ef 08 1c be b5 8f bb 3e 28 d5 bf bf ba b3 cc 3e
       -0.15237783 0.36633077 -1.4986925 0.3998087
0002d0 a2 b2 50 3e 72 f7 05 3e d7 0b ae bd be 59 9c bd
       0.20380643 0.13082674 -0.08498352 -0.076343045
0002e0 51 6a 06 3d d8 6e 90 3d 65 b0 59 3d 81 25 bb 3f
       0.032816235 0.07052392 0.05314674 1.462082
0002f0 af ee 78 3f 32 c8 60 3e 1d ab 9a 3e 81 81 b7 be
       0.972392 0.21951368 0.30208674 -0.3584099
000300 25 35 fa be c1 38 42 3f 7e 28 27 bf 1e d5 10 bf
       -0.4886867 0.7586785 -0.6529616 -0.5657519
000310 36 54 20 be 74 43 20 be f4 a1 1e bf e6 d7 7d 3e
       -0.15657124 -0.15650731 -0.6196587 0.2478939
000320 6d 17 61 be ec 29 92 3d 00 dc a6 bd 8e d2 1b be
       -0.21981592 0.07136902 -0.081474304 -0.15217039
000330 6c 8c 91 3d b9 9a b7 be ac f1 4a c0 ff 75 a9 bd
       0.071068615 -0.35860232 -3.1710005 -0.08274459
000340 16 56 13 40 19 0a 59 3f e0 29 9b be c8 c2 56 bf
       2.3021293 0.8478103 -0.30305386 -0.8389096
000350 9b fd 76 3e da b7 a7 3e 00 5a bc bd 13 8c d6 3e
       0.2412018 0.32757455 -0.09196854 0.41903743
000360 d8 9e 85 bf d6 7f f1 bb 97 51 27 3c a1 0d 3e 3d
       -1.04391 -0.0073699756 0.010212324 0.046399716
000370 b5 58 10 be c3 7e 3b bd 46 9f ac bf 0f 4d 02 c0
       -0.14096339 -0.045775186 -1.3486106 -2.0359533
000380 ee 00 f2 3e 9e 67 14 bf 4b 11 24 bf c4 37 72 3f
       0.47266334 -0.5797061 -0.64088887 0.9461634
000390 ac 1c c4 3d 98 f7 fe 3e 15 19 ee 3d 6b 62 c5 be
       0.09575781 0.49798274 0.11625878 -0.3855165
0003a0 5c 8d 84 be 5f 66 e5 3d 8f 13 bd 3c f8 ca a4 bd
       -0.258891 0.11201166 0.023080615 -0.08046526
0003b0 3e 35 9d be 6b 16 dc bd ea 15 9e bf 52 e8 7d 3f
       -0.30704683 -0.107464634 -1.2350438 0.9918262
0003c0 dd 27 20 40 85 2f d9 be 24 c6 a9 3f ec 81 ad 3f
       2.502433 -0.42419067 1.3263593 1.3555274
0003d0 e4 16 b6 bd 50 56 0f 3f e0 df 85 bd 30 c4 e9 be
       -0.08891085 0.5599108 -0.065368414 -0.45657492
0003e0 ba 89 ab 3e 99 eb 9e 3e 9a 01 b6 3e d9 a1 38 bd
       0.33503515 0.31039122 0.35548097 -0.045076225
0003f0 9c ef d5 3d 0c 6a d8 bd 28 cf e1 3d 28 5d bb 3f
       0.104460925 -0.10567102 0.1102584 1.4637804

actor.0.bias f4 [128]
000000 40 30 dc bd 53 4f 9f 3e 0c 37 3f 3b 95 01 c0 3d
       -0.107513905 0.31115207 0.0029177098 0.09375302
000010 cc 19 0c bb 30 7b d5 3c e0 62 73 3d 99 2b bd be
       -0.002137768 0.026059717 0.059420466 -0.36947325
000020 e8 04 74 3d 41 bd 66 be 37 89 ec bd ad 90 e3 3d
       0.05957499 -0.22533132 -0.11549609 0.11111579
000030 44 0c 67 be 1e 10 93 bd 78 d9 07 3e 8e 98 05 3e
       -0.22563273 -0.071808085 0.13266551 0.13046476
000040 d6 60 4b be 0f c6 4a be a9 3b dc bd fc 92 ea bc
       -0.19861159 -0.19802116 -0.10753567 -0.02863454
000050 37 77 d3 3d ca e8 f2 3d 4d f7 b4 bd ab 8c 27 3e
       0.10325473 0.11860807 -0.088362314 0.16362254
000060 b6 4c c2 3d 74 ba 69 3c 1b 7b eb 3d b1 be a5 bd
       0.09487288 0.014265645 0.1149809 -0.08093012
000070 2b 87 98 3e 57 fc 66 be 6b 89 44 3e 17 b2 c1 3d
       0.29790625 -0.22557198 0.19193046 0.09457796
000080 0c b1 78 be ce a0 e2 bd a0 58 54 be cf 59 62 be
       -0.24286288 -0.11065827 -0.20736933 -0.22104572
000090 dc e2 ac bd 48 19 8b bd 86 d5 40 bd c1 a4 8d be
       -0.084417075 -0.067919314 -0.04707863 -0.2766476
0000a0 a3 ca ed 3d 89 7e 73 3e 4c d0 8d bd 0a db aa bd
       0.116109155 0.23778738 -0.06924495 -0.0834256
0000b0 1f 85 1e 3e 43 d2 12 3e 81 58 d6 bc 71 e6 d0 bd
       0.15480469 0.14338021 -0.026165249 -0.10200203
0000c0 c9 fd 4a 3e da 7d 4e be 9d fd 40 3e fa e2 cf bd
       0.19823374 -0.20165196 0.18846746 -0.10150714
0000d0 07 ef 5d 3e ad 60 1c 3e 86 d2 85 3d 9d ae 7c 3e
       0.21673213 0.15271254 0.06534295 0.24675985
0000e0 89 0b 2e be 0a 93 40 be ba 86 73 be 6a 33 07 3e
       -0.16996588 -0.18806091 -0.23781863 0.13203207
0000f0 2c 0a 7b be 92 da 37 3e 5d d9 82 be 65 82 0b be
       -0.24515599 0.17954472 -0.2555646 -0.1362396
000100 f3 66 4f 3d ad 44 a4 bd 1e dd 06 be a2 ee 2e 3d
       0.05063529 -0.08020911 -0.13170287 0.042708047
000110 63 98 af bd 12 a9 ff 3b 3e 0c 0b 3e 82 51 2c 3d
       -0.08573987 0.007802137 0.13578889 0.04206992
000120 ec 2a 0a be 2c b0 f6 bc 24 b1 e9 be ff 52 57 bd
       -0.13492936 -0.030113302 -0.4564296 -0.052569386
000130 87 2b c9 bd a7 56 18 bd bf 53 07 bd d3 c6 50 3e
       -0.09822755 -0.037192013 -0.03303885 0.20388345
000140 91 6b 90 3c 89 f4 6c 3e fa 7f 2a be a1 7f dd bd
       0.017629417 0.23140158 -0.16650382 -0.10815359
000150 79 03 dd bd df fa 45 be 5a 57 9e 3e fa 7c 1f 3e
       -0.10791678 -0.19333981 0.3092602 0.15575019
000160 f1 a6 c4 3d 1d 38 90 be 43 09 06 3e 07 47 ee bd
       0.09602154 -0.2816781 0.1308947 -0.11634641
000170 f0 f8 07 be 3c 7a 12 bd 73 b7 af 3e 2e 90 94 be
       -0.13278556 -0.035761103 0.34319648 -0.2901625
000180 2b 7c 84 bd f8 1c fd 3d 69 d8 26 be 01 26 2f 3e
       -0.06468996 0.12359041 -0.16293491 0.17104341
000190 20 47 84 be 09 18 be bd c1 46 1b 3d 67 de 1c be
       -0.25835514 -0.09281928 0.037909273 -0.15319215
0001a0 7a b0 1c 3e 6a 27 07 bc cf 19 1a 3d 8e 13 32 3e
       0.15301695 -0.008249143 0.03762227 0.17390272
0001b0 39 2e 25 bd 71 6e a3 bd 60 ce 79 3d 96 a3 07 bc
       -0.040327284 -0.079800494 0.06098783 -0.008278748
0001c0 40 db be 3b 05 f4 82 3d 66 34 b0 3e c2 bd 21 bd
       0.0058244765 0.06394199 0.34414977 -0.039487608
0001d0 ef ac ac be df 10 e1 bc de 29 79 bd 7b 48 bb bd
       -0.33725688 -0.027473865 -0.060830943 -0.09144684
0001e0 5d 84 3f 3e f9 4b ab be 20 ec 43 be 9a 7b 6d bd
       0.18702836 -0.334564 -0.19133043 -0.057979204
0001f0 b8 a7 a3 be 23 4a 40 3e 0e 00 93 3e d1 71 b4 3c
       -0.31963897 0.18778281 0.2871098 0.022026928

actor.2.weight f4 [128, 128]
000000 52 97 c5 bf 8a 0a b2 3e 87 77 fd bd a2 28 fd be
       -1.5436804 0.34773666 -0.12376314 -0.49445063
000010 ad e4 45 bf 40 19 f2 be 75 b7 a2 3e b6 b4 6b be
       -0.77302057 -0.4728489 0.31780592 -0.23018155
000020 42 03 72 3f 3b e2 eb be 0f b3 bc bf 34 9a 75 be
       0.9453622 -0.46071038 -1.4742144 -0.23984605
000030 2d 63 f2 3c 26 0c 33 bf b2 10 e5 be 62 b1 0e bf
       0.029588306 -0.6994041 -0.447393 -0.55739415
000040 db ba 60 be 35 b2 25 3f ec 7c d9 bc f2 af 09 3f
       -0.2194628 0.6472505 -0.026548825 0.53784096
000050 d0 4e 8f be b6 80 25 3f a1 1a 86 3f ca 3a b7 bd
       -0.27989817 0.6464952 1.0476876 -0.0894676
000060 c3 f1 fd bd e6 60 2f 3d 40 2c 8a 3d 12 f1 c2 3e
       -0.12399628 0.04281702 0.06746721 0.38074547
000070 98 77 8a 3e 0a 72 89 3d d4 13 62 3e 01 d1 85 3e
       0.27044368 0.06711204 0.22077876 0.2613602
000080 38 12 4b 3e 1f 90 ca bd 68 a7 24 3e c6 47 82 be
       0.19831169 -0.0989077 0.16079485 -0.25445384
000090 4a 14 27 3f fc db 5c be 85 18 bb be ad f1 18 be
       0.65265334 -0.21568292 -0.36542144 -0.14935942
0000a0 d7 a7 8a bc 06 06 dd 3e 17 9e da 3e ae e5 94 be
       -0.016925735 0.43168658 0.42698738 -0.29081482
0000b0 1c 6d f0 be bd b9 cc bd 3b 88 30 3e ce 64 1b 3d
       -0.46958244 -0.09996364 0.17239468 0.03793793
0000c0 15 47 23 3e 00 5d 6c 3e 1b 66 97 3c eb 0a 8e 3e
       0.15945084 0.23082352 0.018481305 0.27742705
0000d0 b5 05 2d 3e 7e 54 c8 be 62 f7 dd bf fc dd 7a be
       0.16896708 -0.39126962 -1.734112 -0.24498743
0000e0 44 04 10 3f df bf aa 3f 88 ce c8 be fb 5f 62 3f
       0.5625651 1.3339804 -0.3922007 0.88427705
0000f0 e7 7f 5a bd b7 ab f8 3e 77 32 ee 3d 92 d6 bf 3c
       -0.053344633 0.48568508 0.11630719 0.023417745
000100 d2 5f 12 3f e3 db 67 be 42 2e da be f6 22 b1 bf
       0.5717746 -0.22642474 -0.42613417 -1.3838794
000110 c9 49 b2 3e f9 d3 3e 3d 52 be c1 3e 0b 26 c5 be
       0.3482192 0.04658887 0.37840515 -0.38505587
000120 bd 6e 2f be 9c 1d 87 be ba 8d 9e be 3b 54 91 be
       -0.17132087 -0.26389778 -0.30967504 -0.28384575
000130 36 99 1a 3f 0f f3 fc bf e5 75 6b 3e af bd 6f bf
       0.6039003 -1.9761676 0.22994192 -0.9364881
000140 81 7e 86 bf 66 aa 70 bd ea f4 19 3f 14 fe ab be
       -1.0507356 -0.058756255 0.60139334 -0.33592284
000150 9b 36 b7 be 9e 7c c2 be fa b9 e3 be 50 1e 97 3e
       -0.35783848 -0.379857 -0.44477826 0.29515314
000160 24 e9 3d 3f d0 12 8a bf 0c a1 1d bd f4 d8 86 3e
       0.7418387 -1.0786991 -0.038483664 0.26337397
000170 6d dc f5 be fa c5 ad be 5a 96 61 3f 92 2b 07 3e
       -0.48019734 -0.33940107 0.88120043 0.13200215
000180 75 b4 fc be 89 2b 72 bf ee d6 e6 3e a8 33 62 bd
       -0.49356428 -0.9459768 0.45085853 -0.055225044
000190 f6 bc a9 3f 11 56 bd be db 7e 1a bf 64 0b e2 3e
       1.3260791 -0.36979726 -0.60349816 0.44149315
0001a0 06 f9 4f 3f 91 6f 02 bf 94 ad fb 3e fe ca 27 be
       0.81239355 -0.50951487 0.49155867 -0.16386029
0001b0 f5 12 3a 3e a5 af c1 bd 7b 51 7c be 30 e5 18 3f
       0.18171294 -0.0945733 -0.24640457 0.5972471
0001c0 f2 f0 c8 3d a5 65 aa 3e 69 9d 41 be 45 62 c1 3e
       0.09811582 0.33280674 -0.18907703 0.37770286
0001d0 d1 9e 77 3e 05 e2 3f be db b4 bc 3e f6 23 b2 3f
       0.24181677 -0.18738563 0.36856732 1.3917224
0001e0 75 da da be 9e 82 91 bd 49 31 71 3f 0c ee b7 be
       -0.42744794 -0.071049914 0.9421583 -0.35923803
0001f0 05 22 90 bd 3a d7 c4 be 60 a9 14 be 69 59 5d 3f
       -0.07037739 -0.38445455 -0.14517736 0.86464554
000200 0c e4 ff bd c5 28 08 be 44 71 36 3e 1c 6d 23 be
       -0.12494668 -0.13296802 0.17816645 -0.1595959
000210 48 87 27 be 0c 62 9f bd 12 93 62 bd 6f 97 95 bd
       -0.163602 -0.07782373 -0.05531604 -0.07304274
000220 71 40 96 bd 00 f0 e3 3c 27 de af 3d f5 6d 72 3d
       -0.0733651 0.027824402 0.08587294 0.059186894
000230 ec eb d1 ba 47 52 9c bd bb 8c b5 3c 30 6d c7 bd
       -0.0016015745 -0.07632881 0.022161832 -0.09737623
000240 38 61 de bc 0b 3b 21 bd 9a e6 8a be 2a 0f 05 3e
       -0.027145967 -0.03936295 -0.2712906 0.12994066
000250 50 8f c6 bd 0f 0c ef 3d 7b 5e 40 bd ba 09 eb bb
       -0.096953034 0.11672222 -0.046965104 -0.0071727904
000260 49 42 3d bc 8b ea 10 be 9a 31 1e 3d 25 0d b0 bd
       -0.011551448 -0.14151971 0.038621522 -0.08596257
000270 8d 93 6d bd cc 0c 9c bc 8b 0c ad bd 01 16 e1 bc
       -0.058002044 -0.01904907 -0.08449658 -0.027476313
000280 67 9a 99 bd 6d 8b 5b 3d 82 d6 f7 bd d7 31 82 bc
       -0.07500153 0.053599764 -0.12101461 -0.015892906
000290 2c 0c 1c be 16 dc a1 3c 0b 99 75 bd 54 11 53 bd
       -0.15239018 0.019758265 -0.059960406 -0.051530197
0002a0 af d5 81 bc 22 88 8c bd 1a ac e1 bc 1d 5f 0a 3e
       -0.015848963 -0.06861903 -0.027547885 0.13512845
0002b0 20 25 02 be a6 1c 5d be bb 50 04 3e cc 7c 66 bd
       -0.12709475 -0.2159296 0.12921421 -0.05627136
0002c0 70 92 bf 3d bd ea c3 3d 6b 04 da 3c ed c1 8c bc
       0.093541026 0.09566257 0.026613435 -0.017182315
0002d0 83 26 88 bd f9 e6 49 3e a2 4f 38 bc d2 14 8c 3d
       -0.066479705 0.19717015 -0.011249455 0.06839909
0002e0 3f 45 9c bd 77 7a 34 be f8 75 a8 3b 8f 68 ab bc
       -0.07630395 -0.17624842 0.005141016 -0.02092388
0002f0 8d 19 81 be e1 24 07 bd 46 4c 95 bc 6f 44 f8 b9
       -0.25214806 -0.032994155 -0.018224847 -0.00047353233
000300 7a ce e0 bd f2 73 49 3c 73 a6 03 be f3 79 b2 bd
       -0.10976882 0.01229571 -0.12856464 -0.08714666
000310 9f fb 78 3e e1 88 91 bd 77 59 64 3c 23 fe 63 bc
       0.24314736 -0.07106186 0.013937346 -0.013915571
000320 04 16 8e 3c ac 80 88 3d f0 55 ba 3c 5f c4 53 be
       0.017344482 0.06665167 0.022746056 -0.20680378
000330 1c 3b 01 be 9d 92 2a bd 39 f7 59 39 da 4c ca 3d
       -0.12620205 -0.041643728 0.0002078683 0.098779395
000340 5a 25 39 bd 69 13 da bd e6 a3 d8 bd b0 0b fc bc
       -0.045201637 -0.106482334 -0.10578136 -0.030767292
000350 8f 55 d6 3d 1c 76 2b be 6b 52 b5 3a 7f fd b2 bc
       0.10465538 -0.16744274 0.0013833767 -0.021849392
000360 64 11 46 3c 90 91 c8 3d 95 34 8c 3e 2a 4e 3b be
       0.012089107 0.09793389 0.27383867 -0.18291536
000370 4d 8a f5 3d 17 3c 2b 3e 02 3a b8 3b 81 11 4a bc
       0.119892694 0.16722141 0.0056221494 -0.012333275
000380 89 bc a3 bc 1e 7e 05 3d 04 a7 46 3e 9e af cb bd
       -0.019987362 0.032590978 0.19399649 -0.09945606
000390 0f e1 a4 bb b6 7f 04 bc 90 c3 16 be 8c f2 d1 bd
       -0.005031712 -0.008087089 -0.14723039 -0.1025134
0003a0 67 53 df 3d 57 41 39 3d 7a e0 fb bd 1e 51 e2 3d
       0.109045796 0.04522833 -0.12298675 0.11050628
0003b0 10 fd a9 bc 1d fb 27 3d cf 38 60 3d 51 09 3f bd
       -0.020750552 0.041010965 0.054741677 -0.046639744
0003c0 33 8f fd 3c 83 06 04 3d 3b a5 6b 3d 97 83 aa bd
       0.030952072 0.032232773 0.057530623 -0.0832588
0003d0 c9 35 3f 3d 6d 7b b4 bd e7 10 62 3d 30 64 15 bd
       0.046682153 -0.08812604 0.0551919 -0.0364725
0003e0 fa d0 2a 3e 03 ea 24 3e 0b 38 f2 3d 52 a1 55 3b
       0.1668128 0.16104893 0.118270956 0.0032597375
0003f0 29 0d 82 3d 2e 22 94 3d 7f 51 b2 bd 8a 09 cc 3c
       0.06350166 0.07233082 -0.087069504 0.024906892

actor.2.bias f4 [128]
000000 ef 09 5c bd bf c8 29 bd aa a9 f3 3d 9f 7a 47 3c
       -0.05372041 -0.041451212 0.11897595 0.012175231
000010 99 2f 08 bc f7 a1 80 3e 15 62 52 3d 12 04 38 3e
       -0.008312129 0.2512357 0.05136307 0.17970303
000020 dc 4e 0f 3f 3a 76 6f 3f 26 1e c6 3c 77 e0 f9 bc
       0.55979705 0.93539774 0.024184298 -0.030502541
000030 c9 ce 10 be 65 01 c0 3d e2 74 03 3e 71 77 c0 bd
       -0.14141382 0.09375266 0.12837556 -0.09397782
000040 ca 46 a7 bd 02 4a c6 be c1 c8 17 bc be f8 b0 be
       -0.08167799 -0.38728338 -0.009264172 -0.34564775
000050 64 6c 86 be 92 ef a6 bc 62 cc 99 be 3d b8 97 3d
       -0.2625457 -0.020377908 -0.30038744 0.074081875
000060 9c 14 17 be 6b 53 64 be 3c 80 ee 3c 58 aa 48 3d
       -0.14753956 -0.22297446 0.029113881 0.048990577
000070 1b 97 c2 3d fc 1a 2d 3e b5 24 2a 3d 24 a4 4a bc
       0.09501477 0.16904825 0.041538913 -0.012368236
000080 3d 3a de 3d 6a c4 e3 bc d2 0a 83 bd c4 20 a3 be
       0.10850952 -0.027803618 -0.06398548 -0.31860936
000090 70 7f e6 3c 2b 03 53 3e 60 ba 81 3e 3f b2 8e 3d
       0.028136939 0.20606677 0.25337505 0.069675915
0000a0 03 1c e6 3c d5 03 25 3e ec 71 82 3c 99 0a 4d 3d
       0.028089529 0.16114743 0.015923463 0.050058935
0000b0 e9 51 00 3e 9a 0d da 3d 4e 71 9f 3d be e4 ec 3c
       0.12531246 0.106471255 0.07785283 0.028917667
0000c0 c1 db a5 3d da 60 a9 bd 90 c6 c9 3d c4 08 0b bf
       0.08098555 -0.08270426 0.09852326 -0.5431025
0000d0 a7 2d 4b bd 77 6b f9 3c d3 0f 7c 3e 18 74 10 be
       -0.049604084 0.030446751 0.24615411 -0.14106786
0000e0 d0 74 92 3d 00 60 57 bf a2 34 e8 bc de 06 ac 3e
       0.071511865 -0.8413086 -0.02834541 0.3359899
0000f0 16 f6 2c 3f 4c f8 a8 bd f4 d8 c8 3e 5e 2b 15 3c
       0.67563 -0.08250484 0.39228022 0.009104578
000100 a2 9e de 3c d4 32 5e 3d 4d 80 df bd 50 42 ab bb
       0.027175251 0.054247692 -0.10913143 -0.005226411
000110 0d d2 dc be 80 51 40 bc 95 14 b8 bc 08 dd 1b bd
       -0.43129006 -0.011738181 -0.022470752 -0.03805259
000120 32 44 0a be c2 f5 bf 3e 20 7a fd 3d 99 d5 98 bb
       -0.13502577 0.37492186 0.12376809 -0.0046641347
000130 6e 4e a6 3e eb 2c 60 3d e8 ec 2f bd af fc 9c bd
       0.32481712 0.054730337 -0.04295054 -0.07665383
000140 60 fd be 3c 86 7e 41 3d 1a ee d5 bd e3 00 5c 3d
       0.023314178 0.047239803 -0.10445805 0.053711783
000150 77 ae 72 3d 5c c7 65 3c 40 73 35 3e 9d 6a a8 3d
       0.059248414 0.014024582 0.17719746 0.0822346
000160 6e 52 4b bf 21 cb c7 3e 1e 20 a3 be f8 40 c4 be
       -0.7942265 0.39022163 -0.3186044 -0.38330817
000170 13 54 75 3e 2d 72 bf be b7 e9 de 3d 21 44 98 bd
       0.23957853 -0.37391797 0.10884421 -0.074348696
000180 7f a3 f9 be 30 dd c5 3d b7 5b ca bd b4 93 76 3c
       -0.4875755 0.09661329 -0.098807745 0.015049864
000190 b9 d4 07 be 45 50 fe 3d 0f c4 9e 3d 62 ec 7b bd
       -0.13264741 0.12417654 0.07752239 -0.06150473
0001a0 e6 b9 b5 bd 6d 47 2f bf 44 5d f3 bb e1 06 a1 bd
       -0.08873348 -0.6846836 -0.0074268896 -0.0786264
0001b0 d2 90 5b bd 2e 77 1c 3e 4f 54 18 3d 0a 2a 32 bd
       -0.05360491 0.15279838 0.037189778 -0.043497123
0001c0 cd bb a7 bd 90 d6 af bd 05 12 9a bd 71 b6 59 be
       -0.08190117 -0.085858464 -0.07522968 -0.21261002
0001d0 01 5a ed 3d f2 4f 1a bd ff be a2 ba f6 17 b6 3c
       0.115894325 -0.037673898 -0.001241654 0.022228222
0001e0 b8 27 9a 3d f7 53 57 bd 6c 42 a7 3b d9 d6 33 be
       0.07527107 -0.05257031 0.0051043537 -0.17562427
0001f0 f2 08 3b 3c 5f 43 91 3d e3 0b 1f 3c 4d 14 30 be
       0.011415707 0.07092928 0.009707424 -0.17195244

actor.4.weight f4 [4, 128]
000000 f2 06 1f 3d b5 7f 94 bd 19 67 b0 bd ae bf 8f bd
       0.038824983 -0.07250921 -0.08613414 -0.07018982
000010 67 c2 37 3d 46 b3 0c 3e 11 09 53 3d 77 06 15 be
       0.04486313 0.13740262 0.05152232 -0.14553247
000020 cb 96 2e bd 85 8c d6 bc a4 1e d0 bc 36 12 20 3d
       -0.042624276 -0.026190052 -0.025405236 0.039079867
000030 b7 ff 27 bd ef 44 54 3d 32 16 12 3e af f5 bb 3d
       -0.041015353 0.051823553 0.1426628 0.0917772
000040 2c 10 e2 3c 45 9b 21 bd c7 3f 60 3d 86 52 9e 3e
       0.027595602 -0.039454717 0.054748323 0.30922335
000050 7d 92 c1 bc 5e 32 43 bc a6 d8 19 be 49 16 a3 bc
       -0.023629421 -0.011913864 -0.15024051 -0.019908087
000060 04 47 b1 3d 11 61 63 3d f7 3d 46 bd 86 7e a6 3c
       0.08656123 0.05551249 -0.048398938 0.020324003
000070 33 ad a9 bd 69 cd 1f be 0c 22 cb 3c b0 ad 53 bd
       -0.08284988 -0.15605702 0.024796508 -0.051679313
000080 f2 6c c3 3c 9b 65 27 bd 24 8a 3a 3e b7 32 63 be
       0.02385566 -0.040868383 0.18216759 -0.22187315
000090 b1 28 4c bd 23 7e 2b bd 47 b6 d0 3d 23 42 22 bc
       -0.049843494 -0.04186834 0.10191017 -0.009903464
0000a0 cb 27 40 3d b8 5c 23 3e a1 18 b3 bc ac 27 71 bb
       0.04691295 0.15953338 -0.02186233 -0.0036797328
0000b0 4b 68 d2 bd 77 cc 8a 3d 36 b9 6b bd 0d da 5e 3b
       -0.102737986 0.0677728 -0.057549678 0.003400448
0000c0 48 9c 87 bd c0 14 f1 3d 8f 04 a1 bd a7 c7 1c be
       -0.06621605 0.11771536 -0.078621976 -0.15310536
0000d0 9c e6 1b bc 00 a7 02 3e 78 57 b1 bc 9f a9 e8 3c
       -0.009515431 0.12759018 -0.021648154 0.028401194
0000e0 53 db 06 bd bf d3 85 bd ce 64 95 bd 4e 53 e4 3c
       -0.032924008 -0.06534528 -0.072946176 0.027871754
0000f0 d8 fe c4 bd 42 b1 83 bc 8b fe 8a 3c ab fc 40 3d
       -0.0961892 -0.016075734 0.016967079 0.047115963
000100 7b 16 52 bd 9a 82 93 bc 65 11 b3 3c c9 dc df 3d
       -0.05129097 -0.018006612 0.02185888 0.10930783
000110 0c d3 ff bc 81 9f c8 bd 25 2a 22 bd 08 01 87 3c
       -0.031228565 -0.09796048 -0.039590973 0.016479984
000120 3b b6 e4 3d 03 4e b3 bd 8e 36 ba bc 1d b7 10 bc
       0.1116757 -0.08755114 -0.022731092 -0.00883272
000130 40 8b f6 3c 73 21 0e bc 45 8d 59 3d d7 4c 96 bc
       0.030095696 -0.008674967 0.05311324 -0.018347187
000140 55 48 3f bc 46 e2 80 be ce 93 00 3b b1 dc 03 bd
       -0.01167496 -0.25172633 0.0019619348 -0.03219289
000150 70 cf fc 3b 3c a5 6f 3d 0b 74 7f bd ac e0 28 bd
       0.007715158 0.05850719 -0.062366527 -0.04122989
000160 7b d1 a1 3d ec 29 0d 3e 46 8f c4 bd a2 48 86 bd
       0.07901283 0.13785523 -0.0959764 -0.06556822
000170 90 b2 15 3e 6e 4d 3d 3c 4c ba e7 bd 6c 4e 47 ba
       0.14618897 0.011554105 -0.1131483 -0.00076029333
000180 1b b2 be 3c 47 70 60 bd bd 7a b7 bc fc cf 8c 3b
       0.023278287 -0.054794576 -0.022397393 0.0042972546
000190 57 99 2f 3d 64 fb 22 bd b6 c8 bd bd cf 00 a1 3b
       0.042870846 -0.039790526 -0.09266798 0.0049134265
0001a0 5a b7 35 bd 9c a6 6a be 4f ee f4 bd 2c 54 9b 3c
       -0.04436431 -0.22915119 -0.11959516 0.018961035
0001b0 02 24 90 3c 3e 9b 8d be df e0 68 3d d7 c7 35 3c
       0.017595295 -0.27657503 0.05685508 0.011095009
0001c0 75 2b 72 3d b1 43 50 bc 45 80 5f 3d ee d0 97 be
       0.059123475 -0.012711451 0.054565687 -0.29651588
0001d0 e2 3f 00 be 4a 6e c9 3c 5e 9c 82 3c 98 84 9a bc
       -0.1252437 0.024588723 0.015943702 -0.018862054
0001e0 fd 70 53 3d e5 92 67 bc 7e 58 1d bc 51 fd b7 3d
       0.051621426 -0.0141341435 -0.009603618 0.08983863
0001f0 ad e4 f4 bc bd e6 11 be 77 14 89 3d 8f 63 77 be
       -0.029894197 -0.14248176 0.066933565 -0.24159072
000200 5a 1f ed bd 7b 15 bd bb 37 b6 43 3e 78 e0 c9 3d
       -0.115782455 -0.005770383 0.19112478 0.09857267
000210 d2 60 dc be f5 93 12 3e a1 fe 45 3d 89 56 1d 3d
       -0.43042618 0.14314254 0.048338536 0.038412604
000220 53 ca 88 bd 25 91 d0 3d 2e 33 6c bc 49 47 ce 3c
       -0.06679215 0.10183934 -0.014416499 0.025180476
000230 ff fa 1a bc 30 c6 6e 3d fc 9c 3b bd 60 33 a0 be
       -0.009459256 0.058294475 -0.04580401 -0.31289196
000240 3c 30 47 bc bd 09 42 bf 3a 70 a2 bc f7 dc 29 3e
       -0.012157496 -0.7579611 -0.019828904 0.16588198
000250 47 73 c5 bb 18 92 6e bd f2 1d a8 bd 36 af 0a 3b
       -0.006025705 -0.058244795 -0.082088366 0.0021161563
000260 32 17 4a bd 2c 78 8b bd 0e c9 09 bd ad 77 81 bd
       -0.049338527 -0.0681003 -0.033639006 -0.063216545
000270 f4 b0 89 39 af 4f c8 bc 94 e0 6f bd 7c f5 ab 3d
       0.00026262517 -0.024452059 -0.058563784 0.08396432
000280 4e 6b 26 3e 10 c3 2d 3d 01 61 8e 3d 2e ae 5e 3d
       0.16251871 0.042422354 0.06952096 0.05436533
000290 95 93 be 3c d4 1e 49 3d e6 7a c3 3e bf 4b 98 3c
       0.023263732 0.049101666 0.38179702 0.018590806
0002a0 e8 72 31 3d 2b a6 76 3d de 84 ca bc e6 cf c2 bd
       0.043322474 0.060217064 -0.02472156 -0.0951231
0002b0 c1 93 ad 3e 87 e6 9f 3c 64 2e 24 3d ac fd 71 bb
       0.3390179 0.019519104 0.040083304 -0.0036924882
0002c0 e6 98 94 3c a3 fb 26 3d a4 7d 43 3d 4f 33 53 bd
       0.018139314 0.040767323 0.047727242 -0.051562604
0002d0 fb 06 14 bc 08 57 be 38 95 91 46 3e 1f d7 89 3c
       -0.009034867 9.076117e-05 0.19391473 0.01682621
0002e0 b5 d0 11 3d 66 e3 09 3e b6 bc 00 bd 43 39 15 3c
       0.03559943 0.13465652 -0.03142997 0.009107891
0002f0 37 53 ca bd cf 59 c6 bd 0d a8 57 3e 35 29 b2 bc
       -0.09879153 -0.096850984 0.210602 -0.021748165
000300 cf 50 f8 bd 83 ff 72 bd 30 2a 4c 3d e3 6f b2 bd
       -0.12124788 -0.059325706 0.04984492 -0.08712747
000310 fb 96 0d 3d 6c 1a 92 bd 9d fd 1a bd 8c 3b d0 bd
       0.034567814 -0.07133946 -0.03783952 -0.10167608
000320 f5 b1 0f 3d df a9 65 bd d0 61 7c 3b b9 ac 11 3e
       0.035081822 -0.056070205 0.003851045 0.14226045
000330 38 5b 62 bd 39 1c 5c bc d7 61 3b 3c a1 3f 9b bc
       -0.055262774 -0.013434463 0.011436901 -0.018951239
000340 2c 0e 05 be 94 e5 9f 3d 04 ab 28 bd 59 a1 2b 3c
       -0.12993687 0.078074604 -0.04117872 0.01047548
000350 6a e4 1d bb c0 38 ce bc 4f f5 cd 3d 07 26 e7 3d
       -0.0024092444 -0.025173545 0.100565545 0.1128655
000360 84 bb 7f be 39 c9 79 3d 13 8c 13 bd 80 cd a7 bd
       -0.24973875 0.060982917 -0.036022257 -0.08193493
000370 53 9f 9a bd df 2d 09 bd af 25 96 3e 46 ad 25 3d
       -0.0754992 -0.03349101 0.29325625 0.04044845
000380 8e 72 6f bc a3 e3 06 bd 06 7e d5 3c e5 15 82 3b
       -0.014614714 -0.032931935 0.02606107 0.003969895
000390 c0 17 87 3d f0 01 fc bd 07 5f c3 b9 30 ff 3c b9
       0.06596327 -0.12305057 -0.000372641 -0.00018024142
0003a0 9c a8 73 be 3d 0b fe bd 21 73 5a 3d 9b d6 5e bc
       -0.23794788 -0.12404487 0.05333245 -0.013600971
0003b0 1b 45 91 bd 26 cc 34 3d b4 46 43 3e 8f 6f a4 3e
       -0.07093259 0.044140004 0.1906994 0.32116362
0003c0 c8 23 73 bd 29 e3 7a bd 81 25 9a 3c 39 1b b7 bd
       -0.059360296 -0.061251793 0.018816711 -0.08940739
0003d0 93 cf 8a 3d bc 96 8c 3c 88 ba 7c 3d d0 cc 03 bb
       0.06777873 0.01716172 0.061701328 -0.0020111091
0003e0 dd 4a 8a be 09 a9 c1 3b 9a 09 aa bc dc c6 e3 bd
       -0.2701024 0.005910043 -0.020756532 -0.11121914
0003f0 03 76 c4 bd 2b 8d d7 bc 4a a8 41 bd a2 b2 91 be
       -0.095928214 -0.026312431 -0.047279634 -0.284566

actor.4.bias f4 [4]
000000 9e 86 19 3f 6d 8f 09 3f ce d8 37 3f 5c 7d 1f 3f
       0.59971035 0.53734475 0.7181519 0.6230066

critic.0.weight f4 [128, 17]
000000 4c 44 ca be 69 d5 b3 3f 8c fc 17 40 c4 ac 28 3d
       -0.3950523 1.4049503 2.3747892 0.041180387
000010 30 74 0a c0 8c 9d 9c 3e bb 88 0f c0 01 73 27 40
       -2.1633415 0.3058895 -2.2427204 2.6163943
000020 1d ab 69 bf e1 1a d7 bf e5 39 56 40 b4 1d a8 3f
       -0.91276723 -1.6805078 3.3472836 1.3134065
000030 e0 37 fc 40 4e 09 af bd 56 47 2c 3e b9 ee 92 3e
       7.8818207 -0.085466966 0.16824088 0.28697756
000040 c6 3f bf 3e 2b bf 0b 3f 96 10 51 bc 23 96 3e c0
       0.37353343 0.54588574 -0.012760302 -2.9779136
000050 48 1e 28 3f a1 4b f3 be 6a 96 93 3f 7d 95 c3 bf
       0.65671206 -0.47518638 1.1530278 -1.5279995
000060 12 1d 84 3f ba b0 3c 3f c9 1b d7 3f df 08 ab be
       1.0321372 0.73707163 1.6805354 -0.33405206
000070 f8 8d 62 bc 7a a8 60 3d 3b 1b e7 bc 4a 5e 45 3d
       -0.013827793 0.05484817 -0.028211227 0.048185624
000080 74 bd 26 3e a5 1e 24 3e 04 c9 c7 3f 33 32 77 40
       0.16283208 0.16027315 1.560822 3.862439
000090 5f 81 a1 c0 91 12 42 3e a3 97 69 c0 b0 e1 f6 3f
       -5.0470424 0.18952395 -3.6498802 1.9287624
0000a0 16 f6 3d 3f 2e 0e 92 3f 2c 85 29 c0 69 79 89 3f
       0.7420362 1.1410577 -2.6487532 1.0740176
0000b0 c5 b1 7e be d1 d6 17 bf 14 c3 02 bf 67 5e c6 3d
       -0.24872501 -0.5931216 -0.51078916 0.096859746
0000c0 e2 fd 57 3e c4 42 91 3e 71 c6 9a 3e 60 2c 47 40
       0.21092942 0.2837125 0.30229524 3.1120834
0000d0 ec 45 2a c0 56 c4 ab c0 b8 ae b1 3d 3f 1b 62 3e
       -2.6605177 -5.367717 0.08675903 0.22080706
0000e0 28 45 6b 3f 67 05 3d c0 01 49 0b c0 28 b7 09 3f
       0.919024 -2.9534547 -2.1763308 0.537951
0000f0 bf 79 ac 3f 4e 05 4f 3e 73 9a ed be eb a9 06 be
       1.3474654 0.20216867 -0.46406898 -0.13150756
000100 c7 14 c9 bd 19 d8 40 be 4d e1 1f 3d a4 44 af bc
       -0.09818416 -0.18832435 0.039033223 -0.021395035
000110 d2 d8 9a 40 46 b4 8a 3f dd a6 13 bf 57 76 82 be
       4.8389673 1.0836265 -0.5767649 -0.2548091
000120 6f b8 57 3f 40 a6 77 bf cd 7f d9 3b e6 70 2c c0
       0.842658 -0.9673805 0.0066375495 -2.6943908
000130 14 b2 2c bf 2e e5 3e 3d 88 a4 9a 3f be f6 3e 3f
       -0.67459226 0.04660528 1.2081461 0.7459525
000140 e2 82 19 c0 1d c5 34 3e cb 06 e9 3d f6 19 50 3e
       -2.3986135 0.17653318 0.11378249 0.20322403
000150 7d 77 95 3e 2c 57 11 c0 ea 2d 7a 3f fe 59 63 40
       0.29192725 -2.2709455 0.9772631 3.5523677
000160 90 ad 9b bd 1e fe 9e c0 69 0a 32 40 d2 c5 8a 3e
       -0.07601464 -4.96852 2.7818854 0.2710405
000170 25 8d 79 bf b3 c0 f9 bf c9 55 5c 3f 46 2c 0d bf
       -0.97480994 -1.9511932 0.860684 -0.5514568
000180 0e b4 30 bf 9f 8e 80 3f f6 5e 8c 3d b0 8a 8c 3d
       -0.6902474 1.0043525 0.0685405 0.0686239
000190 70 6f c8 3e 03 c3 40 3e 7a a0 93 c0 08 f1 bc c0
       0.3914752 0.18824391 -4.6133394 -5.9044228
0001a0 c6 5a 9d 40 1d 16 9d bf ca 42 fa 3f c9 67 e4 bf
       4.9173307 -1.2272373 1.9551632 -1.7844173
0001b0 65 79 fc be 65 2b d1 be a9 08 62 3f 06 45 05 3f
       -0.49311367 -0.4085342 0.88294464 0.52058446
0001c0 51 2d aa 3e f7 dd a6 3d 85 77 49 3e 46 10 25 3e
       0.332377 0.08147805 0.196745 0.16119489
0001d0 39 ea 9a bd 39 21 6a 3e e9 f0 c5 3e fc 64 1b bf
       -0.07564206 0.22864236 0.38660362 -0.60700965
0001e0 94 bb bf be af 45 e0 3e 6e fe fa 3e 7c 23 10 3e
       -0.37447798 0.43803164 0.4902224 0.14076036
0001f0 ef 50 b8 bf c8 92 1d 40 e6 31 60 bf 14 b6 5e 40
       -1.4399699 2.4620838 -0.8757614 3.4798632
000200 6d 91 33 40 8e f4 c2 be 32 1d 1f bf cb 90 19 c0
       2.805751 -0.38077205 -0.62153924 -2.3994625
000210 1b fd a3 3d 35 38 06 3f 57 4f 3c 3d 54 a6 f9 3c
       0.080072604 0.52429515 0.045974102 0.03047482
000220 4a 60 29 40 6b 60 b2 40 ac 9a 36 c0 d5 e0 b7 3e
       2.646502 5.57427 -2.8531904 0.3591372
000230 11 dc 41 40 5b ed e8 bf db 73 ac 3c 52 a0 13 c0
       3.0290568 -1.8197435 0.021051338 -2.3066602
000240 11 44 02 c0 0d 1a b1 bd 34 4e ff 3f bc c5 a5 3e
       -2.0354044 -0.08647547 1.9945741 0.32377422
000250 9c 53 8b bf 10 f7 27 be 11 f2 4a bd 09 28 2d be
       -1.088489 -0.1640284 -0.04954726 -0.16909803
000260 1e 4b 28 bc ef ee 96 40 2a 16 b4 40 06 72 72 40
       -0.010271816 4.7166667 5.6277056 3.7882094
000270 5a 9a 14 3d 65 de 89 3f 3e e9 d8 bf 46 c7 f2 3f
       0.036280014 1.0770994 -1.694618 1.8967063
000280 31 30 e4 3e 3a 48 c8 3f da 96 05 3e 68 93 01 bf
       0.44568017 1.5647042 0.13045827 -0.5061555
000290 7a b6 ad 3f 84 47 ff bf d0 f7 75 be d0 95 12 3d
       1.3571312 -1.99437 -0.24020314 0.035787404
0002a0 e0 6d d8 be 7b e8 08 bf 88 de 93 3f 8f ee 27 bd
       -0.42271328 -0.5347974 1.1552286 -0.04099899
0002b0 7b 02 8d 3f b6 68 45 3f 3e 19 d0 40 ab 72 97 be
       1.1016382 0.771129 6.5030813 -0.29579672
0002c0 3d ad f7 bf 0f 94 75 bf 65 c0 50 40 60 78 cb bf
       -1.9349743 -0.95929044 3.2617428 -1.589611
0002d0 ec fa bb be 04 5a 27 bf 56 d7 84 bd 16 0a 9e 3d
       -0.36714876 -0.6537173 -0.064863846 0.077167675
0002e0 cd 61 fa bc a9 ee 56 3d d3 87 d0 3d bf ce 3d c0
       -0.030564213 0.052473698 0.101821564 -2.9657438
0002f0 3d 18 a7 bd 27 bf 31 41 08 96 36 be f6 34 ef 3f
       -0.0815892 11.109168 -0.1783067 1.8688037
000300 c8 35 09 be a0 f5 3a 3f 58 9e 02 40 6a bd e4 3f
       -0.13399422 0.73031044 2.0409145 1.7870305
000310 ae 42 df 3d 34 8b 1b bf 62 f2 6c be ab 0b f5 3e
       0.1090139 -0.6075928 -0.23139337 0.47860464
000320 ef 04 e2 bc 0e 9f 43 3b 08 fa 41 3e f1 da a3 3d
       -0.027590243 0.0029849443 0.18943036 0.08000744
000330 77 21 09 40 bd 3e 2f c0 09 a4 40 c1 ce 5a 79 3e
       2.1426675 -2.7382042 -12.040048 0.24351045
000340 3d 20 f2 3f 02 f4 cd 3f 4e 02 f0 bf 86 19 14 c0
       1.8916088 1.609009 -1.8750703 -2.3140578
000350 4a b1 da bf e9 c4 04 c0 80 70 dd 3e f4 78 fe be
       -1.7085354 -2.0745184 0.43249893 -0.49701655
000360 70 7a e0 3e bd 39 52 be 05 fb a8 bd 7c 1f 24 be
       0.43843412 -0.20529838 -0.08251003 -0.16027635
000370 59 17 9f be 93 aa 87 40 c1 f1 58 c0 e7 aa d6 3f
       -0.310725 4.239572 -3.3897555 1.6770905
000380 a6 85 34 3f 80 ec c4 3e fa 3c 8f 3e f1 82 80 c0
       0.7051643 0.38461685 0.2797621 -4.015984
000390 41 01 2e 3f b5 f0 a3 bf 1c 95 b8 3f ac 77 28 40
       0.67970663 -1.2807833 1.4420505 2.6323042
0003a0 ac 74 ce bf 34 77 31 40 e2 7e 25 bf 62 c6 c8 be
       -1.6129355 2.7729006 -0.6464673 -0.39213854
0003b0 53 63 90 be 7c b2 e5 be 8d c2 41 3f 15 4b b9 bd
       -0.28200778 -0.44862735 0.75687486 -0.09047524
0003c0 26 e5 7b bf 16 9c 4d 3f 85 39 29 be 62 ee bd 3f
       -0.9839653 0.80316293 -0.16525848 1.4838374
0003d0 37 ee 6d c0 ad b8 85 c0 ed d3 b0 3e 16 12 42 3e
       -3.7176645 -4.1787934 0.34536687 0.18952212
0003e0 3e 08 fd be 2f 9d 9c bf ab b5 16 bf 1a fb d0 be
       -0.4942035 -1.2235469 -0.58870953 -0.40816575
0003f0 f9 77 8e be 52 9f ea be 51 e4 03 bf d7 a2 48 c0
       -0.27825907 -0.45824677 -0.5152026 -3.134939

critic.0.bias f4 [128]
000000 45 aa 9b 3e 92 a1 d7 3e d0 6a ff bd 49 86 90 3e
       0.30403343 0.42115456 -0.12471545 0.2822745
000010 76 74 05 3d c0 a5 de 3e 31 b3 6e bf e5 1f 6c 3e
       0.03258177 0.43485832 -0.93242174 0.23059042
000020 10 7f 93 3e e5 7b aa be d5 21 7c 3f 9f bf cc bd
       0.28807878 -0.3329765 0.98489124 -0.09997486
000030 db 2b bb bb a7 5b 2e 3f 06 b9 d8 3e ba 8d 35 be
       -0.005712015 0.681086 0.42328662 -0.17729846
000040 02 69 b5 3e bc 99 ca be db 01 19 be 88 3d f5 3e
       0.35431677 -0.39570415 -0.14942114 0.47898507
000050 6c e5 ad 3d 39 93 44 bf 3b b9 f6 bd 33 4e db bd
       0.084910244 -0.76787144 -0.12047049 -0.10708275
000060 b4 d6 f9 3c a1 97 60 bf 71 ec 38 3e ca a7 1b 3e
       0.030497886 -0.8773137 0.18058945 0.15200725
000070 1a 76 ec be d3 3c c1 bd 0c 63 ae 3e 7f cc 03 bf
       -0.46183854 -0.094354294 0.34059942 -0.5148391
000080 bb 67 43 3e 78 4b dd 3e 6e f0 92 be c2 9f bb 3d
       0.19082539 0.4322164 -0.28699058 0.09161331
000090 3c 3c d6 3c bb ba 7b bd ba 27 99 3d 6c e4 db 3e
       0.026151769 -0.061457377 0.0747828 0.4294771
0000a0 bc 2c c1 3e b9 1c 26 be 11 66 0d 3f 7f 04 d0 bd
       0.37729442 -0.16221894 0.55233866 -0.101571076
0000b0 f4 cb da b9 5f 69 3f 3e a5 6a 5d 3d fe dc 1c 3d
       -0.00041732157 0.1869254 0.054056782 0.038296692
0000c0 82 3b 1f 3c da 4d 15 be dd fa 26 3e 63 e1 2d bf
       0.009718778 -0.1458048 0.16306634 -0.6792204
0000d0 65 aa e2 be 58 00 be 3e 7c 57 c9 be 04 8c c7 3e
       -0.44270626 0.37109637 -0.39324558 0.3897401
0000e0 fe 37 4f 3e ad 32 0c 3e bd 9f 10 bf cb 1c af 3d
       0.20236203 0.13691206 -0.5649374 0.08550414
0000f0 3b 95 96 bd 1d 4c 4b 3d 32 46 55 be 1e b8 f3 3c
       -0.07352682 0.049633134 -0.20827559 0.02975088
000100 47 0d 9b 3e be d4 06 be a4 d7 1f 3e ee 83 66 3e
       0.30283567 -0.13167092 0.15609604 0.22511265
000110 08 d6 51 bf 9d 13 6b be 53 c9 94 be 50 3c 7c 3e
       -0.8196721 -0.229567 -0.29059848 0.24632382
000120 c5 f0 ab 3f e7 57 12 3f 58 11 00 be de 8d 71 3e
       1.3432852 0.5716538 -0.12506616 0.23589274
000130 2d 5f 01 3f c5 a8 e2 3d 87 23 70 be 96 47 d0 be
       0.5053585 0.110673465 -0.23451053 -0.40679616
000140 58 bd 08 3f ad e9 7d be 9d 53 89 3e d2 9d 8b 3e
       0.53413916 -0.24796171 0.26821604 0.27268845
000150 ff d7 f1 be 6f 56 2b be 12 69 24 bd 94 1b 2b 3f
       -0.47235104 -0.1673219 -0.040139265 0.66838956
000160 14 45 f9 3e 33 0e bc 3e 42 af 12 bf e0 c8 ea be
       0.48685515 0.36729583 -0.5729867 -0.4585638
000170 f0 71 a5 3e 08 90 d5 3c 10 d2 0b 3f b8 fa fd 3e
       0.3231349 0.026069656 0.54617405 0.49605346
000180 61 d6 6b be 82 a8 d0 be 8b 1d 49 3d 02 c0 d5 3e
       -0.23030998 -0.4075356 0.04910044 0.41748053
000190 6b 9c 5f be ea 17 ee bd e7 c6 5e 3d 72 43 44 bd
       -0.21837012 -0.11625655 0.054388907 -0.047915883
0001a0 2b bd d7 3e d7 a3 a6 3e da 76 05 3f 8f af b1 be
       0.4213651 0.32546875 0.5213448 -0.34704253
0001b0 33 c0 29 be 09 c5 11 3f 80 3f 29 3c aa 48 fc be
       -0.16577224 0.56941277 0.010330081 -0.49274188
0001c0 50 a0 06 3f 8d e7 bd 3d ec d9 42 3e cc 39 9e ba
       0.5258837 0.092726804 0.19028443 -0.0012071668
0001d0 80 49 19 bf 16 e5 8c be 00 c0 95 be f5 d8 1b bf
       -0.5987778 -0.2751853 -0.29248047 -0.60877925
0001e0 f1 af 86 bd 97 73 86 3e d3 44 98 3e 2b 5a 1a bf
       -0.06576527 0.26260063 0.2974001 -0.60293835
0001f0 8e 45 a4 3e 38 4c b9 be 14 eb 83 3f 89 f6 28 3e
       0.32084316 -0.36190963 1.0306115 0.16500296

critic.2.weight f4 [128, 128]
000000 7d be bc be 1f 6f 96 3d a1 c4 16 3c 92 5b 8e bf
       -0.3686408 0.073454134 0.009202153 -1.1121695
000010 6f 73 f0 be 2c fc 9f bf 63 d3 c2 bf 25 93 17 3f
       -0.4696307 -1.2498832 -1.522076 0.592089
000020 a8 a5 3e be 97 0a 0a 40 5f 23 45 bf 08 9c 42 bf
       -0.1861788 2.1568964 -0.77007097 -0.76019335
000030 8c 1e 2d 3f 8d 8a 99 bf ff 6e bc bf 79 a4 55 3e
       0.67624736 -1.1995407 -1.4721373 0.20863523
000040 22 5b 21 3f 7a 8d 28 bf 0c 61 6c 3e 3b 49 b2 be
       0.6302968 -0.65840876 0.23083895 -0.34821495
000050 2b 4c 5e bf 9d ba 7e 3d 4c 9e ec 3e 8b d9 31 bf
       -0.86834973 0.062189687 0.4621452 -0.6947257
000060 f2 f9 ce 3f 2a 9c fb 3f cf 12 70 3e 76 1a 0e 3f
       1.6170027 1.9657032 0.23444675 0.55509126
000070 2a ae f6 3f dd 0d a7 3e 29 bc b2 3e ac b8 0f 40
       1.9271901 0.32627764 0.3490918 2.2456465
000080 8f d5 91 bf f5 6c 4c bf e1 00 e6 bf d3 02 3a bf
       -1.1393298 -0.79853755 -1.7969018 -0.7266056
000090 bd b8 9f 3e c5 98 8d 3f fe 5f d3 be 7c b2 b5 3f
       0.31195632 1.1062247 -0.41284174 1.4195094
0000a0 35 32 65 bf af 9a 28 3f 2d e2 45 3f 61 32 38 be
       -0.89529735 0.6586103 0.7729824 -0.17987968
0000b0 27 0f 00 40 49 7f 45 bf 47 ea c5 bf 43 c0 bd be
       2.0009248 -0.77147347 -1.5462121 -0.37060747
0000c0 bb 82 cd bf 09 c6 39 3f d4 4a bd bf 80 86 5f 3f
       -1.6055521 0.725678 -1.4788461 0.87314606
0000d0 fa 69 91 3e 25 02 51 bd e3 b2 73 bf d2 1c 35 3e
       0.28401166 -0.051027436 -0.95194834 0.17686775
0000e0 6e 1f d2 bf 31 31 76 3f c1 0d 15 bf 8c 05 d0 3e
       -1.6415842 0.9616881 -0.5822411 0.40629232
0000f0 4e aa 89 3d 35 62 5b 3e 02 35 ea be 2d c0 ff bd
       0.06721936 0.21424182 -0.45743567 -0.124878265
000100 53 6e df bf 3a e3 95 3f 48 6f 67 3e e2 be 8c be
       -1.7455543 1.1709969 0.22601044 -0.27489382
000110 a8 fb 34 3f c2 7e 72 3f f2 39 b3 bd 1a 76 17 be
       0.70696497 0.9472467 -0.087512866 -0.14791146
000120 3d 81 8e 3e 56 35 79 3d 37 d8 08 3f 86 2b fd 3f
       0.27832976 0.06084188 0.5345492 1.9778907
000130 8d ff d5 bf 65 d3 80 3f cc 64 13 bf 79 d3 be 3f
       -1.6718613 1.0064512 -0.5757568 1.4908286
000140 cd fb bf 3e a3 4e 95 3e 09 83 6e bf 3c 04 47 bf
       0.37496796 0.29161558 -0.93168694 -0.77740836
000150 25 d4 a4 3e e5 9c 37 be 60 62 34 3f 54 e2 74 3f
       0.32193103 -0.17930944 0.7046261 0.9565785
000160 2f 85 ad bf a9 97 2e 3f 2c 85 d3 bf 4b ca e8 3e
       -1.355627 0.68200165 -1.6525016 0.45466837
000170 1f 28 09 bf d4 98 03 3f 6c 00 13 3e 79 d8 b6 be
       -0.53576845 0.5140507 0.1435563 -0.3571203
000180 c3 27 9c be e4 f0 10 3f d2 be a0 3f 77 81 ba be
       -0.30499086 0.5661757 1.2558234 -0.364269
000190 ec ce 6e be 10 bd 61 3f 37 57 dc be d3 e0 20 3f
       -0.23321122 0.8817911 -0.4303529 0.62843055
0001a0 4e 3a b9 bf f7 1b b7 bd 3e 60 c2 bf 7a 09 ce bf
       -1.4470918 -0.08940881 -1.5185621 -1.6096642
0001b0 48 b6 6b 3f b5 6c 08 bf 53 63 c3 be 28 ae 65 3e
       0.92075014 -0.53290874 -0.38161716 0.22429717
0001c0 d6 5f 8d be 90 b9 91 3f ec ba e1 3e d6 63 a1 3f
       -0.2761218 1.1384754 0.44087923 1.2608593
0001d0 3a 39 16 c0 55 53 0d bf 90 b5 e4 3f b9 94 b1 3f
       -2.3472428 -0.5520528 1.7867908 1.3873512
0001e0 63 f3 83 bf 70 d3 62 bf 45 42 92 bf c1 67 8a be
       -1.0308651 -0.8860388 -1.1426474 -0.27032283
0001f0 4e 7d c1 bf c3 f8 33 bc dd 79 d7 be f3 ba 23 40
       -1.5116365 -0.010984602 -0.42085162 2.5582855
000200 63 8e 44 bd 6e 58 65 3e 5a de 9f 3e 0a 13 90 3f
       -0.047987353 0.22397014 0.31224328 1.125581
000210 17 bd e8 3e 71 6f 53 3e ac 97 67 3f e2 be 13 3f
       0.45456764 0.2064798 0.9046581 0.5771314
000220 7d 09 0d bf 30 2b 02 3e f8 71 33 bf 49 59 e0 bf
       -0.550926 0.12711787 -0.7009578 -1.7527248
000230 34 8a b1 3f 19 cf a5 bd 31 d4 9d be 14 6b 02 3f
       1.3870301 -0.08096141 -0.30825952 0.5094464
000240 f0 cc de 3b 82 64 63 3e b0 4e 95 be aa 98 f1 bf
       0.006799333 0.2220631 -0.29161596 -1.8874714
000250 42 10 ea 3e 49 4c 5a 3f 28 93 88 3e 21 63 86 3e
       0.4571553 0.8527265 0.2667477 0.26247504
000260 a7 d1 54 bf 60 d9 5a be b2 17 66 3f 54 a7 4e bd
       -0.83132404 -0.21371984 0.89879906 -0.050452545
000270 25 f1 a7 bf ee 8b 8f be e2 ed e1 3d e4 8b 7c be
       -1.3120466 -0.28036445 0.11031701 -0.24662739
000280 6f b6 6b bf 5b 63 ac bd 53 02 8d 3f c7 51 34 bf
       -0.92075247 -0.08417388 1.1016334 -0.7043728
000290 1e 5d d9 3e 06 3b 48 be a8 5f 83 3f 6b 26 74 bf
       0.42453855 -0.19553766 1.0263567 -0.9537112
0002a0 ac a1 83 bf 10 91 98 be 60 2e 82 3e 11 4e 1b 3e
       -1.0283713 -0.29798174 0.25426006 0.15166499
0002b0 83 9d fb 3c b5 2e 18 bf 2a 12 27 3f f0 53 fc bd
       0.030714756 -0.5944627 0.6526209 -0.12320697
0002c0 17 1f 9b bf cf 06 56 3f 57 8c a0 bf 84 14 cb be
       -1.2118863 0.8360414 -1.2542828 -0.3966409
0002d0 f8 fe 97 be d9 74 0a 3e 1e 5f 17 c0 41 3e f2 bf
       -0.29686713 0.13521136 -2.3651805 -1.8925248
0002e0 6c 09 1e bf 20 95 99 3f b5 c3 65 3f 13 a2 b7 3f
       -0.61733127 1.1998634 0.8975175 1.4346336
0002f0 48 56 62 3d 09 e2 4d be 38 9a 72 3f 3f a2 3b be
       0.055258065 -0.20105757 0.9476657 -0.1832361
000300 1b 7c 17 bf 15 f4 eb bd d8 84 79 3f 60 07 f0 3e
       -0.59173745 -0.11521164 0.9746833 0.46880627
000310 a4 bf 59 bd 9c ac 59 bf 68 dc bc 3d 68 e8 8c bf
       -0.05316128 -0.85029006 0.09221727 -1.1008425
000320 55 ee 3f bd fe 0c 5e bd 12 e7 a7 be 24 a6 36 3e
       -0.04685815 -0.05421161 -0.3279348 0.17836815
000330 d4 11 53 3d 8c 21 ab 3f 23 36 51 3f 48 97 b1 bd
       0.051530674 1.3369613 0.8172323 -0.08671433
000340 53 85 71 be 9d ce 6f 3e c4 1d f7 be 74 29 68 3e
       -0.23586015 0.2341866 -0.48264897 0.22672063
000350 36 9f d7 be a6 0c 4a bf 7b e3 80 bd 0a 5f 01 40
       -0.42113656 -0.7892555 -0.062933885 2.0214257
000360 bc 97 a7 3f 50 12 4d 3f 75 0a bc 3f d0 5e 43 be
       1.3093181 0.8010607 1.4690691 -0.19079137
000370 a4 78 51 bf 4c 69 ef bd f2 de a7 be b5 51 c5 3e
       -0.8182471 -0.11690006 -0.3278728 0.385389
000380 9b 00 fa 3e 10 0e 02 be 59 20 07 be 6b db 10 bf
       0.48828587 -0.12700677 -0.13195933 -0.56584805
000390 22 83 ba be 59 80 4b be 4d 86 86 3e 10 47 d3 3e
       -0.3642817 -0.1987318 0.26274338 0.41265154
0003a0 2a 93 18 bf 5c ad 0e 3f 06 ad de 3d 6a c2 80 3d
       -0.59599555 0.55733275 0.10872845 0.062870815
0003b0 b8 a5 62 3e c6 cd b2 be 85 4a ca be a5 de 80 be
       0.22133529 -0.34922618 -0.3950998 -0.25169864
0003c0 ee 99 16 3f 0a 1c 88 be 50 58 a0 be e2 67 9a 3f
       0.5882863 -0.26583892 -0.31317377 1.2062953
0003d0 45 91 97 3f 4c a7 4f 3f 0b 99 92 3f 5b 98 41 3e
       1.1841208 0.8111465 1.1452955 0.18905775
0003e0 7a 12 3d c0 2e f4 4f bf 08 2e 8c bf ce 59 a0 3e
       -2.9542527 -0.81231964 -1.0951548 0.31318516
0003f0 05 5f ae 3c 3b 15 a3 bd 1d a1 cb 3d fe 82 29 3f
       0.021285543 -0.07963034 0.09942839 0.66215503

critic.2.bias f4 [128]
000000 93 c7 c2 3b 3e ee 96 3f 21 eb af be 6f 15 16 3f
       0.0059442013 1.1791456 -0.34359077 0.58626455
000010 04 f8 fb be 51 fa 8c be bb dd b8 3e e3 38 9b bf
       -0.49212658 -0.27534726 0.36106667 -1.2126735
000020 0a 42 40 bf 20 67 06 bf ad 5a 00 c0 2a 65 bb 3e
       -0.7510077 -0.52501106 -2.0055344 0.3660062
000030 4d ab c7 bc ec e7 fd be 68 f0 8d bf 8e 15 40 3f
       -0.024373675 -0.49591005 -1.1088991 0.7503289
000040 7c b5 db 3d 2d 06 5d 3f 3d ef 36 bf 63 24 a9 bf
       0.10727975 0.8633755 -0.714588 -1.3214229
000050 2e c7 85 3e 3f cb e9 bd 10 08 9a bf a0 65 53 3f
       0.26128525 -0.11415719 -1.203371 0.8257694
000060 5d f6 e2 bd 06 f9 34 bf 9b 6e 5a bf 92 35 26 bf
       -0.11082146 -0.7069248 -0.8532502 -0.6492549
000070 68 07 1a bf ef b0 9d be 3d 92 19 bf bb 9e b7 bc
       -0.6016755 -0.30799052 -0.59988767 -0.022414556
000080 82 48 54 be ff 1c c1 be be 8c ce 3c bb 46 9e be
       -0.20730785 -0.37717435 0.025213595 -0.30913338
000090 ab 27 45 bf a7 fb 44 3f b2 30 96 be 1d 53 83 be
       -0.77013654 0.7694649 -0.29334027 -0.25649348
0000a0 af f0 93 3c c0 47 1c bf 2a 39 f5 be 03 67 c9 be
       0.018059103 -0.6104698 -0.47895175 -0.39336404
0000b0 50 fe 6e 3f 46 94 72 be 2b a4 18 3f c3 fc a4 be
       0.933568 -0.23689374 0.596255 -0.32224092
0000c0 a5 0a a8 3f e8 9d 12 3d f6 35 bb 3e e8 72 dd bd
       1.3128248 0.035795122 0.36564606 -0.10812932
0000d0 f4 b3 93 3d f1 11 bc 3e b5 38 09 3f a9 f4 26 3e
       0.07212058 0.36732438 0.53602153 0.16304268
0000e0 c3 f1 d2 bd fd 6b af 3e 14 ea 1a be 27 d6 02 bf
       -0.10300019 0.34262076 -0.15128356 -0.5110802
0000f0 32 24 46 3f 93 8d c0 3e c5 30 d4 bd 14 1d 99 bf
       0.7739898 0.37608013 -0.103608645 -1.1961999
000100 ae ec 21 be 65 dd 8d 3e d1 63 c7 3e 69 88 0d bf
       -0.15812942 0.27707973 0.3894334 -0.5528627
000110 6e 1b 86 be 25 d4 50 be c2 88 62 be 3e 5a f3 3e
       -0.26192802 -0.20393427 -0.22122481 0.47529787
000120 cd 73 44 be 4d cd a0 bf 38 6d 6b bf bf aa ae 3d
       -0.191848 -1.2562653 -0.9196353 0.08528661
000130 80 00 40 3f 04 47 67 3f 46 19 7f bf d3 a6 03 40
       0.7500076 0.90342736 -0.9964794 2.0570571
000140 db 6d 15 3f 59 7e 70 be 7c 15 89 3d bd e7 4d bf
       0.5837075 -0.23485698 0.06693551 -0.8043173
000150 1e 2e 19 bf 8a 87 1b 3f aa 34 97 bf ca 73 f9 3e
       -0.59835994 0.6075369 -1.1812947 0.48721153
000160 0c cf 04 3f 3f 83 e8 bd 76 4a 96 bf 2b 5a 2a bf
       0.5187843 -0.11353158 -1.1741474 -0.66543835
000170 77 9d 03 3f d7 9a ab 3f 60 d6 e9 be 94 c6 cc be
       0.5141215 1.3406628 -0.45671368 -0.39995253
000180 1b c9 1a be b3 27 54 3e 6c 8d 57 3e 9f b1 c4 be
       -0.15115778 0.20718269 0.21050042 -0.38416764
000190 07 a4 3f bd 37 c2 6e 3f 84 21 81 3d 25 c0 f1 3e
       -0.046787288 0.932651 0.06305221 0.47216907
0001a0 a3 3e ae be e5 2b ae 3e 66 d8 ec bd 5a bc 14 3f
       -0.34032163 0.34017864 -0.11564712 0.580999
0001b0 a9 52 2e 3e 73 93 9d 3e 0e 41 0d bf 0d be 17 be
       0.1702372 0.30776557 -0.5517739 -0.14818592
0001c0 74 cb 62 3e a3 b8 d7 bd 8e 9c 8a 3e 53 5e 2b 3f
       0.22147924 -0.105332635 0.27072567 0.669408
0001d0 a9 35 b9 3e 8b 28 4c bf a7 5f 8f bd 28 01 50 bf
       0.36173752 -0.79749364 -0.07000666 -0.81251764
0001e0 ca 3e b8 3d 48 48 94 be 94 ea 14 bf 6c 9f a8 be
       0.08996351 -0.28961396 -0.5817044 -0.3293413
0001f0 75 fe ce 3e 1f b6 6c be c5 48 23 bf 08 12 51 be
       0.4042851 -0.23116349 -0.6378291 -0.20417035
