examples/drone/logs/fig-eight-5000/model_3100.pt (torch, 474978 bytes, 36 tensors)

std f4 [4]
00000000: fa9a 463e 2c3c 383e 1b5d 203e 8f52 273d
0.19395056 0.17991704 0.15660517 0.04085022

actor.0.weight f4 [128, 17]
00000000: a870 0640 e375 d8c0 eca2 7ec0 5091 c03e
00000010: 9a07 273f 589e 49bf fdc2 09bf aaf0 a13f
00000020: ebc0 27be e806 3f3f f034 66be 607a a03e
00000030: 3923 21be 8962 14be 3112 cb3d 1c14 e6bd
00000040: 1a23 e93d 1776 f1bf 1908 f63e b845 9ac0
00000050: 0fe9 b03e 4263 503f c247 abbf 3183 21bf
00000060: aafb 53bf be32 95bf a7a5 1d40 69d2 2f3e
00000070: bb48 f3be b68f 673e 0d42 f3bc b5bf 67be
00000080: cd5b 06be 104a ac3d 15b9 90be 277b 08c0
00000090: 4fa7 67c0 e093 813e 2c08 e3bf 0c68 fc3e
000000a0: 87a5 9bbe c93b 363f 9bb1 253f 68b9 983e
000000b0: 88ea d43d 6d2a 6b3e 9180 a63e 6f14 e4bd
000000c0: c3a3 b8be 3aaf 4bbe 6e5a a9bd 6586 923f
000000d0: 5015 1abf 28d8 8440 e035 ffbd 0b78 49bf
000000e0: b1f8 adbf eb30 6a3f d1b5 15bf 9c7f 46be
000000f0: 73d4 95be a3ee 9b3e 12fc 89be 7e22 dd3e
00000100: 9afe 673e 9de9 0b3e 1ba7 78bd 96a2 723d
00000110: 3479 2a40 20b9 2c40 8f7a 3a3f 0a02 c1bd
00000120: c8ca 383f 58fc 923e d613 3c3f 931f 2c3c
00000130: 05ec 4ebe e6fe 593f 3c53 aebd 46bf 4c3f
00000140: f958 6e3e b9cd 0dbe b24f 513c b434 bb3c
00000150: c671 5abb a677 d03e ef9d 7cbd 22e9 27c0
00000160: 9af4 163e 7af3 13c0 909e 1440 9419 95bf
00000170: 7e3b 3ebe 7d07 14be ee3f ca3e c434 9bbf
00000180: 9241 903d c585 70be c93c 893c 0e21 31be
00000190: eabc 823d b501 e8bd 290b a1be efdf 11bf
000001a0: decb 1ac0 9d62 2a3d fa1f 9cbf 6cab e73f
000001b0: e99a 4ebf 40b6 10bd 4f94 3b3d 8575 743e
000001c0: 00a2 4fbe 9883 6ebd 1280 003d 3dec 8cbe
000001d0: c077 89be 80f6 a939 6efb 133e 3e6e a73f
000001e0: a992 da3f 6127 8740 eea4 3ebe fab1 15c0
000001f0: fe07 12c0 49f9 0440 7c0d e1be 09c4 863f
00000200: 89b7 edbe f3d4 e0be 1162 c5be 7e1e 1dbe
00000210: 9aad fdbd 57a7 93bd ade7 8d3d b26e bb39
00000220: d0fd 623e 7b7d 26bf 5a2c 2ac0 f1a5 343e
00000230: 5fd2 00c0 76f7 02c0 e4f6 01be 5cf5 a7bd
00000240: 3b01 c6be 4f94 ba3e 2bc1 9a3c 1b9e 83be
00000250: ec53 55bd b8b9 6dbe 5a16 a2be 5bc7 16bd
00000260: 65b0 1d3e 240d 8fbe b596 52c0 559d 58c0
00000270: 5b4c bd3e 7b78 b9bf 3e05 9a3e 5f9f 4bbf
00000280: 80a5 acbf b71e c93e 3e0a 423f 720d d33e
00000290: cb40 193e 17bc c2be 9f9f a23c f668 15be
000002a0: 6591 13be 127b 5cbd 1702 d340 a725 af40
000002b0: f1f1 97bf 3969 b33e 0961 07bd c2c8 01bf
000002c0: 0f23 4dbe c711 c13e 0519 b7bf 2a2f c93e
000002d0: 96dc 603e 54c4 253e d5d0 89bd 019a a8bd
000002e0: 363d 073d 71fa 773d 57d6 303d 1a42 b83f
000002f0: 67f6 793f bb91 6e3e d68e 963e 593f c1be
00000300: 4acd e9be dbba 3a3f b580 27bf 0f15 0ebf
00000310: d21e 35be 8a23 32be 0b0b 24bf 8b93 853e
00000320: acf8 60be fc81 6f3d 9bd6 babd 0d40 1cbe
00000330: 29f2 b63d f8cf afbe b6fe 4dc0 0425 aabd
00000340: 9650 1540 d282 583f 379c 85be e21d 4abf
00000350: ab21 573e 023f 963e 1179 93bd ea5c ce3e
00000360: d684 8dbf 7225 5e3a 2568 5c3c 9a04 503d
00000370: 1608 0dbe d425 86bd c5c1 a3bf fe0a 03c0
00000380: a023 f33e fbe2 16bf aab3 22bf e548 723f
00000390: 1d76 ad3d 4599 f23e c512 af3d 30de c9be
000003a0: 3b66 97be 8327 193e 633b de3c bd8b 85bd
000003b0: 1cdb 9cbe 1e03 e7bd 4060 9fbf dc90 833f
000003c0: 3539 2840 d2f4 dfbe 5d49 a93f d98f a83f
000003d0: fe13 86bd b268 093f 563b 59bd 43cf e6be
000003e0: b3b2 c03e 0d49 9a3e cd90 ab3e ccb2 0ebd
000003f0: 406f e83d f03b fcbd 51f5 c43d efec b93f
2.100626 -6.7643905 -3.978694 0.37610865 0.65245974 -0.7875724 -0.53813154 1.265157
-0.16382186 0.74619913 -0.22481132 0.31343365 -0.15736093 -0.14490713 0.09915579 -0.11234304
0.11383648 -1.8864163 0.48053053 -4.8210106 0.3455281 0.81401455 -1.3381274 -0.6309081
-0.82805884 -1.165611 2.4632356 0.17170109 -0.47516426 0.22613415 -0.029694581 -0.22631724
-0.13120957 0.08412564 -0.28266206 -2.1325166 -3.6195867 0.25308132 -1.7736869 0.4929813
-0.30399725 0.71184975 0.6472413 0.29828954 0.10396296 0.22965403 0.32519963 -0.1113671
-0.3606244 -0.19891062 -0.08269201 1.1447264 -0.6018877 4.1513863 -0.12461448 -0.78698796
-1.359152 0.9148089 -0.58480555 -0.19384617 -0.29263648 0.30455503 -0.26950127 0.43190378
0.22655717 0.13663335 -0.06070624 0.059237085 2.6636477 2.6987991 0.7284326 -0.09424217
0.7218442 0.28708148 0.7346777 0.010505575 -0.20207222 0.8515457 -0.085119694 0.7997936
0.23276128 -0.13848008 0.0127753485 0.02285228 -0.0033331974 0.40716285 -0.061674055 -2.6236043
0.14741746 -2.3117356 2.322178 -1.1648431 -0.18577382 -0.14455982 0.395019 -1.2125478
0.070437565 -0.23488529 0.016752617 -0.17297766 0.06383689 -0.113284506 -0.31453827 -0.5698232
-2.418693 0.04159795 -1.2197258 1.8099189 -0.80705124 -0.035330057 0.045795735 0.23872955
-0.20276642 -0.058230966 0.031372137 -0.27523986 -0.26849174 0.0003241785 0.14451382 1.3080518
1.7076007 4.223557 -0.18617603 -2.3389878 -2.2817378 2.0777152 -0.439556 1.0528575
-0.4642909 -0.43912467 -0.3855138 -0.15343663 -0.123866275 -0.07209652 0.06928954 0.00035749894
0.22167134 -0.6503522 -2.658957 0.17641427 -2.01284 -2.0463538 -0.12691838 -0.082010955
-0.38672814 0.36441275 0.018890938 -0.25706562 -0.052081987 -0.23215377 -0.31657678 -0.036811214
0.1539932 -0.27939713 -3.2904484 -3.3846028 0.36972317 -1.4489893 0.30082124 -0.79540056
-1.3488007 0.39281246 0.7579688 0.41221195 0.14966123 -0.38034126 0.019851504 -0.1459082
-0.14410932 -0.053828306 6.594005 5.473346 -1.187071 0.35041216 -0.033051524 -0.5069696
-0.20032905 0.37708876 -1.430451 0.39293796 0.21959147 0.16188174 -0.06729285 -0.08232499
0.03301736 0.060541574 0.04317316 1.4395173 0.97641605 0.2329778 0.2940585 -0.37743643
-0.45664436 0.7294137 -0.65430766 -0.5550088 -0.17687538 -0.1739637 -0.6407935 0.2608913
-0.21969861 0.058473572 -0.09122964 -0.15258808 0.08932907 -0.34338355 -3.2186713 -0.083078414
2.3330436 0.84574616 -0.26095745 -0.7895185 0.21008937 0.29344946 -0.07200826 0.40305263
-1.1056163 0.0008474208 0.013452564 0.05078564 -0.13772616 -0.06550184 -1.2793509 -2.047546
0.47488117 -0.58940095 -0.63555396 0.9464248 0.08469794 0.4738256 0.08548502 -0.39427328
-0.29570183 0.14956479 0.027127927 -0.065207936 -0.30635917 -0.112798914 -1.2451248 1.0278583
2.6284916 -0.4374147 1.3225514 1.3168899 -0.06546782 0.5367538 -0.053035103 -0.45080003
0.37636337 0.30133858 0.33508912 -0.034838483 0.11349344 -0.1231612 0.09617103 1.4525431

actor.0.bias f4 [128]
00000000: 433f acbd 50b1 a33e 60d9 fc3b 39d4 c63d
00000010: 994e 1dbc 36e4 b83c f9a2 5b3d f757 b6be
00000020: f170 933d 5481 5ebe 8716 e1bd 5d32 dc3d
00000030: d300 63be a16b 85bd 78c8 003e 33ad 1b3e
00000040: c0c9 4ebe 9ceb 3bbe c4d9 dabd 8ee5 4ebd
00000050: c959 bc3d 6b6b ee3d e83f a7bd 74a5 243e
00000060: 1d54 c23d cb19 eb3b 674d 013e 9ad6 6dbd
00000070: 3281 993e ed48 5fbe b984 4a3e bb2a dd3d
00000080: af22 70be 7872 e8bd 4515 4ebe 2a2d 57be
00000090: 4313 bdbd bf93 99bd 9ae6 30bd 205f 86be
000000a0: 5d85 093e 2de6 7c3e 27c7 84bd 0702 acbd
000000b0: 8880 203e 8ce1 003e 2905 07bd 2d89 ebbd
000000c0: 9c2c 423e 01cf 4bbe bef1 3e3e 3cf2 c3bd
000000d0: 5a78 683e 8eb5 173e d717 973d 4d80 743e
000000e0: 97cd 23be eb2e 2ebe 5b6e 79be 9e8a 173e
000000f0: bca3 6cbe 83ea 233e f596 80be de21 05be
00000100: 7a62 213d d63c a3bd 920d 0dbe 079a 363d
00000110: dde4 98bd 6e71 9ebb 7c4d 013e 5c34 183d
00000120: 0526 04be 1b23 cabc 6b3a eebe 225e 83bd
00000130: d065 aebd ff48 2fbd 1553 82bc 75cb 563e
00000140: c14d a43c 4f03 633e bb1f 25be 0a4e ddbd
00000150: 5e0d febd 15a8 44be b457 a33e 7568 1d3e
00000160: 9117 cf3d af8c 91be d43f 243e c892 d5bd
00000170: 38b2 10be d192 10bd 6df9 a73e 352e 8ebe
00000180: 6424 6bbd 4d95 e63d f70b 2bbe 902e 253e
00000190: 91f3 89be a66b cabd 8edd 053d 2656 0fbe
000001a0: 2993 303e dc10 23bc e9ce 483d 33fe 203e
000001b0: 32ab 4bbd a063 69bd 57bc 543d 0aed f0bb
000001c0: 8ab4 533c 70b5 5b3d 6939 b73e c456 18bd
000001d0: ee72 afbe f3f2 00bd 7b51 5bbd 8089 afbd
000001e0: f156 563e 384e a5be a73e 39be 6a9b 4ebd
000001f0: ba51 a5be 6caa 433e 5e09 933e 1119 113d
-0.08410504 0.31971216 0.007716343 0.09708447 -0.009601259 0.022569757 0.05362222 -0.35613987
0.07199276 -0.21729022 -0.10990625 0.107517935 -0.22168283 -0.06514669 0.12576473 0.15202789
-0.20194149 -0.18351597 -0.10686067 -0.05051189 0.09196813 0.11641582 -0.08166486 0.1607874
0.094886996 0.0071747056 0.12627183 -0.058065988 0.2998138 -0.21805163 0.19777192 0.10799166
-0.2345073 -0.11349958 -0.20125301 -0.21013322 -0.092321895 -0.074988835 -0.04318867 -0.2624445
0.1342978 0.2469718 -0.06483298 -0.08398824 0.15674031 0.1258604 -0.032963905 -0.115007736
0.1896233 -0.19903184 0.18646905 -0.09567687 0.2270216 0.14815351 0.07377594 0.23877068
-0.15996395 -0.17010085 -0.24358504 0.14798972 -0.23109335 0.16007428 -0.2511517 -0.130012
0.039400555 -0.07970588 -0.13774708 0.044580486 -0.07465527 -0.004835299 0.12627214 0.03715931
-0.12905128 -0.024674943 -0.46528944 -0.06414439 -0.08515513 -0.042794224 -0.015908757 0.2097605
0.020056607 0.22169231 -0.16125385 -0.108059004 -0.12404893 -0.19204743 0.3190285 0.15371878
0.10111917 -0.28427646 0.16039973 -0.10428387 -0.14130485 -0.035296265 0.32807484 -0.27769628
-0.05740775 0.112589456 -0.16703783 0.16131043 -0.2694364 -0.098838136 0.032681994 -0.13997707
0.17243637 -0.00995275 0.04902545 0.1572197 -0.04972381 -0.056979775 0.051937427 -0.007352476
0.012921462 0.05363983 0.35785988 -0.03719212 -0.34267372 -0.031481694 -0.053544503 -0.08571148
0.20931603 -0.3228624 -0.18090306 -0.050441183 -0.32288915 0.1910798 0.28718084 0.035424296

actor.2.weight f4 [128, 128]
00000000: 80f3 bdbf 871f c63e d6d4 bebd 936a 00bf
00000010: ab1a 46bf 64c8 dabe 5ac1 ca3e a76d 65be
00000020: 5803 813f c290 ddbe 2311 bfbf 87fc 5cbe
00000030: 2f87 9d3c 6121 29bf 00d2 f6be 81e6 02bf
00000040: 0f4f 59be d416 333f f3fd 03bd ad85 0f3f
00000050: 0e52 92be 3726 283f 7e7a 813f 17ab 1fbe
00000060: 66b5 e1bd 7864 473d 32d2 573d 0f80 c93e
00000070: 7a4a 8c3e 3e87 db3d b0e2 4f3e 6136 923e
00000080: c17e 3e3e 78c4 94bd 77d8 233e 971a 76be
00000090: 68f1 293f d07d 50be 51eb b8be 17db 38be
000000a0: 0f6f 53bd ceee d53e e82b ca3e f4f5 95be
000000b0: 1346 e1be d525 99bd c526 2f3e 022a 803d
000000c0: 5297 163e eeca 623e 89cc 0fbd a7e0 9f3e
000000d0: 7c6c 263e 4174 e3be 5ba6 ddbf 579a 8bbe
000000e0: 8bf3 1d3f 82a5 a03f 8210 c5be a418 6a3f
000000f0: a543 88bd 64ba fe3e edbc 133e bfc9 6c3d
00000100: 9a9f 2b3f f4d9 50be 2ba1 ccbe 7660 b4bf
00000110: b1ab be3e f9d7 073d 0014 c83e 0548 e7be
00000120: 14d6 f0bd a035 95be 39b1 a2be ccf7 5fbe
00000130: d94a 133f 1a7f fbbf ecfd 573e 3479 72bf
00000140: dc83 87bf d4d6 a0bd c611 223f ac5d b2be
00000150: b504 afbe bb49 bdbe 5595 f1be ae43 a43e
00000160: f630 3d3f 9d9e 86bf b66b 0bbd eb58 873e
00000170: f678 00bf b64b c6be cd37 6f3f bb42 0a3e
00000180: 54f8 f3be 7697 75bf a067 d93e 546f acbd
00000190: 2cc6 a43f 68df b8be 3c57 0ebf 42cd da3e
000001a0: 0a7c 4f3f 66a6 febe ae15 f53e e4f3 39be
000001b0: d207 293e 7799 0bbe 4a6d 91be de25 133f
000001c0: ef79 cb3d da59 9d3e edeb 59be 9261 c03e
000001d0: 0248 893e 2c60 3ebe 928f ad3e e114 b13f
000001e0: 4592 c1be 7a6a 09bd 99ea 783f c415 c7be
000001f0: 7d14 a3bc 38e8 ccbe f28d 12be d290 5d3f
00000200: a5af ebbd b2f0 87bd 4d7b 183e 21eb 28be
00000210: db96 05be 60ba 93bd 7faf 96bd 2176 bdbd
00000220: 83e6 11bd 5273 623d 1336 ca3d 740c 2d3d
00000230: 6659 2dbd 15a4 a6bd 479a ac3c e387 d1bd
00000240: 62d2 35bb a311 81bd d008 4dbe 3d7d cd3d
00000250: 85be b3bd d6d1 0d3e da34 50bc e85b 9cbb
00000260: a772 06bc 3fcf 41be eed0 753d 74a3 b5bd
00000270: 6eaf b1bd 280e 2cbd b29b 3dbd d168 bb3b
00000280: 55f6 b8bd 888c 0f3d 8f13 5bbd 8629 15bc
00000290: 8131 07be 6af5 7dbc 19ab 1fbd 3721 38bd
000002a0: 0b91 fbbc fe06 7cbd fe1c 3cbd 2a45 b03d
000002b0: 8c9b c1bd e236 6fbe 569f 0a3e ccc9 65bd
000002c0: 1ab1 b63d 9d29 9c3d cd83 403b e61e 0fbc
000002d0: db20 a6bd 9fdf 2e3e 9091 aa3b 6d85 263d
000002e0: cee4 93bd 3d97 26be 4c5a c23d 25a4 b9bc
000002f0: 3964 6fbe ba07 73ba 59bb 27bd 64d6 33bd
00000300: b11c 50bd 3cc6 eebc e33d 01be da8f cdbd
00000310: fc71 673e 0651 91bd 2c3e 1b3d 0cb1 1b3c
00000320: ed6f 11bc 9b4c 813d 072c 33bc 0210 35be
00000330: 4bc9 14be 6cf3 fcbc 7350 3fbb c0b5 fc3d
00000340: 6933 463b 32fd 87bd d8ae 5abd fa1e 64bd
00000350: 6e05 be3d a6bb 19be bdc8 d239 3b17 13bc
00000360: 682b 9a3c 955f e63d 96cb 8c3e 7a27 23be
00000370: 7482 543d 7f5e 323e 3cdc 093d 8215 dbbc
00000380: bd73 b3bd 874c 5f3c 61f1 cc3d 28bc b9bd
00000390: 2ba2 ffbc bcfd ce3c e5c5 01be f7bf bcbd
000003a0: 0d31 c43d 3dde 243d 1f9f f3bd cfbc 8a3d
000003b0: 8bed 31bd ef4e 033d c3f6 3f3c 1bd1 ffbc
000003c0: bc4c c33c 3700 8b3d 85d3 a33c 957f 70bd
000003d0: c60c 483d 0b2a 92bd 4932 833d 6343 83bc
000003e0: be5c e03d b8bf 073e 3875 083e 6d69 91bc
000003f0: 5897 913d 0083 d63d 07a6 6abd 611d 8ebc
-1.4839935 0.38695928 -0.09317939 -0.5016262 -0.7738444 -0.4273101 0.3960064 -0.2240511
1.0079145 -0.43274504 -1.4927105 -0.21580707 0.0192295 -0.6606656 -0.48207092 -0.5113297
-0.21221565 0.6995671 -0.032224607 0.5606335 -0.28578228 0.6568331 1.0115507 -0.1559261
-0.11020927 0.0486798 0.052690692 0.39355513 0.2740057 0.10719155 0.20301318 0.28557113
0.1860304 -0.07264036 0.16000544 -0.2403358 0.6638398 -0.20360494 -0.36117032 -0.18052326
-0.051619586 0.41783756 0.39486623 -0.2928921 -0.43998775 -0.07477919 0.17104633 0.06258012
0.14706162 0.22147724 -0.03510717 0.31226084 0.16252321 -0.44424632 -1.7316393 -0.2726619
0.6169974 1.2550509 -0.38489157 0.9144385 -0.06653527 0.4975158 0.14427538 0.057809588
0.6704041 -0.20395643 -0.3996671 -1.4091938 0.37240365 0.033164952 0.3907776 -0.45172134
-0.11759582 -0.29142475 -0.31775835 -0.21871871 0.57536083 -1.9648163 0.21092957 -0.9471619
-1.0587115 -0.07853475 0.6330837 -0.3483709 -0.3418328 -0.36970314 -0.47184244 0.32082886
0.73902833 -1.0517155 -0.034038268 0.26435027 -0.5018457 -0.38729638 0.9344452 0.13502018
-0.47650397 -0.95934236 0.42461872 -0.08419672 1.2872977 -0.36107945 -0.5560186 0.42734724
0.81048644 -0.49736327 0.47868103 -0.18159443 0.1650689 -0.13632761 -0.28403693 0.57479656
0.09935366 0.30732614 -0.21281405 0.3757444 0.2681275 -0.18591374 0.33898598 1.3834497
-0.37806907 -0.03354881 0.9723297 -0.38883793 -0.01990723 -0.4002092 -0.1431196 0.86549103
-0.11508111 -0.06637706 0.14890786 -0.16495945 -0.13045828 -0.072132826 -0.07357692 -0.09251047
-0.035620224 0.05528576 0.09873595 0.042248204 -0.042321585 -0.08136765 0.021069659 -0.102309965
-0.0027743806 -0.06302192 -0.20022893 0.10033653 -0.08776573 0.13849577 -0.012707913 -0.0047716983
-0.008206046 -0.18926714 0.060013704 -0.08869067 -0.08676039 -0.042005688 -0.04629106 0.005719282
-0.09031359 0.03504613 -0.05348545 -0.009104138 -0.13202478 -0.015500406 -0.03898153 -0.04495355
-0.03070881 -0.061530106 -0.045926087 0.08606942 -0.09453496 -0.2336078 0.13537344 -0.05610065
0.08920498 0.076251246 0.0029375434 -0.008735394 -0.081117354 0.17077492 0.0052053407 0.04065459
-0.072213754 -0.1626863 0.09489879 -0.022661278 -0.23378076 -0.00092708657 -0.040950153 -0.04390563
-0.050808612 -0.02914726 -0.12621264 -0.10037203 0.22602075 -0.07095532 0.03790109 0.0095026605
-0.008876783 0.063134395 -0.01093579 -0.17681888 -0.14529912 -0.030877791 -0.0029192239 0.123393536
0.0030243045 -0.0664009 -0.0533894 -0.055693604 0.092783794 -0.15012988 0.00040203883 -0.008977707
0.018819526 0.112486996 0.27499074 -0.15933028 0.051882222 0.1741886 0.033657297 -0.026743654
-0.0876231 0.013629085 0.10006977 -0.09069091 -0.031205257 0.025267474 -0.12673147 -0.09216302
0.09579668 0.040251005 -0.11895584 0.06774294 -0.04343943 0.0320577 0.011716547 -0.031227639
0.0238403 0.0678715 0.019998321 -0.05871542 0.048840307 -0.07136925 0.064060755 -0.016023343
0.10955189 0.13256729 0.13325965 -0.017750466 0.07108945 0.10474205 -0.057287242 -0.017347993

actor.2.bias f4 [128]
00000000: e158 7bbd 76e0 5fbd c1fa 2f3e 11bc a8bc
00000010: 8a2a e9bc 226e 923e e1f7 683d 6a65 3c3e
00000020: 8988 123f dfe3 6d3f 5377 f53c 276f 1cbd
00000030: c8dc 1ebe 448f c23d f227 213e b999 84bd
00000040: 49e3 acbd a5ed cbbe 6f50 793c 9b87 7bbe
00000050: b67d 7bbe e3c0 8abc ccbc 99be b614 863d
00000060: be4c 07be f13e 66be e153 e63c 917d 5d3d
00000070: b35f b43d 5647 3e3e 0a4c 313d a66e 35bd
00000080: 57b3 b33d c75a 1bbd f5ad 51bd 8627 afbe
00000090: 174a 293c 590b 1f3e c66a 8b3e 0c3a 423d
000000a0: 55b5 f23c 3e71 663e e52e b33c e462 873d
000000b0: 4d81 953d 91d7 b13d fb39 8c3d 2e2c ed3c
000000c0: 497a a83d c341 a5bd df74 d63d 9368 0fbf
000000d0: 680f 0bbd 9b82 db3c ab69 763e dfc1 febd
000000e0: 3aeb 5f3d 6556 5cbf 2f06 48bd 7fff af3e
000000f0: cb09 283f 17da 94bd cdce db3e a7da a73c
00000100: 28e2 163d 9301 243d 783b debd f87d 743c
00000110: a083 ebbe 773e 91bc d780 ffbc fde4 5cbc
00000120: 24d6 efbd 9d3f c03e 6e6c e73d f2c7 02bd
00000130: ba2c b33e ca85 823d 3579 1ebd 0e4d a3bd
00000140: b7a8 f93c b0a8 d73c 2e7e d6bd 76c4 423d
00000150: 1094 453d dc93 083d 3db7 2d3e 6846 813d
00000160: dcb1 3fbf 57b2 ae3e ee27 9bbe b930 a4be
00000170: 762f 773e fe4a b8be 996e cc3d 3884 a5bd
00000180: 1ec6 eebe f29c 993d 788d d3bd 5f3f 533c
00000190: 152a f8bd c2f8 e93d 05cd 6a3d d282 86bd
000001a0: 5ac2 afbd 0c6c 2dbf 11d5 06bd 6161 adbd
000001b0: b834 32bd 0581 353e e002 043d 5495 31bb
000001c0: 85b1 47bd 3d9b 9fbd 9f69 93bd 5253 5fbe
000001d0: 73aa c83d 5079 05bd e889 7c3c e81a 903b
000001e0: c0ac 823d e2e5 88bd 1988 073c 9d85 37be
000001f0: 21f5 583c f28b 1d3d 7b38 c03c 4cc3 66be
-0.06136406 -0.054657422 0.17185499 -0.02059749 -0.028462667 0.2859965 0.05687702 0.18398061
0.57239586 0.9292583 0.029964125 -0.03819194 -0.15513909 0.09499982 0.15737894 -0.06474633
-0.08441789 -0.39829746 0.015216931 -0.24563448 -0.24559674 -0.016937679 -0.30026853 0.06546919
-0.13212869 -0.22484948 0.028116168 0.054074828 0.08807316 0.185819 0.043285407 -0.044294976
0.08774441 -0.03792837 -0.05119129 -0.3420984 0.010332606 0.15531673 0.272299 0.04741864
0.029627481 0.22504136 0.021872947 0.06610659 0.07300053 0.08683694 0.068469964 0.02895173
0.08226449 -0.08069184 0.1047151 -0.5601894 -0.03395024 0.026795676 0.24063747 -0.12439322
0.05466769 -0.8606933 -0.048834022 0.34374616 0.6563994 -0.0726816 0.42931214 0.020490004
0.036836773 0.040040564 -0.108511865 0.014922611 -0.4599886 -0.01772998 -0.031189365 -0.013482329
-0.11710766 0.37548533 0.11299978 -0.031928964 0.3499506 0.063731745 -0.03868981 -0.079736814
0.030475957 0.026325554 -0.104732856 0.04755064 0.048236907 0.033344135 0.16964431 0.06312257
-0.74880767 0.34120438 -0.303039 -0.32068422 0.24139199 -0.35994714 0.09982032 -0.08081859
-0.46635526 0.07500638 -0.103297174 0.012893527 -0.121174015 0.114244 0.057324428 -0.06567921
-0.085819915 -0.6774299 -0.03291804 -0.08465839 -0.043507308 0.17724998 0.032229304 -0.0027097063
-0.04875328 -0.07793281 -0.0719788 -0.21809128 0.097981356 -0.032586396 0.015413739 0.0043977387
0.06380606 -0.06684472 0.008272194 -0.17922063 0.013242037 0.03846354 0.023464432 -0.22535437

actor.4.weight f4 [4, 128]
00000000: 0d10 88bc 62cd cdbb ada7 9ebd b269 0bbc
00000010: d5df 913d 50a3 db3d 9bd7 76bc 15b3 0fbe
00000020: 7434 80bd 9071 99bd c55f 1b3b a5cf 4938
00000030: 5e0e a0bb 4b49 e93a 067d 1b3e 20d4 a93d
00000040: 665f 1c3c b221 8bbd acad ec3a 663f 6f3e
00000050: b38a 83bd 81f9 893b f6fd 2fbe 508a 9d3c
00000060: 3344 b83d ba81 6d3c 532e 043b a376 883b
00000070: f033 a83a eafa 3abe 2f3a b73d 9c07 70bc
00000080: e342 80bc 5619 70bb 3c2c ec3b 8cf0 cdbd
00000090: ff8d a1bc 55c1 bdbd 07e0 0f3d 8e02 87bc
000000a0: 8594 723c 0df6 063e 6e6a 493c 267e 863b
000000b0: 226d 94bc 818b 0f3e 2bef 02bd 4323 a9ba
000000c0: a343 00bd b59f b33d 3da6 c6bd 45e6 f7bd
000000d0: 9844 b0bb e60b eb3d 7051 47bd e837 24bb
000000e0: 6d7f c7bb 9166 fcbd 1aab b039 688a 213d
000000f0: f878 cfbd 9e88 493c 1d67 59bc 4855 4a3c
00000100: fd1c e0bb 10b7 31bb a3e5 bf3b 1a07 053c
00000110: 019a 9abd c9a3 ba39 7cf0 93bb 19a6 243c
00000120: 6dfd 243c 7606 80bd fe13 68bb bcb6 2ebc
00000130: 9447 b93d c3b2 16bb aa8b 143c 319b ad3c
00000140: bdbc a43b 5c59 fbbb d7ff a1ba 2491 623c
00000150: daf7 d63b b8fa 9f3c 387e 55bd a18e 86ba
00000160: 1090 883d ba43 043e 2397 f5bd 2ebc 10bd
00000170: 8263 263e 9480 bd3c b3b8 ecbc 62d7 963b
00000180: ce47 1a3d 761c 80bc 983d 54bc f243 b53b
00000190: 79c4 073b 5477 a2bb 018d 83bc cf9a 663b
000001a0: cf91 28bd 1778 40be d9a7 82bc 70fc 3aba
000001b0: b7d6 813b 1afa 6cbe a1df 5f3b 943c 6d3c
000001c0: 7e59 a53c 5fc2 de3b f674 893b d5fc 98be
000001d0: 474e 3cbc 9660 03b9 2797 f8bb e7a5 17bc
000001e0: a237 403d c4b1 013a b66a b9ba 4518 943b
000001f0: c32b 5b3b efc6 b1bd eb33 03bc 5be5 58be
00000200: 34cc 66bd 8381 733c eb34 353e 49dc 8d3b
00000210: 4ab4 b7be adaa 9d3d 8b3b 2c3c 6cf1 ad3c
00000220: 5ac4 69bd c45c ce3d 88cc 73bb 4f6e d33b
00000230: a5d4 003c 6ece 463c 17c7 9ebd d11a 7dbe
00000240: 8efe 93bc 3f66 3bbf 38ac 68bc c5ab 023e
00000250: 7e46 a5bc 8a3c ff3b 08fc a7bd 63f3 b33c
00000260: 59cb a7bd ea01 47bd 9389 f1bb 8e52 013b
00000270: 1b77 6fbb 6257 ccba eb02 25bd 7825 1a3c
00000280: b2eb c73c b5c9 173c 5288 513c cc67 173d
00000290: 510b 2f3a d2ad 173d 8c02 b93e 099e f03b
000002a0: d8fc 183c 4dbb 2b3d 6fc1 f239 a60e f33a
000002b0: 7ab9 b83e 6cab 093c 38ac 763d 4301 e3bb
000002c0: 916c 883c b526 b43d 9fc7 923c 839f ccbc
000002d0: 2df0 533a 4389 233c 38d6 843e 2d3b 62bb
000002e0: a988 2e3c a368 bc3d 80f7 9b3b 4dfd 333d
000002f0: bfbd abbd dcde b0bb 1f70 5d3e 2184 f8ba
00000300: 36c2 75bc 36e3 1f3c 8e93 383c 5abc 08bb
00000310: 6d5d 183d 083a d6bb 1199 583c b583 5f3b
00000320: 21c2 093b 2006 a1bd 54e9 46ba 4c70 1d3e
00000330: 40c9 04bd 2cb1 fcbb 9a30 91b9 9d67 18bd
00000340: 699b ad38 2899 123c 3499 dab9 1420 a2bb
00000350: 6cf2 7f3b e865 5abc 9a55 033e 3ecb 813c
00000360: 22f6 48be 7fea 0f3c 90e8 5fbd daa1 b1bd
00000370: 90ec bfbc f3b3 acbc 0746 0f3d 2b5e ab3b
00000380: 10e7 e2bb b91a 8f3a da42 7cba 8eeb b53b
00000390: 61d1 f83b 919c b6ba bc0b 013b 3230 b8bb
000003a0: 79f2 62be c005 fcbd ba59 403b 7f7b 273c
000003b0: 859d 0b3c fcfc 1e3d f8fe 3c3c 2445 923e
000003c0: 1951 77bb d2d4 3d3b d409 883a bc71 ccbd
000003d0: 670d 4c3c 180f 3bbb 22c2 8bbb a65d 1d3a
000003e0: ac12 5ebe a8ce 8d3b da71 8839 2ade 40bd
000003f0: 917c adbb b1fa 92bd 1679 2dbb e44e 3dbe
-0.016609216 -0.006280587 -0.07746825 -0.008509086 0.07122771 0.10724509 -0.015066053 -0.14033158
-0.06260005 -0.074923635 0.0023708206 4.811552e-05 -0.004884525 0.0017798332 0.15184411 0.08292413
0.009544229 -0.06793536 0.0018057129 0.23364028 -0.06422939 0.0042106514 -0.17186722 0.019230992
0.08997383 0.014496261 0.0020169213 0.004164533 0.0012832861 -0.18259779 0.089466445 -0.014650252
-0.015656894 -0.0036636195 0.0072074216 -0.10055646 -0.01972103 -0.09265391 0.03512576 -0.01648071
0.014805918 0.13179798 0.012293441 0.0041043935 -0.018118445 0.1401806 -0.03196637 -0.0012904186
-0.031314503 0.08770696 -0.09699676 -0.12104467 -0.0053792708 0.11476879 -0.04866165 -0.0025057737
-0.0060881884 -0.123242505 0.00033696817 0.039438635 -0.10130495 0.0123006385 -0.013269213 0.012349434
-0.006839393 -0.002711717 0.0058562323 0.008119369 -0.07548905 0.00035598714 -0.004514752 0.010049366
0.010070187 -0.06251232 -0.0035412307 -0.010663684 0.090468556 -0.0022994734 0.009066502 0.021192165
0.005027382 -0.0076705646 -0.0012359571 0.0138285495 0.006560308 0.019528732 -0.052122325 -0.0010265895
0.06668103 0.1291646 -0.11991718 -0.035335712 0.16248897 0.0231326 -0.028896665 0.0046033124
0.037666135 -0.015638571 -0.012954138 0.0055317814 0.0020716472 -0.0049580727 -0.016058447 0.0035187488
-0.04115468 -0.1879581 -0.015949177 -0.0007132953 0.0039623636 -0.23142281 0.0034160393 0.014479775
0.020184275 0.006798073 0.004194851 -0.29880396 -0.011493272 -0.00012529115 -0.007586378 -0.009255863
0.046928056 0.00049474486 -0.0014146182 0.0045194947 0.0033442832 -0.08680522 -0.008007984 -0.21181242
-0.056347087 0.014862421 0.17695968 0.0043292386 -0.35879737 0.076985694 0.010512243 0.021233283
-0.05707202 0.100762874 -0.0037200768 0.006452359 0.007863198 0.012134178 -0.07752817 -0.24717261
-0.018065717 -0.7320289 -0.014201216 0.12760837 -0.020175215 0.0077891992 -0.08202368 0.021966642
-0.08193082 -0.04858581 -0.0073711365 0.0019733044 -0.0036539498 -0.0015590007 -0.040285986 0.009408347
0.02440438 0.009264399 0.012788849 0.036964223 0.00066774065 0.037031002 0.36134756 0.007343058
0.009337626 0.04192667 0.00046301956 0.0018543794 0.36079007 0.008402687 0.060222834 -0.0069276406
0.016653331 0.08796445 0.017917452 -0.024978405 0.00080848 0.009981456 0.25944686 -0.0034520135
0.0106526995 0.09199645 0.004759729 0.04394274 -0.083858006 -0.0053976607 0.21624802 -0.0018960276
-0.014999917 0.009758761 0.0112656485 -0.002086422 0.037198473 -0.0065376796 0.013220088 0.0034105603
0.002102025 -0.078624964 -0.0007587869 0.15374869 -0.03241849 -0.00771155 -0.00027692766 -0.03720819
8.27823e-05 0.008947648 -0.00041694345 -0.0049476717 0.0039054407 -0.01332996 0.12825623 0.015843984
-0.19625142 0.008783936 -0.05466515 -0.08673449 -0.023428231 -0.0210819 0.034978893 0.0052297316
-0.0069245175 0.0010917998 -0.0009622999 0.005551762 0.0075933193 -0.0013932158 0.0019690832 -0.0056209797
-0.22162808 -0.12305784 0.0029350356 0.010222315 0.008521442 0.038815483 0.011535399 0.28568375
-0.0037737547 0.0028965962 0.0010378906 -0.099826306 0.012454367 -0.0028542932 -0.004265086 0.00060030294
-0.2168681 0.004327614 0.00026024767 -0.047086872 -0.0052943905 -0.07176722 -0.0026469878 -0.18487126

actor.4.bias f4 [4]
00000000: d1ff 1f3f 3e3b 083f f485 373f 7335 1e3f
0.6249972 0.53215396 0.7168877 0.6180031

critic.0.weight f4 [128, 17]
00000000: 6164 e0be 5f8e bf3f bfad 0d40 83a2 913e
00000010: 3e3b 05c0 1fe1 ae3e 83fc 0ac0 d2b7 2140
00000020: 79d3 24bf 6984 cbbf 3a87 5e40 0d87 b23f
00000030: f140 fc40 7294 a53d 0998 b73e a141 eb3e
00000040: 3e1b 133f 7fd0 f53e 0aac 96bc f5b1 4cc0
00000050: f755 1d3f efa9 25bf 56a8 8e3f 4e4b cfbf
00000060: 0521 813f 2f7d 413f 85c3 d33f 17ff 8cbe
00000070: 459b 033e 271c 503e 6778 83bd cf0b 183c
00000080: b144 e53d 69ce eb3d 1789 993f 613b 7d40
00000090: e464 8ac0 e957 e03e 4156 7bc0 5edd d33f
000000a0: ce6f 3b3f 109d 683f a29c 1fc0 c165 a43f
000000b0: fb4f c8bd bac3 02bf f944 dbbe 0cf7 c53e
000000c0: 7f6b dd3e 4607 fa3e 4363 063f b42d 4140
000000d0: 41df 24c0 16fd a7c0 5795 9c3c 8796 8a3d
000000e0: e444 853f 9632 30c0 4da2 0cc0 56f9 0a3f
000000f0: 621d c03f 103c 4d3e ad43 36bf d67f e53c
00000100: 4f33 69be 89cf 9bbe f7dd acbd 52fa 50be
00000110: e2ae 9440 6790 883f dee3 10bf 2ab5 c5be
00000120: a6d5 2f3f 9685 7dbf 596b d73b 845c 32c0
00000130: c7f8 48bf 6ad8 083e 842c 6f3f 6953 233f
00000140: dc54 1ec0 8252 f73d 2cd6 9b3d f653 0f3e
00000150: bd43 4e3e d421 16c0 b32d 653f 4aac 4e40
00000160: f0af 113d 362c a3c0 5e49 2e40 3b4c 113e
00000170: a5f5 92bf 7d31 c3bf a96a 8e3f def3 cfbe
00000180: a43e 11bf a53f 713f 18c7 613e d152 6d3e
00000190: b645 0b3f 1162 c53e 0ef6 92c0 a8b0 b7c0
000001a0: d552 8a40 874c aabf 282a 0440 8669 f5bf
000001b0: 59a7 d7be 8fe6 b3be 27c6 363f 07fd aa3e
000001c0: 222d 883e 0038 f9bb f245 333e b892 703d
000001d0: f089 e1bd cd07 513e 069e 903e ff8e bebe
000001e0: c2c5 2fbe 4196 d33e cd1d 0c3f 71f7 0bbd
000001f0: 9cc2 afbf e11d 2040 c94b 15bf 1921 5a40
00000200: 1b0b 3640 883a f9be 23c8 34bf de5e 10c0
00000210: 5696 063d e88b fd3e fe7b 18bc 5a26 a23c
00000220: 0af8 1740 df63 b240 e486 29c0 8efb a03e
00000230: a2dc 3340 d55b b8bf a1e8 3a3e d5f9 16c0
00000240: 3ed6 01c0 205c 93be d92a 0040 a6ae 223e
00000250: 2c1a bdbf d7ac 92bc f8f1 523c e8ad 20bd
00000260: 57c0 993d f665 9240 38f7 b140 22f5 7340
00000270: 01da a7bd fcb1 5f3f 5388 e4bf 90e1 0140
00000280: f2cf 103f a1e7 bf3f fe86 b73d b755 0fbf
00000290: 0f05 aa3f 9610 fbbf 9bcf a4be dcf2 15bd
000002a0: 21a8 eebe 6ae9 15bf afe1 833f e001 4bbe
000002b0: d3f7 de3f 9c9c 3e3f d242 d040 a6a9 37bc
000002c0: b64c 9cbf 264f adbf 3dbe 4a40 0051 c9bf
000002d0: 49fa 34bf 2550 26bf e1ec b53e e8d1 453e
000002e0: 1448 633d e6b2 0e3e 50c2 513e ee87 32c0
000002f0: e7e1 33bd 0951 2741 1ccc 5cbe f109 f83f
00000300: b098 ab3d f8af 6f3f aa21 0e40 11ac ec3f
00000310: 9d54 0d3e e1c6 10bf 0745 71be d5e2 093f
00000320: a753 ecbd 3911 c0bd 7272 e23d 379a c3bc
00000330: cb90 1a40 202d 36c0 7974 3cc1 705e 893e
00000340: d7c7 f53f c69b d03f 7b99 eebf 4f35 05c0
00000350: 743b e4bf f8c1 02c0 453f 0c3f 1bdf 23bf
00000360: 455c 3a3e 77b2 5bbe 72cf 63bd 10ff 3cbe
00000370: 9981 9ebe 09b9 8040 9019 58c0 6d90 c83f
00000380: 87a1 1d3f c9e0 3e3f 3050 3f3e e549 70c0
00000390: 813d 163f 41b0 7bbf 3e8e e63f 7587 3140
000003a0: 9370 bebf ffe1 3d40 65bf 3dbf 5708 01bf
000003b0: 94e5 c2be a5fe 03bf 8187 933f 5154 77be
000003c0: e562 58bf f738 3c3f 6040 8b3e f28c 983f
000003d0: 79fb 66c0 479a 8fc0 f166 e03e b8b2 8a3e
000003e0: 5f8c fdbe 75d8 81bf ea09 41be 6f64 c6be
000003f0: 9866 8ebe a802 fabe 50a3 dfbe 4bbe 2ec0
-0.43826583 1.4965323 2.2137296 0.284443 -2.0817409 0.3415613 -2.171662 2.5268445
-0.6438518 -1.5899783 3.4770036 1.3947464 7.8829274 0.08084954 0.3585818 0.45948508
0.57463443 0.48010632 -0.018392581 -3.1983616 0.61459297 -0.64712423 1.1145122 -1.6194856
1.0088202 0.7558164 1.6544043 -0.27538368 0.128522 0.2032324 -0.06419449 0.009280159
0.111947425 0.11513979 1.1994962 3.9567492 -4.3248158 0.4381707 -3.9271395 1.6551931
0.73217475 0.9086466 -2.493935 1.2843553 -0.0978088 -0.51079905 -0.4282606 0.38665044
0.43246076 0.48833674 0.5249521 3.0184145 -2.5761263 -5.2496443 0.01911418 0.06766992
1.0411649 -2.7530875 -2.197406 0.54286706 1.5008967 0.20042443 -0.71197015 0.028015058
-0.22773479 -0.30431774 -0.08440774 -0.2040799 4.646348 1.0669068 -0.565977 -0.3861478
0.68685377 -0.9903196 0.006574076 -2.7868967 -0.78504604 0.13363805 0.934273 0.6379915
-2.4739294 0.12076284 0.076092094 0.13996872 0.20143028 -2.3458147 0.89522856 3.2292657
0.035568178 -5.099147 2.723228 0.14189236 -1.1481215 -1.5249478 1.11263 -0.40615743
-0.56736207 0.9423774 0.22048604 0.23176123 0.54403245 0.3855138 -4.592536 -5.7403145
4.3226113 -1.3304604 2.065073 -1.9172828 -0.42119864 -0.3513684 0.71396106 0.3339617
0.26596934 -0.0076055527 0.17507151 0.058733672 -0.110126376 0.20413132 0.28245562 -0.37218472
-0.17165282 0.41325572 0.5473297 -0.034171525 -1.3731265 2.5018237 -0.58318764 3.4082701
2.8444278 -0.48677468 -0.70617884 -2.2557902 0.032858215 0.49520802 -0.009306906 0.019793678
2.374514 5.5746913 -2.648858 0.3144192 2.8103414 -1.4403025 0.18252803 -2.3589985
-2.0287013 -0.28781223 2.0026152 0.15886936 -1.4773612 -0.017904682 0.012875073 -0.03922835
0.07507389 4.5749464 5.561428 3.8118367 -0.08195878 0.8738096 -1.7854103 2.0293922
0.565673 1.4992563 0.089612946 -0.55990165 1.3282794 -1.9614437 -0.3218964 -0.036608562
-0.46612647 -0.58559287 1.0303248 -0.19824934 1.741938 0.74457717 6.508157 -0.011209881
-1.221091 -1.3539779 3.1678612 -1.5727844 -0.70694405 -0.6496604 0.35532287 0.19318354
0.05548866 0.13935432 0.2048428 -2.7895465 -0.04391661 10.457284 -0.21562237 1.9378034
0.08378732 0.9362788 2.2208047 1.849001 0.13801809 -0.56553465 -0.23561488 0.53861743
-0.11539393 -0.09378285 0.11056985 -0.023877246 2.4150875 -2.8465042 -11.778436 0.26829863
1.9201611 1.6297538 -1.8640589 -2.0813787 -1.7830644 -2.043089 0.5478404 -0.64012307
0.1819926 -0.21454798 -0.055617757 -0.18456674 -0.3095825 4.0225873 -3.3765602 1.5669075
0.61574596 0.74561745 0.18682933 -3.7545102 0.586876 -0.9831582 1.8012159 2.7738926
-1.4878105 2.9669187 -0.7412017 -0.5040335 -0.3806578 -0.5156043 1.1525728 -0.24153258
-0.845259 0.7352442 0.27197552 1.1918013 -3.6090987 -4.4875827 0.43828538 0.27089477
-0.49521157 -1.0144182 -0.18851438 -0.387485 -0.27812648 -0.48830152 -0.43679285 -2.7303646

critic.0.bias f4 [128]
00000000: e7a3 033f 4b1f be3e 37aa c93d 1b12 603e
00000010: ddf0 c5bd 04e0 073f 7266 7ebf a1e1 953e
00000020: 14a5 a53e aee1 e4be b2c2 7f3f c578 f1bd
00000030: d094 c0bb 9a9c 193f 12fc b13e 933d 4d3e
00000040: 2b32 663e 323d 0cbf 7995 0fbe 2989 1d3f
00000050: 69cc 5f3e ab9f 52bf d8c9 7cbe 83db 10be
00000060: 6a50 d83d 059e 23bf 34df 553e 996b 25be
00000070: 3a2e d8be 924d 88be a7a6 d03e 3485 e1be
00000080: 272d 4e3e dae2 b53e 4d5e 8ebe 29a5 053e
00000090: b01d 14be 6048 edbd 28db f4bc d174 d73e
000000a0: 495d 113f dc7d dabd 787c 3c3f 8be3 81be
000000b0: 3146 2cbd 53bc 9d3e 9dfb b63d 5b1f 963d
000000c0: daff b0bd befe 1fbe e625 c03d 5597 22bf
000000d0: 0b85 cbbe c029 ce3e 91d1 f3be 372a c63e
000000e0: 9d18 303e 84ac 5d3b 138b 12bf 5106 273d
000000f0: 1472 713d 59ee 973e a7ba 4fbd df20 4dbd
00000100: 4b9c 8c3e eefc 7bbd fa98 ac3e f247 423e
00000110: 5ab1 37bf d292 40be ccb4 89be 04f4 753e
00000120: 12c4 9f3f 3c6a 753e 41b4 a5bd d34b 863e
00000130: 5b23 1d3f efb1 5c3e 858c 5cbe f550 30bf
00000140: 4466 403f c2dd 0dbf 0191 e53d f929 a23e
00000150: 757c e2be b1a6 fcbd 9651 a7bd ef69 323f
00000160: 1890 dc3e 4d2a f13e 818a 0cbf 490a c4be
00000170: c1b1 9d3e 42ae f63d 76e8 f03e 2769 bd3e
00000180: 6d33 02be d747 c4be 44c6 553d 70a9 833e
00000190: 64c6 03be ea4e cbbd 5eee 4cbe c465 553e
000001a0: 2d08 fb3e b27a b33e fda0 d83e 9e0c acbe
000001b0: 8c7e 7fbe b803 313f 5420 ebbd a3bd c1be
000001c0: ab3b d63e 6ff4 e6bd bd05 c33d 1a79 a3bd
000001d0: c96c 29bf 70d3 1dbe 8568 70be 8e03 2dbf
000001e0: adad acbd 10b6 a93e 1952 f43e 908e 52bf
000001f0: 1aa1 aa3e 3a90 bebe 02d1 3f3f 3820 bf3d
0.5142197 0.3713325 0.09846919 0.21881907 -0.09665082 0.53076196 -0.9937507 0.29273704
0.32352507 -0.4470343 0.99906456 -0.11790613 -0.005877115 0.6000458 0.34762627 0.2004302
0.22480075 -0.54780877 -0.14021863 0.61537415 0.2185532 -0.82274884 -0.24686372 -0.14146237
0.10562213 -0.63912994 0.20885926 -0.16154326 -0.42222768 -0.2662168 0.40752146 -0.44046938
0.20134412 0.35524637 -0.2780632 0.13051285 -0.1446445 -0.1158607 -0.029889658 0.4208131
0.56782967 -0.10668537 0.73627424 -0.25368914 -0.042059127 0.30807742 0.0893471 0.07330199
-0.0864255 -0.1562452 0.093822286 -0.63512164 -0.3974994 0.40266228 -0.47620824 0.38704082
0.17196889 0.003382475 -0.5724346 0.04077751 0.058946684 0.29674032 -0.050715115 -0.050080176
0.27462992 -0.06152051 0.33710462 0.18972757 -0.7175499 -0.18806008 -0.2689575 0.24018866
1.2481711 0.23966306 -0.08091021 0.26229724 0.61382073 0.21552251 -0.21537979 -0.6887353
0.75156045 -0.554165 0.11209298 0.31672648 -0.44235578 -0.12336481 -0.08169858 0.6969289
0.43078685 0.47102585 -0.5489884 -0.38289097 0.30799678 0.12044956 0.47052354 0.36994287
-0.1271493 -0.3833606 0.052191034 0.25715208 -0.12868649 -0.09927161 -0.20012805 0.20839602
0.49029675 0.35054547 0.42310324 -0.33603376 -0.24950618 0.691463 -0.114807755 -0.37839994
0.41842398 -0.11277091 0.09522579 -0.07982083 -0.6618162 -0.15412688 -0.23477371 -0.6758355
-0.084315635 0.33146715 0.47718886 -0.82248783 0.33326036 -0.3721941 0.74928296 0.09332317

critic.2.weight f4 [128, 128]
00000000: 7be3 a3be e9b7 f73d bc18 37bd 1e5f a3bf
00000010: 7609 cabe bc99 8bbf b3fa babf 8b16 3a3f
00000020: b0f5 52bd 1cd4 0c40 d937 27bf 67bb 41bf
00000030: 6d09 ec3e 1929 b1bf aa2e b2bf d1a0 813e
00000040: 038d e13e 2def 1bbf afd1 7b3e f4d1 cabe
00000050: 5c61 3dbf e637 723d 8e4f d83e 58c5 37bf
00000060: 9a59 e93f dfb7 f33f 8f39 ae3d 578a 0f3f
00000070: 3061 0a40 a2b2 843e 698b af3e ae35 0f40
00000080: 13a1 8ebf 8253 85bf d267 e6bf 2b67 27bf
00000090: 89f0 ea3e 179e 873f 93f8 88be 63e5 c43f
000000a0: a396 5bbf 74eb 1e3f 78a1 673f 788c 84bd
000000b0: 3bc8 0f40 bd1c 3abf d012 b9bf ea9a e4be
000000c0: f53b dfbf 1613 3d3f 5908 c0bf be2c 5c3f
000000d0: 8984 aa3e 689b 46bc 98f6 89bf a0e0 9d3e
000000e0: 7b03 eebf a118 863f dc20 2cbf d9c0 5e3e
000000f0: c238 6fbd 2921 583d 0937 07bf 352e c9bd
00000100: 2f39 d1bf 1e44 a83f 6cf5 863e 26da c5bd
00000110: f437 363f c570 893f f5b3 6cbe 6c1b a2bd
00000120: 5131 ba3e d530 743d 15b4 e13e d4ff f03f
00000130: a79c dbbf 4bf3 893f 3882 0cbf 6701 bb3f
00000140: fc6e 7f3e 606c 903e cd91 6abf e48c 50bf
00000150: 8c12 9f3e ca0c 53be e8df 503f 3290 6a3f
00000160: ed2b aabf 2759 053f 7cb6 c8bf 7bef fd3e
00000170: 1a62 18bf 23d3 eb3e 0296 993e a054 96be
00000180: f3a4 39be 06ae cc3e 5bfe a33f d0cc c8be
00000190: 6315 bbbe d221 583f f53d 16bf 3c59 123f
000001a0: 48ea a8bf f4d6 213c d456 ccbf 924d c6bf
000001b0: cb01 6c3f d0b8 eebe 8dcc b1be df6b ce3d
000001c0: 81d5 26be 5555 683f 7ea7 a43e 40cb 8d3f
000001d0: f077 0dc0 f3d8 39bf 2dfc df3f 646c af3f
000001e0: 17b2 73bf f784 4fbf 6104 a1bf 8c78 87be
000001f0: adff c2bf e20b bdbc c2c1 91be 8270 2040
00000200: fe57 a3bd 9356 ce3e 26c5 2e3f fbb7 a63f
00000210: 079c be3e 5e5f 633e 246e 243f 6b85 5b3f
00000220: 2eed 2abf 82a9 0a3e 060b 42bf 9325 e6bf
00000230: 56ec a03f 1f68 1c3d 448a d3be b1bb 033f
00000240: d7f7 3f3e dccc 463d cb97 73be bc28 fbbf
00000250: 32b7 0d3f 66c8 503f 4597 b73e 744a 563d
00000260: 9f63 5ebf 25ae ffbe 18ba 3e3f aa3c 93be
00000270: d3c7 afbf 0cf4 4dbe 04a7 1a3e 0f8d bbbe
00000280: 17b1 70bf 2d88 cdbb ef4e 633f 371e 58bf
00000290: 92ca 003f 0ac8 15be 58d3 443f 8d87 6cbf
000002a0: fabd 83bf 7ff1 dabe 1a47 be3e 8c9b 983e
000002b0: cdf3 c93d 7d0b 14bf 1cac 2e3f 89b9 00be
000002c0: 620d 9abf 23c4 883f f3f1 a6bf f8a7 c9be
000002d0: 25d0 b0be 045e 433e d054 1bc0 f4ec d9bf
000002e0: 4fc7 01bf 042b 943f 104c 5e3f 1042 893f
000002f0: 4578 473e 83e7 ddbe d482 8b3f 6463 9ebe
00000300: 9f41 35bf 6372 43be 11e8 903f 880b 0a3f
00000310: 2b6c d3bd d0fa 1abf e0bf 4dbe 52cd 8ebf
00000320: 08df 0ebe abc3 19be 5712 96be 3479 a93e
00000330: fcc5 be3d b3cc a93f 34d4 143f 48e9 19be
00000340: 5335 37be 3ae9 0f3f 0f1b 26bf 7d3e 4b3e
00000350: 0f2d fabe 51c8 63bf 4661 01be 8b5d f63f
00000360: 45b9 a13f 1111 813f 5119 993f ec98 88be
00000370: 7ae5 56bf 61d9 13be 0f37 c2be 1285 d33e
00000380: 7b77 ec3e 0a1e 0dbe ef33 2abe 4637 1cbf
00000390: 857b debe f5e6 67be 7ef1 ca3e 6491 2a3f
000003a0: 1aaf 85be cbc7 203f 9161 463e fd40 263e
000003b0: dd8f af3d c375 0cbf 3700 0ebf 48f5 f5be
000003c0: c89c 133f d635 a4be 03b2 e5be 6dac 953f
000003d0: bd32 643f 07b4 553f 9e66 9e3f 5694 61bd
000003e0: 1765 3ac0 fb9a 59bf 0ccb 8bbf 8a1f bf3e
000003f0: a1a5 a0bb d88e a63c ef9e a53d 9d21 393f
-0.3200949 0.12095625 -0.044701323 -1.2763402 -0.39460343 -1.0906291 -1.4607757 0.7269065
-0.051503837 2.2004461 -0.6531959 -0.7567658 0.4610094 -1.3840667 -1.3920491 0.25318006
0.44052896 -0.6091183 0.24591707 -0.39613307 -0.73976684 0.05913534 0.42248195 -0.717855
1.8230469 1.9040488 0.08507072 0.56070465 2.1621819 0.25917536 0.3428605 2.2376513
-1.1142906 -1.041611 -1.8000433 -0.65391797 0.4588664 1.059512 -0.26752147 1.5382503
-0.8577673 0.6207802 0.90480757 -0.06472105 2.246596 -0.727001 -1.4458866 -0.4464944
-1.7440172 0.7385725 -1.5002548 0.8600577 0.3330424 -0.012122013 -1.077838 0.30835438
-1.8594812 1.0476266 -0.6723764 0.21753253 -0.058403738 0.052766 -0.5281835 -0.098232664
-1.6345576 1.3145788 0.26359117 -0.09660749 0.7117913 1.073754 -0.23115523 -0.079153866
0.3636575 0.059616882 0.44082704 1.8828073 -1.7157182 1.0777372 -0.548862 1.4609803
0.24944681 0.28207684 -0.91628724 -0.8146498 0.31068838 -0.20610347 0.81591654 0.91626275
-1.3294655 0.5208916 -1.568069 0.49596772 -0.5952469 0.46059522 0.2999726 -0.2936144
-0.1812933 0.3997652 1.2811998 -0.3921876 -0.36539754 0.84426606 -0.5868829 0.5716741
-1.3196497 0.009877909 -1.5963998 -1.5492423 0.92190236 -0.46625376 -0.34726372 0.100791685
-0.16292383 0.90755206 0.32159036 1.1077652 -2.2104454 -0.72596663 1.7498833 1.3704953
-0.9519362 -0.81062263 -1.2579461 -0.26459157 -1.5234276 -0.023076955 -0.28468138 2.506867
-0.079757676 0.40300426 0.68269575 1.3024896 0.37228414 0.22204348 0.6423056 0.85750455
-0.6676816 0.13541225 -0.7579807 -1.7980217 1.2572124 0.038185235 -0.41316426 0.5145827
0.18746887 0.048535213 -0.23788373 -1.9621806 0.5535766 0.81555784 0.35857597 0.052317098
-0.8687076 -0.4993755 0.74502707 -0.2875722 -1.3732857 -0.20112628 0.15102774 -0.36631057
-0.9402022 -0.006272337 0.8879232 -0.84421104 0.503091 -0.1462709 0.76884985 -0.92394334
-1.0292351 -0.42762372 0.3716362 0.29806173 0.098609544 -0.5783003 0.6823137 -0.12570776
-1.2035334 1.0684856 -1.3042587 -0.39385962 -0.34533802 0.19078833 -2.4270515 -1.7025437
-0.50694746 1.1575627 0.8683481 1.0723286 0.19479473 -0.43340692 1.08993 -0.30935204
-0.70803255 -0.19086604 1.1320821 0.53923845 -0.10323366 -0.6053896 -0.20092726 -1.1156409
-0.13952267 -0.15016048 -0.29310867 0.33100283 0.09315106 1.3265594 0.58136296 -0.15030396
-0.17891435 0.5621525 -0.6488504 0.19848056 -0.48862502 -0.88977534 -0.12634763 1.9247297
1.2634665 1.0083333 1.1960851 -0.2667917 -0.83943903 -0.14438392 -0.3793263 0.41312462
0.46184906 -0.1378099 -0.16621374 -0.6102184 -0.43453613 -0.22646697 0.3963737 0.666281
-0.26110154 0.6280486 0.19373156 0.16235729 0.085723616 -0.5486719 -0.5546908 -0.48038697
0.57661104 -0.32072324 -0.44862375 1.1693245 0.8913992 0.83477825 1.2375066 -0.055073105
-2.91242 -0.85002106 -1.092134 0.3732875 -0.004902557 0.020331785 0.08086955 0.72316915

critic.2.bias f4 [128]
00000000: f9d5 f63d 3949 913f 3611 acbe d676 2e3f
00000010: ef1a dcbe 8629 0abf bc82 ab3e 58dc 7bbf
00000020: c597 2ebf 453e 12bf 3afe efbf a811 a83e
00000030: 3ef1 01be cd96 f9be 848a 8fbf 6d15 253f
00000040: d1f7 543e c59d 6c3f 96f0 4dbf 2706 b4bf
00000050: b773 e83e 283d efbd e9b1 a1bf 682b 543f
00000060: 26c0 053e fed1 26bf d132 55bf 2ed1 51bf
00000070: 0a75 43bf 3732 b8be ceea 21bf 083a b83c
00000080: f5df 22be 130c 8bbe 1889 fb3c ed3e a1be
00000090: 0a8a 75bf aaab 533f 44d9 20be c83b ccbd
000000a0: da4d 353e 18de 04bf de78 17bf ce4b 85be
000000b0: 9471 693f b451 77be df2b 2d3f 8a09 e5be
000000c0: 5b42 a63f b1d7 64bb d58e 883e 6f71 b73d
000000d0: fe7c 553e 3dfb 003f f8c6 eb3e dd15 aa3e
000000e0: f1b9 f03d 91a3 b33e 174a 52bd 519a 0dbf
000000f0: f354 173f dad0 c83e 6525 c03d fcdb a6bf
00000100: a2f9 31be 4eb9 e13e ee3d b73c a110 14bf
00000110: 970b c2be 1c4a a1be a6a6 47be 4b6b 003f
00000120: 8ebb 9ebe df49 85bf 0c4b 85bf 7d9b 7c3d
00000130: e93b 133f 70b4 793f 49a3 5fbf 5526 ec3f
00000140: a189 2f3f fcac f4bd 7212 803e b4ef 40bf
00000150: a9ee 27bf 1654 183f 9967 9dbf 59c0 263f
00000160: 94ad 303f 5685 cdbe c300 96bf bb54 4fbf
00000170: 704e 213f f8ee 9f3f 5243 0cbf 78e2 4abe
00000180: d819 37bc aca0 f03d 2df2 3b3e 77ca c2be
00000190: 723f 943d 8129 823f 759a 793e 70fd 043f
000001a0: b51e 75be 416f fe3e 2a32 bfbc 1d56 e03e
000001b0: 1e20 863e 8ec2 9f3e 924c 2dbf e5e4 d0be
000001c0: 3a27 963e 4e51 843d 11e5 6b3e 6c2b 273f
000001d0: 089e da3e 15ff 83bf 4f8a b53b b6e1 82bf
000001e0: d256 eebd f146 abbe ca17 33bf b6eb 94be
000001f0: 8320 f73e 8c97 043c c24e 16bf 9b88 31be
0.12052531 1.1350471 -0.3360688 0.6815008 -0.429893 -0.5396961 0.3349818 -0.9838309
-0.6820033 -0.57126266 -1.8749459 0.3282597 -0.12689683 -0.48747864 -1.1214147 0.6448582
0.2079766 0.9242824 -0.8044523 -1.4064378 0.45400783 -0.116815865 -1.2632419 0.8287873
0.1306158 -0.6516417 -0.83280665 -0.8195981 -0.7635046 -0.3597581 -0.6324891 0.022488609
-0.15905745 -0.2715765 0.03070502 -0.3149332 -0.95913756 0.82683814 -0.1570788 -0.0997234
0.1770548 -0.5190139 -0.59168804 -0.26034397 0.9118893 -0.24152261 0.67645067 -0.4473384
1.2989 -0.00349186 0.26671472 0.089571826 0.20848462 0.5038336 0.4605024 0.33219805
0.117542155 0.3508573 -0.05134019 -0.55313593 0.59114 0.3922184 0.093821324 -1.3035884
-0.17380384 0.4408669 0.022368398 -0.57837874 -0.37899467 -0.31501853 -0.19497165 0.50163716
-0.31002468 -1.0413169 -1.0413527 0.061671723 0.5751329 0.9754095 -0.8735853 1.8449198
0.6856938 -0.11947057 0.25014073 -0.7536576 -0.6559854 0.59503305 -1.229724 0.6513725
0.6901486 -0.4014079 -1.1718982 -0.80988663 0.6301031 1.2494802 -0.5479022 -0.19812953
-0.011175595 0.11749396 0.18354101 -0.38045093 0.07238664 1.0168916 0.24375327 0.51949215
-0.23937495 0.49694255 -0.02333935 0.438157 0.26196378 0.3120312 -0.6769496 -0.40799633
0.29326802 0.0646082 0.230366 0.6530063 0.42698693 -1.031222 0.0055401693 -1.0225132
-0.116376534 -0.33452561 -0.69958174 -0.29086083 0.48266992 0.008092772 -0.58713925 -0.17337267

critic.4.weight f4 [1, 128]
00000000: c379 1dba c5b4 9aba c830 5db9 4d25 f4b7
00000010: bba1 6d39 319d 2e39 6cd1 55b6 9d13 403a
00000020: b617 7c39 c6db 89b7 9409 8d39 afad 4b39
00000030: 1e14 a838 d183 cdb8 95e6 f83c 8b9b 78b9
00000040: eb24 91b9 868b 9539 40e0 1339 5246 533a
00000050: 4d41 9539 e5e3 e238 bddb 4139 c9ca 45bc
00000060: c7eb a339 b8e3 3538 7381 1eb8 c90b 5c38
00000070: e9f8 8939 1424 4fb9 ffc0 43ba 5f62 293a
00000080: c384 bc38 0afe 9e38 b99b f5b8 3b6a 03b8
00000090: 1c77 3739 5640 f2ba 49a1 d939 267a 9138
000000a0: ad2b b2b8 ddc0 d739 46ec 92b7 2134 d139
000000b0: 9e94 37b8 3749 f839 915d e637 d9ea dcb7
000000c0: dc3a 28ba a34d d839 97a5 a2b8 3e91 7139
000000d0: dc3d 613b 3be2 79b8 cce6 76b9 77bc b839
000000e0: 9d63 9db9 4b32 2ab9 8557 6c37 e194 ac39
000000f0: 7dbb e3b9 d04f 873c 1017 25ba 04bf 79bd
00000100: 867d ab39 252f b4b8 806f cc38 90b6 b1b9
00000110: e9d1 9d38 753a 9e39 c0dc b838 4a7a 58b9
00000120: 6f34 b83a 7f78 c7b8 42f4 b0b9 7d34 1a3a
00000130: f382 0bb9 2583 b038 629a 8939 00b0 d9bd
00000140: 7b17 ccb9 3b42 c7b9 0b17 f7b8 993f d5b9
00000150: 823e 8739 6f6d 11ba 891f 53b9 e6e2 0b3a
00000160: 632a 85b8 da1d d339 9f25 673a 7699 0cba
00000170: 1306 9638 ed42 28bb 8088 d1b9 e328 ab39
00000180: b090 453a 097c 92b9 32d9 5738 bffb fc3b
00000190: 6777 5fb6 70e3 e1b9 e02f 80b9 e17f e138
000001a0: dfbb b939 c6c7 6f39 8f73 2339 61a9 7db8
000001b0: eb2d b538 ce67 2cba 10ad 1a39 d410 08b9
000001c0: 90ba 5339 dd92 a139 39b8 02b9 103e b7b7
000001d0: 5ade 6a38 606e f538 8c5d ce39 1628 be39
000001e0: 0114 b9b8 6c1c 003a d778 b8b9 af17 b7b8
000001f0: ad9a 83b9 518d cc38 0df5 e7b9 b9f0 dbb8
-0.00060072186 -0.0011803141 -0.00021094375 -2.9104436e-05 0.0002266233 0.00016652491 -3.1861373e-06 0.00073271414
0.00024041426 -1.6434013e-05 0.00026900752 0.00019424291 8.0146114e-05 -9.7997145e-05 0.030383388 -0.00023709067
-0.0002768406 0.00028523448 0.00014102552 0.000805949 0.00028468148 0.000108189684 0.00018487773 -0.0120722735
0.0003126545 4.3365842e-05 -3.7790694e-05 5.2463063e-05 0.0002631613 -0.00019754498 -0.00074674183 0.0006461497
8.9892674e-05 7.5813456e-05 -0.00011711516 -3.133177e-05 0.00017496612 -0.0018482308 0.00041509632 6.936891e-05
-8.495837e-05 0.0004115169 -1.751458e-05 0.00039902425 -4.376901e-05 0.00047356795 2.7461707e-05 -2.6335403e-05
-0.0006417462 0.00041256574 -7.7556055e-05 0.00023037658 0.0034369146 -5.957692e-05 -0.00023546367 0.00035235632
-0.0003001959 -0.00016231199 1.4087073e-05 0.0003291732 -0.00043436504 0.01651755 -0.0006297687 -0.060973182
0.00032709184 -8.59185e-05 9.7482465e-05 -0.0003389609 7.525442e-05 0.00030179662 8.8149216e-05 -0.00020644921
0.0014053712 -9.5115036e-05 -0.00033751322 0.0005882455 -0.00013304855 8.4167616e-05 0.000262457 -0.106292725
-0.00038927406 -0.00038005583 -0.0001178217 -0.0004067391 0.00025795778 -0.0005547618 -0.00020134276 0.00053362397
-6.349829e-05 0.00040267297 0.00088175567 -0.00053634436 7.153689e-05 -0.0025674656 -0.00039965287 0.00032646125
0.0007536514 -0.00027939703 5.1462273e-05 0.00772044 -3.329909e-06 -0.00043084798 -0.00024449732 0.00010752655
0.00035425925 0.00022867238 0.0001558794 -6.0477647e-05 8.6393055e-05 -0.00065767474 0.00014751055 -0.0001297624
0.00020192028 0.00030817735 -0.00012466394 -2.18442e-05 5.599703e-05 0.00011703069 0.0003936108 0.0003626949
-8.8252134e-05 0.00048870477 -0.00035185248 -8.7305314e-05 -0.0002510151 9.7538e-05 -0.0004424233 -0.00010487572

exp_avg f4 [4]
00000000: aecd 9239 2ea2 b639 27e2 90ba b5be 39bb
0.00028000533 0.00034834578 -0.0011053727 -0.002834243

exp_avg_sq f4 [4]
00000000: 99e8 3a39 680d 1f39 5c32 4739 a5ef 143c
0.00017824992 0.00015168416 0.00018996879 0.009090339
