examples/drone/logs/fig-eight-5000/model_2200.pt (torch, 474978 bytes, 36 tensors)

std f4 [4]
0	0x3e41436e	0.18873379
1	0x3e3cf0f0	0.18451285
2	0x3e221f33	0.15832214
3	0x3e0dbbf8	0.13841236

actor.0.weight f4 [128, 17]
0	0x4004fe18	2.0780087
1	0xc0d49d8d	-6.6442323
2	0xc07a7147	-3.913164
3	0x3eb55166	0.35413665
4	0x3f2bd009	0.6711431
5	0xbf38148a	-0.7190634
6	0xbed6b051	-0.41931394
7	0x3f678d7b	0.9045026
8	0xbde1792a	-0.11009438
9	0x3f2c614e	0.67335975
10	0xbe4cb8f9	-0.19992436
11	0x3eab5ae9	0.33467796
12	0x3d19ba96	0.037531458
13	0xbdf19247	-0.11795478
14	0x3d8470b5	0.0646681
15	0xbe274d9f	-0.16338204
16	0x3e050f3b	0.12994091
17	0xbfdb4764	-1.7131162
18	0x3e327595	0.17427666
19	0xc091d8f3	-4.557733
20	0x3ebe7c06	0.37203997
21	0x3f74e294	0.9565823
22	0xbfb764dd	-1.4327656
23	0xbf390dcd	-0.72286683
24	0xbf5d8c59	-0.8654228
25	0xbf91c910	-1.1389484
26	0x401b4b09	2.4264548
27	0x3e1c0fae	0.15240356
28	0xbf0e3202	-0.55545056
29	0x3eb3dfb3	0.35131606
30	0xbd4f68ad	-0.050636936
31	0xbe66737e	-0.22504994
32	0xbe17eb61	-0.14835884
33	0x3dc4950f	0.09598743
34	0xbe92d05e	-0.28674597
35	0xc000af47	-2.010698
36	0xc065e023	-3.5918052
37	0x3e84874a	0.25884467
38	0xbfd3dd1e	-1.6551855
39	0x3efada97	0.48994896
40	0xbea6aaa7	-0.32552072
41	0x3f22251d	0.6333788
42	0x3f21c100	0.6318512
43	0x3e44b7e7	0.19210778
44	0x3d2d3640	0.042288065
45	0x3dfe6a76	0.124226496
46	0x3e8e3a27	0.27778742
47	0xbdc7af52	-0.097502366
48	0xbeb89af1	-0.3605571
49	0xbe3306f0	-0.17483115
50	0xbd6bb874	-0.057548955
51	0x3f8756b0	1.057333
52	0xbf100dbb	-0.5627095
53	0x407a0130	3.9063225
54	0xbe005938	-0.12534034
55	0xbf4677b4	-0.775264
56	0xbfb85968	-1.4402285
57	0x3f7a814f	0.9785356
58	0xbf11923d	-0.56863767
59	0xbdde96b2	-0.108685866
60	0xbe76dc8e	-0.24107572
61	0x3e714af3	0.23563747
62	0xbe8ee0f6	-0.27906007
63	0x3ea2108a	0.31653243
64	0x3e642de5	0.22283132
65	0x3ddeb915	0.10875145
66	0xbc2a242e	-0.0103846025
67	0x3d75c23a	0.059999682
68	0x401c0303	2.4376838
69	0x4030fe99	2.7655394
70	0x3ea42354	0.32058203
71	0xbde2c242	-0.11072208
72	0x3ee3f460	0.4452238
73	0x3e61281c	0.21987957
74	0x3f4e435e	0.80571544
75	0x3d769966	0.060204886
76	0xbdc861e8	-0.09784299
77	0x3f74358a	0.95394194
78	0xbd8d3207	-0.068943076
79	0x3f48addf	0.78390306
80	0x3e410cc0	0.1885252
81	0xbe511a03	-0.20420079
82	0x3d244ad0	0.04011041
83	0x3d716d11	0.058941904
84	0xbb01282b	-0.001970778
85	0x3eded3d1	0.43520978
86	0x3bb3f0d0	0.0054913536
87	0xc0349121	-2.821358
88	0x3e0da935	0.13834079
89	0xc014b3f1	-2.3234828
90	0x4010b5cc	2.261096
91	0xbf848244	-1.0352254
92	0xbe6d7e43	-0.23192696
93	0xbd56f196	-0.052476488
94	0x3ed66bf5	0.4187924
95	0xbf83207c	-1.0244288
96	0x3e520ffd	0.20513912
97	0xbd94add1	-0.07259715
98	0x3d617547	0.055043485
99	0xbe1e43a5	-0.15455492
100	0x3daac47e	0.08338259
101	0xbd8c5e82	-0.068539634
102	0xbe72f8ae	-0.23727676
103	0xbef06ebb	-0.4695948
104	0xc01da358	-2.4630947
105	0x3cde598e	0.027142312
106	0xbfa2dda2	-1.2723887
107	0x3fd8e7c1	1.6945726
108	0xbf3fa5cc	-0.7486236
109	0xbd3f8527	-0.046757843
110	0x3d8e9c59	0.06963415
111	0x3e5d8f5c	0.21636719
112	0xbe1ab565	-0.15108259
113	0xbb70b5d4	-0.0036729472
114	0xbd408ab9	-0.047007296
115	0xbe86cf7f	-0.26330182
116	0xbe825035	-0.25451818
117	0x3cb6da61	0.022320928
118	0x3e27e3dd	0.16395517
119	0x3f9f43dc	1.2442584
120	0x3fdbf14f	1.7183017
121	0x407b1d76	3.9236732
122	0xbe2af523	-0.16695075
123	0xc008d20e	-2.1378207
124	0xc00f52e4	-2.2394342
125	0x3ffc4651	1.9708959
126	0xbeb6ff83	-0.35741815
127	0x3f9092ed	1.1294838
128	0xbef1ad25	-0.4720241
129	0xbeb01e0b	-0.3439792
130	0xbef5e383	-0.4802514
131	0xbe4049fd	-0.18778224
132	0xbe12db53	-0.14341478
133	0xbe016d5f	-0.12639378
134	0x3d2bbb7a	0.04192684
135	0xbd53e39a	-0.05173073
136	0x3e82066e	0.2539553
137	0xbf261bde	-0.6488627
138	0xc0212a46	-2.5182052
139	0x3e192f6f	0.149595
140	0xc006da4d	-2.107074
141	0xbff9c7fd	-1.9514157
142	0xbd33a22d	-0.043855835
143	0xbd2a55a4	-0.04158558
144	0xbed4f302	-0.4159165
145	0x3eba35f3	0.36369285
146	0xbe1f7e18	-0.15575445
147	0xbe5e9362	-0.2173591
148	0xbd8081cb	-0.06274756
149	0xbe3691eb	-0.17829101
150	0xbeaaa464	-0.33328545
151	0xbc3e40d8	-0.01161214
152	0x3e1d0fa3	0.15337996
153	0xbeafd158	-0.34339404
154	0xc04f4be5	-3.2390072
155	0xc04c5283	-3.192536
156	0x3ecd202a	0.40063602
157	0xbfc17efb	-1.5116876
158	0x3e981656	0.2970454
159	0xbf4e54f4	-0.8059838
160	0xbfa37204	-1.276917
161	0x3ebf089d	0.3731126
162	0x3f2f9521	0.6858693
163	0x3eb19eed	0.34691563
164	0x3d647166	0.055772208
165	0xbebc6a2c	-0.36799753
166	0x3cd5b797	0.026088519
167	0xbe1b178e	-0.15145704
168	0xbe13f6bd	-0.14449592
169	0xbd4b3b30	-0.049616992
170	0x40cf48aa	6.47762
171	0x40ae843b	5.4536414
172	0xbf9d936d	-1.2310616
173	0x3eaa0c52	0.33212525
174	0xbcca22ec	-0.024674855
175	0xbedea239	-0.4348314
176	0xbe94346c	-0.28946245
177	0x3ecddbbc	0.40206707
178	0xbfbb7925	-1.4646345
179	0x3edd6d05	0.43247238
180	0x3deaa279	0.114567704
181	0x3e36504d	0.1780407
182	0xbd85915b	-0.06521865
183	0xbdca88ca	-0.09889372
184	0x3d0025f0	0.03128618
185	0x3d030431	0.03198642
186	0x3c8a1b1f	0.016858635
187	0x3fb0ff6a	1.3827946
188	0x3f7db423	0.9910299
189	0x3df02654	0.117260605
190	0x3e9f9be7	0.31173632
191	0xbee2b99b	-0.4428223
192	0xbeea087c	-0.45709598
193	0x3f2b1121	0.6682301
194	0xbf0eb644	-0.55746865
195	0xbf0e6324	-0.55620027
196	0xbea70d48	-0.3262732
197	0xbe1096c2	-0.1412001
198	0xbf2a7973	-0.66591567
199	0x3e28ee89	0.16497244
200	0xbe32fc90	-0.17479157
201	0x3d82e84c	0.06391963
202	0xbdc9455c	-0.098276824
203	0xbdf974b0	-0.121804595
204	0x3dcc339d	0.09970782
205	0xbea7e34b	-0.32790598
206	0xc0484f0e	-3.129825
207	0xbceb9e3c	-0.028761975
208	0x40196918	2.3970394
209	0x3f418834	0.75598454
210	0xbe8f904d	-0.2803978
211	0xbf3fe1a4	-0.74953675
212	0x3ea9ef07	0.33190176
213	0x3e7a9c76	0.24473748
214	0x3dd0f2df	0.10202574
215	0x3ee333f9	0.4437559
216	0xbf87f9e8	-1.062314
217	0x3b952f46	0.0045527546
218	0x3d38ce6e	0.04511874
219	0x3d55a56f	0.052159723
220	0xbdde9bf5	-0.1086959
221	0x3d693c41	0.05694223
222	0xbfb29723	-1.3952373
223	0xbff04d2b	-1.877355
224	0x3ef3c1a4	0.47608674
225	0xbf11af3c	-0.5690801
226	0xbf09a42a	-0.5376612
227	0x3f6f99db	0.9359414
228	0x3da4932d	0.08035884
229	0x3ebf21d9	0.3733051
230	0x3d2b0457	0.041752186
231	0xbeb82318	-0.35964274
232	0xbe8ee9c9	-0.2791274
233	0x3e8764e9	0.26444176
234	0x3bd56500	0.0065122843
235	0xbd823af2	-0.06358899
236	0xbe9fff13	-0.31249294
237	0xbde6f60c	-0.112773985
238	0xbf9dc1d3	-1.2324775
239	0x3f82541e	1.018192
240	0x401e64c2	2.4748998
241	0xbecddf21	-0.40209296
242	0x3faf30e9	1.3686801
243	0x3fa6d6f4	1.3034348
244	0xbe48787b	-0.1957721
245	0x3f05f316	0.52324045
246	0xbd9c970c	-0.076459974
247	0xbec9e936	-0.39435738
248	0x3eb26eb1	0.34850076
249	0x3eac8e85	0.33702484
250	0x3eb6d5aa	0.35709888
251	0xbcb72c71	-0.022360059
252	0x3de9e085	0.11419777
253	0xbdfdc0f2	-0.12390317
254	0x3dab9ef8	0.0837993
255	0x3fbac91e	1.4592626

actor.0.bias f4 [128]
0	0xbde3de1a	-0.11126347
1	0x3eadd059	0.3394802
2	0x3cc0caca	0.023534197
3	0x3ded17fa	0.11576839
4	0xbc993d03	-0.01870585
5	0x3c0eb733	0.00871067
6	0x3d266f17	0.040633287
7	0xbeaf0f39	-0.341913
8	0x3cd4ab2b	0.025960525
9	0xbe494bf2	-0.19657877
10	0xbe04fe21	-0.12987567
11	0x3e0d2189	0.13782324
12	0xbe25e1c0	-0.16199398
13	0xbd294969	-0.041329775
14	0x3e20a513	0.15687971
15	0x3e39ac1c	0.18132061
16	0xbe622ece	-0.22088167
17	0xbe11f612	-0.14254025
18	0xbde9c7b1	-0.11415041
19	0xbd624696	-0.055243097
20	0x3da1dcfb	0.07903477
21	0x3dc4f018	0.09616107
22	0xbdb4ac6a	-0.08821948
23	0x3e31855d	0.1733603
24	0x3d90f798	0.07078475
25	0xba1ed0f6	-0.0006058359
26	0x3dd9388e	0.1060649
27	0xbc66335e	-0.014050333
28	0x3e9df6bb	0.30852303
29	0xbe323e11	-0.17406489
30	0x3e6340ea	0.22192731
31	0x3e04910d	0.12945957
32	0xbe4695ce	-0.19393083
33	0xbde8251b	-0.11335202
34	0xbe072703	-0.13198476
35	0xbe49c9ec	-0.19705933
36	0xbda538d1	-0.080674775
37	0xbdbf8391	-0.09351266
38	0xbd07e430	-0.0331766
39	0xbe847541	-0.25870708
40	0x3e20c5ab	0.15700404
41	0x3e780b59	0.24223079
42	0xbd48a839	-0.048988555
43	0xbdd40ea3	-0.10354354
44	0x3e29e09f	0.16589592
45	0x3e0b76e6	0.13619575
46	0xbd4c1916	-0.04982861
47	0xbe0a05b1	-0.13478734
48	0x3e401faf	0.18762086
49	0xbe3fde13	-0.18737058
50	0x3e45f5c8	0.1933204
51	0xbda2ed66	-0.079554364
52	0x3e5260f7	0.20544802
53	0x3e1172a2	0.14203885
54	0x3d399414	0.045307234
55	0x3e922860	0.2854643
56	0xbe4304c9	-0.19044794
57	0xbe343fb1	-0.17602421
58	0xbe7d1208	-0.2471391
59	0x3e3441ce	0.17603227
60	0xbe3b328c	-0.18281001
61	0x3e1df0bf	0.15423869
62	0xbe5efb58	-0.21775568
63	0xbe0894c3	-0.13337998
64	0x3d16ee24	0.036848202
65	0xbd5f4eda	-0.054518558
66	0xbe197a72	-0.14988115
67	0x3d587c50	0.05285293
68	0xbcc5600b	-0.024093648
69	0xbd441767	-0.04787388
70	0x3dc7fed6	0.09765403
71	0xbcd0b029	-0.025474625
72	0xbe2f627f	-0.17127417
73	0xbcdad306	-0.026711952
74	0xbeeac2e8	-0.45851827
75	0xbdf02841	-0.11726428
76	0xbdaaba12	-0.08336271
77	0xbd1d9712	-0.03847415
78	0x3ca52b56	0.020162266
79	0x3e327875	0.17428763
80	0xbd38902c	-0.045059368
81	0x3e55b4ae	0.20869705
82	0xbe1d569f	-0.15365075
83	0xbd807ebb	-0.06274172
84	0xbe0e42d0	-0.13892674
85	0xbe3b6e95	-0.18303902
86	0x3e9cec7b	0.3064917
87	0x3db112c7	0.086461596
88	0x3db9dda6	0.09075479
89	0xbe74ce5c	-0.23906845
90	0x3e2361d5	0.15955289
91	0xbe02c601	-0.12770845
92	0xbe387427	-0.18013059
93	0xbd830cf9	-0.06398959
94	0x3eae7e2e	0.34080642
95	0xbe8cf213	-0.27528438
96	0xbd39cdae	-0.045362167
97	0x3df2bde8	0.11852628
98	0xbe0ba28d	-0.13636227
99	0x3e31ae95	0.17351754
100	0xbe83fea1	-0.25780204
101	0xbd8d5e7d	-0.06902788
102	0x3d14c3f0	0.036319673
103	0xbe0308bf	-0.12796305
104	0x3e266cbb	0.16252415
105	0x3b80fe0b	0.0039365343
106	0x3ce4246e	0.027849402
107	0x3e2a466f	0.16628431
108	0xbdaf623c	-0.085636586
109	0xbccf2493	-0.025285995
110	0x3ce0205f	0.027359186
111	0xbba5d8fc	-0.005061267
112	0xbbadc653	-0.005303183
113	0xbbf4f539	-0.007475522
114	0x3eb6f356	0.35732526
115	0xbd1a77b3	-0.03771181
116	0xbeb1fa47	-0.3476126
117	0xba029b21	-0.00049822225
118	0xbd525839	-0.051353667
119	0xbdc0c65c	-0.09412834
120	0x3e59cc0f	0.21269248
121	0xbe9c89c8	-0.3057387
122	0xbe4747eb	-0.19461028
123	0xbd73613b	-0.059418898
124	0xbea4a5a9	-0.3215764
125	0x3e3ce312	0.18445995
126	0x3e8bfb64	0.27340233
127	0x3d08dc6a	0.03341333

actor.2.weight f4 [128, 128]
0	0xbfb0174d	-1.3757111
1	0x3ec0ad14	0.37632048
2	0xbe661809	-0.22470106
3	0xbeebb968	-0.4603989
4	0xbf44b161	-0.7683316
5	0xbed9d5c8	-0.42545915
6	0x3e7a04ec	0.2441594
7	0xbe82f248	-0.2557547
8	0x3f8eb058	1.1147566
9	0xbee068bd	-0.4382991
10	0xbfc5b2f4	-1.5445237
11	0xbe15565f	-0.14583729
12	0xbda7e3ab	-0.08197721
13	0xbf29fba8	-0.6639962
14	0xbf053ffc	-0.5205076
15	0xbf005f21	-0.50145155
16	0xbe41be14	-0.18920165
17	0x3e91aa5d	0.2845029
18	0x3c6d3b8a	0.014479527
19	0x3f089e59	0.5336662
20	0xbe62c8fd	-0.22146983
21	0x3f28a09f	0.6587009
22	0x3f8407fa	1.0314934
23	0xbc04dad4	-0.008108813
24	0xbe30d4d3	-0.17268686
25	0xbda255ff	-0.07926559
26	0x3d84be33	0.0648159
27	0x3e9395ec	0.2882532
28	0x3e6917fd	0.22763057
29	0x3daeeda4	0.0854142
30	0x3e875ad4	0.26436484
31	0x3e878403	0.26467904
32	0x3e54d4bf	0.20784281
33	0x3d829d33	0.063776396
34	0x3e154a63	0.14579158
35	0xbe9df688	-0.3085215
36	0x3f17f77e	0.5936202
37	0xbe68ea82	-0.22745708
38	0xbeb27cdf	-0.34860894
39	0xbd292133	-0.041291427
40	0x3df0ee4d	0.11764202
41	0x3f031d57	0.51216644
42	0x3eee1a7b	0.46504578
43	0xbe7292d3	-0.23688821
44	0xbedd989b	-0.4328049
45	0xbd9c116a	-0.07620509
46	0x3d5164b6	0.051121436
47	0xbd0f8a56	-0.035044037
48	0x3e271869	0.16317905
49	0x3e0819dc	0.13291115
50	0x3bb6852a	0.0055700736
51	0x3e88f0d9	0.26746252
52	0x3e4dfac1	0.20115186
53	0xbea2667a	-0.31718808
54	0xbfd56c69	-1.6673709
55	0xbe3fd0b5	-0.18731959
56	0x3f1edc0d	0.6205452
57	0x3f8f5ad5	1.1199595
58	0xbeab7c7c	-0.33493412
59	0x3f5eb981	0.87001806
60	0xbe12ba05	-0.14328773
61	0x3f0424a6	0.5161842
62	0x3df26d51	0.11837257
63	0x3d11e0b8	0.0356147
64	0x3ed0c3d2	0.407744
65	0xbe6a8c52	-0.2290509
66	0xbeb03228	-0.34413266
67	0xbf9f25a0	-1.2433357
68	0x3e93df67	0.2888138
69	0x3c14222d	0.009041351
70	0x3e17d1b1	0.14826085
71	0xbe6f0b12	-0.23344067
72	0xbe99408b	-0.29932055
73	0xbe138d9e	-0.14409491
74	0xbeb13ab6	-0.34615105
75	0xbe76cb23	-0.24100928
76	0x3f08721a	0.53299105
77	0xc000512c	-2.0049543
78	0x3ea62485	0.32449737
79	0xbf531f2f	-0.8246946
80	0xbf906f39	-1.1283942
81	0xbe727ac2	-0.23679641
82	0x3f119127	0.5686211
83	0xbeda82ca	-0.4267791
84	0xbee5019f	-0.447278
85	0xbea13e17	-0.31492683
86	0xbea11987	-0.31464788
87	0x3ea197ba	0.3156107
88	0x3f38fdc3	0.7226221
89	0xbf807dd4	-1.00384
90	0xbd5e0110	-0.054200232
91	0x3e8959ad	0.2682623
92	0xbe8be020	-0.2731943
93	0xbe4d9487	-0.2007619
94	0x3f4b44a4	0.7940161
95	0x3e01cecd	0.12676544
96	0xbee9ce3e	-0.45665163
97	0xbf3f5f5b	-0.74754876
98	0x3e91815d	0.2841901
99	0xbdc55d7f	-0.096369736
100	0x3faeb86f	1.3650035
101	0xbed44d2c	-0.41465127
102	0xbf0fc661	-0.5616208
103	0x3ef590cc	0.47962034
104	0x3f74aef5	0.95579463
105	0xbef3d8b5	-0.47626272
106	0x3f2cec93	0.67548484
107	0xbeb51ed1	-0.35375074
108	0x3e277555	0.16353352
109	0xbe71b37d	-0.23603626
110	0xbe76847e	-0.2407398
111	0x3f1087be	0.56457126
112	0x3c73b67a	0.014875049
113	0x3eb6269f	0.3557634
114	0x3d12e858	0.03586611
115	0x3f089923	0.5335867
116	0x3ea432a0	0.32069874
117	0xbe75d371	-0.2400644
118	0x3e79fb90	0.2441237
119	0x3fac9170	1.3481884
120	0xbeae937e	-0.34096903
121	0x3e206ad6	0.15665755
122	0x3f7ad361	0.9797879
123	0xbe65849e	-0.2241387
124	0xbcad7e44	-0.021178372
125	0xbed2c151	-0.41163114
126	0xbe3144b4	-0.17311364
127	0x3f66c560	0.9014492
128	0xbdc8498f	-0.09779655
129	0xbda34b36	-0.0797333
130	0x3de9585e	0.11393808
131	0xbdd3baec	-0.10338387
132	0xbe4a3225	-0.19745691
133	0xbd5df5df	-0.05418956
134	0xbdd8fe2a	-0.10595353
135	0xbdb293e9	-0.08719618
136	0x3c399636	0.011327317
137	0x3d7bd061	0.061478022
138	0x3d81798a	0.0632201
139	0x3d0756d8	0.033041805
140	0xbd30692f	-0.04306906
141	0xbcb338f1	-0.021877738
142	0x3a7df154	0.0009687145
143	0xbd9ccbac	-0.07656035
144	0x3cfdbd7b	0.03097414
145	0xbc9f7975	-0.019467095
146	0xbe1d520b	-0.15363328
147	0x3e1d487b	0.1535968
148	0xbdf98b0f	-0.121847264
149	0x3e3150be	0.17315957
150	0xbd669866	-0.056297682
151	0xbc95dddb	-0.018294265
152	0x3cf26095	0.02958707
153	0xbe2d17a0	-0.16903543
154	0x3d9e3bf5	0.0772628
155	0xbdd897ce	-0.105758294
156	0xbda96311	-0.082708485
157	0xbd051fe4	-0.032501116
158	0xbdd022f9	-0.101629205
159	0xbd652d06	-0.05595114
160	0xbe0f3f28	-0.13988936
161	0x3cba6b48	0.022756234
162	0xbd9e1894	-0.07719532
163	0x3c8ea716	0.017413657
164	0xbe16a4e3	-0.14711337
165	0xbd86106f	-0.06546103
166	0xbd7a3e27	-0.06109443
167	0xbbcc0489	-0.0062261266
168	0x3d4b4001	0.049621586
169	0xbd6d7632	-0.057974048
170	0xbdeed6e6	-0.116620824
171	0x3d2ff0dd	0.042954315
172	0xbd5125d8	-0.05106148
173	0xbe372465	-0.17884977
174	0x3de15e37	0.11004298
175	0xbc929986	-0.017895471
176	0x3dc331a4	0.095309526
177	0x3d85fbef	0.06542193
178	0xbc73b052	-0.014873581
179	0x3c5a8674	0.01333772
180	0xbdad6c7b	-0.08467957
181	0x3e1647a4	0.14675766
182	0x3cd84ea9	0.026404696
183	0x3c9bb427	0.019006802
184	0xbd703332	-0.058642574
185	0xbe32ca3c	-0.17459959
186	0x3dcc399e	0.09971927
187	0xbd1afc3a	-0.0378382
188	0xbe5294a5	-0.20564516
189	0xbceab09f	-0.028648673
190	0xbd0fa584	-0.035069957
191	0x3cc045cd	0.023470784
192	0xbddf7554	-0.109110504
193	0xbd8a6a47	-0.06758552
194	0xbddd4cbc	-0.108056515
195	0xbd6c2134	-0.057648852
196	0x3e5d10f5	0.215885
197	0xbd9802da	-0.07422419
198	0x3ae25ef7	0.0017270733
199	0xbc16b6e8	-0.009198882
200	0xbd7cdca0	-0.061733842
201	0x3de97be4	0.114005834
202	0xbb804b24	-0.0039152075
203	0xbe36f1df	-0.17865704
204	0xbe5348e3	-0.20633273
205	0xbc29bd6a	-0.010360101
206	0xbd365750	-0.04451686
207	0x3e0f59f2	0.13999155
208	0x3c11e3b9	0.008904391
209	0xbdb4aacb	-0.08821639
210	0x3c262e61	0.0101428935
211	0xbd93fe4d	-0.072262384
212	0x3d9e1340	0.077185154
213	0xbe441327	-0.19147931
214	0xbb3395e5	-0.0027402577
215	0x3d814470	0.063118815
216	0x3b47c4c1	0.0030482265
217	0x3d89fd2b	0.06737741
218	0x3e92fbda	0.28707772
219	0xbe48ac48	-0.1959697
220	0x3cd59645	0.02607263
221	0x3e3ea1a7	0.18616353
222	0x3d84a010	0.06475842
223	0x3d2df3d4	0.04246886
224	0xbd230a06	-0.03980448
225	0x3c1ebaa8	0.009688057
226	0x3e127b77	0.1430491
227	0xbe1bbfd4	-0.15209895
228	0x3c4a0e8a	0.012332568
229	0x3cbeb23c	0.023278348
230	0xbe04e6a3	-0.12978606
231	0xbdb63a89	-0.088978834
232	0x3d565152	0.052323647
233	0xbc1438df	-0.009046762
234	0xbe20fbc6	-0.15721044
235	0x3d4c61fa	0.049898125
236	0xbd966942	-0.07344295
237	0x3bc6396d	0.006049326
238	0xbcdbde8b	-0.026839515
239	0xbd21785e	-0.03942143
240	0xbbf5e304	-0.007503869
241	0x3da1832b	0.078863464
242	0x3ce6d049	0.02817549
243	0xbcada300	-0.021195889
244	0x3c8bc9e0	0.017064035
245	0xbd904d9b	-0.07046052
246	0x3d9392fe	0.07205771
247	0x3d9956e2	0.07487275
248	0x3dbc0a4f	0.09181654
249	0x3ddf7458	0.10910863
250	0x3d954eee	0.07290445
251	0xbd9a348b	-0.07529553
252	0x3d7fbb2e	0.062434368
253	0x3e3177b1	0.17330815
254	0xbc258874	-0.010103334
255	0x3b53c030	0.0032310598

actor.2.bias f4 [128]
0	0xbd6d78c0	-0.057976484
1	0xbd0a797f	-0.033807274
2	0x3df992a4	0.121861726
3	0xbd832393	-0.064032696
4	0xbcd38e62	-0.02582473
5	0x3e73d244	0.23810679
6	0x3d8895fe	0.06669234
7	0x3e1ce9ba	0.15323535
8	0x3f033060	0.5124569
9	0x3f5f8e37	0.8732638
10	0x3cf9e7d6	0.030506056
11	0xba01b94d	-0.00049485714
12	0xbe11ab37	-0.1422547
13	0x3e0cd33b	0.13752453
14	0x3e26c6c1	0.16286756
15	0xbd79d5aa	-0.06099478
16	0xbd73ca5b	-0.059519153
17	0xbeca8e57	-0.39561722
18	0xbc6801ba	-0.014160568
19	0xbe72515a	-0.23663846
20	0xbe96fe18	-0.29490733
21	0xbc8fdd17	-0.017561479
22	0xbec18722	-0.3779841
23	0x3d0cdb00	0.034388542
24	0xbd90f956	-0.07078807
25	0xbe61c339	-0.22047128
26	0x3d693a98	0.056940645
27	0x3cf16ac5	0.029469857
28	0x3db3ac89	0.08773143
29	0x3dee188c	0.11625776
30	0x3cd2e07b	0.025741806
31	0xbd5921cf	-0.053010758
32	0x3df9b46a	0.121926144
33	0xbd348cb0	-0.044079483
34	0xbd99ea71	-0.07515419
35	0xbeb4d5ca	-0.35319358
36	0x3cf5c1b6	0.029999595
37	0x3e00acc1	0.125659
38	0x3e8111a1	0.25208762
39	0x3d2e53fa	0.042560555
40	0x3cac5f61	0.021041574
41	0x3e6a6576	0.22890267
42	0x3caa4c00	0.020788193
43	0x3d75a561	0.05997217
44	0x3d3dc14b	0.046326917
45	0x3df36e05	0.11886219
46	0x3daaf89e	0.08348201
47	0x3d17f767	0.037101176
48	0x3e18def6	0.14928803
49	0xbd7e8043	-0.06213404
50	0x3dc0ac68	0.09407884
51	0xbf085d99	-0.5326782
52	0xbc7ca0a7	-0.015419162
53	0x3d46c939	0.048531745
54	0x3e6ceff2	0.23138407
55	0xbdcaef93	-0.099089764
56	0x3d7df5e2	0.06200207
57	0xbf58df0b	-0.84715337
58	0xbd7a318f	-0.06108242
59	0x3e951216	0.2911536
60	0x3f232952	0.63734925
61	0xbdc3ae4e	-0.0955473
62	0x3ec86492	0.3913923
63	0x3c8b727b	0.017022362
64	0x3d33a57e	0.043858998
65	0x3d696050	0.056976616
66	0xbe083b48	-0.13303864
67	0x3d18ffb0	0.037353218
68	0xbef52fc8	-0.47888017
69	0x3c9424b4	0.018083908
70	0xbcac26ae	-0.021014538
71	0xbd1a802b	-0.037719887
72	0xbe2cf206	-0.168892
73	0x3eb896cc	0.3605255
74	0x3e0df4d3	0.13862924
75	0xbd1f6d4c	-0.038922593
76	0x3ed2ec80	0.4119606
77	0x3d64392c	0.055718586
78	0xb8c3294e	-9.306018e-05
79	0xbdb10c9d	-0.08644984
80	0x3c7ab3d2	0.015301662
81	0x3c7fc922	0.015611919
82	0xbdc9cc50	-0.09853423
83	0x3d543e0f	0.051816996
84	0x3d2b02e2	0.041750796
85	0x3dc951fc	0.098300904
86	0x3e302ecf	0.17205356
87	0x3da34335	0.07971803
88	0xbf25405f	-0.6455135
89	0x3e9e9fa9	0.30981186
90	0xbea253e3	-0.31704625
91	0xbeccb1b6	-0.39979333
92	0x3e838cc5	0.25693336
93	0xbec95299	-0.3932083
94	0x3dc3e927	0.09565955
95	0xbd975da6	-0.07390909
96	0xbed66918	-0.41877055
97	0x3d7a8630	0.061163127
98	0xbda2b69e	-0.07944988
99	0x3bbb9889	0.0057249707
100	0xbe0a8976	-0.13529
101	0x3dcadac9	0.09905011
102	0x3d860cfb	0.065454446
103	0xbd5e0ff6	-0.05421444
104	0xbdec4b8b	-0.11537846
105	0xbf25bd1e	-0.64741695
106	0xbcfa9766	-0.03058977
107	0xbda28af4	-0.079366595
108	0xbd4a714c	-0.049424455
109	0x3e2ecc08	0.17070019
110	0x3d3fc227	0.046816017
111	0xbc67d5ff	-0.014150142
112	0xbcde0690	-0.027102739
113	0xbdcdf991	-0.10057367
114	0xbdd0d86f	-0.101975314
115	0xbe6a8cfa	-0.22905341
116	0x3dbe0bd1	0.092795976
117	0x3b1d64a0	0.0024016276
118	0x3cb24aca	0.021764178
119	0x3cc5dba3	0.024152583
120	0x3dd53024	0.10409573
121	0xbd9108b9	-0.07081742
122	0x3bb98d2d	0.0056625814
123	0xbe38457a	-0.17995253
124	0x3cf37f0d	0.029723668
125	0x3d63b855	0.055595715
126	0x3cbf92bf	0.023385404
127	0xbe59d28f	-0.21271728

actor.4.weight f4 [4, 128]
0	0x3c6cbe62	0.014449688
1	0xbb9bcf1e	-0.004754915
2	0xbda80e34	-0.08205834
3	0xbb1c9dc6	-0.0023897751
4	0x3d87fb07	0.066396765
5	0x3df6df06	0.12054257
6	0xbb542d07	-0.0032375471
7	0xbdf23b92	-0.118277684
8	0xbdb40966	-0.08790855
9	0xbc6564ca	-0.014001081
10	0xba73537a	-0.00092821533
11	0x39e959af	0.00044508043
12	0xbaa39476	-0.0012480158
13	0x3b8afb3b	0.004241375
14	0x3e07ad98	0.13249815
15	0x3d844d0c	0.06460008
16	0x3b32042f	0.0027163138
17	0xbdfafd6f	-0.1225537
18	0x3ba0e488	0.0049100555
19	0x3e1ca5f6	0.15297684
20	0xbda76368	-0.08173257
21	0xbab9d281	-0.0014177115
22	0xbe345b24	-0.17612892
23	0x39fcd2b0	0.0004822216
24	0x3d499ffa	0.04922483
25	0x3d419593	0.047261786
26	0x3bd90427	0.0066228095
27	0xbba401a7	-0.00500508
28	0xbbac5f5d	-0.0052603916
29	0x390fc4f3	0.00013710912
30	0x3daf6294	0.08563724
31	0x3b96411e	0.0045853993
32	0x3bcfc090	0.006340094
33	0xbbe8ff11	-0.0071104844
34	0xbb2aa8a4	-0.002604046
35	0xbdf5df4c	-0.12005481
36	0xb96bc809	-0.00022485865
37	0xbdd90f39	-0.105986066
38	0xbd4e5607	-0.05037501
39	0x3b89ed35	0.0042091855
40	0xbae35179	-0.0017343006
41	0x3dfbe27e	0.12299059
42	0xbc0fe233	-0.008781957
43	0x3a8ca2df	0.0010729692
44	0x3d170815	0.036872942
45	0x3de6d5a1	0.11271215
46	0xbd6f58cd	-0.058434296
47	0x3b467848	0.0030284096
48	0x3cb1ebcd	0.021718884
49	0x3de213f4	0.11038962
50	0xbdf84ae8	-0.12123662
51	0xbdd92d50	-0.10604346
52	0xbb26fe59	-0.0025481193
53	0x3de817e8	0.11332685
54	0xbd01b1be	-0.03166365
55	0xbb5971ef	-0.0033179482
56	0x3999fa01	0.00029368702
57	0xbdbd1a70	-0.09233558
58	0xbb41a201	-0.0029546025
59	0x3d8b47ac	0.0680078
60	0xbdb708f0	-0.089372516
61	0x3a05c1a2	0.0005102401
62	0xbd3ae0df	-0.04562461
63	0x39de0328	0.0004234549
64	0x3b812499	0.0039411304
65	0xbbb83eed	-0.0056227357
66	0x3b13b1f9	0.00225365
67	0x3b4994fb	0.0030758965
68	0xbd1995b5	-0.037496287
69	0xbaec4a77	-0.0018027563
70	0xb968eb57	-0.00022212915
71	0x3bc5279b	0.006016684
72	0xbb4f7db9	-0.003166063
73	0xbcc82c56	-0.024435204
74	0xbb93b8af	-0.0045081
75	0xbb6a4ab4	-0.0035750093
76	0x3ded8d3c	0.11599204
77	0x3af5dd60	0.0018757991
78	0xbb920ec8	-0.0044573285
79	0xbd0a4c01	-0.03376389
80	0xba8190d0	-0.0009885076
81	0xbb2eeb54	-0.002669056
82	0xbc0f115f	-0.008732169
83	0xbb9bd58c	-0.0047556814
84	0xbbada78a	-0.005299513
85	0xba83515a	-0.0010018751
86	0xbc43800a	-0.011932382
87	0x3b942609	0.0045211357
88	0x3dc08f71	0.09402359
89	0x3dfd1dc8	0.12359196
90	0xbe006cb1	-0.12541462
91	0xbd60d003	-0.054885875
92	0x3e2b59c9	0.16733469
93	0xbd4c90b7	-0.0499427
94	0xbb4e9a56	-0.0031525097
95	0xbb8491a9	-0.0040456844
96	0x3d04c925	0.03241839
97	0xbb81a390	-0.0039562657
98	0xbb46e60f	-0.0030349528
99	0xbbcb4178	-0.006202873
100	0x3a6ec3d1	0.00091081584
101	0x3b3dc1b4	0.0028954567
102	0x3b7eb11b	0.0038862887
103	0xbb4f48e0	-0.003162913
104	0xbd484ce0	-0.04890144
105	0xbe52e29a	-0.20594254
106	0x3bb231f4	0.005438084
107	0xbac86dd6	-0.0015291523
108	0x3afdffa5	0.0019378556
109	0xbe41d5bd	-0.18929191
110	0xba008a3d	-0.00049034116
111	0x3d24a256	0.040193878
112	0xbaaf8be2	-0.0013393129
113	0xbb2c3ba9	-0.0026280677
114	0x3b967eee	0.004592768
115	0xbe5bc5fa	-0.21462241
116	0xba3b2ae5	-0.00071398757
117	0x3a3e3e28	0.0007257187
118	0xbbb33488	-0.0054689087
119	0xbb474c0e	-0.0030410322
120	0xb91b1053	-0.00014788033
121	0x3aa8046f	0.0012818704
122	0xbb8d04bc	-0.004303543
123	0x3d4c6e11	0.049909655
124	0xbb85b273	-0.0040801107
125	0xbddb8dfc	-0.10720441
126	0x3ba787c2	0.005112619
127	0xbe2c7ee1	-0.16845275
128	0xbded908d	-0.115998365
129	0x3a5f297f	0.00085129583
130	0x3e4e1651	0.201257
131	0x39abc283	0.00032760584
132	0xbe931bed	-0.28732243
133	0x3cfbbce2	0.030729715
134	0xba1143db	-0.0005541422
135	0x3c1d90e7	0.009617067
136	0xbd375407	-0.04475787
137	0x3dc26126	0.09491186
138	0xba8ea530	-0.001088297
139	0xba8c96e3	-0.001072612
140	0x3ab3a1bd	0.0013704818
141	0xb9bd65c9	-0.00036124725
142	0xbd5635dd	-0.05229746
143	0xbe431876	-0.190523
144	0x39dbd8e1	0.00041932522
145	0xbf396e5b	-0.72434014
146	0x3b553a0d	0.0032535822
147	0x3d8bc2c0	0.06824255
148	0x3c4f7463	0.012662026
149	0xbad6d1f1	-0.0016389472
150	0xbda3475d	-0.07972596
151	0x3a81ce19	0.0009903341
152	0xbd8af118	-0.06784266
153	0xbd382dc4	-0.04496552
154	0x3c19a89f	0.009378581
155	0xbb4e6043	-0.0031490482
156	0xbb0fecc3	-0.002196119
157	0x3c291b57	0.01032146
158	0xbcf0ea07	-0.029408468
159	0x3b6b1937	0.0035873184
160	0x3babe67f	0.005245983
161	0xbb82fcdc	-0.0039974283
162	0x3aa5f12c	0.0012660376
163	0xbbf14073	-0.0073624193
164	0x3bbceb9c	0.0057653915
165	0x3c50ebf3	0.012751567
166	0x3eaf6548	0.3425696
167	0xbad56e15	-0.0016283417
168	0xbb902ec9	-0.0044001085
169	0x3d33af1c	0.04386817
170	0xbbddbd92	-0.0067669833
171	0x3bc3ea59	0.005978864
172	0x3ebb497b	0.365795
173	0xbc75917d	-0.0149883
174	0x3d383e26	0.044981144
175	0x3bd4fac3	0.0064996197
176	0xbd872330	-0.06598508
177	0x3dcaa65a	0.0989501
178	0x3d34be1b	0.04412661
179	0xbd85e02a	-0.065368965
180	0xbb3e4159	-0.002903065
181	0x3b0a24e0	0.0021079108
182	0x3e6392f4	0.22224027
183	0xba507cd8	-0.00079531735
184	0x3b6e85f5	0.0036395763
185	0x3b57b401	0.0032913687
186	0xbba992ff	-0.005174994
187	0x3d146435	0.036228377
188	0xbdde8d50	-0.10866797
189	0x3abeb412	0.0014549515
190	0x3e6e34f8	0.23262393
191	0xbbaca1ab	-0.0052682958
192	0x3b31a0a8	0.0027103815
193	0x39e16965	0.0004299387
194	0xbb2b6c96	-0.0026157252
195	0x3bb5ba1d	0.005545868
196	0x3dc7e59d	0.09760592
197	0xbb97d375	-0.004633362
198	0x39b317cd	0.00034159273
199	0x3adb79e6	0.0016744703
200	0x3b23efa8	0.0025014672
201	0xbda2e28d	-0.079533674
202	0xbad0bb7e	-0.0015925018
203	0x3e041a8e	0.12900755
204	0xbc2b3513	-0.010449666
205	0x3b92476d	0.004464081
206	0xbb8fb71d	-0.0043858425
207	0xbc8dd02b	-0.017311176
208	0xbc0b2672	-0.008493053
209	0x3be4615b	0.0069696135
210	0xbc055cd0	-0.008139804
211	0xbab5bb88	-0.0013865093
212	0xbb95f80a	-0.0045766877
213	0x3b8b56e1	0.0042523
214	0x3dd946e6	0.10609226
215	0x3bc76fa1	0.0060863052
216	0xbe582b0a	-0.21110168
217	0x3bb8b897	0.005637239
218	0x3c5a7b87	0.013335115
219	0xbdcafd09	-0.09911544
220	0xbcf97d02	-0.030455116
221	0xbd58c32b	-0.0529205
222	0xbae79a49	-0.0017669882
223	0x3b47061f	0.0030368639
224	0xbd21b291	-0.039476935
225	0xbbd5550d	-0.006510383
226	0xbaed8103	-0.0018120114
227	0xbbd5d2d1	-0.0065253754
228	0xbb473f16	-0.0030402592
229	0x3b1cc544	0.002392129
230	0x3b535da0	0.003225185
231	0xbb7e82f5	-0.003883538
232	0xbe41d7c0	-0.18929958
233	0xbdebc550	-0.11512244
234	0x3ab68460	0.0013924949
235	0xba2a017b	-0.0006485206
236	0xbb78cab0	-0.0037962608
237	0x3c9427c2	0.018085364
238	0xbb631557	-0.003465017
239	0x3e7d3d68	0.24730456
240	0xb913fe76	-0.00014113807
241	0xbaa114a0	-0.0012289472
242	0x3be854a8	0.00709017
243	0xbdf2c2ff	-0.11853599
244	0x3a2103b9	0.00061422173
245	0x3abd8f23	0.0014462214
246	0x3aaa6f71	0.0013003183
247	0xbbae1e49	-0.005313669
248	0xbe520045	-0.20507915
249	0x3b1b63ea	0.0023710676
250	0xbb60c095	-0.0034294475
251	0x3c14a0e3	0.0090715615
252	0x3a9ce6fc	0.0011970694
253	0xbddb0e61	-0.10696102
254	0x3bc86e63	0.0061166747
255	0xbda1f730	-0.079084754

actor.4.bias f4 [4]
0	0x3f2efbfd	0.68353254
1	0x3f0120e5	0.5044082
2	0x3f383cd8	0.7196784
3	0x3f1aebcc	0.6051605

critic.0.weight f4 [128, 17]
0	0xbd53329a	-0.05156193
1	0x3f9d18f6	1.2273242
2	0x4002e193	2.045018
3	0xbf188069	-0.5957094
4	0xbfc4b6f4	-1.5368333
5	0x3f2fd320	0.68681526
6	0xbf9dbb58	-1.2322798
7	0x40136aca	2.303393
8	0xbf11ee39	-0.57004124
9	0xbfdda205	-1.731507
10	0x405f381d	3.4878
11	0x3fd834b5	1.6891085
12	0x40eaa65f	7.332809
13	0xbf1cc4e6	-0.61237943
14	0xbea7a6e6	-0.3274452
15	0xbe94c7b5	-0.29058614
16	0xbe54031c	-0.20704311
17	0x3f3ecff5	0.7453607
18	0xbe247c71	-0.16063096
19	0xc032b9aa	-2.792582
20	0x3f163b8a	0.586846
21	0xbedfb91a	-0.4369591
22	0x3f6c8828	0.9239526
23	0xbf8330fa	-1.0249321
24	0x3f8e86e6	1.1134918
25	0x3f2b609b	0.66944283
26	0x3fe05ac2	1.7527697
27	0xbe81dbb0	-0.2536292
28	0x3e7839b5	0.24240763
29	0x3cee4bf6	0.029088955
30	0xbd5045d2	-0.050847836
31	0xbc791860	-0.015203565
32	0x3ded9fce	0.11602746
33	0x3dbca728	0.0921157
34	0x3f96a348	1.176858
35	0x4062940b	3.5402858
36	0xc0784b4f	-3.8795965
37	0x3e6ebc04	0.2331391
38	0xc056aecb	-3.3544185
39	0x3fde81cb	1.738336
40	0x3f7250a9	0.9465433
41	0x3f9dd108	1.2329416
42	0xc01ff6f2	-2.4994473
43	0x3f672b28	0.90300226
44	0xbf07f794	-0.5311215
45	0xbf902afe	-1.126312
46	0xbf12c393	-0.5732967
47	0x3deb3b49	0.11485917
48	0x3ea6483c	0.32476985
49	0x3e7f5a3c	0.24936765
50	0x3ebda59b	0.3704041
51	0x4020aefe	2.5106807
52	0xc01100f3	-2.265683
53	0xc08fc797	-4.493114
54	0xbc8865c1	-0.016650083
55	0x3db4d44f	0.08829557
56	0x3f66c66a	0.90146506
57	0xc038610e	-2.8809237
58	0xc018d07d	-2.387725
59	0xbd2d628d	-0.042330313
60	0x3f9c981a	1.2233918
61	0x3f47eaa6	0.7809242
62	0xbeea9c4a	-0.45822364
63	0x3ee9d7be	0.4567241
64	0xbe97bce8	-0.29636312
65	0xbecd6578	-0.40116477
66	0xbe89a354	-0.26882422
67	0xbe841302	-0.25795752
68	0x40820b40	4.0638733
69	0x3f85a612	1.0441306
70	0xbeaf8b61	-0.34286025
71	0xbe4c4964	-0.19949871
72	0x3ea1abb3	0.3157631
73	0xbf1f8463	-0.6231138
74	0xbebb12b4	-0.36537707
75	0xc0416eb7	-3.0223825
76	0xbf207000	-0.626709
77	0x3f233145	0.63747054
78	0x3f1e7336	0.6189455
79	0x3ee685d6	0.45023984
80	0xbfdedec0	-1.7411728
81	0x3e01cc7a	0.12675658
82	0x3e13f821	0.14450122
83	0x3de7fb15	0.11327187
84	0x3e321817	0.17392002
85	0xbfbf174a	-1.4928982
86	0x3f53206f	0.82471365
87	0x3ff061ae	1.877981
88	0xbe41fbc0	-0.18943691
89	0xc0ae3521	-5.4439855
90	0x40483bee	3.1286578
91	0x3eb00756	0.34380597
92	0xbf8eae8c	-1.1147017
93	0xbfad8846	-1.3557212
94	0x3e98233b	0.2971438
95	0xbf026536	-0.50935686
96	0xbf6954f3	-0.9114525
97	0x3ebe6767	0.37188265
98	0x3e27284a	0.16323963
99	0x3e5a994b	0.21347539
100	0x3ef48b80	0.4776268
101	0x3ec3a5a0	0.382123
102	0xc0a733e4	-5.2250843
103	0xc09bfdcc	-4.874731
104	0x40660b63	3.594445
105	0xbf841988	-1.0320292
106	0x401295c5	2.2903912
107	0xbff55943	-1.9167866
108	0xbd3ccede	-0.04609572
109	0xbf4d0fb3	-0.8010208
110	0x3f5bdf91	0.8588801
111	0x3ea11520	0.3146143
112	0x3f355a18	0.708406
113	0x3f23b03f	0.63940805
114	0x3eb813f3	0.3595272
115	0x3df9be72	0.12194528
116	0xbd2465ee	-0.04013627
117	0x3e80a8dd	0.25128832
118	0x3eb69ce5	0.35666576
119	0xbf6e2137	-0.9301943
120	0x3e72303f	0.23651217
121	0x3e96c3fe	0.29446405
122	0x3ed15f40	0.40892982
123	0xbef76bfc	-0.48324573
124	0xbfd5c4e2	-1.6700709
125	0x3ff2fef9	1.8984061
126	0xbf8ab269	-1.0835696
127	0x406ad051	3.6689646
128	0x401186d3	2.273854
129	0xbeb1eeb3	-0.34752426
130	0xbe8d0157	-0.27540085
131	0xc01a593c	-2.4116964
132	0xbe367849	-0.17819323
133	0x3e985796	0.29754323
134	0xbe6234e3	-0.22090487
135	0xbe61ad18	-0.22038686
136	0x3fe507f3	1.7893051
137	0x40aff54c	5.4986935
138	0xbff36dcd	-1.9017884
139	0x3e4a4aad	0.19755049
140	0x40023c76	2.0349402
141	0xbfeb6a5c	-1.8391833
142	0xbf88a71a	-1.0675995
143	0xc01588e1	-2.3364794
144	0xbfc4b672	-1.5368178
145	0xbeb75e23	-0.35814008
146	0x3fe54938	1.791297
147	0xbe3ef581	-0.1864834
148	0xbf80d6cd	-1.0065552
149	0xbe92b0a7	-0.286504
150	0xbe468b62	-0.19389108
151	0xbe9ebfab	-0.31005606
152	0xbe614785	-0.21999939
153	0x408c9835	4.39358
154	0x40aa40de	5.3204184
155	0x404d71be	3.2100673
156	0x3ec51731	0.38494256
157	0x3f451197	0.76979965
158	0xc024b0c7	-2.5732896
159	0x3f96fcc6	1.179589
160	0x3efc79c5	0.49311653
161	0x4001aed2	2.0262952
162	0xbde651fc	-0.11246106
163	0xbf8aa1c6	-1.0830619
164	0x3f73afe3	0.95190257
165	0xbfe7f005	-1.8120123
166	0x3dc62cbe	0.09676503
167	0x3ee77ec1	0.45213893
168	0xbce935bb	-0.028468003
169	0xbe67a18f	-0.22620223
170	0x3f1f73c6	0.6228603
171	0xbec3f1b2	-0.38270336
172	0x40005cfa	2.0056748
173	0x3e615975	0.22006781
174	0x40cfa775	6.4891915
175	0xbf923dac	-1.1425071
176	0xbfbe71fd	-1.4878536
177	0xbf7c1821	-0.9847432
178	0x405acf3f	3.4188993
179	0xbf485953	-0.782613
180	0xbf4593cc	-0.77178645
181	0xbe9ff456	-0.312411
182	0xbd85c898	-0.06532401
183	0xbea6a7de	-0.32549948
184	0xbef8a701	-0.48564914
185	0xbea0c276	-0.31398362
186	0xbe699623	-0.22811179
187	0xc0287d88	-2.6326618
188	0x3ebe7a1a	0.3720253
189	0x410fa037	8.976615
190	0xbe91b091	-0.28455022
191	0x3fcd2753	1.6027626
192	0xbe8516df	-0.25994012
193	0x3f4ab0ea	0.791762
194	0x4002845a	2.039328
195	0x400f2bd2	2.2370496
196	0x3cc4115f	0.023934064
197	0xbf03bc99	-0.5145965
198	0xbe39926d	-0.18122263
199	0x3d35259c	0.04422532
200	0xbd94da07	-0.07268148
201	0xbc7d3e87	-0.015456802
202	0x3e3fe754	0.18740588
203	0x3c24f3de	0.010067908
204	0x3f7acbd1	0.9796725
205	0xc01ef97c	-2.4839773
206	0xc124a5af	-10.29045
207	0x3e206b05	0.15665825
208	0x3f77c23e	0.96780765
209	0x3ff37a5c	1.9021716
210	0xbff87685	-1.9411169
211	0xbfe87968	-1.816205
212	0xbfd060ba	-1.6279519
213	0xc0001c42	-2.0017247
214	0x3f735ce8	0.9506364
215	0xbec77237	-0.38954327
216	0x3e08e184	0.13367277
217	0xbf43792d	-0.76356775
218	0xbf3ca029	-0.73681885
219	0xbf2d82a2	-0.67777455
220	0xbf474e2f	-0.77853674
221	0x407a6e5d	3.912986
222	0xc047824b	-3.1173275
223	0x3f28c771	0.65929323
224	0x3ed8202b	0.42212042
225	0x400a3043	2.1591957
226	0xbcdda0cc	-0.027054213
227	0xc02fdde5	-2.7479184
228	0x3f02e645	0.51132613
229	0xbfddcc73	-1.7328018
230	0x3feeaf18	1.8647184
231	0x404b7052	3.1787305
232	0xbf85965a	-1.0436509
233	0x401f4449	2.4885428
234	0xbecfc4dd	-0.40579882
235	0xbe577868	-0.21042025
236	0xbe1375e4	-0.1440044
237	0xbe97323b	-0.2953051
238	0x3f8a9176	1.0825641
239	0xbec89fd5	-0.39184442
240	0xbfb28d7c	-1.3949428
241	0x3f11229c	0.56693435
242	0x3ec141bd	0.37745467
243	0x3e8c9799	0.2745941
244	0xc05ff1e9	-3.49914
245	0xc07dd31e	-3.9660106
246	0x3de186ef	0.11012065
247	0x3c5f08eb	0.013612966
248	0xbea4249f	-0.3205919
249	0xbf330533	-0.6992981
250	0xbebf1e1b	-0.37327656
251	0xbef7433f	-0.48293492
252	0xbecce1ae	-0.4001593
253	0xbf0babeb	-0.545592
254	0xbef6cd4e	-0.4820351
255	0xbfffc55c	-1.9982104

critic.0.bias f4 [128]
0	0xbeb8b033	-0.3607193
1	0x3e80160a	0.25016814
2	0xbdfbd14c	-0.122957796
3	0x3e2dd631	0.16976239
4	0x3d8751a1	0.06607366
5	0x3ea41645	0.3204824
6	0xbf38819d	-0.72072774
7	0x3e03c8dd	0.12869592
8	0x3e309247	0.172433
9	0x3d21000e	0.039306693
10	0x3ef11bd0	0.47091532
11	0xbe152307	-0.14564143
12	0xbe24cb7d	-0.1609325
13	0x3f04cbd7	0.51873535
14	0x3e492b64	0.19645458
15	0x3d97ef8e	0.07418738
16	0xbe1b58f1	-0.15170647
17	0xbe4bbbdf	-0.19895886
18	0xbe85fa02	-0.26167303
19	0x3dba178b	0.09086522
20	0x3ec706d6	0.38872403
21	0xbed92738	-0.42412734
22	0xbd2ad83d	-0.041710127
23	0xbdb313ef	-0.087440364
24	0xbcb9018a	-0.022583742
25	0xbef78132	-0.48340756
26	0x3e0a2e43	0.1349421
27	0xbdd86d3f	-0.10567712
28	0xbf1169c6	-0.5680202
29	0xbef3c5f0	-0.47611952
30	0x3e792521	0.2433057
31	0xbf20e2d9	-0.6284614
32	0x3efe1d06	0.49631518
33	0x3eca4ba1	0.39510825
34	0xbd8a98e2	-0.06767441
35	0x3d8be209	0.06830222
36	0xbe9a9bb2	-0.3019691
37	0x3da72545	0.081614055
38	0x3da1ec0f	0.07906353
39	0x3e69fe23	0.22850852
40	0x3ef88b92	0.48543984
41	0x3c682a0a	0.014170179
42	0x3ecf6d85	0.40513244
43	0xbe9481fa	-0.29005414
44	0x3d5ca3b2	0.05386705
45	0x3e878ac9	0.26473072
46	0xbd8a6d58	-0.06759137
47	0xbd72c7a0	-0.05927241
48	0x3e3484a5	0.17628725
49	0xbea1065f	-0.31450173
50	0x3d98693e	0.07441948
51	0xbe94ffbe	-0.29101366
52	0xbd456b5c	-0.04819809
53	0x3dce1553	0.10062661
54	0xbe71bae4	-0.2360645
55	0x3ee800cc	0.45313108
56	0xbd4b3075	-0.04960676
57	0xbe57a8f9	-0.21060552
58	0xbee7e3ba	-0.4529093
59	0x3dcfad24	0.10140446
60	0x3ee2929f	0.44252488
61	0xbe0c9788	-0.1372968
62	0x3e1712c4	0.14753252
63	0xbbcbe6c1	-0.0062225764
64	0x3eac7796	0.33684987
65	0xbd216c0e	-0.03940969
66	0x3e64501f	0.22296189
67	0x3d9514ce	0.07279359
68	0xbf311dae	-0.6918591
69	0xbe874145	-0.26416984
70	0xbe881a15	-0.265824
71	0x3e368303	0.17823415
72	0x3f6525af	0.89510626
73	0x3f34e7f9	0.7066646
74	0xbdb52133	-0.08844223
75	0x3e472f32	0.19451597
76	0x3ec289b3	0.3799568
77	0xbd87b132	-0.06625594
78	0xbdcabb87	-0.09899049
79	0xbed24830	-0.410707
80	0x3f312cdb	0.6920907
81	0xbda8c111	-0.082399495
82	0x3d9644bf	0.07337331
83	0x3eb16f8a	0.3465541
84	0xbea16323	-0.31520948
85	0xbd7e6880	-0.062111378
86	0x3e0ec338	0.13941658
87	0x3ebff4e1	0.37491515
88	0x3e8b919e	0.27259535
89	0x3e1f8ded	0.15581484
90	0xbefa0959	-0.48835257
91	0xbe012886	-0.12613115
92	0x3edc6688	0.43046975
93	0xbe3cb346	-0.18427762
94	0x3e35d372	0.17756441
95	0x3e50cb45	0.20390041
96	0xbea04e62	-0.313098
97	0xbeaa6b12	-0.33284813
98	0x3e1f8be2	0.15580705
99	0x3f139156	0.5764364
100	0xbd94f8c1	-0.072740085
101	0xbd80248e	-0.06256972
102	0x3e0c852f	0.1372268
103	0xbe26b27b	-0.16279022
104	0x3eebb712	0.4603811
105	0x3e736266	0.23768005
106	0x3d8d2ebe	0.06893681
107	0xbe407018	-0.1879276
108	0xbcfd0a7a	-0.030888785
109	0x3f46a92e	0.776019
110	0x3e9ca792	0.30596596
111	0xbc9f459f	-0.019442378
112	0x3e9175cc	0.28410184
113	0x3dc0550c	0.093912214
114	0x3e085c7a	0.13316527
115	0xbd96a189	-0.07355029
116	0xbf2cf9da	-0.67568743
117	0xbe83a419	-0.25711134
118	0xbe43133e	-0.19050309
119	0xbed87469	-0.42276314
120	0xbe000f2f	-0.12505792
121	0x3f558923	0.8341238
122	0x3e92bc78	0.28659415
123	0xbe5cd464	-0.21565396
124	0x3ebc499d	0.36774912
125	0xbe5e7ef2	-0.21728113
126	0x3d97dc80	0.07415104
127	0xbca89fbf	-0.020583985

critic.2.weight f4 [128, 128]
0	0xbf206dd0	-0.6266756
1	0x3ea52ff6	0.32263154
2	0x3e844d25	0.25840107
3	0xbfff29a0	-1.9934578
4	0xbe07a03a	-0.13244715
5	0xbf4fd0eb	-0.8117816
6	0xbfda2143	-1.7041401
7	0x3f374ce8	0.71601725
8	0xbe714285	-0.23560531
9	0x400617b3	2.0951965
10	0xbedb6b1b	-0.42855152
11	0xbec08a69	-0.376056
12	0xbe6828de	-0.2267184
13	0xbfdb76e9	-1.7145663
14	0xbfa865e3	-1.3156093
15	0x3eb92230	0.36158895
16	0xbe88db07	-0.26729605
17	0xbf183ce1	-0.59467894
18	0xbeb78697	-0.3584487
19	0xbe83393f	-0.25629613
20	0xbf4172fb	-0.7556607
21	0xbedaa20c	-0.42701757
22	0x3e87fdc7	0.26560804
23	0xbedcc7b8	-0.43121123
24	0x3fcc8536	1.5978153
25	0x3ff49d19	1.9110442
26	0xbf537068	-0.82593393
27	0x3edd20f9	0.4318922
28	0x3fd23da6	1.6425064
29	0x3e9f031d	0.31057063
30	0x3f22edc1	0.63644034
31	0x3ff1cd0b	1.8890699
32	0xbf8299d8	-1.0203199
33	0xbf9c40b3	-1.2207245
34	0xc001a23c	-2.025527
35	0xbebaaf3d	-0.3646182
36	0xbdb60c53	-0.088890694
37	0x3f5f74ff	0.87287897
38	0xbf04ef32	-0.51927483
39	0x3fd810e6	1.6880157
40	0xbbd75353	-0.0065712123
41	0x3f5bf482	0.85919964
42	0x3f697f16	0.9120954
43	0xbec18d8c	-0.37803304
44	0x4024e15d	2.576255
45	0xbe31e7f9	-0.17373647
46	0xbfb12db9	-1.3842078
47	0xbf6deff6	-0.92944276
48	0xbf41bc0c	-0.7567756
49	0x3f3e959b	0.7444703
50	0xbf94feca	-1.1640255
51	0x3f0f570f	0.55992216
52	0x3e68f699	0.2275032
53	0xbeb646f7	-0.35601017
54	0xbfabb584	-1.3414769
55	0x3f6c354c	0.92268825
56	0xbfdb4682	-1.7130892
57	0x3f6a6d2d	0.9157284
58	0xbf2b4ed7	-0.66917175
59	0xbf021951	-0.5081988
60	0xbd60aa8a	-0.05485014
61	0x3e17ed38	0.14836586
62	0xbf7870cb	-0.9704711
63	0x3f115515	0.5677045
64	0xbf6f04c1	-0.9336663
65	0x3f5ee4b5	0.8706773
66	0x3e8a215b	0.26978573
67	0x3efdceb5	0.49571767
68	0xbd6a7f4b	-0.057250302
69	0x3f8e4fee	1.1118143
70	0xbea2df48	-0.31810975
71	0x3d0dfb57	0.034663524
72	0x3f205967	0.6263642
73	0xbe5f8727	-0.218289
74	0x3e7cc29d	0.24683614
75	0x3f9f9963	1.2468685
76	0xbfb7f997	-1.4373044
77	0x3f281cfc	0.65669227
78	0xbf0bd68e	-0.5462426
79	0x3fd3c935	1.6545779
80	0x3f7f4d55	0.99727374
81	0x3eaaed86	0.3338434
82	0xbf74fd0c	-0.9569862
83	0xbedc7244	-0.43055928
84	0x3db38139	0.08764882
85	0xbe9cedfa	-0.30650312
86	0x3f256b2a	0.64616644
87	0x3f84e3e7	1.038205
88	0xbf5ce31b	-0.86284035
89	0x3eb126a7	0.34599802
90	0xbfe12cc7	-1.759179
91	0x3f36554a	0.7122389
92	0xbe18cb2e	-0.14921257
93	0x3f9d355e	1.2281911
94	0x3d221dc9	0.039579187
95	0xbed59a53	-0.41719303
96	0xbf3cffd5	-0.7382787
97	0x3f2ff735	0.68736583
98	0x3ff80f11	1.9379598
99	0x3e92bda0	0.28660297
100	0xbf5fd130	-0.8742857
101	0x3f87c2ff	1.0606383
102	0x3e8fc5cd	0.28080598
103	0x3f78a0bb	0.97120255
104	0xbf6f4d93	-0.93477744
105	0x3de5138b	0.11185368
106	0xbfe9fa47	-1.8279504
107	0xbfd4ac85	-1.6615149
108	0x3f0221a5	0.5083259
109	0xbc8371d7	-0.016045494
110	0xbee93464	-0.45547783
111	0x3ed34997	0.41267082
112	0x3da14a0c	0.078754514
113	0x3f968fe3	1.1762661
114	0x3e3f99b1	0.18710972
115	0x3f02c702	0.5108491
116	0xc016f7fe	-2.3588862
117	0xbf2dd683	-0.67905444
118	0x3fa7492d	1.3069206
119	0x3f5de8f9	0.86683613
120	0xbf2e6ae6	-0.68131864
121	0xbea95304	-0.33071148
122	0xbf5e2850	-0.8678026
123	0xbedb3619	-0.4281471
124	0xbf8e11e0	-1.1099205
125	0xbb4e6022	-0.0031490405
126	0xbd08dbdb	-0.033412796
127	0x401879ef	2.3824422
128	0x3e9c3489	0.3050883
129	0x3e5b9a69	0.21445622
130	0x3f2035e3	0.62582225
131	0x3fcb47e2	1.5881312
132	0xbdc8b521	-0.098001726
133	0x3e2caade	0.16862056
134	0x3eed0fe5	0.4630119
135	0x3f1b64b0	0.6070051
136	0xbf7e25e3	-0.9927656
137	0xbed7546e	-0.42056602
138	0xbf91051c	-1.1329684
139	0xbfb67a74	-1.425612
140	0x3f94b4bd	1.1617657
141	0x3f2e1f74	0.68016744
142	0xbf17dfdc	-0.5932596
143	0x3ee7eb3d	0.4529666
144	0x3f3b6826	0.7320579
145	0x39e6e770	0.00044041453
146	0xbd974f54	-0.073881775
147	0xbff534f8	-1.915679
148	0x3f53948c	0.8264854
149	0x3f5dc09b	0.8662202
150	0x3f1723b7	0.5903887
151	0xbeab162c	-0.33415353
152	0xbf4713a5	-0.7776435
153	0xbf001835	-0.50036937
154	0x3f8b9d4b	1.0907377
155	0xbeecc3ac	-0.46243036
156	0xbf9c759f	-1.2223395
157	0xbea3b5bf	-0.319746
158	0xbd483aa2	-0.04888404
159	0xbf4ea46a	-0.80719626
160	0xbf80860b	-1.0040907
161	0x3e8d300f	0.27575728
162	0x3f70ddaf	0.9408826
163	0xbf2a2e51	-0.66476923
164	0x3e94b211	0.29042104
165	0xbee628ea	-0.4495309
166	0x3f2efb7a	0.6835247
167	0xbf7b4277	-0.9814829
168	0xbfa9d3ac	-1.3267722
169	0xbea99ff2	-0.3312984
170	0x3e6d9785	0.23202331
171	0x3f4db5ed	0.8035572
172	0xbe6b9aba	-0.23008242
173	0xbeb498db	-0.3527287
174	0x3f09bb2d	0.5380123
175	0x3e87ad06	0.26499194
176	0xbf0a78a4	-0.54090333
177	0x3f7b5fa5	0.98192817
178	0xbf64a64f	-0.89316267
179	0xbe03ced6	-0.1287187
180	0xbe724b71	-0.23661591
181	0x3e12be0f	0.14330314
182	0xbfe0cc80	-1.7562408
183	0xbf346103	-0.7046053
184	0xbf1678b2	-0.58777916
185	0x3f9c64a4	1.2218213
186	0x3f7e629c	0.99369216
187	0x3f4707d0	0.77746296
188	0x3f6a8e3d	0.9162329
189	0xbe96f36b	-0.29482588
190	0x3fa80a0c	1.3128066
191	0xbf9419b8	-1.1570349
192	0xbf255fc7	-0.6459927
193	0xbea81e81	-0.32835773
194	0x3fa43fc4	1.283196
195	0x3d37cd32	0.044873424
196	0x3e9a88e4	0.30182564
197	0xbe90f90c	-0.28315008
198	0x3e8fff62	0.2812453
199	0xbfc2f903	-1.5232242
200	0xbf4c226e	-0.79740036
201	0xbf143f0d	-0.5790871
202	0xbdb78bed	-0.089622356
203	0xbea032f7	-0.31288883
204	0x3ed8afcc	0.42321622
205	0x3f8dd4b6	1.1080539
206	0x3f49694c	0.78676295
207	0xbece10f4	-0.4024731
208	0xbebf31a9	-0.37342575
209	0x3f55a915	0.83461124
210	0xbfa730d8	-1.3061781
211	0xbea74d46	-0.32676142
212	0xbebfcbb0	-0.3746009
213	0xbf285234	-0.6575043
214	0xbeb3455a	-0.3501385
215	0x3fa42c85	1.2826086
216	0x3f58b814	0.8465588
217	0x3f508738	0.8145633
218	0x3fa1299e	1.2590826
219	0xbeb37af1	-0.35054734
220	0xbf5c31a6	-0.8601326
221	0x3dc84ab6	0.09779875
222	0xbf06a938	-0.5260196
223	0x3ec89c8c	0.39181936
224	0x3f53194c	0.82460475
225	0x3dc3911e	0.09549163
226	0xbf2f646f	-0.68512625
227	0xbf89f3fa	-1.0777581
228	0x3d8023ae	0.06256805
229	0xbeeb03cb	-0.4590133
230	0x3f02ef80	0.511467
231	0x3eeae05d	0.458743
232	0x3ce39a6f	0.0277836
233	0xbdb9e070	-0.09076011
234	0x3edaedb3	0.42759475
235	0x3eeafc69	0.458957
236	0xbdfd07a2	-0.123549715
237	0xbf5cdcc2	-0.8627435
238	0xbf20cb0a	-0.62809813
239	0xbf3d16c5	-0.7386287
240	0x3e848449	0.25882176
241	0xbf10dd67	-0.56587833
242	0xbeeef592	-0.4667173
243	0x3fab009d	1.3359562
244	0x3f7be92e	0.9840268
245	0x3fb3c00d	1.4042984
246	0x3f8fff76	1.1249835
247	0x3f142049	0.57861763
248	0xc0104022	-2.2539144
249	0xbf6d5a4a	-0.92715895
250	0xbf77f698	-0.9686065
251	0x3f326a7a	0.6969372
252	0xbeaad235	-0.333635
253	0x3edeecf9	0.4354017
254	0xbc5f8031	-0.013641403
255	0x3f06b237	0.52615684

critic.2.bias f4 [128]
0	0x3ec9e4ea	0.3943246
1	0x3ef4a956	0.47785443
2	0xbf3542f0	-0.70805264
3	0x3f3f1400	0.7463989
4	0xbed77a87	-0.42085668
5	0xbf0e8d4b	-0.55684346
6	0x3e55bd52	0.20873001
7	0xbf0617ef	-0.5238027
8	0xbf826933	-1.0188354
9	0xbf04a090	-0.518075
10	0xbfa7a66b	-1.3097662
11	0x3ee0da18	0.43916392
12	0xbc6b8532	-0.014375018
13	0xbeac33c6	-0.3363325
14	0xbf91946d	-1.1373421
15	0x3ed161be	0.40894884
16	0xbe4180b8	-0.18896759
17	0x3f4e3fa3	0.8056585
18	0x3c9876da	0.01861136
19	0xbf83edb7	-1.030692
20	0xbe5f24d1	-0.21791388
21	0x3da5f556	0.08103435
22	0xbf99a0ad	-1.2002159
23	0x3f374cc3	0.71601504
24	0x3dd10437	0.10205882
25	0xbc38a10e	-0.011268867
26	0xbf86f12d	-1.0542351
27	0xbf157402	-0.5838014
28	0xbf18f4fc	-0.59748816
29	0xbee7d26f	-0.45277736
30	0xbeb19892	-0.34686714
31	0x3e808f5e	0.2510938
32	0xbf0b6413	-0.54449576
33	0xbf07e9c7	-0.5309109
34	0x3c3e1448	0.011601515
35	0x3e0e2290	0.13880372
36	0xbf5a7798	-0.85338736
37	0x3f135407	0.5755009
38	0xbe8e5300	-0.277977
39	0xbe593d3e	-0.21214768
40	0x3ee1ff7c	0.44140232
41	0xbdad393e	-0.08458184
42	0xbf2ad76b	-0.6673495
43	0xbcf5704e	-0.029960778
44	0x3e316bf1	0.17326333
45	0x3d826fa3	0.06368949
46	0x3ecad9d0	0.39619303
47	0xbe60cb26	-0.21952495
48	0x3f554b59	0.83318096
49	0x3dd5d41a	0.10440846
50	0x3e855afb	0.26045975
51	0x3da523ff	0.08063506
52	0x3e2751a0	0.16339731
53	0x3d49eada	0.049296238
54	0x3e27980f	0.163666
55	0x3ea53f8f	0.32275054
56	0xbf1e0708	-0.6172948
57	0x3eb2762c	0.34855783
58	0xbe9b7592	-0.30363137
59	0xbebf7fd1	-0.37402204
60	0x3e7c0121	0.24609806
61	0x3f02aeaa	0.51047766
62	0xbd7908db	-0.06079946
63	0xbfb3ff0c	-1.4062209
64	0xbeca41dd	-0.39503375
65	0xbe6b5a8a	-0.22983757
66	0x3e547c84	0.20750624
67	0xbec3407d	-0.38135138
68	0xbd8b55e5	-0.068034925
69	0x3e1d2efe	0.15349957
70	0xbed658e0	-0.4186468
71	0x3e358139	0.17725076
72	0xbe8986d8	-0.2686069
73	0xbf5e7a3f	-0.8690528
74	0xbf6f5c16	-0.93499887
75	0xbebe1328	-0.3712399
76	0x3f54d294	0.83133817
77	0x3f3def3c	0.7419317
78	0xbf3e92d8	-0.74442816
79	0x3fb25abb	1.3933939
80	0x3eb743f3	0.3579403
81	0x3d351ca9	0.044216786
82	0x3de2bb61	0.11070896
83	0xbea6fe30	-0.32615805
84	0xbe911d32	-0.28342587
85	0x3f11fd40	0.57027054
86	0xbf1858f4	-0.5951073
87	0x3ec0c3e4	0.37649453
88	0x3f1a5d31	0.6029845
89	0xbea37011	-0.31921437
90	0xbef8eda6	-0.4861881
91	0xbf506164	-0.81398606
92	0x3e2d3847	0.16916
93	0x3f83645b	1.0265001
94	0xbf1b106f	-0.6057195
95	0xbeb48071	-0.35254243
96	0xbe3e4bbd	-0.1858358
97	0x3ec025d1	0.37528852
98	0xbd5be1f8	-0.053682297
99	0xbd3c9e24	-0.046049252
100	0xbea77011	-0.32702687
101	0x3ef1560e	0.47135967
102	0xbc99cd2c	-0.018774591
103	0x3d751242	0.059831865
104	0xbe980034	-0.29687655
105	0x3e39bcc3	0.18138413
106	0x3e90287b	0.28155884
107	0xbbc2658c	-0.0059325155
108	0x3f5c2f43	0.86009616
109	0xbc888f58	-0.016669914
110	0xbf2e7cb8	-0.68159056
111	0x3e3d0c1c	0.1846165
112	0x3e9f6f30	0.31139517
113	0x3e080159	0.13281764
114	0x3f198293	0.59964865
115	0xbd333a60	-0.043756843
116	0x3f0d1a46	0.55118215
117	0xbf7054ed	-0.93879586
118	0xbb3d3389	-0.0028869829
119	0xbf137882	-0.57605755
120	0xbc4822ca	-0.012215326
121	0xbdfdb61f	-0.123882525
122	0xbf49ef8b	-0.7888114
123	0x3df84189	0.12121875
124	0x3eb1057f	0.34574506
125	0xbea9419b	-0.33057866
126	0xbe61aacc	-0.2203781
127	0xbe92e6de	-0.28691763
