examples/drone/logs/fig-eight-5000/model_2600.pt (torch, 474978 bytes, 36 tensors)

std f4 [4]
00000000: 99ae 083e d1a6 093e 4b96 033e b91c 8d3d
0.13347854 0.13442542 0.12850301 0.06890244

actor.0.weight f4 [128, 17]
00000000: 2ed9 0240 3dc6 d8c0 38b7 7bc0 0818 b83e
00000010: f9f3 273f b930 4bbf b878 03bf a841 903f
00000020: cf42 18be 9927 323f 61be 98be 6115 aa3e
00000030: 9c7c 0fbd 55b7 0dbe 18d6 a03d 01a0 21be
00000040: 6fcf ba3d b567 f1bf 88c8 a83e 62e5 93c0
00000050: 3721 b13e eccb 553f a541 a7bf 948d 31bf
00000060: 7b72 68bf f2cf 91bf fb98 1f40 967d 383e
00000070: 760f 09bf f10c 863e 1785 4bbd 85a7 7dbe
00000080: 4169 0cbe b778 8c3d 7d73 80be 23d5 02c0
00000090: 71ff 68c0 7fe7 863e e7be dabf d44b f23e
000000a0: 5d93 9cbe d400 343f bcb7 2a3f 2322 813e
000000b0: b950 7c3d 6b75 1d3e de22 883e 32f3 c0bd
000000c0: a9e8 b5be 65a7 42be 3543 7abd bae9 8c3f
000000d0: 4beb 19bf c7d0 8040 0e71 0abe 03b0 43bf
000000e0: 551e b0bf 13b8 693f 61ad 09bf fa80 3dbe
000000f0: 1cac 92be 4c69 963e 0f34 a4be 6fb8 c73e
00000100: ef35 7c3e 1845 053e 8f5c 5dbd fe58 4c3d
00000110: 2e95 2940 4387 2840 8a6c da3e da91 d3bd
00000120: 6451 2a3f 7cb6 4c3e 574b 3a3f a103 a83d
00000130: e884 80be 5a93 573f 1b67 e1bd 39df 443f
00000140: 6574 2c3e 3bb4 24be e320 5f3c b625 23bb
00000150: 1994 41bb 45bf de3e eed3 81bd 7557 2cc0
00000160: bed1 163e 9b74 11c0 a1da 1540 2bdd 8abf
00000170: 9365 44be e77a 14be d3d9 d83e 42ba 96bf
00000180: 603b 8c3d c6d3 0bbe da16 b03b 5f76 1dbe
00000190: 738c 5b3d 4a38 f5bd 31c6 8cbe 5124 04bf
000001a0: e173 1bc0 6357 4d3d 0fe3 a2bf 9eac e83f
000001b0: cfe0 3abf b351 81bd a8dc 393d 5ca5 733e
000001c0: 171a 49be d33f 87bd ee26 d23c fb1c 90be
000001d0: 5581 88be ddb0 dc39 0ae3 113e fcf9 a53f
000001e0: bd00 db3f 75bd 8040 d970 30be ac15 16c0
000001f0: 8d6c 0ec0 7a50 0340 cbc7 f2be 664f 873f
00000200: 3332 f1be fa54 d3be d1bb c7be 31da 0bbe
00000210: 1f64 d5bd 54cf a3bd b793 933d 9405 31bc
00000220: 7d9a 7c3e 5192 19bf 52a8 27c0 ff31 393e
00000230: 7696 06c0 693d fbbf dd59 1ebd 59f9 79bd
00000240: 4644 d9be 7631 ce3e bdd1 32bd c8ba 6abe
00000250: d7a2 24bd eb3c 45be 8f36 a9be 1959 bcbc
00000260: 503b 203e 46d8 95be 24d7 50c0 866c 4fc0
00000270: 0519 cb3e d72b bfbf e486 c43e a807 4ebf
00000280: c763 a6bf 3347 c63e 51a2 3d3f 9610 d23e
00000290: dbb0 d23d ff52 9ebe d33e 223d f3a4 20be
000002a0: 2af7 1abe 75aa 37bd 95ec d240 5afd ad40
000002b0: b5d7 95bf 6f14 b23e b6d1 b1bb 7ba3 0ebf
000002c0: 7fde 70be d9fb d93e 1378 b7bf 1a6f e13e
000002d0: 2f03 2b3e a4c0 523e 54b4 96bd 5264 c1bd
000002e0: 4128 403d c9ef 7e3d 12ad 353d 73da b03f
000002f0: 4d0c 803f eca5 2e3e 3893 983e 88eb d5be
00000300: aa8d d2be 1c30 373f 9e90 24bf 0674 11bf
00000310: 90cf 65be d4ed 46be d291 25bf 852a 873e
00000320: 473c 53be 7768 753d f2ac 99bd b5ce 1abe
00000330: ae0b f43d 59e9 afbe c987 47c0 9d26 3dbd
00000340: a59e 1a40 6c2f 503f 0a45 68be c73f 42bf
00000350: 013b 8e3e 8427 a13e a032 413d 1f24 d33e
00000360: 2330 8dbf 13d2 f53c 3588 123d 2868 b73d
00000370: f926 e4bd 35be ec3c d1f2 acbf 2e12 00c0
00000380: c54a f23e c252 0cbf 51bc 17bf 3938 643f
00000390: f519 373d aef9 e53e eb1f d23d 212e ccbe
000003a0: cc86 98be b31e 893e 94d7 a43c 3b23 47bd
000003b0: a7e7 a4be e5d2 f8bd 61c4 9cbf dbbb 893f
000003c0: 360c 2040 e318 d9be 0c8a af3f 40fa a23f
000003d0: 6d95 2fbe 2042 053f 56d5 7cbd 15d0 debe
000003e0: e800 bb3e 2d76 ad3e 9bda 933e d8ab 11bd
000003f0: 6cc5 193e b107 f4bd 6506 ec3d 1b45 c63f
2.0445056 -6.774199 -3.9330578 0.35955834 0.6560665 -0.7937122 -0.5135608 1.1270037
-0.14869235 0.6959167 -0.29832748 0.33219436 -0.035030946 -0.13839467 0.07853335 -0.15783693
0.09121596 -1.8859774 0.32965493 -4.621751 0.34595653 0.83514285 -1.3066908 -0.69356656
-0.90799683 -1.1391585 2.4937122 0.18016657 -0.53539217 0.26181749 -0.04968747 -0.24770935
-0.13712026 0.06858962 -0.2508811 -2.0442588 -3.640591 0.26348493 -1.7089509 0.47323477
-0.3058118 0.70313764 0.66686606 0.25221357 0.06160042 0.15376823 0.26589102 -0.09421386
-0.35529068 -0.19009168 -0.06109925 1.1008828 -0.60124654 4.0254855 -0.1351969 -0.7644045
-1.3759257 0.912965 -0.5378018 -0.18506232 -0.28646934 0.2937721 -0.32070968 0.390079
0.24629949 0.13014638 -0.05404335 0.049889557 2.6497302 2.6332557 0.42660934 -0.10330553
0.6653044 0.19991487 0.7277121 0.08203817 -0.251014 0.84209216 -0.11005994 0.7690311
0.16841276 -0.16084377 0.013618681 -0.0024894304 -0.0029537736 0.43505302 -0.063392505 -2.692838
0.14728448 -2.272742 2.341469 -1.0848745 -0.19179372 -0.14500009 0.42353687 -1.1775591
0.068472624 -0.13655004 0.005373818 -0.15377186 0.05360074 -0.11973627 -0.27494958 -0.51617914
-2.4289477 0.050132167 -1.2725543 1.8177679 -0.7299928 -0.06314411 0.04537645 0.23793548
-0.19638859 -0.066039704 0.025653329 -0.2814711 -0.26661173 0.00042093443 0.14246765 1.2966914
1.71096 4.023127 -0.17230548 -2.3450727 -2.2253754 2.051787 -0.47418055 1.0571105
-0.4710861 -0.4127577 -0.3901048 -0.13657452 -0.10419487 -0.07998529 0.07205909 -0.010804553
0.24668308 -0.59988886 -2.6196485 0.18085478 -2.1029334 -1.9628116 -0.03865992 -0.061028812
-0.424349 0.4027211 -0.043657053 -0.22922814 -0.04019436 -0.1926152 -0.33049437 -0.022991704
0.15647626 -0.29266566 -3.2631311 -3.2409987 0.39667526 -1.4935254 0.38384163 -0.8048043
-1.29992 0.38726196 0.740758 0.4102828 0.10287639 -0.30922696 0.039610695 -0.15687923
-0.15133348 -0.044840295 6.5913796 5.4371767 -1.1706454 0.34781215 -0.005426611 -0.557182
-0.23522376 0.42574957 -1.4333519 0.44030076 0.16700433 0.20581299 -0.073586136 -0.09442963
0.04691339 0.062240396 0.044354506 1.3816665 1.0003754 0.17055482 0.2979982 -0.4178126
-0.41123706 0.71557784 -0.6428317 -0.5681766 -0.2244246 -0.19426662 -0.6467563 0.26399627
-0.20628463 0.05991408 -0.0750369 -0.15117915 0.1191629 -0.34357718 -3.1176627 -0.046179403
2.415933 0.8132236 -0.22682586 -0.75878567 0.2777939 0.3147546 0.04716742 0.41238496
-1.1030315 0.030007398 0.03577443 0.08955413 -0.11140246 0.028899292 -1.3511602 -2.0011096
0.4732267 -0.5481378 -0.59271723 0.8914829 0.04470249 0.44917053 0.10259994 -0.39878944
-0.29790342 0.26781234 0.020122327 -0.048617583 -0.32207987 -0.121496 -1.224743 1.0760454
2.5007453 -0.424018 1.3714004 1.273262 -0.17146845 0.52054024 -0.06172689 -0.4351813
0.3652413 0.33879223 0.2887772 -0.035564274 0.15016717 -0.119155295 0.11524657 1.5489839

actor.0.bias f4 [128]
00000000: c422 dcbd f132 a33e c91f aa3c b042 bb3d
00000010: f02a 36bc 3a26 7b3c a18d 5f3d 49b6 adbe
00000020: 4041 6a3d c5db 4dbe 7871 e4bd c7ee f13d
00000030: bcc1 32be 8c73 5ebd 53be 173e ecf5 2b3e
00000040: 5bb4 56be 2989 34be fbbd e1bd 4502 67bd
00000050: ebd6 b23d ef7b e33d f1d4 b8bd af53 1d3e
00000060: 35d7 a73d 78bf 2ebb 7e80 ed3d 11d9 58bd
00000070: 9a35 9b3e 4bce 4abe 629c 5e3e 08fb e63d
00000080: 1b0a 5fbe 3240 e1bd a6ff 18be 6d41 58be
00000090: d61c b9bd 058f a7bd 867f 02bd 196a 89be
000000a0: 00c9 073e 5a30 823e 8c48 28bd f2da b3bd
000000b0: 14b5 1f3e b207 0b3e f80b 24bd 490e 02be
000000c0: 7d19 3d3e 7f7c 44be 00e1 3b3e 3012 a0bd
000000d0: 9819 6d3e f0ea 173e c6fd 873d 49b1 873e
000000e0: 9394 21be 6208 39be fc3d 7bbe 22a7 383e
000000f0: ff1d 69be bbfb 323e 9c15 81be 4980 07be
00000100: 3adb 7e3d b7cc 9bbd 9042 11be e151 563d
00000110: ab2a 86bd 34ea 5abc db9c e53d 30b7 033b
00000120: f07f 15be f337 67bc 67df f3be 7ac2 b2bd
00000130: a151 c9bd 2cb4 3cbd f301 04bc d36b 5d3e
00000140: 2ea1 21bc ff70 5a3e 1722 13be d7f8 a6bd
00000150: 2873 1fbe 3495 3abe e1ba 9c3e c66e 143e
00000160: d910 ba3d 8599 84be f13a 273e 557c c1bd
00000170: 8149 21be 0cff 4abd d212 ab3e dd68 85be
00000180: e6c6 29bd 3ce7 f73d b46a 11be 1d9e 3a3e
00000190: 2a21 83be 3a2f ddbd 05c6 323d 0426 06be
000001a0: b334 203e aa08 bfbb a01f 693d 5494 383e
000001b0: 0f31 a8bd 1c41 19bd deef 3e3d df04 e8bc
000001c0: 6179 883c 40b2 ff3c 423b b53e df85 08bd
000001d0: 5817 abbe 3596 62bc 79e6 41bd d484 aabd
000001e0: 7b92 6e3e ee51 96be 6c59 45be fc19 46bd
000001f0: 2c9e 9fbe 94ce 383e a889 8d3e 6473 883c
-0.107488185 0.31874803 0.02076711 0.09143579 -0.011118636 0.015328938 0.054578427 -0.33928135
0.057191133 -0.20103367 -0.11154455 0.11813121 -0.17456716 -0.054309413 0.14818697 0.1679303
-0.20967238 -0.17630447 -0.11022564 -0.05639865 0.087323986 0.11107623 -0.0902499 0.15363954
0.08195344 -0.0026664417 0.115967736 -0.052941386 0.30314332 -0.19805257 0.21739343 0.11278349
-0.21781199 -0.109985724 -0.14941272 -0.21118708 -0.09038703 -0.08181576 -0.031859897 -0.2683876
0.13260269 0.25427514 -0.04108481 -0.08781995 0.1559642 0.13577154 -0.040050477 -0.12700762
0.18466754 -0.19188116 0.1834755 -0.07815969 0.23154294 0.14835715 0.066402 0.26502445
-0.15779333 -0.18069604 -0.24535364 0.18032506 -0.22765349 0.1747884 -0.252118 -0.1323253
0.06222079 -0.07607406 -0.14185548 0.05232418 -0.06551107 -0.013361502 0.112115584 0.0020098202
-0.14599586 -0.01411246 -0.4763138 -0.087285 -0.098300226 -0.046070263 -0.008057105 0.21623163
-0.009865088 0.21332167 -0.14368473 -0.08152931 -0.15571272 -0.18220979 0.30611327 0.14495382
0.09085245 -0.25898376 0.16331078 -0.094475426 -0.15750696 -0.049559638 0.33412796 -0.26056567
-0.04144945 0.12104651 -0.1420086 0.18224378 -0.2561124 -0.108000234 0.043645877 -0.1310044
0.15645103 -0.0058298903 0.056914926 0.18025333 -0.08212482 -0.03741561 0.046615474 -0.028322635
0.01665944 0.031212926 0.35396773 -0.033330794 -0.33416247 -0.013829757 -0.047338936 -0.08326116
0.23298065 -0.29359382 -0.19272393 -0.048364624 -0.31175363 0.18047553 0.27644086 0.016656585

actor.2.weight f4 [128, 128]
00000000: d843 bdbf a8cc fe3e c0ae 9fbd 79cb e1be
00000010: 059e 4bbf a804 cabe bd02 c93e a467 64be
00000020: a809 893f 0771 cdbe d761 bcbf c06d 36be
00000030: 2ade 00bd 5508 1bbf 15c2 04bf f82b 04bf
00000040: f682 40be e29d 1d3f e79d f7ba db44 143f
00000050: 223f 8dbe 32b2 303f 9dcb 803f cc4b f6bd
00000060: 4725 d9bd 5b12 743c c71f 9f3d a833 cd3e
00000070: 3dd6 9d3e 600c a23d 141a 623e a9cb b73e
00000080: 5799 2b3e e6ac 3b3d 3014 463e dbba 7fbe
00000090: b4cf 163f 9a93 5fbe cc72 a8be a48b 13be
000000a0: d454 863d c2aa e73e d2e3 f83e 7eef 82be
000000b0: ee5d debe 8f82 86bd 2f75 ff3d 25c3 653d
000000c0: 4803 363e c54c 333e e4c2 313d dafe 9a3e
000000d0: a85e 573e 0f01 b9be 3938 d7bf bf16 5fbe
000000e0: 0bdb 2a3f 9adf 9e3f 7d30 d1be 080c 653f
000000f0: e928 b8bd e4cd 143f 9d22 1a3e 4c7b 353d
00000100: 9744 043f cb22 52be c53b a9be 1d73 b3bf
00000110: eb90 b93e 9d03 ee3c fc95 9a3e 9482 c0be
00000120: fff2 15be 115b acbe 899d bdbe bf3e 54be
00000130: df76 093f b41a febf 22f5 5f3e c352 58bf
00000140: a837 8ebf 09a4 19be 039a 0f3f b6aa b5be
00000150: 6c5c b7be 2cfb b8be e6c7 bdbe 7786 9b3e
00000160: 5321 373f 39b2 86bf 63a6 24bd 8079 813e
00000170: 1b06 f3be c522 b9be c771 663f 420f c03d
00000180: db06 f0be d00c 61bf 885f c03e 36c3 14be
00000190: f753 a53f a43f c6be 4d23 0cbf 8152 ed3e
000001a0: 6664 573f d58c fbbe efd5 0e3f b87f 84be
000001b0: 886c 3c3e e5ae 47be a027 95be 8260 213f
000001c0: af01 533d 60ed b73e bc0b b1bd b60a dc3e
000001d0: bbdc 903e d80b 43be d008 923e 28dd ae3f
000001e0: fb03 c5be 3742 19bd f69c 6d3f c80d a5be
000001f0: 0fb9 e2bd e8d2 c3be 7d80 29be dcf9 593f
00000200: 0788 98bd 2688 8fbd beb9 033e c743 f0bd
00000210: 5567 27be 7260 08bd dfa5 b7bd f05f 96bd
00000220: 1ce7 6d3c 9964 113d 5027 3d3d 2fea f13c
00000230: eae8 a2bc 59ce abbd 9cfc 293c 8ea2 adbd
00000240: cc83 ff3c 32a0 103c 9afb 23be ad0f e93d
00000250: 860f ddbd d311 273e ce46 d2bc 1756 d3bb
00000260: e952 f83c adee 2cbe b79f 893d 2e61 bbbd
00000270: 1cff 89bd 9aec 83bc 06e1 84bd 6244 8dbc
00000280: 1642 e0bd d29a e63c 159a a1bd 31a5 e6bb
00000290: de41 e6bd b01b 08bd 2be5 60bd 7c0b c43c
000002a0: c77a 133d f1a6 14bd bc12 b1bd c605 913d
000002b0: 4d83 adbd 91e8 54be db23 003e bb97 fabc
000002c0: a657 b43d c5dc 9d3d 7467 51bd d5fc 343c
000002d0: 9b58 7ebd 6d38 d23d e2eb d53c cf57 3b3d
000002e0: 2f21 aebd ced0 33be 73cc fd3d 190c ad3b
000002f0: 1730 3fbe 89e3 06bb 0da7 23bd 133a 62bc
00000300: 4d55 1abd adc5 15bd 4713 e4bd d6d6 8cbd
00000310: 13b9 5c3e 3fab 4dbd e024 373c ec24 793c
00000320: b86c 0fbd 82a6 e33d 100e 843c fdad 39be
00000330: 4d4d 35be f6e7 5ebc 205f 46bd ef41 053e
00000340: 990e 2b3c 61ab e9bd 1dbd 403c b0f2 8ebd
00000350: cc56 2f3d ad01 1bbe b407 f8bb 76c0 2d3d
00000360: 023c f53b 921d b53d b9a8 893e 9fb5 2bbe
00000370: 7f63 153d d8e5 263e cc23 e83c 4b03 9f3b
00000380: 6c32 75bd 88bf 853c 3278 073e 9262 07be
00000390: 0509 a1bc 469f 4d3c c07c ddbd ac8c bcbd
000003a0: 056c 913d 765d 5d3b 4583 1abe 16a7 fe3c
000003b0: 0be8 9cbd ceef 49bc dded 1cbd a287 03bd
000003c0: de48 f9ba 9b3b 863d 662a 0e3d 604a 68bd
000003d0: e11b df3c ffac 9cbd 2211 973d f4b0 803d
000003e0: 9400 ac3d d97c 083e 5e37 023e 5bce 9ebd
000003f0: 757a a13d b536 153e 3502 0dbd 7fa1 aa39
-1.4786329 0.49765515 -0.07797003 -0.4410055 -0.79537994 -0.39456677 0.39259902 -0.22305161
1.0706072 -0.40125296 -1.4717358 -0.17815304 -0.031461872 -0.6055959 -0.51858646 -0.5162959
-0.18799958 0.61569035 -0.0018891663 0.57917565 -0.2758723 0.69021904 1.0062138 -0.12026176
-0.10602813 0.014896954 0.07769733 0.40078473 0.30827513 0.079125166 0.2208026 0.35897568
0.16757713 0.045819186 0.19343638 -0.24973623 0.5891068 -0.2183365 -0.32900083 -0.14408737
0.065591484 0.45247465 0.48611313 -0.25573343 -0.43431038 -0.06567871 0.12473523 0.056094307
0.17774689 0.17509754 0.043398753 0.3027256 0.21032202 -0.3613362 -1.6814033 -0.2178602
0.66740483 1.2411988 -0.40857306 0.89471483 -0.08992178 0.58126664 0.15052266 0.04430704
0.5166716 -0.20521085 -0.33053413 -1.4019505 0.36243376 0.029054457 0.30192554 -0.37599623
-0.14643477 -0.33663228 -0.37034252 -0.2072706 0.5369701 -1.9851899 0.21870854 -0.84501284
-1.1110735 -0.1500398 0.5609438 -0.35481805 -0.358127 -0.3612913 -0.37066573 0.30376026
0.71535224 -1.0523139 -0.04019774 0.2528801 -0.47465596 -0.3615934 0.9001736 0.0937791
-0.4688023 -0.87910175 0.37572885 -0.14527592 1.2916249 -0.3872043 -0.54741365 0.46352008
0.8413757 -0.49130884 0.55795187 -0.25878692 0.18400776 -0.1950031 -0.29131794 0.63037884
0.051515277 0.3592329 -0.08644816 0.42976922 0.28293404 -0.19047487 0.28522348 1.3661242
-0.384796 -0.037416663 0.9281763 -0.32237077 -0.110704534 -0.38246846 -0.1655292 0.8514688
-0.0744782 -0.0700839 0.12863824 -0.117316775 -0.16348012 -0.033295102 -0.08967184 -0.073425174
0.014520433 0.035496328 0.04618007 0.029530613 -0.019886453 -0.08388967 0.010375168 -0.084782705
0.031190775 0.008827256 -0.16013947 0.11379943 -0.107939765 0.16315393 -0.025668528 -0.0064494717
0.030312972 -0.16887923 0.06719916 -0.09149395 -0.067381114 -0.016104031 -0.06488232 -0.017244522
-0.10950105 0.028149996 -0.07890717 -0.0070387353 -0.11243032 -0.03322953 -0.05490605 0.023931257
0.03600576 -0.03629202 -0.086461514 0.07081179 -0.08472309 -0.20791842 0.12513678 -0.030589929
0.0880578 0.07708124 -0.05112405 0.011046608 -0.06209622 0.102646686 0.026113454 0.045738038
-0.08502423 -0.17560121 0.12392511 0.005280983 -0.18670689 -0.00205824 -0.039954234 -0.013807791
-0.037679005 -0.03656547 -0.11136489 -0.06876914 0.21554975 -0.05021214 0.011178225 0.015206557
-0.03501579 0.11115743 0.016119987 -0.18132778 -0.17705269 -0.0136051085 -0.048430562 0.13013433
0.010440492 -0.11409641 0.011763838 -0.06979883 0.042807385 -0.15137358 -0.0075692777 0.042419873
0.00748396 0.08843531 0.26886538 -0.16768502 0.03647184 0.16298616 0.028337382 0.0048526875
-0.05986254 0.01632668 0.13229445 -0.13221195 -0.019657621 0.012550181 -0.1081481 -0.092065185
0.07100681 0.003377763 -0.15089138 0.031085532 -0.07661446 -0.01232524 -0.03831278 -0.03211177
-0.0019018908 0.065543376 0.034708403 -0.056711555 0.027234973 -0.07650184 0.07376315 0.06283751
0.08398548 0.13328876 0.12716433 -0.07754203 0.07884685 0.1457165 -0.034425933 0.0003254525

actor.2.bias f4 [128]
00000000: 9dd2 24bd 3296 3abd f006 053e 7be6 13bd
00000010: 20de d9bc cf0d 893e 5fb0 883d 81aa 323e
00000020: c040 0d3f d737 723f e98c ae3c 1f4a a0bc
00000030: 52d3 1fbe dc9e e53d 86d2 313e f8ac 64bd
00000040: 3db6 a1bd 866f ccbe e472 e53b 51d1 62be
00000050: d432 86be 4ed3 d4bc 7315 a6be 14eb 643d
00000060: c5d5 e4bd f7d0 71be 37ac 183d 287b 053d
00000070: bee0 b73d 8ae0 2a3e cd92 f73b 1b1a 65bd
00000080: cee5 cb3d 6d37 f1bc 53f7 5abd efed b5be
00000090: 2e1e 323c fcf7 fb3d 323d 873e eecb 3b3d
000000a0: cd3f 7f3c 3858 743e cf1f 9d3c a5bc 813d
000000b0: 7f12 8b3d a861 bc3d c299 9d3d a1cc 083d
000000c0: 133a c83d a7f9 a6bd fb41 c43d 47af 11bf
000000d0: 369b 30bc bbdf 1d3d ce5c 763e 6fa9 f1bd
000000e0: 2170 5d3d a5dc 54bf 98c0 64bd 8a87 a43e
000000f0: b4be 223f 4aac 99bd 7ea4 da3e b24f a33c
00000100: f704 353d 8187 1c3d e57e f7bd ddeb eb3c
00000110: f6e3 f9be 0bdf 06bc ccc3 4bbc 3579 08bd
00000120: 3a9c 0bbe 4682 bb3e abcd 023e 6242 e63b
00000130: c1e8 b93e 87f8 8b3d 42b7 b4bc 740a adbd
00000140: 0274 e73c cfee 953c 70b8 c5bd eb0e 463d
00000150: fedd 283d 818d 7e3d 9273 233e 7de8 9b3d
00000160: ef5d 30bf fb21 a63e e5c2 90be 5a89 c2be
00000170: 9304 723e 85d1 c2be 96ad aa3d e208 96bd
00000180: 7e2b e7be 4358 8f3d 908f b7bd c3ad 0f3c
00000190: dc33 f2bd 134f d73d cb33 803d 7ec5 54bd
000001a0: 159a b5bd 1a8d 28bf 6bb7 01bd 65dc a1bd
000001b0: 8e52 56bd 96ee 363e b5c2 363d cbf0 9ebc
000001c0: 159c 03bd 4e30 adbd b33a b8bd dde7 71be
000001d0: c48c cb3d 154e 3dbc fec5 a73c ba24 b13c
000001e0: 4f19 8f3d 4b35 77bd 9ba8 363c 8c7a 2bbe
000001f0: 8510 8a3c 07f1 733c c87e 883c 24bd 6ebe
-0.04023992 -0.045553394 0.12990928 -0.036108475 -0.026595175 0.26768348 0.06674265 0.17447855
0.55176926 0.94616455 0.021307426 -0.019566594 -0.15607956 0.11211941 0.17365465 -0.05582902
-0.07896087 -0.39928836 0.0070022214 -0.2215016 -0.26210654 -0.025979664 -0.3243824 0.05588825
-0.11173586 -0.2361487 0.037273612 0.032588154 0.08978413 0.16687217 0.007555342 -0.0559331
0.09955941 -0.029445374 -0.053458523 -0.3553309 0.010871453 0.12303159 0.26413876 0.04584878
0.015579176 0.23861778 0.019180207 0.06334809 0.06790637 0.09198314 0.076953426 0.033398274
0.09776702 -0.08153086 0.09582897 -0.56908077 -0.010779193 0.038543444 0.2405884 -0.11799895
0.054062013 -0.83149177 -0.055847734 0.32134658 0.6357224 -0.07503565 0.42703623 0.019935463
0.044194188 0.038215164 -0.1208475 0.028798992 -0.48806733 -0.0082318885 -0.012436818 -0.033318717
-0.13633814 0.36622828 0.12773769 0.0070269564 0.3631039 0.06834512 -0.02206004 -0.084492594
0.028253559 0.01830235 -0.09654319 0.04835407 0.041227333 0.062146667 0.15962055 0.07612703
-0.6889333 0.324478 -0.28273693 -0.37995416 0.23634557 -0.38050476 0.0833389 -0.07325913
-0.4515037 0.069992565 -0.08962929 0.008769455 -0.11826298 0.10513129 0.06259879 -0.051946156
-0.088672794 -0.65840304 -0.03166906 -0.07903365 -0.052324824 0.17864451 0.04461928 -0.019401928
-0.032131273 -0.08456479 -0.08995571 -0.23623605 0.09938958 -0.011554261 0.020480152 0.021623958
0.06987249 -0.06035356 0.011148597 -0.16745967 0.01685358 0.014889008 0.016662017 -0.23314339

actor.4.weight f4 [4, 128]
00000000: 3cd8 223b 66ff cfba 0a3a a7bd 4226 8f3a
00000010: 9af5 733d 376e e93d 0d45 05bb ccf7 1dbe
00000020: 10ce 9ebd 9d64 1dbd ac15 86ba 5b43 5d3b
00000030: 206a 093a dbe5 963a ab6d f43d a18b 743d
00000040: 4b09 ecba a02b cbbd 896b 9638 d071 353e
00000050: 5245 a9bd 4d7b 5e3a 11a3 24be 91a4 93ba
00000060: ba4b 6a3d 95a2 fa3c 5925 59bb 19aa 733a
00000070: 2781 993a 8b3a 6abd 27cc b83d 079f d1ba
00000080: 7524 b23b f419 c8ba acd8 53ba 79d2 d9bd
00000090: 71be e03a a213 f3bd 4075 06bd e973 b8ba
000000a0: 3839 3b3b 112b 023e 8969 62b9 d1f9 763a
000000b0: 2abe 543c 1e55 eb3d 27b3 15bd 6283 083b
000000c0: 5c91 853c dfd5 f73d af86 00be 9a1d c6bd
000000d0: a338 0fbb 1aa7 f93d 1323 02bd 6c26 923a
000000e0: 48fe dc39 1f91 ebbd a673 4b39 cb62 443d
000000f0: 7035 d1bd a319 d93a 7051 05bd 621d eb39
00000100: e30c 89ba cae4 e03a 2afb 7eba 2468 003b
00000110: 7bd3 2cbd f68b 16ba 3ab8 7cbb c6fa 7c3a
00000120: 3b24 273b 313d 31bd ce14 80ba 41cd 1d3c
00000130: b500 d03d 791d 663b ad9f 27bb f688 aabc
00000140: 2a6c 20ba 8430 b0ba 816b 823b 756e 87ba
00000150: 499e f03a 25ea 8bba 8168 43bd 02f2 b13a
00000160: b0f6 8f3d 6a46 053e 59b7 febd 67ac 4bbd
00000170: 3b43 283e 6a3f 8cbc 1dc6 fa39 6897 02bb
00000180: 019e c93c 3cb4 d0ba aed9 53bb e876 2dba
00000190: 5612 85ba e117 9dba 51d4 44b9 0909 5b3b
000001a0: 9153 09bd 1d09 45be c908 b23a 770d e03a
000001b0: 06b1 a5ba 93c0 5ebe 3eb4 43bb 9d18 0b3d
000001c0: d3ab 2b3b 69a7 99ba e5f0 683b 078f 88be
000001d0: b9a9 2fba 33a5 293b 4ce8 623a a2a5 393a
000001e0: c303 363c e528 3f3a e529 1a3b 8520 063d
000001f0: 78c9 153a 91ee a9bd b41c f53a 4b86 38be
00000200: f354 ecbd 5a7c a33a 854c 293e 198e 69ba
00000210: cdb1 a4be f57e 833d e53b 37bb 67e0 d43c
00000220: 9134 55bd 95c5 de3d 0e5a feba 6260 5dba
00000230: c8c0 0b3b b97c 263b e308 acbd 8bb3 5fbe
00000240: ecfa 213b b1f2 39bf bd24 693a b0aa af3d
00000250: 8564 393b 6690 5b3b c7a1 8ebd 98a1 dab9
00000260: 5f02 94bd 0709 a5bd 254a 45b9 ad01 803a
00000270: 0128 e6ba 6932 a43c 5600 9cbc 532c cd39
00000280: c576 7a3a 28c7 f4b9 4831 e5ba bc20 0ebc
00000290: a51f 873a 7e4c 193d 3bb1 be3e 1355 d73a
000002a0: 00c1 c2ba 46e5 233d b47a 803a c336 6139
000002b0: 7c62 c13e 5772 673b bd8d 733d 17d5 0cbb
000002c0: 0745 06bd d068 da3d f7c2 ef3c 49de 50bd
000002d0: 71e1 083b 6c8c 47bc 9d49 843e 48db 94ba
000002e0: 7a94 f63a 332c 573d 5c4b e7ba e58a 853c
000002f0: 9278 94bd 85a7 ebba 79c2 583e 0d30 a53a
00000300: d663 0b3a 2c63 33ba ce30 04ba 6419 603b
00000310: e716 903d c294 c83b cf10 6fbb a38e 55ba
00000320: 05c7 09ba 597e 9fbd 571d 113b e1e3 243e
00000330: e300 85bc f3c1 0c3b cc09 9aba d20c 293c
00000340: 7bbd 1abb 01b0 aeba 535f 27bb 82fc 533a
00000350: db55 a1bb f067 c3b9 7024 ec3d 6b7c 8bba
00000360: 3efa 48be 347f b53c 1d53 1cbb ef85 acbd
00000370: bccc 18bd 4b88 d0bc e357 f63a 7edd eaba
00000380: f457 80bc e624 153b 45a2 733a 151d b039
00000390: c155 0138 10a4 e6ba 45b7 383a c242 163a
000003a0: 03ca 5cbe 85e4 05be dd9c 3f3b 24f5 333a
000003b0: bbf8 a4bb 3e43 c73c b434 f53a 6d4d 933e
000003c0: 2cc2 333b a33f 2d3b 1d69 12ba 68f1 ecbd
000003d0: fdf1 db3a 1697 623a 8cda 163b 6335 883b
000003e0: 3795 61be 0799 f3b9 09c0 cfb9 7d0d 26bc
000003f0: 2d9d ffba 98da eabd 0c79 223b 2bfc 01be
0.0024848124 -0.0015868961 -0.08165367 0.0010921436 0.059560396 0.11397975 -0.0020335347 -0.15426558
-0.07754147 -0.03842603 -0.0010229847 0.003376207 0.0005241949 0.0011512594 0.1193498 0.059703473
-0.0018008141 -0.0992043 7.172587e-05 0.17719197 -0.08265175 0.0008487001 -0.1607783 -0.0011264255
0.057201125 0.030595103 -0.0033133833 0.0009295061 0.0011711464 -0.057184737 0.09023314 -0.0015992828
0.005436475 -0.0015266524 -0.0008081298 -0.106358476 0.00171466 -0.11868979 -0.032826662 -0.001407263
0.002856804 0.12711741 -0.00021592354 0.0009421381 0.012984792 0.11490844 -0.036547806 0.0020830263
0.016304664 0.121013395 -0.12551378 -0.09673615 -0.0021853826 0.12190075 -0.03177173 0.0011150367
0.00042151124 -0.11502289 0.00019402671 0.04794578 -0.102152705 0.0016563426 -0.032548368 0.00044844585
-0.0010456111 0.0017158028 -0.00097267574 0.0019593323 -0.04219387 -0.00057429017 -0.0038561956 0.0009650405
0.0025503773 -0.043271247 -0.0009771825 0.009631456 0.10156385 0.0035112782 -0.0025577352 -0.020817261
-0.00061196333 -0.0013442193 0.0039801006 -0.0010332601 0.001835772 -0.0010674639 -0.047707085 0.0013576152
0.07029474 0.13015142 -0.124373145 -0.049724963 0.16431896 -0.017120082 0.00047831322 -0.001992667
0.024611475 -0.0015922855 -0.0032325792 -0.00066171447 -0.0010152559 -0.0011985266 -0.0001877111 0.0033422133
-0.03352696 -0.19241758 0.001358294 0.0017093857 -0.0012641258 -0.21753149 -0.0029862071 0.03395902
0.0026194945 -0.0011722866 0.0035543975 -0.2667162 -0.0006701011 0.002588582 0.0008655831 0.0007081871
0.011109295 0.00072921655 0.0023523506 0.032745857 0.000571392 -0.08297456 0.0018700571 -0.18019979
-0.1153964 0.0012472973 0.16533096 -0.0008909419 -0.321669 0.064206995 -0.0027959284 0.02598591
-0.052052084 0.108775295 -0.00194055 -0.0008444843 0.0021324623 0.002540393 -0.084001325 -0.21845834
0.0024716211 -0.7263594 0.0008893719 0.08577478 0.0028288674 0.0033502816 -0.0696445 -0.00041700597
-0.07227015 -0.080583625 -0.00018815005 0.0009766124 -0.001755953 0.020043569 -0.019043129 0.0003913367
0.0009554441 -0.0004668769 -0.0017486 -0.008674797 0.0010309113 0.037426464 0.3724459 0.0016428552
-0.0014858544 0.040013574 0.0009802193 0.00021478072 0.3777045 0.0035315955 0.059461344 -0.0021489316
-0.032780673 0.10664523 0.029267771 -0.050993238 0.0020886327 -0.012179475 0.25837412 -0.0011356855
0.001881256 0.052532386 -0.001764636 0.016301582 -0.072495595 -0.0017979002 0.21167935 0.0012602821
0.0005317306 -0.0006843086 -0.0005042673 0.0034194821 0.07035618 0.006121249 -0.0036478525 -0.00081465597
-0.00052557915 -0.07787771 0.0022142732 0.16102554 -0.016235774 0.0021477907 -0.0011752187 0.010317998
-0.0023611474 -0.00133276 -0.0025538995 0.0008086638 -0.004923565 -0.00037270738 0.115303874 -0.0010641938
-0.1962671 0.022155382 -0.002385325 -0.08423983 -0.037304625 -0.025455615 0.0018794503 -0.0017918793
-0.01566694 0.002275759 0.00092938944 0.00033591004 3.083586e-05 -0.0017596502 0.0007046352 0.00057319936
-0.21561436 -0.13075455 0.0029237785 0.0006864837 -0.005034534 0.024324056 0.0018707723 0.2877001
0.0027428968 0.0026435636 -0.0005585121 -0.11569482 0.0016780492 0.00086437294 0.0023018448 0.004156755
-0.22029577 -0.00046462586 -0.00039625194 -0.010135052 -0.0019501798 -0.11467475 0.0024791388 -0.1269385

actor.4.bias f4 [4]
00000000: 4e2d 2b3f 5bd1 063f 3e82 393f 40b2 1b3f
0.66866004 0.526632 0.7246436 0.6081886

critic.0.weight f4 [128, 17]
00000000: f8a9 16bf 9b7e f73f 7ebd 0c40 8aba bcbc
00000010: 4c9e 20c0 4c82 923e 3252 efbf cd20 0f40
00000020: 50d2 d7be 247e b7bf de4a 7840 2029 d93f
00000030: b988 f540 d624 58be 0204 b53d d965 293e
00000040: 7e62 8a3e 2423 353f 871c 913d 465d 4ec0
00000050: f8f7 123f 13db 17bf ed81 853f 6832 abbf
00000060: d5d0 8a3f 5e09 553f c98b d13f adb0 d2bd
00000070: a2dc 9d3d 43c4 da3d 1733 a6bd 9b81 efbc
00000080: 5cb6 483d 0756 953d fa3b 763f c2dc 8440
00000090: 7225 87c0 99d4 df3e 1c54 7ec0 e099 c33f
000000a0: d1e3 fc3e 8ee4 983f 5f01 12c0 f3c6 963f
000000b0: fab9 c7bd 8718 62bf b63f a4be 8a3b 713e
000000c0: ed79 a53e ee5d 9d3e a177 e73e bfce 3640
000000d0: dd1d 00c0 151c 9bc0 131e babd bb3f a5be
000000e0: 5dcd 863f e704 39c0 3459 18c0 7aec a73e
000000f0: 2aa2 8e3f f67b d03e 8b02 42bf 5f85 253d
00000100: 23c6 edbe 1433 13bf 042b e4be 065d e8be
00000110: ebd2 9240 29e6 843f e82d 0dbf 1ab3 5dbe
00000120: 02b3 003f e134 47bf e19e e4be 1e5d 2bc0
00000130: 8d00 6abf 0134 bc3c 041b 813f 61bd e93e
00000140: 497b 0fc0 37fc 423e 2b0a 1f3e 759b 533e
00000150: 4dd5 903e 6e95 cbbf f288 733f 0d19 4340
00000160: 8ee2 44be d367 b2c0 ab41 3740 b800 aa3e
00000170: 31b1 56bf 6dcd bbbf 5014 7b3f 8d85 14bf
00000180: 4157 43bf 6c10 383f 0ef3 46bd 070d e13c
00000190: ce4a ae3e fbf7 5d3e e837 a0c0 df84 a8c0
000001a0: e144 7540 6413 96bf 0c1a 1340 3546 fabf
000001b0: 6303 fcbd bd47 3cbf ec82 553f 663b 8f3e
000001c0: 3021 9f3e 323b a1bd 19b4 b43e 492c 3d3e
000001d0: e7f7 27bd 33de 843e c856 bd3e 5774 64bf
000001e0: 0a9f 35be 7e43 fa3d 2518 343f 7a9e 143e
000001f0: 0df1 b6bf 9a4f f33f eed2 56bf b515 6640
00000200: c202 1e40 d65d 57be 7c80 09bf 7c62 1fc0
00000210: 4d1f bb3d 1ec7 0a3f 535b 7a3d 386e 813d
00000220: a886 0240 3f00 b240 c34a fbbf 6904 bd3e
00000230: 818b 2540 dfc0 f1bf 2d98 4ebf f538 05c0
00000240: b167 dbbf fc7e 38be 23fd 1c40 0b13 803d
00000250: 46a7 9cbf da91 87bc cad8 f03c f235 17bd
00000260: 4df0 9f3d e02c 9e40 1891 9b40 19d1 6540
00000270: ad47 203e 4527 8e3f d71d ddbf 66f0 de3f
00000280: b909 5c3f 8945 9a3f 796b 19be 1af0 4cbf
00000290: d587 433f ac43 1bc0 89f2 9fbd 91b9 213e
000002a0: c47f 83be 5bb3 d2be 1334 ad3f fa6f 1abf
000002b0: 7412 3040 dcbf 6e3e 9263 d640 45b7 c3bc
000002c0: e088 8abf 4465 8abf ec31 5040 d605 b7bf
000002d0: 8fb0 85bf 995d e5be 2b5f ebbe fd0c 7cbe
000002e0: ea07 c7be 658e 7bbe 5c63 63be 5d3e 32c0
000002f0: 3cc0 093e 61fb 1d41 8afe 98be 4a56 f93f
00000300: 8dd5 57bd f067 683f f6f4 fe3f 3292 0540
00000310: 0235 543d 3b48 03bf 5f56 12bf 4e04 933e
00000320: 82df a2bd 7e51 33bd 08ed 0f3e ae58 4dbc
00000330: ce24 0c40 7d62 1ec0 baee 35c1 fd26 173e
00000340: 171a e33f 97ef 0940 b931 efbf 70a1 eebf
00000350: 3f62 b9bf def8 08c0 1ae0 203f 167e 08bf
00000360: 0a74 c3bc 6bbb 15bf 0df4 cebe 0cc6 0bbf
00000370: 35b1 2bbf 593a 7b40 1a76 4ec0 e783 793f
00000380: 0f95 323f cb4c 853f 982f 70be 0e30 60c0
00000390: 92f9 0d3f 1e1d a3bf bfd1 0440 4fd8 4940
000003a0: fc97 91bf d20d 2c40 52d9 09bf ad33 abbe
000003b0: a06b 61be 9772 aebe a012 b93f be65 c5be
000003c0: 09f1 91bf 6699 2d3f 3ae7 f33e cf24 943f
000003d0: 38b1 5bc0 96fc 88c0 3a88 1d3f 08d7 c53b
000003e0: d0d2 1cbf dea2 8dbf d73f a6be e6e1 eebe
000003f0: 0174 babe 1793 05bf 10bb fabe 44c2 1dc0
-0.588531 1.9335512 2.1990657 -0.023038168 -2.5096617 0.28615034 -1.8696959 2.236377
-0.42152643 -1.433537 3.8795695 1.6965675 7.67294 -0.21107802 0.08838655 0.16542758
0.2702827 0.70756745 0.07085519 -3.224443 0.5740962 -0.59318656 1.0430275 -1.3374758
1.084498 0.8321742 1.6370784 -0.102876045 0.07708098 0.10681965 -0.08115213 -0.029236605
0.049002036 0.07291799 0.96185267 4.151948 -4.223321 0.43716887 -3.9738836 1.5281334
0.4939256 1.1944749 -2.2813337 1.1779464 -0.09752269 -0.88318676 -0.32079858 0.23557869
0.32319584 0.30735725 0.45208457 2.8563688 -2.0018227 -4.847178 -0.090877675 -0.32275185
1.0531422 -2.8909242 -2.3804445 0.32797605 1.1143239 0.40719575 -0.7578513 0.040410396
-0.4644023 -0.57499814 -0.44564068 -0.4538347 4.588247 1.0382739 -0.5514817 -0.21650353
0.50273144 -0.7781506 -0.44652465 -2.6775584 -0.9140709 0.022974016 1.008637 0.45652297
-2.2418997 0.19041525 0.15531223 0.20664771 0.28287736 -1.5904977 0.95130837 3.048404
-0.19227049 -5.575174 2.863383 0.33203673 -0.8386412 -1.4672066 0.9807787 -0.5801628
-0.76305014 0.7190006 -0.04857164 0.027472032 0.34041446 0.21676628 -5.0068245 -5.2662196
3.832329 -1.1724668 2.2984648 -1.9552675 -0.123053335 -0.73546964 0.83402896 0.27975005
0.31080008 -0.07872619 0.35293654 0.18473925 -0.041007902 0.25950775 0.3698027 -0.8924002
-0.1773645 0.12219904 0.7034934 0.14513579 -1.4292313 1.9008667 -0.83915603 3.595075
2.4689183 -0.2103189 -0.53711677 -2.490386 0.091368295 0.5421008 0.06112225 0.06319851
2.0394688 5.56253 -1.963219 0.36917427 2.5866396 -1.8886985 -0.8070095 -2.0816014
-1.7141019 -0.1801719 2.4529502 0.06253632 -1.2238548 -0.01654904 0.029400248 -0.03691668
0.078095056 4.942978 4.8614616 3.5908873 0.15652342 1.1105734 -1.7274731 1.7417114
0.85952336 1.205247 -0.14982404 -0.80053866 0.7637914 -2.4260054 -0.07809932 0.15793444
-0.25683415 -0.41152462 1.3531517 -0.6032711 2.7511263 0.23315376 6.6996546 -0.0238911
-1.0823021 -1.0812154 3.253047 -1.4298656 -1.0444506 -0.44797972 -0.45971045 -0.2461433
-0.38873225 -0.24566038 -0.22205871 -2.7850564 0.13452238 9.873872 -0.29881698 1.9479458
-0.052693892 0.90783596 1.9918506 2.087048 0.051808365 -0.5128209 -0.5716304 0.28714222
-0.07952787 -0.04377889 0.14055264 -0.01253335 2.1897464 -2.4747612 -11.370783 0.14760967
1.7742337 2.1552484 -1.8687049 -1.8643017 -1.4483107 -2.1401896 0.6284195 -0.5331739
-0.023859043 -0.584891 -0.4042057 -0.5459907 -0.6706727 3.9254363 -3.2259583 0.9746689
0.69758695 1.041406 -0.23455656 -3.502933 0.5545894 -1.2743261 2.075302 3.1538274
-1.1374507 2.6883435 -0.5384723 -0.33437863 -0.22013712 -0.340718 1.4458809 -0.38554186
-1.1401683 0.6781219 0.4763735 1.1573733 -3.4326916 -4.2808332 0.6153599 0.0060375966
-0.61259174 -1.1065328 -0.3247058 -0.46656722 -0.3641663 -0.52177566 -0.48970842 -2.464982

critic.0.bias f4 [128]
00000000: 3b7d 483e 8384 a03e 33b7 ec3d c2c7 f53d
00000010: d5f4 a03d f6e4 8c3e 74e5 55bf 799a ce3e
00000020: 0d04 bf3e 197f 53be 47ab df3e dc04 56be
00000030: c2f2 05be 2aec 393f bd58 923e fc16 e63d
00000040: 2d98 9d3e 02be 2cbf 09e4 353d 18f3 8e3d
00000050: 02dc 973e 7d53 f2be 84c3 57be fdbd 92be
00000060: 40f5 f03d 662b 25bf 0fd9 963d f72c a5be
00000070: 2afc f3be 4d7b 05bf a644 673e 9e15 03bf
00000080: 2a1e 9a3e 09b2 d83e 3ac3 8dbe bcc6 833c
00000090: 580d cfbe 6301 99bd 9860 35bd 6f2f 773e
000000a0: f736 023f 9a3d af3d 9083 493f 8ee5 a1be
000000b0: e77b 943d 56af a43e f7f2 893a 8a8e 99be
000000c0: 3d0f cbbd 8b16 063c 8ad9 bc3d 971b 01bf
000000d0: 37bb c2be 4fc6 c93e 8b09 debe 38e8 b43e
000000e0: bc0a 82bc e233 803d a430 01bf 3bef a33e
000000f0: 302a 823e 0eb7 a0be 4188 96bd debd 42be
00000100: b3a6 983e 0ef2 9dbd efd6 3f3e fb95 4b3e
00000110: f8ff 0abf 0871 13be b489 8cbe a380 a73e
00000120: e9fe 803f 1a9b 0f3f f229 efbd 361e 063e
00000130: ff43 db3e d632 e0bd 8190 bebe aca3 03bf
00000140: 7a1b 0d3f 90ba 83be 8df1 953e 6ed3 943e
00000150: 5914 dfbe 9294 37bd e8c5 10bd 988e cd3e
00000160: 8b33 993e 42e3 5a3e 2d56 22bf 158e b7bc
00000170: 20e0 9c3e 1ee8 70be f313 ff3e 894a bd3e
00000180: 7497 dfbe f0fb 76be 65ab 98bd 5c46 963e
00000190: f0d2 0cbe 77a6 8cbe 9f8e b8be 460c ec3d
000001a0: f644 0a3f e904 b03e 02f0 ff3e 7f7c 95be
000001b0: 7768 44be 0532 483f b15f 023e 0a3e bebe
000001c0: 751d 9f3e 46a1 00be 12b7 853d 4b99 36be
000001d0: 8956 4abf 70e2 8ebe 6506 8ebe a2ae 31bf
000001e0: 7a0d a4bd 3812 013f 0171 e23e 05b1 bfbe
000001f0: cf39 c83e a738 83be f427 c03e 356f 1c3d
0.19579022 0.31351098 0.1155838 0.120009914 0.07859198 0.27518433 -0.8355324 0.40352228
0.37307778 -0.20653953 0.43685362 -0.20900291 -0.13080886 0.7262598 0.28583327 0.11234853
0.30780163 -0.6747743 0.044406924 0.0697996 0.2966004 -0.47329322 -0.21070677 -0.28660575
0.11765528 -0.64519346 0.073656194 -0.32260868 -0.47653323 -0.5214127 0.22584781 -0.5120486
0.30101138 0.4232333 -0.2768801 0.016085975 -0.40439868 -0.074709676 -0.044281572 0.24139188
0.5086512 0.085566714 0.78716373 -0.3162045 0.07250195 0.3216502 0.001052468 -0.2999156
-0.09915016 0.008184086 0.0922118 -0.50432724 -0.3803346 0.3940911 -0.43366656 0.3533342
-0.01587426 0.06259896 -0.50464845 0.32018456 0.25422812 -0.3138966 -0.07350207 -0.19017741
0.2981468 -0.07712184 0.18734334 0.19881432 -0.5429683 -0.14398587 -0.2744881 0.3271533
1.0077792 0.5609604 -0.11677922 0.13097462 0.42825314 -0.10947196 -0.37219623 -0.5142162
0.5512005 -0.25728273 0.2928585 0.29067558 -0.43570212 -0.044819422 -0.035344988 0.40147853
0.29922137 0.21375754 -0.63412744 -0.022406617 0.30639744 -0.23526046 0.49819908 0.36970928
-0.43670237 -0.24119544 -0.07454566 0.29350555 -0.13752341 -0.27470753 -0.3604631 0.115257785
0.54011476 0.34378746 0.499878 -0.29196545 -0.19180475 0.78201324 0.12731816 -0.37156707
0.3107716 -0.12561521 0.065290585 -0.17831914 -0.7903829 -0.27907133 -0.27739254 -0.69407094
-0.08010383 0.50418425 0.4422684 -0.37439743 0.39106604 -0.2562916 0.37530482 0.038191993

critic.2.weight f4 [128, 128]
00000000: f6f0 eebd bbae ee3d 0503 723e 4757 c4bf
00000010: 96a1 d7be c5cb 37bf 99b6 bebf 85e5 ec3e
00000020: 9d7a 77be 4211 fe3f 13c4 63bf b068 24bf
00000030: 3559 653e 6967 aabf f318 e6bf 0d85 013f
00000040: c36c 103f 6087 0ebf e611 053e 53ef 6aba
00000050: 116b 0dbf 6212 94bc bef2 3e3f 2aeb 0bbf
00000060: 8313 e73f a9ab fd3f f33b 90bd 3f04 313f
00000070: e1d4 0440 26e9 b03e 90e4 c23e 7589 d53f
00000080: 4bc2 9dbf d953 81bf 4a4c d9bf 9219 87bf
00000090: e494 0b3e e521 503f e168 9ebe 3e18 c73f
000000a0: 9327 abbe 25b0 d83e c79f 753f 292b d7bc
000000b0: e083 0c40 ae09 26bf 7162 e3bf 6228 45be
000000c0: 19ce 9dbf 5e91 213f e48d 8abf ab2b 843f
000000d0: 8737 a33e b175 30bc e1fa 65bf ab6a ce3e
000000e0: dc9c f8bf bbd3 913f 1fe6 ccbe b9c5 cb3c
000000f0: e77c 4f3e ea6d 9c3e 36b3 83bf 0090 e3be
00000100: e7cc b7bf a856 9c3f 3e6c 113f 3f3c a8be
00000110: 0cca 013f 2509 bf3f 45dd 9ebc a126 82be
00000120: 3327 1f3d a6c9 afbe 2bf3 1f3f e4ef f93f
00000130: f7b9 9fbf a65e 6d3f 67cd c1be 002b c63f
00000140: f199 a33e aa0a e43e 7c06 a6bf b83c 71bf
00000150: 35ef aa3e daec 14be d35f 723f f2dc 353f
00000160: 2534 a6bf d376 493e 7c12 c9bf 3b11 623f
00000170: 5500 acbe f2ef 5f3f 398c 543e e7f0 e1bd
00000180: ac8d d6be e6a9 493f e66d ae3f 8d24 d2be
00000190: c072 b3be 2a1b 353f 7c52 debe 8485 183f
000001a0: fa22 97bf 842f 68be 7f2c eabf 6d22 c1bf
000001b0: b3f6 1b3f 3f77 29bf 3f75 01bf cb05 e03d
000001c0: 17fc 9abe c0cf 5f3f 5fd8 873e 665c 363f
000001d0: 3ca5 0bc0 c771 9abe e269 e73f 50d0 bd3f
000001e0: 2a06 50bf 4bb1 e5be e48b 9abf e2f2 abbd
000001f0: a14a adbf 982f 283e 9455 34be 3da8 2b40
00000200: 5f58 35be 6380 af3e c9f1 523f ca41 b43f
00000210: 1592 393e 6b74 923d 89a8 d73e f12a 263f
00000220: 99bb 39bf 67d4 a4bc 7f14 6fbf f33b e1bf
00000230: 0d63 973f a5d7 903e 8e69 e4be 33ab e83e
00000240: b580 823e de9f 183d a093 0ebe d356 06c0
00000250: a9a0 523f f939 663f db3d 113f 575e 3dbe
00000260: 9d13 65bf ac52 10bf da76 3f3f c1a4 e2be
00000270: 858e b4bf fde3 65be 6237 593e c76a 12bf
00000280: 5608 7dbf ff2b 803d d275 663f 5de5 4bbf
00000290: 0ec7 073f bad4 a9bd 2ed9 2e3f 176f 84bf
000002a0: a530 81bf 3a0a d9be 9637 8e3e 3ac4 e93e
000002b0: 6dea b73d 04fa ddbe 3170 353f 0c45 bbbd
000002c0: 1cf6 73bf 36fa 7b3f 34a3 98bf 60c9 c7be
000002d0: 65d0 b0be c5dd 283e e917 19c0 0829 88bf
000002e0: 97e8 d1be c6d0 9b3f a338 673f 607f 803f
000002f0: b20c e43e d122 00bf 0523 8e3f 5b30 c9be
00000300: 58a7 34bf ea01 5bbe c83d a73f 6957 9b3e
00000310: aba9 b5bd dfc7 f6be e49d 65bd e98d acbf
00000320: dfab 7dbe 0ed5 18be f24b 9ebd 8858 2b3e
00000330: ca5d 1c3e 3761 a43f 0c50 2d3f 7cff 4abe
00000340: d9b4 30be 22a8 373f 7082 49bf 0302 2b3e
00000350: dcf7 13bf 7450 63bf 8407 0ebe c43c e53f
00000360: cce6 923f a4c6 7a3f 7c89 a03f 2726 9dbe
00000370: 6b1c 4abf 5bb0 62be cb66 e6be d2b0 e93e
00000380: 81b6 1d3f 999c c3bd 7d79 a4be dff3 32bf
00000390: 83a9 d8be fcfd 87be fe6e 233f 3c87 2c3f
000003a0: 037b fdbd 6323 c63e 4c70 803e acec 5a3e
000003b0: dccf 403c 62db 1cbf 8f59 05bf e2d3 04bf
000003c0: f483 f53e 1aff 8abe 47ca 10bf e3be a23f
000003d0: 2805 603f 71fd 783f 0881 a13f d78d 973e
000003e0: c310 36c0 a4b3 42bf 359f a0bf b9dc 143f
000003f0: 5d56 5fbd 174f 153e f870 0dbd efde 243f
-0.116670534 0.11654421 0.23633964 -1.5339135 -0.42115468 -0.717953 -1.4899474 0.4626886
-0.24167867 1.9849017 -0.8897106 -0.6422224 0.22397311 -1.3312808 -1.7976364 0.50593644
0.5641596 -0.55675316 0.12995109 -0.00089620537 -0.55241495 -0.018075172 0.74589145 -0.54655707
1.805283 1.9818012 -0.070426844 0.69147104 2.075493 0.34552878 0.38065004 1.6682574
-1.2324919 -1.0103713 -1.6976407 -1.0554678 0.13631016 0.8130172 -0.3093939 1.5554273
-0.3342863 0.42321888 0.95946926 -0.026265698 2.195549 -0.6485852 -1.7764417 -0.19253686
-1.2328521 0.6311244 -1.0824552 1.0325826 0.31878302 -0.010770247 -0.89835936 0.40315756
-1.942287 1.139274 -0.40019318 0.024874555 0.2026249 0.30552608 -1.0289066 -0.444458
-1.4359406 1.2213945 0.5680579 -0.32858464 0.50698924 1.4924666 -0.019392619 -0.25420097
0.038855743 -0.34333533 0.6248042 1.9526334 -1.2478627 0.9272255 -0.37852022 1.5481873
0.31953385 0.44539386 -1.2970729 -0.94233274 0.33385625 -0.14543477 0.94677466 0.7104026
-1.2984663 0.19674234 -1.5708766 0.8830754 -0.33594003 0.874755 0.20756616 -0.110322766
-0.41904962 0.7877487 1.3627288 -0.4104351 -0.35048485 0.70744574 -0.43422306 0.5957873
-1.1807549 -0.22674376 -1.8294829 -1.5088631 0.6092331 -0.6619758 -0.5056953 0.10938605
-0.30270454 0.87426376 0.26532266 0.7123474 -2.18196 -0.3016493 1.8079188 1.4829197
-0.81259406 -0.44861826 -1.2073941 -0.083959356 -1.35384 0.16424406 -0.1761077 2.6821434
-0.17709492 0.3427764 0.82400185 1.4082577 0.18122132 0.07151111 0.4212077 0.64909273
-0.72551876 -0.020120813 -0.9339065 -1.759642 1.1827103 0.28289524 -0.44611782 0.45443115
0.2548882 0.037261836 -0.13923502 -2.0990493 0.822764 0.8993221 0.5673501 -0.18493019
-0.8948305 -0.5637615 0.7479073 -0.44266322 -1.4105994 -0.22450252 0.21212533 -0.5719418
-0.98840845 0.062583916 0.9002353 -0.79646856 0.5303811 -0.082925275 0.6830014 -1.0346402
-1.009297 -0.42390615 0.27776784 0.4565752 0.0898026 -0.4335481 0.70874316 -0.09144029
-0.9529741 0.98428667 -1.1924806 -0.39020824 -0.34533992 0.16490848 -2.3920844 -1.0637522
-0.40997764 1.2173088 0.90320796 1.0038872 0.44540936 -0.50053126 1.1104437 -0.39294705
-0.70567846 -0.21387449 1.3065729 0.30340126 -0.08870252 -0.48199365 -0.05605878 -1.3480808
-0.24772595 -0.14925024 -0.07729329 0.1673299 0.15270153 1.2842168 0.67700267 -0.19824022
-0.17256488 0.71740925 -0.78714657 0.16699986 -0.5780008 -0.88794637 -0.13870054 1.7909169
1.1476684 0.9795935 1.2541957 -0.3069317 -0.7894961 -0.22137587 -0.450003 0.45642716
0.61606604 -0.09551353 -0.32123938 -0.6990337 -0.42316827 -0.26560962 0.63841236 0.6739385
-0.12376978 0.38698873 0.25085676 0.21379346 0.011768308 -0.6127225 -0.5208978 -0.5188581
0.47952235 -0.27147752 -0.5655865 1.2714504 0.8750787 0.9726172 1.2617502 0.29600403
-2.844773 -0.7605536 -1.2548586 0.58149296 -0.05452572 0.14580952 -0.034531564 0.6440267

critic.2.bias f4 [128]
00000000: 75d4 8dbd f38e 7d3f f971 eabe 6e87 803f
00000010: 55fb 0abf b6e3 e2be 7c0c 083f f309 27bf
00000020: 59d6 83bf 2bf6 21bf 47b5 babf 8053 073f
00000030: adbd c43d c7ca 5bbe 89f2 90bf abad e13e
00000040: 235f 653c ee3d 573f 26f8 20bf 9e84 a7bf
00000050: 1ee3 9d3e 066a 1b3e f6c1 9cbf d687 3c3f
00000060: 631e 9b3d fd13 43be 058c 7ebf cb25 35bf
00000070: d8a3 32bf da7e 97be 6df8 02bf 7a32 983d
00000080: a7ea e5be bc17 b4be b9fe 313e 0e3f 23be
00000090: a88d 7fbf cd8a 3d3f a460 65be 029c d3be
000000a0: a989 27be fcfa 4bbe 5b2c 11bf 9d32 c8be
000000b0: 2d4f 2b3f f753 aebd 070f a83e ce6b 1cbe
000000c0: 5799 a33f fba2 a4bb ec6d 703e 4833 fa3d
000000d0: 1734 c63d d819 1f3f 421e 7f3e 3a42 963e
000000e0: d787 af3d c254 033e 3c5c 1bbd fcee b8be
000000f0: 4e0c 003f 2848 093f 5958 563b b113 c7bf
00000100: d527 4fbe 5fa0 1d3d 9a7c 11be 6f07 5fbe
00000110: 1a59 65be f7a8 45be 1088 b2be fef8 8e3e
00000120: 874b 46be d8eb 70bf 821f 6abf e17e b2bb
00000130: acdd 273f 2101 a03f 02e4 ddbe da08 9c3f
00000140: a853 253f 7a78 7d3d 2c98 8b3d 7205 63bf
00000150: 4556 f8be 6e08 bc3e 55b8 41bf b684 af3e
00000160: 4ac5 113f 1c47 60be 5ee8 81bf 9f3d 5abf
00000170: 2dac 053f 3bf7 8f3f 0f54 29bf 43fe 69be
00000180: 060e bb3d 4936 d43d 91d3 ae3e 6bb3 5fbe
00000190: 55f1 17bd d042 383f 696e bf3e 4eed ae3e
000001a0: 4909 ccbd 0d36 313f 9ed6 cd3e eea4 453e
000001b0: 0f4a a13e cb1f 593e e4b6 59bf 4763 193e
000001c0: 485a e33e 3067 763d d353 9f3e fe8c c93d
000001d0: 5d5e bb3e e84e 70bf d76f b13d 79e4 47bf
000001e0: 30be 3dbb d936 afbe 17b0 34bf e0b7 45bc
000001f0: 5f28 093f 79fe 2a3e 6490 a8be 2de0 bebd
-0.069252886 0.9904625 -0.4579008 1.004133 -0.5428975 -0.44314355 0.5314405 -0.65249556
-1.0299789 -0.6326625 -1.4586571 0.52861786 0.0960649 -0.21464072 -1.1324016 0.4407781
0.013999733 0.8407887 -0.62878644 -1.3087347 0.3083734 0.15177163 -1.2246692 0.7364477
0.07574155 -0.19050594 -0.994324 -0.7076079 -0.69781256 -0.29588968 -0.5116032 0.07431503
-0.44905588 -0.35174358 0.17382325 -0.15942022 -0.99825525 0.7403992 -0.22400147 -0.41329962
-0.16361107 -0.19919962 -0.56708306 -0.39101115 0.6691769 -0.08512109 0.32823965 -0.15275499
1.2781171 -0.0050243116 0.23479432 0.12216812 0.09677904 0.6214881 0.24913886 0.29347402
0.08570831 0.12825301 -0.03792976 -0.3611983 0.50018775 0.53625727 0.0032706468 -1.5552884
-0.20230038 0.03848302 -0.14207688 -0.2178018 -0.22397271 -0.19302736 -0.34869432 0.2792434
-0.19364749 -0.9410987 -0.9145433 -0.005447254 0.6557262 1.2500345 -0.4333802 1.2190201
0.64580774 0.061882474 0.06816134 -0.88680184 -0.48503318 0.3672518 -0.75671893 0.34280938
0.56941664 -0.21902126 -1.0149038 -0.85250276 0.52215844 1.1247324 -0.6614389 -0.228509
0.09133534 0.103619166 0.34145787 -0.21845786 -0.037095387 0.7197695 0.37388924 0.34165424
-0.099627085 0.692231 0.40202802 0.19301197 0.31501815 0.21203534 -0.85044694 0.14979278
0.44404817 0.060157 0.3111864 0.09841345 0.3659543 -0.938704 0.0866391 -0.78082997
-0.0028952472 -0.34221533 -0.7058119 -0.012067765 0.53577226 0.16698636 -0.3292266 -0.09320102

critic.4.weight f4 [1, 128]
00000000: 95ff 13ba 860f b8ba 04c5 e8b9 df46 ffb9
00000010: e0a6 3c39 4673 46ba e30b a837 4745 8d3a
00000020: a7e9 d7b8 4d54 ceb9 8c5e 9a3a 9a18 c939
00000030: e5ca c839 a293 e3b8 64b1 923c 05ca 2cba
00000040: dd46 e9b9 7e1b 97b9 6116 033a 562f 143b
00000050: 940c e1b9 b1e7 ab3a 2a3b c839 61aa 6cbc
00000060: 2a4c 3638 7c68 4ab7 7250 2a39 ef36 1c3a
00000070: e0c7 2b3a 5aa3 7039 edbc 75b9 33b6 313a
00000080: 795c dd39 75f4 1d3a 28c2 8eb6 7096 1539
00000090: e0d4 a0b9 8946 46ba c8bd 9938 6606 8bb9
000000a0: 13e1 1db9 9de6 4f3a d1a0 5039 300a 3eba
000000b0: 8a4c 14b9 f4ed 3c3a fb43 04ba 484d 5e39
000000c0: d8b1 f8b9 5b48 163a 2056 a1b9 2296 4339
000000d0: da9a 413b 0cc2 32b9 ee9f d1b9 c867 e1b8
000000e0: e6c1 a938 8c88 aab5 0ebd e438 9e12 3d3a
000000f0: d1a7 b5b9 f55c a73c 8669 44b9 0a72 81bd
00000100: 543e 3d3a cc79 1dba 7538 35b9 9741 4539
00000110: 1d80 e539 e23c 243a f433 57ba 6240 f9b9
00000120: 9d6a d739 6ef3 6738 8e89 a539 a546 b939
00000130: 0a3c 4aba 52d4 b2b9 e115 b439 9026 f9bd
00000140: e84c bdb9 e570 62b9 666b 87b9 c142 e4b9
00000150: 0131 d139 2d50 11ba f001 ac38 8ec2 4939
00000160: 4f8d 63b9 231e 123a 43c2 643a 75ca 43b9
00000170: d47b a838 5865 33bb 75c1 21ba 613d 083a
00000180: 0d08 f639 1f3f 38b8 46b3 0738 31a5 823b
00000190: be93 04b9 045d deb9 5418 8739 fb21 2db9
000001a0: 6642 3db9 6eb2 ee39 08d8 a139 154d 4fba
000001b0: cc18 bfb8 51b2 71ba 6199 acb9 fdca 8f38
000001c0: 6bcb c839 1bea aa38 6e2c b138 b879 c2b9
000001d0: 5ad4 ab39 9fc7 df39 a4f8 093a 5a92 fd39
000001e0: 046d f8b8 4c2d 43b6 6362 0639 8752 0239
000001f0: e237 1db9 6e45 cd38 e9f1 083a eb08 7eb9
-0.00056456897 -0.0014042712 -0.00044397276 -0.00048690193 0.00017991243 -0.00075702777 2.0032696e-05 0.0010778093
-0.0001029552 -0.0003935419 0.0011777445 0.00038356037 0.0003829814 -0.00010851702 0.017906852 -0.00065913826
-0.0004449402 -0.00028821448 0.0005000588 0.0022611222 -0.00042924716 0.0013115314 0.00038191053 -0.014444918
4.3463115e-05 -1.2064465e-05 0.00016242432 0.00059591135 0.0006552916 0.00022949037 -0.00023435401 0.0006779164
0.00042221302 0.00060255016 -4.2545325e-06 0.0001426579 -0.00030676182 -0.0007563611 7.330958e-05 -0.00026516913
-0.00015056533 0.00079307874 0.00019896335 -0.0007249443 -0.00014142893 0.00072070886 -0.000504553 0.0002120036
-0.0004743475 0.00057328277 -0.0003077248 0.00018652578 0.0029541762 -0.00017047691 -0.00039982743 -0.00010748167
8.0946644e-05 -1.2705727e-06 0.000109071014 0.0007212552 -0.00034648043 0.020430068 -0.00018731327 -0.06320579
0.00072190654 -0.0006007224 -0.00017282537 0.00018811818 0.00043773736 0.0006265176 -0.0008209341 -0.0004754095
0.0004108743 5.5301403e-05 0.0003157374 0.00035338584 -0.0007714635 -0.00034108997 0.00034348576 -0.12165558
-0.0003610619 -0.00021595096 -0.00025829225 -0.00043537284 0.00039900097 -0.0005543258 8.20196e-05 0.00019241331
-0.00021701049 0.0005573949 0.0008726457 -0.0001867207 8.033929e-05 -0.0027373638 -0.000617049 0.00051971345
0.00046926775 -4.3927805e-05 3.235347e-05 0.0039869775 -0.00012643539 -0.00042412442 0.00025767332 -0.00016511224
-0.0001804918 0.00045527838 0.0003086927 -0.00079079095 -9.1122085e-05 -0.00092199916 -0.00032920673 6.856581e-05
0.0003829853 8.149837e-05 8.4482934e-05 -0.0003709325 0.00032773876 0.00042682604 0.00052631856 0.0004836496
-0.00011845867 -2.908363e-06 0.00012815888 0.0001242851 -0.00014993505 9.788094e-05 0.00052240357 -0.0002422665

exp_avg f4 [4]
00000000: 371d df3a 23af 333b 0577 e6bb 3c7a 43bb
0.0017022257 0.0027417622 -0.007033231 -0.0029827496

exp_avg_sq f4 [4]
00000000: 1d2d 3c3a 1bc2 363a 3ccf 4b3a 033e 9e3b
0.0007178353 0.0006971673 0.0007774716 0.0048291697
