examples/drone/logs/no-percep-5000/model_1100.pt (torch, 474978 bytes, 36 tensors)

std f4 [4]
00000000: e34c ba3e 8a19 893e 760a ae3e 2f44 fd3e
0.36386785 0.26777297 0.33992356 0.49466082

actor.0.weight f4 [128, 17]
00000000: 8ad6 853f ce14 d53e ed09 9b3f 4c5c 4cbf
00000010: 814d a7bf 499d bd3f 62b1 bfbe 73a7 9e3f
00000020: 8ef9 1440 e8db 7ebd c2e0 1f3f 3def fcbe
00000030: e30b bbbd a885 f1bd 6d3a 7dbe db95 9f3d
00000040: dd99 c9bd 1692 443e c215 8b3f 55dd 25c0
00000050: d6d0 3b3c 3338 ca3f 03ee 673f 68c7 09bf
00000060: d666 503e 8a5d c8be 9a8a 173e 6cb7 05bf
00000070: 4ec4 f53d 57b4 e5bd ae71 ddbd 6d2a 18be
00000080: 3e0b 323c 7871 08be 0a90 583e 0ccf f2bf
00000090: 15d3 d93f a6e0 f3bd 5371 7ec0 f8a9 2fbf
000000a0: dd97 ee3e 8570 df3e 2206 d6bd 32ae 05bd
000000b0: f27b 51bd 84e0 873c 7096 903d 703a 6dbd
000000c0: 955a 673a b17a b03d ddfb 2d3d 881a ce3e
000000d0: c500 433e 91d0 ba3f e5a8 09be 2e0e 6bbe
000000e0: 8a7d 17c0 6524 edbe 3312 213e 7751 c4be
000000f0: d072 32be 923f 81be fbcf 03bf 8f4a eebe
00000100: 2034 963d b6ab 153e 05e0 bb3c 6acd cbbc
00000110: d6ef 7cbf e2ef d93f 4f55 a23f 38dc 0e3e
00000120: cbe5 dabd a472 a3bf ab42 eabc 83d9 7dbe
00000130: 0585 c3bd 361d d53e 01f5 b43e 1082 13bf
00000140: 63a3 edbe a35d d3bd f90b 1bbd 1ae8 1cbe
00000150: c76e c33d 7ae9 5cbf 8f30 fe3d e0a6 b43f
00000160: e936 05bf 4af5 1abe b6df 313f 245d b0be
00000170: 8c7c 3e3e ad05 23bd cce0 f1be 8a96 afbe
00000180: 56dd 99be 910d 09bf 67a4 2cbd f7e8 623d
00000190: 8015 8a3c 0cac 0fbe 789a 6b3f 5de4 81bf
000001a0: 0be9 1bc0 2046 60be 96c2 f5be 9fea 01bf
000001b0: 0468 a73e 93be b9bc 0e45 373e 2da6 3f3c
000001c0: b4ef 5bbd cbf4 9cbd c54e b2bb 4d3b 9c3d
000001d0: 2469 1b3e 0cc9 cb3d b180 043e a913 143e
000001e0: 3cb4 823d 9e05 febe b9ba 803e 1f27 953f
000001f0: 730c 9a3f 03e9 8bbf 296c 0b3e ff4d 9ebc
00000200: 738e 8a3e aadf 2cbf 0db1 2c3e f89b 0f3e
00000210: fccb 85be c15f 203d 51fe 96bd fdea c9bd
00000220: f868 d3bf cf7f b23f 8d59 79c0 543b 8a3d
00000230: f57e 11be d418 913e d221 0a3e 9dae b4bd
00000240: 296d 0dbf 7dc9 8dbe eeb9 bbbc 9096 833d
00000250: 6c70 ab3e 45df 853c a8d9 0eb9 74f8 613d
00000260: 2965 313d 7cf8 6cbe f6ca cdbd c5e6 7d3f
00000270: 4ce4 993e ff43 94be 2bc2 8fbe 9214 933e
00000280: 500e 4fbe 7083 f73e e838 6fbf 47d8 2bbf
00000290: 1c97 4cbe 1b04 a0bf f031 f73e 1060 8e3e
000002a0: d159 bd3e 639c 5c3d ad05 ed3d 9543 d53e
000002b0: 6757 8dbf cf15 1b3f f174 583f db4f f43d
000002c0: c555 7c3f a4bb 4fbe 9a03 07be 8cc8 b53d
000002d0: 13eb 31be 7e66 d2be df17 583e 853d c8bd
000002e0: 0136 dabd 01aa 813d 6a05 adbd b7cf 7040
000002f0: cb5a bb3f 057b 32bf 0a70 29be 4232 48be
00000300: 6046 14bf 3b93 75bf 370b a3bf bde3 33be
00000310: 5cb5 6dbf df07 723d 470f debd 3d94 c7be
00000320: bac1 dabc b458 40be 4236 4f3d 7e91 503d
00000330: 2f53 45bf 33f9 da3e b52d e0bf e137 e0be
00000340: 23b1 5abf 62f3 283c f69d 913e 4e79 91bd
00000350: e629 7dbe 0f81 2cbe 1d4d 2839 6da9 50be
00000360: 4744 95bd a76e 963e 7930 ca3c c736 a43d
00000370: ae7c a03c 9860 46c0 9014 fd3c a72c 7140
00000380: 719b 4b3e de10 cc3e f895 023f 8c35 e4be
00000390: 314e 0040 033e b53c 36ed 403e 7434 49be
000003a0: a8ec 96be 0d23 953e beb8 12be 8b0e 603c
000003b0: d0d0 43be b4db 98bd b159 183d bccb 16bf
000003c0: 44eb 01bc 01a8 f9bd ff69 20bf 2800 3c3e
000003d0: 5ec9 0e3d 4fe0 92bc 055a a93d 265d 6e39
000003e0: af46 a83d e776 85bd b48c 08bb a8a7 c7bb
000003f0: b65b 78bd 4111 443d 6d07 4fbe 3b97 d33c
1.0456097 0.41617435 1.2112404 -0.79828334 -1.3070527 1.4813625 -0.3744002 1.2394851
2.3277316 -0.062221438 0.6245233 -0.49401274 -0.091331266 -0.11793071 -0.24729319 0.077922545
-0.098438 0.19196352 1.0866015 -2.591634 0.011463365 1.5798401 0.9059755 -0.53819895
0.20351729 -0.39133865 0.14798966 -0.52233005 0.12000333 -0.11216038 -0.10812698 -0.14859934
0.010866938 -0.13324535 0.21148697 -1.8969436 1.7017542 -0.11908083 -3.9756668 -0.68618727
0.46600237 0.43640533 -0.104503885 -0.03263683 -0.051143594 0.01658655 0.07059944 -0.05791706
0.00088254485 0.086171515 0.042476524 0.40254617 0.19043262 1.45949 -0.13443334 -0.22954628
-2.3670373 -0.4631683 0.15729599 -0.38343403 -0.1742661 -0.25243813 -0.5148923 -0.4654126
0.07334161 0.14616284 0.02293397 -0.024878222 -0.9880346 1.7026331 1.2682284 0.13951194
-0.10688361 -1.276936 -0.028596243 -0.24790005 -0.09546856 0.4162385 0.35343173 -0.57620335
-0.46413717 -0.10320594 -0.037853215 -0.15322915 0.095426135 -0.86293757 0.124116056 1.4113426
-0.5203691 -0.15132633 0.6948198 -0.3444606 0.18602198 -0.039800335 -0.4724182 -0.3429454
-0.30051678 -0.53536326 -0.042148974 0.055397954 0.016855955 -0.14030474 0.92032576 -1.0147816
-2.4360988 -0.2190175 -0.4800002 -0.5074863 0.32696545 -0.02267388 0.17897436 0.011697334
-0.053695396 -0.07663878 -0.005441519 0.07628498 0.15176827 0.09950456 0.12939717 0.14460625
0.06382033 -0.4961366 0.25142458 1.1652564 1.2035049 -1.0930485 0.13615479 -0.0193243
0.27061805 -0.67528784 0.16864415 0.14024341 -0.2613219 0.039153818 -0.07372726 -0.098592736
-1.6516409 1.3945254 -3.8960907 0.06749597 -0.14208587 0.28339255 0.13489464 -0.08822367
-0.5524469 -0.27692786 -0.022915807 0.06425202 0.3348421 0.016341815 -0.00013623259 0.055168584
0.043309364 -0.23141664 -0.10048477 0.9918025 0.3005699 -0.28958127 -0.28077826 0.2872663
-0.20220304 0.48342466 -0.9344621 -0.6712689 -0.19979519 -1.2501253 0.48280287 0.27807665
0.36982587 0.05386008 0.11573348 0.41653123 -1.1042298 0.6058015 0.8455344 0.11929294
0.98568374 -0.20286423 -0.13184968 0.08876142 -0.1737483 -0.4109382 0.21102856 -0.09777359
-0.10654832 0.06331254 -0.08448298 3.762678 1.4637083 -0.6971896 -0.16546646 -0.19550422
-0.57919884 -0.9592778 -1.2737797 -0.17567344 -0.9285486 0.059089538 -0.10842758 -0.38980284
-0.026703704 -0.18783838 0.050588854 0.050920002 -0.77080053 0.4276825 -1.7513949 -0.43792632
-0.8542654 0.010311933 0.28440827 -0.07103215 -0.24723014 -0.16846107 0.00016050455 -0.20377131
-0.072884135 0.29381296 0.024681317 0.080182604 0.019590702 -3.0996456 0.030893594 3.7683504
0.19883515 0.3985662 0.51010084 -0.44572103 2.0047724 0.022124296 0.18840489 -0.19648916
-0.2947743 0.29128304 -0.14328286 0.013675342 -0.19122624 -0.0746378 0.03719491 -0.58904624
-0.007929627 -0.12190247 -0.6266174 0.18359435 0.034860007 -0.017929224 0.08269123 0.00022732149
0.08216607 -0.065168194 -0.0020835819 -0.006092984 -0.060634337 0.047868017 -0.20217676 0.025828948

actor.0.bias f4 [128]
00000000: 572e 04bf fbc3 d03c 4bfd 123c 2a6f 373c
00000010: 1cd5 fc3d 4d86 a83e d38d e7bd 526f f3bd
00000020: e365 01be 9245 a7bd 1f03 6abe 2251 afbd
00000030: 71ea 74bd e57d 70bd 309b 6b3e 69ab 3b3d
00000040: d2a8 0fbc 2b86 90be be42 a7be e9e4 7a3b
00000050: 8f36 913d 9b01 7bbd c35f b2be 8edb 05be
00000060: b60b 103e 6ca8 293e 1bbf e9bd 8d78 8fbe
00000070: 7c9b 273e 0830 9d3d a48e 03bc 4ae9 c8bd
00000080: 5671 003e d9cd 033e c762 0fbd 0036 da3e
00000090: 696e 96be 3e1c 0f3c 5a73 1bbd b19b 163e
000000a0: dd08 c5be a75d 253e 2755 acbe bd94 75be
000000b0: e1c8 c1be b207 a43e b434 8b3e 76e0 5f3c
000000c0: 5be7 493e ab65 cf3d 70fb c83d f3fb a7be
000000d0: 147e 56be d5f3 433e c4d6 5e3d 7d14 83bd
000000e0: b61c abbe bf21 3e3e a349 173e dac8 693d
000000f0: 153c 0ebd 4a20 0e3e ba4a 84be c897 a13e
00000100: 6f42 293e 405a 943d 9222 17bf 60f3 0e3d
00000110: 90ec 67be c8ce 93bc 1727 7bbe 2f5b 7cbe
00000120: 2bb1 703e b762 383e 9003 5fbd 9292 bebe
00000130: 2dcf ebbe ff9e e33d 82b1 c2bd 0074 54be
00000140: 0187 cbbd e80a df3d 98e0 bdbc c775 08bf
00000150: 957d 963e 5ab9 903e def8 4a3e 1986 8ebd
00000160: 4834 79be 73f1 72be 1197 4d3e cd04 eabe
00000170: e39b 8e3e 3376 8cbc f552 d1bc eb32 22be
00000180: 1d81 85be df22 c23e 880d 873e eb2b 453e
00000190: 7f88 703e 0ef1 103e bc72 bfbd 8159 1e3e
000001a0: c5e8 8abb 2ca7 393e 9f2c e7bd b28b eabc
000001b0: f35b bcbe 9b51 aebd 8ce8 543e 0031 9a3e
000001c0: e0e5 49be 25e2 e0bd 4040 afbe d4d2 713e
000001d0: b825 35be 0bb9 a43e 3795 033e 16f2 bfbe
000001e0: dd0f 883e 581f 213e 02d7 e13d 45fd fcbc
000001f0: 8e38 573c 3ff2 623d 0a9d 103b d5e9 0f3e
-0.5163321 0.025484076 0.008971523 0.011195937 0.12345335 0.32914963 -0.11306348 -0.11886467
-0.12636523 -0.08167566 -0.22852753 -0.08560397 -0.059793893 -0.058713812 0.23008418 0.045817766
-0.008768277 -0.28227362 -0.32668108 0.0038283414 0.07090484 -0.061280828 -0.34838685 -0.13072035
0.14066967 0.16568154 -0.114134036 -0.2802166 0.16367906 0.07675177 -0.008029614 -0.09810121
0.12543234 0.12871493 -0.03500631 0.42619324 -0.2938111 0.008734761 -0.037951805 0.14707829
-0.38483325 0.16149007 -0.33658716 -0.2398252 -0.3784857 0.3203712 0.27188647 0.0136643555
0.19717161 0.101268135 0.09813583 -0.3280941 -0.20946532 0.19135983 0.054404035 -0.06400392
-0.33420342 0.1856756 0.14774184 0.057076313 -0.034725267 0.13879505 -0.25838262 0.31561112
0.16529249 0.07243776 -0.59037125 0.03490007 -0.22648835 -0.018042937 -0.2452663 -0.24644159
0.23505084 0.18006407 -0.054446757 -0.372212 -0.460565 0.111143105 -0.09506513 -0.20747375
-0.09937859 0.10890752 -0.023178384 -0.53304714 0.29392686 0.28266412 0.19821498 -0.06959171
-0.2433635 -0.23724918 0.20077159 -0.45706788 0.27853307 -0.017146206 -0.025552252 -0.15839736
-0.26075068 0.3791723 0.2637751 0.19255035 0.23489569 0.14154455 -0.09348056 0.1546383
-0.004239174 0.18130177 -0.11287808 -0.028631065 -0.36788902 -0.08511659 0.20791835 0.3011551
-0.19716597 -0.10980634 -0.34228706 0.23615581 -0.1769017 0.32172427 0.1284989 -0.37489384
0.26574603 0.15734613 0.110273376 -0.030882487 0.013136042 0.055406805 0.0022066259 0.14054044

actor.2.weight f4 [128, 128]
00000000: 46f5 b63c 1257 83bd c4fb dfbd 091a fe3d
00000010: 4d26 9f3c b6fc d6bd 0591 2f3d aca1 733c
00000020: c3fd 213d 1916 2d3e b534 05be 88f5 fb3d
00000030: 2bab 84bc 8dde 60be f0c2 4cbe 15f3 713d
00000040: a5b5 0c3e 3d9b e2bd 9558 533d 95f1 02bd
00000050: e9aa d7bd 67e7 23be c576 eb3d 7199 a13e
00000060: ea96 b93d 09a5 e33d 559e 333c 0040 c0bd
00000070: 7a5f e73c 81cf b83c 3bd0 08be a71a b9bd
00000080: fdd8 843d 0424 653c af1d 5c3d edb2 15be
00000090: 5f73 32be b181 70bc a100 30be c5b1 20bd
000000a0: 60c3 9dbc c0e9 d03d b3b4 263d dabe 8f3d
000000b0: b906 05be 8a80 5abe e2bf b3bd c66b a33d
000000c0: d19c 77bc 41c3 3d3d 7211 8d3d 6d8f aa3c
000000d0: f9b5 19be 6c02 0c3d cb21 f63c 388f ac3d
000000e0: c34e 133e 63fb 173d 62cb 633d 01bb 4d3e
000000f0: 75e8 8dbe a2b1 52be 63d8 e3bd 3b54 0dbe
00000100: 4e85 3a3d 5bc9 efbd d1fb 1c3d 5312 10be
00000110: 64cf 6ebd 1383 0cbb a780 c63d 954a 36bc
00000120: 87ae 1f3e 098c f6bc 4417 5b3e 127d 8d3d
00000130: fa74 a43d 4f14 2e3e ac57 33bd 22f9 a0bd
00000140: 989c 14be 9a8a d8bc 6bf1 87bd e658 87bd
00000150: 87bc 19be 949b f3bd fb6b 7f3d e2af 56bd
00000160: 618d 8c3d 6e85 973d 2696 a5bd 1fad 143e
00000170: 9e54 b5bd f41a 523c f51f 43bd ed98 803e
00000180: baf4 ebbb 4295 763a 6658 e93d 23d1 c5bd
00000190: 1394 313c a736 00be e171 ee3d 6418 18be
000001a0: 56f0 aabb 4c96 27bd 9c11 8abd f2af 41be
000001b0: 968c f13d 91df 25bc 0eea e93d 6784 fa3b
000001c0: 6720 a43e 230c 123e 7a36 7e3d 4f88 a73c
000001d0: 9983 903e 0a0e 84be f6ab d5bc 539d 1e3d
000001e0: ec08 a93d 8600 4b3d 48a5 03be fa3d 0fbd
000001f0: 6d53 913c 62b8 d63d 90d0 7d3d 5695 93bc
00000200: 758f 74be 6aaa 5d3e 106e c93e 19ef 3abf
00000210: 8f7a b1be 2451 febe 285e 933e 8794 8e3e
00000220: db80 c7be 6256 ebbe 0673 f5bd b3a4 cd3d
00000230: 1458 55bb 2e3c 5fbd 0def 7d3d 3b66 b5be
00000240: ea9c 8e3d 08e9 bd3e cfa7 f3bd c0d8 393f
00000250: 045c aa3e b5bf ab3e 6334 c93d 24f7 31bf
00000260: 75b8 533d 954d c3be 9a1d c53d 5c02 50be
00000270: b78c e23c d517 e4be de62 c23e c32e 153e
00000280: ed59 043f 7bf3 cc3e f055 e33e 1cf6 ad3e
00000290: 2d5b abbe ac9b 853e 7f80 5ebe 8b12 88bd
000002a0: 086e ce3e ef85 15be 7538 303f 56e7 d6bc
000002b0: ae83 06be ea8a 3a3f 703a 90bf 8f73 4e3d
000002c0: 6283 8ebe da97 5abe 5aaa 99bf f23e 2f3f
000002d0: 719c 4d3e aff4 aabd 707d 023e c875 5c3e
000002e0: 2280 8abd 2a18 963d 073c 01bd 6cd0 c33d
000002f0: b967 013f 7dec e9be 31c8 833e 9d75 ad3e
00000300: 72cd 1a3f 927e f4be ba14 223d 4f7b 4cbf
00000310: f50e c13e e79b e93d b647 bb3e d523 7e3f
00000320: 8684 913e 2f5c 87be 6448 423d bd54 863d
00000330: 1908 9f3e 0964 5e3f a0e6 383e d84e 003f
00000340: 5b04 ebbe 9166 42be a876 973e 7afd 0dbd
00000350: da6c a9be 3e1a 1cbe 58b2 e9be b884 713e
00000360: 1d99 603e 0660 c03e b106 4a3d 42b2 3d3e
00000370: 371f c73e ce30 efbe 1d7e 00bf 034a 04bf
00000380: 3797 013f 2bac aebe 7714 95bf 4948 793d
00000390: 3f2e f8be fa54 56be 2edb 5fbf 1c28 a73e
000003a0: d625 86be 3298 e3be f1c5 663e 5658 a4be
000003b0: 10b1 ebbd 0c21 95be 6de7 a6bd 362b 8dbf
000003c0: 78ad c23d 799c 0cbf 1ac5 083e b147 7d3e
000003d0: d381 bd3e 2e1e 183e b011 10be b01a 8a3e
000003e0: ca3b 923e 2375 0a3d 98e1 d93d 1034 08bf
000003f0: 393c ffbd bffb 8d3e 6b23 363f 934a 0bbf
0.022333752 -0.06413092 -0.10936692 0.124073096 0.019427443 -0.104974195 0.04286291 0.014870089
0.039548647 0.16902961 -0.13008387 0.12302691 -0.0161949 -0.21959896 -0.19996238 0.05906971
0.13741167 -0.110647656 0.05159815 -0.03196867 -0.105306454 -0.16006242 0.11497263 0.3156238
0.09061988 0.11115462 0.010963042 -0.09387207 0.028243769 0.022559883 -0.13360684 -0.09038287
0.064867 0.013985638 0.053739246 -0.14619036 -0.17426823 -0.014679358 -0.1718774 -0.039232034
-0.019258201 0.10200834 0.040699672 0.07018824 -0.12990846 -0.21338096 -0.08776833 0.079795405
-0.015113072 0.046328787 0.06888093 0.020820344 -0.15010823 0.034181997 0.03004541 0.08425754
0.14385514 0.037104975 0.055613883 0.20090868 -0.27716413 -0.20575574 -0.11125257 -0.13801663
0.045537286 -0.117083274 0.03832609 -0.1406949 -0.05830325 -0.002144043 0.09692507 -0.01112618
0.1559392 -0.03009607 0.21395594 0.06908621 0.08030124 0.16999935 -0.043784782 -0.07860018
-0.14512861 -0.026433278 -0.06637844 -0.06608753 -0.15013324 -0.118949085 0.062358838 -0.05241383
0.068629034 0.073984966 -0.08085279 0.14519165 -0.0885403 0.012823809 -0.0476379 0.25116673
-0.0072008045 0.00094063964 0.11393814 -0.0965903 0.010838526 -0.12520848 0.116428144 -0.14853054
-0.0052166386 -0.04091482 -0.0674164 -0.18914774 0.11794393 -0.010124103 0.114215955 0.007645178
0.3205597 0.14262442 0.06206367 0.02045074 0.282254 -0.2579196 -0.026082974 0.038724255
0.08253655 0.049561046 -0.12856019 -0.034971215 0.017739976 0.10484387 0.06196648 -0.018015545
-0.2388285 0.21647039 0.39341784 -0.73021084 -0.34663817 -0.4967128 0.28782773 0.27847692
-0.38965496 -0.45964342 -0.119848296 0.100411795 -0.003255372 -0.05450075 0.061995555 -0.35429558
0.06963523 0.3709185 -0.11897241 0.7259636 0.33273327 0.33544698 0.09824445 -0.6951773
0.051689584 -0.38145128 0.09624787 -0.203134 0.027654989 -0.44549432 0.37966055 0.1456862
0.51699716 0.4002951 0.44401503 0.3397683 -0.33468 0.2609533 -0.21728705 -0.06644162
0.40318322 -0.14601873 0.68836147 -0.026233356 -0.1313617 0.72868216 -1.1267834 0.050403174
-0.27834612 -0.2134699 -1.2005112 0.6845542 0.20079209 -0.08347451 0.12743163 0.21529305
-0.06762721 0.07328828 -0.031551387 0.09561238 0.50548893 -0.4568824 0.2573867 0.33878794
0.60469735 -0.47752815 0.039570548 -0.79875654 0.37706724 0.11406689 0.3657815 0.99273425
0.2842142 -0.26437518 0.04743232 0.06559131 0.31060866 0.8687139 0.18056726 0.50120306
-0.4590176 -0.18984438 0.29582715 -0.034665562 -0.3309086 -0.15244386 -0.45643878 0.23585784
0.21933408 0.3757326 0.049322788 0.18525031 0.38891003 -0.46716923 -0.50192434 -0.5167543
0.5062136 -0.3411573 -1.164687 0.060859952 -0.48472783 -0.20930853 -0.87443817 0.3264779
-0.26200742 -0.44452053 0.22536446 -0.32098645 -0.11508381 -0.29126775 -0.0814961 -1.1028812
0.09505743 -0.5492626 0.13356438 0.2473438 0.3701311 0.14855263 -0.14069247 0.26973486
0.2856124 0.033803117 0.10638732 -0.5320444 -0.124626584 0.2773113 0.71147794 -0.54410666

actor.2.bias f4 [128]
00000000: c0ec e9bc 72c6 abbe 2910 3c3d 06be b5bd
00000010: 5fb2 8d3c db0b 8dba f620 fcbc 0aba 373f
00000020: 0649 90bc 7026 243e 7031 11be 4df1 d2bb
00000030: f92b 28bd be37 8abe e9b1 f8bd 71ca bb3d
00000040: b564 8ebd 983a c53c 9aa1 8bbe d97d 613d
00000050: 07bb 383e 9173 72bd 20a4 f43e 9056 81bd
00000060: 4a7a 803d 1a8c 0c3e 0d65 483c 621b e7bc
00000070: a933 e3bd fd9f 7abd 047d 453e e34d 323e
00000080: 1441 89bd 2a3d dd3c dff3 5e3c 0f13 6a3e
00000090: e66f 6a3d 65b3 35bd bd1d 803d 573d 31bd
000000a0: 178e 5abd 2b00 21bf 8865 96bd 88ff 4bbc
000000b0: 84bd 49bc c536 843d f0ea b23d 11bc 0ebd
000000c0: 98bf 803d ca16 213f c1c1 a8be eda8 48bd
000000d0: 2825 99bd 1b95 c4bc 0a4e 0f3d 79e3 d4bd
000000e0: 3ce1 f1bb 3ce4 373d 5a48 1ebd 7bfc 233d
000000f0: c30c cb3c 9755 3b3d dfb0 713e 87b2 8c3d
00000100: a230 d2be c73f 88be 945d 59bd 6144 803b
00000110: 0692 e03c 8652 50bd 9541 0a3e 7043 1c3e
00000120: b479 63ba 1485 14bf e349 c9bd a3b8 b93d
00000130: 9518 cc3c 35ab 303e 2826 143e 8f8c 7a3d
00000140: 7f42 33be 9cea a2bd c946 9ebd 8e1b 2f3e
00000150: 22d8 c13d 971f fe3c f632 823e ff4c a93d
00000160: 8bcd db3e 49ef 9a3e aba3 0bbe a7f9 4ebf
00000170: 495c adbd fa27 b23b 406e b33d 2df2 45be
00000180: 5a57 edbd c5c5 ebbd 8c39 48be 9202 143f
00000190: f032 fcbe 87f1 193e 09cf 573e 8dfd 15be
000001a0: 9411 01be ceea 8b3d 38cc c8bd 6cac 0ebe
000001b0: c59e 0a3e 776a bdbd 9d91 75bd 0a1f fe3d
000001c0: 0678 a6bd e484 b3be 11d6 023e 390d 3f3d
000001d0: 4311 a1bd c4f4 523e 7b3e a13d 8cf5 9cbe
000001e0: d544 db3d fc51 ccbd 767b b93c e6b8 3bbc
000001f0: fc72 bdbd 8b01 b93d 3c19 2c3d ac9a 0a3f
-0.028555274 -0.3354984 0.04591385 -0.08874135 0.017296968 -0.001076098 -0.030777436 0.7176825
-0.017612945 0.16030288 -0.14179015 -0.0064374567 -0.04105756 -0.26995653 -0.12143309 0.09169472
-0.06952802 0.024075791 -0.2727173 0.05505166 0.18040095 -0.059192244 0.47781467 -0.063153386
0.06273325 0.1372532 0.012231124 -0.0282113 -0.11093838 -0.061187733 0.19285971 0.17412524
-0.06701866 0.027006704 0.013607948 0.22858833 0.05723562 -0.044360537 0.06255672 -0.04327139
-0.053358164 -0.6289088 -0.07343584 -0.01245106 -0.01231325 0.06455759 0.08736217 -0.034847323
0.062865436 0.629254 -0.32960322 -0.048989225 -0.0747779 -0.02399688 0.034986533 -0.103949495
-0.0073815864 0.044895396 -0.03864322 0.040035706 0.024786359 0.04573592 0.23602627 0.06869989
-0.4105273 -0.26611158 -0.05306776 0.0039144014 0.02741338 -0.05085995 0.1350158 0.152601
-0.0008677498 -0.5801556 -0.09828546 0.0906842 0.024914065 0.1725281 0.1446768 0.061169203
-0.17505835 -0.079549044 -0.07728345 0.17100355 0.09465052 0.031020923 0.25429505 0.08266639
0.42930254 0.30260685 -0.13636653 -0.8084969 -0.084648676 0.0054368945 0.08761263 -0.19330664
-0.115889266 -0.11512331 -0.19553202 0.5781642 -0.49257612 0.15033542 0.21075071 -0.14647503
-0.12604362 0.06831895 -0.09804577 -0.13932961 0.13537128 -0.09248822 -0.05995332 0.12408264
-0.081283614 -0.35062325 0.12776972 0.04664347 -0.078646205 0.20601183 0.07873245 -0.30656087
0.10706488 -0.09976575 0.022641879 -0.011457657 -0.09250447 0.090334974 0.042016253 0.5414226

actor.4.weight f4 [4, 128]
00000000: 6c61 073c c1d0 70be a42f 24ba 52b2 83bb
00000010: 91ba 873a 1700 8abb 8578 563a 6fac da3d
00000020: 4fd3 b93c f762 f63d f752 d4bb 5062 883b
00000030: 968a b5bd 65b4 3abd eff5 01ba 1aff 47ba
00000040: 2182 dfba 4848 413b d543 0bbe 7620 2e3b
00000050: b1a7 edbc 1cb9 843a d7f9 d33d e2e9 473b
00000060: 5026 ea3b 5642 cfbb 6f3d bfbd d3a6 a83b
00000070: e413 2fbb 49a5 173d d3fc 483d ccb5 2e3d
00000080: 9923 0b3b b424 193b cd54 26bd 25bc e8bc
00000090: e6e0 583c 6b3f 343a f3f7 c63a eb97 4c3b
000000a0: 3289 243b b7a0 92be f059 3dbb 260c d73d
000000b0: 6212 f0bd a713 9d3d e6db dcbb d931 f139
000000c0: 4d10 d8bc 2d2c ad3c 5e8a 4c3d 21b9 a13a
000000d0: 6f85 a6bb 5ce4 9c3c 2dee 5a3b e42b 7cbb
000000e0: 1838 6cbb 65a7 e8bb fc13 91bd d970 8b3b
000000f0: 4a08 6039 167a 40bb 95cd 5dbd ee6e 1abc
00000100: cfda 8cbd 6675 7abe 2b21 1abb 68f4 c7bb
00000110: a3c3 5fbb 59fe 8fbb 7bfb 1a3b 7def ceb9
00000120: 9253 3e39 76a6 8dbd f65c 40ba d11b 1f3a
00000130: d4f3 ab3d cbca 623e 6f57 23bb 5303 05bb
00000140: 8625 f9b9 e2eb 11be 7c2f a3bb 6927 5b3b
00000150: 0fac 41bd df91 fc3d e1ab 7b3e f742 13bc
00000160: 7008 d63d f86b 453e 6976 2fbe 22c0 1abf
00000170: a39f 773a 58bb 04bd 2d40 a33d ba6e f63d
00000180: 50e8 0b39 d13c 7dbb 1001 c037 2a7d 683d
00000190: 09b0 d93c 900f d13d e1a9 7dbc 56e9 c2bc
000001a0: a8c0 90ba 8f85 31ba 6308 dabc d9ab 0e3e
000001b0: f9c4 31bb 49b0 bbba 01e0 463a 0dcd 2c3b
000001c0: 339a f73c 7318 40be 4bd8 553c 8901 ea3a
000001d0: 58ea ec3b 686d 16be 2223 17b9 bf2d 1dbe
000001e0: 20d3 983d 04c7 8539 2f6b 23ba 136c dbba
000001f0: 7a2f 963d 855c 183e 4086 0eba 0805 aabd
00000200: bff1 0d3b d3a1 34bc 6358 67ba e23c 113b
00000210: 8f7d 9aba ed9e 3aba ca8a 94ba 68b8 c53e
00000220: e26b 4fbd 7478 e23d 450c b93a a7c8 303b
00000230: e89f 8f3e 596b dcbb 59f6 f3ba a5c9 f839
00000240: 5beb 5d3b 905e a63a 0434 3cbd 2069 2cbb
00000250: aad7 a3bc b5a4 973a 41db cd3d 8646 fb3a
00000260: fb40 06bb c27f 8f3d 6620 5c3d aa59 7cb9
00000270: 4aee c838 ce29 2bbe 6d50 36bc ee45 39bd
00000280: 92d7 0bba f46e 7f3a affd 463b b940 ce3d
00000290: 77f3 8b3c 698a e3b9 f633 6d3b dcd4 963a
000002a0: 7ee0 fa39 155d 33be 3e78 b0bb c1cf 003e
000002b0: 9389 a13d 77d6 2dbe 7bd4 0e3b 6559 48ba
000002c0: 90fa 3f3d c10f 6b3e 3cf6 a0bd 4bf6 853a
000002d0: 9d5b 333b 86bf d13e ac58 073a 7e53 1bb9
000002e0: d288 1dba 23aa 95b9 866a f83d 4646 bcba
000002f0: de93 9cb9 8c38 543a 380d ae3d 1b2a 1c3b
00000300: 6af6 8cbd 08eb 9cbc ba9b 1dbb 4623 1dba
00000310: 36b5 65b9 18c5 d83a 3582 b63a b9d5 813a
00000320: 7c94 d53a 3ac7 0cbe 3c24 cdb9 ff42 0639
00000330: 0ccf 203d 5290 85bd 810a d9ba 58fe 883a
00000340: dc82 2aba 4075 8dbc 02b5 42bb ae0a 203a
00000350: 1e64 1ebe 0831 d1bb a128 62bb e916 633b
00000360: 29f2 8fbd d382 5b3d 1061 60bd b034 22be
00000370: 6908 723a 7bd7 7cba 8ea3 be3d fafc 873c
00000380: b05b 49bb d22b baba 8a2d 0abb 9000 263e
00000390: 2d4d 35be 7e44 27bd 6e7c 063e cc36 2a3c
000003a0: f386 80bb dcdf 01bb c1af d93d 80d5 a13d
000003b0: 2663 91ba 7151 2ebb 0cfc 59bb 3309 323b
000003c0: 390f 4cbc 4e47 2cbe 8c62 013e 31cd 90ba
000003d0: 5726 1938 07fa 0b3d 1bcd b8b9 aa94 873d
000003e0: cb99 d23c 67ca 083a 9d66 2f3a b375 c5ba
000003f0: 1660 72bd d995 0d3d e4a1 873a 74ba 5b3e
0.008262973 -0.23517133 -0.00062632025 -0.00401906 0.0010355284 -0.0042114365 0.0008181411 0.1067742
0.022683768 0.12030595 -0.0064796167 0.0041621104 -0.08864324 -0.045582194 -0.00049576064 -0.00076292607
-0.0017052331 0.0029492546 -0.13600095 0.0026569641 -0.029010626 0.0010125968 0.103503875 0.0030504395
0.0071456805 -0.0063250465 -0.093378894 0.00514684 -0.0026714737 0.037022863 0.049069237 0.042653844
0.0021230935 0.0023367824 -0.040608216 -0.028410027 0.013237214 0.0006875905 0.0015180096 0.003121848
0.002510619 -0.2863824 -0.0028892718 0.10500364 -0.11722256 0.07669764 -0.006740081 0.0004600424
-0.02637496 0.021139229 0.049936645 0.0012338498 -0.0050818245 0.019151859 0.0033406124 -0.003847831
-0.0036044177 -0.007100033 -0.0708389 0.004255396 0.00021365393 -0.0029369644 -0.054151136 -0.009425862
-0.06877672 -0.24458846 -0.0023518305 -0.0061021335 -0.0034143708 -0.0043943343 0.002364843 -0.00039469815
0.00018150944 -0.069165155 -0.0007338071 0.00060695136 0.08396116 0.22147672 -0.002492394 -0.002029617
-0.00047520938 -0.14250138 -0.004980026 0.0033440238 -0.04728323 0.1233251 0.24577285 -0.008988134
0.10450828 0.19279468 -0.17135014 -0.6044942 0.000944609 -0.032405227 0.07971225 0.12032838
0.00013342616 -0.0038640986 2.2888678e-05 0.05675999 0.026573198 0.102080464 -0.015482397 -0.023792904
-0.0011043744 -0.0006771916 -0.026615327 0.13932742 -0.0027125461 -0.0014319505 0.000758648 0.0026367337
0.030224895 -0.18759327 0.013052057 0.0017853241 0.0072300844 -0.14690173 -0.0001441357 -0.15349482
0.07462144 0.00025516015 -0.0006233928 -0.0016740583 0.07333274 0.14879043 -0.0005436875 -0.08301741
0.0021658984 -0.01102491 -0.00088251213 0.0022161533 -0.0011786687 -0.00071190187 -0.0011332866 0.38617253
-0.050639994 0.11058131 0.0014118036 0.0026975067 0.28051686 -0.006726664 -0.0018612846 0.00047452483
0.0033862207 0.0012692977 -0.045948043 -0.0026307777 -0.020000298 0.0011569472 0.10051585 0.0019170798
-0.0020485509 0.0700679 0.053741835 -0.00024065995 9.581128e-05 -0.16715166 -0.011127573 -0.045232706
-0.00053345517 0.00097440113 0.003036361 0.100709386 0.017083867 -0.00043399938 0.0036194301 0.0011507529
0.00047850976 -0.17515977 -0.0053854277 0.12579252 0.07887568 -0.16976343 0.0021794129 -0.00076427154
0.046869814 0.22955228 -0.078594655 0.0010220496 0.0027367838 0.40966433 0.00051630544 -0.00014813055
-0.00060094625 -0.00028546256 0.12129693 -0.0014364205 -0.00029864808 0.00080955843 0.08498615 0.0023828808
-0.06882937 -0.01915504 -0.002404912 -0.0005994331 -0.00021906648 0.0016538231 0.0013924303 0.0009905613
0.0016294862 -0.13747874 -0.00039127644 0.00012804194 0.039259955 -0.065216675 -0.0016558917 0.0010451777
-0.0006504485 -0.017267823 -0.002970994 0.0006105107 -0.15467879 -0.006384019 -0.003450908 0.0034651107
-0.0702861 0.05359156 -0.054780066 -0.15840411 0.00092328206 -0.0009645146 0.09308539 0.01660012
-0.0030724816 -0.0014203733 -0.0021084272 0.16211152 -0.17705221 -0.040836804 0.13133404 0.010389041
-0.003922337 -0.0019817268 0.106292255 0.0790205 -0.0011092171 -0.0026598836 -0.0033261804 0.0027166128
-0.012454801 -0.16824076 0.12635249 -0.001104748 3.651375e-05 0.03417399 -0.0003524803 0.06620152
0.0257081 0.00052181486 0.0006691011 -0.0015064984 -0.059173666 0.034566734 0.001034793 0.21457845

actor.4.bias f4 [4]
00000000: 070a 913e 83ec f03e 4097 b73e 23df e73e
0.28327963 0.47055444 0.35857582 0.45287427

critic.0.weight f4 [128, 17]
00000000: b819 e03d 7ecc 6ebe b831 6f3f 3223 9bbe
00000010: 86f8 6e3e c82c 823f e385 953e aad8 b73f
00000020: 479e a33e de1d 02be 95f2 a1bf 6ec3 0bbf
00000030: 4531 60be bd2e 9fbb 92b2 003e 43d3 e43d
00000040: 3d6f 573e ee13 bf3e cc6c 4d3e b24b 3e3f
00000050: 24cd ffbd 6ddf ef3d 4c2d 703e e457 0e3e
00000060: d5c4 efbe 8021 253f 2df8 6fbd aa50 7f3e
00000070: b5bc 3b3f 6290 f33e 5d12 193e 250a b73e
00000080: 0786 143e f4a1 293e 767a 38bf b443 74bf
00000090: 7d7c 283f 32f9 cabc 0d85 ba3e d92b e03d
000000a0: d178 c7bd a03d 3fbe 317c 4bbe 8813 5cbe
000000b0: 2271 953e ca02 143f a6d4 3cbe 9dd3 e93d
000000c0: 1dbf 363e 6496 1a3e 9528 373e f0c5 0bbe
000000d0: 3284 30bc 98a9 e23f 3717 44be a33a 893f
000000e0: fe0d 1740 2c17 95bf 9069 40bd 8325 5d3f
000000f0: 4747 91be 9335 09bf 8d52 0fbe eaa5 87be
00000100: 848e 4cbd c0bf 15bd 64d9 49be 11a5 9c3d
00000110: b4d4 333e 8fb3 d1be 1a47 e0bf 3aac 923e
00000120: c8e6 adbe 23f2 9abf 0cc7 6f3b 66ab 55be
00000130: ae58 8d3e 4926 3c3e 4863 d03e d8bc 8cbe
00000140: 69f1 863e 3286 523c b251 b0bd 7acd febd
00000150: dee9 753e fbc9 60bf b6e1 70bf 4237 943f
00000160: e5d9 b13b 082a 8c3f ff48 ce3f 3c63 18bf
00000170: 4520 443e 9b0d 9abe 939b 913e a22b 9cbe
00000180: e2b3 4abe 9b6e 4e3d 6b0c ecbd b09e 76be
00000190: ee05 a0be d08f 93bc 0c29 d4bf e120 62bf
000001a0: 99a7 1c40 ac3b 87be 201b 943e c1a5 b93d
000001b0: 7124 6d3e 0938 8e3f 0ffd 52be d077 c53e
000001c0: e3bd 9f3e 6013 48be d6d5 913e bba8 bcbd
000001d0: 9847 08be d2d1 45be bb87 3a3c 38ab c7bc
000001e0: d1e2 82be bdf5 81bf 0be7 a73e a6d3 2a3e
000001f0: 228e 2e3f 1691 b7be 7b57 d3be d938 203f
00000200: 47ae 32be 97eb 153f d83b 4b3f acd4 a8be
00000210: 7c96 803c 8d81 ea3d 52a0 a23d d551 e33c
00000220: 57e9 0e3f d907 4e3d 3524 bdbe 8bdb 9c3e
00000230: 9dee 803f 6595 6bbf f7f3 33bd 7e09 e73d
00000240: f2b2 a0bf 0d70 12bf 0bfb e73d fd4d 623e
00000250: 0899 743e 4f1f 333e 52ac 473e f582 083e
00000260: 1adb b43d 4f0e 3cbf d03e 84bf 8871 b1bd
00000270: 4bfd ce3e d223 6fbf 6bea 6d3f 1dbb 013e
00000280: 38e5 a53f adc5 24be 2324 023f 3b29 b03c
00000290: 17ad 2b3e 0f8b ac3e c4bf b63d d83a 033d
000002a0: 31f8 9dbd 5bd1 92bc 034e c23d de60 c83e
000002b0: 2068 0240 a56f 34bd 9731 a83e 23d0 f5be
000002c0: 6b19 4ebf ac1e 5cbe dd02 eb3e 18f8 003f
000002d0: 5040 373f f98d 8bbe 09a7 903f 962d b3bc
000002e0: 995e e4bc b081 6f3e b579 d33c 8a6a 2dbf
000002f0: 1980 e9bd 306c eabf daa5 22bd 4457 42bf
00000300: 11fa d53f 130f 6cbf b424 34be 28bc 273f
00000310: a308 6e3e 01d5 52be 5a4c 313e 0f51 a9be
00000320: 7dd3 8e3d abf5 033e 4d09 203e 4ca7 ab3d
00000330: 2687 453f 3149 b63f 421f 15bf ef55 73be
00000340: ba88 453e 291d c23e bcdf 343d 9a35 143e
00000350: 2f46 28be 699e 54bd e3c9 cbbe 740d c6bd
00000360: e207 e9be 5d74 933e e1eb 08bd 92ee d0bd
00000370: 4999 2b3e ba1c 183e c299 403f b051 44bf
00000380: d5fc a9be 9455 2a3f 352d fe3e f903 34bf
00000390: 8794 a93e 3cfb 383f 0917 9bbe 553b 283d
000003a0: e896 2dbe 120b 503f 4ead b93d d845 5c3e
000003b0: 7b58 043e 1c85 483d c465 e03e 4734 2ebf
000003c0: e0ad 203f 87eb bcbe 5791 c2be 7961 033f
000003d0: e086 8dbf 1442 e43e c198 c8be 3692 f93e
000003e0: 876e b73f 07a8 113e 3ae2 3d3e f41c acbd
000003f0: 7d46 32be e5be 38bd 65c5 8c3c 1cd0 0d3d
0.109424055 -0.23320195 0.9343524 -0.3030029 0.23336992 1.0169916 0.2920371 1.4362996
0.31956694 -0.12706706 -1.2652155 -0.5459508 -0.21893795 -0.0048578666 0.12568119 0.111731075
0.21038528 0.37319893 0.20061034 0.7433425 -0.12490299 0.11712537 0.2345478 0.13900715
-0.46829858 0.6450424 -0.05858629 0.24933115 0.7333482 0.47571093 0.14948411 0.35749927
0.14504252 0.16565686 -0.7206186 -0.95415807 0.65814954 -0.024777029 0.36429635 0.10945863
-0.09739841 -0.18675852 -0.19871594 -0.21491826 0.29187876 0.57816756 -0.18440494 0.11417315
0.17846341 0.15096432 0.17886575 -0.13649726 -0.010773705 1.7708006 -0.19149481 1.072102
2.360229 -1.1647696 -0.046975672 0.86385363 -0.28374693 -0.5359737 -0.13996334 -0.2649377
-0.0499406 -0.03655982 -0.19711834 0.076486714 0.17561609 -0.40957305 -1.7521698 0.28647023
-0.33965135 -1.2105144 0.0036587147 -0.20866165 0.2760672 0.1837398 0.40700746 -0.27487826
0.26356056 0.0128493775 -0.08609332 -0.12441535 0.24014995 -0.878082 -0.9409441 1.1579363
0.0054275864 1.0950327 1.6116027 -0.5952642 0.19152935 -0.30088505 0.28439006 -0.3050204
-0.19795182 0.05039845 -0.11525806 -0.24083972 -0.31254524 -0.018012911 -1.6575027 -0.8833142
2.4477293 -0.26412714 0.28926945 0.09064818 0.23158433 1.111085 -0.20604347 0.38567972
0.3119956 -0.19538641 0.28483456 -0.0921187 -0.13308561 -0.19318321 0.0113849 -0.024373636
-0.25563672 -1.0153118 0.3279346 0.166823 0.6818563 -0.3585288 -0.4127768 0.6258674
-0.17449294 0.58562607 0.7938819 -0.32974756 0.015696757 0.11450491 0.07940735 0.027748981
0.558248 0.050300453 -0.36941686 0.30636248 1.0072819 -0.9202483 -0.043933835 0.11281107
-1.255461 -0.57202226 0.113271795 0.22100063 0.23886502 0.17492412 0.19499329 0.13331206
0.08830853 -0.73459333 -1.0331669 -0.086642325 0.40427622 -0.9341403 0.9293582 0.12669034
1.2960577 -0.16091032 0.5083639 0.021504035 0.16765247 0.33699843 0.08923295 0.03203854
-0.077133544 -0.017922094 0.09487536 0.39136404 2.0376053 -0.044051785 0.32850334 -0.48010358
-0.80507535 -0.21496075 0.45900622 0.5037856 0.7158251 -0.27256754 1.1300975 -0.021872323
-0.027877139 0.23389316 0.02581487 -0.6774069 -0.11401386 -1.8314266 -0.03970895 -0.75914407
1.6716939 -0.922105 -0.17592126 0.6552148 0.23245482 -0.20589067 0.17314282 -0.33069655
0.06973932 0.12886684 0.15628548 0.08381519 0.77159345 1.4241086 -0.5825082 -0.2376325
0.19290438 0.37912872 0.044158682 0.14473572 -0.16433023 -0.051908884 -0.39802465 -0.09670535
-0.45513827 0.28799716 -0.033428077 -0.10201754 0.16757692 0.14854708 0.75234616 -0.76687145
-0.33200708 0.6653683 0.49643865 -0.7031856 0.3312113 0.72258353 -0.30291012 0.04107221
-0.16952097 0.8126689 0.09066258 0.21511018 0.12924378 0.048955068 0.4382764 -0.6804852
0.6276531 -0.36898443 -0.3800151 0.51320606 -1.1056786 0.44581664 -0.39179042 0.48744363
1.4330605 0.14224254 0.1854333 -0.0840396 -0.17409702 -0.045103926 0.017183969 0.034622297

critic.0.bias f4 [128]
00000000: 2f63 80be c680 9e3e 77cc abbe 7ff3 093e
00000010: ac09 13be c1b4 c3bc 8110 a3be 546e d0bc
00000020: 335a 593d dd61 d1bc 8a36 de3b 8b65 49be
00000030: 4a24 9d3d 328f 8ebe c3fe 01be 698b 04be
00000040: cebf 88be ce43 2fbd 25f4 12be 7664 8f3e
00000050: 6d5c c5bd d9c7 aabd 1bf9 e83c 1a65 3ebd
00000060: f2e8 ff3e 5a8a 42be 19df 9dbd a8fb 4bbd
00000070: 846f 72bd 5f6d 5abe a51b 1abc 8cbe 24be
00000080: d7e6 333d 643b 46bd f944 773c 2554 28be
00000090: 1680 0bbe 98b8 3a3e 4ced 16be b542 c9bc
000000a0: 7720 33bd ffa7 363c 0112 353e b85f 493d
000000b0: 4d5b ad3e d5de b9bd 503b 4e3e 64bf 903c
000000c0: 51d9 17be a234 65be 31eb 4d3e 5ef2 223e
000000d0: 9684 4ebd db7a bbbc cc68 15be fc67 1d3e
000000e0: 1eaf a73d be4d 7a3e 6088 383d 08cc b03d
000000f0: 8d0e 9ebe 0f29 323e efa0 ffbd a534 0e3d
00000100: 2122 153e 368f 5b3e e5c4 373e 32b0 c83d
00000110: 1ec5 a43d d291 45be 726c 94bc f049 2e3e
00000120: ee66 52be 27df 703e 0b3a 73bc 49c7 76bd
00000130: d297 da3e c938 6abe f4c0 b9bd 6a09 7dbe
00000140: 458f 26bc 4406 0b3e 531b 2bbe b05e 2c3e
00000150: 3764 c4bd 8bda 6abe 4962 673e 145d 7cbe
00000160: fd4f e43d 857a 223d 50f4 543d 44eb 14be
00000170: 1f2f a6bd 285d fa3d d5ce eabd e9b4 30be
00000180: 3965 8fbe abb5 18bd 7b48 13be da17 9b3d
00000190: d9e6 17bc b767 053e a16f 0c3e 91af 2e3d
000001a0: b32b 21be 824e 833d 6933 cf3d d9e0 d33c
000001b0: 8209 8c3e f93c de3d 1f0f f5bd f786 ab3e
000001c0: 7943 3ebe bd47 9d3e 28c2 90be 2b78 5ebd
000001d0: 8346 0f3e 67fe d93d ca06 af3d 0875 18bd
000001e0: 5bb3 46bc c0c2 c6bd bb7b 2fbf c7c7 7d3c
000001f0: 72fc eabd 208f 483d cce9 163d cd84 e03d
-0.2507567 0.3095762 -0.33554432 0.13471793 -0.14359158 -0.023889901 -0.3184853 -0.025443234
0.053064536 -0.02555936 0.006781404 -0.19667642 0.07672937 -0.27843624 -0.1269484 -0.12943806
-0.26708835 -0.042789273 -0.14350946 0.28006333 -0.096367694 -0.08338899 0.028439095 -0.046483137
0.4998241 -0.1899809 -0.07708568 -0.049800545 -0.05918838 -0.21330784 -0.009406005 -0.16088313
0.043921318 -0.048396483 0.015092128 -0.16438349 -0.1362308 0.1823448 -0.14738959 -0.024567941
-0.043732133 0.011148452 0.17682649 0.04916355 0.3385872 -0.09075705 0.20139813 0.017669387
-0.14828993 -0.22383359 0.2010925 0.15912768 -0.050419413 -0.02288573 -0.14590758 0.15371698
0.08187698 0.24443719 0.045051932 0.08632666 -0.30870476 0.17398475 -0.124818675 0.034718174
0.145638 0.2144135 0.17946203 0.097992316 0.080454096 -0.19293907 -0.018118117 0.17020392
-0.20547077 0.23522626 -0.0148453815 -0.060248647 0.42693955 -0.22873224 -0.09070006 -0.24710622
-0.010165994 0.13576609 -0.16709642 0.16832995 -0.09589427 -0.2293493 0.22596087 -0.24644881
0.11148069 0.039667625 0.051990807 -0.14542872 -0.081144564 0.122247994 -0.11465231 -0.17256512
-0.28006914 -0.037282627 -0.14383118 0.07572909 -0.009271347 0.13027845 0.13714458 0.042647902
-0.15739326 0.064114586 0.101172276 0.025864052 0.27351004 0.10851473 -0.11965775 0.33501408
-0.18580426 0.30718794 -0.2827313 -0.05431382 0.13991742 0.106442265 0.08546217 -0.037220985
-0.012127723 -0.09705114 -0.6854817 0.015489525 -0.11473931 0.04896462 0.03684406 0.1096283

critic.2.weight f4 [128, 128]
00000000: 514b 10be 9a73 cb3d d468 b7bd 6f84 6fbe
00000010: 4d88 b63d 2b19 c4bd e27b 01be 952b c3be
00000020: 0fb1 b3be caf9 953d 3fa3 bb3d b0a8 d43d
00000030: 35c1 833e 90b6 3dbe 9100 d6be 5452 92be
00000040: a004 eb3d 5185 fc3e f6e2 e3bd 704d 453e
00000050: c0f2 223d 2ebf bd3e 29e9 b93e ab6a b4be
00000060: 93a9 823d 8384 81be 3643 d03c 993e 603c
00000070: 5a8f 8ebc a9c7 1fbe e217 9abd cfe6 d1be
00000080: 1da7 15be 2b5c 07bd 7945 823d 1a6d e03e
00000090: a575 9cbc c99e 2ebe 369b 0bbe 8871 0e3e
000000a0: c684 5ebe 507b 913c 1e22 a13e a799 35be
000000b0: c7ad 653e 4a81 5e3c fd1e 9d3e 6886 f03e
000000c0: a782 e6be 1d57 f43d 96aa 24be 0ca8 d0bc
000000d0: f3d1 b43e 154b 9e3e 4455 6c3c 0a5a 3bbe
000000e0: d983 04bf a035 9e3e 4a88 21bf 89d5 883e
000000f0: d785 8a3e 2eec 80be 5947 2e3e f452 ebbd
00000100: 0ef7 5abe afa7 35be 0ece 563d 4536 8e3e
00000110: ee70 8f3d fcad 1b3e 35c5 2c3d cddb 343e
00000120: 3adc c9bd 6346 98be 3516 74be 6e4e 90be
00000130: d50b 403e 67f8 23bf ba00 d6be dd9b 5f3e
00000140: 8b59 863e c5f3 2fbe da66 403e 5962 aa3d
00000150: 7178 353e e0e9 cebe d8c2 46be f6de 733d
00000160: fd0f 413e a570 3cbf 7a4b 173e dd20 b03d
00000170: c2ae 3dbe 0a5f 673e bcc8 283e 62db b1bd
00000180: bbd3 8d3e fad1 00bf df8a 893e 41c5 6fbe
00000190: 15f6 893e 8e98 e4bd f137 8bbc 88d1 cdbc
000001a0: a8ab 25be 983f afbe 96b1 d13d fc96 d33d
000001b0: d2c5 a2bc 3756 0a3f 5cbe 183f 4d1b 813e
000001c0: 5e3c edbc a8e7 8f3e 2a81 803e 210e 353b
000001d0: 8830 0f3f 65a8 de3d 18e1 053f e467 0abe
000001e0: c4ac 81be fc43 463e 7e3f 8a3d 1477 19be
000001f0: cd35 85be ac0b 8bbe 30dc 77be 2af6 543e
00000200: 13d7 23be c3d9 8d3e 397c 083e 1649 0b3d
00000210: ca8c e73e 432d 4e3e d2b0 1c3f b18f 87bd
00000220: ab05 633e 0a15 c9bc 4a95 3d3f c1c3 a6be
00000230: 132d d0be 1fbd d13d 14c5 123f 040f 8bbd
00000240: 4b7f debe fb82 d1be 1407 103f 30a7 46bf
00000250: b207 753e 4bfd e53d c5fd 74be f984 8a3d
00000260: cfd4 8f3e fc58 cdbe a79f 553e 4619 42bd
00000270: 32a0 17bf e9d0 0f3d 009b bfbc cfe8 873e
00000280: 4d04 97be a8d6 06bf ef3c ac3c 942f 34bd
00000290: ce33 963e 0026 09bd d050 a73e 0cdf d93e
000002a0: 5110 debe cd4c 403e 303b 91be f4fe 643d
000002b0: 42ac 6ebd 93a5 0d3e 3ca2 10bf 4268 9abe
000002c0: 905d c33e cf9c 663e 261a af3d a73f 96be
000002d0: d7b3 3bbf f933 883d 62be 683f 638c 893e
000002e0: 011a 09bd 6b00 b5be 354f 39be 1735 a1be
000002f0: ca75 9cbd 45e4 ae3b e7e4 8a3e ae13 b83e
00000300: f0cd e73e ac5c ed3d 5cee c03d 3a38 a53d
00000310: 33c2 253f befd 863e 885c a7be a1ed 05bf
00000320: 3b76 84bd 7b5a bebe bb4a acbe 248a 3b3f
00000330: 5446 943e 7224 933e cd4c febd a0f8 923e
00000340: 5b02 023f fbc7 ccbd 76f3 eebd b5d5 263e
00000350: 229f bbbe 1039 14bf f979 353f 2e2c da3d
00000360: 59a2 f03d 1439 d8be 4a63 09bd a999 10bf
00000370: 088a c1bd e46b 0cbd cafe 0fbf ea1e 0cbf
00000380: 388a 27be e6e2 d5be 7271 ccbe 23da 3bbf
00000390: 3f6e 2bbf 82f2 7d3e cf0a 33be 07aa e93d
000003a0: 6c27 03be efea ae3e 0fdf 00be a12f 7f3d
000003b0: f63f abbd faa8 32bc 0583 1d3f e2ca 183e
000003c0: 1647 52bf 4afd 8f3c c1a5 0a3c d6cd 85be
000003d0: 1a32 89bc a204 48bf 7db3 ad3e 8c7d e9bd
000003e0: 4f91 f93e 261c e63e d46e 4a3e fd58 9fbe
000003f0: 3e79 9dbe 894f 2c3f b239 bdbe b2a6 aabe
-0.14091231 0.099341586 -0.08955541 -0.23390363 0.08912716 -0.09575113 -0.12644914 -0.38119188
-0.35096022 0.07323034 0.09161996 0.10383737 0.25733343 -0.18526673 -0.41797307 -0.28578436
0.114754915 0.49320462 -0.11127274 0.19267821 0.039782286 0.3705992 0.363107 -0.3523763
0.0638 -0.2529641 0.025422674 0.013686799 -0.01740234 -0.15603508 -0.075240865 -0.40996405
-0.1461453 -0.033046883 0.06360907 0.43833238 -0.019099066 -0.17052759 -0.13633427 0.13910496
-0.21730337 0.017758995 0.31471342 -0.17734395 0.22429572 0.01358063 0.30687705 0.46977544
-0.45021555 0.11930678 -0.16080698 -0.025470756 0.3531643 0.30916658 0.014424626 -0.18296066
-0.51763684 0.30900288 -0.63098586 0.26725414 0.27055237 -0.2518019 0.17019404 -0.114904314
-0.21383306 -0.17739747 0.052442603 0.2777578 0.070039615 0.15203089 0.04218026 0.17661972
-0.09856458 -0.297412 -0.23836596 -0.28184837 0.18754514 -0.64050907 -0.4179743 0.21836801
0.2624019 -0.17182834 0.18789235 0.083195396 0.17721726 -0.40412807 -0.19410264 0.059538804
0.18853755 -0.7360938 0.14774886 0.08600018 -0.18523696 0.22594848 0.16482824 -0.08684422
0.277006 -0.503204 0.26863763 -0.2341509 0.26945558 -0.1116191 -0.016994448 -0.025124326
-0.16178763 -0.34228206 0.1023895 0.10331532 -0.019869719 0.54037803 0.59665465 0.2521614
-0.02895945 0.28106427 0.25098544 0.002762683 0.5593343 0.108719625 0.5229659 -0.13516194
-0.25327122 0.19361871 0.067503914 -0.14986831 -0.2601761 -0.27157342 -0.24205089 0.20797029
-0.16000013 0.27705202 0.13328637 0.034005247 0.452246 0.20134453 0.61207306 -0.06619204
0.22170131 -0.024546165 0.7405592 -0.32571223 -0.4065939 0.1024115 0.5733197 -0.067899734
-0.43456492 -0.40920243 0.562608 -0.7759886 0.23928717 0.112299524 -0.2392493 0.06763644
0.28092048 -0.40106952 0.20861684 -0.047387384 -0.59228814 0.03511134 -0.02338934 0.26544806
-0.2949547 -0.5267129 0.02102515 -0.043990687 0.293364 -0.033483505 0.32678843 0.42552984
-0.43371823 0.18779297 -0.2836547 0.055907205 -0.058269747 0.13832693 -0.5649755 -0.30157667
0.3815732 0.22520755 0.08549909 -0.29345438 -0.7332129 0.06650538 0.909155 0.2686492
-0.033472065 -0.3535188 -0.18096621 -0.31485817 -0.07639654 0.0053372704 0.27127764 0.35952514
0.45274305 0.115899414 0.094204634 0.08067365 0.6474945 0.26365465 -0.32687783 -0.5231572
-0.06467863 -0.37178406 -0.33650765 0.7325766 0.28959906 0.28738743 -0.12416992 0.2870531
0.50784844 -0.09999081 -0.1166753 0.1629246 -0.36644846 -0.5789957 0.7088924 0.10652958
0.11749715 -0.42231047 -0.033541955 -0.56484467 -0.094501555 -0.03428258 -0.5624815 -0.5473467
-0.1636132 -0.41774672 -0.39930302 -0.73379725 -0.669651 0.2479954 -0.17484592 0.11409383
-0.12808007 0.34163615 -0.1258509 0.06230128 -0.08361809 -0.010904545 0.61528045 0.14921144
-0.8213972 0.017576832 0.00846237 -0.26133603 -0.016747523 -0.7813207 0.33926 -0.11400899
0.48743674 0.4494335 0.1976884 -0.3112258 -0.30756563 0.6730886 -0.3695808 -0.33330303

critic.2.bias f4 [128]
00000000: fabe 643d 5baf 02be fa97 d2bc b05e 0fbe
00000010: e4dc 383e 25ff ecbd c413 ad3e 399a 2a3d
00000020: 5ad3 02be dd0c ccbb 0ef1 c93d 40d1 f73d
00000030: b4ec 23bd 4964 463d 20b6 c4bd 1e49 483e
00000040: 1db9 2abe d012 2b3f 31b8 b13d 091d 163d
00000050: d67d 8e3e 0fed 83bd eef5 53bc 4fff 913c
00000060: 3ce0 62be bf5f afbd 5cbb d03e 4200 c9bd
00000070: a0fe 833b d6b8 113e 12bf 723c 1be5 23bd
00000080: 16f0 02bd 3641 a93d 19a9 a2bd edcc 37bf
00000090: f55b 4f3e 044f 623d 048e 483b 270a 163d
000000a0: 19f4 1cbc b1a1 843e f385 c9bb ad34 ed3d
000000b0: dc1c c43e 10a3 51bf 4bd2 603e 4a6b 5d3d
000000c0: bcb2 a73c 71a5 8a3e db8c 37be 4ff9 2c3d
000000d0: b908 c1bd 7f86 6ebe e17c 893d 3514 873c
000000e0: 8b08 a9be 356f 043c a60e 10bd f7b7 223e
000000f0: 2025 0c3d 978b e2bd a376 a83e 38e2 8a3d
00000100: b0b4 0dbe 2d52 03be 5bc4 af3d 820d 383e
00000110: db1a be3e 9981 e33d de5b 1c3e 305f 903b
00000120: e202 99bd a84b 633e 0d00 ccbd 22aa 713e
00000130: 087f 063e ae45 e83c 5ed2 0ebe 67c6 443e
00000140: 8dc8 c7bd 1e0d d33d 9953 eabe 9714 84be
00000150: 0409 02be eeb7 57be 439a 0e3e d8ff 9ebd
00000160: 12f8 743e f49a 33be 9581 88be 28aa f53d
00000170: 38dd cdbc 1044 ef3c 939d 453e 6830 d33c
00000180: 1a35 c53c 3b78 893d 7c37 22be 97a1 5d3e
00000190: 2b28 acbd dfd0 8dbe 7f3c 9dbe b856 b03d
000001a0: a67d 32bc 761c 123e 1ee2 913d fc96 cebd
000001b0: a365 663e 166d 1ebd 45d0 19be d25b aa3d
000001c0: 78e8 b3bc 2c61 35be 4f04 aa3d b8f9 1ebd
000001d0: 9628 5dbe 6162 8dbd 83b1 183e 4c17 30be
000001e0: 0e98 7b3d e8fa 7cbe 67fb 8a3e 2170 cabb
000001f0: e1bf dfbd fc12 22be 9a6c 32be 307d 36bc
0.055846192 -0.12762205 -0.025707234 -0.14000964 0.18053013 -0.115721025 0.33804142 0.041650984
-0.12775937 -0.0062271194 0.09860431 0.12100458 -0.04002066 0.048435483 -0.0960505 0.19559142
-0.16672178 0.6682558 0.0867771 0.036648784 0.2783038 -0.064417 -0.012937052 0.017821936
-0.22155851 -0.08563184 0.40767944 -0.09814502 0.0040281564 0.14230666 0.0148160625 -0.040013414
-0.031967245 0.08264391 -0.07942409 -0.71797067 0.20249923 0.055251136 0.0030602226 0.036630776
-0.009579682 0.2590461 -0.006150001 0.11582313 0.38303268 -0.8188944 0.2195522 0.054057397
0.02047097 0.27079347 -0.17924826 0.042229947 -0.09425492 -0.23293494 0.06713272 0.016489128
-0.3301433 0.008083154 -0.03517022 0.1589049 0.034215093 -0.11061781 0.32903013 0.06781429
-0.13838458 -0.12824316 0.08582374 0.17973903 0.37129864 0.11108703 0.1526942 0.0044058785
-0.07471253 0.2219683 -0.09960947 0.23600057 0.13134396 0.028353538 -0.13947436 0.1921631
-0.09755049 0.10305236 -0.45766905 -0.2579696 -0.12698752 -0.21066257 0.13926034 -0.07763642
0.23922756 -0.17539579 -0.26661363 0.11995345 -0.0251299 0.02920726 0.19298391 0.025779918
0.024073172 0.06712385 -0.15841478 0.21643673 -0.08406099 -0.27698418 -0.30710217 0.0861029
-0.010894215 0.1426867 0.071232066 -0.10087392 0.22499709 -0.03867825 -0.15020855 0.083182946
-0.021961436 -0.1771285 0.08301603 -0.03881237 -0.21597514 -0.0690353 0.14911465 -0.17196387
0.061424308 -0.24705088 0.2714493 -0.0061779176 -0.1092527 -0.15827554 -0.1742424 -0.011138245

critic.4.weight f4 [1, 128]
00000000: 0d02 8639 1274 28ba 3753 57bb ef7b f03a
00000010: 1d3c 5539 79c0 9c3a f65d 7fbd 6a8c 25ba
00000020: 6f01 9b37 0fb1 12ba 2fa7 02ba 6817 1c3a
00000030: 6c2b f6ba 1180 3c3a f8f3 0cbb cd46 0338
00000040: 881a 05ba fae8 453d 4426 2aba 6d95 7fba
00000050: 27c6 a0b9 a207 00bb 7df7 063b 9824 c4ba
00000060: 4857 a539 e246 173a 2e8d db3a 2a8c 0aba
00000070: c509 bab9 2dd3 123a 7ee6 873a 1ba8 47bb
00000080: 036b b137 1433 05bc a679 10bb ae3a 833b
00000090: 8e43 513a 9063 c339 0b8b 443a 72f3 baba
000000a0: 76dd b8ba 77ac 2c39 8810 033b 038b 253d
000000b0: 1655 ec3b 9758 cebd b41f 1fba a8d8 9db9
000000c0: fcc8 22ba 2ea4 f63a 78f3 a2b7 9244 f8ba
000000d0: b29a 2839 a3d5 793a a863 2f39 8c96 beb7
000000e0: eb01 463d 0a62 8cb9 e4fe d03a bcd4 78ba
000000f0: 8cca 31ba 9259 123a 1a8c 00ba e12d 23b9
00000100: a12e 8dbb 34dd 6a39 9c21 9739 beee 76ba
00000110: d170 b53a 27c5 58ba f7f3 ad3a 3522 0ab9
00000120: d315 a2b9 1dbd 4aba a164 00b8 7478 973a
00000130: 8d53 c639 4446 e1ba 905c 77b8 6b71 963a
00000140: d67c b038 29af 6bba c9c1 393b 8d09 3bbb
00000150: 3425 b13a d833 1bb9 93ea 473a bf7c 1cba
00000160: 362e 283b 0bd7 b5b9 f0db 0e3c 2da0 323a
00000170: 6df5 e93a f0ff 3d3a 6b97 ae39 fb84 fcb7
00000180: 384e 233a b042 9639 ae5e 823a efb8 09b9
00000190: aa07 023b 58f3 acb9 7f77 81bc b6b6 ee39
000001a0: d5f3 95b9 c6c6 0b3a 3f5d 13ba b220 8b3b
000001b0: 2ce9 5fba 43f2 213a f434 053a 3371 22ba
000001c0: aed2 b939 31c7 403a c2da b0ba af2b d2b9
000001d0: 9382 5eb9 b80f 4b3a 94ba 993a ab0c 51b9
000001e0: ddf7 513a 8d37 3cba 50ac 61ba e0dc 8fba
000001f0: d75a 8fb9 7126 e339 cb35 a839 07f1 cc3a
0.0002556 -0.0006425987 -0.0032855996 0.0018347482 0.00020335657 0.0011959217 -0.062345468 -0.0006315174
1.8478107e-05 -0.0005595842 -0.0004984019 0.00059544155 -0.0018781251 0.0007190714 -0.0021507721 3.1298772e-05
-0.0005077501 0.048317887 -0.00064906874 -0.0009749744 -0.00030665213 -0.00195358 0.0020594292 -0.0014964519
0.00031536282 0.0005770755 0.0016750449 -0.00052851683 -0.00035483963 0.00056009257 0.0010368375 -0.003046519
2.1149875e-05 -0.008129854 -0.0022045164 0.004004798 0.0007982784 0.00037267478 0.00074975257 -0.0014263226
-0.0014104086 0.00016467446 0.0019998867 0.040415775 0.0072122915 -0.10075491 -0.0006070093 -0.00030106795
-0.00062097586 0.001881724 -1.9425279e-05 -0.0018941334 0.00016079357 0.00095304305 0.00016726425 -2.2719869e-05
0.048341673 -0.00026775926 0.0015945104 -0.0009492149 -0.0006782196 0.0005582805 -0.0004903689 -0.00015561983
-0.004308537 0.00022398384 0.00028826005 -0.00094197306 0.0013842826 -0.0008269124 0.001327156 -0.00013173449
-0.00030915308 -0.00077338686 -3.0611296e-05 0.0011556284 0.00037827753 -0.0017187078 -5.8975595e-05 0.0011477893
8.4155865e-05 -0.00089906395 0.0028344265 -0.0028539628 0.0013515116 -0.00014801265 0.0007626202 -0.00059695164
0.002566231 -0.0003468323 0.008719429 0.0006814029 0.0017849632 0.00072479155 0.0003330068 -3.0102665e-05
0.0006229612 0.00028659916 0.000994643 -0.00013134231 0.0019840994 -0.00032987702 -0.01580405 0.00045531028
-0.00028601164 0.0005332049 -0.00056215 0.004245841 -0.000854152 0.00061777624 0.0005081438 -0.00061966776
0.00035442918 0.00073539006 -0.0013492929 -0.00040086868 -0.00021220213 0.0007746178 0.0011728578 -0.00019936512
0.0008009652 -0.00071799086 -0.00086087454 -0.001097586 -0.00027342766 0.00043325455 0.00032083536 0.0015635797

exp_avg f4 [4]
00000000: 3880 ab39 3927 e73a 28c9 7f3a d0a5 133a
0.00032711192 0.0017635591 0.00097574526 0.0005632313

exp_avg_sq f4 [4]
00000000: e258 8739 93ba 623a 5810 9239 b010 0c39
0.0002581543 0.00086490175 0.00027859467 0.00013357657
