examples/drone/logs/no-percep-5000/model_1200.pt (torch, 474978 bytes, 36 tensors)

std f4 [4]
00000000: 0fd4 a93e 0785 803e f3b8 963e b04f ec3e
0.331696 0.25101492 0.2943798 0.46154547

actor.0.weight f4 [128, 17]
00000000: e173 843f 7273 b73e 7d87 823f decd 5cbf
00000010: 6ecb a3bf 1909 c63f 5f84 39be ad8a a63f
00000020: 0c2c 1d40 4b8b 82bc e2e9 0f3f 0424 00bf
00000030: 0559 cabc 9662 08be 497f 6bbe ccc5 5d3d
00000040: fa3f a7bd 9cd7 b73d 0bfd 893f a06b 26c0
00000050: e550 7f3d 3abb f03f ddd2 3c3f d943 0fbf
00000060: b365 463e d2e5 cabe 0392 a33d a025 dabe
00000070: 5767 193e dc0f 60be c6d7 afbd 654c 05be
00000080: 9dad 243d a787 06be 131d 663e b137 f2bf
00000090: 0a74 e83f 4794 03be 70bc 83c0 70ea 40bf
000000a0: a4ae ff3e 978e e03e 79b4 3ebe 2ff5 a9bc
000000b0: 83dd 14bd 7fa6 ea3d 4f38 d73d 5715 4cbd
000000c0: 4a5e f33b 1ccf ca3d b0f7 5c3d 47d1 e63e
000000d0: 93ef 593e eeb5 ca3f a396 15be cecc 8bbe
000000e0: 1231 1ec0 9a8b 01bf bfc4 1f3e 770a 05bf
000000f0: d592 6ebe e66c a8be fdbd 1ebf 2803 01bf
00000100: 3e14 b23d b8af 113e 1344 0b3d d2e6 b2bc
00000110: dc78 70bf 1f35 de3f 5a3e ae3f 7f67 313e
00000120: 5898 46be 4c34 94bf 084f 91bd 4b64 74be
00000130: ff2b 39be 0f62 ed3e 08f1 b03e b013 11bf
00000140: be03 1dbf 634d cabd b5de 07bd c7d8 21be
00000150: b292 a13d 6261 48bf 1263 1f3e 99bd a93f
00000160: cabc 09bf 9f03 c5bd e8bd 443f 28be 96be
00000170: 125f 9b3d a6ad 3b3d d429 d8be 4189 95be
00000180: 7df8 84be f017 18bf a79c 7abc f3bb 8c3c
00000190: 0f99 883c f227 96bd b4cd 5f3f 83d9 8dbf
000001a0: 2903 21c0 4084 72be 3689 1bbf 21f2 00bf
000001b0: 10b9 af3e 455c 85bd 9b7a 8a3e f124 e63c
000001c0: 4647 96bc 67f2 f4bd 67a7 cc3d 3ae6 823d
000001d0: 58ce b23d 604a c63d 1788 313e 4929 d33c
000001e0: e327 f93c 56fb d5be 01f7 7f3e 8f22 ad3f
000001f0: 323c 773f 4ad1 88bf db81 1d3e 000c 963d
00000200: 7611 7a3e 7a84 19bf 8dda 443e f17c 083e
00000210: 8ec0 93be fc1b e43c 9c16 a5bd 9b40 d1bd
00000220: dc5e cbbf c7df ba3f b3fd 80c0 b117 d03d
00000230: 66d8 66be c856 b73e c909 233e 2a11 adbc
00000240: e868 12bf 57d7 88be c525 13bd 65b0 3d3d
00000250: 827a c93e 9e08 443d ae2d 163d ea21 8c3d
00000260: dba8 813d 0ebe 24be 845c 893d 6b92 853f
00000270: efcd 983e 20bc e8be f893 9cbe 35f3 9f3e
00000280: 1172 cebd 7cf2 053f d6a6 6bbf 3f22 31bf
00000290: 069b 6dbe 3b4f a4bf f49a e73e 00ce 8a3e
000002a0: 1bb2 ab3e 113e 983d be56 583e e29d a33e
000002b0: de84 9dbf abe0 203f 7917 7c3f 5a9f f93d
000002c0: 27d7 833f a205 7cbe 977c 9abd 871d 0c3d
000002d0: 13db fbbd 6d13 bfbe 6635 703e 5b45 babd
000002e0: a4fa 30bd c7d0 ae3d 29f4 64bd b12f 7140
000002f0: b0d7 eb3f 1149 1dbf 7317 32be 9e80 cdbe
00000300: 85e2 38bf 8a14 89bf 48c8 b3bf f8a3 4fbe
00000310: a45f 79bf cfd0 4c3b 78de 83bd 5f73 b4be
00000320: ea21 abbc d0ef 37be c7bb 393d 80af e73c
00000330: a4a1 41bf 338f d13e 766a edbf 2e18 f9be
00000340: b882 61bf a9de f53d c6cb 983e 4baf 37be
00000350: 8934 8fbe 688e aabd c018 a93d 9199 65be
00000360: 0332 033b 7672 a93e ed27 4f3d 219d a23d
00000370: 5ece 693d ba00 4ac0 abba 0fbd 39a3 7940
00000380: 6755 2f3e 5b59 e43e 485a 323f 6197 03bf
00000390: af29 0640 be48 d53d ac30 853e b473 9bbe
000003a0: bad6 99be f90c db3e 22da 06be 8dce 253c
000003b0: 6455 64be 8d9d 9bbd e579 3d3d c30f 04bf
000003c0: 24ef 16be 656a 22be 2673 13bf b12e 9e3d
000003d0: 9934 033d 9d93 5fbc 5287 dc3d 3a2d bdbb
000003e0: 8ec9 b43d 1452 3abd 21bf 8abc eaed 803c
000003f0: 4505 62bd 31f6 673d 3ff9 3dbe dfec 163d
1.0347863 0.35830265 1.0197598 -0.8625163 -1.2796457 1.5471526 -0.18116902 1.301107
2.4558134 -0.01593556 0.5621625 -0.50054955 -0.024700651 -0.13318858 -0.22997774 0.054143712
-0.081664994 0.08976671 1.0780348 -2.600319 0.062333006 1.8807137 0.7375925 -0.559629
0.19374733 -0.39628464 0.07986834 -0.4260683 0.14980827 -0.2188105 -0.085860774 -0.13017423
0.040204633 -0.13137685 0.22472028 -1.8923246 1.8160412 -0.12849532 -4.1167526 -0.75357723
0.49937928 0.43858787 -0.18623532 -0.020746795 -0.036344063 0.11457538 0.10508787 -0.04982504
0.0074270116 0.09902784 0.05394715 0.4508154 0.21282797 1.583677 -0.14608245 -0.2730469
-2.471745 -0.5060364 0.15602396 -0.51969093 -0.232982 -0.32895583 -0.6200865 -0.5039544
0.08695267 0.14227188 0.034000468 -0.02183858 -0.93934417 1.7359961 1.3612778 0.17324637
-0.19394052 -1.157846 -0.07095152 -0.23866384 -0.1808319 0.46363875 0.34558892 -0.56670666
-0.61333835 -0.098780416 -0.033171374 -0.1580535 0.07889308 -0.78273594 0.15565136 1.3260986
-0.53803694 -0.09619831 0.76852274 -0.29441953 0.075864926 0.0458199 -0.42219412 -0.2920628
-0.25970832 -0.59411526 -0.015296138 0.017179465 0.016674547 -0.07331838 0.87423253 -1.1082004
-2.5158179 -0.23683262 -0.6075624 -0.5036946 0.3432088 -0.0651174 0.27046666 0.028093787
-0.018344533 -0.11960297 0.09992867 0.063915685 0.08730763 0.09682155 0.1733707 0.025776522
0.030414527 -0.41793317 0.24996568 1.3526171 0.96576226 -1.068887 0.15381567 0.073265076
0.24420723 -0.5996777 0.19223996 0.13328911 -0.28857845 0.027845375 -0.08060953 -0.10217401
-1.5888324 1.4599541 -4.030969 0.10160769 -0.22543487 0.35808396 0.15921701 -0.021126349
-0.57191324 -0.2672679 -0.03592469 0.0463108 0.3935128 0.04785978 0.036664657 0.06842406
0.06331035 -0.16088125 0.06707099 1.0435308 0.29844615 -0.45456028 -0.3058164 0.3124024
-0.1008035 0.52323127 -0.92051446 -0.6919288 -0.23203668 -1.2836679 0.45235407 0.2711029
0.3353432 0.07433713 0.2112684 0.31956393 -1.2306173 0.62842816 0.98473316 0.12188597
1.0300034 -0.24611524 -0.07543295 0.034207847 -0.122976445 -0.37319508 0.2345787 -0.0909526
-0.04320778 0.08535915 -0.05589691 3.7685359 1.8425198 -0.61439615 -0.17391758 -0.4013719
-0.7222064 -1.0709393 -1.4045496 -0.20277393 -0.9741156 0.003125239 -0.06438917 -0.3524427
-0.020890195 -0.17962575 0.045345094 0.028281927 -0.7563727 0.40929565 -1.8548114 -0.4865126
-0.88090086 0.1200536 0.29842967 -0.17937963 -0.2796977 -0.08327943 0.08256674 -0.22421862
0.0020018823 0.3309514 0.050575186 0.07940126 0.057081573 -3.1562943 -0.03509013 3.9005873
0.17122422 0.44599423 0.6966901 -0.5140286 2.0962942 0.10414265 0.26013696 -0.30361712
-0.30046636 0.42783335 -0.13169149 0.010120046 -0.22298199 -0.0759841 0.046258826 -0.5158655
-0.14739662 -0.15860899 -0.5759758 0.077237494 0.032032583 -0.013646034 0.10767998 -0.0057732137
0.08827506 -0.045488432 -0.01693684 0.015738446 -0.055180807 0.05663127 -0.18552111 0.03684699

actor.0.bias f4 [128]
00000000: 7ff5 11bf 3f00 673d b117 fcbb 3e4c 413b
00000010: 3171 153e 2169 ac3e e9bd 07be edc2 33be
00000020: f606 c2bd fe1c c2bd a8d8 51be 28a7 9dbd
00000030: 8823 55bd e1db b3bd ce87 853e 8330 253d
00000040: 9e46 2a3b 8dd4 9dbe 0ac1 a9be 43c2 d8bc
00000050: 5c39 513d 0abc 72bd 12a7 c4be ab43 12be
00000060: 1fc1 203e bb4d 163e 7e5b 05be fabe 9fbe
00000070: e87d 443e 3567 b33d d30d e1bc 5d49 a7bd
00000080: c08f d53d 120c f13d 1f30 01bd 2812 d93e
00000090: d8fe 95be a523 ea3c 70a7 64bd a72e fa3d
000000a0: 3789 cdbe 67f5 153e 666c b9be 3786 82be
000000b0: 23f6 b9be e8ec 9b3e 67b7 903e e227 9fbc
000000c0: 266e 2d3e 19b7 da3d e8e8 ff3d f482 a1be
000000d0: 8ba8 60be a423 303e 49e0 923d c87a 87bd
000000e0: cc15 a9be 9de3 723e 91ed fa3d b146 873d
000000f0: e502 59bd 1e15 043e d3a1 79be 2aa5 8d3e
00000100: 1eeb 213e ac62 d43d 0bdd 14bf b588 193d
00000110: de7e 94be 1dc9 0a3d 423d 6fbe 4e4c 80be
00000120: a65e 633e b001 2e3e c246 2ebd 7837 d0be
00000130: c94a f2be 4013 043e a2c5 07be e61b 46be
00000140: 79d6 e3bd b069 d83d 279b 38bd 28d3 07bf
00000150: 1b3e a43e 8201 973e ec96 4e3e 43c8 4ebd
00000160: a091 77be 6a80 84be c314 623e d81e ecbe
00000170: 5c7e 813e 35ed 03bc 4d36 11bd 8d79 1fbe
00000180: 09d0 6bbe c752 d73e 3fc4 8a3e 192b 603e
00000190: 927e 8a3e 8a28 213e 8525 bfbd 500d 303e
000001a0: 39d8 2d3c 2483 383e f1fa f2bd 3e88 09bd
000001b0: 5364 bbbe 2548 cbbd 84df 473e 26d6 a93e
000001c0: 7796 4abe 6223 babd 361c b4be 7ccc 643e
000001d0: ff3e 42be 6b00 a23e 4b89 e93d 344f c4be
000001e0: 81ea 8c3e bc48 1e3e 9fe6 053e 85cf 3cbd
000001f0: 36d3 bd3c 53c3 553d 771a 1d3d 4101 103e
-0.5701522 0.05639672 -0.007693254 0.0029494907 0.1459396 0.33673957 -0.13256039 -0.17554827
-0.09473984 -0.09478186 -0.20492804 -0.07697898 -0.05203584 -0.08782173 0.26080173 0.040329468
0.0025982033 -0.30826226 -0.3315509 -0.026459819 0.051080093 -0.05926136 -0.38408715 -0.14283626
0.1569867 0.1467809 -0.13023183 -0.3120039 0.19188654 0.087599196 -0.027472412 -0.0816829
0.10427809 0.1176988 -0.031540032 0.42396665 -0.29295993 0.02858145 -0.055823743 0.122159295
-0.4014375 0.14644395 -0.36215514 -0.25493023 -0.363206 0.30454183 0.28264925 -0.019428197
0.1693655 0.10679454 0.12495595 -0.31545222 -0.21939294 0.17201096 0.07171685 -0.066152155
-0.33024442 0.2371964 0.122523434 0.0660528 -0.052981276 0.1289868 -0.24378137 0.27665073
0.15812346 0.10370383 -0.58149785 0.03748389 -0.29003042 0.033883203 -0.23363212 -0.25058216
0.22204074 0.16992831 -0.04254795 -0.4066732 -0.47322682 0.12897968 -0.13258985 -0.1934658
-0.11124892 0.10567033 -0.04506984 -0.53056574 0.32078633 0.29493338 0.2017476 -0.050483953
-0.24176645 -0.25879222 0.22078232 -0.46117282 0.25291717 -0.00805216 -0.035452176 -0.15573712
-0.23028578 0.42055342 0.2710285 0.2189144 0.2704969 0.1573812 -0.09333328 0.17192578
0.0106106335 0.18018776 -0.118642695 -0.033577196 -0.3659998 -0.0992587 0.19518858 0.33171195
-0.1978396 -0.0908878 -0.35177773 0.2234363 -0.18969344 0.31640944 0.1140314 -0.38341677
0.27522662 0.15457433 0.13076256 -0.046096344 0.023172002 0.05218823 0.038355317 0.14062978

actor.2.weight f4 [128, 128]
00000000: 69aa c43c 467c a2bc 3336 08be 85d5 6c3d
00000010: 7a29 253d cb50 c9bd 4fe6 613d 8163 8f3a
00000020: f276 843d 7b11 293e f7d0 e9bd eeee ac3d
00000030: ec68 00bd 9dd1 55be b870 86bd b6fc 9c3d
00000040: 535b 023e b455 c8bd 8e58 893d dd9f fcbc
00000050: bfba 77bd 2c4e 34be 19c1 bf3d 95bd 9d3e
00000060: afda f03d 81b0 b53d 3768 c9bc 42f1 aebd
00000070: f26d 493d 7f75 b63c 632f 1cbe 4d83 6fbd
00000080: 4351 623d 152e 823d bc05 013d 92bc 04be
00000090: e0f5 27be 57cb 383a 9ec9 1ebe 8d24 ec3c
000000a0: 2887 c73c 0124 e03d 00d7 2c3d 5516 863d
000000b0: 1dae f6bd b33a 2ebe 40e1 05be 8c43 863d
000000c0: a20f 01bd 9fe2 5c3d a10d 1d3d 7385 fdba
000000d0: 45bb 08be f0f0 543d 4378 fd3a 1f4a df3d
000000e0: 66ac 2c3e 7dd6 833d b79e dc3c f749 1d3e
000000f0: 6b70 82be b428 30be 8979 c8bd 633e 3bbe
00000100: 0c1c 993d 8068 07be 4e75 853d 1d50 2abe
00000110: b1e1 afbc 1e90 7dbd 0136 983d d9fa 2e3d
00000120: a430 e93d a15a 1ebd eedf 503e 4ff1 51bd
00000130: f9e1 923d 95b1 2a3e 3bee 2abd d1de 93bd
00000140: 250f 31be 7af1 2cbd be0d 05bd 4971 4abd
00000150: 548e e3bd cb18 28bd f261 173d d48a 0ebd
00000160: 9ce2 253d b338 8d3d ebc4 5dbd 09c2 183d
00000170: ed05 4bbd e174 113c 3a77 28bd c3d8 963e
00000180: 5f46 d4b9 e2d2 f5bb 2abe ab3d d12d 273d
00000190: 2c4f 5bbb 1cdc c1bd a004 0e3e acc1 0ebe
000001a0: c02b e8ba 6690 aabc ddc3 8cbd 5382 3bbe
000001b0: 3f29 003d 828f f63c d503 1d3e 0514 953c
000001c0: e242 aa3e b67e f23d 5ab0 4e3d f763 6f3c
000001d0: b353 863e 294e 83be 4788 d6bc b92e b1bc
000001e0: 602e dd3d 496b d43c efac c3bd 5b59 57bd
000001f0: 9321 fc3b fd86 be3d eb9c ab3d 919d a3bc
00000200: d59a 33be 9acf 0e3e d03f db3e 944c 2fbf
00000210: f650 66be ca4c 0bbf d26b 713e de74 653e
00000220: 7203 dbbe 7afa e5be 0c4f 26be f8d5 103d
00000230: 6374 ec3a 36a3 34bd 80a2 36bd 9443 c0be
00000240: c6ba 033e 03fa b53e 74e7 a03d b6e9 2c3f
00000250: 40e9 893e c69b a13e f953 593e 2c69 3ebf
00000260: d516 893d 072f b2be 2d9c adb9 5392 afbe
00000270: 2fe0 0bbc 3022 d0be 360f aa3e ca0f ff3d
00000280: e745 083f 5d95 b63e 09da f63e 1edf c43e
00000290: 331b a4be 74dd 6b3e 3bea eebd cc46 023b
000002a0: 6f37 803e 807c 22bd d529 253f f0fe f4bd
000002b0: a4a3 84bd e6a6 3f3f 10e9 87bf ef6c a23d
000002c0: 039a 88be 0368 8dbe 2292 8cbf 2c9f 4e3f
000002d0: 1f2d a53e ac46 6fbd 7e7a c73d a26f d13d
000002e0: 801d ad3a 8671 3e3d bee8 4c3d 7819 e23d
000002f0: a4fe 243f cc55 0cbf 39d6 853e c69d a43e
00000300: fc47 133f 694c 05bf d7b7 cc3c f25b 49bf
00000310: 3b3a bd3e 7208 743c 26cf ee3e 46a5 6d3f
00000320: 43d9 9c3e 38c1 39be 4275 f73d c650 4b3e
00000330: 3f8d cf3e db7c 833f c791 3a3e 6a1e d03e
00000340: a015 05bf ddc8 15be 58af ce3e 59b3 26bd
00000350: 93c7 d3be e367 00be da03 f4be 309a 103e
00000360: d62d a13e cb41 a23e 9238 e2bd 8c77 313e
00000370: be40 d03e fe47 00bf f740 03bf 0674 0fbf
00000380: 8911 f33e e77b a1be a52f 88bf a787 25b9
00000390: 121a c6be bc97 6cbe a883 4dbf eba9 a43e
000003a0: d81d 82be e65d ffbe 5a01 e83d ffff 4dbe
000003b0: 5f36 ab3a 1fd6 d2be beb1 e9bd e97b a7bf
000003c0: 4744 b4bd ceb2 14bf 9eb2 153e 3439 863e
000003d0: 2a4a a33e 7510 523e 2f65 38be d487 6f3e
000003e0: 25be 723e 0f8a f13d c484 d3bc dc31 05bf
000003f0: 47aa c8bc d452 ac3e 9d29 1c3f 7c69 12bf
0.02400704 -0.019834649 -0.13301925 0.057820816 0.04032276 -0.09829863 0.05515128 0.0010939689
0.064679995 0.16510575 -0.1141681 0.0844401 -0.03135006 -0.20880742 -0.06564468 0.07665388
0.1273015 -0.097819716 0.067063436 -0.030837948 -0.06048083 -0.17607945 0.09363002 0.30808702
0.117604606 0.08871556 -0.024585826 -0.0854211 0.049177118 0.022272823 -0.15252452 -0.058474828
0.05525328 0.06356446 0.03149961 -0.12962559 -0.16402388 0.0007049343 -0.15506598 0.028826023
0.02435644 0.10944367 0.042197227 0.06547228 -0.12044928 -0.1701458 -0.13074207 0.06555852
-0.03150905 0.05392706 0.038343076 -0.0019342139 -0.13352688 0.05198759 0.0019338209 0.10902809
0.1686264 0.06437395 0.02693115 0.15360247 -0.25476393 -0.17203027 -0.09788806 -0.18285517
0.07476053 -0.13223457 0.06516515 -0.16632123 -0.021469923 -0.06190502 0.074321754 0.042719696
0.113862306 -0.03866065 0.20397922 -0.05125552 0.07172007 0.16669305 -0.0417311 -0.07220233
-0.17290933 -0.042222477 -0.03248381 -0.049424443 -0.11111131 -0.04103927 0.036958642 -0.034800366
0.040499315 0.0689558 -0.054142874 0.03729442 -0.0495662 0.008877964 -0.04112933 0.2946225
-0.00040488222 -0.007501946 0.0838588 0.04081518 -0.0033463938 -0.09465811 0.13868952 -0.13941067
-0.0017713234 -0.020820808 -0.068732955 -0.18311433 0.031289335 0.030097727 0.15333493 0.018198023
0.33254153 0.118405744 0.05046115 0.014611236 0.26235732 -0.2564557 -0.026188029 -0.021628724
0.10799861 0.025930064 -0.09554469 -0.05257545 0.007694432 0.09303091 0.08379539 -0.019972594
-0.17539532 0.13946381 0.42822123 -0.68476224 -0.22491822 -0.54414046 0.23576286 0.22407863
-0.42776066 -0.4491766 -0.16241091 0.035360307 0.0018040057 -0.044100963 -0.044588566 -0.37551558
0.12864217 0.35542306 0.07856646 0.67544115 0.26935768 0.31564158 0.2122344 -0.7437923
0.06693808 -0.34801504 -0.0003311349 -0.34291324 -0.008537336 -0.40651083 0.3321473 0.124541834
0.5323166 0.3566083 0.48213223 0.38451475 -0.32052 0.23033696 -0.1166577 0.0019878624
0.25042292 -0.039669514 0.64516956 -0.11962688 -0.064765245 0.7486404 -1.0618 0.07930934
-0.26680002 -0.27618417 -1.0982096 0.80711627 0.32260987 -0.058417007 0.097401604 0.102263704
0.0013207644 0.046494983 0.050026648 0.11040014 0.6445105 -0.54818416 0.2614 0.32151622
0.57531714 -0.5206972 0.024990005 -0.7865592 0.3695849 0.014894592 0.46642417 0.9283031
0.30634508 -0.18140113 0.12082912 0.19855031 0.4053745 1.0272478 0.18219672 0.40648204
-0.5198612 -0.14627405 0.40368152 -0.040698383 -0.413632 -0.1253963 -0.47659189 0.14121318
0.31480283 0.3169082 -0.11045946 0.1733076 0.40674394 -0.5010985 -0.51271003 -0.5603641
0.47474316 -0.31539842 -1.063954 -0.0001578616 -0.38691765 -0.23104757 -0.80279016 0.32160887
-0.25413394 -0.49876326 0.11328383 -0.20117186 0.0013062468 -0.41178986 -0.11410855 -1.3084689
-0.08802085 -0.58085334 0.14618918 0.26215518 0.3189252 0.2051409 -0.18007348 0.23391658
0.23705347 0.11793911 -0.025820144 -0.52029204 -0.024495257 0.33656943 0.61000997 -0.57192206

actor.2.bias f4 [128]
00000000: a3f4 b5bc 7441 b3be 945c 553d e935 c6bd
00000010: 0d83 033d 4767 b9bc 1c4a fcbc 7b0c 3f3f
00000020: d431 a6bc 8f4a 323e 4d30 2dbe 3a9c f53a
00000030: a266 50bd 46c3 6abe 986e ddbd d0ad bf3d
00000040: 7e08 a8bd c3df 4a3c 8e0a a0be 581b 623d
00000050: 05af 0a3e 32be 78bd ec41 023f 2314 9cbd
00000060: 4c47 b23d 2ae5 1e3e 3e55 273d bd47 10bd
00000070: 7542 cdbd 3ef7 edbd e1c1 2b3e 0703 113e
00000080: fd67 8ebd b9b5 2a3d 3e79 b83d c233 873e
00000090: d3c2 983d 4c5d 00bd 07e4 993d ac22 59bd
000000a0: 2d90 74bd cb1c 27bf 70b0 f4bd 53bc 053d
000000b0: bd35 a23c 8c9a 873d 2abc 863d 9366 49bd
000000c0: 5f2f 443e dd24 273f 5938 9cbe 1b6e 47bd
000000d0: 2116 b0bd f7a2 f5bc 4623 283d 75f2 c5bd
000000e0: 33f5 2c3c 91bc 423d 189f b6bb e6e3 0f3d
000000f0: 1f17 483c c8c9 213d 35eb 873e fd4e 8c3d
00000100: 5516 b9be 7bff 94be 383b 5bbd 3f11 e43b
00000110: 55e2 c13c 5710 5fbd 5b3d 063e 2195 0e3e
00000120: ac85 43bc a3ba 12bf 4098 a5bd ed7a 983d
00000130: 1453 c03b f1cf 243e 5a80 093e 5b7a 8a3d
00000140: aec9 3fbe 7079 0ebe 4fcd 33bd 8166 333e
00000150: b033 d83d 47f9 743d 0b5b a13e ac80 d33d
00000160: 116e cc3e 33a6 a43e 899a 37be 3eb6 53bf
00000170: 02c3 cebd 18f3 30bc f4d3 153e 9c08 23be
00000180: cb93 d4bd e750 d1bd 3ebe 32be 1d1a 183f
00000190: a204 09bf bc05 013e f56b 643e 4afd 7bbe
000001a0: 014b 0bbe 4604 843d 5170 c2bd 4527 bebd
000001b0: 94b2 0a3e ed50 c5bd 7080 3cbd 0cdf e03d
000001c0: 20c2 9ebd 2bb1 bcbe 7c74 af3d b4bf 613d
000001d0: f6b3 aebd 81f3 603e 15a3 d73d ff79 95be
000001e0: 0768 883d c6ba cfbd 9244 273c e9f2 98bc
000001f0: 4676 d0bd dacc e83d 6c5b 3b3d e90d 0a3f
-0.022211378 -0.35010874 0.052090243 -0.09678251 0.0321074 -0.022632254 -0.030797057 0.7462842
-0.020287432 0.17411254 -0.16912957 0.0018738576 -0.05087913 -0.22926053 -0.1081211 0.09359324
-0.08204745 0.0123824505 -0.31258053 0.05520186 0.13543327 -0.06072826 0.5088184 -0.07621028
0.08705005 0.15517107 0.040852778 -0.035224665 -0.10022441 -0.11619423 0.16773178 0.14161311
-0.06953428 0.04167721 0.090075 0.26406676 0.07459035 -0.031338975 0.07514196 -0.05301158
-0.05970781 -0.6527831 -0.11947715 0.032650303 0.019801015 0.06621274 0.06578858 -0.049170088
0.19158696 0.65290624 -0.3051174 -0.04868899 -0.08597971 -0.029984934 0.041049264 -0.09665386
0.010556507 0.047543112 -0.0055731647 0.03512945 0.012212544 0.039499074 0.26546636 0.06851003
-0.3614985 -0.29101166 -0.053523272 0.0069600637 0.023667494 -0.054458942 0.13109343 0.13924076
-0.011933725 -0.57316035 -0.0808568 0.07445321 0.0058692787 0.16094948 0.13427868 0.06761619
-0.18729278 -0.13913512 -0.04389697 0.17519571 0.105567336 0.059808042 0.31514773 0.103272766
0.39927724 0.3215805 -0.17930044 -0.82699955 -0.100957885 -0.010800146 0.14631635 -0.15921253
-0.10379752 -0.10220509 -0.17455384 0.59414846 -0.53522694 0.12599844 0.22306807 -0.24608341
-0.1360283 0.064461276 -0.09494079 -0.09284834 0.13544685 -0.09634576 -0.046020925 0.10980043
-0.0775187 -0.36853918 0.085671395 0.055114463 -0.085304186 0.2196789 0.10529152 -0.29194638
0.06660467 -0.10143046 0.0102092195 -0.018670516 -0.10178809 0.11367197 0.045741484 0.53927475

actor.4.weight f4 [4, 128]
00000000: e9db 573b 743d 5dbe 77de 5f3b 8a86 203b
00000010: deef 9c3a a85d f0bb 72e5 253b 35af cb3d
00000020: e287 3dbb e230 d83d e4f6 01bc e9c3 aebb
00000030: 2953 d5bd 0bae f6bc 7fc9 d4ba d66f ab38
00000040: 655a 893b 3299 07ba 8342 39be 16fd 38bb
00000050: 8fe6 b0bd 7b67 27ba 5001 273e 8997 05b9
00000060: 25a1 2dbb 92d5 51bd bc75 a1bd 9bf0 1c3c
00000070: 0270 0b3a 3cf8 fdbc d4e0 323d 1fe4 413d
00000080: 6cbf d3ba bec8 fc3a ec14 023c 40f7 0bbd
00000090: 1849 843c 2bd6 fd3a de5c 7d3b 9305 7b3b
000000a0: a3b1 9e3b 4842 77be 860d bebb 153c 123e
000000b0: 4eeb eabd e38e c23d e81d 993b 738b c53a
000000c0: 5adb 8abc e0bf f33c e2b6 8e3d acbd c63a
000000d0: 7260 7c39 ad5e 803c 5622 2d3b 5549 e9b9
000000e0: 34de d1bb 57ca 3b3b bf3d 06bd 07c0 9f3a
000000f0: 0237 a7ba 1d1c cebb 9ffd 6fbd 61a6 de39
00000100: a450 6fbd a7f0 69be 5450 a1ba 8257 9cbb
00000110: 8514 023b e9b1 ad3a 8b7a 43bb 08ea 09bb
00000120: 4a25 dc39 8733 93bd 1bf9 0cbb d183 48bb
00000130: 553a f93d bac7 763e 0ef4 063a 1ca8 5739
00000140: 8145 ff3a 0a7c 39be 463f 1cbc 1f34 20bb
00000150: 5032 fcbc 4f70 083e c5cb 5b3e aab2 9a3b
00000160: fcce ff3d cf68 4b3e da29 55be 2c63 1bbf
00000170: a9e8 e93a e496 c6bc 66cd 4d3d 2bbe e43d
00000180: 04f6 abba 8245 b5ba 2804 c3ba e91f 873d
00000190: 5776 4c3c 3d05 db3d 2047 efbc 7ced a73c
000001a0: 6afa 80ba 85c3 e8ba d2f9 efbc 5ae3 363e
000001b0: 8eae 463b 6011 5cbb 2c5a 893a f93c 3b3b
000001c0: 8e04 c9b9 b8de 1abe 05ca 79ba ecc3 d8bb
000001d0: 911f fbba dc04 4fbe 14bb c6bb a53e 1ebe
000001e0: 74f3 a53d 2475 06bc a960 b7ba 54ab 273b
000001f0: f1ea 7e3d ec9b 203e 2ea0 30bb 34c7 a5bd
00000200: 7b0e 1c3b 50c2 4dba acdf a23a 929a e2ba
00000210: 0384 113b 3063 16b9 6428 94ba e054 ca3e
00000220: 9838 9dbc 42bd 053e 76aa 1a38 b82f 6b3a
00000230: 3863 823e e2f6 34bd a423 4f3a 08cb 93b5
00000240: 39e7 18ba b53e b8ba c034 60bd 855e cb3a
00000250: b2ac a33c 7451 e03a 7146 9a3d 24bf 1cb9
00000260: 4fb7 233a 6eff ad3d 1fcb 323d eb41 22bb
00000270: 72a8 563a 3a24 2fbe 2a85 413c ec72 75bd
00000280: b0fb 3e3b 0513 2a3b 620b 5d3c d483 b13d
00000290: 8cdd c13c a129 86ba 3351 0dbb 9110 05bb
000002a0: f0d6 25bb d802 3abe d588 25bd 5488 023e
000002b0: 6c99 7a3d 7466 24be 53ce 34bb 2fc0 e2ba
000002c0: 424b 633d 8778 5d3e 0fd7 49bd a65b 29bb
000002d0: 82a6 61ba ad35 c13e 5a1d 64ba e410 073a
000002e0: 56f6 ba3a 6344 133a 713d e03d 9fa7 353a
000002f0: 80bc dfb9 d491 993a 2a91 023e 1475 61b8
00000300: 1ced 27bd 08c9 d6bc 8c2c 163a 7d7d 9a3a
00000310: 432c 93b9 03a1 0abb 4140 30ba 82f0 5839
00000320: 5a93 01bb 3049 dabd b14d 6d3b bbf2 003b
00000330: 79a1 273c 866a 4cbd 9e89 9aba 3146 84ba
00000340: d73c 513a c547 d43c e0af 083b 1069 78ba
00000350: bf2a 0ebe 2692 5f3c 2f97 c1bb 747e 633a
00000360: d334 57bd 92d6 d83c d839 7fbd 2fdc 39be
00000370: efc4 5cbb 9a33 8f3c 8e64 b83d 83b1 df3b
00000380: 701e 2f3a afc3 173b ffe8 5ebb 29e8 0c3e
00000390: 02ed 38be b91c 0ebc 8c00 273e 7cf2 6238
000003a0: 7b03 913a 83da 413a bfd0 d03d 8b62 a33d
000003b0: 77c1 4d37 f388 c83a 1f93 fbb9 01a3 ebba
000003c0: 48b5 e6bc 0496 2bbe 3412 ea3d a5d6 7c3b
000003d0: 2196 213a 5a25 c33c eb5e b33b 8944 513d
000003e0: 9677 7b3c 73a6 90ba 72f9 943a 3ad9 0fbb
000003f0: eb7d 7dbd df19 ea3c 9f8b 133b 0730 563e
0.0032937473 -0.21605474 0.00341597 0.0024494254 0.0011973341 -0.0073353834 0.0025313762 0.099455275
-0.0028920104 0.10556199 -0.0079323985 -0.005333413 -0.10416252 -0.030112287 -0.0016234367 8.1747465e-05
0.004191684 -0.0005172669 -0.18091778 -0.0028227023 -0.086377256 -0.0006385964 0.16309094 -0.0001274032
-0.0026493755 -0.051229067 -0.07883784 0.009578849 0.00053191197 -0.031002156 0.043671444 0.047336694
-0.0016155071 0.00192859 0.0079395585 -0.034171343 0.016148135 0.0019366195 0.003866009 0.0038302883
0.0048429533 -0.24146378 -0.005799952 0.14280732 -0.11470662 0.0949991 0.0046727546 0.0015071466
-0.016950298 0.029754579 0.06968476 0.0015162728 0.00024068521 0.015670145 0.002641817 -0.0004449586
-0.0064046625 0.002865454 -0.03277373 0.0012187966 -0.0012757482 -0.0062899725 -0.05859148 0.00042467102
-0.058426514 -0.22845708 -0.0012307265 -0.004771174 0.0019848656 0.0013251874 -0.002982768 -0.0021044035
0.00041989452 -0.071875624 -0.0021510783 -0.0030596147 0.12169329 0.24099627 0.00051480613 0.00020566623
0.001947567 -0.18113723 -0.00953657 -0.002444513 -0.03078571 0.13324092 0.2146445 0.0047210054
0.12490651 0.198642 -0.20816746 -0.606982 0.0017845827 -0.024241872 0.05024471 0.11169084
-0.0013119583 -0.0013829919 -0.0014878558 0.06597883 0.012479386 0.106943585 -0.02920872 0.020498984
-0.0009840254 -0.0017758465 -0.029293928 0.17860165 0.0030316445 -0.0033579692 0.0010479144 0.0028570278
-0.000383411 -0.15124023 -0.00095286994 -0.0066151526 -0.0019159188 -0.20216697 -0.006064782 -0.15453584
0.081030756 -0.008206639 -0.0013990599 0.0025584297 0.062235776 0.1568448 -0.0026950943 -0.080946356
0.0023812342 -0.0007849084 0.0012426279 -0.0017288497 0.002220393 -0.00014342065 -0.0011303541 0.3951788
-0.019192025 0.13060477 3.6875215e-05 0.0008971649 0.25466323 -0.04418076 0.0007901734 -1.1011443e-06
-0.00058327947 -0.0014056774 -0.054737806 0.001551584 0.019979808 0.0017114119 0.07532967 -0.00014948525
0.00062452717 0.08495985 0.043650743 -0.0024758528 0.00081885525 -0.17103663 0.011811534 -0.05992405
0.0029141717 0.0025951278 0.013491483 0.08667722 0.023665212 -0.0010235795 -0.002156329 -0.0020304064
-0.0025305115 -0.18165147 -0.040413696 0.12747318 0.06118147 -0.16054708 -0.00275888 -0.0017299707
0.055491693 0.21628009 -0.04927736 -0.002584198 -0.00086078804 0.37736264 -0.00087018835 0.0005152358
0.0014264088 0.00056177954 0.10949219 0.00069295795 -0.00042674318 0.0011716434 0.12750688 -5.3753218e-05
-0.04099761 -0.026218906 0.0005728684 0.0011786666 -0.00028071002 -0.00211531 -0.0006723442 0.00020688961
-0.0019771666 -0.10658491 0.0036209638 0.0019675929 0.010231369 -0.049906276 -0.0011790281 -0.001009172
0.0007981783 0.025913129 0.0020856783 -0.0009476105 -0.13883494 0.013645684 -0.005907915 0.0008678206
-0.05254061 0.026469503 -0.062311023 -0.181504 -0.0033686718 0.01748066 0.09003554 0.006826581
0.0006680256 0.0023157408 -0.0034013388 0.13760437 -0.18059161 -0.00867384 0.16308802 5.410843e-05
0.0011063659 0.00073949265 0.10196065 0.0797778 1.2263997e-05 0.0015299603 -0.00047984064 -0.0017977656
-0.028162614 -0.16756445 0.11429253 0.0038580087 0.00061640335 0.023821522 0.0054739616 0.05109075
0.015348336 -0.0011035934 0.0011365844 -0.0021949545 -0.061887663 0.02857679 0.002251364 0.20916758

actor.4.bias f4 [4]
00000000: e2fc 9b3e 505a fe3e cf44 b53e 74af e63e
0.30466372 0.49678278 0.3540406 0.45055735

critic.0.weight f4 [128, 17]
00000000: 5e67 51bd ec58 96be 946f 033f 8f17 0ebe
00000010: 70b1 ae3e 6a9d 503f 3864 7c3e de84 d33f
00000020: 243d 243f e13c 67be f861 a5bf 9f8f 16bf
00000030: 62e7 41be 855b 4b3e 3691 aa3e cd62 a63e
00000040: d22a d33e 0b6b b93e 3813 5e3c 7457 863f
00000050: dd53 79be 8348 b23e f157 143f 6caf 2d3e
00000060: fe7a 13bf 49ef 0e3f ea07 08bd 7d01 523d
00000070: eacd 273f d773 253f 8a14 933d b911 873e
00000080: 986c 573d 091d d13d fece 53bf 9d38 8abf
00000090: d9ca 053f 1972 4fbe 3224 ad3e 4c9f a8be
000000a0: 13ad 5e3e 7937 5bbe a092 ba3d 4558 95be
000000b0: 7cbd a93e 263a ff3e 5994 95be a796 09bd
000000c0: f24d ba3b d36e 2f3c a9f7 0fbc 38ec 9d3c
000000d0: 0023 3fbb 309e 0840 25ec 4ebe 6d6a 863f
000000e0: 85dd 3140 fa49 bdbf 5870 5abe 80aa 613f
000000f0: 1d85 f6bd b096 3abf 3fcc 98bd 6700 b8be
00000100: 6ee7 b6bd f9ca bebd e281 57be c6af 953d
00000110: f287 e2bc cfb9 9ebe 3b0e dfbf cf54 7c3e
00000120: e3fb e3be 5daf cebf 1345 8b3e 0869 a2bd
00000130: 85a8 cd3e 1864 243d 8794 e73e 0345 e8be
00000140: 53c9 b83e 7b0c 06bd 5515 0fbe a79e 27be
00000150: 9153 433e f430 76bf 270b 8abf 9aca ba3f
00000160: fa52 463d 861d a33f f174 f83f 2a08 3cbf
00000170: 1672 15be 1556 483d 7736 0f3f 3737 eabe
00000180: cbda c83c deb8 99bd 3cbb 8cbc 81a7 1abe
00000190: df23 69be 37d0 c03d 18ed e9bf 9c0a 6fbf
000001a0: 3960 0440 1866 8abe 4de0 ae3e 8420 34be
000001b0: 504e 073f f0f4 7a3f ffb3 9a3e fa29 bf3e
000001c0: 7718 ea3e 2740 6fbd a211 fc3e 450b a0bd
000001d0: ff55 fcbd 4322 36be f81d 123c 9be5 353d
000001e0: 2756 49be 22b9 7fbf 37db 333e da49 6b3e
000001f0: 013a 2f3f 7ad0 2abe e7af b0be 92b1 193f
00000200: 693a 0ebe 4db5 053f 6df0 493f de21 86be
00000210: 7c3d 05be 5411 44bd 3b6c 77bd 2b6e e9bd
00000220: fe6c 1d3f 145b 0d3f 2162 02bf f47f 723e
00000230: 925f 4e3f 6f8d 88bf 33c1 70bd 032a 4b3e
00000240: c0a8 a6bf bf4a 2ebf 8d4d 7a3e 214a 1c3d
00000250: adbb b13d f28e 313c 3038 ca3c e79a 8c3c
00000260: 8ff7 71bd c629 54bf d962 41bf 7f3b b5be
00000270: 16e6 c53e 276c 97bf 736d 783f 313f 473e
00000280: e575 b43f 9ed8 a5ba eb1a ba3e 0ab4 9c3e
00000290: 6071 1e3e 7477 60bc b215 603d 1834 34bc
000002a0: 1705 d7bd fe16 55bd 646e a33e 8e19 043f
000002b0: df8c 0d40 b881 37be d789 8c3e 2699 93be
000002c0: ccd8 6abf d33b 87be 5944 363f f607 0a3f
000002d0: 4b90 d93e 47af d8be 39d2 923f 05e8 02be
000002e0: f469 09be 6763 ca3d 202f 57bd c711 23bf
000002f0: 79db 923c 4ed3 ccbf 670b f8bd 2bbd 6cbf
00000300: 014c e83f 3d2f 4ebf fda3 00be 87b6 273f
00000310: 3ae1 a63e 9e44 29bf cbdd ba3e d9bd 1dbf
00000320: 3f35 3bbd 7af7 39bc 39ec 3f3d 45f9 7abc
00000330: 3724 8d3f 7bcb a63f ced2 10bf 1869 74be
00000340: fe26 323e f9be 3c3f 86a9 9c3d 28c4 5c3e
00000350: 55bd f7be e733 313d 7ceb bebe 323e bdbd
00000360: 25b8 55be 8d58 323e 4c32 e8bd 5a19 51be
00000370: 4881 a83c f5f0 20be 3629 993f 236b 32bf
00000380: 04b1 8bbe bf8a 433f ee9a d53e 285c 89bf
00000390: 9e42 a93e fd4a 783f 3604 b7be e10a 71be
000003a0: 581c ebbd c78f 263f 475b 9e3c f2e2 053e
000003b0: 2bcd a73d 41b1 93bc c97b 303f 83b3 23bf
000003c0: cdb0 b13e b23a a7be 30e0 00bf f88c 803f
000003d0: d6fd afbf bf97 c33e 005f d2be 72db ed3e
000003e0: 93f8 b23f 34bc f03e 8fe2 84be 1444 debc
000003f0: 44a7 dabd db00 cb3b 1a6d 713d 073a 11be
-0.05112397 -0.29364717 0.5134213 -0.13876174 0.3411975 0.81490195 0.24647605 1.6524923
0.64155793 -0.22581817 -1.2920523 -0.588129 -0.18935922 0.1985913 0.33313912 0.32497254
0.41243607 0.3621448 0.013554387 1.0495439 -0.24348398 0.34820947 0.5794669 0.1696145
-0.57609546 0.5583387 -0.033210672 0.05127095 0.65548575 0.6462988 0.07181652 0.2638071
0.052593797 0.10210616 -0.8273772 -1.0798527 0.52262646 -0.20258369 0.33816677 -0.32934034
0.2174571 -0.2140788 0.09109998 -0.29168907 0.33152378 0.4984905 -0.29214743 -0.03359094
0.0056855613 0.010707575 -0.008787074 0.019277677 -0.0029165149 2.134655 -0.2020727 1.0501229
2.7791455 -1.4788201 -0.21331918 0.8815079 -0.12037108 -0.7288618 -0.07460832 -0.35937807
-0.089308605 -0.09316058 -0.2104564 0.07308917 -0.027652714 -0.31001136 -1.7426218 0.24641727
-0.44528112 -1.6147267 0.27201137 -0.07930189 0.40167633 0.04013452 0.45230505 -0.45365152
0.36091098 -0.032726746 -0.13972981 -0.16369115 0.19074847 -0.96168447 -1.0784653 1.4593079
0.048418976 1.2743385 1.9410688 -0.7344996 -0.14594302 0.04891022 0.5594248 -0.4574525
0.024518391 -0.07505964 -0.017179124 -0.1510296 -0.2276759 0.09414714 -1.827548 -0.93375564
2.068373 -0.27031016 0.34155503 -0.17590529 0.5285387 0.98029995 0.3021545 0.37336713
0.4572179 -0.05841079 0.49232203 -0.078146495 -0.1232109 -0.17786507 0.008918278 0.044408422
-0.19661771 -0.99891865 0.17564093 0.22977391 0.6844788 -0.1668109 -0.34509203 0.60036576
-0.13889469 0.5222977 0.78882486 -0.26197714 -0.13011736 -0.047868088 -0.06040595 -0.11397966
0.61494434 0.552171 -0.5093098 0.23681623 0.8061458 -1.0668162 -0.058778 0.19840245
-1.3020248 -0.68082803 0.24443646 0.038156632 0.086783744 0.0108373035 0.024684995 0.017163707
-0.05907398 -0.8287624 -0.75541455 -0.35396954 0.38652104 -1.182988 0.97042006 0.194577
1.4098479 -0.0012653058 0.36348662 0.3060611 0.15472937 -0.013700355 0.05470819 -0.010998748
-0.10499018 -0.05202388 0.3192016 0.51601493 2.211723 -0.17920578 0.27448913 -0.2882778
-0.91737056 -0.2641283 0.7119804 0.539184 0.424929 -0.42321226 1.1470405 -0.12783821
-0.13419324 0.09882241 -0.052535176 -0.63699 0.017926918 -1.6001985 -0.1211155 -0.9247615
1.8148195 -0.8054083 -0.12562557 0.6551289 0.3259371 -0.66120327 0.3649734 -0.6161781
-0.045705076 -0.011350507 0.04685614 -0.01531822 1.1026677 1.3030847 -0.5657166 -0.23868215
0.17397687 0.737289 0.076495215 0.21559203 -0.48386636 0.04326239 -0.37289035 -0.092403784
-0.20871027 0.17416592 -0.11337718 -0.20419827 0.020569459 -0.15716918 1.1965702 -0.6969473
-0.2728349 0.76383585 0.41719764 -1.0731249 0.33058637 0.96989423 -0.357454 -0.23539306
-0.114800155 0.65063137 0.019330634 0.13074854 0.081934296 -0.018028857 0.6893888 -0.6394579
0.347052 -0.32661968 -0.5034208 1.004302 -1.374934 0.3820171 -0.41088104 0.46456486
1.3982109 0.47018588 -0.259541 -0.027132072 -0.10676435 0.0061951703 0.058941938 -0.14182292

critic.0.bias f4 [128]
00000000: 0de1 9bbd e567 4f3e 6a86 febe 3b69 133e
00000010: af0e 54be a22f e93c 63f7 94be 9e98 34be
00000020: 8e1a ae3c 8626 58bd 52ef fcbd f5dd 96be
00000030: c645 963d 37d7 3fbe f8dc 96bd 91c4 0b3b
00000040: 37df ccbd 49c2 133e b9ee fdbd c741 443e
00000050: 2ac2 8cbd 0330 1e3e be85 74bd 07e5 a1bd
00000060: 7eec 0c3f 16c6 cebd 9f76 cebd 65be b23c
00000070: 4f8a 27bd 0b34 4abe 40ad 42be 2c99 68be
00000080: ea41 eb3d df06 1bbe e946 5b3d 4621 68be
00000090: 0590 3dbe 5fcf f03d 5553 8cbd cff0 30be
000000a0: 73dc 2abd f4d0 3bbd 216c ab3e 001b 253e
000000b0: 9954 8b3e 55cd 8cbd 630b aa3e ac44 a53d
000000c0: 55c0 4dbe 8efa fabd 4937 e93d 3392 d2bd
000000d0: 51be 40be 8a43 9b3c a19b cdbd 673f b23d
000000e0: 4802 81bc 6927 0c3e 3445 533c 3f83 383d
000000f0: 7307 b1be f060 d83d 5369 b7bd a85b 1a3e
00000100: 8100 303e c5f8 513c 95ff 6c3e 9306 1f3d
00000110: 64a2 223e 13bc 03be 97be b8bc 554d da3d
00000120: a88c 71be 5186 45bd 3ccc 59bd 7e40 8fbd
00000130: 2a93 973e 1cb9 70be 2d70 6bbe c76c 27be
00000140: f284 e73c 4daa 2e3e 07ab 82be e56f 98bd
00000150: 1c8d 54be 8091 7ebe ef60 a0bc 3efe 2fbe
00000160: 85ad 223e 92e0 c73d f3a3 c5bc 9c7c 44be
00000170: fc56 b2bd ce71 993d f432 70bb 2809 1e3d
00000180: 8b0e c7bd 17c8 613d dbf1 44be f03b 423c
00000190: 379b 87bc bfaf 95be f3c7 a53e 9647 e33d
000001a0: 475c aebd ce1f ad3d 9daa afbd 9791 613d
000001b0: c4b8 913e c507 fd3d 31c5 7cbe 473f 513e
000001c0: 023c 58be f17b 3a3e 7304 e2be e55b 38be
000001d0: 16e8 3c3e 181c a43d 2ca6 1d3e 2262 cfbd
000001e0: 1bfd 933d 1b0f 77bb bead 39bf e670 183e
000001f0: 9875 babd 111a cc3b ccf3 023d f9e2 ad3c
-0.076112844 0.20254476 -0.49711925 0.14395611 -0.20708726 0.028465096 -0.2909499 -0.17636344
0.021252897 -0.052771114 -0.12350334 -0.29466215 0.07337527 -0.18734442 -0.07366365 0.002132688
-0.10003512 0.14429583 -0.12399048 0.19165717 -0.06872971 0.15448003 -0.05969786 -0.079050116
0.5504836 -0.10096376 -0.10081219 0.021819303 -0.040903386 -0.19746415 -0.19011402 -0.2271468
0.114871815 -0.1513934 0.053534422 -0.22668943 -0.1851197 0.11758303 -0.06851832 -0.17279361
-0.041714143 -0.04585357 0.33480933 0.16123581 0.2721298 -0.068751015 0.33211812 0.08069739
-0.200929 -0.12254821 0.11387498 -0.102817915 -0.188226 0.018953104 -0.100394495 0.08703499
-0.015748158 0.13686909 0.012894917 0.04504704 -0.34575996 0.10565364 -0.08955636 0.15074027
0.17187692 0.012815659 0.23144372 0.03882463 0.1588226 -0.12864713 -0.022551818 0.10659281
-0.23588812 -0.048223797 -0.05317329 -0.06994723 0.29604465 -0.23508114 -0.2299201 -0.16350089
0.028261635 0.17057152 -0.25521109 -0.07443217 -0.20756954 -0.24860191 -0.019577472 -0.1718683
0.15886505 0.0975963 -0.024126029 -0.1918816 -0.08707997 0.0749241 -0.0036651464 0.03858295
-0.09719571 0.05512246 -0.19232886 0.0118551105 -0.016553504 -0.29235646 0.32379112 0.11097638
-0.08513694 0.08453332 -0.08577464 0.055070486 0.28461277 0.123549975 -0.24684598 0.20434295
-0.21116641 0.18211342 -0.4414402 -0.18003805 0.18447909 0.08013171 0.15395421 -0.10126139
0.072260104 -0.0037698213 -0.72530735 0.14886817 -0.091044605 0.0062286933 0.031970784 0.021226393

critic.2.weight f4 [128, 128]
00000000: 762a d3bd b1b2 5b3e 43a5 01be 67a2 0ebe
00000010: 8f6d 8f3b 5388 513d 18e1 56be ec4f c4be
00000020: 4c1c 7dbe 8e42 2a3e 1489 103d bced a13d
00000030: 446d 883e 5150 a2be 75b0 1bbf c794 93be
00000040: afba 233e 5bfd 0c3f e5ae 32be 0c34 2d3e
00000050: 329f 15bd 3f08 f63e 7199 d83e 6e84 c4be
00000060: 90e5 353e e097 e7bc 4221 a3bd 48cc 7bbe
00000070: ffbc a53d f496 73be 4943 48bc 30c2 e0be
00000080: a574 b5bd 85dd 76bd fa57 bf3d 2582 d53e
00000090: 8f6b 77bd 9efe 05be a17d 48be de79 863e
000000a0: 9c98 ffbc d864 033d d540 353e d746 57be
000000b0: a4af 973e dd54 553d b664 903e 1567 1b3f
000000c0: 5452 e9be 66cf b9bc 678d b9bd 1230 2cbe
000000d0: 03ad 853e 5d9a c53e 8782 0dbe d4d5 99bd
000000e0: db07 f3be ca0d bb3e 6b05 25bf e5e0 723e
000000f0: faba 143e 69ff 96be be73 a3bc be2c 50bd
00000100: bd74 bebe ef1a 60be 4b9f 203e fa5c 2c3e
00000110: 995b 073e 09cc 9d3e 7b77 663d 7514 d73d
00000120: bf99 44be b02b acbe 1248 5fbe d925 d5be
00000130: 8a01 583e baa3 1abf 3117 c8be 51af 7f3e
00000140: a26b 5b3e 0afb bdbd d5ae 8c3e ae01 2d3e
00000150: d2d7 a53e ecfb a8be d251 bdbd c501 a5bd
00000160: a89e a43e be29 7fbf ccfa 0dbd f517 4c3e
00000170: 971d 74bd 1de4 823e 3eac af3e 11e4 173c
00000180: 03f4 403e 0cf7 cebe f095 5b3e 71e5 91be
00000190: f7f3 863e a16a 75be d533 d4bc 3827 a03d
000001a0: 25a6 c0bc d94a 20bf fab1 6a3d 57cf c5bc
000001b0: 2b99 7fbd 7726 243f 83e7 073f 774a dd3d
000001c0: 1f4e d93d e361 be3e 8be1 913e ff68 253e
000001d0: 371a f03e 383a b3bd 6c80 c63e e4b7 78be
000001e0: 85fd bfbe 5612 16bb 1d7a 3abd 4b46 dfbd
000001f0: 4527 59be a360 0abf 32f7 80be d340 573e
00000200: 0288 19be 7af3 aa3e f059 b43d 891b ae3e
00000210: 7edb c73e 4043 b3bd 885e a13e 5719 203e
00000220: e8cf ae3e 080b 96be 9600 113f bc96 85be
00000230: a702 84be 7f2b ba3e 0bfa b63e da42 413d
00000240: 2561 dfbe 5804 e7be 6113 0c3f e63d 5bbf
00000250: 4256 923e cf72 0cbe 0a31 69be 2dc9 9c3e
00000260: eab8 4a3e b84c f3be 681e 993e 6d79 5c3e
00000270: 2f8f 7cbe 58a7 80bd 6960 a03e 3431 da3d
00000280: c4cf aa3e c7fd 12bf 898d cfbe e6ea 16bf
00000290: 6c13 cfbc 32ec 973d 563e b73e 2c49 ff3d
000002a0: 8513 01bf 28d4 9b3d 3bec a7be 994c bf3e
000002b0: 8322 08bd 3633 0f3e d59b 62bf 8007 19bf
000002c0: 51c0 723f a3f7 17be 7aa6 363e c41d 41be
000002d0: 14a1 16bf d9cd fbbe bc23 903f 5ffe 603e
000002e0: 5944 19be 3d6c dabe 46fc cf3e 2b8f d7be
000002f0: bbf3 5bbd 0af2 ad3e 4ca0 c13e 70bd 093e
00000300: e4af 073f ff92 4c3e 8c73 783d 04c5 a2be
00000310: 5722 023f 1460 2b3e 0a50 eabe a61c 01bf
00000320: 0473 de3c 05ca 96be f818 eebe 405a a03f
00000330: 0cc3 a53e f8e6 d43e 34c0 97be eac0 853e
00000340: bb3f 9e3e 837a 2cbe 1722 d0be 84f2 a33c
00000350: 4a14 10bf 1a9a 17bf 5e17 343f 4847 ab3d
00000360: 4149 3b3e 69f6 0ebe e200 a53d 59df 3cbf
00000370: e7e8 2d3e 0477 733d 42e8 1cbf f8ec 96be
00000380: 3e0c 9ebe 8e93 f3be 6544 91be f051 b2be
00000390: 17bb 13bf 06b0 4f3e d4ea 81be 1a8e a13d
000003a0: 60ce 57be 69af 983e b53c dfbd 3185 183e
000003b0: e6e4 113f 1fff 6dbe 083a eb3e 12a5 823e
000003c0: 5b87 38bf e0d2 1bbd 9dae 843d 2f7e d33d
000003d0: ed8b 77be 45a4 e8be da97 383e c2bc e7be
000003e0: 5c5f 023f 069b 033f 322f 213e f15c 42be
000003f0: 5135 04bf 22f0 6b3f 5fd1 46bf 3aa8 bcbe
-0.10310833 0.21454884 -0.12660699 -0.13929139 0.004377074 0.0511554 -0.20984304 -0.38342226
-0.24717826 0.16626951 0.035286978 0.07906672 0.26645863 -0.31701902 -0.6081613 -0.28824446
0.15989183 0.5507409 -0.1744953 0.16914386 -0.036528774 0.48053166 0.42304567 -0.38382286
0.17763352 -0.028270662 -0.07965328 -0.24589646 0.08092689 -0.23788053 -0.012223073 -0.43898153
-0.08860139 -0.06026985 0.09342952 0.41700855 -0.06040531 -0.1308541 -0.19579174 0.26264852
-0.0312007 0.032078594 0.17700513 -0.21023117 0.2962619 0.052082885 0.28201836 0.60704166
-0.45570624 -0.022681903 -0.090601735 -0.16815212 0.2610856 0.38594332 -0.13819323 -0.075114876
-0.4746693 0.36533958 -0.6446139 0.23718603 0.14524451 -0.29491737 -0.019952651 -0.05082392
-0.3719844 -0.21885274 0.15685765 0.16832343 0.13218535 0.3081973 0.05626629 0.10501949
-0.19199274 -0.3362708 -0.21804836 -0.41630438 0.21094337 -0.60406077 -0.39080194 0.24969222
0.21427777 -0.092763975 0.27477136 0.16895172 0.3239122 -0.330047 -0.092441216 -0.08056978
0.32152295 -0.9967307 -0.034663007 0.19931014 -0.05959853 0.25564662 0.34311098 0.009270684
0.18843083 -0.40422857 0.21443915 -0.28495362 0.26358005 -0.23966457 -0.025903622 0.078199804
-0.023516724 -0.6261421 0.057298638 -0.024146719 -0.06240193 0.6412119 0.53087634 0.10805219
0.106106035 0.37184057 0.28492388 0.16153334 0.46895 -0.08751339 0.38769853 -0.24288899
-0.37498108 -0.0022899113 -0.045526613 -0.10902079 -0.21206386 -0.54053706 -0.25188595 0.21020822
-0.14993289 0.33388883 0.08806217 0.34005383 0.39034647 -0.08753061 0.31517434 0.15634666
0.34142995 -0.2930529 0.5664152 -0.26091564 -0.25783274 0.3636131 0.35737643 0.047182895
-0.43628803 -0.45120502 0.5471707 -0.85641325 0.28581434 -0.13715671 -0.22772613 0.30622235
0.19797102 -0.4751947 0.2990601 0.21530695 -0.24663995 -0.06281918 0.31323555 0.10653916
0.33361638 -0.57418483 -0.4053767 -0.58952177 -0.025277816 0.074180976 0.35789746 0.12465128
-0.5042041 0.07608825 -0.32797417 0.37363127 -0.033236038 0.13984379 -0.8851903 -0.5977707
0.948247 -0.1484056 0.17836943 -0.18859011 -0.58839536 -0.49180487 1.1260905 0.21972035
-0.14967479 -0.42660704 0.40622157 -0.42101416 -0.053699236 0.33973724 0.3781761 0.13451171
0.5300276 0.1997795 0.06065707 -0.31790936 0.5083365 0.1673587 -0.4576419 -0.5043434
0.027154453 -0.29451004 -0.46503425 1.2527542 0.3237537 0.41582465 -0.29638827 0.26123744
0.30907997 -0.1684361 -0.40651008 0.020013101 -0.5628096 -0.59219515 0.70348155 0.08363205
0.18289663 -0.13961186 0.08056809 -0.737783 0.16983376 0.059439674 -0.612919 -0.29477668
-0.30868715 -0.47573513 -0.28372493 -0.34828138 -0.5770735 0.20281991 -0.25374472 0.07888432
-0.2107482 0.29821327 -0.10900251 0.14894558 0.56989896 -0.23241852 0.45942712 0.25516564
-0.72081536 -0.038042903 0.06478617 0.10326802 -0.24174471 -0.45437828 0.18026677 -0.45261198
0.50926757 0.5140842 0.1574066 -0.18980767 -0.51643854 0.9216329 -0.77663225 -0.36847097

critic.2.bias f4 [128]
00000000: eec5 323e 4ac8 c1bd b282 f43c 77e5 ef3b
00000010: 76d7 5f3e 4f5f 8abe ce7d b03e 70c1 b93d
00000020: 9cbc ecbd 061a 1e3e 4b41 1c3d 0b00 b5bd
00000030: 76a5 f4bc dd68 d0bd 0bc7 6c3c 4eb1 683d
00000040: eb6d 87be ed85 303f c6bc 963e 1d12 443d
00000050: 4058 b83e bef4 503d e0ee 263d d297 81bc
00000060: 0287 53be 78af 19be 3895 b63e 1dbe e7bc
00000070: 5bc7 82bc a9e4 443e 09c9 0c3e 6e83 a73d
00000080: 5b00 be3c 3ea0 ee3d 82b3 073e 7c95 35bf
00000090: c69e 1b3e 7f95 b33d 1510 9c3d 74eb 92bd
000000a0: f3fc f6bc fe32 0a3e c344 c2bc 6bcd 283e
000000b0: 90ac c83e 9659 10bf f88a 633e ae99 ad3d
000000c0: 504b bebd ab6d f63d 664e a9be 113d 4fbd
000000d0: 8325 20bc a978 6fbe 6507 703e af95 353b
000000e0: 8b5c fbbe fe17 11bc bd6c e7bd e304 803e
000000f0: ae1d ab3d 74cd a6be 4d7f 003f 8890 1dbe
00000100: ea85 a2bd 4e0c bfbe cf82 f13d 5b95 2f3e
00000110: 5e7f c33d 595d 933e c5d4 303e c224 f7bc
00000120: 0792 a4be 307d b03e 5249 b6bb 46c4 8d3e
00000130: e526 9abd 2409 c4bd cae6 3ebe 4e2a 9d3d
00000140: 6c99 43be 9ee9 c13c 38e8 a5be d12b 17be
00000150: 92b2 8bbe 753f 75bd c3bf 483d 36c1 08be
00000160: 006b 283e 0475 a6be 0938 89be 1324 2fbd
00000170: c4a6 aebc d380 953c 0caf 553e 4d24 e0bc
00000180: e9ee 2fbd 3b4e fc3c 1cbd 99be a4a8 bfbd
00000190: 9a4f 63be 473b 393c 82d5 8dbe e093 e33d
000001a0: 9719 213c 923d e63d 50f2 15be c565 89bd
000001b0: d8ef 983e c371 e93b a73f 46bd 5d7a 9e3e
000001c0: d383 0abe d40f f6bc c81b 8e3d 61d6 e5bc
000001d0: d994 20be 61c4 063e 0b10 943e 4572 24be
000001e0: f280 923d 356b 09bf f95e 3e3e b847 b9bb
000001f0: 3b2a 3bbe 40d3 23be 1ed3 8bbe 2e98 1c3e
0.17458317 -0.0946203 0.029847477 0.0073210555 0.21859536 -0.2702584 0.3447098 0.090700984
-0.11559412 0.15439615 0.038148206 -0.08837899 -0.029864054 -0.10176251 0.014451752 0.056809716
-0.26451048 0.68954355 0.29440898 0.047868837 0.3600483 0.051014654 0.040755153 -0.015819464
-0.2065697 -0.15008342 0.3566072 -0.028288895 -0.0159642 0.19227852 0.13748564 0.08179365
0.023193529 0.116516575 0.1325207 -0.7093122 0.15197286 0.087687485 0.07620255 -0.07173815
-0.030149912 0.13496014 -0.023714429 0.1648461 0.39194155 -0.563867 0.22220981 0.08476578
-0.092917085 0.12032636 -0.33067626 -0.050595347 -0.0097745685 -0.23385872 0.23440321 0.0027707627
-0.49094042 -0.008855818 -0.11300037 0.25003728 0.0835527 -0.32578623 0.50194246 -0.15387166
-0.07935698 -0.37314075 0.11792528 0.17146818 0.09545778 0.28782156 0.17268665 -0.030168895
-0.3214266 0.3447051 -0.0055629397 0.27688807 -0.0752695 -0.09572056 -0.18642727 0.076740846
-0.19101495 0.023670968 -0.3240373 -0.14762808 -0.27284676 -0.05987497 0.049011003 -0.13354954
0.16447067 -0.3251115 -0.26800564 -0.042759012 -0.021319754 0.018249905 0.20867556 -0.02736106
-0.04295245 0.030799022 -0.30027092 -0.093583375 -0.22198334 0.011305637 -0.27701956 0.11112189
0.009832761 0.11242212 -0.14643216 -0.06708864 0.29870486 0.007124157 -0.048400547 0.3095273
-0.1352685 -0.030036844 0.069388926 -0.028056325 -0.15681781 0.1316085 0.2891849 -0.16059215
0.071535006 -0.5367921 0.18590917 -0.0056543015 -0.18277828 -0.15998554 -0.27309507 0.15292427

critic.4.weight f4 [1, 128]
00000000: 7834 a4b9 f0fd 49b9 70d5 29bb d657 813a
00000010: bc2d 9b39 2c72 fd38 0b2a 4abd 07d9 043a
00000020: 75ec 263a d82f 93ba a2c4 663a 5657 08ba
00000030: 6d65 41ba a20d 18b9 f119 7bbb 8462 83b9
00000040: edb8 ffb9 f511 653d c7da 2f39 ca5c 1c39
00000050: 011e d9b8 6d06 bd39 6a04 9cb9 89e6 1db9
00000060: d5f5 19ba 449a 1b3a fac2 e2b9 fe72 19ba
00000070: 6bbc c2b9 7381 8d39 69a4 cab9 cd2b 81ba
00000080: 01f4 1dba 8bd5 06bb 3355 ac39 088a 1f3c
00000090: a602 c339 58a1 9638 1874 f9b7 5f0d 49ba
000000a0: 702f aeb9 05f9 cdba d85a 933a 96c7 ea3c
000000b0: 9ba8 a93c 72ae cebd e4c8 d037 3e0c 02b9
000000c0: 7680 cd39 a930 b03a 06f1 5d39 d43c c3ba
000000d0: 5dad 8039 d817 0e3a e9cc 1aba 3fa2 4839
000000e0: a038 553d 1f16 32ba 8c12 373a 6648 b33b
000000f0: c56f f539 9ccf 1838 61f9 bf38 0b63 34b9
00000100: 7ac4 393b 08ec 0ab7 e087 e739 6b20 d63a
00000110: 6d55 c738 83d2 7d39 d5ea 263a 977c a7b9
00000120: 470c 0eba 5478 5639 e9a9 18ba fff7 49ba
00000130: 5100 e2b9 3536 10ba 96ca a8b9 c34a 4339
00000140: 9a31 bbb9 63d1 a6b9 a6dc 8439 e204 cdba
00000150: 8947 10b9 c235 c439 25e7 d439 2c5d f6b9
00000160: 3237 233a 1740 01ba 4dbb 7e3b 776b 58ba
00000170: e99c 54ba 5103 ea3a 7a34 3838 a2a7 b53a
00000180: e4f3 d2b9 7be8 d738 d92f d139 3b8c ec3a
00000190: 4b01 e5ba f4b8 d738 bc27 5dbc dbcd 213a
000001a0: 7251 89ba 50b7 4cb9 e599 bab9 67ef 06bb
000001b0: 44c0 40b8 a57b 5eb8 fa8c 22b9 a542 6eb7
000001c0: 47d0 063a c295 d239 4080 9fb9 1e98 903a
000001d0: f25b 2639 aeb3 d839 99e3 c839 7fc8 cdb9
000001e0: a37a 7fb9 0a43 a4b9 2c29 4eb8 ab16 c1b9
000001f0: 6696 b03a 448e 3bb8 6864 003b e477 113a
-0.0003131961 -0.00019263453 -0.0025914572 0.0009868096 0.0002959798 0.00012085246 -0.0493565 0.000506774
0.00063676323 -0.0011229469 0.0008803104 -0.00052010024 -0.00073774793 -0.00014500928 -0.0038315023 -0.00025059667
-0.0004877517 0.05592533 0.00016770801 0.00014911886 -0.00010352955 0.00036053677 -0.00029757927 -0.00015058568
-0.00058731186 0.0005935768 -0.00043251348 -0.0005853622 -0.00037142946 0.00026990063 -0.00038650937 -0.0009854973
-0.0006025434 -0.002057406 0.00032869875 0.009737499 0.00037195272 7.18261e-05 -2.9737173e-05 -0.0007669534
-0.0003322321 -0.0015714472 0.0011242284 0.028659623 0.02071028 -0.100918666 2.488908e-05 -0.00012402327
0.00039196358 0.0013442236 0.0002116599 -0.0014895448 0.00024543228 0.0005420423 -0.0005905168 0.00019133928
0.052055955 -0.00067934574 0.00069836597 0.005471277 0.00046813316 3.6432975e-05 9.15404e-05 -0.00017203034
0.002834587 -8.280396e-06 0.00044160988 0.0016336566 9.504971e-05 0.00024206382 0.000636739 -0.0003194555
-0.00054186996 0.00020453456 -0.00058236584 -0.0007704496 -0.00043106315 -0.00055012415 -0.00032194395 0.000186245
-0.00035704375 -0.00031817993 0.00025341398 -0.0015641714 -0.00013759559 0.00037424086 0.00040608007 -0.00046990195
0.0006226181 -0.00049305096 0.0038868964 -0.00082557596 -0.00081105396 0.0017853772 4.391789e-05 0.0013859163
-0.00040236034 0.00010295302 0.00039899236 0.0018047163 -0.0017471699 0.00010286449 -0.013498243 0.00061723375
-0.0010476543 -0.00019523245 -0.00035591345 -0.0020589472 -4.595543e-05 -5.3044078e-05 -0.00015502042 -1.4201422e-05
0.000514273 0.000401659 -0.00030422397 0.0011031663 0.00015865246 0.00041332602 0.00038316546 -0.00039250028
-0.00024364381 -0.00031330466 -4.915257e-05 -0.00036828718 0.0013472557 -4.471677e-05 0.0019591097 0.0005549176

exp_avg f4 [4]
00000000: 23d2 ab3a 42c9 773b ed5c 033a 7979 e838
0.001310889 0.0037809168 0.00050111004 0.00011085248

exp_avg_sq f4 [4]
00000000: bd6a d439 e05b 473a 4b99 b739 1bf4 0639
0.00040515317 0.0007604938 0.00035018692 0.00012870172
