examples/drone/logs/no-percep-5000/model_4400.pt (torch, 474978 bytes, 36 tensors)

std f4 [4]
00000000: c096 d93d a22d 123e cfed 203e f124 6b3e
0.106244564 0.1427522 0.15715717 0.22963311

actor.0.weight f4 [128, 17]
00000000: 4e0a 893f fd2d 2a3f 795f 113d a43e c3bf
00000010: 07bd 10c0 5bb3 c73f 42c7 a83f a28d 0840
00000020: 5afc fe3f 35ba d53e 4af4 073f 1e3e c8be
00000030: ca8a 97bf 7552 44be 6a27 9ebe d1a7 cebc
00000040: b7ed 30be 2bf6 633f f8b0 d63f 98dc 90c0
00000050: d1c1 01bd bc99 8740 3d88 683f 82dd 1bbf
00000060: b5b2 88bd 7188 d3be 3b9c d93e 1dba 07bf
00000070: e93c 43bd 0211 cebd 3bef 74be 70b0 71bd
00000080: 44d8 e5bd 34b7 15be ba14 313d 5460 29c0
00000090: da88 1a40 b631 75be 53bc 9fc0 e20a d8bf
000000a0: bb85 2d3f a9cd 833f afba 03bf b46d a9bc
000000b0: 60e4 9abe 750e 57be abfc 313d a388 913b
000000c0: 7570 0abb 35f4 923d 602a 923c bb0e 883f
000000d0: c78b b63d 5ee9 9e3f dd7b c2be 0f8d 41bf
000000e0: 2b5a 85c0 6847 34bf e321 493e ebfb 10bf
000000f0: a72b e03d 3c7e 3cbf a2a8 98bf 057b dcbd
00000100: 8bcf 483e c526 8a3e bb76 ab3d 8c27 cd3c
00000110: 34bd 95bf 94be 5e40 fe7d b93f fe23 e33e
00000120: 7b87 94bd 67fe 01bf f72d 4fbf 14f3 04bf
00000130: f3b0 7cbf c4c0 833f 289f 0e3f 8c56 4cbf
00000140: 8956 1fbf 5659 98be b660 c9be 5433 bcbe
00000150: f5ba 60bd 0fcc 51bf 804d 103f f34c 0440
00000160: 254b 4abf 0f2b 10be aa4a 9c3f b39a d4be
00000170: 6bcb 523e a35c edbe 5b1b 90be acbe 6fbe
00000180: a5a8 d5be e82c dfbe 8cd3 b33d a491 583e
00000190: 4c45 2b3e b179 a7bd 4cc3 7e3f 4788 e8bf
000001a0: d5e0 83c0 41b7 eabe 3513 a0bf 9226 89bf
000001b0: 01ad 1ebe 7c0f 14bf 4acd 8a3e 3f56 803d
000001c0: badf 903e 7bb2 093e 92ed 033f 1d5d 793e
000001d0: 2b33 3f3e 5c7f 31bd 3909 cf3e 73c5 773f
000001e0: d3ba 413e f98e 60bf 23df 4c3e 4c0d 3440
000001f0: 8c3c b73f 31f9 9ebf 72ca 903d 6171 b53e
00000200: d488 af3e 8e35 c9bf f266 d93e 2039 263f
00000210: 6ef0 45be 2ade e63c caa5 87be f7b8 b5be
00000220: a886 12c0 1230 6040 f503 dec0 6e1d 233e
00000230: 8b56 05bf bfa8 8d3f 9830 083f fee7 9dbe
00000240: 17e7 7abf 0ee2 6a3e 024d 19be 0de9 b8bd
00000250: d49d 3e3e 8970 33bd 71a8 05bd a2b3 5a3c
00000260: 473a 913d 9f53 96be 7434 3abe 6bfc db3f
00000270: 1a44 ad3e 8355 18bf 355b 403e 3b33 453f
00000280: 6a5f 4fbd a681 583f c7cb 3bbf 4850 afbf
00000290: ca98 47be c132 76bf 34fe 3f3f d023 2e3f
000002a0: 4c6f 353f 0ab6 cc3e 0c30 db3d 41ab 033f
000002b0: 65e2 4cbf b4a4 4e3f 0ff2 613f ba00 2a3f
000002c0: de3e ad3f 353d 76bf b34e 48be 8aa0 a2be
000002d0: fa5f 2ebe 27e0 08bf 42e0 433f 87e4 dabc
000002e0: 3045 62bd 5849 60be 0b5d 65be 62d7 9f40
000002f0: ce5e 3340 2632 40c0 a61a 51bc f353 8cbf
00000300: e38c a9be 0277 c6bf ecb6 1bc0 c75c 94bf
00000310: 1925 62bf e3dc 5e3e 65f3 3bbe 5db0 c63e
00000320: b02f 65be 6232 debe 4de9 29bd 5ece 34be
00000330: 4cad 74bf de53 713e a82d 4cc0 5fb4 6ebf
00000340: a29d afbe c220 af3e cf77 1bbe 3f74 a0be
00000350: 3e33 bebe 63c4 d1bd 7b94 0b3e a309 32be
00000360: d0db 143f 880e fa3e 681a ee3d 3504 2d3e
00000370: 105e 833e 01ba 6fc0 08a6 bfbe 5271 d040
00000380: ec52 0a3e a035 6b3e a59e cf3f 7e99 abbf
00000390: a4b2 4240 c74c 9f3e 9ad0 153f 5a92 2d3c
000003a0: 2c72 c63d 705b d73d 6168 893d e6db 7e3e
000003b0: 3b4e 43be 4fad d13c ebbd 00bc 2f36 f8bd
000003c0: f5db 1f3e 181d 13bf 4360 42be 2869 38bd
000003d0: a63e 073d 802b a13c 78d7 7d3d 1f6e 6b3c
000003e0: c7f7 0cbc c429 aa3c 025a d53b 77ee 603e
000003f0: 9ef3 6bbd 1d97 0dbe 99f4 00be 5dff c83e
1.070627 0.6647642 0.03549144 -1.5253491 -2.2615373 1.560161 1.3185809 2.1336446
1.9920762 0.41743627 0.5310713 -0.39109892 -1.183923 -0.1917208 -0.30889446 -0.025226505
-0.17278181 0.890475 1.6772757 -4.526928 -0.03167898 4.2375164 0.90832883 -0.6088487
-0.06674711 -0.41315034 0.42502007 -0.5301836 -0.04766551 -0.10061838 -0.23919384 -0.059006155
-0.1122289 -0.14620668 0.043232657 -2.6465044 2.4146028 -0.23944744 -4.991739 -1.6878321
0.6778218 1.0297137 -0.5145673 -0.020682193 -0.3025236 -0.21001609 0.043453854 0.004441337
-0.0021124159 0.07175485 0.017842472 1.0629495 0.08913379 1.2414968 -0.37985125 -0.75605863
-4.167257 -0.7042146 0.19641833 -0.56634396 0.10945826 -0.7363012 -1.1926463 -0.107656516
0.19610421 0.26982704 0.083722554 0.025043271 -1.1698365 3.480382 1.4491575 0.44363397
-0.07252403 -0.5077881 -0.8092951 -0.5193341 -0.98707503 1.0293202 0.55711603 -0.7981956
-0.6224142 -0.29755658 -0.39331597 -0.3675791 -0.054865796 -0.81951994 0.56368256 2.0671966
-0.7902091 -0.14078926 1.2210286 -0.41524276 0.2058541 -0.4635974 -0.2814587 -0.2341258
-0.41730228 -0.43588948 0.08780584 0.21149307 0.16725653 -0.08177508 0.9951675 -1.8166589
-4.1211953 -0.45842937 -1.2505862 -1.0714896 -0.15495683 -0.5783613 0.27109748 0.0626645
0.2829569 0.13446991 0.5153438 0.24351926 0.18671863 -0.04333435 0.40436724 0.9678566
0.18918924 -0.8771816 0.20006995 2.8133116 1.4315352 -1.2419797 0.070698634 0.35438064
0.3428408 -1.5719469 0.42461354 0.64930916 -0.19329998 0.028182108 -0.26493675 -0.3549268
-2.2894688 3.502934 -6.937983 0.15929195 -0.5208518 1.1067122 0.5319915 -0.30841058
-0.98008865 0.22937796 -0.14970782 -0.09028826 0.18614894 -0.043808494 -0.03263134 0.013348492
0.07091194 -0.29360673 -0.18184072 1.7186407 0.3384102 -0.5950548 0.18784793 0.77031296
-0.050628103 0.8457283 -0.73357815 -1.3696375 -0.19491878 -0.96171194 0.7499726 0.68023396
0.7087295 0.39982635 0.107025236 0.5143319 -0.8003295 0.8072007 0.8825998 0.6640736
1.353481 -0.96187145 -0.19561271 -0.31763107 -0.170288 -0.5346703 0.76514065 -0.026720298
-0.055241764 -0.21902978 -0.22398774 4.995042 2.8026614 -3.0030608 -0.012762701 -1.0963119
-0.331153 -1.5505068 -2.4330397 -1.1590813 -0.88337857 0.21763949 -0.18354566 0.3880643
-0.22381473 -0.43397814 -0.04148226 -0.17656848 -0.9557693 0.23567149 -3.1902866 -0.93243974
-0.34299952 0.3420468 -0.15182422 -0.3133869 -0.3714847 -0.10242536 0.1363086 -0.17386489
0.5814791 0.4883921 0.1162613 0.16896136 0.25657701 -3.7457278 -0.3743136 6.513833
0.13508195 0.22969675 1.622029 -1.3406217 3.0421534 0.31113264 0.58521426 0.010593975
0.09689745 0.10515487 0.06709362 0.24888572 -0.19072811 0.025595335 -0.00785778 -0.1211971
0.1561125 -0.5746627 -0.18982033 -0.04502216 0.03301873 0.019674063 0.061973065 0.014369517
-0.008603997 0.020771869 0.006510974 0.21965967 -0.05760538 -0.13827176 -0.12593307 0.39257327

actor.0.bias f4 [128]
00000000: b6eb 8abf 35a3 7fbc d8a8 a2bd 00be 2bbe
00000010: ec30 b63e 121a 653e b001 19be 1eb6 d0be
00000020: bdb7 93bd bd00 05be 4f9e e4bd d913 45bd
00000030: a4b3 38be 1541 fdbd 9974 1c3f 47e5 443d
00000040: 285a c5bd 840f 91be 4619 4cbf 3bc8 03bd
00000050: 4f97 89bc 066a 0abe ec00 33bf cb81 13be
00000060: 2b57 523e 1d82 1c3e 56eb 93be c8d1 a5be
00000070: 1f23 023e 77db 86bd b6c6 49bd 2bdc d73d
00000080: d6d8 5c3e b4a1 70bd 7174 713d 986d 493f
00000090: 96ba dabd dfa8 0ebe 97a2 61be ead8 ffbc
000000a0: 79a3 e9be e2dc aebd 2e6f 58be eb09 e6be
000000b0: e1d8 10bf 8463 0b3e ecc2 ea3d c713 23be
000000c0: aca9 243e a0c8 9e3d b0ca a13d 8baf 33be
000000d0: cb6c 9abe d48e a33c b62b 0f3e c7df 76bc
000000e0: e1c3 27bf ea5b 933e 0d3a a3bd e71f 383d
000000f0: 2ec2 e6bc af15 813d ff86 d3bd 8800 1c3e
00000100: 0a55 3d3e 26ab dbbd 0b10 3fbf 30ee f8bb
00000110: 76ad 06bf d6a0 9e3e 0ff8 abbe a07f c7bd
00000120: 0a4a 463e b605 1b3e 86f8 48be b3d9 77bf
00000130: 7aa0 e8be 76b0 c63d 814a 2cbe b552 6dbe
00000140: bcd2 2bbe 322e ac3d b5db 09be 8dce 07bf
00000150: 36ec 123f 982b a33e 1537 a43d b5d9 463e
00000160: 7d0e bfbe 6e93 ddbe 8a12 003f e7d1 f6be
00000170: dbf6 643e fb29 58be d7e3 1ebe fcd2 14be
00000180: 4e1a 86be 4c26 203f faee 2f3e 43c1 003f
00000190: 411a b93e 7926 5b3e a877 33be eb30 8c3e
000001a0: 0e85 0ebe 38bb 083e aed6 523c 7fd0 21be
000001b0: 8796 3bbf 5520 bbbd 221c 4b3e 4e17 043f
000001c0: c9f2 bcbe 8ae6 84be 6ada e7be f6ef 0c3d
000001d0: 6b37 06be 38f5 db3e 19d1 c63d f91b 4ebf
000001e0: 8d9e b53e 1b7f 0f3d 2b32 dd3e 3706 1e3e
000001f0: 8c83 0c3d d41e b43d aa9d 9b3c 3ea3 9c3d
-1.0853183 -0.015602876 -0.07942361 -0.16771698 0.355842 0.22373226 -0.1494205 -0.40763944
-0.0721278 -0.12988563 -0.111630075 -0.04811463 -0.18037277 -0.12365929 0.61115414 0.04807022
-0.096363366 -0.2833215 -0.79726064 -0.032173377 -0.016795782 -0.13517007 -0.6992328 -0.14404981
0.20541064 0.1528401 -0.28890485 -0.32386613 0.1270871 -0.06584828 -0.04926177 0.105400406
0.21567091 -0.058747962 0.058948938 0.7868285 -0.1068012 -0.13931607 -0.2203468 -0.031231362
-0.45632532 -0.08538224 -0.21136162 -0.44929442 -0.5658093 0.13612181 0.1146296 -0.15925513
0.1608035 0.0775311 0.07899988 -0.17547433 -0.30161127 0.019965567 0.13981518 -0.015068001
-0.6553326 0.28781062 -0.07970057 0.0449523 -0.028168764 0.06302964 -0.10328483 0.15234578
0.18489471 -0.10726003 -0.74633855 -0.0075967535 -0.5260843 0.30982083 -0.3358769 -0.097411394
0.19364181 0.15138897 -0.19626054 -0.9681656 -0.45434934 0.09701626 -0.16825296 -0.23176081
-0.16779608 0.084072486 -0.13462718 -0.53049546 0.5739168 0.31869197 0.080183186 0.19418986
-0.3731574 -0.43276542 0.5002829 -0.48207018 0.22359793 -0.21109764 -0.15516602 -0.14533609
-0.26191944 0.62558436 0.17181006 0.50294894 0.36152843 0.21401395 -0.17526114 0.2738107
-0.13917944 0.13352668 0.012868566 -0.15802191 -0.7327656 -0.09137026 0.1983495 0.5159806
-0.3690398 -0.25957137 -0.45283824 0.034408532 -0.13107078 0.42960525 0.09707851 -0.8051143
0.35472527 0.035033327 0.43202338 0.15432058 0.03430514 0.087949425 0.018996079 0.076483235

actor.2.weight f4 [128, 128]
00000000: 7f24 00bd f3f0 94bc 9619 47bd 5b4b 9ebd
00000010: 650b 39ba fa6f afbd 1e55 b8bd 72ef e6bd
00000020: 1165 b6bb c633 893d a9fe 3cbe cf16 633d
00000030: 1585 803d 62b1 16bd bc9b db3b 2e4c 4b3d
00000040: 015e 473e 1526 2fbb d7d5 1bbd 8953 f9bd
00000050: 6319 533d 1b59 65bd b063 e3bc a317 dd3d
00000060: e03a a23d 9f59 6b3d 4110 0d3d 3669 dabd
00000070: a4b8 843c b1da 9c3d 56f9 ea3d 557d 68bd
00000080: 2449 0abd d2cf f7bd a86c 0bbe 66b3 dbbd
00000090: 041b 9fbc ae4c 92bd 31e5 a5bd 2a30 f53c
000000a0: da4b 2b3d 4792 143e 17f2 13be 8d0f 963d
000000b0: a40e a1bd e613 5fbd e159 83be 2933 60bc
000000c0: 19fe f93d 141b a53d c864 8ebb 51e3 893d
000000d0: 394e a7bd 2bcd b8bc 8279 36bd 9311 2c3e
000000e0: b178 eabd 5217 febc 0eb2 d93d b8b2 593d
000000f0: b22d 1dbc fd74 93bd 9d3e e4bd 9733 7bbd
00000100: 6908 8d3d d3f2 20be 7084 9b3d fc6f e8bd
00000110: 5ed4 96bc f6b6 1e3d 84c8 fcbc 85ff 2e3d
00000120: c940 dc3d 2205 f0bc 6ea7 033e 26b7 74bd
00000130: 5422 ac3d e686 de3d 41f8 333d 57d5 4b3c
00000140: fcb6 56bb c696 d8bd 18ba bb3d 504d a1bd
00000150: 7e74 3b3d 64e4 043c 238f 7f3d f236 2fbc
00000160: 02c8 6b3d 9a15 b2bd 5851 713d a5fa 7fbc
00000170: 8fff 19bc 6e78 b33d 4729 82bc bba0 693d
00000180: 8eb5 7e3d a5ed f13d 0ec7 c53d a836 593d
00000190: 3d01 30bd 219c 4c3c bcde 20bd 062e 47bd
000001a0: d66e 85bd 9e5b 8c3c cd68 6ebd 91fc cfbd
000001b0: f008 713d d4fc 9ebc 399f 23bd abba 973d
000001c0: 2a61 2f3e 9b0e 0c3c 07f0 b33c e22a 3b3d
000001d0: 41d1 fb3d 52fe 0abe 4a34 143d f679 2e3c
000001e0: 8b4e 993c f34c 7d3d b1cc 8a3c 2af3 973c
000001f0: 68de 703d 77fd 083e 010c d83d ba3f 873d
00000200: 69e2 1dbe 58b3 cd3e d373 a83f 7db5 44bf
00000210: e9e9 74bd 3f60 f0be 0753 8c3e 20e7 75bd
00000220: ee72 b2bf ccb5 1dbf ff10 59be 42f5 02be
00000230: 1148 583e 64ef 9f3e 3de2 1dbc f3bc 96be
00000240: ca38 ae3e a71a fe3d 4339 3fbe 0f7e 933f
00000250: 0ac6 e13d 0b04 e33e 3fde e03d 1547 5cbf
00000260: fbb7 a7be d9cd 64be 8033 193e 49fa 98be
00000270: b7d8 02bf 839d 0cbf ac3d a63c 9135 fbbe
00000280: 4be5 913f 3a23 243f 85c6 0b3f b23f c33e
00000290: 387d a0be 3b3f 3b3e 6183 79be de31 cb3c
000002a0: 4ded 543f 84c4 253e 4857 203f 6453 773e
000002b0: 518a 9e3e 5471 683f 21e2 59bf 1abe 673c
000002c0: e314 0c3d ac10 053e 984e 03bf c7a9 9f3f
000002d0: 4dd6 2e3f 47c3 983e c909 0c3f 311e 82bf
000002e0: e62e 69be 6b8a 263d 1ce7 483e dce3 6a3d
000002f0: 6ae5 db3e 51dc 63bf 51a9 623e 1f3a afbc
00000300: 5970 da3e 1302 82be f0ae e0be 7370 b2bf
00000310: 829f 1c3e d871 073c 09e5 4e3f 2c13 9d3f
00000320: 08a7 493e 3d8b 6f3d d88e 4b3f b319 83bc
00000330: 2154 fa3e 80fa bf3f 1a48 9d3e c04d a43e
00000340: 5a30 18bf e72d e3be 8fc8 503d 9cd2 113e
00000350: 82fc 233e cae9 413b 893d 57bf b009 ab3e
00000360: 726d 9a3e 08a9 0b3f 2aad 853d 6ba4 53bb
00000370: 5b8f 823e 38a7 21bf 926e c9be dd35 4abf
00000380: dbb4 163f 0ddc fabd f693 30bf 30ce 863d
00000390: 6d5e c8bd 57fa 89bd 25ae 9dbf 2153 d23e
000003a0: 0230 69bd 6f7d f8be 9827 2b3c beed 15be
000003b0: 28ab 3b3c 5e40 e6bf 2019 c53e a250 3ebf
000003c0: ee07 9cbe 58e5 7fbf 60d4 70be 2bad 8a3e
000003d0: e96d 383e a319 9e3e ee29 a2be 97e7 d7bd
000003e0: b103 debc 3300 c03c 87ed fcbb 2af7 01bf
000003f0: 18a3 283f 6424 6cbe c579 aa3f 3248 0abf
-0.031284805 -0.0181813 -0.048608385 -0.07729217 -0.0007058888 -0.0856628 -0.0900061 -0.11276139
-0.0055662473 0.06699328 -0.1845652 0.055441674 0.062753834 -0.03679026 0.0067019146 0.049633197
0.19469453 -0.002672558 -0.03804573 -0.12174136 0.051537883 -0.05599318 -0.027757496 0.10795524
0.07921386 0.057458516 0.03443933 -0.10664599 0.016201325 0.076588996 0.11473338 -0.05676015
-0.03376116 -0.121001855 -0.13615668 -0.10727577 -0.019422062 -0.07143532 -0.081003554 0.029930193
0.041820385 0.14508925 -0.14447819 0.07327185 -0.078641206 -0.054462336 -0.2565451 -0.0136840725
0.122066684 0.08061805 -0.00434551 0.0673281 -0.08169217 -0.02255877 -0.044549473 0.16803579
-0.11448801 -0.03101698 0.10629664 0.053148955 -0.009593414 -0.07200048 -0.11144755 -0.061328497
0.0688637 -0.1571763 0.0759362 -0.11349484 -0.018411811 0.038748704 -0.030857332 0.04272415
0.10754544 -0.029299323 0.12856838 -0.059744976 0.08404985 0.108655736 0.043937925 0.012441001
-0.0032762876 -0.10575633 0.09166354 -0.07876074 0.045765392 0.008111093 0.062392365 -0.010694252
0.05756379 -0.086955264 0.058915466 -0.015623723 -0.009399309 0.087632045 -0.015888823 0.05703805
0.062184863 0.11812905 0.09657107 0.05303064 -0.04296993 0.012488396 -0.039274916 -0.048627876
-0.06515281 0.01713353 -0.058205415 -0.10155595 0.058846414 -0.019407667 -0.03994677 0.07408651
0.17126909 0.008548404 0.02196504 0.045695193 0.122957714 -0.13573578 0.03618268 0.010649195
0.01871421 0.061840963 0.016943308 0.018548567 0.058805853 0.13377939 0.105491646 0.06603952
-0.154184 0.4017589 1.3160347 -0.7683943 -0.059793387 -0.4694843 0.27407095 -0.06003487
-1.3941324 -0.61605525 -0.2119789 -0.12788871 0.21121241 0.31237328 -0.009636459 -0.29441032
0.34027702 0.12407427 -0.18674187 1.1522845 0.11024101 0.44339022 0.1097989 -0.8604596
-0.32757553 -0.2234415 0.14961052 -0.29878452 -0.5111193 -0.54927844 0.02029308 -0.49064305
1.13981 0.6411625 0.5459979 0.38134533 -0.31345534 0.1828584 -0.24366523 0.024804052
0.8317459 0.16188246 0.6263318 0.24152905 0.30964902 0.90797925 -0.8511067 0.014144445
0.034199607 0.12994641 -0.512918 1.2473687 0.6829575 0.29836485 0.5470243 -1.0165464
-0.22771797 0.04065935 0.19619411 0.05734621 0.42948467 -0.8900805 0.22134902 -0.021390019
0.4266384 -0.25392208 -0.43883467 -1.3940567 0.15295222 0.008266889 0.8081823 1.2271476
0.19692624 0.058482397 0.7951484 -0.016003465 0.4889231 1.4998322 0.30719072 0.3209057
-0.5944878 -0.44370958 0.050972518 0.14240497 0.16014293 0.0029588812 -0.8407827 0.33405828
0.30161625 0.54554796 0.06527169 -0.0032294046 0.25499997 -0.6314578 -0.3934217 -0.7898844
0.58869714 -0.122490026 -0.6897577 0.06582296 -0.09783635 -0.06737202 -1.231877 0.41079047
-0.05693055 -0.48533198 0.010446452 -0.14641473 0.011454381 -1.7988393 0.3849573 -0.74341786
-0.304748 -0.99959326 -0.23518515 0.27085242 0.18010677 0.30878934 -0.31672615 -0.10542219
-0.02710137 0.023437595 -0.007718745 -0.5076777 0.6587386 -0.23060757 1.3318411 -0.5401641

actor.2.bias f4 [128]
00000000: 94ee 66bd 1f5b f6be 55c7 4d3d c4dd 78bd
00000010: 0a45 15bd f567 48bd 6892 4abd cee3 823f
00000020: b9b8 f1be 4420 9e3e a1f1 20be 06c5 0cbd
00000030: a0ee 663e d9a3 80be 28ee 17bd 36d9 17bc
00000040: cf50 2cbe dbaf 0ebd efc4 6dbe 58d2 363d
00000050: 2cb0 923d 13fc 25bd 5654 803f 2823 d7bd
00000060: d706 043e 281f 5a3d 4a03 073e eb57 09bd
00000070: 963a 08be ede3 8c3e f77e af3e bb56 b33e
00000080: e131 89bd d854 6c3b f26f 3abe e0c3 9f3e
00000090: 09b5 113e a50a d0bc 5e64 0e3d 2863 d0bd
000000a0: c6b8 91bd e8d1 17bf 8cd7 53be 495c 51bd
000000b0: b5b4 de3d 70c6 07be e674 7d3d 3944 acbd
000000c0: add9 833e 0a97 503f 31af 84be d158 67bd
000000d0: 576c 0dbe 46fc c7bd 5126 b73d 488f 0abe
000000e0: 5c1c 473c 8d4e 243d 019c dfbd ce46 b03b
000000f0: 4d34 5abc f276 3a3d a139 b43e 631f 1f3d
00000100: b0bb b8be c64d 9dbe eddb b0bd 7bbe 523d
00000110: cbbb 3dbd da1f 03bd 8467 2b3e be42 063e
00000120: 0099 18bc 1ca4 6abf bc59 09be b9a5 e73d
00000130: f694 0c3e 4088 c63e 0597 133e 5793 063d
00000140: bf89 1bbe 5c11 553e 0b70 c8bc d7b2 653e
00000150: 6899 fbbb 23c8 043d 7d53 023f df24 d33d
00000160: e9d0 0c3f e97c 3f3f 5646 9ebd 6b8d 6fbf
00000170: 30cc efbd 71d1 253d 2b01 653e f6a2 d43d
00000180: 0116 b5bd 0ee3 2fbe f22d 0bbe 4d3a 673f
00000190: 2a0d 69bf 46f7 f33e c71d 543e 3491 eebe
000001a0: 21b4 f4bd 0ac3 eabc 1f75 4e3e 5011 cabd
000001b0: 3842 973d b877 e6bc 3384 22bd 148c 8b3d
000001c0: 09a7 f93d fc04 3fbf 5bdb 99bd 5386 0a3d
000001d0: 3e14 f6ba 1065 f73e f170 873d b9c4 13bf
000001e0: 396a 8a3e 3338 84bd 0977 71bd 1dfa 1e3c
000001f0: 3ac0 87be 9351 f23d fdad 1c3d 3586 823f
-0.05637987 -0.48116395 0.050238926 -0.060758367 -0.036442794 -0.048927266 -0.04945603 1.022577
-0.47211245 0.30883992 -0.15717174 -0.034367584 0.22551966 -0.25125006 -0.037092358 -0.009268096
-0.16827701 -0.034835678 -0.23219655 0.044634193 0.07162508 -0.0405236 1.0025737 -0.105047524
0.12893234 0.05325237 0.13184848 -0.03353111 -0.13303599 0.27517644 0.34276554 0.35027108
-0.06698967 0.0036061313 -0.18206766 0.31204128 0.14229216 -0.0253957 0.034763686 -0.101751626
-0.07115321 -0.59304667 -0.20687693 -0.0511134 0.10874311 -0.13259292 0.06187906 -0.0841145
0.2575201 0.8148047 -0.2591491 -0.056481186 -0.1381086 -0.09764914 0.08942855 -0.1353122
0.0121527575 0.040113974 -0.10918427 0.0053795343 -0.013318134 0.04552359 0.35200217 0.038848292
-0.36080694 -0.307234 -0.086356975 0.051451188 -0.04632167 -0.032012798 0.16738707 0.13111398
-0.009313822 -0.9165666 -0.13413137 0.11310906 0.13728699 0.38775826 0.14413078 0.032855358
-0.15189265 0.20807403 -0.024467489 0.22431503 -0.0076781996 0.032417428 0.50908643 0.10309767
0.5500627 0.7479997 -0.07728259 -0.9357516 -0.117088675 0.040482942 0.22363727 0.10382645
-0.088420875 -0.17176458 -0.13591745 0.90323335 -0.9103571 0.47649592 0.20714484 -0.46595156
-0.11948419 -0.028657455 0.20161866 -0.09866583 0.07385677 -0.028133258 -0.039676856 0.06813827
0.121900626 -0.7461698 -0.07512542 0.033819508 -0.0018774343 0.48319292 0.06613339 -0.5772205
0.27034166 -0.06456032 -0.05895141 0.009703186 -0.26513845 0.11831965 0.038251866 1.0197207

actor.4.weight f4 [4, 128]
00000000: 60b8 a1ba 26cf cabd b1c8 d2ba d693 a038
00000010: 2186 2e3a 4056 4bba 50ef c7b4 16f7 193c
00000020: 4c34 8dbc 3bdb 1bbd d651 ac39 a5dd 60b9
00000030: 30c0 a2bc df87 fcbb 5c40 5cba a773 93ba
00000040: 5e1d 0338 d51e c939 f1ac e3bd 085f e838
00000050: a4ea 04be 40d7 953a 34b3 f73d 84ee 1fba
00000060: f314 87b8 3658 00bd b1d2 393c 2055 b538
00000070: 1349 8ab9 0e8a 7dbd a6bb 663d b517 2b3d
00000080: 21bd 1db9 0d90 7339 edfc 7d3c c77d cc3c
00000090: 26f8 f3bb 3701 94b9 8f3c edba d9ab fcba
000000a0: 6780 583a 348a fcbd 78a3 913b 3225 ab3c
000000b0: ba61 12bd e423 ac3d f762 aa38 3e66 073a
000000c0: 9431 ffbb b77c afbc 2ebd 253d e81d 583a
000000d0: cb1c 753a a62f 303d bb14 023a 64c1 0b38
000000e0: f0be ca3a 8825 e93a e767 b53b 55af 1f3a
000000f0: 8cae d9b8 52b7 92ba f8e1 843b 4cab 843a
00000100: eb4a d5bc 64c4 1abe ce08 c2b6 78cf 26ba
00000110: d8e1 4338 4d5b 093a 9022 9dba af19 88ba
00000120: 0a2c 4aba 89ca b5bd 3907 963a 5412 6f39
00000130: 56d2 293d c5ac 093e e1f1 81ba 5f45 99b9
00000140: f257 41ba 5902 8ebc 1007 11ba 3e11 12ba
00000150: 78f2 fdbc c753 4e3d d02b babc 4de2 bb3a
00000160: d3c8 d43c 7856 9c3d 22d1 a3bd eaf3 7bbe
00000170: 8d40 ed39 c766 febc b6c2 d43c e006 dbba
00000180: 2618 9e38 3a55 ea39 cb77 8cba 49f3 cc3d
00000190: f121 00bd eb9c 0b3d 4b38 443c 91dd dd3b
000001a0: b50b 9f39 5cb1 8eb8 5155 b13d 1602 0c3e
000001b0: 3d05 03bb 1ddc 47b9 5d77 9cba 9b74 af3a
000001c0: 0444 313d 3b14 35bd 649c bfbc f79c 93ba
000001d0: 4388 d83a 5eda 05be 2c1b 173b 17ce d9bd
000001e0: cb0b c03c aca8 a2ba 26d9 0039 19fe dcba
000001f0: 6c94 1b3d 58dd 8c3d f253 4139 5e7f 3ebd
00000200: f8af 403a d075 253d 6248 69ba 80b8 0abb
00000210: d25b db39 75b7 faba b89f 0a3a 6bcc 6f3e
00000220: f0ce 383c 642d fb3d 6830 1cbb ed43 90bb
00000230: 1d0a 263e e88b a0bd 4e73 4cbb bdc5 cf3b
00000240: 08df cb3a b7ed 9bba 3bf1 2a3c ecfd 66bb
00000250: 20f5 143c 5d49 4fb9 2363 763d 6817 023b
00000260: 1419 483b 3bcb 9d3d cce9 9bbc 866d 98ba
00000270: 9a67 5d3b eee2 b1bd 5c0d 4c3c eb77 97bd
00000280: ae82 933a 4f38 323b 18db 48bb 48e4 5f3d
00000290: 8be6 55bc f189 f6ba 1679 423a 03ca 91ba
000002a0: 788f 35bb 1d2c f7bd 89a5 443d 7505 883d
000002b0: daf7 9bbc c18e debd 6799 16bb 5344 64bb
000002c0: b294 5d3c d693 f23d 02e3 55bd cc3d c5bb
000002d0: 46b4 75ba 8cd4 ed3e 2a66 033b 8161 273b
000002e0: 8e41 793b 8e06 8bbb bdd1 c03d cee6 3dba
000002f0: 632f 703b 13df 9e3a 6a10 053e 8251 bf3a
00000300: 0e1b f3bc a378 59bd b370 573b 98b3 163a
00000310: 1e43 593b 5730 f53a 074b 9e3a 6fb0 14b9
00000320: ebc7 4bbb 9a3c b8bd c3e5 4cbb fa5d c8ba
00000330: b14a b13d 2144 2b3a 3808 a73a 44d1 a8ba
00000340: 5cf4 003c cb2c ec3c d7ee 9abb 9b57 c53a
00000350: 763b d4bd b1e8 4c3d 44f7 e1bc 1f10 113b
00000360: 3029 eebc 78f8 0d3d d7fc 44bc 69f7 08be
00000370: 548c 95bb c278 9d3d 035c 8c3d e03a 80bc
00000380: 82a3 d33a ffed fb3a 789b e43a c37d 8c3d
00000390: 0d5b 4cbe fc01 fd3c b54d 9c3d 3a96 2b3d
000003a0: d75a a7ba 16c1 1cbb d615 ec3d 5cd2 abbc
000003b0: 5f7d b6ba 3ab0 4d3b 3090 2ebb da1b 3a3a
000003c0: 1e41 40bd 5dec 00be 1b6d 4b3d a1be 893a
000003d0: 0a12 b83a 042d 68bc d87d 86bc df8c 2e3d
000003e0: 739d 033d d0a5 673b eb17 dfb9 49d9 603a
000003f0: 1ca8 5cbd 472e 1a3c 9dcd 15bc d172 2b3e
-0.0012338273 -0.09902792 -0.0016081539 7.656931e-05 0.000665756 -0.00077566877 -3.724076e-07 0.009397289
-0.017236851 -0.03805087 0.0003286737 -0.00021444874 -0.019867033 -0.007706627 -0.0008401924 -0.0011249677
3.1260184e-05 0.0003836068 -0.1111697 0.00011080323 -0.12980133 0.0011431947 0.12094727 -0.000610091
-6.441204e-05 -0.031334125 0.011341737 8.646608e-05 -0.00026375856 -0.061899237 0.0563313 0.041770656
-0.00015043143 0.00023227949 0.015502197 0.024962319 -0.007445353 -0.00028229665 -0.0018099713 -0.0019277289
0.00082588795 -0.12331048 0.004444536 0.02089176 -0.03573773 0.08405283 8.124665e-05 0.00051650766
-0.0077878926 -0.021421773 0.04046362 0.00082442025 0.0009350299 0.04301419 0.00049621955 3.332029e-05
0.0015468281 0.0017787674 0.0055360678 0.0006091495 -0.00010379878 -0.001119355 0.004055258 0.0010121851
-0.0260367 -0.1511398 -5.7826755e-06 -0.0006363313 4.6701956e-05 0.000523974 -0.001198845 -0.0010383631
-0.0007712251 -0.08876521 0.0011446244 0.00022799644 0.041460358 0.13444813 -0.0009914004 -0.0002923412
-0.00073754706 -0.017335104 -0.00055323634 -0.00055720273 -0.030999407 0.050372865 -0.02272597 0.0014334411
0.025974667 0.0763368 -0.07998873 -0.24604765 0.00045252257 -0.031054867 0.025971752 -0.0016710423
7.538525e-05 0.00044695457 -0.0010716853 0.100073405 -0.03128237 0.034085196 0.011976312 0.0067707975
0.00030335566 -6.8041234e-05 0.08658851 0.1367267 -0.0019992136 -0.00019060117 -0.0011937428 0.0013386192
0.043277755 -0.044208746 -0.023390003 -0.0011261989 0.0016520101 -0.13071582 0.0023056967 -0.10635012
0.023443123 -0.0012409887 0.00012287925 -0.0016860395 0.037983343 0.068781555 0.00018437186 -0.046508186
0.000735044 0.040395558 -0.00088990305 -0.00211671 0.00041839347 -0.0019128161 0.0005288082 0.23417823
0.0112798065 0.12264517 -0.0023832563 -0.0044026286 0.16214795 -0.07839185 -0.0031196657 0.006340711
0.0015554139 -0.0011896406 0.01043349 -0.0035246564 0.0090916455 -0.00019768388 0.060153138 0.0019850377
0.0030532526 0.07704779 -0.019032381 -0.001162932 0.0033783675 -0.086858615 0.012454357 -0.073959194
0.0011254156 0.0027194207 -0.0030648168 0.054661065 -0.013055454 -0.001880942 0.0007418556 -0.0011122826
-0.0027703922 -0.12068961 0.04800943 0.06641666 -0.019039083 -0.10867072 -0.0022979619 -0.0034830763
0.013524221 0.11844604 -0.052218445 -0.0060193297 -0.0009372871 0.46451223 0.0020049908 0.0025540295
0.0038033458 -0.0042427247 0.094150044 -0.00072441704 0.0036649338 0.0012120925 0.12994543 0.0014596435
-0.029675987 -0.053093564 0.003287357 0.00057488075 0.0033151577 0.0018706423 0.0012076803 -0.00014180107
-0.0031094502 -0.08995934 -0.0031264878 -0.0015286796 0.086568244 0.00065332843 0.0012743538 -0.0012879749
0.00787076 0.028829953 -0.004728179 0.0015056016 -0.10362904 0.0500266 -0.027583726 0.0022134853
-0.029072374 0.034660786 -0.012023172 -0.1337563 -0.0045638476 0.07689048 0.06853487 -0.015653074
0.0016146752 0.0019220709 0.0017441353 0.06859925 -0.19956608 0.030884735 0.07632009 0.041891314
-0.0012768161 -0.00239188 0.115276024 -0.02097433 -0.0013922862 0.0031385557 -0.0026636235 0.0007099487
-0.0469371 -0.12590165 0.049664598 0.0010509082 0.0014043462 -0.014170889 -0.016417429 0.042614814
0.032132577 0.0035346635 -0.00042551695 0.00085773 -0.05387126 0.009410447 -0.00914326 0.16743018

actor.4.bias f4 [4]
00000000: a75e fb3e 0394 183f 6c54 053f 675e 373f
0.49095652 0.5960085 0.5208194 0.7162842

critic.0.weight f4 [128, 17]
00000000: afc6 0a3f 2b9d 37c0 95f3 e0be 251e 02bf
00000010: 669b d840 16ac a740 9abd e13f b8a5 9c40
00000020: 006e 2540 ae38 8fbf f83c 53c0 ee1d 34c0
00000030: 8648 c8bf 173a 353f ba13 263f 82f5 413f
00000040: f6f7 653f d66d a23f 0a72 c6bf ccca 963e
00000050: 0947 a7bf 7bba 93bf a78d c13f aea1 77be
00000060: a6b7 91c0 9347 eb3f cd4e 6abf 2a9e 5bbe
00000070: 8426 ae3e cbc3 eebe 7056 60be b190 a63d
00000080: 7295 03be a163 f6bb b561 c4bf dec4 1cc0
00000090: f202 d33f fdfe 6ebf e6c3 3cbf 86d1 b7bf
000000a0: 324c f93f e18c a2c0 5cc4 d7bf e4ee 5fbf
000000b0: fdc5 0a40 2f47 de40 6622 773e c9cf ab3e
000000c0: 2eb2 d73e ba1d b93e 58ac 133f ae36 5740
000000d0: d15b f73e a914 0841 7894 f03e 8b33 cdbf
000000e0: 3cac 1d41 c016 bcc0 6aa5 85bf 0dbb 0b40
000000f0: d607 82bf 5e84 c0bf 7810 eabd c30f 41bf
00000100: b702 50bf fd8c 42bf c045 5bbf 3c42 4abf
00000110: f55e 3fc0 6056 6c3d 31e4 c6c0 1ee8 453f
00000120: 2d0e f1be 5c05 01c1 8f09 853e 2db3 3340
00000130: b680 17c0 dbca 0640 7469 8cbe 57ab 803f
00000140: bc87 4240 ba3f 113d b845 ee3c 7937 2e3e
00000150: 52e2 bf3e 8313 82c0 b398 49c0 37fd 2441
00000160: a72e 88be 2634 1b40 7842 adbc b9f7 d4bf
00000170: d419 a53e 5738 0740 3892 483f 3a0d 99be
00000180: c644 bb3d f1f0 103e cc7d d6be ca91 cebe
00000190: 8600 7fbe 8c56 a8be 9724 41c0 213d 43c0
000001a0: 00bb 83be f7f5 88bf 7a23 4dbe cb0f 4c3d
000001b0: cd6b 003f ef94 f23e 84ef dabe 3530 813e
000001c0: 45f3 24be 6040 91bd d579 1e3c 0517 213e
000001d0: 9eee a63d 41ed ae3d cc4f 383d 02ed 483f
000001e0: 8286 21c0 bf39 8bc0 2fcc 3e3f 3283 84c0
000001f0: 92a3 b33f 5afa da3d e646 223e 291a 8c40
00000200: b3d2 05c0 88a5 9a40 3a33 8640 b29f 95c0
00000210: ba3f c8be ef41 cbbe afec cdbe 8c20 21bf
00000220: ca63 f23f af98 1dbf 8b6b 22c1 1dbe 8cbe
00000230: d7b6 2c40 7e10 afbf 86c2 cebf 721b 4bbf
00000240: 6131 b3bf 87b6 85bf 0a44 983e f595 7bbd
00000250: 5550 a0be ee4d 5dbe 3557 0fbe 6806 3abe
00000260: cd62 3ebe 0083 36c0 e027 e33f dbc4 cabe
00000270: 725a 363e 35c4 9dbd f116 a840 ceeb bcbe
00000280: 3788 5440 30cd dabe 35a5 aabe 0e0e 373e
00000290: 7fde a63f bd81 7a3e ca05 98be c1f9 debd
000002a0: db75 9dbe 4598 d1be 831b 17c1 6d8d 9f40
000002b0: 6e06 3640 0902 4a3e b410 cd3f c2fc 3ac0
000002c0: b63d 42c0 803a 3b3f 2661 8e40 69ba bfbe
000002d0: a243 32be 61e1 41bd 9a79 093f ef47 4a3e
000002e0: 164e 303e 3cd9 9e3e 799b a53d 9aa5 3bc0
000002f0: 9954 84bf ae3e 6b3f b18a da3e 3af1 4ac0
00000300: 8c5b 4340 8ec2 dabe be74 bc3d aa37 a13f
00000310: 9531 dfbd 42a9 5bbe 211b 54be eb71 1e3e
00000320: 8969 133d 70d4 ddbd df70 c5bd f38c 30bd
00000330: 1181 9740 1848 8cc0 d6b2 8ac0 7aff 53bd
00000340: 2374 11bf d960 7040 bdac fe3f 3001 62bf
00000350: d130 81bf df59 0640 689e 86be 0209 dfbe
00000360: 0768 f4bd 9b4f 9dbd b23e 4c3e a2f2 7abb
00000370: 14d3 0f3e 3cad e83f f7d9 4041 5360 0dc1
00000380: 6274 09bf 7083 81be c805 07c0 4c43 7dbf
00000390: 6a69 a8bf eb50 c73f 9b91 90bf d357 b93e
000003a0: a054 07bd ada9 f8be 45de a33d 27bb 9c3c
000003b0: 5a80 863d 3019 923d f610 2040 503d 01c0
000003c0: 93d1 1f40 ab2e 013f b238 5ec0 47a1 a93f
000003d0: 76b8 8cc0 16b9 c1be 3206 fe3e 0b01 183f
000003e0: 220c 4841 38f5 823f 8c47 58c0 1e5c d2be
000003f0: ecb5 08bf ce56 cbbe ea38 3bbf a25a 643f
0.5420942 -2.8689678 -0.43935838 -0.50827247 6.7689695 5.2397566 1.7635987 4.8952293
2.5848389 -1.1189172 -3.3005962 -2.8143268 -1.5647132 0.70791763 0.6487385 0.7576524
0.89831483 1.2689769 -1.5503552 0.29451597 -1.3068553 -1.1541284 1.5121354 -0.2418277
-4.553668 1.8381218 -0.9152649 -0.21447054 0.3401376 -0.46633753 -0.21907973 0.081330664
-0.12849978 -0.007519201 -1.5342318 -2.4495158 1.6485274 -0.9335783 -0.7373642 -1.4360816
1.9476378 -5.079697 -1.6856799 -0.87473893 2.1683342 6.9461894 0.24134216 0.33556965
0.42128128 0.36155492 0.5768485 3.3627124 0.48312238 8.505044 0.46988273 -1.6031355
9.854549 -5.877777 -1.0441105 2.1832917 -1.0158641 -1.5040395 -0.114289224 -0.75414675
-0.8125414 -0.7599638 -0.85653305 -0.79007316 -2.9901707 0.05769956 -6.2153554 0.7730731
-0.47081128 -8.063808 0.25983855 2.807811 -2.367231 2.1061313 -0.27424204 1.0052289
3.0395346 0.035461165 0.029085979 0.17013349 0.37477356 -4.064882 -3.149945 10.31182
-0.26598093 2.425058 -0.021149859 -1.6638099 0.32246268 2.1128137 0.7834811 -0.29892904
0.09143977 0.14154412 -0.4189285 -0.40345603 -0.24902543 -0.3287853 -3.0178583 -3.050606
-0.25728607 -1.0700063 -0.20033064 0.04981975 0.5016449 0.47379252 -0.4276086 0.25232092
-0.16108425 -0.07092357 0.009672602 0.15731438 0.08150981 0.08541346 0.044997975 0.78486645
-2.5238347 -4.350799 0.7453031 -4.141015 1.4034293 0.10692282 0.15847358 4.3781934
-2.090985 4.8327065 4.1937532 -4.675744 -0.3911112 -0.3969874 -0.40219638 -0.6294029
1.8936703 -0.615611 -10.151256 -0.27488795 2.6986597 -1.3676908 -1.6153114 -0.79338753
-1.3999444 -1.0446328 0.2973941 -0.061422307 -0.31311288 -0.21611759 -0.1399811 -0.18166506
-0.18592377 -2.8517456 1.7746544 -0.39603314 0.1780794 -0.07703439 5.2528005 -0.36898655
3.320814 -0.4273467 -0.33329168 0.17876455 1.303665 0.24463554 -0.29691917 -0.108874805
-0.3075398 -0.40936485 -9.444217 4.986014 2.8441424 0.19727339 1.6020722 -2.921677
-3.0350165 0.7313614 4.449359 -0.37446907 -0.17408612 -0.04733408 0.53701174 0.19754003
0.17217287 0.31025112 0.08086295 -2.9319825 -1.0338317 0.91892517 0.42683938 -3.1709733
3.0524626 -0.42726558 0.09201954 1.2595112 -0.10898129 -0.21451285 -0.20713474 0.15473144
0.035989318 -0.10831535 -0.09640669 -0.04310317 4.734505 -4.3838005 -4.3343306 -0.051757313
-0.56817836 3.755911 1.9896466 -0.8828306 -1.0093023 2.0992353 -0.2629273 -0.4356156
-0.11933904 -0.07681199 0.19945791 -0.0038291593 0.14045364 1.8177867 12.053214 -8.836017
-0.5369321 -0.2529559 -2.1097279 -0.9893081 -1.315717 1.5571569 -1.1294435 0.36199817
-0.03303969 -0.48566952 0.08001379 0.01913221 0.0656745 0.071337104 2.5010352 -2.0193672
2.4971664 0.50461835 -3.4722104 1.3252343 -4.397517 -0.37836522 0.49614102 0.5937659
12.502962 1.0231085 -3.3793669 -0.41085905 -0.5340259 -0.39714664 -0.7313372 0.89200795

critic.0.bias f4 [128]
00000000: 2a55 01bf 0080 0dbf 026d a0bf 7f73 243f
00000010: 4c5b 813e 4e43 13bf 3567 9abf 52ba 873e
00000020: 8b69 d3be 5f45 90bd 679d eb3e 56f2 98be
00000030: b2ec d33e 3676 6d3d a098 1b3f 50e2 d3bc
00000040: 4f9d 09bf 98a5 09bf 7aa2 a7be 1ad2 893f
00000050: b44a dd3e 5588 14bf 6d32 75bf 4817 5dbe
00000060: 3a11 523f bf54 c4bf d1cd d13d d5f1 4a3e
00000070: a93c f2be 9f49 203f 4363 aabf 402e bb3d
00000080: 24d2 ffbe 6597 273f 2a30 42bf 5904 c93e
00000090: c733 1d3f 0386 4a3f 0717 7ebf 97ab 313f
000000a0: 1547 d03e f74c 82bf db3c 84be c3c7 5a3f
000000b0: 91a7 813f 6af0 303d 6bc6 3c3f f1ce 97be
000000c0: 5a61 b43d 3206 a5be e7f7 833f 7f11 973f
000000d0: 0ffe 8a3f 4241 c9be 6e25 03bf df6e 3a3f
000000e0: 9e6a c73e 524d b7be f7f1 45bd 6ed7 c3be
000000f0: 9f6a a1bc 0dd3 8e3f 3033 02bf 7a7a 41bd
00000100: f9e7 493f 27ff 8c3e 1dc1 663f c1f8 763e
00000110: 2632 503d 0b58 cbbe b352 a93d 159c a73f
00000120: 7dde 32bf 6485 213f fd8e 2bbe e943 433e
00000130: 9f02 a5bf a5a1 eabe a62c 6ebf 58a4 d8bf
00000140: 81fc 39bd 4539 993e 6fa9 ea3c 715d 293f
00000150: 414e 6bbd 487c 89bb eeee e83e 101b d9bd
00000160: 13b8 77be 71df fd3e 8076 593f b091 61bf
00000170: 55ee 69bf 632e d73e 9ad2 15bf fb01 2cbf
00000180: 31cc 31bf c77f 0f3f 26d3 31be dff9 d23e
00000190: 14c7 69be b189 49bc 7f37 c73e b627 20bf
000001a0: 63d8 a8be 410e 9a3f 1396 8f3e 4069 1f3f
000001b0: 7ce4 8a3a add1 093f c8e6 34bf b42a 513e
000001c0: 7a43 76bf 96ac a63e d055 37be f90e 34bf
000001d0: 3775 0d3f 2d7f 5a3e 1be0 e8bd c824 033f
000001e0: d74b b33e 4820 6fbd 772d 44be 2295 64bf
000001f0: 677a 07bf bfd1 f23e 86ff a63e ffda 25bf
-0.50520575 -0.5527344 -1.2533267 0.64238733 0.25264966 -0.57524574 -1.2062746 0.2650934
-0.4129146 -0.070444815 0.46018526 -0.29872388 0.41391522 0.057974063 0.6077976 -0.02586475
-0.5375566 -0.537683 -0.32741147 1.0767243 0.43221056 -0.58020526 -0.9578007 -0.21590912
0.82057536 -1.5338362 0.102443345 0.19818814 -0.47311905 0.62612337 -1.3311542 0.09139681
-0.49965012 0.65465385 -0.7585474 0.3926113 0.6140713 0.79110736 -0.99253887 0.6940245
0.4067923 -1.0179738 -0.2582768 0.8546106 1.0129262 0.043198027 0.7374026 -0.2965007
0.08807631 -0.3223129 1.0310029 1.1802214 1.0858783 -0.393076 -0.5122899 0.72825426
0.3894853 -0.35801178 -0.04832646 -0.38250297 -0.019704161 1.1158158 -0.50859356 -0.047235943
0.7886959 0.27538416 0.9013842 0.2411833 0.050829075 -0.3971561 0.08267727 1.3094507
-0.6987074 0.6309416 -0.16753764 0.19068874 -1.2891425 -0.4582645 -0.9303688 -1.6925154
-0.045406822 0.29926506 0.028645245 0.66158205 -0.057447676 -0.0041957237 0.4549479 -0.10600865
-0.24191312 0.49584535 0.8494644 -0.88112926 -0.9137929 0.42027578 -0.5852448 -0.6719052
-0.69452196 0.5605435 -0.17365703 0.41206262 -0.22829849 -0.012300895 0.38909528 -0.62560594
-0.3297759 1.20356 0.28044185 0.62269974 0.0010596658 0.53835565 -0.70664644 0.20426446
-0.9619671 0.32553548 -0.17903829 -0.70335346 0.5525698 0.21337576 -0.1137087 0.51228
0.350188 -0.058380395 -0.19157968 -0.8929006 -0.52921146 0.4742565 0.32616824 -0.64787287

critic.2.weight f4 [128, 128]
00000000: 3b8b 933c f93b 133f c020 1540 5c1b bcbe
00000010: d880 4abd a6e8 013f 6e83 c03f 998a f9bf
00000020: 86fe c63e 92ac 753d be50 17c0 a111 30bf
00000030: 1643 fe3f 9d40 1fc0 87d6 25c0 c893 a1bf
00000040: a1fa c93f 4003 cc3f 40de 13be a0e3 37c0
00000050: eb1c 14c0 4c1a 0a3f e34a 5d3f 327f 2ebf
00000060: 2f38 c0bc 300a 3d40 28e7 efbf 5767 74bf
00000070: 02b4 813f 7bb5 98bf 1ca2 2140 6705 b13f
00000080: cb6b 1740 dd09 35c0 9ea7 a33f 60dc f43e
00000090: 828d 19c0 37e3 ca3f 02a8 91bf 69d2 eebd
000000a0: c634 ccbe 235a 3e40 174a ab3e 6fef f03e
000000b0: 5c0c f4bf 431e 17c0 6044 09c0 caf6 b03e
000000c0: 3184 89c0 d789 b03f dc60 12bf 86fc 2fbf
000000d0: 0360 42bf ef1a fd3f 3247 3e3f 9702 c6be
000000e0: a264 1bc0 5043 6b3e 2e80 ae3e 0fcc 59bf
000000f0: c435 07bf 1c5b d4bf cde4 493f 8dc2 5f40
00000100: 5bff 24c0 d922 b23e 061a 7c3e 3b62 a6bf
00000110: df7e 5fbf 94dc 4140 fe46 463f adb9 bbbf
00000120: 997b d4bf 7c7b 833f 95c7 9bbf b6ef 623f
00000130: 2f10 c63e fc1f 08c0 9746 c53d 238a 4440
00000140: 9f69 123f b832 2e40 f1fa 3440 1dc8 7b3f
00000150: 180b 1340 c943 c8bf b4d2 a1bf 5a5c 26bf
00000160: 1b96 08bf 6f71 5fc0 d6b3 b5bf 5fd5 79bf
00000170: 5a1a 1540 78cf bc3c c289 673f 5e9d 85be
00000180: d107 24c0 d3c6 6cbe f8a5 52bf 4588 fcbf
00000190: 6c27 85c0 0d9b 26c0 1331 efbf adc9 513f
000001a0: c447 203f a39f fcbf ba22 1dbd ac3a ebbf
000001b0: 52cb f83e b85c 083f 69c2 403f ddc5 4bc0
000001c0: 29f3 ad3f 2482 d13f 7210 4a3e 38c5 343d
000001d0: b6dd c0bf b9da 30bf a320 0a40 c969 2cc0
000001e0: b853 07bf 1190 06c0 027b 6cbf f357 0540
000001f0: 8edf f0bd ede7 47c0 70f8 3abf a848 5b3f
00000200: e774 f3bf 0678 b3bf 7d66 66c0 2bac 4140
00000210: 4c46 063f bc1f 1cbf cd89 07be e10f 0cc0
00000220: 4286 da3f eb87 20bf 4e52 df3f fd62 b4bf
00000230: a77c dfbf c5fa 3840 5f05 2fbf 551b 02bf
00000240: 8f85 6a40 dffb a6bf 7d24 79bf 2f39 f2bf
00000250: d0bd 603f 8bcb 1040 8a52 1bc0 a71f 0fc0
00000260: 29d5 0d3f bf01 95c0 b199 f53e fe1e 1840
00000270: 555a ecbf 7ed8 c03f 633d 053e 616f 6dbf
00000280: 3c44 08c0 6f91 b0bf cc02 73bf 4ecd 823e
00000290: 9b08 86bf 5df9 3bbf bbaf b8bf 6b15 4f40
000002a0: b5de 8ebf ed6c 82bf 60d1 19be 7a2a c83e
000002b0: 3add 2840 30df b23e dbe8 0f3e 8a77 413f
000002c0: 1426 29bf 8ba4 97bf 71fc f53f f020 b4bd
000002d0: 5f2b 9abf 0161 41bf b0f8 553c d990 a13f
000002e0: 561e 19be db6f c5be a359 803f 3da3 09c0
000002f0: abc8 62bf 40ff 2fc0 fb3e 95be d0a1 1ebe
00000300: 9222 ab40 1e1c 68c0 7b30 673f 6243 7abf
00000310: c961 023f 9e8b 6c3f 5077 273f bd7f 6cbd
00000320: 279f 6a3e c2b0 fc3e 16e9 19c0 f382 f83f
00000330: 8812 6b3f 308a 41c0 c3b6 11c0 71f4 cfbe
00000340: 44ad 9e3f 33a3 56c0 e252 56be f670 523f
00000350: 7427 3dbf 91c4 bebf 5613 4cbf cd65 e93f
00000360: 905b e93f 32d3 3840 a36e 0abf e3ba c13f
00000370: 9cac 413f 4a40 9ebf 1146 d5bf 808b d83f
00000380: 1691 a0bf 6103 3bc0 01b2 2d3f 950f 45bf
00000390: 6b1b cb3e 87f1 d2bf f190 843e 78a1 6dbf
000003a0: 7763 5a40 9687 16bf dee3 3f3f dbce 5640
000003b0: 75ee 773f 0b82 10bf b938 a340 7b54 cf3f
000003c0: 0697 f33f 2fff 63c0 3e59 303f bda1 a4bf
000003d0: 5de7 37bf 646f 8dbf b352 97be 5ced ba3f
000003e0: 2879 f3bd 1885 123f ec55 3d3f 71de 36c0
000003f0: 391b 18bc 7ba7 e43f 3619 9ec0 3125 1f3f
0.018010726 0.57513386 2.330124 -0.36739624 -0.04943928 0.5074562 1.5040109 -1.9495422
0.3886606 0.05997903 -2.364303 -0.687769 1.9864223 -2.4883187 -2.5912187 -1.2623224
1.5779611 1.5938492 -0.1444025 -2.8732681 -2.314265 0.53946376 0.86442393 -0.68162835
-0.02346429 2.9537468 -1.8742418 -0.95470184 1.0133059 -1.1930383 2.5255194 1.3829774
2.3659542 -2.828727 1.2785528 0.47824383 -2.399262 1.585059 -1.1379397 -0.11661226
-0.39884013 2.9742515 0.33454964 0.47057673 -1.9066272 -2.361222 -2.1447983 0.34563285
-4.2973866 1.3792065 -0.57179046 -0.68744695 -0.7592775 1.9773844 0.74327385 -0.3867385
-2.4280171 0.22974896 0.34082168 -0.85076994 -0.52816415 -1.6590304 0.7886475 3.4962494
-2.5780857 0.34792212 0.24619302 -1.2998728 -0.87302965 3.029088 0.77452075 -1.4666039
-1.6600219 1.027206 -1.2170283 0.8864702 0.38684222 -2.1269522 0.096326046 3.0709312
0.57192415 2.7218456 2.8278162 0.98352224 2.297552 -1.5645686 -1.2642426 -0.6498467
-0.5335404 -3.4912984 -1.4195507 -0.97591203 2.3297334 0.023048148 0.90444577 -0.26096624
-2.562977 -0.2312272 -0.822845 -1.9729086 -4.1610622 -2.6032135 -1.8686851 0.8194836
0.62609506 -1.9736217 -0.038363196 -1.837728 0.4859262 0.5326648 0.75296646 -3.1839516
1.3589832 1.6367841 0.19732836 0.044133395 -1.5067661 -0.69083744 2.158242 -2.6939566
-0.5286212 -2.102543 -0.92375195 2.083493 -0.1176139 -3.1235306 -0.73035336 0.8565774
-1.9020051 -1.4021003 -3.6000054 3.0261333 0.52451015 -0.6098592 -0.1323616 -2.1884692
1.7072222 -0.62707394 1.7446992 -1.4092709 -1.7459916 2.8903058 -0.6836757 -0.50822955
3.6644018 -1.3045615 -0.973213 -1.8923701 0.8778963 2.2624233 -2.4269128 -2.236307
0.5540338 -4.656463 0.4796882 2.3768916 -1.8465067 1.5066068 0.13011698 -0.92748076
-2.1291647 -1.3794383 -0.9492614 0.2554726 -1.0471376 -0.73427373 -1.4428629 3.2356822
-1.1161715 -1.0189492 -0.15021276 0.39094907 2.6385026 0.34935904 0.14053671 0.7557303
-0.6607373 -1.184709 1.9217664 -0.08795345 -1.2044486 -0.7553864 0.01305978 1.2622329
-0.14952978 -0.385619 1.0027355 -2.1505883 -0.88587445 -2.7499542 -0.29149613 -0.15491414
5.34797 -3.6267161 0.9030835 -0.9775907 0.5093046 0.9240054 0.6541643 -0.05773901
0.22912274 0.49353606 -2.4048514 1.9414963 0.9182515 -3.0240593 -2.27678 -0.40616181
1.2396626 -3.353711 -0.20930055 0.82203615 -0.73888326 -1.4903737 -0.79717004 1.8234192
1.8231068 2.8878903 -0.5407507 1.5135158 0.75654006 -1.236337 -1.6662008 1.6917572
-1.2544277 -2.9220812 0.6784974 -0.769769 0.39669356 -1.6479958 0.25891832 -0.92824507
3.4123209 -0.5880064 0.7495707 3.3563755 0.9684823 -0.5644843 5.100674 1.6197656
1.9030464 -3.5624502 0.6888617 -1.2861859 -0.7183741 -1.1049619 -0.29555282 1.4603686
-0.11888343 0.57234335 0.7395923 -2.8573267 -0.009283834 1.7863611 -4.9405775 0.62166125

critic.2.bias f4 [128]
00000000: 805d a7bd 9f54 70bf 719e dabd efab 143f
00000010: b409 c5bd 7a67 ea3d db7a 533f f424 93bf
00000020: f321 90bf 4e5b 16bf 5ecd 403d fb04 e4bf
00000030: 2361 e03e 003c 4fbf 1c84 733e a40b ab3e
00000040: 8ac8 a4bf e0b2 b13e 7223 4c3e aefb ec3e
00000050: 8ab4 1c3d 2684 913f 4449 6c3e 28f8 d4be
00000060: a9e6 9dbf b2a8 3bbf d9a5 7c3f 0857 fcbe
00000070: a728 94be b07f 083d 9e7c c93d f983 bd3f
00000080: 915d c9bd 2865 55be a1e2 603f f2c2 80be
00000090: 65bb 353e 832d 7c3e 5f30 533f d055 433d
000000a0: 802b 2e3e 809f 913f aa1a 7f3f 6472 55bf
000000b0: b808 433f d29d d0bf 9ec6 653f 9e82 36bd
000000c0: 2990 46bf 6408 65bf 207c 1a3e 8556 e9bc
000000d0: a891 293f 75db 273f fe86 cb3e 2601 cdbe
000000e0: 8fcc 87c0 4322 abbe 25e4 c9be 8804 263f
000000f0: 8f58 e7be ee7e 813e 54e4 0cbf 2d7d 5f3f
00000100: 8465 bebc f388 1e3e f697 6e3e 6494 2d3e
00000110: e16d 233f 5dd8 5ebf 8545 1ebf b176 24bf
00000120: 7a45 dc3e 23b3 f73e f7bd eabe ddfd 45bf
00000130: 4c97 72be ff91 bf3f 3b8f 9dbe 02cb 753f
00000140: ca87 9cbf 606e 18be 66c2 42bd 4ebc 6a3e
00000150: 03f7 8abe 9b1e ee3d 8408 403f c1a1 a03d
00000160: 89aa 173e ddd7 26bf 4684 c1be 8bee 033f
00000170: b026 96bf bce0 15bf ffc5 2c3f 31b6 54be
00000180: 18e7 cabe 3d48 02bf 7f02 0e3e 4fe4 e7be
00000190: 43b7 943f 7cdb 0140 a43a 1c3f 07f7 1bbf
000001a0: 6597 59be 0c96 953e cbcc a7bf 8149 08bf
000001b0: d68c 31bf f290 86bf 8044 113f b4a9 6d3f
000001c0: 1790 b6bf 0c15 3d3e 8c57 143f 9f92 77bf
000001d0: fe98 b83f 83ee 20bd 00f6 223f 6c65 10bf
000001e0: 5fe7 183e 64b8 55bf 6a61 85bc 1284 803f
000001f0: b1b6 8b3e 215e c4bd d62c 853e 7d6c eb3d
-0.081721306 -0.9387912 -0.106747515 0.5807485 -0.09620991 0.11445518 0.8260934 -1.1495652
-1.126036 -0.5873307 0.047070853 -1.781402 0.4382411 -0.8095093 0.23780864 0.3340732
-1.28737 0.34706783 0.19935396 0.46285766 0.038258113 1.1368454 0.23074824 -0.41595578
-1.2336017 -0.73304284 0.98690563 -0.4928515 -0.28937265 0.033324897 0.09838222 1.48059
-0.098322995 -0.2083937 0.8784581 -0.2514873 0.17747267 0.24626736 0.82495683 0.04768926
0.17008781 1.13768 0.9965006 -0.8337767 0.7618518 -1.6298163 0.8975619 -0.04455816
-0.7756372 -0.8946593 0.15086412 -0.028483639 0.6623788 0.6556924 0.39751428 -0.4003994
-4.2437205 -0.33424577 -0.39431873 0.64850664 -0.45184752 0.25292152 -0.550359 0.8730038
-0.023241766 0.1548193 0.23300156 0.16951138 0.63839537 -0.87048894 -0.6182483 -0.6424361
0.43021756 0.48378858 -0.45848057 -0.7734049 -0.23690528 1.496643 -0.3077334 0.9601289
-1.222894 -0.14885855 -0.047548674 0.22923395 -0.2714158 0.11626931 0.75012994 0.07843352
0.14811148 -0.6517313 -0.3779623 0.5153586 -1.1730556 -0.5854604 0.6748962 -0.20772626
-0.39629436 -0.50891477 0.1386814 -0.45291373 1.1618427 2.0290213 0.6102698 -0.6092381
-0.21249159 0.2921604 -1.3109373 -0.5323716 -0.69355524 -1.0512984 0.5674515 0.9283707
-1.4262723 0.1846506 0.57946086 -0.967081 1.442169 -0.039289963 0.63656616 -0.5640476
0.14932011 -0.8348448 -0.016281802 1.0040305 0.2728782 -0.09588266 0.2601077 0.11495302

critic.4.weight f4 [1, 128]
00000000: 1b13 dcb8 7414 bc39 01de 01b7 6177 f638
00000010: 1c07 ac38 c8e4 59b9 e5b2 ccbc da9d 84ba
00000020: 4cdc 5c3a 0237 bd39 1335 d1b9 eb1d c6b9
00000030: b3cc cab9 fc30 f339 139e 77b9 411d 65b9
00000040: 3cf1 2a39 e420 af3d 628d 0dba 7074 6f39
00000050: 1bfa f0b9 ddfa d4b8 3b59 f0b8 cbc2 1b39
00000060: 7357 4ab9 7386 1838 23e7 193a 53f9 0939
00000070: c62d bd39 8e9d f1b9 e640 a1b9 92c5 f339
00000080: d1fa 1fb7 1328 a339 91bb a9b7 f52e 5dba
00000090: 2e77 a9b9 4861 23b7 c74b 30ba a85b d038
000000a0: 5449 ba39 86cd 30ba ba4c bfb9 c5c8 133a
000000b0: cfd0 9abc cd4a f8bd db33 0aba f03c 1539
000000c0: da3b b139 9ad4 8538 725f 83b9 bd42 fcb7
000000d0: 5fe7 54b9 9be0 2939 ed7b 0eba 1527 f4b6
000000e0: 270d bc3d ff79 9bb7 a79a 7cb9 bfa3 10ba
000000f0: 0348 4c38 6925 b6b9 c235 3638 c9bf 10b9
00000100: 30e9 fa39 42d2 083a de0e cab9 2719 1ab8
00000110: 65a5 c038 756d 75b9 42de 44b9 87c6 ff39
00000120: c6d1 7ab8 acf8 1e38 062f 1339 4778 13ba
00000130: 9f76 6cb9 2184 7c37 0213 c739 5db2 6ab9
00000140: 2c3c 4439 1a53 a139 0a2c c2b8 366d 4dba
00000150: 3b15 0dba 9595 fa38 2f31 92b9 cd0e 9eb9
00000160: 0dc1 3138 9d73 8ab9 c234 9637 60c6 2d39
00000170: 9060 fc38 c11a 27ba 6507 ac37 e7cd 9b39
00000180: 6484 9cb9 7da3 2bb9 c897 10ba 582f 90b7
00000190: 3d19 e139 f44f 6dba 0729 c9b9 df95 cb38
000001a0: e24b 4939 fdfd 1cb9 0fb8 c039 a8f3 dcb9
000001b0: 30a6 2dba c42a 0ab8 b847 b13a c19e cd37
000001c0: 4bf9 23ba 3815 83b9 6a78 48b9 1254 86b9
000001d0: 6715 42b8 3f7c b239 4166 8838 74b7 0eb8
000001e0: 7c60 a7b7 aeba a538 3bfa 1739 4b59 f4b9
000001f0: 596c 0839 d121 03b9 5a31 eb38 97e2 a4b9
-0.00010493976 0.00035873393 -7.7406885e-06 0.0001175243 8.202923e-05 -0.0002077996 -0.024987647 -0.0010117844
0.0008425161 0.00036089873 -0.0003990313 -0.00037787794 -0.00038680955 0.00046385068 -0.00023614643 -0.0002185004
0.0001630233 0.08551195 -0.0005399791 0.00022836193 -0.0004596271 -0.00010155675 -0.00011460712 0.00014854518
-0.00019296799 3.636484e-05 0.0005870929 0.00013158219 0.00036082993 -0.0004608449 -0.00030756666 0.00046495773
-9.535536e-06 0.0003111964 -2.0233712e-05 -0.0008437478 -0.00032322988 -9.738207e-06 -0.0006725159 9.935285e-05
0.00035531318 -0.00067444926 -0.00036487525 0.0005637522 -0.018898396 -0.12123642 -0.00052720093 0.00014232448
0.00033804664 6.381534e-05 -0.0002505738 -3.0071818e-05 -0.00020304088 0.00016200768 -0.00054353365 -7.2763164e-06
0.09182196 -1.8534249e-05 -0.00024090205 -0.0005517564 4.8704456e-05 -0.00034741618 4.3442247e-05 -0.00013804356
0.00047857454 0.0005219319 -0.0003853952 -3.6739886e-05 9.1860806e-05 -0.00023405797 -0.00018774814 0.00048785305
-5.980001e-05 3.790173e-05 0.0001403653 -0.00056255277 -0.00022550904 1.5051134e-05 0.000379704 -0.00022382425
0.00018714432 0.00030770228 -9.258844e-05 -0.0007836403 -0.0005381887 0.00011948791 -0.00027883935 -0.00030147136
4.237988e-05 -0.0002640755 1.790596e-05 0.00016572466 0.000120342826 -0.0006374531 2.0507441e-05 0.00029717313
-0.00029853277 -0.00016368735 -0.0005515781 -1.7188184e-05 0.00042934148 -0.00090527465 -0.00038368275 9.70771e-05
0.00019197122 -0.00014971937 0.00036758228 -0.00042143208 -0.000662419 -3.2941593e-05 0.0013525402 2.451183e-05
-0.0006255104 -0.00025002076 -0.00019118344 -0.0002562111 -4.6273137e-05 0.00034043376 6.5040316e-05 -3.4026292e-05
-1.995288e-05 7.902585e-05 0.000144937 -0.00046605835 0.00013010333 -0.00012505731 0.00011214866 -0.0003144934

exp_avg f4 [4]
00000000: b7ec 0b3c 68b2 3e3b b993 98bb 1d83 a93a
0.008540324 0.0029098038 -0.004656282 0.0012932752

exp_avg_sq f4 [4]
00000000: 6845 453b 0d71 cf3a 3a48 813a ff79 f639
0.0030101184 0.0015826538 0.0009863444 0.0004701167
