examples/drone/logs/no-percep-5000/model_600.pt (torch, 474922 bytes, 36 tensors)

std f4 [4]
000000 4c 69 fc 3e 39 20 d2 3e 62 c2 d8 3e 46 08 dc 3e
       0.49299085 0.4104021 0.42335802 0.42975062

actor.0.weight f4 [128, 17]
000000 1e bf 35 3f 14 d2 b8 3e fb ee e8 3f 77 60 30 bf
       0.70994747 0.36097777 1.8197931 -0.68897194
000010 0f 6c 59 bf 99 03 ad 3f 29 0e 18 bf c4 01 87 3f
       -0.8493051 1.3516723 -0.59396607 1.0547414
000020 ad 73 06 40 6a dc ef bb 28 d1 51 3e 62 22 96 be
       2.1008103 -0.0073199766 0.20489943 -0.29323107
000030 ef ee 90 3e 2a 59 87 bd 90 95 10 be c3 97 0d 3d
       0.28307292 -0.066088036 -0.14119554 0.03456856
000040 66 74 f5 bc 02 cd 5d 3e b2 13 81 3f bc 53 12 c0
       -0.02996273 0.21660236 1.0084136 -2.2863607
000050 3f d6 0f bc 5b 5c b0 3f 9e dd 44 3f 52 ef f9 be
       -0.008779108 1.3778185 0.7690066 -0.488154
000060 0a c9 21 3e 2d 5f 4e be 27 e2 6f 3d 6b 0a 6f be
       0.15799347 -0.20153494 0.058565285 -0.23343818
000070 be 00 00 bd 07 58 13 bd 53 c4 4f bd 86 f6 0d be
       -0.031250708 -0.03597262 -0.05072434 -0.13863572
000080 b5 78 c8 bc 91 8e de bd 70 0a f9 3c e3 b5 d8 bf
       -0.02447162 -0.10867036 0.030400485 -1.6930507
000090 12 65 b7 3f a3 51 b3 bd fa 28 5f c0 2d a3 0a bf
       1.4327719 -0.08755805 -3.486876 -0.54155236
0000a0 e3 ed 1b 3f 2b 36 53 3e 69 74 5c 3d 3d 29 2e 3e
       0.6090986 0.20626132 0.053821955 0.17007919
0000b0 68 16 99 3d 40 1f 40 be 71 9a 0a 3e a0 8e 09 bd
       0.07474977 -0.18761921 0.13535477 -0.033583283
0000c0 33 de 2f bd e7 3d 80 3d 1e 76 cc 3c 66 63 99 3e
       -0.042936515 0.06261807 0.024958666 0.29958647
0000d0 a4 11 55 3e 35 7d ab 3f d6 c5 f9 bd 30 01 1f bc
       0.2080751 1.3397585 -0.12195937 -0.009704873
0000e0 b1 09 e8 bf 14 10 8c be 03 13 c8 3d d3 ad 57 be
       -1.8127958 -0.27356017 0.09769251 -0.21062402
0000f0 a6 cb 4e be 8c 57 5c 3c f7 b9 b5 be 78 16 60 be
       -0.20194873 0.013448607 -0.35493442 -0.21883571
000100 39 65 17 3d ab bd d6 3d 6f 2e c8 3b 6d 86 8c bc
       0.036961768 0.10485395 0.006109051 -0.017153943
000110 2f 91 6a bf f9 f1 ce 3f 7c fb 88 3f 7c 3c 3c 3e
       -0.9162778 1.6167594 1.0701747 0.18382448
000120 fd b0 fe bc 36 41 8f bf 4b dd 27 3e b5 f6 88 be
       -0.031090254 -1.1191776 0.1639301 -0.26750723
000130 2c b9 4a be 7e 48 2c 3e c3 d9 a7 3e 6d 4e bc be
       -0.197972 0.16824529 0.32783327 -0.36778584
000140 9a 3f ba be 85 f2 f4 bc 9c 7f ae 3d ff a6 f9 bd
       -0.3637665 -0.029900799 0.08520433 -0.12190055
000150 95 a1 85 3d df d5 46 bf 6d 07 16 3e fe 7d 8e 3f
       0.0652496 -0.7767009 0.1465127 1.11322
000160 cb 56 f0 be fc 74 99 be 47 fe 5c 3f f7 ac ea be
       -0.46941218 -0.29972064 0.86325496 -0.45835087
000170 81 32 78 bc d4 01 2b be e5 71 eb be 21 40 87 bc
       -0.01514876 -0.16699916 -0.45985332 -0.016510071
000180 bb 30 9d bd 70 73 da be 62 f2 e5 bc 7d 79 85 3d
       -0.0767531 -0.42666197 -0.028069679 0.06517313
000190 ed 1c b7 bb 2a bc ce bc 4f 8a 85 3f a9 cb 5a bf
       -0.005588165 -0.025236208 1.0432833 -0.8546701
0001a0 c2 31 dc bf 57 e7 e0 bd ed 2f d1 be 1f cc 80 be
       -1.7202685 -0.109816246 -0.40856877 -0.25155732
0001b0 35 ef df 3e 91 70 9a 3d 83 e7 09 3e b8 44 81 3d
       0.43737188 0.075410016 0.13467221 0.06311935
0001c0 d8 4b 8a 3c 30 60 21 3d f4 a8 c8 bd 84 60 ef 3c
       0.016881868 0.039398372 -0.0979785 0.029220827
0001d0 86 81 7a 3d 0f e4 da 3d c5 4f 9c 3d f7 dd 08 3e
       0.06115868 0.1068803 0.07632402 0.13365923
0001e0 34 99 0a 3e 0d e0 fb be 14 e5 44 3e 4b ed 75 3f
       0.13535005 -0.49194375 0.19228011 0.96065205
0001f0 56 1f 9e 3f 3e f4 44 bf 3d de d9 ba 1d 3d 81 bd
       1.2353313 -0.76935184 -0.0016622018 -0.063104846
000200 01 76 08 3e f1 00 27 be 89 0a 2b 3e 21 3d e5 bc
       0.13326265 -0.16308953 0.16703238 -0.02798325
000210 69 04 46 be 63 7e ae bb 75 49 34 bd 99 71 f6 bd
       -0.1933762 -0.005325125 -0.044015367 -0.12033386
000220 22 22 ca bf f7 7c 95 3f 9c 32 64 c0 d6 a9 9d 3d
       -1.5791667 1.1678761 -3.565589 0.07698409
000230 ae f7 c5 3d bd 1d 61 3e f8 07 1c bc 48 43 95 3d
       0.09666382 0.21984 -0.009523384 0.072882235
000240 7b e4 7f be d6 11 2f be f6 94 b3 3c 4f 2b 49 3d
       -0.24989502 -0.17096648 0.021921616 0.049113568
000250 22 ad 25 3e 89 a5 10 3d b1 39 e2 3c db f0 b8 3d
       0.16179326 0.035314117 0.0276154 0.090303145
000260 1f ba 5b 3d 6d 51 80 be fe 6e bf 3d 8e 42 38 3f
       0.053644296 -0.25062123 0.09347342 0.71976554
000270 ce c3 88 3e 13 72 13 bf b2 0f 99 3d c5 4b 04 3e
       0.26711887 -0.5759594 0.07473697 0.12919529
000280 07 10 3d bd d7 6c bc 3e 49 79 4b bf 00 dd cd be
       -0.046157863 0.36801788 -0.7948194 -0.40207672
000290 e3 18 1c 3e b5 db 5f bf c1 78 ca 3e 27 c7 58 3e
       0.15243869 -0.8744462 0.39545253 0.2116972
0002a0 b1 55 af 3e 86 7b dd bd 96 65 ae 3a 49 2b 39 3d
       0.34245065 -0.10814576 0.0013305421 0.045207296
0002b0 83 9c b0 bf e3 90 1b 3f ee b8 4e 3f 3f 65 ed bc
       -1.3797764 0.60767955 0.8075093 -0.028978942
0002c0 30 89 4c 3f 73 1e 99 be 82 14 40 be 8e 21 b6 3d
       0.7989683 -0.29906043 -0.18757823 0.08893119
0002d0 51 86 bf bd 3f 8a af be b7 d5 1a 3e 37 c1 66 bd
       -0.09351791 -0.3428516 0.15120588 -0.056336608
0002e0 d2 43 04 be c3 85 09 3e 01 cd ad bd 90 ae 2f 40
       -0.12916496 0.13429932 -0.08486367 2.7450294
0002f0 28 45 4e 3f fa 8f ad be 93 60 58 be 0f c5 1e be
       0.80574274 -0.33898908 -0.2113059 -0.1550486
000300 ed 29 58 3d e2 f2 26 bf 7f 96 60 bf b5 6a 04 bf
       0.05277436 -0.6521436 -0.8772964 -0.5172532
000310 89 4e 68 bf a2 ce f9 3d 0e 04 bf 3b 04 37 3a be
       -0.90744835 0.12197615 0.005829341 -0.1818505
000320 a8 df fc 3c fa 46 f1 bd f1 5c 62 3c 28 23 5d 3d
       0.030868366 -0.11781116 0.013816104 0.053988606
000330 f8 c6 5f bf 69 0d a3 3e 54 86 cd bf 57 e7 8d be
       -0.8741298 0.3184617 -1.6056619 -0.2771556
000340 0f ab 46 bf 1c ab 06 bd c1 f9 3a 3e 91 bd 07 bd
       -0.77604765 -0.032878026 0.18259336 -0.03313977
000350 e8 78 2c be bd 83 91 be 8c 6e 0d 3d 18 6a f1 bd
       -0.16842997 -0.2842082 0.034529254 -0.11787814
000360 e5 fa 17 3e 20 fb 3b 3e 5a 80 d3 3b 00 9c ae 3d
       0.14841802 0.18357515 0.0064545097 0.085258484
000370 56 7d 21 3d b2 05 32 c0 7a 07 28 be 11 99 53 40
       0.03942617 -2.7815976 -0.16409102 3.3062174
000380 df e6 16 3e 03 ae 6c 3e 2a 07 1f 3d 2d 6b 87 be
       0.14736508 0.23113255 0.03882519 -0.26448956
000390 33 5f 9e 3f 60 ca 90 bc 29 a4 9d 3e 47 bb c4 bd
       1.2372802 -0.017674625 0.30789307 -0.09606033
0003a0 d3 7f 18 be bf 5e 0f 3e af c3 85 3c 44 88 0b 3e
       -0.14892511 0.14000987 0.01632866 0.136262
0003b0 6e ec ab bd d2 d1 5b 3d 28 69 6a bd 6b a6 6c bf
       -0.08394705 0.053666897 -0.05722919 -0.92441434
0003c0 fd 7d 40 3e 6b 60 6a bd b8 9b 59 bf 5b 1e a3 3e
       0.1879806 -0.057220858 -0.8500323 0.31859097
0003d0 37 5e 88 3e 8c 3d 12 be 6e 45 98 3e e0 4b a3 bd
       0.2663438 -0.14281291 0.2974047 -0.079734564
0003e0 08 ea 77 bc 46 31 57 3c 0a 3a 87 bd 6c b9 43 bc
       -0.015131481 0.013134306 -0.06602867 -0.0119460635
0003f0 b7 47 0f bd 57 05 d9 3b 76 cf 97 bd f4 3c d6 3d
       -0.034980502 0.006622951 -0.07412617 0.10460845

actor.0.bias f4 [128]
000000 4a 37 d3 be 6a 90 1c 3d a7 65 f4 3c 14 c1 05 bc
       -0.4125312 0.03822366 0.029833628 -0.008163709
000010 59 f8 0e 3e 37 fe af 3e 71 03 72 bd 1e 83 ff bd
       0.13961925 0.34373638 -0.059085313 -0.124761805
000020 18 1e 01 be 80 81 45 bd f8 06 7a be 78 1b 01 be
       -0.12609136 -0.048219204 -0.24416721 -0.12608135
000030 47 76 06 3c ce 97 87 bd 52 fe f4 3d 73 71 44 3d
       0.00820691 -0.06620751 0.1196257 0.047959756
000040 a2 a6 06 bd b0 93 66 be a9 ea 50 be d5 02 2c bc
       -0.032873757 -0.22517276 -0.20402016 -0.010498722
000050 4e e0 4e bd 75 9b 86 bd 11 a6 86 be f4 bd 00 be
       -0.050506882 -0.0657262 -0.26298574 -0.12572461
000060 26 33 19 3e 7e 95 0e 3e 92 50 72 bd 1d 5c 95 be
       0.14960918 0.13924214 -0.05915887 -0.2917184
000070 d6 77 62 3e d9 e3 db 3d a4 fc a4 bd 88 f6 9c bd
       0.22116026 0.10736818 -0.08056 -0.076642096
000080 b5 a5 86 3c 93 77 23 3e cf b9 62 bd a0 97 96 3e
       0.016436437 0.15963583 -0.055352982 0.29412556
000090 8e 5a a4 be a2 39 7c 3c bc 25 00 bc 50 3a aa 3b
       -0.32100338 0.0153946 -0.007821497 0.0051949397
0000a0 ed 5d c4 be 11 c6 64 3e c0 10 a4 be c2 29 06 be
       -0.3835291 0.22341181 -0.3204403 -0.13101867
0000b0 fc 55 b1 be 91 09 a6 3e 8e d8 64 3e 5d c0 dd bc
       -0.34635913 0.32429174 0.22348234 -0.027069265
0000c0 aa 2b 4f 3e 5d de b3 3d 87 ef 14 3d 10 37 aa be
       0.202315 0.08782647 0.036361244 -0.33245134
0000d0 90 f0 37 be cb 29 09 3e bd fa 20 3d b8 de c7 bb
       -0.17962861 0.13394849 0.039301623 -0.006099548
0000e0 40 70 b0 be 0d d1 d6 3d c9 20 4b 3e a6 6f 0c 3e
       -0.3446064 0.10489092 0.19836725 0.13714465
0000f0 4c 9f 61 bd cf 16 3b 3e a6 3a 7b be 20 7b 96 3e
       -0.055083558 0.1827042 -0.24534091 0.29390812
000100 33 09 b5 3d f2 89 92 3d c1 bf f9 be 5a df 19 3d
       0.08839645 0.07155217 -0.4877911 0.03756652
000110 eb c1 23 be 8a 25 03 3d 14 3f 3b be 02 66 6f be
       -0.15991943 0.032018222 -0.18285781 -0.23378757
000120 68 1e 63 3e 83 81 2c 3e ff 72 4d bd f6 eb 11 be
       0.22179568 0.1684628 -0.050158497 -0.14250168
000130 5c 4f 9e be de 4f d4 3c c4 f0 cd bd 8c 8b 05 be
       -0.3091992 0.02591699 -0.10055688 -0.13041514
000140 f9 70 ba bc 5f 6d 2a 3e 12 c8 02 bd 5a 7c f9 be
       -0.022758948 0.16643284 -0.031929083 -0.48727685
000150 63 3e 89 3e ba e7 7c 3e 4e 12 5f 3e 73 fc 01 be
       0.2680541 0.24697772 0.21784326 -0.12693958
000160 cc 72 58 be e3 1e 59 be 89 84 dc 3d 48 42 9d be
       -0.21137542 -0.21203189 0.107674666 -0.3071463
000170 52 52 99 3e dd d1 c6 3c 01 33 ba 3d 6e 76 56 be
       0.29945618 0.024269992 0.090917595 -0.20943615
000180 07 4c 8e be 24 1e 9a 3e 5b ae 77 3e 49 3b fb 3d
       -0.2779238 0.3010112 0.24187605 0.12267167
000190 d0 f6 0b 3e 3b b4 49 3e f5 fa a0 bc e8 17 20 3e
       0.1366837 0.19697659 -0.019650916 0.1563412
0001a0 d6 e4 f5 bd de 01 84 3e 50 1a 72 bd 45 c3 e7 bc
       -0.120065376 0.25782675 -0.059107125 -0.028291354
0001b0 37 74 55 be 8e 86 62 bd aa f0 82 3e 6a b1 5d 3e
       -0.20845114 -0.055304103 0.25574237 0.2164971
0001c0 d0 8e 08 be dd 59 18 be c0 5c 93 be 36 61 6f 3e
       -0.13335729 -0.1487803 -0.287817 0.23376927
0001d0 43 70 a4 be 25 57 a4 3e 54 67 20 3e d5 65 9e be
       -0.321169 0.32097736 0.15664417 -0.30937067
0001e0 50 c3 fc 3d df 4f 4f 3e 60 d7 25 3e 78 94 5c bd
       0.123419404 0.20245312 0.1619544 -0.05385253
0001f0 ce 2a 23 3d d2 77 7c 3d e6 bc 03 bd 55 1b bd 3d
       0.039835744 0.061637707 -0.03216257 0.09233729

actor.2.weight f4 [128, 128]
000000 4d d2 cf 3d 4d 21 21 3d 05 51 82 3b 11 fd 99 3d
       0.101475336 0.0393384 0.0039769434 0.07518972
000010 64 45 0a bd 27 18 b1 bd df 33 89 3d 12 4a 2f 3d
       -0.033757582 -0.08647185 0.06699347 0.04279525
000020 e0 b0 07 3d a4 7f 28 3e 50 44 a9 bd 40 11 75 3c
       0.033127666 0.16454941 -0.08264983 0.014957726
000030 8b 3f a3 3d 23 26 5d be e1 51 79 bd bb e3 fd 3d
       0.07971104 -0.21596579 -0.0608691 0.12396952
000040 21 56 13 3e df bd 86 bd 1a 6c 9d 3d 82 97 ca 3c
       0.14388324 -0.06579184 0.07686634 0.024730448
000050 a1 5d cf 39 e4 cb 22 be 3c e2 45 3d e7 cf 7e 3e
       0.00039551876 -0.1589809 0.048311457 0.24883996
000060 ca 1b 88 3d 61 6a 28 3e ab 59 65 bc 51 ff fb bd
       0.06645925 0.1644683 -0.013998429 -0.12304557
000070 d6 c7 91 bb 4f 57 59 3d 03 b3 9f bd 91 d0 e0 bd
       -0.004448871 0.05306178 -0.07797816 -0.10977281
000080 74 56 25 3e 7e 3f 07 bb ac 7d 28 3e a3 cc d1 bd
       0.1614626 -0.002063721 0.1645419 -0.102441095
000090 9d a6 ec bd ee 92 05 3d 88 19 cd bc 01 d4 1c 3d
       -0.115552165 0.032610826 -0.025036588 0.03828812
0000a0 a1 bc 89 3d 87 c5 d1 3d 7e 53 81 bd 5f 2e 18 3b
       0.06725431 0.102427535 -0.06314753 0.0023220999
0000b0 5d 7f 7d bd 7c 99 3f bd e6 f0 a5 bd d1 08 a9 3d
       -0.06188904 -0.046777233 -0.08102588 0.08253635
0000c0 b6 93 7d bd 9c ce bd bb 86 fa a4 bc 93 93 97 3d
       -0.061908446 -0.005792452 -0.02013899 0.074011944
0000d0 bf 8a 31 be 1c 56 93 bd c2 f2 8b bd ca cf d1 3d
       -0.17338084 -0.071941584 -0.06833412 0.10244711
0000e0 ab 22 c9 3d 20 e1 d9 3d 56 3a 42 bc 50 a4 dc 3d
       0.098210655 0.10638642 -0.011854729 0.107735276
0000f0 0d 85 22 be a3 2e 41 be 9e e5 ef bc 21 f1 a3 bd
       -0.15871067 -0.18865447 -0.029284295 -0.08004976
000100 96 f6 d9 3c 1f 08 f3 bc a0 14 56 bb d2 a5 95 bd
       0.02660684 -0.029666958 -0.0032666102 -0.07307018
000110 bc 3e 5b bd 26 b6 35 bc ba 6b 3c 3d 0d d2 19 3d
       -0.053526625 -0.011090791 0.046001174 0.037553836
000120 e2 4e 06 3e 10 22 2c bd c9 ee 2b 3e 1b 88 00 be
       0.13116029 -0.042024672 0.16790308 -0.1255192
000130 81 6f 02 3e 2d d2 19 3e 56 63 01 bd af 0e 9a bd
       0.12737848 0.15021582 -0.031588875 -0.07522332
000140 45 ba ce bd 63 e6 43 bd b8 70 00 bd 19 11 fa bd
       -0.10094122 -0.047827136 -0.031357497 -0.12210292
000150 22 f8 a9 bb 69 51 7a bd 1b 1e 7e 3d db b5 28 bd
       -0.0051870504 -0.061112795 0.06204043 -0.041189056
000160 b9 8e 06 3e fb 85 b7 bc e6 9c d7 bd fe 05 e9 3d
       0.13140382 -0.022402754 -0.10527973 0.11378096
000170 21 e4 9a bd cc 5f 75 3d de ad 4b bd fb 86 73 3e
       -0.075630434 0.059905812 -0.04972636 0.2378196
000180 cf 1e f2 bc 03 f5 93 3d 6e cb a4 3d 30 73 bb bb
       -0.029555706 0.07224467 0.08046614 -0.0057205185
000190 e7 bd df 3c 48 a7 73 bd e1 2a c7 bb c9 e7 49 39
       0.027312232 -0.059485704 -0.0060781096 0.000192552
0001a0 05 83 82 3a 0d 8d 22 3d 7f e8 e8 bd 9c 04 14 be
       0.000995726 0.039685298 -0.1137247 -0.14454883
0001b0 bf 32 1b ba 95 9a 3d 3d 7a 59 af 3d 08 3b ae 3d
       -0.00059203425 0.04629 0.08561988 0.08507353
0001c0 43 bc a5 3e 1d ba 99 bd ae 91 06 be 39 d3 2c 3e
       0.32370195 -0.075062014 -0.1314151 0.1687745
0001d0 cc 1d ba 3e e0 a2 2d be c2 90 a8 bc 53 f6 f1 bd
       0.36350858 -0.16956663 -0.020576838 -0.11814561
0001e0 31 87 bc 3d e6 c4 8a 3d 1c b0 8b bd a8 a0 09 bd
       0.09205473 0.06775837 -0.068206996 -0.03360048
0001f0 a8 0d 24 3d 20 85 26 3e aa cf 98 3c 69 bc ac bb
       0.040052086 0.1626172 0.01865371 -0.0052714837
000200 e8 cf 9b be 5a 72 13 3e c2 b4 f1 3e 09 3d 18 bf
       -0.30432057 0.1439909 0.4720822 -0.5946813
000210 6a 06 d5 be 7e 34 2c bf df 02 46 3e de 86 89 3e
       -0.41606456 -0.67267597 0.19337033 0.26860708
000220 35 42 03 bf e8 6e a7 be eb 41 4c be 9d 4d 08 3e
       -0.512729 -0.32701802 -0.1994702 0.13310857
000230 10 b0 9b be 76 c6 80 bc 9f 38 59 3e 49 5b 95 be
       -0.30407763 -0.015719634 0.21213005 -0.29171208
000240 23 5e dd 3d 13 69 1f be 24 66 0a 3d 8a 58 25 3f
       0.10808971 -0.15567426 0.033788815 0.64588225
000250 7f 6f 97 bd 6a 05 e6 3e 52 0a 97 3d 9b f5 1c bf
       -0.07394313 0.44926006 0.07375015 -0.61312264
000260 d0 12 16 3e 52 39 c6 be aa f3 8a be 9b 36 21 be
       0.14655614 -0.38715607 -0.27139026 -0.15743487
000270 d1 a8 07 3e 61 33 e1 be 71 84 84 3e 1d 85 1b 3e
       0.13247992 -0.43984511 0.25882295 0.15187497
000280 b7 67 05 3f 55 aa cd 3e f9 cb 13 3e d2 e9 34 3e
       0.5211138 0.40169016 0.14433278 0.1766732
000290 3d c7 c3 be 06 a1 b5 3e 7d 2e a8 bd 9f e4 37 be
       -0.38237944 0.35474414 -0.08211992 -0.17958306
0002a0 c5 45 d3 3e be 1d 5c 3d ca c2 00 3f 79 22 cd bd
       0.41264167 0.0537393 0.50297225 -0.10016341
0002b0 5f 94 b8 be d1 1b f3 3e 5f 25 4a bf 9d b6 94 bd
       -0.36050698 0.4748216 -0.78963274 -0.07261393
0002c0 34 3d 93 be f4 c8 93 be 29 a2 63 bf bf ed 02 3f
       -0.28757632 -0.28864253 -0.8891931 0.5114402
0002d0 5c 77 09 be 48 8c 25 3e a5 17 f2 3e a2 17 84 3d
       -0.13424438 0.16166794 0.47283664 0.0644982
0002e0 97 68 c1 bd 76 cd 72 3e 80 d8 2a 3d 02 2b 0a bd
       -0.09443777 0.2371119 0.041710377 -0.03373242
0002f0 94 12 18 3e e0 de f7 be 5f 38 af 3e ef 76 c2 3e
       0.14850837 -0.48412228 0.34222695 0.37981364
000300 76 90 2b 3f ae d8 a3 be fb 09 8b bd fe 1a 12 bf
       0.67017305 -0.3200125 -0.06789013 -0.57072437
000310 8e 2f b0 3e fa 57 42 bd 20 40 be 3e 87 3f 54 3f
       0.3441128 -0.047447182 0.37158298 0.82909435
000320 d6 71 92 3a 75 e2 3b be 43 a6 ef 3d 4d 03 d9 bc
       0.0011172842 -0.18348105 0.11701634 -0.026490832
000330 7f 31 79 3e 28 cf 2c 3f b4 87 20 bd 16 91 8c 3e
       0.24335288 0.67503595 -0.039191917 0.27454442
000340 f9 6b ad be 09 ea 87 3d c9 a5 9c 3e 9d 05 0d be
       -0.3387144 0.066364355 0.30595234 -0.13771673
000350 24 b8 82 be a6 6f 43 bd fc a6 ec be 45 03 41 3e
       -0.25531113 -0.047713898 -0.4622115 0.18848903
000360 96 dd 47 3e 65 26 d3 3e ae e5 57 3d 8a 44 38 bd
       0.19518122 0.4124023 0.052709274 -0.04498724
000370 93 7d 14 3f e9 d5 ab be 56 68 f7 be e3 3b 0d bf
       0.5800411 -0.33561638 -0.4832179 -0.55169505
000380 c5 c7 98 3e 7f 0f 52 be 0f 6d 37 bf ab 91 35 3e
       0.29839912 -0.20513724 -0.71650785 0.17731349
000390 df fe d2 be 43 aa 43 be 47 a9 3a bf 43 11 9e 3e
       -0.41210076 -0.19107918 -0.72914547 0.30872545
0003a0 75 25 0d bf 9e 11 9a be 5e 64 96 ba 65 0e 74 be
       -0.5513528 -0.30091566 -0.0011474004 -0.23833616
0003b0 66 23 b9 bd 5f d3 8b be 1e 52 e3 be 13 da 33 bf
       -0.09039955 -0.273097 -0.44398588 -0.7025463
0003c0 43 90 41 3e b9 63 99 be 43 1e e0 3d 28 89 68 3e
       0.18902688 -0.29958895 0.10943272 0.22708571
0003d0 45 53 4f 3e 04 0c 0a 3d a1 fa 37 bc 38 18 85 bd
       0.20246609 0.033702865 -0.011229188 -0.0649876
0003e0 62 22 80 3e aa 39 0b 3e ea 05 bb bd bf 0e 83 be
       0.25026232 0.13596216 -0.091319874 -0.25597188
0003f0 45 a7 e3 bd 73 f8 81 3e f6 41 41 3f 98 17 07 bf
       -0.111158885 0.25384864 0.75491273 -0.52770376

actor.2.bias f4 [128]
000000 47 ea c9 3c 4c d0 8c be 35 1d 75 3c 8a a0 7f bd
       0.024647845 -0.27502668 0.014960577 -0.06240896
000010 71 0e b8 3c b1 4e d7 3b 58 27 93 bd 3a 6a 31 3f
       0.022467824 0.00657066 -0.071852386 0.69302714
000020 25 52 2f bd c7 37 33 3e 26 21 c6 bd 22 e1 4e 3b
       -0.04280295 0.17501746 -0.09674291 0.0031567295
000030 64 a5 1c 3b 87 41 25 be 93 8d 8f bd e8 5e e3 3d
       0.0023902291 -0.16138278 -0.07009425 0.11102086
000040 d3 93 66 bd 8f bf 60 3d ac 9e 2d be f6 e8 d6 3d
       -0.05629332 0.054870185 -0.1695506 0.104936525
000050 a1 ab 08 3e 6a 5e 91 bd 36 46 ce 3e c7 ee f6 bc
       0.13346721 -0.07098086 0.40287942 -0.030143155
000060 7f 95 6d 3d c8 b1 35 3d b1 63 96 3d 49 1e e5 bc
       0.0580039 0.044359 0.073432334 -0.027968543
000070 0c 37 a5 bd 0f dc b1 bd c5 6b fc 3d 7e a1 ce 3c
       -0.0806714 -0.08684551 0.12325243 0.02522349
000080 a0 ee 55 bd 0c bf e7 b7 5a 4a 8e 3d 86 9d 85 3e
       -0.052229524 -2.7626309e-05 0.06947775 0.26096743
000090 a2 71 b9 bc c9 6c 13 bd c0 a2 ca 3c ac 01 9c bd
       -0.022637192 -0.035992417 0.024735808 -0.076175064
0000a0 cc 0a 49 bd 55 d0 0c bf e2 bc dd bd 8b 46 e4 bb
       -0.049082562 -0.5500539 -0.10827042 -0.006966417
0000b0 fd 27 12 3d e4 b5 29 3d f6 c4 19 3d 53 37 cc bc
       0.035682667 0.04143323 0.037541352 -0.024928724
0000c0 fc b4 14 3d df 11 fc 3e 34 6b 8d be 2a ff 22 bc
       0.036305413 0.49232385 -0.27620852 -0.009948531
0000d0 ba d7 22 bd b1 6a a9 bd 32 23 3a 3d 57 ac 9c bd
       -0.039756514 -0.08272303 0.04544372 -0.07650059
0000e0 b6 99 5e 3c 6e ca 0a 3d 89 fe 48 bd ab 93 2a 3d
       0.013586452 0.03388446 -0.04907087 0.041644733
0000f0 ed 81 25 3d 2f 7e 86 3d 44 6d 1b 3e ac 0e af 3d
       0.04040711 0.06567036 0.151784 0.0854772
000100 cc 8f c4 be 91 49 5a be 91 0f 45 bd 93 cc 70 3b
       -0.38390958 -0.21317126 -0.04811055 0.003674303
000110 5d 0b ff bc 92 eb 15 bd a3 f2 e0 3d 6d 23 1a 3e
       -0.031133348 -0.03660161 0.10983779 0.15052576
000120 8d 8f de bc 13 49 05 bf 04 d7 7b bd a9 91 a8 3d
       -0.02716806 -0.5206463 -0.06148435 0.082309075
000130 06 8c 16 bb c2 55 3d 3e 83 f1 ad 3d 2e 28 9d 3d
       -0.0022971644 0.18489745 0.0849333 0.07673679
000140 e7 13 2b be 5d ff 89 3a 32 96 a3 bd 69 20 39 3e
       -0.16706811 0.0010528375 -0.07987632 0.1807877
000150 4c 96 b6 3d 22 f8 ba bd cf 2c 94 3e ab b0 c5 3d
       0.089153856 -0.09129359 0.28940436 0.09652837
000160 aa 86 bb 3e cc 8b 31 3e 1c 78 85 3c 6a 83 21 bf
       0.36626178 0.17338485 0.016292624 -0.63091147
000170 42 a7 90 bd ae ce 95 bb b2 68 9f 3d 12 20 ef bd
       -0.07063152 -0.0045717573 0.07783641 -0.11676039
000180 8e 8c fe bd 11 5f c5 bd c1 b2 d4 bd 70 cd d4 3e
       -0.124291524 -0.09637273 -0.10385657 0.41562986
000190 d9 28 ff be 09 2e 3b 3d 4d 0f 43 3e d7 96 ec bd
       -0.49835852 0.0456982 0.19048806 -0.11552208
0001a0 d2 6c a6 bd ce 1f 30 3d d7 72 98 bd 04 ae 01 be
       -0.081262246 0.04299908 -0.07443779 -0.12664038
0001b0 6e c8 cc 3d 07 71 04 be 72 64 5a bd b9 67 0b 3e
       0.099991664 -0.12933742 -0.05331845 0.13613786
0001c0 43 52 90 bd 8e fd 7c be a7 26 9f bd d6 c3 98 3d
       -0.0704694 -0.24706098 -0.07771044 0.07459228
0001d0 95 95 71 bd 77 44 96 3d 61 1b ea 3d b1 10 b1 be
       -0.058980543 0.073372774 0.11431003 -0.34583047
0001e0 5f af 3b 3e c3 1a 76 bd 2a b9 22 bc 70 95 18 bd
       0.18328618 -0.060084116 -0.009931842 -0.03725189
0001f0 ab c2 00 bd 0e 92 0d 3d 3c f7 ae 3d 87 75 c6 3e
       -0.03143565 0.034563117 0.0854325 0.3876154

actor.4.weight f4 [4, 128]
000000 e7 16 09 3b a0 70 b4 be b2 07 4f bb 15 92 99 bb
       0.0020918192 -0.35242176 -0.003159028 -0.004686604
000010 c3 53 11 ba 57 86 5d 3b e3 18 80 3b 2a dc db 3c
       -0.00055437925 0.0033801997 0.0039092167 0.02683838
000020 63 f9 2c 3e 7d 4b 1e 3e fb 2a 96 3b 91 38 eb 3a
       0.16892008 0.15458484 0.0045827604 0.0017945935
000030 5c 4d 2f bd 7f 8c 05 be 45 64 2c 3b 50 3a a0 ba
       -0.042798385 -0.13041876 0.0026304882 -0.001222441
000040 3f a7 d3 bb 6e f9 6c bb b0 96 90 be 77 44 2f bc
       -0.0064591463 -0.0036159414 -0.28239965 -0.010697476
000050 16 b8 39 bd f1 4f 94 bb 4b 7c e1 3d 9c 8c 29 3b
       -0.045341574 -0.0045261313 0.11010035 0.0025871163
000060 68 2a c6 3b 97 5a b0 bd 8d 3e 3e be de 9f 4a b9
       0.0060475357 -0.08611029 -0.18578549 -0.00019323776
000070 e3 2c 5a ba 85 48 96 3a 06 bd c8 3c eb 3a d9 3d
       -0.00083227287 0.0011465704 0.024504196 0.10606941
000080 ce 8d b4 bb a3 a8 78 ba 85 b0 63 bd 9e fb 35 3d
       -0.0055100685 -0.0009485578 -0.055588264 0.044429414
000090 f8 73 07 bd 04 81 28 bb 34 9d e2 3b 45 47 13 3b
       -0.03306958 -0.0025711665 0.0069157127 0.00224729
0000a0 bd 81 e7 bb fe fc 14 bf 0b 81 9b 3d 5e bf 7f 3e
       -0.0070650266 -0.58198535 0.07592972 0.24975345
0000b0 f3 6f 75 be cf da 82 3d bd 6b c7 3b 15 8c ab b7
       -0.23968486 0.06389391 0.0060858415 -2.045002e-05
0000c0 1d 19 42 bd 6f 1d 82 bb b9 41 5d 3e 61 2d 3e 3a
       -0.04738723 -0.003970794 0.21607102 0.0007254687
0000d0 6f 3e ac bb 2b da 38 bd ab 60 de 3a 10 23 22 3b
       -0.005256466 -0.045129936 0.0016966065 0.0024740137
0000e0 0c 16 44 ba f0 96 fa ba 0d fc 13 3b c0 b8 e8 3a
       -0.0007480092 -0.0019118469 0.0022580654 0.0017755255
0000f0 3e bb 52 3b 4b 2d d4 3a 2e 6c 29 be b5 14 16 3b
       0.0032155062 0.0016187815 -0.16545174 0.0022900526
000100 6e f1 e7 bc a3 85 91 be b0 15 af 3b c2 09 d2 3a
       -0.028313365 -0.2842227 0.0053431615 0.0016024637
000110 d7 79 87 ba 68 f1 e8 3b 3a cf 4a ba b2 77 93 3b
       -0.0010335994 0.007108856 -0.00077365676 0.004500353
000120 78 3d e8 39 7c 85 e7 bc 4c 26 fa 3b 4a 28 59 3b
       0.00044296286 -0.028261892 0.00763396 0.0033135586
000130 71 79 41 3e 3c 5a b8 3e 5b da 7d ba 17 3e c8 ba
       0.18893982 0.36006343 -0.00096837216 -0.0015277293
000140 95 98 12 bb 58 1b 2c be 90 90 87 bb 8b b4 b6 3a
       -0.0022368778 -0.16807306 -0.0041371062 0.0013939304
000150 ae c4 53 ba d2 f0 c6 3d 19 6a bb 3e 5e 6f 10 3c
       -0.0008078319 0.097139016 0.36604384 0.0088156145
000160 c0 81 6d 3e 6d 32 d7 3e ea 35 56 be 26 32 19 bf
       0.23194027 0.4203066 -0.20919004 -0.59842145
000170 c5 34 06 bb 5b 8d ca bb 17 68 07 bd dd 94 9c 3e
       -0.002047823 -0.0061814017 -0.033058252 0.30582324
000180 d7 84 9a 3a 63 79 f9 39 56 9a 63 3b 79 ee 43 3d
       0.0011788857 0.0004758342 0.0034729443 0.047834847
000190 a7 1c 2f bd 54 32 3a 3e 98 50 31 3e c7 b4 a9 3c
       -0.042751934 0.18183261 0.173159 0.020716084
0001a0 50 3c d7 bb c8 13 9e 3b fa f2 3e 3b 1e 3d 41 3e
       -0.006568469 0.0048241355 0.0029136525 0.1887097
0001b0 c5 af 99 bb 82 da 40 3b 6d 2a 88 bb 1a 85 0d bc
       -0.004690143 0.0029427116 -0.004155448 -0.008637691
0001c0 37 23 b3 bb 17 2c 37 be 90 5e 06 bd d8 bd b8 bb
       -0.0054668444 -0.17887913 -0.032805026 -0.0056378655
0001d0 55 e9 32 bb c9 21 c1 bb 34 71 c2 b9 07 46 b9 be
       -0.0027299721 -0.00589392 -0.00037086906 -0.3618624
0001e0 a8 d3 1a 3e 98 66 9f 3b 83 da 7a b9 8b 33 03 3b
       0.15119803 0.004864525 -0.0002392326 0.0020019736
0001f0 98 da b7 3d f7 66 8d 3e af 48 6d 3a 4a ff 3d be
       0.0897724 0.27617618 0.0009051663 -0.18554416
000200 98 b5 4f bb de d7 e1 bc f2 7d 07 b7 7b a0 c1 3b
       -0.0031693932 -0.027568754 -8.075951e-06 0.0059090233
000210 d2 63 a5 3a c7 c2 0d bb 10 a3 23 3a 44 d9 34 3f
       0.001261825 -0.002163099 0.0006242255 0.7064402
000220 ee 3a 2d 3d f8 ab dc 3d 5c e3 b2 bb 80 fa 98 3a
       0.042292528 0.10774988 -0.0054592323 0.0011671335
000230 84 3c d2 3e 78 df e7 bd a2 e9 9e 3a 3c a0 0c bb
       0.41061795 -0.1132192 0.0012124071 -0.0021457812
000240 32 f7 a5 3a 19 d5 8f bb f9 32 70 be 84 62 92 3b
       0.0012662171 -0.004389417 -0.23456945 0.0044673104
000250 7b 60 11 bc e5 15 c7 3a ff fa 84 3d 91 2b a1 3a
       -0.0088731 0.001518902 0.06493186 0.0012296309
000260 96 81 69 bb 2f 58 35 3e 44 0c 43 3e ec 73 4c 3b
       -0.0035630218 0.1770942 0.19047648 0.0031197025
000270 b9 2c f3 ba 9d 04 fd bd 88 29 a0 bd 4b ff da 3c
       -0.0018552757 -0.123543955 -0.078204215 0.026733061
000280 ae 4f f7 3a 7e d0 b0 3b 17 9e 13 bd f6 d0 fe 3d
       0.0018868351 0.005395948 -0.036039438 0.124422
000290 ab 1c 3d 3c 2d a4 c0 37 87 90 08 ba a5 6d da b9
       0.0115424795 2.2964634e-05 -0.00052095245 -0.00041661892
0002a0 31 17 c0 ba c4 50 69 be 4b e3 61 bd e9 51 ff 3d
       -0.0014655349 -0.22784716 -0.055148404 0.12466795
0002b0 09 ba db 3d d1 4e 6d be e8 16 6e bb e2 d4 a8 ba
       0.10728843 -0.23174597 -0.003632957 -0.0012880827
0002c0 7c 2f ea 3d 40 d1 d6 3e 27 24 f8 bd e0 e0 ba ba
       0.11434838 0.4195652 -0.121162705 -0.0014257692
0002d0 a2 6f 21 bb ec e9 15 3f c8 5d c2 bb c7 fd 29 bb
       -0.0024633189 0.5856006 -0.0059315898 -0.0025938617
0002e0 1d 2f a7 3b 04 59 6d 37 8f 2e 0f 3e 0d 4f 88 bb
       0.005102052 1.4147026e-05 0.13982604 -0.004159814
0002f0 cd 7f 9b bb 8a 5f c9 ba 9a a9 ec 3d 8b ca 64 bb
       -0.0047454596 -0.0015363556 0.115557864 -0.0034910764
000300 ed 1e 48 bd e6 65 01 3c f4 3c d6 ba ef 8d a5 3b
       -0.048857618 0.00789783 -0.001634507 0.00505232
000310 27 31 0f 3a 1a 13 6b bb 42 f8 4c ba ee a7 fe 3a
       0.00054623414 -0.003586954 -0.0007818976 0.0019428709
000320 1b cd 79 bb 66 1a e5 bd 7e 94 af 3a fb d6 f4 ba
       -0.0038116637 -0.11186676 0.0013395695 -0.0018679792
000330 bf 7e 0d 3c 8a 26 43 be e9 ad 03 bc 66 cc 21 3b
       0.008636176 -0.1905767 -0.008037069 0.0024688481
000340 99 61 03 3b 3b 54 0b bc df 89 77 bb 88 f6 9d bb
       0.0020047186 -0.008503969 -0.0037771387 -0.0048206486
000350 bf c2 c3 be 0e c6 a0 3b 2c 7c d1 3a d2 87 04 3b
       -0.38234517 0.0049064225 0.0015982441 0.0020222557
000360 0b e7 3b be ec fd 81 3d 6a c0 c5 bc fb e2 02 be
       -0.18349855 0.0634726 -0.024139602 -0.12781899
000370 e3 52 0e ba 1a 8f d9 bb 2a 0f 36 3e 1e 53 0b bd
       -0.0005429221 -0.0066393735 0.17779222 -0.034014814
000380 32 0e 31 ba 85 98 71 ba a5 f1 93 b9 a8 71 86 3e
       -0.00067541294 -0.00092161476 -0.00028218064 0.26258588
000390 47 d6 58 be e0 8e 30 bd b1 27 b4 3e c1 fc b5 3d
       -0.2117549 -0.043105006 0.35186532 0.088860996
0003a0 6c 7b f2 38 22 4f f6 3a 2f d0 f8 bc 25 27 e8 3d
       0.00011562448 0.0018791894 -0.030372707 0.11335591
0003b0 d6 c4 c7 ba 9c f3 aa 3a c6 af 1a bb e8 8f 6a 3a
       -0.0015241157 0.0013042572 -0.0023603304 0.00089478353
0003c0 87 f5 16 3b cd 05 5e be 93 7d d8 3d db b9 f5 3a
       0.002303453 -0.216819 0.105708264 0.0018747406
0003d0 3d 07 29 ba 66 f8 0a 3c c9 de ca 3b 18 b7 1e 3e
       -0.0006447917 0.008482074 0.006191109 0.15499532
0003e0 6a ec ee 3d ae f6 2e ba 5b d0 6a ba 5d a6 03 b9
       0.11666186 -0.00066743314 -0.0008957439 -0.00012555109
0003f0 ec 3e c9 bd 7f 9a 57 3b 90 99 2c bb 22 06 55 3e
       -0.098264545 0.0032898483 -0.0026336648 0.2080312

actor.4.bias f4 [4]
000000 0f 59 36 3e bf bc d8 3e 40 61 8d 3e f6 cb f0 3e
       0.1780741 0.42331502 0.27613258 0.4703061

critic.0.weight f4 [128, 17]
000000 ef a3 89 be 7b 0f 9a be 46 32 9e 3e 00 bb 47 be
       -0.26882884 -0.30089936 0.3089773 -0.19504929
000010 c3 c7 b2 bd 4f 09 3a 3e d4 0c 84 3e c3 ae 85 3e
       -0.08729508 0.18167613 0.25791037 0.26109895
000020 a4 17 ba bb 65 4a 1e be 5a f9 b8 be 83 ce ff bd
       -0.0056790877 -0.15458067 -0.3612774 -0.12490561
000030 42 76 e2 be 8c 7d b4 bd 20 87 58 3d 08 c7 aa 3d
       -0.4423085 -0.08813009 0.05286324 0.083387434
000040 5d e1 f1 3d 11 46 84 bd 2b 03 22 be 1d 25 3a 3f
       0.11810563 -0.064586766 -0.15821521 0.7271288
000050 09 13 83 be 9d ab 58 3e 0d 09 71 3e a9 c4 46 3e
       -0.2560046 0.21159215 0.23538609 0.19410957
000060 25 04 ad bd 4e 2a 55 3d f3 33 fc 3d 75 40 8c 3d
       -0.08448056 0.052042298 0.12314596 0.06848232
000070 70 13 8b 3e b4 08 f8 3d 1c 86 22 bd b2 4f e7 3d
       0.27163267 0.12111035 -0.039678678 0.112944975
000080 d7 32 e1 bc ea ef c3 3c e1 5c 83 3d 38 cb f3 bd
       -0.027490063 0.02391811 0.064141996 -0.11903995
000090 9b 53 c6 3e 3d 2c 8c 3b d3 48 24 be a9 74 39 3e
       0.3873566 0.0042777346 -0.16043405 0.18110909
0000a0 45 cc ef bd 0e f1 5b bd ba 21 f6 be ae 82 24 3e
       -0.11708883 -0.053696685 -0.48072606 0.16065475
0000b0 a3 95 28 be e0 fe b1 3d fc 64 d0 3d a4 41 99 3c
       -0.16463332 0.08691192 0.10175511 0.018708058
0000c0 77 67 07 3e 49 80 c0 3d ef 5a a4 3d d6 b8 9a be
       0.13223062 0.093994685 0.08025157 -0.30219144
0000d0 bc 04 4a bd 41 a2 8c 3f ce 90 e7 bd 5f e4 7d 3e
       -0.04932092 1.0987016 -0.11306916 0.24794148
0000e0 15 58 23 3f fa 1c 26 bf ce b9 46 3e 7f ff 4b 3e
       0.6380628 -0.64887965 0.19406816 0.19921683
0000f0 7a 75 b8 bd 1b 14 40 be ef b0 2e be 2c df 18 be
       -0.09006782 -0.1875767 -0.17059682 -0.14928883
000100 a7 44 ce 3a 53 5a e3 3c 66 03 26 be d7 68 1f 3e
       0.0015737013 0.02775303 -0.16212234 0.15567337
000110 10 e9 51 3e 61 7d 7f bd dd 4c d2 be 84 87 f5 3d
       0.20499063 -0.06237543 -0.41074267 0.11988738
000120 d5 b8 7a 3d 0b 8a 28 be eb 6a 09 3c 8e 3c aa bd
       0.061211426 -0.16458909 0.008387308 -0.08312331
000130 18 c7 5f 3d c1 98 a8 3d fa 92 1b be 18 69 83 bd
       0.05463323 0.082322605 -0.15192786 -0.064165294
000140 77 11 8b be ef e3 bd 3c cd 57 06 be ee f0 31 be
       -0.27161762 0.023179976 -0.13119431 -0.17377064
000150 87 ae 08 3e b0 5a d4 be 8d cf 4c be 59 9f 72 3f
       0.13347827 -0.4147544 -0.2000105 0.94774395
000160 29 ec 9b bd b1 23 9a bd 6e 7f 22 3f 1e a1 bd 3c
       -0.07613403 -0.07526339 0.6347569 0.023148116
000170 63 3f 87 3d 94 ed a5 3c f5 ef 8c 3e a3 41 8d 3d
       0.06603887 0.020254888 0.27526823 0.06897285
000180 79 c2 25 3e 7a 6c dc 3d 26 16 49 3a 29 16 ed bd
       0.16187467 0.10762878 0.0007670842 -0.11576492
000190 37 29 47 be 52 72 cc 3d b7 83 80 bf 7a 3d 51 3d
       -0.19449316 0.09982742 -1.0040196 0.05108402
0001a0 4a f7 59 3f 19 61 00 be a1 b0 84 be 66 94 15 bf
       0.8514296 -0.1253704 -0.25916007 -0.58429563
0001b0 23 17 a2 3d 29 41 01 3f c9 3a 6e be b7 7e 35 be
       0.07914569 0.5049005 -0.23264612 -0.17724119
0001c0 4a b4 e8 bd c1 0b c5 3c 52 ed 3d be 37 43 92 3d
       -0.113625124 0.024053456 -0.18547562 0.071417265
0001d0 3e 70 9b 3c 4d 8e 05 be 8f a6 a7 3c da 09 cb 3d
       0.01897442 -0.13042565 0.020465164 0.099139884
0001e0 15 87 e4 be 6f 66 ec be 6b e3 c1 3d 88 a1 ba 3e
       -0.4463431 -0.461719 0.09467205 0.36451364
0001f0 4d 28 9f 3e ab 6c 4a bc 4c 15 52 3e 54 2f 1a be
       0.31085435 -0.01235501 0.20515937 -0.15057117
000200 1a d0 ae 3d 9c a5 b4 3b e0 f6 0e 3e e1 62 0c be
       0.08535786 0.0055129062 0.13961363 -0.13709594
000210 aa e1 79 bd 55 36 5b 3c 93 18 44 3d be a8 05 3b
       -0.061006226 0.013379653 0.047875 0.0020394768
000220 7f 93 d6 3e fc 53 9d bd 58 e3 2f 3f a0 0e 77 3c
       0.41909406 -0.076820344 0.68706274 0.01507917
000230 58 93 69 3e 1e 11 5e be 13 b5 12 3e cf a7 61 bc
       0.22810113 -0.21686217 0.14326887 -0.013772919
000240 4a c6 50 be cc bb 20 3e 0e 35 8f 3e 2c 60 24 3d
       -0.20388141 0.15696639 0.27970165 0.04013078
000250 4c f0 0b bd b6 8b f1 3d ef 60 f0 3d f4 f4 df 3c
       -0.03416471 0.11794226 0.117372386 0.027338482
000260 00 0b 85 3c aa e1 b5 be 58 67 ec be fb ee 6b bd
       0.016240597 -0.3552373 -0.46172595 -0.057600956
000270 c4 dc 5f 3e e6 ad 2a bf c3 dd 1a 3f 9d a1 39 3e
       0.21861559 -0.666716 0.6049463 0.18128057
000280 0f 22 3a 3e 11 c8 00 3e 48 1e 0b 3e 04 a7 17 be
       0.18177055 0.1257632 0.1358577 -0.14809805
000290 d1 50 34 3d 14 c6 1b 3e de 7e 87 bd bc 67 26 3d
       0.044022385 0.1521228 -0.06615995 0.040626273
0002a0 73 27 2a be 3d 4f 08 3b c7 f8 56 3e 07 65 de 3e
       -0.16616611 0.0020799183 0.20993339 0.43436453
0002b0 92 6b 53 3f 57 d3 8a bd cb c2 0d 3d b8 59 45 be
       0.82586014 -0.06778591 0.034609597 -0.19272506
0002c0 32 da 13 be c3 82 14 3e 46 8a 31 be d1 8c e3 3d
       -0.14438704 0.14503007 -0.17337903 0.11110843
0002d0 09 f2 18 be be 08 3e be 39 f4 d5 bc d3 70 67 bd
       -0.14936079 -0.18558022 -0.026117431 -0.056504082
0002e0 18 b8 53 bd 15 e3 5e 3e fc ce 36 3c 3d 11 05 be
       -0.051689237 0.21766312 0.011157747 -0.12994857
0002f0 14 63 64 bd 19 0f 81 bf a4 10 87 bc 7f 00 ad be
       -0.05575855 -1.0082732 -0.016487427 -0.3378944
000300 b9 6f 72 3f 4b 91 15 bf 15 6e 81 3e bd 0c a3 3d
       0.94701725 -0.58424824 0.25279298 0.07961414
000310 e1 68 39 3e d6 20 95 bd aa 78 d1 3d 30 2e 15 3e
       0.18106414 -0.072816536 0.10228093 0.145684
000320 56 a1 0e bd 75 dd 02 3e ca 26 1e 3e d1 93 34 bd
       -0.03482183 0.12779792 0.15444484 -0.04408628
000330 fb 5c a7 bd 5e d2 9c 3e 4a 3d bc be e4 6a 34 bd
       -0.081720315 0.30629247 -0.3676551 -0.04404725
000340 98 55 b4 3e f3 6b 13 be 97 65 24 bc cf c1 89 3d
       0.35221553 -0.14396648 -0.0100339865 0.06726419
000350 31 96 f0 bd 04 cd c1 bd d7 f9 d7 bd 98 36 c8 bd
       -0.11747397 -0.09462932 -0.105457 -0.09776038
000360 99 01 1a 3e de f8 81 3e ac a7 ce 3b aa 85 b3 bd
       0.15039672 0.25385183 0.006306609 -0.08765729
000370 39 09 22 3e 72 9d 81 be 88 f3 56 bd ca 7f ef bd
       0.1582383 -0.25315434 -0.052478343 -0.11694296
000380 6f 0b 2b be 47 67 cf 3e 84 f5 79 3e 5a 06 11 be
       -0.1670358 0.40508482 0.24410063 -0.14162579
000390 7a b7 2e be d8 49 09 3e b4 9b 8c 3d f5 32 24 3e
       -0.17062178 0.13407075 0.068656355 0.16035064
0003a0 0e 6d 12 bc 3e 21 85 bc 5b 5d 66 3d c0 c3 4d 3e
       -0.0089371335 -0.016251203 0.056241374 0.20094204
0003b0 57 f6 72 3d 0c 5e af 3c 52 51 ff 3d 86 57 af be
       0.05931696 0.02140715 0.124666825 -0.34246463
0003c0 00 cd ee 3d 81 49 5f be 33 39 bf be 54 42 ba 3d
       0.116601944 -0.21805383 -0.37348327 0.09094682
0003d0 11 76 27 be 2b cb 3f 3e 61 dd cb be e8 0a 28 bd
       -0.16353633 0.18729846 -0.39817336 -0.041026026
0003e0 b7 48 18 bd a2 00 94 3e 02 c2 92 be 61 fc 37 bd
       -0.03717872 0.28906733 -0.2866364 -0.04491842
0003f0 7f 7e da bd 2c 4c 14 3d a4 9f 97 3d 5a 2d 15 3f
       -0.106686585 0.036205456 0.07403496 0.58272326

critic.0.bias f4 [128]
000000 52 86 17 be cd da 91 3d 49 36 5b be 96 2b 20 3e
       -0.14797333 0.07121811 -0.21407427 0.15641627
000010 29 1c 9f bd ba 4e cd 3c d6 51 04 be 46 a9 d2 bd
       -0.07769043 0.025061954 -0.12921843 -0.102861926
000020 0f 00 2a be 5d 23 25 3c 58 27 0a bd 19 05 b7 bd
       -0.16601585 0.010079232 -0.033728927 -0.08936519
000030 71 9f 72 3d 7f 2d 10 be 04 3b e8 bd 19 e5 a2 3d
       0.059234086 -0.14079855 -0.11339381 0.07953853
000040 58 16 68 be 66 47 87 bd 59 65 88 bd 01 87 1e 3e
       -0.22664773 -0.06605415 -0.066599555 0.15481187
000050 0c 04 2f bd 1c da dc bd 6b 78 41 3d 32 14 4c bd
       -0.04272847 -0.107837886 0.04723398 -0.049823947
000060 a4 0b f8 3e 05 ad 22 be 0c 05 73 3d 80 f7 35 3d
       0.4844638 -0.15886314 0.059330985 0.044425488
000070 2c 03 1e bd 8d 35 0b bd 27 8e 5e bd 68 10 43 be
       -0.038577244 -0.033986617 -0.054334786 -0.19049227
000080 d1 8a f1 3b 48 3e 72 bd da 5f 80 3d 8e 84 0a be
       0.0073712845 -0.059141427 0.06268282 -0.13527128
000090 64 c1 5e be d2 6a 02 3d 49 0b 79 bd 93 32 99 be
       -0.2175346 0.031840153 -0.060801778 -0.29921398
0000a0 a0 a6 09 3b 44 17 5d bd 5f 8b b1 3e 8a dd 58 3c
       0.0021003857 -0.053977266 0.34676644 0.013236413
0000b0 53 ea 8c 3e 10 fa bc bd 67 21 42 3e de 86 24 3d
       0.27522525 -0.09227383 0.18958054 0.040167682
0000c0 e5 48 ca bd 64 b7 8c bd 62 8b 1a 3d 72 ca 35 3e
       -0.09877185 -0.068709165 0.037730582 0.17753008
0000d0 51 30 36 be e7 ef 3b 3d d4 e5 e9 bd 02 8c 69 3d
       -0.17791869 0.045883086 -0.11420789 0.057018287
0000e0 9f f6 80 3c e6 43 e5 3d dc 80 b0 3c fc ef 59 3d
       0.015742598 0.11194591 0.02154582 0.053207383
0000f0 09 78 e4 bd 8b ff 6c 3c 2f 2c a5 bd 21 be 7d 3d
       -0.111557074 0.014465223 -0.08065068 0.0619489
000100 cb ad ee 3d 01 1f 13 3e 91 e3 39 3e 78 53 ce 3b
       0.11654242 0.14367296 0.18153216 0.0062965713
000110 36 a4 48 be 10 74 97 bd 98 85 c3 bd 21 af cc 3d
       -0.19593892 -0.07395184 -0.09546965 0.09994341
000120 aa e3 f6 bd 2b 9b 60 3c ad ca b5 bc 04 b2 49 bc
       -0.12055142 0.01370887 -0.02219137 -0.012310509
000130 5a 6b 5d 3d 3f 84 8b be 13 68 6d be 8d f8 0b be
       0.054057457 -0.27249333 -0.23184232 -0.13669033
000140 29 45 cb 3d c4 29 5e 3d d6 a3 5e be cf 36 b2 3d
       0.09925301 0.05423905 -0.21742186 0.0870186
000150 ae 87 10 be a4 3e 3c be 27 b5 2a be 5b c3 a0 bd
       -0.14114258 -0.1838327 -0.16670667 -0.07849761
000160 7d dd a8 3d 2e a1 75 3d 61 ee 75 3a 41 df 08 bd
       0.082453705 0.059968166 0.00093815295 -0.033416037
000170 74 5a 33 be 9f 89 c7 3d 3e 51 75 3d 5f 33 72 bd
       -0.17514974 0.09743046 0.05989193 -0.059131023
000180 f4 ee 26 be 26 bf a4 bd 7e e9 39 bd 66 f3 c1 bc
       -0.16302091 -0.08044271 -0.04538869 -0.023675632
000190 56 b2 0e bc 51 63 c7 3c f6 69 16 3e fd f9 ce bd
       -0.008709511 0.02433935 0.14688858 -0.10106275
0001a0 a4 f5 07 be a8 bf bc 3d ba 7f 44 bd a7 1f 13 3e
       -0.13277298 0.09216243 -0.047973372 0.14367543
0001b0 d7 88 9a 3d 0a 08 00 3e ee 76 d0 bd 09 e0 39 3e
       0.075456314 0.12503067 -0.10178934 0.18151869
0001c0 42 b6 d2 bd 8f b3 8f 3d 24 75 91 be 4d 30 4a bd
       -0.10288669 0.0701667 -0.28409684 -0.04936247
0001d0 87 26 5f 3e 7d 93 61 3d 4a 47 98 bc 1e 8f 73 3d
       0.21792041 0.055072296 -0.01858868 0.05946266
0001e0 c0 a6 65 bd ce de 5b bd 27 6e 03 bf e3 d7 28 3e
       -0.05606723 -0.05367928 -0.51339954 0.16488604
0001f0 b9 6e 38 bd 5d b0 d8 3b e0 ea a7 3d d0 72 2b 3d
       -0.04502747 0.006612821 0.08199096 0.04185754

critic.2.weight f4 [128, 128]
000000 7e 93 c4 bd 9b c0 2c bd ff 4d 33 be 23 df 8e 3e
       -0.095984444 -0.04217587 -0.17510222 0.27904615
000010 5d 0d da bd 9a 85 8c 3c 1e 93 ee bd b5 26 5e bd
       -0.1064708 0.01715355 -0.11649154 -0.054236133
000020 a3 97 0c be f5 77 0d 3d b8 03 ec bc d8 6c 08 3e
       -0.1372972 0.034538228 -0.028810367 0.1332277
000030 2c 69 7a 3d 14 35 f4 3d 51 ae 12 be a3 aa 17 3e
       0.061135456 0.11924186 -0.14324309 0.14811186
000040 4a c5 1a 3d cf c3 dc ba 69 b7 b0 3d 97 a8 08 3d
       0.037785806 -0.0016843023 0.08628733 0.033363905
000050 f5 bd 97 bc 6f 1e dc bd c0 8a a9 bd 98 ee e0 3d
       -0.018523196 -0.10747992 -0.082784176 0.10983008
000060 5a 37 65 be cb dc 3e 3d 48 ce 60 be ff 34 fc 3c
       -0.22384396 0.046597283 -0.2195369 0.03078699
000070 c5 01 98 bd 3d 61 a5 bd ce 04 b2 3d 97 aa 45 3d
       -0.074222125 -0.08075187 0.08692323 0.04825839
000080 62 6a d6 3c 6c b3 7d 3d 90 7e 54 bd 5b 4a 0e be
       0.026173774 0.06193869 -0.051878512 -0.13895552
000090 ce 24 ef 3d 25 3b eb 3d 8f 17 a6 bd ac 44 88 bd
       0.11676942 0.1148589 -0.08109962 -0.06653723
0000a0 de 01 8e 3e e5 2f 3d be 44 3e 09 3e e0 0e cd bd
       0.277358 -0.18475302 0.13402659 -0.10012603
0000b0 2c ca 0b 3e c6 75 f6 3d 3b 56 c8 ba d5 42 f6 bd
       0.13651341 0.12034182 -0.0015284488 -0.12024466
0000c0 9d cc 7c 3c 39 33 d6 3a 57 cb 5b bd cd d4 ec 3d
       0.015429643 0.001634217 -0.053660717 0.11564026
0000d0 35 97 b3 3d 69 b8 70 3e 98 fe 95 3c 79 98 15 3e
       0.08769075 0.23507847 0.018309876 0.14608945
0000e0 fd df 44 3e db b3 78 3d d0 8d 74 3d 1e 95 11 be
       0.1922607 0.0607184 0.059705555 -0.1421704
0000f0 b3 d5 8e bd 5e cd d0 3d 08 29 12 3e 44 97 2f be
       -0.06974354 0.10195421 0.14273465 -0.17147547
000100 4d 37 43 3e 2c 45 2d 3e fe e9 b3 3d c9 2f 8f bd
       0.19064064 0.16920918 0.08784865 -0.06991536
000110 75 a1 e0 bc 47 f2 02 be a3 9d f9 3d 12 e5 8a bd
       -0.027420739 -0.12787734 0.1218827 -0.06781973
000120 20 ca 1b bd 83 c5 d7 bd 21 3a dd 3d b8 83 14 3d
       -0.03803456 -0.10535719 0.10802103 0.03625843
000130 56 70 e5 bd 72 de 2a be a5 52 b8 bd 44 45 2c be
       -0.11203067 -0.16686419 -0.09000138 -0.16823298
000140 d3 c2 e0 bd b4 dc c8 3c 88 3e ec bc d6 17 55 3e
       -0.1097466 0.024519302 -0.028838411 0.20809874
000150 05 38 b1 bd a4 d8 08 3d e0 dc bf bd 54 56 c8 bd
       -0.08653263 0.03340973 -0.093683004 -0.09782091
000160 31 1c 22 3d be b4 98 3d ed 14 94 3d 53 9c a3 3d
       0.039577667 0.07456349 0.07230554 0.07988801
000170 22 ec 2b 3e 36 51 83 3e 8d fe 4c 3e d6 09 ce bd
       0.16789296 0.25647897 0.20018978 -0.1006047
000180 88 a2 58 bd 32 31 ef bc 0a fb 08 3e 57 95 7b bd
       -0.052889377 -0.029198263 0.13377014 -0.06142172
000190 6b 82 49 3e 73 8c 53 be 4b 4f d6 bd 9f a4 22 be
       0.19678657 -0.20659046 -0.10464343 -0.1588311
0001a0 9a 31 6c be 48 5d d5 3d 65 e4 05 3d 09 bc a0 3d
       -0.23065796 0.104181826 0.032688517 0.07848365
0001b0 63 05 e5 3d 36 3d 2a 3c 41 4a dc 3d 28 ce 40 3d
       0.11182668 0.01039057 0.1075635 0.047071606
0001c0 f5 24 16 be 9a 87 4b 3d 84 cb 3a bc 85 0c 54 bd
       -0.14662535 0.049689867 -0.011401061 -0.051769752
0001d0 c0 3c 69 3d ea f7 1a 3e 7f b8 b9 bd 86 ad 65 bd
       0.0569427 0.15133634 -0.09068393 -0.056073688
0001e0 af ac 89 bd c3 89 4c 3d bb e7 18 3d 86 17 37 3d
       -0.0672239 0.049936067 0.03733037 0.044700168
0001f0 78 43 8b 3d f5 66 a6 bd 3f 86 34 3d 82 b5 0d be
       0.06799978 -0.08125106 0.04407334 -0.13838771
000200 26 63 83 3e 97 d6 b2 3d 71 e0 5b 3d c7 43 64 3e
       0.25661582 0.08732336 0.05368084 0.2229148
000210 e5 b4 fd 3d 44 c5 de 3e 59 c8 45 3e fd 05 95 be
       0.123880185 0.43509877 0.19314708 -0.2910613
000220 76 5c 89 3e 99 0f 8e 3d c5 48 d3 3e f2 45 bb be
       0.26828355 0.06936569 0.41266456 -0.36576802
000230 20 c6 a0 be 96 66 11 3e 18 38 9c 3d e7 7f a7 3e
       -0.31401157 0.1419929 0.076278865 0.3271477
000240 d0 8e fb 3d ed 1e 83 be b8 b6 c0 bd 40 c1 a9 be
       0.12283099 -0.25609532 -0.09409851 -0.3315525
000250 a3 80 8a 3e cb f3 8f 3e 28 d6 26 be fb c3 30 be
       0.27051267 0.28115687 -0.16292632 -0.1726226
000260 cd 26 95 3e dc bd 5b be fc 5a 57 3e b1 84 33 3d
       0.29131165 -0.21459144 0.21030802 0.043827716
000270 97 63 8e be 4f 7b ad 3e aa b7 00 be 45 82 b5 3e
       -0.27810356 0.3388314 -0.12570062 0.3545095
000280 fd 8c 34 3d e7 c8 72 3c 7e a0 a8 be 95 60 52 3d
       0.04407977 0.014818407 -0.32934946 0.05136164
000290 76 d1 87 3e 2d 8e b8 3d e3 cb a7 3c e3 8e 33 3e
       0.26526994 0.09011493 0.020482963 0.17534976
0002a0 c6 71 28 bd 0a ae 1b be cf f4 b8 be cf 0b 0e 3c
       -0.041124128 -0.1520311 -0.36124274 0.008669808
0002b0 bd 9f 10 3c 04 16 41 be 2a 08 e1 be 9d be 89 be
       0.008827147 -0.18856055 -0.4395154 -0.2690324
0002c0 a7 ea 92 be 49 2d a8 3c e0 71 1c be 0f 94 88 be
       -0.2869465 0.020529406 -0.15277815 -0.2667546
0002d0 78 d8 85 be 6a c4 f3 3d b4 dd 90 3e 08 16 98 3e
       -0.26141715 0.119026974 0.28294146 0.29704309
0002e0 97 94 41 3d 46 ac 36 be c0 4b 54 3e fb c3 2e 3d
       0.047260847 -0.17839155 0.20732021 0.04266737
0002f0 af b2 94 be 89 4e 2d bb ba 83 63 be 20 3f fb bc
       -0.29042575 -0.0026444516 -0.22218218 -0.030669749
000300 92 df b5 3e 7f bc 43 bd 3f b4 7a be 71 5a 82 3d
       0.35522133 -0.047787186 -0.24482821 0.063649066
000310 97 cd 2b 3e ee 28 6d 3d 1c 23 6f be 53 96 9e be
       0.16777645 0.05790036 -0.23353237 -0.30974063
000320 46 2a 07 3e 3f 6e b2 be 8e 0c 50 be 9c 13 a8 3e
       0.1319972 -0.34849736 -0.20317289 0.3282746
000330 b0 0a de bd 51 03 8f bd 34 e2 80 3e e7 ba 77 3e
       -0.10841882 -0.069830544 0.2517258 0.24192391
000340 10 1a 74 3e 77 21 3b 3e 61 d2 da bd b9 ae 01 3e
       0.23838067 0.18274485 -0.10684658 0.12664308
000350 ee 8a 8a be b6 ad ea be e8 28 91 3e c8 40 be 3e
       -0.2705912 -0.45835656 0.28351521 0.371588
000360 4c 98 9c 3d d8 6c 0b be 35 a9 9a be f1 0c cb bd
       0.07646236 -0.1361574 -0.3020722 -0.09914578
000370 24 ae 6f 3e 96 99 90 bd c6 1d 93 bb f2 d7 d7 bd
       0.23406273 -0.07060544 -0.0044896333 -0.10539235
000380 10 dd 2b bd c2 1e 98 3d fe f2 cd be 7a 0b ce bc
       -0.04195887 0.074277416 -0.4022445 -0.025151957
000390 4f 1e d3 be eb 7c 4b be de c3 28 bb 22 82 69 be
       -0.4123406 -0.19871871 -0.0025751512 -0.22803548
0003a0 35 7c 18 3e c9 c6 02 3e cb 83 1c 3e ea 36 38 3d
       0.14891131 0.12771143 0.1528465 0.044974245
0003b0 2e 44 36 3e 8b b2 07 be 0e fc dc 3c c1 1e 14 be
       0.17799446 -0.13251702 0.026975658 -0.14464857
0003c0 92 12 81 bd 17 dd ab be fd fe 42 3e 69 c1 bd bc
       -0.0630237 -0.33567116 0.19042583 -0.023163514
0003d0 4a d5 2e be 17 ad e5 be 80 d2 45 3e 01 d5 1d bd
       -0.17073551 -0.4485862 0.1931858 -0.038533214
0003e0 ef 7e 6f bd 1a a0 9c 3d 84 19 80 3d 23 c4 a7 be
       -0.058470663 0.076477244 0.06254867 -0.32766828
0003f0 8b 84 0e 3d 93 74 52 3e 66 a2 fb be 89 1d 7c bb
       0.03479437 0.20552282 -0.49147338 -0.0038469753

critic.2.bias f4 [128]
000000 ca f6 a7 3a 7d 4a 2f 3d df 84 33 be 54 bd 87 3c
       0.0012814638 0.042795647 -0.17531155 0.01656977
000010 ce 29 19 bd c5 55 f3 bd 33 f3 90 3e 5d 90 5c 3d
       -0.037393384 -0.118815936 0.28310546 0.053848613
000020 71 4e b3 bd 49 8e 30 3e 59 c5 0b bd 27 ab 84 3d
       -0.08755196 0.17241777 -0.034123752 0.06477957
000030 eb d6 0a 3d 99 3e a6 3c 20 ca 2e be 29 c9 55 bd
       0.033896368 0.02029352 -0.17069292 -0.052193794
000040 86 85 07 bd 75 52 17 3f bb ee 66 bb 3e 6b 8f 3a
       -0.033086322 0.59110194 -0.003523751 0.0010941995
000050 b3 9c f2 3d c6 15 6f 3d 33 2e 22 be 22 0b 0f be
       0.11846294 0.058370374 -0.15837936 -0.1396909
000060 08 2e b8 be be ea bf bd 2a cb 1b 3e 98 89 f0 bd
       -0.3597262 -0.093709454 0.1521422 -0.11744994
000070 ab 00 61 be 5b 4b c8 3d 3d b1 76 bd 0e c7 c2 3c
       -0.21972911 0.09779998 -0.06022762 0.023776557
000080 db 94 11 be eb 62 15 3e f9 5b b3 3d ef 30 c9 be
       -0.1421694 0.14588515 0.08757777 -0.39295146
000090 2c ed 3a 3c 8f 45 51 3d 28 6a 1c 3d 79 bc f0 3d
       0.011409085 0.051091727 0.038187176 0.11754698
0000a0 94 d9 eb bc 83 b5 10 3e b5 50 19 3b f2 da 05 be
       -0.028790273 0.14131741 0.0023394052 -0.13071802
0000b0 18 fe 07 3e e0 d4 e9 be 80 b4 2d 3e 54 c1 c0 bc
       0.13280523 -0.45670223 0.16963387 -0.023529686
0000c0 ae 57 b4 bd d8 7c da 3d 2b 71 3f be 5b 70 73 3d
       -0.08805786 0.10668343 -0.18695514 0.059433322
0000d0 f6 51 6a bd 7c 68 2e be 73 68 44 3e d2 91 da 3c
       -0.05720707 -0.17032045 0.19180469 0.02668086
0000e0 52 c6 43 3e c4 81 16 bd af bf e2 bd a7 bd c3 bd
       0.19118622 -0.036744848 -0.11071717 -0.09557658
0000f0 d9 f6 ef 3d b8 95 09 be 81 9d 26 3e 46 04 36 be
       0.11717004 -0.1343602 0.1627102 -0.17775068
000100 ee 25 c7 3d ce b2 df bd 54 bf 8f 3c ca 6a 21 3d
       0.097240314 -0.10922776 0.017547287 0.039408483
000110 dc 5d 25 3e 90 8d 9d bd d5 d2 2f be b2 24 db bb
       0.16149086 -0.076930165 -0.1717027 -0.006687724
000120 3e 92 52 3c e5 3b f5 3d 75 7e d8 3c 2a 1e dc bc
       0.01285225 0.119743146 0.026427487 -0.026869852
000130 18 b4 e4 bd 29 08 39 3d 23 d9 d9 bb d0 cc 69 3e
       -0.11167163 0.045173798 -0.006648199 0.22832036
000140 6e 0f 06 be 66 30 5d 3e 5a cf 5a be 28 b3 aa bc
       -0.13091823 0.21600494 -0.21368161 -0.020837381
000150 3c 8f 18 be 66 77 db bd 89 e4 5f bd 66 45 21 3e
       -0.1489839 -0.10716133 -0.054661307 0.1574913
000160 39 83 a0 bd e9 77 1d bd 1e 9e 1f bd 59 42 80 bc
       -0.07837529 -0.038444433 -0.03896915 -0.015656637
000170 e8 03 62 be 0e a9 5c bc f4 41 6e bd b7 4e 24 3d
       -0.22071803 -0.01346804 -0.058168367 0.04011413
000180 0a 83 1b 3e 3f 18 ff 3d 07 3f 23 be da 8a 05 3e
       0.15186706 0.124557965 -0.15942012 0.13041249
000190 d4 09 79 bd 15 dc cd bd f0 95 89 bd 49 55 d2 3c
       -0.06080039 -0.10051743 -0.067180514 0.025675433
0001a0 4e a5 b5 bd 80 de cf 3d c8 0c 52 bd 7f c4 13 3e
       -0.0886942 0.101498604 -0.05128172 0.14430426
0001b0 7d 0a 9d 3e 93 44 93 bd 22 a1 4c 3d ef a0 a3 3d
       0.30672064 -0.07190814 0.049958356 0.0798968
0001c0 42 06 2f bb 5e cc 3a be 0b e4 11 3e dc 42 d8 3d
       -0.002670661 -0.18242022 0.14247148 0.105596274
0001d0 69 9a 3d be 1a 3f 01 3d d1 50 8f 3d 70 55 58 be
       -0.18515934 0.03155432 0.069978364 -0.21126342
0001e0 d2 ee 3c 3e 1c 5d 8e be c1 32 51 3e 2b f4 2e bd
       0.18450478 -0.27805412 0.20429517 -0.042713325
0001f0 2f 70 5b be 35 8d b7 bc 20 45 b3 bd d3 da f3 ba
       -0.21429513 -0.0224062 -0.08753419 -0.0018604643
